logs/exp1/model_iters_35000.pth (torch, 495376 bytes, 47 tensors)

module.encoder.c1.main.0.weight f4 [32, 3, 3, 3]
00000000: c4fc c53d 977d d7bc c5bb a93c f836 043d
00000010: 191a e03b ae1b 6dba 409d 0f3c 4c5e 8dbd
00000020: 2d07 20bd a47c 7dbd 1ae3 323d 9881 f63c
00000030: d47b a4bd 07fa c6bc 3f47 edbc 6d6a 73bd
00000040: cbb7 823b 0420 4c3c 1b2e 05bd 936e 78ba
00000050: 741c ff3c c62c edbc 146d 16bc c683 3e3d
00000060: 48f2 013d 295d a93c 3af4 4e3d 7879 e1bc
00000070: 96a5 95bb f304 d6bc c2a2 abbc 65fa 93bd
00000080: 7075 51bd 0925 fd3c ffcf 003d b7bb cf3c
00000090: a252 dfbd 542d 1ebd 8961 ddbd 9f7a 71bd
000000a0: e175 8bbd 059e 82bd f40f 7ebc b557 8fbc
000000b0: 844a 36bd 7210 e13c 5a0d dc3c d99f 7e3c
000000c0: 263e 5c3a 403f 903c 9664 a53b c1f7 c53c
000000d0: 6db6 4c3c 5965 d93a 3868 863c a3d0 c83c
000000e0: 33d4 58bc 39f4 ed3c af63 85bc 1944 25bd
000000f0: b17b c9bc 5eec 44bd efae 6dbd 4e3b 4d3d
00000100: 43a9 153d 72c3 e73c b36a 803c 9d85 053d
00000110: 55d6 d53c 389a e23c 7c9b 3e3d 2230 1f3b
00000120: ee65 8cbd e966 b4bd 884d 55bd 7233 60bd
00000130: 1e62 2abd 7e9a 87bd 7d28 82bd 5364 26bd
00000140: 9d7b 30bd d8ee e0bc f6d0 9cbc d770 913d
00000150: b2c5 6e3b 08e7 013d 1679 0b3e b843 953b
00000160: 19cb 8abc 3d2a 033e 6473 133d e96d 2e3d
00000170: 588a 6f3d e234 92bc 9642 60ba 482c 87bc
00000180: 54fe fabc 9dbf 58bd d3cf d2bc 105e 60bc
00000190: 9ffe 4fbb 80d0 933c 471a 893c 241a 8c3c
000001a0: 183e cf3c e100 3b3b efef 92ba f7f6 93bb
000001b0: 9cf8 f738 c384 7a3c c8aa 93bc 82e0 0538
000001c0: edfb d8bc c8cc 96bc b32e 03bb b806 693b
000001d0: 17d0 e8bc 5d16 0abd 63b7 12bd 0455 d13b
000001e0: c587 3d3d 2c41 2a3d 15f2 003d 5aea 58bc
000001f0: 1ebf 1abd 75c0 973b bc1c e2bd ede1 debd
00000200: 68f2 123c f095 0abd cdb7 0b3d da4f c73d
00000210: d5d9 27be 0cf8 bfbd 8bbc a5bb 467d bf3d
00000220: 58aa ce3d 5c1c 163e 6aa6 173b cc3b 4138
00000230: cb06 213c 9836 e3bb faef ecbc b90d 9b3c
00000240: 403b 68bc 59b5 01bd 6d95 4abd 2e6c 07bc
00000250: b751 b1ba d174 3abc 4c16 41bc 909a f43c
00000260: 9e5c 3d3c 9da9 a83c 6cc6 3c3d d1dc 143c
00000270: a769 313d bb75 353c 3285 b5bc 70d1 42b8
00000280: 4618 ef3c 69ed 39bc 1ee4 89bc a6a7 64bd
00000290: f34d 03bd 7bfc cb3c 44e6 903c 8730 123d
000002a0: 8a49 88bc b3ad 733c b330 d33c 7e8f 803b
000002b0: 9389 ab3c d67b 703c 4e76 a93d 2e51 383d
000002c0: b54b 463d bf87 2ebd dc74 d3bd 8e0f 3fbd
000002d0: 167d baba 0503 b0bc 7916 29bd eed5 bf3d
000002e0: d7d5 6c3d 378c a4ba 172c 96bc 1806 febc
000002f0: 11ad ccbd 3b29 0bbd cd11 483d d1de 723b
00000300: d01e ea3c bdc9 883c f5ce be3c 396c 3bbc
00000310: 82ff 7d3b 975a bcbc 917b aa3d 852c 1b3d
00000320: b878 953d d556 3f3d a57d 353d bef7 e33d
00000330: f272 13bc f05a b1bd 35a2 de3b 21e8 9cbc
00000340: 7270 50bc ed0c 04bd fb28 c23c f564 3b3c
00000350: 1ff6 f23c 2ecc 02bd a194 3ebd 2978 c6bc
00000360: 8631 87bc 04df 143c 8ca9 f3bc 8064 c8bc
00000370: 3ad8 023d e244 e73c ed9b bcbc 06c1 a5bc
00000380: f3de 4e3c 8727 cd3b 9b91 30bd 11d2 2e3b
00000390: f476 15bd 68fb 45bb 1d74 06bd 8534 30bd
000003a0: 0336 87bc d154 c4bc 3a19 ca3d 3949 883d
000003b0: 0041 b93d 4cb7 323d 5d3c 493e 10c4 843d
000003c0: 60cb e83b dd29 213d ea93 a13d 9052 033d
000003d0: fbd6 0f3d afee fdbc 4cb0 963d f276 823d
000003e0: f520 133c 17fb fdbc faf5 9a3c 59d5 0cbd
000003f0: 5067 963c 4843 683d be2d 5d3d edee ae3d
0.09667352 -0.026305003 0.020719418 0.032278985 0.0068390486 -0.0009044957 0.008765519 -0.06902751
-0.039069343 -0.061886445 0.043673612 0.030091092 -0.08031431 -0.024289144 -0.028964637 -0.059427667
0.003989195 0.012458805 -0.032514673 -0.0009476926 0.031141497 -0.028952014 -0.00918128 0.046512388
0.031725198 0.020674305 0.05052588 -0.027523741 -0.0045668585 -0.026125407 -0.020951632 -0.07225493
-0.051137388 0.030901449 0.03144836 0.025358064 -0.10904433 -0.038617447 -0.10809619 -0.05895483
-0.06809593 -0.06377796 -0.015506733 -0.017497877 -0.044504657 0.027473662 0.026861835 0.01554104
0.0008401595 0.017608285 0.005047391 0.02416599 0.012494666 0.001658599 0.016407117 0.024513548
-0.013234186 0.029047118 -0.016282884 -0.040348146 -0.024595113 -0.04807698 -0.058028158 0.050105385
0.036538374 0.028291438 0.015675878 0.032598127 0.026103178 0.027661428 0.046535 0.0024290164
-0.06855379 -0.08808691 -0.052075893 -0.054736562 -0.041597478 -0.06621264 -0.06355379 -0.04062302
-0.043086637 -0.02745764 -0.01914261 0.071016006 0.0036433754 0.03171447 0.1362041 0.004555192
-0.016942548 0.12809081 0.035998717 0.042585287 0.058481544 -0.017847482 -0.0008554844 -0.016500607
-0.030638851 -0.05291711 -0.025733864 -0.013694301 -0.003173746 0.018043756 0.016736163 0.017102309
0.025298163 0.002853446 -0.0011210422 -0.0045155245 0.00011824185 0.015290442 -0.01802577 3.191876e-05
-0.026487315 -0.018408194 -0.0020016849 0.0035556983 -0.028419537 -0.033712734 -0.035819422 0.0063883085
0.046272058 0.04156606 0.031480867 -0.0132394675 -0.03777992 0.004631097 -0.11040637 -0.10882936
0.008968927 -0.033834398 0.034110833 0.09732027 -0.1639169 -0.09373483 -0.0050578765 0.09350066
0.10091084 0.14659256 0.0023139962 4.6070476e-05 0.00982828 -0.0069339983 -0.028923023 0.018927442
-0.014174283 -0.031667087 -0.04945891 -0.008265538 -0.0013528381 -0.01138039 -0.011785101 0.029858857
0.011557726 0.02058869 0.046087667 0.00908585 0.04331365 0.011075432 -0.022158239 -4.644826e-05
0.02918638 -0.011348107 -0.016832408 -0.055823945 -0.03205676 0.024900666 0.017687924 0.03569081
-0.016636629 0.014872956 0.025780058 0.0039233556 0.020939624 0.014677962 0.08274518 0.044999294
0.048412044 -0.042609926 -0.103250235 -0.046645693 -0.0014227952 -0.021485815 -0.041281197 0.09366976
0.05782112 -0.0012553994 -0.01833157 -0.031008765 -0.09993947 -0.033974867 0.0488451 0.0037059078
0.028579146 0.016697759 0.023292044 -0.0114393765 0.003875703 -0.022992415 0.0832435 0.037884254
0.07298416 0.04671367 0.044309277 0.111312374 -0.008999573 -0.08659923 0.006794239 -0.019153656
-0.012722122 -0.03223889 0.023701182 0.011437644 0.029658375 -0.031933002 -0.046528462 -0.024227219
-0.016503107 0.009086374 -0.029743932 -0.024461985 0.03194449 0.028231088 -0.02302357 -0.020233642
0.012626397 0.0062608155 -0.04310761 0.0026675502 -0.036490396 -0.0030209664 -0.032825578 -0.043018837
-0.016505247 -0.023966225 0.09868093 0.06654591 0.09045601 0.043631837 0.19651933 0.064827085
0.0071043223 0.039346565 0.078895405 0.03206116 0.03511713 -0.030997602 0.07357845 0.06370343
0.008980026 -0.031003518 0.018916119 -0.03438315 0.01835981 0.05670479 0.0539987 0.08541665

module.encoder.c1.main.0.bias f4 [32]
00000000: 0639 233d 8767 4bbd 221a 57bb 6bbd 3fbc
00000010: 7919 513c ff8a 483b 710f 6e3b b22b 493c
00000020: 7870 093d 50fe 923c 238f acbc f684 9fba
00000030: 6f68 eb3c b427 19bd 4f35 8dbb 9810 9c3b
00000040: 21c2 593c b756 cf3b ee04 4abc fc72 ca3b
00000050: e024 c2bd 9bfa 0a3d 1731 86bd b74e 1bbc
00000060: ce7c 1abd 0045 883c 54c0 02bd 8574 e5bc
00000070: 6bc6 03bd eb0a b93b c519 fd3c d4b7 46bc
0.039849304 -0.04965928 -0.0032821973 -0.011702876 0.012762421 0.0030600426 0.0036325122 0.012278484
0.033554524 0.017943531 -0.021064347 -0.0012170363 0.028736321 -0.03739138 -0.0043093334 0.0047627203
0.013290913 0.006327476 -0.012330277 0.006178258 -0.094796896 0.033930402 -0.06552332 -0.009479216
-0.03771668 0.016634464 -0.0319217 -0.028009662 -0.032171648 0.0056470535 0.030896077 -0.012128789

module.encoder.c1.main.1.weight f4 [32]
00000000: 476b 7e3f ff46 863f c618 803f a99b 763f
00000010: 31c9 7a3f 2d72 6f3f 2447 883f d199 7b3f
00000020: d4c3 823f b717 7e3f ca1d 763f f11b 793f
00000030: 85f9 7f3f 86ce 883f 0faa 753f c0bf 753f
00000040: d87a 803f 709f 753f 92aa 7a3f f4b3 793f
00000050: a9fa 823f 611b 723f b40f 823f 8bff 783f
00000060: eb7d 7e3f a311 843f 5262 803f 8039 803f
00000070: 5129 763f 6262 743f 467c 773f 21fe 823f
0.9938244 1.0490416 1.000756 0.9633127 0.97963244 0.93533593 1.064671 0.9828158
1.0216012 0.99254936 0.96139205 0.9730826 0.9999011 1.0688026 0.95962614 0.9599571
1.0037489 0.9594641 0.9791652 0.9754021 1.0232745 0.94573027 1.0161042 0.9726493
0.99410886 1.0317882 1.0030005 1.0017548 0.96156794 0.9546262 0.96674 1.0233804

module.encoder.c1.main.1.bias f4 [32]
00000000: 6167 a8bd 61f7 d33c 6a37 16be e68f aabd
00000010: 7499 51bd 0638 adbd a7a3 a3bc 38a9 9cbd
00000020: 006c 1cbe 4b2c cfbd 48fa 25be 3bd3 c2bd
00000030: 7a30 9cbd 291f 503d 35e3 82bd 04c2 a9bd
00000040: 62ca 52bd 81b6 49bd 0f6e 91bd a88e 45bd
00000050: aa80 f4bd dbbd c8bd f8ca 90bd 95bb 95bd
00000060: aca8 c6bc 7e88 01be c0d0 86bd 3df5 a8bc
00000070: e2a1 8fbc 492e 13bd 009f 7bbd 832c 82bd
-0.08222843 0.025874795 -0.14669576 -0.08328228 -0.051171735 -0.08457951 -0.019975496 -0.076494634
-0.15275574 -0.1011587 -0.16208756 -0.09512945 -0.07626434 0.050810967 -0.063909926 -0.08288959
-0.05146254 -0.049246315 -0.0710107 -0.04823175 -0.11938603 -0.09801837 -0.07069963 -0.07311169
-0.02425035 -0.12649724 -0.06582785 -0.020624751 -0.017533246 -0.035932813 -0.06143093 -0.06356146

module.encoder.c1.main.3.weight f4 [32, 32, 3, 3]
00000000: fafd e63c ba22 143a 1202 54bc a857 0c3d
00000010: ec5e 343d 4975 2a3c 0c87 77bd a2bb d5bc
00000020: 3c6d 04bd 0ee7 11bd 1536 f13b e325 2bbd
00000030: 7121 4bbd ed6e e8bb 8307 833c 256a a0bc
00000040: 9073 5b3c 50c2 fe3c 6de1 0dbd a823 523c
00000050: d33f bdbb dffd 5fbc 0bf9 fa3c 21ae c3bb
00000060: 4e16 d9bc 9d9e 5f3c 421c 043d 08a7 1d3d
00000070: 52b0 2fbc c65f 6b3d 393b 0f3d 3856 413c
00000080: 307d 1cbd 4959 14bb 84b2 afbc cad5 9b3b
00000090: 2500 19bd 1991 813d 054c e13c bc44 83bd
000000a0: 737b d23b 2250 bcbc e60f 89bc 5e18 a43d
000000b0: d6af 3b3d 7c99 2dbd ec53 1dbd aa25 623c
000000c0: a93a 863c de0e f43a d5fc 0c3c 4cad 56bc
000000d0: cfd8 e1bc c0d5 113d ef68 2e3d ce7a 953d
000000e0: e097 f73d eccb 8bbd e174 0ebe 5be0 1dbe
000000f0: 87c7 1f3c 8d0f 883c d09a f63c 88ec a13d
00000100: 86ca a83d 5802 893d 3902 5abd 5764 11bd
00000110: e7e4 ccbd 57a5 acbc 9c2a f8bc accd 30bd
00000120: dbff 46bc 0341 013d 89a4 45bb 939b 2b3d
00000130: 6887 9dbb e3d3 813c 1a9b 25bb 85b6 d73c
00000140: 91a5 eebc 86f9 633d 656e b03d fd9b 883d
00000150: d8c6 32bd 5eac 053d 27b0 bdbc 52a7 06bd
00000160: 9e1d 92bc 21d5 27bd b83c fdbb 1c60 03bc
00000170: e872 f03b 1385 c43c 4c4b db3c 635a 0f3b
00000180: 71cf 583c 1bd4 93bb a1fa 17bc 9d69 19bd
00000190: c3a0 963d cb7e 263d 7b4e 5ebd da58 283d
000001a0: c4e5 aabb 4626 2bbc 6bcc 883c 03c4 823d
000001b0: 8d39 663c b6f6 d7bb f51d ba3b 86f5 493c
000001c0: 2c5f 083d 9c52 dd3c 8a3e 15bd 37a6 27bc
000001d0: 7f26 0abd 5ef8 2fbc 64a5 863c c633 50bd
000001e0: 49b3 38bc f819 17bc bb77 e23d 65a7 47bd
000001f0: b18c 02bd 268c 2cbd d544 2ebd 2082 7fbc
00000200: 9e21 efba 5d15 0ebd ad11 ce3b fd62 243d
00000210: aa57 4bbd f0d8 c93c 10cc fc3c a468 333b
00000220: 9b75 d8bd b511 6fbc 8e91 6b3d 98ac 5dbd
00000230: cb94 473d dddd 773d 9d35 a4bb 0ec5 9d3d
00000240: 6cb2 09bd cb9a bdbc 8044 46bd 624d 82bd
00000250: 13eb 983c d522 e63c 83bf 73bd 31b1 04bc
00000260: 11b7 afbb 5d4f acbc 44a4 7cbd 616e 073d
00000270: 0a52 433c ccbd 8dbc 6faa 15bd c834 eebc
00000280: 547c 5bbd 8d27 233c 4ebe a1bc 0480 6ebd
00000290: 1073 01bc c253 863c 28cc 033c 5693 533d
000002a0: e230 043c 2971 6a3c 1822 883d 0a90 c8bb
000002b0: 0461 43bc 0d24 5b39 47e7 433b 8b8a 20bd
000002c0: 34b4 f1bc d7c2 05bd 0ae2 c53c e890 953c
000002d0: 03b0 64bd 5948 81bd 8d35 19bd b05b f93c
000002e0: 464d e03c 892b a7bc 7024 813c 5c93 99bc
000002f0: 5a42 193d 9f70 29bb 6f22 5cbb aeed 1a3d
00000300: d320 8bbc a9bd f3bc fe22 21bb 9057 80bc
00000310: 6eb4 24bd 055f 38bc 4de7 04bc c18f d33b
00000320: 2a32 b3bb 05a1 45bd ff95 83bc 9b56 1fbd
00000330: abad c33b 74eb f43c 05b3 253d 66b7 f4bc
00000340: c234 b1ba 127d d4bc e4e7 b1bd 3e35 98bc
00000350: ff4d 9dbd a7fa 2a3b a156 19bd 5cf8 a33c
00000360: 0543 5ebc c894 2fbc cb62 8fbd 54a6 a4bc
00000370: 451f eabc ee7b 2d3d 8d35 153c c2e0 01bc
00000380: f782 72bc 32ee 81bc 9f9f cbbc 2e20 723c
00000390: f236 d9bc e222 cdbb 5cb5 27bc c767 fbbc
000003a0: 46d6 98bc 35b0 ac3a c289 5cbd a1bb 153d
000003b0: 0c99 a3bc 7ec0 31bc b183 8f3d f7cf 433c
000003c0: 8a3e 82bd a808 b4bc dcef 56bd b670 00bd
000003d0: f4bb e43c cf4d 5e3d 9dc4 f2bc 20b0 89bc
000003e0: 1f5f a53d 4734 82ba cb25 543c 8e91 93bb
000003f0: ea8e 88bc e0a1 b9bc 4b4f 033b 586a 6dba
0.028197277 0.00056509266 -0.012939947 0.034263283 0.044035837 0.0104039395 -0.060431525 -0.026090447
-0.032330737 -0.03562074 0.0073611834 -0.04178418 -0.04959244 -0.0070933015 0.015994793 -0.019581864
0.0133942515 0.031098515 -0.03463881 0.012825884 -0.0057754307 -0.013671367 0.030636331 -0.0059716855
-0.026499894 0.013648656 0.03225351 0.03848937 -0.01072319 0.057464384 0.03496859 0.011800341
-0.038205326 -0.0022636226 -0.021447428 0.0047557103 -0.037353653 0.06326503 0.02750207 -0.064095944
0.0064234077 -0.022987429 -0.016731214 0.0801246 0.045821987 -0.042382702 -0.038410112 0.013802925
0.016385393 0.0018620153 0.008605202 -0.013102841 -0.027569203 0.03560424 0.04258054 0.07298814
0.12089515 -0.068260044 -0.13911773 -0.15417616 0.009752161 0.016608978 0.030103117 0.07906443
0.08241753 0.066899 -0.053224776 -0.035496082 -0.10004597 -0.021074934 -0.030293755 -0.043164894
-0.012145962 0.03155614 -0.0030157885 0.041896414 -0.0048074014 0.015848106 -0.002526945 0.02633215
-0.029131683 0.055657886 0.08614806 0.066703774 -0.043646663 0.032635085 -0.023155285 -0.032874413
-0.017836388 -0.04097474 -0.0077281855 -0.00801852 0.0073379166 0.023989236 0.026769303 0.0021873943
0.013233052 -0.004511369 -0.009276063 -0.037454236 0.073548816 0.040648263 -0.054274064 0.04110036
-0.0052153785 -0.010446137 0.016699037 0.063850425 0.014051807 -0.0065906895 0.0056798407 0.012326604
0.033293888 0.02701693 -0.036436595 -0.0102325 -0.03372812 -0.010740368 0.016436286 -0.050830625
-0.011273214 -0.0092225 0.11057993 -0.048743624 -0.031872455 -0.042125843 -0.042546112 -0.015594989
-0.0018244272 -0.034688342 0.006288728 0.040133465 -0.04964415 0.024639577 0.030859023 0.0027375603
-0.105693065 -0.014591624 0.05751186 -0.054119676 0.048725884 0.06051432 -0.005011274 0.07703601
-0.033617422 -0.0231451 -0.04840517 -0.06362416 0.01866678 0.028092781 -0.05950881 -0.008098886
-0.0053623994 -0.021033937 -0.061680093 0.03306425 0.011921415 -0.017302416 -0.03653949 -0.029077902
-0.053585365 0.00995816 -0.019744065 -0.058227554 -0.007900968 0.01639736 0.00804428 0.051654182
0.008068295 0.014309206 0.06647128 -0.0061206864 -0.011924986 0.00020898897 0.002989249 -0.039194625
-0.029504873 -0.032656517 0.024155635 0.018257573 -0.05583192 -0.06312627 -0.037404586 0.030439228
0.027380597 -0.020406501 0.015764445 -0.018747024 0.037416793 -0.002585448 -0.003358986 0.037824325
-0.016983425 -0.029753523 -0.0024587507 -0.015666753 -0.040211134 -0.011253123 -0.008111787 0.006456346
-0.0054686265 -0.048249263 -0.016062735 -0.038900953 0.0059716306 0.029897429 0.04045393 -0.029872607
-0.0013519751 -0.025938544 -0.08686808 -0.018580075 -0.07680892 0.0026089342 -0.03743613 0.020015888
-0.013565783 -0.010716625 -0.07001265 -0.020098843 -0.028579364 0.042354517 0.009107006 -0.007927122
-0.014801732 -0.01586065 -0.024856387 0.01477818 -0.026515458 -0.006260262 -0.010236111 -0.030689133
-0.018656861 0.0013175072 -0.053842314 0.03655589 -0.01997044 -0.010849116 0.0700754 0.011951438
-0.06359585 -0.021976784 -0.05247484 -0.03135749 0.027921654 0.054273423 -0.029634768 -0.016807616
0.080747835 -0.0009933793 0.012948464 -0.0045034355 -0.01666971 -0.022660196 0.0020036276 -0.0009056679

module.encoder.c1.main.3.bias f4 [32]
00000000: 3375 253c abcf 10bb 3942 8fbc 333c 98bb
00000010: 58e5 39bb 071c 15bb df60 17bb 696b 9cbb
00000020: 2d6a 723b 2961 303a 545b a5ba 579c 03ba
00000030: 84b2 21bb 2bd9 ab3b 8240 93bb 6455 e83a
00000040: b075 66b9 2cde e73b 1929 8f3b 0691 adbb
00000050: 0e7d 88bb 1ac5 603b 3613 bfba 94fb 97bb
00000060: 019b 23bb f2b9 ec3a ba9f 42ba 978d 53bb
00000070: b142 8bbb 56a3 aa3b 17b3 67bb 9928 1bbc
0.010098743 -0.0022096436 -0.017487632 -0.004645848 -0.002836546 -0.0022752301 -0.002309851 -0.0047735465
0.0036989555 0.0006728345 -0.0012615719 -0.000502055 -0.0024673054 0.0052443943 -0.004493774 0.0017725644
-0.00021978351 0.0070760455 0.004368913 -0.005296829 -0.0041652983 0.003429717 -0.0014577869 -0.0046381447
-0.0024964216 0.0018060787 -0.0007424314 -0.003228044 -0.0042498936 0.0052074594 -0.0035354549 -0.009470128

module.encoder.c1.main.4.weight f4 [32]
00000000: 42a7 813f 7a6b 6b3f 5e47 813f 6f52 743f
00000010: ab99 613f 6173 823f b509 623f 3fa4 623f
00000020: 0e01 713f 37c2 583f c20a 763f 62a9 7c3f
00000030: 4e41 663f 1f49 703f b246 783f d49c 783f
00000040: a800 723f c05e 6c3f 8fad 6c3f 3018 6e3f
00000050: bc3b 7a3f 46b6 803f db9f 733f cf4c 653f
00000060: d050 6c3f 759f 693f ba4d 733f 180a 7a3f
00000070: c338 793f bc69 653f e93f 653f 69e6 7a3f
1.0129168 0.9196087 1.0099905 0.95438284 0.88125104 1.0191461 0.8829606 0.8853187
0.94142234 0.8467135 0.96110165 0.9869596 0.899434 0.93861574 0.9698287 0.971143
0.9453225 0.9233208 0.9245233 0.9300566 0.977474 1.0055625 0.95165795 0.89570326
0.9231081 0.9125894 0.95040476 0.9767165 0.97352237 0.8961446 0.89550644 0.9800783

module.encoder.c1.main.4.bias f4 [32]
00000000: 7399 55be f787 59bd f96d 95bd 6ec9 0ebd
00000010: f1dc 63bd a9aa 0b3c 1a46 96bd a880 7cbd
00000020: c993 54bd e7b4 01be 301b 0fbd ed85 103c
00000030: c329 ccbd 2ded e2bd abae 80bc cf45 17bc
00000040: c143 07bd b6a0 f3bd 7157 1dbe e768 abbd
00000050: 1830 95bd 651d b4bd 9266 00bc de4e 08be
00000060: b218 d1bd 66ed afbd 0d4d 9dbd 74fe 5ebd
00000070: d484 74bd ebfb 1abe 35d0 23bd 4b9c d5bd
-0.20859317 -0.05310818 -0.07296366 -0.034860067 -0.055630628 0.008524575 -0.073375896 -0.061646134
-0.05189875 -0.12666665 -0.034938037 0.008820993 -0.09968903 -0.11080394 -0.015708288 -0.009232952
-0.0330236 -0.118958876 -0.15365387 -0.08369618 -0.07284564 -0.08794669 -0.007836955 -0.13311335
-0.102097884 -0.08590202 -0.07680712 -0.054441884 -0.059696987 -0.15135162 -0.039993484 -0.10430201

module.encoder.c2.main.0.weight f4 [64, 32, 3, 3]
00000000: 9952 dc3c 5ed3 73bd d22a e9bb e664 8fbc
00000010: a394 9dbd b70c aebc 60bc 25ba 1a43 3bbd
00000020: 0345 53bd edc5 0c3d e384 683d cb77 db3c
00000030: 8793 a7bc 6f11 8cbc 1349 be3b 16a9 4bbd
00000040: a934 473c a263 89bc 3a03 2cbd 0ab2 2abd
00000050: 1488 07bd 6513 303d a8ce 1b3d 2f81 2b3d
00000060: 705f 283c 5fc6 153d f4ec 0b3c a02e 2abb
00000070: 5bba 09bd fc1b c53c c981 19bc 1d81 b2bb
00000080: 4812 87bc f470 a33c 17bb 3fbc 6238 5c3d
00000090: b831 5a3d 5c8e 923d 97aa 5e3d 79a3 093d
000000a0: 704d c13c c22f 28bc ddf7 093d 5779 1b3b
000000b0: 6c7c 0fbd c15b 593d 0556 f73c 8bcb b93a
000000c0: c16f e63c b3f4 e63c d26b b93c cf74 733d
000000d0: 53d9 c3bb a5d4 42bc 33b5 3e3c 73f3 953c
000000e0: 5df0 9b3c 1fd1 fe3c 8ada 113c 3174 87ba
000000f0: fb70 44ba e1a9 e2bc 2fbf 1aba 15a7 83bb
00000100: 050e 9abc edf3 82bd 95c3 10bd 1f93 60bd
00000110: 41c8 59bd 686a 1bbd 0252 06bd 7ec9 5bbd
00000120: 3adc 963d 23ea a93d b3e0 8c3d 48de a43d
00000130: cab1 683d afdf 883d bd59 1a3d 66e3 383d
00000140: 8b36 403d 8fa9 87bc fd8a a5bc a998 ab3a
00000150: 2fc1 24bc bc3b 30bd 7c8b 2bbd 89b8 a2bc
00000160: 7bab c7bb 6d23 65bd 156c e13c 915b 853c
00000170: c332 dd3b 8d4c 0d3d 9b25 303d 9fd2 313d
00000180: 4f84 7e3c 9e40 473c c543 0c3d 86cf 41bd
00000190: b1a6 c1bc 181c d0bd 25c6 903c f51d 263c
000001a0: c11e 4cbd 2530 bc3c fbcc 20bd dabf 30bd
000001b0: 9758 0dbc 966a 94bc f28f 113b 1eb7 753c
000001c0: 08ed 8c3c fed9 34bd 7635 0e3d 7047 903c
000001d0: 8335 103d 58dd 963d 8e18 673d 777e 303d
000001e0: 839b 8d3d e20d 853d 94e7 a13d 2f94 843d
000001f0: a2e9 993d b46c 9f3d 8262 703d d91a 0f3d
00000200: c495 6e3d ce8c 4f3d 702b 923d 6923 dd3c
00000210: 445c 743d 834a 253d d619 613d d0c5 023d
00000220: 3cfe 5abd 6a5a c13b 36db f63b 18d7 1f3c
00000230: 8775 073d fe47 6b3c 4d93 f73b fda4 103d
00000240: c1eb 123c 1cf0 a5bb 3fb2 103b bd12 463d
00000250: b4ab 04bc 54f8 273d d4a4 d53c 37ce 5dbb
00000260: d6d9 303d d9a9 513d ef81 cf3d 6aba ac3d
00000270: eb5e 453d bb8e 943d f9e3 8b3d cf9c ee3c
00000280: 323e b73d 9ded ad3d e750 703d 77f5 303d
00000290: cd28 653d b732 543d 8b77 3a3d eadb 3d3c
000002a0: 449b c73d 3861 ab3d d5ff 643d e535 703c
000002b0: 08d8 803d 0efd a33c 6dbf 56bc 3e9e 913d
000002c0: df40 953c 84f5 3dbc ccde 0f3c e1ca 963c
000002d0: cf23 6cbc 0e2f 0cbd bc58 a13c e210 043b
000002e0: 4fdd 413d f4f5 503c 9e2a 623c 5b62 bcbb
000002f0: 4d57 553c fb27 f2ba f1a9 0a3d 0d6c 1c3d
00000300: e8eb 043d 5058 683c b111 053d 34a7 f73c
00000310: 34c5 3e3d b2c7 3c3d e684 483d 8d6b e7bb
00000320: cd32 d53c 6aa0 cabc 204a 30bc 64a7 89bc
00000330: a330 0c3c 5ce3 c1bc 2cba 4abd 5c21 a03d
00000340: 721b 8f3d 6bad 643d 381f 7e3c e327 dcbc
00000350: d7b9 da3c b881 a4bc 1298 1bbd adb8 fcbc
00000360: 5562 edbc 13ca 173d 4f33 8ebc 7442 65bd
00000370: 06c0 ceba 9bb6 8dbc ba55 4dbd f7d9 b33c
00000380: fa70 b0ba f4bc 2a39 d2d7 23bd 1fc4 19bd
00000390: 6f54 62bd 9081 30bc da05 9abc dcef c1bc
000003a0: e672 7d3c ab43 b8ba bb50 bb3c 6074 ff3c
000003b0: 0f62 cf3b 8f70 e43c 3a13 ba3c 6ead b53c
000003c0: e1d8 8dbb 91f3 2ebd 22f6 07bd bcdb 723c
000003d0: 093c 0c3d 5704 cd3c 0812 cb3c 9643 0e3d
000003e0: ec63 7abc c11f 133d aa37 313d 93b6 223d
000003f0: ff5a 68bc 89d6 8fbc ebaf b2bc cba3 7a3a
0.026894854 -0.059527747 -0.0071157003 -0.017504167 -0.07694366 -0.021246297 -0.00063223206 -0.04571829
-0.051579487 0.034368444 0.056767356 0.02679052 -0.020456089 -0.017098157 0.005807051 -0.0497218
0.012158551 -0.016771141 -0.041995265 -0.041673698 -0.03308876 0.042987246 0.03803888 0.041871246
0.01027666 0.036566135 0.008540381 -0.0025967732 -0.033624988 0.024061196 -0.009369322 -0.0054475204
-0.01648821 0.019951321 -0.011702321 0.05376471 0.05327007 0.07156059 0.054361906 0.033603165
0.023596495 -0.010265293 0.033683646 0.0023723447 -0.035030767 0.05306602 0.030192384 0.001417504
0.02812946 0.028192854 0.02263442 0.05943757 -0.005976835 -0.011891519 0.011639881 0.018304562
0.019035513 0.031105576 0.008902201 -0.001033431 -0.0007493642 -0.027668895 -0.00059031224 -0.0040177205
-0.018805513 -0.063941814 -0.03534277 -0.054827806 -0.053169493 -0.037943274 -0.032793052 -0.053658955
0.07366224 0.08296611 0.068787955 0.08050209 0.056810178 0.06683289 0.037683237 0.04513874
0.046927016 -0.016560344 -0.020207876 0.0013091761 -0.010055824 -0.043025717 -0.04188107 -0.019863384
-0.00609344 -0.055941988 0.027517358 0.016279014 0.006750436 0.034496833 0.043004613 0.043413755
0.0155344745 0.012161402 0.034244318 -0.04731705 -0.023639055 -0.101616085 0.017672608 0.010138978
-0.049834017 0.022972176 -0.039257985 -0.043151714 -0.0086270785 -0.01811723 0.0022211042 0.014997272
0.017202869 -0.044153206 0.034718953 0.017612189 0.035207283 0.07366437 0.0564199 0.043089356
0.06914427 0.064967886 0.07905498 0.06473576 0.07515265 0.07784405 0.058687694 0.034937713
0.058248296 0.05067139 0.07137191 0.026994424 0.059658304 0.040354263 0.05495628 0.03192693
-0.053465113 0.005900671 0.007533456 0.009755872 0.033071067 0.014360426 0.0075554014 0.035313595
0.008967341 -0.0050640237 0.00220789 0.048357714 -0.008097578 0.04100831 0.026079573 -0.0033844837
0.043176495 0.05118737 0.10132205 0.08433993 0.048186224 0.07253786 0.06830592 0.029127507
0.0894741 0.08492587 0.058670904 0.043202844 0.055947114 0.051806178 0.04552416 0.011588076
0.097464114 0.083681524 0.055908043 0.014661287 0.06291205 0.020018127 -0.013107163 0.071102604
0.01821941 -0.01159418 0.008781146 0.018407287 -0.014412834 -0.034224562 0.019695632 0.0020151665
0.047330197 0.012753952 0.013804106 -0.0057490296 0.013021302 -0.001847505 0.033853475 0.038188983
0.03245154 0.014181212 0.032487575 0.030231096 0.046574786 0.04608888 0.048954867 -0.0070623816
0.0260252 -0.024734695 -0.01075986 -0.01680345 0.008556518 -0.023667984 -0.049493954 0.07818863
0.06987657 0.055829447 0.015510373 -0.026874488 0.026699943 -0.020081386 -0.037986822 -0.030849779
-0.028977552 0.037057947 -0.01735845 -0.055971578 -0.001577378 -0.017298987 -0.050130583 0.02195452
-0.0013461404 0.00016282854 -0.040000744 -0.03754055 -0.055256303 -0.010773078 -0.018801618 -0.023673944
0.015469288 -0.0014058253 0.022865644 0.031183422 0.006328828 0.027885703 0.022714246 0.022177424
-0.0043288325 -0.04271275 -0.033193715 0.014822897 0.03423694 0.025026483 0.024788871 0.034732424
-0.015282612 0.035918955 0.043265976 0.039724898 -0.014181851 -0.017558353 -0.0218124 0.000956115

module.encoder.c2.main.0.bias f4 [64]
00000000: c26f 48ba 7d39 48ba d3d1 813a a2cd 01bb
00000010: 6e0d ee3a cad0 ceba 16ea 90ba 557c 003b
00000020: c494 c8b8 e08c 123b 3c80 813b d854 823a
00000030: 51fe 03bb 7439 4339 2f33 2ab9 1a07 3b3b
00000040: e776 9ab9 da91 ea3a ae4d b3ba e084 833a
00000050: adda e3ba 61f3 67ba 22f2 b33a 9356 ac3a
00000060: d1f0 e73b 30fe e23a daf9 2ab9 c7fe 823a
00000070: db77 ce3b b694 a1bb 9503 193b 8869 fa3a
00000080: cdc1 9b3a 9898 0ebb 3950 cab9 ec51 9bba
00000090: be57 e0bb dfdb 8a3a 3ba8 62bb f653 e93a
000000a0: 319b 30bb 5ca7 9b3a bcdc 10b9 01c5 1939
000000b0: 6f4f 3139 2311 0bba f4bd 8eb9 9402 503a
000000c0: a529 c0ba fd79 98bb ff71 4639 d946 8dbb
000000d0: ddec db3a e48a f93a ba8a 41ba 53e9 dcba
000000e0: b5cb 07ba 74c6 cbb9 2b23 0d3c f356 00bb
000000f0: 8c28 243b e6f6 3abb b76a 2a3b e781 9f3a
-0.0007646048 -0.0007637961 0.0009904451 -0.0019806405 0.0018161961 -0.0015778777 -0.0011056091 0.0019605358
-9.564453e-05 0.00223618 0.0039520543 0.0009943498 -0.0020140598 0.00018618052 -0.00016231531 0.0028538168
-0.00029461758 0.001789625 -0.0013679767 0.0010034107 -0.0017383896 -0.0008848217 0.0013728777 0.001314836
0.007078268 0.0017318185 -0.0001630554 0.0009994142 0.006300909 -0.004931058 0.0023348082 0.0019104937
0.0011883319 -0.0021758433 -0.00038588213 -0.0011849976 -0.006846397 0.0010594091 -0.0034585136 0.0017801512
-0.002694797 0.0011875439 -0.0001381514 0.00014664607 0.00016909627 -0.0005304983 -0.00027225877 0.00079349545
-0.0014660849 -0.004653214 0.00018925218 -0.004311424 0.0016778965 0.0019038585 -0.00073830376 -0.0016854204
-0.0005180196 -0.00038867036 0.008614342 -0.0019583076 0.0025048582 -0.002852851 0.0026003548 0.0012169451

module.encoder.c2.main.1.weight f4 [64]
00000000: 45f5 653f 7b93 763f c7fe 593f efd3 7a3f
00000010: 8090 6b3f 768e 733f d2cb 6e3f 060b 8d3f
00000020: 919b 7e3f e217 803f f7c2 803f 35dc 713f
00000030: 68ae 8b3f ba72 6f3f 52a7 8a3f f000 833f
00000040: fe5e 823f 3740 7f3f 6415 7b3f 4fa4 803f
00000050: dd2a 6f3f 97a8 703f e8c8 743f a62b 703f
00000060: b017 7f3f 0956 613f 8242 843f 5007 6c3f
00000070: ee8f 8c3f 166f 7a3f d279 8f3f db73 833f
00000080: bdb7 7d3f 214a 813f 8336 833f 3ab2 773f
00000090: e075 893f 2e3f 823f bbc4 873f 3a0a 803f
000000a0: a4e7 823f 5ee9 833f 66c9 7b3f afc0 6d3f
000000b0: 1344 6e3f 7e92 763f 31fc 7f3f d626 733f
000000c0: 91c4 793f 7216 8e3f 58cd 6c3f f7fb 8e3f
000000d0: a16d 783f 55da 623f 23f8 7c3f 8f04 693f
000000e0: 502c 7b3f b621 703f 3b0a 8d3f 1c9c 793f
000000f0: 5bd5 8c3f f2f1 823f 035d 743f 715e 793f
0.89827377 0.9631879 0.85154384 0.97979635 0.92017365 0.95139253 0.93279755 1.1018989
0.99456125 1.0007288 1.0059499 0.94476634 1.09126 0.93534434 1.0832312 1.0234661
1.0185239 0.9970736 0.98079515 1.0050143 0.9342478 0.9400725 0.9561906 0.938166
0.9964552 0.88021904 1.0332797 0.9219866 1.0981424 0.97825754 1.1209052 1.0269731
0.9910849 1.0100747 1.0251011 0.9675633 1.0739098 1.0175531 1.0606912 1.0003121
1.0226941 1.0305593 0.98354185 0.92872137 0.93072623 0.9631728 0.9999419 0.94981134
0.9756556 1.11006 0.9250083 1.1170644 0.9704228 0.886144 0.98816127 0.9102258
0.9811449 0.9380144 1.1018747 0.9750383 1.1002611 1.0230086 0.95454425 0.9740973

module.encoder.c2.main.1.bias f4 [64]
00000000: 89f9 a2bd 3e76 f1bd f03b 53be 8112 32be
00000010: ea33 fabd 2aca b0bd 9f76 53be 0f31 1dbe
00000020: 13c3 1fbe 0e73 72be 7f52 4bbe 2fa9 c6bd
00000030: 2fae 58be 5ffc e6bd 7182 93bd 8f87 a3bd
00000040: 4ee0 16be 5735 30be 1840 3ebe 8046 32be
00000050: b98b 67be b477 02be 3cc0 d8bd 0048 d8bd
00000060: e33c 04be 1191 32be 0067 0dbd de33 0bbe
00000070: a589 01be 5408 09be 8d08 27bd a423 d1bd
00000080: b924 c2bd c9a3 38be ea57 0dbe 4497 34be
00000090: 77a1 2cbd b17b 31be db9b 28be 6ea5 46be
000000a0: 5170 63be a470 2dbe 9769 cbbd e689 34be
000000b0: 4fc3 bebd 2ba1 76bd e41d 84be 62ff d3bd
000000c0: ebd4 29be 4c29 d7bd 0ccf 24be c758 01be
000000d0: 3fdb 1abe 9ce5 f6bd 810a 4bbe 9fa1 03be
000000e0: f66a 52be b8d7 05be 8696 12bb 1478 62bd
000000f0: e520 5ebe 059f 4fbe e5f6 c5bd ba6d 26bd
-0.07957751 -0.11790131 -0.20628333 -0.17389871 -0.12216933 -0.0863231 -0.20650719 -0.15350746
-0.15601759 -0.23676702 -0.19855689 -0.09700238 -0.21160196 -0.11278605 -0.07202614 -0.0798484
-0.14734003 -0.17207848 -0.18579137 -0.17409706 -0.22611894 -0.12740976 -0.10583541 -0.10560608
-0.12913851 -0.17438151 -0.034522057 -0.13594005 -0.12650163 -0.13382083 -0.04077964 -0.10211876
-0.094796605 -0.18031229 -0.13803068 -0.17635828 -0.042146172 -0.17332341 -0.16465704 -0.19399044
-0.22210814 -0.169375 -0.09932249 -0.17630729 -0.09314596 -0.060212296 -0.25804055 -0.10351445
-0.16585128 -0.10505924 -0.16094607 -0.12631522 -0.15122698 -0.12055513 -0.19828226 -0.12854622
-0.20548615 -0.13070571 -0.002236755 -0.055290297 -0.21692236 -0.20275505 -0.09666232 -0.040631987

module.encoder.c2.main.3.weight f4 [64, 64, 3, 3]
00000000: f052 dabd 2be6 c5bd 812b adbd 11ef 90bd
00000010: 1528 23bd f7c6 83bd a9b6 77bd cf95 3fbd
00000020: dea8 53bd e6eb ebbc c012 11bd 7f34 8cbb
00000030: fcdd 9a3c 1134 9abc 9e5e 933b 3108 55bc
00000040: 5bd7 0dbb c460 4b3b 0a6c 363b 4745 ecbc
00000050: 2716 09ba 4a46 42bc 92ec 743d 00c0 20bc
00000060: e347 e5ba c31f f93c 7ac2 b03b 8b12 223d
00000070: ec09 663d 348c 5b3d 593d 1b3d b5dd 873c
00000080: ae84 353d 6891 00bd 779e 31bd 0c72 72bd
00000090: 63d0 a2bd ca3c 54bd 9ca2 79ba 20b1 34bd
000000a0: b031 82bc 879e 3dbd 8043 f83c 989a 7a3c
000000b0: 9e5c 7c3d 8959 8c3c 10ca 163d dd69 5e3d
000000c0: 11ec e3bc 5384 f2bc f1ef b13c 55ab d1bc
000000d0: d8d3 8ebc 8ea1 fdbb e955 733b 524a de3a
000000e0: fe2b d33b bb83 c4bd 2b01 31bd dd97 1fbd
000000f0: 8fcb f23c 6076 b83c e22f a73c 0fcf 863d
00000100: 2c32 113d 2f7b 313d 7934 3c3d f4f6 3d3d
00000110: 60c9 403d 750c 573d 1b07 333c 6d6a 653d
00000120: 5f99 10bc 0286 9ebc ccf6 81bc bf34 19bd
00000130: 5a3f 00bd 48be 2cbd 6d1a 31bd f883 d7bc
00000140: 86f9 25bd 3b2d fdbc 39fd 6ebc f8a1 9d3c
00000150: a873 753c 589a 963b 691a c53c cdf3 c9bc
00000160: d1b4 59bd df89 c9bc 4ea9 dd3c 8943 5e3c
00000170: 7783 653d 9074 19bc 716a b6ba b993 0dbd
00000180: 3026 943d 8f11 d03c fcdd 333d 81fa 023d
00000190: 5853 193d d2cc 6bba cb87 b93c 7ccb 37bc
000001a0: ac05 273c 6b69 c6bc ffa3 81bd b114 3a3c
000001b0: b496 efbc 4f4a 4dbd b655 37bd 61fc b43c
000001c0: fd28 283d d868 203c 0467 6b3d c1d9 4b3c
000001d0: 2c25 dc3c 3f4f de3c 28ea 82bc 27f4 ca3c
000001e0: 1828 583d 64b0 25bc 00b7 ba3c 9386 c5bc
000001f0: 2e42 d4bd 8202 8dbd da94 ba3c 4cdc 543c
00000200: 9138 ee3c b470 383d bede b8bc 6526 54bc
00000210: e76b afbd 7b9a c3bd 7815 99bd 75cd 98bd
00000220: 5566 c4bd a996 95bd 63b5 7a3d 1055 aa3d
00000230: 7e8d 283d e665 5abc 0261 76bc 792e 65ba
00000240: ae05 a1ba c222 2b3c 8f11 19bc a801 a03c
00000250: 9081 4b3d afd9 bf3b 2bea 563c 775f d93c
00000260: 9641 34bc 7354 a63d 75ae 35bc cdc8 23b6
00000270: c6d3 b6bc bbbe 18bd 52c9 86bd e0c3 efbc
00000280: 4940 c9bd febd b4bd c217 b43d 96bf 713d
00000290: 1f57 5e3d 8526 b9ba b06f 533b 25d3 a6bc
000002a0: 349e 24bc 5bb9 b2bc 0d3f 88bd 5912 9fbc
000002b0: e940 95bd cbf7 d8bc 06d4 cb3a d0f6 48bc
000002c0: bdb3 123d aeb9 6c3b e45b acbc 4f13 a5bb
000002d0: 708d f9bc 485d 57bd f7c6 28bd 9348 26bd
000002e0: 19e8 0bbd 9c32 c5bc c75a 2bbd d87a 793c
000002f0: 1471 57bc de25 1ebc c905 663c 2017 823c
00000300: a7dd d3bc 1b06 95bd 97fe 31bd dca2 dcbb
00000310: 0bbd 8cbc 7cd0 3abd f566 3ebd 522b 2f3c
00000320: 5c95 f3bc 6661 76bc 4646 e53b 819d 38bc
00000330: 8bcc 1dbd 0a46 7ebc 65e9 cd3c 0103 be3c
00000340: a85f 243d 46bf d9bb 3cf0 d9bb 9685 5bbc
00000350: c807 01bd 57be 043c b5e2 fbbc ceea bcbc
00000360: 962f 523d 9019 363b 64a7 323d 94a6 49bd
00000370: 46e5 943c d43d adbb 0521 b63c 7334 2d3d
00000380: 766d d23c 3457 30bd 6b04 b2bd a236 f6bc
00000390: c18d 90bd ee4a 65bd f388 91bd c58b 2abd
000003a0: b43d 8fbd 51f7 e4bc a5f7 22bd d535 00bd
000003b0: 3102 65bd 1908 aabc daf2 90bc f28a 8fbb
000003c0: 0553 8b3d 81bd 303d bec4 a03d 1a85 20bd
000003d0: eb4c 5fbd 7379 32bd d394 c4bc 0234 2ebd
000003e0: afab edbc 5073 39bd 7452 06bd 1077 f8bc
000003f0: c6e8 a3bd 16a3 90bd 9cfc f3bd affb 54bd
-0.1066035 -0.09663042 -0.08455563 -0.07076848 -0.039833147 -0.06434434 -0.060476933 -0.046773728
-0.051674716 -0.028799009 -0.035418272 -0.004278719 0.018904679 -0.018823655 0.004497363 -0.013002441
-0.0021643254 0.0031033019 0.0027835392 -0.028841628 -0.0005229436 -0.0118575785 0.059795924 -0.009811401
-0.0017492737 0.030410653 0.005394277 0.039568465 0.056161806 0.053600505 0.037900303 0.01658521
0.044315986 -0.03138867 -0.043364014 -0.059190795 -0.07949903 -0.051815785 -0.0009522827 -0.044114232
-0.015892833 -0.04629376 0.030305624 0.015295647 0.061611764 0.017132537 0.036813796 0.054300178
-0.027822526 -0.029604113 0.021720858 -0.025594393 -0.017435 -0.007740206 0.0037130064 0.0016959405
0.0064444533 -0.09595438 -0.043214004 -0.038963187 0.02963808 0.022517383 0.020408574 0.06582462
0.03544824 0.043330368 0.04594848 0.04637809 0.047067046 0.052502114 0.010926987 0.0560097
-0.008825629 -0.01935101 -0.015864752 -0.03740382 -0.031310417 -0.042173654 -0.043238092 -0.026308045
-0.040521167 -0.030905357 -0.01458674 0.019242272 0.014981188 0.004596036 0.024060445 -0.024652386
-0.053150956 -0.024601875 0.02705827 0.013565906 0.056033578 -0.00936617 -0.001391722 -0.034564707
0.07233846 0.025398998 0.043912873 0.03197718 0.037433 -0.0008995059 0.022647759 -0.011217948
0.010194223 -0.02422019 -0.06330108 0.011357472 -0.029246666 -0.050119694 -0.044759475 0.022093
0.041054714 0.009790622 0.05747129 0.012442053 0.026873194 0.027137397 -0.015980795 0.024774624
0.05277261 -0.010112856 0.02279234 -0.024112022 -0.10364185 -0.06885244 0.022776056 0.012991976
0.029079707 0.045029357 -0.02256715 -0.012948607 -0.085655026 -0.09550949 -0.07474798 -0.07461063
-0.09589831 -0.07304127 0.06120814 0.08317006 0.041150562 -0.013329959 -0.015037777 -0.00087425817
-0.0012285018 0.010445299 -0.009342565 0.01953204 0.049684107 0.0058548073 0.013117353 0.026534779
-0.011001965 0.08121576 -0.011088957 -2.4405774e-06 -0.022317778 -0.03729127 -0.065813676 -0.029268205
-0.098267145 -0.08825301 0.08793594 0.0590206 0.054282304 -0.001412586 0.0032262616 -0.020364353
-0.010047484 -0.0218169 -0.06652651 -0.019417929 -0.07287771 -0.026485344 0.0015550859 -0.012265876
0.035815943 0.0036121416 -0.02103991 -0.005037702 -0.03046295 -0.052579194 -0.041205373 -0.040596556
-0.034156892 -0.024071984 -0.04183462 0.015227042 -0.0131495185 -0.009652583 0.014039465 0.015880167
-0.025862528 -0.07276555 -0.043455686 -0.0067332815 -0.017179986 -0.045608982 -0.046484906 0.010691481
-0.029734306 -0.01503787 0.0069969026 -0.011268021 -0.038525146 -0.015519628 0.025135705 0.023194792
0.040130287 -0.006645116 -0.0066509526 -0.013398549 -0.03150156 0.008102021 -0.03074775 -0.023061182
0.051314913 0.0027786233 0.043616667 -0.049231127 0.018175732 -0.0052869115 0.022232542 0.042286348
0.02568696 -0.043051913 -0.08692249 -0.030055348 -0.070582874 -0.05597966 -0.07106199 -0.0416372
-0.06994191 -0.02794996 -0.039786953 -0.03130134 -0.055910293 -0.020755814 -0.017693926 -0.0043805772
0.06802944 0.043149475 0.078500256 -0.039189436 -0.054516714 -0.043572854 -0.023996746 -0.042530067
-0.02901253 -0.045275986 -0.032793477 -0.03033021 -0.080033824 -0.07062356 -0.11913416 -0.051997837

module.encoder.c2.main.3.bias f4 [64]
00000000: 21dd e13a 3f25 b4ba 2e47 3738 8775 253a
00000010: a161 ff39 d7b9 5dba b467 fa3a ae2c 8eb7
00000020: d524 19b9 b024 bdb5 c665 62ba f230 2abb
00000030: 6ea3 30ba 4d86 23b9 a49c f4ba 7aca 81b9
00000040: 3f46 79b9 788d 8bba 3775 4d38 34db f739
00000050: 689f 463a bb66 e7b9 9af9 593a d634 7c3a
00000060: 5d6d 343a d950 ab3a 9151 0dba dcde 7a39
00000070: f2db 85b9 637c 14b7 4f70 673a fb88 09b9
00000080: 34f2 f83a 1e9b e0ba 74e4 813a 49b6 c4b9
00000090: 4504 69ba 6858 b13a e1fe 3b3a 83a2 d0ba
000000a0: a969 ad39 9f48 373a 93b9 0a3a 0fdc 1d3a
000000b0: 0c80 4d39 327b 21ba 3c5c 0839 25f6 173b
000000c0: 9b58 bbb9 3c81 983a fa01 3dba 28a3 ae39
000000d0: 4da8 643a 8ab4 903a e797 fdb9 fdf7 7d3a
000000e0: a02b 4439 c46f 343a 863d 3cb9 0330 3c3a
000000f0: bbf0 9eb8 d505 4aba 3035 cdba 461f 113b
0.0017232039 -0.001374401 4.369689e-05 0.00063117634 0.0004871013 -0.0008458173 0.0019104392 -1.6948525e-05
-0.00014604938 -1.4092275e-06 -0.0008636381 -0.0025969115 -0.000673822 -0.00015594922 -0.0018662405 -0.00024755654
-0.00023772659 -0.0010647019 4.8984974e-05 0.0004727483 0.0007576854 -0.00044136294 0.00083150866 0.000962091
0.00068827515 0.0013070359 -0.00053908775 0.0002392488 -0.0002553161 -8.8504485e-06 0.0008828686 -0.00013116367
0.0018993081 -0.0017136072 0.0009910003 -0.00037519846 -0.0008888881 0.0013530375 0.0007171464 -0.0015917573
0.00033075854 0.00069917174 0.0005291935 0.0006021866 0.00019598025 -0.000616002 0.0001300433 0.0023187485
-0.00035733436 0.0011635195 -0.00072100724 0.00033309427 0.00087225885 0.0011040133 -0.00048369096 0.0009688137
0.00018708268 0.00068831095 -0.00017951996 0.0007178785 -7.578867e-05 -0.00077065575 -0.001565611 0.0022143885

module.encoder.c2.main.4.weight f4 [64]
00000000: 896c 713f c739 793f 6d37 7a3f 566f 833f
00000010: 749c 783f f181 7e3f 6a6d 843f 44d9 863f
00000020: ea19 873f 1ce6 783f 4c27 803f 5017 803f
00000030: ae09 7c3f cea3 783f 8509 7f3f 437d 7f3f
00000040: d2f0 7d3f c743 7e3f 2b91 7c3f abb0 6f3f
00000050: aceb 7f3f 5689 813f 21cf 723f db86 7e3f
00000060: 52c2 7f3f b4b1 7d3f b4ff 773f 9245 733f
00000070: 10ea 7c3f 6e8c 743f 0f89 853f 012f 793f
00000080: 5fd0 853f 6a24 813f 741a 7b3f 5b74 7e3f
00000090: 90f1 7d3f 2e5c 803f e525 7c3f 2760 833f
000000a0: 9b47 783f ae4a 7e3f 6073 833f 6c77 773f
000000b0: b6b9 803f b018 803f c11b 813f a4d8 803f
000000c0: c8d7 7e3f 4487 793f 3c58 803f be99 823f
000000d0: a217 7c3f 001b 6c3f e9a0 803f 4c0c 7b3f
000000e0: 2feb 773f 9123 823f f74b 7d3f 75d3 803f
000000f0: d744 783f 616d 653f bba1 7f3f cf97 8a3f
0.94306237 0.97353786 0.97740823 1.0268352 0.9711373 0.99417025 1.034589 1.0535054
1.0554783 0.9722612 1.0011992 1.0007114 0.9845227 0.97124946 0.996239 0.9980051
0.9919559 0.9932217 0.9865901 0.9362895 0.9996898 1.0120037 0.94847304 0.99424523
0.99905884 0.9909928 0.96874547 0.9502803 0.9879465 0.9552678 1.0432452 0.9733735
1.0454215 1.0089238 0.9808724 0.99396294 0.9919672 1.0028131 0.9849532 1.0263718
0.9698426 0.993327 1.0269585 0.966666 1.0056674 1.0007534 1.0086595 1.0066113
0.99548006 0.97472024 1.0026927 1.0203168 0.9847356 0.922287 1.0049106 0.9806564
0.96843237 1.0167104 0.9894404 1.0064532 0.9698004 0.89620024 0.99856156 1.0827578

module.encoder.c2.main.4.bias f4 [64]
00000000: 991c 59be 7d16 edbd 9465 26be e86d 07be
00000010: 3d1c 13be 64f0 a6bd 895a 97bd 6908 b9bd
00000020: 2464 cfbd 867d 15be a260 34be f7fc cfbd
00000030: 0bed 6bbd 45c3 efbd 6ede 02be 0944 27be
00000040: d3a8 90bd 6637 66be d880 edbd b9da 9cbd
00000050: d6cc 08bd 76eb 26be 9740 04be 0e52 78bd
00000060: a527 0bbe a511 a0bd 430e 1bbe 4433 03be
00000070: 03b0 15be 6e1b 01be e297 fbbd d2d3 3fbe
00000080: b014 9a3c a05a 3bbe 757f 21bc 7c5d c2bd
00000090: a179 99bd c218 25be 1430 11bd 8a09 13be
000000a0: 50e4 a1bd 9494 59be e3ff 9dbd 6c8a bdbd
000000b0: de33 1abd 6854 6dbd e249 3ebe 7a78 1fbe
000000c0: 408e 0fbe 3aac 3ebe 1368 9fbd 38e0 a9bb
000000d0: 8980 28be 3af9 48be 6e63 aabd 5250 aabd
000000e0: c80f 18be 6630 ffbc ff1c c7bd a8fd bbbd
000000f0: 1f3c c9bd 0084 d4bd 6958 6dbd 1e37 40bb
-0.21202315 -0.11576555 -0.16249686 -0.1322552 -0.14366241 -0.081513196 -0.07390315 -0.09034807
-0.10126522 -0.14598665 -0.17614987 -0.10155671 -0.05759911 -0.117071666 -0.12780163 -0.16334547
-0.07063451 -0.2248207 -0.115968406 -0.076589055 -0.03339847 -0.16300759 -0.12915264 -0.06062513
-0.13589342 -0.078158654 -0.15142159 -0.12812525 -0.14617924 -0.1260812 -0.12284829 -0.18733147
0.018808693 -0.1829629 -0.009857048 -0.09490487 -0.07493902 -0.16122726 -0.03544624 -0.14359108
-0.07904875 -0.21248084 -0.07714822 -0.092549175 -0.03764712 -0.057941824 -0.18582872 -0.15573302
-0.14019108 -0.18620387 -0.077835225 -0.0051841997 -0.16455282 -0.19626322 -0.08319746 -0.08316101
-0.1484977 -0.031151008 -0.097223274 -0.091792405 -0.0982592 -0.103767395 -0.057945643 -0.0029329727

module.encoder.c3.0.weight f4 [32, 64, 3, 3]
00000000: 06fa 5f3b e362 013d 7a08 f33c 9b13 b6bc
00000010: 4f9e 3c3c ac87 19bd 6588 a93b 0f9c 93bb
00000020: aad6 27bc 2de3 3ebd 9d91 bb3b d973 8e3b
00000030: cc65 5abc d616 92bc a43a 00bd d65f 423c
00000040: 796b 6ebc 4639 00bc 889a dd3b 13a2 46bd
00000050: 1c2e 63bd f227 393c cc2a 373b 90fc d3bc
00000060: 981c b73c 1ac6 4d3d b730 b93c 58dd aa3c
00000070: 37d3 71ba 0a21 283d 4367 0abd 7310 86bc
00000080: 9142 a4bd 771b 273d dbb1 363d 6aa9 2fbc
00000090: cd7b 6cbd 9e7d 6b3c 66a3 143b 3069 7cbc
000000a0: bdc5 e83c ddff e23a 48b2 343c 376c 8a3c
000000b0: 665a f43c be01 5bbd b723 4ebd 5bcf 19bb
000000c0: d991 34bd d809 463d 287b d23c 829f 3dbd
000000d0: 5650 34bd 1029 63bd a307 2bbd 2879 d0bc
000000e0: 4c49 2bbd 4a81 f83b fccc 88bc cc45 043d
000000f0: 368b 6cbd 5455 cfbd e4e1 edbd 8499 15bd
00000100: 885d 21bc 3948 b2bc d552 eebd 6a57 a2bd
00000110: 5c9e bfbd b919 703d bec7 8f3d cf42 153d
00000120: 3577 763c c848 20bd e41e 54bd 469a 39bc
00000130: f6dc a43c ee6f b7bc 2d5e 6f3d ed31 c83b
00000140: 3a8b 523d 1456 8b3c da29 a93c 52f0 153d
00000150: 3256 e43b bb24 bb3c 745d f03b 6a88 0abd
00000160: 0f5f 3cbd 1605 f7ba d75f 623c d324 c63c
00000170: 732a 183c 84dd 90bc 32b1 05bd b7e5 57bd
00000180: 1876 4fbd 1abe 77bc 905d cbbc b416 78bd
00000190: c415 d7bd f67e b8bd 843c 393c f6dd 0abc
000001a0: 0669 08bd 3086 6c3d 3549 36bc 07b3 fa3c
000001b0: 32aa 8b3c 8a36 873d 5f04 653d 33a2 38bc
000001c0: 70d6 c53b c769 b7b9 983d 22bc d145 2dbd
000001d0: 9b91 a0bb a7f6 283d 7286 a73c 6c60 10bd
000001e0: 7c44 3c3d d32a 293d f162 94bc ec09 18bd
000001f0: e4ed 45bd 710e 04bd 25b5 58bc f2bd 543c
00000200: b588 123d d3ce 64bd 3716 1bbd 37b6 853c
00000210: 2379 ca3c c3e2 1d3c ff3c 1c3d 6032 e63c
00000220: 103a a23c 8353 503c 8ac2 2b3d a1ac bb3c
00000230: 7968 683d 900e be39 f67d 743c 9eeb f8bb
00000240: 2d50 14bd 98dd 16bd 6509 8fbc 40bd 513c
00000250: 8c19 71bb a35a 12bc f90b c33d fc02 c03c
00000260: ea21 e93c 6297 5b3d dfe6 d03d 8552 e13d
00000270: fec5 56bc 026c 9cbc 006e 23bd dddb a23c
00000280: 39bd abbc 5f5b 1ebc 84b2 4fbc 0804 f0bc
00000290: d7df 85bc b6ce 25bc bd74 1ebd c8c6 ca3b
000002a0: 6ef4 70bd 14e2 e5bc 6c24 5bbb a2df 463d
000002b0: c900 923d cb95 4c3d 9ac7 7b3d 1665 e93c
000002c0: 3e5d fb3c 4cc3 af3c acf5 a93c 5158 313d
000002d0: 2c52 863c a742 113c 87b7 263d 48ba 40bd
000002e0: 617f b7bc b90c f13c 04e4 1c3d 2d3a 0b3d
000002f0: 7b38 3a3d b933 0dbd ff3c 9fbc ed24 84bc
00000300: 36d1 3bbd d1d3 e1bb b861 c43c ee21 4bbe
00000310: 6933 9fbd 87ae e1bd 4cf9 edbc fa3d 2cbd
00000320: 4444 d4bc 864d 1d3d 91cb c8b9 430b a73c
00000330: c242 efba dec2 1a3d 4f5b 97bb 8804 3ebd
00000340: 0a53 f9bb 6698 c4bc 24dc 45bc 6e1c b1bc
00000350: 3ef0 28bc 017f 32bd 8778 6bbd 3559 31bc
00000360: 2c8a 353c 2c67 08bc 1a44 6bbc 04c1 b0bd
00000370: 3371 3abc f8d2 b9bc a559 bebc 2dd9 dc3c
00000380: 7e3f 9cbc 4a6d be3a c439 e3bc 878b 59bc
00000390: a755 cb3c 5ab6 a53b a8c2 03bd 887b 6cbc
000003a0: ca6a 33bb da29 09bd 0241 92bd f225 7abd
000003b0: c04a 1dbd c7b4 5ebc d052 1d3c ee10 8a3c
000003c0: 534c 7cbd f995 41bd c6f9 31bd fa13 37bc
000003d0: 272d a7bc 2e57 82bc 0f22 0a3d b701 be3c
000003e0: f16a 1b3d 9c8e b73c bd7b 8c3c 37e5 e63c
000003f0: 421b cf3c d8f8 15bc 77a7 b33c 4510 3bbc
0.0034176125 0.031588446 0.029667128 -0.022226145 0.011512353 -0.037482902 0.00517373 -0.0045046876
-0.010244051 -0.04660337 0.0057241456 0.004347306 -0.013329934 -0.017833155 -0.031305924 0.011863669
-0.014551991 -0.007826155 0.0067628063 -0.04849441 -0.055463895 0.011301028 0.0027949093 -0.025877267
0.022352502 0.050237752 0.022606237 0.020857498 -0.0009224894 0.041047134 -0.033789884 -0.016365265
-0.08020509 0.040797677 0.04460321 -0.010721544 -0.057735253 0.014373211 0.00226804 -0.015405938
0.028414601 0.0017318685 0.011028834 0.016897304 0.029828262 -0.05346846 -0.05032703 -0.002346954
-0.044084404 0.04834923 0.025693491 -0.046294697 -0.044021927 -0.055459082 -0.04175533 -0.025448397
-0.04181795 0.007583772 -0.016699307 0.032293126 -0.05774995 -0.10123697 -0.11615351 -0.036523357
-0.00984896 -0.021762954 -0.11636893 -0.07926829 -0.093563765 0.05861828 0.0702052 0.036440667
0.01504307 -0.03913191 -0.051787272 -0.011328286 0.020124894 -0.02239224 0.058439422 0.0061094672
0.051402308 0.017008819 0.02064984 0.03660614 0.006968283 0.022844663 0.007335359 -0.0338215
-0.045989092 -0.001884612 0.013816795 0.024187481 0.009287464 -0.017683752 -0.03263969 -0.052709308
-0.050649732 -0.015121007 -0.024824888 -0.060568526 -0.10502198 -0.09008591 0.011305932 -0.008475771
-0.033303283 0.05774516 -0.011125852 0.030602945 0.017048929 0.066021994 0.05591237 -0.01126914
0.006037526 -0.0003498329 -0.00990238 -0.04230291 -0.00490017 0.04125085 0.02044985 -0.035248205
0.04596375 0.041300606 -0.018113585 -0.037118837 -0.048322573 -0.032240335 -0.013226782 0.01298474
0.035774905 -0.055861305 -0.037862983 0.016322238 0.024715966 0.009636584 0.038144108 0.028100193
0.019803077 0.012715223 0.041933574 0.022909464 0.056740258 0.00036250474 0.01492261 -0.007596447
-0.036209274 -0.036832422 -0.017460534 0.012801468 -0.0036788909 -0.008932742 0.09523768 0.023438923
0.028458554 0.053611167 0.10200285 0.110020675 -0.013108728 -0.01909447 -0.039899826 0.01988023
-0.020964252 -0.009665339 -0.012676839 -0.029298797 -0.016342087 -0.0101200845 -0.03868555 0.0061882474
-0.058826856 -0.028061904 -0.0033438457 0.048553117 0.07129056 0.04994754 0.06146965 0.028490584
0.03068411 0.02145543 0.020747028 0.043297116 0.016396604 0.008865989 0.04070237 -0.04705265
-0.022399606 0.029425012 0.03830339 0.033991028 0.04546402 -0.034473155 -0.019438265 -0.016130889
-0.045853816 -0.0068917056 0.023972377 -0.19837162 -0.077734776 -0.110196166 -0.029049538 -0.042051293
-0.025911458 0.03840401 -0.0003829864 0.020391112 -0.0018254148 0.037783496 -0.004619039 -0.04639104
-0.007608776 -0.02399845 -0.012076411 -0.021620002 -0.010311184 -0.04357815 -0.05748799 -0.010824491
0.011080306 -0.008325379 -0.014359498 -0.08630565 -0.011379528 -0.022683606 -0.023236105 0.026959026
-0.019073244 0.001452842 -0.027737506 -0.013277895 0.024821116 0.0050571384 -0.03216806 -0.014433749
-0.0027376884 -0.03348718 -0.071413055 -0.061071344 -0.038401365 -0.013592905 0.009602264 0.016853776
-0.061596226 -0.047262166 -0.043451093 -0.011174196 -0.020407273 -0.015910711 0.033723887 0.023194177
0.037943784 0.022406869 0.017148847 0.02818547 0.025281552 -0.009153567 0.02193044 -0.011417453

module.encoder.c3.0.bias f4 [32]
00000000: 31c4 943a bac2 31ba da0d 853a ed3c bb3a
00000010: 50af fa37 5cc2 693a 0dc6 103a eaf7 cbba
00000020: 5b0e 403b dd1e 76ba 87d4 f139 7762 88ba
00000030: 3f51 23ba 803e 443b 3612 2c38 478e 4cba
00000040: 4142 04bb d4da 05bb 3032 5e3b a2a4 c039
00000050: 3bb7 25b8 e968 fb39 d882 83ba 1e7c d1b9
00000060: 6660 953a 6822 47ba 766f a739 b455 953a
00000070: 2e77 8cba f1bf dcba 288f afba a8ae 1f3a
0.0011349974 -0.00067810307 0.0010151223 0.0014285125 2.9883959e-05 0.00089172064 0.0005522676 -0.0015561555
0.0029305432 -0.0009388754 0.00046125447 -0.0010405321 -0.0006230063 0.002994448 4.1024956e-05 -0.00078031834
-0.0020181092 -0.0020424621 0.0033904426 0.00036743755 -3.9509712e-05 0.00047952615 -0.0010033501 -0.0003995606
0.0011396527 -0.00075963745 0.00031935767 0.0011393339 -0.0010716671 -0.0016841871 -0.0013394104 0.00060913945

module.encoder.c3.1.weight f4 [32]
00000000: d2df a23f 2d70 933f 8aa0 803f 913e 8c3f
00000010: a585 a23f ab04 973f 722f 923f 30e1 9e3f
00000020: c8ee 993f eacc 9e3f c66b 963f e945 883f
00000030: ca57 a03f 2156 963f 09d7 913f a1c5 8a3f
00000040: 7c62 8f3f 5d40 913f 37ef 9e3f 21aa 873f
00000050: 7d7a 823f f16a 983f d548 8e3f 7453 993f
00000060: 3dcd 923f c28b 843f 7495 9d3f 4f03 8f3f
00000070: ccdb a63f f96d 833f e39b 963f ae7d 933f
1.2724555 1.1518608 1.0048993 1.0956594 1.2697035 1.17983 1.1420729 1.2412472
1.2025995 1.2406285 1.175164 1.0646335 1.2526791 1.1745034 1.1393749 1.0841562
1.120193 1.1347767 1.2416753 1.0598794 1.019363 1.1907636 1.1115977 1.1978593
1.1468884 1.0355151 1.2311234 1.1172885 1.3035827 1.0267936 1.1766323 1.1522729

module.encoder.c3.1.bias f4 [32]
00000000: 5573 453d fc29 ca3d b085 cbbd 9df7 90bc
00000010: 2b00 29bc 6ccd 31bd e10e 563c ca45 e23d
00000020: 9e1f 753d eea0 26be 504e 0abe bd62 b5bd
00000030: c935 8b3c e102 87bd 3a91 24bd d383 f83d
00000040: 00b4 183d 477b f03d 52ae 8ebd 6ea5 773d
00000050: b120 1abe 2705 0cbd ef9f 75bd cb42 a8bc
00000060: 5861 093e df5f 51bd 57a2 963d 2aa7 323d
00000070: 79df 2cbc e777 ba3d 0840 8a3d 5dc8 353d
0.048205692 0.09871289 -0.09937608 -0.017696196 -0.010314981 -0.043408796 0.013065071 0.110484675
0.059844606 -0.16272327 -0.13506436 -0.088567235 0.01699342 -0.06592346 -0.04017756 0.121345185
0.037281036 0.11742263 -0.06966843 0.0604605 -0.15051533 -0.0341846 -0.059966978 -0.020539662
0.1341604 -0.05111682 0.073551826 0.04361645 -0.010551327 0.09104901 0.06750494 0.044380534

module.encoder.c3.1.running_mean f4 [32]
00000000: 8878 80bf f279 0040 5bc5 a1bf eb22 eb3e
00000010: 0755 383f d034 903c b563 8d3e ff2b 0c3f
00000020: abdd a83f b891 04bf 1df5 e53f 9584 873f
00000030: f5f1 6d3f ede3 b13e 4e79 c8be eb5e 3c40
00000040: e98b 82be e71f 8e3f c61a 333f e21b 0cc0
00000050: a5f1 bcbf c114 0e3e cd1c 4ac0 c02f dcbe
00000060: d1eb 12c0 55c9 a73f e1e0 babf 71bc f1bc
00000070: 79cf 943f 3977 95bf dcc2 143f 3204 2cbe
-1.0036783 2.007443 -1.2638353 0.45925078 0.7200474 0.017603308 0.27615133 0.5475463
1.3192648 -0.5178485 1.7965428 1.0587336 0.9294732 0.34744206 -0.39155048 2.9432933
-0.25497368 1.1103486 0.6996273 -2.1892018 -1.4761244 0.13875104 -3.1580079 -0.4300518
-2.295643 1.3108317 -1.4599878 -0.029508801 1.1625816 -1.1677009 0.5810983 -0.16798475

module.encoder.c3.1.running_var f4 [32]
00000000: f51f 5e3f 3102 dc3f cad4 d43f 6578 9e3f
00000010: 5a1d 513f d172 633f 47c0 f63f 639c ea3f
00000020: 32eb 493f 8e5d 513f 787b c13f 3d8a d63f
00000030: 1f1c d73f f85b 513f 6ab2 1640 8e7a b53f
00000040: 955b ab3f 6b2b 403f 4bdd 8f3f 5bc3 ad3f
00000050: 3554 983f 8f1f 1240 0495 c03f d1df 1a40
00000060: 8fe3 853f e879 a83f 66a7 7a3f defd cc3f
00000070: 1054 f73f 9440 d63f 5127 b93f c007 b03f
0.8676751 1.7188169 1.6627438 1.2380491 0.8168541 0.8884707 1.9277428 1.8328975
0.78874505 0.8178338 1.5115805 1.6760937 1.6805457 0.8178096 2.3546395 1.4178026
1.3387324 0.7506625 1.1239408 1.3575243 1.1900698 2.2831762 1.5045476 2.4199107
1.046007 1.3162203 0.9791168 1.6014974 1.9322529 1.6738458 1.4465123 1.3752365
