logs/exp1/model_iters_50000.pth (torch, 495376 bytes, 47 tensors)

module.encoder.c1.main.0.weight f4 [32, 3, 3, 3]
0.101296306 -0.02339027 0.023496293 0.032758627 0.0052913413 -0.00306298 0.0054289466 -0.07371722
-0.044907674 -0.06541807 0.05595628 0.03591663 -0.10272711 -0.03232903 -0.040699605 -0.06278814
0.008290321 0.013876717 -0.037154883 0.0068939007 0.022605272 -0.0304274 0.0022592903 0.05075117
0.0462521 0.0491373 0.06641617 -0.02831132 -0.0069937874 -0.030613966 -0.028195398 -0.08096392
-0.06188119 0.033505034 0.032954674 0.025191031 -0.11528922 -0.046713613 -0.11455558 -0.07172391
-0.08242122 -0.07844499 -0.011679484 -0.016002567 -0.047050513 0.035236176 0.031908106 0.018116208
0.008072102 0.018959032 0.006029218 0.027945 0.012614439 0.004748155 0.015537459 0.021790208
-0.019803967 0.03234769 -0.014987751 -0.04327082 -0.026776161 -0.052308057 -0.06617732 0.05667698
0.04386628 0.034257576 0.017689593 0.035937242 0.02688583 0.02831764 0.04786846 0.0011541671
-0.07675013 -0.0929122 -0.059398293 -0.064820975 -0.043681066 -0.07948562 -0.075456604 -0.048292417
-0.061119214 -0.02748981 -0.01660768 0.080729514 -0.010100368 0.022203779 0.1497421 -0.0032220562
-0.018866682 0.14337862 0.045294993 0.05418239 0.067170605 -0.014123369 0.0052483473 -0.012311888
-0.03342454 -0.052437343 -0.026494527 -0.007479002 0.00038510462 0.017137496 0.03524821 0.026324604
0.030609742 0.007867056 -0.0053341794 -0.006907838 -0.004787474 0.01046127 -0.024151165 -0.00050870836
-0.02665362 -0.019459559 -0.00205546 0.0036995441 -0.02842479 -0.034535997 -0.04552014 -0.0006044125
0.046678625 0.041419964 0.034696724 -0.013219942 -0.036570273 0.011648054 -0.13558827 -0.1234671
0.00995189 -0.0416898 0.04918837 0.12521914 -0.1865613 -0.09542431 -0.00044959135 0.120370016
0.13770133 0.1766386 0.0044233697 0.0008510552 0.00833435 -0.003487435 -0.026683865 0.01988685
-0.013070702 -0.03075568 -0.050925087 -0.0050555156 0.0025939343 -0.010493881 -0.0041796085 0.037065003
0.015552855 0.033565 0.054784406 0.018934919 0.045463093 0.012564934 -0.024532275 -0.00995922
0.015743557 -0.027663283 -0.013822973 -0.05600834 -0.03240932 0.027273618 0.01792882 0.036107033
-0.01705045 0.012185555 0.023778211 0.008638551 0.025925519 0.024767127 0.08856999 0.045669693
0.05590804 -0.059700508 -0.11358162 -0.055364348 0.0016783014 -0.012682935 -0.05511872 0.118974045
0.071267694 -0.00873897 -0.014194045 -0.033022713 -0.12279907 -0.03145445 0.053190634 0.007870969
0.031094907 0.021459537 0.027914437 -0.015237402 0.0028799563 -0.023772717 0.09951433 0.047064576
0.087401584 0.06795132 0.05290713 0.12622578 -0.016305383 -0.09682439 0.002325345 -0.024933396
-0.019497203 -0.030564 0.028150557 0.007019032 0.03445869 -0.04004149 -0.05429261 -0.02819183
-0.024314944 0.007502383 -0.03343663 -0.024895115 0.03741152 0.03135328 -0.028512679 -0.019962464
0.010337245 -0.00038672876 -0.048275936 0.0002625302 -0.042786743 -0.0056955526 -0.03468481 -0.04464689
-0.015821356 -0.019211505 0.119664475 0.07742407 0.10088093 0.043583103 0.2358974 0.062079526
0.0017125487 0.047444075 0.0843958 0.034618046 0.03697068 -0.030066097 0.082419306 0.07185101
0.01577001 -0.030551918 0.018614808 -0.03629796 0.021613263 0.05768651 0.05681572 0.10205828
00000000: 7074 cf3d f49c bfbc 4c7b c03c e92d 063d
00000010: fd62 ad3b 47bc 48bb 4ee5 b13b 0ef9 96bd
00000020: 1cf1 37bd e9f9 85bd 6a32 653d 511d 133d
00000030: 9762 d2bd 726b 04bd a1b4 26bd 1197 80bd
00000040: 20d4 073c 2b5b 633c b82f 18bd 3be6 e13b
00000050: b12e b93c e242 f9bc 9a10 143b 75e0 4f3d
00000060: d872 3d3d 3244 493d 3305 883d 24ed e7bc
00000070: 242c e5bb 24ca fabc 09fa e6bc 69d0 a5bd
00000080: 2177 7dbd 933c 093d 7bfb 063d 6c5d ce3c
00000090: c11c ecbd c656 3fbd 1e9c eabd fce3 92bd
000000a0: 75cc a8bd c4a7 a0bd 4e5b 3fbc d117 83bc
000000b0: 0ab8 40bd cf53 103d 13b2 023d 7168 943c
000000c0: da40 043c f94f 9b3c bf90 c53b eaec e43c
000000d0: cbac 4e3c 6996 9b3b d490 7e3c 6181 b23c
000000e0: ee3b a2bc 037f 043d 2f8f 75bc be3c 31bd
000000f0: ae59 dbbc f940 56bd fa87 87bd 1f26 683d
00000100: 21ad 333d ac51 0c3d c4e9 903c ee32 133d
00000110: ac3f dc3c 65fa e73c b811 443d 6c47 973a
00000120: 2c2f 9dbd c048 bebd a04b 73bd dcc0 84bd
00000130: ebea 32bd 5bc9 a2bd fe88 9abd 45ce 45bd
00000140: 2458 7abd 4f32 e1bc d40c 88bc 8455 a53d
00000150: 047c 25bc b3e4 b53c fe55 193e 2229 53bb
00000160: 4d8e 9abc d8d1 123e 3e87 393d 5bee 5d3d
00000170: be90 893d b465 67bc 54fa ab3b cdb7 49bc
00000180: 2ce8 08bd 8ac8 56bd 0d0b d9bc 6a12 f5bb
00000190: dee7 c939 ef63 8c3c 6d60 103d b2a6 d73c
000001a0: 48c1 fa3c d3e4 003c 57ca aebb 255b e2bb
000001b0: 3ee0 9cbb bf65 2b3c aad8 c5bc d75a 05ba
000001c0: b158 dabc a769 9fbc e5b4 06bb 0d74 723b
000001d0: 1bdb e8bc 9e75 0dbd 5473 3abd 7071 1eba
000001e0: 1632 3f3d fba7 293d 271e 0e3d 7598 58bc
000001f0: b6ca 15bd 7bd7 3e3c a7d7 0abe 52dc fcbd
00000200: 410d 233c ecc2 2abd bf79 493d 7239 003e
00000210: ed09 3fbe d26d c3bd 21b7 ebb9 8e84 f63d
00000220: 9401 0d3e c0e0 343e eaf1 903b 5919 5f3a
00000230: cc8c 083c 738d 64bb 1f98 dabc bfe9 a23c
00000240: 7f26 56bc 56f3 fbbc d396 50bd bda8 a5bb
00000250: fffe 293b 87ee 2bbc 19f5 88bb 79d1 173d
00000260: 67d1 7e3c 747b 093d 9d65 603d 671d 9b3c
00000270: 8237 3a3d 27dd 4d3c e9f7 c8bc ff2b 23bc
00000280: a2f8 803c 1c9e e2bc c079 62bc 0069 65bd
00000290: a3bf 04bd ec6c df3c 76df 923c f8e4 133d
000002a0: 63ad 8bbc eca5 473c 86ca c23c b688 0d3c
000002b0: c161 d43c 6ee4 ca3c 2f64 b53d 2510 3b3d
000002c0: d4ff 643d 8588 74bd 7b9d e8bd bac5 62bd
000002d0: 73fa db3a 16cc 4fbc 2bc4 61bd aaa8 f33d
000002e0: ccf4 913d e62d 0fbc 248e 68bc d342 07bd
000002f0: 147e fbbd 62d6 00bd 6cde 593d 3df5 003c
00000300: bfba fe3c e9cb af3c d1ac e43c 4ca6 79bc
00000310: a6bd 3c3b 00bf c2bc 2bce cb3d c9c6 403d
00000320: 9aff b23d 102a 8b3d 26b5 583d 5541 013e
00000330: de92 85bc de4b c6bd d164 183b 1f41 ccbc
00000340: 99b8 9fbc 5b61 fabc ff9b e63c e8ff e53b
00000350: 8e24 0d3d 8c02 24bd ee61 5ebd 8df2 e6bc
00000360: 2230 c7bc 8dd6 f53b d9f4 08bd d7f0 cbbc
00000370: d23c 193d 4c6c 003d 6c93 e9bc 5288 a3bc
00000380: 8c5d 293c dbc1 cab9 fdbc 45bd 35a4 8939
00000390: 2741 2fbd c2a1 babb a911 0ebd a8df 36bd
000003a0: ca9b 81bc 7261 9dbc a612 f53d 8390 9e3d
000003b0: a99a ce3d 3284 323d 178f 713e 1a47 7e3d
000003c0: 9977 e03a b854 423d b5d7 ac3d a7cb 0d3d
000003d0: 916e 173d 2d4d f6bc 74cb a83d 9f26 933d
000003e0: 1c30 813c 0448 fabc 157e 983c 2bad 14bd
000003f0: 4c0e b13c b148 6c3d 9ab7 683d ee03 d13d

module.encoder.c1.main.0.bias f4 [32]
0.045153752 -0.08699019 0.001066343 -0.0063157077 -0.029746022 0.020928893 0.010717404 0.045482356
0.05449045 0.034811348 -0.0028366554 -0.016902834 0.012971653 -0.009844835 0.005704309 -0.020930767
0.030660879 -0.007996552 -0.002801488 0.019762263 -0.08999813 0.02460725 -0.08861616 -0.04208455
-0.05133452 0.032523673 -0.042465802 -0.038787782 -0.020738078 0.024402462 0.028589914 -0.0059774765
00000000: 24f3 383d ea27 b2bd 89c4 8b3a fff3 cebb
00000010: eead f3bc 1273 ab3c 0d98 2f3c b54b 3a3d
00000020: 6131 5f3d 5896 0e3d 2ee7 39bb d077 8abc
00000030: 0e87 543c 3b4c 21bc 36eb ba3b 0077 abbc
00000040: 862c fb3c f803 03bc 2b99 37bb 78e4 a13c
00000050: f150 b8bd 2595 c93c 647c b5bd d960 2cbd
00000060: 2544 52bd 8b37 053d 9ff0 2dbd f0df 1ebd
00000070: e7e2 a9bc ace7 c73c 6535 ea3c b5de c3bb

module.encoder.c1.main.1.weight f4 [32]
0.9996282 1.0559076 0.997046 0.95144576 0.97409487 0.92177874 1.0793968 0.9871478
1.022544 1.0010414 0.94210047 0.9663928 1.0072536 1.1081488 0.9480202 0.94417316
0.994336 0.9512044 0.9719735 0.9694721 1.0234622 0.93104476 1.0157254 0.9672775
0.9903008 1.0375091 0.99825174 1.001141 0.959276 0.94998205 0.95487624 1.026446
00000000: a2e7 7f3f fb27 873f 683e 7f3f f391 733f
00000010: 485e 793f b1f9 6b3f ad29 8a3f b8b5 7c3f
00000020: b9e2 823f 2022 803f 7f2d 713f 8565 773f
00000030: b0ed 803f d2d7 8d3f 74b1 723f 55b5 713f
00000040: ce8c 7e3f 2282 733f 41d3 783f 532f 783f
00000050: cf00 833f f358 6e3f 4a03 823f 809f 773f
00000060: 5a84 7d3f 19cd 843f 6d8d 7f3f 6325 803f
00000070: 1d93 753f 0632 733f c572 743f 9562 833f

module.encoder.c1.main.1.bias f4 [32]
-0.07160182 0.0330237 -0.16859666 -0.09920302 -0.06950253 -0.10215596 0.0004799729 -0.07539951
-0.17216305 -0.102244906 -0.18328299 -0.113266245 -0.07811281 0.088259295 -0.083801076 -0.11991009
-0.06111955 -0.07726036 -0.09194095 -0.06443758 -0.14124796 -0.1167826 -0.080428675 -0.08353161
-0.038692925 -0.15513639 -0.09824548 -0.029160826 -0.036001667 -0.057304587 -0.07561845 -0.08810215
00000000: faa3 92bd dc43 073d 9aa4 2cbe f42a cbbd
00000010: 5857 8ebd 2537 d1bd dfa4 fb39 0f6b 9abd
00000020: 834b 30be c765 d1bd 89ae 3bbe 22f8 e7bd
00000030: 9cf9 9fbd 4ac1 b43d e69f abbd 6c93 f5bd
00000040: 7e58 7abd ae3a 9ebd 894b bcbd daf7 83bd
00000050: 4ea3 10be b72b efbd cab7 a4bd 9f12 abbd
00000060: 797c 1ebd 13dc 1ebe ed34 c9bd afe2 eebc
00000070: 7c76 13bd 37b8 6abd d9dd 9abd e66e b4bd

module.encoder.c1.main.3.weight f4 [32, 32, 3, 3]
0.017797172 -0.0036801556 -0.0066821724 0.044644654 0.05029866 0.019418774 -0.08195177 -0.052780766
-0.049564987 -0.048499316 -0.0054954975 -0.058094613 -0.05327885 -0.011245844 0.007074288 -0.013659524
0.016878145 0.033550657 -0.04399756 0.006701824 -0.010533289 -0.015834931 0.026893746 -0.0048811133
-0.024968514 0.010994569 0.037785616 0.043577965 -0.010138506 0.06182013 0.04492139 0.017980643
-0.028105317 0.001566748 -0.020661622 0.009703396 -0.036557857 0.05831772 0.021022169 -0.08875252
0.0032332975 -0.022637187 -0.0044984524 0.09905377 0.05469413 -0.04872748 -0.04511312 0.009379503
0.01419817 -0.00019079396 0.009737459 -0.01642342 -0.030216506 0.036473554 0.05458567 0.086516246
0.1345711 -0.0936025 -0.15120392 -0.1592933 -0.0020321389 0.020381456 0.039199032 0.09559649
0.08867166 0.07186443 -0.054142747 -0.03044827 -0.10359903 -0.021811025 -0.029120663 -0.043619588
-0.009982226 0.03709876 -0.012245808 0.044680446 -0.0079666935 0.013105024 -0.0046556303 0.018483581
-0.043296944 0.076881036 0.09937287 0.08195986 -0.051996604 0.034619424 -0.027250176 -0.045662027
-0.023145352 -0.052885864 -0.009248894 -0.013936223 -0.0045989044 0.029681612 0.024307087 -0.0035082754
0.022322739 -0.0019979635 -0.0028641836 -0.031920288 0.083989896 0.046552856 -0.054243185 0.04628396
-0.004241195 -0.0003819567 0.02510751 0.072033904 0.01649644 -0.0055791903 0.0080671515 0.027045142
0.046837192 0.03937861 -0.045113593 -0.012086952 -0.045072008 -0.02566376 0.023494294 -0.049174786
-0.006935594 -0.002817008 0.11218524 -0.067441046 -0.038778212 -0.03272522 -0.04691112 -0.019316113
-0.0015726433 -0.038928796 0.0042215963 0.043682694 -0.052781582 0.022999182 0.029503623 0.0016964143
-0.102888584 -0.020614605 0.06531593 -0.05375852 0.0469213 0.062630385 0.0062982035 0.085534886
-0.04038326 -0.025971089 -0.052550368 -0.063528076 0.021403749 0.028953737 -0.06292551 -0.0073409462
-0.0039239107 -0.033640385 -0.07291448 0.024743373 0.013409722 -0.01581125 -0.03286885 -0.034537535
-0.058806915 0.008165974 -0.024693353 -0.060759105 -0.009056873 0.01448505 0.0083683515 0.054637745
-0.0016144057 0.0076457392 0.0632931 -0.009038436 -0.013044084 -0.0018578732 0.0013783147 -0.039238505
-0.030104421 -0.035300475 0.023971153 0.016447637 -0.06197528 -0.06978537 -0.04152666 0.04598923
0.03569136 -0.017750693 0.0254399 -0.020305708 0.04146791 -0.0008332783 -0.0074740313 0.042237252
-0.020830808 -0.035750967 -0.0033282905 -0.018096417 -0.044970278 -0.011347675 -0.0026656538 0.014144158
0.0015640864 -0.05074774 -0.017633047 -0.038306843 0.010657428 0.029054545 0.047922883 -0.038464595
-0.0076003815 -0.035933234 -0.10315574 -0.029381515 -0.09559483 0.0026224814 -0.041584484 0.019675292
-0.019302785 -0.013277856 -0.081193835 -0.01596077 -0.02515384 0.041310735 0.0070692506 -0.014099188
-0.020735841 -0.011153965 -0.02156164 0.018026453 -0.028132377 -0.0029625653 -0.006607522 -0.043042414
-0.0194491 -0.0058061425 -0.057987034 0.04691293 -0.018177263 -0.011896748 0.08032841 0.010470127
-0.06940281 -0.016892707 -0.054321464 -0.018389001 0.030591423 0.060805935 -0.024152607 -0.019610863
0.09524824 -0.006277915 0.012431752 0.0072588227 -0.0136368675 -0.021137472 0.0046025976 0.00028514786
00000000: 60cb 913c c42e 71bb 20f6 dabb 50dd 363d
00000010: f805 4e3d 1f14 9f3c 54d6 a7bd a530 58bd
00000020: a804 4bbd 38a7 46bd 9313 b4bb 9ef4 6dbd
00000030: ec3a 5abd 7d40 38bc 6ecf e73b 32cc 5fbc
00000040: 0944 8a3c 6a6c 093d c936 34bd f99a db3b
00000050: d193 2cbc 42b8 81bc 4650 dc3c bff1 9fbb
00000060: c58a ccbc 9122 343c 17c5 1a3d cf7e 323d
00000070: fa1b 26bc 1b37 7d3d 7eff 373d 244c 933c
00000080: 1f3d e6bc 575b cd3a 9042 a9bc fefa 1e3c
00000090: b1bd 15bd 90de 6e3d af36 ac3c e2c3 b5bd
000000a0: bbe5 533b 9f71 b9bc c167 93bb b4dc ca3d
000000b0: f406 603d 7796 47bd 89c8 38bd 7dac 193c
000000c0: 719f 683c dd0f 48b9 dd89 1f3c 688a 86bc
000000d0: 9b88 f7bc 4b65 153d 3995 5f3d 6e2f b13d
000000e0: 02cd 093e abb2 bfbd 33d5 1abe c81d 23be
000000f0: a22d 05bb 03f7 a63c 2a8f 203d 18c8 c33d
00000100: 7d99 b53d a92d 933d c9c4 5dbd a66e f9bc
00000110: ba2b d4bd 09ad b2bc 758e eebc 74aa 32bd
00000120: 7e8c 23bc dff4 173d a4a2 48bc d802 373d
00000130: bc86 02bc 74b6 563c 428e 98bb e16a 973c
00000140: 2358 31bd ce73 9d3d 0184 cb3d 92da a73d
00000150: 64fa 54bd 19cd 0d3d c33b dfbc 1b08 3bbd
00000160: 529b bdbc d99e 58bd ac88 17bc c254 64bc
00000170: 68b2 96bb da26 f33c a81f c73c 18eb 65bb
00000180: 2dde b63c 44f0 02bb 07b5 3bbb d9be 02bd
00000190: e502 ac3d 35ae 3e3d 1a2e 5ebd 4094 3d3d
000001a0: b9f9 8abb 5c41 c8b9 44ae cd3c 8386 933d
000001b0: 8b23 873c a4d1 b6bb 162c 043c c68d dd3c
000001c0: 5bd8 3f3d 774b 213d 08c9 38bd 5a08 46bc
000001d0: 6d9d 38bd ce3c d2bc 1b77 c03c 806b 49bd
000001e0: fb43 e3bb 8d9d 38bb 60c1 e53d 881e 8abd
000001f0: e7d5 1ebd e10a 06bd e025 40bd d33c 9ebc
00000200: 2721 ceba cd73 1fbd 5155 8a3b a0ec 323d
00000210: 8031 58bd c868 bc3c 95b1 f13c 385a de3a
00000220: 40b7 d2bd f6df a8bc 5cc4 853d e531 5cbd
00000230: 8d30 403d 5c44 803d 2961 ce3b ea2c af3d
00000240: eb68 25bd 52c1 d4bc 0e3f 57bd 021b 82bd
00000250: ea56 af3c 6330 ed3c 17df 80bd 528c f0bb
00000260: 2694 80bb 80ca 09bd 3054 95bd 9db2 ca3c
00000270: 73b4 5b3c 9886 81bc 7da1 06bd 3b77 0dbd
00000280: 85df 70bd 94ca 053c b749 cabc 8ade 78bd
00000290: 4763 14bc b452 6d3c 691b 093c d4cb 5f3d
000002a0: 779a d3ba 1c89 fa3b d09f 813d f315 14bc
000002b0: dbb6 55bc e183 f3ba 91a8 b43a 8eb8 20bd
000002c0: 8c9d f6bc 3b97 10bd 275f c43c 32bd 863c
000002d0: cbd9 7dbd a2eb 8ebd dc17 2abd 345f 3c3d
000002e0: 1a31 123d e769 91bc 5667 d03c 2858 a6bc
000002f0: 41da 293d 5c70 5aba b8e8 f4bb f800 2d3d
00000300: 5fa5 aabc 9b6f 12bd 731f 5abb f03e 94bc
00000310: c132 38bd 99eb 39bc 40b2 2ebb e6bc 673c
00000320: 0802 cd3a dddc 4fbd 2e73 90bc a3e7 1cbd
00000330: 7e9c 2e3c cc03 ee3c c94a 443d 0d8d 1dbd
00000340: 9f0c f9bb ba2e 13bd 5143 d3bd 81b1 f0bc
00000350: 39c7 c3bd f0dd 2b3b 7e54 2abd 142e a13c
00000360: e020 9ebc 5d8b 59bc f448 a6bd 29c0 82bc
00000370: 6d0f cebc 7235 293d 2ca5 e73b 4800 67bc
00000380: 36de a9bc 1fbf 36bc 09a2 b0bc 36ac 933c
00000390: df75 e6bc 9927 42bb e983 d8bb 3e4d 30bd
000003a0: b853 9fbc 7441 bebb d083 6dbd c627 403d
000003b0: 7ce8 94bc 94ea 42bc 3983 a43d e58a 2b3c
000003c0: 0f23 8ebd 9362 8abc 2f80 5ebd 88a4 96bc
000003d0: dd9a fa3c a50f 793d b0db c5bc f6a6 a0bc
000003e0: 8211 c33d f8b6 cdbb 8cae 4b3c 6bdb ed3b
000003f0: 2b6d 5fbc 7e28 adbc 63d1 963b e67f 9539

module.encoder.c1.main.3.bias f4 [32]
-0.0006203211 -0.0011359465 -0.026188185 -0.003742594 -0.0056037013 -0.0047363727 -0.004094136 -0.007013706
0.002491449 -0.004572646 -0.0017666767 -0.00034052605 -0.0008592899 0.00040068504 -0.004731708 -0.0019437771
0.00026886456 -0.0022346862 0.006898514 -0.003404253 -0.006355179 0.008234411 -0.0023271635 -0.004919323
-0.008621845 0.0020350206 -0.002429929 0.00055722817 -0.0037405763 0.009599377 -0.0016058228 -0.00537004
00000000: 0b9d 22ba 0ae4 94ba 9b88 d6bc 4f46 75bb
00000010: 419f b7bb 9333 9bbb 1a28 86bb 3bd3 e5bb
00000020: 9447 233b 23d6 95bb d58f e7ba a288 b2b9
00000030: f841 61ba 0913 d239 720c 9bbb 56c6 feba
00000040: 64f6 8c39 d073 12bb ee0c e23b e319 5fbb
00000050: 1b3f d0bb 9fe9 063c 5383 18bb 4632 a1bb
00000060: a442 0dbc fb5d 053b 723f 1fbb f312 123a
00000070: 7524 75bb b546 1d3c 797a d2ba 29f7 afbb

module.encoder.c1.main.4.weight f4 [32]
1.0257016 0.89764845 1.016853 0.93042743 0.85713035 1.0257272 0.84457004 0.8796725
0.9276704 0.8409772 0.95303047 0.98724514 0.88211375 0.9337265 0.95811194 0.95674706
0.93893385 0.90603375 0.90379244 0.92554355 0.99291444 0.9995696 0.9207767 0.8932912
0.914171 0.9201025 0.9353296 0.97013855 0.97021663 0.9280419 0.87938774 0.97315216
00000000: 314a 833f 4acc 653f 3d28 823f 7e30 6e3f
00000010: e56c 5b3f 074b 833f be35 583f 3832 613f
00000020: cf7b 6d3f 484a 573f cef9 733f 19bc 7c3f
00000030: 35d2 613f b308 6f3f d346 753f 60ed 743f
00000040: f85d 703f d4f1 673f f15e 673f 6cf0 6c3f
00000050: a42f 7e3f cbe3 7f3f 06b8 6b3f bbae 643f
00000060: 1c07 6a3f d68b 6b3f c371 6f3f 005b 783f
00000070: 1e60 783f 2794 6d3f 8e1f 613f 8020 793f

module.encoder.c1.main.4.bias f4 [32]
-0.23945253 -0.08755256 -0.06802514 -0.05985401 -0.08409044 0.017211301 -0.118047886 -0.07246957
-0.056843255 -0.14376354 -0.042037856 -0.009030277 -0.13071 -0.14957955 -0.024153138 -0.03559212
-0.05690777 -0.15144043 -0.18878591 -0.1277469 -0.07628351 -0.105806 -0.034814935 -0.15225795
-0.14183313 -0.119869255 -0.10595056 -0.07232616 -0.0843195 -0.18596034 -0.076519825 -0.13150536
00000000: 0b33 75be c24e b3bd c450 8bbd 7a29 75bd
00000010: 9c37 acbd b7fe 8c3c 17c3 f1bd ed6a 94bd
00000020: 79d4 68bd c036 13be e32f 2cbd baf3 13bc
00000030: d8d8 05be 622b 19be cddc c5bc 0bc9 11bd
00000040: 1f18 69bd 3313 1bbe 1851 41be 15d0 02be
00000050: 873a 9cbd d1b0 d8bd 1b9a 0ebd 82e9 1bbe
00000060: b43c 11be 037e f5bd 9bfc d8bd bd1f 94bd
00000070: b4af acbd 636c 3ebe 6db6 9cbd 57a9 06be

module.encoder.c2.main.0.weight f4 [64, 32, 3, 3]
0.04746411 -0.052395087 0.010469825 -0.010038913 -0.07912539 -0.011595212 -0.015160382 -0.056445874
-0.06549954 0.04908618 0.07244161 0.02721253 -0.026428575 -0.025266366 0.00055586535 -0.050185144
0.016924031 -0.004972008 -0.04341919 -0.02284309 -0.014875955 0.037424773 0.03752357 0.051316097
-0.0011459278 0.022576438 0.00027360502 -0.005492411 -0.033252973 0.02815298 -0.014200135 -0.00663658
-0.014785392 0.021063827 -0.00636244 0.06124047 0.05846431 0.0780806 0.05553658 0.029356983
0.021458995 -0.015401301 0.028649298 -0.002892053 -0.040532727 0.07301299 0.053096846 0.018628597
0.03467591 0.036012076 0.024231063 0.06293031 -0.0065755798 -0.01358601 -0.00024453658 0.009729589
0.019788546 0.021202851 0.0046635843 -0.00031753338 -0.012061465 -0.034405183 0.0009718548 -0.0015480221
-0.019484803 -0.06628588 -0.04286554 -0.065383606 -0.060684543 -0.05445322 -0.055150665 -0.07542202
0.08596169 0.097743146 0.08599498 0.085849844 0.06629015 0.0774601 0.027958157 0.048325974
0.044646967 -0.006101874 -0.016159259 -0.0029869997 -0.0063326373 -0.041795395 -0.054134622 -0.020098237
-0.005332035 -0.057522107 0.05610912 0.040440448 0.029154846 0.039833166 0.0459731 0.04860182
0.020906476 0.012234037 0.03596874 -0.036935892 -0.0117423115 -0.09123918 0.014707896 0.0080862595
-0.051044278 0.043347977 -0.024296558 -0.027226137 -0.0038102195 -0.009785427 0.005398673 0.008643483
0.010304671 -0.058970306 0.03952533 0.022383448 0.03287044 0.08061941 0.061539687 0.045457706
0.074569255 0.06282035 0.082605705 0.06593715 0.07263692 0.080943406 0.06165056 0.033806786
0.056324337 0.06527913 0.08174494 0.031948604 0.071662724 0.057259228 0.06303153 0.021314556
-0.06382441 -0.0014497646 -0.0031957023 0.00016967216 0.024400406 -0.0011120137 -0.0035480084 0.026250707
0.020161267 0.0010615148 0.008037291 0.05572013 -0.0010626623 0.049278233 0.02821022 0.00526097
0.050315894 0.062272098 0.116011314 0.084601365 0.053951845 0.09373154 0.085376546 0.018834043
0.09952876 0.090183884 0.042373534 0.02237521 0.022366798 0.044448912 0.03553529 -0.008730637
0.09633865 0.08785425 0.057217643 0.01760284 0.06682055 0.032950837 -0.001724726 0.085362464
0.03937007 -0.002368964 0.019386921 0.036684357 -0.014577305 -0.032213118 0.02060007 -0.012743702
0.039255135 0.0061708707 0.00036707622 -0.021845838 0.00052708964 0.004449178 0.042549517 0.044118915
0.037319154 0.019204905 0.038811076 0.042057145 0.05938223 0.06550886 0.03767061 -0.01617888
0.026579646 -0.035976037 -0.01997064 -0.019662093 0.0001893747 -0.029539159 -0.05403086 0.11700374
0.09252975 0.07916815 0.039395083 -0.026844075 0.023618791 -0.013197323 -0.050544795 -0.04898117
-0.034396116 0.02870753 -0.043105163 -0.06068826 -0.0005458773 -0.033879556 -0.033402637 0.04674874
0.0097926995 0.0033458928 -0.032921173 -0.034035683 -0.07436939 -0.02970899 -0.035676587 -0.026001286
0.017012093 -0.00079735287 0.0361769 0.033868555 0.0052823895 0.043041214 0.028446147 0.023260798
-0.0072334036 -0.05000762 -0.0459297 0.01002278 0.024362605 0.018393518 0.022817789 0.026465537
-0.025448324 0.04296414 0.048626795 0.03983276 -0.026517097 -0.01831428 -0.029160518 -0.005476969
00000000: ba69 423d 3b9c 56bd a189 2b3c 417a 24bc
00000010: 7e0c a2bd d8f9 3dbc 4063 78bc ca33 67bd
00000020: 9f24 86bd 970e 493d 445c 943d d0ec de3c
00000030: bd80 d8bc 69fb cebc 7eb7 113a f08e 4dbd
00000040: 44a4 8a3c 3aec a2bb 52d8 31bd 6f21 bbbc
00000050: 47ba 73bc b84a 193d 51b2 193d d430 523d
00000060: f532 96ba 39f2 b83c a572 8f39 aff9 b3bb
00000070: 4534 08bd 14a1 e63c afa7 68bc ab77 d9bb
00000080: 6e3e 72bc 0c8e ac3c 047c d0bb 49d7 7a3d
00000090: 4678 6f3d b9e8 9f3d 537a 633d 0e7e f03c
000000a0: c6ca af3c bd55 7cbc efb1 ea3c 9988 3dbb
000000b0: a505 26bd d687 953d 147c 593d 009b 983c
000000c0: 5408 0e3d 6681 133d 3980 c63c 9be1 803d
000000d0: f677 d7bb db97 5ebc 2535 80b9 db68 1f3c
000000e0: 971b a23c 9ab1 ad3c fbd0 983b 9c7a a6b9
000000f0: 739d 45bc 73ec 0cbd 12c4 7e3a 01e7 caba
00000100: 989e 9fbc e4c0 87bd c793 2fbd d7e7 85bd
00000110: 5b90 78bd 570a 5fbd aae5 61bd dc76 9abd
00000120: af0c b03d 8f2d c83d 231e b03d 0bd2 af3d
00000130: 21c3 873d 67a3 9e3d 8108 e53c 75f1 453d
00000140: bddf 363d 3bf2 c7bb 6c60 84bc 8ac1 43bb
00000150: 0382 cfbb a631 2bbd 44bc 5dbd 0fa5 a4bc
00000160: 5ab8 aebb 4d9c 6bbd add2 653d e2a4 253d
00000170: 25d6 ee3c 1a28 233d 4a4e 3c3d b412 473d
00000180: 0f44 ab3c 4571 483c f553 133d 174a 17bd
00000190: d362 40bc 9bdb babd 63f9 703c 3b7c 043c
000001a0: ce13 51bd a68d 313d 9309 c7bc 5909 dfbc
000001b0: e0b4 79bb 0e53 20bc 5ae7 b03b 659d 0d3c
000001c0: ecd4 283c d98a 71bd 50e5 213d 7e5d b73c
000001d0: 28a3 063d ca1b a53d 0a11 7c3d dc31 3a3d
000001e0: c4b7 983d f5a7 803d 2e2d a93d 0e0a 873d
000001f0: aac2 943d a8c5 a53d 4c85 7c3d fc78 0a3d
00000200: 59b4 663d 11b1 853d e469 a73d 8adc 023d
00000210: e8c3 923d a788 6a3d ad16 813d dd9b ae3c
00000220: 5fb6 82bd 0706 beba fd6e 51bb 06ea 3139
00000230: 5ce3 c73c fdc0 91ba b485 68bb b90b d73c
00000240: 3e29 a53c 8722 8b3a d7ae 033c cb3a 643d
00000250: 0849 8bba f9d7 493d 1f19 e73c 3764 ac3b
00000260: 0a18 4e3d 0711 7f3d 5797 ed3d 7b43 ad3d
00000270: 9cfc 5c3d 52f6 bf3d e6d9 ae3d da49 9a3c
00000280: bcd5 cb3d 54b2 b83d df8f 2d3d 374c b73c
00000290: 933a b73c 1010 363d 748d 113d f20a 0fbc
000002a0: 334d c53d eeec b33d 0c5d 6a3d d533 903c
000002b0: 36d9 883d 75f7 063d 3410 e2ba 84d2 ae3d
000002c0: 8342 213d 9f40 1bbb 52d1 9e3c 5642 163d
000002d0: a6d5 6ebc e7f1 03bd 7ac1 a83c f6ca 50bc
000002e0: fec9 203d 0435 ca3b 2374 c039 0bf6 b2bc
000002f0: 632c 0a3a 69ca 913b 6748 2e3d 09b6 343d
00000300: f8db 183d 9b53 9d3c 5df8 1e3d 1d44 2c3d
00000310: c83a 733d 8229 863d 7f4c 1a3d 9289 84bc
00000320: 8fbd d93c 9c5b 13bd 7899 a3bc 6612 a1bc
00000330: e292 4639 1bfc f1bc 774f 5dbd a89f ef3d
00000340: 3d80 bd3d e922 a23d bd5c 213d 1be8 dbbc
00000350: 327c c13c 9639 58bc 0f08 4fbd 7ba0 48bd
00000360: f1e2 0cbd 0e2c eb3c 0a8f 30bd 4194 78bd
00000370: 3519 0fba 4ac5 0abd 34d1 08bd 9b7b 3f3d
00000380: 8f71 203c c446 5b3b 5ad8 06bd 0069 0bbd
00000390: fb4e 98bd 4560 f3bc 9d21 12bd a600 d5bc
000003a0: f25c 8b3c 7205 51ba 3b2e 143d c1b9 0a3d
000003b0: e517 ad3b fc4b 303d e507 e93c 6e8d be3c
000003c0: 3006 edbb cad4 4cbd c820 3cbd 9636 243c
000003d0: 1694 c73c 01ae 963c 5fec ba3c 41ce d83c
000003e0: 0179 d0bc 2bfb 2f3d e42c 473d ad27 233d
000003f0: 623a d9bc d407 96bc 0ae2 eebc 2578 b3bb

module.encoder.c2.main.0.bias f4 [64]
-0.0003518224 -0.00033194548 0.0007028332 -0.0014548633 0.0010347286 -0.0029662175 -0.00065654964 0.0047258497
-0.0056619467 -0.00022824972 0.0016955063 -0.00089588104 0.0026895746 -0.00013573974 0.0019624615 0.0047693937
0.00035778046 0.0017897228 -0.0012696026 -0.0025092806 0.0008650679 -0.00016556101 0.0015007847 0.001638003
0.004675728 0.0030728327 0.0006723767 0.0016503993 0.0067036725 -0.0038151492 0.0055162893 0.007460801
0.005462491 0.003081994 -0.00018844198 -0.0014594505 -0.0062026028 0.0012610208 -0.004419826 0.0010538774
-0.003018153 0.001447512 -0.0013005674 0.0024382295 0.0026583613 -6.616022e-05 -0.00033941574 0.000345224
0.0014804227 0.0012300751 0.001027189 -0.006305309 0.0023530535 0.0023588254 -0.0021199826 -0.0027321063
-0.0010585733 -0.0020246212 0.0070672613 -0.0032871861 0.003879303 -0.00434334 0.0018183482 0.0020030683
00000000: ce74 b8b9 f808 aeb9 563e 383a 1db1 beba
00000010: bb9f 873a df64 42bb 4d1c 2cba 4ddb 9a3b
00000020: da87 b9bb 5156 6fb9 c03b de3a 8fd9 6aba
00000030: 9343 303b 5c55 0eb9 a49c 003b 9348 9c3b
00000040: 7b94 bb39 2295 ea3a cb68 a6ba be72 24bb
00000050: b9c5 623a 729a 2db9 fab5 c43a 43b2 d63a
00000060: d936 993b 9461 493b 7042 303a 3652 d83a
00000070: 7baa db3b 9507 7abb fdc1 b43b bc79 f43b
00000080: b2fe b23b 47fb 493b 8298 45b9 084b bfba
00000090: 343f cbbb d648 a53a 30d4 90bb 4222 8a3a
000000a0: 34cc 45bb 71ba bd3a cd77 aaba b4ca 1f3b
000000b0: e737 2e3b 7fbf 8ab8 9cf3 b1b9 2eff b439
000000c0: be0a c23a 793a a13a bea2 863a c49c cebb
000000d0: b035 1a3b 8696 1a3b 68ef 0abb 230d 33bb
000000e0: d3bf 8aba 82af 04bb 7c94 e73b d56d 57bb
000000f0: e83b 7e3b 9452 8ebb a455 ee3a e945 033b

module.encoder.c2.main.1.weight f4 [64]
0.88390326 0.9431532 0.8278794 0.9791438 0.900017 0.9354459 0.92591774 1.1035975
1.0104278 0.9950785 1.0044136 0.9350527 1.0866661 0.9167023 1.0995487 1.0304663
1.0329881 0.99866015 0.98280245 0.9857975 0.92042714 0.91121906 0.9424644 0.93807584
0.98493147 0.8610026 1.0466093 0.9149454 1.0944371 0.9622682 1.1449915 1.0363095
1.0374775 1.0219646 1.0276841 0.9771905 1.0862683 1.0190932 1.0770544 0.99166244
1.0546358 1.0514494 0.97255135 0.9247846 0.9201279 0.94451034 0.98527634 0.9505853
0.9659791 1.1250045 0.90724915 1.1352202 0.9712753 0.8567166 0.9671437 0.8737726
0.9574227 0.902607 1.1094903 0.9518628 1.1117624 1.0428445 0.9403271 0.9670425
00000000: 7c47 623f 7d72 713f e8ef 533f 2ba9 7a3f
00000010: 8467 663f 6279 6f3f f208 6d3f af42 8d3f
00000020: b355 813f 77bd 7e3f a090 803f 9d5f 6f3f
00000030: e017 8b3f 00ad 6a3f 03be 8c3f 52e6 833f
00000040: f438 843f 31a8 7f3f f198 7b3f 3a5d 7c3f
00000050: 1da1 6b3f a745 693f 5945 713f bd25 703f
00000060: 7824 7c3f ab6a 5c3f 4bf7 853f dd39 6a3f
00000070: 8416 8c3f 3557 763f 158f 923f caa5 843f
00000080: 10cc 843f bccf 823f 278b 833f 2829 7a3f
00000090: d70a 8b3f a571 823f ebdc 893f 97dd 7d3f
000000a0: 4efe 863f e595 863f 20f9 783f afbe 6c3f
000000b0: 818d 6b3f 6ecb 713f 123b 7c3f 8f59 733f
000000c0: 684a 773f 2600 903f 7b41 683f e54e 913f
000000d0: 80a5 783f c751 5b3f bb96 773f 90af 5f3f
000000e0: a719 753f 4111 673f c703 8e3f 48ad 733f
000000f0: 3b4e 8e3f ee7b 853f 47b9 703f 1990 773f

module.encoder.c2.main.1.bias f4 [64]
-0.096743375 -0.16209802 -0.26900738 -0.1844037 -0.16466622 -0.109181955 -0.22086449 -0.19424753
-0.17309994 -0.26435348 -0.21751265 -0.115745254 -0.27042532 -0.14176218 -0.08851823 -0.100535035
-0.17424077 -0.20902953 -0.23259163 -0.20619468 -0.2648591 -0.17049502 -0.14338423 -0.15745714
-0.18455383 -0.22880188 -0.03519551 -0.15930592 -0.16289625 -0.20067404 -0.086556144 -0.1563854
-0.10505681 -0.22926287 -0.18365274 -0.20392275 -0.05576454 -0.18505748 -0.20717649 -0.20212512
-0.26261064 -0.23751032 -0.149442 -0.22296867 -0.12263497 -0.10128128 -0.3142264 -0.10590138
-0.22844197 -0.15942201 -0.19057648 -0.17159197 -0.17986551 -0.15880367 -0.24211596 -0.17033917
-0.24276353 -0.17373116 -0.029974505 -0.06536521 -0.24715851 -0.24899817 -0.10987755 -0.09840526
00000000: 6421 c6bd 06fd 25be 56bb 89be 53d4 3cbe
00000010: 439e 28be ca9a dfbd 4d2a 62be d3e8 46be
00000020: 1c41 31be 5759 87be a3bb 5ebe d90b edbd
00000030: 3075 8abe 1b2a 11be 0c49 b5bd 50e5 cdbd
00000040: 2c6c 32be d60b 56be 802c 6ebe b324 53be
00000050: 9d9b 87be 3f96 2ebe 51d3 12be 723c 21be
00000060: aefb 3cbe 0a4b 6abe 2b29 10bd 1721 23be
00000070: 46ce 26be 7f7d 4dbe 5944 b1bd 7f23 20be
00000080: 0628 d7bd e3c3 6abe 770f 3cbe 20d1 50be
00000090: 5c69 64bd b57f 3dbe 1326 54be e3f9 4ebe
000000a0: e774 86be e835 73be 5307 19be e651 64be
000000b0: 0b28 fbbd 8f6c cfbd 48e2 a0be d3e2 d8bd
000000c0: b1ec 69be 863f 23be 7b26 43be ceb5 2fbe
000000d0: aa2e 38be 6e9d 22be 3fed 77be 646d 2ebe
000000e0: 0197 78be 95e6 31be 188d f5bc 32de 85bd
000000f0: 1f17 7dbe 60f9 7ebe 7b07 e1bd b288 c9bd

module.encoder.c2.main.3.weight f4 [64, 64, 3, 3]
-0.122925624 -0.111981764 -0.09634412 -0.083935544 -0.049827866 -0.07233038 -0.06891544 -0.050901834
-0.059183322 -0.019694643 -0.02949583 -0.0019147628 0.034924034 -0.005654794 0.015069838 -0.021642184
-0.010614996 -0.006200778 0.005693907 -0.02388725 0.0040158685 -0.017524222 0.057534304 -0.0107466355
-0.014123449 0.0232229 -0.0034665049 0.040708777 0.06047039 0.05389339 0.043449756 0.014819236
0.042954262 -0.040979497 -0.049480595 -0.066187985 -0.08451265 -0.05502075 -0.0026250177 -0.051489614
-0.016597062 -0.046439584 0.023134911 0.018645316 0.06316425 0.027972838 0.0464091 0.06755706
-0.03144403 -0.034629233 0.018272948 -0.027354676 -0.02341907 -0.008132873 0.028735597 0.023281991
0.02948962 -0.09802244 -0.041878775 -0.041105364 0.049063023 0.042520095 0.034306236 0.058796756
0.038805004 0.04816856 0.045178063 0.047435693 0.05158354 0.055558607 0.021282384 0.058032975
-0.016314505 -0.04240935 -0.029554391 -0.025995962 -0.025307411 -0.054369677 -0.06548884 -0.04883407
-0.056902155 -0.026992932 -0.0016174939 0.025216985 0.017318614 0.014880061 0.026001098 -0.016869655
-0.04317405 -0.021265227 0.023442423 0.0011303734 0.054065686 0.0004610925 0.003980987 -0.030926434
0.069894485 0.02082495 0.049792886 0.029355926 0.026256165 -0.015955023 0.013899576 -0.022202002
-0.004076654 -0.009231579 -0.055261683 0.023588775 -0.016401837 -0.044171248 -0.035723694 0.015408404
0.039659377 0.020731881 0.06812077 0.021875346 0.034502126 0.033584144 -0.015903438 0.024103869
0.06048377 -0.002678517 0.030018628 -0.035986617 -0.11692347 -0.07738396 0.019817615 -0.0069647743
0.019038254 0.05200318 -0.035660293 -0.026308987 -0.074380435 -0.08779772 -0.052539583 -0.07191714
-0.11076565 -0.08702992 0.08262726 0.09733316 0.048619077 -0.0186466 -0.02529176 -0.007936165
0.009038184 0.026564013 -0.0052346447 0.03278249 0.07026352 0.0158136 0.008806631 0.03142072
-0.012392111 0.088866144 0.0026077924 0.011241702 -0.009751722 -0.01989365 -0.05696548 -0.028230522
-0.09928768 -0.09597857 0.08861752 0.06370966 0.06621995 -0.012778712 -0.008208643 -0.044487067
-0.04630156 -0.048686665 -0.08845225 -0.020102728 -0.07231516 -0.025074776 0.008027731 -0.011007426
0.046942644 -0.012031752 -0.035816506 -0.016147602 -0.0407941 -0.06150144 -0.04150018 -0.048086528
-0.038261794 -0.024187496 -0.041734718 0.026388904 0.0037612459 0.0007790186 0.01790663 0.025338374
-0.030796302 -0.08107078 -0.051658746 -0.013248504 -0.028825292 -0.05637864 -0.047805633 0.004213875
-0.03964215 -0.005517143 0.013618235 -0.005524333 -0.025816422 -0.0049698716 0.03517484 0.01326135
0.023396216 -0.026244951 0.0036151267 -0.005901188 -0.027833335 0.0027146111 -0.04650021 -0.036889993
0.05400898 0.006697344 0.050105102 -0.048452638 0.021659678 -0.0024753334 0.0047486206 0.029363098
0.01567127 -0.07493582 -0.11571479 -0.062398758 -0.08560544 -0.06942282 -0.08848758 -0.0467912
-0.076774806 -0.029090114 -0.045033418 -0.041661266 -0.06445789 -0.042920884 -0.04298885 -0.034301814
0.07397037 0.049903203 0.0848311 -0.052019466 -0.066729285 -0.0529215 -0.020155858 -0.041635074
-0.020685814 -0.06622897 -0.054355655 -0.039195184 -0.079208754 -0.079245806 -0.13063206 -0.02870951
00000000: 6ec0 fbbd b256 e5bd 1150 c5bd 66e6 abbd
00000010: 4e18 4cbd f321 94bd 8a23 8dbd 717e 50bd
00000020: 366a 72bd a956 a1bc 3da1 f1bc c7f8 faba
00000030: 810c 0f3d da4b b9bb 7be7 763c f34a b1bc
00000040: 85ea 2dbc e52f cbbb f493 ba3b 32af c3bc
00000050: 8c97 833b f58e 8fbc 17a9 6b3d a812 30bc
00000060: 0a66 67bc f43d be3c 4d2e 63bb 3fbe 263d
00000070: cdaf 773d 51bf 5c3d 5ff8 313d 61cc 723c
00000080: cff0 2f3d 1eda 27bd 2aac 4abd 918d 87bd
00000090: f814 adbd 705d 61bd 7d08 2cbb c6e6 52bd
000000a0: 90f6 87bc 6f37 3ebd 6d85 bd3c 10be 983c
000000b0: 425c 813d 4b27 e53c 7817 3e3d 5b5b 8a3d
000000c0: 75cb 00bd 62d7 0dbd 26b1 953c ea16 e0bc
000000d0: 59d9 bfbc be3f 05bc ea66 eb3c e0b9 be3c
000000e0: 3794 f13c fdbf c8bd 1489 2bbd 195e 28bd
000000f0: 4ff6 483d 8d29 2e3d b284 0c3d ded4 703d
00000100: fff1 1e3d 654c 453d a20c 393d ee4b 423d
00000110: 4349 533d 6c91 633d 6558 ae3c fcb3 6d3d
00000120: ffa5 85bc 6db5 2dbd 0d1c f2bc 7cf5 d4bc
00000130: 7d51 cfbc bdb2 5ebd 031f 86bd 3c06 48bd
00000140: 3c12 69bd 4820 ddbc 1702 d4ba da93 ce3c
00000150: c4df 8d3c 80cb 733c 4100 d53c 3b32 8abc
00000160: 46d7 30bd 6a34 aebc 530a c03c 0a29 943a
00000170: fb73 5d3d cabe f139 f072 823b 6f59 fdbc
00000180: d724 8f3d 1699 aa3c a0f3 4b3d d77b f03c
00000190: 2b17 d73c 1cb4 82bc 0cbb 633c f9e0 b5bc
000001a0: 7495 85bb 0c40 17bc 135a 62bd 3f3d c13c
000001b0: 255d 86bc e9ec 34bd 0253 12bd 8873 7c3c
000001c0: df71 223d e8d5 a93c e782 8b3d ed33 b33c
000001d0: 1a52 0d3d 878f 093d ed47 82bc 7a75 c53c
000001e0: d4bd 773d 0f8a 2fbb a0e9 f53c b466 13bd
000001f0: 9275 efbd 7b7b 9ebd 8d58 a23c c338 e4bb
00000200: 1df6 9b3c 4901 553d 8710 12bd f285 d7bc
00000210: c554 98bd 4bcf b3bd bf33 57bd 4b49 93bd
00000220: 1ad9 e2bd be3c b2bd 7b38 a93d 9c56 c73d
00000230: cc24 473d c1c0 98bc aa30 cfbc b006 02bc
00000240: e414 143c c69c d93c 6287 abbb ef46 063d
00000250: 52e6 8f3d 868b 813c b049 103c 03b3 003d
00000260: 4808 4bbc 74ff b53d 7fe7 2a3b 1e2f 383c
00000270: b0c5 1fbc 02f8 a2bc a354 69bd b243 e7bc
00000280: 5757 cbbd 6a90 c4bd 1a7d b53d 367a 823d
00000290: 539e 873d ce5d 51bc 8b7d 06bc 1238 36bd
000002a0: b4a6 3dbd ab6b 47bd 7426 b5bd 7aae a4bc
000002b0: f819 94bd 9e69 cdbc bf86 033c 7e58 34bc
000002c0: ee46 403d d320 45bc 54b4 12bd fa47 84bc
000002d0: b717 27bd efe8 7bbd 18fc 29bd 61f6 44bd
000002e0: 66b8 1cbd db24 c6bc 06f2 2abd 8b2d d83c
000002f0: 3c7f 763b 0e37 4c3a edb0 923c 6c92 cf3c
00000300: 8748 fcbc 7008 a6bd 1f98 53bd 4110 59bc
00000310: 0523 ecbc 4aed 66bd d7cf 43bd 8c14 8a3b
00000320: cf5f 22bd 26c9 b4bb 041f 5f3c 7705 b5bb
00000330: f67c d3bc 4eda a2bb 7e13 103d 2246 593c
00000340: 6ca9 bf3c a7ff d6bc c3eb 6c3b c15e c1bb
00000350: bc02 e4bc 9ee7 313b 0177 3ebd f619 17bd
00000360: 8538 5d3d 6575 db3b 023b 4d3d 4676 46bd
00000370: a36f b13c 3439 22bb 519a 9b3b e18a f03c
00000380: 0961 803c f477 99bd e0fb ecbd d795 7fbd
00000390: e851 afbd 8d2d 8ebd fa38 b5bd 21a8 3fbd
000003a0: 1c3c 9dbd 644e eebc f674 38bd 01a5 2abd
000003b0: 8002 84bd cfcd 2fbd 1415 30bd 0f80 0cbd
000003c0: c77d 973d 4d67 4c3d eebb ad3d 5d12 55bd
000003d0: 5da9 88bd 37c4 58bd e61d a5bc 8a89 2abd
000003e0: 4c75 a9bc 0ea3 87bd 09a4 5ebd 218b 20bd
000003f0: 3338 a2bd a04b a2bd 69c4 05be 3530 ebbc

module.encoder.c2.main.3.bias f4 [64]
0.0015606629 -0.00091495446 -0.00058068975 0.0012171225 3.4685258e-05 -0.002392865 0.0019369507 -0.00021391585
-0.0017564894 0.0018085947 -0.00012614683 -0.001757682 -0.00069036614 0.0003508378 -0.00081525947 -0.00036168622
0.00042953982 -0.0012315549 0.0013753158 0.0008579235 0.0002002922 -0.0010791543 0.00024167502 -0.0001572102
0.00133522 0.0005566316 0.0009704182 0.0014630448 0.0008362186 -7.340957e-05 0.0011496346 -0.00092379906
0.0011420844 -0.0014711302 0.0010617553 0.00061287923 -0.0018213479 0.0025923823 0.00057055283 -0.0012545928
0.00034661306 0.00018490506 -0.00010659811 0.000614503 0.0016615604 2.2858423e-05 0.0011479079 0.0022426157
-0.0003439313 0.0025243424 -0.0009437746 0.0004264954 0.0020714367 0.0013935226 0.00019192243 0.0012064166
2.1469956e-05 -0.0006473414 -0.0010078709 -0.00024677083 -0.00020859354 0.0005820396 -0.0012018125 0.00081864593
00000000: 288f cc3a 8ed9 6fba 6e39 18ba db87 9f3a
00000010: 037b 1138 9dd1 1cbb 48e1 fd3a 994e 60b9
00000020: 013a e6ba 5e0e ed3a 4846 04b9 0562 e6ba
00000030: b0f9 34ba a7f0 b739 23b7 55ba b4a0 bdb9
00000040: dc33 e139 206c a1ba f143 b43a 45e6 603a
00000050: 8705 5239 6972 8dba 256a 7d39 cbd8 24b9
00000060: 8c02 af3a eaea 113a aa63 7e3a a3c3 bf3a
00000070: ae35 5b3a 76f3 99b8 56af 963a 1b2b 72ba
00000080: feb1 953a f0d2 c0ba 992a 8b3a a1a9 203a
00000090: 4bba eeba f5e4 293b 2791 153a 2671 a4ba
000000a0: 9eb9 b539 13e3 4139 6d8d dfb8 9916 213a
000000b0: b7c8 d93a 17c0 bf37 6675 963a d9f8 123b
000000c0: ad51 b4b9 706f 253b a467 77ba 3e9b df39
000000d0: f1c0 073b dca6 b63a c93e 4939 a020 9e3a
000000e0: 611a b437 59b2 29ba 891a 84ba 0561 81b9
000000f0: e7b9 5ab9 0494 183a 2386 9dba 669a 563a

module.encoder.c2.main.4.weight f4 [64]
0.93938136 0.96148795 0.98491955 1.0131375 0.96478987 0.998709 1.0422434 1.0576006
1.0606209 0.9824438 0.98515815 0.99791676 0.9832805 0.9590644 0.99995476 0.991717
0.98805153 0.98266906 0.99264544 0.92190325 0.9963387 1.0034 0.9432759 0.9833437
1.0055456 0.98321694 0.96713305 0.9556228 0.980418 0.94539523 1.0605943 0.97353333
1.0433427 0.9993927 0.9851705 1.006846 0.99568367 1.0019797 1.0040588 1.0252475
0.9767873 0.9968641 1.025451 0.9641864 1.0059853 0.9949346 0.99898225 1.0301759
0.979629 0.9592632 0.99888474 1.0304216 1.0036056 0.91165125 1.0115362 0.9698774
0.95652944 1.0241394 0.98053586 0.99690837 0.9703047 0.89361066 0.9827511 1.109768
00000000: 4c7b 703f 1324 763f b023 7c3f 7dae 813f
00000010: 78fc 763f 65ab 7f3f 3b68 853f 755f 873f
00000020: 6dc2 873f 7081 7b3f 5333 7c3f 7977 7f3f
00000030: 45b8 7b3f 3f85 753f 09fd 7f3f 2ae1 7d3f
00000040: f2f0 7c3f 3390 7b3f 031e 7e3f da01 6c3f
00000050: 0e10 7f3f 696f 803f 887a 713f 6abc 7b3f
00000060: b8b5 803f 1bb4 7b3f 0896 773f b2a3 743f
00000070: adfc 7a3f 6c05 723f 8ec1 873f 7b39 793f
00000080: 418c 853f 33d8 7f3f 2234 7c3f 54e0 803f
00000090: 20e5 7e3f df40 803f 0085 803f 4f3b 833f
000000a0: bc0e 7a3f 7c32 7f3f fa41 833f ebd4 763f
000000b0: 20c4 803f 09b4 7e3f 4dbd 7f3f cedc 833f
000000c0: f7c8 7a3f 4692 753f e9b6 7f3f dbe4 833f
000000d0: 2676 803f fa61 693f 057a 813f e349 783f
000000e0: 1ddf 743f 0017 833f 6604 7b3f 6335 7f3f
000000f0: e465 783f abc3 643f 9395 7b3f e10c 8e3f

module.encoder.c2.main.4.bias f4 [64]
-0.2552743 -0.13466644 -0.21282816 -0.1778213 -0.17331666 -0.11456634 -0.12326473 -0.109010324
-0.12798099 -0.19197105 -0.21121019 -0.111229524 -0.08149782 -0.15550509 -0.16266221 -0.2099077
-0.074403584 -0.269761 -0.14856352 -0.10294224 -0.042288244 -0.21535009 -0.14939792 -0.08206429
-0.16916856 -0.09844752 -0.19233173 -0.16726513 -0.1689446 -0.14292184 -0.12367496 -0.21066163
0.016069504 -0.23879382 -0.031140687 -0.12975402 -0.057666343 -0.19398135 -0.039471094 -0.16493906
-0.10888114 -0.23096421 -0.09760492 -0.09685059 -0.077345274 -0.08290634 -0.24196158 -0.17666225
-0.16215135 -0.21432205 -0.098767266 0.01054666 -0.17645319 -0.23123544 -0.124757156 -0.11597121
-0.17260024 -0.046292804 -0.14628275 -0.12010243 -0.13539352 -0.13080901 -0.055011135 -0.00720801
00000000: 50b3 82be 00e6 09be a0ef 59be c916 36be
00000010: ec79 31be c2a1 eabd 3872 fcbd ce40 dfbd
00000020: 730d 03be 0f94 44be 7c47 58be 4ecc e3bd
00000030: 54e8 a6bd ba3c 1fbe ec90 26be 0bf2 56be
00000040: e860 98bd 1d1e 8abe 0921 18be 62d3 d2bd
00000050: 7036 2dbd bc84 5cbe c5fb 18be 5311 a8bd
00000060: 863a 2dbe da9e c9bd 9cf2 44be 8d47 2bbe
00000070: d0ff 2cbe 1a5a 12be 4c49 fdbd afb7 57be
00000080: 31a4 833c 5e86 74be c11a ffbc 3dde 04be
00000090: 8b33 6cbd 0ca3 46be 71ac 21bd c9e5 28be
000000a0: 13fd debd e281 6cbe 17e5 c7bd 9a59 c6bd
000000b0: 3367 9ebd cdca a9bd c7c4 77be f3e6 34be
000000c0: 010b 26be 3d77 5bbe 7e46 cabd e6cb 2c3c
000000d0: 25b0 34be fcc8 6cbe ae80 ffbd 5082 edbd
000000e0: 1ebe 30be 869d 3dbd 25cb 15be 43f8 f5bd
000000f0: 99a4 0abe ccf2 05be 5b53 61bd 2c31 ecbb

module.encoder.c3.0.weight f4 [32, 64, 3, 3]
0.0035854192 0.023118481 0.026217032 -0.0082583595 0.023236506 -0.026786711 0.00083189836 -0.013509718
-0.01759135 -0.04606779 0.0024543277 0.0036110666 -0.022408657 -0.024233533 -0.03043844 0.01744437
-0.012552337 -3.9840623e-05 0.00031420816 -0.060935486 -0.057886828 0.030894076 0.016355073 -0.012819427
0.040579703 0.05689824 0.026282927 0.023008358 0.0057354504 0.04948821 -0.042511478 -0.019999344
-0.09156853 0.05368751 0.058911275 -0.0011636968 -0.05198053 0.0195428 0.015467216 -0.019582797
0.026234537 -0.0016923473 0.01088491 0.014888612 0.034360446 -0.059396032 -0.064710036 0.002745555
-0.031685572 0.053442962 0.04097029 -0.062654935 -0.0648836 -0.06893244 -0.029081836 -0.00046127551
-0.0050735744 0.007951876 -0.011432783 0.042858567 -0.068969116 -0.11392096 -0.13120961 -0.037109137
-0.0068454016 -0.01949589 -0.1286652 -0.07692101 -0.090116166 0.05650781 0.06263841 0.030063098
0.0020139462 -0.05485738 -0.072572924 -0.01383754 0.014939526 -0.034102477 0.073526815 0.01604906
0.058608513 0.022659983 0.022695906 0.034311965 0.0021427767 0.01807434 -0.0029098378 -0.025678134
-0.038269166 0.0075112516 0.019311113 0.027638242 0.025705976 -0.022956215 -0.038110543 -0.056040715
-0.034906395 -0.0018861878 -0.01226314 -0.06495383 -0.117397554 -0.10154914 0.019986466 -0.011974241
-0.041259278 0.05977862 -0.005318957 0.034291994 0.022015026 0.07016697 0.0633204 -0.0065402235
0.0040003704 3.898001e-05 -0.023390476 -0.05870723 -0.013984986 0.03897688 0.011969314 -0.04335151
0.06333571 0.05594555 -0.0030138323 -0.030506175 -0.04696643 -0.026832933 -0.0013467972 0.02728825
0.05161857 -0.062159497 -0.042010505 0.024198683 0.04375395 0.018230021 0.040444087 0.030923834
0.021272387 0.015762169 0.0449556 0.027729016 0.06479488 -0.009063504 0.0020926117 -0.016953956
-0.01951495 -0.027190903 -0.019539114 0.011308482 -0.011317669 -0.013153744 0.09564426 0.023464898
0.04764204 0.03420996 0.08633463 0.09907859 -0.03135512 -0.035803113 -0.052264567 0.015124174
-0.030355453 -0.017556882 -0.034622584 -0.038389653 -0.021565361 -0.031394172 -0.056598708 -0.004351274
-0.050051663 -0.03104409 -0.0102024395 0.06704014 0.08767292 0.058881316 0.06574352 0.03938095
0.036148213 0.021443516 0.0247657 0.04702201 0.022779042 0.01968152 0.05897006 -0.06355091
-0.027659934 0.018400013 0.054103967 0.055369813 0.06588649 -0.029862527 -0.009663236 -0.0014121553
-0.028410519 0.0022247587 0.026580812 -0.21148987 -0.09856344 -0.13708599 -0.03418825 -0.056984678
-0.037765753 0.04893742 0.017947976 0.040858857 0.015238705 0.0604725 0.008761035 -0.05149677
-0.00574769 -0.026533961 -0.022783384 -0.023919778 -0.01358372 -0.073748104 -0.07953757 -0.0347403
0.0048214067 -0.004006505 -0.0032899668 -0.08070574 -0.011414387 -0.015627174 -0.035176426 0.0073056673
-0.031844363 -0.0024523137 -0.02851022 -0.022705788 0.012163488 -0.0047300365 -0.03515733 -0.018352944
-0.0020461627 -0.043557882 -0.07504629 -0.064075835 -0.037506346 -0.0045282776 0.015217108 0.019464696
-0.07270944 -0.060039755 -0.044147935 0.011128624 -0.002395107 -0.0030886396 0.043541778 0.028496984
0.04106692 0.005541608 0.0036327757 0.018116577 0.020338459 -0.027038326 0.0042712907 -0.009428848
00000000: 5af9 6a3b f862 bd3c 1ac5 d63c 124e 07bc
00000010: 7c5a be3c ce6f dbbc c113 5a3a dd57 5dbc
00000020: bc1b 90bc 94b1 3cbd c9d8 203b a5a7 6c3b
00000030: 5c92 b7bc 6785 c6bc 095a f9bc 7fe7 8e3c
00000040: 51a8 4dbc 8b1a 27b8 4ebc a439 7d97 79bd
00000050: bd1a 6dbd 9315 fd3c 13fb 853c 9308 52bc
00000060: e736 263d 210e 693d 4b4f d73c 067c bc3c
00000070: 72f0 bb3b 26b4 4a3d 8420 2ebd aad5 a3bc
00000080: 4888 bbbd 6fe7 5b3d f34c 713d 2f87 98ba
00000090: 89e9 54bd 3918 a03c 356a 7d3c 1a6c a0bc
000000a0: d0e9 d63c c1d1 ddba 9f56 323c 5def 733c
000000b0: 8abd 0c3d 4149 73bd b286 84bd c5ee 333b
000000c0: bbc8 01bd 02e7 5a3d 76d0 273d 3b51 80bd
000000d0: b1e1 84bd 732c 8dbd 083d eebc 5ad7 f1b9
000000e0: 3a40 a6bb 9648 023c 9150 3bbc 778c 2f3d
000000f0: ae3f 8dbd 644f e9bd d05b 06be c0ff 17bd
00000100: 644f e0bb d8b5 9fbc cfc0 03be c388 9dbd
00000110: d38e b8bd bc74 673d 9148 803d e346 f63c
00000120: 69fc 033b 22b2 60bd 1da1 94bd d9b6 62bc
00000130: eac4 743c 0aaf 0bbd 3a95 963d 5179 833c
00000140: 7b0f 703d 6ea1 b93c c4ec b93c b48a 0c3d
00000150: d46d 0c3b a310 943c fab2 3ebb f35a d2bc
00000160: 21c0 1cbd f220 f63b 5732 9e3c 9869 e23c
00000170: 5795 d23c ac0e bcbc cd19 1cbd f38a 65bd
00000180: 02fa 0ebd f639 f7ba 56eb 48bc 8306 85bd
00000190: 216e f0bd fff8 cfbd a8ba a33c 9b2f 44bc
000001a0: 7dff 28bd 6dda 743d a54a aebb c375 0c3d
000001b0: db58 b43c b3b3 8f3d 20ae 813d 5f4f d6bb
000001c0: 8a15 833b 787e 2338 629d bfbc fe76 70bd
000001d0: 4821 65bc 39a6 1f3d f11a 443c 5a91 31bd
000001e0: 27b6 813d 2927 653d b783 45bb 16e8 f9bc
000001f0: df5f 40bd bdd0 dbbc 0487 b0ba 9c8b df3c
00000200: fe6d 533d f59a 7ebd 3513 2cbd 513c c63c
00000210: 5837 333d 2057 953c b3a8 253d fb53 fd3c
00000220: 6e43 ae3c aa1f 813c 5d23 383d f627 e33c
00000230: 2eb3 843d 177f 14bc 3324 093b 06e3 8abc
00000240: d1dd 9fbc 75bf debc 7e10 a0bc 3647 393c
00000250: bf6d 39bc cd82 57bc 23e1 c33d 7539 c03c
00000260: 4d24 433d be1f 0c3d 36d0 b03d b7e9 ca3d
00000270: 3a6e 00bd 49a6 12bd 5f13 56bd 62cb 773c
00000280: 00ac f8bc 73d3 8fbc 69d0 0dbd 783e 1dbd
00000290: d7a9 b0bc 2d97 00bd 0cd4 67bd 2295 8ebb
000002a0: f902 4dbd 2d50 febc 2228 27bc 574c 893d
000002b0: dc8d b33d 892d 713d 8aa4 863d eb4d 213d
000002c0: 2610 143d 50aa af3c 70e1 ca3c 279a 403d
000002d0: 1d9b ba3c 243b a13c 978a 713d fb26 82bd
000002e0: 1697 e2bc a0bb 963c 1f9c 5d3d 75cb 623d
000002f0: 7fef 863d 42a2 f4bc 8d52 1ebc 1218 b9ba
00000300: 2dbd e8bc 42cd 113b 01c0 d93c cd90 58be
00000310: a1db c9bd 4560 0cbe fa08 0cbd c468 69bd
00000320: 43b0 1abd 9b72 483d a207 933c 9e5b 273d
00000330: c3ab 793c 03b2 773d 728a 0f3c 47ee 52bd
00000340: 1e57 bcbb c05d d9bc 38a4 babc 69f3 c3bc
00000350: 408e 5ebc 3f09 97bd 98e4 a2bd d84b 0ebd
00000360: e4fc 9d3b 0049 83bb 7c9c 57bb 0d49 a5bd
00000370: 6903 3bbc 8f04 80bc 2815 10bd 6164 ef3b
00000380: 3c6f 02bd ffb6 20bb 448e e9bc 7d01 babc
00000390: 5e49 473c 6cfe 9abb 2201 10bd ea58 96bc
000003a0: ea18 06bb c069 32bd dfb1 99bd 313a 83bd
000003b0: 41a0 19bd f261 94bb 2d51 793c 6d74 9f3c
000003c0: b0e8 94bd 3fec 75bd 77d4 34bd d554 363c
000003d0: 3af7 1cbb c66a 4abb dd58 323d 8272 e93c
000003e0: c935 283d 6196 b53b dd13 6e3b 3769 943c
000003f0: d79c a63c 7b7f ddbc 2ff6 8b3b 747b 1abc

module.encoder.c3.0.bias f4 [32]
0.0002439685 -0.0017207402 0.0012336308 0.0015232926 -0.0002102548 0.001121129 0.0011088904 0.0008311147
0.0047432324 0.0001117687 0.0018846373 -0.001521822 -0.000117210315 0.00398982 0.0001856111 -0.00060338026
-0.0020796673 -0.002479103 0.004194698 -0.00041355894 -3.1054373e-05 -0.0006322466 -0.0001883327 -0.001153588
-0.0008079782 -0.00046517834 0.0021588448 0.00029609227 -0.00018163492 -0.0028898604 -0.0008230416 0.0012834897
00000000: ccd1 7f39 768a e1ba c8b1 a13a 38a9 c73a
00000010: d877 5cb9 d9f2 923a 3058 913a 2adf 593a
00000020: 1e6d 9b3b 5d65 ea38 ef05 f73a df77 c7ba
00000030: cfce f5b8 09bd 823b 9aa0 4239 2a2c 1eba
00000040: 074b 08bb 7278 22bb ad73 893b f1d2 d8b9
00000050: 6140 02b8 5abd 25ba 2d7b 45b9 fd33 97ba
00000060: 80ce 53ba 2ee3 f3b9 687b 0d3b d53c 9b39
00000070: 4175 3eb9 d063 3dbb 63c1 57ba c53a a83a

module.encoder.c3.1.weight f4 [32]
1.3508205 1.2202109 1.0706283 1.1642584 1.3886083 1.2515218 1.2009349 1.3071998
1.2841153 1.3424599 1.2543079 1.175649 1.3802097 1.3051969 1.2214762 1.1506873
1.1955938 1.2210467 1.3424569 1.0773145 1.0566101 1.2543852 1.148379 1.2581673
1.2457517 1.0932857 1.2754252 1.1642817 1.3931788 1.065543 1.2547323 1.2485332
00000000: b0e7 ac3f df2f 9c3f 590a 893f 6b06 953f
00000010: ebbd b13f de31 a03f 3cb8 993f 5352 a73f
00000020: e45d a43f bad5 ab3f 298d a03f ab7b 963f
00000030: b6aa b03f b110 a73f 5559 9c3f b949 933f
00000040: 3809 993f 424b 9c3f a1d5 ab3f 71e5 893f
00000050: 003f 873f b28f a03f 15fe 923f a00b a13f
00000060: cb74 9f3f c9f0 8b3f 2241 a33f 2f07 953f
00000070: af53 b23f b763 883f 119b a03f f0cf 9f3f

module.encoder.c3.1.bias f4 [32]
0.050739832 0.11953991 -0.1160853 -0.0116449315 0.009178431 -0.025439225 0.009869793 0.13866208
0.10520811 -0.14523788 -0.1625386 -0.12020176 0.02896085 -0.05229724 -0.0435539 0.13843204
0.043713044 0.126811 -0.09522777 0.04243783 -0.15743318 -0.017355848 -0.05256629 -0.01250134
0.13977684 -0.056473248 0.09017597 0.056677062 -0.0042757476 0.107957795 0.06821204 0.07288999
00000000: 92d4 4f3d 57d1 f43d 21be edbd 62ca 3ebc
00000010: 2161 163c ec65 d0bc eab4 213c 6ffd 0d3e
00000020: 5977 d73d 3db9 14be 8570 26be 572c f6bd
00000030: 4e3f ed3c a135 56bd 9365 32bd 21c1 0d3e
00000040: 730c 333d beda 013e c706 c3bd 4ad3 2d3d
00000050: 2a36 21be da2d 8ebc c04f 57bd 6cd2 4cbc
00000060: a921 0f3e 7e50 67bd 2eae b83d 3526 683d
00000070: 921b 8cbb fa18 dd3d c1b2 8b3d 5947 953d

module.encoder.c3.1.running_mean f4 [32]
-1.0477713 1.9859631 -1.3143846 0.4780031 0.7229227 0.36991832 0.41739124 0.5618692
1.3039389 -0.6254343 1.7838029 0.8924355 0.8306611 0.32568806 -0.39466983 3.036076
-0.3528155 1.1866617 0.6893112 -2.1208146 -1.3764147 0.4411802 -3.4794657 -0.49417794
-1.9431871 1.2962399 -1.4738394 -0.31306133 0.72218215 -1.2281561 0.7254175 -0.5000793
00000000: 5f1d 86bf 0a34 fe3f c13d a8bf d3bc f43e
00000010: 7611 393f ef65 bd3e 4eb4 d53e a9d6 0f3f
00000020: 78e7 a63f 761c 20bf a753 e43f a776 643f
00000030: 35a6 543f 96c0 a63e 2a12 cabe 124f 4240
00000040: 3ca4 b4be 88e4 973f b376 303f 6dbb 07c0
00000050: 5b2e b0bf 5fe2 e13e 91af 5ec0 e404 fdbe
00000060: 5bba f8bf 30eb a53f c5a6 bcbf 9349 a0be
00000070: eee0 383f 3834 9dbf f6b4 393f 3205 00bf

module.encoder.c3.1.running_var f4 [32]
0.9959122 2.049657 1.6659393 1.4651208 1.0378029 1.0566987 2.474794 1.7619454
0.8521531 1.0354359 1.7200314 1.4829557 1.7000961 1.0285951 2.4919515 1.2879008
1.306261 0.8584961 1.1232805 1.6481717 1.4211408 2.079148 1.9853384 2.470611
1.0462581 1.1502569 1.3367517 1.7940782 2.187145 1.7378637 1.6935744 1.3787637
00000000: 1af4 7e3f 952d 0340 803d d53f 1489 bb3f
00000010: bad6 843f e741 873f 0663 1e40 6d87 e13f
00000020: b526 5a3f 2a89 843f fd29 dc3f 7ed1 bd3f
00000030: c09c d93f 01a9 833f 227c 1f40 efd9 a43f
00000040: 8f33 a73f 67c6 5b3f a8c7 8f3f 4af7 d23f
00000050: f1e7 b53f c310 0540 921f fe3f 7e1e 1e40
00000060: c9eb 853f 9e3b 933f ae1a ab3f 5ba4 e53f
00000070: 2ffa 0b40 5172 de3f 0cc7 d83f 547b b03f
