logs/exp1/model_iters_25000.pth (torch, 495376 bytes, 47 tensors)

module.encoder.c1.main.0.weight f4 [32, 3, 3, 3]
000000 50 05 b8 3d b1 6f e1 bc 8f 62 92 3c b1 d7 ec 3c
       0.08985388 -0.027519079 0.017869262 0.028911443
000010 64 17 11 3c 6f b6 13 ba 27 02 d9 3b a1 6d 88 bd
       0.008855674 -0.00056347897 0.006622571 -0.06661535
000020 d1 da 1b bd 39 d9 5b bd 6e 67 21 3d 53 d5 d9 3c
       -0.038050476 -0.053673957 0.03940528 0.026590979
000030 c2 7c 6f bd 98 2c 86 bc ec 7a 94 bc 58 14 4a bd
       -0.058468588 -0.016378686 -0.01812502 -0.049335808
000040 8d 78 ca 3a 45 af 51 3c 29 a7 e1 bc d7 e6 11 3b
       0.0015447304 0.012798135 -0.027545528 0.0022262835
000050 28 55 08 3d 81 d5 c7 bc d9 2e 82 bc 3a 39 27 3d
       0.033284336 -0.024393799 -0.01589148 0.04082606
000060 6d f8 e2 3c f4 88 4f 3c 01 c5 23 3d 3b 57 ec bc
       0.02770635 0.0126669295 0.0399828 -0.028850188
000070 7c 5e 24 bb 20 82 be bc 8f 8f 8d bc df e4 85 bd
       -0.002508073 -0.023255408 -0.017280368 -0.06537794
000080 28 eb 31 bd 9b 1c d0 3c ba cd e9 3c 2f 47 be 3c
       -0.043437153 0.025404265 0.02854048 0.023227302
000090 3a bb c1 bd a6 2b f0 bc c8 df c4 bd f8 bc 3e bd
       -0.09459539 -0.029317688 -0.096129954 -0.046566933
0000a0 72 a4 7a bd e4 23 5f bd 91 1a 26 bc fd ee 93 bc
       -0.061191984 -0.054477587 -0.01013817 -0.018058294
0000b0 19 03 2c bd e1 52 d2 3c 3b bd c9 3c 99 60 7f 3c
       -0.04199514 0.025674285 0.024626365 0.0155869955
0000c0 f4 8f 12 3b 74 df 8e 3c b7 1d ca 3b 4a c1 c6 3c
       0.0022363635 0.017440535 0.006168093 0.02426209
0000d0 3a 03 4c 3c 74 07 8d 3a 4f 45 7f 3c 69 ed ce 3c
       0.012451941 0.0010759667 0.015580489 0.02525969
0000e0 e4 3c 2a bc 2f 73 df 3c 32 7b 84 bc f5 c0 1a bd
       -0.010390494 0.027276604 -0.016172025 -0.037781674
0000f0 3c 9a a8 bc 94 dd 2b bd 56 54 4b bd 9e 52 36 3d
       -0.020581357 -0.04195936 -0.049640976 0.044512384
000100 7a 45 fc 3c 61 01 ba 3c 51 78 30 3c a9 67 dd 3c
       0.030794848 0.022705736 0.010770873 0.027026968
000110 9a 9a b4 3c ff 50 b4 3c 8d 1f 26 3d 6a 4e 6a ba
       0.022046376 0.022011278 0.040557433 -0.0008938076
000120 d0 4d 6f bd ec e3 a7 bd 9f 61 35 bd e4 88 42 bd
       -0.058423817 -0.081977695 -0.04428255 -0.04749383
000130 c3 db 20 bd 0b 49 6d bd 80 6e 80 bd d5 bb 26 bd
       -0.03927208 -0.057930987 -0.06271076 -0.040706474
000140 6f f2 18 bd b5 09 c1 bc b0 02 88 bc 8a 9c 8c 3d
       -0.037340578 -0.023564199 -0.016602844 0.06865795
000150 bf 9c 36 3c 38 73 15 3d e1 f8 f7 3d da 0e 06 3c
       0.01114577 0.036486834 0.12108017 0.008182252
000160 57 d9 8b bc bc 13 e9 3d f2 75 01 3d 7f 1c 12 3d
       -0.01707141 0.11380717 0.031606622 0.035671707
000170 89 75 51 3d ff d8 5f bc 59 8e 3a 3a 0a f5 7c bc
       0.05113748 -0.013662576 0.00071165484 -0.015439281
000180 15 92 b1 bc ca e5 39 bd f5 81 9b bc 44 0c 4b bc
       -0.021676103 -0.04538516 -0.018982867 -0.012393061
000190 9f de 1d 3a 16 44 d4 3c 7e b2 74 3b b2 6f 3e 3c
       0.0006022248 0.025911372 0.0037337835 0.01162331
0001a0 cb 2f b5 3c b2 16 4a bc bf de fb bb e7 44 5f bc
       0.022117516 -0.012334513 -0.0076864655 -0.013627267
0001b0 a6 e2 e8 b9 40 b8 5d 3c ea a2 9d bc 96 3e 10 3a
       -0.00044419355 0.013532698 -0.019242723 0.000550249
0001c0 9c c2 e0 bc 80 f2 97 bc 6b fa 04 b9 73 be 81 3b
       -0.027436547 -0.01854825 -0.00012681789 0.003959471
0001d0 04 f3 e3 bc 28 94 f7 bc e2 25 cd bc b8 39 74 3c
       -0.02782584 -0.030222014 -0.025042478 0.014906339
0001e0 7e ff 19 3d 05 2e 1c 3d bb 76 cd 3c ca d2 8a bc
       0.037597172 0.038129825 0.02508103 -0.016946215
0001f0 9f 63 16 bd 23 dd e0 3a e6 6a b5 bd 7d 1c b3 bd
       -0.0367161 0.0017155748 -0.0885828 -0.08745668
000200 53 8e 22 3c 12 87 31 bd 5a 58 9e 3c fa db 99 3d
       0.009921628 -0.043341704 0.019329239 0.0751266
000210 5a 46 10 be 8d d9 ad bd 58 67 45 bc c8 9a 9a 3d
       -0.14089337 -0.0848876 -0.012048565 0.075490534
000220 cf eb 9b 3d c0 4f fa 3d 7a 43 47 3b 61 d2 83 3a
       0.07613336 0.12222242 0.003040521 0.0010057205
000230 cf 83 43 3c 73 2e 02 bc 6c ab f2 bc 7d bc 96 3c
       0.011933281 -0.007945645 -0.029622756 0.018400425
000240 f0 de 1f bc 20 35 d9 bc 33 8c 37 bd 3a ec 4d bc
       -0.009757742 -0.02651459 -0.04481144 -0.012568528
000250 e2 d6 ab bb 93 c0 7a bc 64 2f b5 bc eb ef a6 3c
       -0.005244122 -0.015304702 -0.022117324 0.020378074
000260 2b 83 0a 3b 4e 19 8d 3c d1 f3 32 3d 39 53 2b 3c
       0.002113531 0.01722398 0.043689553 0.010456854
000270 4a 8c 0e 3d 17 29 04 3b 5b 4a be bc df bf 3f bb
       0.03480176 0.0020166093 -0.023228815 -0.0029258651
000280 86 09 00 3d 19 07 9d bb 0c 02 84 bc ee 91 5b bd
       0.031259082 -0.004792106 -0.016114257 -0.053605966
000290 92 86 e8 bc 78 6f aa 3c a1 42 71 3c cf 92 0b 3d
       -0.02838448 0.020805106 0.014725358 0.034075554
0002a0 69 e2 93 bc cc c9 74 3c 27 c6 db 3c 98 01 03 3b
       -0.018052297 0.01494069 0.026827885 0.0019989964
0002b0 2e a6 9b 3c 2a a3 8b 3b 28 94 9a 3d 84 22 23 3d
       0.01900014 0.004261394 0.0754779 0.03982784
0002c0 41 b9 17 3d de 2d 12 bd 7b 59 c3 bd 1f 75 28 bd
       0.037041906 -0.035688274 -0.095385514 -0.04112732
0002d0 81 65 24 ba 29 f5 86 bc 1e de c9 bc ed 25 95 3d
       -0.0006271229 -0.016474323 -0.024642047 0.072826244
0002e0 69 48 37 3d 77 0d 03 bc 2c a4 78 bc 85 79 f6 bc
       0.04474679 -0.007998816 -0.01517586 -0.030087242
0002f0 09 e0 bd bd 10 a3 08 bd 75 53 41 3d 3d 75 3a 3b
       -0.09271247 -0.033358634 0.04719873 0.0028451227
000300 7c db ec 3c ed f4 6d 3c 3d 84 b2 3c 6d b2 f9 bb
       0.028913252 0.014523727 0.021791572 -0.007620147
000310 ab 0d a9 3b 20 4b ad bc cd 90 8e 3d 27 43 fa 3c
       0.0051591 -0.021153986 0.06961212 0.030549599
000320 5f 86 6f 3d 6d 36 e9 3c ed 8b 08 3d 72 1d c0 3d
       0.058477756 0.028468335 0.03333657 0.09380616
000330 7f 96 b5 b9 ba f8 9c bd 05 47 6b 3c a8 1d 8f bc
       -0.0003463514 -0.07664628 0.014360194 -0.017470196
000340 f8 c7 92 bb 3a d4 f8 bc 0a 08 8b 3c dc 4b 56 3c
       -0.0044794045 -0.030374635 0.016971607 0.01307961
000350 d9 d7 c4 3c 2c 6e be bc 7b c9 39 bd c9 02 90 bc
       0.024028705 -0.023245893 -0.045358162 -0.017579453
000360 b7 39 58 bc 07 9a 19 3c db 55 da bc c2 93 c6 bc
       -0.013197354 0.009375102 -0.026652267 -0.024240378
000370 d3 52 f0 3c 29 91 eb 3c ec 35 c0 bc 02 a6 c2 bc
       0.029336369 0.028755741 -0.023463212 -0.0237608
000380 04 c5 46 3c 11 86 27 3c bc 1a 2a bd 16 3c 0f 3b
       0.012131933 0.010224835 -0.041529402 0.0021855882
000390 94 2b ef bc e8 9c 9f 3a b6 6c ef bc 11 fe 1e bd
       -0.029195584 0.0012177499 -0.029226642 -0.038816515
0003a0 6d f0 5b bc c4 15 b6 bc 06 ee b2 3d 4a 25 6e 3d
       -0.013424021 -0.022227176 0.087368056 0.05814103
0003b0 70 b9 95 3d 81 17 06 3d 27 ba 24 3e 42 fb 6b 3d
       0.0731076 0.03273726 0.16086636 0.057612665
0003c0 b6 83 21 3c b1 6a 03 3d 47 ac 90 3d 84 15 f6 3c
       0.0098580625 0.03208417 0.07064109 0.030039556
0003d0 6d 92 09 3d b1 67 fe bc d0 dc 8e 3d c1 12 76 3d
       0.033586908 -0.031055303 0.069757104 0.06007648
0003e0 f5 ce e4 3b a9 07 fc bc 4a 17 a0 3c 7e 4c 03 bd
       0.006982679 -0.030765371 0.019542355 -0.03205537
0003f0 78 18 52 3c c5 69 51 3d 62 97 3b 3d 1a ba 93 3d
       0.012823217 0.05112626 0.045798667 0.072132304

module.encoder.c1.main.0.bias f4 [32]
000000 81 b5 99 3c 64 3d 20 bd 9b 26 b1 bb 12 17 d4 bb
       0.018763306 -0.039121047 -0.0054062135 -0.0064724768
000010 e1 7e 77 3a 32 ea df 3a de 88 41 3b 72 a6 ec bb
       0.00094412087 0.0017083345 0.0029531042 -0.0072219903
000020 c8 c9 dd 3c 9a 7d 43 3b fa 69 46 bd 3b 25 19 bc
       0.027073756 0.0029829503 -0.04844091 -0.009347255
000030 9a 31 25 3d 88 c3 22 bd f9 e9 79 ba 20 e4 09 bc
       0.040330507 -0.039737254 -0.0009533461 -0.008416206
000040 6e cf 88 3c 95 c3 51 3a 61 d7 8f bc a9 89 aa 3c
       0.016700473 0.0008001861 -0.017558755 0.020817595
000050 5d 08 bf bd 2d 3b 83 3c 4c 7f fb bc 5c 7a 93 bc
       -0.09327767 0.016019428 -0.030700348 -0.018002681
000060 c1 36 0d bd d2 65 00 3d 57 eb 0b bd 4f e7 15 bd
       -0.034476046 0.031347103 -0.034159984 -0.036597546
000070 fa 34 35 bd fd 5d 3b 3c 2b 43 e9 3c b0 c5 08 bd
       -0.044239976 0.011435983 0.028474411 -0.033391654

module.encoder.c1.main.1.weight f4 [32]
000000 19 9b 80 3f 8b 4b 85 3f 0b 4e 80 3f 1a a7 79 3f
       1.0047332 1.0413679 1.0023817 0.975206
000010 20 f4 7a 3f 2d 40 73 3f 16 f2 86 3f 19 1c 7b 3f
       0.98028755 0.950198 1.0542629 0.9808975
000020 0a a5 82 3f 8e 22 7c 3f 7e 07 7a 3f 2f a3 7a 3f
       1.0206616 0.98490226 0.9766768 0.9790525
000030 74 1c 7f 3f 55 a3 84 3f 1c 09 78 3f 44 5f 79 3f
       0.9965279 1.0362345 0.968889 0.9741099
000040 4a d5 80 3f 91 a7 77 3f 80 9d 7c 3f 41 54 7b 3f
       1.0065091 0.9674006 0.98677826 0.98175436
000050 ce 02 83 3f 67 e4 74 3f d6 a6 81 3f a1 f5 79 3f
       1.0235231 0.95661014 1.0129039 0.97640425
000060 92 68 7f 3f 51 2b 83 3f 9b fb 80 3f fd 41 7f 3f
       0.99768937 1.0247594 1.0076784 0.99710065
000070 6d 4d 78 3f bd f1 76 3f 9a c1 7a 3f a2 29 82 3f
       0.9699314 0.96462613 0.9795166 1.0168955

module.encoder.c1.main.1.bias f4 [32]
000000 b9 bd 91 bd c4 5d a1 3c 32 51 fb bd 18 36 80 bd
       -0.07116265 0.019698031 -0.12271346 -0.062603176
000010 6f 60 3c bd d1 39 81 bd 37 2e 5e bd 16 4f 6d bd
       -0.045990404 -0.06309856 -0.054243293 -0.05793675
000020 8a 27 08 be 87 ee d3 bd d2 4e 0a be 73 72 95 bd
       -0.13296333 -0.1034823 -0.1350663 -0.0729722
000030 13 f2 8f bd 40 a1 10 3d 59 fe 45 bd 9a 74 43 bd
       -0.07028594 0.03531003 -0.048338268 -0.04771862
000040 2b f7 37 bd 86 1a 03 bd fc 6c 53 bd c8 3f 06 bd
       -0.044913452 -0.032007717 -0.051617607 -0.03277567
000050 d3 93 bb bd 13 ff a3 bd fb 23 81 bd 01 b9 4e bd
       -0.091590546 -0.08007636 -0.06305691 -0.050469402
000060 88 ec 48 bc d8 62 d8 bd 0b c8 28 bd 8a ca 9b bc
       -0.012263425 -0.10565728 -0.0412064 -0.019017477
000070 9d 08 0c bc e9 81 ba bc 54 aa f9 bc c3 d6 4c bd
       -0.008546975 -0.022767024 -0.030476727 -0.0500095

module.encoder.c1.main.3.weight f4 [32, 32, 3, 3]
000000 81 0c fe 3c e1 34 4d 3a a9 73 78 bc 86 0f ee 3c
       0.031011822 0.0007828009 -0.015164294 0.029060137
000010 a2 b2 2d 3d 70 4f e5 3b 18 65 4b bd 3a 6f dd bb
       0.042406686 0.006997995 -0.049656957 -0.006757644
000020 d3 97 8c bc f9 16 00 bd 9d 29 46 3c b6 87 1d bd
       -0.01716224 -0.03127191 0.012094882 -0.038459502
000030 49 86 3f bd 25 96 84 bb 16 dd 8d 3c ab 29 ea bc
       -0.046758924 -0.004046219 0.017317336 -0.028584322
000040 79 38 96 3b 24 c6 a8 3c 30 fa 0b bd c9 51 53 3c
       0.004584369 0.020602293 -0.034174144 0.012897917
000050 e4 bf f0 bb f7 7c 22 bc 7c 80 0e 3d 60 a4 b6 bb
       -0.007347094 -0.009917489 0.0347905 -0.0055737942
000060 d0 2b a5 bc d4 fa 93 3c a9 b9 14 3d d3 7a 04 3d
       -0.020162493 0.01806394 0.03630987 0.032343697
000070 d5 36 68 bc 2a 28 4e 3d 96 c0 08 3d 6b bb 5b 3c
       -0.014173229 0.050331272 0.03338679 0.013411383
000080 b1 7a 21 bd 8e 51 86 ba 94 12 8d bc cf 06 ce 3b
       -0.03942365 -0.0010247694 -0.017220773 0.0062874327
000090 75 60 18 bd c7 33 6a 3d 1f 71 f6 3c 64 a0 55 bd
       -0.037201364 0.057178285 0.030083237 -0.052154914
0000a0 f2 9e b6 3b 8a e8 9f bc 84 6c d5 bc cd d2 79 3d
       0.005573147 -0.019520063 -0.02605272 0.06099205
0000b0 48 80 18 3d e6 aa 0d bd 29 e7 ff bc 28 e8 94 3c
       0.037231714 -0.03458681 -0.031238155 0.018177107
0000c0 bf 09 8d 3c 73 71 f9 3a ae be b7 3b fa ff f8 bb
       0.017216561 0.0019031003 0.0056074476 -0.007598874
0000d0 44 38 b7 bc de 88 19 3d 1f 0f e6 3c c8 f0 7f 3d
       -0.022365697 0.037484042 0.028083382 0.062485486
0000e0 9f 1b d8 3d 9d 33 35 bd 35 f1 00 be 1a 35 12 be
       0.10552143 -0.044238675 -0.12592013 -0.14278069
0000f0 73 23 8d 3c 8b 25 84 3c 55 ab c3 3c 02 5e 89 3d
       0.017228818 0.016131183 0.023885408 0.06707384
000100 fc b9 8e 3d ed 60 6a 3d 93 06 39 bd 10 76 0a bd
       0.069690675 0.057221342 -0.045172285 -0.033804
000110 12 df af bd d5 ae 93 bc bb cd ee bc cb 34 1a bd
       -0.08587469 -0.018027702 -0.029150834 -0.037648004
000120 71 03 0c bc ca 95 fa 3c 20 9c 9e 3b c7 b0 24 3d
       -0.008545742 0.030589003 0.004840389 0.04020765
000130 39 2c a1 ba c2 69 7d 3c c5 e4 3c ba 03 b4 c4 3c
       -0.0012296505 0.015467109 -0.000720572 0.024011618
000140 e0 56 c1 bc d0 fb 3c 3d e0 4f 96 3d a5 f8 50 3d
       -0.023600996 0.046138585 0.07339454 0.051018376
000150 57 4c 00 bd 93 36 08 3d 6e 86 84 bc 38 26 da bc
       -0.031322803 0.03325517 -0.016177382 -0.026629552
000160 e0 d5 8a bc ac 4b 16 bd fe 3c 40 bc 9e 30 e9 bb
       -0.016947687 -0.03669326 -0.011733292 -0.0071163913
000170 82 e8 da 3b ee 53 a8 3c c7 56 e4 3c 4c b5 88 3b
       0.006680549 0.020547833 0.02787341 0.004172003
000180 c2 39 2f 3c 12 26 06 bb 69 f7 1e bc c3 3f 2f bd
       0.010694923 -0.002046947 -0.009702542 -0.042785417
000190 5d 43 87 3d 18 93 09 3d 49 1d 79 bd 83 fa 0c 3d
       0.066046454 0.033587545 -0.060818944 0.034418594
0001a0 14 64 3e bc df e9 cb bc 43 06 bc 3b 94 d4 4f 3d
       -0.01162054 -0.024891792 0.005738051 0.05073984
0001b0 dd ff 8b 3c cd 71 97 bb 60 24 d1 3b b2 76 d9 3b
       0.017089779 -0.0046217204 0.00638251 0.006636464
0001c0 40 fa e3 3c 5c 08 a5 3c ef a6 e8 bc 36 2d e8 bb
       0.02782929 0.020145588 -0.028399913 -0.0070854677
0001d0 ca b3 ef bc 3d a6 62 bb 5f f5 80 3c 01 9e 43 bd
       -0.029260535 -0.003458395 0.015742002 -0.047758106
0001e0 10 a3 aa bc a6 1f 2e bc 6a 14 ca 3d 7c 65 1c bd
       -0.020829707 -0.010627663 0.09867175 -0.03818272
0001f0 da b5 d4 bc 99 09 16 bd 5f ae 1c bd a4 b5 25 bc
       -0.02596562 -0.036630247 -0.03825223 -0.010114107
000200 ac 95 fd 39 d7 60 04 bd 40 8b ff 3b 5f 57 1e 3d
       0.00048367435 -0.032318916 0.0077985823 0.038657542
000210 d9 37 4d bd d3 38 bd 3c e1 50 df 3c 95 c0 74 3c
       -0.05010209 0.023098385 0.027260246 0.014938493
000220 98 1a c6 bd f6 18 d0 bb 9c 91 5e 3d f0 3f 6d bd
       -0.09673041 -0.006350632 0.054338083 -0.057922304
000230 54 58 13 3d c1 8f 84 3d 0b 0e 45 bc e5 66 94 3d
       0.03597291 0.064727314 -0.012027274 0.07246188
000240 3b db da bc 2b 4e 8d bc 56 9f 2e bd b4 d2 78 bd
       -0.026715865 -0.017249187 -0.042632423 -0.060747817
000250 de 2c a5 3c 3c 83 eb 3c 16 2a 5b bd e3 4a 89 bb
       0.020162996 0.0287491 -0.053506933 -0.0041898354
000260 c2 cc 42 bb 36 48 9a bc 32 f8 72 bd 6e cd 05 3d
       -0.0029724096 -0.018833261 -0.05931873 0.032666616
000270 0b a9 56 3c 1a ee 82 bc 88 dc 19 bd 8f cf d6 bc
       0.013101826 -0.015982676 -0.03756383 -0.026222019
000280 62 8d 4b bd 62 6d 26 3c d8 b6 35 bc f9 ac 54 bd
       -0.04969538 0.010157915 -0.011090957 -0.051922772
000290 a4 f8 8e bb f6 af 81 3c 84 bc b5 3b 6a 5f 39 3d
       -0.0043631364 0.015830975 0.0055461545 0.04525701
0002a0 f5 73 87 3c 8e e0 aa 3c e6 1e 8d 3d e7 e6 b6 bb
       0.016534785 0.02085903 0.06890659 -0.005581725
0002b0 d5 cf 40 bc 96 88 90 39 2c 9b 24 3b 07 0d 28 bd
       -0.011768301 0.00027567585 0.0025116904 -0.04102805
0002c0 b5 d0 ff bc 70 42 0b bd be e6 a8 3c 26 e0 5a 3c
       -0.031227449 -0.033998907 0.020617839 0.013359105
0002d0 3f 0f 66 bd 3f 11 76 bd a0 25 11 bd 05 b6 dd 3c
       -0.056166884 -0.06007504 -0.035436273 0.027064333
0002e0 03 8d f6 3c 98 da 76 bc 64 b6 a5 3c a1 6f 9e bb
       0.030096537 -0.015066765 0.020228572 -0.0048350845
0002f0 28 82 4a 3d 0e a7 b5 bb 71 b6 f5 ba 57 9e 04 3d
       0.049440533 -0.005543596 -0.0018746388 0.032377567
000300 fc 9c 2b bc 0e 67 ad bc 1e 56 37 3b 38 5c 62 bc
       -0.01047444 -0.021167304 0.0027974914 -0.013815932
000310 dc 8c 0e bd 26 68 1f bc 68 f4 2e bc a6 4d 99 3b
       -0.034802303 -0.009729421 -0.010678388 0.004678446
000320 a4 5c 03 bc 27 0f 47 bd 38 0b 60 bc f7 34 20 bd
       -0.008017693 -0.048598435 -0.01367455 -0.03911301
000330 d3 28 2c bb 7c 00 e2 3c 5f 81 06 3d 22 69 fa bc
       -0.002626945 0.027588122 0.03283822 -0.03056771
000340 a6 43 51 b9 20 a3 c5 bc ba ee 9e bd 7c 99 05 bc
       -0.00019956994 -0.024125636 -0.07760377 -0.008154269
000350 ec 18 7a bd ef 97 16 3b 54 7e 0b bd 09 30 c3 3c
       -0.061058924 0.0022978743 -0.034056023 0.023826616
000360 41 f6 cd bb 1d f8 0f bc 39 f9 76 bd f1 c1 b8 bc
       -0.0062854593 -0.008787182 -0.06029627 -0.022553416
000370 58 d4 f6 bc 15 42 2e 3d 2d 4d d5 3b 2a 80 2a bc
       -0.03013055 0.04254349 0.006509444 -0.010406533
000380 f4 41 75 bc 3f 40 8d bc af 67 ca bc 0a e5 37 3c
       -0.014969338 -0.017242549 -0.024707643 0.011224041
000390 08 13 bc bc 22 94 02 bc 45 53 48 bc e7 83 b9 bc
       -0.022958294 -0.007969888 -0.012226884 -0.022645904
0003a0 9c 21 9c bc 26 c3 16 3b 87 71 4c bd d1 a6 e9 3c
       -0.019058995 0.00230045 -0.049912956 0.028521927
0003b0 b3 19 b5 bc c5 f8 d7 bb de e1 86 3d be 37 4a 3c
       -0.02210698 -0.006590935 0.065860495 0.012342392
0003c0 fe 5c 5f bd 3b af b7 bc 16 07 48 bd 6e 0c 17 bd
       -0.054532044 -0.022422424 -0.048834883 -0.03687709
0003d0 6a c6 f3 3c 92 d1 52 3d cc 16 08 bd 23 91 3c bc
       0.029757697 0.051469393 -0.033224866 -0.011509213
0003e0 91 1f 94 3d ce d6 9a ba 16 9c 53 3c 20 69 a5 bb
       0.07232583 -0.0011813284 0.012915632 -0.0050479323
0003f0 4a 7f 90 bc e5 67 c9 bc 0a be da bb e3 0c 9e b9
       -0.017638821 -0.024585674 -0.0066754865 -0.0003014571

module.encoder.c1.main.3.bias f4 [32]
000000 04 dd 82 3b 5f 61 2e 3a 9b 07 1c bb 79 16 cd bb
       0.0039936323 0.00066520827 -0.0023808244 -0.0062587825
000010 ad 7e 91 ba 4d 89 d5 bb 2a a7 d0 ba 0e 06 33 ba
       -0.0011100374 -0.0065166117 -0.0015918959 -0.00068292103
000020 0d d0 2d 3b bf 48 08 ba 0f f9 56 3b 28 1b dc 39
       0.0026521713 -0.00051988283 0.003280226 0.00041981903
000030 2c 09 23 b8 85 88 5c 3a d3 b1 6d bb 40 f7 42 3b
       -3.887077e-05 0.0008412677 -0.0036269322 0.0029749423
000040 9a 09 39 bb bc 74 34 3b 7b 52 5e ba e5 00 51 bb
       -0.0028234483 0.00275354 -0.00084809185 -0.0031891402
000050 07 e6 12 ba 62 14 fd 3a b8 21 2d bb 96 f2 7f bb
       -0.0005603735 0.0019308443 -0.0026417803 -0.0039054505
000060 73 87 34 bb 1d e3 c6 3a cb bd 56 3b 27 5d d6 bb
       -0.0027546554 0.0015173886 0.0032766934 -0.0065418663
000070 4d 3b f6 b8 81 b5 ec 3a bb b6 d6 ba b4 7d 12 bc
       -0.0001174124 0.0018059463 -0.0016381362 -0.008941103

module.encoder.c1.main.4.weight f4 [32]
000000 88 89 7f 3f f8 57 70 3f 96 f2 80 3f dc 0a 79 3f
       0.9981923 0.9388423 1.0074031 0.97282195
000010 34 0e 67 3f 79 c2 81 3f 4b 6c 69 3f f5 4f 65 3f
       0.9025605 1.0137473 0.91180867 0.8957513
000020 10 d8 73 3f 9e 61 5c 3f b3 3c 77 3f c5 19 7f 3f
       0.9525156 0.8608645 0.96576995 0.99648696
000030 f1 3b 6c 3f 1d 14 72 3f 81 31 7a 3f 03 b4 7a 3f
       0.92278963 0.9456194 0.97731787 0.97930926
000040 a7 a0 73 3f 5a e2 6e 3f a1 7a 6f 3f bd 33 6f 3f
       0.9516701 0.93314135 0.9354649 0.9343832
000050 56 87 76 3f b7 b7 80 3f c2 cc 77 3f 5e f6 65 3f
       0.96300256 1.0056065 0.9679681 0.8982905
000060 ec 83 70 3f 27 35 6b 3f ad 29 75 3f a6 00 7b 3f
       0.93951297 0.9187798 0.9576672 0.98047864
000070 dc 8d 79 3f 23 ed 62 3f 5a d9 6c 3f 97 93 7b 3f
       0.97482085 0.8864309 0.9251915 0.9827208

module.encoder.c1.main.4.bias f4 [32]
000000 b1 d6 38 be 4d 37 d2 bc b4 6e 96 bd 16 26 ac bc
       -0.18050648 -0.025661135 -0.07345334 -0.021014255
000010 46 b5 fa bc fd a3 0e 3b 70 43 40 bd 62 eb 26 bd
       -0.030604016 0.0021765225 -0.046939313 -0.040751822
000020 91 47 4e bd 49 13 c3 bd 74 3a ee bc 66 22 10 3c
       -0.05036122 -0.09525163 -0.029080607 0.008797264
000030 8c c1 87 bd fc 9a a4 bd ff 81 46 bc 94 27 29 3c
       -0.06628713 -0.080373734 -0.012115954 0.010324378
000040 cc fc 8d bc cf 82 b2 bd c8 4b f8 bd 2d 7e 38 bd
       -0.017332457 -0.08716356 -0.12123829 -0.045042206
000050 2a 9e 67 bd 4c 9e 80 bd 00 f1 13 3c 89 ba f1 bd
       -0.05654732 -0.06280193 0.009029627 -0.11803157
000060 3f c0 88 bd cc 2f 56 bd 07 45 79 bd 7d a4 27 bd
       -0.06677293 -0.052291676 -0.060856845 -0.040928353
000070 f8 fe 3e bd 2d 7e f6 bd ec be cb bb dc 2b a6 bd
       -0.046629876 -0.12035785 -0.006217828 -0.08113834

module.encoder.c2.main.0.weight f4 [64, 32, 3, 3]
000000 6a 56 b2 3c d2 d6 43 bd 61 28 12 bc f6 0f 91 bc
       0.021769721 -0.04781229 -0.00892076 -0.017707806
000010 f4 02 87 bd f5 5b 91 bc 9b 21 e0 3b 09 83 04 bd
       -0.0659236 -0.017744044 0.0068399436 -0.032351527
000020 f3 ed 21 bd aa d2 b5 3c 32 82 26 3d 48 e3 c2 3c
       -0.039533567 0.022195179 0.040651508 0.023790017
000030 86 2b 73 bc 9e 63 85 bc fc d2 af 3b d9 e5 4c bd
       -0.01484192 -0.016282853 0.0053657275 -0.050023887
000040 a0 93 8d 3b b6 e1 ca bc 3d ab e1 bc a0 9a 22 bd
       0.004320577 -0.02476583 -0.027547473 -0.039698243
000050 47 00 b7 bc f1 21 2b 3d 6f de 02 3d 1a 3e 1f 3d
       -0.022339 0.041780416 0.03195041 0.038877584
000060 d3 29 96 3c 58 2e 2a 3d 5a e0 9b 3c ad e5 cb 3a
       0.01833049 0.041548103 0.019027878 0.001555612
000070 d6 fe e1 bc 6a 54 d8 3c a4 53 2f bc 0d c9 c1 bb
       -0.027587336 0.02640744 -0.010701094 -0.0059138597
000080 37 3c a9 bc 15 14 89 3c 02 da 5c bc db 84 47 3d
       -0.020658595 0.016733209 -0.0134797115 0.048710685
000090 07 b1 17 3d b7 38 54 3d 9a 50 24 3d e6 9e ea 3c
       0.03703406 0.0518119 0.04011593 0.028640222
0000a0 a0 0a 8c 3c 6f 69 42 bc ab 13 e3 3c 7c fd b3 ba
       0.01709491 -0.011865958 0.02771934 -0.001373216
0000b0 7c 5f 1a bd b5 e0 2f 3d fd 0d 80 3c aa 72 21 bc
       -0.037688717 0.042938907 0.01563167 -0.009853998
0000c0 da 29 c4 3c 44 5f bd 3c 08 53 b4 3c ef 57 66 3d
       0.023945738 0.023116715 0.022012249 0.056236204
0000d0 71 ba 07 bc f2 dd 37 bc 95 81 aa 3c 13 79 de 3c
       -0.008284197 -0.0112223495 0.020813743 0.027157342
0000e0 b9 70 c2 3c 2a ec 16 3d 7b a3 65 3c d1 75 1d 3a
       0.023735391 0.036846317 0.014016028 0.0006006631
0000f0 ae 7a ef 3b 86 23 a4 bc dc 7f 5c 3b d8 bc d0 3a
       0.0073083257 -0.02003647 0.0033645546 0.001592542
000100 17 d7 7f bc 89 b5 80 bd 1a da e2 bc 6d 03 3d bd
       -0.015615246 -0.06284625 -0.02769189 -0.046145845
000110 74 b6 43 bd d3 38 d8 bc bc 23 b3 bc 19 af 2e bd
       -0.047781423 -0.026394283 -0.021867625 -0.042647455
000120 f7 29 82 3d 04 ed 97 3d 93 d7 75 3d 79 1c 87 3d
       0.063556604 0.07418254 0.06002004 0.065972276
000130 51 d9 2b 3d 5e ca 4f 3d c4 36 00 3d c8 97 0e 3d
       0.041955296 0.0507301 0.03130223 0.03481272
000140 b2 4c 16 3d 54 06 d7 bc e1 cd f2 bc a9 35 b2 bb
       0.036694236 -0.026248135 -0.029639186 -0.0054385257
000150 85 db 12 bc 0e a1 34 bd 86 b1 24 bd 12 10 7d bc
       -0.00896347 -0.044098906 -0.040208362 -0.015445726
000160 53 30 ba bb 1c b3 61 bd e7 73 6c 3c 35 e6 b2 bb
       -0.00568203 -0.055102453 0.01443193 -0.0054595717
000170 64 c4 44 bc 70 cf e6 3c b0 e9 06 3d 81 dc 12 3d
       -0.012009714 0.028175086 0.032937706 0.03585482
000180 08 b0 37 3c 25 ba e2 3b 20 fe e4 3c 44 6a 73 bd
       0.011211403 0.006919163 0.027953207 -0.059427515
000190 13 a0 23 bd ca a9 e6 bd 04 f2 85 3c 6d 60 ec 3b
       -0.03994758 -0.112628534 0.016350754 0.0072136433
0001a0 c6 9c 41 bd 85 c3 95 3b 77 82 5a bd 1b 32 4d bd
       -0.04726865 0.004570427 -0.053347077 -0.050096612
0001b0 c2 1e 01 bc b2 e7 8e bc 56 53 14 3c a5 ec ad 3c
       -0.007880868 -0.017444465 0.009053072 0.021231005
0001c0 a0 e9 cb 3c 93 d4 f1 bc ff 0e e9 3c ab 93 2b 3c
       0.024891675 -0.029520309 0.028449534 0.0104722185
0001d0 ba 72 0f 3d 02 db 82 3d 24 e4 64 3d 8f a6 27 3d
       0.03502152 0.06389429 0.055881634 0.040930327
0001e0 52 b9 53 3d aa 34 66 3d 42 55 81 3d 8a b4 5e 3d
       0.051690407 0.056202568 0.0631509 0.054371394
0001f0 6d 86 8c 3d 82 ce 82 3d 71 14 5f 3d be bb 0d 3d
       0.06861577 0.063870445 0.054462854 0.034602873
000200 1f f3 72 3d 4f 2a 13 3d cb c8 75 3d 30 25 80 3c
       0.05931389 0.03592902 0.060005944 0.015642732
000210 4f b2 33 3d 7c 1e b2 3c 89 ec 0f 3d a4 3b 2e 3d
       0.04387122 0.021743052 0.035137687 0.042537346
000220 e3 03 15 bd 68 98 9a 3c 4b d0 e7 3b 5a aa 71 3c
       -0.03638066 0.018871501 0.007074391 0.014750088
000230 a8 31 0d 3d ad 0b 5b 3c e6 6c 45 3c c0 e3 14 3d
       0.034471184 0.013369483 0.012049889 0.03635001
000240 2e f9 a6 3b 48 83 dd 39 b3 01 8a 3b 93 89 27 3d
       0.0050956225 0.00042250217 0.0042116283 0.040902685
000250 5e 82 28 bc 82 d3 07 3d 4c 37 a8 3c 49 0b 8f bb
       -0.010284988 0.033160694 0.02053418 -0.004365359
000260 47 bc 20 3d 0d 6b 2c 3d 45 e0 ad 3d c0 6f 92 3d
       0.039242055 0.04209428 0.08490042 0.07150221
000270 ee db 5d 3d c8 46 8a 3d 28 5c 80 3d 12 22 f5 3c
       0.05416482 0.06751782 0.062675774 0.029923473
000280 f2 fb 9a 3d da fc 95 3d 36 09 4e 3d a0 e8 4a 3d
       0.07567586 0.07323618 0.050301753 0.049538255
000290 1a c7 94 3d 58 0b 80 3d 40 71 80 3d 89 03 f7 3c
       0.07264538 0.06252164 0.06271601 0.030153053
0002a0 7b e7 c3 3d 6a 60 aa 3d e6 89 5c 3d d9 0c 63 3c
       0.09565636 0.08319171 0.053842448 0.013858044
0002b0 01 30 85 3d 42 89 9a 3c 42 b5 a7 bc 05 a9 82 3d
       0.06503297 0.018864278 -0.020472173 0.06379894
0002c0 4f e3 0e 3c 24 6d 8c bc b9 a7 26 3b 26 11 28 3c
       0.008721187 -0.017141886 0.002542956 0.010257995
0002d0 48 55 02 bc 25 48 09 bd d9 aa 45 3c 25 5b ad 3b
       -0.007954903 -0.033516068 0.012064659 0.0052904063
0002e0 b8 fb 3b 3d 9d d0 0a 3c d3 8d 96 3c 59 3e 8b bb
       0.045894355 0.008472589 0.018378174 -0.004249376
0002f0 0d 4e 1e 3c 12 00 c3 bb bc 29 f9 3c 07 84 12 3d
       0.009662163 -0.005950936 0.030415408 0.035770442
000300 f3 59 0c 3d 49 ec 9b 3c a2 e7 1b 3d fe c8 c9 3c
       0.03426547 0.019033568 0.0380627 0.024631973
000310 f3 2a 39 3d 95 99 34 3d 40 94 65 3d 4b 72 9f 3b
       0.045206975 0.04409178 0.056049585 0.0048659197
000320 88 13 06 3d e5 cc 83 bc 7e da 02 3b 17 90 ef bb
       0.03273347 -0.016088912 0.0019966657 -0.007310878
000330 85 ba 6b 3c a6 39 76 bc 9d ae 2e bd f2 7c 52 3d
       0.014387731 -0.015028393 -0.042646993 0.05138869
000340 58 20 70 3d 80 50 3d 3d 6a 6f b2 3a 58 f5 b7 bc
       0.058624595 0.04621935 0.0013613526 -0.022455856
000350 7c e0 e8 3c 19 4a db bc 44 de 09 bd 79 dd b7 bc
       0.028427355 -0.026768731 -0.033659235 -0.022444474
000360 f4 3e ac bc 6a 8d 3f 3d 18 ce f4 3a d7 c0 13 bd
       -0.021026112 0.046765722 0.0018677143 -0.03607258
000370 2d 6d 90 3c 1e c4 25 3b 43 49 25 bd 67 ba e5 3c
       0.017630184 0.0025293897 -0.04035307 0.028042985
000380 81 f7 dc 3b d4 60 97 3b e8 93 00 bd 45 bf ce bc
       0.006743372 0.004619697 -0.031391054 -0.025237689
000390 55 68 3a bd 9a 35 31 3a f3 69 21 bb 2f 39 90 bc
       -0.045509655 0.00067600014 -0.00246298 -0.017605392
0003a0 cc 31 a0 3c 55 07 22 3c 21 fc 5b 3b 08 9d af 3c
       0.019554995 0.009889443 0.0033567029 0.021437183
0003b0 9d d3 41 bb 16 dd 0a 3c 83 01 48 3c 41 c4 5d 3c
       -0.0029575594 0.008475563 0.012207392 0.01353556
0003c0 35 99 fd bb c7 8a 25 bd c4 3c e0 bc 3e e4 48 3c
       -0.007739211 -0.04041555 -0.027372725 0.012261448
0003d0 1f 18 0a 3d 48 15 cd 3c 2b 3f 81 3c 57 f7 e7 3c
       0.03371441 0.025034562 0.015777191 0.028316183
0003e0 cf e9 a5 bc a3 4f 98 3c b1 5e cd 3c 38 01 bc 3c
       -0.02025309 0.018592661 0.025069566 0.0229498
0003f0 53 f4 f2 bb 45 1f 96 bc 0d 2f a1 bc 17 52 35 3c
       -0.0074143796 -0.018325457 -0.019675756 0.011066935

module.encoder.c2.main.0.bias f4 [64]
000000 7e 6e 5f ba 54 6c dd b9 25 3a 63 3a ff d6 08 b8
       -0.00085232395 -0.00042233116 0.0008668027 -3.2625157e-05
000010 28 ed 7d 3a b2 31 97 ba b7 04 45 ba 57 5c 60 3b
       0.0009686523 -0.0011535196 -0.0007515656 0.0034234726
000020 bd f0 69 3a 8a 23 e8 39 46 78 2e 3b fc 20 a0 39
       0.00089241174 0.00044276967 0.0026621982 0.00030542153
000030 72 dd 68 ba 1e 6a 70 3a b9 9e 1d 3a 9b 1d 28 3a
       -0.00088830956 0.0009171086 0.0006012726 0.0006413103
000040 68 fa a8 ba ec 2b 00 3a 5f da 40 ba 69 d0 0c 3b
       -0.001289201 0.00048893574 -0.00073567586 0.0021486527
000050 be 24 c0 b9 69 b1 fb 39 c7 4d 90 3a 91 15 93 3a
       -0.0003664847 0.00048006632 0.0011009508 0.0011221637
000060 f3 b7 20 3b 79 3c 4b 3a 5d 73 66 3a ef 46 01 ba
       0.0024523705 0.00077528466 0.0008790994 -0.00049315294
000070 d2 8c 23 39 ed 55 fc ba 29 de 3d 39 b7 d1 57 3a
       0.00015597351 -0.0019251682 0.00018107206 0.0008232849
000080 5c 12 4e ba dc 0b 8a b8 6a d4 62 3a 59 2a de ba
       -0.0007861012 -6.582562e-05 0.0008652868 -0.0016949876
000090 31 17 b9 bb 58 02 34 3a f8 0e 52 ba 12 24 4f ba
       -0.0056485166 0.00068668043 -0.0008013095 -0.0007901798
0000a0 49 f3 c8 ba fd c3 38 3b bd 2c 10 3a 8f db 54 3a
       -0.0015331294 0.002819299 0.00054998306 0.0008119875
0000b0 0b cf 4c 37 0b 04 d7 ba 3c ef ad b8 c3 fd b2 3a
       1.22075535e-05 -0.0016404403 -8.293844e-05 0.0013655949
0000c0 be 08 cc ba 03 42 45 bb d3 4f f1 b8 45 0e 75 bb
       -0.001556657 -0.003009916 -0.00011506644 -0.0037392539
0000d0 f4 15 86 3a 39 ef ce 39 06 de 62 ba b3 d6 d6 ba
       0.0010229931 0.00039469617 -0.00086543 -0.001639089
0000e0 43 02 de ba c2 24 ac b9 89 28 ed 3b c8 56 6c ba
       -0.001693793 -0.00032833783 0.007237498 -0.0009015617
0000f0 e9 50 98 3b 27 9d a8 b9 1c 19 e0 3a e7 14 dd 3a
       0.004648317 -0.00032160545 0.0017097327 0.0016867191

module.encoder.c2.main.1.weight f4 [64]
000000 f1 b2 69 3f 12 2e 7a 3f c5 dd 63 3f 5b 15 7a 3f
       0.9128867 0.9772655 0.8901027 0.97688836
000010 f4 ca 6f 3f 4e 85 78 3f 81 d4 73 3f 67 95 8c 3f
       0.93669057 0.97078407 0.9524613 1.0983094
000020 43 a8 79 3f b6 2b 81 3f f8 02 81 3f 8e 9a 73 3f
       0.9752237 1.0091465 1.0079031 0.95157707
000030 5b af 89 3f e8 7c 76 3f 56 0b 8a 3f a3 ff 80 3f
       1.0756639 0.9628434 1.078471 1.0078014
000040 f9 67 81 3f 38 cb 80 3f fd 23 7b 3f ce 4a 81 3f
       1.0109855 1.0062017 0.9810179 1.0100954
000050 82 71 73 3f 98 d7 75 3f ad 4c 77 3f 0b b0 6f 3f
       0.95095074 0.96032095 0.9660137 0.93627995
000060 85 9b 7f 3f a3 92 64 3f 44 2c 83 3f b9 38 72 3f
       0.9984668 0.8928625 1.0247884 0.946178
000070 61 ad 8c 3f 06 e2 7c 3f ec 77 8c 3f ef 19 83 3f
       1.0990411 0.98782384 1.0974097 1.0242289
000080 1b 06 76 3f 7e b6 80 3f f0 6f 83 3f ed e0 77 3f
       0.96103066 1.0055692 1.0268536 0.96827585
000090 61 f9 87 3f 26 e7 82 3f b4 b1 85 3f b5 10 81 3f
       1.0622979 1.0226791 1.0444856 1.0083224
0000a0 3b 8c 82 3f 59 a4 81 3f 83 15 80 3f ad 29 6e 3f
       1.0199045 1.012828 1.0006565 0.9303234
0000b0 33 05 70 3f 80 70 79 3f 4f e2 7c 3f 14 9a 75 3f
       0.93757933 0.97437286 0.9878282 0.9593823
0000c0 fe f4 7b 3f 51 d7 8a 3f 02 3f 70 3f 07 f8 8b 3f
       0.98420703 1.0846959 0.9384614 1.0935067
0000d0 a2 9a 78 3f e5 36 6a 3f 46 10 7f 3f 82 42 73 3f
       0.9711095 0.9149001 0.99634206 0.9502336
0000e0 ab 3b 80 3f fe 0b 76 3f 49 77 8c 3f 3e 3e 78 3f
       1.0018209 0.9611205 1.0973903 0.96969974
0000f0 b2 de 89 3f fa 23 81 3f 51 e8 78 3f 57 e0 77 3f
       1.0771086 1.0089104 0.97229487 0.9682669

module.encoder.c2.main.1.bias f4 [64]
000000 49 a7 88 bd b7 85 ad bd 2c 32 15 be 6b f0 1a be
       -0.06672532 -0.0847277 -0.1456992 -0.15130775
000010 b4 89 bb bd e4 86 96 bd 0b 26 25 be 8d 32 01 be
       -0.09157124 -0.07349947 -0.16127793 -0.1261694
000020 07 03 01 be 52 5d 54 be 61 58 35 be e4 77 9a bd
       -0.12598811 -0.20738724 -0.17709495 -0.075423986
000030 63 4f 3d be a3 66 98 bd 4f 0b 80 bd 46 ef 83 bd
       -0.18487315 -0.074414514 -0.06252157 -0.06442122
000040 25 9f ed bd f7 11 fe bd 84 bb 08 be 53 8f 0c be
       -0.1160262 -0.1240577 -0.13352782 -0.13726549
000050 fe b1 30 be a1 76 a3 bd 8b 8e 97 bd 07 74 9e bd
       -0.17255399 -0.07981611 -0.07400235 -0.07736974
000060 f7 97 c2 bd f0 a4 0b be 62 dc e1 bc 0c dc d6 bd
       -0.09501641 -0.13637137 -0.027570907 -0.10491189
000070 d2 ba bc bd 91 d3 b8 bd 96 d1 ff bc 5e 52 91 bd
       -0.09215321 -0.09024728 -0.031227868 -0.070957884
000080 12 58 aa bd 71 31 0e be 6f 19 ed bd ef fc 18 be
       -0.08317579 -0.13886048 -0.11577117 -0.14940237
000090 d8 b9 ee bc 48 dd fc bd 98 4f 0e be 60 a8 2f be
       -0.029141352 -0.123468935 -0.1389755 -0.17154074
0000a0 2c 0b 30 be 6a d5 02 be 35 75 83 bd e5 d6 11 be
       -0.17191762 -0.12776724 -0.0641884 -0.14242132
0000b0 83 4f 9c bd 17 1e 14 bd b3 49 4f be 6e 38 ab bd
       -0.07632353 -0.03616151 -0.20242958 -0.083603725
0000c0 15 c6 00 be a0 df a4 bd 43 b3 04 be 13 c6 af bd
       -0.12575562 -0.080504656 -0.12959008 -0.085827015
0000d0 a5 5c 07 be 44 b9 b2 bd 9c 1a 1f be 8c a9 ab bd
       -0.13218935 -0.08726743 -0.15537494 -0.08381948
0000e0 c7 d6 10 be 5e 17 d0 bd a8 d3 d4 39 71 df 67 bd
       -0.14144431 -0.10160707 0.00040593487 -0.056609575
0000f0 3b 36 2a be 38 46 31 be 97 a1 a6 bd 44 f2 19 bd
       -0.1662225 -0.17311943 -0.081362896 -0.037584558

module.encoder.c2.main.3.weight f4 [64, 64, 3, 3]
000000 0b 35 c1 bd 21 1f a8 bd c9 2c 98 bd f0 75 70 bd
       -0.09433945 -0.08209062 -0.07430417 -0.058706224
000010 5c 06 e8 bc 42 70 5a bd c2 be 4e bd ce 01 1b bd
       -0.028323345 -0.053329714 -0.05047489 -0.037843518
000020 fd 2e 29 bd 2b de fe bc 41 a7 09 bd 45 3a bb 3a
       -0.041304577 -0.031111797 -0.03360677 0.0014284333
000030 58 8c 3b 3c 4f 76 b8 bc 45 64 76 3b 7e f9 86 bc
       0.011447035 -0.022517351 0.0037596386 -0.016476389
000040 7f 8e 5a bb ec 76 8c 3b 5d 61 98 b9 30 20 03 bd
       -0.0033349094 0.0042866375 -0.0002906424 -0.03201312
000050 1a a6 88 bb da 7b 87 bc dd 66 63 3d 56 9f 5f bc
       -0.0041701915 -0.01653855 0.05551802 -0.0136488285
000060 e3 43 cf 3a 01 7c 00 3d 36 33 fc 3b 39 91 1f 3d
       0.0015813078 0.03136826 0.0076965345 0.038956854
000070 6d db 48 3d 7c 61 5c 3d 57 a5 13 3d ef 35 7a 3c
       0.049037386 0.053803906 0.036046352 0.015271648
000080 44 79 40 3d b5 e6 da ba 83 dd bd bc fa 2e 11 bd
       0.046990648 -0.0016700836 -0.023176914 -0.03544519
000090 15 5e 94 bd 89 7e 2d bd 77 83 0e 3c 07 d4 10 bd
       -0.07244507 -0.042357 0.008698336 -0.035358455
0000a0 82 24 ca bb d4 4e 15 bd da 19 12 3d ce 5a 9c 3c
       -0.006168903 -0.03645213 0.035669185 0.019086268
0000b0 7b 09 80 3d 69 76 46 3c 1f 6b fd 3c dd d7 44 3d
       0.06251808 0.012113192 0.030934868 0.048057426
0000c0 b3 25 a9 bc 08 5d c4 bc ec 65 d7 3c b9 cd 73 bc
       -0.02064786 -0.023970142 0.026293717 -0.014880591
0000d0 ce e5 b6 bb af 2f 61 3b 85 c5 5f bb 5c 6b 96 bb
       -0.005581594 0.0034360697 -0.003414483 -0.004590435
0000e0 a1 2b e9 3a e0 02 b6 bd 79 09 15 bd 9f 04 fc bc
       0.0017789492 -0.08887267 -0.036385987 -0.030763922
0000f0 d9 52 cc 3c f2 6e 9b 3c 86 b6 89 3c b2 66 5b 3d
       0.024941849 0.018973801 0.016810667 0.053564735
000100 ff 95 91 3c ee 6c e0 3c 16 cb 23 3d 03 f4 1d 3d
       0.017771719 0.027395692 0.0399886 0.038562786
000110 9f 06 24 3d 47 bb 30 3d 0f 7c c6 38 b8 8e 4a 3d
       0.040045377 0.04314735 9.4644834e-05 0.049452513
000120 3f 9c 71 3b 43 8f 1f ba 02 7e 96 3b b3 c7 5d bc
       0.0036866812 -0.00060867163 0.004592658 -0.013536382
000130 02 81 34 bc a7 b2 80 bc 18 05 e7 bc f2 e2 89 bc
       -0.011017086 -0.015710188 -0.028200671 -0.016831849
000140 1b 34 15 bd 20 33 8f bc 3c a2 16 bc 89 be 04 3d
       -0.036426645 -0.017480433 -0.009193953 0.03240827
000150 3e 30 b7 3c 52 03 87 3b 20 13 f1 3c 4b 86 2b bc
       0.02236187 0.004120269 0.029428065 -0.01046903
000160 2f d7 4d bd e2 43 89 bc 13 30 f9 3c 1b e6 d4 3c
       -0.050254043 -0.016756002 0.030418431 0.02598863
000170 69 a5 6b 3d c9 b2 6c bc bf db 4b ba d3 41 19 bd
       0.057530794 -0.014446923 -0.000777658 -0.03741629
000180 b3 a1 81 3d 8d 6e b7 3c cb 8a 13 3d 86 5c 00 3d
       0.0632967 0.022391582 0.036021035 0.031338237
000190 95 a8 34 3d b4 57 13 3c 19 05 7a 3c a4 87 8c bc
       0.044106085 0.008993078 0.015260004 -0.017154522
0001a0 8c a3 9c 3b 30 55 0e bd 79 b4 8c bd 81 e1 9e 3b
       0.0047802385 -0.03474921 -0.0687036 0.0048486595
0001b0 e8 d8 97 bc c7 e2 27 bd b1 b4 e2 bc 59 6b 06 3d
       -0.018536046 -0.040987756 -0.027674051 0.03281722
0001c0 79 15 53 3d b3 03 84 3c 3d 20 6b 3d d4 74 81 3c
       0.05153415 0.016115045 0.05740379 0.015802778
0001d0 d4 a1 e2 3c a3 04 0b 3c 5c ea f4 bc ea 7e 4d 3c
       0.027665056 0.008484992 -0.029896908 0.012542466
0001e0 46 8b 55 3d 10 a3 f0 bb e1 2d d5 3c bc 72 ab bc
       0.052134775 -0.0073436573 0.026022853 -0.020928733
0001f0 d2 62 c6 bd 93 31 82 bd b5 f0 84 3c a6 bb 99 3c
       -0.09686817 -0.06357112 0.01622806 0.018766236
000200 3e a1 ec 3c 9a c5 0f 3d 6c 60 bb bc c4 4a 7f bc
       0.02888548 0.035100557 -0.022873126 -0.01558179
000210 1c 7f cd bd bd 20 d2 bd f4 c6 ba bd 21 cb 8c bd
       -0.1003401 -0.102601506 -0.091199785 -0.06874681
000220 b8 b2 9d bd 70 7c 61 bd 5d 95 2c 3d f8 24 8f 3d
       -0.077001035 -0.055050313 0.04213463 0.06989473
000230 5d f8 ef 3c e3 68 db bb e5 c6 1a bc c0 b4 86 bb
       0.029293234 -0.006695853 -0.009446834 -0.0041109025
000240 0b b0 b5 3b 09 5a ae 3c 25 17 40 3a 67 e1 07 3d
       0.0055446676 0.021283166 0.00073276676 0.033173945
000250 f4 92 6e 3d 34 72 9f 3c d4 68 fa 3c cd 9b 26 3d
       0.058245614 0.019463636 0.030567564 0.040675927
000260 91 a9 08 3c 0d 02 94 3d 5d 94 98 bc a8 72 b2 bb
       0.008341209 0.07226954 -0.018625433 -0.005445797
000270 4b d3 d6 bc ba 45 23 bd ca 06 85 bd 36 c7 1b bd
       -0.0262238 -0.03986142 -0.064954355 -0.03803178
000280 f8 c6 d1 bd bb da b5 bd 3a 91 a2 3d d6 ed 60 3d
       -0.102430284 -0.0887961 0.07937856 0.054914318
000290 07 7a 3a 3d 12 c8 68 3b c2 59 8b 3c 4a a3 01 bc
       0.04552653 0.0035519642 0.017010573 -0.007912466
0002a0 60 b4 38 3b 13 64 90 bc 3b 37 6b bd d9 93 87 bc
       0.0028183684 -0.017625844 -0.05742572 -0.016549991
0002b0 77 61 8c bd f8 db b4 bc 4a 1f 81 ba 3e 31 72 bc
       -0.068545274 -0.022077546 -0.0009851244 -0.014782248
0002c0 35 30 e7 3c 54 d0 c6 3b 69 40 82 bc 7f 7b 87 3a
       0.02822123 0.006067315 -0.015899854 0.0010336487
0002d0 24 ba bd bc dd 29 46 bd c7 90 24 bd 16 81 03 bd
       -0.023160048 -0.048379768 -0.040177133 -0.032105528
0002e0 4a 4d c3 bc 7e 73 8a bc cb 4d 31 bd 60 87 35 3c
       -0.023840565 -0.016900774 -0.04328708 0.011079639
0002f0 75 2c 9e bc ad 4e 6c bc 3d 42 22 3c 37 f1 46 3c
       -0.019308308 -0.014423055 0.009903488 0.012142471
000300 82 1d 9d bc 1e 3f 8b bd d7 01 16 bd 82 2b 3c bb
       -0.01917911 -0.06799148 -0.03662285 -0.0028712456
000310 c7 ed 42 bc d8 9e 17 bd f3 5c 48 bd 1b 13 e3 3b
       -0.011897511 -0.03701672 -0.04891677 0.006929768
000320 68 1c 05 bd b9 50 c7 bc 5e 4e 0a bb 21 54 b0 bc
       -0.032497793 -0.024330484 -0.002110384 -0.02152449
000330 d4 b7 45 bd 6f 2d d3 bc 3e 8a 87 3c e7 75 a4 3c
       -0.048271015 -0.0257785 0.016545411 0.020075751
000340 bd e0 fd 3c de ef 9f bc 93 f6 8e bb 33 e7 79 bc
       0.030990953 -0.019523557 -0.00436289 -0.015252876
000350 0e 75 18 bd dc d6 15 3c d0 e8 0f bd cc 15 04 bd
       -0.037221007 0.009145465 -0.035134137 -0.03224735
000360 57 d9 11 3d b6 80 70 bc e1 3a d9 3c 50 0e 27 bd
       0.035607662 -0.014679125 0.026517333 -0.040785134
000370 38 a5 c1 3c 98 6b a8 b8 c9 cb ff 3c 44 66 37 3d
       0.023638353 -8.030905e-05 0.031225102 0.044775262
000380 08 1c d3 3c de 5a 02 bd fd ea 99 bd 2f e8 94 bc
       0.025770202 -0.03182494 -0.075155236 -0.01817712
000390 42 f8 6a bd d0 cb 1b bd c4 4e 56 bd f7 cd be bc
       -0.057365663 -0.038036168 -0.05232121 -0.023291571
0003a0 77 55 4b bd 8b 9b 4e bc ef 52 d7 bc 0d 1f a0 bc
       -0.049642053 -0.0126103265 -0.026284663 -0.019546056
0003b0 d1 b4 18 bd 56 ba b9 ba 1a 31 8c bb dd 2b 82 3c
       -0.037281815 -0.0014169912 -0.0042783143 0.015890056
0003c0 bf 16 4b 3d d7 24 b0 3c 73 ae 73 3d c2 45 fb bc
       0.04958224 0.021501942 0.05949254 -0.030672912
0003d0 5f 03 3e bd 65 ac 29 bd 5d f2 f6 bc df 86 29 bd
       -0.046389934 -0.041424174 -0.030144865 -0.04138839
0003e0 ca e5 13 bd fc ed 00 bd ab 51 28 bc b1 8e 9d bc
       -0.036107816 -0.03147696 -0.010273377 -0.01923308
0003f0 d1 e6 8c bd b2 b1 76 bd df 56 d9 bd 7c 69 3d bd
       -0.06879962 -0.060228057 -0.106122725 -0.046243176

module.encoder.c2.main.3.bias f4 [64]
000000 8b ce 55 3a e9 d1 47 ba a6 fd e7 b9 37 74 4d 39
       0.00081560825 -0.00076225266 -0.00044248736 0.00019593617
000010 9f 02 b9 b8 43 b2 3b ba 88 fd 38 3a a6 0f 1b ba
       -8.821976e-05 -0.0007160047 0.0007056822 -0.00059151126
000020 ed 0d 51 ba 63 49 15 37 48 1b 63 ba 0f 9e ea ba
       -0.00079747924 8.898179e-06 -0.0008663428 -0.0017899888
000030 6e a5 8d b9 14 56 78 b9 a6 d6 17 ba 48 5f 04 ba
       -0.0002701687 -0.0002368319 -0.0005792178 -0.00050495984
000040 21 cd 47 39 82 80 d5 b9 18 50 8c b9 34 38 88 39
       0.00019054535 -0.00040722272 -0.00026762555 0.00025981816
000050 0a 42 ae 39 be 92 9d b9 a5 f6 3a 3a 7a 24 e4 39
       0.0003323707 -0.00030054705 0.000713209 0.00043514726
000060 e5 5f e1 b9 6c af 17 ba 7f 07 45 39 f1 fc 30 39
       -0.0004298679 -0.0005786333 0.00018790177 0.00016878896
000070 ea 01 87 39 e7 5e 9f b9 91 66 b0 b9 5f 5c 16 ba
       0.00025750633 -0.0003039755 -0.00033645754 -0.000573581
000080 1e 63 6d ba 67 17 95 39 d8 86 ba 39 29 12 d2 b9
       -0.0009055602 0.0002843693 0.0003557715 -0.00040067852
000090 89 f4 6b ba 9a 5c 3b 3a 18 e8 09 3a 43 d4 fa 38
       -0.0009000977 0.00071472826 0.000526072 0.00011960466
0000a0 fe b2 07 3a 3a 95 c0 39 3d c3 94 38 dd 92 56 39
       0.0005176513 0.00036732276 7.093556e-05 0.00020463341
0000b0 e2 69 9a 39 55 7c 90 ba b7 8b 3f 39 4d f6 a7 3a
       0.00029452058 -0.0011023382 0.00018267227 0.0012814492
0000c0 9b 7b 08 ba 53 99 4d 3a 2f 03 27 b9 26 6f 30 38
       -0.0005206407 0.00078429765 -0.00015927547 4.2065185e-05
0000d0 aa 15 be 39 86 40 9d 39 65 63 1a b9 4b 7c 74 3a
       0.00036255765 0.00029993447 -0.00014723612 0.00093263824
0000e0 3e 51 1b 3a 2a fd 74 b8 88 53 a2 b9 08 c7 5f 3a
       0.0005924887 -5.840991e-05 -0.00030961283 0.0008536433
0000f0 1e dc bc b8 77 d6 8f b9 32 64 e2 ba 81 46 5f 3a
       -9.0055386e-05 -0.00027434874 -0.0017272292 0.0008517281

module.encoder.c2.main.4.weight f4 [64]
000000 d8 71 75 3f d6 ef 7b 3f 02 be 78 3f 9a d4 85 3f
       0.95876837 0.98412836 0.9716493 1.0455506
000010 50 e6 7a 3f 2b cf 7e 3f d1 76 82 3f 2d c8 84 3f
       0.9800768 0.99534863 1.019251 1.0373589
000020 3d 8d 84 3f 98 f3 79 3f 9f 99 7f 3f a2 6d 7e 3f
       1.0355603 0.9763732 0.9984378 0.99386036
000030 00 ad 7f 3f f0 0d 7a 3f 4a e1 7d 3f ab 66 7f 3f
       0.9987335 0.97677517 0.9917189 0.99766034
000040 43 aa 7f 3f 2c 0d 7f 3f 1a 93 7b 3f 12 19 73 3f
       0.99869174 0.99629474 0.98271334 0.9496013
000050 81 4e 80 3f e4 f0 80 3f 0d d6 76 3f e2 38 80 3f
       1.0023957 1.0073514 0.96420366 1.0017359
000060 3b cf 7d 3f bd 1d 7f 3f 56 9c 7b 3f 46 16 70 3f
       0.99144334 0.9965475 0.98285425 0.93783987
000070 28 b6 7e 3f 3f 13 77 3f 6c f7 83 3f 68 45 7c 3f
       0.994967 0.9651374 1.0309882 0.98543406
000080 77 bf 84 3f 98 d7 80 3f e8 b1 7c 3f e7 31 7d 3f
       1.037093 1.0065794 0.98708963 0.9890427
000090 e2 13 7f 3f 6f 02 80 3f e2 12 7c 3f cc 75 83 3f
       0.99639714 1.0000743 0.9846631 1.0270324
0000a0 83 6c 79 3f 63 b8 7b 3f 05 eb 82 3f 59 a2 78 3f
       0.974312 0.98328227 1.0227972 0.9712272
0000b0 80 af 80 3f 2a 0d 81 3f 11 c6 81 3f d2 d3 7d 3f
       1.0053558 1.0082142 1.013857 0.9915134
0000c0 bf 0c 80 3f 33 55 79 3f 9f 4d 80 3f 18 32 82 3f
       1.000389 0.9739563 1.0023688 1.0171537
0000d0 81 f7 77 3f 86 1d 70 3f 76 fe 7f 3f 4e 56 7c 3f
       0.96862036 0.9379505 0.9999765 0.9856919
0000e0 2c e4 79 3f 3c 0d 82 3f 93 a3 7e 3f 14 f8 80 3f
       0.9761379 1.0160289 0.99468344 1.0075707
0000f0 59 e2 77 3f a6 d6 65 3f 98 5f 81 3f b9 d7 88 3f
       0.96829754 0.8978065 1.0107298 1.0690833

module.encoder.c2.main.4.bias f4 [64]
000000 15 97 41 be c9 1f c3 bd a3 d2 f8 bd 39 bf b8 bd
       -0.1890529 -0.09527547 -0.12149551 -0.09020848
000010 b0 bc de bd 72 c1 6e bd 50 e0 41 bd cf d4 a4 bd
       -0.10875833 -0.058289953 -0.04733306 -0.080484025
000020 86 c9 a3 bd 56 eb d7 bd 4c f9 29 be 91 ad ab bd
       -0.07997422 -0.10542934 -0.16599005 -0.083827145
000030 ee b1 4f bd 4c 58 d3 bd 75 fb cd bd be 4a 00 be
       -0.050706796 -0.10319576 -0.10057727 -0.12528512
000040 64 78 6b bd fb 83 38 be c0 74 c6 bd 56 32 81 bd
       -0.05748786 -0.18019097 -0.09690237 -0.06308429
000050 5d 40 2b bd 2d fe 09 be 56 b1 e9 bd 6e 8f 40 bd
       -0.04180943 -0.13475867 -0.11410777 -0.047011785
000060 e8 73 de bd 7c 97 fe bc 17 b6 dd bd f7 2c c9 bd
       -0.10861951 -0.031078093 -0.108257465 -0.098230295
000070 34 ad 0d be aa f8 d1 bd 7a 9a e8 bd 1f d1 27 be
       -0.13835603 -0.10252507 -0.11357589 -0.16388367
000080 d8 eb 88 b9 c4 9b 15 be 30 b0 c4 37 87 12 94 bd
       -0.0002611566 -0.14610201 2.3447064e-05 -0.07230096
000090 1a 49 59 bd 4a 4b 0d be c2 9a 15 bd 28 41 fd bd
       -0.05304823 -0.13798252 -0.03652454 -0.12365943
0000a0 43 14 5b bd ce 46 4a be 31 a2 61 bd 67 07 95 bd
       -0.05348612 -0.19753572 -0.05508632 -0.072768025
0000b0 8a 90 dd bc c5 af 27 bd dd a2 19 be 4b 44 f2 bd
       -0.02704646 -0.04093911 -0.15003534 -0.11829432
0000c0 a3 10 0d be ca e5 2d be b2 c7 8e bd 07 62 49 bc
       -0.13775878 -0.16982189 -0.069716826 -0.012291438
0000d0 f7 36 0f be 34 17 26 be 1e 5c 5f bd a8 7b 47 bd
       -0.13985811 -0.16219789 -0.05453121 -0.048701912
0000e0 a8 5f eb bd f2 25 be bc 07 25 8f bd 77 d7 92 bd
       -0.11492854 -0.023211453 -0.06989484 -0.07170003
0000f0 32 75 7f bd aa 4c c6 bd bc 01 53 bd 93 96 4e 3c
       -0.062367626 -0.09682591 -0.051515326 0.012609142
