logs/exp5/model_iters_6000.pth (torch, 495325 bytes, 47 tensors)

module.encoder.c1.main.0.weight f4 [32, 3, 3, 3]
00000000: 49ab dcbb c74f be3b e971 6cbb b481 c5bc
00000010: bd90 963a 3076 ce3b 75da 6d3a fad2 c33c
00000020: fdb6 8b3c 47c7 843a 1d3f 15bd 68ad bd3c
00000030: 5a2c 58bb 22d5 643b 63a9 043d 5430 3cba
00000040: 8aa2 7e3b 4e09 e7bb 349c dabc d27d 31bd
00000050: 9d75 a2bc f556 29bd cbd7 93bb 12a0 243d
00000060: c3ff 853c 23c6 fabc 5c0a d43c dca6 ef3b
00000070: f3e0 90bc f225 6b3c cf33 6a3c e11f e93c
00000080: 490d 133d c0e4 62ba 0245 873c c0a3 deba
00000090: 91ea 883b b9a5 2abc b391 84bc 6b0b 0cbc
000000a0: dc16 443a bd8e b03b b7b7 2d3d c38d bf3c
000000b0: 7605 6bbc 57e2 2b3c 3864 353b 8247 943c
000000c0: 92a2 a5bc dec6 693c d32f b73d 30b4 babc
000000d0: 3c48 32bd 1166 3ebd 1127 1b3d 9349 16bd
000000e0: 51d8 16bc ca58 383d b319 8b3b 3786 8fbc
000000f0: 78a9 c63b 9830 1bbc 94b7 373c 4d6c 30bc
00000100: 43bf 15bd b623 a73b e49f d1bb 1be2 153d
00000110: ca30 4b3c e5c6 193c ca8f f4bb b9e1 f1bb
00000120: 350f 24bd aa60 1a3c a6f4 ed3b 7097 c1bc
00000130: 0f3c ffbc 73da 59bc 3d20 18bd 34d0 633c
00000140: e1e7 82bb 74fa f3bc dd73 74bc 904e a8bc
00000150: 6f99 e7ba 84c2 b5bc 9f4a f83b bcbc 073c
00000160: 3dab a03a 77b0 133d eff0 bdbc 0400 1dbc
00000170: 0d3e c8bb ed06 5c3d 6c73 82bc ccc6 1bbc
00000180: 1bac 9cbc 3511 b23c b716 ca3a de6e b3bc
00000190: 7456 56bc 48b6 0ebb 9ea8 35bc 1474 62bc
000001a0: 9ce0 90b9 b6c3 05bd 8975 2bbd 1ed5 1f3b
000001b0: 97ae c33c 7dc0 d73b d035 cebc a127 fcbb
000001c0: 457e 413b c00e 1bbc 7981 a0bc 5d88 f5bb
000001d0: 94a1 a4bb f9fa ebbc cc67 02bd 8a01 bfbb
000001e0: 3516 9e3c e57c 17bc 9088 abbb 881b e43c
000001f0: e2cc 623c 9bcc 373a 1b10 29bc 7f69 f83c
00000200: 4733 023d 8efb dd3b 8899 3f3d 03da aebc
00000210: 5212 48bc 45c2 38bd 0f31 5e3a c5e4 5b3c
00000220: 08ef b3bc b4c1 95bc 608c 0ebb 25a6 c43c
00000230: db76 6a3c a567 9cbc 0908 0b3d 900d f03b
00000240: 60be ef3c 0848 a13c 25ba 28bc c91b 9e3c
00000250: d228 6fbd add6 803c 76b2 e53b 402e aabc
00000260: 930d 8bbc 900e 8dbc 671f 883b 7d45 043d
00000270: a925 87bb 7713 0bbd b4f9 f33b f16e babc
00000280: 0681 9abb 2d1f 103c df18 0cbc 0e17 893b
00000290: 29fc 0e3c 48aa d6bc 929d f23a 5d8a e83c
000002a0: 6d31 efbc 4900 2ebd 3bf6 1fbb 0ad5 293d
000002b0: ccce 06bc 99c5 3d3d 49f0 82bb 8524 9bbc
000002c0: 8a2c 33bc 2373 c6bc 2bb5 6fbc c82f 24bb
000002d0: 42ad c6bb a221 25bd 1032 b6bb 8721 0a3d
000002e0: 130b 55bc e59a 1dbb 80e1 113d 3d0b dd3b
000002f0: aab0 4abc 7dbf 853d dc85 083a 4e11 04bd
00000300: 1c33 813c 27f8 18bc 246b 2a3c 8ae8 03bc
00000310: 1546 d63b 3fea cabc 9f2a 7fbd cb1c 763c
00000320: 895b 3f39 cac7 7d3c 1ce6 d53b 3f40 d33c
00000330: 0d53 053d 8744 a4bc 3612 14bc 93b9 cdbc
00000340: f374 71bc b95e c83c 8c73 663c 3dc5 013c
00000350: 7d7a c33b 8d11 42bb cce0 4dbd 2917 49bd
00000360: de6b c53c fc4d 86bb 2e0b bab9 d35f 123c
00000370: 4d65 b43b 7d16 c4bb 8623 773c a27c c83c
00000380: d571 a9bc be62 b7bc 5488 20bd 74e1 733b
00000390: 49bc 95bc b5be 4c3c def7 b63c d034 4c3c
000003a0: 1674 7e3c d7c7 ba3a a9a7 613c 81d3 103c
000003b0: cbdc 763c 2095 1cbd acc8 d6bc 457f 32bc
000003c0: af15 fbbc 2ad6 27bc d99f 84bc ca9e a4bb
000003d0: ea9e 65bc f69a 8bbc 7b93 59bc ea5d 2c3b
000003e0: a9fb cebc b46a fc3a 387f 663b 35a8 5d3c
000003f0: 94fd 493c 8aac 2c3b 4bf4 73bb 6e9c 8bb9
-0.006734286 0.00580785 -0.0036078638 -0.024109699 0.0011487227 0.00630071 0.0009073385 0.023904312
0.017055029 0.001013019 -0.036437143 0.023153976 -0.003298542 0.0034917076 0.032388102 -0.00071788323
0.0038854205 -0.0070506698 -0.026685812 -0.043332882 -0.019831473 -0.041342694 -0.0045118085 0.040191717
0.016357308 -0.030612057 0.025883846 0.0073135924 -0.01768539 0.014352309 0.014294579 0.028457584
0.03590134 -0.0008655302 0.016512398 -0.0016986057 0.004178353 -0.010415488 -0.016182756 -0.008547644
0.0007480213 0.0053881095 0.042411532 0.023383027 -0.014344564 0.010490975 0.0027678143 0.018100504
-0.020219121 0.014268605 0.089446686 -0.022790998 -0.04352592 -0.046484057 0.037879054 -0.03669126
-0.009206847 0.04500655 0.004245007 -0.017520053 0.0060626827 -0.009472035 0.011213202 -0.010768008
-0.036559355 0.0051006926 -0.0063972343 0.036592584 0.012401769 0.009385799 -0.00746343 -0.0073816446
-0.040053565 0.009422461 0.0072618304 -0.023631781 -0.031156568 -0.013296711 -0.03714012 0.01390462
-0.0039949273 -0.029782511 -0.014920202 -0.020545274 -0.0017669628 -0.022187479 0.007577255 0.008284744
0.0012258064 0.036056962 -0.023186175 -0.009582523 -0.0061109127 0.053717542 -0.015924178 -0.009507846
-0.019125035 0.02173672 0.0015418147 -0.021903452 -0.0130821355 -0.0021776129 -0.011087565 -0.0138216205
-0.00027633167 -0.032657348 -0.041860137 0.0024388502 0.023886962 0.0065842257 -0.025172144 -0.007695154
0.0029524725 -0.009463966 -0.019592987 -0.0074930624 -0.0050241444 -0.028806197 -0.03183727 -0.005829041
0.019297699 -0.009246086 -0.0052347854 0.02784516 0.013842793 0.00070113846 -0.010318781 0.030323742
0.031787183 0.0067743724 0.04677728 -0.02134419 -0.012211399 -0.045107145 0.0008475938 0.013421242
-0.021964565 -0.018280841 -0.002175115 0.024005005 0.014310564 -0.01909239 0.03394321 0.0073258355
0.029265583 0.019687667 -0.010298287 0.019300358 -0.05838854 0.015727365 0.0070097996 -0.020774007
-0.016974246 -0.017218858 0.004154134 0.03229283 -0.0041243625 -0.03395411 0.0074455384 -0.02275798
-0.004715088 0.008796495 -0.008550852 0.0041836565 0.008727112 -0.026204243 0.0018510094 0.02838629
-0.029198373 -0.04248074 -0.002440824 0.041462936 -0.008228015 0.046331022 -0.0039959294 -0.018938312
-0.010935912 -0.024224823 -0.014630596 -0.0025052894 -0.0060631344 -0.040315278 -0.005560167 0.03372338
-0.013003129 -0.0024048623 0.035615444 0.0067457245 -0.012371222 0.06530664 0.0005207935 -0.032243066
0.015771441 -0.009336508 0.010401521 -0.008051047 0.006539116 -0.0247699 -0.062296506 0.015021513
0.00018249279 0.015489528 0.0065276753 0.02578747 0.032549907 -0.020052208 -0.009037545 -0.025112903
-0.0147373555 0.02445923 0.014065634 0.00792056 0.0059655295 -0.0029612512 -0.05026321 -0.049094353
0.024099287 -0.004098652 -0.00035485014 0.008933979 0.00550524 -0.005984126 0.015084153 0.024473492
-0.020684162 -0.022385951 -0.039192513 0.0037213238 -0.018278258 0.01249664 0.02233499 0.012463763
0.015530607 0.0014250231 0.013772883 0.008839489 0.01506729 -0.038228154 -0.026218735 -0.010894601
-0.030649988 -0.010243932 -0.016189503 -0.005023812 -0.014014939 -0.017041665 -0.013279791 0.0026301094
-0.025266485 0.0019257874 0.0035171043 0.013528873 0.012328524 0.0026347958 -0.0037224467 -0.00026628695

module.encoder.c1.main.0.bias f4 [32]
00000000: 6ff7 0539 0e75 0338 3647 46b9 5a68 d238
00000010: 02c9 02b9 b703 ab39 c23f 8038 b662 63b7
00000020: e980 82b9 355b d536 4b4d 6239 0671 1338
00000030: ab0f 44b9 b140 f5b7 fe5c 29b7 d373 2439
00000040: e320 4538 b154 08b9 5b9c 2fb8 2a8c fdb8
00000050: b34c d7b8 2b75 a939 1ab0 0ab8 c134 9b39
00000060: 6ff3 fbb8 db07 bc39 4573 c139 47a8 2239
00000070: cc70 4538 04d1 0a38 d213 1f38 468b 0a38
0.00012776045 3.134185e-05 -0.0001890928 0.00010033017 -0.00012472647 0.0003261843 6.1153914e-05 -1.3553237e-05
-0.00024891578 6.3585126e-06 0.00021581833 3.5152792e-05 -0.00018697853 -2.92364e-05 -1.0094836e-05 0.00015683407
4.699909e-05 -0.0001300152 -4.186887e-05 -0.00012090088 -0.00010266285 0.0003232149 -3.306577e-05 0.00029603209
-0.00012013956 0.00035864007 0.0003689771 0.00015512212 4.707351e-05 3.3096425e-05 3.7927013e-05 3.3031472e-05

module.encoder.c1.main.1.weight f4 [32]
00000000: ad1d 7e3f d79b 823f dc63 7d3f 64e0 7b3f
00000010: f500 813f da9b 7f3f 5d29 823f ddb8 7e3f
00000020: bcc5 803f a402 803f 446c 803f ff10 813f
00000030: 5765 803f 81d8 803f d63c 803f 9593 7b3f
00000040: c7be 783f 811d 823f 0832 803f 8039 813f
00000050: 6bc1 803f 7197 833f 53e2 7c3f 8211 863f
00000060: a2ba 7e3f cb52 7f3f 58b7 7d3f 5a7d 813f
00000070: b8f8 793f 0a65 783f 4ea8 823f 25e6 7a3f
0.9926403 1.0203809 0.989805 0.9838927 1.0078417 0.99847186 1.0168873 0.9950083
1.0060344 1.0000806 1.003304 1.0083312 1.0030926 1.0066072 1.0018566 0.9827207
0.97166103 1.0165254 1.0015268 1.0095673 1.0059026 1.0280591 0.98782843 1.0474093
0.9950353 0.9973571 0.99107885 1.0116379 0.9764514 0.97029173 1.0207613 0.9800742

module.encoder.c1.main.1.bias f4 [32]
00000000: 06a0 bbbb 4fcf b0bb f39d 4dbb d837 20bd
00000010: 4388 553b df18 393c c938 293d 4c1a 82bc
00000020: 246a c13b adf7 5e3c 0c4f 6dbc e44b 603c
00000030: f0ef bdbb d468 043d 0c9b 003c 6708 c6bc
00000040: a94e b3bc 38db 093d 5e69 cbbc d2b1 7cbc
00000050: 2b9a 85bc be51 013c aca4 da39 2d35 ca3c
00000060: 742a 173c 8dd6 b13c 5991 a1bc 067f 213d
00000070: 0304 c0bc 8f54 4fbb 2fe8 113d db4d 64bb
-0.0057258634 -0.005395807 -0.0031374663 -0.039115757 0.003258244 0.011297434 0.04131392 -0.01588168
0.0059025455 0.013608855 -0.014484178 0.013689969 -0.005796425 0.032326534 0.007849466 -0.024173928
-0.021888094 0.03365633 -0.024830516 -0.015423255 -0.016308865 0.007893024 0.0004170289 0.02468356
0.00922643 0.021708751 -0.019722627 0.03942778 -0.023439413 -0.0031636094 0.03562182 -0.0034836445

module.encoder.c1.main.3.weight f4 [32, 32, 3, 3]
00000000: 03c8 31bd 5ec5 4e3c c10a ccba f610 27bd
00000010: 0925 203a 215f 03bd 62b9 24bb 9a2e 933b
00000020: cd00 a5b7 8382 06bd d234 0f3b 204c c13c
00000030: 8ddb 91bc 8043 033d d54c eb3b 350d b0bc
00000040: 735c f73a 5861 b73a 1dc4 c8bc db7c c6bc
00000050: 0ff0 9eba ddf0 203c 271d f53b 837a 923c
00000060: 40a8 d4bb 3263 66bb c240 a4bb d714 e43c
00000070: d362 9f3b 2554 913c 5bd5 5e3d 1976 3ebc
00000080: 4f00 02bb 4279 3fbc 7436 0bbc 8101 dd3c
00000090: 51cf 7c3c 5c44 4abc 88e8 25bc cd77 523c
000000a0: da0b aebb 9343 bc3c 8e8f 823c e07b 64bb
000000b0: 8606 e73c b99e afbc 6680 c1bc 8749 e23c
000000c0: 57d3 093d 524a 1b3c 1353 8bbc 787c c9bc
000000d0: 0c57 f83c 7aef fcbc 3d57 683c 6f7c 0f3c
000000e0: 2c5d fd3c 368e 8839 e248 12bc 9d3c 9f3b
000000f0: b10e b7bc 30cd b83c 9372 c03b 9c2f 73bc
00000100: 8f6c a53c 5a27 de3c 5440 993c ce49 0dbd
00000110: a7a4 55bd d25b 3fbc b670 9bbb c9f7 fcbb
00000120: 8dcf 9bbc 012e 34bc aff2 1abb 1d00 66bc
00000130: 8316 88bb 740a 143d 3332 c5ba eb6e 933b
00000140: 147f c43b 3e05 663c 9209 33bc 015e eebb
00000150: 72be 1abd 0eb9 24bc 3154 31bd 4659 6f3d
00000160: 70c3 8ebc 3abe 31bc 8156 0ebc c528 b6bc
00000170: f262 05bd e604 003c dfc6 8bbc 7e5b 36bb
00000180: 1a3c df3b a18e d2bb 479d 0cbc 42be 8d3a
00000190: f4e9 87bc acbf d93c c996 c13c f7ca 933c
000001a0: 31e1 2f3d ac0a b23b 0231 823c 288a 4a3c
000001b0: a1f9 d3bc 3617 433d ec18 053d 8f99 afbc
000001c0: 5e10 16bc 3142 85bc 73e7 373d e4c9 ac3c
000001d0: c900 16bc 322f f33c 7e80 543c 03d9 9bbb
000001e0: 4c92 543d 8b7c 983a cdaf f23c 4f75 7b3d
000001f0: 4e84 023c 3bec dcb8 011d 75bc 1aa1 4bbc
00000200: d5c8 7f3c 5ee5 003c e078 83bc 49a7 4bbc
00000210: 6ce5 dc3b 9ca2 a2bc f83c 78bd 1559 ef3c
00000220: c85c dabc b1bd 0cbd 4c5c fe39 b910 56bc
00000230: e72a 86bc 238e 9ebb e11d d2bc ef88 c03b
00000240: 05bb c6bb 41af a43c 19cc c2bc 94da 8d3c
00000250: f552 8ebb 20cb 44bc ff12 163b da29 bfba
00000260: 27c5 9b3c 0d3f 74bc 7dda 7cbc 2906 36bc
00000270: 2cf1 2bbc 9cf1 953c bd7c ecba e4a9 b0bb
00000280: fc96 123d 24a9 dfbc 7d0b 993c d976 fabb
00000290: ddd7 94ba e1f3 cabb 7716 f3bc ef4c 2e3b
000002a0: fba4 55bc 0988 a4bb a61a 5a3c df2c d03c
000002b0: e72f 0abd 9557 1a3c 07d3 9bbc 9863 673a
000002c0: 6268 5a3c 99d5 fcbc 1251 0cbb ab5d 6f3c
000002d0: a6d2 c7bc 6a3d fbbc 5042 313c 63d1 753b
000002e0: a751 243d ea40 24bd ae30 083b 5e66 87bc
000002f0: b7d6 1d3c f106 8b3c df0a 9b3c f73b f3bc
00000300: 92f8 ffbc 10fb f9ba 959b 8b3c 7061 c2bb
00000310: 001d 05bc f09a 43bc 7962 903c b6fc 5c3c
00000320: 7a00 af3c f114 403c 6a28 733d eeee ddbb
00000330: 7143 2b3d fe5a aabc 086b c83c db05 00bc
00000340: 6c8e 7cbb d95f f13c f03c 3a3c 26d7 32bc
00000350: 8960 5d3c 9921 abbb d9c5 f23b c0ff 18bd
00000360: 6532 8f3b 9fe2 173c a13b 173c dde1 d4bc
00000370: 8adb c7bc 8360 063d b256 dcbc d811 eabc
00000380: 6fca 2e3c 5607 19bd e03a ddbc 0087 833c
00000390: 4691 123c a6b9 183c d4fd 80bc 2595 0d3d
000003a0: 2fb1 91bd 53fc 3ebd a60f d9bb bf55 29bc
000003b0: 7615 2c3d 8e62 1c3d 8788 243c 257e a9bc
000003c0: 457c 283c 9159 e73c 0862 34bb c901 42bb
000003d0: b3ad 093d 6211 b33b 504a 853c ce76 1dbd
000003e0: 61c4 043d 017f 433c 0098 a63a 64f5 27bc
000003f0: dc0b 163b 7aed 5e3b 951a 56bc 0ce8 853c
-0.043403637 0.012620298 -0.001556717 -0.04078766 0.00061090343 -0.032073144 -0.002513491 0.0044916393
-1.9669906e-05 -0.03283931 0.0021851552 0.02359587 -0.017804885 0.032046795 0.00718079 -0.021490673
0.0018872157 0.0013990803 -0.024507577 -0.024229458 -0.0012125986 0.009823051 0.007480282 0.017880684
-0.0064897835 -0.003515434 -0.0050126025 0.027841968 0.0048640757 0.017740319 0.05440269 -0.011624836
-0.001983661 -0.011686625 -0.008496869 0.026978256 0.015430287 -0.0123454 -0.010126241 0.012845946
-0.0053114714 0.02298144 0.015937593 -0.0034863874 0.028201353 -0.02143799 -0.023620795 0.027622951
0.033648815 0.009478169 -0.017007386 -0.024595484 0.030314945 -0.03087591 0.0141809555 0.008757695
0.030928217 0.00026045897 -0.008928509 0.0048595206 -0.022345873 0.022558779 0.0058730333 -0.014842894
0.020193366 0.027118374 0.018707432 -0.034494214 -0.052158978 -0.0116796065 -0.004743661 -0.007719968
-0.019019866 -0.010997296 -0.0023643186 -0.014038113 -0.004153074 0.03614278 -0.0015044868 0.0044993064
0.005996594 0.014039336 -0.010927575 -0.0072743897 -0.03777928 -0.010053886 -0.04329318 0.058434747
-0.017427176 -0.010848576 -0.008687616 -0.022236237 -0.032565065 0.007813668 -0.017062603 -0.002782553
0.0068125846 -0.006425694 -0.00858242 0.0010814148 -0.01659105 0.026580654 0.02363147 0.018041117
0.04293937 0.005433401 0.01589251 0.012362041 -0.025875868 0.047629558 0.03249447 -0.021435527
-0.009159176 -0.016266914 0.04489846 0.021092363 -0.009155461 0.02968559 0.012970088 -0.0047560944
0.051897332 0.0011633796 0.029624844 0.06139117 0.007966114 -0.00010534419 -0.014960528 -0.012428546
0.015611847 0.007867185 -0.016048849 -0.012430021 0.0067412164 -0.019852929 -0.06060502 0.029217282
-0.02665557 -0.03436059 0.00048515422 -0.01306551 -0.01637788 -0.0048387214 -0.025649013 0.0058756988
-0.006064775 0.020103099 -0.023778962 0.01731614 -0.0043433853 -0.012011319 0.0022899506 -0.0014584616
0.019014908 -0.014907611 -0.015432951 -0.011109867 -0.010494512 0.018303685 -0.0018042546 -0.0053913463
0.03578852 -0.027302332 0.018682236 -0.0076435623 -0.0011355836 -0.0061936234 -0.029673798 0.002659615
-0.013039823 -0.0050210995 0.013312018 0.025412021 -0.03373709 0.009420295 -0.019021524 0.00088267913
0.013330551 -0.03086357 -0.0021410626 0.0146097345 -0.024392437 -0.030668933 0.010819033 0.0037508837
0.040116932 -0.04010097 0.0020780968 -0.016528305 0.009633712 0.016971083 0.018926082 -0.02969168
-0.031246457 -0.0019072015 0.01704196 -0.0059320256 -0.00812459 -0.011938795 0.01762508 0.013487985
0.021362532 0.011723743 0.059364714 -0.0067728674 0.041812364 -0.020795342 0.024465099 -0.007813896
-0.0038537038 0.029464649 0.011367068 -0.010915553 0.013511785 -0.005222511 0.007408839 -0.037353277
0.004370021 0.009270339 0.009230525 -0.025986606 -0.024396677 0.032806884 -0.026896808 -0.028572962
0.010668381 -0.03736051 -0.027005613 0.016055584 0.008945769 0.009321606 -0.015746035 0.034566063
-0.07113873 -0.046627354 -0.00662418 -0.010335385 0.042012654 0.038179927 0.010042316 -0.020690033
0.010283534 0.02824095 -0.0027524251 -0.0029603115 0.033612918 0.0054647187 0.016270787 -0.03844338
0.032413844 0.011932136 0.0012710094 -0.010251377 0.0022895252 0.0034016059 -0.013067861 0.016346

module.encoder.c1.main.3.bias f4 [32]
00000000: 2a4d 2a35 30af 86b6 b101 0336 bc1e c937
00000010: f77c c9b5 7c45 36b8 5994 8bb7 46eb 4f35
00000020: f968 8eb6 b09f 0d37 05e5 3ab7 a753 13b5
00000030: 159e bdb5 a791 81b5 8c7f 88b6 b089 9f36
00000040: 2aa8 0337 2aef 0536 7000 0436 aca6 65b7
00000050: 4b78 b4b7 d944 4eb6 8268 9bb5 9dbe 3737
00000060: 035f b8b5 6cc8 e0b6 6295 90b7 8490 2337
00000070: 1fb1 5e37 5955 e036 28bc 60b6 b938 5eb7
6.3442224e-07 -4.0139057e-06 1.9521506e-06 2.3975379e-05 -1.5012037e-06 -4.3456894e-05 -1.6639171e-05 7.7455877e-07
-4.24415e-06 8.441435e-06 -1.1139787e-05 -5.48835e-07 -1.4127605e-06 -9.653639e-07 -4.0679643e-06 4.754598e-06
7.847362e-06 1.9957756e-06 1.9669787e-06 -1.368827e-05 -2.1513688e-05 -3.0736467e-06 -1.1578816e-06 1.0952031e-05
-1.373672e-06 -6.6990524e-06 -1.72357e-05 9.749205e-06 1.327347e-05 6.685656e-06 -3.3488122e-06 -1.3245438e-05

module.encoder.c1.main.4.weight f4 [32]
00000000: b6eb 7d3f 15fc 773f e510 7d3f 4a88 7e3f
00000010: 869d 813f 735c 823f 8ea8 803f 30af 7f3f
00000020: ade1 7f3f d381 793f 53b9 7d3f 0ecf 7e3f
00000030: 08b6 763f 0914 7a3f 0edd 7c3f 3e13 7a3f
00000040: b369 7b3f eb80 7c3f 2c34 803f 964c 803f
00000050: 11ca 803f bbd1 773f 3e5e 7a3f b562 803f
00000060: ccb8 7c3f c58f 7d3f da8a 7f3f 1511 803f
00000070: b35a 803f d3f2 7a3f b8b7 793f 3754 7f3f
0.9918779 0.9686902 0.98853904 0.9942671 1.0126197 1.0184463 1.0051439 0.9987669
0.9995373 0.9746372 0.9911091 0.9953469 0.9637151 0.9768682 0.987748 0.9768561
0.9820816 0.98634213 1.0015922 1.0023372 1.0061666 0.968044 0.9780005 1.0030123
0.9871948 0.990475 0.99821246 1.0005213 1.0027679 0.9802677 0.9754596 0.99737877

module.encoder.c1.main.4.bias f4 [32]
00000000: ad71 1a3c 6516 063c 9619 b83c 6bf1 583b
00000010: a4e1 343d 3711 1c3d 1fd6 36bd 6c91 353d
00000020: 9822 4a3c ae0c b3bc 6e5f c83c dcfe 1a3d
00000030: a711 e2bc 8b09 b43c 66bb de3c 048e 8ebc
00000040: 214e 11bc c090 c23c 48ea 4d3d 9adc efba
00000050: ab39 cf3c 6ddb c2bc edbf 4f3c 7326 613c
00000060: c7c3 0b3d 2dac f33c 3415 013d ff7c dc3c
00000070: dd7e ee3c 4921 3dbc 142f 3d3c 1441 ec3c
0.0094265165 0.00818405 0.022473138 0.003310288 0.0441605 0.038102355 -0.044637796 0.04432814
0.012337349 -0.021856632 0.024459567 0.03784071 -0.027596308 0.021977207 0.027188968 -0.017401703
-0.008868725 0.023750663 0.050272256 -0.0018299997 0.025296053 -0.023786271 0.012680036 0.013742077
0.034122255 0.029745186 0.03151436 0.026915072 0.029113228 -0.01154358 0.011546869 0.028839625

module.encoder.c2.main.0.weight f4 [64, 32, 3, 3]
00000000: 55a8 93bc deab 8fbc c2b9 a73c 2c75 6e3c
00000010: c44b 79bc 2bd5 8dbb 6a6f 0f3d 6d61 6dbc
00000020: 9f8a 043d 4165 933b 7f84 02bc 2bdf 2abd
00000030: 0f8a 9f3c db3f 6e37 4bbd 4eba f8bc 553d
00000040: e952 2e3d ef41 c33b 1a36 183d 6b29 d1bc
00000050: c837 95bb b959 f6ba a9bf 01bc a8d2 f43c
00000060: e699 cebc 8575 0fbc c023 ce3c 5916 323c
00000070: 28a7 163c 3610 193c 449f 103c 88f7 76bc
00000080: 5f14 343c cb72 dabb b9e6 aabc 9b9f 95bc
00000090: 307e c9bb 9e48 d43c fd91 253a ea83 4abb
000000a0: 57ab 5e3d faae 4f3c 3676 35bc 5087 7c3c
000000b0: bf11 033d b7a6 1ebc e9db ec3c ed27 84bc
000000c0: e5dc 5c3c 1651 3a3b e496 efbc 2ac0 e03c
000000d0: 44d5 19bc 2fd0 ce3b 4ef6 25bc 8294 60bc
000000e0: aef9 0cbd ed1e 19bd 32c4 453c aeb9 fbbc
000000f0: 6f49 84bc 0418 82bd c6f7 02bd df09 c3ba
00000100: 8969 883c e0bb 7fbc 9b88 3b3a 42c2 8f3c
00000110: 1bee 553b 92e2 703c 4aff fabb d564 a0bb
00000120: e1e2 bcbb cb3b 1239 5dad 3a3c a550 133c
00000130: 642d 103d 90f4 3e3b a69b abba 4448 3fbb
00000140: 0589 6fb8 0f30 e23c 2ce1 a73c 9c25 cabc
00000150: f99a 78bc baca 2f37 0219 583c 022c b2bc
00000160: a358 a0bb 9816 583c 2be0 c4bb 1d45 5c3c
00000170: 9300 afbb cf09 e63b c5c9 663c 1ede c23c
00000180: 2027 a33c b96f 693c 731f f3bc 2c9d bdbb
00000190: 8d51 f23c 65ac d83c e541 a93c 1989 3d3d
000001a0: e1e6 4dbc f232 65bb 1663 723c 3e12 94bc
000001b0: 8516 473b 2b21 2c3c 4993 3a3d 57b2 99bc
000001c0: 112d 69bd 36bb ccbb 7e8d 3e3d 330c ddbb
000001d0: 6333 143c 0ba6 d4bb f279 163d 6225 c03c
000001e0: 355a 653c d818 54bb 0bc4 753d 9b97 1b3c
000001f0: 1b9e ab3c b1c8 d7bc 00ec 4abc 3830 4d3c
00000200: 83b9 083c 7409 dcbc d2ab 113d 7b1f 083d
00000210: 56f5 efbc a78c 1fbc 0015 c1bc 176c ebb5
00000220: dd53 55bc 5539 83bc caae 64bc bd23 083a
00000230: d693 c93c 69bb c73b ac64 a5bc da62 dfbc
00000240: 9768 563a a523 69bc c4c8 593c 3264 01bc
00000250: 5db9 f8ba 69f8 60bb 53a6 c3bc 43fe cb3b
00000260: ad5a 8bbc ac40 22bc 2ec8 1f3d 81f8 9e3c
00000270: a85c 383d 7e45 6e3b eddd a03c ebdf 9e3c
00000280: eb55 2c3c 6f75 a23b 2d1a 20bd 402f d33c
00000290: 3885 0d3b df8c c23c 2ee7 b83b f96d ba3c
000002a0: 8f5f 2fbc e377 903b a497 de3c 08a0 e0bb
000002b0: 5700 67bc a3c8 53bc 5ffc 1bbd 2924 b1bc
000002c0: fc23 60bb e5cb 48bd a969 ae3b 4b44 afbb
000002d0: f5e7 2cbc a3c7 063d 1ec8 77bc 8da8 c9bb
000002e0: 7275 c1bc 691b 52bd 3f99 9bbc 31f4 ddbc
000002f0: c384 b2bc e17c 1cbd f680 6a3b 8452 96bc
00000300: 3de4 89bc 515e 853a 3ce2 44bd 0869 2fbc
00000310: f71b 53bc e69c 2dbc cbb1 12bd a5f0 3bbd
00000320: 836c 06bc 151d 2dbd fbd7 0f3c 2bd5 0abc
00000330: 890e 68bb 695c d83c e97b b8bb 74e6 c63a
00000340: 16ab dbbc bb87 84bc 9a8a 1f3c 50de 18bd
00000350: 5056 38bd 53a8 bdbc 1248 98bc 4fdf 69bc
00000360: a1dd f3bc 2687 ad3c 9116 ebbc e29c ac3a
00000370: 52ba 883c e269 c8bc bf45 d5bb 6ded 043a
00000380: e5d4 a63c 1c4d 223c 8ea5 b33c c2ee 2a3c
00000390: e5e9 eeba 0564 e8bc d49f ca3c 38b4 c73c
000003a0: 2109 143d 84b7 703d 65a4 973c d0f2 dcbb
000003b0: 9545 f2ba 24f2 4bbc 81b0 12bc 3d23 863c
000003c0: 35b7 1c3c 38c6 a63b f218 94bc 8073 1ebc
000003d0: c9c9 c7bc b858 9bbc 3f9c 7ebb 5e99 48bd
000003e0: d979 7ebc dbfa 10bd b9d0 0fbd b1d4 fcbc
000003f0: 4e95 853c 20ee 19bd f218 003c 847f b9bc
-0.018024603 -0.017538007 0.020474318 0.014554303 -0.015215818 -0.00432839 0.035018362 -0.01448856
0.032358762 0.0044981544 -0.00796616 -0.041716736 0.019475011 1.4200773e-05 -0.0007886483 0.052182168
0.042559538 0.0059587876 0.03716097 -0.025532445 -0.004553769 -0.001879505 -0.0079192305 0.029885605
-0.025219869 -0.008756046 0.025163531 0.010869586 0.009195127 0.009342244 0.008827034 -0.0150736645
0.010991185 -0.0066665164 -0.02086197 -0.018264582 -0.006149076 0.025913533 0.00063160044 -0.003090138
0.05436262 0.012675995 -0.011075547 0.01541312 0.031999346 -0.009683303 0.028913455 -0.01613232
0.0134804 0.0028429679 -0.029246755 0.027435381 -0.009389225 0.0063114385 -0.010129524 -0.013707282
-0.0344178 -0.03738301 0.012070702 -0.030728187 -0.016148297 -0.06352237 -0.031974576 -0.0014880261
0.016651886 -0.015608758 0.00071538397 0.017548684 0.0032643143 0.014702456 -0.0076598274 -0.0048948326
-0.0057643508 0.0001394592 0.011393872 0.008991395 0.035199538 0.002913747 -0.0013092651 -0.002918736
-5.710965e-05 0.027610807 0.020493113 -0.024676137 -0.015173667 1.0478014e-05 0.013189556 -0.0217495
-0.004893379 0.0131889805 -0.006008168 0.013444212 -0.0053406446 0.0070202122 0.014086192 0.023787554
0.019916117 0.014247828 -0.029678082 -0.0057865586 0.029579902 0.026449392 0.020661304 0.046273325
-0.012567253 -0.0034972993 0.014794132 -0.018075105 0.0030378413 0.010505955 0.04555062 -0.018761797
-0.056927744 -0.006247903 0.046521656 -0.006745839 0.009045455 -0.0064895204 0.03673739 0.023455326
0.013998558 -0.003236344 0.060001414 0.009496595 0.020949414 -0.026340814 -0.012385368 0.012523703
0.008345011 -0.026859976 0.03556425 0.033233147 -0.02929179 -0.009738124 -0.023569584 -1.7540323e-06
-0.013020483 -0.016018549 -0.013957689 0.00051933137 0.024606626 0.006095339 -0.020189606 -0.027268816
0.0008179037 -0.01422969 0.013292495 -0.007897424 -0.0018976141 -0.0034327751 -0.02388302 0.0062253787
-0.017011011 -0.009903114 0.039009266 0.019405605 0.04501024 0.0036357339 0.019637072 0.019393882
0.010518531 0.004957847 -0.039087463 0.025779366 0.0021594297 0.023748813 0.005642793 0.022757517
-0.010703935 0.004408823 0.027171917 -0.0068550147 -0.014099202 -0.0129262535 -0.038082477 -0.021623688
-0.0034201136 -0.049022574 0.0053226543 -0.0053487173 -0.01055335 0.032905232 -0.015123395 -0.006154126
-0.023615573 -0.05129567 -0.018993972 -0.027093979 -0.021791821 -0.03820503 0.0035782433 -0.018349893
-0.016832465 0.0010175203 -0.048067316 -0.010706194 -0.012885085 -0.0105964895 -0.035814088 -0.045883793
-0.008204582 -0.042264063 0.008779521 -0.008473675 -0.0035409054 0.026411252 -0.0056300056 0.0015174882
-0.026814979 -0.016178003 0.009737635 -0.03732139 -0.04500419 -0.023151552 -0.018589053 -0.014274432
-0.029768767 0.021182608 -0.028697284 0.0013169313 0.016690407 -0.024464551 -0.0065085585 0.00050707796
0.020365188 0.00990608 0.021929529 0.010432901 -0.0018227665 -0.028368006 0.024734415 0.024377927
0.03614152 0.058768764 0.018511007 -0.0067428127 -0.0018483872 -0.012447868 -0.008953215 0.016374225
0.009565164 0.0050895475 -0.018078301 -0.009671092 -0.02438821 -0.018963203 -0.0038850454 -0.048974387
-0.01553198 -0.035395484 -0.035111163 -0.030863138 0.016306546 -0.03758061 0.007818447 -0.022643812

module.encoder.c2.main.0.bias f4 [64]
00000000: 8115 ad36 ef0e aeb6 72fa 1436 9722 3bb6
00000010: 8a80 4835 60ad ec34 89a4 10b5 fd3f 9934
00000020: 38ee 9f36 2ab4 e236 a860 4934 64b8 dbb5
00000030: d533 c0b6 b152 4cb5 93a6 23b6 d100 c0b4
00000040: ab8e 3c36 bd0e ff34 0bf0 f735 50d5 a134
00000050: 9b22 0c34 3d84 f4b4 750e 4fb6 f337 21b6
00000060: b9da 2036 2a4d f0b4 15df 0fb5 c107 d3b5
00000070: 7309 c9b3 658d 3636 b297 58b5 8ba2 deb5
00000080: f608 86b4 0498 abb5 79ec abb5 4916 4f36
00000090: 6cb8 29b5 c9b7 51b4 e10f 3635 ace0 3735
000000a0: 5863 a536 ed6c 9cb5 0367 9135 443c 4cb6
000000b0: 326e 83b5 2288 3235 33c8 05b6 7e0b a135
000000c0: e824 2135 4362 6e35 5b0f cfb5 a5cb a035
000000d0: 33f2 b234 df70 1cb6 0e02 8a34 4395 7235
000000e0: 8807 3832 f569 c833 ffb7 1e35 1803 4535
000000f0: 32ec 0136 83be 0db6 43d3 2eb5 a934 6735
5.158305e-06 -5.1873426e-06 2.2199497e-06 -2.7885305e-06 7.4692855e-07 4.4084572e-07 -5.388361e-07 2.8545028e-07
4.7663016e-06 6.7562987e-06 1.8754747e-07 -1.6370436e-06 -5.72808e-06 -7.6116254e-07 -2.4385852e-06 -3.576338e-07
2.8097227e-06 4.7508175e-07 1.8472796e-06 3.0143792e-07 1.3051105e-07 -4.5544758e-07 -3.0853819e-06 -2.4023436e-06
2.3969171e-06 -4.4759628e-07 -5.359628e-07 -1.5722982e-06 -9.361511e-08 2.7202416e-06 -8.0687016e-07 -1.6587595e-06
-2.4965965e-07 -1.2784735e-06 -1.2809315e-06 3.0858375e-06 -6.3225775e-07 -1.9531502e-07 6.782339e-07 6.8499753e-07
4.9289483e-06 -1.1654607e-06 1.0833322e-06 -3.0433448e-06 -9.792332e-07 6.6508267e-07 -1.9935076e-06 1.1998779e-06
6.003088e-07 8.88049e-07 -1.5427171e-06 1.1980197e-06 3.3331307e-07 -2.331151e-06 2.5705998e-07 9.036923e-07
1.0711922e-08 9.332499e-08 5.9127336e-07 7.339272e-07 1.9359982e-06 -2.112153e-06 -6.512748e-07 8.6130837e-07

module.encoder.c2.main.1.weight f4 [64]
00000000: d2a8 823f d469 843f 0471 783f f780 813f
00000010: a8d7 7d3f 5caf 7b3f e9bd 7a3f 4440 7c3f
00000020: 6d02 823f a067 803f e378 803f 36bd 813f
00000030: 0278 803f f2d8 7c3f 512a 783f b478 813f
00000040: 55b0 7d3f e46a 7d3f f460 7f3f ace1 813f
00000050: 78c0 7b3f 682c 813f 632c 7e3f b3c9 803f
00000060: 6781 823f 498d 7f3f eaf5 7c3f 6f10 7f3f
00000070: a19c 7c3f 718a 7f3f 4510 7e3f 1662 7c3f
00000080: 24e9 793f 8042 843f 799b 823f a437 7b3f
00000090: 7244 813f d57b 783f 4c6c 793f 329c 7c3f
000000a0: 5e6c 843f 5fb0 803f 04f6 7c3f a89c 823f
000000b0: 05dc 783f 1e21 7a3f f173 7c3f 8784 7c3f
000000c0: 1701 7e3f 390d 843f a266 7a3f dbf3 793f
000000d0: e1db 7c3f 4af0 7c3f c463 7d3f 836c 833f
000000e0: 35ad 7a3f a7d4 7a3f 7fa0 803f a2bc 7e3f
000000f0: 85d3 7d3f 12d5 7f3f e8ef 7c3f b9a1 7c3f
1.020777 1.0344796 0.9704745 1.0117482 0.9915719 0.9831445 0.9794603 0.9853556
1.015699 1.0031624 1.0036892 1.0135868 1.0036623 0.9876853 0.9693957 1.0114961
0.99097186 0.9899123 0.99757314 1.0146995 0.9834056 1.0091677 0.9928648 1.0061554
1.019574 0.9982496 0.98812735 0.9963445 0.98676497 0.9982062 0.99243575 0.9858717
0.9762137 1.0332794 1.0203696 0.98131776 1.0099013 0.9706395 0.9743087 0.98675835
1.0345571 1.0053824 0.9881289 1.0204058 0.97210723 0.9770678 0.9861441 0.9863972
0.9922041 1.0316535 0.97812855 0.9763772 0.9877301 0.9880415 0.98980355 1.026749
0.9792054 0.9798073 1.004898 0.9950658 0.9915088 0.99934494 0.9880357 0.9868427

module.encoder.c2.main.1.bias f4 [64]
00000000: ef03 043b 43e9 ccbb 126c 2dbd 75ab b7bc
00000010: 2333 acbc 45ad dbbc c93c d0bc ff7e 39bd
00000020: ecb5 50bd 5c9c b0bc fc60 c7bc a1e9 c1bc
00000030: a7fe 973a 0385 1cbd 2d47 10bd cca1 24bb
00000040: bdb6 66bc e7ed 13bd ace6 cebb 6651 1ebd
00000050: 84dc 0cbd bed8 483b 0397 dabc 0507 44bc
00000060: 1e70 36bd 99d5 a8bc 84e8 26bd 6f88 33bc
00000070: 20cb fabb 3709 b0bc 4042 a6bc d097 2abd
00000080: 27aa 32bd cc55 8cbc 3263 c5bb c361 f8bc
00000090: d302 a2bc 4de6 28bd d703 15bd 4845 07bd
000000a0: a995 dabb 5251 02bd a2d8 65bc 9b01 82bb
000000b0: dd2e 94bd ad0e 16bd 08a9 d0bc 6a29 c5bc
000000c0: 61f3 afbc 4180 c7ba d2a1 56bc 5448 33bd
000000d0: d014 a5bc 96cb 13bd e7d9 0bbd c281 fabb
000000e0: ded5 7fbc bd39 20bd ff20 49bc a7af 20bc
000000f0: 22a8 f0bb c46e 9fbc 3255 13bd 1dd1 8dbc
0.0020143946 -0.006253393 -0.042339392 -0.022420624 -0.021020478 -0.02681602 -0.02541961 -0.04528713
-0.050954744 -0.021558933 -0.024338238 -0.023670973 0.0011596278 -0.038212787 -0.03522413 -0.0025120853
-0.014081654 -0.036115553 -0.0063141193 -0.038651846 -0.034389988 0.0030646767 -0.026683336 -0.011964564
-0.044540517 -0.020609664 -0.040749088 -0.010957821 -0.007653609 -0.021488769 -0.020295262 -0.041648686
-0.0436193 -0.017130755 -0.006023788 -0.030320054 -0.019776737 -0.041235257 -0.036380615 -0.033025056
-0.006670673 -0.031815834 -0.0140287 -0.0039674765 -0.07235501 -0.03663509 -0.025471225 -0.0240676
-0.021478357 -0.0015220718 -0.013100104 -0.04377015 -0.020151526 -0.036082827 -0.034143355 -0.007644863
-0.015614955 -0.039117564 -0.012275933 -0.009807504 -0.0073442617 -0.019461997 -0.03596992 -0.017311627

module.encoder.c2.main.3.weight f4 [64, 64, 3, 3]
00000000: 3b92 ea3b 0f9b 313c e9bc f6ba ddbb 043d
00000010: f592 94bc 3863 823c 9d2e 353a 449b ccbc
00000020: e1d1 36bc e85a 4a3c b235 873b c024 f53c
00000030: 9f29 93bc 9d40 6c3c b803 94bb bc09 21bd
00000040: 1da6 15bd a4f2 47bc e411 883c 9849 0c3a
00000050: 85c6 08bd c94f f03c 2240 5d3b d899 a13b
00000060: cb1e e33c 99ac c7bb 6f28 383c 5649 a1bc
00000070: 48e0 383c 5a7c 86bb 628f 223c eec9 debc
00000080: 2a56 d1bc fced c53c ae59 cc3c ce46 ed3c
00000090: fcf4 103d 1af2 173d bed1 413c 0043 33bc
000000a0: 1b52 333c c8b6 92bc 54a9 98bc 7fa9 843c
000000b0: aed4 d2bc 272e f7bc 5069 c23c 892a 1ebd
000000c0: 0344 a33b a56f e6bb 3aab 2e3c 2356 81bc
000000d0: 5fc9 19bd b5d8 78bc a6c3 a53c 2b5d 7abb
000000e0: 603c cb3c 7fa9 64bc 0df2 1cbb 5caa 0d3d
000000f0: affa 81bb 1cf5 b43b ac9f c9ba 818b 353a
00000100: 8b52 adbc 9734 a9bb 0243 1c3c 2233 9c3b
00000110: bb43 f33b f727 293d 2ce7 f3bb 719d 13bc
00000120: edf0 023d d19e 113d 8b75 de3b 5322 c9bc
00000130: 2254 92bc 3668 2abd cd3d 7b3d c441 303d
00000140: add1 8b3c d4d9 df3c 21cc 413d 87a7 033c
00000150: 77f3 7cbd c74a 6fbc c6d6 bebb 0990 8d3c
00000160: e09f 243a 6dfa 383d 32ec 8a3c 23b4 fc3c
00000170: b6cf 103c 4c1e 0cbc f4e0 43bd eebc 15bc
00000180: 586e 2dbd edff 89bc 2df2 aa3c 5545 093d
00000190: 9825 8e3c 7aa4 883b d802 163c 141c d53b
000001a0: 90b2 d03b 63c2 b23c d167 7e3c 5467 293d
000001b0: a597 3a3b 4cc5 123d f4ec 0fbc 5cc3 8cba
000001c0: c797 50bc 0eea 82bc deeb 933c 0b9e a3bb
000001d0: 098f 97bc 9ea2 abbc 414c e33c 6d77 f73b
000001e0: 9b89 d43c 705c efbb f138 5fbc 985c 403a
000001f0: 2b3e 19bc f0cb 8d3b e00e 643b 5cb5 a0bb
00000200: f4ea b43b d417 89bc c0c1 003a 100a c5bc
00000210: be96 053d 322d fe3a 4509 cbbc a8b9 21bd
00000220: 2168 03bd f6c1 5abd b0ba 973c cb9b b8bc
00000230: 02f2 e63c 0d3d 50bc ab74 26bd 5f75 9dbc
00000240: ac16 a53a a801 17bd f6db 7d3c 6c4e 93bc
00000250: f613 5e3c 79a5 8b3d dda6 f73a fe78 883b
00000260: 458e 033c 24b4 023d 2c92 9b3b f16f 5d3d
00000270: ab7d 1e3a 45b6 fabb 3088 99bb f126 e5bc
00000280: 492b 5dbc f793 aebc c58a 16bd e596 5d3c
00000290: e96d 923c ca4f 00bb f7bc 883c 3047 03bc
000002a0: d271 7dbd c6c8 18bc 0142 2c3c 040e 2e3b
000002b0: 71b1 80bb d44d b73c b7ba 24bc 1bbc 023d
000002c0: 205c 22bd f37e c2bb 5189 633c 547f fd3c
000002d0: a5ca 58b8 84aa a63b 33bf beb8 baf1 47bc
000002e0: 787a fdba eb75 37bd 8375 01bc d78d 3bbc
000002f0: 50d6 013c 8988 10bd 9175 7a3c 8914 093c
00000300: e46b a63c dd3d 0a3c 5fc7 113c b04d 8abc
00000310: 74a0 63bc b601 0b3d c987 8a3b c80f 263d
00000320: 7908 e43c cc69 51bc f11c 5fbc b4d2 a33c
00000330: 7259 d2bc 7de3 673d 8520 48bc 7a88 f83a
00000340: 6a7f b03c ea76 113d f520 d938 4a4a a4bc
00000350: f98d 0a3b 84de ccbc 70a4 3cbc 628c 8a3c
00000360: 5466 6fbc b079 d9bc 8d4e 04bc 4bf3 26bc
00000370: c3f5 0bbc b545 cfba fe70 0abc b413 aa3c
00000380: 673d c4bb ea47 b3ba 773a 9cbb c7f2 1a3c
00000390: cef7 e7bc 21c0 c8bc eba0 a23c 6117 52bd
000003a0: e62b f1bc 3b6b 3dbd 9247 b23a 28cb f4bb
000003b0: e69e 09bc 594f a73b f5c8 203c 3b75 47bb
000003c0: c41f 4f3c cd70 1bbd 8eda 883c 38a7 f43c
000003d0: 84ed 5d3b 1201 313d 0821 1c3b a256 e9bc
000003e0: 8b95 84bb 1dd5 cf3c 47ab f23c d492 8dbc
000003f0: 15b1 013d 53e2 a7bc 8b7f 15bd f137 58bd
0.0071585453 0.0108401915 -0.001882461 0.032405723 -0.01813648 0.015916452 0.0006911548 -0.02497638
-0.0111584375 0.012350775 0.004126274 0.02992475 -0.017964182 0.014419702 -0.004517045 -0.039315924
-0.03653537 -0.012203846 0.016610093 0.00053515425 -0.033392448 0.02933492 0.003376015 0.0049316697
0.027724644 -0.0060935733 0.011240109 -0.01968829 0.011283942 -0.0041041793 0.00992188 -0.027195897
-0.025553782 0.024161331 0.024945106 0.028964426 0.035389885 0.03709612 0.011829792 -0.010941267
0.010944868 -0.017909423 -0.01863543 0.016194103 -0.02573618 -0.030173374 0.023731858 -0.038614783
0.004982473 -0.007032352 0.010660941 -0.015788144 -0.037545558 -0.015188386 0.020234894 -0.0038202505
0.024809062 -0.013956427 -0.0023947984 0.034586295 -0.0039666514 0.0055223834 -0.0015382669 0.000692539
-0.021157524 -0.00516374 0.00953746 0.0047668377 0.0074238456 0.04129788 -0.0074433293 -0.009009705
0.031968046 0.03555185 0.0067889146 -0.0245525 -0.017862383 -0.04160329 0.061338235 0.04303147
0.017067755 0.027325548 0.047313813 0.008035547 -0.061755624 -0.014605231 -0.005823943 0.017280595
0.0006279927 0.0451607 0.01695833 0.030847615 0.008838585 -0.008552145 -0.047821954 -0.009139283
-0.04234156 -0.016845668 0.020867432 0.033513386 0.01735191 0.0041699978 0.009155951 0.0065035913
0.0063689426 0.021821206 0.015527681 0.041358307 0.0028471735 0.03583269 -0.008784521 -0.0010739374
-0.012731499 -0.015980747 0.018056806 -0.0049932054 -0.018500822 -0.020951565 0.027746322 0.0075520785
0.025944522 -0.0073047206 -0.013624416 0.00073380163 -0.009353201 0.0043272898 0.0034798905 -0.004904432
0.0055211727 -0.016734995 0.00049116835 -0.02405265 0.032614462 0.0019392131 -0.024784693 -0.039483696
-0.032081727 -0.05340763 0.018521637 -0.022535225 0.02819157 -0.012709868 -0.040638607 -0.019221006
0.0012595258 -0.036866814 0.015494337 -0.01798173 0.013554564 0.06818671 0.0018894334 0.004164814
0.008029525 0.031910077 0.0047476497 0.054061834 0.00060459477 -0.0076511228 -0.0046854243 -0.02797267
-0.0134990895 -0.02131079 -0.036753435 0.013524746 0.017874675 -0.0019578808 0.016691668 -0.008012578
-0.061876126 -0.009325212 0.010513783 0.0026558647 -0.0039274027 0.022375979 -0.010054282 0.031917673
-0.03963864 -0.0059355437 0.013887719 0.030944504 -5.168714e-05 0.005086245 -9.0955196e-05 -0.012203628
-0.0019338867 -0.04479019 -0.007901552 -0.0114473915 0.007924631 -0.03528646 0.015286819 0.008366712
0.020315118 0.008437601 0.008897631 -0.016882747 -0.0138932355 0.03393718 0.0042276126 0.040542394
0.027836071 -0.012781572 -0.01361774 0.019997932 -0.025677416 0.056613434 -0.0122147845 0.0018961572
0.02154513 0.035513796 0.00010353505 -0.020054955 0.0021141751 -0.025008447 -0.011513814 0.016912643
-0.014611799 -0.026547283 -0.008075369 -0.0101898415 -0.008542481 -0.0015813621 -0.008449791 0.020761348
-0.005988765 -0.0013678048 -0.0047677117 0.009457297 -0.028316405 -0.024505677 0.019852122 -0.051291827
-0.029439878 -0.04624484 0.0013601652 -0.007470507 -0.008399701 0.0051058945 0.009813537 -0.0030434865
0.012641851 -0.037949372 0.016705777 0.029864892 0.0033863494 0.04321391 0.00238234 -0.028483693
-0.004046147 0.025370175 0.029622687 -0.017281927 0.03166302 -0.020493662 -0.036498588 -0.052787725

module.encoder.c2.main.3.bias f4 [64]
00000000: fb96 12b5 b082 20b4 d8fb 9033 0e85 a1b4
00000010: 9ce0 4436 c1d2 4fb5 ad46 c334 0480 9134
00000020: cc0a 21b6 6c7c 6fb4 817b ec34 02b2 3535
00000030: b26d d7b5 7648 1a34 128f 7a34 f5db 08b5
00000040: 9c28 1135 85bc 5c32 379d efb4 be9f 0fb5
00000050: 77af 1535 a57b afb4 5262 9435 46bf b8b4
00000060: b9f5 67b5 13fa 7c34 b07f bcb5 f451 feb4
00000070: 4d23 79b4 8770 83b5 93bb a735 20fd d634
00000080: 1677 8bb4 9f7f 3035 0e92 33b4 5333 0db6
00000090: d4b5 dfb3 efed ffb3 1b36 66b5 3d0d b735
000000a0: ea8a cb34 f60c b134 ef47 5e33 8da7 8bb4
000000b0: 45f2 72b4 e5b6 6d35 c929 44b5 abd4 27b5
000000c0: 8a6a 0335 a56e 9e34 da57 8db4 06b9 ebb5
000000d0: c7eb 5ab3 731a bf34 9536 c834 5b6f 61b3
000000e0: f191 17b3 4bf8 aab4 bb6d 0335 e658 1935
000000f0: 12fa abb3 d5d4 10b5 23db 9833 45fb 1135
-5.4608944e-07 -1.4948705e-07 6.751333e-08 -3.0085397e-07 2.9337016e-06 -7.7420196e-07 3.6373004e-07 2.7101498e-07
-2.3997154e-06 -2.2303874e-07 4.4048286e-07 6.768679e-07 -1.6050674e-06 1.4368729e-07 2.3335113e-07 -5.098403e-07
5.4075804e-07 1.284855e-08 -4.4631608e-07 -5.3504107e-07 5.576216e-07 -3.2686253e-07 1.1055474e-06 -3.441184e-07
-8.641178e-07 2.3560305e-07 -1.4044253e-06 -4.7370816e-07 -2.3202774e-07 -9.79301e-07 1.2497061e-06 4.004478e-07
-2.5977414e-07 6.575082e-07 -1.6723808e-07 -2.1040512e-06 -1.0417321e-07 -1.1917643e-07 -8.576041e-07 1.3638415e-06
3.791277e-07 3.297825e-07 5.1753826e-08 -2.6012677e-07 -2.2626143e-07 8.8555527e-07 -7.3076495e-07 -6.252182e-07
4.895634e-07 2.9510298e-07 -2.6327217e-07 -1.7562713e-06 -5.097152e-08 3.5595767e-07 3.7292617e-07 -5.2488172e-08
-3.529016e-08 -3.1845624e-07 4.896098e-07 5.7126306e-07 -8.0082955e-08 -5.395389e-07 7.117912e-08 5.4382355e-07

module.encoder.c2.main.4.weight f4 [64]
00000000: 6870 813f 1b82 7e3f 5dce 823f 4ac2 7f3f
00000010: 7ba0 823f 8465 803f cd8a 7d3f a0bd 7d3f
00000020: 500f 813f b297 7e3f 76e0 7f3f 128e 803f
00000030: 63f0 803f 6129 7b3f 0882 7f3f 48cc 7d3f
00000040: 4a3c 813f 4f5e 7a3f 45d1 803f 14cc 7c3f
00000050: 400e 833f 5004 7c3f db1c 813f 7075 803f
00000060: df00 813f e0c2 7d3f 1696 803f 9f81 813f
00000070: ea65 7d3f 1bc6 7d3f 951e 7e3f abef 763f
00000080: 8065 7c3f 578c 813f 9d8c 7e3f 3709 813f
00000090: 7f44 813f 5780 7c3f 7f3a 7c3f 5a7d 7f3f
000000a0: 4098 7b3f 5739 7e3f 623e 7c3f 13c0 7f3f
000000b0: 723e 7e3f 3f05 803f 23b6 7e3f bf73 7f3f
000000c0: 04bd 7b3f a920 7b3f 09e7 773f c389 813f
000000d0: fd26 7c3f 3bfc 803f a06f 7f3f a3b3 7e3f
000000e0: 869e 7f3f cf69 7f3f 6518 793f 852f 823f
000000f0: 940d 803f d43b 7d3f ab37 803f 7f24 843f
1.0112429 0.99417275 1.0219227 0.99905837 1.0205225 1.003098 0.9903992 0.9911747
1.0082798 0.9945022 0.99951875 1.0043356 1.007336 0.98110014 0.99807787 0.99139833
1.0096524 0.97800153 1.0063864 0.987489 1.0238724 0.9844408 1.0086931 1.0035839
1.0078391 0.9912548 1.0045803 1.0117682 0.98983634 0.9913041 0.99265414 0.96459454
0.98592377 1.0120953 0.9943331 1.0080937 1.0099028 0.9863333 0.9852676 0.99800646
0.9827919 0.99306244 0.9853269 0.99902457 0.99314034 1.0001601 0.9949667 0.9978599
0.9833529 0.9809671 0.96836907 1.0120167 0.9849699 1.0076975 0.997797 0.99492854
0.9985126 0.99770826 0.9730285 1.0170752 1.0004144 0.98919415 1.0016989 1.0323638

module.encoder.c2.main.4.bias f4 [64]
00000000: ac90 96bb 5f6e 0bbd 0c1f 0abc 8a2b 4fbc
00000010: 7289 64bc 94c5 b4bc a251 b1bc bcd7 8dbc
00000020: 6b5a 2ebd 6dc1 7bbc 2460 19bd 5afa 6abc
00000030: 371b 83bc 0ca3 93bc 9506 a4bc 618a 82bc
00000040: eb67 43bc dcc0 95bc 316d 65bc 1177 39bd
00000050: 5be5 17bd 7d71 f9bc c68f 89bd 9186 29bc
00000060: 9139 64bc 3aa3 1ebc 16ed 36bc 674b c3bc
00000070: 9ab8 e03b f850 24bc 532b 26bc 72ea f0bc
00000080: 0f26 debc 7d7d e7bc cfe4 90bc f915 1bbc
00000090: da2f b2bb 66a2 13bd 1372 8bbb df56 cebc
000000a0: 9f73 97bc d882 45bc 61c0 05bd b248 8eba
000000b0: f63a dabc 7abb 73bc 7e44 82bc 0bfa c9bc
000000c0: b340 98bc c380 bfbc 303f 15bd 6734 03bd
000000d0: c1eb bebc 7a83 2abc 4ceb 75bd c8c8 1fbd
000000e0: f2a0 fcbb 3ee2 00bd c96f b1bc 0129 d6bc
000000f0: a847 99bc 3e61 b1bc b359 c4bc 14c7 03bc
-0.004594883 -0.034040805 -0.008430254 -0.012644658 -0.013948785 -0.022066869 -0.02164537 -0.017314784
-0.042566698 -0.0153659405 -0.037445202 -0.014341915 -0.016004188 -0.018022083 -0.02002267 -0.015935125
-0.011926631 -0.01828044 -0.014003084 -0.045279566 -0.037083965 -0.030449623 -0.06716876 -0.010347025
-0.0139297405 -0.009682471 -0.011164924 -0.023839666 0.0068579437 -0.01002907 -0.010142165 -0.029408667
-0.027117757 -0.02825808 -0.01768723 -0.009465688 -0.0054378333 -0.036043547 -0.004255542 -0.025187908
-0.01848775 -0.012055121 -0.03265417 -0.0010855405 -0.026639443 -0.014876241 -0.0159018 -0.024655363
-0.018585538 -0.023376828 -0.036437213 -0.032032397 -0.023305776 -0.010407323 -0.06003885 -0.03900984
-0.007709616 -0.03146576 -0.021659749 -0.026142599 -0.018710926 -0.021652814 -0.023968553 -0.008043069

module.encoder.c3.0.weight f4 [32, 64, 3, 3]
00000000: 42e0 39bb 649d 46bb 4f4a ad3c 3da4 9d3c
00000010: 2442 e0bc 2f2c 563b 080c 523c a642 e53c
00000020: 30a8 813c 17df f93b 3fcf 07bc 5d2c 843b
00000030: e46a 9a3c 1e6a 0c3c c487 9cbc 46fa a2bc
00000040: 1af1 05bc 6e7d 14bc 5821 f8bc dc2b 53bd
00000050: 2275 98bb f2fe 7c3c f83e cfbb 5b97 ea3c
00000060: e15b 0e3d 589d 5b3d f2df 20bd 5ff9 d8bc
00000070: 68e4 4abd d221 593c a5bb 593d c082 803b
00000080: 3b8b a83b b67f d03c fd1e 613c 036e 083c
00000090: 72cf e7bb ada8 a6bc 5ccf 32bd d8cc 14bc
000000a0: c567 0a3d b9c0 d43c 3b31 63bc 74d7 b139
000000b0: 09a7 353b f642 98bc e7e7 13bc 828c 14bd
000000c0: 27c1 743c 4849 e5bb 05dc 14bc b97d d9bc
000000d0: 6fb1 f83c cfd2 27bd 23bd 87bb 952f 67bc
000000e0: 043a 05bd d9aa c2bc c30b 38bc 6414 01bc
000000f0: 7b46 c53c e931 2bbb 7295 3a3c 1a29 7c3c
00000100: b728 0c3d 9694 bd3c b416 20bd 2467 f23b
00000110: 684a 81bc b013 edba 2441 4bbc 8082 f13b
00000120: b826 73bc c217 063c 5751 32bb d0b2 50bd
00000130: 6b2c 38bc 8d68 1cbc 6eef 77bb 9514 cb3c
00000140: 8a81 e23c 728b 33bc e9d2 50bc f5d7 50bd
00000150: cef3 293b c638 423c e1ad fc3c 0301 4dbb
00000160: a870 cb3b 64b2 30bc b66e 7ebc 5a31 d13c
00000170: 69d5 8dbc 84a6 823b 8cea d43b 54ac 63bd
00000180: 7608 2ebc 3d60 103c c2b4 1e3c 16ba afbc
00000190: a240 373d 2a43 383d 2b18 e13c 51ba 883d
000001a0: d3ad 643d bcb7 bc3c 8821 a93b 2edf 0a3d
000001b0: ef33 14bc a6c8 8abc 25d5 33bd 490c 14bc
000001c0: a26d aabc 3e07 703c 6051 d23c ad28 963a
000001d0: de27 de3c 258e e63c ea66 a23c 274d 6b3c
000001e0: 57ad 5f3c bdc0 a83c 2a49 c53c c4be 2d3c
000001f0: 1656 bb3b 3345 4abc aa22 8ebc 25fb 6cbc
00000200: 57bc 5a3b 82ed 1ebc baf6 b73c 1d6a abb9
00000210: 11c5 42bd 54be efbb bf90 54bb 717f 89bc
00000220: 6345 46bc 46be 243c 8339 3a3d 67b6 e53c
00000230: 5073 833c a2eb 9bbb b42e 793b 37e9 8dbc
00000240: c3f2 bb3c b47c ce3c 50f1 35ba 5909 ddbb
00000250: e7c6 a5bc 065b c63b 2581 343c e31b 0e3c
00000260: a5fa e23c eddc ae3b c18d d9bb 3aa1 683b
00000270: d356 3abb 2aa9 493d cb9b f3bc 5e44 523b
00000280: cef7 323c dcc7 ccbc b69a 9bbc d017 3a3d
00000290: c73c 6fbb 1cf0 adbb 813b 6b3c 2c40 5c3c
000002a0: 71a5 9abd f345 13ba 256c 79bd c1e2 61bc
000002b0: e98d 93bb b5ba 0cbc 6b96 f43b 4cf5 dc3b
000002c0: d410 ebb9 67aa c5bc 7c75 47bc 3d59 c9bc
000002d0: 9dcc d2bb bf2e 923c 1ca6 763a 6b14 213d
000002e0: 0231 b53b 5146 10bc 9faa 6bbd 5e21 a83c
000002f0: 594f 84bd 8956 36bc d504 58bc 160a 19bc
00000300: 5646 3f3c 90aa ccba 3b23 3dbc 1582 b6ba
00000310: 8f4c 933c 18b0 d3bc 0212 86bc 6a49 44bd
00000320: 7b08 cebb c0ec 333d 4253 83bc c6b1 9c3c
00000330: b579 9e3c 530f 19bb f6e7 18bb 71ab c1bc
00000340: 0d39 4dbd 2aba 91bd 0659 c73c e997 9d3b
00000350: f1c9 d9bc 7cbc d73b 0543 f9bc 801b db3c
00000360: 0b76 4cbc 89a4 07bd c105 023d e297 95bc
00000370: 753a 953c 8579 1abd 6e9f 26bd 53c2 ad3b
00000380: 6245 5c3c 87e7 e13c 3c79 eebb a928 693a
00000390: 676f e83c b5eb 803b 5a3f 80bc 3066 d8bb
000003a0: 4096 863b 57d7 e5bc 1d4d 3cbc db59 adbc
000003b0: b0ea 0e3c 6782 99bb 3435 e83b 92fd bf3c
000003c0: ddf8 1dbc 35b9 d13a 6c41 0f3d 26e2 803d
000003d0: acdd 13bc 94df ab3c dfb1 30bd c531 92ba
000003e0: 533a 84bc 131d 61bc cc01 383a bada b7bc
000003f0: 5125 55bd bdba b4bc 5dff 7fbb a439 5bbd
-0.0028362428 -0.0030306214 0.021153597 0.019243354 -0.027375288 0.0032680144 0.012820251 0.027985882
0.015827268 0.0076254713 -0.008289157 0.004033609 0.018849798 0.008570222 -0.019107707 -0.01989473
-0.008175159 -0.009063108 -0.030289337 -0.0515555 -0.004652635 0.015441643 -0.006324645 0.028636625
0.03475559 0.05361685 -0.03927607 -0.026486097 -0.04953423 0.013252692 0.053157467 0.0039218366
0.0051435507 0.025451522 0.013740298 0.00832701 -0.00707429 -0.020344103 -0.043654785 -0.009082042
0.03379037 0.025970804 -0.013866718 0.00033920596 0.002771797 -0.018586617 -0.009027458 -0.03626681
0.014938629 -0.006997261 -0.00908566 -0.026549207 0.030358044 -0.040972527 -0.00414242 -0.0141104655
-0.03252603 -0.023763107 -0.011233273 -0.007878397 0.02408146 -0.0026122278 0.01138817 0.015390659
0.034218516 0.02314214 -0.03908415 0.007397549 -0.01578255 -0.0018087532 -0.012405667 0.007370293
-0.014840774 0.008184375 -0.0027209127 -0.05095178 -0.011241059 -0.009546411 -0.003783192 0.024790088
0.02764966 -0.010958539 -0.012745597 -0.050987203 0.0025932672 0.011854356 0.03084463 -0.003128112
0.006208498 -0.010784719 -0.015529325 0.025536228 -0.017313676 0.0039871354 0.0064976867 -0.055584267
-0.010622134 0.0088120075 0.009686651 -0.021451037 0.044739373 0.044985928 0.027477344 0.06676162
0.055829834 0.02303683 0.005161468 0.033904247 -0.009045585 -0.01694138 -0.043904442 -0.009036132
-0.02080423 0.014650164 0.025673568 0.0011456214 0.02711862 0.028143952 0.019824464 0.014361656
0.013652167 0.020599717 0.024082739 0.010604564 0.0057170494 -0.0123456 -0.017350513 -0.014464174
0.003337642 -0.009700181 0.022456516 -0.00032694722 -0.04755122 -0.00731639 -0.0032434908 -0.016784402
-0.012101504 0.01005513 0.045465004 0.028041078 0.016046196 -0.004758314 0.0038022222 -0.01732312
0.022942906 0.025205947 -0.00069405604 -0.006745499 -0.020236446 0.0060533313 0.011017119 0.008673641
0.027707407 0.005336395 -0.006639213 0.003549649 -0.00284331 0.049233593 -0.029737374 0.0032084207
0.010923339 -0.024997644 -0.01899467 0.045432866 -0.0036504732 -0.0053081643 0.014357449 0.013443034
-0.07551087 -0.0005618028 -0.06089415 -0.0137869725 -0.004503001 -0.008589436 0.0074642203 0.006743109
-0.0004483523 -0.024129106 -0.012174007 -0.024578685 -0.006433083 0.017844556 0.00094089075 0.039326113
0.005529524 -0.008805827 -0.057535764 0.020523723 -0.06460447 -0.01112903 -0.013184746 -0.009340784
0.011674484 -0.0015614796 -0.011544044 -0.0013924266 0.017980842 -0.025840804 -0.016366009 -0.047921576
-0.006287632 0.043926954 -0.016030911 0.019127738 0.019345144 -0.0023355081 -0.002333162 -0.02364132
-0.050103236 -0.07115586 0.024334442 0.004809369 -0.026585551 0.0065837484 -0.030427465 0.026746511
-0.0124793155 -0.033115897 0.03174377 -0.0182609 0.018216351 -0.037713546 -0.040679388 0.0053027063
0.0134442765 0.027576221 -0.007277636 0.00088943035 0.028373433 0.0039343485 -0.015655208 -0.0066039786
0.0041072667 -0.028056784 -0.011492995 -0.02116101 0.008722946 -0.0046847346 0.0070864204 0.023436341
-0.009641853 0.001600063 0.0349745 0.062931344 -0.009025019 0.020980634 -0.04313838 -0.0011153748
-0.016141092 -0.013739842 0.0007019311 -0.022443164 -0.05203754 -0.0220617 -0.003906212 -0.053521767

module.encoder.c3.0.bias f4 [32]
00000000: 0a11 3fb3 c100 2333 e7e7 2b35 e8c2 5334
00000010: 2dbe 12b5 83b1 6d35 0141 fbb3 c168 8c33
00000020: 1789 d9b4 d97b 9133 fb65 beb4 7587 17b3
00000030: 3884 40b3 51d8 aab4 ec4e 7234 5af7 6fb4
00000040: ba19 2135 d9bd 0cb5 46d1 3c34 8c08 e834
00000050: 6906 3cb4 291a 5534 33fe af34 8dec 6fb4
00000060: e9db 2034 e4a9 34b2 336b 6fb3 068a 7835
00000070: 31f4 c533 bf77 9c33 e738 2b35 cd83 b0b4
-4.448615e-08 3.795208e-08 6.4039926e-07 1.9721813e-07 -5.466598e-07 8.8547694e-07 -1.16999225e-07 6.538313e-08
-4.0519146e-07 6.7746164e-08 -3.5464458e-07 -3.5280625e-08 -4.4823736e-08 -3.1822358e-07 2.2566718e-07 -2.2348596e-07
6.001461e-07 -5.243033e-07 1.7584998e-07 4.3219586e-07 -1.7511196e-07 1.9846688e-07 3.2781244e-07 -2.2344666e-07
1.4981164e-07 -1.0516008e-08 -5.574402e-08 9.258805e-07 9.2179455e-08 7.286098e-08 6.378527e-07 -3.2878452e-07

module.encoder.c3.1.weight f4 [32]
00000000: 9fab 8d3f 307b 863f 88ee 7f3f ac9f 823f
00000010: 451e 7c3f c048 813f 76ad 7d3f 2ac2 833f
00000020: 35ad 803f e9e9 823f fc54 863f 59fe 863f
00000030: a87f 813f c0ec 893f 8260 843f bc4e 823f
00000040: be40 853f 5add 7f3f eb2a 833f 449e 853f
00000050: c985 853f 4def 823f 87f9 843f f9e6 863f
00000060: c264 853f 9d74 833f 0124 823f 7800 843f
00000070: 4e54 863f fd7e 863f 2b1d 823f c08a 853f
1.1068 1.0506344 0.99973345 1.0204978 0.9848369 1.0100327 0.99092805 1.0293629
1.0052859 1.0227634 1.0494685 1.0546371 1.0117083 1.0775375 1.0341952 1.0180278
1.0410383 0.9994713 1.0247473 1.0438924 1.0431453 1.0229279 1.038865 1.0539237
1.0421374 1.0269963 1.0167238 1.0312643 1.0494478 1.0507504 1.0165151 1.0432968

module.encoder.c3.1.bias f4 [32]
00000000: be36 a2bd 67c0 c33c c0f8 bcbc caf9 e13c
00000010: dd9a 0bbd e201 3cbd 68a9 1d3d 49b2 97ba
00000020: 02cb 813c b627 ee3b 9840 f3bc 262e 5bb9
00000030: a630 adbc 4b4f 8f3d 945c 3abc 0f02 463b
00000040: 7c32 333d 49c3 eb3c 612f cdbb 9ebb bcbc
00000050: 97cb b13b ce6a 1fbc 794f 043d 2a75 8f3b
00000060: afb1 1dbc b6af 6fbc c193 2b3a a063 99bc
00000070: a7e4 a73c 3d80 863c b779 a8ba 054c c43c
-0.079205975 0.023895456 -0.023067832 0.027584929 -0.034083236 -0.045900233 0.038491637 -0.0011573519
0.015843872 0.0072679175 -0.029693887 -0.00020902659 -0.021141361 0.06997546 -0.011374611 0.003021363
0.043749318 0.028779643 -0.0062617515 -0.023038682 0.005425881 -0.009730054 0.032302354 0.0043779807
-0.009624883 -0.014629295 0.00065451494 -0.018724263 0.020494772 0.01641857 -0.0012853657 0.02396203

module.encoder.c3.1.running_mean f4 [32]
00000000: 9ff3 2dbf f3c2 6bbf 6ad3 9fbf 9d06 013e
00000010: 0846 1c3f 3840 da3d 2fab 7c3a 4228 94be
00000020: 0fa9 67bf 9038 9f3e 00a2 75be faf0 e5be
00000030: 724d 39bd 346a f53d d85b cc3d b2ee a5be
00000040: b5d9 ee3e 6ba7 a73e 0ef6 5dbe eb9e c9bd
00000050: 37aa 10bf 9d01 b0be ae8e 10bf 247e bcbe
00000060: 0f7d 50bf ff0b 303e 75bf 0f3f 6361 733f
00000070: ac04 8f3d b6e6 1f3e b4d0 4fbf e3b7 96bc
-0.6794986 -0.92094344 -1.2486393 0.12600179 0.6104436 0.1065678 0.00096385455 -0.28936964
-0.9049234 0.3109784 -0.2398758 -0.44910413 -0.045239873 0.11983147 0.09978455 -0.32408673
0.46650472 0.32744917 -0.21675894 -0.09844764 -0.5650973 -0.3437623 -0.5646771 -0.36814988
-0.81440824 0.17192076 0.56151515 0.95070475 0.06983313 0.15615353 -0.8117783 -0.01839823
