logs/exp5/model_iters_11000.pth (torch, 495376 bytes, 47 tensors)

module.encoder.c1.main.0.weight f4 [32, 3, 3, 3]
-0.010406258 0.0067191403 -0.0051645893 -0.027142478 0.0020251232 0.003966178 -0.0032598155 0.025838215
0.020171242 0.00014806834 -0.04189259 0.019972403 -0.005620877 0.0049004313 0.038348135 -0.00075835397
0.005974164 0.0017723823 -0.039998583 -0.05705166 -0.01986755 -0.056533143 0.0046274755 0.054362986
0.015775576 -0.03483162 0.042448606 0.007509562 -0.013760756 0.016843792 0.016465107 0.027953785
0.031934813 -0.003797122 0.014340582 -0.010981369 0.0053748493 -0.014379886 -0.021106312 -0.0063264393
-0.00045292586 0.0032501488 0.04613087 0.023228342 -0.017168144 0.004021419 -0.0011280408 0.01891569
-0.017925313 0.019452227 0.107409626 -0.0389418 -0.045757983 -0.052284203 0.03618931 -0.039893687
-0.011599613 0.04794709 0.0051985467 -0.018492606 0.009092172 -0.010803044 0.009641078 -0.01903451
-0.04291239 0.00040967407 -0.010713218 0.03944305 0.01569956 0.0061103213 -0.0025013878 -0.0033095644
-0.05014872 0.027797548 0.023589406 -0.02907689 -0.04404508 -0.008217197 -0.048864428 0.02843618
0.0036843892 -0.035265956 -0.02142821 -0.01855474 -0.004378273 -0.02705602 0.010739615 0.011912008
0.0025885007 0.044479717 -0.027207814 -0.0131060975 -0.011452819 0.05612985 -0.013693874 -0.008852061
-0.016274856 0.027520508 0.0068817246 -0.027473887 -0.017565234 -0.0017597814 -0.0146395825 -0.024346868
-0.0020070807 -0.03245171 -0.03970965 0.010570344 0.023027677 0.004040552 -0.023895992 -0.007639038
0.0020647966 -0.00472739 -0.019150658 -0.008955516 -0.0009123881 -0.035062872 -0.04215264 -0.0140368575
0.021902198 -0.012685551 -0.0048836707 0.0371861 0.019200059 0.010147672 -0.019002954 0.028867342
0.037616994 0.008708687 0.048303597 -0.0244364 -0.0074218735 -0.050688345 0.0074861087 0.013131568
-0.026550328 -0.020648623 -3.4785167e-05 0.025202349 0.015962657 -0.022836575 0.0331876 0.0053211707
0.042169295 0.022505958 -0.008421576 0.0242111 -0.06355756 0.012752211 0.007799138 -0.026841812
-0.023399036 -0.018643552 0.00068524724 0.034291845 0.0013237499 -0.046958454 0.007867066 -0.025850048
-0.0014804029 0.01200526 -0.004195463 0.0059567243 0.008723945 -0.02619662 0.002420941 0.027701672
-0.027940629 -0.04134458 -0.0005395721 0.04536093 0.0004456078 0.05931251 -0.0047464757 -0.023083242
-0.013194737 -0.02803195 -0.023369752 -0.011215881 -0.01642931 -0.052762844 -0.006262705 0.044556584
-0.010104703 7.34462e-05 0.03174848 0.0052358853 -0.005800425 0.06292088 0.0008607668 -0.03455537
0.015636586 -0.0049741077 0.01172316 -0.0118611045 0.0073764357 -0.02610442 -0.07232998 0.008307986
-0.0009816441 0.023092743 0.0100368885 0.03276661 0.034139626 -0.0194168 -0.0066471654 -0.015884314
-0.008357026 0.029296506 0.035600837 0.014932887 0.016836768 -0.0096705025 -0.06961782 -0.061985146
0.02668965 -0.0028293317 0.000611104 0.013080147 0.0066182576 -0.008947181 0.015624382 0.02306201
-0.024828194 -0.028453974 -0.046155777 -0.0007583414 -0.019626377 0.012918062 0.026313018 0.01404774
0.018530507 0.00748386 0.032425076 0.0049031656 0.016681606 -0.036660478 -0.022753099 -0.012606789
-0.035376687 -0.032331683 -0.016114157 -0.007795627 -0.016246587 -0.021426275 -0.015190654 0.0012919029
-0.027267078 -0.0012490271 0.0013455957 0.011287542 0.014809658 0.00623472 -0.0027669237 -0.0023509183
00000000: 027f 2abc 3c2c dc3b b73b a9bb e759 debc
00000010: eeb7 043b b6f6 813b a1a2 55bb aaaa d33c
00000020: 293e a53c cb42 1b39 9097 2bbd 2a9d a33c
00000030: 552f b8bb cc93 a03b ef12 1d3d 46cc 46ba
00000040: ecc2 c33b 484f e83a 8ed5 23bd 00af 69bd
00000050: 46c1 a2bc 4c8f 67bd 14a2 973b b9ab 5e3d
00000060: c83b 813c 9aab 0ebd 97de 2d3d c612 f63b
00000070: cb74 61bc fefb 893c d5e1 863c 56ff e43c
00000080: 14ce 023d 23d9 78bb c3f4 6a3c 33eb 33bc
00000090: 811f b03b 9d99 6bbc 25e7 acbc 054e cfbb
000000a0: ae76 edb9 7300 553b b9f3 3c3d 5d49 be3c
000000b0: 35a4 8cbc 1cc6 833b c5da 93ba 14f5 9a3c
000000c0: 1bd8 92bc 475a 9f3c 94f9 db3d 7081 1fbd
000000d0: b96c 3bbd f627 56bd 3e3b 143d 9067 23bd
000000e0: 4e0c 3ebc 2b64 443d 9258 aa3b ce7d 97bc
000000f0: 55f7 143c 40ff 30bc 9df5 1d3c 43ee 9bbc
00000100: e7c4 2fbd 86c9 d639 7e86 2fbc 098f 213d
00000110: 5d9c 803c 1739 c83b 53ee 23bb 47e5 58bb
00000120: bf68 4dbd afb7 e33c 923e c13c a832 eebc
00000130: 9d68 34bd 6ca1 06bc 1126 48bd fef2 e83c
00000140: cb75 713b 0973 10bd 378a afbc 1c00 98bc
00000150: 9e77 8fbb 96a4 ddbc 36f5 2f3c 952a 433c
00000160: d6a3 293b 5d30 363d ece2 debc f5ba 56bc
00000170: 9ba4 3bbc 6ae8 653d 455c 60bc 3c08 11bc
00000180: d952 85bc b072 e13c 1780 e13b eb10 e1bc
00000190: f7e4 8fbc 77a8 e6ba dcda 6fbc 1573 c7bc
000001a0: 3a89 03bb 16ec 04bd 96a6 22bd 3c2f 2d3c
000001b0: 8aa4 bc3c 9b66 843b 87c1 c3bc e550 fabb
000001c0: 8a51 073b 39e8 9abb d7e1 9cbc 28ba 12bc
000001d0: 542d 6fba 169e 0fbd 3fa8 2cbd d9fa 65bc
000001e0: 3d6c b33c 0fd7 4fbc 3307 a0bb 7450 183d
000001f0: 7149 9d3c 6c42 263c 15ac 9bbc 347b ec3c
00000200: 4714 1a3d e1ae 0e3c fed9 453d d82e c8bc
00000210: 3033 f3bb 959e 4fbd 084e f53b ca25 573c
00000220: 1380 d9bc 4d27 a9bc 4ae6 11b8 2875 ce3c
00000230: 1ec4 823c c513 bbbc b9ef 073d 375d ae3b
00000240: b6b9 2c3d 6a5e b83c a6fa 09bc 5b56 c63c
00000250: 772a 82bd a6ee 503c e98f ff3b 5ce3 dbbc
00000260: 56af bfbc 5dba 98bc 2aa2 333a 9b75 0c3d
00000270: ad81 ad3a 8257 40bd dee4 003c 7bc3 d3bc
00000280: 140a c2ba b6b1 443c 187a 89bb a030 c33b
00000290: e1ee 0e3c 4b9a d6bc a6a8 1e3b 9eee e23c
000002a0: bfe3 e4bc ef58 29bd 1272 0dba 62cc 393d
000002b0: 77a0 e939 adf1 723d 5388 9bbb 1119 bdbc
000002c0: bd2e 58bc 43a3 e5bc ec71 bfbc d1c2 37bc
000002d0: c396 86bc da1d 58bd 6137 cdbb f780 363d
000002e0: 328e 25bc 2107 9a38 b20a 023d ca91 ab3b
000002f0: 7e11 bebb aadc 803d 15a5 613a ef89 0dbd
00000300: 4c18 803c d7fd a2bb 7f12 403c 1455 42bc
00000310: 07b6 f13b f0d8 d5bc be21 94bd 381e 083c
00000320: 83aa 80ba fe2c bd3c c371 243c 4836 063d
00000330: fed5 0b3d fb0f 9fbc 77d0 d9bb d21f 82bc
00000340: e8eb 08bc 3aff ef3c 2fd2 113d 11a9 743c
00000350: 43ed 893c 0771 1ebc ca93 8ebd 23e4 7dbd
00000360: 41a4 da3c 4f6c 39bb 7f32 203a 1d4e 563c
00000370: f8dd d83b 3297 12bc 68fd 7f3c 8aec bc3c
00000380: 7f64 cbbc 4f18 e9bc d70d 3dbd 6ecb 46ba
00000390: 7fc7 a0bc 47a6 533c 668e d73c 7e28 663c
000003a0: 4acd 973c 2b3b f53b 28d0 043d bcaa a03b
000003b0: dda7 883c 4c29 16bd b564 babc b58c 4ebc
000003c0: 25e7 10bd 3a6e 04bd d601 84bc 7672 ffbb
000003d0: 9017 85bc 2886 afbc 39e2 78bc 1155 a93a
000003e0: 355f dfbc 65b6 a3ba b35e b03a 62ef 383c
000003f0: 35a4 723c 9f4c cc3b 4755 35bb dd11 1abb

module.encoder.c1.main.0.bias f4 [32]
0.00024200925 1.1290739e-05 -0.00017601742 -2.5441661e-05 -0.00012757519 0.0004367749 4.731709e-05 -9.799699e-05
-0.00029221596 -8.46291e-05 0.00031133546 9.428016e-05 -0.00027857133 -0.0002082248 2.6346212e-05 0.00020908478
8.555152e-05 -0.0002765352 -1.0374761e-05 -0.00018762628 -0.00015396392 0.0002900809 -2.0945667e-05 0.00064666034
-0.00018309432 -4.7715133e-05 0.0003795586 0.00020321159 0.00012857743 5.09545e-05 0.00013111254 3.6442056e-05
00000000: ddc3 7d39 5b6d 3d37 5191 38b9 8d6b d5b7
00000010: b4c5 05b9 effe e439 5776 4638 bc83 cdb8
00000020: 9034 99b9 e77a b1b8 bd3a a339 47b8 c538
00000030: 360d 92b9 eb56 5ab9 0f02 dd37 c53d 5b39
00000040: 1f6a b338 edfb 90b9 420f 2eb7 8cbd 44b9
00000050: 6071 21b9 0016 9839 7ab4 afb7 a484 293a
00000060: 02fd 3fb9 bc21 48b8 7eff c639 3215 5539
00000070: bed2 0639 fab7 5538 417b 0939 5cd9 1838

module.encoder.c1.main.1.weight f4 [32]
1.0052577 1.0145775 0.9747655 0.98227555 1.0133419 0.99798477 1.0117882 0.9971116
0.988764 1.0097176 1.0106623 0.99914205 1.0316105 1.0140203 0.9978339 0.98520225
0.9435124 1.0105007 0.9908634 1.0034411 0.9898867 1.028894 0.9871026 1.0484911
0.9787898 1.0012243 0.9910176 1.0128726 0.9775333 0.94940495 1.0150471 0.95289433
00000000: 49ac 803f addd 813f 3b8a 793f 6976 7b3f
00000010: 30b5 813f ee7b 7f3f 4782 813f b542 7f3f
00000020: a31f 7d3f 6d3e 813f 625d 813f c6c7 7f3f
00000030: d00b 843f 6bcb 813f 0b72 7f3f 3736 7c3f
00000040: 078a 713f 1658 813f 39a9 7d3f c270 803f
00000050: 3769 7d3f ccb2 833f c2b2 7c3f f534 863f
00000060: f891 7a3f 1e28 803f 54b3 7d3f cfa5 813f
00000070: 9f3f 7a3f 340c 733f 10ed 813f e2f0 733f

module.encoder.c1.main.1.bias f4 [32]
-0.024173925 -0.025019249 -0.0349938 -0.063377224 -0.00014822684 0.010785887 0.022037193 -0.06659949
-0.02422453 0.023956625 -0.061210357 0.0010702584 -0.0247626 0.04635893 0.0143356 -0.054297183
-0.045668583 0.005747567 -0.037575558 -0.050195415 -0.031762224 0.010357072 -0.007837256 0.0037786416
-0.015562487 0.004651391 -0.032135975 0.020777026 -0.037750237 -0.016968822 0.021047981 -0.02646503
00000000: 6508 c6bc 2bf5 ccbc a955 0fbd ebcb 81bd
00000010: 576d 1bb9 4ab7 303c 5887 b43c 5065 88bd
00000020: 8672 c6bc af40 c43c b6b7 7abd ea47 8c3a
00000030: f0da cabc dde2 3d3d dddf 6a3c b966 5ebd
00000040: fb0e 3bbd 1656 bc3b d4e8 19bd b599 4dbd
00000050: 1b19 02bd b5b0 293c d667 00bc 16a3 773b
00000060: cdf9 7ebc b26a 983b 03a1 03bd 9534 aa3c
00000070: fe9f 1abd 3302 8bbc d16c ac3c 31cd d8bc

module.encoder.c1.main.3.weight f4 [32, 32, 3, 3]
-0.03846586 0.02197257 0.024233593 -0.034539193 -0.0010103806 -0.035359677 0.004959725 0.0066242246
-0.0043908614 -0.021555208 0.0027917607 0.0398885 -0.014666085 0.028162483 0.005677566 -0.0142503865
0.020360311 -0.00012533352 -0.023345042 -0.025997091 -0.0036783966 0.0061865156 0.006866905 0.017705804
-0.00501589 -0.004087452 -0.009852215 0.032284677 0.010013329 0.021403283 0.05871381 -0.0075093755
-8.0006495e-05 -0.008640201 -0.0044439384 0.029302571 0.019707367 -0.016682364 -0.01874559 0.013033763
-0.014849059 9.512445e-05 0.008252687 -0.0024965468 0.020270882 -0.02469678 -0.033929683 0.022833481
0.033113275 0.018682305 -0.010181668 -0.01521225 0.024197884 -0.027453143 0.0016480266 0.011552239
0.01860469 -0.0052732523 0.0018798672 0.0060148183 -0.022474023 0.020839656 0.013282895 -0.0039228164
0.027144259 0.030410813 0.016374247 -0.03196085 -0.05153832 0.00015733042 0.0023380814 -0.001377308
-0.017070824 -0.010907857 0.0023355267 -0.013223894 -0.0035782168 0.03978238 0.001711449 0.0076572048
0.006511114 0.015048265 -0.01112555 -0.007824868 -0.037088476 -0.010754807 -0.04411323 0.06042112
-0.01634011 -0.010911512 -0.017157033 -0.032940783 -0.03995392 0.009459803 -0.017845342 -0.008592526
-0.00020702303 0.0044122078 -0.0008070476 0.0051786355 -0.030495984 0.04486699 0.009964016 0.028859276
0.037459474 0.014906206 0.020291712 0.0141206365 -0.023793213 0.049620986 0.027277399 -0.021068115
-0.014924493 -0.013141353 0.044398513 0.012840442 -0.010410014 0.041264795 0.02212137 0.0028644577
0.06197954 0.010060218 0.03498312 0.07073512 0.017073011 0.0040110135 -0.015537855 -0.013455719
0.015675602 0.0052943365 -0.015984021 -0.011481579 0.004466687 -0.021867825 -0.06103258 0.02961371
-0.023927491 -0.03539377 0.004039493 -0.013532025 -0.018261027 -0.0036196709 -0.022327427 0.006318088
-0.0031363452 0.022767765 -0.023795102 0.013282324 -0.00047051313 -0.011097369 0.0021471567 -0.0013307674
0.01953921 -0.006768451 -0.002458437 0.0063046203 -0.00890967 0.020000406 -0.0028079834 0.00600339
0.061009068 -0.007258684 0.027338807 -0.0075563462 0.0077488073 -0.010034899 -0.028788347 0.0047494727
-0.009829459 -0.0063153203 0.019333085 0.026254246 -0.032511998 0.013366985 -0.017656863 0.0047775446
0.01553327 -0.026766647 0.0032402058 0.01870031 -0.021536661 -0.023549091 0.017204221 0.0074322447
0.046622697 -0.035047263 0.0039222683 -0.011208434 0.016883954 0.017634282 0.031007415 -0.024066897
-0.031224642 0.0067963405 0.023126526 -0.01746885 -0.010035972 -0.020801375 0.023952233 0.019310283
0.025528414 0.017896865 0.065771095 -0.0008552399 0.04654991 -0.015302912 0.02904611 -0.0071486663
-0.011382538 0.03289385 0.008708201 -0.0080045005 0.0016027878 -0.011957037 -0.0031976379 -0.046733208
0.016787957 0.017766781 0.003476892 -0.00023594049 -0.029869955 0.040391665 -0.025472198 -0.02874347
0.02030178 -0.034195457 -0.02556236 0.011007937 0.012106351 0.010284395 -0.01518272 0.03765943
-0.07110135 -0.04811579 -0.0039261836 -0.010262453 0.038735982 0.039377365 0.014531025 -0.020371158
0.01180006 0.034856707 -0.0029244896 -0.0146234315 0.034609366 0.009433185 0.017840875 -0.03284565
0.04255678 0.017800098 0.00018144709 -0.0069696405 0.005800826 0.00749307 -0.009507498 0.020017268
00000000: 618e 1dbd d2ff b33c 8785 c63c f878 0dbd
00000010: bf6e 84ba 4fd5 10bd 3085 a23b 0610 d93b
00000020: 37e1 8fbb 8c94 b0bc f9f5 363b 2062 233d
00000030: 054a 70bc 02b5 e63c e00a ba3b 747a 69bc
00000040: abca a63c f66b 03b9 1a3e bfbc daf7 d4bc
00000050: 4111 71bb 41b8 ca3b c603 e13b c30b 913c
00000060: 565c a4bb 08f0 85bb 2f6b 21bc f03c 043d
00000070: f20e 243c f055 af3c e47d 703d 3511 f6bb
00000080: 29c9 a7b8 a18f 0dbc 759e 91bb f20b f03c
00000090: 5871 a13c 74a9 88bc 5a90 99bc 908b 553c
000000a0: 7849 73bc 8d7d c738 4736 073c 1b9d 23bb
000000b0: 1f0f a63c e750 cabc daf9 0abd 480d bb3c
000000c0: c9a1 073d a20b 993c 03d1 26bc cd3c 79bc
000000d0: a43a c63c 6ae5 e0bc 9902 d83a 9a45 3d3c
000000e0: dd68 983c 3fcb acbb e065 f63a f417 c53b
000000f0: 711b b8bc edb7 aa3c 80a0 593c f88a 80bb
00000100: a35d de3c 1920 f93c 4923 863c 61e9 02bd
00000110: d819 53bd 10f9 2439 7f3a 193b ca86 b4ba
00000120: 1dd8 8bbc deb6 32bc a30f 193b 08a9 58bc
00000130: 8480 6abb d9f2 223d b352 e03a 4ae9 fa3b
00000140: 2f5b d53b 008d 763c f047 36bc e033 00bc
00000150: 16ea 17bd ee34 30bc 13b0 34bd 237c 773d
00000160: b2db 85bc 33c6 32bc e88c 8cbc eaec 06bd
00000170: b9a6 23bd 4afd 1a3c 6530 92bc abc7 0cbc
00000180: 5214 59b9 4894 903b 0c90 53ba 8bb1 a93b
00000190: b7d2 f9bc 73c6 373d 1d40 233c 4a6a ec3c
000001a0: 1b6f 193d 2939 743c ce3a a63c 3e5a 673c
000001b0: fce9 c2bc 603f 4b3d da74 df3c 0a97 acbc
000001c0: dc85 74bc d44e 57bc 37db 353d b860 523c
000001d0: c38e 2abc 4605 293d e037 b53c a0b9 3b3b
000001e0: 42de 7d3d 9dd3 243c 764a 0f3d 93dd 903d
000001f0: b3dc 8b3c d26e 833b 7d92 7ebc 6075 5cbc
00000200: 1f6a 803c 1d7c ad3b ecf0 82bc 3c1d 3cbc
00000210: 495d 923b 2724 b3bc 4cfd 79bd 7398 f23c
00000220: 9603 c4bc 0ff9 10bd b95d 843b 6db5 5dbc
00000230: 2698 95bc 0038 6dbb 02e8 b6bc f707 cf3b
00000240: 248b 4dbb 7783 ba3c f2ed c2bc 1b9e 593c
00000250: 34af f6b9 bdd1 35bc 50b7 0c3b 256d aeba
00000260: b110 a03c e2c9 ddbb bb1d 21bb fd96 ce3b
00000270: ddf9 11bc e4d7 a33c 2506 38bb 16b8 c43b
00000280: a5e4 793d 41da edbb a2f5 df3c 3a9b f7bb
00000290: b5e9 fd3b 6b69 24bc 8ad5 ebbc 77a1 9b3b
000002a0: bd0b 21bc bff0 cebb 6b60 9e3c 2513 d73c
000002b0: 4d2b 05bd 3301 5b3c 20a5 90bc f38c 9c3b
000002c0: 427f 7e3c ba45 dbbc a259 543b 6431 993c
000002d0: a76d b0bc 06ea c0bc deef 8c3c 308a f33b
000002e0: 71f7 3e3d b88d 0fbd 5f86 803b 94a3 37bc
000002f0: 3850 8a3c c575 903c 4303 fe3c f127 c5bc
00000300: d2ca ffbc d6b3 de3b d773 bd3c d51a 8fbc
00000310: eb6d 24bc a567 aabc 7937 c43c 9930 9e3c
00000320: f720 d13c 729c 923c ffb2 863d 2e32 60ba
00000330: 1eab 3e3d 11b9 7abc 1cf2 ed3c 5c3f eabb
00000340: d37d 3abc b4bb 063d d8ac 0e3c 4f25 03bc
00000350: a214 d23a 73e7 43bc 768f 51bb 526b 3fbd
00000360: e686 893c a48b 913c 91dc 633b cb66 77b9
00000370: d6b1 f4bc bb71 253d 12ab d0bc 6d77 ebbc
00000380: eb4f a63c 8910 0cbd 2868 d1bc a25a 343c
00000390: b759 463c e17f 283c f1c0 78bc c640 1a3d
000003a0: 969d 91bd 1015 45bd 37a7 80bb d923 28bc
000003b0: 9fa9 1e3d 294a 213d 8913 6e3c 6ae1 a6bc
000003c0: 0a55 413c e8c5 0e3d cba8 3fbb 1e97 6fbc
000003d0: 8dc2 0d3d a58d 1a3c 0727 923c 2989 06bd
000003e0: 0550 2e3d 83d1 913c d542 3e39 9561 e4bb
000003f0: db14 be3b 6d88 f53b 56c5 1bbc 41fb a33c

module.encoder.c1.main.3.bias f4 [32]
4.491788e-07 -1.4058743e-05 1.7699425e-06 2.4794057e-05 -1.2317024e-05 -6.194587e-05 -3.108258e-05 1.6870499e-06
-3.9931124e-06 1.0323943e-05 -6.5748263e-06 -5.563207e-06 -6.3113384e-07 4.285606e-07 -3.7421673e-06 8.91969e-06
4.640022e-06 6.197488e-06 9.39485e-07 -2.157664e-05 -3.267403e-05 -4.589871e-06 2.55453e-07 6.2954596e-06
-1.842407e-06 -4.1817307e-06 -2.4752291e-05 1.755034e-05 1.6379514e-05 1.152517e-05 -9.747431e-06 -1.8392779e-05
00000000: aa26 f134 d7dd 6bb7 c38e ed35 d5fc cf37
00000010: 37a5 4eb7 f0e8 81b8 ab5e 02b8 986e e235
00000020: 93fc 85b6 ff34 2d37 549d dcb6 96ab bab6
00000030: 306b 29b5 ec14 e634 f221 7bb6 c7a5 1537
00000040: 7cb1 9b36 04f4 cf36 eb30 7c35 7bff b4b7
00000050: 790b 09b8 b102 9ab6 3125 8934 963d d336
00000060: 9f48 f7b5 cb50 8cb6 24a3 cfb7 1139 9337
00000070: bd66 8937 3a5c 4137 e688 23b7 314a 9ab7

module.encoder.c1.main.4.weight f4 [32]
0.9838831 0.9576674 0.97928655 1.0017741 1.0035121 1.0219804 1.017009 0.9918447
1.0028168 0.9362887 0.9855396 0.9889628 0.92966443 0.9808104 0.98000985 0.9695862
0.9699598 0.9858708 0.99312955 1.0039558 1.0043654 0.9636811 0.95474696 0.9946869
0.964872 0.97490865 0.99693584 1.0102624 0.998785 0.9588257 0.9571533 0.99662066
00000000: c3df 7b3f b129 753f 86b2 7a3f 223a 803f
00000010: 1673 803f 41d0 823f 5a2d 823f 89e9 7d3f
00000020: 4d5c 803f 9eb0 6f3f 534c 7c3f ab2c 7d3f
00000030: 7dfe 6d3f 6416 7b3f ede1 7a3f cd36 783f
00000040: 494f 783f 0762 7c3f bd3d 7e3f a081 803f
00000050: 0c8f 803f ceb3 763f 4c6a 743f cda3 7e3f
00000060: da01 773f 9d93 793f 3037 7f3f 4750 813f
00000070: 60b0 7f3f 9a75 753f 0008 753f 8822 7f3f

module.encoder.c1.main.4.bias f4 [32]
0.0028210112 0.0032606036 0.016841065 0.028528772 0.028128868 0.005643963 -0.05486688 0.04080434
0.007883401 -0.0452518 0.023759926 0.025168134 -0.08979689 0.022450607 0.022241063 -0.02660077
-0.027265389 0.010712038 0.039699633 -0.015547714 0.016191518 -0.047857933 -0.01346812 -0.0056295414
0.02026943 0.0068156184 0.014989847 0.035429463 0.026906827 -0.03998137 -0.00885835 0.019720934
00000000: b7e0 383b daaf 553b 46f6 893c 2cb5 e93c
00000010: 836e e63c fef0 b83b 18bc 60bd 7422 273d
00000020: 6129 013c f459 39bd 2da4 c23c 672d ce3c
00000030: 6fe7 b7bd 56ea b73c e432 b63c dce9 d9bc
00000040: aa5b dfbc 8b81 2f3c 159c 223d d7bb 7ebc
00000050: 13a4 843c ae06 44bd 64a9 5cbc 0478 b8bb
00000060: 130c a63c 8d55 df3b fa97 753c 7c1e 113d
00000070: b56b dc3c 81c3 23bd 9d22 11bc cc8d a13c

module.encoder.c2.main.0.weight f4 [64, 32, 3, 3]
-0.014812299 -0.010133773 0.027860412 0.01253763 -0.0137295285 -0.0011291332 0.037600297 -0.006792019
0.034467626 0.0070931166 -0.004580966 -0.036764015 0.019120188 -0.0019476146 -0.0013095556 0.055366684
0.044663917 0.006263469 0.032035187 -0.024997197 -0.008119007 -0.007176555 -0.007896762 0.029871764
-0.025765147 -0.0010512815 0.029827503 0.00996526 0.009037689 0.0086309025 0.0059645143 -0.01675147
0.011802463 -0.013946362 -0.025809743 -0.021076296 -0.012387187 0.020908639 -0.0076786536 -0.0060065733
0.051805746 0.010694881 -0.016586766 0.022688355 0.040339723 -0.0053933193 0.033443954 -0.018037248
0.016373849 0.0075991964 -0.024031151 0.031168766 -0.0036468348 0.01335719 -0.026857892 -0.032505594
-0.048014335 -0.045744758 0.015280949 -0.03840459 -0.026664313 -0.068589926 -0.044303615 -0.00059868756
0.025512943 -0.008788978 -0.007019949 0.016324298 0.010698435 0.013324946 -0.004526617 -0.0029455519
-0.010845084 -0.0044493256 0.006544648 0.005068752 0.03490984 -0.0026255632 0.000222713 0.0005991064
0.0049547777 0.029028064 0.0186948 -0.023141678 -0.010894884 0.0059125535 0.02481653 -0.021333285
-0.0055892738 0.01983906 -0.007966853 0.01010066 -0.018687047 0.0067788907 0.008912158 0.015632324
0.018228399 0.009905076 -0.036689032 -0.002142617 0.032578945 0.027044894 0.025797307 0.05231978
-0.011211094 -0.005336015 0.014283993 -0.023290921 0.0060379696 0.012783649 0.045378324 -0.0219127
-0.0565282 -0.004621679 0.04157113 -0.010035583 0.0008681448 -0.007468181 0.03921624 0.028104097
0.012148955 -0.0005405172 0.06525685 0.013058947 0.028383818 -0.019720105 -0.012673017 0.014766425
0.005470976 -0.03256751 0.037272647 0.033165712 -0.033163127 -0.006292814 -0.019589284 0.0059937546
-0.01245937 -0.016937464 -0.014567489 -0.00065100216 0.029055865 -0.0021563373 -0.02696052 -0.032362405
-8.8626985e-05 -0.01689043 0.023898577 0.005732165 0.016391175 0.018004246 -0.021546753 0.0104237115
-0.0042937067 -0.010880541 0.038166184 0.016394407 0.05224596 0.012558206 0.025129402 0.022258412
0.011693789 0.0063459203 -0.050667953 0.011399824 -0.0039971 0.018224496 -0.0016095502 0.021711085
-0.012176878 -0.0018216957 0.02555121 -0.026804049 -0.03700594 -0.039722852 -0.036638387 -0.023912879
-0.011696753 -0.04400298 0.0053329244 -0.0041280086 -0.016335769 0.024486633 -0.026374096 -0.00996387
-0.030132685 -0.056883834 -0.020389711 -0.028243385 -0.021596773 -0.04625122 -0.010140399 -0.037347555
-0.014622813 -0.0035918842 -0.049621355 -0.0062554893 -0.016226085 -0.013775335 -0.041557692 -0.048469983
-0.008342619 -0.048770126 0.0055202045 -0.019639496 -0.0076086475 0.03025245 -0.0036837875 -0.0022705812
-0.02741706 -0.0140115535 0.014065979 -0.035573468 -0.04157996 -0.020356435 -0.016607627 -0.009995059
-0.020468568 0.025354065 -0.0326681 -0.0017307828 0.016382864 -0.026223252 -0.01577149 0.0016366701
0.021899447 0.010791523 0.019866183 0.009202022 -0.004058075 -0.02903586 0.03019054 0.025385993
0.03664704 0.06187412 0.023017716 -0.002326875 0.00024691687 -0.01771328 -0.011731539 0.008920933
0.01173882 0.008273728 -0.018024806 -0.029416535 -0.04588399 -0.038925692 -0.017695604 -0.06245381
-0.030409813 -0.04460801 -0.04298053 -0.036240447 0.0029150585 -0.050656855 -0.006780684 -0.030727437
00000000: 49af 72bc 2008 26bc 853b e43c a26a 4d3c
00000010: d1f1 60bc 6cff 93ba c502 1a3d 968f debb
00000020: ed2d 0d3d 606d e83b ee1b 96bb dd95 16bd
00000030: f1a1 9c3c 1a47 ffba 65a5 abba 2dc8 623d
00000040: 83f1 363d c93d cd3b 5437 033d ecc6 ccbc
00000050: 9505 05bc 4f29 ebbb 6c61 01bc a1b5 f43c
00000060: 6e11 d3bc 27cb 89ba cf58 f43c 5445 233c
00000070: d112 143c a168 0d3c f971 c33b 613a 89bc
00000080: 1e5f 413c 487f 64bc f46e d3bc 32a8 acbc
00000090: a1f3 4abc 9848 ab3c 379d fbbb cad2 c4bb
000000a0: 4332 543d 9539 2f3c f8e0 87bc eedc b93c
000000b0: 443b 253d 71ba b0bb 87fc 083d dac2 93bc
000000c0: 7322 863c ae02 f93b fadc c4bc a455 ff3c
000000d0: bcff 6ebb 1ed8 5a3c 1505 dcbc 9624 05bd
000000e0: aeaa 44bd db5e 3bbd f25c 7a3c 224e 1dbd
000000f0: 1e6f dabc e078 8cbd b577 35bd 3ef1 1cba
00000100: 8500 d13c a5ff 0fbc 9a07 e6bb 89ba 853c
00000110: 7d48 2f3c e050 5a3c 0454 94bb 290a 41bb
00000120: 94af 31bc a6cb 91bb 7d74 d63b c617 a63b
00000130: 9ffd 0e3d a411 2cbb 1188 6939 5a0d 1d3a
00000140: b05b a23b 43cc ed3c d625 993c 9e93 bdbc
00000150: 7580 32bc 18be c13b 094c cb3c 24c3 aebc
00000160: 3a26 b7bb 8685 a23c 6787 02bc 3d7d 253c
00000170: 9415 99bc 7521 de3b 4d04 123c 5c0f 803c
00000180: b953 953c e648 223c 3d47 16bd 266b 0cbb
00000190: 8071 053d 418d dd3c e054 d33c 444d 563d
000001a0: bdae 37bc bdd9 aebb 6907 6a3c 9acc bebc
000001b0: 29da c53b 8372 513c 9fde 393d 4382 b3bc
000001c0: 1d8a 67bd 7471 97bb 7d46 2a3d 496c 24bc
000001d0: 3694 633a a5b7 f4bb 35a1 203d 903a e63c
000001e0: 690c 473c 7fb1 0dba 62a5 853d 32f5 553c
000001f0: 2e85 e83c 0f8c a1bc 7ca2 4fbc e0ee 713c
00000200: df45 b33b 8265 05bd 34ab 183d c5d8 073d
00000210: 0fd6 07bd f333 cebb b579 a0bc 4267 c43b
00000220: 6322 4cbc 70c0 8abc 7aac 6ebc 04a8 2aba
00000230: 9106 ee3c 5651 0dbb 4fdc dcbc 718e 04bd
00000240: 40dd b9b8 cd5d 8abc f3c6 c33c e3d4 bb3b
00000250: c946 863c a47d 933c d182 b0bc 37c8 2a3c
00000260: 39b2 8cbb 4c44 32bc 2554 1c3d 904d 863c
00000270: dcff 553d efc0 4d3c 2ddc cd3c 4657 b63c
00000280: 4e97 3f3c 70f1 cf3b 3389 4fbd 54c6 3a3c
00000290: 1bfa 82bb 8a4b 953c 8bf7 d2ba 72db b13c
000002a0: 8781 47bc f7c5 eeba c550 d13c 2a94 dbbc
000002b0: 8a93 17bd 6eb4 22bd 2212 16bd f1e4 c3bc
000002c0: bda3 3fbc 783c 34bd d0bf ae3b 3f44 87bb
000002d0: 97d2 85bc 3198 c83c 7d0e d8bc 803f 23bc
000002e0: d2d8 f6bc 06ff 68bd 5308 a7bc ac5e e7bc
000002f0: b7eb b0bc eb71 3dbd eb23 26bc c0f9 18bd
00000300: 8694 6fbc d165 6bbb c33f 4bbd d9fa ccbb
00000310: 91ec 84bc f1b1 61bc 6638 2abd 7688 46bd
00000320: 7baf 08bc 2fc3 47bd d5e2 b43b 02e3 a0bc
00000330: f651 f9bb fcd3 f73c b36b 71bb 08ce 14bb
00000340: be99 e0bc b790 65bc fe74 663c 7cb5 11bd
00000350: c04f 2abd 8ac2 a6bc b80c 88bc 51c2 23bc
00000360: b3ad a7bc 54b3 cf3c fcce 05bd 6fdb e2ba
00000370: 5b35 863c 25d2 d6bc 3633 81bc 8985 d63a
00000380: 7866 b33c eece 303c 68be a23c 14c4 163c
00000390: 9af9 84bb 9ddc edbc 2752 f73c 49f6 cf3c
000003a0: 351b 163d b86f 7d3d a68f bc3c 7c7e 18bb
000003b0: 9f74 8139 711b 91bc a435 40bc 1b29 123c
000003c0: 2e54 403c 888e 073c c2a8 93bc f2fa f0bc
000003d0: daf0 3bbd 8c70 1fbd 5ff6 90bc 91cf 7fbd
000003e0: 001e f9bc e4b6 36bd 5a0c 30bd dd70 14bd
000003f0: 910a 3f3b 907d 4fbd 8030 debb 1bb8 fbbc

module.encoder.c2.main.0.bias f4 [64]
3.5190149e-06 -6.5990557e-06 2.5534055e-06 -3.4973307e-06 3.0271149e-06 1.0779598e-06 -4.8874284e-07 1.592349e-06
7.868822e-07 6.4517703e-06 2.0633877e-06 -5.1059754e-08 -5.8354076e-06 -2.654993e-07 -3.5540336e-06 3.7531692e-07
4.1592934e-06 1.4100502e-06 -8.606612e-07 8.320879e-07 -2.4179633e-06 4.2137463e-06 -6.308586e-06 -3.1568673e-06
4.0518958e-06 4.3053063e-08 -1.430613e-06 -9.891571e-08 1.1204302e-06 4.524001e-06 8.1061796e-07 -1.9898653e-06
2.0209644e-07 3.705269e-06 -1.3702337e-06 5.2431797e-06 -1.4152e-06 -4.3724526e-07 -2.2791852e-07 9.663205e-07
5.3482886e-06 -1.8796798e-06 1.7506262e-06 -3.4023365e-06 3.0221787e-07 -7.3749e-07 -8.137889e-07 1.4875483e-06
2.7978294e-07 3.9850433e-06 -1.7644062e-06 -6.7569e-08 1.2010419e-06 -5.229119e-06 1.5414524e-06 -4.055087e-07
5.850514e-07 2.537543e-06 2.3524608e-06 4.019448e-07 3.7971113e-06 -4.6065393e-06 -9.0135273e-07 7.308169e-07
00000000: 3728 6c36 756d ddb6 2c5b 2b36 afb3 6ab6
00000010: 7025 4b36 6bae 9035 2732 03b5 b2b8 d535
00000020: 223a 5335 497c d836 bb78 0a36 cb4c 5bb3
00000030: c5cd c3b6 f289 8eb4 d581 6eb6 2a7f c934
00000040: 0f90 8b36 f540 bd35 3008 67b5 a55c 5f35
00000050: 4b44 22b6 ce63 8d36 57ae d3b6 91da 53b6
00000060: 85f5 8736 58e9 3833 7d03 c0b5 7d6b d4b3
00000070: b061 9635 dfcc 9736 3e99 5935 a089 05b6
00000080: d9ff 5834 09a8 7836 dfe8 b7b5 92ee af36
00000090: e7f1 bdb5 88be eab4 c4b9 74b4 85b2 8135
000000a0: 7375 b336 4e49 fcb5 0ff7 ea35 b253 64b6
000000b0: 8240 a234 edf7 45b5 2673 5ab5 c5a7 c735
000000c0: 1335 9634 43b7 8536 89d0 ecb5 731a 91b3
000000d0: 7c33 a135 ca75 afb6 e7e3 ce35 b1b4 d9b4
000000e0: 6d0c 1d35 a84a 2a36 f8de 1d36 dfca d734
000000f0: e0d1 7e36 df91 9ab6 7df4 71b5 5b2d 4435

module.encoder.c2.main.1.weight f4 [64]
1.0201951 1.0515426 0.95057565 1.0187713 1.0028162 0.9676315 0.9595266 0.9720502
1.0338537 0.9971116 1.009641 1.0152324 0.9966451 0.9818521 0.94524485 1.0184453
0.9792116 0.97038996 1.0210289 1.0285994 0.9860299 1.0075897 1.014603 1.003276
1.0269033 0.9946899 0.9880595 1.0040642 0.9750444 0.9968681 1.0179348 0.98874694
0.967066 1.049333 1.0228978 0.9827764 1.0070747 0.94522214 0.9519188 0.9679747
1.0590634 1.0083438 0.96545386 1.0339557 0.96350205 0.95461106 0.974527 0.9635243
1.016319 1.0613298 0.9785894 0.95763165 0.96717197 0.9736543 0.9844901 1.0486652
0.96677977 0.9790739 1.0010722 0.983726 0.98331577 1.0005814 0.9969323 0.97539544
00000000: c195 823f f398 863f ed58 733f 1967 823f
00000010: 485c 803f b3b6 773f 89a3 753f 48d8 783f
00000020: 5155 843f b542 7f3f eb3b 813f 23f3 813f
00000030: 2224 7f3f a95a 7b3f 91fb 713f 6a5c 823f
00000040: 9dad 7a3f 7a6b 783f 13b1 823f 25a9 833f
00000050: 756c 7c3f b3f8 803f 83de 813f 596b 803f
00000060: 9171 833f ffa3 7e3f 78f1 7c3f 2d85 803f
00000070: 839c 793f bf32 7f3f b04b 823f 851e 7d3f
00000080: a391 773f 8b50 863f 51ee 823f 3c97 7b3f
00000090: d3e7 803f 14fa 713f f3b0 733f 31cd 773f
000000a0: 648f 873f 6911 813f fc27 773f a958 843f
000000b0: 12a8 763f 6461 743f 9a7a 793f 87a9 763f
000000c0: be16 823f a8d9 873f d684 7a3f 5927 753f
000000d0: 9598 773f 6941 793f 8b07 7c3f a93a 863f
000000e0: e17e 773f 96a4 7a3f 2223 803f 78d5 7b3f
000000f0: 95ba 7b3f 0d13 803f f536 7f3f 84b3 793f

module.encoder.c2.main.1.bias f4 [64]
-0.012145927 -0.018413862 -0.100309476 -0.043976463 -0.034560077 -0.058513414 -0.055360403 -0.082777016
-0.069095984 -0.050355617 -0.06236916 -0.053877108 -0.04150039 -0.06345446 -0.09941571 -0.023337184
-0.039469358 -0.06898323 -0.014793944 -0.05749008 -0.07386635 -0.016469138 -0.041076228 -0.04754014
-0.070461445 -0.05240924 -0.06271358 -0.034086887 -0.026006158 -0.051472183 -0.029276768 -0.09376629
-0.08803691 -0.02943256 -0.042982906 -0.09854786 -0.038282234 -0.08337749 -0.07756007 -0.08399156
-0.031043913 -0.07489457 -0.043670755 -0.028664539 -0.12327915 -0.07431747 -0.06437501 -0.06705182
-0.047730833 -0.016496902 -0.02549797 -0.113702536 -0.045985803 -0.087419145 -0.05643179 -0.029859936
-0.040388603 -0.09248283 -0.04174827 -0.043171536 -0.014575336 -0.0362828 -0.07036642 -0.041845053
00000000: b6ff 46bc abd8 96bc 0e6f cdbd aa20 34bd
00000010: de8e 0dbd c3ab 6fbd 97c1 62bd ff86 a9bd
00000020: 3282 8dbd b141 4ebd ce76 7fbd 3eae 5cbd
00000030: 50fc 29bd 69f4 81bd 779a cbbd 9f2d bfbc
00000040: 9faa 21bd 1447 8dbd 4c62 72bc b87a 6bbd
00000050: 3e47 97bd 49ea 86bc 8c3f 28bd 73b9 42bd
00000060: 174e 90bd 12ab 56bd fa6f 80bd b19e 0bbd
00000070: de0a d5bc 7fd4 52bd d5d5 efbc 8a08 c0bd
00000080: b24c b4bd 8d1c f1bc d80e 30bd 76d3 c9bd
00000090: d5cd 1cbd d1c1 aabd d0d7 9ebd c403 acbd
000000a0: ce4f febc 5362 99bd 1be0 32bd e5d1 eabc
000000b0: c779 fcbd c233 98bd 0cd7 83bd 7752 89bd
000000c0: 6881 43bd 8324 87bc 1ee1 d0bc e0dc e8bd
000000d0: 9c5b 3cbd cf08 b3bd 0525 67bd d39c f4bc
000000e0: 856e 25bd a367 bdbd 3c00 2bbd a3d4 30bd
000000f0: 64cd 6ebc 469d 14bd 451c 90bd b865 2bbd

module.encoder.c2.main.3.weight f4 [64, 64, 3, 3]
0.010914019 0.009397799 -0.0017348208 0.040203057 -0.016817238 0.018260527 0.008382943 -0.018401211
-0.0047425544 0.02113573 0.015398911 0.030675549 -0.027611036 0.006507136 -0.010888845 -0.050549544
-0.027825713 -6.994914e-05 0.0051581473 -0.007261294 -0.03688952 0.031751838 0.0067170495 0.0021272122
0.014932608 -0.0066414694 0.0021878725 -0.016937578 0.020039067 -0.011492421 0.0011517021 -0.030347351
-0.045640208 0.0232168 0.031973623 0.014689182 0.047355432 0.0494365 0.014232677 -0.021448996
0.005979254 -0.034347344 -0.008876685 0.028195947 -0.022521945 -0.034661584 0.018885676 -0.0439234
0.0004111671 -0.0129015865 0.0063868435 -0.012504672 -0.042145282 -0.024690269 0.01446553 -0.008543231
0.021914016 -0.02099263 -0.00881522 0.034854244 -0.003468074 0.004175479 0.0028417967 -0.011890044
-0.031350385 -0.008765049 0.0154230725 0.010313041 0.017871052 0.03875738 -0.009039868 -0.009755058
0.037246596 0.036691695 0.007189718 -0.03329736 -0.025520097 -0.05189016 0.08207316 0.060869124
0.030789956 0.035848998 0.056153484 0.01747262 -0.059961084 -0.01267349 -0.007966383 0.0047823624
-0.009671516 0.03417029 0.008941071 0.02065573 -0.008241822 -0.023745853 -0.07333095 -0.036375258
-0.067225456 -0.029353496 0.0032308416 0.03858666 0.028072469 0.016583724 0.0062403465 0.011622058
0.0126631735 0.009517112 0.019450078 0.051475693 0.006226154 0.042033117 0.0008452112 -0.0028150573
-0.021107523 -0.02364218 0.024947667 -0.014235001 -0.03095445 -0.022157576 0.018174628 0.0027293018
0.02328765 -0.013964145 -0.022317924 -0.016606988 -0.01912887 0.0002848037 -0.015368637 -0.020452265
-0.007998175 -0.0424681 -0.017591529 -0.04448701 0.025922304 0.0036708245 -0.025738234 -0.038844883
-0.033406544 -0.05622025 0.011661668 -0.027393423 0.026444305 -0.02704743 -0.04488493 -0.009730916
-0.0032978093 -0.043067645 0.011151216 -0.012276496 0.016532863 0.07229393 -0.0046338467 -0.0029061586
0.009443763 0.042605378 0.01611615 0.06742311 0.006012955 -0.0010680399 0.0054493183 -0.043869324
-0.02418131 -0.009588031 -0.02809813 0.028742258 0.02104005 0.0007665056 0.022355586 0.00034699368
-0.055239815 0.00033697265 0.024185756 0.011654235 0.0021069648 0.023225121 -0.004512079 0.025149222
-0.050115384 -0.012450078 0.0009408845 0.0151022095 0.01615046 0.019937638 0.016829338 -0.016266879
-0.0073504713 -0.049966864 0.0007084622 -0.008787356 0.015150718 -0.03772821 0.011306432 0.005649304
0.027427569 0.013453909 0.019191338 -0.018770795 -0.014294343 0.043432325 -0.0018298315 0.042749815
0.02602584 -0.014496413 -0.0061397348 0.010517032 -0.0055015734 0.07431194 -0.012193617 -0.008294411
0.0124619035 0.02787983 -0.0069633494 -0.0219781 0.000742027 -0.026108775 -0.016811261 0.014923172
-0.02349295 -0.042159297 -0.016736133 -0.01709257 -0.016849158 -0.0060212966 -0.019223677 0.01243136
-0.012678208 0.007193132 0.0013633695 0.011944895 -0.023431094 -0.027844269 0.020984419 -0.0540472
-0.03857989 -0.045476884 0.0065354067 -0.0019396242 -0.009414662 0.016935982 0.02008922 -0.0011583877
0.009600249 -0.039167285 0.0058242264 0.040796928 0.01647527 0.049555846 0.0047020917 -0.028139526
-0.00847009 0.0457044 0.044583887 -0.009616407 0.030248936 -0.014121516 -0.019700294 -0.058763567
00000000: b7d0 323c 3af9 193c ed62 e3ba f6ab 243d
00000010: 4ec4 89bc 1a97 953c 9d58 093c 23be 96bc
00000020: 6e67 9bbb d724 ad3c b74b 7c3c 4a4b fb3c
00000030: 8a30 e2bc d039 d53b 2067 32bc 0a0d 4fbd
00000040: c0f2 e3bc a9b1 92b8 ad05 a93b 26f0 edbb
00000050: 7719 17bd 370e 023d b21a dc3b b368 0b3b
00000060: e6a7 743c afa0 d9bb 6962 0f3b adc0 8abc
00000070: f828 a43c b54a 3cbc b6f4 963a 029b f8bc
00000080: 3af1 3abd 2931 be3c c6f6 023d e5aa 703c
00000090: c5f7 413d ed7d 4a3d 2d30 693c ceb5 afbc
000000a0: 9eed c33b cdaf 0cbd 846f 11bc 30fb e63c
000000b0: f17f b8bc 4ef9 0dbd 22b6 9a3c 06e9 33bd
000000c0: ea91 d739 2d61 53bc ba48 d13b 65e0 4cbc
000000d0: 88a0 2cbd 3f43 cabc d500 6d3c e8f8 0bbc
000000e0: 0685 b33c bcf8 abbc b66d 10bc 53c3 0e3d
000000f0: a048 63bb 75d2 883b 703d 3a3b 76ce 42bc
00000100: 4369 00bd 489b 0fbc 0eb1 7c3c 07f8 283c
00000110: 5066 923c 0fc0 1e3d f41b 14bc aed3 1fbc
00000120: e38f 183d 084a 163d ba97 eb3b d062 08bd
00000130: 860f d1bc c78a 54bd f915 a83d e751 793d
00000140: 383b fc3c 66d6 123d 3201 663d bd22 8f3c
00000150: c199 75bd 78a4 4fbc 6f85 02bc 5db5 9c3b
00000160: 4775 1ebc 25f6 0b3d 927d 123c 3536 a93c
00000170: b508 07bc aa86 c2bc 8a2e 96bd 39fe 14bd
00000180: 80ad 89bd be76 f0bc 87bc 533b 0c0d 1e3d
00000190: 3cf8 e53c 97da 873c d27b cc3b 726a 3e3c
000001a0: 3379 4f3c a9ed 1b3c c555 9f3c 2dd8 523d
000001b0: c404 cc3b eb2a 2c3d 2a91 5d3a d37c 38bb
000001c0: afe9 acbc 3fad c1bc 0d5f cc3c ec39 69bc
000001d0: 3094 fdbc ce83 b5bc f5e2 943c 16de 323b
000001e0: bec5 be3c dfc9 64bc 14d4 b6bc 610b 88bc
000001f0: 26b4 9cbc b551 9539 bccc 7bbc 828b a7bc
00000200: c70a 03bc 08f3 2dbd 1c1c 90bc 0338 36bd
00000210: 035b d43c 3792 703b fdd8 d2bc d01b 1fbd
00000220: 4dd5 08bd 3447 66bd 9510 3f3c 2c68 e0bc
00000230: baa1 d83c 9292 ddbc 43d9 37bd 6b6e 1fbc
00000240: 0f20 58bb b367 30bd 97b3 363c 5b23 49bc
00000250: ed6f 873c d70e 943d 86d7 97bb 4075 3ebb
00000260: 03ba 1a3c fa82 2e3d 0406 843c 2115 8a3d
00000270: 5308 c53b 79fd 8bba 3290 b23b 52b0 33bd
00000280: e217 c6bc 1e17 1dbc 0d2e e6bc e274 eb3c
00000290: 2f5c ac3c 52ef 483a 1023 b73c b4ec b539
000002a0: 2543 62bd b4ab b039 3521 c63c 68f1 3e3c
000002b0: 0115 0a3b 9c42 be3c 10da 93bb be05 ce3c
000002c0: ca45 4dbd 69fb 4bbc b1a5 763a 426f 773c
000002d0: f84d 843c 4254 a33c aedd 893c 1e42 85bc
000002e0: 39dc f0bb 0eaa 4cbd 18b8 393a d8f8 0fbc
000002f0: b83a 783c e588 1abd 9d3e 393c cc1d b93b
00000300: c8af e03c c96d 5c3c 2737 9d3c 36c5 99bc
00000310: d232 6abc 18e6 313d f5d6 efba 6e1a 2f3d
00000320: 2434 d53c 5d82 6dbc d42f c9bb a14f 2c3c
00000330: 8b46 b4bb dc30 983d bdc7 47bc 48e5 07bc
00000340: 032d 4c3c 3e64 e43c cf2c e4bb 6b0b b4bc
00000350: 9784 423a 12e2 d5bc c5b7 89bc 5280 743c
00000360: 4974 c0bc 3aaf 2cbd 371a 89bc b805 8cbc
00000370: 3f07 8abc 4c4e c5bb f97a 9dbc e7ac 4b3c
00000380: 42b8 4fbc 5db4 eb3b 17b3 b23a 85b4 433c
00000390: 91f2 bfbc aa19 e4bc 84e7 ab3c 9960 5dbd
000003a0: f205 1ebd f845 3abd f726 d63b fd3a feba
000003b0: f43f 1abc 54bd 8a3c 2692 a43c 0bd5 97ba
000003c0: 5d4a 1d3c e06d 20bd 27d9 be3b ae1a 273d
000003d0: 25f7 863c 12fb 4a3d 0114 9a3b dd84 e6bc
000003e0: 22c6 0abc 8934 3b3d 989d 363d 228e 1dbc
000003f0: 9ecc f73c ee5d 67bc 8362 a1bc 11b2 70bd

module.encoder.c2.main.3.bias f4 [64]
-1.5950645e-06 -1.7968479e-07 3.971438e-07 -5.017481e-09 5.586868e-06 -1.9046671e-06 3.0039766e-07 6.182666e-07
-2.0412067e-06 9.549948e-07 5.9399906e-07 3.0920327e-07 -2.334418e-06 3.471445e-07 9.23899e-08 -1.131283e-06
1.1450849e-06 -1.4506897e-07 2.852443e-07 -2.6530438e-06 -2.6079513e-07 -8.14212e-07 8.333964e-07 -9.996452e-07
-1.200835e-06 6.48361e-07 -1.8679023e-06 1.0772885e-06 2.995638e-07 -8.688904e-07 2.4572666e-06 2.829238e-07
-1.9355393e-06 4.2569167e-07 -1.2747788e-07 -2.7152805e-06 3.6507018e-07 -8.144248e-07 -1.4753604e-06 1.7052249e-06
7.504461e-07 6.7729997e-07 9.951333e-07 -1.1571278e-08 -4.005866e-07 2.6957214e-06 -1.2341845e-06 -7.699704e-07
7.352052e-07 2.0412782e-07 -4.73256e-08 -2.4758142e-06 -5.452585e-07 1.158051e-06 1.2301692e-06 -1.2199636e-06
-8.2949136e-08 -5.3936554e-07 5.6879907e-07 3.676543e-07 7.542445e-07 -6.9525794e-07 -8.2256514e-07 3.5770012e-07
00000000: 0016 d6b5 61ef 40b4 0737 d534 3b66 acb1
00000010: d576 bb36 dda3 ffb5 5746 a134 f5f6 2535
00000020: aafb 08b6 5f2d 8035 4e73 1f35 9300 a634
00000030: ffa8 1cb6 2d5f ba34 e267 c633 97d6 97b5
00000040: d1b0 9935 41c4 1bb4 ae23 9934 f20a 32b6
00000050: 6903 8cb4 3990 5ab5 91b6 5f35 8c2b 86b5
00000060: 602c a1b5 070b 2e35 a2b4 fab5 5a97 9035
00000070: bcd3 a034 b23d 69b5 85e7 2436 c0e4 9734
00000080: 50e4 01b6 9e8a e434 dae0 08b4 2a38 36b6
00000090: ddfe c334 d99e 5ab5 ff04 c6b5 15df e435
000000a0: 4372 4935 b3cf 3535 8590 8535 05cb 46b2
000000b0: 3410 d7b4 24e8 3436 42a6 a5b5 f7af 4eb5
000000c0: eb5a 4535 3a2e 5b34 0c43 4bb3 2a26 26b6
000000d0: e15d 12b5 546e 9b35 4b1c a535 a1bd a3b5
000000e0: c521 b2b3 ebc8 10b5 93af 1835 0662 c534
000000f0: 4a77 4a35 c3a1 3ab5 3fce 5cb5 ee09 c034

module.encoder.c2.main.4.weight f4 [64]
1.0164555 0.9797427 1.045286 1.001733 1.019253 1.0000062 0.981946 0.98169506
1.0041792 0.993093 1.000474 1.0108029 1.0071317 0.97798634 0.99887276 0.995678
1.0076417 0.9655821 1.0013776 0.9854808 1.0218242 0.98162574 1.0089824 1.0116435
0.9989417 0.9801138 1.0011356 1.0261077 0.9918047 0.9855347 0.99001217 0.9558073
0.9904046 1.0060341 0.99796265 1.0300356 1.0180165 1.0033919 0.98004997 0.99341255
0.97145814 0.9940344 0.9834139 0.9977876 0.98226964 1.0008827 1.0023439 0.99138635
0.9845065 0.9672775 0.96253765 1.0099845 0.9936077 1.0108763 0.99997294 0.9950178
1.002281 1.002043 0.9458005 1.0260144 0.9901661 1.0000031 1.034752 1.0457283
00000000: 371b 823f 6bd0 7a3f efcb 853f c938 803f
00000010: e276 823f 3400 803f d060 7b3f 5e50 7b3f
00000020: f288 803f 583b 7e3f 880f 803f fd61 813f
00000030: b1e9 803f 505d 7a3f 20b6 7f3f c1e4 7e3f
00000040: 67fa 803f 6330 773f 242d 803f 7848 7c3f
00000050: 23cb 823f d34b 7b3f 5626 813f 897d 813f
00000060: a5ba 7f3f bde8 7a3f 3625 803f 7f57 833f
00000070: eae6 7d3f 014c 7c3f 7071 7d3f caaf 743f
00000080: 288b 7d3f bac5 803f 7b7a 7f3f 35d8 833f
00000090: 5d4e 823f 256f 803f 8ee4 7a3f 4950 7e3f
000000a0: 7bb1 783f 0a79 7e3f 03c1 7b3f 026f 7f3f
000000b0: 0676 7b3f ed1c 803f ce4c 803f 7fcb 7d3f
000000c0: 9e08 7c3f 809f 773f de68 763f 2c47 813f
000000d0: 135d 7e3f 6564 813f 3afe 7f3f 7db9 7e3f
000000e0: be4a 803f f242 803f fb1f 723f 7154 833f
000000f0: 877b 7d3f 1a00 803f c172 843f 6dda 853f

module.encoder.c2.main.4.bias f4 [64]
-0.013587943 -0.077295616 -0.018907586 -0.046270557 -0.032357264 -0.051074155 -0.054204773 -0.0386014
-0.071214244 -0.043469686 -0.055618647 -0.052426234 -0.050292075 -0.036143396 -0.028024336 -0.031129196
-0.024496842 -0.057696547 -0.054043416 -0.071092576 -0.085257575 -0.08000652 -0.10367751 -0.022233995
-0.041185025 -0.03776951 -0.02376981 -0.051946267 -0.006986525 -0.020576505 -0.021724071 -0.057174675
-0.07221179 -0.055408742 -0.038102157 -0.0073695006 -0.010520807 -0.07506165 -0.019396119 -0.058099046
-0.06388052 -0.03316467 -0.06817774 -0.02107918 -0.0702139 -0.037870146 -0.030295376 -0.046226494
-0.031767417 -0.045570884 -0.06682828 -0.046612795 -0.066093676 -0.013893122 -0.09612713 -0.08075869
-0.024284685 -0.064185575 -0.085876666 -0.04616758 -0.07491283 -0.047313266 -0.06858753 -0.016893974
00000000: f79f 5ebc 2a4d 9ebd 15e4 9abc 3286 3dbd
00000010: 0d89 04bd 2233 51bd d305 5ebd 801c 1ebd
00000020: c6d8 91bd 450d 32bd 61d0 63bd e4bc 56bd
00000030: 10ff 4dbd 190b 14bd 4b93 e5bc a802 ffbc
00000040: 9aad c8bc 3753 6cbd a15c 5dbd fc98 91bd
00000050: 869b aebd 75da a3bd e054 d4bd 1124 b6bc
00000060: a1b1 28bd 34b4 1abd e8b8 c2bc 9cc5 54bd
00000070: 38ef e4bb 0f90 a8bc aef6 b1bc fe2f 6abd
00000080: c6e3 93bd 47f4 62bd 0211 1cbd da7b f1bb
00000090: 765f 2cbc ecb9 99bd 9ce4 9ebc 44f9 6dbd
000000a0: cad3 82bd add7 07bd c5a0 8bbd 3fae acbc
000000b0: 4ecc 8fbd ba1d 1bbd 022e f8bc fe57 3dbd
000000c0: 8d1e 02bd 89a8 3abd 44dd 88bd 0fed 3ebd
000000d0: 1f5c 87bd fa9f 63bc 4dde c4bd d064 a5bd
000000e0: adf0 c6bc ba73 83bd 1be0 afbd 371a 3dbd
000000f0: e66b 99bd 8ecb 41bd 9e77 8cbd 3b65 8abc

module.encoder.c3.0.weight f4 [32, 64, 3, 3]
0.013496387 0.0070200027 0.013954193 0.01234524 -0.03908667 -0.012205479 0.012715332 0.03089812
0.018578872 0.0035441988 -0.0025763235 0.00019720428 0.0102035785 -0.00318612 -0.021344803 -0.02696821
-0.012264859 -0.009535524 -0.029338079 -0.053011224 0.0043737288 0.032395683 0.0047882986 0.03246205
0.03924302 0.051703062 -0.04806394 -0.054341 -0.07678267 -0.008553313 0.05094388 -0.0019492034
0.0069453595 0.026567861 0.013658657 0.007124105 -0.010538036 -0.011500427 -0.043180645 -0.005644676
0.04382308 0.030346148 -0.019976733 0.0010990979 -0.004438658 -0.019831842 0.007897155 -0.022616265
0.021499107 -0.008387674 -0.0022946098 -0.021696564 0.023978742 -0.05073138 -0.021574708 -0.021614851
-0.04404184 -0.03089245 -0.017879173 -0.034674212 0.030667037 0.010498623 0.02231457 0.010826389
0.04438087 0.02671188 -0.04337891 0.0075284634 -0.020067407 -0.003131575 -0.007507358 0.01872143
-0.026883803 -0.0007622447 -0.002556052 -0.06323093 -0.018737141 -0.0037379402 -0.013252854 0.025959473
0.03361556 -0.005073275 -0.009432401 -0.03789763 -0.0011049114 0.016631797 0.039731193 0.0050880793
0.008402683 -0.01285488 -0.014565909 0.034314934 -0.024926223 0.0033710103 0.015428303 -0.048286032
-0.003802317 0.013878008 0.01051658 -0.03407107 0.044401746 0.05290741 0.035411622 0.08056426
0.08163998 0.02088963 -0.0026273588 0.032782417 -0.01043157 -0.014970836 -0.032662794 -0.03704121
-0.042507034 0.0001126253 0.011687553 -0.0085707605 0.017812682 0.027100196 -0.003001308 0.014052516
0.02108421 0.016456928 0.027691351 0.004252544 -0.0075328564 -0.030252226 -0.035078865 -0.015971929
0.003177571 -0.01638619 0.030422365 0.010343637 -0.06259762 -0.00023400888 -0.0038391247 -0.021207383
-0.014953784 -0.0069278167 0.0574193 0.043963764 0.014841575 0.011678355 0.020268807 -0.0150920525
0.01871548 0.01612154 -0.0073485915 -0.009436499 -0.022223799 0.0008485798 0.017127292 0.019548662
0.041529477 0.007212266 0.0035876182 -0.0046638492 0.000790478 0.05345096 -0.04006371 0.021204963
0.011742375 -0.039072815 -0.017357033 0.043727536 0.0020245642 -0.0042092516 0.0065563233 0.007051514
-0.07028272 0.009615539 -0.060878314 -0.029659484 -0.006333582 -0.0051652426 0.0070183044 0.0022022047
0.008447711 -0.009804257 -0.006089429 -0.012277302 0.0045699123 0.02410699 -0.00031514335 0.04231122
0.0049245507 -0.005374987 -0.05256122 0.025388319 -0.059340607 -0.0059655793 -0.016253514 0.0010597901
0.0011372996 -0.01827984 -0.024987863 0.00493848 0.022423713 -0.019308759 -0.024566472 -0.05623117
-0.01275504 0.038505755 -0.016635401 0.02478881 0.012314219 -0.013942186 -0.020587401 -0.031367775
-0.06540911 -0.088049516 0.030439992 0.0036675746 -0.02287939 0.015445071 -0.030704353 0.035160344
-0.036002677 -0.037795004 0.022435382 -0.02115586 0.0180339 -0.041504897 -0.060908876 -0.0116054425
-0.010217617 0.013273336 -0.015442335 -0.0033515762 0.038530402 0.014628694 -0.010038 0.014025288
0.009490969 -0.030260563 -0.019851193 -0.032121647 0.017882532 -0.0138684055 0.00090186985 0.029612562
-0.0017016215 0.012668375 0.04414081 0.07209963 -0.007937801 0.030960329 -0.038702626 0.009253711
-0.0024744049 -0.01505979 -0.0063037863 -0.022075132 -0.07176236 -0.018752754 -0.015467245 -0.06763664
00000000: f31f 5d3c 0d08 e63b 21a0 643c b143 4a3c
00000010: 5819 20bd 7df9 47bc f853 503c 0e1e fd3c
00000020: b832 983c ca45 683b 89d7 28bb 9fc8 4e39
00000030: e92c 273c 39ce 50bb 4cdb aebc 6fec dcbc
00000040: 8cf2 48bc e33a 1cbc 6956 f0bc 4c22 59bd
00000050: 7f51 8f3b 56b1 043d 29e7 9c3b edf6 043d
00000060: 4abd 203d 97c6 533d b2de 44bd ab94 5ebd
00000070: 3c40 9dbd 3223 0cbc 88aa 503d 6a7c ffba
00000080: e695 e33b d8a4 d93c 8fc8 5f3c 5371 e93b
00000090: baa7 2cbc 496c 3cbc 30de 30bd f9f6 b8bb
000000a0: d47f 333d 7c98 f83c 3fa6 a3bc 9b0f 903a
000000b0: 2972 91bb 6376 a2bc 1263 013c bf45 b9bc
000000c0: e51e b03c 746c 09bc 2a61 16bb febc b1bc
000000d0: 116f c43c b5cb 4fbd 71bd b0bc a111 b1bc
000000e0: 3765 34bd 2a12 fdbc 5877 92bc 8c06 0ebd
000000f0: 7039 fb3c 6b02 2c3c 0ccd b63c 2b61 313c
00000100: b7c8 353d dfd2 da3c 15ae 31bd 54b1 f63b
00000110: 6764 a4bc 1c3b 4dbb 4900 f6bb af5d 993c
00000120: 6c3b dcbc 60d1 47ba 7083 27bb 387f 81bd
00000130: a27e 99bc 3bf8 74bb 8022 59bc f6a8 d43c
00000140: 78b0 093d b73d a6bb 5b8a 1abc 8c3a 1bbd
00000150: add2 90ba 683f 883c 2dbd 223d e7b9 a63b
00000160: 68ab 093c 469d 52bc daa5 6ebc d18d 0c3d
00000170: 1432 ccbc 2bec 5c3b fec6 7c3c 93c7 45bd
00000180: 4b30 79bb 9660 633c bc4d 2c3c 1b8e 0bbd
00000190: 9bde 353d 71b5 583d c70b 113d e0fe a43d
000001a0: dd32 a73d bb20 ab3c c42f 2cbb db46 063d
000001b0: 2de9 2abc 3d48 75bc 6cc9 05bd 86b8 17bd
000001c0: db1b 2ebd 3f31 ec38 267d 3f3c 606c 0cbc
000001d0: e7eb 913c 3b01 de3c 98b1 44bb 863c 663c
000001e0: cbb8 ac3c aed0 863c f9d8 e23c ed58 8b3b
000001f0: 2ed6 f6bb 84d3 f7bc dbae 0fbd 90d7 82bc
00000200: cc3e 503b 553c 86bc 5338 f93c 5c78 293c
00000210: 2e33 80bd 4860 75b9 d399 7bbb 1bbb adbc
00000220: b700 75bc bd02 e3bb 8030 6b3d 5913 343d
00000230: 142a 733c 9256 3f3c c50a a63c a844 77bc
00000240: 3551 993c 5211 843c 74cc f0bb 8c9b 1abc
00000250: af0e b6bc 3a73 5e3a 894e 8c3c 8424 a03c
00000260: d01a 2a3d df54 ec3b 3f1e 6b3b 34d3 98bb
00000270: 1538 4f3a 65ef 5a3d d819 24bd 08b6 ad3c
00000280: 1763 403c d10a 20bd 5630 8ebc a51b 333d
00000290: 8dae 043b c3ed 89bb 6dd6 d63b 6310 e73b
000002a0: 63f0 8fbd 7e8a 1d3c 8a5b 79bd 72f8 f2bc
000002b0: f089 cfbb 3241 a9bb cef9 e53b dd52 103b
000002c0: 4568 0a3c 09a2 20bc d589 c7bb bd26 49bc
000002d0: 34bf 953b 067c c53c d339 a5b9 884e 2d3d
000002e0: 205e a13b a920 b0bb 6f4a 57bd 2afb cf3c
000002f0: 230f 73bd e87a c3bb 1726 85bc a8e8 8a3a
00000300: 7111 953a 9abf 95bc 59b3 ccbc f9d2 a13b
00000310: efb1 b73c 672d 9ebc a03f c9bc a852 66bd
00000320: 84fa 50bc 36b8 1d3d f746 88bc e711 cb3c
00000330: 94c1 493c c46d 64bc e9a6 a8bc 7f7b 00bd
00000340: 36f5 85bd 4e53 b4bd 4a5d f93c b15b 703b
00000350: 8f6d bbbc 530d 7d3c b287 fbbc 4b04 103d
00000360: 8b77 13bd efce 1abd 68ca b73c 0e4f adbc
00000370: d4bb 933c 0a01 2abd 967b 79bd c124 3ebc
00000380: cb67 27bc 6878 593c d901 7dbc 1ea6 5bbb
00000390: 0ed2 1d3d 31ad 6f3c 6c76 24bc 52ca 653c
000003a0: 0280 1b3c 00e5 f7bc f89e a2bc fd91 03bd
000003b0: 637e 923c 4f38 63bc 766b 6c3a 0b96 f23c
000003c0: f108 dfba 048f 4f3c fecc 343d f9a8 933d
000003d0: 8d0d 02bc 84a0 fd3c a586 1ebd e19c 173c
000003e0: a029 22bb 56bd 76bc fe8f cebb e8d6 b4bc
000003f0: 25f8 92bd 609f 99bc 546a 7dbc 1485 8abd

module.encoder.c3.0.bias f4 [32]
-2.8100322e-07 1.2141958e-06 4.8274313e-07 9.016764e-07 -5.5581825e-07 5.3841813e-07 -3.9725052e-07 -6.168409e-07
-4.3601338e-07 -1.1685046e-07 -1.9582302e-07 5.811676e-07 -1.5994564e-07 -9.704825e-07 6.935779e-07 4.024877e-08
5.953225e-07 1.6241285e-07 1.0165063e-07 5.5790656e-07 -9.554486e-07 -1.5404608e-09 1.401219e-07 5.9315656e-08
-1.978537e-07 4.0298872e-08 7.687711e-07 3.9862897e-07 2.855774e-07 2.817517e-07 2.4568124e-06 -5.774363e-07
00000000: cadc 96b4 73f7 a235 db95 0135 bb0a 7235
00000010: 8a33 15b5 d087 1035 b245 d5b4 fc94 25b5
00000020: 3915 eab4 38ef fab3 6c43 52b4 8901 1c35
00000030: 86bd 2bb4 8641 82b5 4f2e 3a35 fedd 2c33
00000040: 40ce 1f35 b463 2e34 064b da33 0cc3 1535
00000050: f73c 80b5 25b8 d3b0 6a74 1634 41c2 7e33
00000060: 9c71 54b4 1415 2d33 8c5d 4e35 2603 d634
00000070: 7651 9934 a943 9734 b7df 2436 1f01 1bb5

module.encoder.c3.1.weight f4 [32]
1.1489141 1.0938679 1.0337826 1.0514299 1.0267744 1.0326297 0.97918814 1.0667282
1.033728 1.0517285 1.0587417 1.0870388 1.073954 1.1134663 1.0875313 1.0536464
1.0546235 1.0243143 1.0571185 1.0867969 1.1152773 1.0678259 1.1012352 1.1075287
1.1050884 1.0404131 1.0493947 1.0552634 1.0782756 1.1123236 1.0643277 1.064439
00000000: 9e0f 933f dd03 8c3f fd52 843f 4195 863f
00000010: 586d 833f 362d 843f 13ac 7a3f 8d8a 883f
00000020: 3351 843f 0a9f 863f d984 873f 1624 8b3f
00000030: 5377 893f 1086 8e3f 3a34 8b3f e3dd 863f
00000040: e7fd 863f bb1c 833f a94f 873f 291c 8b3f
00000050: 68c1 8e3f 85ae 883f 46f5 8c3f 80c3 8d3f
00000060: 8973 8d3f 422c 853f 9152 863f df12 873f
00000070: ef04 8a3f 9f60 8e3f e43b 883f 8a3f 883f

module.encoder.c3.1.bias f4 [32]
-0.10926459 0.03868472 -0.035355765 0.03857063 -0.05704292 -0.06747151 0.047969006 0.025213633
0.047274403 0.02361566 -0.03315453 -0.038007844 0.0027976306 0.1011768 0.0025455046 0.008914195
0.07412821 0.043704953 -0.022276582 -0.05141666 0.018974947 0.008828251 0.05044448 0.025259802
-0.018370736 -0.014804024 0.012703918 -0.026601152 0.030990139 0.065548785 -0.019432964 0.027030027
00000000: 1dc6 dfbd de73 1e3d 35d1 10bd 3dfc 1d3d
00000010: d6a5 69bd 812e 8abd 267b 443d d28c ce3c
00000020: cea2 413d a175 c13c 0bcd 07bd 1dae 1bbd
00000030: 7458 373b c835 cf3d 7bd2 263b d80c 123c
00000040: 88d0 973d f703 333d 617d b6bc 479a 52bd
00000050: 5971 9b3c 5ea4 103c df9e 4e3d a5ed ce3c
00000060: 3a7e 96bc 948c 72bc 1824 503c a9ea d9bc
00000070: 08df fd3c 713e 863d e131 9fbc 136e dd3c

module.encoder.c3.1.running_mean f4 [32]
-0.767077 -0.9595432 -1.1869037 -0.098421015 0.76257783 -0.13791117 0.14666247 -0.25763336
-0.79089797 0.68015134 -0.4073435 -0.16548313 -0.123621665 0.15466045 0.2050097 -0.3960245
0.52021676 0.19338146 -0.091825984 0.22599012 -0.40930784 -0.16313827 -0.61923045 -0.3278363
-0.95236516 0.30261165 0.55607253 0.75020427 0.24414699 -0.12385872 -0.7114499 -0.021067092
00000000: 295f 44bf a0a4 75bf 76ec 97bf f590 c9bd
00000010: 4d38 433f 9638 0dbe b02e 163e 85e8 83be
00000020: 4a78 4abf 661e 2e3f 548f d0be 6974 29be
00000030: 5b2d fdbd 4f5f 1e3e 10ee 513e b9c3 cabe
00000040: ed2c 053f ca05 463e 430f bcbd f469 673e
00000050: cc90 d1be b80d 27be e385 1ebf 29da a7be
00000060: 34ce 73bf eaef 9a3e c55a 0e3f 630d 403f
00000070: ab01 7a3e a4a9 fdbd 9521 36bf e594 acbc
