logs/exp5/model_iters_42000.pth (torch, 495376 bytes, 47 tensors)

module.encoder.c1.main.0.weight f4 [32, 3, 3, 3]
00000000: ff73 5fbc 7f2a 363b 25c4 f3bb f776 febc
00000010: cf58 543a 2232 813b e85f 37bb fad6 033d
00000020: 8262 f73c d951 b5bb d68a 55bd f167 cd3c
00000030: a697 60bc 8313 843b 7792 4e3d d1d5 55b9
00000040: 10f2 693b d067 373c 3efc 57bd 4ee7 87bd
00000050: ed1f d0bc fe2e 87bd cd5a 8a3c 6710 813d
00000060: 396a ad3c 6f5f 57bd 56c7 783d d013 57ba
00000070: 57ee 89bc c451 833c c4f3 4a3c 6d5c f63c
00000080: d194 0c3d 9a81 babb 9dc2 7d3c 1d79 73bc
00000090: 5f8f b13b 4a13 5ebc 4041 fabc 68ed 10bc
000000a0: f81e c0bb d711 83bb be3f 573d d8c0 a83c
000000b0: 5091 94bc c41b b6bb 62cb 28bb 80c8 db3c
000000c0: fe04 033b b918 db3c dff8 0a3e 2ecc 4bbd
000000d0: c994 2bbd 1213 7dbd fda3 013d c08e 48bd
000000e0: afb4 46bc 9e3e 5a3d eb5d fc37 bbf2 b2bc
000000f0: da75 bc3c 9122 25bc 97fd 2c3c d6c0 bfbc
00000100: f4eb 41bd e27e 723b d4a7 73bc bfb5 223d
00000110: 67f0 b03c ed3f cc3a cba7 28bb 043d fb3b
00000120: b70c 71bd 8099 123d 3c76 c93c ba6f 29bd
00000130: cf5b a5bd 18cb 96bc e021 8cbd 1394 773d
00000140: e6db 1d3c d82a 33bd 16bf e6bc 0292 62bc
00000150: dc4e 37bc cfbe 0cbd fd1f 533c 3536 523c
00000160: cced 403b ebef 5c3d bc9b 0bbd b15e b5bc
00000170: 182c c0bc 6d6d 8f3d 0ced b9bb a614 54bb
00000180: 0f11 a5bc 64c0 f43c 2833 003c 6dd2 dabc
00000190: ac36 b1bc e8d9 7abb ad1b 58bc f1e9 dabc
000001a0: d664 5cbb 809c 28bd b3e3 22bd 90aa a93c
000001b0: 8629 c43c ab37 7f3b 8bf9 e3bc 15a3 24bc
000001c0: 8bc1 263b acf0 72bb a258 b8bc 1dab 29bc
000001d0: cd32 30b9 654c 1dbd 2787 67bd 41c5 93bc
000001e0: e042 913c ea40 7ebc c71f bdbb 6c94 593d
000001f0: be69 e93c 0822 953c 531a 0abd e592 043d
00000200: 2d58 463d ac73 5a3c 86cd 523d e2e4 e9bc
00000210: 012e be3a 7b96 78bd 0f46 113c f032 333c
00000220: c18e 05bd 0b98 c0bc 23ca 1337 72d9 003d
00000230: 6847 a83c 9ec8 d8bc ed62 1d3d 9043 bf3b
00000240: 92cc 5c3d 6cf0 e93c 4b00 f7bb 8e9c 0c3d
00000250: 1a76 88bd df29 6b3c 87b2 073c cea1 12bd
00000260: a030 04bd 41de b9bc f693 05bb c28a 1f3d
00000270: e258 073c cd5a 8ebd 1cf2 8f3c 85c8 0fbd
00000280: 5a3f c8bb 8166 ad3c d7cc 1aba 26b9 d03b
00000290: 522f ee3b 513a e7bc 6f9f b23a c50e 013d
000002a0: 3f47 0dbd ed3b 31bd f57f 3a3b 4ecb 623d
000002b0: f208 973b fe18 9a3d a57e 7ebb f18d edbc
000002c0: 2dcb b1bc 03fa c7bc 234b d1bc f531 a5bc
000002d0: 0f10 babc 07c4 8ebd 7dc8 9fbb b8c0 613d
000002e0: 5f85 81bc 58a8 f1ba 96a3 0f3d e7d3 163c
000002f0: ee20 01bc 69d2 8d3d b6bd ae3b cf6a 21bd
00000300: affb 913c 93d0 f1ba deaf d83b 52ff 53bc
00000310: 622f ec3b cadf 05bd d845 a8bd 293a db3b
00000320: f82e 28bc ba93 f53c da0a 573c 26c6 0e3d
00000330: 844e 023d 7318 bcbc aac8 b23a c97e a6bc
00000340: b351 9bba 2cb1 173d a510 663d 3388 913c
00000350: 988a 473c e5d5 3dbb 87c0 acbd 0f95 b9bd
00000360: b922 d33c e7bf c7ba 2e99 c13b 3629 be3a
00000370: 0d50 253b 662c 24bc ae41 803c 274e be3c
00000380: 1f67 c5bc bd49 07bd 614a 5ebd 5df0 163c
00000390: ec86 d9bc 59ee 753c 277a 473d e4ee 833a
000003a0: 11c9 a93c 950f ac3c 9332 8d3d 3ffb 04bb
000003b0: 348b 0d3c d2f0 5ebd c8f3 1fbd 01eb 0ebc
000003c0: 021c 90bd a724 94bd 66d3 353c e4c4 00bc
000003d0: 05d8 88bc 592a dcbc 2f40 9abc 5e36 2ebb
000003e0: efad 04bd 4adc 1cbb 4bdb 3c3b fbec 503c
000003f0: 34b9 973c cc53 ba3b 0775 15bb 8b34 783a
-0.0136384955 0.0027796326 -0.0074391537 -0.031062586 0.0008100392 0.003942744 -0.0027980749 0.03218744
0.03019834 -0.0055334386 -0.052134357 0.025073977 -0.013708031 0.0040306463 0.05043265 -0.00020392916
0.003569726 0.011194184 -0.05273079 -0.06635915 -0.025405848 -0.0660076 0.016889 0.063019566
0.021168815 -0.052581247 0.060736977 -0.00082045514 -0.016837282 0.0160302 0.01238722 0.030073369
0.03432161 -0.0056917192 0.015488294 -0.014860419 0.0054187025 -0.013554404 -0.030548692 -0.008845665
-0.0058630668 -0.0039999294 0.052551024 0.020599768 -0.018135697 -0.005557509 -0.0025755991 0.026829004
0.001999199 0.026745187 0.135715 -0.049755268 -0.04188994 -0.061785765 0.031650532 -0.048964262
-0.012128039 0.053282373 3.0084475e-05 -0.021844259 0.023005415 -0.010079042 0.010558507 -0.023407381
-0.047344163 0.0037001898 -0.014871556 0.039724108 0.021599008 0.0015583016 -0.0025734778 0.0076671857
-0.058850016 0.03579092 0.024592511 -0.041366316 -0.08074152 -0.01840739 -0.06842399 0.06044395
0.009634947 -0.04374203 -0.028167289 -0.013828756 -0.011188235 -0.034361657 0.012886045 0.012830307
0.0029438613 0.05393974 -0.034084067 -0.022139879 -0.023458526 0.07003293 -0.00567401 -0.003236094
-0.020149736 0.029876895 0.007824697 -0.026711667 -0.021632515 -0.0038276855 -0.013190192 -0.02672288
-0.003362944 -0.041164875 -0.039767932 0.020711213 0.023945581 0.0038943093 -0.027828952 -0.010048647
0.002544495 -0.003706972 -0.0225032 -0.010355738 -0.00016803593 -0.038402934 -0.056525376 -0.018038394
0.017732084 -0.015518406 -0.0057716104 0.05312006 0.028492805 0.018204704 -0.03371651 0.032366652
0.048423935 0.013333242 0.051465534 -0.028551523 0.001450956 -0.060690384 0.008866801 0.010937437
-0.032606844 -0.02351 8.808946e-06 0.031457372 0.020541862 -0.02646285 0.03842442 0.0058369115
0.05390603 0.028557025 -0.0075378767 0.03432899 -0.06663151 0.014353245 0.00828231 -0.03579884
-0.032272935 -0.022688987 -0.002038238 0.03895069 0.008260937 -0.069509126 0.017571501 -0.03510334
-0.0061110677 0.021167042 -0.00059051573 0.0063697277 0.0072688246 -0.02822605 0.0013627837 0.031508226
-0.034491774 -0.04327004 0.0028457616 0.055369668 0.0046092207 0.07524298 -0.003883281 -0.028998347
-0.021703327 -0.024411207 -0.025548523 -0.020165423 -0.022712735 -0.06970983 -0.004876195 0.05511543
-0.015810667 -0.0018437011 0.035068117 0.009205795 -0.007881386 0.06924898 0.005332674 -0.0394085
0.017820207 -0.0018449001 0.006612762 -0.012939291 0.007207797 -0.032684125 -0.08216447 0.006690283
-0.0102651045 0.029977668 0.013125146 0.034856938 0.03181316 -0.022960877 0.0013640125 -0.020324128
-0.001184991 0.0370342 0.056168217 0.01776514 0.012179039 -0.0028966602 -0.08435159 -0.09061634
0.025773393 -0.0015239686 0.005908153 0.0014508131 0.0025224716 -0.010020351 0.015656319 0.023230625
-0.024097024 -0.033029307 -0.054270152 0.0092125805 -0.026553594 0.01501044 0.048700478 0.0010065702
0.020725759 0.021003524 0.06894412 -0.0020291356 0.008639146 -0.054428883 -0.039050847 -0.0087230215
-0.07036592 -0.072335534 0.011097765 -0.007859442 -0.016704569 -0.026875662 -0.018829433 -0.0026582698
-0.03239244 -0.0023935013 0.0028817232 0.012751813 0.018520929 0.005686259 -0.002280535 0.0009468279

module.encoder.c1.main.0.bias f4 [32]
00000000: b933 2539 2786 6ab7 2a36 78b9 e7db 75b9
00000010: 1ba7 e2b8 b853 5e3a 29c4 ccb6 b180 fb38
00000020: e3ba b0b9 0bf8 a1b9 8a54 373a e0ac c838
00000030: 98c4 96b9 a66e bab7 4a8d a838 89f2 2039
00000040: 6714 e9b6 fa82 0eba 64d8 8fb8 44ad 8cb9
00000050: b6c5 38b9 f702 5f38 a3e4 0439 caa5 133a
00000060: eede e4b9 6c96 b937 b87f 1c39 67dc 6e39
00000070: 840a 5d38 b369 8bb8 6517 9339 4ea9 be38
0.00015754894 -1.3978722e-05 -0.00023671301 -0.00023446941 -0.000108076456 0.0008481103 -6.10251e-06 0.00011992583
-0.00033708577 -0.0003089312 0.00069934933 9.568944e-05 -0.00028756703 -2.2224453e-05 8.0371814e-05 0.0001534914
-6.9463163e-06 -0.0005436387 -6.859077e-05 -0.00026831974 -0.0001762126 5.3170104e-05 0.00012673675 0.00056323095
-0.00043653644 2.2123764e-05 0.00014924898 0.00022779555 5.27003e-05 -6.6477245e-05 0.00028055455 9.0914415e-05

module.encoder.c1.main.1.weight f4 [32]
00000000: 53ab 833f c30a 823f 0f34 763f d846 793f
00000010: 2bac 843f 2719 803f a6cc 803f b2de 7e3f
00000020: 4740 733f 19f2 813f b614 833f d3de 7c3f
00000030: 0d7d 8a3f 2487 823f a06b 7b3f d358 7b3f
00000040: 4293 663f a64b 803f 91c6 763f da5c 7f3f
00000050: a8f9 763f ccb1 853f b58e 7b3f 173b 883f
00000060: a0a7 773f 38c8 803f 5157 7e3f 110b 813f
00000070: b379 7a3f ee94 6b3f 84de 803f af04 6c3f
1.0286659 1.0159534 0.96173185 0.97373724 1.0365041 1.0007676 1.0062454 0.99558556
0.95019954 1.0152007 1.0240695 0.987775 1.0819412 1.0197492 0.982111 0.9818241
0.9006845 1.0023086 0.9639674 0.99751055 0.96474695 1.0444884 0.9826463 1.0643033
0.9674015 1.0061102 0.99351984 1.0081502 0.9784195 0.92024124 1.0067906 0.92194647

module.encoder.c1.main.1.bias f4 [32]
00000000: 6e8c 57bd 30f3 a1bd e513 ccbd 54e3 e9bd
00000010: e993 81bc 82ad d8bc 53b5 14bc 5694 d3bd
00000020: 584b 92bd 43d8 1e3d 3315 02be 85f4 fabc
00000030: 6e61 c8bd d8d3 6e3d 3d37 143b ca34 bfbd
00000040: 7315 c8bd c241 23bd 1cd6 9ebd b585 04be
00000050: 126e 62bd ede4 e73b d240 d6bc ef30 bbbc
00000060: 4616 76bd 7d2a 85bd cd61 a0bd 664b 1cbd
00000070: 88ad 8fbd ed13 52bd 412d 25bc cdc3 36bd
-0.05262416 -0.079077125 -0.09964732 -0.114203125 -0.0158176 -0.026449922 -0.009076434 -0.10331027
-0.07143277 0.038780462 -0.127034 -0.030634174 -0.09784208 0.0583075 0.0022615932 -0.093362406
-0.09769716 -0.039857633 -0.07755682 -0.1294163 -0.055280752 0.0070768506 -0.026153956 -0.022850482
-0.060079835 -0.065022446 -0.07831154 -0.038157843 -0.0701552 -0.051288534 -0.01008159 -0.044620324

module.encoder.c1.main.3.weight f4 [32, 32, 3, 3]
00000000: e3a5 e1bc 6f7b 173d 8002 803d 10d4 4ebd
00000010: 7981 b6bb 05c3 13bd de23 843b 8752 3e3c
00000020: 546c b5bb 0385 28bc de46 4ebc 7e7c 803d
00000030: bef7 24bc ccf8 163d 8471 433b 9f91 c5bc
00000040: f67a c73c ced4 72bc f72c eabc c563 c0bc
00000050: 2bc4 babc 79e9 07bc c85f 6b3b 1354 febb
00000060: c0fd 11bc faf0 c4ba 724c 04bd 4442 183d
00000070: 9dac 903c fae7 f33c 4990 743d de40 a8bb
00000080: 371f 1f3a 4222 8cbc 60e8 aebb c3c7 d43c
00000090: 94df ad3c 4ee5 d4bc d776 13bd 19dd 3e3c
000000a0: 9647 02ba 27e1 cd38 25ef 6bbb 5005 043b
000000b0: 65bb 41bb dbd8 72bc 7673 0ebd cfab 683c
000000c0: 9a05 f93c c221 653c 9467 99bc 1374 68bc
000000d0: fbb7 323b 12fe eebc 0614 22bc dbc1 953c
000000e0: d0ab 46bc bc96 7cbc 5863 b93a db5a 653b
000000f0: 8981 ccbc 7425 d63c f917 4b3a 09fb 3b3c
00000100: 6ca3 233d 13b6 663c 86ac abbc 5b9a 46bd
00000110: e648 3ebd 876d 1c3c 57e2 8b3c b5a6 d7bc
00000120: b14d 74bc 3ae1 fdbb b47e 963c 4a70 85bc
00000130: c868 27bc 081a 1c3d 3d30 9f3b 1697 813c
00000140: 5824 243c 9a3a 413c 1bee 8ebc 10b0 71bc
00000150: e4ba 26bd d24e 9abc 518a 4fbd 4a87 643d
00000160: b663 9fbc be40 38bc 25f8 2cbd 3553 65bd
00000170: d2ef 5ebd 1146 713c 4983 a3bb 2228 513c
00000180: a552 17bc 6d3e 083b 5cbc 94bc 45fa 8f3b
00000190: 3e10 99bd 68fe 313d bb93 89bc b708 8e3c
000001a0: dcc8 333d dad1 903c 1e9b a43c f86d 913c
000001b0: 7482 2abd f443 5a3d 6ed9 173d 19f7 85bc
000001c0: 2179 c3bc 451a 57ba 2a0a 2b3d 67c9 e13b
000001d0: 4c2a 8cbc 3f0e 5d3d 8c84 0f3d f00a ac3c
000001e0: efd8 983d a980 ad3c de6a 3a3d 0bc9 a13d
000001f0: 4ab4 f03c 2def 4c3c 6222 9dbc 32c2 38bc
00000200: 3b9d a83c 8823 35bb 35a6 89bc 28cc 2fbc
00000210: 6bce 373a a934 d5bc cb52 75bd 9058 df3c
00000220: 46b0 aebc 34b5 2abd f7aa 5e3c 65f0 89bc
00000230: a874 c7bc b624 cfba 0b90 3fbc 145f a5bb
00000240: 4d5f 453a d00e e33c abc9 96bc e166 a2bb
00000250: e2c1 223c 3850 92bc c4c9 903c 8d50 55bc
00000260: 43f8 043d ba41 283b 4aa4 883c a694 033d
00000270: 4587 68bc 24d9 e93c ff0d 3bbc d111 1f3c
00000280: 69ac bf3d 6679 1c3c 158b fb3c b111 6bbc
00000290: 7e3c 5f3c de23 48bc db81 ecbc 1739 173c
000002a0: e8d9 3a3b 0b47 3cbc fff2 f13c 088d 963c
000002b0: d37e fbbc cb66 5b3c 0be5 f3bc 86fd ae3b
000002c0: 5c8f 063c 3128 e1bc 23f4 983c 3bd3 b53c
000002d0: bf9e 6bbc 6389 bebb 3ce2 023d 31f7 763c
000002e0: 8fd2 753d 16b1 c6bc 72da c33b 60d7 e0ba
000002f0: e1f9 e43c ed36 ca3c 05c6 1f3d 10d9 c1bc
00000300: d77d 03bd 57de 8a3c 0347 383d 6ff8 55bc
00000310: 2ec0 c03a 0d9e 03bd 1105 173d 19be fc3c
00000320: b1bf 013d b133 d93c 0ab1 963d f495 bf3b
00000330: ec64 563d 936c 0ebc 7ea3 043d d574 b73c
00000340: 1590 30bc f4d8 1a3d 20e3 52bc 7b75 b33b
00000350: c640 73bc e34b 79bd c985 dcbc 8a48 efbc
00000360: 1413 933c 78c4 de3c 250d 30bc 6974 113c
00000370: e1b9 93bc 983c 2d3d 1010 0cbc 31b2 f4bc
00000380: d604 9f3c 7335 d4bc 8a01 97bc 1ab5 3a3a
00000390: 746e 983c 892d 103c d041 b8bc 8865 403d
000003a0: 7253 93bd 0fe2 4fbd aa9d 2cbc 355d 86bc
000003b0: 53fc 2b3d 7034 163d 2903 8c3c 0666 ebbc
000003c0: 96ca 833b 5bcd 613d 85f2 7ebb 01ea 34bd
000003d0: 5939 d23c af07 0ebb 5bfc 57bb 93f5 0cbd
000003e0: 2a99 1d3d 4631 063c c4a6 73bb 7dfb 25bc
000003f0: 8541 fc3b 72f0 f13a 2941 79bc a7bc c43c
-0.027544921 0.03698295 0.06250477 -0.050495207 -0.0055696336 -0.036074657 0.004032596 0.011616356
-0.0055365954 -0.010285619 -0.012590138 0.06273745 -0.010068832 0.036858365 0.00298223 -0.02411729
0.024350625 -0.014821244 -0.028585894 -0.023485074 -0.022798618 -0.00829541 0.0035915244 -0.0077614873
-0.008910596 -0.001502543 -0.032299466 0.03717257 0.017660433 0.029773701 0.059707914 -0.005134686
0.000607002 -0.01710618 -0.00533776 0.02597416 0.021224774 -0.025988247 -0.036002006 0.0116493935
-0.00049697736 9.8170996e-05 -0.0036000696 0.0020144768 -0.0029561159 -0.01482221 -0.03477808 0.014201119
0.030398179 0.013985099 -0.018726148 -0.0141878305 0.0027270305 -0.029173885 -0.009892469 0.018280914
-0.012125924 -0.015416797 0.0014143987 0.003499678 -0.02496411 0.026140906 0.00077474077 0.011473426
0.039950773 0.014081496 -0.020956289 -0.04848705 -0.04645624 0.009547598 0.0170757 -0.02632461
-0.014911101 -0.0077477964 0.018370964 -0.016288895 -0.010217853 0.038110763 0.0048580454 0.015819114
0.010018431 0.011793757 -0.017447522 -0.014751449 -0.040705577 -0.018836413 -0.05066902 0.055793084
-0.019456726 -0.0112459045 -0.042228837 -0.055987556 -0.05442793 0.014726178 -0.0049900156 0.012765916
-0.009236013 0.0020789162 -0.018156223 0.004393848 -0.07473801 0.04345551 -0.016794076 0.01733814
0.043892726 0.01767819 0.020093497 0.017752632 -0.041628316 0.05328746 0.03707259 -0.016353177
-0.02386147 -0.00082055136 0.04175774 0.006890464 -0.017110012 0.053968664 0.035038516 0.02100131
0.07463252 0.021179514 0.045512073 0.07899674 0.029382844 0.012508196 -0.019181434 -0.0112767685
0.020582786 -0.0027639586 -0.016802887 -0.010729827 0.00070116547 -0.026026087 -0.05989341 0.02726391
-0.021324288 -0.041676715 0.013590566 -0.016838262 -0.024347618 -0.0015803787 -0.011692057 -0.0050467346
0.00075291545 0.027717024 -0.01840671 -0.004956112 0.009933921 -0.017860517 0.017674334 -0.013019693
0.032463323 0.0025673942 0.016679902 0.032124184 -0.014192407 0.028545924 -0.011416911 0.009708838
0.093590565 0.009550428 0.030705968 -0.01434748 0.013625262 -0.012215583 -0.028870514 0.00922992
0.002851123 -0.011491547 0.029534815 0.018377796 -0.030700123 0.013391207 -0.029772302 0.005340281
0.0082128905 -0.027484985 0.018671101 0.02219545 -0.01438111 -0.0058147176 0.031954035 0.015073583
0.060015257 -0.024254363 0.0059769684 -0.001715403 0.027951183 0.024684394 0.039007206 -0.023663074
-0.032102432 0.016951723 0.044989597 -0.0130597195 0.0014705712 -0.03213315 0.036870066 0.030852364
0.03167695 0.026513906 0.07357986 0.005846733 0.05234234 -0.008692878 0.03238248 0.022394577
-0.010776539 0.03780456 -0.012871534 0.0054766512 -0.014846986 -0.060863387 -0.026919262 -0.029209394
0.017953433 0.027193293 -0.010745321 0.008877852 -0.01803297 0.042294115 -0.0085487515 -0.029870125
0.019411486 -0.025904393 -0.018433351 0.0007122323 0.018607356 0.008799919 -0.02249232 0.046971828
-0.0719365 -0.050752696 -0.010535637 -0.016401866 0.041988682 0.036671102 0.01709135 -0.028735172
0.004021953 0.055127483 -0.0038901877 -0.044168476 0.025662111 -0.002167206 -0.0032956812 -0.034413885
0.038476147 0.008190459 -0.0037178257 -0.01013076 0.00769824 0.0018458499 -0.015213289 0.024015738

module.encoder.c1.main.3.bias f4 [32]
00000000: 7b50 00b6 ae2f 97b7 0820 a536 c7b6 f937
00000010: 6a1e 5ab7 1375 9db8 2215 80b8 368f e436
00000020: 8149 9636 0099 2d37 1347 1a36 104e 95b7
00000030: 0e3d 2ab5 0838 07b7 6bd7 86b7 e22c 9f37
00000040: 0961 90b6 8247 dd36 e616 cd36 3119 c2b7
00000050: c8f4 82b8 28a4 22b7 7834 c535 4a7c a536
00000060: f319 a636 8868 e734 532d 22b8 fbd8 d137
00000070: a85b 9a37 2779 9737 f284 b8b7 4004 abb7
-1.9120332e-06 -1.8022805e-05 4.921112e-06 2.9768225e-05 -1.3000894e-05 -7.50815e-05 -6.107452e-05 6.8116015e-06
4.4789053e-06 1.0347227e-05 2.298916e-06 -1.7798535e-05 -6.341878e-07 -8.059673e-06 -1.6074357e-05 1.8975177e-05
-4.302831e-06 6.594638e-06 6.112142e-06 -2.3138333e-05 -6.244477e-05 -9.694173e-06 1.4692914e-06 4.9318523e-06
4.9502064e-06 4.310316e-07 -3.866602e-05 2.5015781e-05 1.8400911e-05 1.8057019e-05 -2.1996417e-05 -2.0386768e-05

module.encoder.c1.main.4.weight f4 [32]
00000000: 11e6 783f 6300 6e3f 88e6 763f 43d7 7e3f
00000010: ab0e 7a3f 0baf 823f db7d 813f 3386 783f
00000020: 2691 803f b8d4 633f bf7b 7f3f d57f 7b3f
00000030: 5c08 663f 961d 7a3f 1aa1 793f b16e 743f
00000040: 7d5b 793f 84c2 783f 330f 7c3f 7427 823f
00000050: cafd 7f3f 5a11 763f becd 6f3f 097e 773f
00000060: 3e5f 6e3f 102a 783f aeed 7e3f 9815 823f
00000070: d72f 7f3f e176 733f 08ae 6f3f 4e12 7d3f
0.97226053 0.9296934 0.9644551 0.99547213 0.9767863 1.0209669 1.0116533 0.9707977
1.0044296 0.8899646 0.99798197 0.9824193 0.89856505 0.97701395 0.97511446 0.954814
0.97405225 0.9717181 0.9846069 1.016829 0.99996626 0.96120226 0.9367331 0.9667669
0.9311408 0.9693918 0.9958142 1.016284 0.9968237 0.9510327 0.93624926 0.98856056

module.encoder.c1.main.4.bias f4 [32]
00000000: 9957 4ebc 01a0 74bc 3932 09bc 87c0 f53c
00000010: 1140 ddbc 5f8e 8dbd a9c7 f2bd 8890 d53c
00000020: ae1a 93bc 430c debd 1b70 21bc d6ef 32bd
00000030: d165 13be 0fa4 683c 837c ba3b b755 64bd
00000040: bcfc 6bbd e1ae a4bc 7085 0a3c c8ef 84bd
00000050: a2cf 94bb e03f a4bd 1f16 4cbd 9661 85bd
00000060: c42b 18bd c0a3 bdbc 8c37 f9bc afcc a43b
00000070: 158f 52bc a802 a7bd 070e 4dbd dd01 26bd
-0.012594127 -0.014930726 -0.00837379 0.02999903 -0.027008088 -0.06911921 -0.118544884 0.026069894
-0.017957058 -0.108421825 -0.009853388 -0.043685757 -0.14394309 0.014199271 0.0056911125 -0.055745807
-0.057614073 -0.02010292 0.008454666 -0.06491047 -0.0045413533 -0.08019996 -0.049825784 -0.06512754
-0.037151113 -0.023149371 -0.030421995 0.005029283 -0.012851496 -0.081548035 -0.050062206 -0.04052912

module.encoder.c2.main.0.weight f4 [64, 32, 3, 3]
00000000: cbe6 92bb bbc0 f6bb 4d05 533d 7e81 9d3b
00000010: a74d babb e714 f33b a0d0 033d b7f0 a5bc
00000020: 84b8 c13c b9aa 2e3b bc46 00bc 52ab 11bd
00000030: 3f7c 913c 4e05 ceba 1f56 1abb aa5e 383d
00000040: 9fd5 2c3d a0b2 a73b 80d3 1d3d 0d07 88bc
00000050: 2e0a 3ebc f151 113c e276 47bc 6ee2 0c3d
00000060: 4253 c2bc 26bc 283c 14a5 053d 75bb d73a
00000070: 4799 9239 eac2 c73b 9d21 9139 a2c9 afbc
00000080: a11e 543c 0ac2 9dbc b8f0 e3bc be5a 77bc
00000090: 1efe 85bc 93cc f03c 2fd5 4abc 890b b03c
000000a0: 4b20 923d c7e9 933c dd8b dfbc b328 203d
000000b0: 6ece 933d 1190 7b3a b9e2 293d a565 a7bc
000000c0: 0c63 ce3c e229 b73c 35a8 7dbb c417 043d
000000d0: 2caf 47bc ddc1 3f3c 2cdd 7bbd fcdf 47bd
000000e0: e255 3bbd a6d5 c6bd 492e afbb 0555 7bbd
000000f0: 9314 b5bc 035e 32bd 4646 2abd 0b54 e03b
00000100: 38a2 103d a4ea adbc ce30 71bc c890 f23b
00000110: 5296 583c 6fcb dfbb 1140 f7bb ef3b ec3b
00000120: b8a2 e7bc c4e2 063c 95a4 87bb dc4a 2d3c
00000130: 3965 213d 105e f83a 8449 0ebc 661f 5439
00000140: 06c8 9fbb 5a64 d63c 9f92 ca3b 3a2f a4bc
00000150: cbe2 8fbc 6236 e1bb 64ba e33c 1a6b ddbb
00000160: fe28 0bbc 3c7d 0d3d 3151 943b 84e4 c63c
00000170: fcfe 1ebd 7f2b a13c 6802 9b3c 994b 9a3c
00000180: 4804 823c 2418 323c ced2 aebc 78d7 2ebb
00000190: 18ed 133d a879 083d aaf4 af3c d4b6 6b3d
000001a0: a233 cfbc e39d c5bc 6b2b 173c 31a3 ffbc
000001b0: 32d9 f23b 9009 1e3c 1d30 783d 10d9 b5bc
000001c0: c210 2dbd 98f3 d8ba 780e 373d 60a4 7d3b
000001d0: 6cbc da3b e6cc ebbc bd69 0e3d 69b9 9f3c
000001e0: aca4 3bbb 2347 86bc 87ef 8d3d 59c2 da3c
000001f0: 10c8 d83c 5cd3 cebc 47cd a0bc 9829 d03c
00000200: 88d7 b7ba a977 57bd c9ac 133d 4749 183d
00000210: d551 f1bc f691 43bb 4a60 d7ba 4e46 a2bc
00000220: 1d71 c4bc f414 07bd 95fb 21bd 01db 42bb
00000230: 841f 2d3d c14e 5bb8 39a9 ddbc 3b6e afbc
00000240: 5fee c9ba ba4e bebc bf8e da3c 44a7 2f3c
00000250: 5922 003d 2077 093d 5bb0 e53b 8d78 443d
00000260: d949 183d 0fcb a4bc a30f 223d 91af 5f3c
00000270: 8223 663d 6ded b53c e9fe 103d d998 973c
00000280: 56a4 c23b 67a7 5aba 02ce 88bd 356a 56bb
00000290: ed0a 8cbc 7391 0d3b ed32 a1ba d311 003c
000002a0: 6f76 bebc 3228 53bc 42a5 a13c 2585 e0bc
000002b0: 2cc5 00bd fe7f 67bd 871a 09bd 41da 00bd
000002c0: 98b2 52bb d697 27bd 1af3 93bc d3f2 a4bc
000002d0: 20c4 d0bb 50a4 123d 7972 babb bb5d 05bc
000002e0: cff7 24bd 5ab7 6abd 5b43 eebc da84 39bd
000002f0: 5d4f 76bc 2223 95bd b207 e1bc c921 7bbd
00000300: d35e 47bc e09c 89bc 0f4c 41bd e4b7 053b
00000310: 51c9 82bc 0171 29bc dc30 60bd 8093 11bd
00000320: ff95 083a 45ea 52bd f014 4bbc c367 24bd
00000330: b0a2 b8bc 66cd fa3c d815 a1bb 7e0d 88bc
00000340: 3825 e2bc 2cd5 5a39 68e8 e63c 912c d4bc
00000350: 9389 e2bc eb17 05bc 9e08 68bb bb2b 1c3c
00000360: a962 a0bc a258 353d a443 47bd 5edb b2bc
00000370: 863e 603c 4e6d cabc cd34 15bd a07c 0dbc
00000380: b021 4f3c ae93 ad3c 163c 8a3c 4de5 ea3c
00000390: 5318 22bc a86e 06bd 0e49 433d 0a8c 5f3d
000003a0: f29f 613d aaf3 923d 645c 013d e743 a63b
000003b0: b536 88bc 6280 a93b a188 3637 959b 453c
000003c0: 1437 123d fd1c b83c 2c49 11bb bfab 63bd
000003d0: 90eb 8dbd a4a5 5cbd dd72 15bd bd79 96bd
000003e0: a26d 42bd f198 82bd 4d83 45bd 7a89 0fbd
000003f0: 79af af3c 0abe 39bd b85c babb 8b12 f8bc
-0.004483079 -0.0075302995 0.051518727 0.0048066964 -0.0056855264 0.0074182632 0.032181382 -0.020256383
0.023647554 0.0026652052 -0.007829364 -0.035563774 0.01775944 -0.0015718134 -0.0023549867 0.045012154
0.042195912 0.0051177293 0.03853178 -0.016604925 -0.011599107 0.008869634 -0.01217434 0.034395628
-0.023721341 0.010298764 0.032628134 0.0016459065 0.0002796149 0.0060962336 0.000276816 -0.02145845
0.012946756 -0.019257564 -0.027824745 -0.015097318 -0.016356524 0.029394424 -0.0123799285 0.021489875
0.07135066 0.01805581 -0.027288372 0.039101314 0.07217108 0.00095963577 0.041475985 -0.02043421
0.025193714 0.022358838 -0.0038704996 0.032249227 -0.01218776 0.011703935 -0.061490223 -0.048797593
-0.0457362 -0.09708719 -0.005346094 -0.061360378 -0.022104537 -0.043546688 -0.041570924 0.006845956
0.035310954 -0.02123005 -0.014721109 0.007402513 0.013219433 -0.006829671 -0.007545479 0.007209293
-0.028275833 0.008232776 -0.0041394928 0.01057693 0.039403174 0.0018948931 -0.00868452 0.00020229592
-0.0048761396 0.026170898 0.0061820294 -0.02004205 -0.017564198 -0.006872938 0.027798839 -0.0067571523
-0.00849366 0.03454326 0.0045262803 0.024278887 -0.03881739 0.01967406 0.018922046 0.018834876
0.015871182 0.010870013 -0.021340754 -0.0026678722 0.036114782 0.033319145 0.02147897 0.057547405
-0.025293175 -0.024123138 0.00922666 -0.031205745 0.0074111456 0.009645835 0.06059276 -0.02219823
-0.04225231 -0.0016552089 0.044691533 0.0038702711 0.0066752937 -0.028784227 0.03476881 0.01949759
-0.0028632088 -0.016391343 0.06930452 0.026704 0.026462585 -0.025247268 -0.019629134 0.025410458
-0.0014026025 -0.05260435 0.036053453 0.037179258 -0.029457966 -0.0029841638 -0.0016431895 -0.019808915
-0.023979718 -0.032978967 -0.039546568 -0.0029732587 0.042266384 -5.2287014e-05 -0.02705823 -0.021414867
-0.0015406123 -0.0232309 0.026679395 0.010721032 0.031282756 0.033560872 0.0070095486 0.04796653
0.0371798 -0.020116357 0.039565694 0.013652698 0.056186207 0.02220794 0.03539935 0.0185055
0.0059400005 -0.0008340985 -0.06679918 -0.0032717113 -0.017095054 0.0021601587 -0.0012298502 0.00781675
-0.023249833 -0.012888001 0.019732121 -0.027407238 -0.031438038 -0.056518547 -0.033472564 -0.031458143
-0.0032149907 -0.040916286 -0.018060256 -0.020135319 -0.006371036 0.03580123 -0.0056899157 -0.008140023
-0.04027539 -0.057303764 -0.029084852 -0.045292713 -0.01503357 -0.07282092 -0.02746949 -0.061311517
-0.012168604 -0.016798437 -0.047191676 0.0020403797 -0.015965136 -0.010341884 -0.054734096 -0.035541058
0.00052103394 -0.051492948 -0.012395129 -0.040138017 -0.022538513 0.03061552 -0.004915934 -0.016607996
-0.027605638 0.00020869513 0.028186992 -0.025900157 -0.027653491 -0.008123378 -0.0035405527 0.0095319105
-0.019578295 0.04427398 -0.04864849 -0.021833118 0.013686782 -0.024710324 -0.036427308 -0.00863567
0.012642309 0.021188583 0.016874354 0.028673792 -0.009893495 -0.032820374 0.047677092 0.05457691
0.055084176 0.071753815 0.03158225 0.0050740126 -0.016627649 0.005172775 1.0879857e-05 0.012061019
0.035697058 0.02247476 -0.0022168858 -0.05558371 -0.069296956 -0.053868905 -0.036486495 -0.073474385
-0.047467835 -0.063768275 -0.04822092 -0.035043217 0.021445977 -0.04534725 -0.0056873225 -0.03028228

module.encoder.c2.main.0.bias f4 [64]
00000000: 0b97 db36 b2d6 6336 de87 c736 6d30 03b7
00000010: e18b 4f37 582a 4d35 4730 c433 b98f 3036
00000020: f268 09b6 4529 e636 ca02 2c37 a524 8a36
00000030: 5313 2ab7 1385 c8b6 5a60 ddb5 b83a a436
00000040: 05b7 9b36 854f 0b36 482a 3536 54b9 0637
00000050: cff2 a8b6 a384 9a37 9b0a 94b5 36c3 2c35
00000060: 4224 1636 ebd0 a736 17d7 0536 7ec2 ecb4
00000070: 51bb 1d37 1cb5 3e37 b7b6 b136 75e9 86b6
00000080: 67b7 01b7 1071 9937 9d5c 3b36 ea47 0537
00000090: c080 3235 2fa3 7735 1d8a 9335 fe4e 0036
000000a0: cddf 5437 92cc 4cb6 8967 5636 b26b ddb6
000000b0: 737e d1b6 8fa5 23b7 cf91 9036 2299 2636
000000c0: 6bf8 5bb6 4ae5 0537 ad43 b736 af70 b4b6
000000d0: 1654 9836 550f 0bb7 a4df b936 038e 1ab6
000000e0: e0f7 3136 bd20 1c37 a00a ab37 0ce3 0837
000000f0: ce1e d336 ecea 9fb7 4f7a 4bb5 fe95 fe35
6.5442923e-06 3.3950605e-06 5.946479e-06 -7.8194835e-06 1.237073e-05 7.643007e-07 9.135743e-08 2.6309701e-06
-2.0475677e-06 6.8593386e-06 1.0252648e-05 4.1169865e-06 -1.0137289e-05 -5.9759564e-06 -1.6493825e-06 4.8944166e-06
4.6406662e-06 2.07589e-06 2.6995713e-06 8.0301725e-06 -5.035057e-06 1.8419994e-05 -1.1029946e-06 6.435906e-07
2.2372847e-06 5.001309e-06 1.9943743e-06 -4.4099937e-07 9.401542e-06 1.136705e-05 5.296282e-06 -4.020689e-06
-7.731701e-06 1.829167e-05 2.791908e-06 7.944162e-06 6.6497523e-07 9.2252134e-07 1.099255e-06 1.9119466e-06
1.2688292e-05 -3.0517444e-06 3.194875e-06 -6.5988506e-06 -6.243406e-06 -9.754104e-06 4.308509e-06 2.4825063e-06
-3.2778141e-06 7.980803e-06 5.4617035e-06 -5.377536e-06 4.539742e-06 -8.288615e-06 5.539465e-06 -2.303045e-06
2.6519338e-06 9.305947e-06 2.0389736e-05 8.159095e-06 6.291876e-06 -1.9063671e-05 -7.5801375e-07 1.8968128e-06

module.encoder.c2.main.1.weight f4 [64]
00000000: c550 7f3f 64a9 863f c1f9 783f beaf 823f
00000010: b55b 813f e9f1 7b3f ac8e 723f 5de9 743f
00000020: b385 843f 8c5f 7b3f 9950 833f 4232 833f
00000030: 8728 763f f883 7f3f c14b 6f3f d5ed 823f
00000040: 9b26 783f 8f52 763f 7aa7 843f 5f5c 833f
00000050: fc10 7f3f 36c4 783f 8436 873f d403 803f
00000060: 6069 843f 271a 763f 2b14 793f 201d 853f
00000070: d0f1 763f b939 803f 102a 843f 4bf8 7e3f
00000080: fe37 7b3f 0088 873f aa40 7e3f 0eb7 803f
00000090: 80cd 813f e579 743f e8e4 7a3f 5eaf 733f
000000a0: b9f4 843f ce97 803f 8d28 733f dda4 7f3f
000000b0: af6e 7c3f a25a 733f 4353 7d3f c3e9 713f
000000c0: 55d8 853f c09c 883f 72bc 803f 9da8 783f
000000d0: 40db 753f 7bba 7c3f ff66 7a3f 78bb 863f
000000e0: 953f 753f 69d6 753f e583 813f 5509 803f
000000f0: 41c9 7a3f 5c1b 7e3f a0be 833f fb65 793f
0.9973262 1.0520444 0.97256094 1.0209882 1.0106112 0.98416 0.9474895 0.95668584
1.0353302 0.9819267 1.0258971 1.0249712 0.9615559 0.99810743 0.93474966 1.022883
0.9693391 0.96219724 1.036361 1.0262564 0.9963529 0.97174394 1.0563512 1.0001168
1.0344658 0.96133655 0.972964 1.0399513 0.96462727 1.0017616 1.0325336 0.99597615
0.9813231 1.0588379 0.9931742 1.0055864 1.0140839 0.95498496 0.98005533 0.95189464
1.0387183 1.0046327 0.9498375 0.99860936 0.9860639 0.9506017 0.9895517 0.9449732
1.0456644 1.0672836 1.0057509 0.97132283 0.96037674 0.98722047 0.9781341 1.0525961
0.95800143 0.9603029 1.0118376 1.0002848 0.9796334 0.992605 1.0292549 0.97421235

module.encoder.c2.main.1.bias f4 [64]
00000000: a62c 57bd 48f2 b1bd 0493 34be 4414 d3bd
00000010: 2399 87bd 6f4e b6bd 2dbb f9bd 4990 07be
00000020: 348d 9fbd e728 c3bd 2795 f3bd fa3e eabd
00000030: 6a51 fbbd 8aec b8bd 5e76 5dbe 94b4 b8bd
00000040: c302 afbd 18ae 12be 2ff3 91bd 74cc 27be
00000050: 38fd 3abe 4e35 70bd 3e36 97bd bc35 cbbd
00000060: 700b c1bd 2c58 13be 0139 17be 8162 7abd
00000070: d3e6 39bd 0ea2 09be 0668 e4bd 8117 5abe
00000080: 2450 36be 772f 69bd a7bd f9bd b4b8 80be
00000090: e38e b8bd 8a3b bcbd 6906 aabd 890f 28be
000000a0: d134 acbd ae65 d7bd 2b79 b0bd c145 03be
000000b0: 2b02 6abe c063 07be cba2 02be 51e5 05be
000000c0: 2b01 3abd 6970 37bd 3b77 b8bd ee53 1ebe
000000d0: 72ce a1bd afab 5bbe 01ec a7bd 7244 aabd
000000e0: 0869 a8bd 135a 26be 142d bcbd 9e0c 01be
000000f0: d073 4dbd b9ed 85bd 41de a1bd 8f29 7bbd
-0.052532814 -0.086887896 -0.17634207 -0.103066 -0.066210054 -0.08901679 -0.12193904 -0.13238634
-0.07790604 -0.09529286 -0.11893683 -0.11437793 -0.12271388 -0.09029491 -0.21627185 -0.090188175
-0.08545449 -0.14324224 -0.07126462 -0.16386586 -0.18260658 -0.058644585 -0.07383393 -0.099223584
-0.0942601 -0.14389104 -0.14767839 -0.061129097 -0.045386147 -0.13440725 -0.111526534 -0.21298029
-0.17804009 -0.05693003 -0.121943764 -0.25140917 -0.090116285 -0.09191044 -0.08302004 -0.16412176
-0.084085114 -0.10517441 -0.08616861 -0.12819578 -0.2285239 -0.13221645 -0.12757413 -0.13075759
-0.04541127 -0.044784937 -0.090071164 -0.15461704 -0.079007044 -0.21452211 -0.08199311 -0.08313836
-0.08223158 -0.16245298 -0.091882855 -0.1260247 -0.050159276 -0.065394826 -0.0790372 -0.06131893

module.encoder.c2.main.3.weight f4 [64, 64, 3, 3]
00000000: 0931 893c 336a 743b 8152 a1bc 5f24 3c3d
00000010: 6527 98bc 3f5c 90ba 5353 3b3c 7a75 27bc
00000020: 8997 a6bb 772c 1f3b 5cf6 e53c 32ea d03c
00000030: 39b7 4fbc 8445 a2b9 b954 b03b 43a0 64bd
00000040: 0af6 ffbc 9202 453c 8c5b 86bc 8eca 2dbc
00000050: 9641 14bd 1769 a13c b37e 4bbc 7618 c8bb
00000060: 73c0 1d3d 6445 d03b 19f9 d93b ce64 dc3a
00000070: c04a e63c f5c0 68bc 0875 97bc 5f52 13bd
00000080: d69b 7dbd dc62 193d 9b5d 0e3d a099 e93c
00000090: 0e17 723d 28f1 583d b433 003c 7956 babc
000000a0: d518 6f3c 9fac 64bd cd48 0dbc 1688 0a3d
000000b0: fd04 65bc 2ff1 78bd 53f5 703c f417 8cbd
000000c0: c090 8f3c d2cf 7cbb 8a8b 3cbb cd27 703c
000000d0: 3d13 6abc 5b62 cebc 43cb df3c 274f 063c
000000e0: 3b16 343d 2a7b e9bc 3288 49bc 2dd8 063d
000000f0: 723b 013c 43aa 833c 7df0 903c a0e2 a8bc
00000100: 788c 10bd fcd5 09bd bff6 bf3c bbf4 aa3c
00000110: 7eff 173b 4a49 043d cff1 adbc 40c9 babc
00000120: ad98 533d 7fa2 253d 463d 793c dd8f c5bc
00000130: c009 f4bc 3a99 7abd 842b da3d d0bf 8a3d
00000140: 606d 033d b32a 663d 04f1 6c3d 61a9 0b3d
00000150: 4cb6 84bd cae8 b2bc 1d04 0abc eaab d7bc
00000160: e7b9 1dbd 7ea7 643c f97e af3c dfbe 353c
00000170: 9da3 3ebd 5d90 873a 6ef3 c5bd 9968 e3bc
00000180: c9b9 a0bd 9edc d9bc ea39 7cbc e932 033d
00000190: 63cd e13c a4b1 0c3c 677d e33b d137 aa3c
000001a0: a84c 083c c381 37ba cbc1 933c aee7 5d3d
000001b0: 557d fe3b f927 373d 1a81 313c ba3c fbbb
000001c0: 7b84 93bc 8475 bfbc c0d2 543c 8029 3dbd
000001d0: db76 8cbd 50c2 0bbd c85f 46bc 7a80 8dbc
000001e0: a23b ba3b 4fcc a0bc b99e 65bd 8cf3 26bd
000001f0: aaf0 8fbc 872c 00b9 f6a7 72bd 25ee 85bd
00000200: 8187 0ebd d3c0 a1bd 3cb4 15bd fdab 99bd
00000210: 41e6 923c d16f 8e3c fd7a 1a3c 1ff4 43bd
00000220: c82c 19bd b21a 6dbd 19d6 f73b c82f 27bd
00000230: 12c3 c0ba cc3e 6ebb f589 eebc 88f6 833c
00000240: af1c 5e3c 1cdf c2bc f745 d93c 6b6e a43b
00000250: 55c0 0a3d 4f55 af3d f1a1 7bbb 9742 8abc
00000260: bdaf 2ebc cddd 653d d40c 9f3c 5c77 8d3d
00000270: 8dc3 b83b 7dfb 503c dcf4 973c 0ecb 8cbd
00000280: 6803 c8bc d9fb fdbb d80a e0bc af72 123d
00000290: fe59 dc3b ed24 00bc 4ee8 193c 9536 95bc
000002a0: 5bb5 1cbd d498 8bbc eb8a 273c 1826 e03c
000002b0: 1090 593c 40b1 bc3c eded c9bc 9280 243d
000002c0: 9b1f 4cbd 65f2 9cbc 0ef9 49bb 1b2c a1bb
000002d0: 8386 283c e6ef ea3c 01df 523c 9264 c5bc
000002e0: 358a 7cbc 5731 41bd e00f 8cbb 32b4 d7bc
000002f0: ad89 aa3b b4b3 18bd 52da 873c d535 3c3b
00000300: dfdd d83c d636 4ebc 352d b33b 7fb2 d1bc
00000310: f74c bbbb c514 283d a7ba 04bd e055 343d
00000320: 1526 053d 74f7 803c d45b 20bc c0e1 8bbc
00000330: 0d3c 943c c452 b63d c04c 7cbc 4a31 cebb
00000340: f396 503c 0e1e d23c 781e 88bc a08c 43bc
00000350: abc9 57bc 5f89 0bbd 5a85 99bc 2c0c 7f3c
00000360: 118a e5bc 6c3a 4abd 978a 2bbd 170b fcb9
00000370: cf04 25bc 2512 c4ba 373c 0dbd 240e b73c
00000380: 3bcd 5ebc c9b3 d139 120a 833c 36b8 deb8
00000390: ed56 cebc 142c 4abd 9861 033d 188e 13bd
000003a0: 00bc d1bc ec79 0ebd f7ea 2e3c c3f6 693b
000003b0: d634 83bc ae2b 053d 8e11 1e3d e762 883c
000003c0: cea3 2c3c 9d66 3ebc dd56 8b3c 885a 013d
000003d0: 0183 143b bc9e 4e3d 01a9 a23c d31c bfbc
000003e0: 815c 63bc b71f 673d b6bd 543d 5fef 24bc
000003f0: a496 d33c e4fb 7abc 0a18 ebbc e877 57bd
0.016747015 0.0037294745 -0.019692661 0.045933124 -0.018573472 -0.001101382 0.01143344 -0.01022088
-0.0050839824 0.0024287978 0.028071575 0.025502298 -0.012677961 -0.0003095084 0.0053811935 -0.0558169
-0.03124525 0.012024539 -0.016401075 -0.010607375 -0.03619536 0.019703431 -0.012420344 -0.0061064316
0.038513612 0.0063559283 0.006652009 0.001681471 0.028111815 -0.014206161 -0.018488422 -0.035967227
-0.061916195 0.037447795 0.034757238 0.028515637 0.059104018 0.05296436 0.007824827 -0.022746312
0.014593323 -0.055828687 -0.008623314 0.033821188 -0.01397824 -0.060776886 0.014706927 -0.06840506
0.017525077 -0.003857602 -0.0028769695 0.014657927 -0.014286813 -0.025193384 0.027318602 0.008197582
0.043966513 -0.028501112 -0.012300538 0.032921005 0.007887708 0.016072398 0.017692799 -0.020615876
-0.03529021 -0.033651337 0.023433087 0.02086865 0.0023193057 0.032296456 -0.021233467 -0.022801042
0.051659275 0.04043817 0.015212363 -0.02411645 -0.029789805 -0.061181284 0.10652831 0.067748666
0.03208673 0.056193065 0.057847038 0.03409708 -0.06480083 -0.021839518 -0.008423832 -0.026327092
-0.03850737 0.013955949 0.02142285 0.0110928705 -0.046542753 0.0010342706 -0.09665571 -0.027759837
-0.07847936 -0.026594456 -0.015394667 0.032030974 0.027563756 0.008587275 0.0069424394 0.020778568
0.0083190575 -0.0007000232 0.018036744 0.054176025 0.0077664056 0.044715855 0.010834003 -0.0076671513
-0.018007508 -0.023371466 0.0129897 -0.046182156 -0.068586074 -0.034120858 -0.012107797 -0.017273176
0.0056833783 -0.019628672 -0.056059573 -0.04075961 -0.017570812 -0.00012223619 -0.05924221 -0.06539563
-0.034797195 -0.078981064 -0.036548838 -0.07503507 0.01793206 0.017387303 0.009428737 -0.047840234
-0.037396222 -0.057886787 0.007563364 -0.040817052 -0.0014706573 -0.0036353348 -0.029118517 0.016108766
0.013556643 -0.023788027 0.02652262 0.0050180457 0.03387483 0.08561193 -0.0038396085 -0.016877456
-0.010662016 0.05611973 0.019415297 0.069075316 0.005638546 0.012755272 0.018549375 -0.06874667
-0.024415687 -0.00775097 -0.02734892 0.035753902 0.006724595 -0.007821304 0.009393765 -0.018214503
-0.03825889 -0.017040648 0.010225992 0.027361915 0.013278976 0.023033738 -0.024649585 0.040161677
-0.04983483 -0.019158551 -0.0030818614 -0.004918588 0.010285976 0.028678846 0.012870551 -0.024095807
-0.0154138105 -0.047166195 -0.0042743534 -0.026331041 0.0052044005 -0.037280753 0.016583595 0.002871861
0.026472984 -0.012586316 0.0054680356 -0.025597809 -0.005715962 0.041035432 -0.032404568 0.04402721
0.03250702 0.015742995 -0.0097875185 -0.01707542 0.01809504 0.08902505 -0.015399158 -0.006292497
0.012731302 0.025649097 -0.016616091 -0.011935383 -0.01317064 -0.034066554 -0.018740345 0.015566867
-0.028019937 -0.04937212 -0.041880216 -0.00048073448 -0.010071947 -0.0014959021 -0.034481253 0.02234561
-0.013598735 0.00039997537 0.015996013 -0.00010620097 -0.025187934 -0.049358442 0.032075495 -0.036024183
-0.02560234 -0.034784243 0.010676137 0.003570006 -0.016016405 0.03251236 0.03859096 0.016648723
0.010537101 -0.011621145 0.017009193 0.031580478 0.0022661092 0.05044435 0.019855978 -0.023329174
-0.013877035 0.05642673 0.051938735 -0.010066836 0.025828667 -0.0153188445 -0.028697986 -0.052604586

module.encoder.c2.main.3.bias f4 [64]
00000000: 913b 81b6 cc39 ecb5 5856 9835 44b9 2336
00000010: ea0c 8137 ce43 dbb5 b25f 9ab4 e4ce 3736
00000020: ef1a 8ab6 28f8 a936 7597 ed35 e7de 2935
00000030: 7fea 27b6 25ab 91b5 fe2d af35 595c beb6
00000040: b3f5 0e36 764c df35 5c3a 70b5 487f 7cb6
00000050: acfc 9ab6 1a97 80b4 fbb2 3b36 0039 e3b5
00000060: 7cc1 d5b5 fee1 32b4 e21d abb6 37a2 84b5
00000070: 4c27 bb34 ea7f bab3 c218 f936 bb66 85b5
00000080: 6a7a f0b6 5403 0d36 9f2c 3b34 138a 67b6
00000090: 55c9 2636 adf5 53b5 1016 b8b6 3201 6336
000000a0: 832c b034 c88b 7236 14fb 3c36 232b 7735
000000b0: 9322 e5b5 bee0 dd36 aa1a 75b6 a1bf 65b5
000000c0: cbad d435 df8b fab5 a7fe 20b4 8ce9 dcb6
000000d0: 5a61 c4b5 d45e 7836 6eb7 42b6 b850 03b7
000000e0: ac44 fe35 e57a 16b6 ab47 a635 be6a c8b5
000000f0: 391c 5a36 6a89 c334 92fd 4eb6 5428 4db5
-3.851434e-06 -1.7600191e-06 1.1350012e-06 2.4396732e-06 1.5384012e-05 -1.6336505e-06 -2.8754363e-07 2.7389551e-06
-4.115856e-06 5.0654817e-06 1.7701956e-06 6.328177e-07 -2.5021434e-06 -1.0853151e-06 1.3051902e-06 -5.673192e-06
2.1302665e-06 1.6637048e-06 -8.949189e-07 -3.7625014e-06 -4.6189725e-06 -2.39518e-07 2.7969352e-06 -1.6929407e-06
-1.5926048e-06 -1.6659757e-07 -5.099676e-06 -9.881977e-07 3.4860057e-07 -8.6845674e-08 7.4236605e-06 -9.939171e-07
-7.1668082e-06 2.1012575e-06 1.7431965e-07 -3.4502052e-06 2.4853118e-06 -7.896113e-07 -5.4861957e-06 3.3826332e-06
3.281494e-07 3.6142173e-06 2.816033e-06 9.207744e-07 -1.7071892e-06 6.6124767e-06 -3.6523365e-06 -8.5588005e-07
1.5845811e-06 -1.8667159e-06 -1.4993803e-07 -6.5836994e-06 -1.4631471e-06 3.7010077e-06 -2.9015023e-06 -7.827002e-06
1.8944461e-06 -2.2423276e-06 1.2388822e-06 -1.4932227e-06 3.250096e-06 3.6421562e-07 -3.084399e-06 -7.6427136e-07

module.encoder.c2.main.4.weight f4 [64]
00000000: 0088 843f 91ba 783f e030 8a3f a873 833f
00000010: ba32 7f3f 3df6 813f fbf3 793f f587 813f
00000020: 8557 7e3f b74f 7d3f 1426 7f3f 118c 823f
00000030: 4b1f 823f 5dd5 7e3f 93a0 7d3f 87f7 7d3f
00000040: db47 7d3f 83ed 793f 8736 793f 72bb 763f
00000050: 446a 813f 03ca 7f3f 33a3 7f3f c94c 833f
00000060: a572 7d3f 5a7b 7a3f 4dc2 7d3f 2ff5 813f
00000070: 277f 823f 2656 803f fa48 7d3f f0fb 793f
00000080: d361 813f e82f 7c3f e51d 843f dd82 853f
00000090: 70e8 823f 4d84 813f 8def 7a3f 9dff 813f
000000a0: 551d 7b3f 752f 823f 91ff 793f 45c6 7f3f
000000b0: dc3d 793f 3c00 803f 8f60 843f 86d8 7e3f
000000c0: 883f 813f 1a78 793f 75f5 793f afeb 7d3f
000000d0: f4ea 813f 584b 803f 7f55 7b3f 7169 7d3f
000000e0: 708f 803f d676 803f 8a9b 713f d8d9 843f
000000f0: 2292 783f dc4e 833f 23ee 823f 12c3 853f
1.0354004 0.9715968 1.0796165 1.026967 0.9968678 1.0153271 0.9763791 1.0119616
0.99352294 0.9894976 0.9966748 1.0198995 1.01658 0.99544317 0.9907314 0.9920582
0.9893777 0.9762804 0.9734883 0.9637977 1.0110555 0.9991762 0.998584 1.0257808
0.9900306 0.9784447 0.99124604 1.0152949 1.0195054 1.002629 0.9893948 0.9765005
1.0107979 0.985106 1.0321623 1.0430561 1.0227184 1.01185 0.98021775 1.0156132
0.9809163 1.0170733 0.9765559 0.9991191 0.97360015 1.0000072 1.0341967 0.9954914
1.0097513 0.97448885 0.9764016 0.9918775 1.0149827 1.0022993 0.9817733 0.98989016
1.0043774 1.0036266 0.9437796 1.0378981 0.9709798 1.0258441 1.0228924 1.0450156

module.encoder.c2.main.4.bias f4 [64]
00000000: 0774 63bd a2a6 f0bd cb68 65bd 490c 95bd
00000010: 35d8 7cbd 22ec ecbd 95b2 f8bd 79b0 babd
00000020: f111 16be b9b2 babd dd8d d0bd c9ff 86bd
00000030: 791e 05be 8609 70bd 989b 5bbd 9357 8bbd
00000040: 1e8f 79bd df1e 34be 3993 ddbd a567 febd
00000050: 0f72 39be 14ab 37be 19b2 21be 5dbd 63bd
00000060: 3c42 00be d302 dcbd d3aa b5bd b22e 10be
00000070: 7f5d 45bd e8f1 a3bd cbbd 4dbd 563e c6bd
00000080: 306d 11be b441 a1bd 4e6c d2bd ad99 7fbd
00000090: d6ec acbd 0613 b7bd 86ad a2bd f9af bdbd
000000a0: ba85 37be 2dc3 50bd ac59 debd f2a9 8fbd
000000b0: f936 29be 4af8 bdbd ab14 87bd d887 bebd
000000c0: 58fd dcbd 995f ddbd c312 e3bd 91df 87bd
000000d0: 5ecc f8bd 418d 1ebd 45fe 00be 0a9e 2abe
000000e0: 193c 96bd f912 20be 5aa5 04be 342a c3bd
000000f0: e417 07be 55e5 fbbd 060a f5bd bca6 8bbd
-0.055530574 -0.11750533 -0.05600814 -0.07277734 -0.06172963 -0.11568476 -0.12143437 -0.09115691
-0.14655282 -0.0911612 -0.10183308 -0.06591756 -0.12999906 -0.058602832 -0.053615183 -0.06803813
-0.060927503 -0.17589901 -0.10819096 -0.124221124 -0.18109916 -0.17936355 -0.15790595 -0.055600513
-0.12525266 -0.10742726 -0.08870473 -0.14080313 -0.048184868 -0.08005124 -0.05022983 -0.096798584
-0.14201808 -0.0787386 -0.10274564 -0.062402416 -0.0844361 -0.08939175 -0.07943253 -0.0926208
-0.17922106 -0.050967384 -0.10856947 -0.07014836 -0.16524877 -0.09275873 -0.06595739 -0.09303254
-0.10790509 -0.108092494 -0.11087563 -0.06634439 -0.12148355 -0.03870893 -0.12596996 -0.1666185
-0.073356815 -0.15632237 -0.12953702 -0.09529534 -0.13192707 -0.12299601 -0.119648024 -0.068189114

module.encoder.c3.0.weight f4 [32, 64, 3, 3]
00000000: ecc4 353c 90ff 993b 440d d53c 0b58 3d3c
00000010: 3614 ffbc 1eb1 82bc 2d48 0b3d fb7b 583d
00000020: 9bea 0a3c c7fd 393c 133b 0b3d 946f 11bc
00000030: ef6d dd3b 8d12 05bb ca50 a9bc 8a8d 2dbd
00000040: 5b65 47bc 02e6 a6bc b11a 07bd 3ed1 d2bc
00000050: 513a 82bc 7af2 863d 933f a13c 066c 6a3d
00000060: e9b1 c33c fdf2 213d b8b7 bebd 9c12 4dbd
00000070: eaff 87bd 994d 02bd 5548 6b3d ec8a 27bc
00000080: 3b42 8b3c c357 f43c e413 48bb c995 eb3c
00000090: 2b73 7ebc f127 65bb 45a8 4bbd 48d8 2dbc
000000a0: b581 443d 4371 f23c e45b b3bc 0127 1b3c
000000b0: 04d9 d6bb 8bb5 0e3c af7d 2f3d b5e7 95bc
000000c0: 22de f33c 2686 e6bc 789a 4f3c a29f babc
000000d0: aba0 703c 0adf e1bc c96f c1bc c5c3 47bc
000000e0: 35d7 2fbd f755 30bd 8dca b4bc 0543 43bd
000000f0: cead fd3c 80db 053d 425d 273d 1eeb d13b
00000100: 6984 7c3d 4423 1e3d 1756 22bd 528f 283d
00000110: 3d76 9cbc 3975 a93c 372b f0bb 7a4e fb3c
00000120: d0ff 93bc 2cf7 25bc b163 6abc 693d 63bd
00000130: 38a2 10bd 49af 173c de6c b7bb 5a2d 0a3d
00000140: ffc4 6c3d 766c 80ba 0d19 0dbb 5394 8fbc
00000150: 4804 4639 2dc9 863c eafc 493c 176a b4bb
00000160: 5305 0a3d 66c2 523c d38b c9bc 41a2 eb3c
00000170: 8256 1fbd 31c5 73bc 6c73 ef3c 0c17 01bd
00000180: 165a 7cbc 90e4 163d e69d 1a3c a8d7 08bd
00000190: 366e 333d 5019 6b3d cae3 463d f1d2 933d
000001a0: 1b6f b03d 063b 1a3d 82ab 81bc f02e 013c
000001b0: 9bc8 12bc 4fac adbb 1a95 9abb e43f 74bd
000001c0: a67c 1bbd e19d a839 1b2f 35bc 7d4b 78bc
000001d0: 9c46 bd3c 686b e03c 4a5f 95bc 2806 003c
000001e0: 9b7f 3d3d 8481 233d b228 683d 0413 8b3a
000001f0: 642b 15bb e4ed d7bc 10ab 3dbd e9a9 25bc
00000200: 023f 9abc 1129 23bc a6d6 a33c 947e 12bc
00000210: ee5d b3bd 361f 07bc ae55 37bc 1323 57bc
00000220: 3dd2 80bc edd0 783c cffb 383d 7932 bd3c
00000230: 2a74 b4bb 97f7 c73c 3d95 ad3c 2d67 01bd
00000240: 706b c03c fce8 f53b 539f 2abc 23de c0bc
00000250: d0e4 b8bc fedf 0fbc 7bba 5f3d e684 083d
00000260: 8c31 603d 4efd 38bc 742f 713c c842 fcbb
00000270: ece4 73bb 55f5 813d 8bcd 26bd 07a4 2a3d
00000280: 5edc 8d3c 61e8 7fbd c3ad 20bc 9e37 073d
00000290: 4ead a53b 6dc0 b1bc 6386 99ba a036 8f3b
000002a0: cafd 87bd 3bac 723c 4057 82bd 95a6 05bd
000002b0: 1c33 34bb 1a5e 133c 2bd8 b1ba 6de4 053c
000002c0: 0ae9 b83c 988f fcbb 96ba 8f3c 469d 6d3c
000002d0: d41b b43b 673e 983c 98c7 49bc 943d 813d
000002e0: 42a3 0b3b 7c68 a6bc ef36 7abd e3ef e03b
000002f0: d29a 49bd 0a6b 9e3c 4ec4 cfbb 7256 a7bb
00000300: 593c c63c 0560 3fbc f57f d4bc ad98 5e3b
00000310: 012c 923c d283 dd3b e1d0 01bd 8f93 78bd
00000320: fa17 99bb 9adc 133d 6b71 abbc 4c3b d63c
00000330: c0db 70bb 1d29 17bd 7688 07bd ac97 45bd
00000340: 23ba 9bbd 4080 d7bd 60c4 833c aee5 b4bb
00000350: 1c17 20bd 9e8a 883c 4bbd 22bd 5132 173d
00000360: a3c4 60bd 5099 0abd 3d22 f63c 8b9a 2cbd
00000370: dc93 41bc 3cd9 13bd 931d 3bbd d328 1ebd
00000380: 9809 a1bc 17f5 503c f8e0 d9bc 037a bf3c
00000390: 64d4 643d 2ce7 193c 16fe 2bbc 10db 0cbb
000003a0: 4857 783a a006 49bd ee41 74bd 2f09 96bd
000003b0: 38b2 113d ae2b 98bc 9b47 5b3c 7a27 3a3d
000003c0: 334d adbb d6a7 4e3d c2a6 b23d e37b b73d
000003d0: a5b8 db3b 4f85 0d3d 6f80 26bd 52a7 203c
000003e0: 8e57 c9ba 5b0d 9ebb 7cf9 89bb 4d88 7abc
000003f0: 87f9 cfbd 9b1c 89bc e344 5dbc ba4d b7bd
0.011094313 0.004699655 0.026007302 0.011556636 -0.031137567 -0.015953597 0.03400438 0.052852612
0.008478786 0.011352009 0.033991884 -0.0088767 0.00675749 -0.0020305247 -0.020668406 -0.04237131
-0.012170161 -0.020373348 -0.03298444 -0.02573454 -0.015896948 0.065892175 0.019683635 0.057231925
0.023888545 0.039538372 -0.09312385 -0.050066575 -0.066406086 -0.031812284 0.057442028 -0.010225993
0.016999355 0.029827004 -0.0030529434 0.028757947 -0.015530388 -0.0034966434 -0.04972102 -0.0106106475
0.04797526 0.029595023 -0.021894403 0.0094697485 -0.006556632 0.008710275 0.04284447 -0.018298963
0.029769007 -0.028140139 0.012671106 -0.022781197 0.014686744 -0.027572174 -0.023612874 -0.012192671
-0.042929847 -0.043050732 -0.02206924 -0.047671337 0.030966666 0.032680035 0.040860422 0.006406202
0.061649714 0.03860785 -0.039632883 0.041152306 -0.01909935 0.020685779 -0.0073293704 0.030677069
-0.018066317 -0.010129731 -0.014305995 -0.055478487 -0.035310954 0.0092581 -0.005597695 0.033734657
0.057805058 -0.0009797949 -0.0021529824 -0.017526781 0.00018884346 0.01645335 0.012328366 -0.005505811
0.033696484 0.012863731 -0.024602806 0.028763892 -0.03890086 -0.014878557 0.029229842 -0.03151612
-0.015402338 0.036839068 0.00943706 -0.03340879 0.043806277 0.057397187 0.04855708 0.07217968
0.08614942 0.037653945 -0.015828852 0.007884726 -0.008958961 -0.005300082 -0.0047174813 -0.059631243
-0.03796067 0.00032161086 -0.011058594 -0.015154717 0.023104958 0.027394965 -0.018233914 0.007813968
0.046264272 0.039918438 0.056679435 0.0010610525 -0.0022761459 -0.026358552 -0.046305716 -0.0101113105
-0.018828873 -0.009958521 0.019999813 -0.008941311 -0.0875815 -0.008247187 -0.011189861 -0.013130921
-0.01572525 0.015186531 0.04516202 0.023095356 -0.005507012 0.024410052 0.021189326 -0.031592537
0.02348873 0.0075045805 -0.010413962 -0.023543423 -0.022570044 -0.008781431 0.0546212 0.033329867
0.05473475 -0.011290861 0.014720786 -0.0076983906 -0.0037215305 0.063456215 -0.040723365 0.041660335
0.017316993 -0.062477473 -0.009807053 0.033012025 0.00505606 -0.021698201 -0.0011713024 0.0043705255
-0.06640203 0.014811571 -0.06364298 -0.032629568 -0.0027496284 0.0089946035 -0.0013568451 0.008172137
0.02257206 -0.0077075474 0.017545026 0.014502829 0.0054964814 0.018584443 -0.012315653 0.06310573
0.0021307026 -0.020313494 -0.061087545 0.006864534 -0.049219914 0.01933815 -0.00634054 -0.0051067406
0.024198698 -0.011680608 -0.02593992 0.0033965514 0.017843248 0.006760099 -0.031693343 -0.060687598
-0.0046720477 0.036099054 -0.020928105 0.026151322 -0.0036752075 -0.036904443 -0.033089124 -0.04824035
-0.07603862 -0.105225086 0.01608485 -0.005520544 -0.03908454 0.01666766 -0.039731305 0.03691322
-0.054875027 -0.033837616 0.030045623 -0.04213957 -0.011815038 -0.036095843 -0.0456825 -0.03861315
-0.019657895 0.0127537465 -0.026596531 0.02337361 0.055866614 0.009393495 -0.0104975905 -0.0021492876
0.0009473455 -0.049078584 -0.059633188 -0.073259704 0.035570353 -0.018575516 0.013383771 0.045447804
-0.005288744 0.05045303 0.08723213 0.089591764 0.006705361 0.03455096 -0.040649828 0.009805517
-0.0015361176 -0.0048233694 -0.004210649 -0.015291286 -0.101550154 -0.016737273 -0.013505193 -0.08950372

module.encoder.c3.0.bias f4 [32]
00000000: 882f 3a35 070e 8435 2ea6 1234 70f2 a035
00000010: 1135 c3b3 6232 aeb4 7f09 26b4 cc80 da35
00000020: d4cf 34b5 fd39 deb4 8dfb a835 8d20 0935
00000030: 0d71 3035 60a6 10b5 b56f 2634 5d64 f733
00000040: 6d6c e634 2d92 4b35 888f 9eb5 e38b 9ab3
00000050: 3be3 2a34 d3cb 84b4 bd56 2d33 76a4 ff34
00000060: db5f 85b5 75b1 32b5 2f8a 0736 27e7 98b5
00000070: 96b3 a6b4 843d 60b4 d944 2236 5a68 88b5
6.9359567e-07 9.838849e-07 1.3657765e-07 1.1991488e-06 -9.090048e-08 -3.2446684e-07 -1.546341e-07 1.627975e-06
-6.7357655e-07 -4.1392914e-07 1.2590186e-06 5.1083845e-07 6.572962e-07 -5.388629e-07 1.5500594e-07 1.152009e-07
4.2919729e-07 7.5836107e-07 -1.181369e-06 -7.196629e-08 1.591515e-07 -2.4735218e-07 4.035859e-08 4.7617112e-07
-9.93717e-07 -6.65684e-07 2.0197e-06 -1.1392157e-06 -3.1050575e-07 -2.0884005e-07 2.4179956e-06 -1.016316e-06

module.encoder.c3.1.weight f4 [32]
00000000: 74d6 a43f ad4e a03f db60 923f 78a2 963f
00000010: 66a0 953f 7b58 903f 4b08 863f 72dd 933f
00000020: 992a 903f 8975 963f a51e 943f 59a7 a13f
00000030: 394b a03f 7110 9d3f 380b 9f3f f908 983f
00000040: e5f7 8c3f a20c 933f 1e60 9a3f 2c13 a23f
00000050: 48af a33f 890e 973f 45bb a13f ac93 a03f
00000060: 71ab a33f fbd7 963f adda 963f af9c 913f
00000070: 571a 973f d4cc 9e3f d0c9 9d3f 68c2 9b3f
1.2877946 1.252401 1.1435808 1.1768332 1.1689575 1.1277002 1.0471281 1.1551955
1.1263 1.1754619 1.1571852 1.2629195 1.2522956 1.2270643 1.2425299 1.1877738
1.1013151 1.148823 1.2060583 1.2662101 1.2787867 1.1801311 1.2635275 1.2545066
1.2786695 1.1784662 1.1785485 1.1375941 1.1804913 1.2406259 1.2327213 1.2168703

module.encoder.c3.1.bias f4 [32]
00000000: 70d8 28be 6cfa 4b3d 0ed1 9fbd 944b 053d
00000010: 0c90 bdbd 40fa d0bd 7856 123d 3b0e d13d
00000020: 2dc2 353e c9ae a33d 4536 4dbd 1017 5cbd
00000030: 5dab b43d 621c e83d 1d0e b83c 461c cd3c
00000040: 53f1 0e3e 7c37 bb3d 205d 9ebd b61a bebd
00000050: 965f 1cbc 691e 4f3d 41ef c03d e352 943d
00000060: 7230 64bd c78d 2f3d 4034 e73c b527 2dba
00000070: a626 3d3d 9840 a33d 138e 68bd ef2c f53c
-0.16488814 0.049799368 -0.07803546 0.03254278 -0.092559904 -0.102039814 0.035726994 0.10207792
0.17749853 0.07992322 -0.050100584 -0.05373293 0.088217475 0.113335386 0.022467667 0.025037896
0.13959245 0.09141442 -0.07732606 -0.092824385 -0.009544274 0.05056611 0.09420634 0.07242372
-0.055710264 0.04285982 0.028223157 -0.0006605343 0.046179436 0.07971305 -0.056776118 0.029928653

module.encoder.c3.1.running_mean f4 [32]
00000000: 5847 25bf 0089 32bf 69ce 3ebf d1b5 8dbd
00000010: c176 2e3f 863a b2be 4602 a53e 7788 1fbe
00000020: 6f22 17bf dc3e 2c3f b857 22be 190a 44be
00000030: 8a90 ddbd e4f0 523e 4359 353e efab a3be
00000040: df71 6a3e 65e4 353e 99c9 483e 1c14 bf3e
00000050: 6616 95be 90bb 1abe 896d 01bf b5c9 23be
00000060: 3c28 40bf 4bf4 c03e d3aa 273e 9766 f93e
00000070: 7a41 fb3e ec16 50be 42f9 0abf 5713 e13c
-0.64561987 -0.69740295 -0.74533707 -0.06919444 0.68149954 -0.34810275 0.32228297 -0.15579401
-0.59036916 0.67283416 -0.15853775 -0.19144477 -0.10818584 0.20599705 0.17709832 -0.31967112
0.22895001 0.17762907 0.19608153 0.3732003 -0.2911865 -0.15110612 -0.5055776 -0.15994914
-0.7506139 0.3768638 0.16373758 0.48711082 0.49073392 -0.20321244 -0.5428659 0.027475042
