logs/exp5/model_iters_28000.pth (torch, 495376 bytes, 47 tensors)

module.encoder.c1.main.0.weight f4 [32, 3, 3, 3]
00000000: 1499 55bc 37d1 593b 166f eebb fcef f8bc
00000010: 6f82 703a ed44 663b e257 11bb f402 033d
00000020: eca5 ea3c ee81 99bb 00a6 53bd 0225 cb3c
00000030: 5382 5dbc b2e8 4e3b d611 4c3d b97a 35bb
00000040: 1142 203b 3287 423c 0915 4fbd 4b4e 8bbd
00000050: 0f2a c5bc 0bce 83bd cd18 843c 81f6 813d
00000060: 2c4d aa3c c7fa 46bd 037d 703d 8e95 d5b9
00000070: c3a9 7ebc e810 8a3c 884c 563c de62 fb3c
00000080: 0f19 0e3d d6d0 d8bb dbc9 683c 844d 7cbc
00000090: 04dd d13b 9ec2 7cbc af37 eabc e94e febb
000000a0: d593 c6bb 0ebc 6cbb 190a 5a3d d8e0 ac3c
000000b0: d8ea 93bc 6034 93bb 9645 f1ba fe07 d43c
000000c0: 5f68 21ba 48e9 e13c 29bf 073e ee3e 4cbd
000000d0: c3fb 18bd a02f 7fbd fcc8 053d c648 42bd
000000e0: ebc4 44bc 6c44 593d f176 8b3a c91d b1bc
000000f0: d84b b03c c921 2cbc bb69 323c 8c07 b5bc
00000100: 5966 44bd d50d 4a3b 027b 5abc ca2f 213d
00000110: 9e89 b53c 369a a93a 54b8 00bb 2fa8 c33b
00000120: 9908 71bd 0539 153d 70d7 cd3c 8ae4 1ebd
00000130: d0c8 a1bd 9b41 8abc db31 85bd e15a 6b3d
00000140: d2cb a73b 8f9a 2ebd 0fc4 debc 147f 75bc
00000150: 5788 38bc 734f 0cbd 9073 3e3c bec7 5b3c
00000160: a5ff 633b 3fba 593d 5902 0abd 2c6e b8bc
00000170: ac1a b2bc 21e1 893d 48fb eebb b912 7cbb
00000180: de47 8cbc 9a3f fd3c 7d61 123c e9c8 dbbc
00000190: a15a b4bc bc6e a4ba dc29 61bc 9b6e ebbc
000001a0: 08ed a6bb 63a5 29bd 681d 26bd 7715 a13c
000001b0: 9242 bf3c d26f 613b 8eeb e5bc 6e4a 1abc
000001c0: 6acd 033b 1b45 65bb 0225 b3bc cc2a 31bc
000001d0: 950d 173a cbd3 1bbd 6960 62bd b0c8 92bc
000001e0: 77b3 a03c e88e 71bc 4408 a7bb e857 543d
000001f0: cfab df3c f78b 8d3c b595 02bd 1d5a fe3c
00000200: ac30 433d 4474 483c dd74 543d ac76 e8bc
00000210: c18d 5639 0258 78bd ac33 093c 39b8 453c
00000220: 15dd 01bd 8e8d bdbc e0d5 5839 e71e f83c
00000230: dac7 a63c ca3b d4bc ed89 183d e68e cc3b
00000240: bf3f 5a3d bba2 db3c 4e46 dbbb 9c66 083d
00000250: bbaa 88bd 2a4b 713c f317 f53b 6359 16bd
00000260: db7d 03bd 5c0a babc 8ffc 22bb 035e 223d
00000270: 1b8e 0e3c bdb3 89bd 2a1a 8a3c 0167 02bd
00000280: 7039 cebb d226 a43c e5f5 57ba 54d4 d13b
00000290: 0c7e 143c 0320 e7bc 7b56 953a 19f8 fb3c
000002a0: 7460 02bd 0979 2ebd 9729 2e3b 04a0 5a3d
000002b0: 8f50 ac3b 549d 983d 7559 82bb e726 f9bc
000002c0: 3010 adbc 10b5 cebc f952 dabc d6d6 a5bc
000002d0: d5f3 babc 157e 89bd 0c18 9fbb 8bd2 613d
000002e0: b0b9 58bc 3472 20bb 0d1b 103d f711 123c
000002f0: 95c5 aabb ae00 8d3d 1950 be3b 225e 20bd
00000300: a3ed 953c 0920 0fba 8c75 fa3b 9195 6abc
00000310: 6220 dd3b 546b 04bd 9dfc a7bd 64c7 a23b
00000320: a519 02bc b35e e93c b11d 673c 3cd2 143d
00000330: 661a fe3c c585 b1bc e3b7 b1ba fbe8 aebc
00000340: 4c96 30bb 4a13 113d 3432 603d 1188 9a3c
00000350: e366 683c 34b0 64bb 08c6 a9bd d6f5 acbd
00000360: f04d e83c 244f 27ba 4a75 b63b 3a07 453b
00000370: efc6 213b 9dff 31bc 8d7b 7f3c f56e c03c
00000380: e110 c8bc 0d71 02bd 50bf 5abd 15f5 023c
00000390: 1861 d7bc dc94 503c 4040 363d 7da2 8b3b
000003a0: 7523 a83c ab34 a23c 376a 8a3d 2109 19bb
000003b0: ca8d 203c f1ae 58bd 4ea1 0fbd 7b2e 30bc
000003c0: 2ac8 8abd 74b0 94bd 6a28 123b ff22 eabb
000003d0: 258e 87bc 776d dabc 083d 8fbc 499f c4ba
000003e0: 6f31 00bd 7838 34bb 770f eb3a cfb4 3f3c
000003f0: 66fa 973c a39a c73b b124 27bb 1a5f 11b9
-0.013036985 0.0033236274 -0.007276426 -0.030387871 0.00091747096 0.0035136298 -0.0022177626 0.03198524
0.02864357 -0.0046846783 -0.05167198 0.02479792 -0.013519841 0.0031571803 0.049821697 -0.0027691557
0.002445344 0.011873053 -0.05055717 -0.068020426 -0.024067907 -0.06435784 0.016125107 0.06345845
0.020788752 -0.048579004 0.05871297 -0.00040737953 -0.015543404 0.016853765 0.01307977 0.030686792
0.034691866 -0.006616692 0.014208282 -0.015399341 0.006404521 -0.01542726 -0.028591005 -0.0077608717
-0.0060601034 -0.0036122832 0.053232286 0.021103308 -0.018056318 -0.0044923276 -0.0018407579 0.025882717
-0.0006157215 0.027577057 0.13256516 -0.049864702 -0.037349474 -0.062301278 0.032662377 -0.047432683
-0.0120098395 0.053043768 0.0010640306 -0.021620648 0.02152054 -0.010506102 0.010889466 -0.022098325
-0.04794917 0.0030830998 -0.013334991 0.039352216 0.022160348 0.0012939635 -0.0019641118 0.005970977
-0.05884609 0.03643133 0.025127143 -0.03879217 -0.0789963 -0.016876986 -0.0650365 0.057459716
0.005120733 -0.042627867 -0.027193097 -0.014983911 -0.011262975 -0.034255456 0.011624232 0.0134143215
0.0034789827 0.053156134 -0.033693645 -0.022513472 -0.021741234 0.06732393 -0.0072931387 -0.0038463308
-0.017124113 0.030914117 0.008934376 -0.0268292 -0.022015871 -0.0012545208 -0.01374289 -0.028739264
-0.0050941743 -0.04141749 -0.040555388 0.019663556 0.023347173 0.0034398925 -0.028066423 -0.0094171595
0.002011145 -0.0034983817 -0.021868233 -0.010813426 0.0005762217 -0.03804378 -0.055267725 -0.01791796
0.019616826 -0.014743544 -0.005097421 0.051841646 0.027303604 0.017278655 -0.031881053 0.031048829
0.04765384 0.012234751 0.051869262 -0.0283769 0.00020461438 -0.060630806 0.008374136 0.012067848
-0.03170498 -0.023138788 0.0002067904 0.030288173 0.020358969 -0.025907416 0.03724091 0.0062426208
0.05328345 0.026810994 -0.0066917306 0.03330098 -0.06673189 0.014727393 0.0074796616 -0.03670634
-0.032102447 -0.022710018 -0.0024869775 0.039640438 0.008700873 -0.067237355 0.01685818 -0.031836513
-0.006293468 0.020038042 -0.000823824 0.0064034853 0.009063255 -0.028213507 0.0011393571 0.03075795
-0.031830266 -0.042595897 0.0026575082 0.05337526 0.005258627 0.07451883 -0.0039779493 -0.030414058
-0.021125883 -0.025232822 -0.026650893 -0.020244043 -0.022821346 -0.06713501 -0.0048551615 0.05513243
-0.013227865 -0.0024482133 0.035182048 0.008915416 -0.005211542 0.06884895 0.005807888 -0.039152272
0.01830179 -0.00054597907 0.007643407 -0.014317886 0.006748245 -0.03232892 -0.08202479 0.004967617
-0.007940684 0.028487539 0.0141062 0.036333308 0.031018447 -0.021670232 -0.0013558831 -0.021351328
-0.0026945053 0.035418786 0.054735377 0.01886371 0.014184686 -0.0034895064 -0.082897246 -0.08445327
0.028357476 -0.00063823373 0.005568181 0.0030064122 0.0024685224 -0.010864166 0.015593422 0.023490408
-0.024422111 -0.031846095 -0.053405106 0.007993002 -0.026291415 0.012730803 0.044494867 0.0042613135
0.02052472 0.019800505 0.0675854 -0.0023351389 0.00979943 -0.052901212 -0.03506594 -0.010753269
-0.067764595 -0.07260218 0.002230192 -0.007145285 -0.016547272 -0.026663525 -0.017485157 -0.0015001084
-0.031297144 -0.0027499478 0.0017933686 0.011700823 0.018552016 0.006091432 -0.0025504048 -0.00013863706

module.encoder.c1.main.0.bias f4 [32]
00000000: 98ec 0a39 b201 edb7 07b7 91b9 2595 2bb9
00000010: 7a99 87b9 f67b 423a 517e 5139 c7b3 ac38
00000020: bd31 a0b9 dec0 98b9 d6d6 3c3a 81d6 2639
00000030: 3e6f a4b9 6a91 49b7 7ff8 a538 b292 3c39
00000040: 5341 bf37 465c 07ba bbf9 8bb8 568e 6eb9
00000050: 55e6 28b9 8fe2 8838 6dc0 7c38 4308 4a3a
00000060: 50e5 07ba 3aec 0cb8 3e2f 1cb8 ffef 9439
00000070: a55d e138 5978 30b8 8c10 9b39 8f35 9338
0.00013248844 -2.8253391e-05 -0.0002779292 -0.00016363391 -0.00025863555 0.00074189843 0.0001997885 8.235085e-05
-0.00030554636 -0.00029135396 0.0007203644 0.00015910903 -0.000313634 -1.201439e-05 7.914099e-05 0.00017983725
2.2799393e-05 -0.0005163591 -6.6745524e-05 -0.00022750473 -0.00016107534 6.527185e-05 6.0260692e-05 0.00077069196
-0.00051840115 -3.3598604e-05 -3.7237296e-05 0.0002840757 0.00010746279 -4.2073752e-05 0.00029576232 7.019482e-05

module.encoder.c1.main.1.weight f4 [32]
00000000: 8842 833f 2197 813f 3a84 753f 287c 793f
00000010: 4474 843f ff33 803f 54f9 803f d381 7e3f
00000020: 9c98 733f 8037 823f db1c 833f 62e3 7c3f
00000030: 3595 893f c890 823f 24d4 7b3f 3dc1 7b3f
00000040: 0b40 673f 4324 803f 5d2b 773f 1227 7f3f
00000050: f344 773f 9b4b 853f 1a93 7b3f d65c 883f
00000060: b6f2 773f f3d0 803f e225 7e3f 180f 813f
00000070: 12b7 7a3f 7b14 6c3f 09a1 803f 965b 6c3f
1.0254679 1.0124246 0.95904887 0.9745507 1.0347981 1.0015868 1.0076089 0.99416846
0.9515474 1.0173187 1.0243181 0.9878446 1.0748659 1.0200434 0.98370576 0.98341733
0.90332097 1.0011066 0.9655054 0.9966899 0.96589583 1.0413698 0.98271334 1.0653331
0.9685472 1.0063766 0.99276555 1.0082731 0.97935593 0.9221875 1.0049144 0.9232725

module.encoder.c1.main.1.bias f4 [32]
00000000: 330d 54bd 26e4 92bd 94f2 cbbd 7500 debd
00000010: 6b85 65bc 65ca 89bc 5a00 eabb 0888 d3bd
00000020: f72c 87bd 8f7d 1e3d fbe4 f8bd 31db e8bc
00000030: 3b5d b3bd 6f96 6e3d 4b88 923b 5281 b6bd
00000040: c08b c3bd 59f7 17bd 7b54 9ebd adb8 fbbd
00000050: 7317 64bd d80d be3b a45e babc dcbd cdbc
00000060: 9744 63bd 7262 65bd 6272 93bd a749 05bd
00000070: 0acb 93bd b111 4abd dc23 1cbc 3d24 3dbd
-0.0517704 -0.07172422 -0.099583775 -0.10839931 -0.01400886 -0.016820142 -0.007141155 -0.1032868
-0.06600373 0.03869396 -0.121530496 -0.028424831 -0.08758017 0.058248933 0.004471814 -0.08911385
-0.095481396 -0.037101123 -0.07730957 -0.122910835 -0.055686425 0.00579999 -0.022750206 -0.025114946
-0.055485334 -0.056002088 -0.07199551 -0.032540943 -0.07216461 -0.049333278 -0.009530034 -0.046177138

module.encoder.c1.main.3.weight f4 [32, 32, 3, 3]
00000000: 5792 02bd 2d4e 0e3d 393a 643d a6a9 3ebd
00000010: 675c d0b9 4d2b 1dbd febb c23b 1822 3f3c
00000020: 28b1 41bc 9196 21bc 25d6 08bc 89f4 6b3d
00000030: 5eea b4bb 237e 083d 04e4 9ab9 dc41 96bc
00000040: 808a a43c a869 42bc 3aa9 efbc 4711 c6bc
00000050: 774c 9cbc cabe f8bb 8709 633b b718 96bb
00000060: 35ff 19bc bf9f 0bbb d74e e4bc 7c02 153d
00000070: 4e15 923c 5c50 df3c c71a 733d 4668 89bb
00000080: 2c55 95ba 30d5 5ebc 0b69 36bb 65fa dd3c
00000090: f058 ab3c e520 e1bc 4e8d 0fbd a3ef 4a3c
000000a0: bf9f d7bb 7b8a ee38 cb18 2ebb 8baa c33b
000000b0: 0059 563b ccc8 a1bc 79af 17bd b052 893c
000000c0: 6ac5 e83c b65f 7f3c 800d 64bc e17f 5dbc
000000d0: 3231 233c 4446 eabc 3a42 bcbb 4abb 5f3c
000000e0: 1514 e9bb 49c0 71bc 90fb 1a3a 7b16 4b3b
000000f0: aab6 c2bc 5516 c63c c1b7 cb3a 6adf f33b
00000100: ac6f 213d 1074 993c 3fab 5fbc 17b4 30bd
00000110: a2de 49bd 7ec4 4b3c 453b 703c fc1a 99bc
00000120: 8fc1 8cbc aa86 38bc 3c15 393c 18e8 88bc
00000130: b082 0bbc 683d 1c3d f2ae 213b 92ea 7f3c
00000140: 57c6 163c 4cdc 373c 2a43 9abc 169a 7cbc
00000150: 3b21 27bd a896 99bc aa44 51bd 77a9 683d
00000160: d46c 9dbc 2cd0 51bc 7eab 1ebd 1d03 5cbd
00000170: b213 4fbd 9bcb 2a3c ef49 86bb faf3 343c
00000180: f09b 21bc 621a 2c3b 23ba 81bc b5f0 ae3b
00000190: f7cb 92bd 2e39 343d 288d 7fbc 0846 943c
000001a0: 8226 343d b93d 6d3c f227 b73c af71 873c
000001b0: 40db 1dbd 02a6 573d 11d7 083d c329 9fbc
000001c0: 839d c5bc d112 0ebb 39e6 303d 2c30 133c
000001d0: 45ab 71bc 2001 623d d459 103d 0964 923c
000001e0: a3c7 993d 58d5 b03c 4a6f 333d 3973 a43d
000001f0: e636 ef3c 5e29 3e3c 5f10 91bc b8b1 43bc
00000200: 33b0 9a3c a7fd d5ba ec36 8ebc e6c3 4bbc
00000210: 4f28 7b3a 3c67 dfbc a752 7ebd f270 e83c
00000220: 58b3 b6bc ab75 28bd 96e9 303c 1dc4 87bc
00000230: dcd1 cdbc 8cfd a2ba c187 63bc 521c 4aba
00000240: fdd0 79b8 dd96 e33c 244b b4bc b002 05bb
00000250: 2f07 1f3c 1808 98bc 25e6 7d3c 0267 33bc
00000260: 3178 de3c f697 b33a e989 4e3c 0ee3 e33c
00000270: 1a30 56bc 6a6a d43c a4f8 2dbc 7394 333c
00000280: 878c b73d d52b 073c 5661 033d 1eea 38bc
00000290: 0f56 553c c140 2dbc 3987 e3bc 0664 013c
000002a0: c4a1 1c3b 4fee 33bc b650 e13c bde3 b63c
000002b0: ccd2 f8bc 7e32 713c 2ec0 cfbc 9d72 c43b
000002c0: a8cd 373c a89d d6bc c93e 883c 14a6 bb3c
000002d0: a687 80bc e71a 1ebc d96f ec3c 28fe 5c3c
000002e0: 4dff 683d ae7a dabc efd4 d33b b329 67bb
000002f0: 42a6 d93c 4560 cd3c 78a7 2e3d 6712 b9bc
00000300: 3d23 00bd 1bda 903c a6ea 203d f3bb 8abc
00000310: 779f 0d3b 9b12 0abd f6fa 0b3d 60cf e23c
00000320: 2ad8 f53c 6d13 cd3c 2139 933d fc2f 863b
00000330: caba 543d f079 1fbc fc7b 003d 5f80 583c
00000340: 438b 35bc 5209 243d 18f2 20bc a082 d33a
00000350: d3ed 65bc dbd5 5fbd d409 d9bc 09ce ffbc
00000360: 07f4 923c c07c d43c 670d 3ebc 6840 043c
00000370: 140c a0bc de03 293d 61d3 9abb 4131 febc
00000380: fec9 9a3c fd8e debc 96ac a4bc a02a 423b
00000390: 97ff 8a3c 4c30 0b3c f760 adbc a5d8 3f3d
000003a0: e748 94bd 34db 56bd b3e3 0dbc c457 6ebc
000003b0: 489d 223d 7ced 1c3d 5ad1 7c3c f3cc ecbc
000003c0: b7ce f83b 7c19 5a3d 4f43 b5ba 361d 2fbd
000003d0: 57d0 d63c ef37 45bb b213 32ba a143 29bd
000003e0: 1de6 1b3d 1fe0 073c e425 b6bb ad75 3fbc
000003f0: 4cdf 0b3c 7f6a 6d3b eff6 52bc e54a cb3c
-0.03187784 0.034742523 0.055719588 -0.046548508 -0.00039741697 -0.038371373 0.0059428206 0.011665843
-0.0118220225 -0.009862558 -0.008351837 0.057606254 -0.005521103 0.03332342 -0.00029543054 -0.018341951
0.020085573 -0.011866011 -0.029255498 -0.02417816 -0.01907943 -0.007591103 0.003464313 -0.004580583
-0.009399225 -0.0021304933 -0.027869625 0.036379322 0.017832424 0.027259998 0.05935171 -0.0041933386
-0.0011393181 -0.013600633 -0.0027833607 0.027096936 0.020916432 -0.027481506 -0.035046868 0.012386235
-0.0065803225 0.00011374518 -0.002656507 0.005971258 0.0032706857 -0.019749068 -0.03703258 0.016763061
0.028414447 0.015586784 -0.013919234 -0.013519258 0.00996046 -0.028597958 -0.0057451995 0.013655493
-0.0071129897 -0.014755317 0.00059121195 0.0030988741 -0.023768742 0.02418057 0.0015542434 0.0074424045
0.03941314 0.0187321 -0.013651668 -0.043140497 -0.049284585 0.012436984 0.014662568 -0.018689625
-0.01718214 -0.011262575 0.011296567 -0.016712233 -0.008515045 0.0381445 0.0024670926 0.015619891
0.009202561 0.011221956 -0.018830854 -0.015417596 -0.040803175 -0.018748596 -0.051090874 0.05680224
-0.019216932 -0.01280598 -0.038737766 -0.053713907 -0.050555892 0.01042452 -0.004098169 0.011044497
-0.009863839 0.0026260843 -0.015835827 0.005338753 -0.071678095 0.043999843 -0.015597619 0.0180998
0.043982036 0.014480048 0.022357915 0.0165337 -0.03853917 0.05264855 0.03340823 -0.019429093
-0.024122959 -0.0021678696 0.043188307 0.008983653 -0.0147503065 0.055176854 0.035241917 0.017869966
0.07508781 0.021586105 0.043807305 0.080297895 0.029200982 0.011606542 -0.017708002 -0.011944227
0.018882846 -0.0016326205 -0.017360173 -0.012436843 0.00095808966 -0.027270906 -0.062090542 0.028374169
-0.022302315 -0.041127842 0.010797879 -0.016573006 -0.025124483 -0.0012435182 -0.013887347 -0.00077099085
-5.956086e-05 0.027781898 -0.022008486 -0.0020295791 0.009706303 -0.018558547 0.015496765 -0.010949852
0.027156921 0.0013701904 0.0126061225 0.027818229 -0.013072992 0.025929648 -0.010618363 0.010960686
0.0896235 0.008250196 0.03207525 -0.011286287 0.013021006 -0.010574521 -0.02777444 0.007897383
0.002390013 -0.01098211 0.027504306 0.022325391 -0.030373953 0.014721511 -0.025360193 0.0059951083
0.011218466 -0.026198223 0.0166315 0.02290634 -0.015689682 -0.009649969 0.028861927 0.01348833
0.0568841 -0.026669826 0.0064645926 -0.0035272657 0.026568536 0.025070319 0.04264018 -0.022591783
-0.031283606 0.017682126 0.03928628 -0.016935324 0.002160994 -0.03370915 0.034174882 0.027686775
0.030010302 0.025033677 0.07188631 0.0040950757 0.05193595 -0.009733662 0.03136824 0.0132142
-0.011080566 0.04004795 -0.009823345 0.0016136952 -0.0140337525 -0.054647308 -0.026493944 -0.031226175
0.017938627 0.025938392 -0.011599875 0.008071996 -0.01953701 0.041263454 -0.0047249054 -0.031029345
0.018895146 -0.027167792 -0.020101827 0.0029627457 0.016967578 0.008495402 -0.0211644 0.046837468
-0.072404675 -0.052455142 -0.008660245 -0.014547292 0.039700776 0.03831242 0.015430773 -0.028906321
0.0075930017 0.05324696 -0.0013829264 -0.042752467 0.026222391 -0.0030093153 -0.0006793096 -0.04132426
0.03806125 0.008293181 -0.005558716 -0.011685771 0.008537125 0.0036226807 -0.012876256 0.024815986

module.encoder.c1.main.3.bias f4 [32]
00000000: 6024 5433 dd1e 97b7 b654 2d36 1002 f137
00000010: d8cb 65b7 a73c 98b8 12c7 68b8 083c 0b37
00000020: 3256 7c36 e19c 3137 6fa8 84b2 ed71 7eb7
00000030: aa6e 9cb5 096a ceb6 72e6 4fb7 b870 8c37
00000040: 35b5 11b7 1bc4 9336 5c6b 8b36 78bb dab7
00000050: 3ffa 6cb8 b950 2db7 dce2 1636 22b9 e036
00000060: e352 d3b4 9495 2436 1532 1fb8 f8e7 e737
00000070: f632 a237 480d 8e37 5e4b aab7 ca0c 9eb7
4.939318e-08 -1.8014975e-05 2.5828317e-06 2.87304e-05 -1.3696925e-05 -7.259222e-05 -5.549851e-05 8.299023e-06
3.7601098e-06 1.0586548e-05 -1.5443417e-08 -1.5166105e-05 -1.1655113e-06 -6.1516225e-06 -1.2391816e-05 1.674179e-05
-8.684864e-06 4.403771e-06 4.155021e-06 -2.6074922e-05 -5.6499845e-05 -1.0330398e-05 2.2483791e-06 6.6972725e-06
-3.936212e-07 2.452497e-06 -3.7955197e-05 2.7645365e-05 1.9335635e-05 1.6933904e-05 -2.0300675e-05 -1.8841023e-05

module.encoder.c1.main.4.weight f4 [32]
00000000: 7860 783f 5b8f 6f3f 43be 763f 26ba 7f3f
00000010: 8c83 7a3f 6adc 823f 28b6 813f 8f40 793f
00000020: 01c3 803f c679 643f a2ce 7e3f e572 7b3f
00000030: 3d8f 663f a955 7a3f a7c1 793f 8859 753f
00000040: 7227 783f 3839 7a3f 2b31 7c3f 6860 823f
00000050: 193d 803f 9dff 753f 7345 703f 8725 793f
00000060: d0d6 6e3f 700a 783f e18b 7e3f 942c 823f
00000070: a33d 7f3f 5066 723f 6536 703f a7cc 7d3f
0.970222 0.9357812 0.96384066 0.99893415 0.97856975 1.0223515 1.0133715 0.97364134
1.005951 0.8924831 0.99534047 0.9822219 0.90062314 0.9778696 0.97561115 0.9583974
0.9693519 0.9774356 0.98512524 1.0185671 1.0018646 0.9609316 0.9385597 0.9732289
0.9329653 0.96890926 0.9943219 1.0169854 0.99703425 0.94687366 0.93833 0.991404

module.encoder.c1.main.4.bias f4 [32]
00000000: 4fb5 7cbc 121c 36bc 259c bcbb f590 0c3d
00000010: 1650 b0bc 5fac 7cbd 0289 dfbd b546 dd3c
00000020: 226f 41bc e28d c8bd 4a89 29ba fe62 f6bc
00000030: deee 09be 110d 793c 8470 1e3c f920 50bd
00000040: 33f8 79bd ab69 11bc 0e8d 4a3c c5df 84bd
00000050: 9514 beba 0048 a7bd 9e3f 44bd 8cff 66bd
00000060: d48b ddbc c98d bbbc 80b9 e6bc d1b3 5e3c
00000070: 38a6 0bbc 2b39 97bd 62a9 32bd 5d31 fabc
-0.015424087 -0.011115091 -0.0057559186 0.03431793 -0.021522563 -0.061687823 -0.10914804 0.027011255
-0.011806281 -0.09792687 -0.0006467296 -0.0300765 -0.13470027 0.015200869 0.0096703805 -0.050812695
-0.061027717 -0.008875291 0.012362732 -0.06487993 -0.0014501984 -0.0816803 -0.047912233 -0.056396052
-0.027044214 -0.022894757 -0.028164625 0.013592676 -0.008523516 -0.07383951 -0.043618567 -0.030541116

module.encoder.c2.main.0.weight f4 [64, 32, 3, 3]
00000000: bd81 bcbb 75dd 12bb 21fe 493d bd63 e33b
00000010: e9b7 9bbb a83f e73b ecf3 073d 1931 5fbc
00000020: 18b2 e03c 8f08 843b 4f71 d3bb 85ff 11bd
00000030: 1a1b 983c ccae 1fbb 89e5 5fbb 9397 4d3d
00000040: 2692 2f3d 71af 393b 1eb1 103d 6dc3 9dbc
00000050: fa58 45bc d334 823b 6250 28bc 264f 053d
00000060: ebbc d5bc 2749 1c3c b56c 023d 98ad 213b
00000070: 509b 103b 7106 e63b 5480 8dba bd7e a6bc
00000080: 31c1 613c b189 acbc 264b edbc 45b1 82bc
00000090: 6a5e aebc c5bb b43c b763 5bbc 1fe0 853c
000000a0: 80ed 8b3d 72ec a93c 4675 d0bc 3e0b 123d
000000b0: a7dd 913d 232d 18bb e809 233d de2e a8bc
000000c0: 0949 c83c f40a ac3c 28fc d4bb bc25 003d
000000d0: 3bcd f5bb 315c 7a3c 2399 67bd 6006 65bd
000000e0: 9424 50bd 5d83 aebd d8e0 a53b acdf 50bd
000000f0: 4c3a 0bbd 1132 4ebd 74f9 2dbd 0002 a23b
00000100: 5360 123d e5d8 9ebc 4645 44bc d285 5a3c
00000110: 3ff6 4e3c 5c6c 5539 75c7 97bb 442e 623b
00000120: 6b7b bfbc 79e2 d139 31a8 cfba 63a8 113c
00000130: 645a 1f3d a386 0fbb 3e53 05bc 673e c8bb
00000140: 4a07 b3ba 070a fb3c 0801 563c ada3 81bc
00000150: 8304 7bbc 5037 ecba cdcd ea3c de7b 12bc
00000160: 7cea 98bb 3304 0b3d ab0f 8e3a 0162 a83c
00000170: 5648 13bd f6fd 913c 76da 843c dddf 883c
00000180: 6f8e 8e3c ee0d 403c bf8b d3bc 1a89 953b
00000190: bc97 223d 7f04 0f3d 65e4 e03c 7f0c 6c3d
000001a0: 9809 a9bc 2fd7 86bc cebc 4f3c a639 efbc
000001b0: fb38 7f3b e2ef 113c a336 633d 3bf5 c3bc
000001c0: 7183 46bd 1838 c2bb 5ecc 2d3d 4006 34bb
000001d0: a7a9 433a 99e6 e3bc 1759 033d e878 9c3c
000001e0: b389 8b3b 2a5a 3cbc e869 843d be39 de3c
000001f0: fbcc ff3c f16c afbc 8bc6 92bc 9222 d23c
00000200: c9e9 16ba 0cb2 40bd f91f 2c3d 0da6 233d
00000210: b00c 0abd eadc 47ba 6864 41bb 6248 38bc
00000220: 6969 cabc a621 d8bc 77d8 15bd 582f 6abb
00000230: f0d4 223d 8ef4 b0bb b66d e9bc fd03 babc
00000240: f356 0fbc b92f ccbc cc81 f83c e80c 513c
00000250: d0c3 073d 17f7 233d ae42 d23b 0bc2 343d
00000260: da2e 033d b852 89bc 7366 213d b716 6c3c
00000270: 4965 653d d1ef ba3c 95d2 0a3d b812 9d3c
00000280: 3ff1 b03b a93a fa3a 5f9c 88bd fe46 f0bb
00000290: 45ca 66bc caf3 2e3b c967 bdbb 102f 3c3c
000002a0: 14f2 96bc c82f 35bc 58eb bc3c d2a0 07bd
000002b0: 8510 1ebd 30f4 56bd ca11 05bd 48c0 e7bc
000002c0: 0504 febb 5c27 36bd b226 60bc cf9a 91bc
000002d0: 889c 2bbc 8946 f53c 0db3 43bc 8357 17bc
000002e0: dae4 25bd b292 71bd 7418 d3bc df9f 1fbd
000002f0: 9a23 69bc aa79 89bd 87e5 b5bc 66c4 7ebd
00000300: 85dd 5bbc 8d65 78bc 1ff0 4abd b36c b9ba
00000310: 8455 99bc 55d4 3cbc 76a3 5bbd d445 25bd
00000320: 43d3 44ba 3dd8 54bd 2277 12bc 5e3c 21bd
00000330: 61a8 9abc 3c0c fd3c 99b6 19ba 9b7f 83bc
00000340: 1440 d0bc 6f75 2cbb 9dd5 e83c 2ab3 d6bc
00000350: cb62 06bd 769d 28bc 9052 cfbb 8d93 903b
00000360: d1b8 93bc e75d 133d 7c97 3dbd cc39 6fbc
00000370: 40f7 393c f960 e6bc 95fc 05bd 20c7 c5bb
00000380: b0b8 943c 6437 863c 77c5 6e3c 10fb c03c
00000390: 9588 36bc 9ccd 07bd 6c4c 243d 8781 473d
000003a0: b480 5c3d b8ba 903d def5 dd3c 65f6 793a
000003b0: 7914 27bc bdd3 2e3a 2fa3 8dbb ecd6 4f3c
000003c0: f7c5 e63c 54af a23c ff8d 6bbb 5dde 5cbd
000003d0: 8582 8cbd 9368 5abd 41f8 1bbd 2191 9bbd
000003e0: 5d85 35bd b403 88bd 54bf 50bd eae0 1cbd
000003f0: 4f4e 743c c1cd 46bd c534 10bc d2e6 fbbc
-0.0057527707 -0.002240983 0.04931462 0.00693938 -0.0047521484 0.007057149 0.033191606 -0.013622546
0.027428672 0.0040293406 -0.0064527164 -0.035644073 0.01856761 -0.0024365662 -0.0034163913 0.05019338
0.042863987 0.002833333 0.035325162 -0.019258225 -0.012045139 0.0039735823 -0.010273071 0.032546185
-0.02609106 0.009538925 0.031841952 0.002467012 0.002206523 0.007019811 -0.0010795691 -0.020324105
0.013778971 -0.02106175 -0.028966498 -0.01595367 -0.021285255 0.022062192 -0.013390473 0.01634222
0.06832409 0.020742629 -0.025446545 0.035655253 0.07122355 -0.0023220263 0.03980437 -0.02053016
0.024448888 0.021001317 -0.006499786 0.031285986 -0.007501272 0.015280769 -0.056542527 -0.055914283
-0.050816134 -0.08521149 0.005062204 -0.05099456 -0.033991143 -0.050340716 -0.042474225 0.004944086
0.035736393 -0.019390533 -0.011979407 0.013337569 0.012631952 0.0002035363 -0.0046319314 0.003451244
-0.02337428 0.00040032322 -0.0015842972 0.008890244 0.038904563 -0.0021900318 -0.008137522 -0.0061109546
-0.0013658789 0.03064443 0.013061769 -0.015825117 -0.0153209 -0.0018021856 0.028662587 -0.008940665
-0.0046666246 0.03393955 0.001083841 0.020554544 -0.035957657 0.017821293 0.016217452 0.016708309
0.017401902 0.011722071 -0.025823472 0.004563463 0.039695486 0.034916397 0.027452657 0.057629105
-0.020634457 -0.01646003 0.012679292 -0.029202294 0.0038943875 0.00890729 0.055472028 -0.023920646
-0.048465196 -0.005927097 0.042431228 -0.0027469546 0.000746394 -0.027819918 0.032067385 0.019100621
0.0042583584 -0.011496106 0.064655125 0.027127143 0.031225672 -0.021414252 -0.017916938 0.02565125
-0.00057568826 -0.0470448 0.04202268 0.03995328 -0.033703506 -0.00076241663 -0.002950931 -0.011247726
-0.024708467 -0.026383232 -0.03658339 -0.0035733785 0.039753854 -0.005400247 -0.028494697 -0.02270698
-0.008748758 -0.0249251 0.03033533 0.012759425 0.033145726 0.040030565 0.0064166402 0.044130366
0.032027103 -0.016763076 0.039404344 0.0144097125 0.056004796 0.022819431 0.033892233 0.019173965
0.0053998525 0.0019090968 -0.066704504 -0.0073326817 -0.014086311 0.0026695603 -0.0057801944 0.01148583
-0.018425979 -0.011058755 0.02306144 -0.033112355 -0.038589973 -0.05247897 -0.032487668 -0.028289929
-0.007751944 -0.04447113 -0.013681101 -0.017774014 -0.010474332 0.02994086 -0.0119445445 -0.009237173
-0.040501453 -0.05897779 -0.025768496 -0.038970824 -0.0142296795 -0.06712659 -0.022204174 -0.06219902
-0.013419514 -0.01516093 -0.049545404 -0.0014146775 -0.018717535 -0.011525233 -0.053622685 -0.040349796
-0.0007508287 -0.051964033 -0.008939536 -0.03936421 -0.018879117 0.030889623 -0.0005863696 -0.016052058
-0.02542118 -0.0026315113 0.028422171 -0.026208479 -0.03280906 -0.010291448 -0.006326981 0.0044121207
-0.018032463 0.035978224 -0.046287045 -0.014601182 0.011350453 -0.028122412 -0.032711584 -0.0060357004
0.018154472 0.016383834 0.0145734465 0.023557216 -0.011140962 -0.03315507 0.040111944 0.04870751
0.05383368 0.07066864 0.027094778 0.0009535312 -0.010197752 0.00066691247 -0.0043224315 0.012685519
0.028170569 0.019858994 -0.003594279 -0.053923 -0.06860832 -0.053322386 -0.03807855 -0.075960405
-0.04431664 -0.06641331 -0.050963715 -0.038300432 0.014911248 -0.048536066 -0.008801644 -0.030749712

module.encoder.c2.main.0.bias f4 [64]
00000000: d521 9a36 242b 8d36 179d be36 6ef4 d7b6
00000010: b30d 2637 767c 0e36 d8fe 0d35 8e3f de35
00000020: db06 12b6 2f30 db36 0ceb 2037 d838 a036
00000030: 5604 22b7 d2be b1b6 adab f1b5 7603 c336
00000040: c43d 9136 2681 3136 fbd0 b035 b0d4 c436
00000050: 04b2 97b6 b76d 7637 ea34 a1b6 6492 10b5
00000060: 9ae8 3236 6b0c 1a36 8a04 1535 1990 84b5
00000070: 5291 0c37 65c8 4637 7b16 9336 d086 58b6
00000080: 1edc 79b6 baad 5937 bbcd e135 a825 0e37
00000090: 7eef 08b4 7a99 a335 05f6 5a35 a770 dd35
000000a0: 1f62 3d37 fd01 30b6 8092 4836 befa 9eb6
000000b0: 2547 b8b6 c3ce a5b6 5138 4136 dab6 ff35
000000c0: d78c 45b6 5771 da36 c1e3 8536 bc63 50b6
000000d0: 5673 a236 e924 07b7 7283 a236 7335 fdb5
000000e0: afa1 4836 3c77 1337 6edc 8337 308e c036
000000f0: 5e47 b336 5988 82b7 483c ccb5 3afc e835
4.593496e-06 4.2071497e-06 5.680729e-06 -6.4359547e-06 9.897561e-06 2.1232095e-06 5.289744e-07 1.6558786e-06
-2.1759686e-06 6.532318e-06 9.591469e-06 4.774989e-06 -9.656962e-06 -5.2972255e-06 -1.8005863e-06 5.8118558e-06
4.328527e-06 2.645023e-06 1.3173843e-06 5.8660153e-06 -4.5208744e-06 1.4688288e-05 -4.804334e-06 -5.3857207e-07
2.6659459e-06 2.2955016e-06 5.551343e-07 -9.876704e-07 8.378485e-06 1.1848378e-05 4.3835585e-06 -3.226498e-06
-3.7232016e-06 1.2974657e-05 1.6823682e-06 8.472627e-06 -1.2753114e-07 1.2189114e-06 8.1569334e-07 1.6498569e-06
1.12881235e-05 -2.62272e-06 2.9887597e-06 -4.737957e-06 -5.4919096e-06 -4.9414534e-06 2.8792022e-06 1.9052197e-06
-2.9437267e-06 6.510101e-06 3.990223e-06 -3.1052468e-06 4.841403e-06 -8.055221e-06 4.8432785e-06 -1.8865525e-06
2.9896435e-06 8.789644e-06 1.5719063e-05 5.7385987e-06 5.342924e-06 -1.55607e-05 -1.5216729e-06 1.7358755e-06

module.encoder.c2.main.1.weight f4 [64]
00000000: a643 803f 454a 873f 56ef 763f 8e8c 823f
00000010: 5c2a 813f 668a 7b3f c1e0 713f bd42 743f
00000020: d70f 853f 093a 7b3f 05ab 823f 5741 833f
00000030: 8e20 783f 190e 7f3f c7a1 6d3f d362 833f
00000040: 6e70 773f 8861 763f 1e35 853f e81f 843f
00000050: 7d8a 7d3f 1549 7a3f 48d3 863f 3b14 803f
00000060: 4acb 843f a6cc 763f 495b 783f 4372 843f
00000070: 6e2e 763f 7c46 803f 5247 843f ce05 7f3f
00000080: b3aa 7a3f d139 873f cd8a 7f3f a610 803f
00000090: f62c 813f 7044 723f 576a 7b3f aa21 723f
000000a0: 6b7a 863f ad22 813f dcfc 713f 4602 813f
000000b0: 21b9 7c3f 4677 713f 930a 7d3f 5ba1 713f
000000c0: f4bc 853f f7bc 893f 1c29 803f 1d40 783f
000000d0: 8ce8 743f 7565 7b3f ab41 7a3f 81a3 873f
000000e0: d82e 753f 1a7d 763f f36e 813f 7ae1 7d3f
000000f0: 7056 7a3f 4ca3 7e3f 9fd5 823f bf6c 793f
1.0020645 1.056954 0.9645895 1.0199144 1.0091052 0.98258054 0.9448357 0.95414335
1.0395459 0.9813543 1.0208441 1.0254315 0.96924675 0.99630886 0.9282498 1.0264534
0.9665593 0.9624257 1.0406835 1.0322237 0.9903944 0.97767764 1.0533228 1.0006174
1.0374539 0.9640602 0.9701429 1.034737 0.96164596 1.002151 1.0334265 0.9961823
0.97916716 1.0564519 0.9982117 1.0005081 1.0091846 0.9463568 0.98209137 0.9458262
1.0506109 1.0088707 0.9452646 1.0078819 0.98719984 0.9432262 0.9884426 0.94386834
1.0448289 1.0760792 1.0012546 0.9697283 0.9566734 0.98201686 0.9775645 1.0596772
0.957746 0.9628464 1.0111984 0.99172175 0.97788143 0.9946792 1.0221442 0.9743156

module.encoder.c2.main.1.bias f4 [64]
00000000: 7384 56bd 3cf8 8bbd d835 30be 3a50 cbbd
00000010: 5600 79bd 96df a8bd 6910 e1bd 18ca f8bd
00000020: 35c2 8fbd 9cda b7bd fdb1 ecbd cdc5 d8bd
00000030: 593f ecbd 28f8 aebd 8230 56be bd47 9dbd
00000040: 239a a3bd 5f55 07be 543a 81bd 76cd 18be
00000050: c1a7 29be 4bb1 77bd ac72 83bd 9c9a babd
00000060: e743 c3bd 127e 0bbe 0214 0dbe 29aa 66bd
00000070: 44e8 3cbd 263b efbd 9be1 c1bd bc9f 49be
00000080: fcfb 2abe 8ca4 5dbd e28e e0bd 5ede 73be
00000090: 90bd a3bd 4762 cfbd c250 a5bd 32df 21be
000000a0: d9e6 a2bd 87ce cbbd 86d6 abbd f165 eebd
000000b0: f8b8 57be 9732 03be 5d4b f3bd 715b fdbd
000000c0: 24ae 4cbd 107e 3abd f164 a9bd c380 18be
000000d0: f56a a1bd 5ff8 49be 6606 a3bd 82d7 a8bd
000000e0: 3d3f 96bd d945 25be 0783 b6bd c0d3 e3bd
000000f0: 6758 38bd 1663 8fbd daf9 adbd 0d0c 7bbd
-0.052372407 -0.06834456 -0.1720804 -0.099274114 -0.060791336 -0.08245771 -0.10989458 -0.12147921
-0.07019464 -0.08977243 -0.11557386 -0.105846025 -0.1153552 -0.08543426 -0.20916942 -0.076796986
-0.079883836 -0.1321616 -0.06309953 -0.14922127 -0.165679 -0.060471814 -0.06418356 -0.09111521
-0.09534436 -0.13622311 -0.13777164 -0.05631462 -0.046119943 -0.116812035 -0.09466859 -0.1968984
-0.16697687 -0.054112002 -0.10964753 -0.23815295 -0.079951406 -0.10126167 -0.08072044 -0.15807799
-0.07954187 -0.09951501 -0.083905265 -0.116405375 -0.21066654 -0.12812267 -0.11879609 -0.12370957
-0.04997076 -0.04553038 -0.08271206 -0.14892869 -0.078817286 -0.19723652 -0.07960205 -0.0824423
-0.073362805 -0.16139926 -0.0891171 -0.111243725 -0.045006182 -0.07001321 -0.08494921 -0.06129079

module.encoder.c2.main.3.weight f4 [64, 64, 3, 3]
00000000: 06fa 673c 7484 fd3a 6440 84bc 17ba 383d
00000010: f549 b5bc b6ca a03a d0bc 143c af93 6bbc
00000020: 357a d2bb 90f0 863b 197e cd3c 6263 cc3c
00000030: 0e1d 43bc 20ca 27ba 69be b3ba 79d2 7fbd
00000040: 4ab1 e9bc 4733 0f3c bbb0 30bc 3a72 f4bb
00000050: b954 1cbd 5192 b93c 0adb f0bb 1a87 0fbc
00000060: c596 073d eecc b53b 278e b7ba ddac e0bb
00000070: f471 ae3c 3801 82bc 3629 b3bc 7177 22bd
00000080: 14a5 7fbd cd35 0e3d 22c5 173d a67b b03c
00000090: 436e 833d faee 633d feaf 7c3c 3d1d a7bc
000000a0: 13d9 3d3c 5251 52bd 95b0 05bc 1edc fa3c
000000b0: 469c 99bc 0bbe 6abd e7d7 543c 5433 86bd
000000c0: c696 283c da5a debb 06a7 b33a 5d92 333c
000000d0: 39b5 b4bc f4b1 ccbc a198 a13c 7645 14ba
000000e0: 6415 123d 2a21 fcbc fc3c 87bc 83dd eb3c
000000f0: a33a 113c 43f4 553c c3a1 8d3c abd3 9dbc
00000100: 8a3f 1cbd 5b2c d2bc 94d7 b93c 3f93 7d3c
00000110: 9bd6 d33b 603c 133d d415 96bc 8b40 a4bc
00000120: c545 593d ae4b 343d 178e 7d3c c21b cbbc
00000130: b837 e0bc cbe4 72bd b0ba d63d f77d 8c3d
00000140: a883 093d 2356 683d 5d76 723d 2080 0c3d
00000150: 8e24 82bd 14f5 b7bc 68b7 1dbc c255 b0bc
00000160: 8242 10bd b7b1 853c 5ed7 8d3c a7ab c43b
00000170: 4e94 51bd 7c8a 3f3a 36ac c3bd b7db 15bd
00000180: 20c5 9dbd 63e7 d5bc b3c8 64bc 0d38 133d
00000190: 0a31 073d da02 083c 3962 083c 4fce 983c
000001a0: 3080 573c 99e9 463b cb4a 8c3c e699 573d
000001b0: bebb 0e3c def5 2d3d f808 313c bca5 b1bb
000001c0: bb0a c3bc 04d0 d0bc 384d 543c b875 2fbd
000001d0: 46ee 82bd 7671 f6bc 51e2 a4ba 8cef 86bc
000001e0: 1b1b f83b 66aa c5bc 1088 80bd 434f 16bd
000001f0: 3fd7 afbc 1264 d6bb 782a 42bd 03b1 64bd
00000200: b28f 03bd 50d6 8cbd d7e1 06bd 53bb 8bbd
00000210: 70c8 ed3c a35b 9a3c fb20 9e3b b349 51bd
00000220: 8e9a 33bd 11b3 8dbd 2a69 1b3c 7a27 1cbd
00000230: 30bf b73a a097 ebbb 77b6 0abd 40f6 fc3a
00000240: bb7c 363c 5a3e f3bc cef8 a73c c530 703b
00000250: 3d63 013d beaf a73d fafb 61bb d70e 45bc
00000260: 2c8d d2bb 075a 783d 87b7 ba3c 51aa 8c3d
00000270: ccdd 303c 1471 2a3c 187c 823c e549 83bd
00000280: 6384 efbc b2d9 49bc c9dd fabc 9d04 243d
00000290: e69a 263c f328 12bc 95dc f73b b245 9bbc
000002a0: 1d02 21bd e714 05bc 5d05 8e3c 191f ec3c
000002b0: 76ff 883c bd51 d73c 50d6 a1bc b21e 253d
000002c0: bc55 53bd bbcf b2bc 061f b8bb 5cc9 90bb
000002d0: 1a1e 683c 97c9 d53c 87fb 6a3c 1032 c5bc
000002e0: f2f9 95bc 7f1c 54bd 644c 68bb 9a84 e6bc
000002f0: 2814 833b 1c2c 2cbd 2fb6 3b3c af4d 3c39
00000300: ee04 d23c 02f0 5ebc 9fc8 943b 3074 d2bc
00000310: ae80 ddbb 0894 2f3d fa98 f2bc 1a76 263d
00000320: 1f26 013d 3199 4c3c b3d6 12bb f380 59bc
00000330: df89 333c 2717 b93d 6b7b 42bc ec6d f8bb
00000340: 6a82 5b3c cc8d d73c 15e5 33bc 66aa 29bc
00000350: 0182 6bbb 21e0 07bd d876 a2bc 2635 813c
00000360: ad63 d3bc 2b6b 3abd 617b 09bd 146c 30bb
00000370: d1f2 65bc 92f8 91bb d594 0ebd 3222 8e3c
00000380: 8f18 86bc e5e1 7d3b d78f 433c e109 5739
00000390: 112b e0bc 272d 2bbd 1419 d43c 187d 25bd
000003a0: ac4c 05bd 8491 20bd adc4 f73b 6a9b 2e3b
000003b0: 5b6a 69bc 2f1d d63c 3f93 0a3d 005c 403c
000003c0: 5972 ea3b 1126 8ebc 2bf2 713c 0688 053d
000003d0: f2bc 0c3c 2585 563d 51b9 3b3c d5bd dbbc
000003e0: d509 44bc 73b0 7d3d 027b 5a3d 5871 42bc
000003f0: 205c c13c 038c 56bc a38f 76bc c462 4fbd
0.014158731 0.0019341842 -0.016143985 0.045099344 -0.022129992 0.0012267444 0.0090782195 -0.014378472
-0.0064232596 0.0041180328 0.025084542 0.024949733 -0.011908783 -0.00064006634 -0.0013713363 -0.06245658
-0.02852692 0.008740253 -0.010784323 -0.007459906 -0.038166735 0.022652777 -0.0073503302 -0.008760238
0.03310277 0.005548111 -0.0014004157 -0.0068565444 0.021294571 -0.015869722 -0.021870237 -0.03966469
-0.06241329 0.034719277 0.037053235 0.021543335 0.06417515 0.055647828 0.015422819 -0.020399684
0.011587399 -0.051347084 -0.008159776 0.030622538 -0.018751275 -0.057310145 0.012990928 -0.06552759
0.010289853 -0.0067857327 0.0013706393 0.010960189 -0.02205907 -0.024987198 0.0197261 -0.00056561024
0.03566493 -0.030777533 -0.016508572 0.028792148 0.008864078 0.013058725 0.017289048 -0.01926597
-0.038146533 -0.025655916 0.022685803 0.015477001 0.006464792 0.03594625 -0.018320955 -0.020050308
0.053045053 0.044017486 0.015475771 -0.02479351 -0.027370319 -0.059300225 0.104848266 0.068599634
0.033572823 0.05672277 0.05919491 0.034301877 -0.063546285 -0.02245573 -0.009626247 -0.021525268
-0.035219677 0.016320093 0.01731461 0.006001908 -0.051166825 0.00073067076 -0.09554331 -0.03658649
-0.07703614 -0.02611131 -0.013963866 0.035942126 0.03300575 0.008301461 0.008324199 0.018653063
0.013153121 0.0030351637 0.017125508 0.052637003 0.008711753 0.042470805 0.010805361 -0.0054213684
-0.023808828 -0.025489815 0.0129578635 -0.042836875 -0.06393103 -0.0300834 -0.0012579655 -0.016471647
0.0075715906 -0.024129104 -0.06275952 -0.036696684 -0.021464942 -0.006542691 -0.047403783 -0.055832874
-0.03211946 -0.06876814 -0.03293022 -0.06822839 0.02902624 0.018842524 0.004825709 -0.051095676
-0.043848567 -0.0691892 0.009485522 -0.038123585 0.001401877 -0.007189706 -0.03386542 0.0019299462
0.0111381365 -0.029692817 0.020504382 0.0036650163 0.03158878 0.08187817 -0.0034482465 -0.012027464
-0.0064255204 0.06063273 0.02279259 0.06868423 0.010795068 0.0104029365 0.015928313 -0.06410579
-0.029237932 -0.012319969 -0.030623334 0.040043462 0.010168767 -0.008920896 0.007564137 -0.018954132
-0.039308656 -0.008122659 0.017336542 0.028823422 0.016723376 0.026284093 -0.019755512 0.040312476
-0.051595435 -0.02182757 -0.0056189327 -0.004418535 0.014167333 0.026097102 0.014342195 -0.024071723
-0.01830766 -0.05178499 -0.0035445923 -0.028139401 0.0040002055 -0.042034253 0.01145701 0.00017958017
0.025637116 -0.013607027 0.0045405175 -0.025690168 -0.0067597246 0.042865783 -0.02961396 0.040639974
0.031530496 0.012487696 -0.0022405803 -0.013275373 0.010958164 0.09037619 -0.011870245 -0.007581463
0.013397792 0.026312731 -0.01097991 -0.010355568 -0.0035935643 -0.03317273 -0.01983206 0.015772413
-0.025804365 -0.04551236 -0.03356493 -0.0026919888 -0.014034943 -0.0044546807 -0.034809906 0.01735029
-0.016369132 0.003873938 0.01193615 0.00020507678 -0.027364286 -0.041791108 0.025890864 -0.0404025
-0.032543823 -0.039201275 0.0075612874 0.0026642927 -0.0142465485 0.026136963 0.03383183 0.0117406845
0.0071547446 -0.017352136 0.01476721 0.032600425 0.00858997 0.05237307 0.011457757 -0.026823917
-0.011965235 0.061935853 0.053339966 -0.011867844 0.023603499 -0.013094905 -0.015048894 -0.0506313

module.encoder.c2.main.3.bias f4 [64]
00000000: 8993 4fb6 2fab 03b6 16a9 0a35 9aeb 0736
00000010: 965e 5537 3935 d6b5 da6a d3b4 ca10 f035
00000020: d2b4 8bb6 4fc0 6c36 2f8f ea35 0cdc 9635
00000030: d88e 37b6 7d61 69b5 291c 1335 fa3f 7eb6
00000040: 2c85 2636 0a51 cc35 ed75 eeb4 7764 7bb6
00000050: 3db4 6bb6 f80f 9f32 1812 0736 694e d3b5
00000060: e939 ebb5 57b4 6033 895a b6b6 2f90 4cb5
00000070: 0422 7233 e9ed 8cb4 d6d2 c836 fe6b 2eb5
00000080: ab8f d9b6 7d7f 1336 42c3 7733 0e66 5bb6
00000090: 23e6 2136 91bc 21b5 103c 95b6 3ee9 4136
000000a0: 9369 1a35 a121 3d36 9880 0f36 db2e 2335
000000b0: 4448 a5b5 1685 c436 6036 7bb6 9d3e f4b4
000000c0: 7807 8235 a8c0 a9b5 6bcd 9bb4 e762 aeb6
000000d0: 5846 a7b5 a15b 5336 cc88 f4b5 2461 dfb6
000000e0: f2ff 9735 146c e8b5 cb28 8d35 87b7 6bb5
000000f0: 4bae 3a36 bd91 8b34 faf7 28b6 e85d abb4
-3.093128e-06 -1.9620163e-06 5.165506e-07 2.0253706e-06 1.2717812e-05 -1.5959732e-06 -3.9379557e-07 1.788628e-06
-4.163573e-06 3.5278679e-06 1.747603e-06 1.1239913e-06 -2.735227e-06 -8.694113e-07 5.4802746e-07 -3.7886189e-06
2.4813444e-06 1.522277e-06 -4.4416757e-07 -3.7460393e-06 -3.5122641e-06 1.8517298e-08 2.01271e-06 -1.5743545e-06
-1.7525718e-06 5.2318082e-08 -5.4345624e-06 -7.6205737e-07 5.6375953e-08 -2.6250135e-07 5.985009e-06 -6.49772e-07
-6.483829e-06 2.1978915e-06 5.7686755e-08 -3.2692947e-06 2.4124827e-06 -6.0251574e-07 -4.4475382e-06 2.8895006e-06
5.75231e-07 2.818277e-06 2.1383512e-06 6.0790416e-07 -1.231449e-06 5.8567484e-06 -3.7433565e-06 -4.54941e-07
9.687928e-07 -1.2647552e-06 -2.902046e-07 -5.197118e-06 -1.2462942e-06 3.1494785e-06 -1.821923e-06 -6.6572265e-06
1.1324867e-06 -1.7316802e-06 1.0517191e-06 -8.781139e-07 2.7817612e-06 2.5996806e-07 -2.5178292e-06 -3.1919558e-07

module.encoder.c2.main.4.weight f4 [64]
00000000: c3e1 833f 9cfb 773f f7c9 893f d70f 833f
00000010: fd16 803f 219f 813f f5e7 793f c06c 803f
00000020: 4f0d 7f3f 759a 7d3f 3a55 7f3f 2757 823f
00000030: 645f 823f 03ef 7d3f ae04 7e3f 2a53 7e3f
00000040: a3c5 7d3f f692 773f b675 7b3f 55a8 773f
00000050: 87e1 813f c976 7f3f 0dd1 7f3f 87c7 823f
00000060: 84e6 7e3f 8a35 7a3f e4d5 7d3f 2159 823f
00000070: 2106 823f bac5 7e3f 19e5 7c3f 3fa5 783f
00000080: 2684 803f c131 7d3f 9196 833f 91ca 853f
00000090: 712e 833f f325 813f 2381 793f 7081 813f
000000a0: 4622 7a3f 9b5c 813f 423a 7a3f 549d 7f3f
000000b0: 2a0a 793f 3408 803f 7c89 833f 12dc 7e3f
000000c0: 84bd 803f 5ba5 793f 38f9 783f 01e8 7e3f
000000d0: d429 813f 868e 803f 77fe 7b3f 0661 7d3f
000000e0: 4a8a 803f e1a3 803f 9f4e 713f d7e5 843f
000000f0: 0f5e 793f 3d6b 833f 2c01 843f fb0d 863f
1.0303272 0.968683 1.076476 1.0239209 1.0007015 1.0126687 0.97619563 1.0033188
0.9962968 0.9906381 0.9973942 1.0182847 1.0185361 0.9919283 0.9922589 0.9934565
0.99129695 0.9670862 0.9822649 0.9674123 1.014695 0.99790627 0.9992836 1.0217141
0.9957049 0.97737944 0.99154496 1.018345 1.015812 0.99520457 0.98787075 0.97127146
1.0040329 0.98904043 1.0280324 1.0452443 1.0248548 1.0089706 0.9746267 1.0117626
0.9770855 1.0106386 0.97745144 0.9984944 0.97281134 1.0002503 1.0276332 0.9955455
1.0057836 0.9751794 0.9725528 0.9957276 1.009089 1.0043495 0.9843516 0.9897617
1.0042202 1.0050012 0.9426059 1.0382642 0.9740915 1.0267102 1.0312858 1.0473017

module.encoder.c2.main.4.bias f4 [64]
00000000: 243a 43bd a8d6 edbd 3a32 5bbd f7ab 93bd
00000010: 72c5 7cbd 7027 e5bd 023a e4bd 37f8 a9bd
00000020: 58fc 0abe ba0f aabd 5285 c4bd a294 88bd
00000030: 74d6 ffbd 4734 75bd ede1 4ebd 04e5 7ebd
00000040: 6e4e 58bd aa1e 25be ae48 cabd 0c8c fabd
00000050: c2df 30be 7dec 2cbe cf7c 1bbe 82d8 47bd
00000060: 09b4 dbbd a803 c3bd 2419 a3bd 7af1 09be
00000070: 4fb6 1dbd 2013 92bd f6e6 21bd e3f4 bcbd
00000080: 4bf6 0cbe 7440 9abd 77b7 bebd 4d32 59bd
00000090: 6697 8ebd eec8 b8bd 7a05 93bd f6e4 babd
000000a0: c4ff 30be 1567 44bd c2ee d5bd f940 90bd
000000b0: cdd0 2cbe 2709 abbd 2d2e 78bd 45f1 afbd
000000c0: 40fd cbbd 71ad c3bd c67e e4bd 9c32 8dbd
000000d0: b463 e2bd 727b fdbc 3404 02be 290e 26be
000000e0: b9af 6ebd 0379 12be c276 09be fa1d b3bd
000000f0: c325 01be dcb4 f2bd 5670 ecbd f03d 62bd
-0.04766287 -0.11613208 -0.053514697 -0.07210534 -0.061711736 -0.11189163 -0.111438766 -0.08299296
-0.13572824 -0.08303781 -0.09595741 -0.066689745 -0.124920756 -0.05986431 -0.05050843 -0.062230125
-0.05280917 -0.16124979 -0.09877144 -0.12233743 -0.17272857 -0.16887088 -0.1518433 -0.048790462
-0.10727698 -0.09522182 -0.079637796 -0.13471022 -0.03850394 -0.07132554 -0.039526902 -0.09226396
-0.13765828 -0.07531825 -0.09312337 -0.053026486 -0.06962471 -0.09022699 -0.07178779 -0.09125702
-0.17285067 -0.04794987 -0.1044593 -0.070436426 -0.16876526 -0.08351355 -0.06059091 -0.085909404
-0.09960413 -0.09554566 -0.111569926 -0.068944186 -0.11054173 -0.030942652 -0.12696916 -0.16216339
-0.05827305 -0.14303975 -0.13424209 -0.08745952 -0.12612061 -0.118509024 -0.11544864 -0.05523485

module.encoder.c3.0.weight f4 [32, 64, 3, 3]
00000000: 2f76 933c 195e 3e3c 9f34 9f3c 6585 603c
00000010: 80f9 f0bc f3e3 41bc 306f 063d 6ae2 513d
00000020: 71a5 8a3c 8401 4f3c 9b02 cb3c fe0c 1abc
00000030: 735f 173c 0d76 a4bb fde2 8ebc 60b9 2bbd
00000040: 30fa 3cbc a5ff 96bc e8a5 04bd fac5 ffbc
00000050: 96e3 41bc 007f 813d 50c0 c93c a625 673d
00000060: 791b ed3c 9ad8 243d ca9d b2bd 8d08 6cbd
00000070: 5872 9bbd 80ff e1bc 4900 663d e11d 24bc
00000080: b4d1 783c 33f7 e43c 0db2 d139 e9fa a03c
00000090: 9c31 91bc 3ac6 d7bb ab86 50bd 3df0 03bc
000000a0: 8d87 563d b189 f93c a806 c2bc 80e2 eb3b
000000b0: 1786 94bb 0f3e 863b 8515 1a3d bdad 7bbc
000000c0: 8ca3 d93c 5bdb e6bc 4c7d c63b 88c3 b7bc
000000d0: af3c 7f3c bdbc fdbc 08c5 e0bc 26b0 1dbc
000000e0: b981 2ebd 7e7b 19bd b79e 9fbc 05a0 45bd
000000f0: 6478 073d 5c84 083d b020 173d 5427 633b
00000100: 6485 853d 535e 2a3d 5bbd 1fbd fb9b 0c3d
00000110: e5f4 a2bc c71a 733c 1820 01bc b425 043d
00000120: 1c03 acbc 74d3 f8bb 3a59 28bc 7cb4 76bd
00000130: e719 0dbd fccc d03b 2dc2 22bc 9702 003d
00000140: 7c9c 5c3d 805e d7bb c59b d9bb 0877 afbc
00000150: 0acd d83a 5d5c 823c f08c ad3c 0e6a 1938
00000160: 6cec f53c ff23 623c 8196 cdbc 165d f03c
00000170: 2b0e 2cbd 7878 87bc 157d d93c c38d 20bd
00000180: e3c3 7bbc 12d6 fe3c 022b 0a3c dd8f f1bc
00000190: 4a49 423d f30c 703d dd94 3e3d fca8 923d
000001a0: 5b26 b03d 834f 1d3d 5a02 68bc 3d40 433c
000001b0: bd1c d0bb 6c98 eabb 55a8 1ebc e39e 66bd
000001c0: 4b90 30bd 3b2f 233a fa78 04bc e827 8abc
000001d0: 03ac c23c f83a d53c d4a7 72bc 0a4e bc3b
000001e0: 3e33 383d 850a 173d 64bb 4f3d 1009 ec3a
000001f0: 0ba3 0fbc 242f d8bc 39fe 37bd c993 46bc
00000200: a254 5abc 5a11 67bc 3c4f 913c 1710 ddbb
00000210: 5324 b1bd 2f24 8abb 08d0 3bbc c4b0 2fbc
00000220: e3bf 67bc f0f3 9b3b 2969 4c3d 23d5 fa3c
00000230: 5d1d f4bb f6d3 d43c e129 dd3c 5939 01bd
00000240: 1838 c23c d234 ca3b 065b 95bc 518c a1bc
00000250: bafd b9bc e4da acbb 0d75 4b3d 0191 003d
00000260: d73a 583d 090d 94bb 0a31 6e3c 1959 0dbc
00000270: cc5e f539 2f01 723d 32d4 38bd 85d4 163d
00000280: 0556 7c3c 824f 79bd 4900 4dbc 812d 0b3d
00000290: d7f6 05ba 1bd9 7abc 84f0 6a3b de60 073b
000002a0: 3b72 8abd 1e53 663c eb1e 84bd 820b 10bd
000002b0: e060 b5ba 799b 263c 0812 2c3b afc5 a53b
000002c0: 9095 c33c fd9b 19bc 9e61 873c 5c5d 2c3c
000002d0: 0dec 483c d427 c63c 1ec9 37bc a491 783d
000002e0: b6db b03b cfa0 86bc 9fad 63bd 87be 4c3c
000002f0: 28b9 4ebd 1b29 8f3c 8f6c 21bc f0a6 28bb
00000300: 9f8e b03c 1f19 84bc 24fc dbbc 6d14 1b3c
00000310: 4601 ad3c 07d9 4c3b ea92 eebc 076e 72bd
00000320: ce12 05bc 3d0e 163d 001a cabc 5d11 d43c
00000330: cfe3 fc39 7ec1 1ebd 2e39 15bd 3f23 3fbd
00000340: 527a a0bd 2015 d6bd 7132 773c 2724 10bc
00000350: 6b60 18bd a887 a43c 21a8 1ebd 3cf1 1f3d
00000360: 209b 72bd 0b61 07bd c659 eb3c bef0 2fbd
00000370: 1cb6 b4bb e9ee 2abd 1d8e 5dbd eb49 fdbc
00000380: e57c 92bc 223d ff3b f5db d4bc 3f1f 833c
00000390: a832 3e3d c1aa 133c 045e 8cbc 20f5 0e3c
000003a0: 8a1b 8e3b bb9e 3cbd 3feb 6abd d0ef 8dbd
000003b0: f705 db3c 539b 87bc 43e3 1e3c d6da 3a3d
000003c0: f7ee e9bb 19d3 333d 4b15 a43d c8f3 b33d
000003d0: 64f4 fb3a 5a51 123d 8dcb 2bbd 5fc1 e93b
000003e0: d459 063b bda5 6fbb f6b6 86bb 3ebd 7cbc
000003f0: 75df cfbd e1af 80bc 0042 43bc 230f aabd
0.01800069 0.011619114 0.019434271 0.013703679 -0.029415846 -0.0118341325 0.03282088 0.051241316
0.016924592 0.012634639 0.024781516 -0.009402512 0.009239065 -0.0050189556 -0.01744222 -0.041924834
-0.011534259 -0.018432448 -0.032384783 -0.031222332 -0.011834046 0.063230515 0.024627835 0.05643239
0.028943764 0.04024563 -0.08721502 -0.057625342 -0.07590169 -0.027587652 0.056152616 -0.010016889
0.015186716 0.027949905 0.00039996245 0.019650893 -0.01772385 -0.0065849097 -0.05090968 -0.008052883
0.052375365 0.030461164 -0.023684815 0.0071986318 -0.0045325863 0.0040967534 0.03761818 -0.015361247
0.026567243 -0.028180769 0.006057417 -0.022432104 0.015578433 -0.030973786 -0.027437702 -0.009624517
-0.042604182 -0.037471287 -0.01948486 -0.04824831 0.033073798 0.033329353 0.036896408 0.0034660893
0.06519583 0.04159386 -0.038998943 0.034328442 -0.019892165 0.014837927 -0.007881187 0.03226252
-0.020997576 -0.0075935666 -0.0102751795 -0.060230717 -0.03444853 0.0063720923 -0.00993399 0.03125247
0.053860173 -0.0065725446 -0.0066408836 -0.021419063 0.0016540599 0.015913183 0.021185368 3.6576814e-05
0.030019961 0.013802527 -0.02509618 0.029341262 -0.0420057 -0.016536936 0.026548902 -0.039197695
-0.015366527 0.031107936 0.008433105 -0.029487545 0.047433175 0.0586061 0.046528686 0.071611375
0.08601066 0.038405906 -0.014160717 0.011917171 -0.006351082 -0.0071592834 -0.009683688 -0.05630387
-0.04310636 0.00062249944 -0.008085484 -0.016864732 0.023763662 0.026029095 -0.014810521 0.0057466077
0.044970743 0.036875267 0.05071582 0.0018008072 -0.0087669 -0.026389666 -0.04492018 -0.012120196
-0.013325842 -0.014103258 0.017737977 -0.006746303 -0.086495064 -0.004215739 -0.011463173 -0.010723297
-0.01414487 0.004759304 0.049904976 0.03061921 -0.0074497894 0.025979977 0.026997508 -0.03154883
0.023708388 0.0061708475 -0.01823188 -0.019720228 -0.022703994 -0.0052751172 0.049672175 0.031388287
0.05279049 -0.0045181555 0.014538059 -0.0086272 0.0004680067 0.05908316 -0.04512424 0.03682377
0.015401368 -0.06086684 -0.012512275 0.033978943 -0.00051103294 -0.015310551 0.0035848925 0.0020657103
-0.06760069 0.014057903 -0.0645121 -0.035167225 -0.0013838075 0.0101689035 0.0026255865 0.005058966
0.023875028 -0.009375569 0.01652604 0.0105203055 0.01226331 0.024188913 -0.011217384 0.06068577
0.0053972853 -0.016434101 -0.0555855 0.012496597 -0.050469548 0.017475655 -0.009852543 -0.0025734268
0.021552382 -0.01612526 -0.026853628 0.009465319 0.021118771 0.0031257288 -0.029122788 -0.05918696
-0.008122159 0.036634672 -0.0246706 0.025887186 0.00048234916 -0.038758747 -0.036431484 -0.046664473
-0.07835831 -0.10453248 0.01508771 -0.008797682 -0.037201326 0.020084217 -0.03873456 0.03904842
-0.05922997 -0.03305153 0.02872933 -0.0429542 -0.005514873 -0.04173175 -0.054090608 -0.030919036
-0.01788182 0.00778927 -0.02598379 0.01600611 0.04643503 0.009012879 -0.017134674 0.008725435
0.004336779 -0.046049815 -0.057353254 -0.06930506 0.026736243 -0.016553557 0.009697738 0.045618854
-0.0071390825 0.04390249 0.08011874 0.08786732 0.0019222614 0.035722114 -0.041942168 0.0071336473
0.002050032 -0.0036567294 -0.004111166 -0.015425978 -0.10150043 -0.015708866 -0.011917591 -0.08303668

module.encoder.c3.0.bias f4 [32]
00000000: 28dc 6435 a85f 4f35 53a5 e734 cfad a835
00000010: e9f1 8d33 47a4 6ab5 38a3 6f34 454f b435
00000020: 17fb 73b5 573a 03b4 224a b835 b75e 2235
00000030: ac40 1db3 4bf6 87b4 75e1 1435 4c89 cf34
00000040: 1f89 2735 ffd6 b235 4763 44b5 296c fdb4
00000050: 7615 2eb4 e473 08b4 987f 0535 fadf 0035
00000060: 86b8 a6b5 9594 4cb5 1c3e 2036 2fca 66b5
00000070: 7039 a0b4 1e31 6734 1c56 2e36 8e2c 6db5
8.525699e-07 7.725271e-07 4.3147392e-07 1.256756e-06 6.609827e-08 -8.741085e-07 2.2317988e-07 1.3434116e-06
-9.088994e-07 -1.222155e-07 1.3730644e-06 6.048753e-07 -3.661323e-08 -2.532491e-07 5.546238e-07 3.865665e-07
6.2411885e-07 1.3324606e-06 -7.316016e-07 -4.720362e-07 -1.621282e-07 -1.2708148e-07 4.9732034e-07 4.8009645e-07
-1.2421667e-06 -7.621214e-07 2.387801e-06 -8.597589e-07 -2.9844114e-07 2.153142e-07 2.5978143e-06 -8.8354216e-07

module.encoder.c3.1.weight f4 [32]
00000000: ecdc a03f c94f 9b3f 0758 8f3f 5ed5 913f
00000010: 85c7 913f 74e5 8c3f 71c9 833f f511 913f
00000020: c597 8c3f 2abf 923f 5e47 903f 5197 9c3f
00000030: 8694 9b3f b59c 993f b7df 9b3f 8ce2 933f
00000040: c27e 8b3f c8fb 8e3f 1345 943f 62c7 9b3f
00000050: 1a48 9e3f ddc8 933f 9a75 9d3f f625 9b3f
00000060: 5db7 9e3f 9f85 913f a3e1 923f 8815 8f3f
00000070: 178a 933f 13c4 9a3f 79eb 973f f87e 973f
1.256742 1.2133723 1.1198739 1.139324 1.1389014 1.1007524 1.029585 1.1333605
1.0983816 1.1464589 1.127178 1.2233678 1.2154701 1.2000948 1.2177647 1.1553512
1.0898058 1.1170588 1.158358 1.2170222 1.2365754 1.1545674 1.2301514 1.212096
1.2399708 1.1368903 1.1475109 1.1178446 1.1526517 1.2091087 1.1868736 1.1835623

module.encoder.c3.1.bias f4 [32]
00000000: 3c27 19be 7f6b 2e3d 647c 90bd 4ab8 ef3c
00000010: 783e b9bd 5429 c1bd 6770 283d 4a42 c43d
00000020: 603e 183e 6675 853d b48d 34bd 73ab 42bd
00000030: 6ab9 8c3d 29d3 f03d 2f1e e63c de4f c03c
00000040: 5471 fd3d 5603 a33d 33d6 89bd 79c6 b8bd
00000050: 0e4b e439 0339 2d3d 8ca3 a63d 6ed7 8e3d
00000060: 6009 4cbd 8cf6 ce3c 427e f73c 2c24 e3bb
00000070: bb78 313d d6a0 9e3d cb91 43bd 43a1 d73c
-0.14956373 0.042582985 -0.07054976 0.02926268 -0.09045118 -0.09431711 0.04112282 0.09582956
0.14867544 0.065165326 -0.04408045 -0.047526788 0.068713024 0.117590256 0.028090565 0.023475584
0.12375131 0.07959621 -0.067303084 -0.09022231 0.0004354347 0.0422907 0.08136663 0.06974684
-0.04981363 0.025264047 0.030211572 -0.0069318023 0.04332803 0.07745521 -0.04774646 0.026322013

module.encoder.c3.1.running_mean f4 [32]
00000000: db4a 30bf 3d4d 3bbf 9882 58bf cbcc b6bc
00000010: afdd 373f df3a a6be c6b8 9d3e bc3c febd
00000020: ba43 1bbf 6981 3c3f eefd 66be 97b5 8bbe
00000030: 4176 e1bd 34e3 3b3e 1342 283e f860 a7be
00000040: cf68 8c3e e663 033e 096c 1e3e 0b3f bd3e
00000050: f4c4 8abe 0779 dcbd 3cff 10bf 2f5c 2abe
00000060: 3f12 56bf 88e0 d63e 3b27 563e 9da3 063f
00000070: 97cc 063f b15e 30be e43e 0fbf 3d9c 633d
-0.6886422 -0.7316473 -0.8457427 -0.02231445 0.7182264 -0.3246679 0.30805033 -0.12413928
-0.6065022 0.73634964 -0.22557804 -0.2728698 -0.11008883 0.1834839 0.16431455 -0.3269117
0.27423713 0.12831077 0.154709 0.3696216 -0.27103388 -0.10765272 -0.56639457 -0.16636728
-0.8362159 0.4196818 0.20913403 0.52593404 0.5265593 -0.17223622 -0.5595534 0.055568922
