logs/exp5/model_iters_17000.pth (torch, 495376 bytes, 47 tensors)

module.encoder.c1.main.0.weight f4 [32, 3, 3, 3]
000000 2b 7a 33 bc 8e 43 c3 3b b4 b9 b4 bb 31 48 ed bc
       -0.01095442 0.005958981 -0.0055153016 -0.028965088
000010 13 e2 c0 3a fe c6 81 3b 52 59 66 bb 11 15 ee 3c
       0.0014715813 0.0039604893 -0.0035148454 0.02906278
000020 ae 22 d2 3c 7e 9c 8a bb 40 a7 45 bd 1b f4 b8 3c
       0.025651302 -0.004230081 -0.048255205 0.022577336
000030 bc c0 33 bc 88 f4 0f 3b d6 05 38 3d d9 71 78 bb
       -0.010971244 0.002196582 0.04492744 -0.0037909655
000040 f2 85 19 3b 6e 8c 19 3c 32 19 36 bd 03 10 83 bd
       0.0023425785 0.00937186 -0.044457622 -0.06399538
000050 93 7b b3 bc 4b 20 7f bd f8 45 37 3c 15 30 78 3d
       -0.02190951 -0.062286656 0.011186115 0.06059273
000060 a4 e6 91 3c d2 bf 25 bd 6f 16 4c 3d 00 e1 79 3b
       0.017810173 -0.040466137 0.04982608 0.0038128495
000070 69 88 61 bc 65 09 8f 3c fa 32 5e 3c 19 99 e7 3c
       -0.013765433 0.017460534 0.013561958 0.028271245
000080 98 87 07 3d 2d cb a8 bb 81 f6 51 3c ed 2d 75 bc
       0.033088297 -0.0051511736 0.012815119 -0.014964563
000090 03 2b b4 3b 4a 68 8b bc af 08 d0 bc e5 9b 89 bb
       0.0054982915 -0.017017502 -0.025394766 -0.0041994923
0000a0 6e 12 05 bb b9 c7 52 39 7b 92 4d 3d 1e 75 b6 3c
       -0.0020305174 0.00020101563 0.050188523 0.022272643
0000b0 ea fb a1 bc 1e 1a cf 39 0c 45 25 bb a2 0c be 3c
       -0.019773442 0.00039501576 -0.0025218157 0.023199383
0000c0 b0 e0 4d bc e5 65 cb 3c 73 0c f2 3d 8b 96 50 bd
       -0.012565777 0.02482886 0.11818781 -0.05092482
0000d0 2b 82 39 bd e1 a6 70 bd b9 5c 08 3d c6 33 33 bd
       -0.045290153 -0.058752898 0.033291552 -0.043750547
0000e0 02 13 4c bc 3c f4 4e 3d 1e d8 7e 3b 8d 3b a8 bc
       -0.012455704 0.05052589 0.003888614 -0.020536209
0000f0 8f 84 70 3c 3b 0e 39 bc 12 28 23 3c 2a d2 a5 bc
       0.014680042 -0.011294897 0.009958284 -0.020241816
000100 66 fa 3f bd ba ff d0 3a c9 5d 23 bc 01 60 25 3d
       -0.046869658 0.0015945353 -0.009971091 0.04037476
000110 e0 11 ab 3c 25 be 6b 3b 49 08 ae ba 21 50 e1 3a
       0.020882547 0.003597149 -0.0013277616 0.0017190018
000120 3f 13 69 bd c5 b1 fe 3c fe 57 ca 3c 9b 90 02 bd
       -0.05690312 0.031090626 0.024700161 -0.031876188
000130 02 b1 87 bd 1e 22 5b bc 12 78 6a bd f8 2c 2a 3d
       -0.066255584 -0.013374833 -0.057243414 0.04154679
000140 6f 4a 05 3c 6f 47 21 bd b7 92 cc bc 47 99 8e bc
       0.008135422 -0.039374765 -0.024972303 -0.017407073
000150 1a 25 0a bc 9c 5a fe bc 9e 5e 32 3c 3b 9e 60 3c
       -0.008431697 -0.031049065 0.010886816 0.0137096
000160 82 09 86 3b c1 8c 49 3d 44 fa fe bc df 82 9d bc
       0.004090489 0.0492065 -0.031125195 -0.019227443
000170 0b 3b 8a bc 72 f4 75 3d e7 70 4b bc 41 64 d9 bb
       -0.016873857 0.060047574 -0.012417055 -0.0066342657
000180 39 c4 7c bc b8 0b f6 3c 24 51 2b 3c 78 b0 ef bc
       -0.0154276425 0.030034885 0.010456357 -0.029258952
000190 a7 51 93 bc 88 e4 d1 b9 43 47 63 bc 42 47 df bc
       -0.01798327 -0.00040033855 -0.013871971 -0.027255658
0001a0 71 48 64 bb 90 fe 0e bd 79 b4 29 bd e6 3a 98 3c
       -0.0034833218 -0.03491074 -0.041431878 0.018582772
0001b0 30 07 b4 3c 98 bd e6 3a 57 d3 db bc 38 bb 03 bc
       0.021976084 0.0017604111 -0.026834173 -0.008040242
0001c0 56 f4 af 3a be 5a 3d bb c0 0d 9d bc d7 26 1e bc
       0.0013424258 -0.0028893198 -0.019171596 -0.009652815
0001d0 d0 b5 8b 3a 04 8c 17 bd 8a f2 47 bd 2c 14 88 bc
       0.0010659043 -0.036998764 -0.048815288 -0.016611181
0001e0 98 e1 b0 3c 59 bc 6d bc bd 16 a0 bb 21 44 3a 3d
       0.021591946 -0.014510238 -0.004885523 0.04547513
0001f0 5a 3f b8 3c 70 67 60 3c 4d 6e d3 bc 1b 43 eb 3c
       0.022491146 0.013696536 -0.025809431 0.028718522
000200 85 2d 39 3d b2 ac 2d 3c f3 c9 4b 3d 32 65 df bc
       0.045209426 0.010600256 0.04975314 -0.027269933
000210 d9 c4 23 bb 83 5f 67 bd 9d d6 24 3c e9 28 43 3c
       -0.0024989157 -0.05648757 0.010060933 0.011911609
000220 3b 7c f2 bc 2a 31 b7 bc 8b db b8 3a eb 14 ea 3c
       -0.029600253 -0.02236231 0.0014103515 0.028574428
000230 87 f5 96 3c 4a 69 c5 bc ca aa 10 3d b7 a3 ae 3b
       0.018427623 -0.024098057 0.035319127 0.005329575
000240 58 bf 4b 3d b8 72 ca 3c 5d f5 e0 bb 9f fd ef 3c
       0.049743026 0.024712905 -0.006865187 0.02929574
000250 5a d9 84 bd b3 37 61 3c 75 5e 0e 3c fe e0 fb bc
       -0.06486769 0.01374619 0.0086895125 -0.030746933
000260 77 6c eb bc 71 ea ae bc 33 3f 5f bb 23 9a 23 3d
       -0.028738244 -0.021352025 -0.003406477 0.039941918
000270 d8 68 07 3c e5 4d 55 bd ed 90 64 3c e2 74 e2 bc
       0.008264743 -0.05207624 0.013950569 -0.027643625
000280 24 7a ab bb 4a 5a 35 3c eb db 79 bb a5 13 b0 3b
       -0.005233066 0.01106889 -0.0038125466 0.0053734356
000290 cf 36 19 3c 5e 08 e1 bc e8 8e 11 3b 85 e8 f3 3c
       0.009351446 -0.02746981 0.0022210423 0.02977396
0002a0 04 f6 ea bc a3 24 29 bd a2 c6 c0 3a 8e 7e 49 3d
       -0.028681763 -0.041294705 0.0014707635 0.049192958
0002b0 67 d3 9f 3b 01 0d 8d 3d 14 5a 34 bb 9f 32 d5 bc
       0.004877496 0.06887246 -0.002751951 -0.026025115
0002c0 73 0c 82 bc d5 17 d8 bc 31 d2 e3 bc 5f 3d 8a bc
       -0.015875077 -0.026378551 -0.027810188 -0.016874967
0002d0 eb 67 b4 bc 7c d3 71 bd 12 ad a0 bb 8c 18 53 3d
       -0.022022208 -0.059039578 -0.004903444 0.05153708
0002e0 68 25 07 bc 82 91 11 3a ef de ff 3c 06 6b 54 3b
       -0.008248664 0.00055529934 0.031234233 0.0032412424
0002f0 f5 65 f7 bb b0 39 85 3d 93 00 36 3b 2d dc 16 bd
       -0.007549996 0.06505144 0.0027771338 -0.03683107
000300 76 07 8e 3c 3e b1 a5 ba 29 6e 2e 3c f5 fa 6b bc
       0.017337542 -0.0012641323 0.010646381 -0.014403095
000310 60 df d8 3b 5c 86 f4 bc 43 6d a0 bd 68 cb 90 3b
       0.0066184253 -0.029849224 -0.0783334 0.004418779
000320 13 26 a0 bb 93 63 dd 3c 29 d3 43 3c 46 2f 15 3d
       -0.0048873513 0.02702502 0.0119522 0.036422037
000330 71 ab 00 3d a1 d2 b4 bc 49 8a d8 bb 74 9c 87 bc
       0.0314135 -0.022073092 -0.0066082818 -0.016554095
000340 f1 d0 06 bc 48 23 eb 3c 97 77 3a 3d fc 88 74 3c
       -0.008228526 0.028703347 0.045524206 0.014925238
000350 43 c1 84 3c 61 ad ab bb 4b 08 a4 bd 23 3f 93 bd
       0.016205436 -0.0052391742 -0.08009394 -0.07189777
000360 15 6b e3 3c 3d 88 53 bb a0 67 15 3b 2a ac 45 3c
       0.027761022 -0.003227725 0.002279736 0.012064973
000370 ca 0b bc 3b 9f 68 16 bc 50 fe 8b 3c d5 c5 c0 3c
       0.00573871 -0.009180217 0.01708904 0.023531834
000380 39 bf ce bc 69 46 00 bd 7c 1d 4a bd 89 d0 82 3b
       -0.025237666 -0.03131715 -0.049344525 0.0039921445
000390 1f cd c7 bc 50 99 56 3c 69 ec 0d 3d e2 7f 3a 3c
       -0.024389802 0.013098076 0.034649286 0.011383029
0003a0 a6 16 bc 3c 2a 57 84 3c 85 57 42 3d 0a 52 83 ba
       0.022960018 0.016154844 0.047446746 -0.0010018956
0003b0 26 44 32 3c 4e c9 3c bd aa ea da bc 69 bd 7f bc
       0.010880506 -0.046090417 -0.026723225 -0.015609124
0003c0 37 05 47 bd ae 9f 64 bd bb 8a 26 bc f4 ba ec bb
       -0.048588958 -0.055816345 -0.010164912 -0.007224435
0003d0 14 c9 88 bc 28 e1 c9 bc 82 e0 7a bc 2b af 26 3a
       -0.016697444 -0.024643496 -0.015312316 0.00063584995
0003e0 23 3b e8 bc 92 4d 11 bb 33 73 37 3a fe 2e 30 3c
       -0.028348511 -0.002217148 0.0006998062 0.010753391
0003f0 00 25 93 3c 82 e3 e5 3b 4c 38 5e bb c8 6c 9b ba
       0.017961979 0.0070156464 -0.0033908067 -0.0011857981

module.encoder.c1.main.0.bias f4 [32]
000000 8a 21 49 39 93 d7 ab b8 56 30 61 b9 b5 1c 53 b8
       0.00019181348 -8.194069e-05 -0.00021475679 -5.0333056e-05
000010 ea 1c ad b8 bb 15 16 3a de 00 0e 39 39 62 b4 b8
       -8.2546685e-05 0.0005725284 0.00013542498 -8.601364e-05
000020 c1 dd a4 b9 0e cd 45 b9 03 25 fa 39 dd 62 83 38
       -0.00031445737 -0.00018863773 0.00047711292 6.2649815e-05
000030 36 5d c1 b9 23 5a 2a b9 7a d2 82 38 16 8a 94 39
       -0.00036881276 -0.00016246042 6.2380874e-05 0.00028331642
000040 6e 88 17 38 c2 68 d6 b9 a8 1a 39 b8 b6 58 2d b9
       3.6128265e-05 -0.0004089531 -4.4132263e-05 -0.00016531613
000050 7f 86 31 b9 ee 60 06 39 d9 2c 13 38 a3 6b 36 3a
       -0.00016930139 0.00012815345 3.50893e-05 0.0006958788
000060 5c bc 8b b9 c6 f3 b8 b8 c2 41 75 39 5d 1b 89 39
       -0.00026652485 -8.81921e-05 0.00023389517 0.00026151064
000070 c3 4b e8 38 e3 c2 42 38 90 18 80 39 19 5c 60 38
       0.00011076734 4.6434707e-05 0.00024432363 5.3491534e-05

module.encoder.c1.main.1.weight f4 [32]
000000 a5 35 82 3f 66 89 81 3f d8 de 76 3f 90 a4 7a 3f
       1.0172621 1.0120056 0.9643378 0.9790735
000010 10 47 83 3f e6 c1 7f 3f cf dd 80 3f 55 db 7f 3f
       1.0256062 0.9990524 1.0067691 0.9994405
000020 08 64 78 3f 88 cc 81 3f be 16 82 3f a2 e9 7d 3f
       0.97027636 1.0140543 1.016319 0.9918462
000030 37 32 87 3f 3e 53 82 3f a6 6c 7d 3f 8a 4a 7c 3f
       1.0562199 1.0181653 0.9899391 0.9855124
000040 f6 c6 6b 3f 90 95 80 3f 21 27 7a 3f 27 f7 7f 3f
       0.92100465 1.0045643 0.97715956 0.999865
000050 ea 7e 79 3f 35 d2 83 3f ee 54 7c 3f 77 8f 87 3f
       0.9745928 1.0298525 0.9856709 1.0590657
000060 c0 a1 78 3f f0 86 80 3f d0 9a 7d 3f c4 65 81 3f
       0.9712181 1.004118 0.9906435 1.0109181
000070 3a d0 7a 3f a6 4d 6f 3f f7 26 81 3f 2d 3a 6f 3f
       0.9797398 0.9347786 1.0090016 0.93448144

module.encoder.c1.main.1.bias f4 [32]
000000 3e 7c 28 bd bf 9d 3b bd 47 10 90 bd 23 bf b2 bd
       -0.04113411 -0.045804735 -0.07034355 -0.08727863
000010 ca 9b 51 39 3f eb c0 3a 2d 46 7c 3b 49 e3 bd bd
       0.00019989829 0.0014718546 0.0038493976 -0.09271867
000020 fc fa 46 bd 8e 65 e2 3c db 1f c7 bd cd a0 7a bc
       -0.0485792 0.027636316 -0.09722873 -0.015297127
000030 0a 2a 57 bd dc 8c 5c 3d 14 49 38 3c c1 8f 92 bd
       -0.052530326 0.05384527 0.011247892 -0.07156325
000040 5d 8c 93 bd 46 ef 95 bc cd e4 63 bd ff f7 ba bd
       -0.072045065 -0.018302571 -0.055638123 -0.09129333
000050 b6 c5 33 bd d9 3e 4d 3c 8b 08 64 bc dc 6c 8a bc
       -0.043889724 0.012527191 -0.013918052 -0.016897611
000060 67 4c 12 bd d3 fa be bc f5 fa 3d bd 27 7a f0 bb
       -0.035717394 -0.023312962 -0.04638191 -0.0073387804
000070 86 1d 69 bd ae f4 06 bd 43 9a d7 3b 4b 84 21 bd
       -0.05691292 -0.03294819 0.0065796687 -0.039432805

module.encoder.c1.main.3.weight f4 [32, 32, 3, 3]
000000 8e 00 13 bd 09 1d f8 3c 63 dd 27 3d 4a d4 19 bd
       -0.0358892 0.030287283 0.040982615 -0.03755597
000010 20 33 5a 3b 6a 75 17 bd 8a b5 08 3b e3 a6 69 3b
       0.0033294633 -0.03697721 0.002086016 0.003565245
000020 a2 cd ad bb 80 7a 79 bc a3 d3 b3 ba 91 25 50 3d
       -0.0053040544 -0.01522696 -0.0013719689 0.050817076
000030 05 f1 1d bc 07 4d d6 3c 2e 34 15 3b 2f 24 8b bc
       -0.009639983 0.026159776 0.0022766697 -0.016985027
000040 0e 7c d9 3c c3 2b dd bb 0a 6d c9 bc 89 82 e4 bc
       0.026548412 -0.0067496016 -0.024588127 -0.027894275
000050 88 54 2a bc 2c c7 2e 3b 3f 9e 25 3b cb 0e 26 3c
       -0.01039613 0.0026669009 0.0025271324 0.010135363
000060 c9 66 bb bb 5e 55 d3 bb d1 33 96 bc 1a ac 0a 3d
       -0.00571904 -0.0064493855 -0.018335255 0.033855535
000070 ce 89 5d 3c d5 86 bb 3c 75 80 72 3d 7c 2c b4 bb
       0.013521625 0.022891441 0.059204537 -0.005498467
000080 b8 47 20 ba 7f 1d 1d bc b1 96 62 bb e8 b0 f0 3c
       -0.00061142026 -0.009589552 -0.0034574682 0.02938123
000090 36 1b b3 3c 31 ff d4 bc 29 d6 02 bd 0d 54 74 3c
       0.021863561 -0.026000591 -0.03194252 0.014912617
0000a0 61 93 38 bc 71 09 b4 bb 7f 97 33 37 3c 3e a3 3b
       -0.011265607 -0.0054942896 1.0704504e-05 0.004981784
0000b0 13 b9 58 3c e2 a9 dd bc 9e 79 1a bd b2 03 aa 3c
       0.013227719 -0.027058546 -0.03771364 0.020753715
0000c0 f1 58 da 3c 69 24 8f 3c e3 11 ea bb a6 45 89 bc
       0.026653739 0.017473416 -0.0071432455 -0.016756844
0000d0 55 23 a7 3c e1 a0 c6 bc f2 86 6b 3a 31 bd 05 3c
       0.02040259 -0.024246635 0.0008984647 0.0081627825
0000e0 7b 1b 04 3c 91 d3 5e bc 89 2c 54 3b 7e e9 10 3c
       0.0080631925 -0.013600246 0.0032375178 0.008844731
0000f0 8b 3d f6 bc bc 77 a3 3c cd 05 03 3c d9 1b 80 3b
       -0.030058643 0.019954555 0.0079969885 0.0039095697
000100 c2 cd 0a 3d 98 13 e4 3c 63 6d 00 3c 3e af 03 bd
       0.033887632 0.027841374 0.00783858 -0.032149546
000110 1c 0e 51 bd 41 2d 05 3c 64 c9 e6 3b eb 7e 20 bc
       -0.051038846 0.008128465 0.0070430506 -0.009795885
000120 52 bc 9b bc 75 38 55 bc b6 65 9e 3b 05 d3 4f bc
       -0.019010697 -0.013013949 0.004833902 -0.012684588
000130 c9 b7 a0 bb 2a 9a 26 3d 6d a1 28 3b 05 e0 10 3c
       -0.0049047214 0.040674366 0.0025730983 0.008842473
000140 16 8c ea 3b 34 22 62 3c a2 bc 66 bc 31 2e 2f bc
       0.007157813 0.0138021 -0.0140830595 -0.010692165
000150 9c cd 1c bd a8 04 5b bc 52 a5 3c bd fc 99 76 3d
       -0.038282022 -0.013367809 -0.0460561 0.060205445
000160 ff 5c 88 bc a2 70 4b bc cb 37 f2 bc 5c 1c 38 bd
       -0.016645906 -0.0124169905 -0.02956762 -0.04494892
000170 89 03 35 bd 7a e9 0a 3c 87 4a 22 bc 8c 34 af bb
       -0.044192825 0.008478517 -0.009905464 -0.0053468402
000180 42 b4 21 bb 27 05 0f 39 88 42 4f bb 09 70 09 3c
       -0.0024674092 0.00013639462 -0.003162535 0.008388528
000190 05 f3 43 bd 68 42 50 3d 9f 59 b6 3a da 40 a2 3c
       -0.047839183 0.05084458 0.0013912207 0.019806314
0001a0 52 22 26 3d 6d fe 72 3c 59 ac 96 3c 16 19 6b 3c
       0.040560074 0.014831168 0.018392729 0.014349243
0001b0 42 1f f2 bc 90 36 4b 3d 72 75 e6 3c c1 3d aa bc
       -0.02955592 0.04961258 0.028132174 -0.0207814
0001c0 40 d7 af bc f9 14 05 bc b8 63 2d 3d aa 55 1e 3c
       -0.021464944 -0.008122676 0.042331427 0.009663979
0001d0 63 5a d2 bb 23 0c 4b 3d 49 38 ed 3c 76 96 17 3c
       -0.0064194663 0.04957212 0.028957503 0.009252181
0001e0 ae 58 8f 3d 5b a6 8a 3c 89 4e 22 3d 42 96 9e 3d
       0.06999336 0.016925028 0.03962568 0.07743503
0001f0 cc 28 cd 3c c1 91 0c 3c 47 4b 8a bc 47 34 77 bc
       0.025043868 0.008579672 -0.016881598 -0.0150881475
000200 56 c6 67 3c 94 de b2 39 82 43 98 bc 39 0d 61 bc
       0.014146408 0.0003411664 -0.018586878 -0.013736063
000210 71 26 64 3a fe 82 df bc 3c 1d 83 bd e0 13 f8 3c
       0.0008703238 -0.027284142 -0.064020604 0.030282915
000220 a6 5b c6 bc bf 3e 22 bd 9f e2 0c 3c 5e d3 54 bc
       -0.024213623 -0.03961062 0.008598953 -0.012989847
000230 35 c7 ac bc 29 9e a8 ba 28 3f 9d bc 3b 1e cd 3b
       -0.021091083 -0.0012864518 -0.019195154 0.0062597073
000240 bb c1 37 bb ac 25 df 3c 41 40 ca bc aa a6 0a 3c
       -0.0028039056 0.027239643 -0.024688842 0.008462587
000250 5b 92 bb 3b 22 5b 7e bc df af a4 3b 47 d5 cf b9
       0.005724234 -0.015524657 0.0050258483 -0.0003964102
000260 b0 ff 80 3c 88 97 9b 38 e8 4e 92 3b 2a 8d 8f 3c
       0.015746921 7.419201e-05 0.0044649728 0.017523367
000270 07 17 20 bc 76 4e a5 3c 40 dd de bb d8 20 4a 3c
       -0.009771115 0.020179015 -0.0068012774 0.012336932
000280 76 c7 9b 3d 5b 2a 23 3b 79 66 ff 3c 78 fb e2 bb
       0.076064035 0.0024897072 0.031176792 -0.00692695
000290 00 f9 50 3c d2 8b 1a bc 75 1a dc bc 83 89 dc 3b
       0.012754679 -0.00943275 -0.026868084 0.00673026
0002a0 7e 09 81 bb e3 c0 e6 bb f1 98 b3 3c b0 32 d0 3c
       -0.003937899 -0.007042037 0.021923514 0.025414795
0002b0 d9 cd 00 bd c7 97 72 3c c9 22 97 bc b6 30 d0 3b
       -0.03144631 0.014806694 -0.018449204 0.006353463
0002c0 4d 1a 88 3c eb 69 d8 bc 80 3a f6 3b 02 28 a9 3c
       0.016614104 -0.026417693 0.007514298 0.02064896
0002d0 6f 83 9f bc 90 92 9d bc 92 14 ad 3c fa ec 15 3c
       -0.019471852 -0.019234926 0.021127973 0.009150738
0002e0 44 25 4b 3d 5c f8 03 bd 06 80 93 3b cb f7 17 bc
       0.049596086 -0.032219276 0.0045013456 -0.009275387
0002f0 65 0c af 3c 03 aa ac 3c a0 e3 1f 3d d0 e1 bc bc
       0.021368215 0.021077162 0.03903544 -0.023056895
000300 ff 9f f0 bc e3 14 5c 3c fc 27 de 3c df 80 a0 bc
       -0.029373167 0.013432714 0.027118675 -0.0195927
000310 23 5a a3 bb 75 37 e3 bc 10 f3 e8 3c f3 02 bb 3c
       -0.0049851104 -0.027736405 0.028436214 0.022828555
000320 fb 66 e1 3c 4f a4 b2 3c 06 f3 8c 3d 86 a4 c9 3a
       0.027514925 0.021806864 0.068822905 0.0015384115
000330 46 91 4b 3d 33 9a 4e bc f6 98 fb 3c 0e 79 d0 bb
       0.04969909 -0.012610006 0.030712586 -0.006362087
000340 ab 6c 6a bc ee 00 14 3d ca 7a 72 3a 4a 79 aa ba
       -0.014308135 0.0361337 0.00092498644 -0.0013006118
000350 4e 40 18 bc 2e 05 12 bd d5 e8 56 bc cc 1a 30 bd
       -0.009292675 -0.03564947 -0.013117035 -0.042994305
000360 44 dc 95 3c 4a c1 c9 3c 05 d2 1f bb 20 12 5f 3b
       0.018293507 0.0246283 -0.0024386656 0.0034037903
000370 e7 be d0 bc 7b 32 27 3d b8 73 5f bc 48 6e da bc
       -0.025481654 0.040819626 -0.013638429 -0.026663914
000380 c5 aa ab 3c b1 57 f5 bc 6d e4 b8 bc 7d 42 04 3c
       0.020955453 -0.029949041 -0.02256986 0.008072493
000390 da 74 71 3c e4 01 42 3c bb dd 7b bc fe 81 2e 3d
       0.014737332 0.011841271 -0.015372689 0.04260444
0003a0 ae ea 8f bd ca 50 4e bd f6 a0 63 bb 30 b0 3f bc
       -0.070271835 -0.050370015 -0.0034733391 -0.011699721
0003b0 7b 3d 11 3d 3a 40 24 3d 55 f6 80 3c 7b bc b8 bc
       0.035459023 0.040100314 0.01574246 -0.022550812
0003c0 38 f7 23 3c 8d 87 36 3d 5e 84 50 bb 03 ee f4 bc
       0.010007672 0.044562865 -0.0031817178 -0.02989865
0003d0 34 ed e3 3c 38 91 fb 3b 1b 37 2e 3c 1b b8 1e bd
       0.027823068 0.0076772235 0.010633255 -0.038749795
0003e0 be 2b 31 3d 6a c8 62 3c 93 15 b4 bb 01 8f c8 bb
       0.043254606 0.013841728 -0.005495736 -0.006120563
0003f0 1c 6a f9 3b 6d fa f5 3b b4 47 1a bc 29 a8 bd 3c
       0.007611526 0.0075066597 -0.009416509 0.023151474

module.encoder.c1.main.3.bias f4 [32]
000000 b6 3f c7 35 df 31 9e b7 7c 86 a5 b3 2d 99 ef 37
       1.4845198e-06 -1.885829e-05 -7.707874e-08 2.8562348e-05
000010 31 a0 24 b7 60 95 92 b8 c9 65 3c b8 a7 46 b9 36
       -9.812459e-06 -6.989646e-05 -4.4917488e-05 5.5216547e-06
000020 8e 7b 61 36 23 5e 33 37 41 b0 7a b6 4d 87 1a b7
       3.359953e-06 1.0691149e-05 -3.7355496e-06 -9.2106175e-06
000030 33 92 47 b5 37 e7 56 b6 99 ac 00 b7 e1 90 1e 37
       -7.4346025e-07 -3.202307e-06 -7.669581e-06 9.451266e-06
000040 90 d0 5b b6 fe 5e 94 36 2d 7f de 36 5d 1f a6 b7
       -3.2754942e-06 4.4218023e-06 6.630921e-06 -1.9803347e-05
000050 a2 40 41 b8 7e 2a 25 b7 39 c5 0d 35 54 f6 c9 36
       -4.607498e-05 -9.84466e-06 5.281359e-07 6.018943e-06
000060 2c 48 60 b6 25 01 bb b5 63 b5 13 b8 50 dc d2 37
       -3.342061e-06 -1.3932919e-06 -3.521646e-05 2.5136542e-05
000070 36 43 9d 37 44 ca 55 37 2a 0c 6b b7 34 bc ae b7
       1.8747156e-05 1.2742883e-05 -1.4009924e-05 -2.0830055e-05

module.encoder.c1.main.4.weight f4 [32]
000000 a4 9f 79 3f 1a d8 72 3f 2f 37 78 3f 87 87 80 3f
       0.9750922 0.94860995 0.96959203 1.004136
000010 f4 a9 7d 3f ec db 82 3f ae 98 81 3f ec a5 7b 3f
       0.9908745 1.0223365 1.0124719 0.9830005
000020 ad 9b 80 3f b0 d5 68 3f 69 3d 7d 3f 43 0f 7c 3f
       1.0047508 0.9095106 0.9892183 0.9846079
000030 5f b4 69 3f 16 1e 7b 3f 2b aa 79 3f d1 27 76 3f
       0.9129085 0.9809278 0.9752528 0.96154505
000040 65 78 77 3f 3a f6 7b 3f 9d bf 7c 3f 24 1c 81 3f
       0.9666808 0.98422587 0.9872988 1.0086713
000050 ae a6 80 3f 64 0b 76 3f 25 ff 71 3f e5 5d 7c 3f
       1.0050867 0.9611113 0.94529945 0.9858077
000060 07 9b 71 3f 0a 31 78 3f 7f 04 7f 3f 09 e2 81 3f
       0.9437718 0.9694983 0.99616235 1.0147105
000070 2b 18 7f 3f 9f 00 73 3f 2c d9 72 3f 01 b7 7e 3f
       0.9964625 0.9492282 0.9486263 0.9949799

module.encoder.c1.main.4.bias f4 [32]
000000 d1 ec c4 bb 0c 0f 0d bb e0 9c de 3b 3a 2f 1d 3d
       -0.006009676 -0.0021523861 0.0067936033 0.038375117
000010 b7 03 c4 3b a2 4c fa bc ec b2 a1 bd 8e a2 0d 3d
       0.005981888 -0.03055412 -0.07895455 0.034578852
000020 ca a7 02 3a 85 48 87 bd 6e 85 88 3c 05 88 cd 3a
       0.0004984109 -0.06605629 0.016665187 0.0015680796
000030 63 18 e7 bd 11 71 a5 3c ee 35 78 3c 82 b5 1e bd
       -0.11283948 0.020195516 0.015149577 -0.038747318
000040 bd 38 38 bd a8 c2 19 3b 65 bd b8 3c 89 07 2f bd
       -0.044975985 0.0023461971 0.022551248 -0.042731795
000050 df 00 1b 3c 23 bb 86 bd 8d 0e 05 bd f1 b6 ed bc
       0.009460657 -0.06578662 -0.03248458 -0.029017897
000060 ac 0c 06 3a 03 a3 0f bc 8b 13 d3 bb bf 1d f9 3c
       0.00051135826 -0.008766892 -0.0064415387 0.030409692
000070 69 b3 3a 3c ec 5c 58 bd c0 ac cf bc 68 a5 b4 ba
       0.011395314 -0.052822992 -0.025350928 -0.0013782205

module.encoder.c2.main.0.weight f4 [64, 32, 3, 3]
000000 57 74 39 bc 77 11 a2 bb 36 32 1a 3d 15 a7 08 3c
       -0.0113192415 -0.0049459296 0.03764554 0.008340617
000010 23 fe 3f bc c2 b3 9e 3b b0 41 09 3d a9 f6 29 bc
       -0.011718306 0.004843206 0.03350991 -0.01037375
000020 3f fb f8 3c 7f 6e e2 3b b8 70 4d bb 87 fd 0d bd
       0.030393241 0.006910145 -0.0031347703 -0.03466561
000030 70 2f 97 3c 92 af 32 bb 45 0b 0a bb 37 9d 5f 3d
       0.018455237 -0.0027265293 -0.0021063846 0.05459329
000040 eb 5d 32 3d 8b 17 85 3b ae 83 f9 3c 2e 55 bd bc
       0.0435466 0.0040616444 0.030458298 -0.023111906
000050 ee c0 2e bc e0 a3 f0 bb 83 23 26 bc f1 9a e9 3c
       -0.010666115 -0.007343754 -0.010140303 0.028516265
000060 06 aa dd bc df 3b 80 3b e4 9f ef 3c c9 6f d8 3b
       -0.027058613 0.003913387 0.029251046 0.0066051227
000070 57 f1 f8 3b 94 ec 0d 3c 07 ef e6 b8 43 3a 9b bc
       0.0075971293 0.008662362 -0.00011011777 -0.01894868
000080 e7 26 4d 3c 1e 35 99 bc 56 05 e7 bc 1d 5a a0 bc
       0.012521482 -0.018702086 -0.028200787 -0.01957422
000090 29 c5 8d bc 47 67 aa 3c 2a 4a c8 bb e4 4d 83 bb
       -0.017305927 0.0208012 -0.0061123567 -0.004007088
0000a0 d0 7c 71 3d 2b 9f 95 3c d6 b6 95 bc 72 9d 11 3d
       0.05895692 0.018264374 -0.01827566 0.035550542
0000b0 54 1f 7c 3d fd 44 81 bb 96 65 19 3d 3a 5a a3 bc
       0.061553314 -0.0039449916 0.037450396 -0.019940484
0000c0 5c e8 af 3c 92 04 5e 3c 48 9c 85 bc a3 8c 12 3d
       0.021473102 0.013550894 -0.016309872 0.035778653
0000d0 59 06 3d ba 69 ec 98 3c c7 f2 36 bd aa 9b 4b bd
       -0.00072107237 0.018667417 -0.044665124 -0.049709
0000e0 f7 fb 69 bd 9a 2c 89 bd 88 03 52 3c c9 8e 31 bd
       -0.057125058 -0.0669796 0.012818225 -0.04334906
0000f0 a7 6f 29 bd 4e 17 7e bd 98 d3 3c bd ea 25 9b ba
       -0.041366246 -0.062033944 -0.04610023 -0.0011836861
000100 98 62 00 3d da a7 49 bc 29 44 6c bc 97 20 84 3c
       0.031344026 -0.012308085 -0.0144205475 0.016128821
000110 38 cd 7d 3c 2d 7b 0d 3c 85 59 79 bb bc 28 a7 3a
       0.0154908225 0.008635324 -0.0038047743 0.0012753229
000120 f3 e6 84 bc 0d a0 f3 bb 24 55 79 3a 89 aa f5 3b
       -0.016223406 -0.007434851 0.0009511283 0.007497136
000130 99 e2 0e 3d 8c 03 8a bb 81 e9 56 3a 84 6d 3e bb
       0.03488407 -0.0042118486 0.0008198247 -0.0029056976
000140 48 7d ce 3b af 5b 0c 3d 92 38 aa 3c 31 bc 72 bc
       0.006301556 0.034267124 0.020778928 -0.014815376
000150 0d 32 27 bc b6 a1 89 3b 62 70 eb 3c 9c 3b 33 bc
       -0.010204804 0.0042001856 0.028740112 -0.010939505
000160 e0 ba 16 b9 08 84 06 3d d8 71 87 bb b6 b3 62 3c
       -0.00014374731 0.03284076 -0.0041334443 0.013836792
000170 6e 82 d1 bc 63 b1 6c 3c cc 9b 7e 3c 3c cd 8f 3c
       -0.025574889 0.014446589 0.015540075 0.017553918
000180 d4 5e a9 3c 30 02 44 3c 1c 9b 17 bd ef f0 59 3b
       0.0206751 0.011963412 -0.03701316 0.003325518
000190 83 bf 1b 3d 2c d9 fd 3c 9b ff e5 3c df ba 5b 3d
       0.038024437 0.030987345 0.028075984 0.05364501
0001a0 6f 0e 78 bc d0 0c f0 bb dc f6 5f 3c f4 5d d3 bc
       -0.01514016 -0.007325746 0.013669696 -0.025801636
0001b0 19 ef d7 3b 39 17 47 3c e6 03 42 3d e3 db b0 bc
       0.006589782 0.012151533 0.047367 -0.021589225
0001c0 d9 9d 52 bd 53 7f 5f bb 44 a3 29 3d 9f ef 2b bc
       -0.051420067 -0.003410299 0.041415468 -0.010494142
0001d0 74 82 88 bb f3 c5 8f bc 6e 99 0e 3d 1f d7 d6 3c
       -0.004165942 -0.017550444 0.03481429 0.026225625
0001e0 b0 ca 2f 3c c6 98 4b bb 1f a7 87 3d f2 37 9e 3c
       0.010729477 -0.0031066402 0.06623673 0.019313786
0001f0 fa 57 0c 3d d2 cb 72 bc 9f 81 32 bc 6b 1f ae 3c
       0.03426359 -0.014819102 -0.010895162 0.021255216
000200 47 26 bf 3b ab d2 10 bd e3 f1 2d 3d 57 02 16 3d
       0.0058334204 -0.03535716 0.04246701 0.036623325
000210 2f ce 13 bd 37 ba 26 bb 0e 17 57 bc b4 a6 f3 3a
       -0.036085304 -0.0025440583 -0.013128055 0.001858911
000220 9e b5 8f bc d5 57 96 bc f2 56 be bc 6c 87 99 3a
       -0.017542657 -0.018352428 -0.023234818 0.0011713332
000230 94 7c 14 3d 57 5b cc bb a4 af ec bc 3c dc e3 bc
       0.03625162 -0.0062364745 -0.028892346 -0.027814977
000240 1b 32 c5 bb 04 4e be bc 2e 68 f7 3c 60 5f 46 3c
       -0.006017936 -0.02323056 0.030201044 0.0121077
000250 f8 92 de 3c 80 e9 0f 3d e7 7a ec bb 98 42 d8 3c
       0.02716969 0.035134792 -0.0072167995 0.026398942
000260 03 37 6c 3c 07 da 22 bc e2 be 1f 3d b5 d8 88 3c
       0.014417413 -0.009939677 0.0390004 0.016704896
000270 bf 3d 60 3d 92 66 8f 3c 4e 9e ef 3c 64 dc ac 3c
       0.054746386 0.017504964 0.02925029 0.021101184
000280 31 8f 21 3c e7 f0 95 3b 15 b5 6d bd c2 c6 68 3a
       0.0098608 0.004575837 -0.05803402 0.0008879715
000290 1d b3 1b bc e3 1a 28 3c e5 e7 ea bb c8 fd 87 3c
       -0.009503153 0.010260317 -0.0071687573 0.016600505
0002a0 02 59 7b bc b0 d6 f5 bb d0 7a ba 3c ae ce f6 bc
       -0.015341045 -0.0075023994 0.02276364 -0.03012785
0002b0 e4 10 26 bd 64 5c 46 bd a3 8a fc bc b2 aa bf bc
       -0.040543452 -0.048427954 -0.030827826 -0.023396824
0002c0 4c 96 60 bc c9 fa 34 bd 8a da 7a ba 8f 21 13 bc
       -0.013707709 -0.04418448 -0.0009569308 -0.008980169
0002d0 09 8d 8c bc d4 11 ad 3c 80 dd f0 bc 26 f5 20 bc
       -0.017157095 0.021126665 -0.029402494 -0.009824073
0002e0 13 6c 0d bd 05 b5 77 bd 35 c5 be bc 43 9f 0a bd
       -0.034526896 -0.060475368 -0.023287395 -0.03384329
0002f0 a8 ab be bc 52 41 5f bd 3b f6 a7 bc c1 fc 5c bd
       -0.023275211 -0.054505654 -0.020503154 -0.053951982
000300 c0 59 37 bc 07 4c 2a bc 0e d7 4e bd 58 26 38 bb
       -0.011190832 -0.010394103 -0.05049806 -0.0028099027
000310 81 21 84 bc 44 b4 7b bc 4c 68 45 bd 32 ac 3a bd
       -0.016129257 -0.015362803 -0.04819517 -0.045574374
000320 16 0f 77 bb f6 47 52 bd cb cd ca ba 19 de ea bc
       -0.00376982 -0.05133816 -0.0015472708 -0.028670358
000330 9c ab 74 bc 73 15 05 3d 4d bb 04 3b d6 b7 1d bc
       -0.014933493 0.03249116 0.0020253242 -0.009626349
000340 11 af d0 bc 0c 3a ed bb 25 92 94 3c 86 b1 02 bd
       -0.025474103 -0.0072395857 0.018136093 -0.03190758
000350 a2 a5 1b bd 97 ad 92 bc a2 ea 63 bc dd b0 89 bb
       -0.037999757 -0.01790504 -0.013910921 -0.004201992
000360 0f 9e a2 bc 88 f2 d3 3c a0 67 1a bd e3 45 10 bc
       -0.019850759 0.025872484 -0.03769648 -0.008805725
000370 8a cf 38 3c 81 10 de bc 82 71 c2 bc c2 c5 a2 bb
       0.01127995 -0.027107479 -0.023735765 -0.004967422
000380 d6 65 b3 3c f3 c5 1f 3c 1a f8 8b 3c da 7d 2a 3c
       0.021899145 0.009751785 0.017086077 0.010405982
000390 ff 4b c1 bb 54 a3 e5 bc 5a be 0f 3d c3 9e 12 3d
       -0.005898952 -0.028031982 0.035093643 0.03579594
0003a0 f0 55 3e 3d 40 2c 8d 3d f5 01 cf 3c 8b d0 b8 bb
       0.046468675 0.06893206 0.025269488 -0.0056400946
0003b0 6b 8d 85 bb 96 d1 16 bc 60 d7 1e bc c1 97 42 3c
       -0.004075696 -0.009205243 -0.009694904 0.011877001
0003c0 c6 b0 95 3c 81 c0 3e 3c 44 6f 1d bc e1 d8 30 bd
       0.018272769 0.011642576 -0.009609047 -0.04317558
0003d0 26 b6 71 bd 86 a3 46 bd 37 c7 ec bc 01 0d 92 bd
       -0.0590116 -0.04849579 -0.028903587 -0.071313865
0003e0 ce 3d 1d bd c1 d6 67 bd d1 f8 44 bd 8b 56 20 bd
       -0.03838902 -0.05660129 -0.048088852 -0.039145034
0003f0 8d df 1b 3b 51 6c 5f bd 70 e9 82 bc 92 99 02 bd
       0.002378437 -0.054546658 -0.015980452 -0.031884737

module.encoder.c2.main.0.bias f4 [64]
000000 95 8d 75 36 56 e8 47 b5 1a d6 99 36 a5 af 93 b6
       3.6590257e-06 -7.447137e-07 4.58468e-06 -4.401389e-06
000010 9e 39 d1 36 b7 87 ff 35 28 ae 2b b5 d8 11 75 35
       6.235393e-06 1.9038479e-06 -6.3955895e-07 9.129558e-07
000020 8a d3 c7 b5 9f 0e e8 36 1a 0b be 36 a2 5a 82 36
       -1.4888221e-06 6.915841e-06 5.6637336e-06 3.884853e-06
000030 4a 8b 1a b7 ff 34 91 b5 55 7d 5b b6 3a 5a 57 36
       -9.211546e-06 -1.0818766e-06 -3.2706496e-06 3.2090015e-06
000040 c5 85 97 36 25 38 45 36 5d 6b 93 b6 7f 6d be 36
       4.5157235e-06 2.9387968e-06 -4.39344e-06 5.6751883e-06
000050 3c a7 98 b6 74 3e 16 37 5c 49 0b b7 3c 3f 24 b6
       -4.5494216e-06 8.955238e-06 -8.302126e-06 -2.4474712e-06
000060 8b c5 e6 36 02 90 6a 35 c5 1f e7 b4 0c 39 91 b3
       6.877531e-06 8.738135e-07 -4.3050218e-07 -6.7624654e-08
000070 36 95 97 35 5a 0c ea 36 6b a5 ea 35 ea 85 a4 b4
       1.1293803e-06 6.9751813e-06 1.7482502e-06 -3.0644816e-07
000080 bb 12 16 b5 d5 86 29 37 e3 e1 03 b6 62 5d ad 36
       -5.590661e-07 1.0104578e-05 -1.9652005e-06 5.166673e-06
000090 43 a7 cc b5 c9 f2 4e 34 12 1e 3d 34 7c 67 cc 35
       -1.5247864e-06 1.927357e-07 1.7612936e-07 1.5229302e-06
0000a0 78 02 f7 36 ae 46 6e b5 3e 7e 1c 36 98 bb a6 b6
       7.361461e-06 -8.876476e-07 2.3319294e-06 -4.9690243e-06
0000b0 62 8e 0b b6 e6 2e 1c b5 d3 a7 92 34 0e c5 0e 36
       -2.0795492e-06 -5.8182775e-07 2.7316727e-07 2.127435e-06
0000c0 9e a0 c8 35 ea a7 a9 36 cf d1 ad 34 d0 72 11 b6
       1.4947907e-06 5.0561403e-06 3.2376417e-07 -2.1673513e-06
0000d0 6b 5e 0e 36 86 1f f9 b6 6c 02 2e 36 28 f3 ed b4
       2.1214607e-06 -7.424448e-06 2.592943e-06 -4.432161e-07
0000e0 6e 34 e3 35 81 f6 33 36 5c b4 05 37 1d 03 72 36
       1.6928077e-06 2.6816563e-06 7.969411e-06 3.6062622e-06
0000f0 76 0d a2 36 46 44 2c b7 65 ea 3e b5 06 a3 f4 b3
       4.8295433e-06 -1.0267895e-05 -7.1121605e-07 -1.1391789e-07

module.encoder.c2.main.1.weight f4 [64]
000000 8f b8 81 3f 59 3a 87 3f a1 70 72 3f d6 19 82 3f
       1.0134448 1.0564681 0.9470311 1.0164135
000010 e1 ef 80 3f f4 40 78 3f f4 1a 73 3f 8b 4c 75 3f
       1.0073205 0.9697411 0.94963 0.9581992
000020 3c 90 85 3f 99 14 7d 3f 9e ec 81 3f 27 b0 82 3f
       1.0434642 0.98859555 1.0150335 1.0210007
000030 a9 9a 7c 3f 9b b6 7d 3f bf 6a 6d 3f 09 93 83 3f
       0.9867349 0.9910676 0.92741007 1.0279247
000040 ec ba 78 3f 53 be 75 3f 19 0e 85 3f 2b 88 84 3f
       0.9716022 0.95993537 1.0394927 1.0354055
000050 0f 13 7c 3f f1 5b 7e 3f 9f 6c 84 3f 44 1a 80 3f
       0.9846658 0.9935904 1.0345649 1.0008016
000060 28 8b 84 3f 46 75 7b 3f d4 f4 79 3f df 1a 82 3f
       1.0354967 0.9822582 0.97639203 1.016445
000070 39 e8 76 3f fd 5c 80 3f e3 a3 84 3f cf a4 7e 3f
       0.96448094 1.0028378 1.0362514 0.9947023
000080 51 36 79 3f 72 e6 86 3f bc 7a 81 3f 59 c5 7c 3f
       0.97348505 1.0539076 1.011558 0.9873863
000090 39 bd 80 3f 00 d3 6f 3f 8a d6 76 3f c9 1b 73 3f
       1.0057746 0.93681335 0.9642111 0.9496427
0000a0 66 4b 88 3f 35 38 81 3f 9f 2a 73 3f 17 4f 83 3f
       1.064801 1.0095278 0.9498691 1.0258511
0000b0 ee 84 78 3f 71 09 72 3f a7 03 7b 3f c8 35 73 3f
       0.97077835 0.94545656 0.9805245 0.9500394
0000c0 bd d9 84 3f 91 df 89 3f 97 c5 7d 3f 79 7b 77 3f
       1.0378948 1.0771352 0.99129623 0.9667278
0000d0 b8 86 74 3f a1 37 78 3f ea 0e 7b 3f 6d 85 87 3f
       0.95518064 0.9695988 0.9806963 1.0587593
0000e0 c7 13 77 3f 05 a6 78 3f 53 31 81 3f 24 8a 7a 3f
       0.9651455 0.97128326 1.0093178 0.97867036
0000f0 5b 5c 7a 3f 7a 96 7f 3f 35 bd 80 3f e4 97 79 3f
       0.97797173 0.99838984 1.0057741 0.9749739

module.encoder.c2.main.1.bias f4 [64]
000000 6f 39 00 bd e4 78 11 bd 2e 2f 16 be 5b d9 9e bd
       -0.031304773 -0.03551568 -0.14666435 -0.07756301
000010 e7 68 49 bd 7f 08 98 bd 45 a1 9d bd 07 92 d4 bd
       -0.04917231 -0.074234955 -0.07696775 -0.10379415
000020 74 ae 87 bd e8 d4 89 bd f6 76 b7 bd 81 8e 9d bd
       -0.06625071 -0.06730062 -0.08958237 -0.07693196
000030 19 06 ad bd a7 4a 96 bd 29 a1 24 be 3e dc 5d bd
       -0.08448429 -0.073384576 -0.16077103 -0.054165117
000040 8a 7a 7b bd 7c 16 d5 bd de 87 da bc 8a 18 c8 bd
       -0.06139616 -0.10404679 -0.026676115 -0.097703055
000050 c6 11 f4 bd 8a 75 44 bd 64 7f 51 bd f7 a9 8f bd
       -0.119174525 -0.047963656 -0.05114688 -0.0701484
000060 32 47 b8 bd 4e 4d ba bd fd a2 c0 bd 7b 12 2e bd
       -0.089979544 -0.09096776 -0.094060875 -0.042498093
000070 12 63 1a bd 9b 49 a7 bd 17 7d 64 bd e4 2d 16 be
       -0.037692137 -0.08168336 -0.055783357 -0.14665943
000080 91 ac 03 be b4 60 28 bd 5a ba a3 bd 28 8d 2f be
       -0.12858798 -0.04110785 -0.07994528 -0.1714369
000090 83 15 62 bd 78 97 d4 bd c0 c0 ad bd 28 f6 0c be
       -0.055196296 -0.10380453 -0.0848403 -0.13765776
0000a0 19 e7 81 bd 10 7d b6 bd 8d 82 82 bd c9 05 95 bd
       -0.063429065 -0.089105725 -0.06372557 -0.07276494
0000b0 68 62 23 be a5 04 d1 bd 30 bb bd bd 13 27 c7 bd
       -0.15955508 -0.10205964 -0.09264219 -0.0972425
0000c0 b4 ba 3c bd ff fb 2f bd c7 0d 3e bd de 4d 0d be
       -0.04607649 -0.04296493 -0.046399858 -0.13799235
0000d0 52 75 8d bd 33 44 09 be de 60 8c bd 29 ca 65 bd
       -0.06907143 -0.13404922 -0.068544134 -0.056100998
0000e0 89 e7 4e bd 9c c6 10 be 4a fc 89 bd 26 65 a1 bd
       -0.050513778 -0.14138263 -0.067375734 -0.07880621
0000f0 ad 3a f7 bc d4 a3 60 bd 09 89 a8 bd 2e c3 52 bd
       -0.030179346 -0.05484374 -0.082292624 -0.05145567

module.encoder.c2.main.3.weight f4 [64, 64, 3, 3]
000000 de 7b 34 3c 96 70 91 3b bb b8 02 bc b3 60 27 3d
       0.01101586 0.00443847 -0.0079786135 0.040863704
000010 11 69 af bc 12 59 37 3c 0a 29 c2 3b 8c 52 9a bc
       -0.021412404 0.01119067 0.0059253024 -0.01883819
000020 cc c8 04 bc 2c 98 22 3c 60 69 7c 3c 64 0f fb 3c
       -0.008104514 0.009923976 0.015405983 0.030646987
000030 9d a4 b4 bc c7 91 02 ba 9a 57 4e bc 03 90 78 bd
       -0.02205115 -0.0004980829 -0.012594128 -0.060684215
000040 4b 22 c1 bc 6a 32 c7 3a 76 7a 57 bb f9 d4 01 bc
       -0.023575922 0.001519752 -0.003287939 -0.007924312
000050 f3 fe 28 bd 59 25 06 3d 51 7a 90 3b 34 45 2c bb
       -0.041258764 0.03275046 0.0044091125 -0.0026286365
000060 0b 54 74 3c 61 9d 76 3a 3d 94 c0 bb 2a 28 4b bc
       0.0149126155 0.00094076066 -0.0058770464 -0.012399713
000070 e9 bc 8b 3c 77 92 8e bc 32 9d 05 bc d3 ba 13 bd
       0.017057853 -0.017403824 -0.008155154 -0.03606684
000080 f3 80 67 bd 39 43 d8 3c 8b 81 1a 3d 4c 77 22 3c
       -0.05651946 0.026399242 0.037721198 0.009916138
000090 93 c4 77 3d 78 83 6a 3d 56 ec b1 3c 10 66 94 bc
       0.060490202 0.057254285 0.02171914 -0.018115073
0000a0 e1 51 0a 3c 6a 53 19 bd a4 50 c4 bb f6 f0 07 3d
       0.008442373 -0.037433065 -0.0059910584 0.033188783
0000b0 8c 81 8d bc d3 e8 33 bd b8 e8 4e 3c ad 01 5f bd
       -0.017273687 -0.04392321 0.012628727 -0.054444958
0000c0 2e 42 8c 3b e3 9c 58 bc d4 f9 c3 3b d5 be ec ba
       0.00428035 -0.013220998 0.0059807096 -0.0018062243
0000d0 23 a5 21 bd 23 20 e9 bc 4b 96 6e 3c 51 a0 ec bb
       -0.039464127 -0.028457707 0.0145622 -0.0072212596
0000e0 a2 18 d0 3c ae 9e e5 bc 91 08 4c bc 5d 99 03 3d
       0.02540237 -0.028029766 -0.012453214 0.03212868
0000f0 8a 14 e0 3a 89 de 39 3c cc 65 4c 3c ec e1 a3 bc
       0.0017095965 0.01134456 0.012475442 -0.020005189
000100 59 89 22 bd 63 28 72 bc 9e 97 96 3c 44 a3 2a 3c
       -0.039681766 -0.014780137 0.018382844 0.010414902
000110 83 a5 88 3c 8a 2d 22 3d 41 9c 70 bc e9 bc 24 bc
       0.016680485 0.03959421 -0.014685691 -0.010054805
000120 03 80 41 3d b7 43 39 3d fd cb 3c 3c df a0 f4 bc
       0.047241222 0.045230594 0.011523244 -0.029861866
000130 5c db c4 bc 48 e5 63 bd 77 8a c6 3d 68 54 91 3d
       -0.02403038 -0.05563858 0.09694379 0.07096177
000140 22 6d 16 3d 11 56 40 3d 03 65 73 3d 40 9b cb 3c
       0.03672517 0.04695708 0.059422504 0.024854302
000150 df b9 7d bd c2 c1 92 bc ea 5d 39 bc e8 f9 b8 bb
       -0.06194484 -0.017914657 -0.011313895 -0.0056450255
000160 b2 bf b0 bc ab f1 cc 3c 56 37 25 3b 1f b8 d2 3b
       -0.021575782 0.02501758 0.0025209985 0.0064306404
000170 b8 99 18 bd a5 65 0d bc 0c b4 a8 bd 0d c8 27 bd
       -0.037255973 -0.008630191 -0.08237466 -0.040962268
000180 5b 8e 92 bd 23 6f e1 bc 28 45 11 bb 7f ff 26 3d
       -0.071560584 -0.027518814 -0.0022166464 0.040771004
000190 33 9f ff 3c bd 02 8a 3c d0 77 88 3b e3 22 63 3c
       0.031203842 0.016847009 0.0041646734 0.013863298
0001a0 ad 5d 8c 3c 93 18 0f 3c 99 ca 89 3c 2b a8 5a 3d
       0.017134512 0.008733886 0.016820239 0.053383034
0001b0 17 eb 02 3c 39 fc 26 3d ac 3a ea 3b b0 26 b4 bb
       0.00799062 0.040767882 0.0071481075 -0.005497776
0001c0 e0 37 e9 bc c0 dd ef bc ea 81 a8 3c 4e 86 d7 bc
       -0.028469026 -0.029280543 0.02056976 -0.026309159
0001d0 1e df 3c bd df 99 bf bc 46 16 2a 3c 03 c5 02 bc
       -0.04611122 -0.023388801 0.010381287 -0.007981542
0001e0 3f a2 07 3c 45 7e dc bc 1a 2f 50 bd 54 69 e5 bc
       0.008278429 -0.026915679 -0.05082617 -0.028004326
0001f0 17 fa b1 bc 5c ac 23 bc 74 26 d2 bc b6 7b 03 bd
       -0.021725697 -0.009989824 -0.025653102 -0.0321004
000200 0e f0 8f bc 86 eb 4f bd 7d 55 b6 bc 71 52 59 bd
       -0.017570522 -0.050761722 -0.02225756 -0.053057138
000210 ec 5c 06 3d 25 9a 73 3c e6 68 1d bc 18 e6 42 bd
       0.03280346 0.014868294 -0.009607529 -0.047582716
000220 e6 3e 2e bd d4 1c 92 bd c6 5b 9d 3b af 0c 14 bd
       -0.042540453 -0.07134405 0.0048022 -0.03614491
000230 6d 09 51 3c 6e 13 c8 bc 90 17 37 bd fe 42 32 bc
       0.012758595 -0.024423327 -0.044700205 -0.01088023
000240 c1 2b 09 3b 1a 50 1e bd 1c ae 4c 3c f7 6d b0 ba
       0.002093062 -0.03865061 0.012492683 -0.0013460506
000250 eb 39 e6 3c ed 3e a3 3d 9d 4b b3 bb 4d b7 78 bb
       0.02810379 0.079709865 -0.0054716603 -0.0037951053
000260 78 1e 6f 3b c1 b3 5d 3d ec 9c b1 3c d8 7c 8d 3d
       0.0036486667 0.054126505 0.021681271 0.06908578
000270 cc da 47 3c ec d4 b1 3b c0 ac 28 3c fc 04 5f bd
       0.012198161 0.0054269936 0.010295093 -0.054448113
000280 35 9b 11 bd 68 1f 32 bc 07 59 13 bd 76 28 25 3d
       -0.035548408 -0.010871746 -0.035973575 0.04032179
000290 94 5c 86 3c a5 9d d6 bb 7a 8d 48 3c ef 18 03 bc
       0.016401567 -0.0065495544 0.012240762 -0.00800155
0002a0 dc 0a 4b bd 4c 44 61 bb 77 7b a1 3c 55 70 89 3c
       -0.049570903 -0.0034372984 0.019712193 0.016777197
0002b0 6c 92 56 3c 3f c8 d6 3c 84 71 4e bc aa 0f f4 3c
       0.013096433 0.026218532 -0.012600306 0.029792625
0002c0 3d e2 67 bd a5 53 8c bc bd 37 df bb 99 ba 98 3b
       -0.056612242 -0.017129729 -0.0068120644 0.004660916
0002d0 bc 62 ba 3c 58 80 c5 3c 0c a2 9b 3c af 52 bd bc
       0.022752158 0.02410905 0.018998168 -0.023110716
0002e0 51 a2 7e bc 91 b1 69 bd 6d 25 e4 38 5d 20 99 bc
       -0.015541629 -0.057054106 0.00010878858 -0.01869219
0002f0 fe 0a 15 3c 94 5e 2a bd 3a f3 ae 3b 48 79 38 3b
       0.009096859 -0.041594103 0.0053390535 0.002814846
000300 e1 58 bf 3c 98 34 58 bb 82 31 2e 3c f8 dc b0 bc
       0.02335781 -0.0032990333 0.010631921 -0.021589741
000310 8c 8f 5a bc 06 78 3e 3d 36 d3 85 bc 7f ad 18 3d
       -0.013339888 0.046501182 -0.016336065 0.037274834
000320 98 51 da 3c ab 96 2b 3b fe f9 7f ba 06 db 5e 3a
       0.026650235 0.0026182334 -0.000976473 0.0008501265
000330 97 c0 c1 38 4c bc af 3d 9f 5d 0a bc 2f bf 28 bc
       9.23883e-05 0.08580837 -0.008445173 -0.010299488
000340 ba 30 36 3c 43 85 e3 3c a9 e9 8e bb d9 5e 48 bc
       0.011120016 0.027773505 -0.0043613506 -0.012229645
000350 17 a1 8b 3b 69 9b 02 bd d8 8e b0 bc 3f 23 54 3c
       0.0042611468 -0.031886492 -0.021552488 0.012947856
000360 bb c4 cc bc 60 0f 29 bd 14 6c a1 bc c1 c4 43 bc
       -0.024996152 -0.04127443 -0.019704856 -0.011948765
000370 75 0c 57 bc 72 a2 f1 bb 4d 3e bf bc 73 09 8f 3c
       -0.013125529 -0.0073741013 -0.023345137 0.01746056
000380 3f 56 3f bc 20 0d 9d 3b 47 51 42 3b e9 aa ae 3b
       -0.0116782775 0.0047928244 0.0029650496 0.0053304327
000390 87 62 e9 bc 51 8f 0f bd 6a c5 9c 3c 87 35 4d bd
       -0.028489364 -0.035048787 0.019137103 -0.050099876
0003a0 fc 41 1e bd 09 2d 36 bd e9 de 2e 3c 84 c4 3f b9
       -0.038637146 -0.044476543 0.010673263 -0.00018288387
0003b0 28 12 3d bc ac 64 a3 3c 75 b2 bd 3c 53 44 17 bb
       -0.011539973 0.019945465 0.023156384 -0.0023081496
0003c0 16 5b 07 3c 31 d4 fb bc 0e 2b cf 3b 09 e1 2a 3d
       0.008261463 -0.03074083 0.006322271 0.041718516
0003d0 ab 23 72 3c 41 17 4c 3d 6b 86 97 3b 9d c0 d8 bc
       0.014779012 0.049826864 0.004624178 -0.026459033
0003e0 44 42 64 bc a1 26 68 3d 49 08 59 3d 65 24 7a bc
       -0.013931815 0.056677464 0.052986417 -0.015267466
0003f0 8b 82 c8 3c 71 ec 73 bc 5b 54 14 bc ce 2d 77 bd
       0.02447631 -0.014887915 -0.009053315 -0.060346417

module.encoder.c2.main.3.bias f4 [64]
000000 02 c7 36 b6 e6 4d 86 34 67 84 51 b4 5d 9e c0 35
       -2.7235951e-06 2.5016124e-07 -1.951281e-07 1.4351205e-06
000010 f8 83 0f 37 1a 3a 0b b6 04 60 55 34 0e b9 78 35
       8.554191e-06 -2.0746434e-06 1.9872101e-07 9.265649e-07
000020 a3 19 1c b6 ed 9d 0a 36 2f 9c 83 35 c2 37 1f 35
       -2.3260734e-06 2.0655527e-06 9.805716e-07 5.9313254e-07
000030 21 82 17 b6 81 e1 82 b4 5c e8 37 35 05 d6 31 b6
       -2.2576498e-06 -2.4378463e-07 6.851094e-07 -2.649963e-06
000040 3c 14 e4 35 4a b4 91 33 20 8c 35 35 41 01 66 b6
       1.6993213e-06 6.784883e-08 6.7631663e-07 -3.42734e-06
000050 39 45 09 b6 e3 2f 98 34 7f a4 e7 34 d5 f1 c7 b5
       -2.0454884e-06 2.8347048e-07 4.314679e-07 -1.4897038e-06
000060 64 bc c7 b5 45 fe 88 35 86 d1 69 b6 b1 69 d9 b3
       -1.4881484e-06 1.0206792e-06 -3.4841664e-06 -1.0124075e-07
000070 fa 5f 29 35 64 f6 55 b5 6b 40 87 36 b7 8a 48 34
       6.309707e-07 -7.970723e-07 4.0308128e-06 1.8676916e-07
000080 8d 3f 77 b6 74 62 a0 35 15 f0 2f 35 f8 91 4d b6
       -3.684286e-06 1.1949583e-06 6.5541946e-07 -3.0632345e-06
000090 d7 eb 35 35 eb c4 56 b4 7d 70 0d b6 f4 a4 27 36
       6.7770947e-07 -2.0001941e-07 -2.1076114e-06 2.4980955e-06
0000a0 24 93 7c 35 39 14 d3 35 0a e4 9e 35 5c da 89 35
       9.4091433e-07 1.5726611e-06 1.1838285e-06 1.0270846e-06
0000b0 73 1d 2d b5 5e 08 86 36 f6 ba 15 b6 8c 4e 6b b5
       -6.4490376e-07 3.9944853e-06 -2.2311556e-06 -8.765862e-07
0000c0 4b e7 60 35 f7 9f e0 b4 6d 23 ae b4 6e c6 6b b6
       8.378308e-07 -4.183964e-07 -3.24358e-07 -3.513323e-06
0000d0 cf 46 b8 b5 f6 f9 12 36 64 ea b8 b4 3a e1 48 b6
       -1.3729676e-06 2.1901192e-06 -3.4443212e-07 -2.9933422e-06
0000e0 c8 14 91 35 f6 1c 8f b5 23 70 8f 35 df 8b 33 b5
       1.080939e-06 -1.0662759e-06 1.0686966e-06 -6.6886236e-07
0000f0 3a d8 1a 36 60 94 b5 b4 23 fd c5 b5 1b 0e fa 34
       2.3073649e-06 -3.3821834e-07 -1.4751316e-06 4.6576392e-07

module.encoder.c2.main.4.weight f4 [64]
000000 bc d9 82 3f 54 0d 79 3f 6a f0 87 3f 63 5d 81 3f
       1.0222697 0.9728596 1.0620244 1.0106624
000010 84 d8 81 3f a7 c1 80 3f 9c cb 79 3f a9 5a 7d 3f
       1.01442 1.0059098 0.9757631 0.9896646
000020 41 d6 7f 3f ec c9 7d 3f 28 be 7f 3f 58 a5 81 3f
       0.999363 0.99136233 0.9989953 1.0128584
000030 a1 2f 82 3f a0 b7 7c 3f a9 11 7f 3f 4a 36 7f 3f
       1.0170785 0.9871769 0.9963632 0.99692214
000040 41 fb 7f 3f 71 3b 75 3f 8d 0e 7f 3f 88 e6 79 3f
       0.9999276 0.95793825 0.9963158 0.9761739
000050 76 b6 82 3f 51 31 7d 3f db ba 80 3f 91 1d 82 3f
       1.0211933 0.98903376 1.0057024 1.0165273
000060 b7 7d 7e 3f 2c 43 7a 3f 91 17 7f 3f 85 38 83 3f
       0.99410576 0.97758746 0.99645334 1.0251623
000070 b5 18 80 3f e1 64 7c 3f f2 bc 7d 3f 39 55 76 3f
       1.000754 0.9859143 0.9911643 0.9622379
000080 d1 9c 7e 3f c7 77 7f 3f e1 78 81 3f 49 ea 84 3f
       0.9945803 0.9979214 1.0115014 1.0383998
000090 02 80 82 3f e2 62 81 3f 7f b6 78 3f 50 90 7f 3f
       1.0195315 1.0108302 0.97153467 0.9982958
0000a0 2a 45 77 3f b2 3b 80 3f f3 ad 7b 3f 09 85 7f 3f
       0.9658991 1.0018218 0.983123 0.9981237
0000b0 17 42 78 3f 7b 58 80 3f ea aa 81 3f 9e c7 7d 3f
       0.96975845 1.0027002 1.0130284 0.99132717
0000c0 9b fc 7e 3f 13 74 79 3f 7e 4f 77 3f 7e 5e 80 3f
       0.99604195 0.9744274 0.9660567 1.0028837
0000d0 18 ca 7f 3f dd 12 81 3f ad 0e 7e 3f 38 48 7f 3f
       0.99917746 1.0083882 0.99241143 0.9971957
0000e0 c1 d6 80 3f 2a 87 80 3f a1 ca 70 3f dd 15 84 3f
       1.0065538 1.0041249 0.9405919 1.0319172
0000f0 d2 e9 7b 3f ad 01 82 3f 9c ba 85 3f a8 7a 86 3f
       0.98403656 1.0156761 1.0447574 1.0506182

module.encoder.c2.main.4.bias f4 [64]
000000 ae 93 c9 bc 03 14 e5 bd d7 19 16 bd d8 df 81 bd
       -0.024606552 -0.111854576 -0.036645737 -0.06341523
000010 21 19 31 bd 7a a7 bc bd 4e 13 ab bd 0c e7 7d bd
       -0.043236855 -0.09211631 -0.083532915 -0.06198792
000020 ed 06 cb bd 12 45 76 bd 5b 19 a8 bd ab 5f 89 bd
       -0.0991343 -0.060124464 -0.08207961 -0.067077
000030 8b d6 a4 bd 75 a5 4f bd 3d 0a 20 bd 0e 65 2f bd
       -0.08048733 -0.0506949 -0.039072264 -0.042820983
000040 8c 7e 0f bd 1b 2a dd bd 8a 0d a0 bd d9 0f d0 bd
       -0.035032794 -0.107990466 -0.07815082 -0.10159273
000050 d7 e2 02 be 91 71 02 be a8 51 03 be 07 5f df bc
       -0.12781845 -0.12738635 -0.12824118 -0.027266992
000060 c8 99 8e bd 7d 76 81 bd 26 4b 36 bd 8c d9 c2 bd
       -0.06962925 -0.06321428 -0.04450526 -0.0951415
000070 44 dd dc bc 82 10 21 bd 4a 67 ef bc e7 3f a5 bd
       -0.026960976 -0.039322384 -0.029224057 -0.08068829
000080 eb 18 e0 bd 52 66 89 bd a6 a6 71 bd ad fa b0 bc
       -0.10942253 -0.06708969 -0.05899682 -0.021603907
000090 12 b7 02 bd 9b 73 b4 bd 43 9d 43 bd b9 19 9f bd
       -0.03191287 -0.088111125 -0.0477574 -0.07768578
0000a0 94 4c f8 bd a1 99 23 bd 4a ee b4 bd 31 b4 47 bd
       -0.12123981 -0.039941434 -0.088345125 -0.04875583
0000b0 3c 71 02 be f2 a6 73 bd 35 37 2a bd 23 4c 87 bd
       -0.12738508 -0.059485383 -0.041556556 -0.06606319
0000c0 d0 37 82 bd bd e9 94 bd 38 53 c7 bd 0f 8d 76 bd
       -0.06358302 -0.072711445 -0.097326696 -0.060193118
0000d0 fb 8f ad bd fe 61 a7 bc ac 2b e7 bd a3 67 01 be
       -0.08474728 -0.020432469 -0.112876266 -0.1263719
0000e0 79 07 3f bd c5 74 d8 bd 25 29 f3 bd 62 aa 6b bd
       -0.046637986 -0.10569147 -0.11873082 -0.057535537
0000f0 be ca e9 bd 08 9c b9 bd c2 f3 cd bd 2e 46 b4 bc
       -0.11415623 -0.09062964 -0.10056259 -0.02200612
