logs/exp5/model_iters_20000.pth (torch, 495376 bytes, 47 tensors)

module.encoder.c1.main.0.weight f4 [32, 3, 3, 3]
-0.011894521 0.005032524 -0.006581154 -0.029376047 0.0016532298 0.0037184148 -0.0028488885 0.030608706
0.026718771 -0.00455404 -0.049625423 0.02339089 -0.012331264 0.0017780473 0.046788767 -0.0031979964
0.0015695471 0.010743356 -0.048006143 -0.06534162 -0.022808278 -0.06319872 0.011240884 0.062224053
0.01977319 -0.044006478 0.05141764 0.0016758199 -0.014978379 0.016556557 0.014042409 0.029479604
0.033682015 -0.0054740766 0.012892914 -0.015959026 0.00670918 -0.015924916 -0.025841283 -0.0047759917
-0.002869014 -0.0014075859 0.051865276 0.022508724 -0.019933417 -0.0040575885 -0.0009810425 0.024601212
-0.009664769 0.025850397 0.12274677 -0.051676 -0.041710064 -0.06195855 0.033328887 -0.044913273
-0.012035672 0.05134738 0.0027031694 -0.021519804 0.019034581 -0.009891742 0.011324694 -0.0200447
-0.047844917 0.002418067 -0.010504206 0.039620906 0.021847995 0.002232526 -0.0024412563 0.0025379641
-0.05798446 0.0323793 0.025673809 -0.03387309 -0.07051106 -0.015120071 -0.0619858 0.046901498
0.007574424 -0.04008348 -0.025469394 -0.015486582 -0.009161511 -0.032107983 0.011868794 0.0143714
0.0040191463 0.051082812 -0.032676827 -0.020890608 -0.01931538 0.062010765 -0.010513843 -0.005626674
-0.016165 0.030745264 0.009873172 -0.02926928 -0.019797765 -0.0018277537 -0.015580515 -0.028948495
-0.005014721 -0.038457766 -0.0408352 0.017582795 0.02278213 0.0023024476 -0.026831374 -0.008329286
0.001005118 -0.002807417 -0.019399652 -0.010385595 0.0014072028 -0.03702029 -0.051027615 -0.016646292
0.02093201 -0.014145728 -0.0045661414 0.049460504 0.02481375 0.015803352 -0.028847437 0.029717974
0.04609165 0.0108115 0.050533928 -0.02667 -6.270444e-05 -0.05907484 0.008250604 0.011996458
-0.031008087 -0.02295116 0.001695345 0.029002693 0.019313756 -0.024810683 0.03500831 0.0050801137
0.05101761 0.02525275 -0.006019494 0.029979259 -0.06630252 0.014367887 0.0072276574 -0.03353708
-0.030205661 -0.021347806 -0.0056201965 0.041502252 0.00994885 -0.058212552 0.014419902 -0.027113184
-0.0069598667 0.013229448 -0.0023918664 0.0058024684 0.009561389 -0.027792621 0.0017278657 0.0300063
-0.02920999 -0.041560292 0.0021673015 0.04897789 0.0050700866 0.07083906 -0.003667323 -0.02844347
-0.017929979 -0.027574955 -0.029368345 -0.01915247 -0.024135683 -0.06185233 -0.004273883 0.05368044
-0.009611678 0.00057787565 0.032524772 0.0056688534 -0.0063653626 0.066307314 0.00396653 -0.03781056
0.016760081 -0.0012313381 0.009032293 -0.015216393 0.0063616433 -0.030973949 -0.079406984 0.0041299164
-0.005420348 0.02865353 0.013074339 0.037376083 0.030846382 -0.023218317 -0.006298407 -0.01810955
-0.0061160405 0.03189718 0.05023641 0.015792042 0.016534168 -0.004856477 -0.081607 -0.075742394
0.028954616 -0.0026934831 0.0030299197 0.009252912 0.003919654 -0.010565451 0.016319342 0.022284454
-0.026455628 -0.030871987 -0.05009472 0.005702658 -0.024835017 0.01280788 0.03757553 0.009566518
0.022886096 0.017433029 0.05392982 -0.00392297 0.007127294 -0.050930437 -0.031854548 -0.016627388
-0.05451124 -0.06612966 -0.0070421156 -0.0071431613 -0.016799763 -0.025632104 -0.016024018 -0.0003616862
-0.029778518 -0.0026479037 0.00048612966 0.010339456 0.018486975 0.0066898945 -0.0032688892 -0.00059462426
00000000: 3de1 42bc dfe7 a43b b9a6 d7bb 09a6 f0bc
00000010: 30b1 d83a a6b0 733b 6bb4 3abb 1cbf fa3c
00000020: 53e1 da3c 0e3a 95bb 0744 4bbd 409e bf3c
00000030: 1209 4abc 5e0d e93a 94a5 3f3d 7a95 51bb
00000040: 43b9 cd3a e704 303c 17a2 44bd d4d1 85bd
00000050: 6dd8 babc 556e 81bd af2b 383c a6de 7e3d
00000060: 63fb a13c 2340 34bd 4e9b 523d 2fa7 db3a
00000070: e067 75bc 9ea1 873c 2212 663c 367f f13c
00000080: 27f6 093d e25f b3bb cd3c 533c 81bc 82bc
00000090: aed8 db3b f874 82bc 19b1 d3bc ec7f 9cbb
000000a0: 1106 3cbb bf7e b8ba af70 543d 3764 b83c
000000b0: 684b a3bc 85f5 84bb 5396 80ba 7b88 c93c
000000c0: fb58 1ebc 36c4 d33c a962 fb3d 37aa 53bd
000000d0: 2cd8 2abd 40c8 7dbd df83 083d fbf6 37bd
000000e0: 4431 45bc a151 523d a827 313b 4d4a b0bc
000000f0: 69ee 9b3c f910 22bc 368b 393c c834 a4bc
00000100: 08f9 43bd 6f78 1e3b d519 2cbc 8849 223d
00000110: 91fa b23c 924f 123b 7cfd 1fbb f953 263b
00000120: 1d81 6dbd 28a0 043d e151 d23c 82be 0abd
00000130: 1a68 90bd 2dba 77bc d2e4 7dbd c91b 403d
00000140: e032 f83b 932e 24bd 31a5 d0bc 6fbb 7dbc
00000150: 2a1a 16bc a983 03bd 5575 423c 0576 6b3c
00000160: 0bb3 833b 363c 513d 23d8 05bd c822 abbc
00000170: 4a3b 9ebc 00ff 7d3d 4142 2cbc f65f b8bb
00000180: 766c 84bc 7edd fb3c 16c3 213c 21c6 efbc
00000190: ec2e a2bc 3d91 efba 6b45 7fbc 6525 edbc
000001a0: 8752 a4bb e485 1dbd d042 27bd cb09 903c
000001b0: 97a1 ba3c a9e4 163b 78cd dbbc 8f77 08bc
000001c0: 2abe 833a a4fc 37bb 05ec 9ebc 5828 2abc
000001d0: e471 b83a 96a2 17bd 5502 51bd ce5d 88bc
000001e0: 9b79 ab3c 7cc3 67bc 929f 95bb 1997 4a3d
000001f0: 3546 cb3c 0876 813c 7651 ecbc 1c73 f33c
00000200: 99ca 3c3d b822 313c aafc 4e3d 0b7b dabc
00000210: 3180 83b8 76f8 71bd 8b2d 073c cb8c 443c
00000220: ac04 febc 1204 bcbc 5736 de3a 0e97 ed3c
00000230: e237 9e3c c63f cbbc e064 0f3d 1577 a63b
00000240: d7f7 503d dbde ce3c 2d3f c5bb 1097 f53c
00000250: 9ec9 87bd 4967 6b3c fcd5 ec3b 2d5e 09bd
00000260: dd71 f7bc 98e1 aebc a029 b8bb 44fe 293d
00000270: 8000 233c 4970 6ebd 7441 6c3c 781c debc
00000280: 980f e4bb 54c0 583c dcc0 1cbb a222 be3b
00000290: 5fa7 1c3c 5aad e3bc 8d79 e23a c6cf f53c
000002a0: ca49 efbc 203b 2abd 4909 0e3b 0a9d 483d
000002b0: f822 a63b 1214 913d 7857 70bb 4802 e9bc
000002c0: e4e1 92bc dfe4 e1bc e295 f0bc a4e5 9cbc
000002d0: 32b8 c5bc de58 7dbd ee0b 8cbb 05e0 5b3d
000002e0: 4d7a 1dbc 947c 173a b238 053d cac1 b93b
000002f0: 8894 d0bb 21cc 873d aaf9 813b 3fdf 1abd
00000300: 704c 893c da64 a1ba 2ffc 133c 2e4e 79bc
00000310: 5575 d03b 14bd fdbc 21a0 a2bd 4054 873b
00000320: 2d9d b1bb cfba ea3c c135 563c aa17 193d
00000330: 8db1 fc3c 5734 bebc de62 cebb 7b5a 94bc
00000340: 1169 c8bb 9ea6 023d b2c4 4d3d 505e 813c
00000350: aa72 873c 1523 9fbb 9221 a7bd d41e 9bbd
00000360: 3b32 ed3c 2685 30bb 9e91 463b 8799 173c
00000370: 7170 803b b71a 2dbc 24b0 853c e38d b63c
00000380: 79b9 d8bc 40e7 fcbc 1f30 4dbd 5ddd ba3b
00000390: ce72 cbbc 24d8 513c cde8 193d e2bc 1c3c
000003a0: 9f7b bb3c b6cf 8e3c 84e5 5c3d 428c 80bb
000003b0: 138c e93b 6f9c 50bd ea79 02bd 2936 88bc
000003c0: 2e47 5fbd fd6e 87bd 8cc1 e6bb 2e11 eabb
000003d0: a89f 89bc 6bfa d1bc cd44 83bc b3a0 bdb9
000003e0: 14f2 f3bc 7488 2dbb 38df fe39 d266 293c
000003f0: ff71 973c e736 db3b dc3a 56bb 8fe0 1bba

module.encoder.c1.main.0.bias f4 [32]
0.00015679954 -9.5645744e-05 -0.00019903491 -9.400162e-05 -0.00012332921 0.0006308812 0.0001822377 -2.87539e-05
-0.00031605767 -0.00028416794 0.00060945377 6.758239e-05 -0.00034475856 -0.00012719414 7.577885e-05 8.723485e-05
4.188097e-05 -0.00043425913 -3.4299937e-05 -0.00021550857 -0.00016675152 0.000112568334 5.385963e-05 0.00059595786
-0.00038961202 1.1138936e-06 0.00025015837 0.00034356123 7.587402e-05 2.4803141e-05 0.0003091246 5.5336703e-05
00000000: 8e6a 2439 6b95 c8b8 07b4 50b9 bc22 c5b8
00000010: ef51 01b9 b861 253a 0f17 3f39 8834 f1b7
00000020: 8bb4 a5b9 60fc 94b9 c0c3 1f3a 05bb 8d38
00000030: b6c0 b4b9 6b5f 05b9 76eb 9e38 daf1 b638
00000040: 59a9 2f38 46ad e3b9 47dd 0fb8 24fa 61b9
00000050: 05da 2eb9 aa12 ec38 56e7 6138 0e3a 1c3a
00000060: d744 ccb9 1881 9535 b027 8339 0220 b439
00000070: 8e1e 9f38 5710 d037 0012 a239 5519 6838

module.encoder.c1.main.1.weight f4 [32]
1.0205369 1.0118723 0.9612096 0.97747844 1.0293005 1.0009922 1.0074582 0.998031
0.96302795 1.0157361 1.0164869 0.99051774 1.0625988 1.0191488 0.98746634 0.9841001
0.91360915 1.0029256 0.97221607 0.9982258 0.97029823 1.0340588 0.9845389 1.0629684
0.9688989 1.005415 0.99061877 1.0098187 0.98041654 0.92976993 1.0085858 0.9299149
00000000: f4a0 823f 0885 813f d511 763f 073c 7a3f
00000010: 1ec0 833f 8320 803f 64f4 803f f67e 7f3f
00000020: 0089 763f a403 823f 3e1c 823f 9292 7d3f
00000030: 3d03 883f 7873 823f 98ca 7c3f fced 7b3f
00000040: 4ae2 693f de5f 803f 27e3 783f ba8b 7f3f
00000050: 7765 783f 0a5c 843f be0a 7c3f 590f 883f
00000060: c209 783f 70b1 803f 3199 7d3f bd41 813f
00000070: 94fc 7a3f 6705 6e3f 5719 813f e70e 6e3f

module.encoder.c1.main.1.bias f4 [32]
-0.048292063 -0.055677302 -0.08582964 -0.095897295 -0.003103303 -0.0047914404 -0.0009459669 -0.09800484
-0.05371468 0.033164207 -0.11172026 -0.019539634 -0.0658158 0.055644132 0.009792825 -0.080832005
-0.081312895 -0.026158579 -0.065101825 -0.10215425 -0.047965314 0.012587478 -0.016590234 -0.02503688
-0.04406529 -0.03569107 -0.054257855 -0.017700983 -0.06525063 -0.038624674 0.0011404573 -0.042316876
00000000: e6cd 45bd e20d 64bd 73c7 afbd cd65 c4bd
00000010: c960 4bbb 8401 9dbb c4fa 77ba c3b6 c8bd
00000020: ed03 5cbd 31d7 073d 97cd e4bd 9511 a0bc
00000030: 6fca 86bd 1aeb 633d 1672 203c 408b a5bd
00000040: 6087 a6bd 844a d6bc 1b54 85bd 3f36 d1bd
00000050: 4777 44bd b63b 4e3c 3ee8 87bc 251a cdbc
00000060: ce7d 34bd cd30 12bd 7c3d 5ebd a701 91bc
00000070: 1fa2 85bd e834 1ebd 667b 953a 7654 2dbd

module.encoder.c1.main.3.weight f4 [32, 32, 3, 3]
-0.036826633 0.031220084 0.048979 -0.042277236 0.0030459852 -0.03802205 0.0031815358 0.0035633317
-0.0063005183 -0.014310412 -0.0037011113 0.05224537 -0.006766836 0.02969284 0.00065301004 -0.01929195
0.021255406 -0.010663546 -0.02604167 -0.028746048 -0.015145743 0.00035304957 0.00018129431 0.0044749733
-0.006349015 -0.008202736 -0.021696031 0.03537541 0.016800452 0.025589084 0.059239034 -0.004316944
-0.00041792676 -0.011146949 -0.003160327 0.02916826 0.02160806 -0.027947044 -0.038338613 0.013240463
-0.011526737 -0.0028962435 -0.003948367 0.009915934 0.008711215 -0.025226828 -0.037118506 0.018185679
0.028100276 0.018991664 -0.008875003 -0.017244993 0.018793808 -0.024754599 0.001999873 0.010940505
0.0024199553 -0.014135906 0.00552685 0.0056142528 -0.02964015 0.022738397 0.0018296059 0.004715649
0.037167426 0.024098568 0.0014212894 -0.035239365 -0.052148852 0.007851153 0.007496824 -0.013361874
-0.019881047 -0.014405661 0.005854321 -0.014801863 -0.007822678 0.03968091 0.0020292874 0.00921331
0.008474681 0.013142552 -0.015495476 -0.012072283 -0.039277308 -0.015024151 -0.04760926 0.058916993
-0.017097766 -0.012373916 -0.03203608 -0.048112717 -0.045197073 0.007911699 -0.0065571 -0.0008191343
-0.002836233 0.0007963515 -0.0061141765 0.007280908 -0.05822543 0.046370838 -0.0016606045 0.019153798
0.04268598 0.014352878 0.022106763 0.018001884 -0.032422416 0.0508326 0.02826361 -0.02075463
-0.023298588 -0.0074509527 0.043903608 0.009781038 -0.007986526 0.05128767 0.031047821 0.011656657
0.07153914 0.018690884 0.04097653 0.078190625 0.026509274 0.009564034 -0.019210331 -0.016060805
0.01369828 -0.00232243 -0.020117626 -0.015425124 -6.0115915e-05 -0.02850914 -0.06447796 0.030268652
-0.023513474 -0.0405339 0.008858191 -0.014290133 -0.022477675 -0.001280109 -0.017820725 0.0039602066
-0.0016515478 0.027807137 -0.02401613 0.0067696385 0.007608864 -0.018598877 0.008254826 -0.004130944
0.016746525 0.0007674557 0.005513747 0.020597328 -0.010915434 0.019659078 -0.010194565 0.012886707
0.079599865 0.0042395596 0.031683072 -0.0076498673 0.013585468 -0.008440989 -0.026287258 0.007795433
-0.00028887088 -0.007875853 0.024761776 0.025388788 -0.031026438 0.014771762 -0.019351156 0.0061632087
0.016021874 -0.026078675 0.0109598 0.02284994 -0.019935127 -0.018091086 0.021722652 0.0091827605
0.05045915 -0.03159256 0.0046959408 -0.0077238576 0.023145258 0.025450122 0.042448755 -0.023234738
-0.028668469 0.014757431 0.030204304 -0.018440293 -0.0019438175 -0.030328149 0.030209273 0.024209173
0.02801003 0.022820683 0.06967342 0.0020141164 0.050602365 -0.011764875 0.030670783 -0.0008692848
-0.014487398 0.036716506 -0.0037889353 -0.004230186 -0.010193894 -0.044163633 -0.018289577 -0.037849862
0.018952826 0.024160702 -0.0058507007 0.0065742256 -0.024067458 0.042271093 -0.008866926 -0.029119652
0.01967692 -0.028662244 -0.021522759 0.0064642834 0.0151022645 0.011081019 -0.01705287 0.043893885
-0.07080947 -0.05199148 -0.0025909578 -0.009037259 0.036099974 0.041531436 0.016779805 -0.026503261
0.00901884 0.048977785 -0.0027407524 -0.03576406 0.025153298 0.003453393 0.006370058 -0.041027993
0.042230293 0.009758732 -0.00745658 -0.008578351 0.007922111 0.0062680785 -0.010332171 0.023454476
00000000: 86d7 16bd 43c1 ff3c 349e 483d e52a 2dbd
00000010: 279f 473b 02bd 1bbd 5081 503b c986 693b
00000020: 9474 cebb 3876 6abc 588e 72bb 3eff 553d
00000030: 56bc ddbb 663e f33c c32e 2b3a 270a 9ebc
00000040: d11f ae3c 27b6 2ebc 5755 d5bc d57c ebbc
00000050: da25 78bc 8319 b939 d219 3e39 cca2 923b
00000060: 660b d0bb c564 06bc e0bb b1bc cee5 103d
00000070: 1aa1 893c 33a0 d13c a1a4 723d 2775 8dbb
00000080: 2e1d dbb9 b1a1 36bc 7d1d 4fbb 46f2 ee3c
00000090: 6303 b13c 33f1 e4bc f308 1dbd 87ee 583c
000000a0: a4da 3cbc e7ce 3dbb 4e61 81bb 7176 223c
000000b0: 7cb9 0e3c 7ea8 cebc 9309 18bd 22fa 943c
000000c0: 8d32 e63c 6894 9b3c 7668 11bc 5f45 8dbc
000000d0: 79f5 993c 28ca cabc 4d10 033b ce3f 333c
000000e0: 1d98 1e3b 499a 67bc 941a b53b c4f7 b73b
000000f0: e6cf f2bc e045 ba3c 63cf ef3a bb85 9a3b
00000100: df3c 183d 5c6a c53c 8f4a ba3a 2757 10bd
00000110: 099a 55bd 1fa2 003c eba7 f53b c3eb 5abc
00000120: 94dd a2bc b905 6cbc 9bd5 bf3b 8383 72bc
00000130: b12a 00bc 7388 223d cbfd 043b 6cf3 163c
00000140: 63d9 0a3c dc53 573c bde0 7dbc d3ca 45bc
00000150: 3ee1 20bd db27 76bc ed01 43bd f252 713d
00000160: 9d10 8cbc f7bb 4abc 4438 03bd d711 45bd
00000170: 9120 39bd 12a0 013c f1dc d6bb 2cbb 56ba
00000180: 18e0 39bb 3fc2 503a 6e59 c8bb af94 ee3b
00000190: ca7d 6ebd 59ef 3d3d a4a8 d9ba 6de8 9c3c
000001a0: 7fd7 2e3d 5528 6b3c 3e19 b53c b078 933c
000001b0: 5ecd 04bd d835 503d 1689 e73c 9d05 aabc
000001c0: aedc bebc 1f27 f4bb 45d4 333d a640 203c
000001d0: ebd9 02bc 0513 523d 0058 fe3c 90fb 3e3c
000001e0: 1d83 923d a01d 993c 02d7 273d 6822 a03d
000001f0: fa29 d93c 77b2 1c3c fc5e 9dbc f391 83bc
00000200: c06e 603c e933 18bb b8cd a4bc a9b9 7cbc
00000210: f924 7cb8 008c e9bc 050d 84bd f7f5 f73c
00000220: 549f c0bc e006 26bd f221 113c 2921 6abc
00000230: 1a23 b8bc 55c9 a7ba c5fc 91bc 9fc4 813b
00000240: c078 d8ba cbcb e33c 7abd c4bc d8d3 dd3b
00000250: c753 f93b ac5c 98bc 403f 073c df5c 87bb
00000260: 0230 893c 152f 493a aaac b43b babb a83c
00000270: a6d6 32bc 130c a13c 1b07 27bc c422 533c
00000280: 4105 a33d 01ec 8a3b 1cc6 013d bdab fabb
00000290: 9595 5e3c 134c 0abc 6058 d7bc d570 ff3b
000002a0: 9873 97b9 b909 01bc 35d9 ca3c 26fc cf3c
000002b0: 282b febc 4305 723c 5186 9ebc bef4 c93b
000002c0: 4e40 833c f2a2 d5bc bc90 333c cc2f bb3c
000002d0: fe4e a3bc c233 94bc b4f3 b13c 4a73 163c
000002e0: 41ae 4e3d 3367 01bd 68e0 993b 6a18 fdbb
000002f0: 209b bd3c c67c d03c bfde 2d3d c756 bebc
00000300: 23da eabc 27c9 713c 046f f73c 1910 97bc
00000310: b1c7 feba bd72 f8bc 7079 f73c 5152 c63c
00000320: 4a75 e53c 71f2 ba3c f0b0 8e3d 44ff 033b
00000330: 6d44 4f3d 76c1 40bc 4b41 fb3c b7e0 63ba
00000340: 8d5c 6dbc 0c64 163d c94f 78bb 5f9d 8abb
00000350: 4a04 27bc ede4 34bd 06d4 95bc 7508 1bbd
00000360: f542 9b3c aaec c53c 3cb7 bfbb 9a6c d73b
00000370: 1e29 c5bc 7424 2d3d 9546 11bc 568c eebc
00000380: 7e31 a13c 15cd eabc 7f50 b0bc 57d2 d33b
00000390: 7d6f 773c 2a8d 353c 76b2 8bbc 13ca 333d
000003a0: 8e04 91bd 05f5 54bd 0fcd 29bb 0311 14bc
000003b0: 91dd 133d de1c 2a3d cd75 893c 5e1d d9bc
000003c0: c2c3 133c ee9c 483d 329e 33bb 567d 12bd
000003d0: 4a0e ce3c 5252 623b ebbb d03b f80c 28bd
000003e0: acf9 2c3d 17e3 1f3c 5456 f4bb 368c 0cbc
000003f0: becb 013c 7464 cd3b 4448 29bc 9a23 c03c

module.encoder.c1.main.3.bias f4 [32]
3.386361e-06 -1.6806907e-05 1.0878132e-06 3.0219671e-05 -1.3331631e-05 -7.235942e-05 -4.7740017e-05 7.04809e-06
2.1576052e-06 1.0991871e-05 -3.6078097e-06 -1.0679045e-05 -5.1642414e-06 -5.224921e-06 -9.573352e-06 1.2985728e-05
-7.753766e-06 5.589967e-06 8.9342575e-06 -2.242096e-05 -4.9887596e-05 -1.19548195e-05 -1.6385148e-06 8.285809e-06
-4.076996e-06 1.3204787e-07 -3.579006e-05 2.5585388e-05 1.9259545e-05 1.4529198e-05 -1.635024e-05 -2.0378464e-05
00000000: 3d41 6336 8ffc 8cb7 fa00 9235 4080 fd37
00000010: ebaa 5fb7 abbf 97b8 743c 48b8 a27e ec36
00000020: 60cb 1036 ba69 3837 b31d 72b6 262a 33b7
00000030: 7f48 adb6 bb51 afb6 3c9d 20b7 47dd 5937
00000040: 2c16 02b7 7391 bb36 58e4 1537 a514 bcb7
00000050: 663e 51b8 8f91 48b7 f1ea dbb5 4703 0b37
00000060: 21cd 88b6 0bc9 0d34 491d 16b8 34a0 d637
00000070: 8f8f a137 6ec2 7337 df27 89b7 6bf2 aab7

module.encoder.c1.main.4.weight f4 [32]
0.9721821 0.94412875 0.9669419 1.0027939 0.98525363 1.022467 1.0124899 0.97953314
1.005769 0.9016161 0.9931495 0.9834737 0.90720797 0.9803414 0.9750256 0.9600389
0.9669681 0.9832424 0.9855835 1.0142494 1.0046629 0.9605469 0.94215286 0.9827047
0.93796974 0.96803766 0.99537784 1.0158577 0.9966091 0.94716036 0.94565284 0.99304056
00000000: ede0 783f 6cb2 713f 8189 773f 8d5b 803f
00000010: 9539 7c3f 33e0 823f 4599 813f afc2 7a3f
00000020: 0abd 803f 50d0 663f 0c3f 7e3f efc4 7b3f
00000030: c83e 683f a7f7 7a3f 479b 793f 1cc5 753f
00000040: 398b 773f c6b5 7b3f 334f 7c3f edd2 813f
00000050: cb98 803f 67e6 753f ee30 713f 8992 7b3f
00000060: c91e 703f 51d1 773f 15d1 7e3f a007 823f
00000070: c621 7f3f 1a79 723f 4e16 723f e837 7e3f

module.encoder.c1.main.4.bias f4 [32]
-0.010169663 -0.006726557 0.002347401 0.037334383 -0.0036594449 -0.04270678 -0.08925519 0.031896666
-0.0029626056 -0.07632334 0.01201715 -0.006902874 -0.122070685 0.01819298 0.0134565225 -0.04428527
-0.05147378 -0.00082804053 0.016673062 -0.052468844 0.0058689294 -0.072201945 -0.04094262 -0.038584426
-0.009762406 -0.016806323 -0.015087233 0.024709938 0.004088617 -0.05787961 -0.029478557 -0.009949119
00000000: a89e 26bc 736a dcbb dbd6 193b f0eb 183d
00000010: 4cd3 6fbb 4eed 2ebd 6dcb b6bd 14a6 023d
00000020: 4628 42bb 694f 9cbd 95e3 443c 8131 e2bb
00000030: 3200 fabd 7209 953c bf78 5c3c 7964 35bd
00000040: 2cd6 52bd dc10 59ba f295 883c 92e9 56bd
00000050: 2650 c03b 9dde 93bd 73b3 27bd b40a 1ebd
00000060: 80f2 1fbc 6aad 89bc 7130 77bc 7f6c ca3c
00000070: cef9 853b 2c13 6dbd 047d f1bc a101 23bc

module.encoder.c2.main.0.weight f4 [64, 32, 3, 3]
-0.009678911 -0.0026558794 0.04255323 0.007700292 -0.008693486 0.005122679 0.034712806 -0.010247185
0.02882682 0.0061646537 -0.0032744112 -0.034251917 0.018623997 -0.0024193218 -0.0029598747 0.05412517
0.043482717 0.0033901865 0.031239724 -0.0219597 -0.011724032 -0.005011183 -0.0102826655 0.028673308
-0.026774932 0.007573217 0.030962031 0.0037838032 0.004432505 0.0067415675 -0.001843837 -0.020386409
0.012296775 -0.021025322 -0.029303929 -0.019031657 -0.017429585 0.021522684 -0.0065949922 0.000629081
0.06316095 0.01871089 -0.018793654 0.03824549 0.065989986 -0.0042708446 0.038950678 -0.017734881
0.021185676 0.01524084 -0.01316707 0.03369544 -0.0021465078 0.019727124 -0.047764033 -0.05278987
-0.05481499 -0.07517681 0.01000714 -0.04466387 -0.04050059 -0.056195747 -0.045921344 -0.0015487402
0.034135193 -0.013228557 -0.014557087 0.015926939 0.0143336365 0.007293926 -0.0025530716 0.0017775538
-0.018425265 -0.0072667925 -0.0011162205 0.008478914 0.0354498 -0.0053101527 -0.0022485375 -0.006437962
0.0032899731 0.034821883 0.019583007 -0.011862938 -0.011591189 0.0016296515 0.02965743 -0.0084395725
-0.0004725982 0.035316 -0.001387589 0.016727706 -0.027814403 0.016192907 0.016385203 0.01763266
0.01981571 0.012270324 -0.033718146 0.005258796 0.039385106 0.03215168 0.02828577 0.05410075
-0.017315414 -0.010276378 0.013112178 -0.02727843 0.006399563 0.01149555 0.050218355 -0.022470213
-0.051779047 -0.0051961965 0.042179484 -0.008516079 -0.0036300358 -0.024013368 0.032260563 0.022481034
0.00918647 -0.0060562133 0.0641009 0.023577437 0.035402734 -0.015435563 -0.01259342 0.02432795
0.0045383163 -0.03794792 0.04331986 0.038279075 -0.03603327 -0.0011528638 -0.008772116 -0.0009914642
-0.019887678 -0.017789185 -0.027132785 0.0008214434 0.03944602 -0.0048148884 -0.02886865 -0.025580078
-0.008979699 -0.025874997 0.029662283 0.013152202 0.029869573 0.04031466 -0.0012411976 0.032903697
0.021329382 -0.012440412 0.038693547 0.015085076 0.054539077 0.018859068 0.029491914 0.020597022
0.009365165 0.003920668 -0.059791118 -0.0034214347 -0.011621925 0.008250663 -0.0076088705 0.0154778315
-0.015675282 -0.008754486 0.023318952 -0.033774346 -0.04151341 -0.050632197 -0.03283108 -0.024971275
-0.014170964 -0.048072074 -0.0068509774 -0.013540446 -0.014714993 0.023542257 -0.024053743 -0.010910543
-0.037588876 -0.060944248 -0.024538787 -0.035972953 -0.02034181 -0.058556475 -0.021161035 -0.057377417
-0.009899281 -0.010540461 -0.047729548 -0.0013482742 -0.016831817 -0.014414479 -0.049534112 -0.04395324
-0.004203074 -0.050474294 -0.0045929025 -0.033095326 -0.017390324 0.0328748 0.004584854 -0.012057212
-0.024371961 -0.006012855 0.022100726 -0.029696055 -0.037413836 -0.0148375165 -0.011268703 -0.0009362737
-0.019188209 0.028408904 -0.04168675 -0.010495725 0.009831264 -0.02904157 -0.025726 -0.0062882714
0.02155794 0.010578398 0.015226951 0.013235574 -0.00806998 -0.02977416 0.036234435 0.041530527
0.050433192 0.0705037 0.025016746 -0.0038283693 -0.005491873 -0.0063275653 -0.008017531 0.012219372
0.02005097 0.013519526 -0.0069023403 -0.04768216 -0.06362174 -0.051403742 -0.032539435 -0.07359316
-0.04016262 -0.06165163 -0.050024014 -0.04044143 0.004530565 -0.05421415 -0.01626987 -0.031995833
00000000: 4c94 1ebc 430e 2ebb 4c4c 2e3d bb52 fc3b
00000010: 206f 0ebc 25dc a73b 042f 0e3d cfe3 27bc
00000020: 3926 ec3c dd00 ca3b 8197 56bb bd4b 0cbd
00000030: 5a91 983c 7c8d 1ebb 75fa 41bb 5bb2 5d3d
00000040: ef1a 323d e42d 5e3b 73ea ff3c d4e4 b3bc
00000050: 2816 40bc da34 a4bb a078 28bc 49e4 ea3c
00000060: 1a57 dbbc c028 f83b 16a4 fd3c aff9 773b
00000070: 8c3e 913b 5ee8 dc3b e7ac f1ba 6601 a7bc
00000080: 6a78 493c 4c3d acbc cb0e f0bc 47e8 9bbc
00000090: 7dc8 8ebc 5750 b03c ce1a d8bb e9e8 243a
000000a0: 875a 813d 9547 993c 26f5 99bc 4ea7 1c3d
000000b0: c225 873d 71f2 8bbb bf8a 1f3d be48 91bc
000000c0: 958d ad3c b7b4 793c b2ba 57bc 3b04 0a3d
000000d0: 6dac 0cbb c79a a13c 38a4 43bd 313a 58bd
000000e0: af85 60bd 4df6 99bd fdf4 233c 76f1 36bd
000000f0: f2e3 25bd 832d 66bd 0518 3cbd 19ff caba
00000100: 58d1 0b3d 97bc 58bc d980 6ebc 3679 823c
00000110: a1d7 6a3c e301 ef3b 6f51 27bb cffc e83a
00000120: 95f0 96bc 461e eebb 254e 92ba 25eb 0a3c
00000130: cf33 113d ca00 aebb 335c 13bb 8af5 d2bb
00000140: 979c 573b 64a1 0e3d 8b6c a03c c55c 42bc
00000150: f8e8 3dbc 089a d53a 23f4 f23c 2246 0abc
00000160: 0fc7 f7b9 83a7 103d c3df b5ba 8b08 893c
00000170: 08db e3bc fda6 843c 433a 863c 5e72 903c
00000180: 8e54 a23c 7809 493c 0a1c 0abd fa51 ac3b
00000190: 4752 213d 7bb1 033d 8fb7 e73c bf98 5d3d
000001a0: 0ed9 8dbc 415e 28bc 76d4 563c 0477 dfbc
000001b0: 6db3 d13b d557 3c3c c3b1 4d3d 7413 b8bc
000001c0: 4416 54bd db44 aabb 65c4 2c3d 0687 0bbc
000001d0: e5e5 6dbb afb7 c4bc a723 043d 252a b83c
000001e0: d982 163c 3373 c6bb 5547 833d 7825 c13c
000001f0: 7502 113d 72e5 7cbc a254 4ebc 694b c73c
00000200: 28b6 943b 476f 1bbd 2a70 313d 85ca 1c3d
00000210: 9f97 13bd b11b 97ba ecb8 0fbc 05f4 81ba
00000220: 7ceb a2bc a0ba 91bc 9345 debc 2256 573a
00000230: 2692 213d 36c6 9dbb f27d ecbc 508d d1bc
00000240: 961f 13bc cdf7 d3bc 51fe f23c 557c 573c
00000250: 09b1 f43c fc20 253d aeaf a2ba 07c6 063d
00000260: f5ba ae3c dfd2 4bbc 207d 1e3d 6527 773c
00000270: 5e64 5f3d 557e 9a3c 0799 f13c 16bb a83c
00000280: 5970 193c f278 803b 88e7 74bd 263a 60bb
00000290: e369 3ebc ca2d 073c d553 f9bb bb96 7d3c
000002a0: 7369 80bc fa6e 0fbc 6307 bf3c f856 0abd
000002b0: f709 2abd b563 4fbd e279 06bd 8f90 ccbc
000002c0: 552d 68bc 39e7 44bd 2a7e e0bb bfd8 5dbc
000002d0: 2717 71bc b1db c03c 5b0c c5bc 22c2 32bc
000002e0: cbf6 19bd ada0 79bd 9105 c9bc 6058 13bd
000002f0: dea3 a6bc ead8 6fbd e859 adbc 9504 6bbd
00000300: 9830 22bc e6b1 2cbc 0f80 43bd 93b8 b0ba
00000310: e1e2 89bc b52a 6cbc 48e4 4abd 5008 34bd
00000320: f1b9 89bb 22be 4ebd 0f80 96bb f78e 07bd
00000330: 2776 8ebc baa7 063d 8b3c 963b 9d8b 45bc
00000340: b5a7 c7bc 7c07 c5bb 950c b53c 2445 f3bc
00000350: 403f 19bd 0e19 73bc 5ea0 38bc 4470 75ba
00000360: 9730 9dbc cab9 e83c babf 2abd 43f6 2bbc
00000370: 4f13 213c 96e8 edbc 55bf d2bc d80d cebb
00000380: 479a b03c 0451 2d3c 767a 793c 05da 583c
00000390: f337 04bc f0e8 f3bc 8f6a 143d ea1b 2a3d
000003a0: 0993 4e3d 3e64 903d ebef cc3c 61e5 7abb
000003b0: 2bf5 b3bb 7757 cfbb f65b 03bc c333 483c
000003c0: ef41 a43c 0181 5d3c 072d e2bb 5e4e 43bd
000003d0: 1d4c 82bd bb8c 52bd 1248 05bd 03b8 96bd
000003e0: 8f81 24bd 6b86 7cbd fbe5 4cbd eaa5 25bd
000003f0: 2275 943b a80f 5ebd 6448 85bc 100e 03bd

module.encoder.c2.main.0.bias f4 [64]
4.0255054e-06 1.2975026e-06 4.139621e-06 -5.9873864e-06 7.94413e-06 1.450418e-06 -2.6454364e-07 1.1876512e-06
-1.6390752e-06 7.1266713e-06 6.7074984e-06 6.05187e-06 -9.220934e-06 -3.6681256e-06 -2.8522068e-06 4.409515e-06
4.9349933e-06 3.8528333e-06 -3.0402875e-06 5.926082e-06 -3.7006564e-06 1.3667181e-05 -7.250303e-06 -1.6209738e-06
6.21338e-06 2.588454e-06 -4.1398442e-07 -6.459691e-07 3.398906e-06 7.5897537e-06 3.8097135e-06 -5.4837e-07
-9.22196e-07 1.1713115e-05 1.567159e-06 6.2443532e-06 -2.2920142e-06 1.087326e-06 8.3113116e-07 1.2479902e-06
8.795724e-06 -4.4890407e-06 2.4529122e-06 -5.286362e-06 -3.7878704e-06 -1.3798378e-06 -1.9175016e-07 1.892027e-06
1.6301993e-06 5.647339e-06 1.0157231e-06 -2.8846216e-06 3.433653e-06 -8.976405e-06 3.1758018e-06 8.1627144e-07
1.8917198e-06 3.5760117e-06 1.1190657e-05 4.755426e-06 5.379528e-06 -1.1991459e-05 -1.2157541e-06 -6.737527e-07
00000000: d412 8736 da25 ae35 13e7 8a36 42e7 c8b6
00000010: c747 0537 fcab c235 9a06 8eb4 6267 9f35
00000020: 32fe dbb5 a421 ef36 f910 e136 2b11 cb36
00000030: 9cb3 1ab7 eb29 76b6 8a68 3fb6 72f5 9336
00000040: 4597 a536 9647 8136 be07 4cb6 a8d8 c636
00000050: cb58 78b6 184c 6537 a147 f3b6 3c90 d9b5
00000060: 877c d036 4db5 2d36 9641 deb4 a966 2db5
00000070: c318 6436 7dab fe36 61aa 7f36 b333 13b5
00000080: d48c 77b5 7283 4437 2c57 d235 9686 d136
00000090: 81d0 19b6 3df0 9135 e61a 5f35 9e80 a735
000000a0: 5991 1337 91a0 96b6 b69c 2436 8161 b1b6
000000b0: 1e33 7eb6 de32 b9b5 e2e3 4db4 8df1 fd35
000000c0: 39cd da35 467e bd36 fb53 8835 6c95 41b6
000000d0: b66d 6636 5e99 16b7 dc1f 5536 bf1d 5b35
000000e0: ffe6 fd35 6afb 6f36 81bf 3b37 cc90 9f36
000000f0: cb81 b436 ed2e 49b7 fe2c a3b5 efdb 34b5

module.encoder.c2.main.1.weight f4 [64]
1.0099441 1.057342 0.9502023 1.0167139 1.0077544 0.97447824 0.94715405 0.9548947
1.0435475 0.98628634 1.0149275 1.0215185 0.9803353 0.9941617 0.9284243 1.0273315
0.96824276 0.9595053 1.0433477 1.0379391 0.98609 0.98668027 1.042091 1.0014409
1.0388353 0.9753605 0.9695628 1.0250642 0.96205217 1.0039767 1.0367773 0.99510443
0.9771926 1.0557034 1.0077735 0.9905039 1.007572 0.93689597 0.9724845 0.94453704
1.061736 1.0113193 0.9461481 1.0180112 0.9762172 0.94383204 0.984265 0.94601315
1.0410672 1.077319 0.99314386 0.9673217 0.95303935 0.971616 0.97956026 1.0626307
0.96224004 0.97116727 1.010781 0.98191744 0.97766185 0.9980802 1.0107465 0.975402
00000000: d945 813f fc56 873f 7540 733f ae23 823f
00000010: 19fe 803f 6877 793f b078 723f fb73 743f
00000020: f792 853f 437d 7c3f 25e9 813f 1ec1 823f
00000030: 41f7 7a3f 6281 7e3f 37ad 6d3f 997f 833f
00000040: c2de 773f 24a2 753f 6b8c 853f 30db 843f
00000050: 6570 7c3f 1497 7c3f 3d63 853f 372f 803f
00000060: 8ef8 843f 3ab1 793f 4535 783f 4e35 833f
00000070: 0d49 763f 4f82 803f 1eb5 843f 2abf 7e3f
00000080: 4b29 7a3f 4a21 873f b9fe 803f aa91 7d3f
00000090: 1ff8 803f 6ad8 6f3f bff4 783f 2ecd 713f
000000a0: f7e6 873f e972 813f c336 723f 314e 823f
000000b0: 5fe9 793f fa9e 713f cbf8 7b3f eb2d 723f
000000c0: b141 853f 97e5 893f ad3e 7e3f 65a2 773f
000000d0: 63fa 733f d4bb 783f 76c4 7a3f 4804 883f
000000e0: 5d55 763f 6b9e 783f 4661 813f f15e 7b3f
000000f0: 0c48 7a3f 2f82 7f3f 2460 813f f2b3 793f

module.encoder.c2.main.1.bias f4 [64]
-0.042438563 -0.044362254 -0.1599556 -0.08954751 -0.053983867 -0.07512483 -0.08831354 -0.10800999
-0.0655307 -0.074366234 -0.09897348 -0.08739782 -0.09606796 -0.07939753 -0.17981967 -0.063769236
-0.069583416 -0.11323315 -0.03817693 -0.117003515 -0.13581197 -0.059192047 -0.054483525 -0.07932424
-0.090088956 -0.10555039 -0.11165491 -0.049643043 -0.0418664 -0.09026211 -0.07170603 -0.16215925
-0.14223109 -0.045228582 -0.088666186 -0.1972899 -0.062068332 -0.10843567 -0.083360165 -0.14650413
-0.07669725 -0.09300133 -0.0725915 -0.091625914 -0.17691533 -0.11009728 -0.100642376 -0.10745598
-0.05303188 -0.04362291 -0.057342853 -0.1478807 -0.07722126 -0.15887132 -0.07222743 -0.06807229
-0.058642466 -0.15103532 -0.07759874 -0.08984914 -0.034875646 -0.061642434 -0.08395722 -0.05471096
00000000: 0fd4 2dbd 32b5 35bd 67cb 23be af64 b7bd
00000010: 301e 5dbd 0cdb 99bd bbdd b4bd 5734 ddbd
00000020: f634 86bd 534d 98bd 9cb2 cabd a1fd b2bd
00000030: 47bf c4bd 2c9b a2bd a622 38be 7299 82bd
00000040: c081 8ebd c8e6 e7bd 6a5f 1cbd 8a9f efbd
00000050: 4b12 0bbe 5c73 72bd 1e2a 5fbd bf74 a2bd
00000060: 8f80 b8bd ce2a d8bd 54ab e4bd 8156 4bbd
00000070: 1a7c 2bbd 57db b8bd 9cda 92bd 130d 26be
00000080: 07a5 11be 9b41 39bd 9e96 b5bd 5d06 4abe
00000090: 5d3b 7ebd 8513 debd bcb8 aabd 2e05 16be
000000a0: 7313 9dbd 7b77 bebd daaa 94bd 5ea6 bbbd
000000b0: 4b29 35be af7a e1bd 971d cebd e111 dcbd
000000c0: f537 59bd f0ad 32bd 57e0 6abd 0a6e 17be
000000d0: 2e26 9ebd 2aaf 22be faeb 93bd 7c69 8bbd
000000e0: 1533 70bd 01a9 1abe 17ec 9ebd d302 b8bd
000000f0: c4d9 0ebd c77c 7cbd c3f1 abbd 9918 60bd

module.encoder.c2.main.3.weight f4 [64, 64, 3, 3]
0.012502433 0.0034488705 -0.010879213 0.042284116 -0.022816053 0.006113621 0.0076197684 -0.017113548
-0.008636976 0.007914207 0.018899096 0.029015858 -0.019092984 2.9747984e-05 -0.007477363 -0.06390912
-0.026316972 0.0016681469 -0.0026214502 -0.0045109955 -0.03917203 0.029865421 0.0008052313 -0.0058242953
0.021604635 0.0046137203 -0.0044334703 -0.010498496 0.016578663 -0.017849054 -0.011097828 -0.036966383
-0.05742934 0.030190788 0.040030733 0.014943149 0.062066432 0.05748566 0.02104525 -0.01813343
0.01094329 -0.038939312 -0.005804508 0.034372263 -0.015277938 -0.048907325 0.012263114 -0.05761572
0.0060055316 -0.012576613 0.005757708 0.0031039864 -0.035905648 -0.029007966 0.014540745 -0.0068001742
0.02682655 -0.029810008 -0.015633054 0.029184954 0.0056576044 0.012593507 0.0160894 -0.019293215
-0.04026727 -0.017354758 0.020311275 0.010067925 0.013348758 0.038092475 -0.018220741 -0.01579428
0.050713286 0.045433696 0.013395765 -0.027853904 -0.02517414 -0.056023985 0.10050416 0.07036847
0.03640171 0.050403103 0.05997494 0.027678816 -0.062145155 -0.019692577 -0.011749487 -0.009864869
-0.02395834 0.023872169 0.005187054 0.0046174466 -0.047144447 -0.0030745028 -0.08365539 -0.040250313
-0.07455223 -0.029859597 -0.009414792 0.040656075 0.032248937 0.0157143 0.0069077783 0.013982043
0.015855424 0.008354765 0.016213616 0.054685757 0.009565527 0.041958023 0.009241508 -0.0067852144
-0.028746143 -0.029388886 0.01677818 -0.03207385 -0.053223483 -0.021316333 0.0077766012 -0.011068048
0.010196422 -0.030678548 -0.058418844 -0.031120982 -0.023519967 -0.009911983 -0.03360126 -0.040742107
-0.024693465 -0.055172276 -0.024313528 -0.056074705 0.03345611 0.01751254 -0.0034777971 -0.050111786
-0.045858502 -0.073913485 0.0047328114 -0.037421037 0.008466954 -0.01924994 -0.041839637 -0.0064738146
0.005020042 -0.03551633 0.015729433 0.0002452223 0.029729638 0.080590345 -0.0038130844 -0.0043818033
0.0018040162 0.060611602 0.02462496 0.06745172 0.014734682 0.008663091 0.012203603 -0.05578678
-0.036379173 -0.014032908 -0.035882942 0.04165612 0.015322115 -0.013267366 0.009075458 -0.0121726785
-0.047027826 -0.005846386 0.019492637 0.023946175 0.020088932 0.03015698 -0.013959021 0.036699
-0.054385908 -0.02009919 -0.005547735 0.0029722755 0.018866608 0.024660433 0.018215979 -0.026937515
-0.018951489 -0.05883638 -0.0024510126 -0.023350388 0.0067952466 -0.040743202 0.0058556083 0.0011178039
0.023399085 -0.00797182 0.0066264556 -0.022969475 -0.011899848 0.044581696 -0.025306111 0.03345569
0.026487445 0.004768638 -0.001673975 -0.0044632345 0.0015651052 0.08669667 -0.006776299 -0.011031563
0.0105196005 0.025453163 -0.0054520927 -0.00951021 0.0049447743 -0.03349249 -0.02221157 0.015177005
-0.025761258 -0.043720156 -0.024336899 -0.011697988 -0.015535701 -0.006963833 -0.02784062 0.01552855
-0.014087353 0.0051702973 0.0052156406 0.0033872658 -0.027877992 -0.036206394 0.020845799 -0.047160618
-0.038022876 -0.045026295 0.0094700055 -0.0015037116 -0.011512348 0.02188548 0.025699688 0.002771541
0.0068845088 -0.027307998 0.010409971 0.03794342 0.011841575 0.05027077 0.008331329 -0.02723791
-0.011570826 0.06505212 0.055749923 -0.014320989 0.02543432 -0.011718572 -0.0051132883 -0.057845518
00000000: 01d7 4c3c 7206 623b ba3e 32bc 1c32 2d3d
00000010: bbe8 babc c554 c83b 40af f93b b631 8cbc
00000020: 1a82 0dbc 97aa 013c 47d2 9a3c aab2 ed3c
00000030: e468 9cbc 4f8b f937 ab04 f5bb c9e2 82bd
00000040: b196 d7bc b9a5 da3a a3cc 2bbb f9d0 93bb
00000050: da72 20bd 54a8 f43c 2816 533a bbd9 bebb
00000060: 34fc b03c b12e 973b a546 91bb e201 2cbc
00000070: facf 873c 2e38 92bc aad3 35bc 106a 17bd
00000080: 073b 6bbd ac52 f73c 44f7 233d 1cd4 743c
00000090: 5f39 7e3d 1576 6b3d 1767 ac3c 8f8c 94bc
000000a0: 7c4b 333c d47e 1fbd be33 bebb eec9 0c3d
000000b0: 5150 7abc 0c53 48bd 3aeb 483c 76fe 6bbd
000000c0: 0dca c43b 230e 4ebc 28ab bc3b 406c 4b3b
000000d0: cd11 13bd 1da2 edbc 4e3c 6e3c ffd3 debb
000000e0: 5ac3 db3c 1e34 f4bc e410 80bc 4915 ef3c
000000f0: 6d63 b93b ff54 4e3c ebcd 833c ce0c 9ebc
00000100: 4bef 24bd 912b 8ebc d563 a63c f0f3 243c
00000110: c0b4 5a3c db06 1c3d aa43 95bc 0263 81bc
00000120: bcb8 4f3d af18 3a3d e979 5b3c df2d e4bc
00000130: 003a cebc 6879 65bd 20d5 cd3d 581d 903d
00000140: f619 153d 7c73 4e3d 48a8 753d afbe e23c
00000150: eb8b 7ebd 5452 a1bc ec80 40bc 42a0 21bc
00000160: 4844 c4bc 918f c33c 2af8 a93b f34d 973b
00000170: 891a 41bd 997d 49bb 8453 abbd 83dd 24bd
00000180: d7ae 98bd 1d9c f4bc 8040 1abc fc86 263d
00000190: 7617 043d 47bb 803c a55a e23b f014 653c
000001a0: 3ce3 813c 6de2 083c 6bd2 843c 2cfe 5f3d
000001b0: bab8 1c3c 2ddc 2b3d b269 173c 8156 debb
000001c0: 087d ebbc f6c0 f0bc 6572 893c df5f 03bd
000001d0: de00 5abd 979f aebc dcd2 fe3b c256 35bc
000001e0: e50e 273c 9451 fbbc 9948 6fbd 6ef1 febc
000001f0: f2ac c0bc df65 22bc 7aa1 09bd 32e1 26bd
00000200: f349 cabc 53fc 61bd 2a2d c7bc 97ae 65bd
00000210: 4609 093d 7576 8f3c c1eb 63bb 0442 4dbd
00000220: 20d6 3bbd f45f 97bd b315 9b3b cd46 19bd
00000230: fbb8 0a3c 0db2 9dbc 0a60 2bbd 4b22 d4bb
00000240: 2a7f a43b 9279 11bd 03db 803c 2e91 8039
00000250: 928b f33c 8d0c a53d f1e4 79bb 3b95 8fbb
00000260: bd74 ec3a df43 783d 49ba c93c 2124 8a3d
00000270: bc69 713c a3ef 0d3c 9ff1 473c ae80 64bd
00000280: 5402 15bd 48ea 65bc fef9 12bd 9c9f 2a3d
00000290: 9c09 7b3c 5e5f 59bc 3bb1 143c ea6f 47bc
000002a0: 40a0 40bd 0a93 bfbb 06af 9f3c c52a c43c
000002b0: 8b91 a43c c50b f73c 61b4 64bc b151 163d
000002c0: c2c3 5ebd 0ea7 a4bc c6c9 b5bb 82ca 423b
000002d0: 258e 9a3c ad04 ca3c ad39 953c 10ac dcbc
000002e0: 2740 9bbc 6afe 70bd 2ba1 20bb 5049 bfbc
000002f0: a9aa de3b 58e2 26bd 67e0 bf3b 4683 923a
00000300: 70af bf3c 3d9c 02bc bd22 d93b 7b2a bcbc
00000310: 94f7 42bc 4c9b 363d c34e cfbc d508 093d
00000320: 33fc d83c 3c42 9c3b 4869 dbba 5340 92bb
00000330: 3724 cd3a 068e b13d b70b debb bbbd 34bc
00000340: 675a 2c3c 2783 d03c 78a7 b2bb b6d0 1bbc
00000350: c607 a23b 6c2f 09bd 0af5 b5bc f9a8 783c
00000360: 4609 d3bc e813 33bd 2d5e c7bc eba8 3fbc
00000370: 7489 7ebc dd30 e4bb 0312 e4bc 766b 7e3c
00000380: a4ce 66bc 996b a93b f7e7 aa3b e4fc 5d3b
00000390: 6360 e4bc 284d 14bd cfc4 aa3c 7e2b 41bd
000003a0: e0bd 1bbd 7e6d 38bd 1528 1b3c 3018 c5ba
000003b0: 4a9e 3cbc 2e49 b33c 2788 d23c bea2 353b
000003c0: 7297 e13b 06b5 dfbc 958e 2a3c 8f6a 1b3d
000003d0: 2a03 423c b9e8 4d3d 2080 083c 0a22 dfbc
000003e0: 9093 3dbc 0c3a 853d 085a 643d 95a2 6abc
000003f0: a35b d03c 41ff 3fbc 5f8d a7bb 6cef 6cbd

module.encoder.c2.main.3.bias f4 [64]
-2.7159144e-06 -7.570611e-07 -1.190059e-07 1.6093474e-06 9.402222e-06 -2.1689564e-06 -5.612753e-07 7.604437e-07
-2.6235246e-06 3.0859565e-06 7.613186e-07 6.335655e-07 -2.2018187e-06 -1.2438566e-07 4.6936697e-07 -2.7591495e-06
1.9867127e-06 3.4270371e-07 5.8901145e-07 -3.4871323e-06 -2.766781e-06 1.1844393e-08 8.849399e-07 -1.3039246e-06
-1.500351e-06 8.9545847e-07 -4.2442557e-06 -4.4866795e-07 7.9051614e-07 -4.299522e-07 4.717883e-06 -8.5002654e-08
-4.4282374e-06 1.3944779e-06 9.1582154e-07 -2.9600008e-06 1.4633744e-06 -7.4797873e-07 -2.6587447e-06 2.934348e-06
6.6808286e-07 2.1019825e-06 9.548792e-07 4.9380327e-07 -4.926715e-07 4.6909922e-06 -2.9268895e-06 -8.445594e-07
5.4855815e-07 -1.133368e-06 -3.9064665e-07 -4.295174e-06 -1.2067297e-06 2.2450313e-06 -4.5611247e-07 -4.08974e-06
2.0682738e-07 -1.0536755e-06 1.0987114e-06 -7.7807994e-07 2.377468e-06 3.0139057e-07 -1.3952211e-06 -1.1500564e-07
00000000: 0e43 36b6 d838 4bb5 2f90 ffb3 c100 d835
00000010: 3cbe 1d37 638e 11b6 8baa 16b5 4b21 4c35
00000020: cf0f 30b6 5418 4f36 6a5d 4c35 4a12 2a35
00000030: f5c2 13b6 df8e 05b4 4efd fb34 d429 39b6
00000040: 7753 0536 d7fc b734 8f1c 1e35 7a04 6ab6
00000050: f0ac 39b6 317c 4b32 9b8c 6d35 8202 afb5
00000060: ab5f c9b5 705f 7035 e169 8eb6 74e0 f0b4
00000070: db33 5435 2ed4 e6b4 4e4e 9e36 b48a b6b3
00000080: 4596 94b6 e529 bb35 c7d6 7535 6da4 46b6
00000090: 2969 c435 b5c8 48b5 e36c 32b6 b7eb 4436
000000a0: 4e56 3335 c90f 0d36 6629 8035 e78d 0435
000000b0: 2140 04b5 5167 9d36 946b 44b6 aeb5 62b5
000000c0: a140 1335 3a1e 98b5 11ba d1b4 441f 90b6
000000d0: ebf6 a1b5 58a9 1636 9fdf f4b4 993a 89b6
000000e0: 4714 5e34 046c 8db5 7077 9335 3fdd 50b5
000000f0: 978c 1f36 cece a134 6f43 bbb5 05f9 f6b3

module.encoder.c2.main.4.weight f4 [64]
1.0261332 0.97007895 1.067866 1.0145552 1.0088667 1.0097066 0.97488904 0.9927774
0.9971739 0.99128294 0.9984213 1.0132724 1.017418 0.9864815 0.9951871 0.99627686
0.9972551 0.95898616 0.99195856 0.97249997 1.0212674 0.99272364 1.0040934 1.01819
0.9954434 0.9774533 0.994385 1.0229254 1.0082413 0.9867202 0.99064124 0.9672935
0.99704474 0.99462277 1.0161918 1.0425171 1.0204648 1.0104619 0.9712982 1.005007
0.9708481 1.0044823 0.98132104 0.9983684 0.967981 1.0017159 1.0181929 0.99495643
1.0015212 0.97792095 0.9684003 1.0008186 0.999343 1.0072649 0.9894797 0.99451274
1.0039582 1.0046474 0.94238645 1.0353456 0.98057777 1.0214168 1.0388974 1.0501691
00000000: 5558 833f 1857 783f d5af 883f f2dc 813f
00000010: 8b22 813f 113e 813f 5492 793f a926 7e3f
00000020: ca46 7f3f b8c4 7d3f 8a98 7f3f e9b2 813f
00000030: c13a 823f 0d8a 7c3f 95c4 7e3f 000c 7f3f
00000040: 1c4c 7f3f 1e80 753f fff0 7d3f c2f5 783f
00000050: e4b8 823f 2323 7e3f 2286 803f 0d54 823f
00000060: 61d5 7e3f 613a 7a3f 0490 7e3f 38ef 823f
00000070: 0d0e 813f b299 7c3f aa9a 7d3f 8ca0 773f
00000080: 533e 7f3f 999f 7e3f 9312 823f 3371 853f
00000090: 979e 823f d156 813f 00a7 783f 12a4 803f
000000a0: 8089 783f e092 803f db37 7b3f 1295 7f3f
000000b0: 9acd 773f 3a38 803f 2554 823f 77b5 7e3f
000000c0: d931 803f 0759 7a3f 15e9 773f d31a 803f
000000d0: f1d4 7f3f 0eee 803f 8b4e 7d3f 6398 7e3f
000000e0: b481 803f 4998 803f 3d40 713f 3486 843f
000000f0: 2507 7b3f c9bd 823f 97fa 843f f16b 863f

module.encoder.c2.main.4.bias f4 [64]
-0.030912487 -0.11583712 -0.045398425 -0.06712875 -0.050376244 -0.10119129 -0.0941059 -0.0694174
-0.11557909 -0.068705745 -0.08853094 -0.06947149 -0.099411614 -0.057960603 -0.042700868 -0.052295726
-0.039399493 -0.12921174 -0.08877311 -0.112712845 -0.14587897 -0.14319406 -0.13676375 -0.03489736
-0.083410904 -0.07659503 -0.054677926 -0.11174531 -0.029069481 -0.050256353 -0.031420022 -0.08730487
-0.12302304 -0.068695314 -0.07097268 -0.031653635 -0.04598668 -0.09046409 -0.051538125 -0.083561294
-0.14456798 -0.04224433 -0.092997506 -0.061353687 -0.15030473 -0.06891063 -0.047648136 -0.074341066
-0.07849503 -0.08087513 -0.10599686 -0.06686356 -0.09663583 -0.023023682 -0.11906608 -0.13991974
-0.054711062 -0.12139063 -0.12733397 -0.066075794 -0.122066885 -0.10202236 -0.10997461 -0.029035956
00000000: 2f3c fdbc 033c edbd b3f3 39bd cc7a 89bd
00000010: 5257 4ebd 613d cfbd 98ba c0bd b62a 8ebd
00000020: bbb4 ecbd 99b5 8cbd b64f b5bd 1247 8ebd
00000030: 5198 cbbd 1968 6dbd 1be7 2ebd 0b34 56bd
00000040: 5d61 21bd 1550 04be adce b5bd fed5 e6bd
00000050: 4c61 15be 77a1 12be cc0b 0cbe 89f0 0ebd
00000060: 56d3 aabd dbdd 9cbd f6f5 5fbd bada e4bd
00000070: 1f23 eebc 9bd9 4dbd 48b2 00bd e5cc b2bd
00000080: 81f3 fbbd 21b0 8cbd 205a 91bd 3ea7 01bd
00000090: 875c 3cbd 3d45 b9bd a419 53bd 2f22 abbd
000000a0: a109 14be 6408 2dbd 7a75 bebd 014e 7bbd
000000b0: 7ce9 19be 0421 8dbd b12a 43bd 2140 98bd
000000c0: 01c2 a0bd dca1 a5bd e214 d9bd c3ef 88bd
000000d0: 02e9 c5bd 299c bcbc ebd8 f3bd 1f47 0fbe
000000e0: b518 60bd a79b f8bd d663 02be bf52 87bd
000000f0: 34fe f9bd 19f1 d0bd 5e3a e1bd d0dc edbc

module.encoder.c3.0.weight f4 [32, 64, 3, 3]
0.021346658 0.013231497 0.009796572 0.016339362 -0.033778153 -0.011072143 0.027849054 0.044287294
0.019393139 0.013418388 0.019140074 -0.0024036956 0.0044406564 -0.009179243 -0.018277418 -0.035238266
-0.0106917815 -0.013568497 -0.03260789 -0.040610697 -0.0035296348 0.05541192 0.024278171 0.047825083
0.0341569 0.05000089 -0.07260662 -0.066141255 -0.08629687 -0.02188937 0.054953616 -0.008224052
0.009787299 0.028348424 0.0047883545 0.011275437 -0.015061538 -0.010313481 -0.04947129 -0.002458302
0.05209568 0.034063287 -0.029169464 -0.0029093216 -0.0061438177 -0.005664928 0.02730439 -0.013322975
0.022865584 -0.024907479 0.0042292024 -0.019948747 0.01813777 -0.04039401 -0.028762396 -0.011777913
-0.042592198 -0.028065927 -0.016054742 -0.043605253 0.03656425 0.030934885 0.033247266 0.004143382
0.06298624 0.03775043 -0.038765248 0.023561379 -0.020795973 0.011871212 0.00017592598 0.034510672
-0.023740767 -0.007833306 -0.009615897 -0.06442852 -0.03104734 0.002152862 -0.013016886 0.029624436
0.046222635 -0.010921896 -0.012393833 -0.026724897 -0.0022133433 0.0126678115 0.029548645 0.0075628376
0.024381302 0.0052057714 -0.02034793 0.030502707 -0.03836851 -0.009169953 0.01958595 -0.04593621
-0.006397166 0.024540244 0.011320331 -0.03037189 0.0427307 0.056250114 0.03728455 0.068907104
0.08628371 0.03153892 -0.010782463 0.019100372 -0.0077521214 -0.013416656 -0.019244818 -0.051097456
-0.047248796 -0.00096610415 -0.00135403 -0.012962426 0.021494858 0.023436187 -0.010760967 0.005191285
0.03993507 0.0296768 0.040031254 -0.0024290353 -0.014006766 -0.03450688 -0.03937094 -0.012967747
-0.0036705013 -0.017754626 0.021343827 -0.0002578753 -0.07927858 -0.0002289844 -0.010739635 -0.018615328
-0.012753944 -0.0043445295 0.053621676 0.038600992 -0.0030681163 0.02118941 0.027463604 -0.028114194
0.021714348 0.005722718 -0.019772999 -0.015351967 -0.02282923 0.00059988245 0.037757713 0.028130572
0.05013252 0.0037890212 0.015515783 -0.007532769 0.0024386928 0.055463117 -0.049202647 0.029240306
0.015455862 -0.057698194 -0.013029882 0.041240316 -0.00011264995 -0.00941214 0.00271452 -0.0026389428
-0.06715696 0.015366832 -0.060542274 -0.031905245 0.00077689806 0.008568717 0.0061611393 0.005822142
0.020643976 -0.010127532 0.012402652 0.006361918 0.009878064 0.021640245 -0.010879349 0.061705064
0.0061124414 -0.011132116 -0.051214006 0.018493619 -0.052179944 0.015880825 -0.008423021 0.0039460915
0.016466586 -0.018046578 -0.027015025 0.011185504 0.023504134 -0.005576799 -0.027744567 -0.059009433
-0.011659457 0.036568962 -0.024852749 0.02581431 0.006795128 -0.033301752 -0.033457424 -0.043150496
-0.07547507 -0.10226316 0.01778722 -0.006684329 -0.03461612 0.021120118 -0.032706566 0.039652422
-0.058786813 -0.033037964 0.023587016 -0.036639836 0.006290257 -0.044958685 -0.062038176 -0.018362854
-0.013361322 0.0062293774 -0.020994052 0.005899679 0.045927826 0.013748273 -0.016786946 0.015289698
0.008291905 -0.038913112 -0.05514247 -0.059918303 0.01952979 -0.018965393 0.0031768156 0.042852584
0.0021119493 0.03615673 0.07031142 0.08397546 0.00057804084 0.0377282 -0.04021225 0.007829745
0.0037222262 -0.0065288013 -0.0029611627 -0.013949737 -0.09155839 -0.012114602 -0.016304703 -0.07669917
00000000: 30df ae3c ecc8 583c cd81 203c 20da 853c
00000010: f65a 0abd ef67 35bc b323 e43c 9866 353d
00000020: 5cde 9e3c ccd8 5b3c a5cb 9c3c 5287 1dbb
00000030: ed82 913b 8964 16bc 86ba 95bc 0056 10bd
00000040: 952c 2fbc 674e 5ebc da8f 05bd 6757 26bd
00000050: 7251 67bb 9cf7 623d 04e3 c63c 3ce4 433d
00000060: 1be8 0b3d bccd 4c3d c8b2 94bd 1175 87bd
00000070: 6abc b0bd 5651 b3bc 0b17 613d 2dbe 06bc
00000080: e85a 203c f43a e83c a1e7 9c3b 9cbc 383c
00000090: abc4 76bc e0f9 28bc 68a2 4abd 771b 21bb
000000a0: 4862 553d f285 0b3d cdf4 eebc 51aa 3ebb
000000b0: 1452 c9bb dca0 b9bb 75ad df3c 9b48 5abc
000000c0: 9b50 bb3c c50a ccbc 1f95 8a3b 8e6b a3bc
000000d0: a995 943c 3074 25bd 1e9f ebbc 26f8 40bc
000000e0: 2875 2ebd 84ea e5bc 3c85 83bc 6c9b 32bd
000000f0: 65c4 153d 286b fd3c 492e 083d 35c5 873b
00000100: eefe 803d 32a0 1a3d 4fc8 1ebd cb03 c13c
00000110: 515c aabc 797f 423c c578 3839 105b 0d3d
00000120: ff7b c2bc 4457 00bc ff8b 1dbc 1af3 83bd
00000130: fe56 febc 0817 0d3b c744 55bc f2ae f23c
00000140: f253 3d3d c1f1 32bc 810f 4bbc 2cee dabc
00000150: bd0d 11bb a78c 4f3c 0010 f23c aed1 f73b
00000160: 4cbb c73c 2d95 aa3b b4b0 a6bc d0e0 f93c
00000170: 4c28 1dbd 923d 16bc b772 a03c 9b27 3cbd
00000180: 519f d1bb 9f08 c93c e978 393c 78ce f8bc
00000190: 6306 2f3d 8566 663d afb7 183d 2b1f 8d3d
000001a0: 84b5 b03d f42e 013d eda8 30bc 6278 9c3c
000001b0: 8205 febb 89d1 5bbc 4fa7 9dbc 914b 51bd
000001c0: f487 41bd 2742 7dba b579 b1ba 5b60 54bc
000001d0: fc15 b03c 3ffd bf3c c44e 30bc a81b aa3b
000001e0: f592 233d c31c f33c d0f7 233d 7330 1fbb
000001f0: a27c 65bc 1657 0dbd 6c43 21bd ac76 54bc
00000200: cb8c 70bb 2672 91bc 40d9 ae3c 7033 87b9
00000210: cf5c a2bd 881b 70b9 4bf5 2fbc 2c7f 98bc
00000220: ebf5 50bc 8e5c 8ebb 67a2 5b3d 131c 1e3d
00000230: 7312 49bb 6a95 ad3c 5afb e03c bd4f e6bc
00000240: 4ae2 b13c a385 bb3b fcfa a1bc d186 7bbc
00000250: 5e04 bbbc 6e41 1d3a d5a7 1a3d 1672 e63c
00000260: c257 4d3d 3a51 783b e935 7e3c 72d5 f6bb
00000270: 7ad2 1f3b 4b2d 633d b788 49bd 5e89 ef3c
00000280: 953a 7d3c f154 6cbd 497b 55bc 9beb 283d
00000290: 7b3e ecb8 6035 1abc 17e6 313b 1df2 2cbb
000002a0: 9789 89bd 2ac5 7b3c 2dfb 77bd 13af 02bd
000002b0: bfa8 4b3a ce63 0c3c 62e3 c93b abc7 be3b
000002c0: 8e1d a93c f3ed 25bc 7e34 4b3c a377 d03b
000002d0: 9ad7 213c e246 b13c 4c3f 32bc 73be 7c3d
000002e0: e04a c83b 7b63 36bc c7c5 51bd ee7f 973c
000002f0: a3ba 55bd 8118 823c b600 0abc 374e 813b
00000300: efe4 863c 6bd6 93bc 9d4e ddbc 6743 373c
00000310: be8b c03c 95bd b6bb 9348 e3bc e0b3 71bd
00000320: 4f07 3fbc 56c9 153d fe97 cbbc 8878 d33c
00000330: aaa9 de3b 6b67 08bd a70a 09bd 93be 30bd
00000340: ac92 9abd 596f d1bd 81b6 913c 3708 dbbb
00000350: a2c9 0dbd 1904 ad3c 52f7 05bd 946a 223d
00000360: 71ca 70bd d152 07bd 8f39 c13c a713 16bd
00000370: 801e ce3b 9926 38bd be1b 7ebd b26d 96bc
00000380: 72e9 5abc ce1f cc3b b8fb abbc 1852 c13b
00000390: d11e 3c3d 7040 613c c784 89bc a481 7a3c
000003a0: c5da 073c 5b63 1fbd 12dd 61bd e56c 75bd
000003b0: f0fc 9f3c 505d 9bbc 1f32 503b 3186 2f3d
000003c0: a168 0a3b 1419 143d 6fff 8f3d 53fb ab3d
000003d0: aa87 173a e388 1a3d 9ab5 24bd 5548 003c
000003e0: 98f0 733b 8eef d5bb 1110 42bb 708d 64bc
000003f0: f782 bbbd 537c 46bc 7191 85bc 7414 9dbd

module.encoder.c3.0.bias f4 [32]
-1.8000458e-07 1.0268687e-06 -9.314524e-08 8.106994e-07 -2.9301512e-07 -5.9258514e-07 3.291199e-07 1.0326154e-06
-2.70862e-07 -4.803079e-08 8.226063e-07 1.049517e-06 1.9212969e-08 -3.5563878e-07 1.6784211e-06 1.2638236e-07
6.4281807e-07 1.541101e-06 3.312922e-08 3.4096652e-07 -5.643906e-07 -2.1983544e-08 5.372847e-07 6.134198e-07
-1.61393e-06 4.2502418e-07 1.8730428e-06 -2.3160075e-07 -9.717155e-07 7.7077783e-07 3.082804e-06 -7.9520333e-07
00000000: 4847 41b4 f1d2 8935 2307 c8b3 d79e 5935
00000010: b14f 9db4 2412 1fb5 e5b1 b034 6598 8a35
00000020: fd6a 91b4 694a 4eb3 13d1 5c35 21dd 8c35
00000030: c409 a532 9fee beb4 1c46 e135 b8b3 0734
00000040: 1f8e 2c35 d4d7 ce35 f649 0e33 150e b734
00000050: a080 17b5 53d6 bcb2 ec39 1035 e3a9 2435
00000060: 369e d8b5 e12e e434 4365 fb35 eead 78b4
00000070: e46b 82b5 73e7 4e35 2be2 4e36 f575 55b5

module.encoder.c3.1.weight f4 [32]
1.216121 1.1580127 1.0852935 1.0976021 1.0915586 1.0717412 1.0048175 1.1073865
1.0669107 1.1119062 1.090759 1.1696821 1.1588905 1.169288 1.1646876 1.114013
1.0808244 1.0832901 1.1121958 1.1542628 1.1839641 1.1234622 1.179776 1.1712304
1.1864454 1.0901177 1.1084808 1.0969245 1.1215087 1.1627127 1.1399364 1.1387794
00000000: daa9 9b3f c339 943f e6ea 8a3f 3a7e 8c3f
00000010: 31b8 8b3f d12e 893f dc9d 803f d7be 8d3f
00000020: 8890 883f f152 8e3f fe9d 8b3f 25b8 953f
00000030: 8656 943f 3bab 953f 7c14 953f fa97 8e3f
00000040: 7458 8a3f 40a9 8a3f 6f5c 8e3f e2be 933f
00000050: 238c 973f 9ccd 8f3f e602 973f e1ea 953f
00000060: 71dd 973f fa88 8b3f b3e2 8d3f 0668 8c3f
00000070: 998d 8f3f c5d3 943f 70e9 913f 86c3 913f

module.encoder.c3.1.bias f4 [32]
-0.12822898 0.04036034 -0.06474892 0.03339834 -0.08106228 -0.08599639 0.04942989 0.08670123
0.104133174 0.04699815 -0.035074558 -0.040329255 0.044815235 0.12178529 0.02434402 0.0217208
0.10714066 0.0731995 -0.054456264 -0.08711564 0.011885364 0.02854638 0.06615482 0.05795302
-0.037609745 0.00474959 0.026118722 -0.010737557 0.03913441 0.07771891 -0.029163491 0.025214382
00000000: 754e 03be e250 253d 159b 84bd b3cc 083d
00000010: fb03 a6bd e01e b0bd ff76 4a3d 6a90 b13d
00000020: c643 d53d 2281 403d 57aa 0fbd 4a30 25bd
00000030: 2e90 373d 916a f93d 1c6d c73c d2ef b13c
00000040: 906c db3d 9fe9 953d 880d 5fbd af69 b2bd
00000050: d4ba 423c 19da e93c 2e7c 873d 2560 6d3d
00000060: ad0c 1abd 73a2 9b3b eef6 d53c 94ec 2fbc
00000070: 674b 203d 182b 9f3d 46e8 eebc 648e ce3c

module.encoder.c3.1.running_mean f4 [32]
-0.7005335 -0.7830025 -0.9501062 -0.010698201 0.74093705 -0.27352345 0.3737348 -0.10789231
-0.67204386 0.8277599 -0.29297775 -0.23115058 -0.103455044 0.1762977 0.20940228 -0.29555184
0.37322795 0.17979914 0.11020068 0.22726648 -0.25960898 -0.12217734 -0.62096375 -0.23266625
-0.894624 0.4719419 0.28953162 0.61926496 0.47959697 -0.13599184 -0.58322066 0.06535651
00000000: 2a56 33bf da72 48bf 293a 73bf 8247 2fbc
00000010: 0dae 3d3f 440b 8cbe 2b5a bf3e a5f6 dcbd
00000020: 110b 2cbf 13e8 533f 2e01 96be bdb2 6cbe
00000030: 3de0 d3bd 6287 343e 8d6d 563e 9252 97be
00000040: bc17 bf3e 441d 383e e5b0 e13d 8bb8 683e
00000050: 78eb 84be 1d38 fabd 7bf7 1ebf 1040 6ebe
00000060: 1406 65bf 5ea2 f13e 7d3d 943e 2688 1e3f
00000070: bc8d f53e 7241 0bbe f34d 15bf a2d9 853d
