logs/exp5/model_iters_7000.pth (torch, 495325 bytes, 47 tensors)

module.encoder.c1.main.0.weight f4 [32, 3, 3, 3]
000000 da b5 0e bc a0 39 aa 3b ee 76 9f bb 64 c3 cd bc
       -0.008710349 0.0051948577 -0.0048664724 -0.025117584
000010 92 35 af 3a c6 b0 b5 3b 3c a3 e3 36 ad 5e ca 3c
       0.0013367406 0.0055447547 6.78413e-06 0.024703348
000020 ef 7e 91 3c 69 48 b2 3a 5f 30 1b bd 73 62 b1 3c
       0.017760722 0.0013601902 -0.037887927 0.02165339
000030 c0 10 2a bb a2 9c 8d 3b 9b 7c 0a 3d 02 7f 15 ba
       -0.0025949925 0.0043216506 0.03381024 -0.00057028246
000040 84 94 87 3b d3 33 aa bb 25 53 ef bc b3 aa 3a bd
       0.0041375775 -0.005194166 -0.029214451 -0.045572948
000050 12 e1 a4 bc c2 66 2c bd c6 a3 03 ba c3 c3 36 3d
       -0.020126853 -0.042090185 -0.00050216576 0.044620287
000060 ac 05 9a 3c bc ce f3 bc 8a a5 07 3d 56 df 0c 3c
       0.018801533 -0.029761665 0.033116855 0.008598169
000070 16 4b 87 bc 3e 93 7f 3c 16 85 73 3c 1c eb e2 3c
       -0.016515296 0.01559907 0.014863273 0.0277
000080 84 0c 0e 3d 0a eb 81 bb 34 40 62 3c ab 9a c8 bb
       0.034679905 -0.0039647864 0.0138092525 -0.0061219535
000090 a3 64 64 3b f7 1b 48 bc b8 d5 93 bc 47 db 14 bc
       0.0034850023 -0.012213699 -0.018046245 -0.009085483
0000a0 42 08 44 ba 1b ba 82 3b 79 15 2d 3d d4 50 b7 3c
       -0.0007478037 0.0039894707 0.042256806 0.022377409
0000b0 8e 25 80 bc a3 c1 35 3c 12 92 1f 3b a3 f7 b0 3c
       -0.015642907 0.01109353 0.002434854 0.021602457
0000c0 d5 9f 94 bc 87 7e 81 3c 6a c7 c3 3d 7b ef d0 bc
       -0.01814262 0.015807403 0.095595196 -0.025504818
0000d0 f2 75 3b bd 55 92 3f bd f5 8d 17 3d 23 88 1b bd
       -0.04576678 -0.046770412 0.037000615 -0.037971627
0000e0 56 ee 36 bc fe 34 3b 3d 90 eb 90 3b b1 b2 97 bc
       -0.011165222 0.045704834 0.0044226125 -0.018517824
0000f0 d4 2b d5 3b f1 f5 22 bc a7 4e 1c 3c be 19 5a bc
       0.006505469 -0.009946332 0.009540237 -0.0133118015
000100 25 c4 1c bd c7 29 70 3b 2b 74 f1 bb 08 6a 18 3d
       -0.038272996 0.0036645995 -0.0073685846 0.037210494
000110 a7 8c 52 3c c7 a8 10 3c 45 dc c2 bb 70 6d cd bb
       0.012850917 0.008829302 -0.0059466683 -0.0062691495
000120 07 a2 30 bd 3d b5 53 3c b3 df 3a 3c ab 75 d4 bc
       -0.04312327 0.012921629 0.011405873 -0.025935015
000130 00 88 0c bd 2b 47 21 bc bb c9 2a bd 46 90 67 3c
       -0.034309387 -0.009843628 -0.04169629 0.014133519
000140 97 d8 2f bb da f6 01 bd 26 c6 86 bc 0b 3d a6 bc
       -0.0026831978 -0.031729557 -0.016451906 -0.02029278
000150 99 ae 24 bb 53 ab bc bc 11 51 0f 3c 30 2c 10 3c
       -0.0025128482 -0.023030913 0.008747355 0.008799598
000160 86 f1 bc 3a 39 7f 1c 3d 92 25 c0 bc 56 36 23 bc
       0.0014415241 0.038207266 -0.023455415 -0.009961685
000170 c3 91 ff bb 9c 38 61 3d 3b 55 6f bc 58 de 16 bc
       -0.0077993586 0.054985628 -0.014607723 -0.009208284
000180 b2 c3 96 bc e7 20 bf 3c 99 26 33 3b 65 c6 b7 bc
       -0.018403862 0.023331119 0.0027336238 -0.02243347
000190 77 e5 61 bc 94 53 5e bb 03 5e 3c bc fc 9b 80 bc
       -0.013787619 -0.0033924328 -0.0114970235 -0.01569938
0001a0 ff d1 4b ba ee 33 01 bd d1 d7 26 bd 9d b1 99 3b
       -0.00077751273 -0.031543665 -0.040733162 0.0046903626
0001b0 c7 67 be 3c 8a 26 a9 3b b5 f7 d2 bc 42 17 05 bc
       0.023242844 0.005162065 -0.025752882 -0.008123221
0001c0 5a 7e 02 3b dc b7 18 bc ad d3 9f bc 3b 46 06 bc
       0.0019911737 -0.009321179 -0.019510115 -0.008195455
0001d0 0b 5d 96 bb f4 1b f8 bc 9f 7e 0b bd 17 8d d4 bb
       -0.0045887283 -0.030286767 -0.034056302 -0.006486546
0001e0 94 52 a3 3c d7 5a 24 bc bd 79 8e bb 72 c9 f5 3c
       0.019936837 -0.0100314235 -0.0043480084 0.030003283
0001f0 4a b7 75 3c 0e 60 75 3b cb 3d 48 bc 9e 04 ee 3c
       0.014997313 0.0037441286 -0.012221764 0.029054936
000200 b9 bb 0a 3d 0a 8f f5 3b 86 29 44 3d e4 ee bb bc
       0.033870433 0.007493858 0.047891162 -0.02294106
000210 36 f3 32 bc 94 98 40 bd 59 da 2a 3b c0 e1 4f 3c
       -0.010922244 -0.04702051 0.0026070087 0.0126881
000220 2c 8d c2 bc c6 45 9d bc 2f 45 44 bb 05 25 bc 3c
       -0.023748957 -0.01919831 -0.0029948463 0.022966871
000230 5c a1 6a 3c e2 18 b4 bc be 74 02 3d 02 4a c0 3b
       0.014320698 -0.021984521 0.031849615 0.0058681974
000240 93 6a 08 3d 07 ee b4 3c 44 83 04 bc f7 c5 a7 3c
       0.033304762 0.022086157 -0.008087937 0.02048014
000250 8f 12 71 bd ab 62 81 3c fb a1 f9 3b fa 0f b0 bc
       -0.05885559 0.015794119 0.0076181865 -0.021491993
000260 f5 f3 93 bc 50 47 89 bc 3f 6d 79 3b 9d c0 0b 3d
       -0.018060664 -0.016757637 0.00380595 0.034119237
000270 9b 8e 7e bb a0 6e 13 bd fa 52 d0 3b 61 bf d6 bc
       -0.0038842324 -0.035994172 0.006357548 -0.026214303
000280 27 74 0b bb 87 e4 29 3c e0 e7 fc bb 04 56 88 3b
       -0.002127895 0.010369427 -0.0077180713 0.0041606445
000290 d1 3c 06 3c b8 1e d7 bc b1 e9 b2 3a c0 af e0 3c
       0.008193211 -0.026259765 0.0013649968 0.027427554
0002a0 1e ac ec bc b4 91 31 bd 0c 1d 4d bb 62 bd 2c 3d
       -0.028890666 -0.043351844 -0.003129783 0.042172797
0002b0 d5 f6 b9 bb 8c aa 4e 3d f0 6c a3 bb a6 4e a1 bc
       -0.0056751766 0.050455615 -0.0049873516 -0.019690823
0002c0 69 ee 3b bc 9e f6 d4 bc 12 d1 8e bc d9 52 92 bb
       -0.011470416 -0.025996502 -0.017433677 -0.0044654426
0002d0 27 d8 25 bc 1a 25 2d bd 21 8b 94 bb 52 52 18 3d
       -0.0101223355 -0.04227171 -0.004533187 0.03718788
0002e0 a3 0c 3c bc b3 75 2a ba b7 4a 04 3d 9c c2 98 3b
       -0.011477622 -0.0006502524 0.032297816 0.004661871
0002f0 d8 1b 4b bc 31 11 84 3d 55 af 58 3a fe e4 06 bd
       -0.012396775 0.064485915 0.00082658726 -0.032933228
000300 48 8b 7b 3c 61 8f 0f bc 4e 0f 21 3c 2c c9 08 bc
       0.015353031 -0.008762212 0.009830309 -0.008348744
000310 99 61 ed 3b d1 71 cd bc ac e0 81 bd af f1 63 3c
       0.0072443006 -0.025078686 -0.06341681 0.013912602
000320 39 b5 9e b9 b1 47 93 3c 1d 53 05 3c ad 3b e1 3c
       -0.0003027113 0.017978521 0.0081374915 0.027494276
000330 77 d7 09 3d c6 52 9d bc d3 4e 06 bc ce af bd bc
       0.03365275 -0.019204509 -0.008197504 -0.02315512
000340 a7 35 5b bc c2 44 e3 3c 88 7f 99 3c ef 66 45 3c
       -0.013379491 0.027742747 0.01873757 0.012048467
000350 e8 a8 36 3c c1 bb d6 bb 95 42 6a bd 22 72 56 bd
       0.011148669 -0.0065531437 -0.057192404 -0.05235494
000360 ee 6e cd 3c db 3c 85 bb a0 51 9e 39 20 78 1b 3c
       0.02507731 -0.0040660924 0.00030196924 0.009489089
000370 cc 01 a2 3b a5 57 da bb 2c 22 6c 3c 73 1c bd 3c
       0.004944062 -0.00666328 0.014412444 0.023084855
000380 73 e2 b1 bc af e3 c6 bc a2 a5 2b bd 87 20 0f 3b
       -0.021714425 -0.02427849 -0.041906007 0.0021839456
000390 f2 ae 93 bc 29 76 4b 3c c0 a9 c2 3c 4c 37 5a 3c
       -0.018027756 0.012418308 0.023762584 0.013318848
0003a0 c7 3c 82 3c 0f e4 5b 3b 86 fc 8f 3c c3 01 fa 3b
       0.015898122 0.0033552682 0.017576467 0.0076296045
0003b0 68 2f 64 3c 92 a8 16 bd 1a e2 d4 bc 7a 24 3d bc
       0.013927318 -0.036781855 -0.02598672 -0.011544341
0003c0 c8 bf 01 bd 2e 8f 67 bc 60 f3 83 bc ec e7 af bb
       -0.031677037 -0.014133258 -0.016107261 -0.0053682234
0003d0 46 54 67 bc 33 2e 95 bc 0b 35 59 bc 3f 9c 38 3b
       -0.014119213 -0.018210506 -0.013257275 0.0028169302
0003e0 80 27 d4 bc a8 6a b6 3a 68 5f 50 3b 76 2f 4e 3c
       -0.025897741 0.0013917284 0.0031795148 0.012584558
0003f0 38 17 5a 3c 55 ee 83 3b 9c 69 41 bb 9c a4 53 b9
       0.0133112 0.004026214 -0.002951241 -0.0002018385

module.encoder.c1.main.0.bias f4 [32]
000000 d7 ea e1 38 7b b7 50 36 b6 7a 44 b9 c9 45 4e 39
       0.000107725784 3.1101215e-06 -0.0001873773 0.00019671688
000010 3a 62 d8 b8 1b 90 c3 39 04 fa 66 38 4a 86 3d b8
       -0.00010317979 0.00037300665 5.506912e-05 -4.5186178e-05
000020 db 57 91 b9 da 76 71 36 4a bb 86 39 5f 44 4b 38
       -0.00027722013 3.598098e-06 0.00025698013 4.8462647e-05
000030 98 7a 1c b9 28 66 05 b9 e2 71 0f b7 e7 01 20 39
       -0.00014922989 -0.00012721925 -8.54998e-06 0.00015259498
000040 27 3a 6c 38 cf be 29 b9 36 ca e3 b7 b1 a0 36 b9
       5.6320943e-05 -0.00016188178 -2.715467e-05 -0.00017416735
000050 0a 8e ff b8 4b af c3 39 e3 e8 82 b8 74 53 dc 39
       -0.000121858044 0.00037323902 -6.2422616e-05 0.00042023847
000060 6e 3d 23 b9 90 ea 90 39 fd 7e d3 39 4c a9 34 39
       -0.00015567776 0.00027640583 0.0004033967 0.00017229206
000070 a9 55 6f 38 29 03 0f 38 c9 12 97 38 db 55 0c 38
       5.7061818e-05 3.40968e-05 7.20374e-05 3.345856e-05

module.encoder.c1.main.1.weight f4 [32]
000000 ba 60 7f 3f 7b 7c 82 3f e2 6a 7c 3f 9f dd 7b 3f
       0.9975697 1.0194238 0.9860059 0.9838504
000010 40 28 81 3f d3 ba 7f 3f 6f f4 81 3f 02 91 7e 3f
       1.0090408 0.99894446 1.015272 0.99440014
000020 c6 51 80 3f b0 71 80 3f 63 ba 80 3f 60 e8 80 3f
       1.0024955 1.0034695 1.0056881 1.0070915
000030 bb e8 80 3f 73 03 81 3f f8 1b 80 3f 2b b2 7b 3f
       1.0071024 1.0079178 1.0008535 0.9831874
000040 be 27 77 3f e8 f7 81 3f 69 05 80 3f 58 1a 81 3f
       0.96545017 1.015378 1.0001651 1.0086164
000050 ea 3f 80 3f d8 ad 83 3f f7 db 7c 3f 81 0b 86 3f
       1.0019505 1.0287428 0.9877314 1.0472261
000060 fe b4 7d 3f 3b 8b 7f 3f 15 c9 7d 3f e5 90 81 3f
       0.991043 0.99821824 0.9913495 1.0122343
000070 a6 10 7a 3f 65 1e 77 3f b4 a8 82 3f 16 53 79 3f
       0.97681653 0.96530753 1.0207734 0.97392404

module.encoder.c1.main.1.bias f4 [32]
000000 68 d9 93 bb 60 77 08 bc c9 a0 01 bc ba 58 3d bd
       -0.004512001 -0.0083292425 -0.007911869 -0.046227194
000010 46 50 ec 3a 48 e0 39 3c 6b 2f 18 3d 65 3b eb bc
       0.0018029294 0.011344977 0.037154596 -0.028714845
000020 f3 b7 ee 39 1a 1d 8d 3c 9c 6e a7 bc a2 30 4b 3c
       0.0004553195 0.01722579 -0.020438485 0.012401732
000030 49 81 1c bc 17 98 14 3d 0c 10 09 3c 4a 1a 00 bd
       -0.009552308 0.036277857 0.008365642 -0.03127507
000040 2e e5 d5 bc 77 f8 e3 3c ea cb da bc a6 60 b5 bc
       -0.026110258 0.027828438 -0.026708562 -0.022140812
000050 92 86 ac bc bc 3a 0d 3c 77 9d 31 39 74 4c be 3c
       -0.021060262 0.00861996 0.00016938696 0.023229815
000060 fe cb 52 3b 61 d8 9f 3c a2 88 b5 bc ca e2 16 3d
       0.0032165046 0.019512357 -0.022159878 0.036837377
000070 12 94 d4 bc 7f d4 d8 bb 8b 9b 05 3d 4f 97 1a bc
       -0.025949512 -0.0066171284 0.03261904 -0.009435489

module.encoder.c1.main.3.weight f4 [32, 32, 3, 3]
000000 e9 a3 2b bd 49 3c 32 3c 61 8e 00 3b 84 d8 20 bd
       -0.041904364 0.010878631 0.0019616114 -0.039268985
000010 1d 03 69 bb e4 d9 07 bd bc be c2 3a 9c 4a 7b 3b
       -0.0035554834 -0.03316678 0.0014857869 0.0038344031
000020 a7 a3 a0 38 bf 77 f0 bc de 44 65 3b 9b 65 db 3c
       7.659877e-05 -0.029353974 0.0034983675 0.026781848
000030 57 da 80 bc 86 e5 05 3d 0a 4d c6 3b 7c b1 a0 bc
       -0.015729113 0.032689594 0.0060516642 -0.019615881
000040 15 40 a8 3b f7 49 02 b8 c5 12 c6 bc a1 af c6 bc
       0.0051345923 -3.10633e-05 -0.024178872 -0.024253668
000050 98 3d 04 bb d3 40 16 3c 13 ef fc 3b c7 30 91 3c
       -0.0020178314 0.009170729 0.0077189296 0.017723454
000060 24 36 cc bb 33 8b 58 bb ad dd c7 bb b4 f1 ec 3c
       -0.00623204 -0.0033041954 -0.006099424 0.028923847
000070 4f 3a c7 3b ef 95 96 3c 34 d3 64 3d c5 2f 2a bc
       0.006079949 0.01838204 0.05586548 -0.010387366
000080 2e f5 98 ba a0 01 31 bc 74 a2 f0 bb cd 16 e5 3c
       -0.0011669749 -0.01080361 -0.0073435847 0.027964974
000090 33 07 ae 3c 0a 6c 2a bc e7 c8 4c bc ce ed 5d 3c
       0.021243667 -0.010401735 -0.012499071 0.013545467
0000a0 24 91 12 bc bc 51 9d 3c 6c 9c 2d 3c a7 89 3f bb
       -0.008945737 0.019204013 0.010596376 -0.0029226334
0000b0 09 a9 dc 3c 7e 4d bb bc 61 0a e1 bc f2 6b dd 3c
       0.026936071 -0.0228641 -0.02747077 0.027029011
0000c0 c3 ce 13 3d 30 56 36 3c e3 b2 82 bc 55 a0 a3 bc
       0.036085855 0.011128947 -0.01595444 -0.019973913
0000d0 f1 c5 ea 3c 11 a1 f0 bc 95 8d f9 3b 5d 4d 1c 3c
       0.028658839 -0.029373677 0.007615755 0.009539929
0000e0 38 83 f6 3c 47 4e b8 bb 02 c5 fd bb 5f 13 c9 3b
       0.030091867 -0.0056245658 -0.0077444324 0.0061363424
0000f0 5d 7a cd bc 98 2d af 3c 85 88 d1 3b 47 eb 56 bc
       -0.025082761 0.021384045 0.006394448 -0.013117618
000100 ca 66 ab 3c fc 1c e5 3c 38 0d 99 3c c2 43 0b bd
       0.020923037 0.027967922 0.018683061 -0.034000166
000110 f2 f2 52 bd da dd 2d bc fe e5 78 bb 73 a8 d7 bb
       -0.051501222 -0.010611976 -0.0037978883 -0.00658136
000120 0b 3a 8f bc b5 ee 32 bc 55 12 67 ba 85 6f 58 bc
       -0.017483732 -0.01092117 -0.00088146824 -0.013210182
000130 68 8e 81 bb 18 cb 17 3d 8e 24 c0 b9 a2 8c 9a 3b
       -0.0039537437 0.03705892 -0.0003664833 0.004716472
000140 47 47 ba 3b e9 3d 68 3c 7e 43 32 bc ed 53 ea bb
       0.0056847665 0.014174917 -0.010880349 -0.007151118
000150 b5 35 1a bd e2 28 26 bc 6e 6a 31 bd 3c c8 70 3d
       -0.037648875 -0.010141583 -0.04331439 0.05878471
000160 a8 cb 8c bc e3 63 2f bc 24 49 01 bc 24 74 c7 bc
       -0.017186955 -0.010704967 -0.007890973 -0.024347372
000170 56 e5 0e bd e7 3f 36 3c 2a 29 a5 bc c1 ff 04 bc
       -0.03488668 0.011123634 -0.02016123 -0.008117617
000180 d5 ae 0b 3c ac dc ba bb 6c de 28 bc 18 02 a9 3b
       0.00852557 -0.0057025757 -0.010306936 0.0051577203
000190 99 07 a7 bc 51 bf 02 3d 82 d6 ac 3c ae 64 ac 3c
       -0.020389365 0.031920735 0.021098379 0.021044102
0001a0 6e 6b 28 3d 63 8f ff 3b 8e 9c 7b 3c f7 6c 48 3c
       0.041118078 0.0077990755 0.01535715 0.0122330105
0001b0 17 92 d6 bc cc 57 46 3d 78 75 f7 3c 8e f3 b4 bc
       -0.026192708 0.048423573 0.03020738 -0.022088792
0001c0 43 82 1d bc 0d e2 81 bc 34 2c 3c 3d 7e c6 a8 3c
       -0.009613576 -0.01585486 0.045940593 0.020602461
0001d0 89 a6 22 bc 7f cc 03 3d e1 10 78 3c 22 fb 3b bb
       -0.0099274 0.032177445 0.015140743 -0.0028683622
0001e0 4d 1f 5d 3d eb b3 53 3b 95 68 fe 3c 23 7e 81 3d
       0.05398493 0.0032303284 0.031055728 0.06322887
0001f0 28 7a 21 3c d5 67 5b 3a 08 39 72 bc 69 82 4b bc
       0.0098557845 0.0008369659 -0.014784105 -0.012421229
000200 6d fa 82 3c 79 f0 fe 3b e5 0a 84 bc 6e 43 4a bc
       0.015988553 0.0077801314 -0.016118476 -0.012345178
000210 cf 68 df 3b fa 48 a4 bc 0f 01 79 bd 7b a1 e6 3c
       0.006817914 -0.02005433 -0.060792025 0.028153172
000220 14 cd d8 bc 3a 1e 0f bd ac 84 9e 3a 6c 1f 56 bc
       -0.026464976 -0.034940936 0.0012093983 -0.013069015
000230 50 d1 86 bc 7a 9f ab bb ff a7 cd bc 1f 7d bf 3b
       -0.01645723 -0.005237517 -0.02510452 0.005843773
000240 57 dc d0 bb 85 98 a8 3c 6e 3b c3 bc 56 a5 83 3c
       -0.006373923 0.02058054 -0.02383205 0.01607005
000250 04 5a 72 bb bc f2 3d bc b7 e4 0a 3a 8d a1 0d bb
       -0.0036979923 -0.011593517 0.00052983634 -0.0021611184
000260 60 e9 9a 3c ca 67 5d bc c6 bb 59 bc 57 97 06 bc
       0.01891011 -0.013513515 -0.013289398 -0.008214793
000270 c7 50 1e bc 95 67 a0 3c 89 1e f1 ba b7 6e 2a bb
       -0.0096628135 0.019580642 -0.0018395941 -0.0026005933
000280 d5 c2 25 3d bf ec c4 bc e1 ea b4 3c f2 41 d5 bb
       0.04046901 -0.02403867 0.022084655 -0.0065081054
000290 92 07 4f 3a 70 49 e1 bb ea 6a f3 bc 9d 8c 57 3b
       0.00078975514 -0.0068752095 -0.029714067 0.0032890209
0002a0 81 02 48 bc d5 b7 aa bb e3 6e 77 3c 75 43 d1 3c
       -0.012207628 -0.0052099028 0.015102121 0.025544861
0002b0 cc b1 0b bd 09 3f 28 3c 77 30 95 bc 70 9e 0e 3b
       -0.034105107 0.010268935 -0.018211586 0.0021761917
0002c0 89 ce 61 3c e6 7e f5 bc 52 bf 97 ba 13 b5 70 3c
       0.013782152 -0.029967736 -0.0011577404 0.014691609
0002d0 29 2a c3 bc fd f7 ea bc b4 3a 51 3c bf bb a9 3b
       -0.023823814 -0.028682703 0.012770344 0.005179852
0002e0 6e 31 2c 3d b6 b8 1c bd b7 88 37 3b 18 f6 77 bc
       0.042039327 -0.03826209 0.0028005072 -0.015134357
0002f0 80 c7 38 3c 8b 02 87 3c 19 6e b3 3c 62 47 e8 bc
       0.011278033 0.016480705 0.021903085 -0.02835435
000300 83 cd 01 bd cc d0 01 3a 62 70 9a 3c 43 91 25 bc
       -0.031690132 0.00049520726 0.018852416 -0.010105434
000310 a8 1d 08 bc 63 62 4f bc 15 3a 9d 3c 61 47 73 3c
       -0.008307852 -0.012657735 0.019192735 0.014848561
000320 11 e3 b6 3c 92 dd 5b 3c 5a 14 7a 3d 52 98 ae bb
       0.02232507 0.013419526 0.061054565 -0.0053282166
000330 59 b7 30 3d ea e6 9e bc 19 0a d3 3c fe 9e da bb
       0.043143604 -0.019397218 0.02576165 -0.0066717854
000340 de f6 ba bb 7d 63 00 3d 98 f0 1b 3c 0a 38 40 bc
       -0.0057056984 0.03134488 0.009517811 -0.011732111
000350 e2 95 50 3c 22 19 ff bb 9b 9b 53 3b 5e 69 1e bd
       0.012731047 -0.0077849785 0.0032288793 -0.038674705
000360 b9 5b 30 3c 57 f3 5a 3c 55 ae 72 3b 32 10 7f bc
       0.010764056 0.013363681 0.003703018 -0.015567826
000370 f7 9e c7 bc d8 42 14 3d b0 c0 d1 bc 75 f5 df bc
       -0.024367793 0.03619656 -0.025604576 -0.027338723
000380 04 94 65 3c 24 ff 19 bd dd 7d de bc 14 f7 6c 3c
       0.01401234 -0.037596837 -0.027159626 0.014463205
000390 8b 73 1b 3c 69 e1 19 3c 38 e6 82 bc f6 3f 0e 3d
       0.009487997 0.009392121 -0.015978917 0.034728967
0003a0 5c c7 91 bd a3 ef 41 bd 06 f5 dd bb 7c 45 32 bc
       -0.07118103 -0.047347676 -0.006773594 -0.010880824
0003b0 18 15 26 3d 36 84 1d 3d 09 6d 46 3c a9 ba a1 bc
       0.04054746 0.038456164 0.012110957 -0.019742327
0003c0 21 33 26 3c 07 3d f2 3c 81 7b 4e bb 90 c5 bc bb
       0.010144026 0.029570116 -0.003150672 -0.005760856
0003d0 0f 37 0a 3d 57 fd d3 3b ed e9 8b 3c ea 5a 14 bd
       0.033743914 0.0064694094 0.017079318 -0.036219515
0003e0 71 f1 11 3d e6 ed 62 3c 72 6c fe 3a af 9d 05 bc
       0.035630647 0.013850665 0.0019410981 -0.0081552705
0003f0 e1 3a 4f 3b 99 66 97 3b 68 12 41 bc 36 5b 8a 3c
       0.0031620788 0.004620385 -0.011784174 0.016889196

module.encoder.c1.main.3.bias f4 [32]
000000 1f 6d d4 b4 a2 9d 10 b7 d5 94 8d 35 60 44 a3 37
       -3.9567473e-07 -8.619771e-06 1.0548634e-06 1.9462954e-05
000010 46 f4 2a b6 75 ce 4c b8 be d5 ae b7 a9 de 15 b3
       -2.547416e-06 -4.882967e-05 -2.0841948e-05 -3.4894274e-08
000020 0e e2 9d b6 89 11 1b 37 53 09 12 b7 04 37 e3 b5
       -4.705281e-06 9.242803e-06 -8.704449e-06 -1.692883e-06
000030 d7 54 0f b5 7d 58 11 b5 72 d3 87 b6 08 12 95 36
       -5.339511e-07 -5.4145477e-07 -4.047929e-06 4.442645e-06
000040 64 02 07 37 1f d1 a3 36 4d a1 b3 35 b1 d5 74 b7
       8.047184e-06 4.8821234e-06 1.3383484e-06 -1.4593287e-05
000050 9c 55 be b7 5f 01 9e b6 1d 2a d2 34 a3 5b 57 37
       -2.268963e-05 -4.7089266e-06 3.914619e-07 1.28363345e-05
000060 f6 92 d5 b5 4f 9b cb b6 e4 78 a9 b7 28 a5 50 37
       -1.5912508e-06 -6.0679517e-06 -2.0202664e-05 1.243622e-05
000070 9c f6 6d 37 72 ca 01 37 70 a8 90 b6 58 10 6b b7
       1.4183719e-05 7.736135e-06 -4.311143e-06 -1.4010897e-05

module.encoder.c1.main.4.weight f4 [32]
000000 f8 94 7d 3f 01 40 77 3f cb 9e 7c 3f 3e 2d 7f 3f
       0.99055433 0.9658204 0.986798 0.9967841
000010 c3 53 81 3f 52 77 82 3f bb 26 81 3f 88 68 7f 3f
       1.0103687 1.0192664 1.0089945 0.9976888
000020 b8 eb 7f 3f 0d ab 77 3f f8 5c 7d 3f b4 3e 7e 3f
       0.99969053 0.9674538 0.98969984 0.9931443
000030 90 dd 74 3f 98 57 7a 3f 92 77 7c 3f 7b ff 79 3f
       0.9565058 0.9778991 0.9861995 0.9765546
000040 45 b9 7a 3f 0a 84 7c 3f 0d a3 7f 3f cc 47 80 3f
       0.9793895 0.98638976 0.9985817 1.0021911
000050 e3 b5 80 3f 54 b8 77 3f d3 10 79 3f 37 1e 80 3f
       1.0055507 0.9676564 0.97291297 1.0009221
000060 8e 61 7b 3f d6 88 7c 3f df 94 7f 3f 28 63 80 3f
       0.9819573 0.98646295 0.99836534 1.003026
000070 e4 3f 80 3f 68 56 79 3f 5e 41 78 3f e3 1c 7f 3f
       1.0019498 0.9739747 0.9697474 0.9965345

module.encoder.c1.main.4.bias f4 [32]
000000 31 5c 0b 3c 99 0c 03 3c a4 bd b1 3c bb 6c 26 3c
       0.008505867 0.007998609 0.021696873 0.010157759
000010 13 5c 2c 3d 90 c8 05 3d e2 45 3e bd 89 24 34 3d
       0.042079996 0.032661974 -0.046453364 0.043980155
000020 82 e7 45 3c 7b a5 d9 bc 8e 5d c5 3c 72 9f 0e 3d
       0.012079122 -0.026568165 0.024092462 0.034820028
000030 bd 39 27 bd 3c d5 b9 3c 64 cb d8 3c 94 ca 9a bc
       -0.040826548 0.022684686 0.026464172 -0.018895425
000040 51 4e 4c bc 84 a4 af 3c 75 0b 49 3d b0 00 59 bb
       -0.012469844 0.021440752 0.049083192 -0.0033111982
000050 52 b7 bf 3c 0f 1f f2 bc 1d 79 ff 3b 5a 31 25 3c
       0.023402844 -0.029555826 0.0077964203 0.010082567
000060 6d 8a 01 3d 77 1c c8 3c 4b a7 e9 3c 5d 0f f7 3c
       0.031626154 0.024427636 0.028522154 0.030158693
000070 21 1c f5 3c 7f cf 9c bc bb c2 f6 3b a8 59 e3 3c
       0.02992064 -0.01914191 0.007530538 0.027752712

module.encoder.c2.main.0.weight f4 [64, 32, 3, 3]
000000 5a b4 98 bc 14 3c 87 bc de 95 ad 3c 8a b2 57 3c
       -0.018640686 -0.01650814 0.021189626 0.013165126
000010 46 95 73 bc 0c 7f 90 bb a7 c2 0e 3d 8b 45 5f bc
       -0.0148671325 -0.0044096764 0.034853604 -0.01362742
000020 e0 1a 03 3d b7 c2 99 3b ab bd f6 bb c5 3b 25 bd
       0.032008052 0.0046924013 -0.0075299344 -0.040340204
000030 03 ac 9c 3c 62 3b 11 b9 81 e2 92 b9 cc 36 56 3d
       0.01912499 -0.000138504 -0.0002801605 0.052298352
000040 f6 a0 2f 3d 0e a1 c8 3b a4 e7 11 3d e2 25 c6 bc
       0.042878114 0.006122715 0.0356213 -0.024187986
000050 3d e2 63 bb cf 27 63 bb d2 53 e1 bb 14 01 fb 3c
       -0.00347723 -0.003466118 -0.0068764472 0.030640163
000060 b6 cc d5 bc 03 09 e0 bb 2e 9f db 3c 22 84 2d 3c
       -0.02609859 -0.006837012 0.026809301 0.010590585
000070 67 7f 0d 3c 3f 41 05 3c 3c 97 09 3c 99 0c 80 bc
       0.008636332 0.008133232 0.0083978735 -0.015631007
000080 e4 55 27 3c a7 c8 03 bc f2 af b5 bc 79 0d a2 bc
       0.010213349 -0.008043445 -0.022178624 -0.019781815
000090 25 06 25 bc d9 cf af 3c 2e b4 a0 bb b4 5d e1 bb
       -0.010072266 0.021461414 -0.0049042916 -0.0068776254
0000a0 e2 98 4e 3d 79 cc 09 3c 49 dc 84 bc 68 bb 34 3c
       0.05043877 0.0084105665 -0.016218321 0.011031009
0000b0 4a 10 ee 3c c2 a9 e7 bb f7 94 fb 3c 75 06 85 bc
       0.029060502 -0.0070697973 0.03071068 -0.01623843
0000c0 05 0e 81 3c be 39 a3 3b 8d 15 dc bc b1 25 f0 3c
       0.015753755 0.0049812486 -0.026865745 0.029314848
0000d0 0f f4 e5 bb 74 e4 fc 3b bd de 4d bc e4 bb 87 bc
       -0.0070176194 0.0077176634 -0.012565312 -0.016569085
0000e0 e1 7e 1b bd f1 29 1c bd 98 a1 37 3c 49 92 07 bd
       -0.037962798 -0.038125936 0.011207961 -0.033098493
0000f0 9b e0 97 bc 94 63 89 bd c7 c0 11 bd 69 b5 cf ba
       -0.018539717 -0.06708446 -0.035584237 -0.0015846911
000100 29 f8 8e 3c b0 be 59 bc 0a 22 e4 ba d9 6e 89 3c
       0.017452316 -0.013290092 -0.0017405164 0.01677649
000110 af d2 bd 3b e7 bb 53 3c 43 5c 0c bc 78 16 ae bb
       0.0057929377 0.012923217 -0.008566919 -0.005312737
000120 93 86 f0 bb 5f 62 9e ba 40 84 35 3c b4 f6 fb 3b
       -0.0073402612 -0.001208376 0.011078894 0.0076893214
000130 5b 25 11 3d a1 3f 3a 3b f7 30 8e 39 60 2c 0e ba
       0.035436016 0.0028419273 0.00027120832 -0.00054234825
000140 0b 5d 2b 3b 50 de e2 3c 16 a1 aa 3c 87 fe c8 bc
       0.0026147987 0.027693897 0.020828765 -0.02453543
000150 cb 64 73 bc a5 ed dd 3a cc 57 80 3c cd a4 bc bc
       -0.014855574 0.0016931786 0.015666865 -0.023027802
000160 cc 66 a0 bb 10 7c 6e 3c 1c 80 d5 bb c1 0f 44 3c
       -0.004895067 0.014555946 -0.006515516 0.011966647
000170 af 33 0a bc dc c2 ca 3b 69 2f 45 3c bf 93 a6 3c
       -0.008435174 0.00618778 0.012035229 0.020334123
000180 3f 39 9d 3c 00 ef 52 3c be 8f 05 bd 59 a2 87 bb
       0.019192336 0.012874365 -0.032607786 -0.0041392264
000190 19 11 ff 3c a4 39 e8 3c c6 fc be 3c a0 fc 49 3d
       0.031136082 0.028347798 0.023313891 0.049313188
0001a0 be 8e 31 bc a1 c0 4d bb b6 62 79 3c 4c 50 99 bc
       -0.010837255 -0.0031395333 0.015221288 -0.018715046
0001b0 6d bc 61 3b 36 45 2e 3c f6 80 40 3d bb 6a a7 bc
       0.0034444586 0.010636618 0.046997987 -0.020436635
0001c0 26 9c 6c bd d4 98 ac bb 37 ce 34 3d f5 89 06 bc
       -0.057766102 -0.005267242 0.044141974 -0.008211602
0001d0 c4 0d 00 3c e4 a8 cf bb 92 cd 1c 3d d9 ea d3 3c
       0.007815782 -0.006337272 0.038281985 0.02586882
0001e0 42 19 58 3c 11 11 24 bb 58 cc 7a 3d 61 53 19 3c
       0.013189616 -0.0025034586 0.061230034 0.009358258
0001f0 0b c4 b5 3c 69 0e cb bc 27 60 53 bc 82 85 4c 3c
       0.022188207 -0.024787145 -0.0129013425 0.012483003
000200 35 ba f2 3b 51 25 e3 bc 8c 3d 12 3d 26 14 08 3d
       0.0074074515 -0.027727755 0.035703227 0.03322234
000210 76 2a fa bc e4 7e 1e bc 2f e6 bd bc a7 1e 5c 3a
       -0.030537825 -0.009673808 -0.02318105 0.00083969015
000220 e6 ea 6d bc 63 8c 88 bc 1f 44 68 bc f2 1b 84 ba
       -0.014521336 -0.016668504 -0.014176398 -0.0010079129
000230 f6 ce cf 3c 7b 04 57 3b 5e bd c0 bc f7 0e f0 bc
       0.025367241 0.0032809067 -0.023527797 -0.02930401
000240 2c 67 df b8 7a 6a 80 bc f6 cc 74 3c 03 36 ce bb
       -0.00010652686 -0.015675772 0.014941445 -0.00629306
000250 ca 90 87 3a 01 73 10 b8 fb 76 c5 bc a9 d6 ac 3b
       0.0010342833 -3.443938e-05 -0.024104586 0.005274613
000260 5e 69 6d bc 81 a5 1f bc f2 fe 22 3d 8b f0 99 3c
       -0.0144904535 -0.009744049 0.039793916 0.018791458
000270 3e 12 42 3d 89 e4 d7 3b 95 4d aa 3c c4 2a ad 3c
       0.04738068 0.006588523 0.020788947 0.021138556
000280 8a 5e 49 3c ab 2c b4 3b 18 24 29 bd a5 05 bf 3c
       0.012290606 0.005498489 -0.041294187 0.023318121
000290 23 45 0e 3b 01 85 bd 3c be 0d a7 3b 46 8c c6 3c
       0.002170869 0.02313471 0.0050980737 0.02423681
0002a0 17 da 37 bc 20 5a 8f 3b 7c 25 e4 3c 9a 9e 2d bc
       -0.01122143 0.0043747574 0.027849905 -0.010596896
0002b0 70 7c 9f bc 99 5b 9a bc 54 66 1b bd c4 1f b7 bc
       -0.019468516 -0.018842505 -0.037939385 -0.022354014
0002c0 87 90 c0 bb d1 f1 43 bd be 3d a8 3b a9 ad d5 bb
       -0.005876604 -0.047838036 0.0051343134 -0.006520946
0002d0 f0 ce 4a bc cc 11 00 3d 8a 25 8e bc 32 05 d6 bb
       -0.012378439 0.031266972 -0.017351884 -0.006531381
0002e0 e9 e3 c2 bc 32 08 57 bd 67 0e 93 bc fd ef d1 bc
       -0.023790317 -0.05249805 -0.017951204 -0.02562713
0002f0 bf aa ac bc c1 83 21 bd 29 6e ae 3a 27 5a ad bc
       -0.021077512 -0.03943229 0.0013307977 -0.021161152
000300 f5 ca 82 bc eb 5d 42 3a ec ce 44 bd 5d 5d 08 bc
       -0.015965918 0.00074145076 -0.0480489 -0.008323041
000310 dd 71 40 bc 79 6c 26 bc 02 6f 19 bd fc 2c 3f bd
       -0.011745897 -0.010157698 -0.03745938 -0.04667376
000320 bb c9 fe bb 71 dd 32 bd 53 70 eb 3b f5 84 36 bc
       -0.007775513 -0.043668214 0.007185021 -0.011140098
000330 91 86 c3 bb 76 4d df 3c 93 c4 b6 bb 85 8c 23 3b
       -0.0059669693 0.027258616 -0.0055776327 0.0024955582
000340 d6 f8 ce bc a2 32 6c bc 62 d5 3c 3c f1 5f 18 bd
       -0.025265139 -0.014416369 0.011525484 -0.03720087
000350 d4 cc 34 bd 38 ea ba bc 03 85 9a bc c2 97 58 bc
       -0.04414065 -0.022816762 -0.018862253 -0.013219776
000360 51 d1 e4 bc 87 c9 af 3c 7e e4 f3 bc b4 1c 06 3a
       -0.027931841 0.0214584 -0.02977204 0.00051159714
000370 85 3f 87 3c 87 a3 c6 bc 89 32 24 bc 4c c3 bf b9
       0.01650978 -0.024247898 -0.010021814 -0.00036575866
000380 1c 1e a7 3c 80 1c 3c 3c 76 58 b4 3c 15 d3 3a 3c
       0.0204001 0.011481404 0.022014838 0.011402865
000390 52 91 bf ba c4 9c e8 bc 99 85 d9 3c 57 a1 c5 3c
       -0.0014615452 -0.028395064 0.026552962 0.024124784
0003a0 9d 5a 13 3d e6 d5 73 3d 67 09 a7 3c a5 41 7f bb
       0.035975087 0.05953016 0.020390226 -0.003894904
0003b0 e7 a8 81 ba f1 51 4c bc a2 74 f6 bb 23 5d 6e 3c
       -0.0009892256 -0.012470708 -0.007521228 0.014548573
0003c0 ad 9a 4a 3c 54 36 04 3c a9 14 95 bc 69 96 60 bc
       0.012365979 0.008069593 -0.018198328 -0.013707736
0003d0 b8 f0 ef bc ae 59 c1 bc db b1 cc bb c5 54 55 bd
       -0.029289588 -0.023602333 -0.006246788 -0.052082796
0003e0 f1 b8 9c bc be dd 14 bd 5e aa 14 bd 73 68 02 bd
       -0.019131156 -0.036344282 -0.036295287 -0.03183789
0003f0 34 dc 51 3c 7a 12 25 bd 94 1a 84 3b 64 34 c5 bc
       0.012808848 -0.040300824 0.0040314887 -0.024072833

module.encoder.c2.main.0.bias f4 [64]
000000 ae f0 9f 36 97 f4 e9 b6 1a 4e 13 36 e6 83 48 b6
       4.766588e-06 -6.972415e-06 2.1950168e-06 -2.9879097e-06
000010 37 d2 ad 35 60 6c 9e 34 f4 fb a4 b4 8f e8 de 34
       1.2950685e-06 2.9508647e-07 -3.07307e-07 4.151993e-07
000020 8d 31 65 36 ff 4f e3 36 68 43 16 35 30 80 e1 b5
       3.4152501e-06 6.77444e-06 5.5977443e-07 -1.6801114e-06
000030 4f 9d f2 b6 d1 bd b5 b4 21 ec 4a b6 b9 79 84 34
       -7.230475e-06 -3.3851987e-07 -3.023779e-06 2.467548e-07
000040 30 40 4b 36 e8 c7 3e 35 5a 92 8b 35 0a 25 27 34
       3.028672e-06 7.107142e-07 1.0398901e-06 1.5566562e-07
000050 eb 13 cd b4 7b db a0 36 ad 91 8b b6 70 8c 18 b6
       -3.8198718e-07 4.7939225e-06 -4.1594817e-06 -2.273151e-06
000060 6d 84 83 36 23 31 9b b3 39 de 99 b4 75 ce 9c b5
       3.9195206e-06 -7.226688e-08 -2.866016e-07 -1.1682993e-06
000070 c1 66 8a 34 07 15 64 36 d1 59 82 b3 6a 4b d7 b5
       2.5779266e-07 3.3986887e-06 -6.069934e-08 -1.6040697e-06
000080 5c 22 1c 34 4f f9 5e 35 8e c4 90 b6 3e 3a 70 36
       1.4541132e-07 8.3064236e-07 -4.3144164e-06 3.5796688e-06
000090 ff 88 b8 b5 9c e2 64 34 e3 f7 b0 35 9e 46 7b 35
       -1.3748939e-06 2.1316595e-07 1.3185166e-06 9.360755e-07
0000a0 00 63 71 36 bf 92 97 33 cf 0d b5 35 6c b7 e1 b5
       3.5969424e-06 7.0581784e-08 1.348957e-06 -1.6817189e-06
0000b0 fe 56 05 b5 af 02 aa 34 5f 42 ce b5 47 a0 b4 35
       -4.967295e-07 3.166692e-07 -1.5367513e-06 1.3457692e-06
0000c0 53 82 8e b4 e8 6f b7 35 0d 2d 96 b5 93 5b 7e 35
       -2.6544384e-07 1.3667131e-06 -1.1188982e-06 9.475563e-07
0000d0 6b 3e 7f 35 d8 92 5e b6 39 9c fd 34 5f 98 d0 34
       9.508573e-07 -3.3166052e-06 4.723859e-07 3.8853884e-07
0000e0 0c 2e 95 b4 ed 94 4a 35 30 f3 8b 35 7f 1f 98 35
       -2.7786916e-07 7.546758e-07 1.0427084e-06 1.1334049e-06
0000f0 78 be 30 36 a4 c4 30 b6 f8 d6 ce b5 09 b2 2c 35
       2.633691e-06 -2.6340504e-06 -1.541076e-06 6.433407e-07

module.encoder.c2.main.1.weight f4 [64]
000000 8a be 82 3f a7 f8 84 3f 93 9e 77 3f f7 c4 81 3f
       1.0214398 1.0388383 0.9672634 1.0138234
000010 db 45 7e 3f d8 5f 7a 3f 34 75 79 3f 04 65 7b 3f
       0.9932534 0.97802496 0.9744446 0.9820101
000020 35 a8 82 3f 91 70 80 3f a5 95 80 3f d8 f2 81 3f
       1.0207583 1.0034353 1.0045668 1.0152235
000030 b5 51 80 3f 4a 85 7c 3f 26 32 77 3f f3 55 81 3f
       1.0024935 0.9864088 0.96560895 1.0104355
000040 91 c6 7c 3f 55 38 7c 3f dd 08 80 3f d4 25 82 3f
       0.9874049 0.98523456 1.0002705 1.0167794
000050 35 37 7b 3f f1 53 81 3f c1 a0 7e 3f 5f b8 80 3f
       0.98131114 1.0103742 0.9946404 1.0056266
000060 99 75 82 3f 26 84 7f 3f 54 03 7d 3f 2f 19 7e 3f
       1.0192138 0.9981102 0.98833203 0.9925718
000070 8b 03 7c 3f 57 8f 7f 3f 1f 44 7e 3f 31 0f 7c 3f
       0.98442906 0.99828094 0.99322695 0.9846068
000080 59 41 78 3f 03 f7 84 3f ff bf 82 3f 37 35 7b 3f
       0.9697471 1.0387882 1.0214843 0.98128074
000090 cf 55 81 3f 2d 7d 76 3f 0b e5 77 3f a0 e0 7b 3f
       1.0104312 0.96284753 0.96833867 0.98389626
0000a0 95 8b 85 3f 40 bb 80 3f 70 a6 7b 3f 7a 5e 83 3f
       1.0433222 1.0057144 0.9830084 1.0263207
0000b0 f6 82 78 3f 1e 73 78 3f 0e 83 7b 3f 09 1a 7b 3f
       0.9707483 0.97050655 0.9824685 0.980866
0000c0 eb 5c 7e 3f 5a 0a 85 3f 43 bd 79 3f 59 4e 79 3f
       0.9936053 1.0393784 0.97554415 0.97385174
0000d0 c5 b1 7b 3f 8c b3 7c 3f cf fe 7c 3f a4 39 84 3f
       0.9831813 0.98711467 0.9882631 1.033009
0000e0 99 7a 79 3f 41 b2 7a 3f 2c 4c 80 3f 22 ec 7d 3f
       0.97452694 0.97928244 1.0023246 0.99188435
0000f0 46 80 7d 3f 9e 22 80 3f 75 ac 7d 3f aa d3 7b 3f
       0.99023855 1.0010564 0.99091274 0.9836985

module.encoder.c2.main.1.bias f4 [64]
000000 0a 64 d9 37 e5 89 ed ba aa 3e 52 bd bd 5f e4 bc
       2.5915e-05 -0.0018122761 -0.051329292 -0.027877683
000010 17 ca ca bc cf 61 0d bd 0a 98 fa bc 5b 75 64 bd
       -0.024754567 -0.034517106 -0.030590076 -0.05577598
000020 2a 2e 69 bd 45 d4 e4 bc 02 64 fd bc 28 f7 fa bc
       -0.05692879 -0.02793325 -0.030931477 -0.030635431
000030 2a 44 9c bb 3b 9f 33 bd 59 8b 37 bd 09 74 d2 bb
       -0.004768868 -0.043853026 -0.044810627 -0.006422524
000040 4f 7d ad bc 76 18 30 bd ed cd 0b bc b3 de 32 bd
       -0.021177916 -0.042992078 -0.008532983 -0.043669414
000050 32 df 32 bd de 0a b9 ba 52 02 12 bd b3 d2 a1 bc
       -0.043669887 -0.0014117619 -0.035646744 -0.01975379
000060 bb b2 4b bd a1 31 c7 bc c4 b6 36 bd b8 cd 8b bc
       -0.049730998 -0.024315657 -0.044607893 -0.017065868
000070 4a e7 5f bc c0 51 e1 bc 44 e3 b2 bc 88 c3 51 bd
       -0.013665983 -0.027504802 -0.021836884 -0.051211864
000080 d5 90 60 bd fa ba ba bc 56 32 7e bc 2b dc 30 bd
       -0.054825623 -0.022794235 -0.015514931 -0.04317872
000090 2d 5e b4 bc 0e 52 4f bd c4 5e 3e bd 37 cf 3c bd
       -0.022017563 -0.050615363 -0.046477094 -0.046096053
0000a0 1a 19 3b bc c1 2d 33 bd c8 ba a9 bc 35 46 f2 bb
       -0.011419559 -0.043744806 -0.020718947 -0.0073936232
0000b0 d8 04 ac bd c5 57 3f bd 60 ec fc bc 46 83 08 bd
       -0.08399361 -0.046714563 -0.030874431 -0.033328317
0000c0 71 50 0b bd 65 5d a6 3a 22 1a 8c bc 81 8b 69 bd
       -0.03401226 0.0012692629 -0.017102305 -0.057017807
0000d0 6d ea e3 bc 53 e0 3a bd 1e 24 29 bd 81 3c dd bb
       -0.027821744 -0.04562409 -0.04129421 -0.0067515974
0000e0 6c c3 b4 bc 8a 48 42 bd b6 1e b4 bc 05 5d 82 bc
       -0.02206584 -0.04743246 -0.0219873 -0.015913496
0000f0 e9 31 fa bb 8d 7c b4 bc 16 7b 4a bd d7 40 bf bc
       -0.0076353443 -0.022032047 -0.04943379 -0.023346348

module.encoder.c2.main.3.weight f4 [64, 64, 3, 3]
000000 25 38 e4 3b da b8 1b 3c 13 54 d4 ba 0a c0 07 3d
       0.0069647008 0.009504521 -0.0016199372 0.033142127
000010 58 54 a0 bc 8e 23 7b 3c a3 39 17 3b d0 ac c6 bc
       -0.019571468 0.015328301 0.0023075126 -0.024252325
000020 f5 e3 25 bc b2 f5 9f 3c 35 8b 31 3c da c4 00 3d
       -0.01012515 0.019526336 0.010836412 0.031437732
000030 18 52 64 bc fe 85 95 3c ca 4f 03 bb 29 5d 1b bd
       -0.013935588 0.018252369 -0.0020036572 -0.03793064
000040 0e bc 0d bd 5d a1 e9 bb 01 b7 6c 3c 48 6f d6 ba
       -0.03460317 -0.0071298317 0.014447928 -0.0016360069
000050 ff bd 0a bd bc 42 f4 3c da f5 65 3b 18 c4 a3 3b
       -0.0338726 0.029816978 0.0035089166 0.0049977414
000060 f7 80 d0 3c 12 55 0b bc 71 71 17 3c 87 b6 ab bc
       0.02545212 -0.008504169 0.009243355 -0.02096106
000070 a0 6c 45 3c 38 56 f2 bb 2b f8 0a 3c a6 65 d5 bc
       0.012049824 -0.007395532 0.008482019 -0.026049446
000080 82 2b e5 bc dd 98 b2 3c 05 62 c7 3c 86 a3 b8 3c
       -0.027974848 0.021801407 0.024338732 0.022538912
000090 71 22 17 3d aa 6e 18 3d 90 8c 2a 3c cf d5 83 bc
       0.03689808 0.037214912 0.010409489 -0.016093163
0000a0 f4 75 ab 3b 76 ad cb bc 3f e6 88 bc 2e 3d 79 3c
       0.005232567 -0.024862986 -0.016711352 0.01521234
0000b0 79 b6 e6 bc fd d8 f9 bc 11 a8 be 3c 88 6a 1d bd
       -0.028163182 -0.030498976 0.0232735 -0.038431674
0000c0 70 c9 82 3b 59 7f 0d bc d8 9f 26 3c 5d a4 86 bc
       0.0039912984 -0.008636319 0.010169946 -0.016435796
0000d0 5f c9 1d bd 80 dd 85 bc 34 95 a4 3c f2 17 57 bb
       -0.03852212 -0.016340971 0.020090677 -0.003282067
0000e0 07 4f c7 3c 2c ce 87 bc 91 ea 82 bb 3d 2c 09 3d
       0.024329675 -0.016577803 -0.0039952477 0.033489455
0000f0 84 2c 62 bb 3c a7 b1 3b 64 8c c5 ba ac c9 3d bb
       -0.0034511397 0.005421547 -0.0015071747 -0.0028959317
000100 d0 46 c2 bc b5 b7 c9 bb fe 1c 1e 3c 0d 62 ca 3b
       -0.023715407 -0.006155933 0.009650467 0.0061762393
000110 2d 1a 24 3c 8c e2 1e 3d cc 48 0e bc 1c 15 33 bc
       0.010016006 0.03879027 -0.008684348 -0.010930326
000120 66 be 0c 3d 05 cc 16 3d d5 b9 00 3c a1 9b d3 bc
       0.034361266 0.036815662 0.007856806 -0.025831046
000130 6a 18 9c bc d5 50 33 bd 55 bc 87 3d 40 fa 40 3d
       -0.01905461 -0.04377826 0.06627718 0.047113657
000140 e9 1b ab 3c e1 7a f8 3c 80 20 4b 3d bb 9a 48 3c
       0.020887332 0.03033203 0.04959154 0.012243922
000150 30 c2 7f bd f9 9a 84 bc 77 cc d3 bb 35 ac 7f 3c
       -0.06244105 -0.016187178 -0.006463583 0.015605022
000160 ea 60 bb ba ae 44 35 3d 87 49 87 3c a3 73 f7 3c
       -0.001429585 0.04425495 0.016514553 0.030206507
000170 cd 49 1a 3c 16 6b 86 bc 8e c3 67 bd ef 70 84 bc
       0.00941701 -0.016408484 -0.05658298 -0.016167132
000180 cb 71 4c bd d5 01 c6 bc 74 db 8b 3c 84 f1 11 3d
       -0.04991321 -0.024170795 0.017072417 0.035630718
000190 76 01 a6 3c 23 77 ee 3b 31 60 08 3c 21 62 0c 3c
       0.020264369 0.007277386 0.008323715 0.008568318
0001a0 2f 36 f5 3b 4e ac a9 3c 0f 79 88 3c 4d 86 39 3d
       0.007483266 0.020712044 0.016659288 0.045294095
0001b0 9f 69 4a 3b be 13 19 3d 73 87 d9 bb cd fd fe ba
       0.003088571 0.037372343 -0.0066384613 -0.0019454301
0001c0 45 a6 59 bc 66 7c 89 bc 93 a5 a0 3c 92 02 bd bb
       -0.013284271 -0.01678295 0.019610202 -0.0057681287
0001d0 c4 27 a4 bc de 5c bc bc 15 6b cf 3c 32 49 d4 3b
       -0.020038493 -0.022993501 0.025319615 0.006478452
0001e0 3d 5b cb 3c 6a 8f 27 bc 60 2f 66 bc f3 34 6a bb
       0.02482378 -0.010227064 -0.014049381 -0.0035737127
0001f0 07 50 5b bc a0 70 8b 3b 98 ce 04 ba ce c0 07 bc
       -0.013385779 0.0042553693 -0.0005066185 -0.008285714
000200 49 a1 22 3b 27 61 c2 bc 1e ee ac bb bb 4d f6 bc
       0.0024815372 -0.023727966 -0.005277409 -0.030066362
000210 db ef f7 3c a4 d4 89 3a bc 84 d9 bc 46 df 1f bd
       0.03026574 0.0010515642 -0.02655255 -0.03903129
000220 d9 7b 07 bd a9 fe 5a bd 94 f3 82 3c eb b0 d2 bc
       -0.033077095 -0.05346552 0.015985288 -0.025719127
000230 63 c3 de 3c 93 c9 93 bc 84 32 37 bd 67 08 9f bc
       0.027192777 -0.018040454 -0.04472591 -0.019413186
000240 54 da a6 3a 19 78 17 bd 84 18 82 3c fc 7e 92 bc
       0.0012729862 -0.03697977 0.01588083 -0.017882816
000250 4a 06 5c 3c 8e 21 8b 3d a4 69 01 ba 48 cb f6 3a
       0.013429234 0.067935094 -0.0004936701 0.0018828893
000260 93 bb 02 3c 38 d1 0b 3d f6 39 ea 3b a9 e4 66 3d
       0.0079792915 0.034135073 0.0071480228 0.05637041
000270 6f d7 c0 3a cf 40 c0 bb 59 2f 56 bb bb a0 02 bd
       0.0014712642 -0.005867101 -0.003268203 -0.031891566
000280 be 3a 79 bc 70 54 a2 bc 77 f0 20 bd f1 f6 25 3c
       -0.015211759 -0.019815654 -0.039291825 0.010129676
000290 e5 23 3b 3c 3d 89 b7 bb c0 62 70 3c fd c4 21 bc
       0.011422132 -0.005601077 0.014671981 -0.009873626
0002a0 bb 9a 75 bd 55 08 ff bb f8 5e 5c 3c bd 6c e6 3b
       -0.059962016 -0.0077829757 0.013450377 0.0070320056
0002b0 11 d9 01 bb 70 46 b3 3c 10 c7 01 bc a2 6e f7 3c
       -0.001981322 0.021884173 -0.007920995 0.030204121
0002c0 95 8d 30 bd 3a 53 14 bc d2 6c 0e 3c 4a 81 c8 3c
       -0.043103773 -0.009053046 0.008692937 0.024475712
0002d0 0a 57 f1 3a ef 0c e7 3b 1c c9 69 3b 32 21 49 bc
       0.001841278 0.0070511024 0.003567285 -0.012275981
0002e0 80 89 f2 ba f0 46 34 bd 04 7c 9e bb 3a 1d 0f bc
       -0.0018504113 -0.044012964 -0.004836561 -0.0087349955
0002f0 93 75 4a 3c 62 f2 0e bd e5 6b 79 3c 84 3f 07 3c
       0.012357133 -0.034899123 0.015223478 0.008254889
000300 a0 38 ab 3c a3 3f 17 3c 3b 20 22 3c c2 db 9e bc
       0.020901024 0.009231481 0.00989538 -0.019391898
000310 f5 cd 84 bc ff d2 07 3d 9c fb f9 3b a2 d8 32 3d
       -0.01621149 0.033160206 0.007628871 0.04366363
000320 52 e3 ed 3c 6f 78 4e bc 17 cf 4e bc d4 a7 8d 3c
       0.029039059 -0.012601956 -0.012622616 0.01729194
000330 75 bc b0 bc de 71 70 3d 23 28 6f bc 52 d0 1e 39
       -0.021574238 0.058702342 -0.014596972 0.0001514566
000340 db fd 9c 3c 24 fe 05 3d 82 97 d4 ba 28 09 b4 bc
       0.019164016 0.03271307 -0.0016219469 -0.021977022
000350 28 f4 1d 3a f5 1f ce bc c5 1a 60 bc 6e 40 80 3c
       0.0006025457 -0.025161723 -0.013678257 0.015655722
000360 8a b4 6c bc e4 0d f2 bc 64 5f 2b bc 39 e4 2a bc
       -0.014447341 -0.02954764 -0.010459755 -0.010430389
000370 a4 59 22 bc 75 c9 e3 ba 0b 96 2f bc 64 4c 95 3c
       -0.009909067 -0.0017378764 -0.010716925 0.018224902
000380 87 bc e8 bb 55 73 4a b8 91 5e 6b bb 8f 0f 31 3c
       -0.0071025523 -4.8267964e-05 -0.003591452 0.010806932
000390 4b c7 e8 bc f4 56 d6 bc ec 7f a6 3c d6 5b 65 bd
       -0.028415343 -0.02616451 0.02032467 -0.055995785
0003a0 62 73 0c bd 25 b6 4a bd 68 bd 90 b9 2c 16 0b bc
       -0.034289725 -0.049490113 -0.0002760694 -0.008489173
0003b0 b1 da 32 bc 53 0f 0e 3c a9 9c 50 3c 04 d8 f2 ba
       -0.010916398 0.008670646 0.012732663 -0.0018527512
0003c0 25 a2 1b 3c 20 d4 2a bd a7 77 2e 3c 39 2e 06 3d
       0.0094991075 -0.041706204 0.0106486445 0.032758925
0003d0 be 21 ec 3b ed bc 38 3d 36 fc a7 ba b9 b5 01 bd
       0.007206171 0.04510205 -0.0012816254 -0.031667445
0003e0 6d 70 0d bc 56 37 f9 3c 91 54 0f 3d 70 99 42 bc
       -0.008632761 0.030421894 0.03499276 -0.011877403
0003f0 81 ac f1 3c d0 c7 93 bc 5f 4c 01 bd a7 e5 62 bd
       0.029501202 -0.018039614 -0.031566974 -0.055394795

module.encoder.c2.main.3.bias f4 [64]
000000 d9 99 4b b5 1c c2 9d 33 30 1f 42 33 bd 55 8d b4
       -7.584727e-07 7.3461905e-08 4.519751e-08 -2.632568e-07
000010 34 00 57 36 2c 4e b2 b5 1a 63 08 35 a1 7b ac 34
       3.2037615e-06 -1.3284784e-06 5.080816e-07 3.2127448e-07
000020 27 f2 eb b5 1f 86 93 33 b4 14 c1 34 70 77 1e 35
       -1.757934e-06 6.8696174e-08 3.5964115e-07 5.903339e-07
000030 0f ce cf b5 c0 31 e9 31 86 cf 2c 34 09 d7 3c b5
       -1.5482673e-06 6.7868484e-09 1.6094245e-07 -7.0348375e-07
000040 28 2d 6d 35 a4 76 05 32 38 b8 2b b5 53 da d7 b4
       8.835509e-07 7.768595e-09 -6.397054e-07 -4.0205722e-07
000050 8a f5 fb 34 c7 f8 cc b4 25 1f 92 35 65 a0 0e b5
       4.6931046e-07 -3.817897e-07 1.0886912e-06 -5.3132527e-07
000060 32 d4 7b b5 3f 5b bc 33 b9 f6 c3 b5 32 e8 87 b3
       -9.381357e-07 8.77103e-08 -1.4600438e-06 -6.3286635e-08
000070 06 10 83 b4 03 47 8c b5 78 b3 bb 35 0b eb ee 34
       -2.441231e-07 -1.045148e-06 1.3984818e-06 4.450197e-07
000080 cb 30 0d b5 e7 14 6f 35 b5 ef 02 b4 f7 a5 1a b6
       -5.2597596e-07 8.9064855e-07 -1.2194398e-07 -2.3044392e-06
000090 f8 27 d2 b3 84 2d 69 b4 81 16 7f b5 8f c1 cd 35
       -9.786157e-08 -2.1716374e-07 -9.502765e-07 1.5330023e-06
0000a0 46 50 0e 35 82 4e cd 34 59 97 8c 34 fc 82 9b b4
       5.3015935e-07 3.8241348e-07 2.6187152e-07 -2.8966303e-07
0000b0 6d b7 ed b3 ad 3e 97 35 64 ab 64 b5 05 db e0 b4
       -1.10695375e-07 1.1268618e-06 -8.5186025e-07 -4.188261e-07
0000c0 7b 29 e1 34 1f ea 91 34 a8 e4 7c b4 9c 67 2c b6
       4.1939697e-07 2.71787e-07 -2.3552514e-07 -2.5690306e-06
0000d0 bf 71 7b b3 dc fe c0 34 c7 04 6d 35 e2 e9 58 b4
       -5.8543943e-08 3.5948221e-07 8.829633e-07 -2.0201654e-07
0000e0 4b c9 63 34 be c4 98 b4 19 07 e8 34 55 5b 47 35
       2.1214252e-07 -2.8455355e-07 4.3218532e-07 7.426618e-07
0000f0 7e ce ff b3 61 63 1f b5 bc c6 4a b2 1b 84 ae 34
       -1.19119235e-07 -5.937673e-07 -1.18031345e-08 3.2506145e-07

module.encoder.c2.main.4.weight f4 [64]
000000 3d 7c 81 3f 4b c0 7d 3f cf a7 83 3f ce b3 7f 3f
       1.011604 0.9912154 1.0285586 0.99883735
000010 c8 ab 82 3f 48 1d 80 3f 2b 90 7c 3f ad d6 7c 3f
       1.0208673 1.0008936 0.9865748 0.9876507
000020 2b 00 81 3f b5 1e 7e 3f de 22 80 3f f0 a4 80 3f
       1.0078176 0.99265605 1.0010641 1.0050335
000030 aa 4a 81 3f d3 b6 7a 3f 1c c1 7f 3f 6d fe 7d 3f
       1.0100911 0.9793522 0.99904037 0.9921635
000040 1b 51 81 3f 9b 9f 79 3f a1 98 80 3f c2 08 7d 3f
       1.0102876 0.97509164 1.0046579 0.9884149
000050 92 07 83 3f 23 94 7b 3f 06 1c 81 3f c0 f6 80 3f
       1.0236685 0.98272914 1.0086677 1.0075302
000060 2f e5 80 3f e2 1c 7d 3f c9 88 80 3f b4 fc 81 3f
       1.0069941 0.98872197 1.0041744 1.0155244
000070 61 b3 7d 3f 69 49 7d 3f ca a6 7d 3f 7e c9 75 3f
       0.99101835 0.9894014 0.99082625 0.9601058
000080 f6 9d 7c 3f 5f 90 81 3f fd e8 7d 3f 0c d0 81 3f
       0.9867853 1.0122184 0.99183637 1.0141616
000090 87 83 81 3f 8c bf 7d 3f 51 69 7c 3f 62 fd 7e 3f
       1.0118264 0.991204 0.985982 0.9960538
0000a0 c0 f4 7a 3f 23 0a 7e 3f e7 fe 7b 3f 30 c9 7f 3f
       0.9802971 0.9923422 0.98435825 0.9991636
0000b0 2f b7 7d 3f 10 14 80 3f 4f cb 7e 3f 9f 10 7f 3f
       0.9910764 1.0006123 0.99528974 0.99634737
0000c0 87 22 7b 3f d6 7c 7a 3f da 2a 77 3f 01 91 81 3f
       0.9809956 0.97846735 0.9654976 1.0122377
0000d0 2f f7 7b 3f fd 1f 81 3f 80 7e 7f 3f 19 f4 7e 3f
       0.9842405 1.0087887 0.998024 0.99591213
0000e0 52 02 80 3f a8 5d 7f 3f 16 b8 76 3f 5a 5c 82 3f
       1.0000708 0.99752283 0.9637464 1.0184433
0000f0 eb 75 7f 3f 0e cb 7c 3f ad 35 81 3f 21 ca 84 3f
       0.99789304 0.98747337 1.0094506 1.0374185

module.encoder.c2.main.4.bias f4 [64]
000000 56 08 b3 bb 1e 19 3b bd dd 98 57 bc 42 ff a6 bc
       -0.00546364 -0.04567825 -0.013159004 -0.020385388
000010 fe ee 9b bc de ff d8 bc d8 f5 ef bc c6 27 b9 bc
       -0.019034859 -0.026489194 -0.029292032 -0.022601973
000020 a5 3d 4b bd ce fd bc bc 0f 6c 1a bd a0 72 b6 bc
       -0.049619336 -0.023070242 -0.03770071 -0.022271454
000030 04 15 cd bc 8f 8c dd bc 6e 8b a9 bc 62 02 ab bc
       -0.025034435 -0.027044563 -0.020696368 -0.02087516
000040 eb 28 51 bc 3d 30 d2 bc 51 56 cb bc 8d a1 4c bd
       -0.012766103 -0.025657767 -0.024821432 -0.049958754
000050 ff 10 3d bd df a1 26 bd 57 df 99 bd 41 f5 61 bc
       -0.046158787 -0.040681716 -0.07513302 -0.013791383
000060 c0 6e 93 bc f8 ce 63 bc 35 bf 61 bc 86 26 cb bc
       -0.017997146 -0.013904326 -0.013778497 -0.024798643
000070 da 9b 0a 3c 1a 6a 65 bc a5 7f 52 bc 40 21 14 bd
       0.0084600095 -0.014002347 -0.012847816 -0.036164522
000080 66 e5 1d bd a5 7e 10 bd 35 5f c0 bc 0b 80 0b bc
       -0.03854885 -0.035277028 -0.023482898 -0.008514415
000090 46 03 23 bc 3f 81 49 bd be 87 03 bc 92 a1 02 bd
       -0.009949511 -0.049195524 -0.008027969 -0.031892367
0000a0 c1 c8 dc bc 10 1b 94 bc ca 5a 21 bd 8e a9 9b bb
       -0.026951196 -0.01807931 -0.039393224 -0.004750437
0000b0 71 56 07 bd 9a c8 93 bc 9d 01 a1 bc 5c de df bc
       -0.03304142 -0.01803999 -0.01965409 -0.027327709
0000c0 ef 40 9f bc f5 bb d0 bc 23 bb 33 bd 94 5e 12 bd
       -0.019440142 -0.02548025 -0.04387964 -0.035734728
0000d0 4f a5 11 bd 9f ef 20 bc fc 87 97 bd 85 2f 47 bd
       -0.03555804 -0.009822755 -0.07398984 -0.048629303
0000e0 4a 15 22 bc 21 23 21 bd 75 b5 07 bd e5 fb dd bc
       -0.009892771 -0.039340142 -0.033132035 -0.027097652
0000f0 89 8c e6 bc db ad ea bc 56 f5 30 bd d8 c9 16 bc
       -0.028143184 -0.028647354 -0.04320272 -0.009203397
