logs/exp5/model_iters_14000.pth (torch, 495376 bytes, 47 tensors)

module.encoder.c1.main.0.weight f4 [32, 3, 3, 3]
00000000: b62f 30bc 30fc d13b f8f8 bebb 0f93 e5bc
00000010: 6123 f53a 1afd 6e3b dd11 5fbb 01cd e23c
00000020: dce5 bc3c d7a3 21bb 5162 3bbd c008 ae3c
00000030: 12ad 0ebc 1b4c 513b bff8 273d 499a 53bb
00000040: 6f5a 7b3b 211a d23b 9f90 29bd 0757 77bd
00000050: 3e4a 9fbc 2a80 79bd adeb 073c 5167 733d
00000060: 84a1 853c 77dd 12bd 3aaa 463d 69c9 ab3b
00000070: 3653 5cbc 9195 8c3c c170 7b3c 4570 e93c
00000080: a221 063d e5de 9abb 42e2 5a3c cb81 60bc
00000090: 0942 bb3b dfb6 80bc f074 bfbc 8756 86bb
000000a0: a420 23ba 07c6 f93a 1651 493d c998 be3c
000000b0: 3fcc 97bc f524 743b abce 47ba 55c0 bb3c
000000c0: 2f69 61bc ad49 c03c 3244 e83d 83fb 37bd
000000d0: 3053 33bd 34fb 5ebd 5e1b 0e3d 4ac1 28bd
000000e0: 70f0 4abc 1f07 493d ac2c aa3b 2cf1 a3bc
000000f0: 83fd 313c fcc7 3bbc 7fba 0d3c 56f0 98bc
00000100: 195e 37bd 4bab e53a da58 14bc 723c 283d
00000110: f1bc a13c 6ad8 be3b 1b5a 67ba 23f7 8a38
00000120: aa9b 68bd 03e9 de3c 2841 c53c 00f1 08bd
00000130: 50a6 75bd 2dce 4dbc 2bde 60bd 0dae 043d
00000140: 2f2d c63b 4f11 1dbd dcf6 c4bc dc1c 90bc
00000150: 8128 f1bb 68d9 f3bc 021c 373c 88f2 463c
00000160: f58a 413b c73c 413d d1b8 f1bc bafc 87bc
00000170: 8867 6ebc 9626 6c3d 011c 56bc 25dc 01bc
00000180: 3188 82bc 946a ec3c 4a14 0d3c b1cb ecbc
00000190: 2388 91bc 0ab2 a3ba 8225 74bc c6d6 d7bc
000001a0: 6c16 2cbb d7c6 06bd ddca 22bd 1090 6a3c
000001b0: cdca b33c 7fed 513b 02a5 cebc 3544 10bc
000001c0: 69aa e83a 700e 6abb 9c77 a0bc c889 10bc
000001d0: c012 6e39 5ec5 15bd d229 3ebd 4d14 81bc
000001e0: 9326 b23c 0293 60bc 49a5 a7bb 6ae1 283d
000001f0: ab58 a83c 8221 433c 7605 cbbc f1eb e43c
00000200: 584a 2a3d e822 143c 6151 483d 5842 e2bc
00000210: 4964 1fbb 9ddd 58bd 1233 d93b 368d 4a3c
00000220: 8c6d eabc 825c adbc 1d13 723a 5ca9 db3c
00000230: dfb8 943c 3d1b c2bc 3481 0a3d 13fb c53b
00000240: 4496 413d 0bac c13c c63d f5bb 039f e03c
00000250: e64a 83bd 1694 543c 80a9 133c 23fe e9bc
00000260: 1d4b d3bc 8394 b9bc 5a69 32bb 142d 0e3d
00000270: 7639 d63b ab6d 46bd 99aa 273c 12a8 dbbc
00000280: d8de 6cba 2756 543c 9a9c 8dbb dd1e a73b
00000290: 0693 073c 5cc4 dcbc 68f4 1c3b 26c0 ea3c
000002a0: a97c e5bc 13a0 27bd 9825 cb39 1e48 453d
000002b0: 4329 543b 7bdf 833d c79e 72bb 1d4e c5bc
000002c0: 1778 6cbc a630 dabc efc7 d4bc 3028 7ebc
000002d0: 5fb5 99bc f052 67bd 1e88 afbb b980 463d
000002e0: 8d65 1fbc c89d ba39 7f45 0b3d 402d 9a3b
000002f0: 6695 acbb a45b 833d f0ff 303b 95d5 10bd
00000300: 4318 863c 1403 1dbb 50c6 343c 948a 5cbc
00000310: 9d61 f13b 2284 e8bc 6870 9bbd f988 c13b
00000320: f7b5 62bb a681 cc3c 1ff6 313c 2c00 0c3d
00000330: 46b2 093d b32e a2bc 8762 d3bb 11f7 79bc
00000340: fd72 e6bb a001 dc3c 643e 2b3d aed2 743c
00000350: 1a1b 873c ba58 e7bb 01f7 99bd 8509 8cbd
00000360: 192b e13c 4887 55bb 9e28 943a 41e8 573c
00000370: d5b0 c23b 70ab 1bbc 481d 8a3c 8132 bf3c
00000380: ae5b cfbc 9fc4 ffbc 82c9 43bd 631f 47ba
00000390: b83a b8bc 3a1e 643c bed5 f03c 083f 4d3c
000003a0: 57ad b03c 751d 313c 85e5 283d a075 84ba
000003b0: 3d53 4b3c 3540 28bd 6e91 cdbc 3478 6ebc
000003c0: 595c 2dbd 1461 3dbd fef3 60bc c5dd 07bc
000003d0: 7a05 8cbc 0dff c5bc ddf8 84bc dd51 8839
000003e0: 9b1b edbc f452 37bb 544c cd38 a9ba 1b3c
000003f0: fa05 873c 06ec d83b ee33 61bb 7c5c ffba
-0.010753563 0.006408237 -0.005828019 -0.028024225 0.001870256 0.0036466778 -0.0034037747 0.027685644
0.023058824 -0.0024664307 -0.04574806 0.021244407 -0.008708255 0.0031936232 0.041008707 -0.0032288006
0.0038353463 0.006411806 -0.041397687 -0.06038573 -0.019444581 -0.060913242 0.008295936 0.059424702
0.016312368 -0.035855737 0.048502184 0.005242516 -0.013447573 0.017161163 0.015346707 0.028495917
0.03274692 -0.004726278 0.013359608 -0.01370282 0.005714659 -0.0157122 -0.02337119 -0.0040996703
-0.00062228204 0.0019056209 0.049149595 0.023266213 -0.01853001 0.0037253473 -0.00076220435 0.02291886
-0.013757988 0.023472631 0.11341132 -0.044917595 -0.043780506 -0.054438785 0.034694068 -0.04119996
-0.012386426 0.049079057 0.0051933136 -0.02001246 0.010863665 -0.011461254 0.008650421 -0.018669289
-0.044767473 0.0017522363 -0.009054387 0.04107327 0.019743415 0.0058241384 -0.00088253774 6.6263856e-05
-0.056789078 0.027210718 0.02407892 -0.03343296 -0.05997306 -0.012561363 -0.054899376 0.03239255
0.006047867 -0.038346585 -0.024043493 -0.017591886 -0.007359565 -0.029766753 0.011176111 0.012142785
0.0029532288 0.047177102 -0.029507073 -0.016600002 -0.014551051 0.057653986 -0.0130682 -0.007926022
-0.015934082 0.028859414 0.008610794 -0.028905721 -0.01776511 -0.0012488973 -0.014901521 -0.02634753
-0.0026258482 -0.032904472 -0.039744247 0.014316574 0.021947289 0.0032032428 -0.025225166 -0.008805324
0.0017750981 -0.0035714172 -0.019588284 -0.008821912 0.00022704434 -0.036565177 -0.0464266 -0.01575675
0.02174691 -0.013706924 -0.005116139 0.041230597 0.020550093 0.011909844 -0.024782877 0.027944537
0.041574806 0.009041525 0.048905734 -0.027619526 -0.002432125 -0.052945722 0.0066284025 0.012362769
-0.02861669 -0.021162275 0.00092344155 0.026814155 0.01815456 -0.023694629 0.033814624 0.0060418933
0.047262445 0.023641607 -0.0074841706 0.027419573 -0.0641077 0.01297476 0.00901258 -0.028563565
-0.025792653 -0.022653824 -0.002722344 0.03471096 0.0065376116 -0.04844443 0.010233545 -0.02681354
-0.0009035892 0.012959993 -0.004321647 0.0051001147 0.008274799 -0.0269491 0.0023949388 0.028656077
-0.028013544 -0.040924143 0.00038747187 0.04816448 0.0032373227 0.0643911 -0.0037020908 -0.024085099
-0.0144329285 -0.026634526 -0.025974242 -0.015512511 -0.018763242 -0.05647558 -0.0053568026 0.048462603
-0.009728801 0.0003559424 0.034001824 0.0047051013 -0.005266833 0.064139634 0.002700802 -0.035359938
0.01636899 -0.0023958134 0.0110336095 -0.013460774 0.0073663727 -0.028383318 -0.07589799 0.005906221
-0.0034593323 0.024964165 0.0108619025 0.03417985 0.03361728 -0.019797659 -0.0064509544 -0.015256659
-0.0070327506 0.026856244 0.041807547 0.014942808 0.016492415 -0.0070601376 -0.075178154 -0.06837753
0.02748637 -0.0032581855 0.0011303609 0.013177932 0.00594149 -0.009501323 0.016859666 0.023339512
-0.025312271 -0.031221686 -0.047799595 -0.00075959245 -0.022488937 0.013923222 0.029398795 0.012527235
0.02156703 0.010810246 0.041234512 -0.0010105856 0.012409982 -0.041076858 -0.02509376 -0.014555026
-0.042324398 -0.04623516 -0.013730047 -0.00829262 -0.017092455 -0.02416947 -0.016231949 0.00026000934
-0.028943827 -0.0027973028 9.789379e-05 0.0095049525 0.016482342 0.006619933 -0.0034363228 -0.0019482519

module.encoder.c1.main.0.bias f4 [32]
00000000: 3ef1 2839 45c2 83b8 e33f 3ab9 7ee6 86b9
00000010: dbb5 f535 ad15 043a 30c9 df38 70b3 feb8
00000020: ae74 a1b9 5395 0ab9 2c37 ad39 faed 6338
00000030: 5564 b9b9 ae0a 50b9 6432 4638 a788 8139
00000040: 9063 3838 580f b9b9 4f6a eeb7 be8f 4ab9
00000050: bfb0 32b9 2b6f c938 d564 5837 5a0d 403a
00000060: 50db 82b9 60c8 d0b8 14f5 a939 8c25 7e39
00000070: 8583 e538 ce1d 6c38 57b7 5239 52cd 9238
0.00016111598 -6.282752e-05 -0.00017762142 -0.00025730202 1.8306849e-06 0.00050386303 0.00010670943 -0.00012145087
-0.00030795246 -0.00013216333 0.00033038238 5.434265e-05 -0.00035360703 -0.00019840404 4.725381e-05 0.0002470661
4.3961743e-05 -0.00035297382 -2.8421315e-05 -0.0001931777 -0.00017041246 9.6051335e-05 1.289808e-05 0.0007326208
-0.00024958933 -9.955536e-05 0.0003241679 0.00024237315 0.00010944068 5.6294542e-05 0.0002009546 7.0000664e-05

module.encoder.c1.main.1.weight f4 [32]
00000000: a131 813f a48d 813f a118 783f e624 7b3f
00000010: 006e 823f cdb7 7f3f cdfc 803f cbd7 7f3f
00000020: a7b9 7a3f f4a7 813f e2de 813f b27b 7e3f
00000030: d2db 853f c61c 823f 9a65 7e3f d835 7c3f
00000040: 3322 6e3f f6fd 803f 9cc9 7b3f 5920 803f
00000050: 4030 7b3f 43c4 833f 9b7e 7c3f 9af0 863f
00000060: da6b 793f e852 803f 7988 7d3f 14ac 813f
00000070: be89 7a3f 7400 713f 8990 813f 09fb 703f
1.009327 1.012135 0.9691258 0.9810318 1.0189819 0.9988983 1.0077149 0.9993865
0.97939533 1.012938 1.0146143 0.99407494 1.0457709 1.0165031 0.9937378 0.9851966
0.93020934 1.0077503 0.98354506 1.0009872 0.981205 1.0294269 0.98630685 1.0542176
0.97430193 1.0025301 0.99036366 1.0130639 0.9786643 0.94141316 1.0122234 0.9413305

module.encoder.c1.main.1.bias f4 [32]
00000000: 490e 0bbd de0f 14bd 0ec3 50bd 0d7a 9bbd
00000010: d0df f3b9 99db cb3b 5b4d 293c e7a2 a9bd
00000020: 3939 18bd fde0 ce3c a535 a1bd ecf6 0ebc
00000030: 4bbf 26bd 614f 4f3d 0e1e 6d3c db55 86bd
00000040: c057 74bd a30a 12bc 565a 3ebd f861 91bd
00000050: 9a99 19bd c4ae 653c 462f 42bc 1fcf 02bc
00000060: 2a4a d5bc a785 22bc c06b 23bd c679 953b
00000070: 19c1 49bd 8e6d cabc 95de 583c ae86 0abd
-0.03394917 -0.036147945 -0.05096727 -0.07591639 -0.00046515325 0.0062212464 0.010333384 -0.08283024
-0.037163947 0.025253767 -0.0787156 -0.008725863 -0.040709775 0.05061281 0.014472498 -0.065593444
-0.059653997 -0.008913669 -0.04647287 -0.07098764 -0.0375 0.014018718 -0.011852091 -0.007983952
-0.02603634 -0.0099195605 -0.03989768 0.0045616357 -0.049256418 -0.024710443 0.013236661 -0.033819847

module.encoder.c1.main.3.weight f4 [32, 32, 3, 3]
00000000: 2047 17bd 2e9a d33c c5d8 0e3d 49ce 0fbd
00000010: 1170 a739 2f1d 19bd 6b79 293b 51d0 a03b
00000020: 6cdb f0bb 799b 9ebc 5d2e 74b9 e92d 323d
00000030: 9425 3fbc 0630 d73c 05b5 863b c049 7dbc
00000040: b93c be3c 89e2 a5bb b603 c4bc 9206 e3bc
00000050: cfc2 05bc 79aa 9d3b 8009 863b cef1 693c
00000060: 45de 98bb 37c9 bbbb e578 6cbc 9244 0a3d
00000070: fee7 433c 2cce b73c 1818 743d c710 bfbb
00000080: 2181 8b39 7ac6 06bc 4ad1 65bb 1d42 f13c
00000090: 2e44 b33c 33bf b3bc d2eb e5bc 81cf 383c
000000a0: f32f 30bc 339a 80bb bfef 933b 12a2 c83a
000000b0: ce8e 863c e483 d0bc de4c 0bbd b34f b33c
000000c0: 6462 f13c 4807 9b3c d861 edbb 50eb 66bc
000000d0: 6cad b73c 152a debc 2a51 0b3b 48a8 233c
000000e0: f4c6 5e3c 533a 1dbc 1222 913b 66f9 143c
000000f0: d4cf dcbc b2d3 b13c e55b 5b3c 5f75 c03a
00000100: 0ff0 ff3c ffb5 ef3c 327c 423c cbe5 febc
00000110: 2dde 50bd 8ff2 d23b da91 883b c362 98bb
00000120: 84f4 95bc c567 44bc 84e3 383b c684 52bc
00000130: f8de 88bb 5dbc 233d 79e0 493b 0c3e 0d3c
00000140: 070a e53b 52c4 743c 1dee 48bc 15ba 18bc
00000150: 680b 18bd 8180 3fbc acb8 37bd f1f7 783d
00000160: 7586 86bc 987e 41bc c395 d3bc 7c6c 1fbd
00000170: a029 26bd afc0 c33b 60bb 7cbc f011 07bc
00000180: db75 6638 4617 c03a b06c 99bb e9df ea3b
00000190: aebb 20bd 78b0 3b3d 55d7 bf3b 406f d53c
000001a0: 6d7b 273d 6fd7 843c e54a b13c ec77 4b3c
000001b0: 4cdd cfbc b5c5 4b3d a7b0 ec3c 1ef8 a9bc
000001c0: 4491 96bc 712b 3dbc 0c45 2f3d db39 413c
000001d0: 0a6b d7bb 8783 3c3d 9cc9 d23c 2265 c53b
000001e0: b6e0 883d b867 663c 4524 1a3d f180 9a3d
000001f0: 801d b63c 7b79 e73b 3937 7fbc 4ec9 60bc
00000200: af04 723c 65ef 6d3b 6133 86bc 0fa2 42bc
00000210: 6414 3f3b c725 c8bc 357f 80bd 4bab f93c
00000220: 5c81 c3bc b863 15bd d140 d43b 5b14 57bc
00000230: 09bd a0bc 8d97 03bb 720b a2bc 2f28 f63b
00000240: cd20 0bbb 5915 d93c c7b8 c0bc b77d 483c
00000250: 7bda 143b b8f9 47bc c7c5 593b f7a6 89ba
00000260: 4cea 8e3c 1290 3ebb 050d b33a d0f6 483c
00000270: 8ae0 20bc 3efd 963c 3fe6 c7bb 3905 313c
00000280: fc49 8e3d f605 8fba a054 f63c fe4d e2bb
00000290: 13cb 1a3c d923 19bc ff9c e0bc f585 b03b
000002a0: 027e debb 3352 e3bb 8659 a03c 5455 d43c
000002b0: 2852 02bd 5a6e 663c 558a 93bc 6604 b93b
000002c0: 6068 853c 5d19 d4bc 9dd3 ae3b c21b a53c
000002d0: 07fa a6bc 786d b1bc d19a 9a3c 4b49 f83b
000002e0: d6b8 413d 85ab 0dbd ff1f 703b e4e8 33bc
000002f0: d362 983c e1ad 9c3c afeb 123d d970 b8bc
00000300: 34ef f9bc 1120 2e3c d6be ce3c 1543 a3bc
00000310: a550 0ebc 77bb d2bc 55c9 d63c 9a06 b03c
00000320: ad68 dc3c f07d a23c 2817 8a3d a042 bb39
00000330: 94b9 443d 3025 62bc 070b f43c cfe0 01bc
00000340: f949 7abc 640f 0e3d 5898 a53b ea30 b3bb
00000350: 0e12 9cbb 949d d7bc b71e 0bbc c476 39bd
00000360: ab39 973c 991b 9f3c faee 273a eb12 3a3a
00000370: 51cd dbbc 26ae 1c3d ae93 93bc eabc debc
00000380: cfc6 9f3c 6ece 01bd 2e2c bfbc 539b 213c
00000390: f56c 603c 2c5b 3a3c d891 77bc f06a 243d
000003a0: ffd7 90bd 8a99 4bbd 76c7 3dbb 461e 1dbc
000003b0: 5409 113d c022 263d 26f2 853c 5616 b3bc
000003c0: e43c 4a3c 1af0 2c3d 8bdf 41bb f373 c2bc
000003d0: dd17 e53c 7150 003c 77bc 7f3c 0fb0 0bbd
000003e0: 6bb7 363d 38c0 793c f354 1dbb a4a9 c1bb
000003f0: 8590 d83b b691 fb3b 6f1d 14bc 514b b13c
-0.036933064 0.025830355 0.034874696 -0.03510884 0.00031936218 -0.037381347 0.0025859724 0.0049076458
-0.007350376 -0.019361245 -0.00023286925 0.043500815 -0.011666674 0.026268017 0.0041109347 -0.015459478
0.023222314 -0.0050624055 -0.02392755 -0.027713094 -0.008164122 0.0048115817 0.004090488 0.014278842
-0.0046651685 -0.005730774 -0.01443312 0.0337568 0.011957167 0.022437178 0.05959329 -0.0058308574
0.00026608355 -0.008226031 -0.0035067373 0.02945047 0.021883097 -0.021941757 -0.02806655 0.011279942
-0.0107536195 -0.003924632 0.004514664 0.001530709 0.016425516 -0.025453515 -0.034008853 0.02188859
0.029465862 0.01892437 -0.00724433 -0.014094189 0.022421561 -0.027119676 0.0021258094 0.009988852
0.013597239 -0.009596425 0.0044291103 0.009092664 -0.026954569 0.02170739 0.013388609 0.0014683417
0.031242399 0.029261587 0.011870431 -0.031115433 -0.050993133 0.0064376066 0.0041677775 -0.004650445
-0.01830507 -0.011987631 0.0028211782 -0.0128490385 -0.0041769706 0.03997456 0.0030803962 0.00862075
0.0069897207 0.014939385 -0.012263802 -0.009321709 -0.037120253 -0.011688353 -0.04485385 0.06078333
-0.016421536 -0.011809967 -0.025828248 -0.038921818 -0.04056704 0.0059738974 -0.015425533 -0.008244023
5.4946035e-05 0.0014655374 -0.004682146 0.0071678055 -0.039241485 0.04582259 0.005854527 0.026054025
0.040889192 0.016216008 0.021642158 0.012418728 -0.025374077 0.049749095 0.028892828 -0.020748194
-0.018379815 -0.011546002 0.042790458 0.011793579 -0.0065740393 0.04602387 0.0257309 0.006024019
0.06683485 0.014062814 0.037632246 0.07544125 0.022230864 0.007064042 -0.015577131 -0.01371987
0.0147716245 0.003630602 -0.016381921 -0.011879458 0.002915644 -0.024432076 -0.06274263 0.030477187
-0.023865394 -0.036472052 0.0064774533 -0.013127412 -0.019621389 -0.0020079345 -0.019780848 0.0075121145
-0.0021229268 0.026499437 -0.023525609 0.012237004 0.0022713232 -0.012205534 0.0033229457 -0.001050203
0.017445706 -0.0029077572 0.0013660496 0.012265876 -0.009819159 0.018431302 -0.0061004455 0.010804468
0.06947705 -0.0010911811 0.03006965 -0.00690627 0.009447831 -0.009346926 -0.027418612 0.0053870627
-0.0067899236 -0.006937289 0.019573938 0.025919594 -0.03181663 0.014064396 -0.018010298 0.0056462763
0.016285121 -0.025891 0.005335285 0.020154838 -0.020382894 -0.021658644 0.01887265 0.0075770966
0.047295414 -0.034587402 0.0036640165 -0.010980818 0.01860181 0.01912588 0.035869297 -0.022514747
-0.030509569 0.010627762 0.025237482 -0.019929448 -0.008686219 -0.025724156 0.02621905 0.021487523
0.026905382 0.019835442 0.06742698 0.0003571706 0.048028544 -0.0138028115 0.029790414 -0.007927134
-0.0152764255 0.034682646 0.005053561 -0.0054684775 -0.0047628945 -0.026320256 -0.00849121 -0.04527928
0.018460115 0.01942234 0.0006406155 0.0007098156 -0.0268313 0.03825202 -0.018014755 -0.02718969
0.019503979 -0.031691007 -0.023336496 0.009863692 0.013697852 0.011374276 -0.015110455 0.040141046
-0.07072448 -0.049706973 -0.0028958 -0.009589737 0.035409287 0.040560484 0.016350817 -0.021861237
0.012343619 0.042221166 -0.0029582705 -0.02373693 0.02796548 0.007831679 0.015608898 -0.03410345
0.044608515 0.015243582 -0.0024006933 -0.0059101153 0.006609025 0.007677282 -0.009040221 0.021642359

module.encoder.c1.main.3.bias f4 [32]
00000000: 3df4 bc35 c032 9cb7 1777 8433 7018 ff37
00000010: 2deb 20b7 ec1f 89b8 677a 1eb8 d7eb 0f36
00000020: e6ba 9535 96d8 1f37 f3f1 a8b6 619d e9b6
00000030: 924b 1735 05e0 3eb6 c7fc b0b6 16a7 2737
00000040: 39a9 ba35 74dd 0a37 99ab e235 b939 9db7
00000050: 31ca 29b8 70d2 13b7 36bb a535 817d e536
00000060: 41b3 37b6 0947 44b6 7fa3 f3b7 5cd7 ad37
00000070: 1c9f 9737 5d85 5137 1bd9 52b7 7abf a5b7
1.4078174e-06 -1.8620281e-05 6.168391e-08 3.0409748e-05 -9.591499e-06 -6.538615e-05 -3.778413e-05 2.1445937e-06
1.115576e-06 9.527566e-06 -5.0349568e-06 -6.9622624e-06 5.636185e-07 -2.8442603e-06 -5.274636e-06 9.992878e-06
1.390733e-06 8.277002e-06 1.6888254e-06 -1.8742738e-05 -4.0481045e-05 -8.810879e-06 1.2347944e-06 6.8393424e-06
-2.7373464e-06 -2.9247624e-06 -2.9043991e-05 2.0723492e-05 1.8074694e-05 1.2488422e-05 -1.2567524e-05 -1.9758696e-05

module.encoder.c1.main.4.weight f4 [32]
00000000: d498 7a3f 2fff 733f 5c40 793f 8f85 803f
00000010: 3b40 7f3f 75d3 823f 1f1e 823f 5dbe 7c3f
00000020: 8b8a 803f 7312 6c3f c640 7c3f b69e 7c3f
00000030: 9908 6b3f ca44 7b3f eaea 793f 0ffd 763f
00000040: 2799 773f ed56 7c3f 7e51 7d3f 1ec8 803f
00000050: a595 803f 6d24 763f c1af 723f 4b2f 7d3f
00000060: 9bc2 733f f146 783f 67ff 7e3f a8ab 813f
00000070: fa4b 7f3f 84d5 733f 0a01 743f e143 7f3f
0.9788945 0.95311254 0.9736383 1.0040759 0.9970738 1.0220782 1.0165442 0.9872797
1.004228 0.9221565 0.98536336 0.98679674 0.91809994 0.9815184 0.97624075 0.96479887
0.96718067 0.9857014 0.9895247 1.0061071 1.0045668 0.9614933 0.9479943 0.9890029
0.9521882 0.9698325 0.99608463 1.013051 0.99725306 0.95247674 0.95314085 0.9971295

module.encoder.c1.main.4.bias f4 [32]
00000000: 27a3 e2ba af23 973a 379a 453c fdc2 183d
00000010: 9323 893c f96a 6dbc 7f41 82bd 65d9 183d
00000020: 9d5b 9f3b 6646 66bd daef ac3c c2e0 4b3c
00000030: 938e d8bd a759 b13c ae49 913c a6c2 08bd
00000040: b2ef 1abd f9d8 df3b 6324 fd3c dc56 e7bc
00000050: 0822 523c c948 6fbd f29b d4bc c2b5 95bc
00000060: 8bbb 2d3c faf9 3abb def8 7b3b 3b87 0d3d
00000070: b1c1 a53c 2487 44bd e35d 97bc 8b71 023c
-0.0017291055 0.001153102 0.012060693 0.03729533 0.016740596 -0.014490836 -0.06360149 0.0373167
0.004863216 -0.05621948 0.021110464 0.012443723 -0.10574069 0.021649195 0.017735329 -0.033388756
-0.037826248 0.006831285 0.03090114 -0.02823966 0.0128254965 -0.058419023 -0.025953267 -0.018275145
0.010603796 -0.0028530345 0.0038447897 0.034552794 0.02023396 -0.047980443 -0.018477386 0.007961641

module.encoder.c2.main.0.weight f4 [64, 32, 3, 3]
00000000: 7188 60bc 125c f6bb 3d2c 093d 2c4c 173c
00000010: 7e0d 53bc 94c3 643b ea09 143d 629c efbb
00000020: a71d 0c3d 1755 eb3b 464b 7bbb 5d25 14bd
00000030: 8dad 983c 0027 27bb 6445 09bb f49d 623d
00000040: b8f5 343d 913f a53b e5b3 f33c 1ac0 cebc
00000050: 6139 24bc 5d64 18bc fc2d 21bc 6500 ef3c
00000060: 5461 d2bc d773 223b df46 fa3c 3b7d 053c
00000070: 59f7 123c a8e8 1b3c 566d 2d3b 8030 90bc
00000080: 93c2 4f3c 5eb2 87bc f780 dabc 78e5 a4bc
00000090: 40c4 8cbc ef82 973c 2413 11bc 750f aebb
000000a0: e672 633d 1d3a 763c fac4 7bbc 3fe0 023d
000000b0: 5609 613d e7b8 5cbb af82 123d 79b9 90bc
000000c0: 3da8 a93c 798a 363c a3ef 9dbc 93d0 0f3d
000000d0: 3718 f7ba 1233 8d3c 0cdb 1dbd 0a18 2ebd
000000e0: 680e 64bd 664f 70bd b655 643c d0fa 23bd
000000f0: b970 1cbd 230c 85bd bfec 44bd d3e9 1ebb
00000100: 1209 de3c f7bd 45bc ae54 4ebc 8dce 7e3c
00000110: dcd8 603c 76a4 393c 0eea b0bb 177b 2dba
00000120: 093b 49bc 34c0 aabb 7005 a53b cd90 dc3b
00000130: 4583 0d3d 434c 30bb 367a f83a d69e 253a
00000140: 8832 e13b 6885 073d 53fa a13c 7d5d 9cbc
00000150: b918 0dbc 6f7b c53b 29dd e53c 76fd 78bc
00000160: ddc8 5abb 43fc d03c c403 acbb c8d4 503c
00000170: c868 aabc ff8f 323c 3536 503c 8667 933c
00000180: ed18 a23c f94e 343c ba91 11bd 8f37 0a3b
00000190: 62b3 193d eb0d f23c 8cc8 de3c 5e8d 5e3d
000001a0: 8771 49bc 6758 a8bb e008 7d3c ce85 c7bc
000001b0: 5b81 c93b 61a0 393c b721 363d b520 c6bc
000001c0: 031c 63bd 4106 9dbb c6a5 243d 67cb 37bc
000001d0: 3f8d 26bb e220 4bbc 8f78 153d 1601 e13c
000001e0: af90 3c3c 55de c2ba 0690 893d 0dc1 8d3c
000001f0: b1e9 063d babc 87bc 5985 45bc b203 913c
00000200: 8eb0 d73b 527e 08bd cadc 293d 58b3 133d
00000210: e475 0abd 5f05 04bb 4136 6ebc ace1 933b
00000220: 46cd 64bc 1845 93bc 7813 97bc 6584 a03a
00000230: 027a 0f3d 3b06 c5bb a054 edbc 362d edbc
00000240: c87a 7ebb c4a0 b3bc edd9 da3c cbef 193c
00000250: 9fb9 b83c 8c0e ed3c 02b0 84bc 626d 913c
00000260: 3641 b43b 049d 47bc e224 1a3d 5267 883c
00000270: 515a 573d 407b 733c b13f de3c eee9 a93c
00000280: 2d26 293c c5be be3b ad20 67bd 9aa5 853b
00000290: f887 f5bb 4917 523c f842 d4bb 39cf 933c
000002a0: 3296 72bc 64b6 b8bb 61ec bb3c 8cfb ecbc
000002b0: 5f11 1dbd 68b4 35bd 991e 0abd e316 bfbc
000002c0: 23a5 4ebc 7cd2 2ebd 1f84 793b 8fa3 96bb
000002d0: c364 88bc da58 b53c 8184 ecbc e8ca 2cbc
000002e0: e9f0 08bd 7a2d 76bd a11b b1bc 7e13 02bd
000002f0: d7b9 bfbc c1e9 45bd ab62 7dbc 15c6 38bd
00000300: f7e1 3cbc babc b4bb 426e 46bd 694d 64bb
00000310: 1e72 91bc b16a 6abc c1e5 38bd ba25 40bd
00000320: 1f45 89bb b819 50bd 486a ba3a aae8 bbbc
00000330: 56fd 34bc 5579 023d 2fdf 06ba 8dbd e4bb
00000340: 4af0 dfbc 39ac 33bc 0710 703c 772e 0cbd
00000350: d527 25bd 5817 a1bc 6bb5 79bc 597e d8bb
00000360: c128 a4bc 0eeb cd3c 1442 10bd fde2 dbbb
00000370: ef4e 5c3c 3991 d0bc 0e48 afbc ed03 f7ba
00000380: 24c5 bd3c 186e 183c ae87 963c 40c9 f63b
00000390: dc42 a8bb a965 e9bc 0a8a 073d ee29 f43c
000003a0: 6eef 293d c4c6 863d 6cd4 c13c fbdd 94bb
000003b0: 9a9e c2ba 60fa 84bc c9fc 4fbc fbe7 0c3c
000003c0: bf35 793c 4016 1d3c 5c4b 62bc 6224 16bd
000003d0: 3b4c 55bd a739 31bd ac6f c7bc dcb1 89bd
000003e0: 0a78 11bd bee9 4ebd c784 35bd f905 18bd
000003f0: 4998 f139 1566 62bd 48a7 63bc 08a5 05bd
-0.013704405 -0.0075183 0.033489455 0.009234469 -0.012881635 0.0034906613 0.036142267 -0.0073123435
0.034207966 0.0071817744 -0.0038344427 -0.036168445 0.018637443 -0.0025505424 -0.00209459 0.055326417
0.04417965 0.005042978 0.029748866 -0.025238086 -0.010023446 -0.009301272 -0.009837624 0.029174993
-0.025681175 0.0024788284 0.030551372 0.008147533 0.008970105 0.009515919 0.0026462874 -0.017601252
0.012680667 -0.016564544 -0.026672823 -0.02012895 -0.017183423 0.018495051 -0.008854661 -0.005311901
0.055529498 0.015028504 -0.015366787 0.03195214 0.054940544 -0.0033679546 0.03576916 -0.017666565
0.020710105 0.011141413 -0.019279307 0.03511102 -0.0018851821 0.017236266 -0.038538978 -0.042503394
-0.0556778 -0.05866947 0.013936451 -0.040034115 -0.03819344 -0.064964555 -0.04807734 -0.0024248257
0.027103934 -0.012069217 -0.012593431 0.015552175 0.013723578 0.011330714 -0.0053989952 -0.0006617768
-0.0122821415 -0.0052109007 0.0050360486 0.006731129 0.034549017 -0.0026900924 0.001895732 0.0006317919
0.006872479 0.03308621 0.019772684 -0.019087547 -0.008611851 0.0060266773 0.028059559 -0.015197149
-0.0033383884 0.025510913 -0.0052494723 0.0127460435 -0.020801917 0.010898589 0.012708236 0.0179937
0.019787276 0.011005157 -0.035539366 0.0021090244 0.03752459 0.029547652 0.027195238 0.054334037
-0.012295133 -0.0051374915 0.0154440105 -0.024355795 0.0061494536 0.011329741 0.044465747 -0.024185518
-0.055446636 -0.0047920053 0.040197156 -0.0112179285 -0.002541378 -0.012397977 0.036491927 0.027466338
0.011509105 -0.0014867285 0.067169234 0.017303968 0.03293771 -0.016569484 -0.012055718 0.017701957
0.0065823263 -0.033323593 0.041470326 0.036059707 -0.033803836 -0.0020144803 -0.014539302 0.004512986
-0.013964957 -0.017977282 -0.0184419 0.0012246488 0.035028465 -0.0060127056 -0.028971016 -0.028952222
-0.0038830508 -0.021927245 0.026715243 0.00939555 0.022549449 0.0289376 -0.016197208 0.017752353
0.005500938 -0.012183432 0.03763283 0.01665083 0.052576367 0.014860928 0.02712998 0.02074143
0.010324043 0.0058210813 -0.056427646 0.004078579 -0.0074930154 0.012822934 -0.00647771 0.018043147
-0.014806317 -0.005636977 0.022939863 -0.02892854 -0.038346644 -0.044361502 -0.033720586 -0.023326343
-0.012612614 -0.042681202 0.0038073135 -0.0045971344 -0.01664961 0.022137094 -0.028871777 -0.0105464235
-0.033432875 -0.060101964 -0.02161962 -0.03175687 -0.023404045 -0.04831863 -0.015465419 -0.04511078
-0.011528484 -0.005515662 -0.048444994 -0.003483618 -0.01775461 -0.014307664 -0.045140985 -0.04691098
-0.004189148 -0.050805777 0.0014222348 -0.022938091 -0.011046728 0.031853992 -0.0005144951 -0.006980604
-0.027336258 -0.010966354 0.014652259 -0.034224 -0.04032119 -0.019664451 -0.015241007 -0.0066068587
-0.020038964 0.025136497 -0.035219267 -0.0067104087 0.013446554 -0.025459873 -0.021396663 -0.0018845774
0.023165293 0.009303592 0.018375244 0.007531315 -0.0051349234 -0.028490858 0.03309063 0.02980515
0.041488104 0.0658088 0.023660861 -0.0045430637 -0.0014848292 -0.01623267 -0.012694546 0.00860023
0.015210568 0.009587824 -0.013811912 -0.03665579 -0.052074652 -0.043267872 -0.024345241 -0.06723377
-0.03551487 -0.050515883 -0.04431608 -0.03711507 0.00046080563 -0.055273134 -0.013894863 -0.03262809

module.encoder.c2.main.0.bias f4 [64]
00000000: 4164 8936 3d33 6fb6 5d81 4636 3683 79b6
00000010: be06 8b36 c750 bb35 68d5 97b5 75d1 cd35
00000020: ae18 9cb3 8e5f f136 ddf2 8836 6c2a 9d36
00000030: 45df 15b7 b797 cb33 4c88 5ab6 dad1 3635
00000040: 8b8a a436 a2ea b935 7d46 3ab6 5d93 5b36
00000050: 52f5 58b6 b8e0 d536 727f fcb6 8878 21b6
00000060: 54f5 bd36 7ce2 6535 6dd3 f6b5 6ef3 de34
00000070: 73f8 8435 9039 a536 d924 cc35 2a09 34b6
00000080: 6ffd bf34 d87b e636 baa2 7f35 8994 d436
00000090: 32da 44b5 fe2c e8b3 be90 adb5 da4d 9035
000000a0: 6b87 d436 7723 19b6 367f f635 4928 9433
000000b0: 4842 9bb3 b212 7bb5 b588 8fb4 6cec 0936
000000c0: 9563 c332 c321 9136 a628 d934 e126 f033
000000d0: 26b5 8735 528b d8b6 32d9 0c36 983e 2eb5
000000e0: 11d8 ac35 76e4 2536 c807 b436 ba4d f535
000000f0: 6a04 8136 5803 f5b6 1d3a d6b4 6a11 0634
4.0945893e-06 -3.56436e-06 2.9579599e-06 -3.7180266e-06 4.1433077e-06 1.3956095e-06 -1.1312486e-06 1.533465e-06
-7.268805e-08 7.1934837e-06 4.081389e-06 4.683903e-06 -8.933076e-06 9.480521e-08 -3.2563867e-06 6.810566e-07
4.9037094e-06 1.3851861e-06 -2.775719e-06 3.271932e-06 -3.2329303e-06 6.3740554e-06 -7.525022e-06 -2.4061028e-06
5.661199e-06 8.5638726e-07 -1.8389961e-06 4.152784e-07 9.907075e-07 4.9240844e-06 1.5209908e-06 -2.6827424e-06
3.576092e-07 6.8689515e-06 9.52317e-07 6.335384e-06 -7.3333206e-07 -1.0811526e-07 -1.293163e-06 1.0751494e-06
6.333857e-06 -2.281942e-06 1.8365452e-06 6.899115e-08 -7.2298064e-08 -9.353199e-07 -2.6735293e-07 2.0552206e-06
2.2746272e-08 4.325267e-06 4.0448975e-07 1.1182943e-07 1.0111005e-06 -6.4535207e-06 2.098805e-06 -6.4911137e-07
1.2877882e-06 2.4719898e-06 5.365324e-06 1.8276544e-06 3.8450135e-06 -7.3019582e-06 -3.990289e-07 1.2486058e-07

module.encoder.c2.main.1.weight f4 [64]
00000000: d03f 823f b907 873f 3d0d 723f c825 823f
00000010: f6ae 803f b3f4 773f 544b 743f fcda 763f
00000020: a269 853f c356 7e3f 7d9f 813f f68b 823f
00000030: e8bc 7d3f ec10 7c3f dcda 6f3f a53e 833f
00000040: 6c68 793f 13a3 763f 3c2f 843f 4d4e 843f
00000050: 4940 7c3f 1f04 803f 6989 833f 3061 803f
00000060: 4bf0 833f 0807 7d3f 0d63 7b3f 3554 813f
00000070: 8dee 773f 5fed 7f3f ab3f 843f 3b87 7d3f
00000080: 4b4f 783f 5e80 863f 9554 823f f8d8 7b3f
00000090: ceea 803f 7e5e 703f 4a13 743f 80c0 743f
000000a0: b311 883f 0c61 813f c5da 743f b716 843f
000000b0: b15f 773f 7baa 723f aa9b 7a3f a7cd 743f
000000c0: 1a8b 833f 3106 893f a8da 7b3f 7320 763f
000000d0: 6bf4 753f 0450 783f 737b 7b3f 83f9 863f
000000e0: 87a9 773f 4313 793f f5c5 803f 8bc8 7a3f
000000f0: 33df 7a3f a5d8 7f3f 7df4 7f3f 8b93 793f
1.0175724 1.0549232 0.9455145 1.016778 1.0053394 0.96857756 0.9542744 0.96427894
1.0422862 0.9935114 1.0126797 1.0198963 0.99116373 0.9846332 0.9369333 1.0253493
0.9742496 0.9634258 1.0326915 1.0336396 0.9853559 1.0001258 1.0276309 1.0029659
1.0307707 0.98838854 0.98198014 1.0103823 0.96848375 0.99971575 1.033193 0.9903447
0.9699599 1.0507925 1.0182062 0.98377943 1.0071657 0.93894184 0.9534193 0.9560623
1.0630401 1.0107741 0.95646316 1.0319432 0.9663039 0.9479138 0.97893775 0.956263
1.0276825 1.0705014 0.9838052 0.96143264 0.9607608 0.96997094 0.98235244 1.0544895
0.96743053 0.97295016 1.0060412 0.97962254 0.97996825 0.9993995 0.99982435 0.9749076

module.encoder.c2.main.1.bias f4 [64]
00000000: 505c bebc e8fc a9bc 9973 00be 27c3 7ebd
00000010: db91 2dbd 595a 8ebd f858 86bd 4af1 c3bd
00000020: 5c17 88bd 9341 6dbd 9260 9cbd 4971 81bd
00000030: efaf 82bd 9369 8abd 20e0 07be dc0f 23bd
00000040: 4dfa 5abd 8331 b6bd b576 b3bc 9630 9cbd
00000050: 557e cbbd 9818 0bbd 757d 34bd 0130 77bd
00000060: 6288 a8bd c579 99bd e6a4 a4bd 1f59 2bbd
00000070: b9b3 14bd fcf2 90bd f78e 20bd 7c0e fcbd
00000080: 5565 e6bd 14fc 13bd 485f 7fbd 060f 0fbe
00000090: a409 3ebd a671 c4bd 7237 b2bd 2d14 e3bd
000000a0: bb18 45bd 3dbf acbd 8b79 5dbd 0cfe 5abd
000000b0: 5c6b 12be ef66 b7bd acce 9fbd d6d4 adbd
000000c0: be7b 42bd c5e1 fdbc 9360 25bd 5ee1 05be
000000d0: 4b33 6dbd 8ab3 e3bd ff7e 83bd 23f7 3fbd
000000e0: fd55 3ebd 8e6e ffbd 59b2 5dbd 4034 7dbd
000000f0: 5b2c b6bc ff9e 3cbd f77b 9ebd 8b08 48bd
-0.023237377 -0.020750478 -0.12544097 -0.06219783 -0.042375427 -0.06950826 -0.06559938 -0.095675066
-0.066450804 -0.057923865 -0.07635607 -0.063204356 -0.06381213 -0.06758418 -0.1326909 -0.039810047
-0.05346136 -0.08896162 -0.02190719 -0.076264545 -0.09936205 -0.033959 -0.044064958 -0.060348514
-0.08229138 -0.07493929 -0.080392644 -0.04183304 -0.03630421 -0.070775956 -0.039198842 -0.1230745
-0.11249796 -0.036129072 -0.062346727 -0.13970575 -0.046395913 -0.09591989 -0.087019816 -0.110878326
-0.048119288 -0.08434913 -0.05407099 -0.053464934 -0.14298767 -0.0895518 -0.078030914 -0.08487861
-0.04748129 -0.030991444 -0.040375303 -0.13074252 -0.057910245 -0.11118229 -0.06420707 -0.046866547
-0.046468724 -0.124722585 -0.054125164 -0.061817408 -0.022237947 -0.046050068 -0.07738488 -0.048836272

module.encoder.c2.main.3.weight f4 [64, 64, 3, 3]
00000000: c251 3b3c 345e dc3b 09f8 b0bb e9d7 243d
00000010: 00dc 98bc 3ff2 703c 726a be3b 3bc8 9ebc
00000020: b974 d6bb 8961 8f3c 344e 983c 804c 083d
00000030: 4952 cebc 5c7c 8b3b 7a40 25bc b61d 5abd
00000040: 5bc8 c7bc 59f6 243b 900d 93b9 dbc2 27bc
00000050: 2697 1ebd 37ea 073d f625 e63b 8e41 093b
00000060: b887 5a3c 78de b2bb 557e aeba 6ff7 76bc
00000070: b4b2 9e3c d9c4 78bc be04 a8bb 36ec 0cbd
00000080: 33bd 58bd 56cb b83c d2ac 093d 6ba0 373c
00000090: b4f8 693d 0ae1 653d e777 a93c e51f 9abc
000000a0: cdae 093c d15a 08bd f416 e3bb 90d6 023d
000000b0: 9125 8cbc 0c1f 27bd e8c3 633c d423 47bd
000000c0: feec f63a fbb4 68bc 4d2c a03b 36a8 16bc
000000d0: d054 2bbd 6ceb ebbc 24d5 863c f7ba b6bb
000000e0: 9c29 c53c d603 c7bc b463 25bc 9558 0c3d
000000f0: 7af8 703a b4f1 1b3c b968 f83b fe02 92bc
00000100: a00b 14bd 6602 38bc d789 8a3c bd9b 393c
00000110: e401 983c e341 253d 0610 20bc 7d10 dcbb
00000120: 7d22 313d 7e84 2b3d 9b7b 0f3c e96e 02bd
00000130: 63da c7bc e858 62bd 14ea bb3d e1b5 8b3d
00000140: fdf1 0e3d e601 293d 74a8 6b3d e8ee a53c
00000150: ca79 78bd 4c20 74bc c032 21bc 02a2 a1ba
00000160: 3b7d 85bc 27e9 ed3c 9e9b 883b a38b 173c
00000170: 486a c7bc ad0e 7dbc aa6b a8bd dfa1 20bd
00000180: b218 8bbd 2523 fabc 2087 e438 cc6e 1c3d
00000190: 3b4d fd3c 9418 953c 3bee 8b3b e9dd 613c
000001a0: f98c 873c 9f44 043c 04a6 963c b456 5b3d
000001b0: b073 f53b 7b86 2d3d 85a3 d63b 47c5 85bb
000001c0: f3f5 dbbc f65e dabc 8e8d c83c b3a8 9fbc
000001d0: fd3a 18bd e61c ccbc a7b3 603c 8974 62bb
000001e0: 2f0d 7d3c ef2d 8dbc 1db0 1bbd 8a4f acbc
000001f0: a002 88bc 817e a0bb 5d37 a5bc 86f3 d3bc
00000200: 7368 59bc 28d6 39bd 447e 97bc 849f 45bd
00000210: 8d86 ed3c 77de 1c3c 4ec0 93bc 133b 38bd
00000220: ac65 1dbd cc06 84bd 4f25 0b3c 81d3 03bd
00000230: b0cf 9f3c d3bf cabc e8e0 39bd d0a1 32bc
00000240: 3df0 52ba aaa4 28bd 57c1 323c 584a e7bb
00000250: e7c2 b53c 28cb 9a3d 0e53 3abb 587a 53ba
00000260: ac5a 153c 6532 3c3d 8107 9c3c f7aa 903d
00000270: 452e 093c 14b6 953a b288 053c 8834 4bbd
00000280: 4284 02bd 6783 29bc a525 10bd 74ee 0f3d
00000290: f226 a33c 10e1 10bb 8979 8f3c 1d0b ddba
000002a0: 5c52 49bd b696 ec38 8268 bf3c 49e4 5b3c
000002b0: c26d 1a3c bfcb e13c 247f debb 5a69 ea3c
000002c0: 9382 52bd cde3 6fbc 8bd2 1cbb 8845 1f3c
000002d0: 7d84 b73c cf03 bd3c f0ba 9e3c 9016 9fbc
000002e0: 98b5 47bc 2a81 60bd c06a 023a 7bc3 5abc
000002f0: 44d6 333c 6280 1bbd f568 073c 512e ad3b
00000300: 0f63 c13c b009 aa3b 697b 953c fd9f 9ebc
00000310: 57a8 65bc 997a 453d dbc7 25bc 14c3 233d
00000320: 0291 b93c f4f8 07bc cbec 5b3a 3140 a83b
00000330: 96bc c5bb 27cd 9e3d 49a1 42bc 7f6e 1abc
00000340: 6e78 4f3c 3549 e43c 989c e2bb 4dba 92bc
00000350: 57b5 3b3b e6e9 efbc 3ea2 9ebc e256 5f3c
00000360: 837e d2bc 7333 2cbd c8d2 a4bc 782a 53bc
00000370: b010 5cbc 8813 07bc 48d9 a6bc 04b0 793c
00000380: 652c 6abc 89dc c73b 20db d63a 4c89 163c
00000390: 3316 e3bc 20f5 02bd 0d4d a73c c057 5ebd
000003a0: f621 1cbd 8def 39bd 7ba0 063c 2314 d8ba
000003b0: d1fe 31bc 63a4 913c a5c8 a83c 57e8 55bb
000003c0: a571 003c 75b4 1bbd 61ae 3f3b 47bc 1e3d
000003d0: ff5c 973c f8f0 4a3d 2855 bf39 8754 eabc
000003e0: 7c8e 77bc eda5 3e3d 2ef7 3c3d 50f0 86bc
000003f0: 8ba7 cd3c 12f2 90bc 8054 7ebc 2f63 87bd
0.011433067 0.006725097 -0.005400662 0.04024497 -0.018659592 0.0147061935 0.005811029 -0.019382587
-0.006544676 0.017502563 0.018591978 0.03327608 -0.025185721 0.004256768 -0.010086173 -0.05325099
-0.02438753 0.0025171249 -0.0002804813 -0.010239328 -0.038718365 0.03318235 0.0070235683 0.0020943615
0.013338022 -0.0054586492 -0.0013312796 -0.015073641 0.019372322 -0.015183651 -0.0051275184 -0.034404956
-0.05291481 0.022557896 0.03361208 0.01120768 0.057121947 0.056122817 0.020687057 -0.018814037
0.008403492 -0.033289734 -0.0069302265 0.031942904 -0.017107757 -0.040801093 0.013901688 -0.048618153
0.001883894 -0.014203305 0.0048880936 -0.009195378 -0.04182893 -0.028798781 0.016459055 -0.005576487
0.024067692 -0.024293821 -0.010094572 0.034264166 0.00091922993 0.009518076 0.0075808433 -0.017823692
-0.0361439 -0.011231041 0.01691143 0.011328635 0.018555589 0.040346038 -0.009769445 -0.0067158327
0.04324578 0.0418744 0.008757497 -0.031844053 -0.024396127 -0.05526057 0.09175506 0.068218
0.034898747 0.041261576 0.057533696 0.020255521 -0.060663022 -0.014900278 -0.00983876 -0.0012331607
-0.016295066 0.02904184 0.0041689416 0.009249601 -0.024342671 -0.0154453935 -0.0822366 -0.039216872
-0.0679182 -0.030534336 0.00010897056 0.0381916 0.030920615 0.018200196 0.0042703426 0.013785818
0.016546713 0.008073001 0.01838971 0.053549483 0.0074905977 0.04236458 0.0065502548 -0.004082355
-0.026850676 -0.026656609 0.024481561 -0.019489622 -0.03716563 -0.024916124 0.013714707 -0.0034554324
0.015445038 -0.017233817 -0.03800975 -0.02103402 -0.016602814 -0.004897893 -0.020168 -0.025872957
-0.013269532 -0.04537025 -0.018492825 -0.04824783 0.028994823 0.009574524 -0.018036034 -0.044978213
-0.03842704 -0.06446609 0.008492782 -0.032184128 0.019508213 -0.024749672 -0.045380503 -0.010902837
-0.00080466626 -0.04117266 0.010910354 -0.007058423 0.022187663 0.0755828 -0.0028430852 -0.0008067242
0.009115856 0.045946497 0.019046547 0.07063859 0.008372848 0.0011422061 0.0081502665 -0.049610645
-0.031864412 -0.01034627 -0.03519215 0.035139516 0.019916032 -0.0022106804 0.017514007 -0.0016864274
-0.04915081 0.00011281429 0.023365263 0.013421127 0.009425582 0.027562974 -0.0067900587 0.028614689
-0.051394057 -0.014641714 -0.0023929204 0.009721167 0.022402043 0.023073105 0.019376248 -0.019419938
-0.012189291 -0.05481068 0.00049750134 -0.01335227 0.010976378 -0.037964232 0.00826477 0.0052850624
0.023606805 0.005189143 0.018247323 -0.019363398 -0.014017186 0.04821262 -0.01011845 0.039980963
0.022652153 -0.008299101 0.0008389472 0.0051346053 -0.006034444 0.077539735 -0.011879274 -0.009425758
0.01266299 0.02786694 -0.00691564 -0.0179111 0.0028642023 -0.029286336 -0.019364472 0.013631554
-0.025695091 -0.042041253 -0.02012004 -0.012888543 -0.013431713 -0.008244403 -0.02036728 0.015239719
-0.014292811 0.006099288 0.0016392209 0.009188008 -0.027720546 -0.03197205 0.020422483 -0.054282904
-0.038118325 -0.04539447 0.008216972 -0.0016485493 -0.010863976 0.017778581 0.020603487 -0.0032639706
0.007839595 -0.038013894 0.0029248225 0.038753774 0.018476961 0.049546212 0.00036493805 -0.028604759
-0.0151096545 0.046544958 0.046134166 -0.016472012 0.025104305 -0.017693553 -0.015523076 -0.06610715

module.encoder.c2.main.3.bias f4 [64]
00000000: 3807 15b6 ecf0 f0b4 eee9 4134 7828 b534
00000010: ebcd f336 b20c f5b5 3bac 8434 54fc 1935
00000020: f716 03b6 e2b3 7135 bece 7b35 7287 0f34
00000030: 838f 21b6 131e d0b3 2155 1135 72a5 f3b5
00000040: 3f37 a035 fab2 7034 940c 9e35 b33a 37b6
00000050: 40fc beb5 29ca bdb4 a4d3 0735 4886 bdb5
00000060: 5a7c d4b5 f2ba 3f35 642a 1cb6 5da5 2f35
00000070: 5351 4835 71c3 27b5 bd2b 5836 ec0b 40b4
00000080: 8c49 44b6 9766 a635 71e3 3134 1318 5eb6
00000090: cf3d 1835 7db1 5db5 5b28 c6b5 6071 1036
000000a0: eaf6 6035 6663 8a35 2b84 3c35 575d 3135
000000b0: 1131 14b5 640d 7136 e6ab c9b5 67f7 48b5
000000c0: 1a11 7535 f4e4 4e31 0fd4 0f33 f9e7 3ab6
000000d0: 9d99 9eb5 310d fe35 a80c e335 cac7 34b6
000000e0: 2ec5 1034 3c49 96b5 35ac 3735 aa67 27b4
000000f0: 9dcd a135 b0aa 21b5 bc60 9db5 5701 3e35
-2.2206932e-06 -4.4878777e-07 1.8059629e-07 3.3743322e-07 7.2659363e-06 -1.8257617e-06 2.471223e-07 5.736413e-07
-1.9533888e-06 9.004126e-07 9.3805636e-07 1.3367188e-07 -2.4074404e-06 -9.691225e-08 5.414059e-07 -1.8153062e-06
1.1937008e-06 2.2416853e-07 1.1775578e-06 -2.7303292e-06 -1.4229518e-06 -3.5351084e-07 5.0599397e-07 -1.4120678e-06
-1.5831422e-06 7.1425086e-07 -2.3270486e-06 6.5433215e-07 7.462415e-07 -6.249675e-07 3.2211967e-06 -1.788573e-07
-2.9249086e-06 1.2397821e-06 1.6567152e-07 -3.309459e-06 5.6714356e-07 -8.2587195e-07 -1.4763895e-06 2.1523665e-06
8.380581e-07 1.031073e-06 7.022779e-07 6.6073466e-07 -5.52057e-07 3.5919593e-06 -1.5025696e-06 -7.4865824e-07
9.12945e-07 3.010709e-09 3.3487648e-08 -2.7851186e-06 -1.1816625e-06 1.8928314e-06 1.6916501e-06 -2.6938383e-06
1.3482779e-07 -1.1197185e-06 6.8423407e-07 -1.55908e-07 1.2055276e-06 -6.0225557e-07 -1.1725565e-06 7.0782465e-07

module.encoder.c2.main.4.weight f4 [64]
00000000: 2c77 823f 3991 793f 8630 873f 56e2 803f
00000010: bd14 823f e64a 803f b571 7a3f 3ba7 7c3f
00000020: de52 803f 519f 7d3f f814 803f 4396 813f
00000030: 3e64 813f 597e 7b3f 2933 7f3f a14c 7f3f
00000040: 7a75 803f d6b2 753f 38a7 7f3f c80a 7b3f
00000050: 02e8 823f 3fba 7b3f 9cf9 803f c9af 813f
00000060: 3c02 7f3f 2ec7 7a3f 2778 7f3f b77d 833f
00000070: c8e4 7e3f 5845 7c3f bc6e 7d3f 62b3 743f
00000080: 1aa2 7e3f b11c 803f d470 803f edd7 843f
00000090: 8c56 823f 3857 813f 287a 7a3f 0a9a 7e3f
000000a0: 9bcc 773f ef7d 7f3f 9c6e 7b3f 2288 7f3f
000000b0: 7f5b 793f 503f 803f 90e1 803f 70d1 7d3f
000000c0: 94d7 7d3f 4a00 793f af6f 763f a7d3 803f
000000d0: 6f36 7f3f 8e44 813f 98bf 7e3f 2407 803f
000000e0: 4093 803f dd6f 803f f4c3 703f ec92 833f
000000f0: 58ac 7c3f dbf3 803f 28ab 853f 0052 863f
1.0192618 0.9748722 1.0561683 1.0069072 1.0162579 1.0022857 0.97829753 0.98692673
1.0025289 0.9907122 1.0006399 1.0123981 1.0108716 0.98239666 0.9968744 0.997263
1.0035851 0.95976007 0.9986453 0.98063326 1.0227053 0.98331064 1.0076175 1.013177
0.99612784 0.97960174 0.9979271 1.027274 0.9956784 0.9854331 0.9899709 0.95586216
0.994661 1.0008756 1.0034432 1.0378395 1.0182662 1.0104742 0.97842646 0.99453795
0.9679658 0.99801534 0.9821565 0.998171 0.97405237 1.0019321 1.0068836 0.991477
0.9915707 0.97266066 0.96264166 1.0064591 0.99692434 1.0099046 0.995111 1.0002179
1.0044937 1.0034138 0.94049 1.0279212 0.98700476 1.0074419 1.0442858 1.0493774

module.encoder.c2.main.4.bias f4 [64]
00000000: 0a12 89bc 6169 cabd 7c54 ebbc cac4 5abd
00000010: 4dd5 10bd b3f4 9bbd 46de 8dbd 5f7f 43bd
00000020: 21f2 afbd ab77 56bd 6bf3 8fbd f348 85bd
00000030: fa08 82bd 37ad 2abd 86ac 0ebd 4bea 15bd
00000040: ed8f f6bc e83c aabd 554d 8fbd 7290 b1bd
00000050: cad0 dcbd 5c3e d6bd 844d f3bd b0d7 c4bc
00000060: 442c 6abd 41d7 53bd 6e42 08bd c283 91bd
00000070: 860d c7bc 31c4 d2bc bb13 d6bc 2be3 93bd
00000080: f636 bebd 888c 7abd b826 4bbd 114d 6fbc
00000090: 495e 89bc 4732 a8bd c1eb 10bd f190 8bbd
000000a0: ecc3 babd 68e7 11bd ab52 9cbd 1bf6 05bd
000000b0: eaec d0bd f716 48bd 8d30 0fbd a148 6bbd
000000c0: c961 3bbd deef 79bd 5bd0 abbd 3ce6 5cbd
000000d0: 697c 93bd 6954 94bc b7aa d7bd b4ab dcbd
000000e0: 1d3a 0dbd 112c afbd 24cb d6bd 8ce1 4fbd
000000f0: a29a c9bd 0dfb 94bd 309a b7bd fe65 a0bc
-0.016732235 -0.09883381 -0.028726809 -0.05341033 -0.03535967 -0.07615032 -0.06927161 -0.047728892
-0.08591104 -0.052360218 -0.0702885 -0.065080546 -0.063493684 -0.041669097 -0.0348325 -0.036600392
-0.030097926 -0.08312398 -0.06997172 -0.08670129 -0.10782011 -0.10461113 -0.11880019 -0.024028629
-0.05717112 -0.051718954 -0.033266477 -0.07105209 -0.02429844 -0.025728317 -0.026132455 -0.07221063
-0.09287827 -0.061169177 -0.049597472 -0.014605776 -0.016768591 -0.08212715 -0.035381082 -0.06814755
-0.091194004 -0.035621077 -0.07632955 -0.032705408 -0.10201438 -0.048850026 -0.03495841 -0.05744231
-0.045747552 -0.06101977 -0.0838935 -0.053930506 -0.07201464 -0.018106656 -0.10530608 -0.10774937
-0.03447925 -0.08553327 -0.10487965 -0.050752208 -0.09843947 -0.07274447 -0.08964956 -0.019579884

module.encoder.c3.0.weight f4 [32, 64, 3, 3]
00000000: dba7 953c e240 323c 3619 3e3c 5b59 7d3c
00000010: 3135 17bd 83aa 3bbc 5da7 843c 31a5 0c3d
00000020: dce1 a03c b5d2 a23b dcaf cb3b 86b1 643b
00000030: 660c 043c dfa2 acbb 13f9 98bc 31e3 febc
00000040: 4e3a 3cbc d87f 2ebc 4709 eebc 8452 4dbd
00000050: 2bc7 7e3a c1a8 2a3d 3b38 463c 2a78 0e3d
00000060: 7494 263d a075 5a3d 9c1d 5ebd b5a9 7bbd
00000070: 9ce2 acbd 281b 8abc 408b 4e3d 1862 08bc
00000080: d772 7b3b e269 d73c c288 243c 91b9 c33b
00000090: a2e9 28bc 58fb 06bc c780 35bd 06c9 7ebb
000000a0: 49c7 3f3d 30ce 093d c18f c1bc 6f6f f1ba
000000b0: 2d34 e8bb 5d76 86bc 4091 8a3c a96b 6cbc
000000c0: 6137 ab3c 213d 47bc 876a 9c3a 4fef ccbc
000000d0: ed26 d03c 14b1 4bbd cbf8 d7bc 26d0 a0bc
000000e0: 6406 2fbd b0d1 eebc f067 87bc 10d6 15bd
000000f0: 1879 183d f15d c43c 7671 033d 108e 4d3c
00000100: 9fc9 6d3d 40d8 0d3d 33d8 3cbd 8768 353c
00000110: bca6 afbc c025 8d3b 6bda 183b d1ea d83c
00000120: f3b3 d2bc 197d 7cbb 87fa d9bb 1f12 83bd
00000130: 6377 adbc 9448 6c38 493b 61bc be53 e83c
00000140: 2d84 133d ef1c febb 951b 02bc 6210 f8bc
00000150: 0b26 84bb 48cc 6f3c e120 183d 64f5 b73b
00000160: fb03 763c b50e f1bb 2efb 75bc e58d 063d
00000170: 7ef1 02bd e9e7 2bbb 55b6 7c3c 8cb1 48bd
00000180: 2854 bdba 32e4 943c 0459 333c 59e2 09bd
00000190: d4ae 353d cbea 603d 7491 023d 5112 9c3d
000001a0: b78b b03d 5e84 c23c 03d9 09bb f5fd 003d
000001b0: 6f73 2abc 1b32 81bc 487f ecbc 2af2 31bd
000001c0: d4d3 42bd 029a 0dbb 03b1 d93b 51da 3ebc
000001d0: 01db a03c d2ef df3c 1b28 00bc d5ae 3c3c
000001e0: e4af dc3c 0e5c 8d3c 9f7d ea3c a9ca 06ba
000001f0: b3ac 79bc e514 19bd 92fa 1dbd b543 63bc
00000200: 76fe 763b cb5b 9fbc bd93 e43c 3cc0 1a3c
00000210: f791 8bbd 656b fe3a 0292 a1bb 47c1 b0bc
00000220: 3fd0 58bc 06cb 0dbc 15b1 793d b0ec 383d
00000230: 5a20 213c ddda 9a3c b222 dc3c d359 8abc
00000240: 056e 823c 6d62 113c 3a27 7cbc 5df5 67bc
00000250: 3bd6 c7bc f16d 853a 7cac ca3c 2cba cb3c
00000260: 9deb 3f3d 13e3 763b 8473 133c 36a5 20bc
00000270: 79c8 e23a 40fc 553d e900 3bbd 1e11 e33c
00000280: 7e58 643c 5903 42bd 801d 63bc 62b6 2c3d
00000290: f4eb 1d3b 3fea 03bc 5d4d 4e39 a45a acba
000002a0: 790e 91bd 6f61 263c d24e 80bd 72e3 f6bc
000002b0: dc62 81bb 205b 1d3b 7e9a cf3b ae49 fc3a
000002c0: e698 393c 1f2b fabb c7f9 b33b 523f 15bb
000002d0: 3daf 7a3b e803 cb3c 5a1e 6dbb 1099 4f3d
000002e0: 4273 8d3b edef 20bc f948 4bbd ed4e cc3c
000002f0: 3a0f 66bd c054 153b 4b1e 4dbc a433 063b
00000300: 9dc4 283b 2a3f b8bc d925 01bd 91b2 503c
00000310: 5dc0 d93c dfe8 5bbc 684e d4bc 33f1 66bd
00000320: 1cd6 1cbc aa26 193d 364e a3bc 7ce7 d73c
00000330: ab9d 143c 0658 b0bc dcda cebc 0fbc 10bd
00000340: 65e7 8abd c566 c0bd e0b2 d23c 8b59 8638
00000350: 983d dcbc 80ae 9c3c 8e36 eebc 0632 1e3d
00000360: a161 43bd 952a 10bd 8981 983c a61c 03bd
00000370: b969 5a3c 8d9a 32bd 6af2 81bd fc91 59bc
00000380: 6325 34bc 7112 9a3b b8d2 9ebc 3374 37bb
00000390: b284 1b3d a0bc 653c 66d0 3abc 6ab3 663c
000003a0: e475 183c 2391 f7bc 0643 28bd 92ed 31bd
000003b0: 77ae a43c fdd8 93bc 457d 8339 4c23 163d
000003c0: 33cc 283b 6db9 ba3c e8ca 663d a972 9b3d
000003d0: 72d4 3cbb 827d 133d ba55 28bd 470e 1f3c
000003e0: 8f81 8b3a 25af 6cbc 9046 94bb a6be 8abc
000003f0: 2371 99bd 72fc 5dbc efe0 a4bc e9b4 96bd
0.018268516 0.010879727 0.01160269 0.015463199 -0.03691596 -0.011454227 0.016193086 0.034337226
0.019638948 0.004968966 0.0062160324 0.0034895851 0.008059597 -0.005268439 -0.018673455 -0.031114193
-0.01148851 -0.0106505975 -0.029057158 -0.05012752 0.00097190094 0.041664843 0.012098367 0.034782566
0.04066892 0.053334832 -0.054227456 -0.061441142 -0.0844166 -0.016858652 0.050425768 -0.008324169
0.003836801 0.026295606 0.010042371 0.005973049 -0.010309609 -0.008238636 -0.044312265 -0.0038877144
0.046820913 0.0336439 -0.023628118 -0.0018420051 -0.007086298 -0.016413862 0.016914964 -0.014429965
0.02090043 -0.01216057 0.0011933603 -0.025016455 0.025409186 -0.04972942 -0.02636375 -0.019630503
-0.042730704 -0.029152721 -0.016529053 -0.0365811 0.03722486 0.023970576 0.032090627 0.012546077
0.05805361 0.03463006 -0.04610462 0.011072285 -0.02144181 0.0043074787 0.0023323547 0.026479157
-0.025720572 -0.0038526712 -0.0066521796 -0.06399941 -0.021175092 5.633438e-05 -0.013747045 0.028360244
0.036014725 -0.007754914 -0.007941146 -0.03028125 -0.0040328554 0.014636107 0.03714073 0.0056139696
0.015015597 -0.0073564895 -0.015013499 0.032850165 -0.031968586 -0.0026230759 0.015424331 -0.048997447
-0.0014444636 0.018175218 0.010946516 -0.033663128 0.044356182 0.054911416 0.031876996 0.07620681
0.086203985 0.023744758 -0.002103389 0.031492192 -0.010403498 -0.015770962 -0.028869286 -0.043443836
-0.047565296 -0.0021606688 0.006643416 -0.01164873 0.01963568 0.027336035 -0.007822062 0.011516293
0.02693934 0.01725581 0.028624354 -0.0005141893 -0.015238929 -0.037373442 -0.03856904 -0.013871123
0.0037688292 -0.01945295 0.027902478 0.009445246 -0.0681495 0.0019410668 -0.0049307356 -0.021576537
-0.0132332435 -0.008654362 0.060959894 0.045147598 0.009834373 0.01890319 0.026872013 -0.016888535
0.015921602 0.008873564 -0.015390212 -0.01415762 -0.024394145 0.001017986 0.02474045 0.024869047
0.046855558 0.0037671968 0.008999709 -0.009805014 0.0017302177 0.052242517 -0.045655165 0.027718123
0.013937114 -0.047366474 -0.013862014 0.04216612 0.0024096938 -0.008051454 0.00019674511 -0.0013149572
-0.070828386 0.010155066 -0.06265034 -0.030137751 -0.0039485525 0.0024010614 0.0063355556 0.0019248032
0.011327958 -0.007634535 0.0054924223 -0.0022773338 0.0038251423 0.024782136 -0.003618142 0.05068308
0.0043167183 -0.009822828 -0.04963014 0.024939978 -0.056166865 0.002278611 -0.012519429 0.0020477558
0.0025751956 -0.022491056 -0.031530235 0.012737886 0.026580984 -0.01342222 -0.025916293 -0.05638237
-0.009572532 0.03739039 -0.019934755 0.026355498 0.009070794 -0.021526348 -0.025250845 -0.035335597
-0.06782416 -0.09394602 0.02572006 6.4062966e-05 -0.026884839 0.019126177 -0.029078748 0.038621925
-0.047700528 -0.03519686 0.018616455 -0.032009743 0.01333087 -0.043604422 -0.06345065 -0.013279434
-0.010995242 0.0047019054 -0.019387588 -0.0027992844 0.037968345 0.0140220225 -0.011402225 0.014080862
0.009305451 -0.030220574 -0.041079544 -0.043439455 0.020102723 -0.018047804 0.000250796 0.036654755
0.0025756478 0.022793496 0.05634585 0.07590229 -0.002881315 0.036008365 -0.04109738 0.009707994
0.001064347 -0.014446055 -0.0045250133 -0.016936611 -0.07492282 -0.013548957 -0.020126788 -0.073587246

module.encoder.c3.0.bias f4 [32]
00000000: 8a4f 1935 a0ac 4435 fa04 f934 866b 9935
00000010: 55d7 67b4 056c 9934 3f3f 80b4 5ba0 c6b4
00000020: 5968 92b4 06bb adb4 30cb f634 d1c5 b335
00000030: 8f1f be34 fb6d 39b5 da66 5e35 5de6 fb33
00000040: f37a 1f35 730d 9535 90dd cfb2 58fe 3f35
00000050: c799 bfb4 31d5 b7b2 47bc 0835 7e2b d834
00000060: 507d acb4 e969 e2b4 c6a1 8a35 cdc8 c534
00000070: 399c 11b5 1357 f734 b0fb fe35 29f3 74b5
5.7112686e-07 7.326689e-07 4.6383485e-07 1.1430682e-06 -2.1591889e-07 2.8577065e-07 -2.3887875e-07 -3.6997048e-07
-2.7270542e-07 -3.2359839e-07 4.596891e-07 1.3394111e-06 3.541322e-07 -6.9077913e-07 8.2851113e-07 1.1730001e-07
5.941103e-07 1.1105279e-06 -2.4198727e-08 7.1523164e-07 -3.568841e-07 -2.1400952e-08 5.093793e-07 4.026478e-07
-3.2128673e-07 -4.217284e-07 1.0328883e-06 3.684021e-07 -5.4244043e-07 4.607069e-07 1.8997725e-06 -9.125093e-07

module.encoder.c3.1.weight f4 [32]
00000000: 3b44 963f fe8b 8e3f a91e 873f f214 883f
00000010: 6889 863f fe81 853f 5191 7c3f 62db 893f
00000020: 0b7e 853f cd0b 893f d819 883f 1d28 8e3f
00000030: 711c 8d3f fb38 913f b14c 8e3f 2833 893f
00000040: 8af0 873f 2849 853f 0f30 893f 3ca8 8d3f
00000050: e096 923f 30a1 8b3f 450c 913f 30cd 903f
00000060: 3bce 913f 300d 873f 9ffd 883f 4342 893f
00000070: cf80 8b3f 739d 903f 9c2d 8c3f ad01 8b3f
1.1739572 1.1136472 1.0556232 1.0631392 1.0510683 1.0430295 0.98659235 1.0770075
1.042909 1.0706726 1.0632887 1.1105992 1.1024305 1.1345514 1.1117154 1.0718737
1.0620282 1.041295 1.0717791 1.1066966 1.1452293 1.0908566 1.1331869 1.1312618
1.1391062 1.05509 1.0702399 1.0723346 1.0898684 1.129805 1.0951419 1.0859886

module.encoder.c3.1.bias f4 [32]
00000000: 0e25 e6bd 0ea8 203d 1560 5abd e2e8 153d
00000010: bb7d 86bd 289c 97bd 43e1 603d 3035 5b3d
00000020: 207c 7f3d 5e86 df3c 754b 05bd 51b2 28bd
00000030: a83d a13c 8635 eb3d 27c2 583c 59e7 333c
00000040: 007a b23d 48d9 6d3d 9949 03bd 3a6b 91bd
00000050: e930 b33c ca75 703c aa2f 6c3d 3cf5 1f3d
00000060: ed56 a7bc a7b6 20bc a9df a33c 9b41 a7bc
00000070: a85e f93c d47b 8f3d a212 b8bc f990 b43c
-0.11237536 0.03922277 -0.053314287 0.036599047 -0.0656695 -0.07402831 0.054902326 0.05351752
0.062374234 0.027285751 -0.032542665 -0.04118568 0.01968272 0.11484818 0.013229883 0.010980451
0.08714676 0.058068544 -0.03205261 -0.0710053 0.021873908 0.014676521 0.057662643 0.039052233
-0.020427192 -0.009809173 0.02000411 -0.020417025 0.030440643 0.0700604 -0.022469822 0.022041785

module.encoder.c3.1.running_mean f4 [32]
00000000: c151 2cbf 3ce9 64bf af75 8fbf 7362 c2bd
00000010: ee49 523f f45d 7abe 3768 713e 0774 08be
00000020: a206 35bf 4fe4 473f a48c d3be b998 f2bd
00000030: 5f94 b1bd c9a8 653e ec53 393e ee6c bbbe
00000040: fe6c da3e 3de2 413e a51b 1c3d e07e 2c3e
00000050: 7620 c5be fa32 01be 3d1b 20bf 11e7 67be
00000060: d53a 71bf aa1c c33e 128d dd3e 085e 353f
00000070: 3616 d63e d5a6 fbbd 8828 28bf 3e56 7b3b
-0.67312247 -0.8941839 -1.1207789 -0.09491434 0.8214406 -0.24449903 0.23574911 -0.13325511
-0.70713246 0.78082746 -0.41318238 -0.11845536 -0.08670878 0.22427668 0.1809842 -0.36606544
0.4266128 0.1893396 0.0381123 0.16845274 -0.38501328 -0.12617102 -0.6254156 -0.22646739
-0.94230396 0.38107806 0.4327169 0.70846605 0.4181382 -0.1228768 -0.65686846 0.0038350965
