logs/exp5/model_iters_19000.pth (torch, 495376 bytes, 47 tensors)

module.encoder.c1.main.0.weight f4 [32, 3, 3, 3]
-0.0118340375 0.0052762823 -0.0066250227 -0.029572314 0.0015883126 0.0034317167 -0.003439006 0.0301183
0.026147392 -0.0045296056 -0.048608016 0.024077421 -0.01208339 0.0020691564 0.04673201 -0.002975705
0.0018602445 0.010654248 -0.046425402 -0.06400727 -0.021870565 -0.062508896 0.0115481885 0.061393872
0.018955583 -0.04433641 0.05062126 0.002279727 -0.014907262 0.016876316 0.014213352 0.029022038
0.033832192 -0.0056345467 0.012360595 -0.01567734 0.0057761087 -0.016696142 -0.026465392 -0.0044404357
-0.0023556815 -0.0009570954 0.05105576 0.022533393 -0.019619118 -0.0021449307 -0.0004318884 0.024472944
-0.009153633 0.026541581 0.1216453 -0.051149894 -0.042105325 -0.05962361 0.032860845 -0.045415215
-0.012811429 0.050366245 0.0018402047 -0.022199707 0.017418323 -0.011237811 0.0102234855 -0.019543476
-0.04783099 0.0016769832 -0.009596519 0.03985535 0.020894455 0.0035592818 -0.0016537154 0.00212739
-0.0569682 0.032606974 0.024799455 -0.03061896 -0.0683619 -0.015037319 -0.059375577 0.047623478
0.008131762 -0.0402 -0.025526946 -0.016944407 -0.008886464 -0.031670496 0.011055487 0.014486043
0.004415262 0.050291795 -0.032121122 -0.020701637 -0.01861727 0.0614519 -0.011143294 -0.0060004187
-0.015803268 0.030567221 0.010263725 -0.029164247 -0.019430246 -0.0010497527 -0.014252493 -0.028393283
-0.004333873 -0.03701186 -0.040654168 0.018063413 0.022758361 0.0019364274 -0.026832838 -0.007634142
0.0013245812 -0.0024311962 -0.019070636 -0.010398577 0.001187903 -0.037658516 -0.050925538 -0.017054478
0.020626564 -0.014573749 -0.005017185 0.047802642 0.023523467 0.014705817 -0.028228313 0.028805407
0.045249976 0.010848548 0.04974998 -0.027573667 -0.00020371308 -0.058508568 0.008010754 0.012460186
-0.030142397 -0.022291722 0.0017158153 0.028988538 0.01919622 -0.02488246 0.034727767 0.0048755156
0.051253594 0.025570713 -0.006373022 0.030358102 -0.065405555 0.014378783 0.008061358 -0.032366805
-0.02948269 -0.023188375 -0.0056192926 0.039674193 0.008974559 -0.056432996 0.013538121 -0.026839817
-0.005779822 0.0128370235 -0.0027287905 0.0052293385 0.008878463 -0.027982201 0.0011464184 0.029154526
-0.029387139 -0.04229039 0.0013472603 0.050061237 0.005801742 0.071446836 -0.0026921427 -0.02682732
-0.016661447 -0.02712073 -0.028856255 -0.018836407 -0.02125956 -0.060477234 -0.0038854703 0.052270047
-0.0085850265 -0.00027190655 0.03071797 0.004663715 -0.007299678 0.06614088 0.003561088 -0.036963157
0.016642626 -0.0016661617 0.009634698 -0.015149307 0.0061880024 -0.030269768 -0.079241626 0.0039634285
-0.0050712945 0.027847104 0.011725386 0.036726426 0.031264912 -0.023073617 -0.0061955117 -0.017371701
-0.0057171625 0.031997398 0.05024944 0.016639011 0.017256586 -0.0048094452 -0.080902316 -0.07452862
0.02853502 -0.0022456476 0.0031155117 0.009673574 0.0044273967 -0.010252605 0.016714893 0.02301442
-0.025828492 -0.030860482 -0.049748696 0.0051208623 -0.024599176 0.012884514 0.03653723 0.010796839
0.023526724 0.01734072 0.052256793 -0.0035213707 0.008101669 -0.050266467 -0.029376997 -0.015928889
-0.05295969 -0.06160779 -0.006895923 -0.0071449117 -0.017006736 -0.025578465 -0.015764734 -0.0003502433
-0.02971889 -0.002411846 0.00031815487 0.010102551 0.018544167 0.006861109 -0.0034837828 -0.00039930982
00000000: 8de3 41bc aae4 ac3b b816 d9bb a341 f2bc
00000010: ed2e d03a a7e6 603b f260 61bb a7ba f63c
00000020: 0e33 d63c 166d 94bb 3319 47bd 033e c53c
00000030: 69f9 45bc af9a 073b 106a 3f3d 0c04 43bb
00000040: 73d3 f33a 288f 2e3c 9028 3ebd 3e16 83bd
00000050: e629 b3bc aa04 80bd 9d34 3d3c 2478 7b3d
00000060: bd48 9b3c 189a 35bd 3d58 4f3d 7967 153b
00000070: 973d 74bc 3340 8a3c 1fdf 683c a0bf ed3c
00000080: a093 0a3d 01a2 b8bb 1884 4a3c c46d 80bc
00000090: 8345 bd3b 59c6 88bc f3cd d8bc 1381 91bb
000000a0: c761 1abb 96e5 7aba d81f 513d f397 b83c
000000b0: 46b8 a0bc f791 0cbb 146f e2b9 7c7b c83c
000000c0: 1ff9 15bc bb6d d93c 2c21 f93d 8d82 51bd
000000d0: a276 2cbd e337 74bd 1899 063d 4e05 3abd
000000e0: 07e7 51bc d64c 4e3d 0633 f13a 29dc b5bc
000000f0: dfb0 8e3c cc1e 38bc 6880 273c a419 a0bc
00000100: 6eea 43bd 38ce db3a b83a 1dbc 5d3f 233d
00000110: d92a ab3c d742 693b 7bc1 d8ba ae6b 0b3b
00000120: 7d57 69bd e48e 053d 3a28 cb3c 9dd4 fabc
00000130: 5301 8cbd 165f 76bc ce33 73bd d610 433d
00000140: 153b 053c c1a8 24bd e31d d1bc ffce 8abc
00000150: 8898 11bc ecb8 01bd 1322 353c de56 6d3c
00000160: e7ad 903b c5fe 4d3d 7091 03bd 7b96 a9bc
00000170: 3f83 98bc fdb4 7b3d 5d92 36bc 299f c4bb
00000180: db75 81bc 1c68 fa3c 2f29 283c dce9 eebc
00000190: 2e2c 9fbc db97 89ba 4a83 69bc 0899 e8bc
000001a0: 2903 8ebb c099 17bd fc84 26bd b9f9 933c
000001b0: be6f ba3c b9cf fd3a 8ad0 dbbc d327 fabb
000001c0: 929d ad3a b454 1fbb 063a 9cbc cb5e 2abc
000001d0: 69b3 9b3a d13f 1abd 4c97 50bd d5b5 8bbc
000001e0: 0af9 a83c bcc6 6ebc 3367 a4bb b4cc 433d
000001f0: 49b4 c03c abf0 703c 103f e7bc 51f9 eb3c
00000200: 0a58 393d 1cbe 313c a3c6 4b3d 2ce2 e1bc
00000210: d09b 55b9 aea6 6fbd 8a3f 033c cf25 4c3c
00000220: 30ed f6bc 219d b6bc 35e5 e03a 5f79 ed3c
00000230: 6441 9d3c 4dd6 cbbc b43e 0e3d cac2 9f3b
00000240: 4aef 513d ac79 d13c c9d4 d0bb 8eb1 f83c
00000250: 59f3 85bd fd94 6b3c c913 043c 0e93 04bd
00000260: af85 f1bc 8cf5 bdbc 0b22 b8bb 6881 223d
00000270: 070a 133c 4926 67bd ffce 5d3c 2ddf dbbc
00000280: a964 bdbb 6152 523c 82d5 32bb df5a ab3b
00000290: f976 113c ee3a e5bc 6b43 963a 79d5 ee3c
000002a0: 4cbd f0bc b038 2dbd 8e96 b03a 030d 4d3d
000002b0: 8a1c be3b b852 923d a96e 30bb f8c4 dbbc
000002c0: 967d 88bc 4b2c debc f463 ecbc cf4e 9abc
000002d0: 8728 aebc fab6 77bd 60a3 7ebb 1e19 563d
000002e0: 36a8 0cbc ae8e 8eb9 41a4 fb3c 14d2 983b
000002f0: 2332 efbb df74 873d 2461 693b ae66 17bd
00000300: 1e56 883c 1c63 daba dada 1d3c cd34 78bc
00000310: bac4 ca3b 4ef8 f7bc 6f49 a2bd a6df 813b
00000320: 1a2d a6bb 9c1f e43c d51b 403c 736e 163d
00000330: a30f 003d e204 bdbc b803 cbbb 194f 8ebc
00000340: 0957 bbbb b40f 033d 5bd2 4d3d 894e 883c
00000350: af5d 8d3c 8d98 9dbb 1db0 a5bd 76a2 98bd
00000360: 46c2 e93c b72b 13bb 9d2d 4c3b e97d 1e3c
00000370: b213 913b 8bfa 27bc aced 883c bd88 bc3c
00000380: 4696 d3bc 1fcf fcbc 4ac5 4bbd e8cc a73b
00000390: 3684 c9bc 9219 533c 10a8 153d 3ae5 303c
000003a0: 1ebb c03c 200e 8e3c 380b 563d ccc6 66bb
000003b0: ddbc 043c 36e4 4dbd 07a8 f0bc 4d7d 82bc
000003c0: 43ec 58bd 7358 7cbd 32f7 e1bb dd1f eabb
000003d0: b651 8bbc ee89 d1bc 0b25 81bc dca0 b7b9
000003e0: 0875 f3bc 1010 1ebb 06ce a639 2c85 253c
000003f0: f0e9 973c 27d3 e03b 2d50 64bb 755a d1b9

module.encoder.c1.main.0.bias f4 [32]
0.00018671872 -8.581575e-05 -0.0002098072 -9.429887e-05 -0.00013286862 0.0005977702 7.448169e-05 -1.675624e-05
-0.0003062044 -0.00023878894 0.0005670101 5.5833843e-05 -0.00035643467 -0.00011355637 7.528963e-05 5.3331212e-05
2.8930777e-05 -0.00042658596 -4.4158223e-05 -0.00019876585 -0.00017076223 6.729503e-05 7.4197225e-05 0.00054134644
-0.0003420088 -1.19713295e-05 0.0002346792 0.0003182174 7.091617e-05 2.8045624e-05 0.00027276986 4.882499e-05
00000000: edc9 4339 fbf7 b3b8 b1ff 5bb9 52c2 c5b8
00000010: a652 0bb9 aeb3 1c3a 0e33 9c38 c08f 8cb7
00000020: 0f8a a0b9 6b63 7ab9 67a3 143a 222f 6a38
00000030: dadf bab9 1d25 eeb8 d0e4 9d38 f4af 5f38
00000040: 5fb0 f237 66a7 dfb9 8836 39b8 cd6b 50b9
00000050: a30e 33b9 be20 8d38 559a 9b38 25e9 0d3a
00000060: a54f b3b9 78d8 48b7 3814 7639 6bd6 a639
00000070: d4b8 9438 8543 eb37 8d02 8f39 6fc9 4c38

module.encoder.c1.main.1.weight f4 [32]
1.0191468 1.0126193 0.96244156 0.9781323 1.0284256 1.0006404 1.0067616 0.99824774
0.96576524 1.0148408 1.0172067 0.9905458 1.0600748 1.0191898 0.9879939 0.9846647
0.9163977 1.0034912 0.97308373 0.9995104 0.97193545 1.0327675 0.9847041 1.0626627
0.96956724 1.0049701 0.9898421 1.009698 0.98004645 0.9311526 1.0075648 0.9316079
00000000: 6773 823f 829d 813f 9262 763f e166 7a3f
00000010: 73a3 833f fc14 803f 90dd 803f 2a8d 7f3f
00000020: 643c 773f 4ee6 813f d433 823f 6994 7d3f
00000030: 88b0 873f d074 823f 2bed 7c3f fc12 7c3f
00000040: 0a99 6a3f 6672 803f 041c 793f eadf 7f3f
00000050: c3d0 783f ba31 843f 9115 7c3f 5505 883f
00000060: 8f35 783f dca2 803f 4b66 7d3f c93d 813f
00000070: 53e4 7a3f 0460 6e3f e2f7 803f db7d 6e3f

module.encoder.c1.main.1.bias f4 [32]
-0.04691488 -0.05276782 -0.0810927 -0.09259506 -0.002265714 -0.0020130996 0.00040058757 -0.09777846
-0.05131453 0.030835478 -0.10810047 -0.017841823 -0.061535735 0.055724643 0.010079285 -0.07721889
-0.077521585 -0.023902671 -0.06244141 -0.09816908 -0.04698908 0.013807316 -0.016775394 -0.022955429
-0.041551456 -0.032278422 -0.0528567 -0.014810223 -0.06360762 -0.036865707 0.0014285236 -0.041579057
00000000: d129 40bd 1223 58bd ee13 a6bd 7ba2 bdbd
00000010: 607c 14bb 35ee 03bb f405 d239 1340 c8bd
00000020: 2f2f 52bd af9a fc3c c763 ddbd 0429 92bc
00000030: e50c 7cbd 863f 643d 9623 253c f024 9ebd
00000040: a3c3 9ebd 89cf c3bc 90c2 7fbd df0c c9bd
00000050: 9f77 40bd 1538 623c 8d6c 89bc 060d bcbc
00000060: dc31 2abd 6136 04bd 4480 58bd 94a6 72bc
00000070: b644 82bd 7f00 17bd 4c3d bb3a cd4e 2abd

module.encoder.c1.main.3.weight f4 [32, 32, 3, 3]
-0.03646369 0.030189741 0.044662975 -0.03947942 0.003450297 -0.03710454 0.0034396679 0.0037095803
-0.0057315207 -0.0147680985 -0.0013972359 0.052018262 -0.006800696 0.0290262 0.0010031398 -0.020622788
0.023695635 -0.008902424 -0.024591006 -0.028056435 -0.013678854 0.0017855626 0.0014055523 0.0057786223
-0.0056137545 -0.0075651915 -0.020996867 0.03477553 0.015746659 0.024442354 0.059180226 -0.0047752964
-0.00024320417 -0.010919391 -0.003348117 0.029227614 0.022582239 -0.026215257 -0.035597228 0.013076848
-0.011279226 -0.0030072355 -0.00513125 0.008541234 0.009043271 -0.02603652 -0.035911858 0.020099735
0.026684672 0.0173136 -0.008604932 -0.018644644 0.02011489 -0.023777472 0.00077744276 0.0076199016
0.0038667836 -0.014734036 0.0032896954 0.006112504 -0.028408298 0.022091098 0.0050264252 0.006168402
0.0346925 0.024880914 0.0052057924 -0.0335983 -0.05216211 0.008832039 0.007144837 -0.011934064
-0.019143576 -0.014135587 0.005408611 -0.01304628 -0.0069304197 0.040225428 0.0026123724 0.008503546
0.007997724 0.01347471 -0.014792873 -0.011388062 -0.038928624 -0.014355374 -0.047046304 0.059426825
-0.01676484 -0.012194011 -0.033189677 -0.048309457 -0.045442183 0.0072931796 -0.0071593174 -0.0035782778
-0.004189168 0.0011144821 -0.0042902394 0.0073604872 -0.055491555 0.046749894 0.00054877094 0.019065853
0.041299608 0.014417202 0.020101786 0.018226294 -0.031481825 0.051542334 0.029583812 -0.021303767
-0.022641778 -0.0076447027 0.042911608 0.01035517 -0.007586877 0.05126289 0.030790912 0.0110744275
0.07151776 0.018631333 0.04071506 0.07836076 0.026384385 0.009433537 -0.017805345 -0.01549647
0.014433836 -0.0006820156 -0.019228712 -0.014238304 0.00050783623 -0.028298775 -0.06410604 0.030378107
-0.023933385 -0.040157717 0.008701457 -0.014379797 -0.021920014 -0.0009270271 -0.01837558 0.0047502117
-0.0022974373 0.02662218 -0.025242852 0.006983923 0.006636059 -0.019260075 0.0073406957 -0.0033443372
0.015268685 0.0011080706 0.004811699 0.019331886 -0.009233471 0.020297427 -0.008507291 0.013234307
0.07833727 0.0039399583 0.030959532 -0.007976982 0.0126336645 -0.00951476 -0.026498513 0.007159796
-0.0026172884 -0.008151139 0.023170888 0.025226833 -0.03133625 0.014822251 -0.018991917 0.006047979
0.016208056 -0.02666931 0.009765422 0.02235402 -0.019396087 -0.018399078 0.021906603 0.010084543
0.05075438 -0.030904055 0.0051129586 -0.007995407 0.023097359 0.024536079 0.040394317 -0.023929097
-0.029235376 0.012746618 0.027374092 -0.019062473 -0.0040011685 -0.030493984 0.029388566 0.023573611
0.027537266 0.022430835 0.06926389 0.0016061245 0.050376873 -0.012086639 0.03058887 -0.0028989366
-0.013922433 0.03701812 -0.0030457075 -0.0042012483 -0.009448621 -0.042516798 -0.016093597 -0.039630346
0.018212253 0.023828216 -0.0062156506 0.0047231535 -0.023136921 0.043251302 -0.012640034 -0.02715866
0.01975488 -0.029063752 -0.021920253 0.0068753343 0.01496437 0.011301309 -0.016814256 0.044038855
-0.070290916 -0.051360656 -0.0028879952 -0.010074931 0.035934597 0.041313447 0.01618023 -0.025467347
0.009592044 0.047407176 -0.002219424 -0.03276501 0.026149724 0.0051674903 0.008586916 -0.040922854
0.04253578 0.012291382 -0.0071849637 -0.0076627186 0.00804626 0.0064258547 -0.009993561 0.023725312
00000000: f35a 15bd 7a50 f73c 86f0 363d 2cb5 21bd
00000010: 611e 623b eefa 17bd 0d6c 613b 6e1c 733b
00000020: 7bcf bbbb e5f5 71bc 7523 b7ba 1a11 553d
00000030: 5fd8 debb 5ac8 ed3c c97b 833a 1ff1 a8bc
00000040: 591d c23c 79db 11bc 1473 c9bc 9cd6 e5bc
00000050: 461d 60bc 8a09 ea3a 823a b83a 995a bd3b
00000060: 96f3 b7bb 6de5 f7bb 9f01 acbc c970 0e3d
00000070: 23ff 803c 553b c83c f766 723d 177a 9cbb
00000080: 9f04 7fb9 3fe7 32bc 156c 5bbb c06e ef3c
00000090: 63fe b83c 61c1 d6bc 66ce 11bd 4740 563c
000000a0: 81cc 38bc 0a15 45bb 0b24 a8bb 88f0 0b3c
000000b0: 3a2a 143c 8a4a d5bc 5018 13bd 33a8 a43c
000000c0: d099 da3c 40d5 8d3c b3fb 0cbc a7bc 98bc
000000d0: fbc7 a43c f9c8 c2bc 4dcd 4b3a 5eb0 f93b
000000e0: dd69 7d3b 0767 71bc ee97 573b 664b c83b
000000f0: 85b8 e8bc 64f8 b43c b6b4 a43b 4e20 ca3b
00000100: b919 0e3d 0fd3 cb3c 5a95 aa3b 5f9e 09bd
00000110: f0a7 55bd 42b4 103c 3d1f ea3b 1887 43bc
00000120: fdd2 9cbc f398 67bc b83a b13b 10c0 55bc
00000130: 9318 e3bb 6bc3 243d 5634 2b3b 7552 0b3c
00000140: e308 033c 08c5 5c3c ce5d 72bc fe94 3abc
00000150: 9f73 1fbd cd32 6bbc a0b3 40bd 8b69 733d
00000160: 6b56 89bc 64c9 47bc e6f1 07bd 23e0 45bd
00000170: 9521 3abd a0fb ee3b b598 eabb 8a81 6abb
00000180: 4a45 89bb d013 923a 2395 8cbb 3e30 f13b
00000190: 1d4b 63bd d17c 3f3d 65db 0f3a fe2f 9c3c
000001a0: c729 293d 2136 6c3c 80ac a43c 4f4f 953c
000001b0: 16f3 00bd 0e1e 533d c059 f23c 3d85 aebc
000001c0: 407b b9bc 6a80 fabb 15c4 2f3d bba8 293c
000001d0: 569b f8bb 09f9 513d 393d fc3c 8471 353c
000001e0: e777 923d bda0 983c d6c4 263d 9b7b a03d
000001f0: 1124 d83c 1f8f 1a3c 84dc 91bc e8e4 7dbc
00000200: e57b 6c3c 4bc9 32ba 8885 9dbc c747 69bc
00000210: 5020 053a d5d2 e7bc 074a 83bd 82db f83c
00000220: f20f c4bc 6b7c 24bd 8e90 0e3c 3d99 6bbc
00000230: 9a91 b3bc bc03 73ba 6288 96bc aaa7 9b3b
00000240: 9a90 16bb c216 da3c 19ca cebc 64d9 e43b
00000250: 4c73 d93b 4ec7 9dbc 388a f03b ab2c 5bbb
00000260: 8229 7a3c ae3c 913a 75ab 9d3b e75d 9e3c
00000270: fc47 17bc ca46 a63c 2a62 0bbc b5d4 583c
00000280: 4a6f a03d c41a 813b d89e fd3c e3b1 02bc
00000290: 6efd 4e3c cce3 1bbc 6913 d9bc b99c ea3b
000002a0: d086 2bbb 5b8c 05bc e0d0 bd3c 81a8 ce3c
000002b0: 715a 00bd 07d9 723c f094 9bbc 202e c63b
000002c0: c2c6 843c 9979 dabc 26ff 1f3c c71f b73c
000002d0: 8be4 9ebc aab9 96bc 7a75 b33c a439 253c
000002e0: d3e3 4f3d 802a fdbc 9b8a a73b 2bff 02bc
000002f0: ac36 bd3c e3ff c83c 8374 253d f406 c4bc
00000300: 077f efbc 31d7 503c a23f e03c e728 9cbc
00000310: 3c1c 83bb 85ce f9bc 4ac0 f03c 721d c13c
00000320: d595 e13c dfc0 b73c 3ada 8d3d 9884 d23a
00000330: fb57 4e3d 0a07 46bc 8395 fa3c 16fc 3dbb
00000340: eb1a 64bc 50a0 173d 7e9a 47bb a0aa 89bb
00000350: 64ce 1abc 1826 2ebd b8d6 83bc 6e53 22bd
00000360: dd31 953c 6433 c33c a8ac cbbb afc4 9a3b
00000370: a489 bdbc 4728 313d 2518 4fbc d77b debc
00000380: fcd4 a13c 1b17 eebc 1a92 b3bc 7c4a e13b
00000390: 1e2d 753c 2029 393c 0dbe 89bc 1662 343d
000003a0: aff4 8fbd 8d5f 52bd 8544 3dbb 5311 25bc
000003b0: 2830 133d 4a38 293d 678c 843c e6a0 d0bc
000003c0: f327 1d3c 072e 423d c173 11bb 9a34 06bd
000003d0: f237 d63c 0d54 a93b 23b0 0c3c b99e 27bd
000003e0: 003a 2e3d cb61 493c d86f ebbb 8b17 fbbb
000003f0: 76d4 033c fa8f d23b 08bc 23bc 965b c23c

module.encoder.c1.main.3.bias f4 [32]
4.0696764e-06 -1.8424578e-05 1.2096785e-06 2.8847271e-05 -1.0624813e-05 -7.2081435e-05 -4.8239825e-05 7.588399e-06
1.5677701e-06 1.0520959e-05 -2.0102484e-06 -1.0546608e-05 -3.929038e-06 -5.173456e-06 -8.985874e-06 1.2719444e-05
-6.847207e-06 4.3061304e-06 7.817015e-06 -2.0387733e-05 -4.838214e-05 -1.0868472e-05 5.7886206e-07 7.913427e-06
-4.5282986e-06 1.2035009e-06 -3.534587e-05 2.509357e-05 1.8419903e-05 1.481908e-05 -1.5282809e-05 -2.2139071e-05
00000000: 418e 8836 7b8e 9ab7 3d5c a235 0bfd f137
00000010: 3941 32b7 6d2a 97b8 1e55 4ab8 da9f fe36
00000020: 2c6c d235 2d83 3037 cee7 06b6 56f1 30b7
00000030: 2ed6 83b6 a697 adb6 09c2 16b7 9965 5537
00000040: 0fc1 e5b6 617d 9036 d325 0337 5306 abb7
00000050: eded 4ab8 bb57 36b7 1963 1b35 e9c3 0437
00000060: caf1 97b6 fa87 a135 5740 14b8 0880 d237
00000070: 7184 9a37 779f 7837 9533 80b7 4bb7 b9b7

module.encoder.c1.main.4.weight f4 [32]
0.9735331 0.9461398 0.96817225 1.0031246 0.98691994 1.0215619 1.0119433 0.9808106
1.0048016 0.90470225 0.9909279 0.9839242 0.90958977 0.9805243 0.9759621 0.96050984
0.9663327 0.98429 0.9861706 1.0141023 1.0046365 0.9595039 0.9429559 0.9833431
0.9396647 0.9683687 0.9955438 1.0157493 0.9958709 0.9471732 0.9464496 0.99399793
00000000: 7739 793f 3836 723f 23da 773f 6366 803f
00000010: c9a6 7c3f 8ac2 823f 5c87 813f 6716 7b3f
00000020: 579d 803f 919a 673f 73ad 7d3f 75e2 7b3f
00000030: e0da 683f a403 7b3f a7d8 793f f9e3 753f
00000040: 9461 773f 6efa 7b3f ad75 7c3f 1bce 813f
00000050: ee97 803f 0ca2 753f 8f65 713f 60bc 7b3f
00000060: de8d 703f 03e7 773f f5db 7e3f 1304 823f
00000070: 65f1 7e3f f179 723f 854a 723f a676 7e3f

module.encoder.c1.main.4.bias f4 [32]
-0.008627451 -0.005778331 0.004164137 0.03889946 0.0008227101 -0.03988275 -0.08556654 0.032807
-0.002686607 -0.07280792 0.013806233 -0.004723732 -0.11917132 0.018643672 0.014782382 -0.042020537
-0.05019167 0.00038763948 0.018867154 -0.050141517 0.006440453 -0.071171194 -0.039594844 -0.0347231
-0.0070304195 -0.014131938 -0.012448053 0.027092816 0.006461149 -0.05683143 -0.02841558 -0.00749032
00000000: 275a 0dbc 2758 bdbb 5073 883b 0a55 1f3d
00000010: 24ab 573a 185c 23bd 833d afbd a260 063d
00000020: c911 30bb 521c 95bd 8a33 623c 89c9 9abb
00000030: 1810 f4bd 9dba 983c ce31 723c ba1d 2cbd
00000040: c895 4dbd 173c cb39 4a8f 9a3c 3161 4dbd
00000050: 700a d33b 34c2 91bd 342e 22bd cf39 0ebd
00000060: 6f5f e6bb a589 67bc ebf2 4bbc c1f1 dd3c
00000070: 0cb8 d33b 13c8 68bd cac7 e8bc 5c71 f5bb

module.encoder.c2.main.0.weight f4 [64, 32, 3, 3]
-0.009327045 -0.0027871912 0.041394275 0.009833689 -0.008353892 0.006166455 0.035468694 -0.0092945
0.030164389 0.0063516544 -0.0030967137 -0.034406643 0.019023115 -0.0021336053 -0.002443112 0.054795522
0.04362836 0.003516044 0.031115524 -0.02222165 -0.011168028 -0.005677375 -0.010245277 0.02836093
-0.026770303 0.0066681993 0.030297648 0.0044445824 0.005502387 0.007852634 -0.0018998043 -0.02010217
0.012432375 -0.021049239 -0.02922688 -0.01910914 -0.018520962 0.018769441 -0.00799167 -0.00051849795
0.06196955 0.017606707 -0.018561995 0.037519723 0.06404693 -0.0043711956 0.03750218 -0.01889206
0.020635497 0.013583494 -0.0147481235 0.033597797 -0.0031057526 0.018758297 -0.04584133 -0.049564704
-0.053858306 -0.07280137 0.011626611 -0.042900924 -0.042564657 -0.05730456 -0.045430306 -0.000611658
0.03305178 -0.01328387 -0.013327643 0.016554533 0.014578148 0.009317007 -0.0022853806 0.0021166343
-0.018660937 -0.008254464 -0.00072050054 0.008049662 0.034463637 -0.005720418 -0.0013309724 -0.0057998495
0.003977435 0.035485603 0.020832187 -0.012757996 -0.01097914 0.0023637733 0.028509775 -0.008952524
-5.7511425e-06 0.034142546 -0.002626228 0.015803808 -0.026616806 0.01612005 0.01634169 0.018475628
0.020373972 0.011043408 -0.034431018 0.006029421 0.039967783 0.032758 0.028688366 0.05389631
-0.016363228 -0.0087994095 0.013320091 -0.026224837 0.0067039104 0.011417805 0.049454805 -0.021756623
-0.051930998 -0.0046296776 0.04182729 -0.0093957465 -0.0037216756 -0.021103662 0.033296462 0.022896418
0.010444453 -0.0051081786 0.06364596 0.022937534 0.03547845 -0.01605627 -0.011993046 0.0235666
0.0045172987 -0.037307147 0.043819055 0.037628416 -0.036680553 -0.0016882798 -0.010775663 -0.00014249777
-0.019333968 -0.018301006 -0.026079914 0.0004650706 0.03716644 -0.005384789 -0.02915665 -0.027105156
-0.0077668237 -0.024762064 0.029860152 0.013403057 0.029118214 0.038655244 -0.0027887896 0.031757504
0.018562106 -0.011838483 0.03887556 0.016268991 0.054775596 0.018962458 0.030000377 0.020441761
0.00904871 0.0040198388 -0.058706153 -0.0019820044 -0.011279241 0.009401121 -0.0065414943 0.01680839
-0.015184514 -0.00793523 0.023801763 -0.033472847 -0.042803306 -0.05144852 -0.03269315 -0.024127267
-0.013484564 -0.047782227 -0.0063999263 -0.012522294 -0.015337354 0.023050142 -0.024948599 -0.009945255
-0.035812162 -0.05941518 -0.023366593 -0.034619007 -0.02025647 -0.05720278 -0.02123806 -0.056515146
-0.010200453 -0.010075141 -0.04781697 -0.0016472841 -0.01506806 -0.014392215 -0.04866633 -0.04508648
-0.00438805 -0.0494835 -0.0034816128 -0.031512067 -0.015013349 0.03488861 0.005183358 -0.010862909
-0.024064152 -0.005330494 0.020954996 -0.030086739 -0.037446264 -0.016097708 -0.012442929 -0.0023841532
-0.018582642 0.027770128 -0.040374715 -0.008911461 0.010096264 -0.028469952 -0.023495495 -0.0050920337
0.02252547 0.01047003 0.015324258 0.0115640825 -0.008447406 -0.03050879 0.03479145 0.03929956
0.049161255 0.0699686 0.024961561 -0.00475223 -0.005527559 -0.0076004486 -0.008835848 0.012695698
0.018627958 0.012093287 -0.007767098 -0.04700251 -0.062916495 -0.050854526 -0.032346334 -0.073463
-0.039500948 -0.060855273 -0.049758278 -0.039882276 0.0032583922 -0.05451633 -0.015911406 -0.032223444
00000000: 76d0 18bc 4fa9 36bb 0b8d 293d 7b1d 213c
00000010: c3de 08bc f90f ca3b 9f47 113d f547 18bc
00000020: 4f1b f73c 8a21 d03b 3cf2 4abb fbed 0cbd
00000030: 5dd6 9b3c f5d3 0bbb 9e1c 20bb 4571 603d
00000040: a7b3 323d 6e6d 663b fce5 fe3c 2e0a b6bc
00000050: 1bfa 36bc 4609 babb cedb 27bc 2e55 e83c
00000060: 654d dbbc e980 da3b c632 f83c dca3 913b
00000070: 5e4d b43b 56a8 003c db02 f9ba 4ead a4bc
00000080: 29b1 4b3c 746f acbc 366d efbc c58a 9cbc
00000090: 46b9 97bc 5fc2 993c 7eef 02bc cfeb 07ba
000000a0: c8d3 7d3d f13b 903c 530f 98bc 48ae 193d
000000b0: 092b 833d 3f3c 8fbb e39b 193d 85c3 9abc
000000c0: c60b a93c 4e8d 5e3c 1da2 71bc d89d 093d
000000d0: e289 4bbb 00ab 993c 1ec4 3bbd 5c04 4bbd
000000e0: 879a 5cbd e218 95bd 8b7d 3e3c e1b8 2fbd
000000f0: 4758 2ebd 30b8 6abd 2115 3abd ac57 20ba
00000100: 4e61 073d 97a4 59bc 305c 5abc 5f9d 873c
00000110: 2fd9 6e3c 5ca6 183c 53c6 15bb 3bb7 0a3b
00000120: d2de 98bc bb3d 07bc f9df 3cba bbe2 033c
00000130: be29 0d3d 5872 bbbb 0674 aeba aa0c bebb
00000140: 2555 823b 5a59 113d 43a8 aa3c ea06 51bc
00000150: dae1 33bc 89e9 1a3b 558d e93c 9bad 12bc
00000160: f0f9 c0b6 0ed9 0b3d cb1c 2cbb fd76 813c
00000170: 7d0b dabc 320e 843c 02df 853c 335a 973c
00000180: 51e7 a63c 69ef 343c 8a07 0dbd 7392 c53b
00000190: 42b5 233d 412d 063d dd03 eb3c 61c2 5c3d
000001a0: 2d0c 86bc 662b 10bc 833c 5a3c 78d5 d6bc
000001b0: 7aac db3b bf11 3b3c 1f91 4a3d f23a b2bc
000001c0: 99b5 54bd 8db4 97bb 1853 2b3d 9ef0 19bc
000001d0: 5be7 73bb 96e1 acbc df61 083d 4591 bb3c
000001e0: 361f 2b3c 8262 a7bb d058 823d 7fe7 bb3c
000001f0: da51 113d 7088 83bc 7b7e 44bc be0e c13c
00000200: d905 943b 61cf 18bd 9c7b 333d 4120 1a3d
00000210: 593e 16bd 4549 ddba 688c 30bc 746b 15b9
00000220: 4562 9ebc feeb 95bc 8ba5 d5bc b8d4 f339
00000230: d63b 183d e272 b0bb edd9 eebc a20b debc
00000240: d780 febb d0d9 cabc 479d f43c 7f98 5b3c
00000250: 5289 ee3c f654 1e3d 20c4 36bb 2814 023d
00000260: 8f0f 983c 32f6 41bc fb3b 1f3d 8c46 853c
00000270: 605c 603d 2857 9b3c 5ac3 f53c 7b75 a73c
00000280: 0a41 143c dab8 833b dd75 70bd 84e4 01bb
00000290: 91cc 38bc 2907 1a3c 085a d6bb c0b1 893c
000002a0: 78c8 78bc c402 02bc eafb c23c d31a 09bd
000002b0: 8552 2fbd afbb 52bd 41e9 05bd 8ca6 c5bc
000002c0: 5cee 5cbc 4cb7 43bd 79b6 d1bb 4f2a 4dbc
000002d0: 8649 7bbc a7d3 bc3c 0161 ccbc 6cf1 22bc
000002e0: c6af 12bd 555d 73bd 4c6b bfbc a9cc 0dbd
000002f0: e6f0 a5bc 764d 6abd 71fb adbc 6d7c 67bd
00000300: cd1f 27bc 3412 25bc badb 43bd afe9 d7ba
00000310: 06e0 76bc 53cd 6bbc 5856 47bd 9aac 38bd
00000320: a2c9 8fbb 36af 4abd c52b 64bb cc12 01bd
00000330: 8dfa 75bc 5ce7 0e3d 29d9 a93b 58fa 31bc
00000340: 2f22 c5bc 6dab aebb d0a9 ab3c 7778 f6bc
00000350: 4161 19bd 57df 83bc 6ddd 4bbc 743f 1cbb
00000360: a03a 98bc 2e7e e33c f55f 25bd 6001 12bc
00000370: cd6a 253c d139 e9bc a079 c0bc 13db a6bb
00000380: 5687 b83c 7d8a 2b3c 9912 7b3c 4777 3d3c
00000390: fd66 0abc 92ed f9bc 7b81 0e3d 93f8 203d
000003a0: 505d 493d b34b 8f3d 307c cc3c 98b8 9bbb
000003b0: 8720 b5bb 2f0d f9bb 3cc4 10bc 9e01 503c
000003c0: a999 983c ec22 463c 2483 febb b485 40bd
000003d0: 5dda 80bd d64c 50bd 977d 04bd c573 96bd
000003e0: bfcb 21bd 6143 79bd 56cf 4bbd 995b 23bd
000003f0: c08a 553b 844c 5fbd a358 82bc bbfc 03bd

module.encoder.c2.main.0.bias f4 [64]
4.0405967e-06 6.833918e-07 4.7758367e-06 -5.749591e-06 7.4646564e-06 1.3522416e-06 -5.776883e-07 1.205346e-06
-1.6535291e-06 7.5980306e-06 6.5053687e-06 5.5404603e-06 -9.512766e-06 -3.0739623e-06 -2.823106e-06 4.3213745e-06
4.704435e-06 4.2351703e-06 -3.455756e-06 5.4207535e-06 -3.9757592e-06 1.0949999e-05 -7.427671e-06 -2.4800606e-06
6.1234923e-06 2.0680002e-06 -5.2813806e-07 -1.811301e-07 3.1451698e-06 7.2141047e-06 3.4387747e-06 -6.333835e-07
-9.891456e-07 1.074087e-05 -1.4589801e-06 6.451134e-06 -1.7420338e-06 3.4931983e-07 -8.3780145e-07 1.386049e-06
9.149159e-06 -3.642512e-06 2.2935826e-06 -6.2020745e-06 -1.8176718e-06 -1.1181287e-06 1.7071969e-07 1.9351457e-06
1.9878e-06 5.1240404e-06 2.7368617e-07 -1.9124436e-06 2.6566108e-06 -7.7988425e-06 3.0248386e-06 1.7807525e-07
2.1016638e-06 3.9281213e-06 9.572862e-06 4.0349073e-06 5.0423837e-06 -1.1230122e-05 -1.3124962e-06 -7.4984763e-07
00000000: 7694 8736 5472 3735 2040 a036 9cec c0b6
00000010: e978 fa36 ab7e b535 7012 1bb5 60c7 a135
00000020: d4ee ddb5 96f2 fe36 b148 da36 31e8 b936
00000030: 0599 1fb7 454a 4eb6 9774 3db6 5300 9136
00000040: cada 9d36 d61b 8e36 70e9 67b6 ebe3 b536
00000050: 8367 85b6 e3b5 3737 353b f9b6 1e6f 26b6
00000060: 6678 cd36 f9c7 0a36 5fc5 0db5 aa7c 42b4
00000070: 9b11 5336 b010 f236 b3c5 6636 c805 2ab5
00000080: c9c2 84b5 af33 3437 2dd2 c3b5 d276 d836
00000090: d3cf e9b5 278a bb34 47e5 60b5 4808 ba35
000000a0: 577f 1937 e171 74b6 73eb 1936 6a1b d0b6
000000b0: baf6 f3b5 9c12 96b5 124f 3734 8ddd 0136
000000c0: 2566 0536 2cef ab36 24ef 9234 8857 00b6
000000d0: 3a48 3236 c6d7 02b7 55fe 4a36 f434 3f34
000000e0: 4f0a 0d36 4ece 8336 219b 2037 9763 8736
000000f0: bf31 a936 0269 3cb7 0729 b0b5 2349 49b5

module.encoder.c2.main.1.weight f4 [64]
1.0115165 1.056025 0.9483402 1.0171765 1.0080137 0.9724774 0.9486428 0.9566778
1.0433381 0.986531 1.016222 1.0208914 0.98222303 0.99280876 0.9277311 1.0272636
0.9698685 0.95878035 1.0415641 1.034205 0.9849095 0.98985374 1.0401174 1.0008568
1.0385282 0.97765213 0.9719657 1.0230739 0.96067405 1.0040265 1.0378871 0.99477893
0.97611046 1.054872 1.009084 0.99033564 1.0061773 0.93598264 0.9699741 0.9463429
1.0628814 1.0127437 0.9472971 1.020518 0.97500205 0.94475853 0.98326075 0.9480705
1.039639 1.0754852 0.9920419 0.9677897 0.9544974 0.96883744 0.9792445 1.0615512
0.9630241 0.9718348 1.0116063 0.9812583 0.9784999 0.9976573 1.0089998 0.9761602
00000000: 5f79 813f d42b 873f 6cc6 723f d732 823f
00000010: 9806 813f 47f4 783f 41da 723f d6e8 743f
00000020: 1a8c 853f 4c8d 7c3f 9013 823f 92ac 823f
00000030: f872 7b3f b728 7e3f c97f 6d3f 607d 833f
00000040: 4d49 783f a172 753f f951 853f d460 843f
00000050: 0723 7c3f 0e67 7d3f 9122 853f 131c 803f
00000060: 7eee 843f 6947 7a3f bed2 783f 16f4 823f
00000070: bcee 753f f183 803f 7cd9 843f d5a9 7e3f
00000080: 60e2 793f 0c06 873f aa29 813f a386 7d3f
00000090: 6bca 803f 8f9c 6f3f 3950 783f 8743 723f
000000a0: 7f0c 883f 96a1 813f 1082 723f 55a0 823f
000000b0: bc99 793f b2db 713f fab6 7b3f c0b4 723f
000000c0: e412 853f 80a9 893f 75f6 7d3f 11c1 773f
000000d0: f159 743f bb05 783f c4af 7a3f e9e0 873f
000000e0: bf88 763f 2aca 783f 517c 813f be33 7b3f
000000f0: f87e 7a3f 7866 7f3f e826 813f a3e5 793f

module.encoder.c2.main.1.bias f4 [64]
-0.03977398 -0.04428815 -0.15767305 -0.08821304 -0.052046508 -0.07414435 -0.08411796 -0.106520884
-0.06529048 -0.07200733 -0.09545442 -0.083595596 -0.09366815 -0.07695185 -0.17457128 -0.061641335
-0.06724543 -0.11129512 -0.034222614 -0.112172455 -0.13126345 -0.05498782 -0.05249589 -0.074267484
-0.089641914 -0.10170314 -0.1062726 -0.048616536 -0.04240543 -0.08562277 -0.06635076 -0.15741034
-0.13813122 -0.04425264 -0.08529486 -0.1909049 -0.062121265 -0.108274505 -0.085158646 -0.14394711
-0.07182863 -0.090261176 -0.0695594 -0.08605032 -0.17037097 -0.10731568 -0.098980166 -0.103060216
-0.05146557 -0.04286002 -0.05301727 -0.14409916 -0.07495254 -0.15320854 -0.07244754 -0.0649342
-0.057278674 -0.14769612 -0.07332748 -0.085770115 -0.033014767 -0.060619935 -0.08506033 -0.05087618
00000000: 0aea 22bd 7e67 35bd 0b75 21be 0aa9 b4bd
00000010: b82e 55bd fed8 97bd 0946 acbd 9f27 dabd
00000020: 04b7 85bd 9478 93bd 9b7d c3bd 2b34 abbd
00000030: 16d5 bfbd ee98 9dbd d0c2 32be a07b 7cbd
00000040: f9b7 89bd b2ee e3bd 032d 0cbd acba e5bd
00000050: ed69 06be e93a 61bd ee05 57bd 8d19 98bd
00000060: 2e96 b7bd bc49 d0bd 73a5 d9bd 2222 47bd
00000070: 51b1 2dbd fe5a afbd e8e2 87bd 2d30 21be
00000080: 4572 0dbe 4242 35bd 12af aebd 937c 43be
00000090: de72 7ebd 06bf ddbd a867 aebd df66 13be
000000a0: e41a 93bd dada b8bd 2975 8ebd 263b b0bd
000000b0: ba75 2ebe 53c8 dbbd 1db6 cabd 3c11 d3bd
000000c0: 90cd 52bd fd8d 2fbd a328 59bd bb8e 13be
000000d0: b880 99bd b3e2 1cbe 605f 94bd 39fc 84bd
000000e0: 0b9d 6abd a73d 17be b82c 96bd 3ea8 afbd
000000f0: 7e3a 07bd 9c4c 78bd 1c34 aebd 8b63 50bd

module.encoder.c2.main.3.weight f4 [64, 64, 3, 3]
0.01185356 0.0034629114 -0.009592979 0.041868396 -0.02280708 0.008023137 0.00691145 -0.01748892
-0.0075274934 0.008764999 0.018050762 0.029825285 -0.019726181 0.0007509623 -0.009677808 -0.063151106
-0.024937863 0.0018451808 -0.0026122371 -0.0055844192 -0.03965459 0.029250143 0.0010373853 -0.0069135544
0.018269882 0.0035755925 -0.0059088846 -0.010483296 0.015488366 -0.019444454 -0.009690566 -0.037670873
-0.05938266 0.027537925 0.036036454 0.0087660365 0.061397597 0.057167724 0.0210561 -0.018767286
0.009422621 -0.039307497 -0.007062765 0.032343972 -0.017238365 -0.045831352 0.013238146 -0.0549299
0.0054662516 -0.0132459225 0.006298382 0.0019883804 -0.036814936 -0.028029483 0.01446039 -0.006455517
0.026487725 -0.030598149 -0.015278358 0.029569296 0.004286871 0.01148682 0.014157965 -0.01884531
-0.03943398 -0.015249924 0.019657936 0.009921213 0.014902811 0.03846473 -0.017305966 -0.013397957
0.04924964 0.045205887 0.01280564 -0.028619466 -0.024430592 -0.055326466 0.098909214 0.07059796
0.036495633 0.049245957 0.059456136 0.027081218 -0.061176043 -0.018536087 -0.010597903 -0.00845345
-0.02291298 0.024588896 0.0037836055 0.006883418 -0.043784764 -0.004864016 -0.08174022 -0.04194252
-0.07477016 -0.028502718 -0.008397762 0.040870838 0.03148465 0.015325498 0.0062009236 0.015288511
0.017000318 0.009563909 0.017581755 0.054627392 0.009364494 0.041644253 0.009142753 -0.0052418327
-0.02804586 -0.027783217 0.018079065 -0.029714046 -0.049758807 -0.021787453 0.007515649 -0.010868138
0.008463578 -0.0331323 -0.058547117 -0.029405681 -0.024123557 -0.011543786 -0.030888552 -0.037663747
-0.022921715 -0.055838168 -0.025590776 -0.058037326 0.032677926 0.016172647 -0.0071026483 -0.049427796
-0.04525092 -0.072956994 0.0044428227 -0.03681162 0.009549746 -0.020853922 -0.041984893 -0.0064724633
0.003508762 -0.03698519 0.013821852 0.0004776063 0.030039027 0.08077402 -0.004002913 -0.003602191
0.0028039878 0.060035374 0.025144516 0.07045849 0.015309724 0.009797458 0.013422766 -0.054617237
-0.03674568 -0.012071212 -0.035969883 0.04079448 0.016004266 -0.010044648 0.012323032 -0.008443333
-0.045730967 -0.002091448 0.022688702 0.021439211 0.016931381 0.027861238 -0.01389252 0.035528265
-0.05261547 -0.019994995 -0.0061908034 0.005326603 0.019946383 0.024442608 0.017811356 -0.025842357
-0.017762158 -0.05920986 -0.0032580637 -0.022662237 0.0063125384 -0.040719684 0.005953188 0.0025068463
0.023166563 -0.005820043 0.008756755 -0.02243897 -0.011585852 0.047050025 -0.021596048 0.035351813
0.025878891 0.006551355 -0.0019799978 -0.0016043584 1.9258387e-05 0.08588355 -0.008097508 -0.01066602
0.010737436 0.026154077 -0.0046415594 -0.009493059 0.0058590146 -0.03200977 -0.021493599 0.015582471
-0.02603452 -0.04334055 -0.023074156 -0.013420197 -0.015365048 -0.00825818 -0.026619641 0.016753672
-0.013181061 0.0044702254 0.004387936 0.003986246 -0.027730921 -0.03605959 0.020588016 -0.04922489
-0.039670445 -0.04554368 0.008607427 -0.0031383482 -0.0129579585 0.019861398 0.023882646 0.0001024373
0.008345607 -0.027339557 0.010214249 0.038708992 0.01256025 0.0496337 0.0071884366 -0.02653385
-0.012477392 0.06353627 0.05576058 -0.014538326 0.026650298 -0.011858299 -0.005926967 -0.05660347
00000000: 6f35 423c 03f2 623b df2b 1dbc 327e 2b3d
00000010: ead5 babc 7a73 033c 7279 e23b ec44 8fbc
00000020: 31a9 f6bb 129b 0f3c 31df 933c 2854 f43c
00000030: cd98 a1bc 3adc 443a ab8f 1ebc 5e55 81bd
00000040: 7d4a ccbc fed9 f13a 1132 2bbb 81fd b6bb
00000050: da6c 22bd ff9d ef3c e0f8 873a 198b e2bb
00000060: b8aa 953c 7d54 6a3b 519f c1bb 21c2 2bbc
00000070: eac2 7d3c fa49 9fbc 2ec5 1ebc c64c 1abd
00000080: 3b3b 73bd 3797 e13c f69a 133d 6c9f 0f3c
00000090: 0c7c 7b3d b428 6a3d d87d ac3c dabd 99bc
000000a0: 5661 1a3c e600 21bd c46e e7bb 1d7b 043d
000000b0: 7937 8dbc a8b9 3bbd cfe4 583c 2dfe 60bd
000000c0: 3e1e b33b 6d05 59bc a862 ce3b 7d4f 023b
000000d0: 42cb 16bd 169e e5bc 46eb 6c3c cd88 d3bb
000000e0: c9fc d83c f8a8 fabc 1452 7abc 4f3b f23c
000000f0: e178 8c3b 3733 3c3c cff6 673c 7b61 9abc
00000100: 8685 21bd d1da 79bc ae09 a13c 958c 223c
00000110: eb2a 743c 318d 1d3d 3ec5 8dbc 1b83 5bbc
00000120: feb9 493d cf29 393d bfce 513c 5f73 eabc
00000130: aa22 c8bc 019e 62bd ea90 ca3d aa95 903d
00000140: 727c 153d 21b6 493d 4788 733d 6ed9 dd3c
00000150: bb93 7abd fed8 97bc d4a2 2dbc 5780 0abc
00000160: 00b4 bbbc a76e c93c 5ef6 773b 4c8e e13b
00000170: a757 33bd 5362 9fbb 6b67 a7bd ebcb 2bbd
00000180: 1921 99bd 887e e9bc c496 09bc 2e68 273d
00000190: 0cf6 003d cc17 7b3c 1e31 cb3b aa7c 7a3c
000001a0: 4044 8b3c f1b1 1c3c 9d07 903c f9c0 5f3d
000001b0: 896d 193c 2a93 2a3d 7ccb 153c aec3 abbb
000001c0: 6ec0 e5bc a199 e3bc 8c1a 943c df6a f3bc
000001d0: e4cf 4bbd 9a7b b2bc d545 f63b 4610 32bc
000001e0: d2aa 0a3c bcb5 07bd 1acf 6fbd 2fe4 f0bc
000001f0: c49e c5bc 2622 3dbc fd09 fdbc 4d45 1abd
00000200: 52c6 bbbc 90b6 64bd bfa3 d1bc 8cb8 6dbd
00000210: 4ad9 053d 807c 843c 55bd e8bb cd74 4abd
00000220: 0759 39bd 7a6a 95bd 1995 913b c8c7 16bd
00000230: 8a76 1c3c d8d5 aabc 5af8 2bbd f516 d4bb
00000240: 42f3 653b c87d 17bd 0d75 623c 3c67 fa39
00000250: 6814 f63c d96c a53d de2a 83bb bd12 6cbb
00000260: 1cc3 373b a7e7 753d dffb cd3c 8a4c 903d
00000270: a3d5 7a3c 8485 203c 29eb 5b3c 53b6 5fbd
00000280: a382 16bd 55c6 45bc 2855 13bd 1d18 273d
00000290: 611b 833c 4f92 24bc 8be6 493c e855 0abc
000002a0: 6550 3bbd ad10 09bb a8dd b93c 49a1 af3c
000002b0: aeb3 8a3c 403d e43c 749d 63bc 1686 113d
000002c0: 5283 57bd 8bcc a3bc 39dc cabb c98a ae3b
000002d0: 9966 a33c dd3b c83c 1fe9 913c 5ab3 d3bc
000002e0: f281 91bc 0a86 72bd 3d85 55bb 28a6 b9bc
000002f0: 69d9 ce3b afc9 26bd f612 c33b e749 243b
00000300: cec7 bd3c 0fb6 bebb 7e78 0f3c eed1 b7bc
00000310: 96d2 3dbc 87b7 403d 32ea b0bc 10cd 103d
00000320: f8ff d33c c0ac d63b dac2 01bb 5649 d2ba
00000330: 128d a137 b7e3 af3d 69ab 04bc 88c0 2ebc
00000340: 12ec 2f3c 1341 d63c 3918 98bb c688 1bbc
00000350: fafc bf3b ad1c 03bd 5813 b0bc 9f4d 7f3c
00000360: 5846 d5bc dc85 31bd 0306 bdbc 63e0 5bbc
00000370: afbd 7bbc 514d 07bc 6f11 dabc ff3e 893c
00000380: 60f5 57bc f87a 923b adc8 8f3b 0e9f 823b
00000390: f52b e3bc 38b3 13bd 33a8 a83c 0aa0 49bd
000003a0: 7a7d 22bd 038c 3abd 2a06 0d3c bfac 4dbb
000003b0: 9e4d 54bc 5fb4 a23c 8aa5 c33c 9bd3 d638
000003c0: 03bc 083c 35f7 dfbc aa59 273c 528d 1e3d
000003d0: 82c9 4d3c b54c 4b3d fa8c eb3b 845d d9bc
000003e0: fa6d 4cbc 4e1f 823d 3565 643d 2932 6ebc
000003f0: ba51 da3c 5049 42bc 0137 c2bb 0ad9 67bd

module.encoder.c2.main.3.bias f4 [64]
-2.7653664e-06 -5.284549e-07 -2.0172386e-07 1.4738641e-06 9.364505e-06 -2.0394393e-06 -3.433282e-07 7.6632443e-07
-2.7274064e-06 3.139908e-06 7.377055e-07 6.948752e-07 -2.4143499e-06 1.3983197e-07 4.8205374e-07 -2.9482442e-06
1.6339343e-06 1.4568815e-07 5.800113e-07 -3.7637058e-06 -2.8191496e-06 -1.3586043e-08 7.55562e-07 -1.539486e-06
-1.6442356e-06 8.556112e-07 -3.6193983e-06 -5.3308946e-07 5.0567905e-07 -4.043604e-07 4.3738323e-06 1.4772563e-07
-4.1913754e-06 1.0206429e-06 8.261415e-07 -3.1034672e-06 1.4001441e-06 -7.7641306e-07 -2.3733533e-06 2.881344e-06
8.028746e-07 1.94468e-06 9.842402e-07 7.693078e-07 -3.727302e-07 4.575021e-06 -2.6251723e-06 -1.0666942e-06
5.796868e-07 -8.796332e-07 -6.526616e-07 -4.169721e-06 -1.3549712e-06 2.349227e-06 -5.5498407e-07 -3.8923067e-06
7.029802e-07 -9.649546e-07 9.635629e-07 -1.046747e-06 2.3162536e-06 1.3323562e-07 -1.2504324e-06 3.2503184e-08
00000000: a294 39b6 25db 0db5 6f99 58b4 96d1 c535
00000010: 3e1c 1d37 4ddd 08b6 ab52 b8b4 6ab5 4d35
00000020: 7c08 37b6 35b7 5236 bc06 4635 7687 3a35
00000030: 3706 22b6 b824 1634 7b66 0135 73da 45b6
00000040: 8e4d db35 746e 1c34 13b2 1b35 f993 7cb6
00000050: 9f30 3db6 0d68 69b2 d3d1 4a35 56a0 ceb5
00000060: 81af dcb5 27ad 6535 cae4 72b6 a119 0fb5
00000070: 00be 0735 df16 d9b4 efc2 9236 839e 1e34
00000080: a4a3 8cb6 06fd 8835 03c4 5d35 2945 50b6
00000090: 96ec bb35 b36a 50b5 e645 1fb6 1d5d 4136
000000a0: 1f85 5735 5981 0236 3c1a 8435 6e82 4e35
000000b0: a61b c8b4 2283 9936 1e2c 30b6 552b 8fb5
000000c0: c69b 1b35 ef1f 6cb5 9032 2fb5 a1e9 8bb6
000000d0: 75dc b5b5 6aa7 1d36 37fa 14b5 a99a 82b6
000000e0: 6eb4 3c35 9683 81b5 c553 8135 f47d 8cb5
000000f0: ef70 1b36 870f 0f34 88d4 a7b5 a199 0b33

module.encoder.c2.main.4.weight f4 [64]
1.0250071 0.970158 1.0656779 1.0113382 1.010614 1.0097849 0.97464997 0.9927659
0.9979625 0.99096 0.99696547 1.0136421 1.0182194 0.9882542 0.9958372 0.9958623
0.9975087 0.9580302 0.9949213 0.9738332 1.0210668 0.9920422 1.0054995 1.0180751
0.99521965 0.97708863 0.99464184 1.0234919 1.006328 0.98696613 0.99068415 0.96449214
0.9955346 0.99525756 1.0147488 1.0423467 1.0198498 1.0110275 0.9709212 1.0031914
0.97008175 1.0039177 0.98111314 0.998306 0.97044057 1.0025777 1.0167388 0.9946757
0.9998364 0.9768939 0.9677475 1.0013454 0.99693596 1.0078033 0.98978436 0.9959907
1.0065349 1.0039458 0.941224 1.0323596 0.9815186 1.019257 1.0416247 1.0497965
00000000: 6f33 833f 465c 783f 2268 883f 8873 813f
00000010: cd5b 813f a240 813f a982 793f e825 7e3f
00000020: 787a 7f3f 8eaf 7d3f 2139 7f3f 06bf 813f
00000030: 0355 823f 3afe 7c3f 30ef 7e3f d5f0 7e3f
00000040: bb5c 7f3f 7841 753f 2ab3 7e3f 224d 793f
00000050: 51b2 823f 7af6 7d3f 35b4 803f 4950 823f
00000060: b7c6 7e3f 7b22 7a3f d9a0 7e3f c801 833f
00000070: 5bcf 803f d0a9 7c3f 7a9d 7d3f f5e8 763f
00000080: 5bdb 7e3f 33c9 7e3f 4ae3 813f 9e6b 853f
00000090: 708a 823f 5969 813f 4b8e 783f 9368 803f
000000a0: 4757 783f 6080 803f 3b2a 7b3f fb90 7f3f
000000b0: cb6e 783f 7754 803f 7f24 823f 11a3 7e3f
000000c0: 47f5 7f3f b815 7a3f 4dbe 773f 162c 803f
000000d0: 3237 7f3f b3ff 803f 8262 7d3f 3ff9 7e3f
000000e0: 23d6 803f 4c81 803f 0ef4 703f 5c24 843f
000000f0: ce44 7b3f 0377 823f f553 853f bb5f 863f

module.encoder.c2.main.4.bias f4 [64]
-0.028987125 -0.11504597 -0.04122371 -0.06714716 -0.047903977 -0.09929013 -0.0911021 -0.06654669
-0.1097293 -0.06672051 -0.08798255 -0.06947759 -0.09370188 -0.055841025 -0.04149459 -0.049866274
-0.03772586 -0.12463903 -0.083854504 -0.109301776 -0.14131592 -0.13887839 -0.13292147 -0.03193575
-0.078024596 -0.07247105 -0.051753316 -0.10651496 -0.03002929 -0.04617512 -0.03224989 -0.086179525
-0.11962694 -0.06855747 -0.06699151 -0.027363662 -0.042204123 -0.0913964 -0.050433505 -0.08346145
-0.1338536 -0.042308103 -0.090998895 -0.05744108 -0.14446324 -0.0652253 -0.04534122 -0.07184352
-0.07582279 -0.07873573 -0.10359856 -0.063880384 -0.09176429 -0.022651866 -0.115448944 -0.13601188
-0.051440056 -0.11632703 -0.12712659 -0.06495854 -0.11831075 -0.10083169 -0.10694436 -0.02527231
00000000: 6876 edbc 399d ebbd 31da 28bd 7384 89bd
00000010: f636 44bd a058 cbbd bd93 babd a249 88bd
00000020: c1b9 e0bd c3a4 88bd 3230 b4bd 444a 8ebd
00000030: c5e6 bfbd 8fb9 64bd 3bf6 29bd 9440 4cbd
00000040: 6e86 1abd bf42 ffbd e9bb abbd 9cd9 dfbd
00000050: 1fb5 10be 2336 0ebe 911c 08be 10cf 02bd
00000060: 5ccb 9fbd b46b 94bd 49fb 53bd 8424 dabd
00000070: fcff f5bc 1f22 3dbd 7618 04bd e47e b0bd
00000080: f8fe f4bd dc67 8cbd d832 89bd c229 e0bc
00000090: 3bde 2cbd 092e bbbd 5d93 4ebd d6ed aabd
000000a0: eb10 09be 434b 2dbd a15d babd 5747 6bbd
000000b0: 2cee 13be d894 85bd b7b7 39bd b222 93bd
000000c0: fb48 9bbd 3340 a1bd 7b2b d4bd b8d3 82bd
000000d0: ebee bbbd 6890 b9bc 7f70 ecbd b346 0bbe
000000e0: cfb2 52bd de3c eebd 792d 02be fc08 85bd
000000f0: e84c f2bd d880 cebd a505 dbbd e007 cfbc

module.encoder.c3.0.weight f4 [32, 64, 3, 3]
0.021432785 0.01458082 0.010753818 0.01795296 -0.03280255 -0.00947496 0.026963858 0.04318416
0.020305209 0.012478807 0.018817605 0.0013022049 0.0039191484 -0.010471347 -0.017638108 -0.034579437
-0.011376617 -0.011677694 -0.030916551 -0.04215919 -8.146979e-05 0.055385206 0.023140166 0.04784541
0.038755517 0.052729364 -0.06772943 -0.06465074 -0.0860956 -0.020950036 0.054221213 -0.009266877
0.008044734 0.03066135 0.0065613217 0.008669266 -0.013183095 -0.009005333 -0.047406163 -0.0036884192
0.050061174 0.032961134 -0.02912075 -0.0046174196 -0.0075070746 -0.0036543494 0.02802355 -0.014561275
0.024614044 -0.01901482 0.0061984793 -0.018870933 0.020910323 -0.04385342 -0.028299605 -0.011144403
-0.040915113 -0.030441774 -0.01730378 -0.04355263 0.033575267 0.028469648 0.030016284 0.007689939
0.06314585 0.038073 -0.03954245 0.019595025 -0.021215549 0.012453267 -0.0003854967 0.032821547
-0.02233117 -0.007455041 -0.009464865 -0.06429797 -0.029911539 0.0015243664 -0.0133056035 0.029906312
0.044840414 -0.011620472 -0.0108169485 -0.026040437 -0.0036947273 0.013342211 0.030586338 0.0052468656
0.022293288 0.0013086607 -0.01921271 0.03260127 -0.03664775 -0.007104085 0.020040538 -0.045540024
-0.0062493673 0.021607295 0.009394527 -0.030057542 0.04291526 0.055638056 0.036496103 0.07090874
0.08611346 0.029463617 -0.008783868 0.019226145 -0.010214476 -0.016285978 -0.021713873 -0.050383624
-0.050008632 -0.0026145806 -0.0005694959 -0.013995699 0.018726246 0.027391251 -0.010357167 0.008273488
0.03888015 0.025573129 0.03774175 -0.0020065599 -0.015927661 -0.03549797 -0.038987614 -0.01326226
-0.0015858471 -0.019328626 0.02202995 0.0031119275 -0.078448355 0.00055779296 -0.008413732 -0.01963875
-0.012107734 -0.0051588393 0.054870415 0.0404003 -0.00035933548 0.01991582 0.027748974 -0.025126318
0.02148789 0.0061660013 -0.018774036 -0.016345123 -0.023779903 0.0013986523 0.03579444 0.028282443
0.051840745 0.002974061 0.014146318 -0.0065847794 0.0019004227 0.054447796 -0.049932107 0.029509643
0.015020742 -0.05624615 -0.013975747 0.040562257 0.001704474 -0.010163559 0.0017933152 -0.001820292
-0.06538376 0.01575606 -0.058613706 -0.03121573 0.0013718427 0.0076067992 0.005449644 0.0038085917
0.017683093 -0.010992146 0.011049597 0.004514667 0.007862901 0.021786945 -0.009263676 0.05965869
0.006285507 -0.010662354 -0.048722446 0.021592952 -0.0513537 0.012925982 -0.011438088 0.003399503
0.014762042 -0.020465378 -0.027949935 0.011106161 0.022969034 -0.006388981 -0.028126758 -0.05788347
-0.010839879 0.036614057 -0.024128364 0.026987635 0.0072149932 -0.03100609 -0.03141288 -0.044075266
-0.07580759 -0.101482235 0.01703225 -0.0072727543 -0.034529682 0.018796254 -0.033224847 0.038911436
-0.05585457 -0.030491682 0.024680538 -0.037590094 0.006971676 -0.04427269 -0.06649205 -0.01732273
-0.012477011 0.004668492 -0.020698812 0.004359375 0.04201473 0.012927941 -0.017501608 0.011370102
0.007517116 -0.038061187 -0.05618092 -0.05866241 0.018647753 -0.01954759 0.0028115925 0.043383896
0.003637839 0.03673743 0.07129244 0.08327821 -2.4744912e-05 0.039078806 -0.040703323 0.006809336
0.0034457524 -0.009053119 -0.0045616194 -0.014306244 -0.08862055 -0.013753647 -0.01844806 -0.07554588
00000000: cf93 af3c 64e4 6e3c c830 303c 1612 933c
00000010: f75b 06bd dd3c 1bbc 4fe3 dc3c e0e1 303d
00000020: 1c57 a63c e973 4c3c 6127 9a3c bfae aa3a
00000030: 336c 803b 0390 2bbc cb7d 90bc 2ba3 0dbd
00000040: fd64 3abc cc53 3fbc b544 fdbc 1daf 2cbd
00000050: c3da aab8 99db 623d 7290 bd3c 8cf9 433d
00000060: 1bbe 1e3d bffa 573d bab5 8abd 9b67 84bd
00000070: e452 b0bd 699f abbc 1017 5e3d 19d4 17bc
00000080: 0fce 033c 832d fb3c 5b00 d73b 8909 0e3c
00000090: e8fd 57bc 1b8b 13bc f72c 42bd 68b9 71bb
000000a0: f20c 4d3d 4102 073d a48e eebc b94d 97bb
000000b0: e8fd f5bb cf7d 6fbb a591 e53c 6a92 6ebc
000000c0: 64a3 c93c f8c4 9bbc 9d1c cb3b 3797 9abc
000000d0: 204c ab3c a59f 33bd 93d4 e7bc 0497 36bc
000000e0: 9b96 27bd 0761 f9bc a8c0 8dbc 3e64 32bd
000000f0: 3886 093d 2e39 e93c b6e4 f53c e2fb fb3b
00000100: 9d52 813d 6ff2 1b3d 44f7 21bd bf85 a03c
00000110: 3bcc adbc ca08 4c3c 7e1c cab9 e36f 063d
00000120: dcef b6bc 6b49 f4bb 8512 1bbc a7ae 83bd
00000130: 0b09 f5bc 40cd c73a bfff 59bc 15fe f43c
00000140: 95aa 373d cb63 3ebc 9239 31bc c152 d5bc
00000150: 3d23 72bb 4a99 5a3c 3390 fa3c e6ed ab3b
00000160: 6aa0 b63c 5e87 ab3a f963 9dbc e988 053d
00000170: f31b 16bd 62c9 e8bb 0e2c a43c 2d88 3abd
00000180: 7ec7 ccbb c801 b13c 81eb 193c 3c3b f6bc
00000190: e9c7 2f3d bbe4 633d f07c 153d 9a38 913d
000001a0: 415c b03d af5d f13c 36ea 0fbc 2680 9d3c
000001b0: 9e5a 27bc 2c6a 85bc 4be1 b1bc 0f5f 4ebd
000001c0: dad5 4cbd 6259 2bbb 394a 15ba 374e 65bc
000001d0: c967 993c 9e63 e03c 1bb1 29bc 868d 073c
000001e0: cb40 1f3d bd7e d13c 1897 1a3d 7d80 03bb
000001f0: ba7a 82bc 5266 11bd 7ab1 1fbd f349 59bc
00000200: 33dc cfba 1157 9ebc 2778 b43c 7bf1 4b3b
00000210: 88a9 a0bd da38 123a c0d9 09bc 72e1 a0bc
00000220: 845f 46bc 7b0b a9bb cdbf 603d c97a 253d
00000230: 3165 bcb9 8026 a33c d151 e33c b5d5 cdbc
00000240: 5f07 b03c 2b0c ca3b 02cc 99bc 35e6 85bc
00000250: 12ce c2bc fc52 b73a 319d 123d 95b0 e73c
00000260: f656 543d 77e8 423b f5c5 673c 22c5 d7bb
00000270: 9b17 f93a a704 5f3d 9c85 4cbd 35be f13c
00000280: 8f19 763c 5d62 66bd 88fa 64bc 9c24 263d
00000290: a868 df3a 0e85 26bc ac0d eb3a dd96 eeba
000002a0: ece7 85bd da12 813c ed14 70bd 21b8 ffbc
000002b0: 67cf b33a 7542 f93b ed92 b23b 9199 793b
000002c0: 22dc 903c 6718 34bc 5e09 353c c6ef 933b
000002d0: 66d3 003c 897a b23c acc6 17bc ac5c 743d
000002e0: a8f6 cd3b 27b1 2ebc 3091 47bd b4e3 b03c
000002f0: 4258 52bd 7fc7 533c d166 3bbc 32ca 5e3b
00000300: 7edc 713c 02a7 a7bc 43f7 e4bc 9ef6 353c
00000310: 8e29 bc3c a85a d1bb 166a e6bc 3817 6dbd
00000320: bf99 31bc 9ff8 153d d9a8 c5bc 2c15 dd3c
00000330: c06b ec3b 7c00 febc cbaa 00bd 4488 34bd
00000340: 0241 9bbd ebd5 cfbd 3887 8b3c 4950 eebb
00000350: ff6e 0dbd 9afa 993c c716 08bd 9961 1f3d
00000360: c3c7 64bd b1c9 f9bc d72e ca3c 12f8 19bd
00000370: a872 e43b 4857 35bd fc2c 88bd 66e8 8dbc
00000380: 616c 4cbc 26fa 983b 8e90 a9bc 17d9 8e3b
00000390: a317 2c3d b7cf 533c 885f 8fbc aa49 3a3c
000003a0: 2452 f63b 0ce6 1bbd f71d 66bd ff47 70bd
000003b0: 2cc3 983c 4422 a0bc b242 383b 50b3 313d
000003c0: d068 6e3b fd79 163d c501 923d c48d aa3d
000003d0: 4b93 cfb7 1911 203d 87b8 26bd da20 df3b
000003e0: 22d2 613b 8953 14bc a379 95bb bd64 6abc
000003f0: b17e b5bd fa56 61bc 6320 97bc ccb7 9abd

module.encoder.c3.0.bias f4 [32]
1.4700322e-07 5.963505e-07 -3.5105263e-08 5.7547754e-07 -4.7098705e-08 -9.439475e-08 2.2147746e-07 8.5831203e-07
-1.5553648e-07 -7.2469675e-08 7.3359445e-07 9.91891e-07 5.526575e-08 -2.9272522e-07 1.5847743e-06 -5.6293864e-08
9.4243603e-07 1.4781267e-06 3.732657e-08 5.9132975e-07 -2.0655692e-07 6.687447e-08 2.967337e-07 5.820659e-07
-9.987704e-07 5.166908e-07 1.4902298e-06 2.828726e-07 -8.9955313e-07 8.62266e-07 2.751416e-06 -1.0478775e-06
00000000: f0d7 1d34 e514 2035 a5c6 16b3 847a 1a35
00000010: 9349 4ab3 10b6 cab3 43cf 6d34 c166 6635
00000020: 8b01 27b4 a0a0 9bb3 3aec 4435 1e21 8535
00000030: 565d 6d33 d927 9db4 6eb4 d435 c2c7 71b3
00000040: b6fb 7c35 0c64 c635 ff50 2033 dfbb 1e35
00000050: efc9 5db4 a19c 8f33 c54e 9f34 443f 1c35
00000060: 7d0d 86b5 b9b2 0a35 e803 c835 b7dd 9734
00000070: d278 71b5 7876 6735 f8a4 3836 cca4 8cb5

module.encoder.c3.1.weight f4 [32]
1.2085598 1.1534604 1.0789163 1.0926763 1.0851736 1.0665984 1.0030636 1.1016804
1.0643528 1.1062981 1.0840554 1.1624165 1.1502097 1.1651775 1.1578008 1.1070662
1.0781822 1.0757906 1.1061113 1.146987 1.1757543 1.1186321 1.1721516 1.1658496
1.1815451 1.0853549 1.1027662 1.0935421 1.1158361 1.1578792 1.1325793 1.1307524
00000000: 16b2 9a3f 97a4 933f ee19 8a3f d1dc 8b3f
00000010: f8e6 8a3f 4c86 883f 6364 803f dd03 8d3f
00000020: b63c 883f 2d9b 8d3f 54c2 8a3f 10ca 943f
00000030: 123a 933f 8924 953f d132 943f 58b4 8d3f
00000040: e001 8a3f 82b3 893f 0e95 8d3f 78d0 923f
00000050: 1e7f 963f 562f 8f3f 1009 963f 8f3a 953f
00000060: df3c 973f e9ec 8a3f 7127 8d3f 30f9 8b3f
00000070: b8d3 8e3f 6335 943f 5cf8 903f 7fbc 903f

module.encoder.c3.1.bias f4 [32]
-0.12575135 0.0409725 -0.0646351 0.032390162 -0.07954107 -0.084073015 0.050487746 0.08175001
0.09630124 0.04366102 -0.034586653 -0.040495053 0.04132395 0.12110565 0.021973277 0.02014624
0.10464818 0.0732233 -0.052190103 -0.08622497 0.012925577 0.025097981 0.065236986 0.057344574
-0.033835564 0.004430486 0.024775784 -0.01266262 0.03752308 0.07677539 -0.026716629 0.025066378
00000000: f6c4 00be c8d2 273d 685f 84bd 8cab 043d
00000010: 6ee6 a2bd 792e acbd 3dcc 4e3d 8d6c a73d
00000020: 9639 c53d e6d5 323d bcaa 0dbd 24de 25bd
00000030: 4d43 293d 3d06 f83d 4d01 b43c ba09 a53c
00000040: c951 d63d 19f6 953d 4ac5 55bd b896 b0bd
00000050: cdc5 533c 489a cd3c f89a 853d 25e2 6a3d
00000060: 2997 0abd 9c2d 913b 96f6 ca3c e176 4fbc
00000070: cdb1 193d 6a3c 9d3d d5dc dabc 0158 cd3c

module.encoder.c3.1.running_mean f4 [32]
-0.6954103 -0.7891579 -0.9893993 -0.067204244 0.7799523 -0.30686668 0.31033802 -0.16890758
-0.6535661 0.8378347 -0.31724176 -0.26248816 -0.1253105 0.20718017 0.24318336 -0.32528827
0.39589673 0.11553767 0.06250439 0.24743846 -0.28787518 -0.10151743 -0.6380597 -0.16425717
-0.8827285 0.46828994 0.3007269 0.61332303 0.4809085 -0.11325245 -0.62803555 0.046318058
00000000: 6906 32bf 4106 4abf 4649 7dbf 61a2 89bd
00000010: f4aa 473f a11d 9dbe a0e4 9e3e 1cf6 2cbe
00000020: 1c50 27bf 567c 563f 836d a2be d964 86be
00000030: 6551 00be 0a27 543e 0f05 793e 2f8c a6be
00000040: fab2 ca3e 049f ec3d 4d02 803d 8260 7d3e
00000050: 6064 93be 5fe8 cfbd e157 23bf 0833 28be
00000060: 7ffa 61bf b3c3 ef3e e0f8 993e bd02 1d3f
00000070: a439 f63e e7f0 e7bd f0c6 20bf 01b8 3d3d
