logs/exp5/model_iters_45000.pth (torch, 495376 bytes, 47 tensors)

module.encoder.c1.main.0.weight f4 [32, 3, 3, 3]
00000000: 8b98 5ebc aefd 343b 33bc f4bb df46 febc
00000010: 7e29 483a b2b0 803b 7809 35bb 9ebc 033d
00000020: 0d9d f73c 677e b4bb 0dbe 55bd c013 cd3c
00000030: 204f 60bc be3c 833b 6f61 4e3d 1a62 9bb8
00000040: cb75 6b3b af6e 353c 1b5c 58bd 68b1 87bd
00000050: a64d d1bc 4632 87bd d8a1 8b3c 1d20 813d
00000060: abfc ac3c f35d 57bd 4a59 793d 0a60 37ba
00000070: b0e4 89bc eafb 833c 7be8 493c 921c f53c
00000080: 7d35 0c3d 99d7 b9bb e418 7d3c 8f8d 73bc
00000090: 2de4 ad3b 3bc4 5bbc 88b2 fabc 5450 12bc
000000a0: dfcd bdbb b70b 83bb 7792 563d 147c a83c
000000b0: 4a57 95bc b84a bbbb 7840 33bb 1283 db3c
000000c0: a840 033b c166 db3c d41e 0b3e 1ba2 4cbd
000000d0: 6252 2cbd 0442 7cbd d07d 013d 3185 48bd
000000e0: e460 46bc beec 593d c5ef 87b7 1336 b3bc
000000f0: 3479 bd3c da66 23bc 8eab 2d3c 41ab c0bc
00000100: 046e 41bd aa79 6e3b 8278 77bc afae 223d
00000110: b10c b03c 6b99 bd3a c6f1 2cbb eb65 fb3b
00000120: 92a3 70bd 7aec 123d 5cdf c63c c44f 2abd
00000130: e646 a5bd 0c4e 97bc 60d8 8cbd 28ad 783d
00000140: f13e 1f3c 3a6a 33bd 41d8 e6bc 0713 62bc
00000150: c7ce 37bc c7a3 0cbd ef4a 533c a20d 513c
00000160: 24ce 403b b2dc 5c3d 2f60 0bbd ef24 b4bc
00000170: de04 c0bc e296 8f3d 97f9 b7bb 8d8e 51bb
00000180: 364d a6bc cd67 f43c 21aa fd3b 97fb dbbc
00000190: f1a5 afbc 33c7 7abb 34ab 5abc 727b dabc
000001a0: 4aba 52bb 4511 29bd 0019 23bd b94d a93c
000001b0: 2290 c43c f789 7f3b 8ca4 e3bc 1200 27bc
000001c0: 919d 1f3b ef94 79bb ba0f b9bc 41b5 29bc
000001d0: 4af3 6cb9 082d 1dbd eaa1 67bd d7f6 93bc
000001e0: 829d 903c ca8a 7fbc 0bed bebb 38c7 593d
000001f0: f098 e93c c38e 953c cc0f 0abd 64a4 043d
00000200: c8c6 463d 46a8 593c 7fd7 513d 47ee e9bc
00000210: a536 c23a 435c 78bd deec 133c 8f84 323c
00000220: b9d7 05bd d65f c0bc 8586 d238 4322 013d
00000230: 9f0e a93c c7bd d7bc 86cf 1d3d 3e99 c23b
00000240: 48a2 5c3d fda1 ea3c ca04 f8bb a29f 0c3d
00000250: c14d 88bd 6fb3 6b3c 5d25 083c 0a30 12bd
00000260: bff4 03bd d53c b9bc 1f51 07bb 2b74 1f3d
00000270: 00ae 083c c995 8ebd 764f 8f3c 4f53 10bd
00000280: f9ea c7bb d74d ae3c 79c6 fab9 8b80 cf3b
00000290: 5e23 ed3b 6da4 e6bc 6795 b13a 4439 013d
000002a0: c94d 0dbd 2665 31bd 1ce9 3c3b 55de 623d
000002b0: 27b9 923b 93e8 993d 24b3 79bb 5e12 edbc
000002c0: 9cee b1bc bfb2 c6bc 14bd d1bc ff6d a5bc
000002d0: adc6 b9bc 480a 8fbd 1fa2 9fbb 1e13 623d
000002e0: a6b0 82bc f292 e6ba 8103 103d 759f 123c
000002f0: cfc0 03bc b3ef 8d3d 9150 ac3b 487a 21bd
00000300: ab86 923c fad5 f4ba 17bd da3b 32ae 53bc
00000310: 943d ea3b 4ff9 05bd a34a a8bd b819 e13b
00000320: b2c6 29bc b092 f43c 9435 563c 8f50 0e3d
00000330: 49b7 013d a58d bcbc 7994 c93a 084d a7bc
00000340: 1272 89ba a557 173d d890 653d b22d 903c
00000350: f875 473c cbb7 46bb cb23 adbd 83c2 b9bd
00000360: c659 d23c 65aa d2ba 8b8e c43b 89b9 ac3a
00000370: f8d4 1b3b e769 24bc 7194 803c afad bd3c
00000380: 7dd4 c4bc 4186 07bd abd9 5dbd 6a9e 1a3c
00000390: 6a72 dabc 7df7 773c 3313 483d 58bf 3b3a
000003a0: 0d13 a93c fa69 ab3c ee1c 8d3d 0fb1 0dbb
000003b0: 99f5 0a3c 3cf2 5ebd aece 20bd 24ce 0cbc
000003c0: bf3f 90bd a12b 94bd b456 3d3c e686 02bc
000003d0: f111 89bc 94c6 dbbc 4251 9bbc d103 33bb
000003e0: 13b8 04bd a84c 22bb ba73 3d3b eef9 513c
000003f0: ac01 973c 7477 b93b eeca 19bb 5257 663a
-0.013586174 0.0027617025 -0.007468724 -0.031039653 0.00076355773 0.0039273137 -0.0027624052 0.0321623
0.030226255 -0.0055082324 -0.0521832 0.025033832 -0.01369074 0.004005044 0.05038589 -7.409249e-05
0.0035928364 0.011073752 -0.052822214 -0.066256344 -0.025549721 -0.06601386 0.017044947 0.06304953
0.021116575 -0.05257983 0.06087617 -0.0006995207 -0.01683268 0.016111333 0.012323494 0.02992085
0.034230698 -0.005671453 0.015447829 -0.014865293 0.0053067417 -0.013413484 -0.030602708 -0.0089302845
-0.005792364 -0.0039991993 0.052385774 0.020566978 -0.0182301 -0.0057156943 -0.0027351659 0.026795898
0.0020027552 0.026782395 0.13585979 -0.049959283 -0.042070754 -0.061586395 0.031614125 -0.048955146
-0.012108061 0.05320429 -1.6204905e-05 -0.02187637 0.023129083 -0.009973252 0.010599984 -0.02351916
-0.04722406 0.0036388435 -0.015104415 0.039717373 0.021490427 0.0014465278 -0.0026389225 0.0076720617
-0.058749743 0.035870053 0.024276428 -0.041579977 -0.080701634 -0.018469833 -0.06877208 0.06071201
0.009719596 -0.043802477 -0.02817929 -0.013798482 -0.011218733 -0.034335878 0.0128962835 0.012759598
0.0029419744 0.05392141 -0.034027275 -0.021990268 -0.02343982 0.070112005 -0.00561447 -0.0031975836
-0.020300489 0.029834652 0.007741228 -0.026853366 -0.021441432 -0.0038265705 -0.013346482 -0.026670191
-0.0032154494 -0.041276235 -0.039818764 0.020666944 0.02399451 0.0038992146 -0.027788423 -0.010192888
0.0024355392 -0.0038083156 -0.022590507 -0.010358156 -0.00022597346 -0.038373023 -0.056550898 -0.018062038
0.01765323 -0.015597055 -0.0058265976 0.053168505 0.02851531 0.01825655 -0.03370647 0.032383338
0.048529416 0.013284748 0.051230904 -0.028556002 0.0014817311 -0.060634863 0.0090286415 0.010895862
-0.032676432 -0.023483198 0.000100386365 0.031526815 0.020636855 -0.02633561 0.038527988 0.005938678
0.0538657 0.028641695 -0.0075689303 0.034331925 -0.066554554 0.014386042 0.008309689 -0.035690345
-0.03221583 -0.022612015 -0.0020647717 0.038929146 0.008342266 -0.06962163 0.017493945 -0.0352357
-0.006101009 0.021277351 -0.0004783159 0.006332462 0.007236882 -0.028154576 0.0013548554 0.031548753
-0.03449801 -0.043309353 0.0028825467 0.055387814 0.0044776383 0.07515063 -0.003810116 -0.028939422
-0.021720223 -0.024255155 -0.025602855 -0.020194052 -0.022677744 -0.06984383 -0.0048716213 0.055194013
-0.015953373 -0.00175914 0.03515959 0.00894915 -0.008041575 0.069304846 0.0052586277 -0.039423257
0.01788648 -0.0018679493 0.0066753733 -0.012919949 0.007148454 -0.032708462 -0.08217361 0.006869521
-0.010362314 0.029855102 0.013074297 0.034744795 0.031668935 -0.02301676 0.0015379331 -0.020422474
-0.0010486266 0.03694882 0.056046337 0.017599914 0.012174122 -0.0030321951 -0.084540926 -0.09070303
0.025677573 -0.001607251 0.0059984378 0.0013177852 0.0023778062 -0.010035015 0.015695782 0.023154108
-0.024027104 -0.03308702 -0.054162662 0.009437183 -0.026665885 0.015134689 0.048846435 0.00071619963
0.020638967 0.020924557 0.068902835 -0.0021620428 0.008481407 -0.05443023 -0.039259605 -0.00859407
-0.070434086 -0.07234884 0.011556316 -0.007966733 -0.016732188 -0.026828088 -0.018959645 -0.0027315507
-0.03240211 -0.002476493 0.002890809 0.012815936 0.018433414 0.005659992 -0.0023466903 0.00087868155

module.encoder.c1.main.0.bias f4 [32]
00000000: aa54 2a39 bb2e 05b7 5f76 7cb9 49c0 7bb9
00000010: 9f03 dcb8 aac1 5f3a 8fd3 9bb7 8e49 0139
00000020: da32 b0b9 b0ce a0b9 c878 383a d041 cc38
00000030: 2ed5 9bb9 9009 93b7 bde8 a938 fa39 1e39
00000040: e22e 49b7 7cb6 0eba 7c78 91b8 9ef9 8eb9
00000050: c430 39b9 ca8e 6838 383d 0839 82c3 163a
00000060: 3e81 e3b9 8940 1b37 e074 1739 dae8 6a39
00000070: 123b 4f38 ea71 8db8 38fe 9139 9b7c c138
0.00016244003 -7.938298e-06 -0.0002407669 -0.00024008857 -0.00010491092 0.0008535633 -1.8575955e-05 0.000123298
-0.00033607223 -0.00030671572 0.0007037041 9.7397366e-05 -0.00029722735 -1.7528218e-05 8.101899e-05 0.00015089652
-1.1991449e-05 -0.00054440624 -6.936581e-05 -0.0002727033 -0.00017661141 5.5446093e-05 0.00012992776 0.0005751179
-0.00043393107 9.253746e-06 0.00014444022 0.00022402723 4.940766e-05 -6.744622e-05 0.00027845963 9.226167e-05

module.encoder.c1.main.1.weight f4 [32]
00000000: 7aa9 833f d216 823f b539 763f 9946 793f
00000010: f0a8 843f 6818 803f a6cb 803f c8e1 7e3f
00000020: 904d 733f 9aee 813f 710d 833f 2ee1 7c3f
00000030: 4c83 8a3f 9887 823f c374 7b3f c051 7b3f
00000040: 9595 663f 7b4f 803f a9c4 763f 585e 7f3f
00000050: 33fc 763f 46b5 853f ad90 7b3f b138 883f
00000060: 5098 773f c6c3 803f 565e 7e3f 2b0f 813f
00000070: a073 7a3f 0497 6b3f 60e1 803f 5e0d 6c3f
1.0286095 1.0163214 0.96181804 0.9737335 1.0364056 1.0007448 1.0062149 0.99563265
0.95040226 1.015094 1.0238477 0.98781097 1.0821319 1.019763 0.9822504 0.98171616
0.90071994 1.0024256 0.9639383 0.9975333 0.96478575 1.0445945 0.9826763 1.0642301
0.96716785 1.0059745 0.99362695 1.0082754 0.9783268 0.92027307 1.0068779 0.92207897

module.encoder.c1.main.1.bias f4 [32]
00000000: 6767 57bd 3927 a2bd 8074 cbbd 1617 eabd
00000010: 1d43 82bc b243 dcbc 3896 15bc 9495 d3bd
00000020: 1476 92bd 1706 1f3d 0f0d 02be 6610 fbbc
00000030: c021 c9bd d723 6f3d 7dff 1b3b a842 bfbd
00000040: 4ed1 c7bd 846d 23bd fadd 9ebd 44ae 04be
00000050: 28d0 61bd ff70 ec3b 7a30 d6bc deed b8bc
00000060: 233d 77bd 5d07 86bd eeae a0bd 4b86 1cbd
00000070: df34 8fbd 1e3f 52bd ebcd 23bc 6f86 35bd
-0.052588847 -0.079176374 -0.0993433 -0.114301845 -0.015901143 -0.026887748 -0.009130053 -0.10331264
-0.07151428 0.038824167 -0.12700294 -0.030647468 -0.098208904 0.05838379 0.0023803406 -0.093388855
-0.097567186 -0.039899364 -0.077571824 -0.12957102 -0.055130154 0.0072156186 -0.026146162 -0.022574361
-0.06036104 -0.06544373 -0.07845865 -0.03821401 -0.06992506 -0.051329724 -0.009997825 -0.04431766

module.encoder.c1.main.3.weight f4 [32, 32, 3, 3]
00000000: b096 dfbc 88a3 183d 9384 803d b7c8 4dbd
00000010: 0fb0 b6bb cfc3 13bd f39d 7f3b 1f63 383c
00000020: 5772 a7bb 1e13 27bc 5a36 4dbc bc89 813d
00000030: c564 28bc e0a3 173d 3cd1 463b 8c56 c7bc
00000040: bcdd c83c ec60 77bc ab62 ebbc 4e04 bfbc
00000050: e320 bbbc d22c 07bc 5978 7a3b 0d82 fbbb
00000060: 6cd4 10bc 245b b7ba 6e13 05bd 919c 183d
00000070: 9b3b 913c a986 f43c c66d 753d 9d1e a3bb
00000080: d7ad 443a fff5 8cbc cd90 aebb a63c d33c
00000090: f2ab ac3c 523f d4bc 32c9 11bd 9dbd 3a3c
000000a0: 79b6 e7b8 a660 d539 ef3c 75bb c936 0a3b
000000b0: 0a7a 59bb 93c9 6dbc e0d0 0dbd a645 673c
000000c0: ea48 fc3c e4c3 663c 7e9e 9bbc ca90 62bc
000000d0: dfdc 353b d3bc edbc 04ba 26bc 2dcd 953c
000000e0: 8c06 4cbc 3185 7cbc 1223 a73a 2c9d 5f3b
000000f0: bf39 cfbc 45c7 d43c 5466 353a 3fa6 403c
00000100: 2d53 243d 9056 6b3c eb48 aebc e4b1 47bd
00000110: 9861 3ebd f291 183c e232 8e3c e8b3 d7bc
00000120: 2e99 6fbc 065b eebb 5462 9a3c 13d7 83bc
00000130: 2791 26bc b756 1c3d 5a06 a93b 1ed5 813c
00000140: ed58 223c 9e62 443c fecd 8dbc 0e5a 6fbc
00000150: 7b0b 26bd 1aeb 99bc 0822 4fbd 4901 653d
00000160: fc0d 9fbc dc47 35bc 189a 2dbd e251 67bd
00000170: 6e1f 5ebd 62f4 763c 1c57 aabb 4a96 4e3c
00000180: 3bd8 14bc 95c5 193b 75aa 93bc 9f86 683b
00000190: 6cbf 99bd c5e9 313d 658a 89bc 99c1 8c3c
000001a0: 05d7 323d 71e2 913c f3f2 a43c c427 923c
000001b0: f878 29bd 1bce 5a3d a27f 183d a9bb 84bc
000001c0: 2064 c3bc 6869 32ba 05e2 2a3d 05e0 d73b
000001d0: 6fa1 8cbc e93a 5d3d 66f4 0f3d 68df ad3c
000001e0: 3ff9 983d 23f0 ad3c 8d01 3b3d 85bb a13d
000001f0: d92f f13c a4e8 4e3c e345 9dbc 5b78 37bc
00000200: e70f aa3c 38fa 37bb 504e 89bc a71d 2ebc
00000210: ca88 523a a6c1 d3bc a357 74bd 1793 df3c
00000220: 2cf1 adbc ef4d 2abd 9a20 5c3c e635 8cbc
00000230: 8754 c7bc 6c94 e4ba 1293 3ebc 5735 b2bb
00000240: 0983 7f3a a60b e23c 4afc 96bc fe43 a2bb
00000250: 212b 223c bc82 93bc 665c 903c 874e 57bc
00000260: 738b 073d 93ef 343b e1c1 8b3c 5b78 043d
00000270: 5507 67bc 8302 ec3c bad4 3bbc 3709 1f3c
00000280: 9c0d c03d b7f7 1a3c 22bf f93c 2afd 6fbc
00000290: a06f 5c3c 926a 49bc 130c edbc 40fb 153c
000002a0: 2a29 373b d2f8 3dbc 4eca f13c d0ea 973c
000002b0: 970d f9bc 3fc7 5c3c 046b f5bc 536b ab3b
000002c0: 5352 033c ede7 dfbc 597f 9a3c 37a3 b63c
000002d0: d5b9 68bc c47f b6bb 7f65 033d cc4e 783c
000002e0: 0445 763d ce90 c6bc 7f1b c63b 527b cfba
000002f0: 4d69 e53c 0cf6 c83c 81d7 1e3d d231 c1bc
00000300: f6d6 03bd ded8 8a3c 69eb 393d 8d1e 54bc
00000310: 1c2f c73a 1f97 02bd d474 163d c0df fb3c
00000320: 4009 013d 6741 d83c 2479 963d 94d6 ba3b
00000330: c7ff 553d 81af 0fbc a4c1 033d 0d3e bb3c
00000340: 2ed5 30bc 28ae 193d 48c3 4fbc 0746 ab3b
00000350: 4ed5 79bc 67af 79bd 5ae6 dcbc e0b1 efbc
00000360: e08e 913c fd3b df3c 488c 2ebc 9624 133c
00000370: 6d11 92bc d77d 2e3d 78bf 0ebc 2160 f2bc
00000380: 10a1 9c3c 9cd3 d3bc 8c15 97bc fa5e 103a
00000390: e78c 973c 3685 0f3c b29b b9bc 9818 403d
000003a0: 9457 93bd 7a0e 50bd a81d 2bbc c4f2 82bc
000003b0: b488 2d3d b12e 153d 171e 8c3c ef4f ecbc
000003c0: 6283 773b b218 623d a90e 77bb 29c0 34bd
000003d0: d84c d23c c8af 1abb 651a 58bb f6fb 0abd
000003e0: 9187 1d3d 8da5 093c 3d39 6bbb 1536 24bc
000003f0: 530b f43b 7de5 d53a fe8a 7cbc 33cb c13c
-0.027293533 0.03726533 0.062752865 -0.050240245 -0.005575187 -0.03607541 0.0039004057 0.011254101
-0.005110066 -0.010197429 -0.012525165 0.06325099 -0.010277932 0.037021518 0.0030337116 -0.024333261
0.024519794 -0.015098792 -0.028733572 -0.023317482 -0.02284283 -0.008250432 0.0038218705 -0.0076754154
-0.008839708 -0.0013988954 -0.032489233 0.03725869 0.017728617 0.029849367 0.05991914 -0.0049780146
0.0007502711 -0.017207144 -0.00532732 0.025785755 0.021078084 -0.0259091 -0.035592265 0.011397746
-0.000110489265 0.00040698535 -0.0037420352 0.0021089783 -0.0033184313 -0.014513391 -0.034623027 0.014115727
0.030796487 0.01408479 -0.018996473 -0.013828466 0.0027750058 -0.029020702 -0.0101761855 0.018286312
-0.012452733 -0.015412615 0.0012751541 0.0034120781 -0.02529609 0.025973925 0.000691985 0.011758386
0.040118385 0.0143639 -0.021275004 -0.048753634 -0.04647979 0.00931214 0.017358247 -0.026330903
-0.014623923 -0.0072740344 0.018845715 -0.016093766 -0.010166443 0.038168635 0.005158228 0.015848693
0.009908897 0.011986403 -0.017310139 -0.014608873 -0.040538292 -0.018788863 -0.050569564 0.05590943
-0.019415848 -0.011064496 -0.042383283 -0.056474574 -0.054229192 0.015072914 -0.0051983725 0.012609074
-0.0090847565 0.0023463715 -0.018025616 0.003548063 -0.07507214 0.04343583 -0.016789624 0.017182158
0.04366209 0.017808171 0.020135378 0.017841227 -0.04137513 0.053419214 0.037231095 -0.016202765
-0.023851454 -0.0006805868 0.041719455 0.0065879845 -0.017166821 0.05401126 0.035145186 0.021224692
0.07469415 0.02123267 0.045655776 0.07897095 0.02944176 0.012628708 -0.019198364 -0.011198129
0.020759536 -0.0028072726 -0.016760975 -0.010627187 0.00080312474 -0.025849175 -0.05965389 0.027291818
-0.021233164 -0.04157823 0.013435507 -0.017115545 -0.024332298 -0.0017439253 -0.011631744 -0.0054384875
0.0009747004 0.027593445 -0.018430848 -0.004951953 0.009897978 -0.018006675 0.017622184 -0.013141281
0.033091974 0.0027608618 0.017060222 0.032341342 -0.014100869 0.028809791 -0.011464292 0.009706787
0.09377596 0.009458474 0.030486647 -0.014647761 0.013454348 -0.012293475 -0.028936421 0.009154141
0.002794812 -0.011594968 0.029515412 0.018544585 -0.030401988 0.013475238 -0.029958256 0.0052313
0.008015233 -0.02733227 0.018859552 0.022294624 -0.014204462 -0.00556943 0.032079216 0.015155505
0.060124412 -0.02423897 0.0060457583 -0.0015829599 0.028004313 0.024531387 0.03877974 -0.023583326
-0.032187425 0.016949113 0.04539052 -0.012946737 0.0015196535 -0.0318824 0.03673251 0.03074634
0.031502962 0.026398374 0.073473245 0.0057018492 0.05224588 -0.008769871 0.032167092 0.022856737
-0.0107930135 0.037519604 -0.012680836 0.005226854 -0.01524861 -0.060958292 -0.026965309 -0.029259622
0.017768323 0.027250284 -0.010653563 0.008980891 -0.017830575 0.04260048 -0.008712642 -0.029586853
0.01911977 -0.02585774 -0.018442892 0.00055073167 0.018499805 0.008759787 -0.02265725 0.046898454
-0.071944386 -0.050795056 -0.010444082 -0.0159849 0.0423667 0.03642148 0.017104192 -0.028846709
0.003776752 0.055199333 -0.0037697947 -0.04412857 0.025671408 -0.002360331 -0.0032974717 -0.033931695
0.038459364 0.008401287 -0.003589227 -0.01002266 0.007447639 0.0016319003 -0.015413998 0.023656463

module.encoder.c1.main.3.bias f4 [32]
00000000: 6d4b efb5 26bb 98b7 9aeb a336 d337 f837
00000010: 63e7 55b7 85a0 9db8 a385 80b8 238b ea36
00000020: d262 9036 1427 2c37 9206 2136 7ed2 95b7
00000030: 8eb9 39b5 0df4 08b7 cb2e 88b7 ed7c 9e37
00000040: 44de 93b6 a49e d836 a2c9 c836 476f c2b7
00000050: 9e20 83b8 a8e9 29b7 0b15 d335 55b3 a736
00000060: f493 a736 d3ad b134 ca90 22b8 b431 d337
00000070: 2873 9937 6fbc 9537 2a22 bab7 3a87 abb7
-1.7828839e-06 -1.820696e-05 4.885206e-06 2.9589899e-05 -1.2749663e-05 -7.5162425e-05 -6.1284074e-05 6.989941e-06
4.3030386e-06 1.02610975e-05 2.3994694e-06 -1.7860202e-05 -6.918789e-07 -8.163054e-06 -1.6234253e-05 1.889324e-05
-4.4068165e-06 6.45577e-06 5.9839376e-06 -2.317842e-05 -6.252642e-05 -1.0127587e-05 1.5726849e-06 4.997865e-06
4.994212e-06 3.3095293e-07 -3.8758655e-05 2.5176305e-05 1.8292645e-05 1.784993e-05 -2.2188837e-05 -2.0447758e-05

module.encoder.c1.main.4.weight f4 [32]
00000000: 1df0 783f 33f4 6d3f 16ec 763f 43cb 7e3f
00000010: 6906 7a3f 1eaa 823f 6175 813f 687f 783f
00000020: b88c 803f 1bdb 633f c989 7f3f bb7d 7b3f
00000030: d904 663f c218 7a3f c6a3 793f 2c64 743f
00000040: 8065 793f 72ad 783f 0116 7c3f b427 823f
00000050: 97fb 7f3f 1d09 763f 8bc6 6f3f cc6c 773f
00000060: 6459 6e3f af2d 783f c1f6 7e3f 4910 823f
00000070: 6333 7f3f ac85 733f dcb0 6f3f c006 7d3f
0.97241384 0.92950743 0.9645399 0.995289 0.9766603 1.0208166 1.0113946 0.97069407
1.0042944 0.89006203 0.9981962 0.98238724 0.89851147 0.9769403 0.97515523 0.9546535
0.974205 0.97139657 0.98471075 1.0168366 0.9999327 0.96107656 0.9366233 0.96650386
0.9310515 0.9694471 0.99595267 1.016122 0.99687785 0.9512584 0.9362924 0.98838425

module.encoder.c1.main.4.bias f4 [32]
00000000: 6b98 4bbc c2a2 78bc 34ab 09bc edc9 f53c
00000010: a6b0 debc d61a 8ebd 5dd4 f2bd 0ef7 d53c
00000020: 5fc6 93bc 7383 debd 700e 25bc 1271 33bd
00000030: 82c1 13be 575d 693c 242d b43b a72e 65bd
00000040: 54d1 6abd 88b1 a8bc 8958 0b3c cbcb 84bd
00000050: c11a 95bb e77a a4bd af15 4cbd abbc 85bd
00000060: c52c 1abd 595b bcbc 7f75 f7bc 2215 9e3b
00000070: cca5 50bc 9f8a a7bd f4c0 4dbd fa6b 27bd
-0.012426476 -0.015175523 -0.008402634 0.030003512 -0.027183842 -0.06938712 -0.11856911 0.026118781
-0.018038927 -0.10864916 -0.010074243 -0.043809004 -0.14429286 0.014243445 0.0054985452 -0.055952694
-0.057328537 -0.020592466 0.008504995 -0.06484183 -0.0045503085 -0.08031254 -0.049825367 -0.06530126
-0.03764035 -0.022992777 -0.030207394 0.0048242966 -0.012734842 -0.08180737 -0.050232843 -0.04087446

module.encoder.c2.main.0.weight f4 [64, 32, 3, 3]
00000000: d1f2 8ebb 4e75 fabb 2309 533d f90a 9e3b
00000010: 1953 babb a66b e73b eb08 043d 94ea a8bc
00000020: ad82 bf3c ad6d 2d3b d103 02bc 29d8 11bd
00000030: ac1b 913c 5e49 d9ba d243 24bb d145 373d
00000040: 4954 2c3d 1015 a73b 4de0 1d3d 16be 88bc
00000050: 2571 3fbc c7af 123c 3886 4bbc 98de 0b3d
00000060: a71f c1bc 6fe9 2b3c 28ce 063d 6cf9 bf3a
00000070: 4760 d138 b3c2 c43b dc0d 3d39 5116 b1bc
00000080: 16c0 513c 1a07 9ebc 8ce8 e2bc 320c 76bc
00000090: 85a8 85bc 0936 f33c b7a8 4cbc 0ccd af3c
000000a0: 8c27 923d ce53 913c 69dd e0bc 179e 203d
000000b0: dafb 933d c996 803a ca97 2a3d 6c44 a7bc
000000c0: 2cb6 ce3c 4e20 b83c f10f 78bb 82d5 033d
000000d0: fe09 4bbc 6c40 403c 7f36 7cbd 93a9 46bd
000000e0: 2af1 38bd d969 c7bd cfaa b8bb b52f 7bbd
000000f0: d080 aebc f944 30bd c2cf 28bd 3233 e43b
00000100: 313c 113d 1814 adbc a5c4 71bc 0e64 eb3b
00000110: 86a0 583c e412 ecbb b7ab fcbb 6314 ef3b
00000120: 1285 e9bc ce95 0e3c 0b53 8fbb 8513 2d3c
00000130: 335e 213d 7959 173b 06f7 0ebc 8edc 1b3a
00000140: 0287 a1bb 0769 d33c ba5d c13b f9cc a5bc
00000150: 9db5 92bc ba8d e8bb 3d4d e33c 73e6 e0bb
00000160: 342b 0fbc caef 0c3d 8063 a23b f194 c83c
00000170: f595 1dbd cfa0 a03c d219 9b3c 4b48 9b3c
00000180: fa68 7d3c 4f3c 2d3c 22ae aebc dde4 47bb
00000190: db07 133d 1f29 073d 6495 af3c 06e3 6b3d
000001a0: fcfa d0bc b0f2 c8bc 3c94 143c b76e ffbc
000001b0: 334f ff3b a38e 223c 4650 793d ed30 b4bc
000001c0: 400a 2cbd 5748 cfba 73a0 373d dd1c 863b
000001d0: 0d07 dd3b d9aa ebbc 3919 0f3d c6ac 9d3c
000001e0: 5566 59bb 56da 88bc ce03 8e3d 4937 da3c
000001f0: e346 d63c 6672 d1bc 3357 a0bc 6ad6 cf3c
00000200: c7b6 b0ba 1a46 58bd 67db 113d cee3 173d
00000210: 9bf6 efbc 0769 51bb f3c5 c9ba b4fe a3bc
00000220: 91a5 c2bc 299a 07bd d5ca 21bd 5300 3abb
00000230: e79f 2d3d d0a0 0439 9368 debc 0b6f b1bc
00000240: 1777 9cba 3a6c bebc 6754 d63c f3d2 2f3c
00000250: 9dba ff3c 0a8b 083d a43b de3b 3f91 443d
00000260: f0c1 183d 42a4 a6bc 0ebf 213d 95da 603c
00000270: 88ed 653d 0199 b53c fcb5 113d 1a7d 983c
00000280: 8d8e c83b fd64 66ba 50e9 88bd 4cc8 53bb
00000290: 264c 8fbc 178a 083b 9072 aaba 3f4c f63b
000002a0: a2d7 c1bc a064 56bc 724f a03c bfa2 ddbc
000002b0: fe3a febc b946 68bd ef56 0abd 1aff 02bd
000002c0: 576c 4fbb 2e4d 27bd 0e27 95bc 3092 a5bc
000002d0: 774e c6bb 490f 143d 5ae4 afbb 299d 04bc
000002e0: 0b26 25bd 1f87 6abd 2259 f1bc 9e9c 3bbd
000002f0: b89e 7bbc 563d 95bd 5d43 e4bc 0fc6 79bd
00000300: 5e0c 40bc 6f7b 89bc 6855 3fbd 038d 263b
00000310: 4a98 83bc e852 26bc 3da1 5fbd a8d4 0fbd
00000320: 72c8 d339 d510 52bd a19a 4ebc 5be2 24bd
00000330: a47d b6bc 4404 fc3c 3cc3 98bb 1d83 88bc
00000340: 482a e3bc 404c 3139 3942 e63c 2aed d4bc
00000350: 8f1e e2bc 62dd 02bc e6a1 61bb dc9f 203c
00000360: 9fb5 a2bc b26d 363d 97aa 48bd a491 b6bc
00000370: 7772 5d3c 9b0b ccbc 5666 16bd 54a0 11bc
00000380: a10e 4a3c 2c87 b03c 5f2f 893c d822 eb3c
00000390: 42a9 22bc 4e9b 06bd fdb4 443d 65b7 603d
000003a0: 477b 623d 6b34 933d 899d 013d 003a ac3b
000003b0: 6234 8abc 1093 a73b f9a8 c7b5 adc3 473c
000003c0: c682 123d cdd8 b73c 3595 08bb eaea 63bd
000003d0: 28ea 8dbd 96be 5bbd 1bbc 14bd 60fe 95bd
000003e0: ccce 41bd 45ef 81bd ce79 44bd 78f3 0dbd
000003f0: 67e6 b23c 968e 38bd ae49 aebb 86c2 f6bc
-0.004362442 -0.0076433783 0.051522385 0.0048230854 -0.0056861755 0.0070623932 0.032235067 -0.020619668
0.02337774 0.0026463077 -0.00793548 -0.035606537 0.01771339 -0.0016577651 -0.0025064838 0.044744316
0.042072568 0.0050989464 0.038543988 -0.016692203 -0.011684691 0.008953041 -0.012422137 0.03414783
-0.023574663 0.010492667 0.03291145 0.0014646477 9.98383e-05 0.0060046553 0.00018029608 -0.021617087
0.0128021445 -0.019290496 -0.027698778 -0.015017556 -0.016315708 0.029688852 -0.012491397 0.021460079
0.07136449 0.017740157 -0.027449327 0.039213266 0.07225771 0.0009810562 0.041648664 -0.020418368
0.02523335 0.022476342 -0.0037851299 0.03218604 -0.012392519 0.011734109 -0.06157541 -0.048501562
-0.045151867 -0.09736986 -0.0056355963 -0.061324794 -0.021301657 -0.043034527 -0.04121376 0.006964111
0.035457794 -0.021127746 -0.014756356 0.0071835583 0.0132218655 -0.0072044004 -0.0077108997 0.0072961315
-0.028505836 0.008702708 -0.004373913 0.010563736 0.039396476 0.0023094101 -0.008725887 0.0005945646
-0.0049294243 0.025806917 0.0059010657 -0.02023934 -0.017908866 -0.0070969732 0.027746791 -0.006863409
-0.008738328 0.03440837 0.004955709 0.024485083 -0.03847309 0.01960793 0.01893321 0.01895537
0.015466923 0.010573461 -0.021323267 -0.0030501403 0.035896163 0.0329982 0.02143354 0.057589553
-0.025510304 -0.024529785 0.009068545 -0.031180723 0.0077914237 0.009921703 0.06086757 -0.021995986
-0.042001963 -0.0015814406 0.04483075 0.0040927962 0.0067452253 -0.02876799 0.034936164 0.019247424
-0.0033172567 -0.016705673 0.069343194 0.02663769 0.026156848 -0.025567245 -0.01957283 0.025370795
-0.0013482206 -0.05280123 0.03560963 0.037082486 -0.029292395 -0.003195347 -0.0015394076 -0.020018913
-0.023760589 -0.033106003 -0.039500076 -0.002838154 0.042388823 0.00012648408 -0.027149474 -0.021659395
-0.0011937347 -0.023244966 0.026163293 0.010731447 0.031216914 0.033335723 0.006782012 0.04799008
0.03729433 -0.020341996 0.039488845 0.013723989 0.05613473 0.022167685 0.035573944 0.01861434
0.006120509 -0.0008788852 -0.06685126 -0.003231543 -0.017492365 0.002083426 -0.0013004113 0.0075164135
-0.023662392 -0.013085514 0.019569132 -0.027055142 -0.031033989 -0.05670807 -0.033774313 -0.031981565
-0.003165027 -0.04084509 -0.0182071 -0.02021131 -0.006051834 0.03614739 -0.005367798 -0.0080941105
-0.040319484 -0.057257768 -0.029461447 -0.04580366 -0.015357666 -0.072870895 -0.027864153 -0.0609799
-0.011721699 -0.01678249 -0.04671231 0.002541364 -0.016063828 -0.010151602 -0.05459713 -0.035114914
0.000403944 -0.051285584 -0.012610109 -0.040254932 -0.022276707 0.030763753 -0.0046619456 -0.016664082
-0.027730122 0.00016908441 0.02810775 -0.025991995 -0.027602462 -0.007987352 -0.0034428774 0.009803738
-0.019861994 0.044538207 -0.048990812 -0.022286244 0.01351606 -0.024907878 -0.03671869 -0.008888323
0.012332589 0.02154883 0.016746221 0.028703138 -0.0099280495 -0.032862954 0.048024166 0.0548624
0.055293348 0.07187732 0.031644378 0.0052559376 -0.016870681 0.0051139668 -1.4875833e-06 0.012192649
0.035769247 0.022442246 -0.0020840887 -0.055643953 -0.069294274 -0.053648554 -0.036312204 -0.07323909
-0.047316357 -0.06344465 -0.047967725 -0.034656018 0.02183838 -0.045057856 -0.005318842 -0.030122053

module.encoder.c2.main.0.bias f4 [64]
00000000: 0bfe db36 ae30 7536 49ce c536 f3e1 02b7
00000010: 5fea 5337 4ac0 0d35 5cc2 9033 6c89 3236
00000020: cdca 04b6 5c55 e936 ac79 2d37 47a2 8636
00000030: c4e2 2bb7 8b84 c6b6 ae7c cfb5 a2e9 a436
00000040: 0d38 9d36 d7c1 0236 68aa 4336 33a5 0637
00000050: eb7c a5b6 523a 9a37 56ab 80b5 d72c 3635
00000060: 35a0 1e36 0617 ae36 bfba 0936 98fa 0fb5
00000070: 022d 1d37 5f87 3f37 752e b236 5cf9 87b6
00000080: 45b2 02b7 6b28 9837 ba75 2f36 b48e 0837
00000090: 021c 8135 a42d 9835 a538 7f35 dadb 0636
000000a0: 695e 5737 2b3d 5cb6 01c2 5b36 12a3 ddb6
000000b0: 3005 c8b6 f4d9 24b7 647b 8e36 13e9 2536
000000c0: 45f7 4eb6 b44e 0637 e6c6 be36 cba3 bab6
000000d0: c67e 9836 4b1d 09b7 b888 bc36 139c 20b6
000000e0: 3b7b 3636 2e1d 1a37 69eb ac37 6ce3 0c37
000000f0: 75b3 d036 d720 a1b7 a44d 68b5 ce01 f335
6.556283e-06 3.653618e-06 5.8950723e-06 -7.801212e-06 1.2631149e-05 5.280641e-07 6.740876e-08 2.6604057e-06
-1.9787578e-06 6.9538783e-06 1.03399325e-05 4.0124028e-06 -1.0245192e-05 -5.91629e-06 -1.5458988e-06 4.9147793e-06
4.68549e-06 1.948434e-06 2.9156454e-06 8.025486e-06 -4.9319256e-06 1.8385388e-05 -9.586608e-07 6.7865534e-07
2.3637087e-06 5.1882844e-06 2.0523291e-06 -5.3636313e-07 9.368408e-06 1.1416006e-05 5.3102217e-06 -4.052343e-06
-7.79011e-06 1.8138633e-05 2.6145558e-06 8.139457e-06 9.6194e-07 1.1338166e-06 9.507733e-07 2.0095526e-06
1.283698e-05 -3.281816e-06 3.2746468e-06 -6.605297e-06 -5.9610684e-06 -9.825908e-06 4.2462943e-06 2.4722583e-06
-3.0840322e-06 8.005347e-06 5.685596e-06 -5.5623e-06 4.5447114e-06 -8.172657e-06 5.6187528e-06 -2.3932705e-06
2.7191843e-06 9.185909e-06 2.061362e-05 8.397601e-06 6.2197746e-06 -1.9207988e-05 -8.6539717e-07 1.8105436e-06

module.encoder.c2.main.1.weight f4 [64]
00000000: 1d46 7f3f 689f 863f e527 793f b1ab 823f
00000010: 175f 813f db01 7c3f 0ca7 723f 30f0 743f
00000020: ce84 843f 9a69 7b3f ea53 833f bd29 833f
00000030: 8917 763f 2d8d 7f3f 706c 6f3f 85ea 823f
00000040: ff31 783f a962 763f d89c 843f 464b 833f
00000050: a232 7f3f 06ab 783f e434 873f b204 803f
00000060: ba5e 843f c517 763f 2720 793f d81c 853f
00000070: 3f00 773f 7f3d 803f 7020 843f a3eb 7e3f
00000080: 8341 7b3f 818f 873f ac2f 7e3f b6c3 803f
00000090: 22d7 813f 6998 743f d4d2 7a3f 6ec7 733f
000000a0: ebe6 843f 8d88 803f 963b 733f 2685 7f3f
000000b0: 3365 7c3f fb6f 733f b259 7d3f 3bfd 713f
000000c0: bacf 853f d284 883f c7c0 803f e8aa 783f
000000d0: a8dd 753f 4ac4 7c3f be68 7a3f 3ab3 863f
000000e0: ff4c 753f 36c9 753f ac86 813f 2313 803f
000000f0: a6da 7a3f 7515 7e3f fac4 833f 467a 793f
0.9971636 1.0517397 0.973265 1.0208646 1.0107144 0.9844033 0.94786143 0.95679
1.0353029 0.9820801 1.0259984 1.0247113 0.9612966 0.9982479 0.9352484 1.022782
0.9695129 0.96244293 1.0360365 1.0257347 0.99686635 0.9713596 1.0563016 1.0001433
1.0341408 0.9613002 0.97314686 1.0399427 0.9648475 1.0018767 1.0322399 0.99578303
0.9814684 1.0590669 0.9929149 1.0059726 1.0143778 0.9554506 0.9797795 0.9522618
1.038297 1.0041672 0.95012796 0.99812543 0.9859192 0.95092744 0.9896499 0.94527024
1.0454018 1.0665534 1.0058831 0.9713578 0.96041346 0.98737013 0.97816074 1.0523446
0.9582061 0.9601015 1.0119224 1.000584 0.9798988 0.9925149 1.0294487 0.974522

module.encoder.c2.main.1.bias f4 [64]
00000000: fa59 56bd d097 b3bd e55f 34be f832 d3bd
00000010: 1d8b 87bd be37 b6bd 5233 fabd bee3 07be
00000020: cf15 a0bd 7f82 c3bd 2210 f4bd 0846 ebbd
00000030: ab64 fbbd dd72 b9bd e56b 5dbe 2693 b9bd
00000040: 449f afbd 5af4 12be 8c32 92bd ef70 28be
00000050: e70a 3bbe 9772 6fbd 837e 98bd c7f4 cbbd
00000060: 9067 c1bd d951 13be 66ad 17be caaf 7bbd
00000070: be80 39bd a47c 0abe 1bce e5bd 84a3 5abe
00000080: 98a0 36be 4cd7 68bd 741c fabd 601b 81be
00000090: a85a b9bd 0aa7 bbbd 640b abbd 7336 28be
000000a0: 29be acbd d91e d8bd 8486 b0bd 59ba 03be
000000b0: 96d3 6abe 546f 07be b2aa 02be d403 06be
000000c0: 6617 39bd a281 37bd fe03 b9bd 64bc 1ebe
000000d0: 2307 a2bd 7b2a 5cbe 0dcd a7bd fcae a9bd
000000e0: 736f a8bd d9f9 25be e7f1 bbbd 5774 01be
000000f0: 3fea 4dbd c24c 85bd d811 a1bd a384 79bd
-0.052331902 -0.0876919 -0.17614706 -0.10312456 -0.06618331 -0.08897351 -0.1221682 -0.1327047
-0.0781666 -0.095463745 -0.119171396 -0.11487967 -0.1227506 -0.090551116 -0.2162319 -0.090612695
-0.085752994 -0.14351025 -0.07138547 -0.16449331 -0.18265878 -0.05845889 -0.07446005 -0.09958797
-0.09443581 -0.14386691 -0.1481224 -0.061446942 -0.045288794 -0.13524109 -0.11220952 -0.21351439
-0.17834699 -0.056845948 -0.12212458 -0.25216198 -0.090504944 -0.091627195 -0.08351782 -0.1642702
-0.08434708 -0.10552759 -0.08619407 -0.12864055 -0.22932276 -0.13226062 -0.12760428 -0.13087398
-0.04518833 -0.04480136 -0.090339646 -0.15501553 -0.079115175 -0.2150058 -0.08193407 -0.08285329
-0.08224382 -0.1620859 -0.091769986 -0.12642036 -0.050272223 -0.06508781 -0.078647316 -0.060917508

module.encoder.c2.main.3.weight f4 [64, 64, 3, 3]
00000000: 6a45 8b3c fefc 803b ccd6 a1bc 9040 3c3d
00000010: 441d 96bc af11 9bba 4188 3d3c 7a9d 24bc
00000020: be44 a4bb 07fe 2a3b 08b0 e73c 57fb cf3c
00000030: 1701 51bc c0e3 5cb9 33f7 b13b d439 62bd
00000040: a965 ffbc 4631 483c da31 87bc 54be 33bc
00000050: 93d1 13bd d746 a13c 0088 4fbc 564c c2bb
00000060: 3a4e 1e3d 4afe d13b 7def ea3b 69b0 0b3b
00000070: 1007 eb3c 9344 66bc d541 96bc bbf1 12bd
00000080: 1b10 7dbd 9e1d 183d 2a45 0d3d de51 ec3c
00000090: b37c 713d a956 583d ed1a f53b 412d bbbc
000000a0: 24a0 713c 9141 65bd f225 0ebc 7c7c 0b3d
000000b0: 3ec2 5ebc 5f8e 7abd c157 703c 8300 8cbd
000000c0: 8765 923c f8e9 7bbb e64f 38bb 78ea 703c
000000d0: ddf7 64bc 585f cfbc b56a e23c d3bf 0d3c
000000e0: 4a1f 363d 624c e7bc fd5a 42bc 50cc 083d
000000f0: 1cee ff3b 4a46 853c 8a5b 913c 6824 a9bc
00000100: 9b76 0fbd 5192 0abd d9bf c13c 8e41 ad3c
00000110: 419f 263b f766 043d f6e4 aebc ba55 bbbc
00000120: 4d0e 523d 5086 243d d8e8 763c 6b8d c7bc
00000130: 714f f5bc ec2a 7bbd d1f2 d93d 81a7 8a3d
00000140: 6910 033d f51d 653d 776b 6c3d d196 0b3d
00000150: 9604 85bd aae4 b1bc 71be 08bc ec98 d9bc
00000160: 2bfa 1dbd afe1 643c 9ec5 b03c ac99 3b3c
00000170: 4f75 3dbd 9506 943a 58ff c5bd e4dd debc
00000180: f21f a1bd f31b dbbc 11c8 79bc 8a5d 023d
00000190: 4a96 df3c bba7 083c 9408 e13b 6102 ac3c
000001a0: 52c7 013c 1eb7 5dba 1dc3 943c 53d2 5d3d
000001b0: 3dce f83b b34a 373d d363 2f3c c7c0 02bc
000001c0: 750f 92bc e898 bebc 1059 563c ffa5 3cbd
000001d0: d067 8cbd 1920 0ebd 367c 4cbc 85a7 8dbc
000001e0: c068 af3b a5ec 9dbc 03f1 62bd eb05 29bd
000001f0: 1792 8dbc da77 df38 bc64 75bd b9f8 86bd
00000200: 8917 0fbd a237 a3bd 8d67 17bd 8f5a 9abd
00000210: 07db 8d3c 7f68 8d3c cee2 1c3c bfdb 42bd
00000220: a8dc 17bd d7a8 6abd 70cd f33b b5d0 27bd
00000230: 1cf6 d1ba 0c04 51bb 6364 ebbc 2c34 8b3c
00000240: 68be 603c 2d39 c1bc 794e da3c 8ea2 a73b
00000250: ef30 0b3d 5a72 af3d 1a10 70bb a610 8abc
00000260: aa9b 30bc 07b5 643d 3db7 9e3c 10bd 8c3d
00000270: 65bf a53b 8bf8 513c 553b 963c b604 8ebd
00000280: b353 c5bc 6082 f4bb d4b0 ddbc 408d 103d
00000290: ad1c ce3b 5736 03bc 8903 1b3c 94fa 95bc
000002a0: 75c2 1bbd eedd 8cbc aef2 203c 021f df3c
000002b0: 41b0 563c 16f0 b93c 8577 ccbc 06b3 233d
000002c0: 08cb 49bd bc2b 9abc e965 3ebb 6cba 94bb
000002d0: 74b1 2b3c b6e2 e93c fa0f 4f3c f295 c4bc
000002e0: dd14 81bc 0cbf 41bd 1d72 8fbb edb6 d9bc
000002f0: d93a a53b a4bc 17bd d921 893c 101c 473b
00000300: c6b0 d93c e0ed 4abc 7068 b63b 57fb cebc
00000310: e782 b7bb 50b6 283d 7827 04bd f9be 343d
00000320: 2190 043d 3c49 823c ab5c 1ebc 3067 89bc
00000330: 8fba 983c cc2e b63d 6a7b 78bc 4469 ccbb
00000340: c1c2 503c 35ff d03c ed6c 89bc 8a3f 43bc
00000350: 6bc1 5dbc f52e 0bbd 22cd 97bc e152 813c
00000360: ebc2 e3bc 229a 49bd 3141 2cbd ec14 1fb9
00000370: 4ec3 1ebc 2e1c a9ba 7344 0dbd 2e25 b83c
00000380: 7bbd 5cbc 3d27 ea38 ada4 823c 2007 75b9
00000390: 0f2a cebc fc73 4bbd 286d 043d 18a4 13bd
000003a0: 575d cdbc 8d1e 0dbd 1864 313c 413d 803b
000003b0: 56bb 7bbc de32 043d 1b62 1d3d ac8a 883c
000003c0: 4b14 2c3c 3da0 3ebc d36a 8d3c e4fb 003d
000003d0: 2ca3 243b 0339 503d c13f a23c e7ae bebc
000003e0: 17aa 68bc a241 653d 74f4 533d f768 2abc
000003f0: 33be d33c 4549 78bc 54cb f0bc 0203 5abd
0.017000873 0.003936409 -0.019755743 0.04596001 -0.018324502 -0.0011830832 0.01156813 -0.010047311
-0.0050130775 0.0026091354 0.02828218 0.025388403 -0.0127566075 -0.00021065678 0.00543108 -0.05523093
-0.031176405 0.012218779 -0.016503263 -0.010970671 -0.036088537 0.0196871 -0.012666702 -0.00592951
0.03864882 0.0064084874 0.0071696625 0.0021314865 0.028689891 -0.014054435 -0.018341938 -0.035875063
-0.061782937 0.03713762 0.034489788 0.028847631 0.058956813 0.05281702 0.0074800164 -0.022848727
0.014747653 -0.055970732 -0.008676039 0.034054264 -0.013596116 -0.061170932 0.01466936 -0.06836035
0.017870678 -0.0038439017 -0.0028123795 0.014704339 -0.013975111 -0.025314018 0.027638773 0.0086516915
0.044463433 -0.028234664 -0.011862514 0.033397973 0.0078103673 0.016268868 0.017743845 -0.020647243
-0.03502522 -0.033830944 0.02365105 0.021149423 0.0025424513 0.032324757 -0.021349411 -0.022868026
0.05128317 0.040167153 0.015070163 -0.024359426 -0.029945107 -0.06132023 0.10642017 0.0677023
0.03199807 0.055936772 0.057719674 0.034079377 -0.06495015 -0.02171548 -0.008346186 -0.026562177
-0.038568657 0.013969823 0.021578606 0.011450212 -0.046254452 0.0011293466 -0.096678436 -0.027205415
-0.07867421 -0.026746726 -0.015245453 0.031827487 0.027293343 0.008340771 0.0068674777 0.020997228
0.007921057 -0.00084577675 0.018159444 0.05415566 0.007592945 0.044748973 0.010704952 -0.007980532
-0.017829636 -0.02326627 0.013082758 -0.046056744 -0.06855738 -0.03469858 -0.012480786 -0.017291794
0.0053530633 -0.01927788 -0.055405628 -0.04126541 -0.017281575 0.00010655793 -0.05991052 -0.06590409
-0.034934554 -0.079695955 -0.036963988 -0.07536804 0.017316354 0.017261742 0.009575559 -0.047572847
-0.03707567 -0.057289924 0.0074402615 -0.040970523 -0.0016018781 -0.0031893281 -0.028734392 0.01699265
0.013717271 -0.023586834 0.026648747 0.0051158136 0.033982214 0.08566733 -0.003663069 -0.016853642
-0.010779301 0.055836704 0.019374484 0.06871998 0.0050582164 0.012815605 0.018338839 -0.06934492
-0.024087762 -0.007461831 -0.027061857 0.035290956 0.0062900395 -0.008008561 0.009461292 -0.018307962
-0.038027246 -0.017195668 0.009823484 0.027236465 0.013103546 0.02269749 -0.024959335 0.039965652
-0.04926589 -0.018819682 -0.0029052442 -0.004538825 0.01047932 0.028550487 0.012638086 -0.02399728
-0.015757019 -0.047301337 -0.004377617 -0.026576484 0.0050424156 -0.037045136 0.016739773 0.0030381717
0.02657355 -0.012385815 0.005566649 -0.025266333 -0.0056003216 0.04118949 -0.032264203 0.04412744
0.032364015 0.015904061 -0.009665648 -0.016772836 0.018643646 0.088956445 -0.015166143 -0.0062381346
0.012741745 0.025512317 -0.016775573 -0.011917004 -0.013534884 -0.03398033 -0.018530432 0.01578659
-0.027802905 -0.049219258 -0.04205436 -0.00015171216 -0.009690119 -0.0012902075 -0.034489106 0.022478666
-0.01347291 0.00011165298 0.015947664 -0.00023367675 -0.02516654 -0.04967116 0.032330662 -0.036045164
-0.025068922 -0.034452964 0.010827087 0.003913552 -0.015364489 0.032275073 0.03842364 0.016667686
0.010502885 -0.0116348835 0.017262852 0.03149022 0.0025121672 0.05083562 0.01980579 -0.02327676
-0.014200709 0.055970795 0.0517468 -0.010401002 0.02584753 -0.015154188 -0.02939383 -0.053225525

module.encoder.c2.main.3.bias f4 [64]
00000000: acb1 83b6 19de ebb5 7e0c 9b35 e3e0 2336
00000010: 0803 8237 1a37 dfb5 bc54 6eb4 0ddc 3a36
00000020: ac7a 8ab6 ea06 ae36 0c63 f235 1818 2f35
00000030: ef59 26b6 6d2f 92b5 62d1 ad35 288b c2b6
00000040: 798e 0c36 e88b e335 944f 68b5 e224 81b6
00000050: a947 9cb6 bd1a 96b4 9ea9 3f36 0175 e4b5
00000060: 958f dab5 0b71 52b4 5101 acb6 37d5 84b5
00000070: fca4 a234 3865 afb3 0d50 fc36 2440 84b5
00000080: d36c f2b6 daa5 0e36 9f35 1434 4dcd 6ab6
00000090: 30ac 2736 37c3 5ab5 f442 b9b6 42ee 6336
000000a0: 8144 aa34 6b95 7436 44a6 4436 6709 7135
000000b0: dc28 deb5 5cdc df36 16ba 75b6 a018 81b5
000000c0: 0244 d535 62cd 00b6 8929 06b4 30d1 deb6
000000d0: 3d2f c5b5 b956 7736 06d0 3eb6 cd07 04b7
000000e0: 3b9d 0336 3900 19b6 d004 a935 d6da d2b5
000000f0: b6cb 5e36 c309 a434 2331 4fb6 382f 3bb5
-3.924788e-06 -1.7573503e-06 1.1552036e-06 2.4419794e-06 1.549862e-05 -1.6630831e-06 -2.2196303e-07 2.7844246e-06
-4.1270014e-06 5.186409e-06 1.8059231e-06 6.522764e-07 -2.4788276e-06 -1.089165e-06 1.2950443e-06 -5.7978505e-06
2.0944556e-06 1.6953536e-06 -8.6542536e-07 -3.8487933e-06 -4.6575046e-06 -2.7959132e-07 2.8559948e-06 -1.7021376e-06
-1.6284054e-06 -1.9598899e-07 -5.1261527e-06 -9.89682e-07 3.0294893e-07 -8.167484e-08 7.5195044e-06 -9.853434e-07
-7.224831e-06 2.1256187e-06 1.3803081e-07 -3.4988218e-06 2.4985166e-06 -8.1495403e-07 -5.521224e-06 3.396432e-06
3.171481e-07 3.6445806e-06 2.9303055e-06 8.979318e-07 -1.655218e-06 6.671571e-06 -3.6616161e-06 -9.618416e-07
1.588953e-06 -1.9193035e-06 -1.2494833e-07 -6.640468e-06 -1.4691392e-06 3.6856347e-06 -2.8433292e-06 -7.869629e-06
1.9612041e-06 -2.2798906e-06 1.2592882e-06 -1.5709909e-06 3.3199153e-06 3.0554483e-07 -3.0874005e-06 -6.973164e-07

module.encoder.c2.main.4.weight f4 [64]
00000000: 398a 843f 69c1 783f 8d2e 8a3f ac75 833f
00000010: 5033 7f3f d3fd 813f 6ff3 793f 5c92 813f
00000020: 5554 7e3f 2e46 7d3f 491e 7f3f eb8e 823f
00000030: 3321 823f 2dbb 7e3f df9b 7d3f b2f6 7d3f
00000040: ae4a 7d3f 3b03 7a3f cc2e 793f fbaa 763f
00000050: e764 813f 9bc7 7f3f 4ea2 7f3f 4c51 833f
00000060: 8d68 7d3f 4c8c 7a3f 0bc1 7d3f d4f5 813f
00000070: 3e85 823f 6164 803f 4845 7d3f 0308 7a3f
00000080: e26e 813f b82e 7c3f 6b27 843f 5481 853f
00000090: 67de 823f 128b 813f 13fb 7a3f 2b0d 823f
000000a0: a52b 7b3f 7132 823f 5905 7a3f 45c9 7f3f
000000b0: a233 793f a701 803f 2c64 843f 52dd 7e3f
000000c0: 6341 813f 986f 793f 20fa 793f 5be2 7d3f
000000d0: 73f1 813f a448 803f ba4b 7b3f 6869 7d3f
000000e0: f089 803f 5374 803f c5bb 713f 8edc 843f
000000f0: ee92 783f 5e44 833f 8bd8 823f 38be 853f
1.0354682 0.9717012 1.0795456 1.0270286 0.9968767 1.0155586 0.97637075 1.012279
0.9934743 0.9893521 0.99655586 1.0199865 1.0166382 0.9950436 0.99065965 0.9920455
0.9894208 0.9766118 0.9733703 0.96354645 1.0108918 0.9991395 0.9985703 1.0259185
0.98987657 0.97870326 0.99122685 1.0153146 1.0196912 1.0030633 0.9893384 0.97668475
1.0111964 0.9850879 1.032453 1.0430093 1.0224122 1.0120566 0.9803936 1.0160269
0.9811347 1.0171643 0.9766441 0.9991649 0.9734441 1.0000504 1.034307 0.9955646
1.009808 0.97435904 0.97647285 0.99173516 1.015181 1.0022168 0.98162425 0.9898896
1.0042095 1.0035499 0.9442714 1.0379808 0.97099197 1.0255239 1.0222334 1.0448675

module.encoder.c2.main.4.bias f4 [64]
00000000: 2f80 65bd a3e1 f0bd f08b 64bd 1073 94bd
00000010: 3a5b 7cbd 00b7 edbd bb9f f9bd 2a1f bbbd
00000020: 8f2f 16be a36e bbbd e9b6 d0bd 73ab 86bd
00000030: c43d 05be 05c3 71bd a0a8 5bbd 1a42 8cbd
00000040: 12e9 7abd d9c5 34be 306b ddbd 6b25 febd
00000050: 5ab5 39be 122d 38be fdb9 21be dac1 64bd
00000060: e3be 00be 5eef dcbd 0318 b6bd 8e03 10be
00000070: 071d 44bd 8a13 a4bd 8810 50bd 93a4 c6bd
00000080: 137e 11be dc3b a1bd 0e38 d3bd f03d 80bd
00000090: 4084 adbd e999 b7bd cf87 a3bd e596 bdbd
000000a0: ba68 37be 9166 51bd e084 debd 99ea 8fbd
000000b0: 74c8 28be b101 bfbd 35c3 86bd a97f bfbd
000000c0: ea47 ddbd 70ea debd eaf5 e2bd 065f 87bd
000000d0: 2e5e f9bd f2ef 1fbd c304 01be eee2 2abe
000000e0: 079b 98bd 6bd9 20be c10c 04be 785a c4bd
000000f0: 1c4b 07be 4244 fbbd 3c54 f5bd d8ca 8cbd
-0.05603045 -0.11761787 -0.055797517 -0.07248509 -0.061610438 -0.1160717 -0.12188669 -0.091368034
-0.1466658 -0.09151962 -0.10191137 -0.0657567 -0.13011843 -0.059023876 -0.05362761 -0.06848545
-0.06125743 -0.17653598 -0.1081146 -0.12409481 -0.18135586 -0.17985943 -0.15793605 -0.055848934
-0.12572818 -0.10787843 -0.088912986 -0.14063856 -0.047879245 -0.08011539 -0.050797015 -0.09699359
-0.1420825 -0.078727454 -0.10313426 -0.06261814 -0.0847249 -0.08964903 -0.07984888 -0.092572965
-0.17911044 -0.051123206 -0.10865188 -0.07027168 -0.16482717 -0.093264945 -0.065802015 -0.09350521
-0.10804732 -0.10884559 -0.11082061 -0.06609921 -0.121761665 -0.03904719 -0.12599473 -0.1668813
-0.07451444 -0.15707938 -0.1289549 -0.09587568 -0.13212246 -0.122688785 -0.11978957 -0.06874627

module.encoder.c3.0.weight f4 [32, 64, 3, 3]
00000000: 6f99 313c 3d1e 8f3b 0f22 d63c 9e11 3d3c
00000010: a3c3 ffbc 3e15 86bc 33f6 0a3d 8d4f 583d
00000020: 9562 023c 6630 383c 3674 0c3d 571c 10bc
00000030: 63d0 d13b 7ea4 e2ba 78dd a9bc 9ffd 2cbd
00000040: a10e 4bbc 1616 a8bc 3cd9 07bd 339d cdbc
00000050: fcca 80bc 7395 863d e46c 9f3c 806c 6b3d
00000060: 353d be3c 7188 223d fb80 bebd 6522 4bbd
00000070: 0aa2 86bd c07e 02bd 833a 6b3d 2f4c 2bbc
00000080: f9dd 893c 8337 f63c d8c0 4cbb bd36 ee3c
00000090: e68c 79bc 1dcf 50bb d4ac 4abd d19a 2ebc
000000a0: 407b 433d ad10 f23c 4a41 b1bc 9b01 1f3c
000000b0: d05c e2bb e18a 103c 329b 303d 8201 99bc
000000c0: 7762 f43c 26e6 e4bc 442f 583c 5ce1 b8bc
000000d0: 7c64 753c e2e2 e1bc 7c90 bebc df8a 45bc
000000e0: 8190 2ebd da20 31bd 00b7 b4bc 29fc 42bd
000000f0: a5d1 fe3c 44dd 053d 8923 283d 60e8 d43b
00000100: 86d7 7b3d 28b1 1e3d 22a7 21bd f4a8 2a3d
00000110: 9a84 99bc f33f ab3c 0f9f f0bb 9c61 fb3c
00000120: 6e09 92bc c7ae 28bc 6ba9 6ebc 0443 62bd
00000130: 8561 11bd 453f 173c 1fa9 aebb 16fa 093d
00000140: 4b12 6d3d d425 7aba 494b feba 7d24 8ebc
00000150: 85cc d2b9 7e99 843c a611 3e3c 25a0 c2bb
00000160: 8a52 0a3d 9dda 513c ca77 c8bc e235 ed3c
00000170: fe4d 1ebd 8a35 74bc 12de ee3c d8eb 00bd
00000180: 9def 79bc 510a 183d 5516 1b3c 4ce1 08bd
00000190: 5079 333d d9fd 6a3d 7588 473d b32c 943d
000001a0: 146c b03d 3969 1a3d 38f7 81bc cfde fd3b
000001b0: 6caf 17bc 593d b5bb 1176 99bb 6435 74bd
000001c0: 3609 1abd 640f b839 ecc3 31bc 2d6e 75bc
000001d0: 9614 bc3c d00c e23c adad 95bc 6ff9 023c
000001e0: 9325 3d3d ffd3 223d dde4 683d 026c 923a
000001f0: 2694 f8ba 14d1 d5bc bcd8 3dbd ceab 26bc
00000200: 8863 9cbc 6637 21bc 3ff7 a33c babb 14bc
00000210: d438 b4bd ce10 0dbc 4447 37bc a238 5abc
00000220: fe9a 80bc 700a 7f3c d7f1 373d 0e38 bb3c
00000230: e432 acbb b525 c73c 2335 ac3c e53a 00bd
00000240: 19b1 bf3c 2177 f43b ca9b 24bc 0269 c3bc
00000250: 9022 b9bc 7611 12bc 903c 603d ca67 083d
00000260: 41f7 5f3d 8b96 42bc 007d 6e3c 0d76 f6bb
00000270: 32e1 86bb 00e2 823d dbaa 24bd c015 2b3d
00000280: 7a8b 903c 9407 80bd dce2 1cbc 57f8 073d
00000290: 0a64 bb3b 6686 b4bc ff30 c8ba 7153 973b
000002a0: e174 88bd 4984 6d3c bdc5 81bd 0035 05bd
000002b0: 27c4 39bb d230 113c e298 c0ba 1097 0b3c
000002c0: b960 b93c 11b1 f4bb b1f8 8e3c 50d9 6f3c
000002d0: 3247 a43b 7e34 963c 0a77 4abc 682a 813d
000002e0: 1ca4 f83a a9e6 a7bc e01b 7cbd e704 d43b
000002f0: 12e3 49bd d521 9e3c b7b5 cbbb 37a0 a7bb
00000300: b18e c73c 3d8a 3abc 3a29 d4bc 6f2c 463b
00000310: 532a 903c a55e e43b d84f 02bd 1845 78bd
00000320: bccb 90bb 5871 133d eb96 a9bc 635f d53c
00000330: 2989 86bb a2ff 16bd 4aa3 06bd 65d3 45bd
00000340: e559 9bbd e049 d7bd 94dc 833c f355 aebb
00000350: 3f77 20bd 65e5 863c 0ba1 22bd cda6 163d
00000360: 4d8f 60bd f94c 0bbd e3b9 f43c 2aec 2abd
00000370: 69a2 41bc eb84 12bd adf0 38bd 1a64 1fbd
00000380: 9c8f a1bc dcaa 553c ac77 d9bc 0566 c03c
00000390: 61d2 663d a81d 193c efbe 29bc 276b 18bb
000003a0: d8ec 8a3a 9733 4abd 50d4 74bd c247 95bd
000003b0: 472f 143d 4116 98bc b801 613c ce82 3a3d
000003c0: 5cdd a6bb c2e9 4f3d 2415 b33d 8fcf b63d
000003d0: b598 d93b 2839 0d3d d3ee 25bd 4d38 253c
000003e0: e0e4 a2ba 0ebe a8bb 6530 8cbb f6fd 76bc
000003f0: 03e1 cfbd e1fd 89bc c722 5fbc 21d3 b7bd
0.010839804 0.0043676184 0.026139287 0.011539845 -0.031221217 -0.016367551 0.0339262 0.05281024
0.007958074 0.011242008 0.034290515 -0.008795819 0.0064030155 -0.0017291454 -0.020735487 -0.04223406
-0.0123936245 -0.020518344 -0.033166155 -0.025099372 -0.01572179 0.06571474 0.019461103 0.05747652
0.023222545 0.039680902 -0.09301945 -0.049593348 -0.06573875 -0.03185916 0.057428848 -0.010455175
0.016829478 0.030055767 -0.0031242874 0.029078836 -0.015231347 -0.003186173 -0.049481228 -0.010657028
0.047724962 0.029548967 -0.021637578 0.009704973 -0.006908037 0.008822174 0.043116756 -0.018677477
0.029832108 -0.027941775 0.013194863 -0.022568397 0.014977571 -0.027574006 -0.023262255 -0.012057035
-0.04261828 -0.04324422 -0.022059917 -0.04760376 0.031105826 0.03268172 0.041049514 0.006497428
0.061484836 0.038743168 -0.03946603 0.041665033 -0.018739987 0.020904517 -0.00734318 0.030686192
-0.017826762 -0.010295576 -0.01456676 -0.055239692 -0.035493392 0.009231393 -0.0053302194 0.033685766
0.057878774 -0.000954238 -0.0019401099 -0.017351383 -0.000402067 0.016186472 0.011600887 -0.005939501
0.03377012 0.012808469 -0.024471182 0.028956357 -0.038648598 -0.014905343 0.029158626 -0.031474918
-0.015254882 0.037119213 0.009465774 -0.033417985 0.043816864 0.057370994 0.04871412 0.07235088
0.08614364 0.037698004 -0.015864953 0.007747508 -0.009258132 -0.005530995 -0.004683264 -0.05962123
-0.03760644 0.00035106682 -0.010849934 -0.014979881 0.022959035 0.027594 -0.018271292 0.00799404
0.04617841 0.039752956 0.056858886 0.0011171105 -0.001896505 -0.026100673 -0.046349272 -0.010172797
-0.019090429 -0.009839868 0.020015357 -0.009077961 -0.087999016 -0.008609964 -0.011186425 -0.013319166
-0.015698906 0.015566453 0.04490837 0.022853877 -0.00525509 0.024309972 0.021021431 -0.031306166
0.023399876 0.0074604903 -0.010046909 -0.023853783 -0.022599488 -0.008915296 0.054745257 0.033302106
0.05467916 -0.011876713 0.0145561695 -0.007521397 -0.004116201 0.06390762 -0.040202003 0.04176879
0.017644633 -0.062514454 -0.009575572 0.03319582 0.0057187127 -0.022036742 -0.0015273391 0.0046181013
-0.06662918 0.014496871 -0.06336544 -0.032521248 -0.0028345676 0.008861737 -0.0014694 0.008519903
0.022629129 -0.007467397 0.01745257 0.014639214 0.00501337 0.018335577 -0.012357483 0.063069165
0.0018969807 -0.02049573 -0.06155002 0.006470311 -0.049288817 0.019303242 -0.0062167305 -0.0051155346
0.024360033 -0.011385498 -0.025898565 0.0030238887 0.017598307 0.0069692903 -0.031814426 -0.060612768
-0.0044188183 0.035996765 -0.020701846 0.02604646 -0.0041057062 -0.036864884 -0.03287057 -0.048297305
-0.075855054 -0.105121374 0.01609639 -0.0053203045 -0.039176222 0.016466806 -0.039704364 0.036780167
-0.054824162 -0.034008954 0.029873794 -0.04172913 -0.011818507 -0.03577129 -0.0451514 -0.038913824
-0.019721799 0.013041224 -0.026546322 0.023486147 0.056352977 0.0093454495 -0.0103604635 -0.0023257227
0.0010599149 -0.049365606 -0.05977279 -0.07289077 0.0361779 -0.018565299 0.01373332 0.0455349
-0.005092306 0.05076004 0.08744267 0.089263074 0.0066405185 0.034478337 -0.040510964 0.010084224
-0.0012427829 -0.0051496094 -0.00427823 -0.015075197 -0.101503395 -0.016844692 -0.013619131 -0.089758165

module.encoder.c3.0.bias f4 [32]
00000000: d509 3f35 4e33 8735 367c 5834 e298 9e35
00000010: 1643 e8b3 5a78 b2b4 147b 31b4 86fd da35
00000020: 8ed1 38b5 09cf cdb4 d949 a335 3ddb f434
00000030: 1901 2b35 ce23 18b5 0a6d 5034 2429 f632
00000040: 287e eb34 c039 4235 652e 96b5 cf33 a5b3
00000050: 02a1 3534 4eb0 70b4 fb4b 1c33 27a5 1035
00000060: 6d50 82b5 74db 30b5 0e0a 0836 f304 98b5
00000070: 5cb5 6ab4 6388 46b4 d9d6 2036 a762 88b5
7.116735e-07 1.0073215e-06 2.0161755e-07 1.1816412e-06 -1.0815545e-07 -3.324265e-07 -1.6529185e-07 1.6316051e-06
-6.8850284e-07 -3.8334863e-07 1.2165939e-06 4.5608058e-07 6.370406e-07 -5.6676515e-07 1.9411178e-07 2.8656878e-08
4.3863952e-07 7.235467e-07 -1.1189373e-06 -7.692835e-08 1.6915513e-07 -2.2415881e-07 3.6390684e-08 5.388451e-07
-9.709162e-07 -6.5884456e-07 2.0271432e-06 -1.1326323e-06 -2.1858926e-07 -1.8489804e-07 2.3966916e-06 -1.0161501e-06

module.encoder.c3.1.weight f4 [32]
00000000: 8113 a53f c593 a03f 4977 923f 24e9 963f
00000010: 7cd2 953f 8684 903f 2821 863f 0ef5 933f
00000020: 0959 903f f99d 963f 8948 943f cce2 a13f
00000030: 7381 a03f 1637 9d3f 0e32 9f3f 8d3b 983f
00000040: 1e05 8d3f 2d48 933f 34a6 9a3f 7e5a a23f
00000050: b1f5 a33f 9729 973f eced a13f 25d9 a03f
00000060: dbef a33f 6f1d 973f 0aff 963f 03b8 913f
00000070: 754d 973f 92f4 9e3f 6515 9e3f e7f0 9b3f
1.2896577 1.2545096 1.1442653 1.1789899 1.170486 1.1290443 1.0478868 1.155916
1.1277171 1.176696 1.1584636 1.2647338 1.2539505 1.2282436 1.243715 1.1893173
1.1017187 1.1506401 1.2081971 1.2683866 1.2809354 1.1809567 1.2650733 1.2566267
1.2807573 1.1805857 1.1796582 1.1384281 1.1820513 1.2418387 1.2350279 1.2182893

module.encoder.c3.1.bias f4 [32]
00000000: a88f 29be 5086 4d3d 4554 a1bd f38f 063d
00000010: f32b bebd 53cc d1bd 8f94 113d 8475 d13d
00000020: 1fb5 363e a497 a43d db70 4ebd 0075 5dbd
00000030: 3798 b63d 0e24 e83d 1bae b33c c9b6 cb3c
00000040: d7ca 0f3e 349a bc3d ae15 a0bd 7c33 bebd
00000050: 4fa3 25bc 7760 513d 1e0f c23d 754c 943d
00000060: 7d9f 66bd ef1c 343d a2b0 e53c f8bd 92b9
00000070: 433b 3e3d 8d4a a33d 152b 69bd 51e9 fb3c
-0.16558707 0.05017692 -0.07877401 0.032852124 -0.092857264 -0.1024405 0.035542067 0.102274925
0.1784253 0.08036736 -0.050400596 -0.054066658 0.089157514 0.11335002 0.021933606 0.024867432
0.14042221 0.092090994 -0.07816635 -0.092871636 -0.010109737 0.051117387 0.094755396 0.072411455
-0.056304444 0.043972906 0.028038327 -0.00027988828 0.046443235 0.07973204 -0.05692585 0.030750902

module.encoder.c3.1.running_mean f4 [32]
00000000: b7c7 20bf 77ee 2ebf ad0e 40bf 9fbd 7bbd
00000010: 1c00 303f a545 b0be 928e a73e b0a1 1fbe
00000020: 71cb 18bf eb58 293f 0436 23be 431d 44be
00000030: 19ab e5bd b9c7 513e e9b8 2f3e a52f a0be
00000040: c9fd 6b3e fd61 2f3e 1773 473e 7270 c23e
00000050: 9f0c 92be fe65 1bbe a39b 00bf 3d52 1dbe
00000060: 5b45 3ebf ea22 be3e 6cdf 263e 16f6 f73e
00000070: 6b93 fe3e a648 4bbe cb3b 09bf ded7 bf3c
-0.6280474 -0.6833262 -0.75022393 -0.061460134 0.68750167 -0.34428135 0.3272596 -0.15589023
-0.59685427 0.66151303 -0.15938574 -0.19151787 -0.11214275 0.20486344 0.17160381 -0.3128635
0.2304603 0.17127223 0.19477497 0.37976414 -0.28525254 -0.15175626 -0.5023748 -0.15363403
-0.7432458 0.37136012 0.16296166 0.48429936 0.49721846 -0.19851932 -0.5360686 0.023418363
