logs/exp5/model_iters_10000.pth (torch, 495376 bytes, 47 tensors)

module.encoder.c1.main.0.weight f4 [32, 3, 3, 3]
000000 2f e6 28 bc 79 be df 3b 75 31 a0 bb 33 2f db bc
       -0.010308786 0.006828126 -0.0048887082 -0.026755905
000010 8c 11 1e 3b df 24 97 3b 6d e8 56 bb a2 9b cf 3c
       0.0024119345 0.0046125497 -0.0032792345 0.025342766
000020 85 ce 9d 3c b6 ac 4e 38 2d 36 2b bd 18 2d 9c 3c
       0.019263515 4.9275077e-05 -0.041799713 0.019064471
000030 e6 f2 9f bb de 28 90 3b 4a e1 14 3d ab 93 82 ba
       -0.0048812507 0.004399403 0.036347665 -0.0009962221
000040 38 ee a5 3b 30 4b 7f ba 38 2f 19 bd d8 5c 5f bd
       0.0050637983 -0.0009738682 -0.037398547 -0.054531902
000050 72 6d a8 bc c5 11 59 bd 5e 67 a1 3b f5 0c 5b 3d
       -0.02056 -0.052995462 0.0049256524 0.053479154
000060 88 09 67 3c 34 cc 09 bd 35 5f 28 3d a9 ec e4 3b
       0.0141013935 -0.03364201 0.04110642 0.00698622
000070 97 3c 7e bc 21 6f 71 3c 22 15 88 3c 5e 5f e3 3c
       -0.015517375 0.014735968 0.01661164 0.027755436
000080 b1 a4 fe 3c 30 00 a0 bb c7 37 57 3c df 62 3f bc
       0.03108439 -0.004882835 0.013135857 -0.011681288
000090 07 30 b7 3b f3 75 5b bc db d6 a7 bc 74 52 e0 bb
       0.005590442 -0.0133948205 -0.020488193 -0.0068457667
0000a0 83 9d 5c ba b8 08 28 3b 5c 13 3a 3d 93 e3 ba 3c
       -0.0008415805 0.0025639962 0.04542862 0.022813594
0000b0 f2 d0 8c bc 3d 9f 8b 3b b7 25 09 b9 b6 ae 9f 3c
       -0.017189477 0.004260926 -0.00013079388 0.019492488
0000c0 78 20 96 bc ac 4e 9a 3c a9 c1 d8 3d 37 05 12 bd
       -0.01832603 0.018836342 0.10583813 -0.035649505
0000d0 ad 9b 3d bd b2 29 4e bd 21 53 0e 3d 33 ec 24 bd
       -0.046291042 -0.050332732 0.034747247 -0.04026432
0000e0 90 96 4b bc ee d0 3a 3d 73 56 9a 3b ac cb 97 bc
       -0.012426034 0.045609407 0.0047100126 -0.018529736
0000f0 62 e8 e0 3b 43 10 31 bc c3 f9 1a 3c f7 6a 96 bc
       0.0068636397 -0.0108071 0.009458962 -0.018361552
000100 0d af 2c bd db c9 9e 39 8e 94 12 bc f1 fb 23 3d
       -0.04215913 0.00030286502 -0.008946551 0.040035192
000110 ce 63 81 3c a3 7a 06 3c 8f 1f bd ba 12 c4 50 bb
       0.01579466 0.00820795 -0.0014428961 -0.0031855148
000120 c9 7e 50 bd ba 01 c4 3c 8e 0c af 3c 6c 6f f1 bc
       -0.05090216 0.023926605 0.021368291 -0.029472075
000130 af db 30 bd 08 08 11 bc 1c 82 4a bd a8 c3 c8 3c
       -0.043178257 -0.008852012 -0.04944049 0.024507359
000140 9e ab c0 3a 12 c7 0e bd 08 47 aa bc 93 49 9e bc
       0.0014699583 -0.034857817 -0.020785823 -0.019322192
000150 a1 3a 81 bb 7e 2e d7 bc 4c d7 29 3c db f1 32 3c
       -0.0039437567 -0.026267286 0.010366272 0.010921921
000160 65 97 fe 3a 33 fe 2f 3d c0 b4 d9 bc 9b 26 4e bc
       0.0019423781 0.042967033 -0.026575446 -0.012582446
000170 dd 3b 33 bc 27 64 62 3d ca eb 65 bc 77 7c 17 bc
       -0.0109395655 0.055271294 -0.014033267 -0.009245983
000180 7a 74 8e bc 68 5f d8 3c a5 a3 b7 3b 14 5a db bc
       -0.017389525 0.02641268 0.0056042247 -0.026776351
000190 4a d5 90 bc 52 1f 48 bb 4d 31 6e bc fc 11 ba bc
       -0.01767983 -0.0030536246 -0.014538121 -0.022713654
0001a0 1d 43 2c bb d0 a0 03 bd 86 01 24 bd 2c 93 0c 3c
       -0.002628512 -0.032135785 -0.040040515 0.00858001
0001b0 64 d0 c1 3c 1d 77 9a 3b 7c f9 c2 bc 40 2d f2 bb
       0.023658939 0.0047139064 -0.023800604 -0.007390648
0001c0 c3 5f 04 3b 8d ea c0 bb 63 5c 99 bc 2a f2 0e bc
       0.002019868 -0.0058873356 -0.018720811 -0.008724729
0001d0 51 66 fa ba 80 b5 0c bd 72 88 23 bd 05 8b 3a bc
       -0.0019103979 -0.03435278 -0.039925046 -0.011385684
0001e0 12 7e b1 3c 21 6f 35 bc ea ae 79 bb 13 a0 12 3d
       0.02166656 -0.0110738585 -0.0038098642 0.03579719
0001f0 b4 89 98 3c 16 9b 16 3c 5d 79 96 bc c8 94 ea 3c
       0.01862035 0.009192249 -0.018368417 0.028635398
000200 91 13 1b 3d 44 3e 06 3c e8 06 45 3d ae 8b c3 bc
       0.037860457 0.008193556 0.04810229 -0.023870315
000210 b2 e5 fc bb ec a8 4d bd 7d 5b b8 3b db 4c 5c 3c
       -0.0077178115 -0.050209925 0.0056261406 0.013446058
000220 9a 21 d3 bc 10 09 a7 bc 7e 64 9a b9 81 a2 cb 3c
       -0.025772858 -0.020390064 -0.00029448041 0.024857761
000230 44 97 81 3c 9c b6 bb bc 91 7e 04 3d c7 88 a0 3b
       0.0158192 -0.022914223 0.032347266 0.0048991176
000240 31 14 29 3d 30 63 be 3c d1 60 ea bb 09 f6 c2 3c
       0.04127902 0.023240656 -0.0071526547 0.02379896
000250 27 48 7f bd 7d f2 67 3c 4b 7b 08 3c 81 a4 ca bc
       -0.06232467 0.014156935 0.008330177 -0.024736645
000260 7b 7c ad bc b7 03 95 bc 34 3c c2 3a 34 df 0e 3d
       -0.021177521 -0.018190248 0.0014818967 0.03488083
000270 b1 3f 08 ba 87 42 35 bd 34 5f dd 3b fe fe d6 bc
       -0.0005197479 -0.0442529 0.006755734 -0.026244637
000280 0b c2 95 b8 43 43 57 3c 25 49 93 bb e6 69 b4 3b
       -7.141017e-05 0.013138595 -0.0044948035 0.005505788
000290 ae 73 08 3c bd 35 d1 bc 76 a1 19 3b f3 d1 e1 3c
       0.008328361 -0.02553832 0.0023442185 0.027565932
0002a0 c0 34 e2 bc 93 e8 2b bd db b7 a2 ba aa 11 3a 3d
       -0.027613044 -0.041969847 -0.0012414412 0.045427002
0002b0 1d 3c 2b 39 e7 02 6c 3d 39 c9 91 bb 8c d9 b5 bc
       0.00016330225 0.057619955 -0.0044490364 -0.022198461
0002c0 ad 3a 52 bc 4f 1b df bc f3 d9 b1 bc f5 4c 20 bc
       -0.012831372 -0.027234701 -0.021710372 -0.009783973
0002d0 3a 45 85 bc c5 95 52 bd 7e 60 da bb 1c ac 30 3d
       -0.016268361 -0.051412363 -0.006664335 0.043132886
0002e0 4f f9 3c bc 9e eb a0 ba df 51 fd 3c df 76 c4 3b
       -0.011534049 -0.0012277251 0.030922828 0.005995616
0002f0 c5 ef f7 bb 37 37 80 3d a2 df f2 39 59 68 0e bd
       -0.0075664246 0.062605314 0.00046324456 -0.034767482
000300 f0 a1 70 3c 2d 94 d5 bb b3 e7 2b 3c f8 8e 3d bc
       0.014687046 -0.006517908 0.010492253 -0.011569731
000310 e8 8c e4 3b 0b a9 d8 bc 84 68 92 bd 68 09 0f 3c
       0.006974805 -0.026447793 -0.07148841 0.00873027
000320 2c 72 ab ba 07 48 b0 3c 54 4c 17 3c 2c 3e ff 3c
       -0.001308029 0.02151872 0.009234507 0.031157576
000330 3d b1 07 3d f2 43 a5 bc 73 9e ef bb c3 16 98 bc
       0.033128012 -0.020174 -0.00731259 -0.018565541
000340 97 fa 26 bc 43 2a e6 3c 5d 3a 03 3d 7c a1 65 3c
       -0.010191581 0.028096324 0.03203808 0.014015552
000350 ff e8 8a 3c 8b c8 10 bc 93 3b 8c bd 2d 1b 70 bd
       0.016956804 -0.008836876 -0.068473004 -0.058619667
000360 f2 ff da 3c ae 13 58 bb ec f8 41 3a 62 10 53 3c
       0.026733372 -0.0032970714 0.0007399458 0.012882324
000370 03 6c c4 3b 9e bd 06 bc 1c ea 82 3c 9d 67 bc 3c
       0.0059943213 -0.008223919 0.015980773 0.022998625
000380 82 33 c2 bc 8f 73 e1 bc 95 fd 3a bd 33 af ac b9
       -0.023706201 -0.027520923 -0.04565199 -0.0003293693
000390 66 45 a0 bc 66 1c 48 3c ef 97 d0 3c 73 5f 59 3c
       -0.019564342 0.012213802 0.025463073 0.013267386
0003a0 af 03 8c 3c e5 cd c0 3b a3 24 e4 3c 41 33 6b 3b
       0.0170916 0.0058839195 0.027849501 0.0035888704
0003b0 a2 17 7d 3c 63 7c 12 bd 04 e9 c3 bc 4e f4 38 bc
       0.015447529 -0.035763156 -0.023914821 -0.0112887155
0003c0 5e 70 14 bd 84 f6 e5 bc 16 7e 8a bc 6a a7 fc bb
       -0.036239974 -0.02807165 -0.016905826 -0.007710387
0003d0 0e 74 87 bc de c3 b1 bc 50 d4 71 bc d0 16 a2 3a
       -0.016534831 -0.021699842 -0.014760092 0.0012366418
0003e0 2d a1 e2 bc 44 1e 5f ba 4d 99 97 3a 30 c0 2f 3c
       -0.027664745 -0.0008511285 0.0011566073 0.010726973
0003f0 c3 f5 61 3c 4f 73 b1 3b 92 26 41 bb 51 99 16 bb
       0.013791504 0.005415357 -0.0029472453 -0.0022979567

module.encoder.c1.main.0.bias f4 [32]
000000 73 86 35 39 05 95 5c 37 6c c7 34 b9 55 31 6a 38
       0.00017311591 1.3147718e-05 -0.00017240428 5.583589e-05
000010 ad 04 3b b9 58 80 0f 3a b4 41 f1 37 cd e0 b8 b8
       -0.00017835452 0.0005474142 2.8760034e-05 -8.815676e-05
000020 37 bf 9c b9 63 55 6d b8 3c 2b db 39 1d 54 69 38
       -0.00029897105 -5.6584726e-05 0.00041803147 5.5629866e-05
000030 c0 b4 5e b9 2c 86 54 b9 d1 2a de 37 10 11 38 39
       -0.00021238904 -0.00020267878 2.64844e-05 0.00017553964
000040 aa 15 82 38 ec 37 88 b9 ad e5 26 b7 15 bd 2d b9
       6.202918e-05 -0.00025981606 -9.947847e-06 -0.00016569004
000050 4c e5 1c b9 32 83 93 39 c4 5c 04 b8 71 3f 1c 3a
       -0.00014962739 0.00028135773 -3.1557647e-05 0.0005960381
000060 d9 33 2d b9 73 10 c2 b6 b0 29 b1 39 90 b8 29 39
       -0.0001651788 -5.7835655e-06 0.0003379113 0.00016185851
000070 97 10 d8 38 73 a0 41 38 2f 0c 09 39 e6 d3 ff 37
       0.00010302773 4.6164216e-05 0.00013069877 3.0497042e-05

module.encoder.c1.main.1.weight f4 [32]
000000 3b 78 80 3f 5c f8 81 3f 5b 18 7a 3f 96 89 7b 3f
       1.0036691 1.0153918 0.97693413 0.98256814
000010 31 8f 81 3f f6 b0 7f 3f 2e 81 81 3f 33 0c 7f 3f
       1.0121824 0.99879396 1.0117548 0.9962799
000020 ed f8 7d 3f 61 30 81 3f 70 2e 81 3f 71 25 80 3f
       0.99207956 1.0092889 1.0092297 1.0011426
000030 7d 5b 83 3f f0 9e 81 3f 60 9f 7f 3f 6b 00 7c 3f
       1.0262295 1.0126629 0.9985256 0.9843814
000040 82 c8 72 3f c3 85 81 3f 0a 44 7e 3f aa 96 80 3f
       0.948372 1.0118946 0.9932257 1.0045979
000050 17 08 7e 3f 56 c4 83 3f b1 b0 7c 3f fa 3e 86 3f
       0.99231094 1.0294292 0.9870711 1.0487969
000060 03 44 7b 3f 08 17 80 3f 05 b4 7d 3f 22 9f 81 3f
       0.9815065 1.0007029 0.99102813 1.0126688
000070 d8 3e 7a 3f 00 ce 73 3f 92 1b 82 3f 6b f5 74 3f
       0.9775214 0.95236206 1.0164664 0.9568698

module.encoder.c1.main.1.bias f4 [32]
000000 b6 10 9b bc 66 ff a5 bc f8 3d d6 bc 93 b9 74 bd
       -0.018928867 -0.020263385 -0.026152596 -0.05974729
000010 35 76 2f 3a 0a 5c 37 3c c9 c3 ca 3c 33 53 76 bd
       0.00066933344 0.011191377 0.02475156 -0.06013794
000020 76 8b 94 bc 30 58 bb 3c 60 20 4d bd 87 61 ba 3b
       -0.018132906 0.0228692 -0.050079703 0.0056878957
000030 64 92 ab bc b3 01 39 3d 35 cc 5c 3c 15 e0 52 bd
       -0.020943828 0.045167636 0.013476421 -0.051483233
000040 c8 b3 27 bd 6a 18 35 3c 9f f7 0f bd 1e cd 2f bd
       -0.040942937 0.011053184 -0.03514826 -0.042920224
000050 9c 32 f7 bc 51 c6 1c 3c 89 46 ad bb e2 08 28 3c
       -0.0301755 0.009568767 -0.0052879495 0.010256024
000060 7a 23 1a bc fa fd 15 3c eb ee f1 bc 13 fe d3 3c
       -0.009407872 0.009154791 -0.02953287 0.025877988
000070 b0 81 0a bd ce 4c 69 bc ef 5b c0 3c 3f 38 bb bc
       -0.033815086 -0.014239503 0.023481337 -0.022853969

module.encoder.c1.main.3.weight f4 [32, 32, 3, 3]
000000 ac 24 24 bd 26 29 93 3c 05 d2 99 3c 4b ee 15 bd
       -0.040074036 0.017963957 0.018776903 -0.036604207
000010 86 8b 3f bb 6b 20 09 bd 0e 43 7a 3b 23 36 f8 3b
       -0.002922745 -0.03347818 0.003818694 0.007574813
000020 5f 91 d2 ba fb c5 c6 bc 1b c5 21 3b 04 e2 16 3d
       -0.0016065052 -0.024264326 0.0024684134 0.03683664
000030 46 ed 77 bc 08 3a e4 3c 49 0e b8 3b 41 fd 8e bc
       -0.015132254 0.027859703 0.0056169373 -0.017454745
000040 85 62 6c 3c 24 00 1f ba e6 50 c1 bc e3 b7 ce bc
       0.014427786 -0.00060653896 -0.023598146 -0.025234168
000050 fd 8f 8a bb 09 18 e3 3b 77 41 03 3c 1d 5d 91 3c
       -0.0042285905 0.0069303554 0.0080112135 0.017744595
000060 55 81 b3 bb 35 68 5a bb 12 b4 13 bc 8b 49 01 3d
       -0.005478064 -0.0033326272 -0.0090151 0.031564277
000070 bb c7 18 3c 69 2e aa 3c f1 6a 6e 3d 3d 63 fd bb
       0.009324963 0.020774083 0.058207456 -0.0077327774
000080 3e dd c4 37 4b 02 13 bc f5 11 91 bb 6d 1d f2 3c
       2.3468045e-05 -0.008972715 -0.0044271895 0.029555047
000090 8e bd a2 3c 7e 33 67 bc e2 00 9a bc 5d 25 71 3c
       0.019865777 -0.014111398 -0.01879925 0.014718381
0000a0 d8 4c 34 bc 2f a5 98 3b 90 4d eb 3b 7b 3e 74 bb
       -0.011004649 0.0046583633 0.007180877 -0.0037268687
0000b0 d8 ec a0 3c cc 4c c6 bc 5e 65 08 bd 0e c2 c0 3c
       0.019644186 -0.024206541 -0.033299796 0.023530032
0000c0 fd 6f 08 3d c6 ee 8a 3c 39 8c 3b bc 53 24 8c bc
       0.033309925 0.01695956 -0.011447006 -0.017107164
0000d0 7e 38 d4 3c 32 94 db bc eb eb b2 3b 25 9f 45 3c
       0.025905844 -0.026804063 0.0054602525 0.012061869
0000e0 0b f3 cc 3c d2 ee aa bb bd c9 8e ba f4 94 7f 3b
       0.025018236 -0.005216458 -0.0010893863 0.0038998695
0000f0 a5 8b b5 bc 2c 57 b7 3c c4 5d 2e 3c 06 2e 9e bb
       -0.022161314 0.022380434 0.010642473 -0.0048272638
000100 72 1a d0 3c 33 2f e6 3c d2 81 a1 3c 98 82 fa bc
       0.025403235 0.028098678 0.019715223 -0.03057985
000110 33 23 55 bd 3b b5 97 ba c5 9f 00 3b 85 1b 2b bb
       -0.05203552 -0.0011574397 0.001962648 -0.0026108932
000120 bf 53 8a bc 69 52 3a bc ea 22 7d 3a c6 08 50 bc
       -0.016885636 -0.011372187 0.00096563867 -0.012697404
000130 d5 60 67 bb c8 45 21 3d 2f 16 a2 3a 62 95 dc 3b
       -0.003530552 0.03937319 0.001236623 0.006731675
000140 72 d3 c2 3b 33 ad 75 3c 7e 3d 31 bc 34 a6 f1 bb
       0.0059456164 0.014994907 -0.010817884 -0.0073745493
000150 f3 3c 17 bd cc 35 26 bc ae 70 32 bd ee 3d 77 3d
       -0.03692336 -0.010144662 -0.04356449 0.060361795
000160 b8 14 85 bc 82 fb 2b bc 36 f6 72 bc 0a 88 f8 bc
       -0.016245231 -0.010496976 -0.014829209 -0.030338306
000170 6f ed 1f bd 9f 85 12 3c 0f d4 92 bc 76 6c d8 bb
       -0.039044794 0.008942991 -0.017923383 -0.0066047264
000180 cb af 3a ba 26 a3 28 3b 9d 9b a4 ba 4b cf 18 3c
       -0.0007121532 0.002573201 -0.0012558583 0.009326766
000190 72 ca e3 bc 30 a4 3c 3d cd e1 61 3c 74 01 e7 3c
       -0.027806494 0.04605502 0.013786745 0.028198935
0001a0 14 5f 28 3d 12 54 31 3c 89 81 87 3c e5 8c 5d 3c
       0.0411063 0.010823267 0.01654126 0.013522361
0001b0 36 6e cf bc f4 e5 48 3d 72 be d6 3c f2 84 b2 bc
       -0.025321107 0.049047425 0.026213858 -0.021791909
0001c0 10 c4 59 bc 29 34 69 bc 3a 09 3b 3d 4f 5b 79 3c
       -0.013291374 -0.014233627 0.045663096 0.015219524
0001d0 78 46 2e bc 43 8b 20 3d c6 7d a7 3c 8b ae bd 3a
       -0.010636918 0.03919531 0.020445716 0.0014471574
0001e0 69 50 76 3d ca 55 0a 3c d9 7c 0b 3d 46 c5 8c 3d
       0.06013528 0.008443305 0.03405461 0.068735644
0001f0 cb 5d 79 3c 41 17 40 3b 75 22 8b bc f0 99 78 bc
       0.015220116 0.0029310735 -0.016984204 -0.01517342
000200 a7 22 66 3c 7e e5 9a 3b 10 c8 90 bc 8e ea 56 bc
       0.014046348 0.0047270646 -0.017673522 -0.013117446
000210 0a 07 6d 3b 26 72 bd bc f3 ef 7d bd d3 c0 ec 3c
       0.0036167526 -0.02312572 -0.06199641 0.02890054
000220 0c f0 c8 bc e8 e4 10 bd d7 20 68 3b f1 57 5d bc
       -0.024528526 -0.035374552 0.0035419965 -0.013509736
000230 85 a8 90 bc 57 ff 87 bb 8c d8 c0 bc a2 98 b8 3b
       -0.017658481 -0.004150312 -0.023540758 0.0056334296
000240 f8 f1 1b bb f9 3a b4 3c ad 57 c0 bc 29 a3 71 3c
       -0.0023795348 0.022000777 -0.023479307 0.014748373
000250 2b ea c9 ba 93 22 45 bc ac 5f 02 3b 51 d9 1c bb
       -0.001540487 -0.012032169 0.001989345 -0.0023933242
000260 43 5f 95 3c 72 a2 26 bc a8 98 dc bb 49 5c 48 3a
       0.0182339 -0.010170566 -0.006732065 0.0007643146
000270 07 87 12 bc 87 0a a0 3c 04 0a 6d bb 4b 4b 71 3b
       -0.008943326 0.01953627 -0.00361693 0.003681856
000280 1d d4 63 3d 26 f4 4e bc a9 a9 e2 3c 11 84 c9 bb
       0.05562221 -0.012631452 0.02766879 -0.0061497767
000290 0b b9 e6 3b f9 34 12 bc 60 31 e7 bc 60 a9 a4 3b
       0.007041102 -0.0089237625 -0.028221786 0.005025074
0002a0 43 8b 16 bc 17 97 aa bb 53 26 a6 3c ed d9 d3 3c
       -0.009188476 -0.0052059996 0.020281946 0.025860751
0002b0 74 e5 07 bd fa 75 48 3c 40 5f 8d bc d0 a3 a0 3b
       -0.033177808 0.012235159 -0.017257333 0.0049023405
0002c0 0a d1 77 3c d3 fe de bc 5a ee 28 3b ca a6 8e 3c
       0.015125522 -0.027221119 0.0025776834 0.017413516
0002d0 48 92 c4 bc 55 03 df bc 5a 14 5e 3c a9 bc c2 3b
       -0.023995534 -0.027223269 0.013554657 0.0059429
0002e0 fe f0 33 3d 5a a1 1a bd aa 60 38 3b 4b 71 5f bc
       0.043931 -0.037751533 0.0028133788 -0.013637851
0002f0 46 6a 62 3c f6 6b 98 3c a0 b8 ec 3c 5f 65 ca bc
       0.013819283 0.018606167 0.02889663 -0.02470654
000300 ab 75 fc bc ca 1b 99 3b 32 3e b0 3c f4 3d 82 bc
       -0.030817827 0.004672502 0.021514032 -0.015898682
000310 61 c9 24 bc d5 17 a3 bc 47 8d ba 3c 37 f8 94 3c
       -0.010057778 -0.019908825 0.022772444 0.018184764
000320 cb b7 cb 3c 9e a7 88 3c 1f 1e 84 3d 51 1e ea ba
       0.024867913 0.016681489 0.06451058 -0.0017861818
000330 e2 94 3a 3d f1 0b 87 bc cd be e7 3c 8f 96 7b bb
       0.045552142 -0.016485186 0.028289223 -0.00383893
000340 bd 82 08 bc b0 d8 17 3d fb 80 14 3c 40 59 d2 bb
       -0.008331952 0.037071884 0.009063954 -0.006419331
000350 49 5a c5 3b bb ff 42 bc 0a a2 53 ba 57 47 37 bd
       0.0060227257 -0.011901791 -0.0008073157 -0.04474577
000360 ae 14 5b 3c 68 8c a4 3c 8b f3 08 b9 87 05 11 bb
       0.01337163 0.020086482 -0.00013060698 -0.0022128539
000370 2b 47 ee bc 32 7e 1d 3d 3b f8 c2 bc fe e7 ee bc
       -0.02908667 0.038450427 -0.023800006 -0.029163357
000380 fd 57 ab 3c 60 f2 0f bd 1b 2a d6 bc 46 0e 3d 3c
       0.02091598 -0.035143256 -0.026143124 0.011539048
000390 e8 f5 3a 3c 22 ca 1f 3c 38 53 7e bc f1 d2 16 3d
       0.011411168 0.009752782 -0.015522771 0.036822263
0003a0 7e 4a 92 bd 11 46 44 bd b2 94 86 bb 5b b4 2f bc
       -0.071431145 -0.047918383 -0.0041070813 -0.010724152
0003b0 c7 32 20 3d 6c 6a 25 3d f7 a4 78 3c 1f 17 a0 bc
       0.039110925 0.040384695 0.015176049 -0.019542275
0003c0 28 e1 43 3c 39 93 0c 3d 8a 15 6a bb 30 fc 3f bc
       0.011955537 0.03432009 -0.0035718405 -0.011717841
0003d0 c3 94 0c 3d 29 e9 15 3c e8 56 99 3c e2 6b 08 bd
       0.034321558 0.009149828 0.018718198 -0.03330601
0003e0 ac 69 27 3d cf f0 96 3c f2 12 32 3a 9f a3 06 bc
       0.04087226 0.018425373 0.0006792984 -0.008217721
0003f0 98 90 b5 3b 26 15 db 3b 1e cc 22 bc f3 01 a1 3c
       0.0055409186 0.0066858707 -0.009936361 0.01965425

module.encoder.c1.main.3.bias f4 [32]
000000 3d 61 8d b4 cd 04 64 b7 7c f2 f8 35 e8 10 c0 37
       -2.6334047e-07 -1.3590977e-05 1.8548012e-06 2.2896056e-05
000010 ac c7 21 b7 8a 8d 7a b8 b5 15 fa b7 8c d9 de 35
       -9.6428375e-06 -5.9736463e-05 -2.981243e-05 1.6603603e-06
000020 e5 91 98 b6 d0 d8 2b 37 cb 2c 04 b7 27 18 bc b6
       -4.5469374e-06 1.0242875e-05 -7.878242e-06 -5.6056483e-06
000030 d8 a4 e9 b5 bb 52 c4 35 96 51 88 b6 ee 18 16 37
       -1.7407829e-06 1.4627216e-06 -4.0626137e-06 8.946501e-06
000040 58 85 85 36 d4 88 e3 36 d1 19 fc 35 fe 72 98 b7
       3.979232e-06 6.781056e-06 1.8782977e-06 -1.817336e-05
000050 e9 2f fc b7 c6 96 78 b6 69 5b e5 35 e7 21 de 36
       -3.006305e-05 -3.7042641e-06 1.7088433e-06 6.6200623e-06
000060 7e be 00 b6 dd 62 a3 b6 f6 c5 ca b7 ab e0 91 37
       -1.9184367e-06 -4.8692877e-06 -2.417246e-05 1.7389966e-05
000070 06 50 7f 37 5e 0e 2d 37 b2 40 00 b7 a5 df 8f b7
       1.5217816e-05 1.0314949e-05 -7.644458e-06 -1.7151071e-05

module.encoder.c1.main.4.weight f4 [32]
000000 f2 42 7c 3f 87 b1 75 3f 32 4b 7b 3f 58 2a 80 3f
       0.9853965 0.9597401 0.98161614 1.0012922
000010 1c ac 80 3f c8 bc 82 3f 81 1b 82 3f c3 49 7e 3f
       1.0052524 1.0213861 1.0164644 0.993313
000020 e6 3c 80 3f 11 61 71 3f 50 a3 7c 3f 85 6d 7d 3f
       1.0018585 0.94288737 0.98686695 0.9899524
000030 06 21 6f 3f 30 01 7b 3f 81 2b 7b 3f 69 a1 78 3f
       0.93409765 0.98048687 0.98113257 0.9712129
000040 4e b8 78 3f 68 40 7c 3f 4b 52 7e 3f 56 61 80 3f
       0.97156227 0.98535776 0.9934432 1.0029705
000050 19 8f 80 3f 5c f2 76 3f 1e 9d 75 3f cf 16 7f 3f
       1.004367 0.9646356 0.95942867 0.9964418
000060 a7 fe 77 3f 2c 33 7a 3f 53 33 7f 3f da 2e 81 3f
       0.96872944 0.9773433 0.9968769 1.0092423
000070 08 dd 7f 3f ca 3a 76 3f 31 82 75 3f 66 1f 7f 3f
       0.9994664 0.96183455 0.9590178 0.99657285

module.encoder.c1.main.4.bias f4 [32]
000000 e5 06 97 3b 29 a1 82 3b a5 48 96 3c ae 5b c4 3c
       0.004608976 0.003986497 0.018345186 0.023969498
000010 02 d3 04 3d cb 9b 53 3c e9 ba 57 bd 4a c7 2a 3d
       0.032427795 0.012915562 -0.052668486 0.041693963
000020 b4 0c 13 3c a3 86 24 bd 4d ba ca 3c 10 f1 e1 3c
       0.008975197 -0.040167462 0.024747038 0.027580768
000030 77 63 a8 bd b7 99 b8 3c 71 e5 bf 3c 74 eb c3 bc
       -0.082220964 0.022534234 0.023424836 -0.023915984
000040 ba 35 c3 bc c8 f6 68 3c c6 99 2e 3d e2 4f 41 bc
       -0.02382933 0.0142189935 0.04262712 -0.011798831
000050 82 2e 92 3c 49 de 35 bd 77 32 05 bc 5c 28 e5 ba
       0.017844442 -0.04440144 -0.008129708 -0.0017483342
000060 6f b6 c1 3c 9d 35 3a 3c d2 2c 9a 3c ca 12 15 3d
       0.023646561 0.011365321 0.0188202 0.03639487
000070 10 e7 e4 3c 82 09 10 bd 69 f9 bb bb 2b d6 b8 3c
       0.02794221 -0.035165317 -0.005736519 0.02256306

module.encoder.c2.main.0.weight f4 [64, 32, 3, 3]
000000 ed dc 79 bc 23 ee 3d bc 59 d7 d7 3c 40 b1 66 3c
       -0.015250427 -0.011592421 0.026347803 0.014080346
000010 ea 0e 66 bc 6a b0 e9 ba 76 7f 1a 3d 04 e5 03 bc
       -0.014041642 -0.0017829065 0.037719212 -0.008050207
000020 4f 1d 0d 3d c4 db ce 3b 80 f7 ac bb 6d bf 19 bd
       0.03445178 0.006312819 -0.0052785277 -0.037536073
000030 93 99 9c 3c ae ac a5 ba 48 ed 53 ba a8 c2 5d 3d
       0.019116199 -0.0012639964 -0.0008084369 0.054140717
000040 12 e2 33 3d a8 14 c5 3b 87 42 06 3d 83 07 c6 bc
       0.04391677 0.0060144253 0.03277829 -0.024173504
000050 0c 8c d6 bb 60 14 d1 bb 76 4e f1 bb 33 ed f4 3c
       -0.0065474566 -0.0063806027 -0.0073640896 0.029898262
000060 af 0c d8 bc 4a c6 3b bb ff c0 ec 3c c3 c5 27 3c
       -0.026373236 -0.0028652125 0.028900621 0.010240021
000070 aa bb 10 3c 24 12 04 3c 42 0a db 3b 23 35 86 bc
       0.008833805 0.008060966 0.0066845724 -0.01638276
000080 f5 a1 38 3c 5b 56 52 bc e1 0f ce bc f6 61 af bc
       0.011269082 -0.012837972 -0.025154056 -0.021409016
000090 d6 10 56 bc e6 d2 af 3c f0 b3 05 bc 7d 0d e3 bb
       -0.013065537 0.021462869 -0.008160576 -0.006929098
0000a0 f8 56 50 3d 1b 00 14 3c f5 34 98 bc 0f 7a 90 3c
       0.05086419 0.009033228 -0.01857994 0.017636327
0000b0 60 72 10 3d 35 de e4 bb 41 0e 02 3d 36 b8 95 bc
       0.035265326 -0.006984497 0.031751875 -0.018276315
0000c0 22 f6 7d 3c ff e4 e1 3b 1b 51 c3 bc 5a f4 f7 3c
       0.015500577 0.0068937535 -0.023842385 0.030267883
0000d0 7b 47 8e bb b6 cd 54 3c 63 70 b4 bc 40 23 ef bc
       -0.004342017 0.012988498 -0.022026246 -0.029191613
0000e0 d1 f8 43 bd ae 2a 31 bd 90 99 40 3c 17 bf 26 bd
       -0.04784471 -0.043253593 0.011755362 -0.04070958
0000f0 9a 32 bb bc 64 61 8f bd 7b 0b 3a bd fa 55 15 ba
       -0.022851277 -0.07000998 -0.045421105 -0.00056967104
000100 9a e0 bf 3c bb 72 1c bc 44 fb b3 bb 95 a1 85 3c
       0.023422528 -0.009548838 -0.0054925997 0.0163124
000110 79 85 19 3c c6 72 53 3c 68 d4 cf bb c1 0e 9d bb
       0.009370201 0.012905782 -0.0063424595 -0.0047930186
000120 97 2f 21 bc 96 39 70 bb 49 05 09 3c e4 d7 d1 3b
       -0.009838006 -0.0036655418 0.0083630765 0.00640391
000130 ab af 0f 3d 06 d8 0d ba 56 5d 15 3a f6 a4 4e 3a
       0.03507964 -0.0005410913 0.0005697807 0.00078828575
000140 05 6e 97 3b 22 fa f1 3c 1f 40 a2 3c b6 41 bd bc
       0.0046212696 0.029538218 0.019805966 -0.023102622
000150 f4 1e 39 bc f4 3f aa 3b f5 06 bc 3c 83 1d b0 bc
       -0.011298884 0.005195612 0.022952536 -0.021498447
000160 a7 46 9d bb 46 d6 9b 3c d0 4d e4 bb cc 06 35 3c
       -0.004799682 0.019023072 -0.006967284 0.011048984
000170 d7 45 82 bc 16 aa e2 3b e4 30 24 3c 09 2a 88 3c
       -0.015902443 0.0069172485 0.010021422 0.016621606
000180 ac c0 94 3c 80 d3 29 3c 9c b5 14 bd 83 28 fd ba
       0.01815828 0.010365367 -0.03630601 -0.0019314442
000190 3e f5 05 3d 5e 04 e4 3c 2e aa ce 3c 42 54 53 3d
       0.032704584 0.027834114 0.025227632 0.051594026
0001a0 27 14 30 bc 1a 68 aa bb 84 1b 6f 3c 73 6c b5 bc
       -0.010746992 -0.005200398 0.014593963 -0.02214644
0001b0 96 bc d8 3b a8 e5 54 3c 64 a6 3e 3d 00 0a af bc
       0.006614278 0.012994207 0.0465454 -0.021367073
0001c0 14 55 68 bd c0 8a 70 bb 16 90 2e 3d f7 0a 14 bc
       -0.05672176 -0.0036703795 0.04261788 -0.009035817
0001d0 ee 52 59 3b ba ed e3 bb 1d 83 22 3d e8 2c e9 3c
       0.0033161002 -0.0069558294 0.03967582 0.028463796
0001e0 0c b6 45 3c 79 78 2f ba 16 43 83 3d c1 e9 3c 3c
       0.012067329 -0.0006693672 0.0640928 0.011530341
0001f0 09 88 dc 3c ae 63 aa bc f3 f1 51 bc f7 38 5a 3c
       0.026920335 -0.020799484 -0.012814033 0.013319246
000200 00 5f bb 3b 25 bf 04 bd 8d c1 12 3d b0 21 06 3d
       0.005718112 -0.032408852 0.035829116 0.03274697
000210 d0 e5 0a bd 69 a8 01 bc 5e 53 ab bc 8f 35 98 3b
       -0.033910573 -0.007913687 -0.020913776 0.0046450566
000220 bd fd 55 bc 45 44 8b bc 6a ee 73 bc 6e 19 95 ba
       -0.013060984 -0.017000327 -0.014888385 -0.0011375376
000230 81 f2 e6 3c 78 1b 00 bb f4 72 dd bc 32 3b 04 bd
       0.028191807 -0.0019547623 -0.027032353 -0.032283016
000240 77 c1 dd 39 66 e2 86 bc f0 e7 b0 3c ef 3b 10 3b
       0.00042296547 -0.016465377 0.021594971 0.002200838
000250 72 24 46 3c c9 8d 4a 3c d3 3f bf bc 09 72 ef 3b
       0.01209365 0.012362906 -0.023345863 0.007307295
000260 a2 23 0d bc a1 2c 32 bc a1 bc 1b 3d 84 32 80 3c
       -0.008614453 -0.010874898 0.038021687 0.015649088
000270 e9 cf 4b 3d d3 5d 28 3c a3 8c b9 3c 08 9b ac 3c
       0.049758825 0.010276276 0.022650069 0.021070018
000280 da 69 3a 3c 25 82 b7 3b 7b 9e 45 bd e0 03 71 3c
       0.011377776 0.0056002312 -0.048246842 0.0147103965
000290 b7 db 34 bb 46 ee a0 3c 3e f0 4c 38 1b 0b ac 3c
       -0.002759678 0.019644868 4.8861133e-05 0.02100139
0002a0 e4 92 3f bc 8d d9 bb 39 6a 51 d4 3c c5 19 b5 bc
       -0.011692736 0.00035829507 0.025917728 -0.022107014
0002b0 fd 76 05 bd 58 e6 0f bd cf 65 12 bd 9a d7 b9 bc
       -0.03258418 -0.035131782 -0.035741623 -0.022685815
0002c0 ac 67 24 bc b7 c3 35 bd 66 76 bc 3b 50 28 9b bb
       -0.010034483 -0.0443761 0.005751419 -0.0047350302
0002d0 7e 1d 81 bc b2 dc d5 3c b8 1b c1 bc c3 c8 0c bc
       -0.015761133 0.026106212 -0.023572788 -0.008592787
0002e0 28 8e e1 bc c3 da 5b bd 9d 00 9e bc 49 10 dc bc
       -0.027533606 -0.053675424 -0.019287402 -0.026863234
0002f0 7e 38 a4 bc 7c 74 34 bd 1f 40 d4 bb b5 9a 02 bd
       -0.020046469 -0.0440564 -0.0064773704 -0.03188582
000300 2c 47 65 bc c6 82 55 b9 4b b3 40 bd ff e3 b3 bb
       -0.0139940195 -0.0002036198 -0.047045987 -0.0054898257
000310 51 9b 5f bc 70 4a 42 bc 36 8f 27 bd 8e cb 48 bd
       -0.01364787 -0.011858568 -0.04090806 -0.04902225
000320 04 5e 15 bc 6e 26 45 bd 3c db 9e 3b 77 f2 97 bc
       -0.009116653 -0.048132353 0.004847912 -0.018548233
000330 c6 91 0c bc 9c fb ea 3c 7f 3a bd bb 6f ae e8 ba
       -0.008579677 0.02868443 -0.0057747955 -0.001775218
000340 e3 2c e3 bc de 7d 7e bc 31 a5 50 3c 41 b1 19 bd
       -0.027731365 -0.015532939 0.012734697 -0.037522558
000350 d5 4a 34 bd a2 ae b1 bc 62 84 94 bc e0 f3 3c bc
       -0.044016678 -0.021689717 -0.018129531 -0.011532754
000360 c5 bc b0 bc b9 6e ce 3c ba bc 01 bd c9 3e a5 ba
       -0.021574387 0.025199281 -0.031674124 -0.0012607212
000370 bd 1e 85 3c 82 50 d4 bc a3 be 7e bc 5d ff c4 39
       0.016250009 -0.025917295 -0.015548381 0.00037574294
000380 42 69 a9 3c 7c d2 32 3c da 08 a6 3c 8d 73 1b 3c
       0.020680074 0.010914441 0.020267893 0.009487999
000390 68 87 86 bb 2c b4 ed bc 97 77 ef 3c 2d 90 c3 3c
       -0.004105497 -0.029016577 0.02923183 0.02387246
0003a0 4f a2 13 3d 22 8c 77 3d 9e e5 b6 3c c0 73 f0 ba
       0.03604346 0.060436375 0.022326287 -0.0018345043
0003b0 25 0e 81 39 88 af 81 bc 28 4c 22 bc f4 ad 35 3c
       0.00024615336 -0.01583077 -0.009905852 0.011088837
0003c0 29 c6 2f 3c bb 89 f3 3b cc 37 9b bc cf 78 d7 bc
       0.010728397 0.0074321902 -0.018947504 -0.026302723
0003d0 bc 43 31 bd 40 e9 17 bd 89 23 83 bc fb ef 7a bd
       -0.043277487 -0.03708768 -0.016008155 -0.06126402
0003e0 79 71 ee bc a2 d0 2f bd 7f e5 2a bd 73 9f 14 bd
       -0.029106842 -0.042923577 -0.04172277 -0.036284875
0003f0 df f1 b3 3b b9 39 45 bd 91 98 7f bb 89 db ec bc
       0.0054914798 -0.04815075 -0.0039000849 -0.028913276

module.encoder.c2.main.0.bias f4 [64]
000000 0c f0 95 36 2e c3 f5 b6 f7 77 2f 36 21 92 5b b6
       4.468491e-06 -7.324291e-06 2.614686e-06 -3.2718601e-06
000010 54 42 49 36 a4 c9 d6 34 b5 a2 25 b5 62 a6 b3 35
       2.9989942e-06 4.000732e-07 -6.170406e-07 1.3384963e-06
000020 19 84 9b 35 17 77 d7 36 0a 4f f6 35 42 69 0e b5
       1.1586845e-06 6.421363e-06 1.8351432e-06 -5.305229e-07
000030 3d fe dd b6 82 6a 49 b5 27 70 70 b6 c1 23 72 b4
       -6.6159105e-06 -7.5033324e-07 -3.5828068e-06 -2.2551014e-07
000040 57 d9 76 36 47 d4 a0 35 ac 47 d3 b5 d6 41 82 b4
       3.6783365e-06 1.198271e-06 -1.5741584e-06 -2.426229e-07
000050 19 d3 3e b6 f7 86 ef 36 0e 0c b9 b6 52 c8 4c b6
       -2.8435081e-06 7.138467e-06 -5.514833e-06 -3.051497e-06
000060 6f 23 97 36 89 8d a6 b4 16 5c 63 b5 36 ae 07 34
       4.5042757e-06 -3.102289e-07 -8.469809e-07 1.2636232e-07
000070 98 06 4d 35 98 db a5 36 1b 5f 07 35 8c 76 16 b6
       7.6378046e-07 4.9429473e-06 5.0429816e-07 -2.2420745e-06
000080 3b f5 6d 35 ce 1c 49 36 ad a2 c3 b5 39 29 9c 36
       8.864624e-07 2.99681e-06 -1.4575977e-06 4.6539612e-06
000090 df 8a f7 b5 f2 fe 75 b4 6f d9 95 34 79 5b 54 35
       -1.8443351e-06 -2.2910152e-07 2.7911616e-07 7.9109265e-07
0000a0 b2 49 97 36 91 c8 0e b6 98 95 da 35 f3 0b 49 b6
       4.50873e-06 -2.1276394e-06 1.6285803e-06 -2.995829e-06
0000b0 2a 31 b1 b4 89 65 5d b0 63 a9 4a b5 db 37 e0 35
       -3.300459e-07 -8.054362e-10 -7.5497354e-07 1.6705557e-06
0000c0 35 c5 b3 34 74 aa 4c 36 85 31 d6 b5 00 d9 84 34
       3.3484835e-07 3.0497586e-06 -1.5958655e-06 2.4744804e-07
0000d0 61 b6 82 35 15 66 a5 b6 4c 17 9b 35 43 4d 09 b4
       9.738834e-07 -4.929267e-06 1.155518e-06 -1.2787227e-07
0000e0 26 c8 4b 35 48 5b 2b 36 57 86 1f 36 83 c1 d9 34
       7.591465e-07 2.5534118e-06 2.3771042e-06 4.0560198e-07
0000f0 88 1f 52 36 e3 b6 87 b6 83 e2 90 b5 39 7d ee 34
       3.1310792e-06 -4.0446043e-06 -1.079476e-06 4.4422066e-07

module.encoder.c2.main.1.weight f4 [64]
000000 4e af 82 3f 31 49 86 3f cb fa 73 3f d9 71 82 3f
       1.0209749 1.0491086 0.95304555 1.0190994
000010 40 0e 80 3f 8e f6 77 3f 78 52 76 3f 97 b4 79 3f
       1.0004349 0.9686059 0.9621959 0.97541183
000020 c9 17 84 3f c0 75 7f 3f a1 17 81 3f d2 3a 82 3f
       1.0319759 0.9978905 1.0085336 1.01742
000030 f7 88 7f 3f a0 f9 7b 3f 93 98 73 3f 9a 30 82 3f
       0.99818367 0.9842777 0.95154685 1.0171082
000040 08 17 7b 3f fd 54 79 3f b7 aa 81 3f 48 6b 83 3f
       0.9808202 0.97395307 1.0130223 1.0267115
000050 a3 90 7b 3f 2f 23 81 3f 49 f9 80 3f f0 84 80 3f
       0.98267573 1.0088862 1.0076076 1.0040569
000060 5d fe 82 3f 35 ee 7e 3f 04 02 7d 3f 06 ed 7f 3f
       1.0233876 0.99582225 0.988312 0.99971044
000070 63 51 7a 3f 2d 86 7e 3f 98 78 81 3f 37 c0 7c 3f
       0.97780436 0.99423486 1.0114927 0.98730797
000080 36 5b 77 3f ee 28 86 3f 16 31 83 3f 32 89 7b 3f
       0.9662355 1.0481241 1.0249355 0.9825622
000090 d5 38 81 3f 37 c8 72 3f 3a 00 74 3f 95 d4 78 3f
       1.0095469 0.94836754 0.95312846 0.97199374
0000a0 0e 6c 87 3f 9e 3d 81 3f 7c 1f 78 3f 10 50 84 3f
       1.0579851 1.0096929 0.9692304 1.0336933
0000b0 ec d0 76 3f 9d 28 75 3f 60 97 79 3f ac 82 77 3f
       0.9641254 0.95765096 0.97496605 0.96683764
0000c0 6b 24 81 3f 4c 55 87 3f 44 5c 79 3f 47 fe 74 3f
       1.0089239 1.0572906 0.9740641 0.95700496
0000d0 b8 22 78 3f 69 56 79 3f 7f 8c 7c 3f 5f dc 85 3f
       0.96927977 0.97397476 0.9865188 1.0457877
0000e0 5b 0b 78 3f 4d 6d 7a 3f d3 3e 80 3f b6 2e 7c 3f
       0.9689233 0.9782303 1.0019172 0.98508775
0000f0 ad 17 7c 3f 62 5f 80 3f 66 20 7f 3f bf 21 7a 3f
       0.98473626 1.0029109 0.9965881 0.9770774

module.encoder.c2.main.1.bias f4 [64]
000000 0a 79 00 bc f6 25 1e bc 16 14 b8 bd 30 9f 2b bd
       -0.007841358 -0.009652605 -0.08988206 -0.04189986
000010 91 cd 01 bd 7a ca 5c bd 3a 13 4f bd 8e 40 9d bd
       -0.031690184 -0.053904034 -0.050555445 -0.076783285
000020 79 66 87 bd cd 29 36 bd 29 38 51 bd 0b c7 4b bd
       -0.06611342 -0.044473458 -0.05107895 -0.04975037
000030 93 58 02 bd ba 30 61 bd 7d 4e b3 bd 6d d7 97 bc
       -0.031822752 -0.05497811 -0.08755205 -0.01853534
000040 27 ef 0f bd 02 1e 7e bd 7e ad 87 bc fd 71 47 bd
       -0.035140183 -0.062040336 -0.01656222 -0.048692692
000050 5c fa 87 bd 5e b3 17 bc 3e d4 2e bd 34 4b 2f bd
       -0.06639549 -0.009259073 -0.04268288 -0.04279633
000060 0d da 85 bd 07 db 36 bd e3 d6 6d bd ba 14 06 bd
       -0.065357305 -0.044642475 -0.05806626 -0.03273461
000070 25 64 bb bc a3 56 46 bd 08 10 06 bd 49 9e a3 bd
       -0.022874901 -0.048422467 -0.032730132 -0.07989175
000080 2f 2f a6 bd 82 4f d7 bc 7b 73 17 bd 8c 88 ae bd
       -0.08114468 -0.02628303 -0.036975365 -0.08522138
000090 d0 11 01 bd 78 e7 9c bd 9b 10 94 bd 42 b9 9e bd
       -0.031511128 -0.07661337 -0.0722973 -0.07750179
0000a0 b3 dd e5 bc 5b cb 89 bd 40 05 22 bd fc 59 b9 bc
       -0.028059816 -0.0672824 -0.039555788 -0.022625916
0000b0 87 a3 ea bd 11 b8 8a bd c0 74 63 bd 97 82 76 bd
       -0.114569716 -0.06773389 -0.055531263 -0.060183134
0000c0 79 f7 38 bd 0c 99 3b bc 19 ee c3 bc c7 05 d0 bd
       -0.045157883 -0.011450063 -0.023917245 -0.10157352
0000d0 51 9d 2f bd d2 96 a3 bd 7c d7 5b bd df b9 bf bc
       -0.042874638 -0.07987751 -0.0536723 -0.02340406
0000e0 47 a8 13 bd f5 e6 a9 bd 12 5a 10 bd 02 0c 12 bd
       -0.036049154 -0.08296005 -0.035242148 -0.035655983
0000f0 90 7e 58 bc e3 86 01 bd 16 da 87 bd a8 ed 1d bd
       -0.013213769 -0.03162278 -0.066333935 -0.038556725

module.encoder.c2.main.3.weight f4 [64, 64, 3, 3]
000000 f9 dd 1f 3c 87 b9 25 3c c9 ea 6c ba 6e d1 20 3d
       0.009757512 0.010115034 -0.0009037671 0.039262228
000010 c6 b9 87 bc 1f 4e 93 3c a4 c6 f5 3b 30 e6 a1 bc
       -0.016568076 0.017981587 0.0075004864 -0.019763082
000020 3c e6 ce bb 93 16 a9 3c ff 53 5d 3c ee f9 e5 3c
       -0.006314067 0.020640647 0.013508796 0.028073277
000030 c5 93 d1 bc bf cd 11 3c 35 65 19 bc f5 c0 3f bd
       -0.025583157 0.008899151 -0.009362509 -0.046814878
000040 3c a5 00 bd b2 39 62 ba 4d 22 fd 3b 82 20 ad bb
       -0.03140758 -0.0008629813 0.0077250362 -0.0052834162
000050 9b 66 0f bd 6f b7 fe 3c 39 c9 d2 3b df 6f 90 3b
       -0.03500996 0.031093327 0.006432679 0.0044078673
000060 e7 86 95 3c 81 5c d3 bb a9 7b cd 3b 31 87 99 bc
       0.018252803 -0.0064502363 0.006270845 -0.018741222
000070 d0 46 a9 3c c0 3d 16 bc 5c 68 9d b8 9a ea f3 bc
       0.020663649 -0.009169996 -7.505782e-05 -0.029774953
000080 eb 5c 2a bd ed 63 aa 3c a8 6d fe 3c eb 33 85 3c
       -0.04159252 0.020799601 0.031058148 0.016260108
000090 62 32 36 3d a6 76 42 3d b4 78 64 3c ec b5 ae bc
       0.044481643 0.047476433 0.0139447935 -0.021326981
0000a0 5c bc ce 3b c9 c4 04 bd 3a bc 20 bc 5b d9 ea 3c
       0.0063090753 -0.03241423 -0.009810502 0.028668096
0000b0 ae 57 ae bc 85 31 0a bd 3b 32 9d 3c 7b 30 33 bd
       -0.021282043 -0.03373863 0.01918899 -0.043747406
0000c0 72 92 8b 39 2e 1f 5c bc fd 08 bf 3b ef 8c 73 bc
       0.00026621256 -0.013435168 0.005829929 -0.014865144
0000d0 4e 78 2e bd 8f 0f c5 bc 19 78 90 3c 5b 22 bc bb
       -0.0425952 -0.02405527 0.017635392 -0.0057414
0000e0 e6 5c ca 3c b8 ea 98 bc 6d a5 d8 bb 46 78 14 3d
       0.0247025 -0.01866661 -0.006611517 0.036247514
0000f0 f8 af 05 bb 5f 2a c2 3b 0d c9 6e 3b a4 12 0e bc
       -0.0020399075 0.005925461 0.0036435754 -0.008671436
000100 1e 83 e4 bc 1f 01 d3 bb 83 91 80 3c c4 c1 3d 3c
       -0.027894553 -0.0064393426 0.015694385 0.011581842
000110 40 17 99 3c 4b 07 25 3d 70 73 e0 bb 23 5a 13 bc
       0.018687844 0.04029016 -0.0068496987 -0.008993658
000120 f8 33 13 3d 80 ad 13 3d 7e 03 fb 3b 0e 1e 07 bd
       0.035938233 0.036054134 0.0076603284 -0.032987647
000130 d8 0d c9 bc da 3b 4d bd 54 cb a0 3d 16 b0 6e 3d
       -0.024542734 -0.050105907 0.07851282 0.058273397
000140 ad 2a f0 3c 7e f5 0b 3d d1 ff 60 3d 90 59 88 3c
       0.029317224 0.034169666 0.054931466 0.01664427
000150 a1 de 72 bd 4b 0a 42 bc 5d 23 b2 bb 57 ce c6 3b
       -0.059294347 -0.011843274 -0.0054363445 0.006067078
000160 6e db 0c bc 6c cb 11 3d ae 31 20 3c a9 72 b5 3c
       -0.008597238 0.03559439 0.00977747 0.0221494
000170 8d e7 57 bb 86 63 cc bc 24 37 8e bd 75 1b ee bc
       -0.0032944412 -0.0249498 -0.06944111 -0.029065827
000180 b6 70 87 bd 7e 88 06 bd 32 cb 8d 3b 74 d2 1d 3d
       -0.06613295 -0.032845013 0.0043272013 0.038530782
000190 e3 09 d5 3c dd a9 62 3c 23 df 2e 3c 3c d8 42 3c
       0.02600569 0.013834444 0.010673317 0.011892375
0001a0 0c 7f 4f 3c ff 1d 46 3c 24 df 8e 3c fa 69 4b 3d
       0.012664568 0.012092113 0.017440386 0.049661614
0001b0 bf dd d4 3b 8e 75 32 3d b0 65 ff 3a 51 87 7d bb
       0.0064961608 0.04356914 0.0019485261 -0.0038685391
0001c0 f6 b3 98 bc 60 97 a9 bc ff ff ba 3c 0f 9a 48 bc
       -0.0186405 -0.020702064 0.022827147 -0.012243762
0001d0 96 1a e5 bc f0 a6 bd bc 9b 25 a5 3c b7 31 69 3b
       -0.027966779 -0.023150891 0.020159533 0.003558261
0001e0 f6 c1 d0 3c 3e 42 3e bc 25 79 97 bc 51 34 54 bc
       0.025483113 -0.011612473 -0.018490383 -0.012951926
0001f0 cd 78 7d bc 85 a2 3a 3b 91 24 37 bc e0 18 8e bc
       -0.015470696 0.0028478217 -0.011178152 -0.017345846
000200 fb 93 9a bb 1d 37 1c bd 8a 93 7f bc 8c 4e 29 bd
       -0.0047173477 -0.038138498 -0.015599141 -0.041334674
000210 8c 0d e4 3c de 0f 7a 3b c3 25 cf bc 9e 89 1c bd
       0.02783849 0.003815643 -0.02528656 -0.03821718
000220 eb c7 08 bd aa 9f 5f bd e3 d0 47 3c 3a 5b ea bc
       -0.03339378 -0.054595627 0.012195799 -0.028607953
000230 60 37 d1 3c 25 9d da bc aa bf 3e bd 74 6c 59 bc
       0.0255391 -0.02668626 -0.046569504 -0.013270486
000240 11 50 9d ba 5b d0 26 bd 5d dd 61 3c fd 8d 3e bc
       -0.0012002011 -0.040726047 0.013785687 -0.011630532
000250 fc 6e 8d 3c a9 37 96 3d b5 02 c5 ba 45 2b 75 38
       0.017264836 0.07334835 -0.0015030714 5.845285e-05
000260 02 88 45 3c a8 0e 28 3d ac 7b 7e 3c 36 93 85 3d
       0.012056353 0.041029602 0.015532415 0.06522219
000270 df bc b0 3b 51 ab 8a ba a0 7a 4e 3b b7 9e 25 bd
       0.005393609 -0.0010579621 0.0031506196 -0.040434565
000280 38 59 a3 bc 4e 60 31 bc cc 16 e3 bc 37 67 d7 3c
       -0.019940004 -0.0108261835 -0.027720831 0.026294334
000290 6a cc 9f 3c 11 60 09 3b a3 02 bb 3c 59 b2 72 3a
       0.019506652 0.00209618 0.022828406 0.0009258143
0002a0 a5 b5 5d bd 13 4a 1c ba c7 43 c8 3c b0 54 35 3c
       -0.054128308 -0.00059619657 0.024446381 0.011067554
0002b0 41 e6 80 3a c3 7b c2 3c 92 9b c5 bb d6 54 d1 3c
       0.0009834246 0.023740655 -0.0060305083 0.025553148
0002c0 99 b9 4a bd f2 7c 3f bc 50 1d 23 3b 71 74 8d 3c
       -0.049493406 -0.011687504 0.0024889298 0.017267438
0002d0 fb 68 6a 3c 3f 1f 9a 3c 65 04 76 3c 1b 2f 80 bc
       0.014307256 0.018813727 0.015015696 -0.015647462
0002e0 76 cf b9 bb 2c 1a 46 bd 73 93 a7 ba 9f 30 16 bc
       -0.005670483 -0.048364803 -0.0012785032 -0.009166866
0002f0 c9 ae 72 3c 7a 64 1c bd 51 19 4a 3c a8 42 ac 3b
       0.01481218 -0.03818176 0.012335137 0.0052569695
000300 28 8d c4 3c e6 01 4f 3c 07 d2 88 3c 6a ef a4 bc
       0.02399309 0.01263473 0.016701711 -0.020133693
000310 08 6a 75 bc 51 f3 28 3d cb f6 1d 3b 39 7a 3d 3d
       -0.014978893 0.04124767 0.00241034 0.04625914
000320 63 1b eb 3c af 47 63 bc 2b 0c c7 bb f3 b3 41 3c
       0.028699582 -0.013872071 -0.0060744486 0.011822688
000330 18 cd 03 bc aa 56 93 3d 5d ab 23 bc 2a b0 b9 bb
       -0.008044504 0.07194264 -0.009989587 -0.0056667523
000340 21 9b 77 3c 38 c3 f0 3c 94 11 de bb 69 cf bf bc
       0.015112669 0.029389963 -0.006776998 -0.02341433
000350 a5 a3 56 ba eb b6 d8 bc 02 87 84 bc c6 6d 79 3c
       -0.0008187837 -0.02645441 -0.016177658 0.015223926
000360 0e 83 c0 bc 14 ea 2e bd 3c d9 99 bc 06 34 97 bc
       -0.023499992 -0.042703703 -0.018780343 -0.018457424
000370 64 cb 9f bc 12 1d 11 bc 0b f0 a0 bc e8 48 2d 3c
       -0.019506164 -0.008857029 -0.019645711 0.010576464
000380 9f d5 70 bc 86 69 e6 3b 34 11 e5 3a e8 60 70 3c
       -0.014699369 0.0070316223 0.001747644 0.014671542
000390 36 fe c4 bc 80 f5 d1 bc f8 23 bc 3c 69 08 5d bd
       -0.024046998 -0.025629759 0.02296637 -0.0539631
0003a0 0d c1 14 bd d8 94 38 bd cd 84 9a 3b a3 3b 60 bb
       -0.03631692 -0.045063823 0.004715538 -0.0034215234
0003b0 89 25 10 bc 63 d5 81 3c 47 a1 9d 3c 4f 32 38 3a
       -0.008798012 0.015848821 0.019241942 0.00070265395
0003c0 09 f0 34 3c 04 17 1e bd ed 53 0d 3c 6d c4 1c 3d
       0.011043557 -0.03859617 0.0086259665 0.038273264
0003d0 16 d8 59 3c 04 f1 43 3d 21 c5 92 3b a3 de ed bc
       0.013296148 0.047837272 0.004479066 -0.029036826
0003e0 fd cc 06 bc 21 bd 2b 3d 89 81 25 3d b7 1a 42 bc
       -0.008227584 0.041928414 0.040406737 -0.01184719
0003f0 ed 3f e7 3c b6 e2 62 bc e7 74 bb bc 54 6a 74 bd
       0.028228724 -0.013847997 -0.022882892 -0.059671715

module.encoder.c2.main.3.bias f4 [64]
000000 0b 1f ba b5 d8 86 9d b4 98 7e d1 33 14 8a 00 b2
       -1.3867115e-06 -2.934164e-07 9.755348e-08 -7.481976e-09
000010 06 52 a1 36 94 dc f9 b5 6d 8e a6 34 32 47 14 35
       4.8077227e-06 -1.8616142e-06 3.1023538e-07 5.52379e-07
000020 b7 4e 20 b6 9c a5 93 35 79 fc bf 34 42 09 41 35
       -2.3887676e-06 1.1000552e-06 3.576022e-07 7.1911575e-07
000030 45 77 14 b6 07 fd 9a 34 ce e7 00 b4 9f c0 93 b5
       -2.2123143e-06 2.8868837e-07 -1.2005259e-07 -1.1008414e-06
000040 5d e9 b5 35 0e c8 b8 32 02 eb ab b2 34 71 01 b6
       1.3553469e-06 2.1511394e-08 -2.001389e-08 -1.928839e-06
000050 cb 68 a8 b3 d5 7c 1e b5 d3 01 88 35 aa 2a 66 b5
       -7.8421714e-08 -5.904124e-07 1.013332e-06 -8.574376e-07
000060 4b a1 98 b5 de 0c 18 35 ad 85 e6 b5 4a 6a 32 35
       -1.1371825e-06 5.6643137e-07 -1.717524e-06 6.646484e-07
000070 c9 7d 85 34 15 ca 85 b5 e1 57 13 36 f5 ff b3 34
       2.48647e-07 -9.968086e-07 2.195586e-06 3.3527581e-07
000080 dd e7 de b5 21 59 b7 33 31 b8 11 b4 b9 58 37 b6
       -1.660777e-06 8.537814e-08 -1.3571186e-07 -2.7320768e-06
000090 cd 8c b0 34 12 8a 44 b5 2d b6 b6 b5 4f 1b e7 35
       3.2885e-07 -7.321661e-07 -1.3613077e-06 1.7218789e-06
0000a0 4c 85 2e 35 8b 0d 1e 35 08 d0 3f 35 cb d8 68 b3
       6.5014024e-07 5.8879294e-07 7.145577e-07 -5.421388e-08
0000b0 4a 8a c7 b3 9f 19 13 36 90 d1 93 b5 66 05 48 b5
       -9.291814e-08 2.191962e-06 -1.1013344e-06 -7.451366e-07
0000c0 52 91 58 35 40 ea 02 35 4e b9 a5 b3 8b 2f 24 b6
       8.067774e-07 4.876965e-07 -7.717118e-08 -2.4465578e-06
0000d0 55 74 4f b4 8b 80 c1 35 b7 0b 95 35 27 f3 55 b5
       -1.9320699e-07 1.4417031e-06 1.1104775e-06 -7.9702517e-07
0000e0 d2 3f 06 b4 ae 72 76 b5 b7 2a ee 34 0d 4d 19 35
       -1.250294e-07 -9.180902e-07 4.4362034e-07 5.7109065e-07
0000f0 98 0e 34 35 40 b9 58 b5 2d ee 4b b5 82 d7 dc 34
       6.707646e-07 -8.0735845e-07 -7.5969984e-07 4.1134996e-07

module.encoder.c2.main.4.weight f4 [64]
000000 45 c6 81 3f a6 8c 7b 3f e4 18 85 3f c2 24 80 3f
       1.0138632 0.9826149 1.0398221 1.0011218
000010 9d 87 82 3f 79 d8 7f 3f 51 85 7b 3f d7 e3 7b 3f
       1.0197636 0.99939686 0.982503 0.9839453
000020 e0 af 80 3f 04 3b 7e 3f 31 42 80 3f 98 54 81 3f
       1.0053673 0.993088 1.00202 1.0103941
000030 21 b4 80 3f 56 a4 7a 3f 74 bc 7f 3f 60 9c 7e 3f
       1.0054971 0.97907007 0.9989693 0.9945736
000040 a3 17 81 3f ce d8 77 3f 15 53 80 3f c9 b0 7c 3f
       1.0085338 0.9681519 1.0025355 0.9870725
000050 46 f4 82 3f fe 1c 7b 3f 41 3e 81 3f 50 64 81 3f
       1.0230796 0.98091114 1.0097123 1.0108738
000060 9d b3 7f 3f 92 0f 7b 3f d8 3a 80 3f c7 35 83 3f
       0.99883443 0.98070633 1.0017958 1.0250787
000070 a9 33 7e 3f 3d 65 7c 3f c4 2f 7d 3f 88 64 74 3f
       0.9929758 0.9859198 0.9890101 0.954659
000080 71 29 7d 3f b0 df 80 3f 97 a2 7e 3f c0 93 83 3f
       0.9889136 1.0068264 0.9946684 1.0279465
000090 23 36 82 3f 10 1a 80 3f ee 47 7b 3f 5c df 7e 3f
       1.0172771 1.0007954 0.9815663 0.9955957
0000a0 e4 e3 78 3f 33 10 7e 3f 7f c5 7b 3f 3c 72 7f 3f
       0.97222733 0.9924347 0.9834823 0.9978368
0000b0 8e 24 7c 3f 64 1a 80 3f f9 11 80 3f be 37 7d 3f
       0.9849328 1.0008054 1.0005485 0.9891318
0000c0 c1 5c 7b 3f 7e fd 77 3f 5f 2f 76 3f ab 7e 81 3f
       0.98188406 0.96871173 0.9616603 1.0116781
0000d0 58 b1 7d 3f e7 64 81 3f 6e 0e 80 3f e2 13 7f 3f
       0.9909873 1.0108918 1.0004404 0.99639714
0000e0 85 f6 7f 3f a9 3e 80 3f 9e a2 72 3f bf 1b 83 3f
       0.99985534 1.0019122 0.94779384 1.0242842
0000f0 d1 c2 7d 3f 80 84 7e 3f 03 d9 83 3f 6b 95 85 3f
       0.9912539 0.9942093 1.0300602 1.0436224

module.encoder.c2.main.4.bias f4 [64]
000000 0e 55 66 bc 78 92 90 bd 06 a9 96 bc b9 65 20 bd
       -0.014058365 -0.07059187 -0.018391144 -0.03915951
000010 1a d7 f5 bc 37 db 2f bd 0e af 4b bd 78 f1 0e bd
       -0.030009795 -0.04293367 -0.049727492 -0.03489825
000020 d0 78 84 bd 18 b2 27 bd b4 0a 4c bd 1b 65 35 bd
       -0.06468356 -0.040941328 -0.049814895 -0.044285875
000030 15 69 42 bd 73 21 00 bd 53 db d5 bc d0 9f e3 bc
       -0.047463495 -0.0312819 -0.026105558 -0.027786165
000040 fe f6 b1 bc 1b 96 4e bd 38 a1 45 bd 4a 86 8c bd
       -0.02172422 -0.05043612 -0.048249453 -0.06861551
000050 31 7b 99 bd 68 7f 92 bd a6 5b c6 bd 97 9b b3 bc
       -0.074942 -0.07153207 -0.09685449 -0.021924777
000060 8b c5 14 bd 61 91 0f bd 04 da b9 bc 93 50 2e bd
       -0.036321204 -0.035050754 -0.022686966 -0.04255731
000070 b7 e9 44 bb 5b a1 a1 bc 84 09 9c bc c6 16 5b bd
       -0.0030046531 -0.01973026 -0.019047506 -0.053488515
000080 b3 d5 86 bd b6 a0 5d bd 19 33 06 bd 07 83 e2 bb
       -0.06583729 -0.054108344 -0.032763574 -0.0069125923
000090 8f 5f 18 bc 25 c2 91 bd e2 24 86 bc b0 0c 5f bd
       -0.009300127 -0.07117108 -0.016375009 -0.05445546
0000a0 4b 0b 5c bd 17 7e 01 bd 13 a9 82 bd 5b a3 95 bc
       -0.053721707 -0.03161439 -0.063799046 -0.01826637
0000b0 33 31 7a bd 3b 52 0c bd 83 4b e9 bc 0b df 31 bd
       -0.061082076 -0.03425811 -0.02847839 -0.0434256
0000c0 48 24 d2 bc 71 c8 1c bd bb a8 78 bd c9 6d 31 bd
       -0.025652066 -0.038277093 -0.06070779 -0.04331759
0000d0 b3 d8 7e bd de 99 5b bc 09 ec bf bd 70 60 91 bd
       -0.06221838 -0.013403384 -0.09371192 -0.07098472
0000e0 84 2e 87 bc a0 88 6e bd 44 6b 93 bd 09 94 1b bd
       -0.016501673 -0.058235765 -0.07198194 -0.037982974
0000f0 ef 40 83 bd 85 bf 37 bd e5 3d 84 bd 06 b3 83 bc
       -0.064088695 -0.04486038 -0.06457118 -0.016076576
