logs/exp5/model_iters_22000.pth (torch, 495376 bytes, 47 tensors)

module.encoder.c1.main.0.weight f4 [32, 3, 3, 3]
0	0xbc532343	-0.012886825
1	0x3b8dee4f	0.004331387
2	0xbbea398f	-0.007147975
3	0xbcf8135f	-0.030282674
4	0x3a9b743a	0.00118602
5	0x3b59be42	0.0033224975
6	0xbb733832	-0.0037112352
7	0x3cf8c77a	0.030368555
8	0x3cd8ad73	0.026449895
9	0xbb933b2b	-0.0044931374
10	0xbd4bb126	-0.04972949
11	0x3cc80031	0.024414154
12	0xbc5711ad	-0.013126773
13	0x3b2ff297	0.0026847476
14	0x3d463afa	0.04839609
15	0xbb7bf328	-0.0038444493
16	0x3ae5db18	0.0017536609
17	0x3c424f8e	0.011859788
18	0xbd4bb829	-0.049736176
19	0xbd858bf7	-0.06520837
20	0xbcb80069	-0.022461133
21	0xbd818a34	-0.06325188
22	0x3c7ca6dd	0.015420643
23	0x3d80d20c	0.06290063
24	0x3ca2b9f3	0.019864058
25	0xbd3a19a6	-0.045434617
26	0x3d5f7a8a	0.05456022
27	0x3a618969	0.00086035446
28	0xbc713217	-0.014721415
29	0x3c88d5ed	0.01670357
30	0x3c6a2808	0.014291771
31	0x3cfe43bd	0.03103816
32	0x3d0e70d5	0.034775574
33	0xbbbca713	-0.0057572215
34	0x3c65ab99	0.014017963
35	0xbc7d777d	-0.015470383
36	0x3bb5f459	0.00555281
37	0xbc871d20	-0.01649338
38	0xbcdffe65	-0.027342984
39	0xbbbadd42	-0.0057026455
40	0xbb6ce5a1	-0.0036147612
41	0xbb32c6d8	-0.0027279165
42	0x3d5165b0	0.051122367
43	0x3cb385e2	0.021914426
44	0xbca7c30a	-0.020478744
45	0xbb8c7f44	-0.004287632
46	0xba3eb809	-0.0007275348
47	0x3cd406a1	0.025882067
48	0xbbcf7ce0	-0.006332025
49	0x3cd8409c	0.026397996
50	0x3e007520	0.1254468
51	0xbd537c61	-0.05163229
52	0xbd239c7b	-0.039944153
53	0xbd7fd4ee	-0.062458925
54	0x3d069c05	0.032863636
55	0xbd3e365c	-0.04643856
56	0xbc4795fd	-0.012181756
57	0x3d540197	0.05175933
58	0x3ab374fd	0.0013691481
59	0xbcb40349	-0.021974223
60	0x3ca14d2b	0.019690117
61	0xbc36f596	-0.011166951
62	0x3c2e31de	0.010632006
63	0xbca5c867	-0.02023716
64	0xbd45c271	-0.048281137
65	0x3ae7b4ec	0.001767782
66	0xbc2f31d6	-0.010693034
67	0x3d234d43	0.039868604
68	0x3cb27043	0.021782046
69	0x3b2fcb50	0.0026824065
70	0xbab9b9cd	-0.0014169753
71	0x3b80feef	0.0039366405
72	0xbd676e7b	-0.056501847
73	0x3d151fa6	0.036407135
74	0x3cceba5b	0.025235346
75	0xbd04220b	-0.03225903
76	0xbd91beba	-0.07116456
77	0xbc7cbab3	-0.015425372
78	0xbd7e83fc	-0.06213759
79	0x3d52cecb	0.051466744
80	0x3bdd0a85	0.006745639
81	0xbd276098	-0.040863603
82	0xbcda0e05	-0.026618013
83	0xbc825b14	-0.01591257
84	0xbc281ec8	-0.010261245
85	0xbd09979f	-0.033591863
86	0x3c33b2a8	0.010967888
87	0x3c604f14	0.013690729
88	0x3b482ef4	0.0030545564
89	0x3d509a15	0.050928194
90	0xbd05d434	-0.032673076
91	0xbcafbed6	-0.021453302
92	0xbca2a636	-0.019854646
93	0x3d83a902	0.0642872
94	0xbc194023	-0.00935367
95	0xbb9c3884	-0.0047674794
96	0xbc856b73	-0.016286587
97	0x3cfbe9c9	0.030751126
98	0x3c1e9181	0.0096782455
99	0xbce062ce	-0.027390864
100	0xbca4c9b7	-0.020115716
101	0xba134fe3	-0.0005619509
102	0xbc6f4cc2	-0.014605703
103	0xbcec29cc	-0.028828524
104	0xbba40bee	-0.005006305
105	0xbd2427e4	-0.040077105
106	0xbd2bd7d7	-0.041953888
107	0x3c94f555	0.01818339
108	0x3cbc272c	0.022967897
109	0x3b2a214c	0.0025959788
110	0xbcddcbec	-0.027074777
111	0xbc0fb4a4	-0.008771095
112	0x3a8dc5e1	0.0010816419
113	0xbb3c61d1	-0.0028744827
114	0xbca79187	-0.020455135
115	0xbc36c48f	-0.011155262
116	0x3a8afad2	0.0010603315
117	0xbd1b4f1c	-0.03791724
118	0xbd59d2d4	-0.053179577
119	0xbc92bbbf	-0.01791179
120	0x3ca442ba	0.020051349
121	0xbc660714	-0.0140397735
122	0xbb9273f8	-0.004469391
123	0x3d4a0f49	0.049330983
124	0x3ccfb9b7	0.02535711
125	0x3c85b198	0.016320035
126	0xbcf457cc	-0.029827021
127	0x3cf8005f	0.030273614
128	0x3d433f09	0.047667537
129	0x3c36d297	0.011158607
130	0x3d4f2349	0.05057076
131	0xbcde64e7	-0.027147723
132	0xb8ea9948	-0.0001118654
133	0xbd722684	-0.059118763
134	0x3c0a1597	0.008427999
135	0x3c42ccd5	0.011889656
136	0xbcfda31e	-0.03096157
137	0xbcb9cd86	-0.022681009
138	0x3a9b0a67	0.0011828662
139	0x3cf3ef42	0.029777173
140	0x3ca3df73	0.02000401
141	0xbcd15825	-0.025554726
142	0x3d116b67	0.035502817
143	0x3ba98295	0.0051730373
144	0x3d571969	0.052514467
145	0x3cd79027	0.026313854
146	0xbbd5ca4b	-0.0065243593
147	0x3cfe0591	0.031008514
148	0xbd8811fc	-0.06644055
149	0x3c670774	0.014100898
150	0x3bfcb9c7	0.007712576
151	0xbd0b173d	-0.03395771
152	0xbcf9d954	-0.030499138
153	0xbcb3e746	-0.021960866
154	0xbbba856c	-0.0056921747
155	0x3d212a35	0.039346892
156	0x3c0f6e45	0.008754318
157	0xbd7f8a59	-0.062387798
158	0x3c62ebc7	0.013850159
159	0xbce5f32d	-0.028070057
160	0xbc00438f	-0.007828607
161	0x3c76f07c	0.015071984
162	0xbb38bfef	-0.0028190573
163	0x3bab7e16	0.0052335365
164	0x3c163ae8	0.009169318
165	0xbceb2243	-0.02870286
166	0x3a617da7	0.00086017925
167	0x3cf32925	0.029682705
168	0xbcf73339	-0.030175792
169	0xbd2cfafe	-0.042231552
170	0x3af03f93	0.0018329493
171	0x3d51d322	0.051226743
172	0x3bb4dea7	0.0055197063
173	0x3d94ca81	0.07265187
174	0xbb34a3a0	-0.0027563348
175	0xbceeea50	-0.029164463
176	0xbc974516	-0.01846556
177	0xbcd9881a	-0.026554156
178	0xbceb49d3	-0.028721726
179	0xbc9c2051	-0.019058378
180	0xbcb6adb0	-0.022299618
181	0xbd833f61	-0.06408573
182	0xbbb4ff32	-0.0055235857
183	0x3d58d14a	0.05293397
184	0xbc4171ab	-0.011806886
185	0xbaacf519	-0.0013195603
186	0x3d06f3e6	0.032947443
187	0x3badccfb	0.0053039766
188	0xbbad3dfd	-0.0052869306
189	0x3d8ad7f7	0.06779473
190	0x3b9a6135	0.004711295
191	0xbd1ba424	-0.037998334
192	0x3c920888	0.017826334
193	0xba3c69a8	-0.0007187375
194	0x3c14c60e	0.009080423
195	0xbc76de1f	-0.015067606
196	0x3bc8f28b	0.006132429
197	0xbd0083dc	-0.03137575
198	0xbda46c32	-0.08028449
199	0x3b80896a	0.003922631
200	0xbbdd12e1	-0.0067466353
201	0x3ce958e5	0.028484771
202	0x3c5f2a6c	0.013620954
203	0x3d14fecf	0.036375817
204	0x3cfed152	0.031105671
205	0xbcb1c9f1	-0.021702738
206	0xbba12376	-0.0049175574
207	0xbc990220	-0.018677771
208	0xbb97d6d7	-0.004633765
209	0x3d02ab87	0.031901862
210	0x3d57e6c2	0.052710302
211	0x3c8a845f	0.016908823
212	0x3c790380	0.015198588
213	0xbb3a03ab	-0.0028383534
214	0xbda98eeb	-0.082792126
215	0xbd9e81fd	-0.07739637
216	0x3ce657de	0.02811807
217	0xbaf7b40a	-0.001889826
218	0x3b893994	0.004187772
219	0x3bfedc5e	0.0077777347
220	0x3b9edafe	0.0048478832
221	0xbc1c2a37	-0.009531549
222	0x3c7e378b	0.015516172
223	0x3cb94eb2	0.022620533
224	0xbcd3049e	-0.025759038
225	0xbcfe0972	-0.031010363
226	0xbd544d10	-0.051831305
227	0x3bc58c38	0.0060286783
228	0xbcc8834e	-0.024476673
229	0x3c4f2b23	0.012644562
230	0x3d243013	0.04008491
231	0x3c046b73	0.0080822585
232	0x3cb6f27f	0.022332428
233	0x3c96d53b	0.018412223
234	0x3d79dc98	0.06100139
235	0xbb1d6aa9	-0.0024019873
236	0x3bdc16e5	0.0067165964
237	0xbd50b730	-0.05095595
238	0xbd04efb8	-0.032455176
239	0xbc6edee1	-0.014579506
240	0xbd75d092	-0.06001336
241	0xbd8cc481	-0.06873418
242	0xbb866fcc	-0.0041026827
243	0xbbc8d1f2	-0.006128543
244	0xbc834571	-0.016024323
245	0xbccfc9a9	-0.025364714
246	0xbc81249e	-0.01576453
247	0xb9346af5	-0.00017205982
248	0xbcf32728	-0.029681757
249	0xbb1268c7	-0.0022340284
250	0x3aa1e6bc	0.0012352089
251	0x3c38477a	0.01124751
252	0x3c9873ce	0.018609907
253	0x3bce5a72	0.006297403
254	0xbb6c127b	-0.0036021757
255	0xba16cd83	-0.00057526695

module.encoder.c1.main.0.bias f4 [32]
0	0x3943cdaf	0.00018673272
1	0xb8a377c9	-7.7947574e-05
2	0xb95c4760	-0.00021007424
3	0xb8fe6fed	-0.000121325116
4	0xb8d5c8ec	-0.00010194056
5	0x3a105fb6	0.0005507426
6	0x396e3a20	0.00022719102
7	0x37ec7d24	2.8191665e-05
8	0xb9a7542c	-0.00031915435
9	0xb99e1374	-0.00030150602
10	0x3a17ecaa	0.00057954586
11	0x38b9eb49	8.865313e-05
12	0xb9b83222	-0.00035132567
13	0xb90366de	-0.00012531455
14	0x38897e1e	6.55616e-05
15	0x38b63eff	8.69017e-05
16	0x36a15ca2	4.808958e-06
17	0xb9ed9c64	-0.00045320683
18	0xb87090ff	-5.7355497e-05
19	0xb9480cc3	-0.0001907824
20	0xb9358ae2	-0.00017313243
21	0x391e1f94	0.00015079818
22	0x38c2981e	9.278975e-05
23	0x3a1502dc	0.0005684325
24	0xb9f102f3	-0.000459693
25	0x36d795be	6.4249316e-06
26	0x3914aa3d	0.00014177799
27	0x39b07e49	0.00033663426
28	0x3891773e	6.9363494e-05
29	0xb75ae701	-1.3047597e-05
30	0x398dc80d	0.00027042665
31	0x3861b1c7	5.380975e-05

module.encoder.c1.main.1.weight f4 [32]
0	0x3f82d9ae	1.022268
1	0x3f818602	1.0119021
2	0x3f75a7e0	0.9595928
3	0x3f79f27e	0.9763564
4	0x3f83d86d	1.0300423
5	0x3f8027d2	1.0012152
6	0x3f80ff14	1.0077844
7	0x3f7f53df	0.9973735
8	0x3f754db8	0.95821714
9	0x3f820ea7	1.0160722
10	0x3f827361	1.0191461
11	0x3f7d7085	0.98999816
12	0x3f886798	1.0656614
13	0x3f8291f6	1.0200794
14	0x3f7c3b52	0.98528016
15	0x3f7c0dfd	0.98458844
16	0x3f68fe71	0.91013247
17	0x3f804b26	1.0022933
18	0x3f7841e1	0.96975523
19	0x3f7f3424	0.99688935
20	0x3f77df85	0.9682544
21	0x3f849152	1.0356848
22	0x3f7bdb2e	0.98381317
23	0x3f8826f3	1.0636886
24	0x3f77e889	0.96839195
25	0x3f80c5fd	1.0060421
26	0x3f7dc554	0.99129224
27	0x3f811e9b	1.0087465
28	0x3f7b1f66	0.98094785
29	0x3f6d6ec2	0.9274713
30	0x3f80d85d	1.0066029
31	0x3f6d66ad	0.92734796

module.encoder.c1.main.1.bias f4 [32]
0	0xbd474d31	-0.0486576
1	0xbd7b0372	-0.061282583
2	0xbdc03fb5	-0.09387151
3	0xbdce82f9	-0.10083575
4	0xbbfbf3cb	-0.0076889745
5	0xbc0ecc61	-0.00871572
6	0xbb3419f4	-0.002748129
7	0xbdcb915e	-0.09939836
8	0xbd7086b6	-0.05872222
9	0x3d173f00	0.036925316
10	0xbdef16e0	-0.11674285
11	0xbcb7847d	-0.022402043
12	0xbd97607c	-0.0739145
13	0x3d693c8a	0.0569425
14	0x3bff7f13	0.007797131
15	0xbda8f05a	-0.082489684
16	0xbdaff04c	-0.08590755
17	0xbcf247df	-0.029575286
18	0xbd8f683a	-0.070023015
19	0xbdde6a5e	-0.10860132
20	0xbd52e932	-0.051491924
21	0x3c08cf1c	0.00835016
22	0xbc97b353	-0.018518126
23	0xbcead12d	-0.028664196
24	0xbd46e184	-0.048554912
25	0xbd2ec40e	-0.04266744
26	0xbd6fc14b	-0.058533948
27	0xbcc116a1	-0.02357036
28	0xbd8a1ce1	-0.067437895
29	0xbd2de790	-0.042457163
30	0xbb1aa4f0	-0.0023596846
31	0xbd2fde52	-0.04293663

module.encoder.c1.main.3.weight f4 [32, 32, 3, 3]
0	0xbd09163b	-0.033468466
1	0x3d0d30d3	0.03447039
2	0x3d4a4726	0.04938426
3	0xbd339aa1	-0.043848637
4	0x3ab3177e	0.0013663617
5	0xbd2479e6	-0.040155314
6	0x3b30d0e7	0.0026979984
7	0x3b8abf4e	0.004234231
8	0xbbf542f1	-0.0074847867
9	0xbc4ce669	-0.012506106
10	0xbb2c23ff	-0.0026266573
11	0x3d5dafc6	0.05412271
12	0xbbe5f5aa	-0.007017811
13	0x3cf098d7	0.029369755
14	0xbb179aa3	-0.0023132942
15	0xbca73b9f	-0.020414172
16	0x3ca4379a	0.020046044
17	0xbc4910c1	-0.012272061
18	0xbcdd7668	-0.027034
19	0xbce9e1ca	-0.028550047
20	0xbc83bb87	-0.016080631
21	0xba903f9d	-0.0011005286
22	0x39b66de1	0.0003479561
23	0x3b299d77	0.002588121
24	0xbbd90e05	-0.0066239857
25	0xbbef193a	-0.0072967084
26	0xbcc1eb04	-0.023671634
27	0x3d1198e1	0.035546187
28	0x3c8a4ef8	0.016883358
29	0x3cd499de	0.025952276
30	0x3d70e2b2	0.058809943
31	0xbb9a90f2	-0.004716986
32	0xb91db244	-0.00015039096
33	0xbc4520f3	-0.0120317815
34	0xbb54c887	-0.0032468156
35	0x3cf01de8	0.029311135
36	0x3cac1d8e	0.021010187
37	0xbce118ec	-0.027477704
38	0xbd0f1e40	-0.034940958
39	0x3c5864e9	0.013207653
40	0xbc2f8d7b	-0.010714884
41	0xbae25175	-0.0017266708
42	0xbbca0e97	-0.00616629
43	0x3bddd1a7	0.0067693773
44	0x3bfa10ec	0.007631412
45	0xbcd9bbc2	-0.026578788
46	0xbd1857a6	-0.037192963
47	0x3c91d48e	0.01780155
48	0x3cdf48b8	0.027256355
49	0x3c91807c	0.017761461
50	0xbc314e11	-0.010821835
51	0xbc952304	-0.018205173
52	0x3c99e5ab	0.018786272
53	0xbcc262fd	-0.023728842
54	0x3a0265f4	0.00049742986
55	0x3c43c738	0.011949353
56	0x3a839351	0.001003841
57	0xbc82088f	-0.015873222
58	0x3a44c3f5	0.00075060065
59	0x3b54eff4	0.0032491656
60	0xbce1eac2	-0.027577762
61	0x3cc53f9f	0.024078188
62	0x3aeaa2c3	0.001790129
63	0x3bcc3fad	0.0062331767
64	0x3d19ce95	0.037550528
65	0x3cb52f94	0.022117414
66	0xbb5782ae	-0.0032884288
67	0xbd15ab93	-0.03654058
68	0xbd4f37ae	-0.05059021
69	0x3c194b09	0.009356269
70	0x3c3e6f34	0.011623193
71	0xbc6df940	-0.014524758
72	0xbc9d1418	-0.01917462
73	0xbc5bf272	-0.013424503
74	0x3c078e4b	0.008273671
75	0xbc6d6a0c	-0.014490616
76	0xbbcbbc0c	-0.0062174853
77	0x3d25e47c	0.040501103
78	0x3b0847ab	0.002079467
79	0x3c34cb5d	0.011034814
80	0x3c1a817d	0.0094302865
81	0x3c4a61eb	0.012352447
82	0xbc85eef2	-0.01634929
83	0xbc4b8238	-0.012421183
84	0xbd23f6e3	-0.04003037
85	0xbc830436	-0.015993219
86	0xbd45ae62	-0.048262008
87	0x3d6dc48c	0.05804877
88	0xbc8ce85e	-0.017200645
89	0xbc43f7f7	-0.011960975
90	0xbd10d208	-0.03535655
91	0xbd516d33	-0.05112953
92	0xbd3df66e	-0.04637759
93	0x3c07372f	0.008252903
94	0xbbd2355a	-0.0064150514
95	0xb8ba7814	-8.8915374e-05
96	0xbb93c5c6	-0.0045096604
97	0xb99b155c	-0.00029579818
98	0xbc138740	-0.009004414
99	0x3c0b7cda	0.008513654
100	0xbd73bff5	-0.059509236
101	0x3d3a8db6	0.045545302
102	0xbba06f12	-0.004896053
103	0x3c9119a1	0.017712416
104	0x3d21461e	0.03937351
105	0x3c8accc9	0.016943352
106	0x3cb88d6b	0.02252837
107	0x3c8f9f98	0.017532155
108	0xbd0b0b86	-0.033946536
109	0x3d4fefc8	0.050765783
110	0x3cf9a5d5	0.030474583
111	0xbca1c256	-0.019745987
112	0xbcb9dad6	-0.022687357
113	0xbba6b3ec	-0.0050873663
114	0x3d3188a3	0.043343198
115	0x3c19f010	0.009395614
116	0xbc1e7cf1	-0.009673343
117	0x3d5ab190	0.053391993
118	0x3d076a69	0.033060465
119	0x3c678c9b	0.014132644
120	0x3d9677da	0.073470786
121	0x3ca6f315	0.020379582
122	0x3d2e3e51	0.0425399
123	0x3da35dcf	0.07976877
124	0x3ce6bd44	0.02816642
125	0x3c2f7f52	0.010711508
126	0xbc8a9a6c	-0.016919337
127	0xbc5844ca	-0.013199994
128	0x3c8a59ce	0.016888525
129	0xba7e27a2	-0.0009695237
130	0xbc95c261	-0.018281164
131	0xbc5f965c	-0.013646688
132	0x3af99893	0.0019042663
133	0xbcda8a10	-0.026677161
134	0xbd801abe	-0.06255101
135	0x3cf23dea	0.029570539
136	0xbcc182e0	-0.023621976
137	0xbd2a332a	-0.0415527
138	0x3c23524a	0.00996835
139	0xbc7613f1	-0.015019403
140	0xbcc05539	-0.023478137
141	0xba9a79c3	-0.0011785555
142	0xbc8c2a9c	-0.017110161
143	0x3b233f70	0.0024909638
144	0xbba8a20c	-0.0051462706
145	0x3ceb1b8f	0.028699664
146	0xbcc1441b	-0.023592046
147	0x3ace68ba	0.0015747764
148	0x3c08f455	0.008359035
149	0xbc932c9a	-0.017965604
150	0x3c225e52	0.009910183
151	0xbb9eec44	-0.0048499424
152	0x3c9bc97e	0.019016977
153	0x3ad30463	0.001609933
154	0x3bf69a20	0.0075256974
155	0x3cc35034	0.023841955
156	0xbc3711b3	-0.011173653
157	0x3cb48cf1	0.022039862
158	0xbc105ca9	-0.008811154
159	0x3c4e141c	0.012578037
160	0x3da8bbac	0.082389206
161	0x3bc4fa0d	0.0060112537
162	0x3cffca40	0.03122437
163	0xbc051c71	-0.008124457
164	0x3c514515	0.012772818
165	0xbc255ceb	-0.010092954
166	0xbcdc101f	-0.026863156
167	0x3bf4293b	0.007451204
168	0x3798490c	1.8153827e-05
169	0xbc10c9e0	-0.008837193
170	0x3cca7cdc	0.02471774
171	0x3cca2e85	0.024680385
172	0xbcf87d1c	-0.030333094
173	0x3c83a036	0.016067605
174	0xbca7fb90	-0.020505697
175	0x3becaaa7	0.007222492
176	0x3c8058c8	0.015667334
177	0xbcd13756	-0.025539082
178	0x3c5b4762	0.013383718
179	0x3cc7517f	0.024330853
180	0xbc8e3436	-0.01735888
181	0xbc6708f8	-0.014101259
182	0x3cd33076	0.025779944
183	0x3c405976	0.011740079
184	0x3d5c31ab	0.053758305
185	0xbce99be5	-0.02851672
186	0x3bc8ad27	0.006124157
187	0xbbb28a8d	-0.0054486454
188	0x3cd1bc3f	0.025602458
189	0x3cd1e758	0.025623009
190	0x3d2bec1b	0.041973215
191	0xbcc657f1	-0.024211856
192	0xbceda73c	-0.029010408
193	0x3c807eac	0.015685402
194	0x3d0451d7	0.03230461
195	0xbc91c645	-0.017794738
196	0xba042c24	-0.0005041978
197	0xbd044e56	-0.03230127
198	0x3cfc0951	0.030766161
199	0x3cc8af1e	0.024497565
200	0x3ce32208	0.027726188
201	0x3cbf5e67	0.023360444
202	0x3d8f90ba	0.07010026
203	0x3b073632	0.0020631668
204	0x3d5111b0	0.05104226
205	0xbc3c222f	-0.011482759
206	0x3cfa28ec	0.030537091
207	0xba845a89	-0.0010097782
208	0xbc434d87	-0.011920339
209	0x3d152a25	0.036417145
210	0xbbd7dab1	-0.0065873493
211	0xbb32c767	-0.0027279498
212	0xbc60c8dc	-0.013719764
213	0xbd4cf9a2	-0.050042756
214	0xbcb78ce9	-0.022406058
215	0xbd0bd294	-0.03413637
216	0x3ca5ab30	0.02022323
217	0x3cca5430	0.024698347
218	0xbc17f8ed	-0.009275657
219	0x3bc498f5	0.005999679
220	0xbcb3d9ea	-0.021954495
221	0x3d36675b	0.04453216
222	0xbc021b4a	-0.0079410765
223	0xbd042668	-0.03226319
224	0x3c9e0fe5	0.019294688
225	0xbceef003	-0.02916718
226	0xbcb1451b	-0.021639397
227	0x3ba0a86a	0.004902889
228	0x3c787230	0.015163943
229	0x3c2037ef	0.009778961
230	0xbc9acca6	-0.018896412
231	0x3d360009	0.044433627
232	0xbd91e189	-0.071230955
233	0xbd58453e	-0.05280041
234	0xbbda9c4e	-0.006671465
235	0xbc3bf70c	-0.011472475
236	0x3d1cadef	0.038251814
237	0x3d242308	0.04007247
238	0x3c7d33a8	0.01545421
239	0xbce8e8ea	-0.028431375
240	0x3c0aa230	0.00846152
241	0x3d4c35d2	0.049856015
242	0xbafa41a3	-0.0019093048
243	0xbd1d6fa7	-0.038436558
244	0x3ce076c7	0.027400387
245	0x3abe2e1f	0.0014509595
246	0x3b77782c	0.0037760837
247	0xbd2c7ce3	-0.04211129
248	0x3d25e4cb	0.040501397
249	0x3c2b5f2a	0.010459701
250	0xbb93d301	-0.0045112376
251	0xbc0440e6	-0.008072114
252	0x3c00b425	0.00785545
253	0x3bb415df	0.0054957713
254	0xbc3a40b2	-0.011367964
255	0x3cbfedbe	0.023428794

module.encoder.c1.main.3.bias f4 [32]
0	0x35dfea32	1.6682955e-06
1	0xb7860d1f	-1.5980155e-05
2	0x363f2fe4	2.8489094e-06
3	0x37f5b645	2.9291152e-05
4	0xb775efc8	-1.4658966e-05
5	0xb8976e8f	-7.220834e-05
6	0xb84e8ce7	-4.9245453e-05
7	0x36cffbed	6.1984088e-06
8	0x360eaa25	2.1258686e-06
9	0x372a8f78	1.01661935e-05
10	0xb61dfe6e	-2.354292e-06
11	0xb74df825	-1.2276728e-05
12	0xb6a775f6	-4.9907203e-06
13	0xb6f9ac65	-7.4408476e-06
14	0xb731882e	-1.0581729e-05
15	0x3767e06c	1.3820925e-05
16	0xb6f33923	-7.248616e-06
17	0x36e6e91b	6.881671e-06
18	0x36cd7359	6.1229043e-06
19	0xb7d17a6d	-2.497175e-05
20	0xb8556304	-5.0875373e-05
21	0xb7354f86	-1.0806956e-05
22	0xb492689e	-2.7270738e-07
23	0x370801a2	8.106612e-06
24	0xb69f917b	-4.7555054e-06
25	0x361329a8	2.1928954e-06
26	0xb8189253	-3.63759e-05
27	0x37d06111	2.4840732e-05
28	0x379dc98d	1.8809713e-05
29	0x3780c621	1.535105e-05
30	0xb795c9ec	-1.7856211e-05
31	0xb79f30e9	-1.8977053e-05

module.encoder.c1.main.4.weight f4 [32]
0	0x3f78a81a	0.971315
1	0x3f7143da	0.9424416
2	0x3f7740a8	0.9658303
3	0x3f802f48	1.0014429
4	0x3f7b6746	0.9820446
5	0x3f82e27f	1.0225371
6	0x3f81b354	1.0132852
7	0x3f7a36b6	0.9773973
8	0x3f80aa78	1.0052023
9	0x3f65cde7	0.8976731
10	0x3f7e61a4	0.9936774
11	0x3f7bafcd	0.98315126
12	0x3f67d1f3	0.9055473
13	0x3f7ac415	0.9795545
14	0x3f7995c9	0.9749418
15	0x3f75bf73	0.95995253
16	0x3f77b822	0.9676534
17	0x3f7b3f5c	0.98143554
18	0x3f7bdd82	0.9838487
19	0x3f8251ae	1.0181177
20	0x3f807785	1.0036474
21	0x3f75da19	0.96035916
22	0x3f713d28	0.9423394
23	0x3f7aca6f	0.9796514
24	0x3f6f81b5	0.9355729
25	0x3f781d8d	0.9692009
26	0x3f7eafaf	0.9948682
27	0x3f820fac	1.0161033
28	0x3f7f0cad	0.99628717
29	0x3f724c7c	0.94647956
30	0x3f7149f1	0.9425345
31	0x3f7e02e8	0.99223185

module.encoder.c1.main.4.bias f4 [32]
0	0xbc5bd0bb	-0.013416464
1	0xbbf4b9fa	-0.007468459
2	0xba348d89	-0.00068875455
3	0x3d17ca1a	0.037057973
4	0xbc25590e	-0.010092033
5	0xbd4d038a	-0.050052203
6	0xbdc4345c	-0.09580299
7	0x3cf92503	0.030413156
8	0xbbbcacad	-0.0057578892
9	0xbdab5cd6	-0.083673164
10	0x3c050066	0.008117771
11	0xbc5ce7f4	-0.013483036
12	0xbe0019f9	-0.12509908
13	0x3c8d41cb	0.017243287
14	0x3c428804	0.011873249
15	0xbd3bcc28	-0.045848995
16	0xbd687241	-0.056749586
17	0xbb883a5c	-0.0041573476
18	0x3c4f5b74	0.0126560815
19	0xbd69d573	-0.057088327
20	0x3b88c326	0.004173654
21	0xbd9afbe6	-0.07567577
22	0xbd2af87d	-0.041740883
23	0xbd386ee6	-0.045027636
24	0xbc7ad8e3	-0.015310499
25	0xbc944456	-0.018098991
26	0xbc9db460	-0.019251049
27	0x3caa5aaa	0.020795185
28	0xba6d4c71	-0.0009052223
29	0xbd80f3bf	-0.06296491
30	0xbd089d19	-0.033352945
31	0xbc909c5e	-0.017652687

module.encoder.c2.main.0.weight f4 [64, 32, 3, 3]
0	0xbc061630	-0.008184001
1	0xbb0e6418	-0.002172714
2	0x3d3c7f2f	0.04601973
3	0x3be339d9	0.006934386
4	0xbc04c562	-0.0081037
5	0x3bc4c93a	0.0060054334
6	0x3d09b015	0.03361519
7	0xbc4a3f52	-0.012344198
8	0x3cdb9766	0.02680559
9	0x3bb2659e	0.0054442426
10	0xbb8baaff	-0.0042623277
11	0xbd0c349f	-0.03422987
12	0x3c974b89	0.018468635
13	0xbb2ca5fd	-0.0026344054
14	0xbb40a3f4	-0.0029394599
15	0x3d5ac83e	0.053413622
16	0x3d30a8e4	0.043129817
17	0x3b493d76	0.00307068
18	0x3d064254	0.0327781
19	0xbcaf67b9	-0.021411764
20	0xbc482721	-0.01221636
21	0xbb61869a	-0.0034412504
22	0xbc2774a4	-0.01022068
23	0x3cf1b400	0.029504776
24	0xbcd4fcc3	-0.025999432
25	0x3c189ade	0.009314267
26	0x3d051246	0.03248813
27	0x3b2ce6f3	0.0026382774
28	0x3b4fa7e3	0.0031685762
29	0x3bc43d0c	0.0059887227
30	0xbae76734	-0.0017654658
31	0xbca72b52	-0.020406399
32	0x3c5081bf	0.012726246
33	0xbcb0124b	-0.021493098
34	0xbcf28967	-0.029606534
35	0xbc9422bb	-0.018082967
36	0xbc9491d9	-0.018135952
37	0x3c9db3f0	0.01925084
38	0xbc4229cb	-0.0118507845
39	0x3bd4e58c	0.0064970907
40	0x3d85d830	0.06535375
41	0x3c81c7cf	0.015842346
42	0xbc94f0e6	-0.018181276
43	0x3d19cba4	0.037547722
44	0x3d86f5f5	0.06589881
45	0xbb220369	-0.002472127
46	0x3d25bcf5	0.040463407
47	0xbc9157f8	-0.017742142
48	0x3cbc6473	0.022997117
49	0x3c91bac2	0.017789248
50	0xbc441bb1	-0.011969493
51	0x3d07f261	0.033190135
52	0xbb311997	-0.002702331
53	0x3c927928	0.017880037
54	0xbd49c1ac	-0.049256966
55	0xbd593bc3	-0.05303551
56	0xbd56fc0c	-0.052486464
57	0xbd9e14ad	-0.07718787
58	0x3c279aac	0.010229748
59	0xbd3b4465	-0.045719523
60	0xbd24c232	-0.04022426
61	0xbd563a63	-0.052301776
62	0xbd37d3fd	-0.044879902
63	0x3af416a5	0.0018622471
64	0x3d0e02c8	0.03467062
65	0xbc74f370	-0.014950618
66	0xbc527e26	-0.012847459
67	0x3c799518	0.015233301
68	0x3c62148c	0.013798844
69	0x3bd169ac	0.006390771
70	0xbadd1b39	-0.0016869075
71	0x3af3673f	0.0018570198
72	0xbc958a15	-0.01825432
73	0xbbc9fee0	-0.0061644167
74	0xbab5492e	-0.0013831013
75	0x3c0899f6	0.008337488
76	0x3d1145a2	0.035466798
77	0xbba38662	-0.004990385
78	0xbb7b4caa	-0.0038345256
79	0xbbf9a11d	-0.007618083
80	0x3ac338e7	0.0014894278
81	0x3d0cd7b2	0.03438539
82	0x3c9f0c80	0.01941514
83	0xbc455bf1	-0.012045846
84	0xbc4ec39a	-0.012619877
85	0x3abaf245	0.0014262876
86	0x3cea68be	0.028614398
87	0xbc02e5df	-0.007989376
88	0x37d85f0a	2.5793463e-05
89	0x3d10f2c2	0.035387762
90	0xba98280d	-0.0011608616
91	0x3c8c9fe2	0.017166082
92	0xbcfb3a30	-0.030667394
93	0x3c805d89	0.015669601
94	0x3c6ec6bb	0.014573748
95	0x3c83b78e	0.016078737
96	0x3c98f8a6	0.018673252
97	0x3c2a245a	0.010384643
98	0xbd061dc7	-0.03274324
99	0x3bbe7480	0.0058122277
100	0x3d22f22d	0.039781738
101	0x3d09cea7	0.033644345
102	0x3cecbdb3	0.02889905
103	0x3d6210c3	0.055191766
104	0xbc94769e	-0.018122967
105	0xbc3ab8e7	-0.011396623
106	0x3c512abd	0.012766537
107	0xbcea774c	-0.028621338
108	0x3b9a424f	0.0047076116
109	0x3c1fc66e	0.009751899
110	0x3d51e7b6	0.051246367
111	0xbcb7fd7a	-0.022459734
112	0xbd502369	-0.05081502
113	0xbbcca450	-0.0062451735
114	0x3d2b758a	0.04186014
115	0xbbf8780d	-0.0075826705
116	0xbb66c745	-0.0035213989
117	0xbcd5ed79	-0.026114212
118	0x3cfebf10	0.031096965
119	0x3ca894e4	0.02057881
120	0x3bf796d3	0.0075558214
121	0xbc01f507	-0.007931954
122	0x3d8260a7	0.06366091
123	0x3cc98845	0.024601111
124	0x3d0d957b	0.034566384
125	0xbc8a2762	-0.016864482
126	0xbc5971ae	-0.013271732
127	0x3cc82c87	0.024435295
128	0x3b3305d1	0.00273167
129	0xbd2233fc	-0.039600357
130	0x3d33ed24	0.043927327
131	0x3d1fe4e3	0.039036643
132	0xbd165b4c	-0.03670816
133	0xb9462ed1	-0.00018900192
134	0xbbdfe213	-0.00683237
135	0xbb6c6351	-0.003606994
136	0xbcb0fe87	-0.021605743
137	0xbca70af2	-0.020390961
138	0xbcf2db3e	-0.029645558
139	0xba417e26	-0.00073811633
140	0x3d1ff825	0.03905501
141	0xbbbc72b9	-0.0057509807
142	0xbcea695a	-0.028614689
143	0xbccdf2cb	-0.025140187
144	0xbc315494	-0.010823388
145	0xbce45c12	-0.027875934
146	0x3ceaac78	0.028646693
147	0x3c63aff6	0.013896933
148	0x3cff60e6	0.031174134
149	0x3d2aa720	0.04166329
150	0x3b55ad79	0.0032604618
151	0x3d1bf7ca	0.038078107
152	0x3cc998b9	0.024608957
153	0xbc5f51f5	-0.01363038
154	0x3d2285ad	0.039678264
155	0x3c7215c9	0.014775702
156	0x3d5fd2df	0.05464446
157	0x3ca560bf	0.020187734
158	0x3d019f75	0.03164621
159	0x3ca38bff	0.019964216
160	0x3c0b7e66	0.008514022
161	0x3b8d6c62	0.0043158988
162	0xbd7bb106	-0.06144812
163	0xbbc5750b	-0.0060259155
164	0xbc51c662	-0.012803646
165	0x3beb3a6e	0.007178596
166	0xbbfb85c0	-0.0076758564
167	0x3c71beeb	0.014754991
168	0xbc7bb812	-0.01536371
169	0xbc21c202	-0.009872915
170	0x3cc1210d	0.02357533
171	0xbd0fc99d	-0.035104383
172	0xbd280f4f	-0.041030224
173	0xbd510d8b	-0.051038306
174	0xbd08084a	-0.03321103
175	0xbcd78c27	-0.026311947
176	0xbc58ce2a	-0.013232747
177	0xbd450266	-0.04809799
178	0xbc201668	-0.009770967
179	0xbc7f97c0	-0.015600145
180	0xbc559c57	-0.013037763
181	0x3ccba0c6	0.024856936
182	0xbcaeaf50	-0.02132383
183	0xbc32559f	-0.0108846715
184	0xbd1f61f4	-0.038911775
185	0xbd799bc5	-0.06093957
186	0xbcc71755	-0.024303118
187	0xbd1576da	-0.0364903
188	0xbc9779c6	-0.018490683
189	0xbd7ab6d7	-0.061209526
190	0xbcab8eaa	-0.020942051
191	0xbd79d362	-0.060992606
192	0xbc2106d5	-0.009828289
193	0xbc31d751	-0.010854558
194	0xbd4f21b0	-0.050569236
195	0x39913e45	0.0002770295
196	0xbc896e65	-0.016776273
197	0xbc63bc1c	-0.013899829
198	0xbd55e421	-0.052219514
199	0xbd372f74	-0.04472299
200	0xbb9cbf03	-0.0047835126
201	0xbd4b86e9	-0.049689207
202	0xbbc6e072	-0.0060692364
203	0xbd0e9d35	-0.034817893
204	0xbc7a92c3	-0.01529378
205	0x3d0ac23b	0.03387664
206	0x3b2ee4e2	0.0026686718
207	0xbc63f465	-0.013913249
208	0xbcc331dc	-0.023827486
209	0xbba6d148	-0.0050908662
210	0x3cc5cbe7	0.02414508
211	0xbcec077e	-0.028812166
212	0xbd13677b	-0.03598736
213	0xbc4e76bf	-0.012601553
214	0xbc1a485c	-0.009416666
215	0x3a8b34e5	0.0010620622
216	0xbc92562e	-0.01786336
217	0x3cf86438	0.030321226
218	0xbd302541	-0.043004278
219	0xbc4026b7	-0.01172798
220	0x3c11b4c2	0.008893194
221	0xbcfc69cb	-0.030812165
222	0xbce06937	-0.02739392
223	0xbbc0fde0	-0.0058896393
224	0x3c9edcb1	0.019392343
225	0x3c60a7a1	0.013711841
226	0x3c7657e0	0.0150355995
227	0x3c915b64	0.017743774
228	0xbc0659a3	-0.008200082
229	0xbd011e54	-0.031523064
230	0x3d184e3f	0.037183996
231	0x3d389b00	0.045069695
232	0x3d56803a	0.05236838
233	0x3d942bc5	0.07234911
234	0x3cc8c1b9	0.024506437
235	0xbb43291f	-0.0029779149
236	0xbc02cc4a	-0.007983277
237	0xbb88d71a	-0.0041760327
238	0xbbd59ac8	-0.0065186955
239	0x3c4b6b0e	0.012415661
240	0x3cbf1ea3	0.023330038
241	0x3c878668	0.016543582
242	0xbbae3696	-0.0053165657
243	0xbd4feaa1	-0.05076087
244	0xbd86455d	-0.06556199
245	0xbd5710fc	-0.052506432
246	0xbd0f17e6	-0.0349349
247	0xbd97f2bb	-0.07419344
248	0xbd28e07f	-0.04122972
249	0xbd81fa13	-0.06346526
250	0xbd4df1d1	-0.050279442
251	0xbd2242c6	-0.03961446
252	0x3bea9187	0.0071584615
253	0xbd59d63f	-0.053182837
254	0xbc6ee4c9	-0.014580914
255	0xbd0084a6	-0.031376503

module.encoder.c2.main.0.bias f4 [64]
0	0x36477186	2.971939e-06
1	0x35ceb3e8	1.5400556e-06
2	0x368ddd63	4.2279003e-06
3	0xb6ceddf9	-6.1651194e-06
4	0x370a524b	8.244601e-06
5	0x3618bead	2.2760753e-06
6	0x33fb69bd	1.1707332e-07
7	0x3602290c	1.9395402e-06
8	0xb5d85fe7	-1.6121165e-06
9	0x36fc2897	7.5149105e-06
10	0x36ee28df	7.0977107e-06
11	0x369f264e	4.7430285e-06
12	0xb70e802c	-8.493702e-06
13	0xb6a61357	-4.949437e-06
14	0xb63b5bd9	-2.7918634e-06
15	0x3676b736	3.67635e-06
16	0x36a10034	4.7981976e-06
17	0x3639113d	2.7577182e-06
18	0xb571a05a	-9.001284e-07
19	0x36af49e8	5.2240102e-06
20	0xb67248e6	-3.6103243e-06
21	0x373e48fb	1.1341875e-05
22	0xb6d5ac47	-6.3679504e-06
23	0xb5891c1d	-1.0215477e-06
24	0x36af0dad	5.2169985e-06
25	0x363352be	2.672124e-06
26	0xb35e03ed	-5.1691973e-08
27	0x33be4010	8.8592174e-08
28	0x366af7ea	3.5013022e-06
29	0x3710f64a	8.6404125e-06
30	0x36559a4f	3.1829293e-06
31	0xb5ae1703	-1.2970708e-06
32	0xb5ebb3f2	-1.7561235e-06
33	0x37492f0d	1.19914885e-05
34	0x35bfeb50	1.4299094e-06
35	0x36f8812d	7.406014e-06
36	0xb5e85416	-1.7309819e-06
37	0x358d7e9a	1.0542165e-06
38	0x3524ae0c	6.134803e-07
39	0x35ca6edc	1.5082437e-06
40	0x3707ba84	8.090054e-06
41	0xb69b9118	-4.636251e-06
42	0x361b259f	2.3118698e-06
43	0xb6ae9415	-5.202843e-06
44	0xb6b86979	-5.495906e-06
45	0xb62a6c77	-2.539511e-06
46	0x35ae69b0	1.2994769e-06
47	0x35dc0690	1.6393187e-06
48	0x340c09a1	1.3042019e-07
49	0x36801fbb	3.818391e-06
50	0x35bd9816	1.412586e-06
51	0xb677eed5	-3.6944887e-06
52	0x36777050	3.6871243e-06
53	0xb7170030	-9.000345e-06
54	0x36680e2f	3.457895e-06
55	0xb59786c5	-1.12896e-06
56	0x35f561ad	1.828235e-06
57	0x3696e110	4.496549e-06
58	0x3742875a	1.1594815e-05
59	0x36a787a4	4.9927785e-06
60	0x36ad1a1d	5.1588418e-06
61	0xb753cfd3	-1.2624968e-05
62	0xb5d7e656	-1.6085785e-06
63	0x35571e92	8.0138227e-07

module.encoder.c2.main.1.weight f4 [64]
0	0x3f80f2ee	1.0074136
1	0x3f87856d	1.0587593
2	0x3f7491d7	0.95535034
3	0x3f8251d2	1.018122
4	0x3f80f578	1.0074911
5	0x3f7a2170	0.9770727
6	0x3f721a90	0.9457178
7	0x3f7461d5	0.9546178
8	0x3f857e06	1.0429084
9	0x3f7bd3d4	0.983701
10	0x3f824706	1.0177925
11	0x3f82d88a	1.0222332
12	0x3f7a4f08	0.9777684
13	0x3f7f0bdf	0.9962749
14	0x3f6d5366	0.9270538
15	0x3f83a018	1.0283232
16	0x3f77a58f	0.96737
17	0x3f753400	0.9578247
18	0x3f857334	1.0425782
19	0x3f847f44	1.0351338
20	0x3f7cc0cb	0.9873168
21	0x3f7be83a	0.98401225
22	0x3f8605c9	1.0470515
23	0x3f800190	1.0000477
24	0x3f84c847	1.037362
25	0x3f78a57f	0.97127527
26	0x3f7840ef	0.9697408
27	0x3f83daee	1.0301187
28	0x3f760332	0.96098626
29	0x3f8076e4	1.0036283
30	0x3f84b81f	1.0368689
31	0x3f7e9c32	0.99457085
32	0x3f7a7efd	0.9785002
33	0x3f86fd67	1.0546082
34	0x3f80ad93	1.0052971
35	0x3f7e84d3	0.99421424
36	0x3f80fb1f	1.0076636
37	0x3f704c12	0.93866074
38	0x3f7a1d1f	0.97700685
39	0x3f71be22	0.94430745
40	0x3f879552	1.0592444
41	0x3f811f3c	1.0087657
42	0x3f71ee1a	0.9450394
43	0x3f81f126	1.0151718
44	0x3f7ae40b	0.98004216
45	0x3f7116fe	0.9417571
46	0x3f7cb1a4	0.9870856
47	0x3f719e53	0.9438221
48	0x3f8598b0	1.0437222
49	0x3f8a4251	1.0801488
50	0x3f7f08c8	0.99622774
51	0x3f78748a	0.97052824
52	0x3f740508	0.9532018
53	0x3f790cba	0.97285044
54	0x3f7a5c2a	0.9779688
55	0x3f87fcec	1.0624061
56	0x3f75bfd0	0.9599581
57	0x3f781000	0.96899414
58	0x3f818880	1.0119781
59	0x3f7bb629	0.9832483
60	0x3f7a60b0	0.97803783
61	0x3f7f198a	0.99648345
62	0x3f81e6ae	1.0148523
63	0x3f79745b	0.9744317

module.encoder.c2.main.1.bias f4 [64]
0	0xbd3d7c4d	-0.04626112
1	0xbd4de183	-0.050263893
2	0xbe29a5af	-0.1656711
3	0xbdbfe3f0	-0.093696475
4	0xbd5ffa23	-0.05468191
5	0xbd9ef0d9	-0.07760782
6	0xbdc40126	-0.095705315
7	0xbde3bef9	-0.111204095
8	0xbd8616e4	-0.06547335
9	0xbda335d6	-0.07969253
10	0xbdd230f5	-0.10263244
11	0xbdbf7186	-0.09347825
12	0xbdd19d78	-0.10235113
13	0xbda1f66f	-0.079083316
14	0xbe42f2f1	-0.19037987
15	0xbd8c254b	-0.068430506
16	0xbd9839c5	-0.07432894
17	0xbdfb0025	-0.12255887
18	0xbd41f0cc	-0.047348782
19	0xbe038d3d	-0.12846847
20	0xbe14edba	-0.1454381
21	0xbd768243	-0.06018282
22	0xbd6275ba	-0.055288054
23	0xbdab16ad	-0.083539344
24	0xbdbddaf9	-0.09270281
25	0xbdea6298	-0.114445865
26	0xbdf95084	-0.1217356
27	0xbd57113d	-0.052506674
28	0xbd34eac7	-0.044169214
29	0xbdc86595	-0.09785
30	0xbd9e8a54	-0.07741228
31	0xbe32e6c0	-0.17470837
32	0xbe18dbd5	-0.1492761
33	0xbd44bac0	-0.04802966
34	0xbdc54b68	-0.09633523
35	0xbe566a2f	-0.20938943
36	0xbd8a9943	-0.067675136
37	0xbddb26bb	-0.107007466
38	0xbda95070	-0.08267295
39	0xbe19e29e	-0.15027854
40	0xbd9fb97e	-0.07799052
41	0xbdc1b5d8	-0.09458512
42	0xbd9cd88e	-0.07658492
43	0xbdcdc354	-0.100470215
44	0xbe3f804c	-0.18701285
45	0xbdeb6d40	-0.11495447
46	0xbdd492ff	-0.103796
47	0xbde91611	-0.11381162
48	0xbd56f0c6	-0.052475713
49	0xbd35f4ed	-0.044423033
50	0xbd892fd3	-0.06698575
51	0xbe172884	-0.14761549
52	0xbda240b8	-0.079225
53	0xbe330279	-0.17481412
54	0xbd9abc19	-0.07555408
55	0xbd97db15	-0.074148335
56	0xbd82d99e	-0.063891634
57	0xbe1e3410	-0.15449548
58	0xbda50100	-0.08056831
59	0xbdc791c7	-0.09744602
60	0xbd1c27db	-0.038123947
61	0xbd868900	-0.065690994
62	0xbdadcc60	-0.08486247
63	0xbd708715	-0.058722574

module.encoder.c2.main.3.weight f4 [64, 64, 3, 3]
0	0x3c440c4a	0.011965821
1	0x3abc2682	0.0014354738
2	0xbc5e1f1d	-0.013557223
3	0x3d30ff44	0.04321219
4	0xbcc77b4c	-0.024350785
5	0x3b6ddba7	0.0036294253
6	0x3c00cba1	0.007861049
7	0xbc8f903a	-0.017524827
8	0xbc089569	-0.008336403
9	0x3bd3e1dc	0.0064661335
10	0x3cad77b3	0.021175241
11	0x3cde54e0	0.02714008
12	0xbc97ca04	-0.018528946
13	0xbb422201	-0.0029622319
14	0xbbdb7f64	-0.0066985358
15	0xbd7b9475	-0.061420877
16	0xbcc2b4c2	-0.023767833
17	0x3bcdb5c9	0.006277774
18	0xbb919ea9	-0.0044439626
19	0xbbb0a55e	-0.005390807
20	0xbd2038d0	-0.03911668
21	0x3cdfaf35	0.027305225
22	0xbb6818b1	-0.0035415108
23	0xbc1293de	-0.008946387
24	0x3cd40c23	0.025884693
25	0x3bc3a54b	0.005970632
26	0xbb485da7	-0.00305734
27	0xbc0d43fe	-0.008622168
28	0x3c882601	0.016619684
29	0xbc8279d7	-0.015927238
30	0xbc5d184e	-0.013494564
31	0xbd24e931	-0.04026145
32	0xbd73ec32	-0.059551425
33	0x3d08d54e	0.03340655
34	0x3d1b138b	0.037860435
35	0x3c886140	0.016647935
36	0x3d8421b1	0.064517386
37	0x3d66c328	0.05633846
38	0x3ca426d1	0.02003804
39	0xbc92353b	-0.017847648
40	0x3c1b5cc9	0.009482571
41	0xbd367c79	-0.0445523
42	0xbb7f3a44	-0.003894464
43	0x3d045b20	0.032313466
44	0xbc825838	-0.015911207
45	0xbd54c47a	-0.051945187
46	0x3c596068	0.013267614
47	0xbd7013f8	-0.058612794
48	0x3bd219f8	0.006411787
49	0xbc33d0d4	-0.0109750815
50	0x3bc4412b	0.005989214
51	0x3ba02782	0.004887522
52	0xbcf64944	-0.030064233
53	0xbcdd1e2e	-0.02699193
54	0x3c886ef9	0.016654478
55	0xbbb45655	-0.0055034556
56	0x3cf5cb9b	0.030004313
57	0xbd00c122	-0.031434186
58	0xbc8b9ab2	-0.017041538
59	0x3ce471ca	0.02788629
60	0x3bfd6287	0.0077326926
61	0x3c5261be	0.012840686
62	0x3c8e3b65	0.017362306
63	0xbca11910	-0.019665271
64	0xbd204625	-0.039129395
65	0xbca0c978	-0.019627318
66	0x3cafaa95	0.021443645
67	0x3c51badc	0.012800898
68	0x3c4b25a0	0.012399107
69	0x3d18ca6b	0.037302416
70	0xbc8e10d1	-0.017342003
71	0xbc8673c5	-0.016412625
72	0x3d547c1f	0.051876184
73	0x3d386ae8	0.04502383
74	0x3c6dd8bf	0.014517008
75	0xbcda6839	-0.026661025
76	0xbcd3e96e	-0.025868144
77	0xbd67c8d7	-0.05658802
78	0x3dd0b305	0.10190395
79	0x3d8ec7c8	0.06971699
80	0x3d12732b	0.035754364
81	0x3d61502a	0.05500809
82	0x3d7d59ce	0.061853223
83	0x3d006600	0.031347275
84	0xbd7c6ab3	-0.061625194
85	0xbca5d005	-0.020240793
86	0xbc3d8da8	-0.011569418
87	0xbc43bbf8	-0.011946671
88	0xbce8003b	-0.028320422
89	0x3ca86ef8	0.020560727
90	0x3c2b02bd	0.010437665
91	0x3bd510b5	0.006502236
92	0xbd55b133	-0.052170943
93	0xb8c4a5e7	-9.37691e-05
94	0xbdb3bd0f	-0.087762944
95	0xbd30bc6f	-0.043148454
96	0xbd9ad02d	-0.07559238
97	0xbcddb42a	-0.027063448
98	0xbc55f0a5	-0.013057862
99	0x3d27e784	0.040992275
100	0x3d0be6bd	0.034155596
101	0x3c6f2944	0.014597241
102	0x3be16a01	0.0068790917
103	0x3c836105	0.016037473
104	0x3c6a474b	0.014299224
105	0x3bbe271c	0.005803002
106	0x3c832e8f	0.016013412
107	0x3d53ded9	0.051726196
108	0x3c156f66	0.009120798
109	0x3d26f46b	0.04076044
110	0x3c09860d	0.008393777
111	0xbbc7c051	-0.006095924
112	0xbce06738	-0.027392969
113	0xbce1bc1b	-0.027555516
114	0x3c81723c	0.015801542
115	0xbd12a64c	-0.035803124
116	0xbd69711b	-0.05699263
117	0xbcbf15d4	-0.023325838
118	0x3bcda75e	0.0062760552
119	0xbc2a2679	-0.010385149
120	0x3c00d749	0.007863828
121	0xbcf46d96	-0.02983741
122	0xbd7904cc	-0.06079559
123	0xbd136b80	-0.035991192
124	0xbcd13a3a	-0.02554046
125	0xbc3197e3	-0.010839435
126	0xbd16f438	-0.036854
127	0xbd3d5b10	-0.046229422
128	0xbcd51175	-0.0260093
129	0xbd716fa4	-0.05894436
130	0xbce24087	-0.02761866
131	0xbd706f6e	-0.058700018
132	0x3d088b8e	0.033336215
133	0x3c94601d	0.018112237
134	0x39c1c0e2	0.00036955538
135	0xbd4d4340	-0.050112963
136	0xbd35958f	-0.044332083
137	0xbd95607a	-0.07293792
138	0x3be50534	0.0069891457
139	0xbd154a44	-0.03644778
140	0x3befe7b6	0.0073213233
141	0xbc724e34	-0.014789153
142	0xbd183403	-0.037158977
143	0xbb89486b	-0.004189541
144	0x3bdb7b7b	0.0066980696
145	0xbd0a11ee	-0.033708505
146	0x3c8602e1	0.016358795
147	0x3ac586aa	0.001507004
148	0x3d0193ba	0.031635024
149	0x3da6965b	0.08134147
150	0xbba8b6b2	-0.005148732
151	0xbbec7641	-0.0072162454
152	0xbac694ff	-0.0015150605
153	0x3d7a9504	0.06117727
154	0x3cc568c3	0.024097806
155	0x3d87cefb	0.06631275
156	0x3c4481c6	0.011993831
157	0x3c142870	0.009042844
158	0x3c47564e	0.012166573
159	0xbd73be34	-0.059507564
160	0xbd11ac3f	-0.035564657
161	0xbc5fccb8	-0.013659649
162	0xbd16d5e7	-0.036825087
163	0x3d29f589	0.041493926
164	0x3c656aa4	0.014002476
165	0xbc6efd8d	-0.014586818
166	0x3c151928	0.009100236
167	0xbc2349c3	-0.009966317
168	0xbd32da7d	-0.043665398
169	0xbb9f540c	-0.004862314
170	0x3cab1264	0.020882793
171	0x3ce00de2	0.02735037
172	0x3ca4ce59	0.020117925
173	0x3cea6ebb	0.028617254
174	0xbc61c538	-0.013779931
175	0x3d2316e0	0.039816737
176	0xbd57a26b	-0.05264513
177	0xbcaaa778	-0.020831808
178	0xbbcf5112	-0.006326803
179	0xba3f5164	-0.00072982
180	0x3c9457af	0.018108217
181	0x3cd0083e	0.025394555
182	0x3c928cc8	0.017889395
183	0xbcbfa5ff	-0.023394583
184	0xbc8cdfd7	-0.017196579
185	0xbd64cac1	-0.055857424
186	0xba3bd9a6	-0.0007165916
187	0xbcbfac02	-0.02339745
188	0x3bc07880	0.0058737397
189	0xbd29884f	-0.04138976
190	0x3bf1a4e0	0.007374391
191	0x3adbd261	0.0016771072
192	0x3cbe81d2	0.023255263
193	0xbc295d5a	-0.010337198
194	0x3bc9cd1b	0.0061584837
195	0xbcc601f5	-0.024170855
196	0xbc22b9d5	-0.009932001
197	0x3d39409e	0.04522764
198	0xbcdf9f6e	-0.027297702
199	0x3d0de91b	0.034646135
200	0x3cf71ec2	0.030166034
201	0x3c4b741d	0.01241782
202	0x3b795493	0.0038044795
203	0xbb793b33	-0.003802967
204	0x3c053c5a	0.008132065
205	0x3db6cd93	0.08925929
206	0xbb9e41f0	-0.0048296377
207	0xbc204efb	-0.009784455
208	0x3c389539	0.011266046
209	0x3cd98be9	0.026555972
210	0xbbea1308	-0.007143382
211	0xbc1ae2cf	-0.009453489
212	0x3b91dd83	0.004451455
213	0xbd04db5b	-0.032435756
214	0xbcae8249	-0.02130236
215	0x3c90f918	0.017696902
216	0xbcbd4f2b	-0.02310904
217	0xbd290a12	-0.04126937
218	0xbcd08c9f	-0.025457678
219	0xbbf5df50	-0.0075034276
220	0xbc448d06	-0.011996513
221	0xbb989bbb	-0.0046572364
222	0xbcf80aba	-0.030278552
223	0x3c8880ec	0.016663037
224	0xbc74af9f	-0.014934449
225	0x3b71a133	0.0036869764
226	0x3bc9082d	0.006135008
227	0x3ac9af0b	0.001538725
228	0xbcdb1cdf	-0.026747165
229	0xbd1b2b2e	-0.037882976
230	0x3cb065d1	0.021532925
231	0xbd3a0f10	-0.04542452
232	0xbd1961d7	-0.037446823
233	0xbd362b90	-0.04447514
234	0x3c2bf863	0.010496232
235	0x3a3f67af	0.0007301522
236	0xbc53ce49	-0.0129276
237	0x3cbd7842	0.023128632
238	0x3ce81d5c	0.028334312
239	0x3bbe1dae	0.005801878
240	0x3bd4cf3d	0.0064944313
241	0xbccce6ad	-0.025012339
242	0x3c21d39e	0.009877114
243	0x3d138398	0.03601417
244	0x3c29a5ab	0.01035444
245	0x3d460fff	0.0483551
246	0x3bfaa1f0	0.007648699
247	0xbcda256a	-0.026629169
248	0xbc3b44f3	-0.011430013
249	0x3d859dec	0.06524262
250	0x3d6de645	0.05808093
251	0xbc4abebe	-0.012374578
252	0x3cbe1a19	0.023205804
253	0xbc25b59e	-0.010114102
254	0xbb9d3571	-0.0047976305
255	0xbd684d7b	-0.056714516

module.encoder.c2.main.3.bias f4 [64]
0	0xb644a03a	-2.929954e-06
1	0xb5a2992c	-1.211452e-06
2	0x34c8e6c9	3.742082e-07
3	0x35e83dec	1.7303369e-06
4	0x372ad805	1.0183086e-05
5	0xb5ef0109	-1.7807189e-06
6	0xb58d547a	-1.0529905e-06
7	0x359c5010	1.1646207e-06
8	0xb672914a	-3.614538e-06
9	0x3654422c	3.1628979e-06
10	0x359898a9	1.1369312e-06
11	0x351606e4	5.588938e-07
12	0xb5fb0b6e	-1.8704284e-06
13	0xb51c3820	-5.81962e-07
14	0x34dc2a73	4.100908e-07
15	0xb655fe16	-3.188737e-06
16	0x36129d9c	2.1847436e-06
17	0x353f0419	7.115901e-07
18	0x3488ef12	2.550592e-07
19	0xb6726d55	-3.612445e-06
20	0xb6359021	-2.7054996e-06
21	0x348513dd	2.4787633e-07
22	0x359e38c8	1.1788443e-06
23	0xb5c6fafc	-1.4825196e-06
24	0xb5c9e263	-1.5041554e-06
25	0x34b75242	3.4146257e-07
26	0xb6907d70	-4.3061373e-06
27	0xb5a15d68	-1.202262e-06
28	0x34b063bc	3.285512e-07
29	0xb4c31ee5	-3.634406e-07
30	0x369ece79	4.7328035e-06
31	0xb4f58689	-4.5732693e-07
32	0xb6a52c8c	-4.922569e-06
33	0x36121229	2.1766266e-06
34	0x357020cd	8.94547e-07
35	0xb63f28fe	-2.8485078e-06
36	0x3605d485	1.9942247e-06
37	0xb58a5116	-1.03054e-06
38	0xb64d3cb9	-3.0582726e-06
39	0x365bfe48	3.2781554e-06
40	0x35795a41	9.2891065e-07
41	0x361aeaf9	2.308456e-06
42	0x35a7c484	1.2499663e-06
43	0x350fe5c8	5.3606027e-07
44	0xb4c26446	-3.6208274e-07
45	0x3699d90e	4.585024e-06
46	0xb64f0477	-3.0848003e-06
47	0xb56e6cd3	-8.882027e-07
48	0x35304b26	6.5674465e-07
49	0xb5ac7a4a	-1.2850589e-06
50	0xb4e5ab7e	-4.277935e-07
51	0xb6b44fdf	-5.3737162e-06
52	0xb559a77c	-8.108252e-07
53	0x364153d9	2.8808047e-06
54	0xb5935435	-1.0976861e-06
55	0xb699dae7	-4.585239e-06
56	0x355d5e48	8.2466113e-07
57	0xb5c6d956	-1.4815403e-06
58	0x3583a115	9.807142e-07
59	0xb5739e68	-9.0755066e-07
60	0x36278de7	2.4967537e-06
61	0x34c1663a	3.602343e-07
62	0xb5f10512	-1.7957375e-06
63	0x33ce7389	9.613638e-08

module.encoder.c2.main.4.weight f4 [64]
0	0x3f835c8f	1.0262622
1	0x3f77d7ea	0.96813834
2	0x3f88fd8e	1.0702379
3	0x3f824411	1.0177022
4	0x3f80d408	1.0064707
5	0x3f814be7	1.0101289
6	0x3f79acea	0.9752947
7	0x3f7eceab	0.995341
8	0x3f7f3fb4	0.9970658
9	0x3f7dc020	0.99121284
10	0x3f7f6127	0.9975762
11	0x3f81db79	1.0145103
12	0x3f822772	1.0168288
13	0x3f7cf2fb	0.9880826
14	0x3f7e783e	0.99402225
15	0x3f7e97d3	0.99450415
16	0x3f7ea364	0.99468064
17	0x3f75a591	0.9595576
18	0x3f7d7b11	0.9901591
19	0x3f78be38	0.9716525
20	0x3f828853	1.0197853
21	0x3f7e55de	0.9934977
22	0x3f806d09	1.0033275
23	0x3f826581	1.0187227
24	0x3f7ea33a	0.99467814
25	0x3f7a8fb0	0.978755
26	0x3f7e2daf	0.9928846
27	0x3f82c205	1.021546
28	0x3f814aa2	1.0100901
29	0x3f7d3205	0.9890445
30	0x3f7d4d43	0.9894602
31	0x3f77e7ea	0.9683825
32	0x3f7fc2c2	0.9990655
33	0x3f7e29df	0.9928264
34	0x3f82ba67	1.0213135
35	0x3f85d092	1.0454276
36	0x3f82ed66	1.0228698
37	0x3f815e54	1.0106912
38	0x3f78c054	0.9716847
39	0x3f80f6e1	1.0075341
40	0x3f792d6b	0.9733493
41	0x3f80bc0b	1.0057386
42	0x3f7addab	0.9799449
43	0x3f7fb162	0.9988004
44	0x3f78375e	0.96959484
45	0x3f80332d	1.0015618
46	0x3f82f228	1.023015
47	0x3f7e9505	0.99446136
48	0x3f807e20	1.003849
49	0x3f7a3d92	0.977502
50	0x3f77f432	0.9685699
51	0x3f7fd34f	0.99931806
52	0x3f80216c	1.00102
53	0x3f80cedf	1.0063132
54	0x3f7cc1fa	0.98733485
55	0x3f7e0044	0.99219155
56	0x3f80b784	1.0056005
57	0x3f809a7e	1.0047147
58	0x3f71cf00	0.9445648
59	0x3f84a2da	1.0362198
60	0x3f7a9b4e	0.97893226
61	0x3f831465	1.0240599
62	0x3f84bc64	1.0369992
63	0x3f86483a	1.0490792

module.encoder.c2.main.4.bias f4 [64]
0	0xbd1bdf49	-0.03805474
1	0xbdf02d3e	-0.11727379
2	0xbd46af82	-0.04850722
3	0xbd8d3fd0	-0.06896937
4	0xbd58b157	-0.0529035
5	0xbdd98915	-0.106218494
6	0xbdca00c1	-0.09863425
7	0xbd95f145	-0.07321409
8	0xbdf8c24c	-0.12146434
9	0xbd96ca64	-0.07362822
10	0xbdba345f	-0.0909202
11	0xbd8ccb4b	-0.068747126
12	0xbddca18d	-0.10773001
13	0xbd6e30d0	-0.05815202
14	0xbd36c936	-0.044625483
15	0xbd619a53	-0.055078816
16	0xbd2a96dc	-0.041647777
17	0xbe1010e4	-0.14068943
18	0xbdc0526c	-0.09390721
19	0xbdf3b55c	-0.11899826
20	0xbe1e9e01	-0.15489961
21	0xbe1a39f5	-0.15061171
22	0xbe0ea71b	-0.13930933
23	0xbd23abb2	-0.039958663
24	0xbdb80a65	-0.089863576
25	0xbda6a115	-0.08136193
26	0xbd80ad3a	-0.0628304
27	0xbdf234f5	-0.11826507
28	0xbcfb43a0	-0.030671895
29	0xbd670dae	-0.05640953
30	0xbd093b5c	-0.033503875
31	0xbdb5a3de	-0.08869146
32	0xbe03c611	-0.12868525
33	0xbd920b91	-0.07131112
34	0xbda1a5e4	-0.07892969
35	0xbd18ff4f	-0.037352856
36	0xbd55f94e	-0.05223971
37	0xbdbb3d8e	-0.091426
38	0xbd6a222b	-0.05716149
39	0xbdb5ff9e	-0.08886646
40	0xbe1bb361	-0.15205146
41	0xbd34f28f	-0.044176634
42	0xbdc655b5	-0.09684316
43	0xbd86c62a	-0.065807655
44	0xbe21dfa7	-0.15807973
45	0xbd8ff422	-0.070289865
46	0xbd4ec240	-0.05047822
47	0xbd9f91b8	-0.077914655
48	0xbda9e2d5	-0.08295218
49	0xbdb33d8a	-0.08751972
50	0xbddbe11e	-0.10736297
51	0xbd8fb3b3	-0.07016697
52	0xbdd3ea8e	-0.10347472
53	0xbccc9994	-0.024975576
54	0xbdfc53d4	-0.123206764
55	0xbe15ad2f	-0.14616846
56	0xbd5f5537	-0.054524627
57	0xbe060f16	-0.13091692
58	0xbe025686	-0.12728319
59	0xbd98cf96	-0.07461469
60	0xbdfd478c	-0.12367162
61	0xbdd7e73b	-0.105421506
62	0xbde8604c	-0.11346492
63	0xbd1c5369	-0.038165484

module.encoder.c3.0.weight f4 [32, 64, 3, 3]
0	0x3ca6b756	0.020351093
1	0x3c4a6198	0.01235237
2	0x3c4ee28b	0.012627254
3	0x3c8e1fd1	0.017349156
4	0xbcffe2ce	-0.031236079
5	0xbc26be9d	-0.010177282
6	0x3cfe0e30	0.031012625
7	0x3d40ed6c	0.047101423
8	0x3ca5885a	0.020206619
9	0x3c62337a	0.013806218
10	0x3ca91bf1	0.020643206
11	0xbb7ab598	-0.003825521
12	0x3bef0c8c	0.007295197
13	0xbbc05d67	-0.0058705094
14	0xbc7a2a19	-0.015268826
15	0xbd1059ba	-0.03524182
16	0xbc1ebd42	-0.009688677
17	0xbc705101	-0.01466775
18	0xbd081f23	-0.03323282
19	0xbd168c6c	-0.03675501
20	0xbbf1a534	-0.00737443
21	0x3d6d92e9	0.058001433
22	0x3ccefc8f	0.025266914
23	0x3d4a65c5	0.04941346
24	0x3d0431fc	0.03227423
25	0x3d40e8b9	0.04709694
26	0xbd9d559f	-0.076823466
27	0xbd80e9fb	-0.06294628
28	0xbda937ed	-0.0826262
29	0xbcad4212	-0.021149669
30	0x3d61cc4e	0.05512648
31	0xbc131332	-0.0089767445
32	0x3c1f8b3e	0.009737788
33	0x3cefbbd2	0.029264364
34	0x3baa0b69	0.0051893485
35	0x3c6766f0	0.014123663
36	0xbc86d5d1	-0.016459377
37	0xbc26231b	-0.010140206
38	0xbd4e6120	-0.050385594
39	0xbb72c8b7	-0.0037045905
40	0x3d533831	0.05156726
41	0x3d02ddbc	0.031949744
42	0xbce65a10	-0.028119117
43	0xba152b5a	-0.0005690359
44	0xbbc18f8f	-0.005907006
45	0xba310923	-0.00067533756
46	0x3cfb5891	0.03068188
47	0xbc6780be	-0.014129816
48	0x3cbe0645	0.023196349
49	0xbccb7ac2	-0.024838809
50	0x3b97280b	0.004612928
51	0xbca7f8ba	-0.020504344
52	0x3ca859fb	0.020550719
53	0xbd0a9ba7	-0.033839848
54	0xbcd9c20e	-0.02658179
55	0xbc31f469	-0.010861495
56	0xbd339c2d	-0.043850113
57	0xbce74f78	-0.028236136
58	0xbc86f01a	-0.016471911
59	0xbd38d8d3	-0.045128655
60	0x3d162d29	0.03666416
61	0x3d08fbc5	0.03344323
62	0x3d0fc762	0.035102256
63	0x3ba1eef8	0.0049418174
64	0x3d85c6d6	0.065320656
65	0x3d243ee1	0.04009903
66	0xbd24a9af	-0.040200885
67	0x3ccbc60b	0.024874708
68	0xbcb4a87a	-0.022052992
69	0x3c3e7d33	0.0116265295
70	0xbb83ba75	-0.00402003
71	0x3d05fb10	0.032710135
72	0xbcb48c7c	-0.022039644
73	0xbc04d027	-0.008106268
74	0xbc220d02	-0.009890797
75	0xbd82d06e	-0.06387411
76	0xbd07af2d	-0.033126045
77	0x3b67eaa1	0.0035387652
78	0xbc4d8ed2	-0.012546258
79	0x3cf35f4a	0.029708523
80	0x3d4814c0	0.048847914
81	0xbc0bf596	-0.008542439
82	0xbc31b9cd	-0.010847521
83	0xbcc37d95	-0.023863593
84	0x3af5b3c3	0.001874559
85	0x3c85e9e0	0.016346872
86	0x3cf3738b	0.029718181
87	0x3bf49426	0.0074639497
88	0x3ce58ce6	0.028021287
89	0x3c29d350	0.010365322
90	0xbcb2bb82	-0.021817926
91	0x3cfd007a	0.030884016
92	0xbd1be2f4	-0.038058236
93	0xbc4095d7	-0.011754475
94	0x3cb1adae	0.021689262
95	0xbd2fcd42	-0.04292036
96	0xbc291c7c	-0.010321733
97	0x3cda7b8a	0.026670236
98	0x3c51b91f	0.012800484
99	0xbce41244	-0.027840741
100	0x3d2fb34a	0.042895593
101	0x3d6a3aa4	0.05718483
102	0x3d25705f	0.04039037
103	0x3d8ea180	0.069643974
104	0x3db31e57	0.08746021
105	0x3d0e06bf	0.034674402
106	0xbc36c6bc	-0.01115578
107	0x3c8d339c	0.017236523
108	0xbbfdd2c9	-0.007746075
109	0xbc358666	-0.011079406
110	0xbc83621b	-0.016037991
111	0xbd53da3f	-0.051721808
112	0xbd336979	-0.04380176
113	0x3a128d07	0.0005590473
114	0xbb7a7306	-0.0038215532
115	0xbc5b72ad	-0.01339404
116	0x3cba7220	0.022759497
117	0x3cb17273	0.021661019
118	0xbc49512e	-0.012287421
119	0x3b83563b	0.004008082
120	0x3d330477	0.04370543
121	0x3d07f548	0.033192903
122	0x3d31bc4b	0.04339246
123	0x3a5828cf	0.0008245827
124	0xbc4ceb28	-0.0125072375
125	0xbd00c447	-0.031437185
126	0xbd2b7a6b	-0.041864794
127	0xbc6c16a5	-0.014409696
128	0xbc11245f	-0.008858769
129	0xbc9575c9	-0.01824464
130	0x3c9b7d17	0.018980546
131	0xbb7025a5	-0.0036643532
132	0xbda80bae	-0.08205353
133	0xb908ebea	-0.00013057856
134	0xbc19f663	-0.009397122
135	0xbc90c136	-0.017670255
136	0xbc664c94	-0.014056344
137	0xbb990edb	-0.0046709604
138	0x3d579b22	0.05263818
139	0x3d1d4e50	0.038404763
140	0xbb9ed526	-0.0048471866
141	0x3cb2b9d3	0.021817124
142	0x3ced1b45	0.028943667
143	0xbcf37c00	-0.029722214
144	0x3cc3a7bb	0.023883691
145	0x3bbfe786	0.005856457
146	0xbca49b08	-0.020093456
147	0xbc89dfeb	-0.016830405
148	0xbcbe9442	-0.023264054
149	0xba8284b3	-0.000995776
150	0x3d2b5f6f	0.04183906
151	0x3cef060c	0.029177688
152	0x3d52f507	0.051503208
153	0x3b040d34	0.0020149471
154	0x3c83451d	0.016024167
155	0xbbc297a8	-0.005938489
156	0x3b12a83b	0.0022378105
157	0x3d637ce4	0.055539027
158	0xbd46fcb3	-0.048580837
159	0x3d037009	0.032089267
160	0x3c8282ec	0.015931569
161	0xbd70dff5	-0.058807332
162	0xbc67bb26	-0.014143741
163	0x3d20aebd	0.039229143
164	0xba651462	-0.0008738694
165	0xbc45ff4a	-0.012084791
166	0x3aa0ab6d	0.001225812
167	0xbb29a4a1	-0.002588548
168	0xbd8bc41f	-0.068245165
169	0x3c5e0177	0.013550154
170	0xbd7d4db5	-0.061841685
171	0xbcfc6ba8	-0.030813053
172	0x3a087163	0.0005204884
173	0x3c201ad2	0.009772019
174	0x3ba96e3a	0.0051706107
175	0x3b8bf75d	0.0042714314
176	0x3cb84b3b	0.02249681
177	0xbc28e471	-0.010308371
178	0x3c5b5263	0.013386342
179	0x3bea3961	0.0071479534
180	0x3c2f4be9	0.010699251
181	0x3cbebca6	0.023283314
182	0xbc3f63a3	-0.01168147
183	0x3d7d2f7f	0.061812874
184	0x3be9008f	0.0071106623
185	0xbc484160	-0.012222618
186	0xbd514dad	-0.051099468
187	0x3c854e44	0.016272672
188	0xbd53355c	-0.05156456
189	0x3c84b297	0.01619844
190	0xbc256575	-0.01009499
191	0x3b482838	0.003054155
192	0x3c97e88b	0.018543502
193	0xbc916f82	-0.017753366
194	0xbcd58c81	-0.026067974
195	0x3c37c017	0.011215231
196	0x3cbcc4ff	0.023043154
197	0xbb5ea6fb	-0.003397404
198	0xbceae57c	-0.02867388
199	0xbd75d55d	-0.060017932
200	0xbc319f51	-0.010841207
201	0x3d14e469	0.03635064
202	0xbcd4234e	-0.02589574
203	0x3cd5bdcd	0.02609148
204	0x3b96a3ad	0.0045971484
205	0xbd1293a2	-0.035785325
206	0xbd086acf	-0.033304986
207	0xbd378e13	-0.044813227
208	0xbd9db586	-0.077006385
209	0xbdd37f87	-0.10327058
210	0x3c87cf36	0.016578298
211	0xbbf3e0ed	-0.0074425847
212	0xbd12b6f1	-0.035818998
213	0x3cafce0b	0.021460554
214	0xbd0e0a39	-0.034677718
215	0x3d207fcc	0.039184377
216	0xbd76562d	-0.060140777
217	0xbd07bf42	-0.033141382
218	0x3cc6f710	0.02428773
219	0xbd22d2b0	-0.03975171
220	0x3b4b58f9	0.0031028374
221	0xbd35499f	-0.044259664
222	0xbd753832	-0.059868045
223	0xbcb194f3	-0.02167747
224	0xbc5690fa	-0.013096089
225	0x3bde73d1	0.0067887087
226	0xbcb0fc4d	-0.021604681
227	0x3c1f001a	0.009704614
228	0x3d3b94a9	0.04579607
229	0x3c5a602b	0.013328592
230	0xbc961f2b	-0.018325409
231	0x3c4c89dc	0.01248404
232	0x3c04c7d7	0.008104286
233	0xbd2a5811	-0.041587893
234	0xbd64378c	-0.055717036
235	0xbd7d77e9	-0.061881933
236	0x3cb38be0	0.021917284
237	0xbc8d500d	-0.017250085
238	0x3bca182e	0.006167433
239	0x3d370225	0.04467978
240	0xba931021	-0.0011220017
241	0x3d24e0c1	0.040253405
242	0x3d97fac4	0.074208766
243	0x3dae618f	0.085147016
244	0x3954c80b	0.00020292417
245	0x3d1c748b	0.03819708
246	0xbd267846	-0.040642045
247	0x3bfbeb84	0.0076879878
248	0x3b6864d8	0.0035460498
249	0xbbc0ea40	-0.0058873
250	0xbb4eb916	-0.0031543425
251	0xbc718cd7	-0.0147430515
252	0xbdc010d6	-0.09378211
253	0xbc5c154a	-0.01343281
254	0xbc8e1e61	-0.01734847
255	0xbd9ea55d	-0.07746384
