logs/exp5/model_iters_39000.pth (torch, 495376 bytes, 47 tensors)

module.encoder.c1.main.0.weight f4 [32, 3, 3, 3]
00000000: 979d 5bbc 6fd7 3b3b 06fd f1bb d0c6 fcbc
00000010: 00d5 573a 7e31 7d3b 9ecc 2dbb 6f5d 033d
00000020: 863f f53c 83db b5bb 1cf8 55bd 0227 cd3c
00000030: b031 61bc 6d86 7f3b 1423 4f3d 435f 1eba
00000040: 59eb 5f3b a73f 3b3c 8491 58bd 5918 89bd
00000050: e228 d2bc c9dc 86bd b915 8a3c 204f 813d
00000060: de85 ad3c d640 57bd 1946 773d b88c 2dba
00000070: 6580 87bc 33d0 833c 3c50 4c3c 69f5 f73c
00000080: 65c2 0c3d 7e0c bbbb 68bd 7e3c 933d 73bc
00000090: 9a9e ad3b 9cca 63bc 9e7c fabc 4dc7 14bc
000000a0: eb05 c8bb e5ba 87bb 5967 563d 2760 a63c
000000b0: 2dfc 95bc a8b2 bbbb 5d21 2abb 95e2 dd3c
000000c0: 132d d13a 8f55 db3c 2fdb 0a3e 099a 4dbd
000000d0: 9af8 28bd dea2 7cbd efca 013d 8c76 48bd
000000e0: 582c 46bc 0636 5a3d 84f6 8738 3d0e b2bc
000000f0: 1f44 ba3c cc3c 27bc 215a 2d3c 274e bfbc
00000100: 25e9 41bd 3ae5 783b 8d72 73bc 0537 233d
00000110: 251c b23c 6363 a53a cdf9 22bb 612e f33b
00000120: 6178 71bd 77c7 123d 54ca cb3c 4544 28bd
00000130: 01ba a4bd 12e7 95bc 25ef 8bbd ac4d 783d
00000140: baab 1a3c 44c3 32bd 31c1 e6bc c36d 62bc
00000150: eb7f 38bc ed72 0dbd 0343 513c 4f41 523c
00000160: db73 363b 3a71 5c3d f17c 0bbd 7f7a b6bc
00000170: 2ecb c0bc 321a 8f3d f25d c0bb 17a0 58bb
00000180: 37de a1bc 1679 f53c 0421 023c fd04 dabc
00000190: 3825 b1bc 5da9 48bb afe9 58bc 1107 debc
000001a0: b67a 3cbb 23a7 28bd 1dcd 22bd 7a42 ae3c
000001b0: 296f c23c 8454 783b 78d0 e4bc 6b20 26bc
000001c0: d34e 1f3b 94ef 7abb df79 b9bc 4b27 2cbc
000001d0: 7f73 7db9 3097 1dbd 843b 67bd 549d 93bc
000001e0: 0eb4 913c 2ef3 7ebc 7706 b9bb 2fc0 593d
000001f0: 7750 ea3c 8f7e 963c 63a9 08bd 2a0b 043d
00000200: 0e8e 453d f0e3 593c 3d1a 523d 7659 e7bc
00000210: 5c52 c43a 22a3 79bd 5233 133c bda7 333c
00000220: debb 05bd 3bdc c1bc a381 0db8 6651 003d
00000230: 7fce a73c 261a d9bc 1be8 1c3d 6a21 bf3b
00000240: ed7a 5d3d c9cd e73c 1bff f4bb 0045 0d3d
00000250: 9254 88bd 5fae 6d3c 9606 093c a40f 13bd
00000260: 63aa 03bd 7140 bbbc 4c5b 08bb fce9 1d3d
00000270: 17e0 083c d63d 8ebd b7a4 8e3c fb28 0fbd
00000280: aab0 ccbb e44f aa3c fc7f 03ba 27cc d43b
00000290: 541f f43b b273 e6bc 1902 b43a 08d4 003d
000002a0: b8bd 0bbd 76b6 30bd 95bb 3d3b bc6e 623d
000002b0: bd27 9d3b 25f7 993d ba0e 80bb 2364 f0bc
000002c0: a11b b1bc 3901 cabc 2700 d3bc 08d3 a5bc
000002d0: eceb bbbc 9458 8ebd 9687 a3bb a14c 613d
000002e0: b8f4 81bc e265 f3ba 7090 103d 0a84 123c
000002f0: fa62 f5bb ddce 8d3d 24fc b13b dfee 20bd
00000300: 5ea9 923c 3bf4 dcba 9a11 de3b 721f 55bc
00000310: 6eb9 ec3b f362 05bd a0fa a7bd 634d dc3b
00000320: 459f 23bc 47e4 f53c dcaf 5c3c 680c 0f3d
00000330: 40c6 023d 0406 babc 40c0 723a 8617 a4bc
00000340: a468 8fba e407 183d 83f2 673d 6eec 933c
00000350: 37a7 463c 5680 24bb 496e acbd 8331 b9bd
00000360: f406 d33c 97d6 e0ba 93e2 bb3b d066 bc3a
00000370: a287 1c3b 72aa 25bc 8d81 7c3c 7e35 bd3c
00000380: f39e c5bc 282f 08bd 758a 5ebd a36b 173c
00000390: af6c dabc fe3c 723c c707 473d c58f 843a
000003a0: df98 a73c d309 ab3c 3623 8d3d ac99 12bb
000003b0: fd63 143c 94f4 5ebd 8ca1 1dbd 331f 16bc
000003c0: 2f5b 90bd 63e4 94bd 3357 213c edb4 febb
000003d0: c9d4 88bc 49e9 dbbc 8852 99bc 6fc2 29bb
000003e0: 7c42 04bd 02e3 1abb 160b 373b 9c27 503c
000003f0: 636e 973c db6f b63b 2d0c 1dbb a6da 4a3a
-0.013404272 0.0028662344 -0.007384899 -0.03085652 0.00082333386 0.0038634236 -0.0026519666 0.032071527
0.029937517 -0.0055498495 -0.05223857 0.025043014 -0.013744757 0.0038990036 0.050570562 -0.0006041417
0.0034167378 0.01142875 -0.05287315 -0.06694097 -0.02565426 -0.0658508 0.016856061 0.0631392
0.021181997 -0.052552067 0.060369585 -0.0006620395 -0.016540715 0.016090488 0.012470301 0.030268388
0.034365077 -0.0057082763 0.015548088 -0.014846223 0.005298448 -0.013903286 -0.030577 -0.00908072
-0.006104221 -0.0041421526 0.052344654 0.02030952 -0.018308723 -0.0057280846 -0.0025959827 0.027085582
0.0015958868 0.026774196 0.13560174 -0.050195727 -0.04125271 -0.06167876 0.031687673 -0.04894118
-0.012095533 0.053274177 6.483219e-05 -0.021735305 0.02273756 -0.010207366 0.01058057 -0.023352696
-0.047341485 0.0037978427 -0.014858854 0.039847393 0.021741936 0.001261812 -0.002486813 0.0074213003
-0.058952693 0.035834756 0.024876751 -0.041080732 -0.0804329 -0.01829866 -0.068327226 0.06062095
0.009440357 -0.04364325 -0.028168293 -0.013820115 -0.011260967 -0.03453343 0.0127723245 0.012832954
0.0027840051 0.05381892 -0.0340547 -0.022275208 -0.023534384 0.06987418 -0.005870574 -0.0033054405
-0.01975928 0.029964965 0.007942442 -0.026613707 -0.021624193 -0.0030618527 -0.013239308 -0.027102979
-0.0028759665 -0.04117502 -0.039746393 0.021271933 0.023734646 0.0037892172 -0.027931437 -0.010139565
0.0024308458 -0.0038289772 -0.02264112 -0.010507415 -0.00024170986 -0.03847426 -0.056453243 -0.018019356
0.017786052 -0.015560908 -0.0056465226 0.053161796 0.028602822 0.018370895 -0.033364665 0.03223721
0.048231177 0.013298973 0.051294554 -0.0282409 0.0014978158 -0.06094659 0.008984404 0.010965285
-0.032649867 -0.023664584 -3.3737753e-05 0.031327628 0.020484207 -0.026501726 0.03830729 0.0058328407
0.05407231 0.028296368 -0.0074767 0.03448963 -0.066567555 0.014506905 0.008363387 -0.035903588
-0.032144915 -0.022857876 -0.002080637 0.038553223 0.008354208 -0.06945388 0.017412527 -0.03495119
-0.006246646 0.020790048 -0.00050163246 0.0064940634 0.0074500237 -0.02813134 0.0013733535 0.03145221
-0.034116477 -0.04314276 0.002895092 0.055281386 0.004795997 0.07517842 -0.0039080055 -0.029344624
-0.02161962 -0.024658786 -0.025756909 -0.02024223 -0.022939645 -0.06950489 -0.0049905283 0.05500472
-0.015863761 -0.0018569792 0.035293996 0.008942613 -0.0074886056 0.06924222 0.005431669 -0.039290305
0.017903026 -0.0016857454 0.0067770006 -0.013007985 0.0072242534 -0.03256507 -0.082021 0.0067230924
-0.009986703 0.030016078 0.0134696625 0.03492394 0.031927347 -0.022707947 0.0009260215 -0.020030748
-0.001094122 0.0371169 0.05662776 0.018057074 0.012124828 -0.0025100908 -0.08419473 -0.09042647
0.025760151 -0.0017153797 0.005733797 0.0014373902 0.0023884554 -0.010111438 0.015411747 0.023096796
-0.024123644 -0.033248097 -0.05433126 0.009241971 -0.026663153 0.0147850495 0.0485914 0.0010113647
0.020458637 0.020878708 0.068914816 -0.0022369428 0.009057042 -0.054432467 -0.03848414 -0.009162712
-0.07048642 -0.07270124 0.00984745 -0.007773033 -0.016703026 -0.026844637 -0.018716112 -0.0025903245
-0.032289967 -0.0023633842 0.0027930192 0.012704756 0.018485254 0.0055675334 -0.0023963556 0.00077382696

module.encoder.c1.main.0.bias f4 [32]
00000000: 9556 3139 ba2f 51b7 b139 74b9 8ee6 81b9
00000010: c2a5 e6b8 e5bd 5b3a 5bcd 62b7 d9ad f138
00000020: 5bd5 aeb9 3b48 a1b9 5d2f 343a 4ae1 c638
00000030: 1ba0 99b9 674f fbb7 50a7 a538 9d59 1039
00000040: 4a0f a3b7 8132 0dba 2d59 88b8 7dfa 8bb9
00000050: fec2 39b9 842e 6738 34c2 0439 25d9 173a
00000060: c824 ecb9 1164 2538 69ea 4439 c9d4 7339
00000070: 1ef8 5a38 ca32 86b8 725a 9a39 6a50 b238
0.0001691229 -1.2468483e-05 -0.00023291145 -0.00024776574 -0.000109981294 0.00083824835 -1.3518463e-05 0.00011524157
-0.00033346828 -0.0003076213 0.0006873513 9.483339e-05 -0.00029301722 -2.9958506e-05 7.8989775e-05 0.00013766294
-1.9438234e-05 -0.0005386249 -6.5015956e-05 -0.00026698774 -0.00017715615 5.5118013e-05 0.00012660847 0.000579255
-0.00045040832 3.943226e-05 0.00018779341 0.00023253555 5.2206327e-05 -6.399078e-05 0.00029440556 8.50268e-05

module.encoder.c1.main.1.weight f4 [32]
00000000: 36a9 833f 2af7 813f 6616 763f bb41 793f
00000010: 52ad 843f 981a 803f 90ca 803f 32d9 7e3f
00000020: 1739 733f b0f6 813f e71c 833f 21cb 7c3f
00000030: 7e6f 8a3f 088d 823f ac69 7b3f 976b 7b3f
00000040: ee8e 663f dd41 803f 15bb 763f 1e49 7f3f
00000050: 36f6 763f 08ae 853f 6d91 7b3f 293b 883f
00000060: a3ab 773f 1cca 803f 9250 7e3f 9309 813f
00000070: 2e97 7a3f cf94 6b3f b9cd 803f 54ff 6b3f
1.0286014 1.0153553 0.9612793 0.9736592 1.0365393 1.0008116 1.0061817 0.99550164
0.9500899 1.0153408 1.0243195 0.9874745 1.0815275 1.0199289 0.9820812 0.98211044
0.90061843 1.00201 0.96379215 0.9972094 0.9646944 1.0443735 0.9826878 1.0643054
0.9674627 1.0061679 0.9934169 1.0081047 0.9788693 0.9202394 1.0062782 0.92186475

module.encoder.c1.main.1.bias f4 [32]
00000000: 9532 58bd 2cba a1bd ce96 ccbd acb7 e9bd
00000010: 60a0 81bc 834d d3bc 8628 14bc bcd0 d3bd
00000020: f8ad 91bd 01ba 1c3d e8e2 01be cb4a fcbc
00000030: d4f9 c6bd c4e2 6f3d cb1c 0c3b 9fa3 bfbd
00000040: 5a15 c9bd 024e 22bd a282 9fbd b756 04be
00000050: dd43 64bd aada d63b dd44 d4bc fd98 bbbc
00000060: 93f8 74bd 171a 83bd 5ab6 9fbd 60ec 1abd
00000070: d517 90bd ed7e 52bd 0906 2cbc a957 38bd
-0.052782614 -0.078968376 -0.09989701 -0.11411986 -0.015823543 -0.025793796 -0.009042865 -0.10342547
-0.0711326 0.038263325 -0.12684214 -0.030797383 -0.0971562 0.05856587 0.0021379467 -0.0935738
-0.098185256 -0.039625175 -0.07788588 -0.12923704 -0.055728782 0.0065568285 -0.025911743 -0.022900099
-0.05980737 -0.064014606 -0.07798453 -0.03782308 -0.070357956 -0.051390577 -0.010499486 -0.045005474

module.encoder.c1.main.3.weight f4 [32, 32, 3, 3]
00000000: 0abf e6bc 076f 143d c1cf 7f3d 804b 4cbd
00000010: e229 b8bb 2440 13bd d560 883b 1972 433c
00000020: d9b5 e4bb 6a11 28bc 5453 47bc 0b82 7f3d
00000030: 33c0 20bc 2785 143d 894f 2c3b 6480 bcbc
00000040: f016 c53c 97d2 66bc 5c7a e5bc 7efe bebc
00000050: f29d b5bc 3678 01bc ef4b 703b 7c34 fabb
00000060: f6da 07bc a1fa bdba 5d3c 01bd 1eee 173d
00000070: 46e2 903c 5ef6 f03c 1970 743d 430f a1bb
00000080: 724a 9539 efc7 86bc fe5b 9bbb 5644 d73c
00000090: f218 ae3c 68bf d1bc 740c 12bd 2ea3 413c
000000a0: f235 3bba 37bd a239 aabb 6ebb f305 1e3b
000000b0: b4a8 1dbb 3890 79bc b19e 10bd cd4b 6a3c
000000c0: 8dda f33c 71b9 603c 2c25 95bc 92bc 6bbc
000000d0: 66e9 473b 579e ecbc cd37 1dbc b05c 913c
000000e0: c757 42bc ccb6 7cbc 80bf a43a 5091 5b3b
000000f0: 996d ccbc 580f d43c 8eee eb39 ccfe 383c
00000100: 4c67 233d 2a4a 6d3c 8470 a6bc ee96 44bd
00000110: 9a06 3ebd dfe7 2c3c 6484 873c fac1 d3bc
00000120: 8026 71bc ddc5 02bc b2c6 923c 4efd 83bc
00000130: 0f40 25bc 0cab 1c3d 0916 a13b 7ed3 813c
00000140: 6472 273c af6c 3f3c a3f6 8fbc dceb 74bc
00000150: 5dd2 26bd 2ae7 99bc 010f 50bd eb4c 653d
00000160: 1b2f 9ebc 7d88 39bc 48ed 2cbd a0bf 65bd
00000170: 9b82 5fbd 0fd5 5f3c a146 a9bb 5dd2 503c
00000180: e187 0cbc c989 f23a 01cf 97bc dacc 9d3b
00000190: 0493 98bd b8e9 313d fa77 87bc f34c 8f3c
000001a0: eba2 353d 43c5 933c 8d86 a53c 8b3e 933c
000001b0: 87bc 2abd 7d2a 5b3d bae6 173d 9a8a 87bc
000001c0: d18b c2bc 7fc2 5fba 10bc 2b3d dc99 de3b
000001d0: d72a 8cbc c93c 5e3d 56bf 103d 17ae ac3c
000001e0: af1f 993d 4658 af3c 73de 3a3d 9448 a23d
000001f0: 920b f13c 8ed4 4d3c 6e8e 9bbc da26 38bc
00000200: 2695 a83c eb01 2ebb 833b 8abc 38ff 31bc
00000210: 2da9 4f3a 9cf3 d5bc 29be 75bd 9d98 df3c
00000220: b538 afbc ee93 2abd 31b7 563c 9fbb 8abc
00000230: 873a ccbc 1b08 feba 2897 46bc 2ccd a3bb
00000240: 42c5 d439 b1d9 e03c 0523 9abc 898c a0bb
00000250: 7012 263c e50a 8ebc a78d 913c 58e8 4cbc
00000260: 73c9 043d 5be8 2e3b 5506 873c 550d 033d
00000270: 3ef5 63bc 05c6 e83c fa66 37bc 5a33 223c
00000280: 2fed be3d 80e7 1b3c 212b fe3c 810d 63bc
00000290: fea9 643c 75a5 41bc 35a8 e9bc 34e9 1c3c
000002a0: 6351 4e3b a1bf 39bc e0a4 f33c b465 9b3c
000002b0: cd67 fabc b981 5f3c 31c2 f0bc 09c1 ab3b
000002c0: 9130 093c 2f27 e0bc 568d 963c 5007 b63c
000002d0: 4027 6cbc fbcf c6bb 4d6a 023d 711c 763c
000002e0: 9717 753d 615a c7bc 7078 c53b 3db6 f3ba
000002f0: 1659 e43c 618c c83c 2c83 203d b67a c2bc
00000300: 64e6 04bd cca1 893c aed7 353d d697 5ebc
00000310: ce39 c13a 6db2 03bd 3b22 163d 5166 fa3c
00000320: 7a98 013d 6a2e d83c db5c 963d 5afb bd3b
00000330: b65b 563d e913 0fbc 38d7 043d 8785 b13c
00000340: 9685 34bc c5d1 1a3d b87a 52bc 4f7b b13b
00000350: a888 71bc 137a 79bd 5425 dbbc a2af f0bc
00000360: 6eb2 953c 30a1 dd3c 3d0a 36bc a60b 103c
00000370: b48c 90bc fd5b 2e3d 674e 00bc 7f2f f6bc
00000380: ad5e a13c 1e7b d6bc c58f 98bc 4325 6f3a
00000390: 85e5 963c 4389 0c3c 79ad b7bc 8d30 403d
000003a0: e087 93bd 59c1 50bd 3c8a 24bc 3874 82bc
000003b0: bbf2 2c3d c23d 163d 83da 8c3c ea19 eebc
000003c0: a667 8f3b 964d 603d e23b 77bb 35ba 32bd
000003d0: 6c26 d13c b565 0ebb 0f9b 58bb f5db 12bd
000003e0: 0d08 1b3d 45b9 023c a285 7ebb edea 26bc
000003f0: 7eed fe3b ac15 ff3a 0083 77bc 4abf c63c
-0.028167266 0.036238696 0.06245399 -0.04987669 -0.005620227 -0.03594984 0.004161934 0.0119290585
-0.0069796857 -0.010258058 -0.012165863 0.062379878 -0.009811449 0.036259796 0.0026292524 -0.02301044
0.024058789 -0.0140882945 -0.028012447 -0.02331471 -0.02217004 -0.007902196 0.0036666354 -0.007635651
-0.00829195 -0.0014494249 -0.031551708 0.03709232 0.01768602 0.029414352 0.059677217 -0.0049151494
0.0002847496 -0.016452758 -0.004741191 0.026277702 0.02125213 -0.025603965 -0.035656407 0.01181869
-0.00071415224 0.00031040024 -0.0036427774 0.0024112433 -0.0024056854 -0.015232138 -0.03530759 0.014300299
0.0297673 0.013716088 -0.018206201 -0.01438822 0.0030504107 -0.028884096 -0.0095958235 0.017744392
-0.011861748 -0.015424442 0.0012569278 0.003350336 -0.024954604 0.025886223 0.0004500043 0.011291217
0.039893433 0.014483014 -0.020317324 -0.0479955 -0.046393014 0.010553329 0.016542621 -0.025849331
-0.014718652 -0.007981745 0.017917011 -0.016111996 -0.010086074 0.03824906 0.004915957 0.015847918
0.010220144 0.011683627 -0.01757366 -0.014948811 -0.04072796 -0.018786985 -0.05079556 0.055981558
-0.019309571 -0.011324045 -0.042218477 -0.05609095 -0.054567914 0.013661637 -0.0051658903 0.012745467
-0.008577318 0.0018504198 -0.018531324 0.00481568 -0.07449916 0.043435782 -0.016536701 0.017492747
0.044344824 0.018038398 0.02020576 0.017974159 -0.0416837 0.053507317 0.037085272 -0.016545583
-0.02374831 -0.0008535757 0.041927397 0.006793244 -0.017110271 0.054257188 0.035338722 0.021079106
0.07476746 0.021404397 0.0456223 0.079239994 0.029424462 0.012562884 -0.018988814 -0.011239732
0.020578932 -0.0026551436 -0.01687408 -0.010864072 0.00079216325 -0.026117139 -0.059995804 0.027294451
-0.021389345 -0.041644983 0.0131052 -0.016935168 -0.024930252 -0.0019381078 -0.012120999 -0.0049988236
0.0004058276 0.027447553 -0.018815527 -0.0048995656 0.010136232 -0.01733918 0.01776774 -0.012506567
0.03241868 0.0026688788 0.016482512 0.031995136 -0.013913451 0.028414736 -0.011193985 0.0098999385
0.09322583 0.009515643 0.031026425 -0.0138582 0.013956545 -0.011819233 -0.02852259 0.009577084
0.0031481616 -0.011337192 0.029741704 0.018969394 -0.030567074 0.013641768 -0.029389473 0.0052415174
0.008373396 -0.027362434 0.018377941 0.022220284 -0.014413655 -0.0060672737 0.031839658 0.015021429
0.05983695 -0.024335088 0.00602632 -0.001859374 0.02787451 0.024481 0.039187595 -0.023740154
-0.03244628 0.016800784 0.04439514 -0.013586005 0.0014741959 -0.032152582 0.03665374 0.030566366
0.031639554 0.02638932 0.073419295 0.0057977857 0.052333556 -0.008732774 0.03243181 0.021670116
-0.0110181775 0.037797708 -0.012846641 0.005416311 -0.014742054 -0.060907435 -0.026751198 -0.029380623
0.018273558 0.0270544 -0.011110839 0.00879184 -0.017645217 0.042568196 -0.007831193 -0.030051945
0.019698465 -0.026181754 -0.018623242 0.0009122679 0.01841999 0.008577648 -0.022421585 0.0469213
-0.072036505 -0.05096564 -0.010042723 -0.015924558 0.042223673 0.03667999 0.017194038 -0.029065091
0.0043763695 0.05476149 -0.0037724902 -0.043634612 0.025531016 -0.0021728103 -0.0033051406 -0.0358543
0.037849475 0.007978742 -0.0038836976 -0.010187847 0.007779776 0.0019461415 -0.015106916 0.024261136

module.encoder.c1.main.3.bias f4 [32]
00000000: f01f 1eb6 4216 96b7 126d aa36 d398 fd37
00000010: 54e0 60b7 f89f 9db8 2e15 7bb8 341a ec36
00000020: 27b8 9836 4b81 2b37 6f7b 0f36 562b 97b7
00000030: 471e 54b5 08e7 0eb7 7ff6 83b7 fe47 9d37
00000040: 16c6 a2b6 b342 e936 8e83 d336 2c83 c8b7
00000050: da96 81b8 8476 27b7 90e4 cb35 709f 9b36
00000060: ac7b 9236 0ddc 3335 c2b2 21b8 bf6c d437
00000070: 4181 9b37 0642 9737 9354 b6b7 ca92 a9b7
-2.3562425e-06 -1.7891758e-05 5.0790923e-06 3.0231115e-05 -1.3403671e-05 -7.51614e-05 -5.986279e-05 7.0363985e-06
4.551391e-06 1.0222498e-05 2.1380508e-06 -1.8020783e-05 -7.9020214e-07 -8.517651e-06 -1.57312e-05 1.8749382e-05
-4.8510365e-06 6.951706e-06 6.303605e-06 -2.390294e-05 -6.1792976e-05 -9.98157e-06 1.5191199e-06 4.637921e-06
4.3655364e-06 6.700291e-07 -3.8551872e-05 2.5323008e-05 1.8537628e-05 1.8031347e-05 -2.1735474e-05 -2.0214724e-05

module.encoder.c1.main.4.weight f4 [32]
00000000: 09c2 783f 7b1b 6e3f d2d0 763f 98e5 7e3f
00000010: 102a 7a3f 17b7 823f ba89 813f 9389 783f
00000020: 3d9b 803f 6fd6 633f e366 7f3f c081 7b3f
00000030: 3c1c 663f 6e24 7a3f 1b9e 793f ec87 743f
00000040: d93d 793f 61e7 783f 6b06 7c3f 3536 823f
00000050: ca01 803f 2b0a 763f 7fcc 6f3f 9b9f 773f
00000060: 1967 6e3f 0e33 783f 87e6 7e3f be1c 823f
00000070: cf39 7f3f 2c43 733f 40c2 6f3f 4d2e 7d3f
0.97171074 0.9301068 0.96412385 0.9956908 0.9772043 1.0212125 1.0120156 0.9708492
1.0047375 0.88999075 0.9976637 0.9824486 0.8988683 0.9771184 0.97506875 0.955199
0.9736 0.97228056 0.98447293 1.0172793 1.0000546 0.96109265 0.9367141 0.96727914
0.93126065 0.96952903 0.99570507 1.0165021 0.99697584 0.9502437 0.93655777 0.98898774

module.encoder.c1.main.4.bias f4 [32]
00000000: 3b45 5cbc 57c1 67bc 9e2d 0abc bbe4 f33c
00000010: 4fda dabc 07ea 8cbd 08c1 f1bd f9c0 d53c
00000020: c9f0 8ebc 59e6 dcbd ead6 12bc 4b37 2fbd
00000030: 557c 12be dcd5 683c d1f3 c33b 8b3d 63bd
00000040: 0870 6fbd 3b9c 9bbc e918 0e3c c655 85bd
00000050: b28b 8fbb e815 a5bd c11b 4bbd 8258 84bd
00000060: 61e3 14bd f022 bfbc 14ba fcbc b48d b33b
00000070: 895f 4cbc 1f66 a6bd ef75 4bbd 0bbb 22bd
-0.01344424 -0.014145217 -0.008433728 0.029772153 -0.026715426 -0.06880575 -0.11804396 0.026092993
-0.0174488 -0.10786123 -0.008962372 -0.04277734 -0.14305241 0.014211144 0.005979993 -0.055478614
-0.05845645 -0.018995395 0.008672931 -0.065105006 -0.0043806667 -0.08060819 -0.049587015 -0.06462194
-0.036349658 -0.02333209 -0.030850448 0.005479539 -0.012473949 -0.08124947 -0.049673017 -0.03972916

module.encoder.c2.main.0.weight f4 [64, 32, 3, 3]
00000000: 5d9e 93bb d1ba e7bb a0b8 523d 1391 983b
00000010: e799 c4bb 83a3 f73b a2ba 033d 17ac a3bc
00000020: b119 c53c 79ea 3e3b d3be f7bb 8fba 11bd
00000030: a1a4 913c 5063 d1ba 6ec7 23bb f57d 3a3d
00000040: 920f 2d3d 9e32 9f3b 3eba 1b3d 57b8 89bc
00000050: 66ad 3cbc 4d1a 093c 6a9c 44bc 8d47 0e3d
00000060: 8a3f c1bc 76c1 2a3c a6ed 063d fa82 003b
00000070: 35b1 2d3a 7cdd d43b 8132 3e39 2c04 aebc
00000080: 0e5f 583c 7b97 9cbc 11f6 e2bc 084b 73bc
00000090: 7ee3 84bc 4ca2 ed3c f505 4bbc 8497 b03c
000000a0: af0b 913d 499e 933c 9999 dfbc c43a 203d
000000b0: d5a2 933d 04df 523a e715 2a3d a1e2 a7bc
000000c0: bacc ce3c df56 b73c 9801 86bb 7e66 043d
000000d0: c671 3dbc e981 3e3c f5fc 79bd aedf 4cbd
000000e0: 278f 3fbd 7efd c3bd 3405 89bb 2f1a 78bd
000000f0: d711 c1bc 2c18 35bd c47f 2bbd f57b e23b
00000100: 0da8 103d 7f8d acbc cb2a 69bc a0bd fe3b
00000110: 30f6 5a3c 7ad9 c1bb d29a f0bb 118b db3b
00000120: e2f0 e3bc ef1c fb3b 9cb0 82bb 30ad 2d3c
00000130: 2353 223d 6586 c93a 81ac 0dbc d31a 1fba
00000140: 3ae9 9fbb a8f7 db3c 9133 de3b 8e76 a0bc
00000150: be68 89bc 3235 c7bb 6580 e73c 62eb e6bb
00000160: 78dc 09bc e554 0c3d 3bb6 903b aece c53c
00000170: 04a1 1fbd 3455 a13c efe5 9b3c fb10 9b3c
00000180: 3e13 843c 774c 393c 901f b0bc ce03 e8ba
00000190: 4c1f 163d 5f53 093d 2a66 b53c 370a 6d3d
000001a0: 3f2a cbbc 04c5 c0bc d9ac 163c a831 02bd
000001b0: 0155 ed3b ab9b 1b3c cbd2 753d bd35 b9bc
000001c0: 34bd 2ebd 0820 e6ba 8725 353d 4c34 4e3b
000001d0: 2e8e c43b 51eb e8bc e797 0c3d e54d a03c
000001e0: b87d 10bb df2f 84bc 3b36 8d3d 6c8c de3c
000001f0: 3ef5 da3c d407 ccbc c348 a1bc 6cd1 d13c
00000200: 0bec 95ba b475 55bd 5d46 173d d336 1b3d
00000210: 5d7e f3bc d193 1dbb 72b5 b5ba 9d04 97bc
00000220: 2901 c4bc f5be 05bd 3f53 20bd 0763 3ebb
00000230: 2781 2c3d a103 e9b9 e118 dfbc 6165 b1bc
00000240: 0551 16bb 53df bebc 64fd de3c 4376 2e3c
00000250: 7c9e fd3c c3ab 0c3d f242 f33b 7f84 413d
00000260: 56f0 173d 7ab6 a4bc 5d38 223d b0ba 613c
00000270: e1fd 653d 0636 b73c 0221 113d 2fba 943c
00000280: 4fe7 bb3b 67dc d2b9 b2a9 89bd 4e18 6dbb
00000290: e5ee 8abc ff6e f63a ed0a c1ba 3b55 fe3b
000002a0: f519 babc bc55 4dbc d3a2 a23c 5bda e2bc
000002b0: 6c26 03bd 1317 65bd 14e0 09bd 8ca3 fcbc
000002c0: 4635 80bb 687a 28bd 80c2 8fbc 246d a4bc
000002d0: 51eb e2bb 9551 113d b8c0 d0bb 73b1 09bc
000002e0: 43b5 24bd 16de 6dbd a033 efbc 14de 37bd
000002f0: ecde 7abc 7ac3 93bd f703 dabc 57f5 7abd
00000300: 96b6 46bc 7742 86bc 329c 42bd 6a31 e23a
00000310: 99cb 83bc 57bb 29bc d3fa 5fbd 9d12 15bd
00000320: 6446 fd39 a9ac 52bd e942 44bc 78cc 24bd
00000330: d1db b7bc e71c fb3c e196 93bb ddeb 87bc
00000340: 6ce8 e0bc 354f 89b8 00a5 e73c 7fa7 d2bc
00000350: fa7b e4bc 11c9 0dbc aa80 82bb bd6a 0c3c
00000360: 230e 99bc 6781 323d 9544 46bd 4d80 aebc
00000370: 8654 553c 9fb7 cebc 34cb 12bd ae31 0cbc
00000380: 4540 563c a2f1 a83c 38cb 8a3c 4fb1 e73c
00000390: a89f 20bc b9ce 03bd d686 403d 7cb8 5d3d
000003a0: 842a 633d 5c5f 923d 16a3 013d b786 a13b
000003b0: bf51 80bc ca9f 973b 2f35 cab9 a584 403c
000003c0: 83ba 103d 9152 b63c 2f5d 1abb 0b5b 65bd
000003d0: be94 8ebd d972 5dbd 4ee9 17bd 9f97 97bd
000003e0: 45b2 42bd 038e 83bd 81e2 46bd dc43 11bd
000003f0: 2875 ab3c 304d 3abd 84ba c0bb d497 f9bc
-0.0045049624 -0.007071831 0.051445603 0.004655966 -0.005999792 0.007557334 0.03216041 -0.01997952
0.024060102 0.0029131456 -0.00756059 -0.035578307 0.017778696 -0.0015975032 -0.0024990696 0.04553028
0.042251177 0.004858329 0.03801941 -0.016811533 -0.011515951 0.008368087 -0.012000183 0.034736205
-0.023589868 0.010422101 0.032941483 0.0019609318 0.0006625832 0.0064961296 0.00018138626 -0.021242224
0.013206257 -0.0191152 -0.027705224 -0.014849432 -0.016221758 0.029008053 -0.012391557 0.021556623
0.070823066 0.018019812 -0.02729492 0.039118543 0.07208792 0.0008044096 0.041524794 -0.020493807
0.025244106 0.02238029 -0.0040895455 0.032324307 -0.01156277 0.011627653 -0.061032254 -0.050018005
-0.04676738 -0.09569834 -0.0041815285 -0.060571846 -0.023568077 -0.044212505 -0.041869894 0.0069117495
0.035316516 -0.021063564 -0.014231394 0.00777407 0.01336436 -0.005915818 -0.007342675 0.0066999276
-0.027824823 0.0076633613 -0.0039883386 0.010600373 0.039630067 0.0015375136 -0.008647085 -0.0006069366
-0.0048800977 0.02685149 0.0067810495 -0.019587781 -0.016773578 -0.0060793394 0.028259465 -0.007047103
-0.00841438 0.03426065 0.004416255 0.024146404 -0.038971916 0.019693948 0.01903054 0.018928995
0.016122457 0.011309735 -0.021499425 -0.0017701329 0.03665094 0.033526774 0.022143442 0.05787107
-0.024800418 -0.023531444 0.0091964835 -0.031785637 0.0072427993 0.009497563 0.06001548 -0.022608632
-0.042660907 -0.0017557153 0.044225242 0.0031464277 0.0059983945 -0.02843252 0.034324553 0.019568393
-0.002204759 -0.016136108 0.06895109 0.027166568 0.026728269 -0.024906076 -0.019688016 0.025612555
-0.0011438144 -0.052114204 0.036932338 0.03789408 -0.02972334 -0.0024044404 -0.0013863279 -0.018434817
-0.023926334 -0.032652814 -0.03914189 -0.0029050724 0.042115357 -0.00044443927 -0.027233543 -0.021654787
-0.0022936475 -0.023299849 0.027220435 0.010648313 0.03095936 0.034343492 0.007423752 0.0472455
0.037094437 -0.020106543 0.039604533 0.01377742 0.05615032 0.022364628 0.03543187 0.018155186
0.0057343612 -0.00040218534 -0.0672182 -0.0036177817 -0.016959617 0.001880139 -0.0014727988 0.007761625
-0.022717455 -0.012532648 0.019853031 -0.02769201 -0.032019064 -0.05593021 -0.033660963 -0.030839704
-0.0039126007 -0.04113236 -0.0175488 -0.020071574 -0.0069250246 0.035478193 -0.00637063 -0.008404124
-0.040211927 -0.058073126 -0.029199421 -0.044889525 -0.015311938 -0.072150186 -0.026613219 -0.06126913
-0.012128493 -0.016389115 -0.04751224 0.0017257158 -0.016088294 -0.010359607 -0.054682564 -0.036394704
0.00048308366 -0.051434193 -0.011978843 -0.04023406 -0.022443684 0.03065343 -0.00450407 -0.01659196
-0.027454577 -6.5474225e-05 0.02827692 -0.025714634 -0.027891148 -0.008653895 -0.003982623 0.00857037
-0.018683499 0.04358044 -0.04840525 -0.021301413 0.01302064 -0.025234042 -0.03583832 -0.008556766
0.0130768465 0.020623032 0.016942605 0.02828279 -0.00980369 -0.032179568 0.04700359 0.054131016
0.055460468 0.071470946 0.03164967 0.0049293893 -0.01566398 0.0046272026 -0.00038568067 0.011750375
0.03533412 0.022256168 -0.0023554077 -0.05599503 -0.06961964 -0.054064605 -0.03708773 -0.07401966
-0.047533292 -0.06423571 -0.048555855 -0.035465106 0.020929888 -0.045483768 -0.0058816094 -0.030467905

module.encoder.c2.main.0.bias f4 [64]
00000000: 043b db36 a7d0 7136 ee48 c336 84da 01b7
00000010: f9d5 4837 57f7 1735 4277 ea32 6acb 1c36
00000020: e906 0bb6 f896 df36 5b49 2737 d414 7736
00000030: 20b5 2fb7 1d05 cbb6 6e72 d9b5 4d09 a236
00000040: b60c 9f36 aef7 1236 ad4d 0d36 821a 0537
00000050: 3f98 a7b6 21bb 9d37 13c3 dab5 1d22 2035
00000060: de6b 1736 d581 9736 b185 1036 fc0b 94b4
00000070: bd79 1537 df78 3937 2a94 aa36 e92d 89b6
00000080: ee7b f9b6 0ed0 9237 9535 4036 7fe3 0537
00000090: 68fd 2d35 af3e 9635 8fcb b035 c26c 0736
000000a0: a9a1 5637 3d31 43b6 a05e 6236 2be6 e5b6
000000b0: f181 d3b6 2486 1cb7 1c3d 9036 75c0 2036
000000c0: 4df2 21b6 e8d0 0637 f6e6 a936 e25c a6b6
000000d0: ea53 aa36 b633 08b7 afa5 b336 ed9c 1bb6
000000e0: 963b 1d36 2c00 1b37 d930 a637 9e52 0337
000000f0: aa0e d036 2e9b 9db7 a76c 06b5 9806 1436
6.533579e-06 3.603325e-06 5.819943e-06 -7.739876e-06 1.1970748e-05 5.661181e-07 2.7295417e-08 2.3364214e-06
-2.0716636e-06 6.663493e-06 9.971055e-06 3.6817992e-06 -1.0472984e-05 -6.0504667e-06 -1.6201063e-06 4.829059e-06
4.740049e-06 2.1899864e-06 2.105585e-06 7.93359e-06 -4.9947116e-06 1.8802997e-05 -1.629904e-06 5.9654286e-07
2.256354e-06 4.515265e-06 2.153549e-06 -2.7575868e-07 8.9094365e-06 1.1055002e-05 5.0836434e-06 -4.088263e-06
-7.4352056e-06 1.750144e-05 2.8641418e-06 7.980386e-06 6.4816277e-07 1.1194114e-06 1.3172265e-06 2.0179873e-06
1.2793033e-05 -2.9085925e-06 3.3731703e-06 -6.851527e-06 -6.303417e-06 -9.329557e-06 4.2986485e-06 2.3953883e-06
-2.4131907e-06 8.035662e-06 5.06348e-06 -4.9579985e-06 5.0761637e-06 -8.118272e-06 5.353904e-06 -2.3188143e-06
2.3429507e-06 9.23876e-06 1.9811489e-05 7.827444e-06 6.20059e-06 -1.878812e-05 -5.0077e-07 2.2057557e-06

module.encoder.c2.main.1.weight f4 [64]
00000000: 5d59 7f3f 19c9 863f eacb 783f 2ca6 823f
00000010: e449 813f 5bfd 7b3f 7363 723f 8ed7 743f
00000020: 7997 843f 6e4c 7b3f d042 833f a747 833f
00000030: 8344 763f 3587 7f3f 470c 6f3f 5bf2 823f
00000040: c8ff 773f c34d 763f 91ba 843f 586f 833f
00000050: 46df 7e3f 73be 783f d12a 873f 7105 803f
00000060: 2e7c 843f 3c16 763f 16f9 783f c20f 853f
00000070: aeeb 763f 9540 803f 773e 843f 89db 7e3f
00000080: 0032 7b3f 9285 873f ab5c 7e3f 87b1 803f
00000090: 4dbf 813f a252 743f 3905 7b3f 918d 733f
000000a0: 5718 853f 70a4 803f 7dff 723f bbec 7f3f
000000b0: bb71 7c3f d90b 733f 0879 7d3f 1ed9 713f
000000c0: 55f7 853f acbb 883f 8eae 803f 3c9a 783f
000000d0: 7cd8 753f b68e 7c3f cd54 7a3f ccd0 863f
000000e0: df59 753f 98e2 753f 4478 813f c0ea 7f3f
000000f0: e4af 7a3f 5629 7e3f d6a4 833f c061 793f
0.9974573 1.053012 0.9718615 1.0206962 1.0100675 0.98433465 0.94683 0.9564141
1.0358726 0.981635 1.0254765 1.0256242 0.9619829 0.99815685 0.9337811 1.0230211
0.96874666 0.96212405 1.0369436 1.0268354 0.9955944 0.971656 1.0559942 1.000166
1.0350397 0.96127677 0.97255075 1.0395434 0.9645337 1.0019709 1.0331563 0.99553734
0.9812317 1.0587637 0.9936015 1.0054177 1.0136505 0.9543859 0.98054844 0.9513789
1.0398053 1.0050182 0.94921094 0.999706 0.9861104 0.94939953 0.99012804 0.9447192
1.0466105 1.0682273 1.005327 0.9711034 0.96033454 0.9865526 0.97785646 1.053247
0.9584026 0.9604888 1.0114827 0.99967575 0.9792464 0.99281824 1.0284679 0.9741478

module.encoder.c2.main.1.bias f4 [64]
00000000: 78a5 58bd 1fe0 adbd c387 34be 1bf2 d2bd
00000010: a6c9 87bd 01fd b4bd d673 f8bd 497b 06be
00000020: cd8b 9ebd d5f2 c3bd d73d f2bd 2c79 e7bd
00000030: 6509 fbbd 4132 b8bd 1946 5dbe 7981 b7bd
00000040: 56ba adbd 23c3 11be b907 91bd a85a 26be
00000050: 7dbf 39be e165 75bd 815f 96bd d52b c9bd
00000060: 204a c1bd 1efa 12be 038e 16be 6923 76bd
00000070: bff1 39bd 49fc 07be c8f7 e1bd 933f 59be
00000080: 1655 35be ab1a 69bd cc3e f8bd a4d0 7fbe
00000090: c569 b6bd bde5 bdbd 5b45 a9bd 36e1 27be
000000a0: f927 abbd dde7 d6bd b6b0 b0bd 36ab 01be
000000b0: 8e6b 68be 846d 07be aca1 01be fc23 06be
000000c0: e80e 3abd d39c 3abd 6aee b7bd a305 1ebe
000000d0: eb63 a1bd b9e2 5abe 0fd6 a7bd 0cb4 aabd
000000e0: a7ef a6bd b0b0 26be e503 bcbd 25ea ffbd
000000f0: 7b41 4dbd 0788 87bd 3f76 a4bd ddd7 7abd
-0.05289218 -0.08490013 -0.17629914 -0.10300084 -0.06630258 -0.08837319 -0.12131469 -0.13132967
-0.07741509 -0.09567801 -0.11828201 -0.113024086 -0.12257651 -0.0899396 -0.21608771 -0.08960242
-0.084828064 -0.14234595 -0.07081551 -0.1624552 -0.18139453 -0.059911612 -0.07342435 -0.098228134
-0.09437966 -0.14353225 -0.1470261 -0.060092364 -0.045396563 -0.13279833 -0.11033589 -0.21215658
-0.17708239 -0.0569102 -0.121213526 -0.24981934 -0.08906893 -0.09272335 -0.08265182 -0.16394505
-0.083572336 -0.10493443 -0.08627455 -0.12662968 -0.22697279 -0.1322537 -0.12659329 -0.13099664
-0.045424372 -0.045559715 -0.08981021 -0.15431838 -0.07880386 -0.2137555 -0.08195125 -0.083351225
-0.08151179 -0.16278338 -0.0918043 -0.124958314 -0.050111275 -0.06617742 -0.08030366 -0.06124102

module.encoder.c2.main.3.weight f4 [64, 64, 3, 3]
00000000: dc4c 863c a12d 5e3b 6d16 a0bc 5ad7 3b3d
00000010: a0f5 9abc 59e2 81ba d61b 373c d85f 2dbc
00000020: 0449 b1bb 4e67 1c3b e776 e83c bdc4 d33c
00000030: 6cc8 4dbc a4dd 71b8 521b a63b 569f 66bd
00000040: ba52 fdbc 58d2 443c 338d 86bc d1db 29bc
00000050: e906 16bd fcae a73c 4fc9 3bbc ec3e d7bb
00000060: 88b8 1b3d 0528 cf3b ac7a c03b a223 e639
00000070: aad6 dd3c 3d87 6cbc c195 9dbc eadc 15bd
00000080: 00fe 7dbd 82db 173d 9702 0f3d 9cc5 e43c
00000090: 52ce 723d 7c5e 583d 2f6c 093c 034f b9bc
000000a0: 28f1 6a3c 6471 62bd 51f9 0abc 6e6b 093d
000000b0: b2c6 68bc aabe 76bd 6326 703c 644f 8bbd
000000c0: 1862 873c 60b7 82bb d784 33bb 512b 6b3c
000000d0: a5c5 79bc 2f6f cbbc eb6b db3c cf11 ec3b
000000e0: b849 313d ad51 eabc 6bdd 52bc af93 053d
000000f0: e39f 083c 7386 833c a4c0 923c 4915 a6bc
00000100: 46f0 10bd 5708 06bd 8eb9 be3c 569b a73c
00000110: 6762 323b 5a31 063d ee1f abbc 14f8 b8bc
00000120: a968 543d 8e97 263d b9e7 763c 28a0 c7bc
00000130: fc41 f4bc ce60 7bbd 6aa0 d93d 2ca5 8a3d
00000140: ac19 033d cc88 663d 2841 6d3d b047 0b3d
00000150: 8685 84bd a262 b3bc 1b69 0dbc 2463 d3bc
00000160: 676e 1cbd e765 6a3c ed5b ae3c fd3e 2d3c
00000170: ffcb 42bd ffda bd3a 91f9 c5bd d654 eabc
00000180: aa5b a0bd 5ce5 d9bc e780 7fbc 12a5 033d
00000190: c26c e63c a835 103c 94ad ec3b 33db a83c
000001a0: 90bb 133c 92c0 77b9 69d0 913c 8708 603d
000001b0: efae 063c 9254 373d f5a9 363c 113b efbb
000001c0: 1a1b 98bc 9968 c0bc a99f 4e3c 0356 3ebd
000001d0: 842d 8cbd b1bb 0abd fb47 47bc dbce 8cbc
000001e0: e446 cb3b da2e a6bc 5f05 68bd 8701 23bd
000001f0: 23c8 92bc 49bf 64ba 8d0d 70bd ddb4 84bd
00000200: aeb0 0ebd 1aa4 9fbd 8da4 13bd 4537 98bd
00000210: 2258 9f3c 8849 923c 0346 1c3c f8e0 45bd
00000220: 9748 1bbd c888 71bd fd89 f73b 26a5 26bd
00000230: e475 b8ba 274e 84bb 3c4b f5bc 7028 6a3c
00000240: ebea 623c 4880 c4bc 883a d73c 47d3 a53b
00000250: c295 093d 90bc ae3d 4d2b 72bb aa07 89bc
00000260: 07ed 29bc c444 683d d9c9 9f3c 2eaa 8e3d
00000270: 92e2 cf3b 29e7 4a3c de1a 973c fe47 8cbd
00000280: 403c cfbc 213f 09bc 0ada e7bc 7df0 143d
00000290: 27e3 ec3b 0246 01bc f074 103c f55a 99bc
000002a0: 0e5a 20bd c512 8abc 333b 313c 849a df3c
000002b0: 2b55 5e3c 9098 c13c eb95 c9bc 0019 243d
000002c0: 0126 4ebd cd36 a2bc d311 6abb a782 a5bb
000002d0: 089a 323c 982f ef3c 1d8a 5a3c dfd7 c2bc
000002e0: 0007 78bc 2603 42bd bed5 8cbb 4d63 d8bc
000002f0: 37e2 a13b d0ce 19bd 54b7 833c 95e2 243b
00000300: 5607 d83c bad2 55bc c147 b23b 81f5 d3bc
00000310: 7615 bdbb c5de 283d 4091 04bd e9bf 323d
00000320: dee5 023d 0076 803c 7a48 15bc d559 89bc
00000330: efde 903c ec14 b63d 32f7 7ebc 2b33 c2bb
00000340: a7f5 5b3c 5d71 d63c 2284 80bc cc69 39bc
00000350: 6448 43bc ba0b 0abd c893 98bc 3a37 803c
00000360: 7635 e5bc 703b 49bd d272 29bd 7026 80ba
00000370: ea16 30bc d4cc 1abb 22ff 0cbd 7d32 b63c
00000380: 1807 63bc 5f66 9739 45a8 7d3c 0e1e ddb8
00000390: 7c44 d4bc ec35 49bd 6716 ff3c 8c03 14bd
000003a0: 5557 d8bc cb07 10bd ee8e 2c3c 2474 3b3b
000003b0: 277a 85bc 0723 033d b46a 1a3d ada2 853c
000003c0: 65b4 2d3c abea 41bc 814f 8e3c b389 023d
000003d0: 2819 443b b439 503d 6f57 9b3c 6e53 c0bc
000003e0: 23b6 5cbc 297a 683d 7720 553d 9195 24bc
000003f0: d1b7 d23c e001 80bc 400c e2bc 7fba 56bd
0.016394071 0.0033901709 -0.019541943 0.045859672 -0.018915951 -0.0009909376 0.01117607 -0.010581933
-0.0054103155 0.0023865285 0.02837701 0.025850648 -0.012559991 -5.7665296e-05 0.005069175 -0.0563043
-0.030923236 0.0120130405 -0.01642475 -0.01036735 -0.036627684 0.020469181 -0.01146157 -0.00656878
0.03801778 0.0063219094 0.0058739986 0.00043895567 0.027079899 -0.01443654 -0.019236447 -0.036587633
-0.06200981 0.037074573 0.03491458 0.027926259 0.059278794 0.052824482 0.008387609 -0.022620684
0.014339723 -0.05528392 -0.008482293 0.03354972 -0.014207529 -0.060240425 0.01465759 -0.06802252
0.016526267 -0.003989145 -0.002739241 0.014353589 -0.015244876 -0.02483329 0.026784858 0.0072042714
0.043283194 -0.0286034 -0.012870173 0.032611545 0.008338901 0.016055321 0.017914124 -0.020273821
-0.035385393 -0.032722797 0.023281839 0.020459812 0.0027219297 0.03276191 -0.020889249 -0.02257923
0.051857624 0.040671878 0.015069895 -0.02436836 -0.02981662 -0.061371617 0.106263 0.06769785
0.032006904 0.056282803 0.057923466 0.034003913 -0.0647078 -0.021897618 -0.008631016 -0.02580411
-0.038191225 0.014306522 0.021284068 0.0105741 -0.047557827 0.0014484822 -0.09666742 -0.028604906
-0.078299835 -0.026598625 -0.015594698 0.032139845 0.028128032 0.008801855 0.0072228406 0.020612335
0.009016886 -0.00023627494 0.017799573 0.054695632 0.008220418 0.044758387 0.011148919 -0.0073007424
-0.01856761 -0.023487376 0.012611308 -0.046468746 -0.06844619 -0.033870403 -0.012163158 -0.01718848
0.006203519 -0.020286012 -0.056645747 -0.03979638 -0.017917698 -0.00087260135 -0.058606673 -0.064798094
-0.034836464 -0.07794972 -0.0360456 -0.07432417 0.019451205 0.017857328 0.0095381765 -0.04831025
-0.037911024 -0.058968335 0.0075542913 -0.04068484 -0.001407322 -0.004037637 -0.029943101 0.014291868
0.013849954 -0.02398695 0.026273027 0.0050605866 0.033590086 0.08532059 -0.0036952079 -0.016727287
-0.010371453 0.056706205 0.019505428 0.06966053 0.006344148 0.012384214 0.018445428 -0.06849669
-0.025297284 -0.0083768675 -0.028302211 0.03636216 0.007229227 -0.007890226 0.008816943 -0.01872013
-0.039148383 -0.016854653 0.010817337 0.027295358 0.01357011 0.023632318 -0.02460762 0.040062904
-0.050329212 -0.019801522 -0.003571619 -0.0050509754 0.010900982 0.0291975 0.013338593 -0.023784576
-0.015138388 -0.047366284 -0.004297941 -0.026414538 0.004940297 -0.037550747 0.016078629 0.0025159467
0.026370686 -0.013050729 0.0054406826 -0.025873901 -0.0057703806 0.041228075 -0.032365084 0.04364005
0.0319575 0.015681267 -0.009111518 -0.016766468 0.017684428 0.08890709 -0.015561866 -0.00592651
0.013425267 0.026177103 -0.015688006 -0.011316728 -0.011919115 -0.03370259 -0.018625155 0.015651334
-0.027979594 -0.04912895 -0.041369267 -0.000977708 -0.010747651 -0.0023620622 -0.034423 0.022240872
-0.013856672 0.00028877237 0.015482013 -0.00010543699 -0.025911562 -0.04912369 0.031138612 -0.036136195
-0.02640883 -0.035163682 0.010532124 0.002860316 -0.016293598 0.032015827 0.037699416 0.016312921
0.010602091 -0.011835734 0.017371895 0.0318696 0.002992222 0.05083628 0.01896259 -0.023477282
-0.013471159 0.056757126 0.052032914 -0.010045425 0.025722416 -0.015625894 -0.027593732 -0.05242395

module.encoder.c2.main.3.bias f4 [64]
00000000: 26ba 7bb6 de9e e8b5 ae53 8a35 c6f3 2236
00000010: ca29 7e37 83ef e3b5 43e6 95b4 6452 3336
00000020: 50d5 89b6 9cc7 a636 e8e4 e235 a6b0 2a35
00000030: 71b8 29b6 78fc 9bb5 88bf 9435 e25f bab6
00000040: 4114 0a36 05a2 d035 ab69 33b5 97b7 76b6
00000050: d397 93b6 7546 bdb4 8f85 3636 780a e0b5
00000060: 813c d3b5 272f b0b4 728d a9b6 3eab 88b5
00000070: 1a4a dd34 f3ec 31b3 1afe f336 6f3f 6cb5
00000080: 487b eab6 e841 ff35 19c0 8734 2565 66b6
00000090: 4005 2236 acca 43b5 0d62 b5b6 33b6 5c36
000000a0: ca96 a834 463a 6d36 02fb 3336 0ee1 7335
000000b0: 6cb3 ecb5 999b dc36 d334 77b6 1490 5ab5
000000c0: 82e0 cd35 f9db eab5 be94 eeb3 3562 dab6
000000d0: 722a cab5 a32b 7b36 3d3f 43b6 5f4c 02b7
000000e0: 27c1 ef35 4b80 09b6 f42d 9335 bf8e beb5
000000f0: 8f93 4e36 9aa9 eb34 aa7b 50b6 2c04 55b5
-3.7510267e-06 -1.7331583e-06 1.0306155e-06 2.4281776e-06 1.514931e-05 -1.6982525e-06 -2.792095e-07 2.6721036e-06
-4.107751e-06 4.970423e-06 1.6904933e-06 6.358699e-07 -2.5290321e-06 -1.1621878e-06 1.1082602e-06 -5.554394e-06
2.0575392e-06 1.5544362e-06 -6.6836463e-07 -3.676372e-06 -4.398616e-06 -3.5255258e-07 2.7197855e-06 -1.6692347e-06
-1.5738334e-06 -3.2816862e-07 -5.053059e-06 -1.0182628e-06 4.1218374e-07 -4.1426528e-08 7.2715457e-06 -8.800916e-07
-6.9880953e-06 1.9018162e-06 2.528548e-07 -3.4331545e-06 2.4142937e-06 -7.293809e-07 -5.405635e-06 3.2888609e-06
3.1402152e-07 3.5349672e-06 2.6819184e-06 9.085205e-07 -1.7635589e-06 6.574625e-06 -3.6836616e-06 -8.142099e-07
1.5339031e-06 -1.7498379e-06 -1.1109795e-07 -6.508339e-06 -1.5062526e-06 3.7427315e-06 -2.9094074e-06 -7.766385e-06
1.7863102e-06 -2.0489267e-06 1.0965728e-06 -1.4197648e-06 3.0782282e-06 4.3895562e-07 -3.1066397e-06 -7.9354754e-07

module.encoder.c2.main.4.weight f4 [64]
00000000: 837d 843f 9f8d 783f e72a 8a3f 8a6e 833f
00000010: c53f 7f3f fafc 813f c8ed 793f 0c63 813f
00000020: 146f 7e3f 455b 7d3f 4324 7f3f 6187 823f
00000030: 2019 823f 2be9 7e3f 0b9e 7d3f 8d0c 7e3f
00000040: e84a 7d3f 32b3 793f e059 793f 97d5 763f
00000050: 677c 813f 1ebe 7f3f 7995 7f3f 4a3b 833f
00000060: f989 7d3f 3c50 7a3f a4bb 7d3f c7fc 813f
00000070: fa7d 823f a245 803f 9b48 7d3f 35da 793f
00000080: cd56 813f c542 7c3f 6f10 843f fb91 853f
00000090: 0ff6 823f 7f73 813f 11bc 7a3f 78ef 813f
000000a0: 8ffb 7a3f 941d 823f def0 793f 30cd 7f3f
000000b0: 7f3c 793f 5000 803f b54d 843f 10d7 7e3f
000000c0: 3b3f 813f 7f8f 793f b0d6 793f 3ef7 7d3f
000000d0: 9ee4 813f 714f 803f e25a 7b3f 227c 7d3f
000000e0: a69e 803f e285 803f 2f94 713f 65f0 843f
000000f0: 7493 783f aa5e 833f 9806 833f f8c0 853f
1.0350803 0.97091097 1.0794343 1.0268109 0.9970668 1.0155327 0.9762845 1.0108352
0.9938824 0.9896739 0.99664706 1.0197564 1.0163918 0.99574536 0.9906928 0.992379
0.9894242 0.97539055 0.97402763 0.9641966 1.011609 0.9989947 0.9983745 1.0252469
0.99038655 0.9777868 0.9911444 1.0155267 1.0194695 1.002125 0.9893891 0.9759858
1.0104614 0.9853938 1.0317515 1.0435175 1.0231341 1.0113372 0.97943217 1.0151205
0.980401 1.0165277 0.9763316 0.99922466 0.97357935 1.0000095 1.0336214 0.9954691
1.0097421 0.9748458 0.9759321 0.99205387 1.0147893 1.0024244 0.9818555 0.99017537
1.0048416 1.0040858 0.94366735 1.0385863 0.97099996 1.0263264 1.0236387 1.0449514

module.encoder.c2.main.4.bias f4 [64]
00000000: 53a3 5fbd 0460 f0bd 23d1 65bd 63e7 94bd
00000010: 1b24 7ebd 824c ebbd 6f67 f6bd b7cf b9bd
00000020: 8f49 15be a0ea b8bd b166 cfbd d8b6 87bd
00000030: e045 05be 0241 6dbd 2c5a 5cbd 2e4a 8abd
00000040: b5e2 76bd caa3 33be e3fe ddbd 748c ffbd
00000050: 12d3 38be 1f3c 37be f795 21be 79f8 61bd
00000060: 12c5 fdbd 5a42 dabd 51e7 b4bd 6868 10be
00000070: 35f5 42bd 0f87 a2bd 9b13 49bd d95a c6bd
00000080: 38df 10be 01ac a0bd 8b08 d0bd 57a4 7cbd
00000090: c82b abbd dac3 b6bd 643d a1bd 3ab2 bdbd
000000a0: 4c6e 37be 8d31 4ebd 8cef ddbd 5761 90bd
000000b0: 0eee 29be f3ee babd c98e 88bd 0aa7 bcbd
000000c0: d2e6 dcbd d4bd d9bd 8f98 e3bd d625 89bd
000000d0: e42d f7bd 6e85 1bbd 7630 01be b9f2 29be
000000e0: 8e63 92bd dbf0 1ebe 67c3 04be 7125 c0bd
000000f0: c1ac 06be 0f0e fbbd 638d f4bd abe5 88bd
-0.054599117 -0.117370635 -0.05610765 -0.07270696 -0.06204615 -0.11489202 -0.12031447 -0.090728216
-0.14578842 -0.09029126 -0.10127009 -0.066266716 -0.13014936 -0.057923324 -0.053796932 -0.0675243
-0.0602748 -0.1754295 -0.108396314 -0.12477961 -0.18049267 -0.17894028 -0.15779863 -0.055168603
-0.12391104 -0.10657187 -0.088331826 -0.14102328 -0.04759713 -0.07935917 -0.049090963 -0.096852966
-0.14147651 -0.07845307 -0.101578794 -0.061680164 -0.0835796 -0.089240745 -0.078730375 -0.0926251
-0.17913169 -0.050340224 -0.108367056 -0.07049816 -0.16594717 -0.09127607 -0.06667859 -0.09211548
-0.10786213 -0.1063191 -0.111130826 -0.0669667 -0.120693 -0.037969045 -0.12616143 -0.16596498
-0.07147895 -0.15521567 -0.12965165 -0.093821414 -0.13151838 -0.12258541 -0.1194103 -0.06684431

module.encoder.c3.0.weight f4 [32, 64, 3, 3]
00000000: 0108 403c d9d3 a13b 707a d03c 2023 3d3c
00000010: 2bae fdbc 22cc 78bc 5438 0b3d fc10 583d
00000020: d43e 183c 9e19 3f3c e5ff 073d 32fc 13bc
00000030: 5da3 f23b 4445 19bb 7ba6 a5bc 306b 2dbd
00000040: 4dc5 45bc 8347 a5bc afbc 05bd 9001 d7bc
00000050: 108f 81bc 773d 863d 3771 a13c 1a1d 693d
00000060: 8f5e ce3c a846 223d 2b57 bdbd 148d 4fbd
00000070: 9f5e 8abd f585 04bd e967 6a3d 6c8c 22bc
00000080: 6ebb 8b3c 20ce f53c c6a1 29bb c064 e83c
00000090: 5f94 82bc e72f 80bb c929 4cbd c81f 2abc
000000a0: 9459 473d 07c6 f53c d547 b5bc cda7 173c
000000b0: 0f8a c9bb a254 0a3c 16c8 2b3d 61f6 96bc
000000c0: 398c f63c 0a38 eabc 5e19 423c eb70 b6bc
000000d0: a3f8 673c d686 e2bc c11d c2bc 9c33 43bc
000000e0: 908b 30bd d8f4 2dbd 82d5 b4bc e445 44bd
000000f0: 6b68 003d f50a 073d 3ac8 263d d7a1 d03b
00000100: 2a49 7f3d c5d3 1e3d 3cc1 1fbd eaed 273d
00000110: 7ac1 9fbc d704 a63c 51ea f0bb 70ff fc3c
00000120: b7df 95bc 48bc 1bbc 4828 5ebc 7dc7 65bd
00000130: b6cd 0fbd 45b1 173c 5a23 c7bb 68ee 093d
00000140: 86ba 6b3d d474 adba 0b99 41bb 88f9 91bc
00000150: b391 483a ceee 863c e4ac 593c d67b a6bb
00000160: b853 083d 3be5 543c 4efc c6bc 716b ec3c
00000170: 1594 1fbd f991 70bc f90e f33c f2c6 01bd
00000180: 3aae 7bbc 4b23 153d 4907 1c3c 39fa 05bd
00000190: 81ab 343d a500 6a3d aaba 473d fe57 933d
000001a0: e591 af3d 6898 1c3d 56d9 82bc ca71 063c
000001b0: d4f7 03bc faa9 acbb a6b7 a5bb 2e1f 70bd
000001c0: db25 1cbd 66a7 8b39 2985 36bc a9f2 79bc
000001d0: 475f c03c da09 db3c 153b 96bc 344e e43b
000001e0: 6640 3e3d 5faf 233d 669c 663d fead b73a
000001f0: c174 2ebb 88b4 d5bc d471 3dbd 65c9 23bc
00000200: f093 94bc d1a6 2dbc 833a a33c 7d56 0cbc
00000210: b2c3 b3bd e494 00bc 3f65 36bc a4e8 4abc
00000220: c4d3 80bc 78e7 693c b967 3b3d cc63 c33c
00000230: e091 cabb d5cf c63c bcb6 b13c bb29 03bd
00000240: ed77 c13c 7718 fe3b c91c 34bc f353 bebc
00000250: 596c b6bc af11 09bc 9a75 5d3d 9747 083d
00000260: fadf 603d 4ad8 24bc 052a 783c b84f f3bb
00000270: 73fb 3dbb e617 813d 0e2b 27bd 3780 293d
00000280: 861f 8e3c 2848 7fbd 2be8 24bc f4c3 083d
00000290: dd5a 9c3b 470b acbc d148 abb9 30d0 8c3b
000002a0: 1584 88bd 7134 703c 1daf 83bd ddd9 06bd
000002b0: 8e7b 2bbb 2b1a 123c fcbf 5eba 1abb 033c
000002c0: c149 b93c 4723 01bc 8828 903c 9d81 673c
000002d0: 3144 d73b cf5f 9e3c d98f 3abc 0683 823d
000002e0: 44c1 373b 03c7 a0bc df92 78bd fda2 ed3b
000002f0: de1a 49bd 1980 a03c 6a82 d0bb 6916 b0bb
00000300: b01b c63c 1648 43bc 53de d7bc df40 8d3b
00000310: 521d 973c 2e8c d13b 43cd 00bd 1d1c 78bd
00000320: f61e 97bb a1b8 143d 3204 aebc dc67 d93c
00000330: 64ab 5dbb 10ab 18bd 829a 07bd 0877 45bd
00000340: 57ad 9cbd abef d7bd 7902 823c 1b2a c9bb
00000350: 8488 20bd fdc0 8b3c 15b1 22bd d3e2 173d
00000360: 8fe3 61bd b3dd 09bd 5ec0 f63c a858 2ebd
00000370: fb21 40bc 4624 14bd 107d 41bd 4df2 1dbd
00000380: 01ba a0bc 183c 483c f241 ddbc 4f38 bc3c
00000390: 54d1 613d 9eaa 103c c153 31bc 94ee 81ba
000003a0: 72b4 0e3a 42ae 45bd 12c8 73bd d8f2 96bd
000003b0: aa3a 0e3d e9b7 97bc db0b 533c adaf 393d
000003c0: 99ff d7bb 9d63 4a3d f48f b13d c472 b83d
000003d0: 7d7a d23b 2f0c 0d3d da60 26bd 5d72 173c
000003e0: 07ae dfba ed11 87bb 6f4e 74bb 64fa 7bbc
000003f0: 8dd6 cfbd 91bf 85bc 26b5 55bc 586e b6bd
0.011720658 0.0049385843 0.025449008 0.011544019 -0.030966839 -0.015185388 0.033989266 0.052750573
0.009292323 0.011663822 0.033203024 -0.009032296 0.0074047283 -0.0023387233 -0.020220986 -0.04233855
-0.012070966 -0.020175701 -0.032650646 -0.026245862 -0.015815288 0.06554692 0.019707305 0.05691252
0.025191573 0.039618164 -0.092451416 -0.050671652 -0.06756329 -0.032354314 0.057228003 -0.0099211745
0.017057147 0.030005515 -0.0025883778 0.028368354 -0.01593989 -0.0039119604 -0.049844537 -0.010383554
0.048669413 0.030001653 -0.022128979 0.009256315 -0.006150491 0.00844303 0.041938864 -0.01842803
0.03009616 -0.028591175 0.011846868 -0.02227064 0.014158401 -0.027652185 -0.023695828 -0.01191416
-0.043101847 -0.04246983 -0.022074465 -0.047918215 0.03134958 0.032969434 0.040718295 0.006366949
0.062325634 0.038776178 -0.039002642 0.040998377 -0.019501437 0.02026598 -0.0073521514 0.03088352
-0.018295152 -0.009505339 -0.0135594085 -0.05609845 -0.03510829 0.009258573 -0.0060772123 0.033674628
0.05755093 -0.001323367 -0.0029540684 -0.017819181 0.00076511054 0.016471293 0.013285849 -0.0050806804
0.033282965 0.012994106 -0.02429023 0.028859826 -0.03895958 -0.01468324 0.029670225 -0.03168387
-0.015361363 0.03641061 0.009523221 -0.032709334 0.04410887 0.05712952 0.048762 0.071945176
0.08572749 0.038231283 -0.015972774 0.00820584 -0.008054692 -0.005269286 -0.005057293 -0.058623485
-0.03812204 0.00026636868 -0.011140146 -0.015255609 0.023482932 0.026738096 -0.01833872 0.0069673304
0.046448134 0.03996217 0.056301497 0.0014013646 -0.0026619884 -0.02608706 -0.046251133 -0.009996747
-0.018136948 -0.010598854 0.019925361 -0.008565542 -0.0877756 -0.007847998 -0.011132537 -0.012384567
-0.015725978 0.014276378 0.045753215 0.023851298 -0.0061819404 0.024269024 0.02169358 -0.03202222
0.023616755 0.0077543813 -0.010993191 -0.02323339 -0.022268461 -0.0083660325 0.05406723 0.0332714
0.0549011 -0.010061333 0.015146737 -0.0074252747 -0.0028988987 0.063033864 -0.040812545 0.04138204
0.017349016 -0.062324673 -0.010065119 0.03339 0.004771574 -0.021001471 -0.00032669914 0.004297279
-0.06665818 0.0146609405 -0.064298846 -0.032922614 -0.0026166174 0.008917372 -0.0008497236 0.008040214
0.022618176 -0.007881946 0.017597452 0.014130023 0.0065694083 0.019332794 -0.011386835 0.06372647
0.002803878 -0.019626146 -0.060686942 0.0072520957 -0.04909789 0.019592332 -0.006363203 -0.0053737652
0.024183124 -0.011919042 -0.02635113 0.0043107118 0.018446598 0.0063948845 -0.031445753 -0.060573686
-0.004611845 0.03630889 -0.021242235 0.026538782 -0.003382408 -0.037272513 -0.033106335 -0.04820922
-0.076502495 -0.1054376 0.01587032 -0.0061390526 -0.03919269 0.017059797 -0.03971966 0.03708155
-0.055148657 -0.033658694 0.030121025 -0.042565018 -0.011726852 -0.036167406 -0.04723841 -0.038561154
-0.019619944 0.012221359 -0.027008984 0.022976069 0.05513127 0.008829741 -0.010823191 -0.0009913021
0.00054437586 -0.04826189 -0.059516974 -0.073705375 0.034723915 -0.018520312 0.0128812445 0.045333553
-0.006591749 0.049411405 0.08670035 0.09006265 0.006423293 0.034435447 -0.04061971 0.009243575
-0.0017065414 -0.00412201 -0.0037278195 -0.015379522 -0.10148344 -0.016326698 -0.013043677 -0.08907765

module.encoder.c3.0.bias f4 [32]
00000000: a7a3 4535 d865 8535 985c 4434 9779 9b35
00000010: c119 2ab1 fa5f 0fb5 104f 82b4 74b4 df35
00000020: a5a5 26b5 43e6 f4b4 1ed3 a035 2d7f c634
00000030: 1ace 3835 1c46 ecb4 5714 5834 2511 9333
00000040: 9e4f 9434 a677 4c35 2675 9ab5 c617 dab3
00000050: 28bb f833 a898 7db4 7001 a233 9fe7 0735
00000060: f774 8eb5 007c 23b5 88f7 0b36 1644 92b5
00000070: ab07 d1b4 d6db 69b4 0632 2436 cb69 7fb5
7.3626364e-07 9.938913e-07 1.8287608e-07 1.1583787e-06 -2.4752895e-09 -5.3411316e-07 -2.4271912e-07 1.6667314e-06
-6.2080863e-07 -4.561608e-07 1.1982372e-06 3.6972907e-07 6.884526e-07 -4.4009437e-07 2.0123967e-07 6.8483395e-08
2.7625077e-07 7.6170033e-07 -1.1507989e-06 -1.01557404e-07 1.15824434e-07 -2.3617997e-07 7.543974e-08 5.062847e-07
-1.0613866e-06 -6.0902676e-07 2.0856696e-06 -1.0897663e-06 -3.8934863e-07 -2.1779792e-07 2.4467022e-06 -9.514885e-07

module.encoder.c3.1.weight f4 [32]
00000000: 8466 a43f 2fc6 9f3f 0e25 923f fb26 963f
00000010: d053 953f f106 903f c5cf 853f a7a5 933f
00000020: 59b4 8f3f d91d 963f 23c1 933f db39 a13f
00000030: 85e1 9f3f 39c9 9c3f d0b4 9e3f 229d 973f
00000040: 49cf 8c3f d4ac 923f 66dc 993f c593 a13f
00000050: d630 a33f 99c3 963f 4762 a13f fbea 9f3f
00000060: 043b a33f a661 963f cf74 963f 9d71 913f
00000070: 71b9 963f c378 9e3f 9d2f 9d3f 2375 9b3f
1.2843785 1.2482356 1.1417558 1.1730646 1.1666203 1.1252118 1.0454031 1.1534928
1.1226913 1.1727859 1.1543316 1.2595781 1.2490698 1.2248908 1.239893 1.1844828
1.1000758 1.1458993 1.2020385 1.2623221 1.2749279 1.1778442 1.2608117 1.2493585
1.2752385 1.174855 1.1754397 1.1362797 1.1775342 1.2380604 1.2280155 1.2145122

module.encoder.c3.1.bias f4 [32]
00000000: fd85 27be 7d4f 4a3d 3596 9ebd 1595 023d
00000010: e415 bdbd 5868 d0bd 27c1 133d cf1a d03d
00000020: 36b9 333e 2d10 a13d 93cf 49bd 6e66 56bd
00000030: 71b1 b03d 136d e83d 99d4 c23c d734 cd3c
00000040: b09a 0d3e b487 b83d d387 9cbd d1a7 bdbd
00000050: 887e 0cbc 42e5 4a3d 63ec be3d 7af4 933d
00000060: 20e9 62bd 0f01 273d e5a5 e53c 6ce8 aaba
00000070: 45c5 3a3d 0535 a23d 1d7e 66bd a3d0 ec3c
-0.16359706 0.049392212 -0.077434935 0.031880457 -0.09232691 -0.10176152 0.036072876 0.10161363
0.17551121 0.078644134 -0.049270224 -0.05234378 0.08627594 0.11348929 0.023783015 0.02504961
0.1382854 0.09010258 -0.07643094 -0.09260524 -0.008575089 0.049535044 0.09322431 0.072243646
-0.055398107 0.040772494 0.028033206 -0.0013039238 0.045598287 0.07920269 -0.056272615 0.02890808

module.encoder.c3.1.running_mean f4 [32]
00000000: a033 22bf 7cef 31bf 87e0 3ebf 9fa6 7dbd
00000010: 75eb 2e3f 9322 afbe 4170 a73e b9a7 18be
00000020: 7e3a 1bbf e96e 2b3f bcc7 24be 8f1d 4cbe
00000030: 7286 cdbd c5b3 443e 5ca3 353e 5e83 a3be
00000040: 2f77 703e 2856 303e e425 433e 4f1c ba3e
00000050: e9d5 94be 3a4f 1abe 3dbe 01bf ae05 29be
00000060: e55b 40bf c0d1 bf3e f3fb 263e 7a89 f83e
00000070: be9c fb3e 587c 4bbe 261e 0bbf b4a5 6d3c
-0.63360023 -0.6950605 -0.7456135 -0.06192648 0.6832803 -0.34206066 0.3270283 -0.14907731
-0.60636127 0.6696611 -0.16091818 -0.1993315 -0.10035409 0.19209202 0.17738098 -0.31936163
0.23482965 0.17220366 0.19057423 0.36349723 -0.2906945 -0.15069285 -0.50680906 -0.16506073
-0.7514022 0.37464714 0.16307048 0.48542386 0.49143022 -0.19871652 -0.5434288 0.014504839

module.encoder.c3.1.running_var f4 [32]
00000000: 01c8 a03e 52ad 9e3e f6ec 8d3e 508f 853e
00000010: fb9b be3e 5baf cb3e 09df a03e e5d8 ac3e
00000020: a7dd 4f3e f9db b43e dd27 993e ec3e b43e
00000030: 1af0 e03e 554b 0a3f 9ece af3e 8430 a33e
00000040: 1781 cb3e 28e9 443e a990 903e 62c7 b73e
00000050: c766 7a3e f71c c63e 764a e93e 02cc 8f3e
00000060: c91e 793e 2646 ac3e fff9 d43e c8ea a33e
00000070: 7895 a63e 5105 d93e 45b9 613e 03b8 9d3e
0.3140259 0.30991608 0.2771985 0.260859 0.3722838 0.39782223 0.31420162 0.33759227
0.20299397 0.35324076 0.29913226 0.35204256 0.43933183 0.540212 0.34337324 0.31872952
0.39746925 0.19229567 0.28235367 0.35894305 0.24453269 0.38693973 0.45564622 0.28085333
0.2432815 0.3364727 0.41596982 0.3201506 0.3253591 0.4238687 0.22043331 0.30804452
