logs/exp5/model_iters_31000.pth (torch, 495376 bytes, 47 tensors)

module.encoder.c1.main.0.weight f4 [32, 3, 3, 3]
0	0xbc580222	-0.013184102
1	0x3b5c32a5	0.0033599522
2	0xbbe9e0df	-0.0071374024
3	0xbcfb3a9f	-0.030667601
4	0x3a8738e8	0.0010316642
5	0x3b7d75d6	0.0038674972
6	0xbb20f1e0	-0.0024558231
7	0x3d03bbf7	0.03216168
8	0x3cf07785	0.029353866
9	0xbba90d3c	-0.0051590484
10	0xbd551b8e	-0.05202823
11	0x3cca51e6	0.024697255
12	0xbc602ba6	-0.013682282
13	0x3b68f5db	0.0035546932
14	0x3d4dfa95	0.0502878
15	0xbb036b00	-0.002005279
16	0x3b45d142	0.0030184542
17	0x3c3f750f	0.011685624
18	0xbd4fb1ca	-0.050706662
19	0xbd8b400f	-0.067993276
20	0xbccb4ce8	-0.024816945
21	0xbd85f20d	-0.06540308
22	0x3c8765a2	0.016527954
23	0x3d81dcb4	0.06340924
24	0x3cabe5dd	0.02098363
25	0xbd4fc796	-0.05072745
26	0x3d733159	0.059373233
27	0xba4688a0	-0.00075734593
28	0xbc85ce76	-0.0163338
29	0x3c854fed	0.016273463
30	0x3c5266b0	0.012841865
31	0x3cf856c3	0.030314809
32	0x3d0d5b58	0.03451094
33	0xbbb82dff	-0.0056207175
34	0x3c7938ad	0.015211266
35	0xbc6edc00	-0.014578819
36	0x3bba97aa	0.0056943493
37	0xbc77f1c9	-0.01513333
38	0xbcf38ebb	-0.029731145
39	0xbc0c2cfc	-0.008555647
40	0xbbcf47ab	-0.006325682
41	0xbb68d655	-0.0035528142
42	0x3d5ade12	0.05343444
43	0x3ca9b77f	0.02071738
44	0xbc92c2fa	-0.017915238
45	0xbb9b7d35	-0.0047451505
46	0xbb1aef3f	-0.0023641137
47	0x3cd8a661	0.026446523
48	0xb964d65b	-0.00021823628
49	0x3cdf465d	0.027255232
50	0x3e094948	0.13406861
51	0xbd4b1eec	-0.049590036
52	0xbd1fa2f2	-0.038973756
53	0xbd7e9d9e	-0.062162034
54	0x3d02ce09	0.03193477
55	0xbd4547ea	-0.048164286
56	0xbc3f488a	-0.0116750095
57	0x3d584af8	0.05280587
58	0x39ec7c0a	0.00045105844
59	0xbcb03c5e	-0.02151316
60	0x3caead9d	0.02132302
61	0xbc32988f	-0.010900631
62	0x3c2ecb70	0.0106686205
63	0xbcbf484c	-0.023349904
64	0xbd44e0fd	-0.048066128
65	0x3b5fe0c1	0.0034161063
66	0xbc6077c8	-0.013700433
67	0x3d238668	0.0399231
68	0x3cb99f8e	0.02265909
69	0x3a750754	0.00093471
70	0xbaf797ce	-0.0018889846
71	0x3be49745	0.0069760405
72	0xbd74ae84	-0.059736744
73	0x3d15de56	0.03658899
74	0x3cd1ef86	0.025626909
75	0xbd248631	-0.040167037
76	0xbda2e34d	-0.079535104
77	0xbc8c6594	-0.01713828
78	0xbd88e0f8	-0.066835344
79	0x3d71ce6a	0.059034742
80	0x3be679bc	0.007033555
81	0xbd314b77	-0.04328486
82	0xbce2a51f	-0.027666626
83	0xbc6cc577	-0.014451376
84	0xbc3bb836	-0.0114574935
85	0xbd0d252f	-0.03445929
86	0x3c494575	0.012284626
87	0x3c577a83	0.013151768
88	0x3b523208	0.0032073278
89	0x3d5c920c	0.05385022
90	0xbd0965c1	-0.033544306
91	0xbcb761ca	-0.022385497
92	0xbcb7cb31	-0.022435756
93	0x3d8ccc62	0.068749204
94	0xbbd41752	-0.0064725066
95	0xbb687bdc	-0.0035474217
96	0xbc9232ae	-0.017846432
97	0x3cfa09e8	0.030522302
98	0x3c0a7513	0.008450764
99	0xbcd53c55	-0.026029745
100	0xbcb5d5c4	-0.022196658
101	0xbb05a84d	-0.0020394505
102	0xbc5ee5d0	-0.013604596
103	0xbcea3679	-0.028590428
104	0xbb9d89b8	-0.004807677
105	0xbd260d47	-0.040540006
106	0xbd25c90b	-0.040474933
107	0x3c9faf6c	0.019492827
108	0x3cc01a57	0.02345006
109	0x3b54b2ea	0.0032455274
110	0xbce7096e	-0.028202739
111	0xbc1a7bc4	-0.009428922
112	0x3b0728b4	0.0020623626
113	0xbb67d3e9	-0.003537411
114	0xbcb30bfc	-0.0218563
115	0xbc317656	-0.010831436
116	0x3a126967	0.0005585164
117	0xbd1e0b70	-0.038585126
118	0xbd65776b	-0.05602209
119	0xbc92ad47	-0.01790489
120	0x3c9773b2	0.018487785
121	0xbc78e70e	-0.0151918065
122	0xbba2ec1b	-0.0049719936
123	0x3d56a95a	0.0524076
124	0x3ce2c708	0.027682796
125	0x3c93a495	0.018022815
126	0xbd0476b8	-0.03233978
127	0x3d003a84	0.031305805
128	0x3d433b7f	0.04766416
129	0x3c50037e	0.012696145
130	0x3d54cda7	0.051953938
131	0xbce6a237	-0.028153522
132	0x3a7bf1a9	0.00096109003
133	0xbd7b6ffe	-0.0613861
134	0x3bf891e8	0.0075857528
135	0x3c435e31	0.011924312
136	0xbd0295e2	-0.03188122
137	0xbcc224f1	-0.023699256
138	0x3923b7ad	0.00015613316
139	0x3cfc45cf	0.030795006
140	0x3ca383c8	0.0199603
141	0xbcd432ce	-0.025903132
142	0x3d1c5465	0.038166422
143	0x3bc40e65	0.0059831613
144	0x3d5d6211	0.0540486
145	0x3ce1c707	0.027560724
146	0xbbd9f811	-0.0066518863
147	0x3d0caa99	0.034342382
148	0xbd87c9e7	-0.06630307
149	0x3c739259	0.014866435
150	0x3c091001	0.008365632
151	0xbd12ba9c	-0.035822496
152	0xbd027b2d	-0.03185575
153	0xbcb8e86e	-0.022571769
154	0xbb1c8737	-0.0023884305
155	0x3d213784	0.039359584
156	0x3bfd6e31	0.007734083
157	0xbd8b6f48	-0.068083346
158	0x3c9266da	0.01787131
159	0xbd0779a4	-0.03307499
160	0xbbe45031	-0.0069675674
161	0x3ca64156	0.020294826
162	0xb9d549cc	-0.0004068151
163	0x3bdba5ab	0.006703099
164	0x3c11231e	0.00885847
165	0xbce6dc4c	-0.028181218
166	0x3a8be9e1	0.001067456
167	0x3cfeb658	0.031092808
168	0xbd05ffdf	-0.03271472
169	0xbd308bb8	-0.043101996
170	0x3b2ad423	0.0026066385
171	0x3d60db86	0.054896854
172	0x3baf7bf4	0.0053553525
173	0x3d993c91	0.07482255
174	0xbb559184	-0.0032587955
175	0xbcf18021	-0.029480042
176	0xbcace39a	-0.021104623
177	0xbcc842ee	-0.024445977
178	0xbcd56330	-0.026048273
179	0xbca64eb0	-0.020301193
180	0xbcb8d0cf	-0.022560505
181	0xbd8cdc7f	-0.06877994
182	0xbbb486e5	-0.0055092447
183	0x3d60ddb3	0.05489893
184	0xbc6cacdb	-0.014445509
185	0xbb079745	-0.002068953
186	0x3d0fd22c	0.035112545
187	0x3c0c3e88	0.0085598305
188	0xbbb67c3d	-0.0055690096
189	0x3d8c8e62	0.06863095
190	0x3bb6ae20	0.0055749565
191	0xbd2167a8	-0.039405495
192	0x3c900542	0.017580632
193	0xbaa684c1	-0.0012704359
194	0x3be3f409	0.0069565815
195	0xbc6095a4	-0.013707552
196	0x3bec4d45	0.0072113597
197	0xbd03fe27	-0.0322248
198	0xbda70191	-0.08154596
199	0x3bb4f043	0.0055218055
200	0xbc129ab3	-0.008948016
201	0x3cf4a4c6	0.029863726
202	0x3c67c32f	0.0141456565
203	0x3d132321	0.035922173
204	0x3d02ea93	0.03196199
205	0xbcb3a5ea	-0.0219297
206	0xb9c68e9c	-0.00037871755
207	0xbca53523	-0.02016694
208	0xbab90c62	-0.001411807
209	0x3d178865	0.03699531
210	0x3d640b67	0.055674937
211	0x3c97cc18	0.018529937
212	0x3c5e513e	0.013569174
213	0xbb5851de	-0.003300778
214	0xbdac1e83	-0.08404257
215	0xbdb4b3be	-0.088233456
216	0x3ce2a0d9	0.027664589
217	0xba33cf71	-0.0006859219
218	0x3bc21194	0.0059225056
219	0x3b1a7c1e	0.0023572515
220	0x3b244539	0.0025065674
221	0xbc2c010c	-0.0104982965
222	0x3c7e61d8	0.015526257
223	0x3cc0215e	0.02345341
224	0xbcc604c7	-0.0241722
225	0xbd06cade	-0.032908313
226	0xbd5e216f	-0.054231104
227	0x3c0b4ab8	0.008501701
228	0xbcdbe10a	-0.026840705
229	0x3c592a31	0.013254688
230	0x3d3e6324	0.046481267
231	0x3b41e2c7	0.0029584633
232	0x3ca74267	0.020417405
233	0x3ca8792a	0.020565588
234	0x3d8d53a8	0.06900722
235	0xbafc8506	-0.0019265718
236	0x3c1d87bf	0.009614884
237	0xbd5af475	-0.05345579
238	0xbd12cd7f	-0.035840508
239	0xbc2f1be2	-0.0106878
240	0xbd891cdf	-0.0669496
241	0xbd931036	-0.07180826
242	0x3b89ff83	0.0042113676
243	0xbbf4d9a5	-0.0074722343
244	0xbc88a610	-0.016680747
245	0xbcdc2400	-0.026872635
246	0xbc93fccf	-0.018064884
247	0xbb038b66	-0.0020072102
248	0xbd026055	-0.03183015
249	0xbb32e3fb	-0.0027296531
250	0x3b05eed1	0.0020436535
251	0x3c42b9ed	0.0118851485
252	0x3c963552	0.018335972
253	0x3bb88d3f	0.005632072
254	0xbb1c52e6	-0.0023853122
255	0x38bedac7	9.1006565e-05

module.encoder.c1.main.0.bias f4 [32]
0	0x392341dc	0.00015569426
1	0xb44bccb2	-1.8980316e-07
2	0xb98879b9	-0.00026030632
3	0xb968612f	-0.00022161448
4	0xb949233d	-0.00019181981
5	0x3a4b3319	0.00077514496
6	0x38cee8c0	9.8661985e-05
7	0x388b2dbb	6.6365545e-05
8	0xb9af4260	-0.00033428054
9	0xb99929a3	-0.00029213456
10	0x3a1ddd08	0.0006022011
11	0x390c2fdb	0.00013369268
12	0xb9c7553c	-0.00038019742
13	0xb81340d7	-3.5107918e-05
14	0x38a211ea	7.728099e-05
15	0x39466e44	0.00018923829
16	0x371d7aca	9.386518e-06
17	0xba0b114f	-0.00053050084
18	0xb89c724a	-7.459948e-05
19	0xb97ddb81	-0.00024209732
20	0xb9343190	-0.00017184601
21	0x387cc585	6.0265436e-05
22	0x38e9cdf4	0.000111486675
23	0x3a448d80	0.0007497892
24	0xb9fca217	-0.00048185952
25	0xb74ba6df	-1.2138596e-05
26	0x38737e76	5.805349e-05
27	0x39889f9d	0.00026058863
28	0x386a1f85	5.5819302e-05
29	0xb876d3ad	-5.884811e-05
30	0x397d1bef	0.00024138366
31	0x38ac2064	8.207632e-05

module.encoder.c1.main.1.weight f4 [32]
0	0x3f836d12	1.0267661
1	0x3f81b155	1.0132242
2	0x3f757f66	0.9589752
3	0x3f794ab8	0.97379637
4	0x3f849e54	1.0360818
5	0x3f7ff1bb	0.99978226
6	0x3f80d46d	1.0064827
7	0x3f7e96d8	0.9944892
8	0x3f734871	0.9503241
9	0x3f822ff8	1.0170889
10	0x3f8332c7	1.0249871
11	0x3f7ccb79	0.98747975
12	0x3f89eaf0	1.0774822
13	0x3f828fba	1.0200112
14	0x3f7b9a5d	0.98282415
15	0x3f7ba73d	0.9830206
16	0x3f66cfb4	0.9016068
17	0x3f8030ab	1.0014852
18	0x3f76e4f2	0.9644309
19	0x3f7f140c	0.99639964
20	0x3f771ba3	0.96526545
21	0x3f856a2e	1.0423028
22	0x3f7b9f26	0.98289716
23	0x3f88655e	1.0655935
24	0x3f77bafb	0.96769685
25	0x3f80c775	1.006087
26	0x3f7e5a89	0.99356896
27	0x3f810a1f	1.0081214
28	0x3f7ae26b	0.98001736
29	0x3f6bd049	0.9211469
30	0x3f809f3c	1.0048594
31	0x3f6c2e28	0.9225793

module.encoder.c1.main.1.bias f4 [32]
0	0xbd541225	-0.051775116
1	0xbd99a9d7	-0.075030975
2	0xbdcd3858	-0.10020512
3	0xbde47855	-0.11155764
4	0xbc7b40b1	-0.015335248
5	0xbca34d27	-0.01993425
6	0xbc167424	-0.0091829635
7	0xbdd5aac4	-0.104329616
8	0xbd8c557e	-0.06852244
9	0x3d1eafb8	0.038741797
10	0xbdfd612c	-0.1237205
11	0xbcf3e755	-0.029773394
12	0xbdba19f1	-0.09086979
13	0x3d706a2d	0.058695007
14	0x3b6d1244	0.0036174217
15	0xbdbabf1f	-0.09118485
16	0xbdc7c933	-0.097551726
17	0xbd1cda93	-0.038294386
18	0xbda02a2f	-0.07820546
19	0xbe01a36a	-0.12659994
20	0xbd65e14a	-0.056123056
21	0x3bbe8135	0.0058137425
22	0xbcc20483	-0.023683792
23	0xbccae21f	-0.024766026
24	0xbd6beb41	-0.057597402
25	0xbd715f8b	-0.058929008
26	0xbd97d0f2	-0.074129
27	0xbd0ec51e	-0.034855954
28	0xbd9151da	-0.0709569
29	0xbd4f88e6	-0.050667666
30	0xbc2fcc68	-0.010729887
31	0xbd3d8a55	-0.0462745

module.encoder.c1.main.3.weight f4 [32, 32, 3, 3]
0	0xbcf5751a	-0.029963065
1	0x3d12044d	0.035648633
2	0x3d73e5a0	0.05954516
3	0xbd4512e6	-0.048113726
4	0xbb46ebf0	-0.0030353032
5	0xbd137fd5	-0.036010582
6	0x3be5996d	0.007006815
7	0x3c476f49	0.012172529
8	0xbc29eda0	-0.010371596
9	0xbc263efd	-0.0101468535
10	0xbc1a6a5f	-0.009424775
11	0x3d72a736	0.059241496
12	0xbbebecc2	-0.0071998546
13	0x3d0c7d63	0.034299266
14	0x3a0910fe	0.0005228667
15	0xbc9e3cc3	-0.019316083
16	0x3caee896	0.02135114
17	0xbc5821f2	-0.013191687
18	0xbce8d838	-0.028423414
19	0xbcc003e2	-0.023439351
20	0xbca1fa61	-0.01977271
21	0xbbf6bfcb	-0.0075301877
22	0x3b64dbbd	0.0034921013
23	0xbbb5adff	-0.0055444236
24	0xbc0f7feb	-0.008758525
25	0xbb083796	-0.0020785085
26	0xbcec400f	-0.02883914
27	0x3d155cbb	0.036465388
28	0x3c8ebe38	0.017424688
29	0x3ce38b51	0.027776392
30	0x3d720844	0.059089914
31	0xbba3cbab	-0.0049986443
32	0xba624a76	-0.00086323114
33	0xbc6c7528	-0.014432229
34	0xbb72ada1	-0.003702976
35	0x3cdea8a2	0.02718002
36	0x3ca73d58	0.020414993
37	0xbcd5e88c	-0.026111864
38	0xbd122396	-0.03567847
39	0x3c3d1532	0.011540698
40	0xbb8b850a	-0.004257803
41	0x3abe10fd	0.0014500913
42	0xbba67803	-0.0050802245
43	0x3b7a3d2d	0.0038183436
44	0x3ac1203e	0.001473434
45	0xbc96c062	-0.018402282
46	0xbd12c1f8	-0.035829514
47	0x3c6e5e5c	0.014548864
48	0x3ce2ce35	0.027686218
49	0x3c6530db	0.013988699
50	0xbc899d0e	-0.016798522
51	0xbc759195	-0.014988323
52	0x3bc6c568	0.006066013
53	0xbcef0f9e	-0.029182252
54	0xbbcc4f6b	-0.0062350533
55	0x3c8175bb	0.015803209
56	0xbc1d9016	-0.009616872
57	0xbc7f41ef	-0.015579685
58	0x39846dc5	0.00025258787
59	0x3b22cdd4	0.0024841921
60	0xbcc663f7	-0.024217589
61	0x3cce9e0c	0.025221847
62	0x3b028860	0.0019917712
63	0x3c079fc3	0.008277836
64	0x3d25e759	0.040503833
65	0x3c92385c	0.01784914
66	0xbc8ce906	-0.017200958
67	0xbd38e6e4	-0.04514207
68	0xbd3e936d	-0.046527315
69	0x3c21730d	0.00985409
70	0x3c7d3d50	0.015456513
71	0xbca73590	-0.020411283
72	0xbc880472	-0.016603682
73	0xbc276267	-0.010216332
74	0x3c688c0d	0.014193547
75	0xbc89176b	-0.0167348
76	0xbc1469b2	-0.009058403
77	0x3d1ed817	0.038780298
78	0x3b5bbc43	0.003352896
79	0x3c790de1	0.015201063
80	0x3c238d28	0.009982385
81	0x3c357351	0.011074857
82	0xbc983573	-0.018580174
83	0xbc7cfdc8	-0.015441366
84	0xbd284c66	-0.041088484
85	0xbc9a2ae5	-0.018819282
86	0xbd50c98e	-0.050973468
87	0x3d66773c	0.056266055
88	0xbc9de3fb	-0.019273749
89	0xbc43e3db	-0.01195618
90	0xbd2712a2	-0.040789254
91	0xbd6206f4	-0.055182412
92	0xbd5b3dcb	-0.053525727
93	0x3c29610d	0.01033808
94	0xbb96d6ca	-0.0046032416
95	0x3c46e6ae	0.012139959
96	0xbc0c67a5	-0.008569633
97	0x3afc6204	0.0019255285
98	0xbc892932	-0.016743276
99	0x3bbf7046	0.0058422415
100	0xbd939c39	-0.072075315
101	0x3d3373b8	0.04381153
102	0xbc77dfe9	-0.015129068
103	0x3c9be500	0.019030094
104	0x3d32dbfb	0.04366682
105	0x3c89b9cb	0.016812226
106	0x3cb8d85a	0.022564102
107	0x3c875746	0.016521107
108	0xbd2681d8	-0.040651172
109	0x3d5808b0	0.05274266
110	0x3d0f3f92	0.034972735
111	0xbc937ee8	-0.01800485
112	0xbcc0ff24	-0.02355916
113	0xba9ebd68	-0.0012110891
114	0x3d31ec06	0.04343798
115	0x3c1836fd	0.009290454
116	0xbc7c4312	-0.01539685
117	0x3d5f0d11	0.05445582
118	0x3d0feecd	0.035139848
119	0x3c9af149	0.018913882
120	0x3d989a5d	0.074513175
121	0x3cadec2a	0.021230776
122	0x3d34bf2e	0.044127636
123	0x3da2de60	0.07952571
124	0x3cecd445	0.028909812
125	0x3c3a6ff4	0.011379231
126	0xbc966fa9	-0.01836379
127	0xbc40dd09	-0.011771449
128	0x3c9f6055	0.019455114
129	0xbb034a98	-0.0020033475
130	0xbc8c9ec0	-0.017165542
131	0xbc447780	-0.011991382
132	0x3a7fadf7	0.0009753401
133	0xbcdbf071	-0.02684805
134	0xbd7c4681	-0.061590675
135	0x3ce07517	0.027399583
136	0xbcb7a698	-0.022418305
137	0xbd2ad77f	-0.04170942
138	0x3c3c96b1	0.011510537
139	0xbc8bf558	-0.017084762
140	0xbcce0ce6	-0.025152635
141	0xbaa10927	-0.0012286053
142	0xbc5b90de	-0.013401238
143	0xbb239767	-0.002496207
144	0xba08e1a0	-0.0005221609
145	0x3ce229ec	0.02760788
146	0xbcadad55	-0.021200815
147	0xbb66e7f4	-0.003523347
148	0x3c226084	0.009910706
149	0xbc907715	-0.017634908
150	0x3c8270b7	0.015922887
151	0xbc31a505	-0.010842566
152	0x3cf69d62	0.030104343
153	0x3b1d0c0e	0.0023963484
154	0x3c700447	0.014649457
155	0x3cf8b513	0.03035978
156	0xbc53f35d	-0.01293644
157	0x3cdf040d	0.027223611
158	0xbc2838fd	-0.010267493
159	0x3c39f682	0.011350276
160	0x3dbba4f9	0.091623254
161	0x3c1e109f	0.009647517
162	0x3d0452b6	0.03230544
163	0xbc3ae514	-0.011407156
164	0x3c68b889	0.014204153
165	0xbc2f33fb	-0.010693545
166	0xbcdf2a20	-0.027241766
167	0x3c1a0ecf	0.009402945
168	0x3b2e00e8	0.0026550833
169	0xbc2e9b72	-0.010657178
170	0x3cebbf32	0.028777692
171	0x3ca9c892	0.020725522
172	0xbcf8f073	-0.030388093
173	0x3c6ec503	0.014573338
174	0xbcdd5f9c	-0.02702313
175	0x3bc8c58f	0.0061270664
176	0x3c2e1943	0.01062614
177	0xbcdbf1df	-0.026848732
178	0x3c8dc14e	0.017304089
179	0x3cbb6260	0.022874057
180	0xbc78544a	-0.015156815
181	0xbc044ee3	-0.008075449
182	0x3cf78d0c	0.030218624
183	0x3c6e99c1	0.014563025
184	0x3d700688	0.05859998
185	0xbcce2676	-0.025164824
186	0x3bcfe0cb	0.006343936
187	0xbb31505f	-0.0027055962
188	0x3cdf9794	0.027293958
189	0x3cc9a132	0.024612997
190	0x3d291719	0.041281793
191	0xbcbb5796	-0.022868913
192	0xbd02ccd3	-0.031933617
193	0x3c90102c	0.017585836
194	0x3d298878	0.041389912
195	0xbc759d80	-0.014991164
196	0x3b6110be	0.0034342255
197	0xbd0596b3	-0.03261442
198	0x3d10ffbb	0.035400134
199	0x3cef07eb	0.02917858
200	0x3cfd49d7	0.030918999
201	0x3cd42886	0.02589823
202	0x3d953f80	0.07287502
203	0x3ba7c2b7	0.0051196474
204	0x3d571c51	0.05251724
205	0xbc168076	-0.009185901
206	0x3d0312a3	0.032000195
207	0x3c848eaf	0.016181318
208	0xbc3c3728	-0.01148776
209	0x3d1fff6f	0.03906196
210	0xbc562c85	-0.013072138
211	0x3b6a33a2	0.0035736342
212	0xbc7f9f3f	-0.015601932
213	0xbd74ff11	-0.059813563
214	0xbcea69df	-0.028614936
215	0xbd023237	-0.03178617
216	0x3c9e7b2a	0.019345839
217	0x3cd09ba7	0.025464846
218	0xbc45fffa	-0.012084955
219	0x3c059ba5	0.008154784
220	0xbc982494	-0.01857213
221	0x3d2bf498	0.04198131
222	0xbbc3f4e0	-0.005980119
223	0xbcf8bb12	-0.03036264
224	0x3ca7a30d	0.02046349
225	0xbcdbc253	-0.02682606
226	0xbca20875	-0.019779423
227	0x3ad69c6f	0.0016373525
228	0x3c8f53cf	0.017496018
229	0x3c0eac89	0.008708128
230	0xbcb00487	-0.021486534
231	0x3d3ffc3c	0.04687141
232	0xbd941a6a	-0.072316006
233	0xbd556aaf	-0.052103695
234	0xbc2beca7	-0.010493434
235	0xbc737e7f	-0.014861702
236	0x3d272327	0.04080501
237	0x3d16a235	0.036775786
238	0x3c84c440	0.01620686
239	0xbced801e	-0.028991755
240	0x3be30c17	0.0069289315
241	0x3d5fbdfc	0.054624543
242	0xbb0d2ce9	-0.002154166
243	0xbd2e8489	-0.042606864
244	0x3cd94257	0.026520891
245	0xbac37de1	-0.0014914834
246	0xbb230fd7	-0.0024881267
247	0xbd21beb1	-0.039488498
248	0x3d1b3968	0.037896544
249	0x3bdefdb0	0.0068051443
250	0xbb80d6eb	-0.00393187
251	0xbc26bd50	-0.010176972
252	0x3c0aac7d	0.008463976
253	0x3b3e08b2	0.0028996882
254	0xbc5e49f7	-0.013567439
255	0x3ccbddc0	0.024886012

module.encoder.c1.main.3.bias f4 [32]
0	0xb5632880	-8.4623025e-07
1	0xb7931fb3	-1.7538527e-05
2	0x3673b07a	3.6312545e-06
3	0x38007515	3.062662e-05
4	0xb78673e6	-1.6028014e-05
5	0xb89ac5fa	-7.380168e-05
6	0xb86f3348	-5.70298e-05
7	0x3727baa5	9.997432e-06
8	0x36668622	3.4350746e-06
9	0x372af1d8	1.0189098e-05
10	0xb3a4bc05	-7.671046e-08
11	0xb78d1f2d	-1.6823027e-05
12	0xb24abfb3	-1.1801535e-08
13	0xb70a36d8	-8.23821e-06
14	0xb773a7b6	-1.4522977e-05
15	0x379bf863	1.8593104e-05
16	0xb6b70eec	-5.455562e-06
17	0x36935d61	4.391812e-06
18	0x36c85905	5.9708277e-06
19	0xb7d76e73	-2.568143e-05
20	0xb8717d41	-5.757553e-05
21	0xb734576e	-1.0749192e-05
22	0x35614df1	8.393245e-07
23	0x36bc2945	5.607641e-06
24	0x36289d69	2.5125576e-06
25	0x3628fdc5	2.5181664e-06
26	0xb81ae71f	-3.693171e-05
27	0x37de2405	2.6481235e-05
28	0x37a67145	1.9841487e-05
29	0x379dd47b	1.8814802e-05
30	0xb7ad7d2c	-2.0681495e-05
31	0xb7a08380	-1.913472e-05

module.encoder.c1.main.4.weight f4 [32]
0	0x3f787bb5	0.9706376
1	0x3f6ef06d	0.9333561
2	0x3f76b1d9	0.96365124
3	0x3f7f5c77	0.99750465
4	0x3f7a3fb7	0.9775347
5	0x3f82c7fd	1.0217282
6	0x3f81b93a	1.0134652
7	0x3f78f4a1	0.97248274
8	0x3f80bc8d	1.0057541
9	0x3f6406b9	0.8907276
10	0x3f7f0de2	0.9963056
11	0x3f7b6ff0	0.9821768
12	0x3f6638ac	0.89930224
13	0x3f7a5239	0.9778171
14	0x3f79d05c	0.97583556
15	0x3f750163	0.9570524
16	0x3f789532	0.97102654
17	0x3f79ac4f	0.9752855
18	0x3f7c15d0	0.98470783
19	0x3f826f7d	1.0190274
20	0x3f801dcf	1.0009097
21	0x3f75b369	0.95976883
22	0x3f6fedbb	0.9372212
23	0x3f7886ab	0.97080487
24	0x3f6ea769	0.932242
25	0x3f782528	0.96931696
26	0x3f7ed6b2	0.9954635
27	0x3f822e4f	1.0170382
28	0x3f7f568e	0.99741447
29	0x3f72850a	0.9473425
30	0x3f6ffcd6	0.9374517
31	0x3f7dae6e	0.99094284

module.encoder.c1.main.4.bias f4 [32]
0	0xbc77e77e	-0.015130876
1	0xbc3db035	-0.011577656
2	0xbbe77144	-0.007063063
3	0x3d00133a	0.031268336
4	0xbcce020f	-0.025147466
5	0xbd852bcb	-0.065024935
6	0xbde8fdc3	-0.11376526
7	0x3cdae3b4	0.026719905
8	0xbc6f041e	-0.014588384
9	0xbdd0d757	-0.10197323
10	0xbb7fb9af	-0.0039020588
11	0xbd159e1b	-0.036527734
12	0xbe0d8c0b	-0.13822953
13	0x3c770209	0.015076169
14	0x3c09be79	0.008407229
15	0xbd57a045	-0.05264308
16	0xbd7997a8	-0.060935646
17	0xbc4c682e	-0.01247601
18	0x3c265562	0.010152193
19	0xbd85e685	-0.06538109
20	0xbb54431b	-0.003238863
21	0xbda87687	-0.08225732
22	0xbd5264ba	-0.05136559
23	0xbd762809	-0.060096774
24	0xbcff8657	-0.031191988
25	0xbcbf3f60	-0.02334565
26	0xbcf863a5	-0.030320952
27	0x3c30e52c	0.010796826
28	0xbc26a9c3	-0.01017231
29	0xbd9e1aec	-0.07719979
30	0xbd3f2130	-0.04666251
31	0xbd0e49d1	-0.034738366

module.encoder.c2.main.0.weight f4 [64, 32, 3, 3]
0	0xbbad4fc9	-0.005289052
1	0xbb5d548b	-0.0033772315
2	0x3d4cf5e3	0.050039183
3	0x3bb130c6	0.0054074256
4	0xbba121ab	-0.0049173436
5	0x3bce29a7	0.0062915864
6	0x3d043e21	0.032285813
7	0xbc7ccbd0	-0.015429452
8	0x3cd5fc1e	0.026121195
9	0x3b7fd951	0.0039039443
10	0xbbdb5615	-0.0066936114
11	0xbd101d33	-0.035184097
12	0x3c976284	0.018479593
13	0xbb00b414	-0.0019638585
14	0xbb3cace4	-0.0028789574
15	0x3d46d5b4	0.048543647
16	0x3d2efee5	0.042723555
17	0x3b586c8f	0.003302369
18	0x3d186e1d	0.037214387
19	0xbc90ca6a	-0.017674644
20	0xbc3fe8aa	-0.011713186
21	0x3bc8a5e7	0.0061232927
22	0xbc355139	-0.011066728
23	0x3d0abb41	0.033869985
24	0xbccc036a	-0.024903972
25	0x3c172eeb	0.009227495
26	0x3d016300	0.031588554
27	0x3b1cf573	0.002395001
28	0x3ad43e5f	0.0016192904
29	0x3be01c03	0.0068392768
30	0xba46e030	-0.0007586507
31	0xbca91c2e	-0.02064332
32	0x3c65e9a6	0.014032757
33	0xbca620ec	-0.02027937
34	0xbce7f759	-0.028316187
35	0xbc6f04d7	-0.014588556
36	0xbc90b7c2	-0.017665748
37	0x3cc42974	0.023945548
38	0xbc4decfc	-0.0125687085
39	0x3c9bb57a	0.019007433
40	0x3d8ceb07	0.068807654
41	0x3c98f2f7	0.018670542
42	0xbcda6932	-0.02666149
43	0x3d18ad35	0.037274558
44	0x3d95925b	0.07303306
45	0xbab92a79	-0.0014127038
46	0x3d23861c	0.03992282
47	0xbcaa9e0b	-0.020827314
48	0x3cc7a00f	0.024368314
49	0x3cadce3b	0.021216502
50	0xbbb7fa10	-0.0056145266
51	0x3d03106f	0.031998094
52	0xbc105c3c	-0.008811053
53	0x3c672665	0.014108275
54	0xbd7109b9	-0.058847163
55	0xbd61e220	-0.05514729
56	0xbd4bdb8e	-0.04976993
57	0xbdb5a508	-0.08869368
58	0x3aa59d06	0.0012635298
59	0xbd5df09f	-0.054184552
60	0xbcf41676	-0.029795866
61	0xbd456896	-0.048195444
62	0xbd2a9ab7	-0.041651454
63	0x3bb01c7d	0.00537449
64	0x3d157ef8	0.03649804
65	0xbca13edd	-0.019683296
66	0xbc4f7d92	-0.012664216
67	0x3c3e9b5e	0.011633722
68	0x3c56c5a7	0.013108647
69	0xbb252371	-0.0025198127
70	0xbb9aae90	-0.0047205165
71	0x3ba20fe7	0.0049457434
72	0xbcc68c51	-0.02423683
73	0x3b664eb8	0.0035142135
74	0xbb35e573	-0.002775517
75	0x3c1c6ff6	0.009548178
76	0x3d21cb55	0.039500553
77	0xbac63c0a	-0.0015124094
78	0xbc07a639	-0.008279377
79	0xbbb7cd32	-0.005609178
80	0xbb648673	-0.0034870177
81	0x3cf2989f	0.029613791
82	0x3c2af92b	0.010435383
83	0xbc8feb4a	-0.01756825
84	0xbc7ba2c1	-0.015358628
85	0xbb5a6bb9	-0.0033328368
86	0x3ceb3171	0.028710099
87	0xbbffa9ae	-0.00780221
88	0xbbbb17b1	-0.0057096113
89	0x3d0f7994	0.035028055
90	0x3b1b68f0	0.002371367
91	0x3caaba16	0.020840686
92	0xbd1e8ed1	-0.03871042
93	0x3c9b2b74	0.018941619
94	0x3c7cfc00	0.015440941
95	0x3c8b7403	0.017023092
96	0x3c8a968a	0.016917486
97	0x3c3464e1	0.0110103795
98	0xbcc0bc6e	-0.02352735
99	0x3b1365b4	0.002249104
100	0x3d1e6047	0.038666036
101	0x3d0ff79b	0.035148244
102	0x3ccb45e0	0.024813592
103	0x3d6bd38e	0.0575748
104	0xbcb969fe	-0.022633549
105	0xbc989b76	-0.018628817
106	0x3c410220	0.011780292
107	0xbcf6807e	-0.030090567
108	0x3ba808bf	0.0051279957
109	0x3c1512cb	0.009098719
110	0x3d6cc4c8	0.057804853
111	0xbcc39f3c	-0.02387964
112	0xbd3bf2f6	-0.045886002
113	0xbb82e56f	-0.003994636
114	0x3d32376c	0.043509886
115	0x3a3f113f	0.00072886416
116	0x3b4bdc3b	0.003110661
117	0xbce66eba	-0.02812897
118	0x3d07d40f	0.03316122
119	0x3ca09320	0.019601405
120	0x3b0f87f7	0.002190111
121	0xbc4f0218	-0.0126347765
122	0x3d881a2b	0.06645616
123	0x3ce1e3be	0.027574416
124	0x3cf0150a	0.029306907
125	0xbcbf9ebb	-0.023391118
126	0xbc9d76b8	-0.019221649
127	0x3cd2f3e4	0.025751062
128	0xba9d9d82	-0.001202509
129	0xbd4b956f	-0.049703058
130	0x3d247c5e	0.04015767
131	0x3d24dd87	0.040250327
132	0xbd01727d	-0.031603325
133	0xbad1e65a	-0.0016014085
134	0xbb145014	-0.0022630738
135	0xbc6c869e	-0.014436392
136	0xbccc9582	-0.024973635
137	0xbce75503	-0.028238779
138	0xbd1c6a73	-0.038187455
139	0xbb5b91a1	-0.003350355
140	0x3d289841	0.041160826
141	0xbb3a2f8b	-0.0028409685
142	0xbcde8f0f	-0.027167825
143	0xbcaf6732	-0.021411512
144	0xbbf58b4a	-0.007493411
145	0xbccbd739	-0.0248829
146	0x3cf3da2f	0.029767124
147	0x3c4af241	0.012386859
148	0x3d04ef43	0.03245474
149	0x3d20b9ec	0.03923981
150	0x3be2cafa	0.0069211693
151	0x3d390c58	0.045177788
152	0x3d0fc76e	0.0351023
153	0xbc8d1e20	-0.017226279
154	0x3d22af55	0.03971799
155	0x3c6254f8	0.013814203
156	0x3d65ef06	0.056136154
157	0x3cb8d8f8	0.022564396
158	0x3d0ddd35	0.034634788
159	0x3c9a9c43	0.01887334
160	0x3ba52ad6	0.005040507
161	0x3aa75af7	0.0012768199
162	0xbd8930f9	-0.06698794
163	0xbbb81f2b	-0.00561895
164	0xbc7d5479	-0.015462034
165	0x3b24dee6	0.0025157272
166	0xbb953687	-0.0045536193
167	0x3c1a7029	0.009426155
168	0xbca74940	-0.02042067
169	0xbc48fece	-0.012267781
170	0x3cb1e4ab	0.021715483
171	0xbd034700	-0.032050133
172	0xbd168978	-0.036752194
173	0xbd5a2296	-0.05325564
174	0xbd05c301	-0.032656673
175	0xbcf12ca3	-0.02944023
176	0xbbca0925	-0.006165641
177	0xbd314695	-0.043280203
178	0xbc829840	-0.01594174
179	0xbc90e6be	-0.017688151
180	0xbc12f732	-0.008970069
181	0x3d042dab	0.032270115
182	0xbc1f2398	-0.009713076
183	0xbc095931	-0.008383081
184	0xbd28d842	-0.041221865
185	0xbd743c51	-0.059627835
186	0xbcd8337c	-0.026391737
187	0xbd2670e6	-0.040635012
188	0xbc5f7e14	-0.013640899
189	0xbd8dea56	-0.06929462
190	0xbcbda748	-0.023151055
191	0xbd8006ee	-0.06251322
192	0xbc604d94	-0.013690371
193	0xbc80b5e5	-0.015711734
194	0xbd48e0bc	-0.04904245
195	0xb9c7c9e2	-0.00038106652
196	0xbc8d66f5	-0.017261008
197	0xbc2124be	-0.00983542
198	0xbd5d1681	-0.05397654
199	0xbd2168cc	-0.039406583
200	0x37849c56	1.5808426e-05
201	0xbd53a028	-0.05166641
202	0xbc26341f	-0.010144263
203	0xbd25ec11	-0.040508334
204	0xbca38dc4	-0.01996506
205	0x3d00b08a	0.03141836
206	0xbacb8040	-0.0015525892
207	0xbc80fdc1	-0.015746
208	0xbcd72f8e	-0.026267793
209	0xb9b7f420	-0.00035086367
210	0x3cebe77c	0.028796904
211	0xbcd56c6b	-0.026052674
212	0xbcfdfa6f	-0.031003205
213	0xbc22b17c	-0.009930011
214	0xbbc0457b	-0.0058676577
215	0x3bafacd4	0.005361179
216	0xbc982661	-0.018572988
217	0x3d1cf239	0.03831694
218	0xbd435dcb	-0.04769687
219	0xbc8ec8b9	-0.017429696
220	0x3c413b03	0.011793855
221	0xbce37638	-0.027766332
222	0xbd0891f4	-0.033342317
223	0xbbc632d8	-0.0060485415
224	0x3c851cad	0.016249025
225	0x3c952c88	0.01820971
226	0x3c7f0b37	0.015566639
227	0x3cce6b59	0.025197672
228	0xbc170d3c	-0.009219464
229	0xbd03e83b	-0.032203894
230	0x3d2ea5e9	0.042638693
231	0x3d54ec09	0.051982913
232	0x3d60d555	0.05489095
233	0x3d8ff6c8	0.07029492
234	0x3cec6d6c	0.02886077
235	0x3ae9a6ec	0.0017826236
236	0xbc4c9a70	-0.012487993
237	0x3b0b4000	0.0021247864
238	0xbb5e42e9	-0.0033914393
239	0x3c3d2755	0.011545022
240	0x3cff57bf	0.03116977
241	0x3cab7973	0.020931935
242	0xbb44fa5f	-0.003005646
243	0xbd619864	-0.05507697
244	0xbd8e1462	-0.069374815
245	0xbd5f1e27	-0.054472115
246	0xbd1e8da6	-0.038709305
247	0xbd9c0640	-0.076183796
248	0xbd3d3e0b	-0.046201747
249	0xbd882ab6	-0.066487715
250	0xbd4e0b8a	-0.050303973
251	0xbd17d73a	-0.03707049
252	0x3c8d9ef1	0.017287703
253	0xbd42cce5	-0.047558684
254	0xbc007dbf	-0.00784248
255	0xbcf9bc27	-0.030485226

module.encoder.c2.main.0.bias f4 [64]
0	0x36a9ffd9	5.066377e-06
1	0x369accd3	4.6134023e-06
2	0x36ba03fa	5.543695e-06
3	0xb6e3f6e5	-6.7938695e-06
4	0x3732e771	1.0663513e-05
5	0x3555192e	7.9385325e-07
6	0x3467aebb	2.1577118e-07
7	0x36279759	2.4973035e-06
8	0xb61d0303	-2.3396576e-06
9	0x36d6824b	6.392865e-06
10	0x371e8d1e	9.45039e-06
11	0x362c7f8e	2.5704244e-06
12	0xb731a1a0	-1.0587653e-05
13	0xb6a778ec	-4.991065e-06
14	0xb610ef3d	-2.1596927e-06
15	0x3697e9fd	4.5273905e-06
16	0x368e92dd	4.249027e-06
17	0x3632df40	2.6654016e-06
18	0x35f5fd9b	1.8327731e-06
19	0x36f05ea9	7.1635773e-06
20	0xb6aa1e0e	-5.0698936e-06
21	0x3796821b	1.7941979e-05
22	0xb6557634	-3.1808277e-06
23	0xb4c73409	-3.71045e-07
24	0x365e7501	3.3148683e-06
25	0x367f19ad	3.8012906e-06
26	0x35adba47	1.2943718e-06
27	0xb5619a66	-8.404371e-07
28	0x370e16b6	8.469147e-06
29	0x3740ad89	1.1484496e-05
30	0x36a70634	4.97771e-06
31	0xb67c0ac3	-3.755719e-06
32	0xb6ba2b30	-5.5482597e-06
33	0x377c6ea9	1.5046136e-05
34	0x36087a62	2.0336815e-06
35	0x370eb1e2	8.505276e-06
36	0xb56cbd43	-8.8192263e-07
37	0x358a63d5	1.0310856e-06
38	0x35e7b9c1	1.7264903e-06
39	0x35cab376	1.5102403e-06
40	0x375800a4	1.2874752e-05
41	0xb602d6b4	-1.9496483e-06
42	0x3658b067	3.2289188e-06
43	0xb6d2b0db	-6.2790764e-06
44	0xb6cfd184	-6.1934716e-06
45	0xb6da2f25	-6.5023946e-06
46	0x3681a74d	3.863976e-06
47	0x3612363f	2.178727e-06
48	0xb6208464	-2.391892e-06
49	0x3709595e	8.186644e-06
50	0x36a6ad46	4.967357e-06
51	0xb673be29	-3.632051e-06
52	0x36a43492	4.893701e-06
53	0xb7040c73	-7.870712e-06
54	0x36af9ef6	5.233912e-06
55	0xb6668fef	-3.435645e-06
56	0x3645286d	2.9378818e-06
57	0x3711b0b1	8.683813e-06
58	0x37964fb0	1.79185e-05
59	0x36e03527	6.681908e-06
60	0x36ae8325	5.2008713e-06
61	0xb784a9ef	-1.5814758e-05
62	0xb5787017	-9.255031e-07
63	0x35aaf913	1.2738477e-06

module.encoder.c2.main.1.weight f4 [64]
0	0x3f800407	1.0001229
1	0x3f87080e	1.0549333
2	0x3f77b783	0.9676439
3	0x3f82a22a	1.0205739
4	0x3f813136	1.0093143
5	0x3f7b9887	0.98279613
6	0x3f71cd7c	0.9445417
7	0x3f74973f	0.95543283
8	0x3f84eb7e	1.0384367
9	0x3f7b23b7	0.9810137
10	0x3f8317ad	1.02416
11	0x3f836b07	1.0267037
12	0x3f775129	0.96608216
13	0x3f7f36fd	0.9969328
14	0x3f6dfe04	0.9296572
15	0x3f832761	1.0246392
16	0x3f7782f0	0.9668417
17	0x3f765e62	0.96237767
18	0x3f85494b	1.0412992
19	0x3f83f0cd	1.0307862
20	0x3f7e3bce	0.99310005
21	0x3f79ae56	0.9753164
22	0x3f870ea1	1.0551339
23	0x3f800456	1.0001323
24	0x3f84b337	1.0367192
25	0x3f768280	0.9629288
26	0x3f788015	0.9707044
27	0x3f84dc73	1.0379776
28	0x3f765d77	0.96236366
29	0x3f8047c2	1.0021899
30	0x3f847140	1.0347061
31	0x3f7f1dc3	0.9965479
32	0x3f7a7b52	0.9784442
33	0x3f874930	1.056921
34	0x3f7f1199	0.99636227
35	0x3f804556	1.002116
36	0x3f814077	1.0097798
37	0x3f731e5a	0.9496819
38	0x3f7b1946	0.9808544
39	0x3f7292f8	0.94755507
40	0x3f85e91c	1.0461764
41	0x3f80ea6c	1.007154
42	0x3f724a46	0.9464458
43	0x3f809348	1.0044947
44	0x3f7cc1b9	0.987331
45	0x3f71fbb6	0.94524705
46	0x3f7d52b3	0.98954314
47	0x3f71918f	0.9436273
48	0x3f85e747	1.0461205
49	0x3f894563	1.07243
50	0x3f805421	1.0025674
51	0x3f78b106	0.97145116
52	0x3f75527e	0.95829
53	0x3f7c1cbd	0.9848135
54	0x3f7a4a61	0.97769743
55	0x3f87332e	1.0562494
56	0x3f74f1e3	0.9568159
57	0x3f762fed	0.9616688
58	0x3f8184f7	1.0118703
59	0x3f7edf2f	0.995593
60	0x3f7a4907	0.9776768
61	0x3f7e9a2b	0.9945399
62	0x3f833377	1.0250081
63	0x3f792a77	0.9733042

module.encoder.c2.main.1.bias f4 [64]
0	0xbd5b8aa6	-0.053599022
1	0xbd98327f	-0.07431506
2	0xbe32e026	-0.17468318
3	0xbdcd349d	-0.10019801
4	0xbd80b0d7	-0.062837295
5	0xbdb023b8	-0.08600563
6	0xbdee0344	-0.116217166
7	0xbdffeebb	-0.12496706
8	0xbd93e027	-0.07220488
9	0xbdbce579	-0.09223456
10	0xbdec3942	-0.115343586
11	0xbddfff9f	-0.10937428
12	0xbdf39c14	-0.11895004
13	0xbdb117a2	-0.08647086
14	0xbe597adb	-0.21238272
15	0xbda82581	-0.08210278
16	0xbda588c2	-0.08082725
17	0xbe0b1a0e	-0.13584158
18	0xbd86e767	-0.06587105
19	0xbe1ce57e	-0.1532192
20	0xbe2fc845	-0.1716624
21	0xbd7f6fa6	-0.062362336
22	0xbd87fec4	-0.066403896
23	0xbdc46267	-0.09589081
24	0xbdc3db9e	-0.09563373
25	0xbe0ee581	-0.13954736
26	0xbe11e99e	-0.14249274
27	0xbd694988	-0.05695489
28	0xbd3ffb3b	-0.04687045
29	0xbdfb83dc	-0.122810096
30	0xbdcb1682	-0.099164024
31	0xbe50871e	-0.20364043
32	0xbe2f8a24	-0.1714254
33	0xbd619e73	-0.05508275
34	0xbdecd46f	-0.11563956
35	0xbe7a2cf8	-0.24431217
36	0xbdace347	-0.08441787
37	0xbdc6c92d	-0.0970634
38	0xbda9713b	-0.0827355
39	0xbe2563e1	-0.16151382
40	0xbda70763	-0.08155706
41	0xbdd2ec9f	-0.10299038
42	0xbdae0f96	-0.084990665
43	0xbdf4b1d5	-0.11947981
44	0xbe5e6967	-0.21719895
45	0xbe04960e	-0.12947866
46	0xbdf8cda7	-0.121486
47	0xbe029a5d	-0.12754197
48	0xbd46b401	-0.04851151
49	0xbd3fe8a7	-0.046852734
50	0xbdb0edea	-0.086391285
51	0xbe1bb85f	-0.1520705
52	0xbda1520d	-0.07876978
53	0xbe519f6c	-0.20470971
54	0xbda5995e	-0.08085893
55	0xbdab2e4a	-0.08358438
56	0xbd9f473d	-0.077772595
57	0xbe268cd8	-0.16264665
58	0xbdb763c2	-0.08954574
59	0xbdefe480	-0.11713505
60	0xbd3ee601	-0.046606068
61	0xbd8f28c7	-0.069901995
62	0xbdab8a8c	-0.08376035
63	0xbd7c67d2	-0.06162245

module.encoder.c2.main.3.weight f4 [64, 64, 3, 3]
0	0x3c79d744	0.015249077
1	0x3affef0f	0.0019526201
2	0xbc932433	-0.017961597
3	0x3d3a1088	0.04542592
4	0xbcaca743	-0.02107585
5	0x388320ba	6.2526626e-05
6	0x3c2c54b9	0.010518246
7	0xbc46a910	-0.012125269
8	0xbbbf4849	-0.0058374745
9	0x3b2ce61c	0.0026382273
10	0x3cd7b86a	0.026333053
11	0x3ccd4a1c	0.025059752
12	0xbc446a6a	-0.011988262
13	0xba961fbc	-0.0011453549
14	0x3ae1065b	0.0017168032
15	0xbd7b5710	-0.061362326
16	0xbcf77e3b	-0.030211559
17	0x3c23277d	0.009958145
18	0xbc4d6395	-0.012535949
19	0xbc127a0f	-0.008940234
20	0xbd18a05d	-0.03726231
21	0x3cb645fb	0.022250166
22	0xbc18364f	-0.009290292
23	0xbbfb2e09	-0.0076654
24	0x3d1416f2	0.036154695
25	0x3bb5fb23	0.0055536195
26	0x39eb2719	0.00044851823
27	0xbbad3ba2	-0.00528665
28	0x3cc0e807	0.02354814
29	0xbc688c12	-0.014193552
30	0xbcb4f586	-0.022089731
31	0xbd1caa26	-0.038248204
32	0xbd7e0dc9	-0.062024865
33	0x3d09f594	0.033681467
34	0x3d1643f5	0.036685903
35	0x3cc46a7c	0.023976557
36	0x3d7e2123	0.06204332
37	0x3d5dbeff	0.054137226
38	0x3c4ab371	0.012371884
39	0xbcab538c	-0.020913862
40	0x3c4fccd5	0.012683113
41	0xbd5612d2	-0.052264042
42	0xbc09ab43	-0.008402648
43	0x3d029814	0.031883314
44	0xbc86c453	-0.016451037
45	0xbd6cf25b	-0.057848316
46	0x3c5fc66b	0.013658146
47	0xbd888052	-0.066651
48	0x3c5bcec5	0.013415997
49	0xbbc22b74	-0.00592559
50	0x389cc1f4	7.474786e-05
51	0x3c504e09	0.0127139175
52	0xbca0b71f	-0.019618569
53	0xbcc772be	-0.024346706
54	0x3cb56ebf	0.022147534
55	0x3b09a60a	0.0021003508
56	0x3d1d5918	0.038415045
57	0xbcfce0e4	-0.030868955
58	0xbc81db4a	-0.015851635
59	0x3cf1f788	0.029536977
60	0x3c0ee9af	0.008722707
61	0x3c746ab0	0.014918014
62	0x3c9263fe	0.017869946
63	0xbc9afe52	-0.018920098
64	0xbd181900	-0.037133217
65	0xbcea9a36	-0.028637987
66	0x3cbc9f78	0.02302526
67	0x3c8f2c85	0.017477283
68	0x3b98abc5	0.0046591484
69	0x3d0e4213	0.034730982
70	0xbca19b13	-0.019727265
71	0xbcaecb80	-0.02133727
72	0x3d59f87a	0.05321548
73	0x3d2fc963	0.042916667
74	0x3c801d38	0.015638933
75	0xbcc78b43	-0.024358397
76	0xbce6daef	-0.028180568
77	0xbd770bd2	-0.060314007
78	0x3dd937a4	0.10606316
79	0x3d8cba32	0.068714514
80	0x3d0740a9	0.03302065
81	0x3d684d2a	0.056714214
82	0x3d7143f7	0.058902707
83	0x3d0d6c13	0.034526896
84	0xbd8379cf	-0.064197175
85	0xbcb9b8c4	-0.02267111
86	0xbc196059	-0.00936135
87	0xbcbf2bef	-0.023336379
88	0xbd16d1a1	-0.03682101
89	0x3c747ccd	0.014922333
90	0x3c9c1073	0.019050812
91	0x3bef1f0f	0.0072974036
92	0xbd4dce3b	-0.050245505
93	0x3b3e2333	0.002901268
94	0xbdc6f317	-0.097143345
95	0xbd08057b	-0.03320835
96	0xbd9dfef1	-0.07714642
97	0xbcd94ef0	-0.026526898
98	0xbc7b81c6	-0.015350765
99	0x3d0ca25c	0.034334525
100	0x3d011757	0.0315164
101	0x3c0a6a41	0.0084481845
102	0x3bee0419	0.007263672
103	0x3ca117b1	0.019664617
104	0x3c4d000d	0.012512219
105	0x3b1fc48c	0.0024378626
106	0x3c8eeb76	0.01744626
107	0x3d5f17d4	0.054466084
108	0x3c0c4d82	0.008563401
109	0x3d31826c	0.04333727
110	0x3c2f120b	0.010685454
111	0xbbbcda48	-0.005763326
112	0xbcb30718	-0.021853969
113	0xbccdb04f	-0.025108485
114	0x3c51f2b0	0.012814209
115	0xbd35d992	-0.044396944
116	0xbd872a2c	-0.065998405
117	0xbcffab18	-0.031209514
118	0xbbab6fb1	-0.0052318205
119	0xbc84fc1b	-0.016233495
120	0x3bc5599a	0.006022644
121	0xbcb657aa	-0.022258598
122	0xbd73ba62	-0.05950392
123	0xbd1e8de4	-0.038709536
124	0xbca3196e	-0.019909587
125	0xbb6e7ca1	-0.0036390203
126	0xbd51c877	-0.05121657
127	0xbd6e0476	-0.058109723
128	0xbd088c42	-0.033336885
129	0xbd92df81	-0.07171536
130	0xbd061925	-0.032738823
131	0xbd905595	-0.070475735
132	0x3cd80639	0.026370155
133	0x3ca00000	0.01953125
134	0x3bec2abe	0.0072072437
135	0xbd5329b9	-0.05155346
136	0xbd2dd3df	-0.042438384
137	0xbd86889c	-0.06569025
138	0x3c0b0a03	0.008486274
139	0xbd1fbb71	-0.038997117
140	0x3aa77344	0.0012775441
141	0xbbc3e1c8	-0.005977843
142	0xbd04b303	-0.03239728
143	0x3bd6248b	0.006535118
144	0x3c4c79b5	0.012480189
145	0xbcdd97a6	-0.02704985
146	0x3cbe1950	0.02320543
147	0x3b812f73	0.003942424
148	0x3d03e208	0.032197982
149	0x3daa8df1	0.083278544
150	0xbb6a0aa7	-0.0035711916
151	0xbc616eb3	-0.013759303
152	0xbbf60bbc	-0.007508723
153	0x3d6ef654	0.058340386
154	0x3ca9c061	0.020721616
155	0x3d8d029e	0.06885265
156	0x3c090b70	0.008364543
157	0x3c3ef4df	0.0116550615
158	0x3c895719	0.016765164
159	0xbd86e7ae	-0.06587158
160	0xbcf705fd	-0.030154223
161	0xbc496d76	-0.012294164
162	0xbcf8ddc6	-0.030379187
163	0x3d21ea9e	0.03953039
164	0x3c2c14b2	0.010502981
165	0xbc04212b	-0.0080645485
166	0x3be826bd	0.007084696
167	0xbc95dcec	-0.01829382
168	0xbd22bf64	-0.039733306
169	0xbc3d4e6c	-0.011554342
170	0x3c852ef9	0.01625775
171	0x3ce8798a	0.028378267
172	0x3c748ad8	0.014925681
173	0x3cd251d9	0.025673794
174	0xbcaec97a	-0.021336306
175	0x3d26c264	0.04071273
176	0xbd506c5d	-0.050884593
177	0xbcac08de	-0.021000322
178	0xbb92a80d	-0.0044755996
179	0xbb96efbb	-0.004606215
180	0x3c5bfe4d	0.013427329
181	0x3cde789b	0.027157119
182	0x3c6440dc	0.013931479
183	0xbcb7cbe8	-0.022436097
184	0xbc891943	-0.016735679
185	0xbd4ac5e9	-0.049505148
186	0xbb21c44f	-0.002468366
187	0xbce1d2a4	-0.027566262
188	0x3b8a5a49	0.0042221886
189	0xbd271503	-0.040791523
190	0x3c645612	0.013936536
191	0x3aab4956	0.001306812
192	0x3cd2e102	0.025742058
193	0xbc682576	-0.014169088
194	0x3ba962a4	0.0051692296
195	0xbcdb9115	-0.026802579
196	0xbbd91adb	-0.006625516
197	0x3d290bfe	0.041271202
198	0xbd03f658	-0.032217354
199	0x3d2d3508	0.042286903
200	0x3d03c4ef	0.032170232
201	0x3c4bea84	0.01244605
202	0xbbad9ae8	-0.0052980073
203	0xbc5c161a	-0.013433004
204	0x3c4dca2f	0.012560411
205	0x3db9f628	0.09080154
206	0xbc591bf9	-0.013251298
207	0xbbe03ab7	-0.006842937
208	0x3c6a758b	0.014310251
209	0x3cd98f47	0.026557578
210	0xbc58262f	-0.013192697
211	0xbc2e0919	-0.010622286
212	0xbbe2b497	-0.0069185006
213	0xbd08f67c	-0.03343819
214	0xbc9a457f	-0.018831966
215	0x3c82cb69	0.015966134
216	0xbcdbaec8	-0.02681674
217	0xbd41e1d8	-0.047334522
218	0xbd15e4d4	-0.03659518
219	0xbaafa927	-0.0013401852
220	0xbc5a480e	-0.013322843
221	0xbb86aa43	-0.0041096522
222	0xbd0bfd25	-0.034176964
223	0x3c9dbcdc	0.019255094
224	0xbc7eaecb	-0.015544604
225	0x3b1b5bae	0.0023705768
226	0x3c5bd07c	0.013416406
227	0xb9a81618	-0.00032059918
228	0xbcdcc669	-0.026950078
229	0xbd381e84	-0.044950977
230	0x3ce53089	0.027977245
231	0xbd1e56a0	-0.03865683
232	0xbcf66007	-0.030075086
233	0xbd157bea	-0.036495127
234	0x3c0c124d	0.008549285
235	0x3aa1b169	0.0012336198
236	0xbc824330	-0.015901178
237	0x3cf25614	0.02958206
238	0x3d0dc38b	0.034610312
239	0x3c6ed24e	0.014576508
240	0x3c0ec594	0.0087140985
241	0xbc7c2e76	-0.0153919365
242	0x3c845ada	0.016156603
243	0x3d06872f	0.032843765
244	0x3bcce317	0.006252657
245	0x3d519680	0.05116892
246	0x3c799215	0.015232583
247	0xbcc9b7b1	-0.024623724
248	0xbc47eed7	-0.01220294
249	0x3d7a0c85	0.061047096
250	0x3d5adfd7	0.053436127
251	0xbc2edcd9	-0.010672771
252	0x3cd2f92b	0.025753578
253	0xbc631599	-0.01386013
254	0xbca90a9d	-0.020634944
255	0xbd4d09af	-0.050058063

module.encoder.c2.main.3.bias f4 [64]
0	0xb6532def	-3.1468187e-06
1	0xb5eaa69a	-1.7482846e-06
2	0x35520b7d	7.8247814e-07
3	0x361e5111	2.3591022e-06
4	0x37634068	1.354525e-05
5	0xb5d29177	-1.5688555e-06
6	0xb43ae146	-1.7404554e-07
7	0x36166465	2.241018e-06
8	0xb67da8f9	-3.7798293e-06
9	0x368dc616	4.2251877e-06
10	0x35fd598e	1.8876033e-06
11	0x355f6c66	8.3231714e-07
12	0xb62650a8	-2.4782876e-06
13	0xb5a1b4e5	-1.2048082e-06
14	0x35581dbd	8.0509545e-07
15	0xb69756c5	-4.510252e-06
16	0x3614b891	2.216115e-06
17	0x35e7725f	1.7244128e-06
18	0xb4ad0c72	-3.2232816e-07
19	0xb680ffdd	-3.8444837e-06
20	0xb6898986	-4.098928e-06
21	0xb46c2103	-2.1991222e-07
22	0x362093c5	2.392787e-06
23	0xb5adbb2a	-1.2943976e-06
24	0xb5f20275	-1.803112e-06
25	0x340d1443	1.313902e-07
26	0xb6a55d2c	-4.92823e-06
27	0xb58115b2	-9.617563e-07
28	0x342b2101	1.5937623e-07
29	0xb4b55a66	-3.377965e-07
30	0x36d4897e	6.3340985e-06
31	0xb4a43e5f	-3.059276e-07
32	0xb6edde64	-7.08904e-06
33	0x35fe3ee5	1.894278e-06
34	0x3438cb3a	1.7210269e-07
35	0xb65a9fe0	-3.257759e-06
36	0x362793c4	2.497095e-06
37	0xb4f959d7	-4.644523e-07
38	0xb6a44062	-4.895076e-06
39	0x364bf74c	3.0393303e-06
40	0x349c3fd1	2.9103697e-07
41	0x364a9c8a	3.0191463e-06
42	0x362643ad	2.477532e-06
43	0x355aef2c	8.155937e-07
44	0xb5c1a3b7	-1.4427268e-06
45	0x36c9215f	5.9941517e-06
46	0xb6737b05	-3.6281428e-06
47	0xb4fccfe4	-4.7089918e-07
48	0x35bfda68	1.4294174e-06
49	0xb6023cdb	-1.9406932e-06
50	0xb413916b	-1.3743345e-07
51	0xb6be37bd	-5.66893e-06
52	0xb5bdc0c1	-1.4137696e-06
53	0x36572daf	3.2064088e-06
54	0xb627c2b2	-2.4998267e-06
55	0xb6e51097	-6.826663e-06
56	0x35c78ea9	1.4868175e-06
57	0xb5ee1be9	-1.7740505e-06
58	0x3586d95a	1.0047036e-06
59	0xb5890432	-1.0208516e-06
60	0x364bd117	3.0371064e-06
61	0x3514376b	5.521494e-07
62	0xb64fca61	-3.0963204e-06
63	0xb5039ebc	-4.903229e-07

module.encoder.c2.main.4.weight f4 [64]
0	0x3f841fa7	1.032216
1	0x3f783342	0.96953213
2	0x3f8a0395	1.0782343
3	0x3f834ba8	1.0257463
4	0x3f7fdae0	0.9994335
5	0x3f81ce76	1.0141132
6	0x3f79cb74	0.9757607
7	0x3f80b510	1.0055256
8	0x3f7eca3b	0.9952733
9	0x3f7d82ee	0.9902791
10	0x3f7f0c58	0.9962821
11	0x3f827cfb	1.0194391
12	0x3f822c60	1.0169792
13	0x3f7e7dc8	0.99410677
14	0x3f7dd170	0.991477
15	0x3f7e3d4b	0.99312276
16	0x3f7da350	0.9907732
17	0x3f783095	0.9694913
18	0x3f7a6ec1	0.9782525
19	0x3f773fab	0.96581525
20	0x3f81b0fa	1.0132134
21	0x3f7f6e80	0.99777985
22	0x3f7fa4ca	0.99860823
23	0x3f82eede	1.0229146
24	0x3f7e8987	0.994286
25	0x3f7a22cb	0.9770934
26	0x3f7dc707	0.99131817
27	0x3f82328f	1.0171679
28	0x3f824204	1.0176396
29	0x3f7f769b	0.9979035
30	0x3f7cf2cc	0.9880798
31	0x3f7939cf	0.97353834
32	0x3f80c61c	1.0060458
33	0x3f7cc6a3	0.98740596
34	0x3f83c26a	1.0293705
35	0x3f85cbc7	1.0452813
36	0x3f8338cf	1.0251712
37	0x3f81518c	1.0103011
38	0x3f7a0bba	0.97674143
39	0x3f81c72d	1.0138909
40	0x3f7a8afe	0.97868335
41	0x3f81ba3c	1.0134959
42	0x3f7a101d	0.97680837
43	0x3f7fc1b9	0.9990497
44	0x3f79228a	0.9731833
45	0x3f800988	1.0002909
46	0x3f83c1ad	1.029348
47	0x3f7eda87	0.99552196
48	0x3f8104ca	1.0079587
49	0x3f7969d0	0.9742708
50	0x3f794eee	0.9738606
51	0x3f7e6934	0.9937928
52	0x3f81791c	1.0115085
53	0x3f807a5a	1.0037339
54	0x3f7bcae0	0.9835644
55	0x3f7d7307	0.9900364
56	0x3f80c0b0	1.0058804
57	0x3f809164	1.004437
58	0x3f714eea	0.9426104
59	0x3f85005e	1.0390737
60	0x3f7918d2	0.973035
61	0x3f8383c9	1.0274593
62	0x3f839c35	1.0282046
63	0x3f85f69a	1.0465882

module.encoder.c2.main.4.bias f4 [64]
0	0xbd5010a6	-0.050797127
1	0xbdf028c0	-0.117265224
2	0xbd63dfee	-0.055633478
3	0xbd93e8ff	-0.07222175
4	0xbd80104d	-0.06253109
5	0xbde6319e	-0.112399325
6	0xbde9d1cd	-0.114169694
7	0xbdae6d19	-0.085169025
8	0xbe0fc73c	-0.14040846
9	0xbdb08969	-0.08619959
10	0xbdc70c20	-0.097191095
11	0xbd89d926	-0.06730871
12	0xbe035c77	-0.12828241
13	0xbd78823b	-0.060671072
14	0xbd57dfb1	-0.052703563
15	0xbd827621	-0.063701876
16	0xbd65d6e9	-0.056113157
17	0xbe2c6951	-0.1683705
18	0xbdd70efd	-0.10500906
19	0xbdfee0b3	-0.12445202
20	0xbe3516e1	-0.17684509
21	0xbe30c87e	-0.17263982
22	0xbe1e9a3c	-0.15488523
23	0xbd51c655	-0.051214535
24	0xbde766ef	-0.1129893
25	0xbdcc71eb	-0.09982666
26	0xbdad24b3	-0.084542654
27	0xbe0ce8f6	-0.13760743
28	0xbd2ccc83	-0.042187225
29	0xbd98fc2e	-0.074699745
30	0xbd30bdb9	-0.043149684
31	0xbdbe3c35	-0.09288827
32	0xbe0ede3f	-0.13951968
33	0xbd9d8c75	-0.07692806
34	0xbdc44161	-0.095827825
35	0xbd6d5b24	-0.057948247
36	0xbd98a4ef	-0.074533336
37	0xbdb70155	-0.08935801
38	0xbd97b90b	-0.07408341
39	0xbdbbfb41	-0.09178782
40	0xbe333dcc	-0.17504042
41	0xbd451663	-0.048117053
42	0xbdd94281	-0.10608388
43	0xbd8f5bc6	-0.06999926
44	0xbe2cb476	-0.16865715
45	0xbdb0fd9e	-0.08642124
46	0xbd81b295	-0.0633289
47	0xbdb5adfd	-0.08871076
48	0xbdd260a9	-0.10272343
49	0xbdce7f8a	-0.1008292
50	0xbde8798d	-0.11351309
51	0xbd8c194d	-0.06840763
52	0xbdeab182	-0.11459638
53	0xbd0a12d7	-0.033709373
54	0xbe022ff7	-0.1271361
55	0xbe27f6be	-0.16402718
56	0xbd6dc327	-0.05804744
57	0xbe174b2f	-0.14774774
58	0xbe07a4e4	-0.13246495
59	0xbdb4ea37	-0.088337354
60	0xbe02f998	-0.12790525
61	0xbdf4e7e3	-0.119582914
62	0xbdf13494	-0.117776066
63	0xbd763b01	-0.060114864

module.encoder.c3.0.weight f4 [32, 64, 3, 3]
0	0x3c6dece2	0.014521809
1	0x3c11b96e	0.008894308
2	0x3cb5a690	0.02217415
3	0x3c3f9b30	0.011694714
4	0xbcf8706a	-0.03032704
5	0xbc4f93c3	-0.0126695065
6	0x3d061f20	0.032744527
7	0x3d54dda5	0.05196919
8	0x3c718432	0.0147409905
9	0x3c518b31	0.0127895335
10	0x3ce535e1	0.027979793
11	0xbc1c247f	-0.009530186
12	0x3c2a463d	0.010392723
13	0xbb594607	-0.0033153312
14	0xbc8dc329	-0.017304974
15	0xbd2d433d	-0.04230045
16	0xbc342659	-0.010995471
17	0xbc97df46	-0.018539082
18	0xbd05bb52	-0.032649346
19	0xbcf3c3ac	-0.02975639
20	0xbc63b2d0	-0.013897613
21	0x3d827d78	0.063715875
22	0x3cb7c5c0	0.022433162
23	0x3d62f4ea	0.05540935
24	0x3ce20564	0.027590461
25	0x3d23c54b	0.039983075
26	0xbdb8d37e	-0.09024714
27	0xbd656a8e	-0.05600982
28	0xbd942315	-0.07233254
29	0xbcee79ab	-0.02911075
30	0x3d6104e7	0.054936316
31	0xbc1fee66	-0.009761428
32	0x3c8ba855	0.01704804
33	0x3cdbbd94	0.026823796
34	0x37055ae3	7.948579e-06
35	0x3cc92b15	0.024556676
36	0xbc8e213d	-0.017349834
37	0xbbbb07c0	-0.005707711
38	0xbd51bcb0	-0.051205337
39	0xbc1e387e	-0.0096570235
40	0x3d50562d	0.050863434
41	0x3ceda80b	0.029010793
42	0xbcc5c938	-0.0241438
43	0x3bee5594	0.0072733853
44	0xbbb7fcc6	-0.0056148497
45	0x3bc016f9	0.0058621136
46	0x3d233133	0.039841842
47	0xbc85d41d	-0.016336495
48	0x3cd6b151	0.026207598
49	0xbce9b436	-0.028528314
50	0x3be8101b	0.007081998
51	0xbcba5bc3	-0.022748834
52	0x3c73f282	0.014889361
53	0xbcebcdd2	-0.028784666
54	0xbcd612d4	-0.026132025
55	0xbc2dc774	-0.010606635
56	0xbd343302	-0.043993957
57	0xbd2217d2	-0.039573498
58	0xbcaa0312	-0.020753417
59	0xbd43ccf3	-0.047802877
60	0x3d02380e	0.03179174
61	0x3d04a5b5	0.032384593
62	0x3d1b9d2f	0.0379917
63	0x3b3b2e7d	0.0028561645
64	0x3d80d1b5	0.062899984
65	0x3d20db6f	0.03927177
66	0xbd21b183	-0.03947593
67	0x3d11ef46	0.03562858
68	0xbcacd1f6	-0.02109621
69	0x3c757fe7	0.014984108
70	0xbc155219	-0.009113812
71	0x3cfc2dd9	0.03078358
72	0xbca58383	-0.020204311
73	0xbc0669b1	-0.00820391
74	0xbc362ce0	-0.0111190975
75	0xbd72ced9	-0.059279297
76	0xbd0e5ab0	-0.034754455
77	0x3c06bd53	0.008223849
78	0xbc0299bc	-0.007971223
79	0x3d068161	0.03283823
80	0x3d652a70	0.055948675
81	0xbb739a28	-0.0037170742
82	0xbb81abde	-0.0039572557
83	0xbc970b32	-0.018437956
84	0x3b1f5b01	0.0024315717
85	0x3c82b937	0.015957458
86	0x3c91fbae	0.017820206
87	0xbad9d652	-0.0016619659
88	0x3cfdb36f	0.03096935
89	0x3c6285df	0.013825863
90	0xbccfe9cb	-0.025380036
91	0x3cebc824	0.028781958
92	0xbd2875e9	-0.041128073
93	0xbc80832b	-0.015687546
94	0x3cef968f	0.029246597
95	0xbd10a1e7	-0.035310652
96	0xbc86b881	-0.0164454
97	0x3d071791	0.03298146
98	0x3c1418c8	0.009039111
99	0xbd022fed	-0.031783987
100	0x3d3f3c92	0.046688624
101	0x3d6c76c2	0.057730444
102	0x3d3df90e	0.046380095
103	0x3d91263c	0.07087371
104	0x3db13574	0.086527735
105	0x3d1b0498	0.037846178
106	0xbc72b327	-0.014813221
107	0x3c429442	0.011876168
108	0xbbdfff90	-0.0068358853
109	0xbbca41ba	-0.006172386
110	0xbc10ab4f	-0.008829906
111	0xbd6ba9d4	-0.057535008
112	0xbd2e1791	-0.042502943
113	0xbaa969d5	-0.0012925217
114	0xbc1fdd30	-0.009757325
115	0xbc8c2c46	-0.017110955
116	0x3cbd07b7	0.023074968
117	0x3ccf55b7	0.025309427
118	0xbc91395f	-0.017727552
119	0x3bad2213	0.005283603
120	0x3d363b9d	0.044490445
121	0x3d1b3c15	0.037899096
122	0x3d579d62	0.052640326
123	0xb9b05093	-0.00033629368
124	0xbc014c16	-0.007891675
125	0xbcd8ec84	-0.026479967
126	0xbd36e387	-0.04465058
127	0xbc263c86	-0.010146266
128	0xbc6d8676	-0.01449739
129	0xbc502838	-0.012704901
130	0x3c974b3a	0.018468488
131	0xbbe39395	-0.0069450834
132	0xbdaf17e5	-0.085494794
133	0xbb9ad705	-0.0047253394
134	0xbc2e63ab	-0.01064388
135	0xbc228f08	-0.009921797
136	0xbc68fd24	-0.01422051
137	0x3c04727d	0.008083937
138	0x3d4738ca	0.048638143
139	0x3ce95276	0.028481703
140	0xbbdfc89b	-0.006829334
141	0x3cc2c1eb	0.023774108
142	0x3cc78e4b	0.024359843
143	0xbd07f679	-0.03319404
144	0x3cc82d5e	0.024435695
145	0x3bdc442b	0.0067219934
146	0xbc7e782d	-0.015531582
147	0xbcadabde	-0.021200117
148	0xbcbc5f62	-0.0229947
149	0xbbc97c7c	-0.006148873
150	0x3d540234	0.051759914
151	0x3d0371db	0.032091003
152	0x3d5e1a8f	0.054224547
153	0xbbba4467	-0.0056844237
154	0x3c7fc304	0.01561046
155	0xbc16b757	-0.009198985
156	0xba28b29c	-0.0006435306
157	0x3d76de95	0.060270865
158	0xbd32a1b0	-0.04361123
159	0x3d1f036f	0.038821634
160	0x3c6d32da	0.014477456
161	0xbd8074e2	-0.062722936
162	0xbc211423	-0.009831461
163	0x3d0ae389	0.0339084
164	0x3ad63e84	0.0016345535
165	0xbc84e0f8	-0.016220555
166	0x3b2c453d	0.0026286386
167	0x3b465160	0.0030260906
168	0xbd87f8a8	-0.06639224
169	0x3c6443f2	0.013932215
170	0xbd84dde9	-0.064876385
171	0xbd0c3ad7	-0.0342358
172	0xbaf9b4bb	-0.0019051054
173	0x3c0cc01c	0.008590724
174	0x3ab0e571	0.0013496113
175	0x3bc29015	0.005937586
176	0x3cc13e2d	0.023589218
177	0xbc1064e7	-0.0088131195
178	0x3c903506	0.017603409
179	0x3c4eb8fa	0.012617344
180	0x3c2c4dc9	0.010516592
181	0x3cb8305f	0.022484003
182	0xbc1fe7cb	-0.009759854
183	0x3d80e2f9	0.062932916
184	0x3b9b06a1	0.004731015
185	0xbc898de5	-0.016791293
186	0xbd69e897	-0.05710658
187	0x3c2cd98f	0.010549917
188	0xbd4bc227	-0.049745705
189	0x3c9f2781	0.019428017
190	0xbbe428a6	-0.0069628535
191	0xbb2d95a6	-0.0026486902
192	0x3cb7cb81	0.022435905
193	0xbc6f4881	-0.014604689
194	0xbcda04d9	-0.02661364
195	0x3bc21863	0.0059233173
196	0x3c9f7f89	0.019469993
197	0x3b3362db	0.0027372155
198	0xbcfd63a7	-0.030931307
199	0xbd76b8c2	-0.060234793
200	0xbbf76d71	-0.007550888
201	0x3d13cea1	0.03608573
202	0xbcc7c2b1	-0.024384828
203	0x3cd85d21	0.026411595
204	0xba9dbeb7	-0.0012034987
205	0xbd1e8b21	-0.038706902
206	0xbd1199a6	-0.03554692
207	0xbd4287bb	-0.047492724
208	0xbd9fc3f6	-0.078010485
209	0xbdd7bf9b	-0.10534593
210	0x3c7a6258	0.015282236
211	0xbc05a656	-0.008157333
212	0xbd1cb540	-0.03825879
213	0x3c9b37ee	0.018947568
214	0xbd21d24f	-0.039507207
215	0x3d1b0e9b	0.037855726
216	0xbd6831b0	-0.05668801
217	0xbd09da12	-0.033655234
218	0x3ce72fa5	0.02822096
219	0xbd306942	-0.04306913
220	0xbc14ca70	-0.009081468
221	0xbd254c75	-0.04035612
222	0xbd536962	-0.051614173
223	0xbd0f579c	-0.03499566
224	0xbc9be667	-0.019030763
225	0x3c24acec	0.010050993
226	0xbcd8fa09	-0.026486414
227	0x3ca0d3ef	0.019632308
228	0x3d47255d	0.048619617
229	0x3c03b6db	0.008039202
230	0xbc5e5701	-0.013570548
231	0x3ba71b1e	0.005099668
232	0x3aa0c97d	0.001226708
233	0xbd437eff	-0.047728535
234	0xbd6f2c7c	-0.058392033
235	0xbd939a0f	-0.07207119
236	0x3ce95c81	0.028486492
237	0xbc8956d6	-0.01676504
238	0x3c417774	0.011808265
239	0x3d3afaa8	0.0456492
240	0xbbeaf4c5	-0.007170292
241	0x3d405151	0.04695255
242	0x3da98103	0.0827656
243	0x3db7e322	0.08978869
244	0x3b985b50	0.004649557
245	0x3d0f0bdf	0.03492343
246	0xbd28d0ba	-0.041214682
247	0x3c056472	0.008141624
248	0x38aca8eb	8.2330625e-05
249	0xbb4d5881	-0.003133327
250	0xbb50cfd2	-0.0031862152
251	0xbc81ce8e	-0.015845563
252	0xbdd30e67	-0.103054814
253	0xbc876e04	-0.016531952
254	0xbc57ea7e	-0.013178466
255	0xbdb024f1	-0.08600796
