logs/exp4/model_iters_10000.pth (torch, 495376 bytes, 47 tensors)

module.encoder.c1.main.0.weight f4 [32, 3, 3, 3]
000000 84 ac 72 bb a3 1b 1d 3d 6c 28 35 bc f9 68 10 3c
       -0.0037029097 0.038356435 -0.011057001 0.00881409
000010 ae c0 81 3d c6 95 da bc ff 25 96 3c 98 90 b2 3d
       0.06335579 -0.026682746 0.018328665 0.08718985
000020 a5 c7 02 3d 50 63 af 3b a5 79 c6 3a 67 2b ad bc
       0.031928677 0.005352415 0.0015142454 -0.02113886
000030 36 b0 77 3b ac 54 a4 3b 1d 5d 86 3c 60 f0 84 3c
       0.003779424 0.0050149765 0.016401822 0.016227901
000040 f5 66 90 bb 82 f5 38 3c ce d5 ed ba 8f a7 91 bc
       -0.0044068047 0.011289002 -0.0018145384 -0.017780093
000050 1e 7e e0 3a d7 aa 48 3d ec fc a4 3c 3f 59 d2 bc
       0.001712743 0.04899105 0.020140134 -0.025677321
000060 4b 94 03 bc d0 26 a0 3c 6c 53 f9 ba c7 41 ef bc
       -0.008030961 0.019549757 -0.0019022054 -0.02920617
000070 54 5b 4d bd 93 10 93 3c a9 82 bd bc 31 1e 3d 3c
       -0.050135925 0.01795224 -0.023133593 0.011542843
000080 fc 78 5b bc c6 21 88 bc 8e 32 bc 3d eb 09 c2 3c
       -0.013395544 -0.016617667 0.0918933 0.02368637
000090 68 e0 35 bc 41 57 94 3b fb 8a b5 3c 8e 49 61 bc
       -0.011100866 0.004527003 0.022160998 -0.013750447
0000a0 a7 59 ba bb 4f 45 15 bc 73 7d 55 3b 0f 13 a5 3c
       -0.005686957 -0.009110763 0.0032575994 0.02015069
0000b0 56 ed a2 3b c8 0e f2 bc 5f 6c 69 3c 3e 16 ff bc
       0.0049721403 -0.029548064 0.014247029 -0.031138536
0000c0 9e a2 85 3b 22 71 ff bc ba 82 f9 3a 77 25 d1 3a
       0.0040782234 -0.031181876 0.0019036152 0.00159566
0000d0 94 2e f6 3b 29 db a1 bb 1f 35 02 3c 6a b6 0f bd
       0.0075128768 -0.004939456 0.007947235 -0.035086073
0000e0 d2 48 6e 3c 9a b8 33 3c e4 91 c9 bb 48 2d 7e 3d
       0.014543729 0.010969305 -0.0061514247 0.062054902
0000f0 41 68 1f 3d 82 2e 0f 3d 55 fd 3c 3d 19 88 b4 bb
       0.038917784 0.034956463 0.046140034 -0.005509388
000100 0f af e0 3b 9d 72 c7 3c bb 4a d4 3b a5 47 90 3c
       0.006856806 0.024346644 0.006478635 0.017612288
000110 8f 9e c6 bc e5 76 9d 3c cd 30 27 bc dc 52 16 bc
       -0.024245529 0.019221732 -0.010204506 -0.009175029
000120 2b 76 21 bc 4a 96 4f bd 9f 57 11 bd d5 c8 cc 39
       -0.009854834 -0.050680436 -0.035483953 0.00039059544
000130 d6 7f 66 3c f3 cf 5b 3d 48 6c 28 bc c7 d9 e1 3c
       0.014068564 0.053665113 -0.0102797225 0.027569665
000140 66 51 04 3d f7 dc ad bc 08 99 c5 bc f2 5b 05 3c
       0.03230419 -0.021223528 -0.024120823 0.008139597
000150 6a 54 c1 3c ca 16 4b 3c ab 5c 29 bc 43 94 05 bb
       0.023599822 0.01239557 -0.010337035 -0.002038256
000160 06 24 c5 ba c3 ac 74 bc 21 08 5a 3c 4d 53 b5 3b
       -0.0015040643 -0.014933768 0.013307602 0.005533612
000170 99 89 04 3d e6 f2 59 3c bc 15 79 bc dc 5c 88 3c
       0.032357786 0.01330254 -0.015202936 0.016645841
000180 db 40 99 bb 38 e1 a7 bc 99 59 08 bd 7f 34 40 3c
       -0.004676921 -0.020493135 -0.033288572 0.011731266
000190 07 79 69 bc 1f 15 4c bd 5a 53 0d 3d a1 cc 49 bd
       -0.014250047 -0.04982483 0.03450332 -0.049267415
0001a0 11 4e 92 bd f3 8b f5 bb 0b 49 30 bd b5 b3 da bd
       -0.07143796 -0.00749349 -0.04303841 -0.10678808
0001b0 aa ca 7e 3c 20 bd 89 3c b6 12 e7 3b 0a b0 9b 3d
       0.015551249 0.016813815 0.007051791 0.07601936
0001c0 a5 59 de bb c9 75 83 ba c2 c3 e9 3c 55 c4 52 3c
       -0.006785589 -0.001002961 0.028535727 0.012864192
0001d0 fb c8 a5 bc 02 81 89 3d a8 5b b8 bb a8 e1 0c 3d
       -0.020237437 0.067140594 -0.0056261607 0.03439489
0001e0 8c 3c 89 3c 73 54 24 bb cb 89 ab 3b 8a b6 e7 bc
       0.016752504 -0.002507475 0.005234932 -0.028285284
0001f0 72 1e ed 3b 46 f8 94 bc 4c 48 41 3b 5f 5c 40 3c
       0.0072362954 -0.018184792 0.0029492555 0.011740773
000200 a5 d4 fa bc 53 f8 73 3d c9 b8 b9 3c ab 13 e8 bc
       -0.030618975 0.059562992 0.02267112 -0.02832969
000210 3a 44 86 bd a0 0e 82 3a 06 f9 9e bd ec b7 4b bc
       -0.06555982 0.0009922571 -0.07762341 -0.012433987
000220 a4 ce a0 bc 1c 2b 19 bd ed 48 7b bc f0 18 48 3c
       -0.019629784 -0.037394628 -0.015337211 0.012212977
000230 c7 e5 aa 3b 2d ed 81 bc 9a 0e 3d bb 80 bb ec 3c
       0.00521538 -0.015860165 -0.0028847815 0.028898
000240 09 7a 0e 3b 14 32 97 bc 30 50 a2 bd d6 fc 05 3d
       0.002174022 -0.018456496 -0.07925451 0.032711826
000250 64 b6 9e bc 7a bd 21 bb 08 25 1a 3d 77 c0 5b 3d
       -0.01937408 -0.0024679587 0.037632972 0.053650346
000260 77 67 ce bb d4 d6 79 bc d2 cf 00 3d 63 dd af bc
       -0.006298955 -0.015248973 0.031448193 -0.02146787
000270 60 e6 48 bc aa a9 59 3b 31 ee 11 bc 3a 6b c5 ba
       -0.012261957 0.00332127 -0.008906887 -0.0015061863
000280 76 f4 ec 3c 04 ba f7 bc d7 f5 67 bc b3 3b 89 3c
       0.028925162 -0.030240066 -0.014157734 0.0167521
000290 94 0a f1 bb 14 83 67 bc 2a db 00 bd fd 83 44 bd
       -0.0073559973 -0.014130373 -0.03145901 -0.047977436
0002a0 5a 49 de 3b 7b 62 5f bc aa 03 e2 bb 77 d1 aa bc
       0.0067836465 -0.013634319 -0.0068974094 -0.020851834
0002b0 2f 49 d5 3b ba 27 11 3c c7 b0 16 3d b3 44 28 3c
       0.0065089683 0.008859569 0.03678968 0.010270285
0002c0 f3 90 7c 3c 2c 9e 4b 3b f9 08 a9 3c c1 f6 4f bc
       0.015415418 0.003106962 0.020634161 -0.012693108
0002d0 88 2c 23 bc c3 1d 1a bc 94 41 9f bc ac 3e 09 bd
       -0.009959348 -0.00940651 -0.01944045 -0.033507034
0002e0 a2 a3 9d bd f1 d6 fa 3c ed a1 09 bd 5d f8 75 bc
       -0.07697226 0.03062007 -0.03360169 -0.015012828
0002f0 89 fe 3a bd 45 03 01 3d fd 94 7a bc a7 56 84 3b
       -0.0456529 0.03149726 -0.015294311 0.00403865
000300 4e 2c 18 3d d3 e7 a6 bd 40 89 36 bc db 18 bf 3c
       0.037151627 -0.08149686 -0.011141121 0.023327282
000310 7f 17 13 bc 5a 10 83 3c 64 62 5a bb 51 80 a8 ba
       -0.00897777 0.015999008 -0.0033322806 -0.0012855624
000320 cf 3f 01 bc f4 de 74 bb ef a2 56 bd ba 94 9d bb
       -0.007888748 -0.0037364336 -0.05240148 -0.0048089894
000330 e0 06 3e 3d 3c 59 34 3c f8 92 9b 3c ad a0 06 3d
       0.046393275 0.011007603 0.018990979 0.032868076
000340 33 12 32 3d ce 82 c3 3b 4a 9f a5 bc a9 db da 3a
       0.043474387 0.005966521 -0.020217557 0.0016697544
000350 90 e2 a2 3c 83 ab 20 bc f1 97 cf bc 0b 0e c0 bb
       0.019883424 -0.009806517 -0.025341006 -0.005861049
000360 e7 f8 55 bc d7 08 9d 3c 01 e5 11 3d 43 72 d1 3c
       -0.013059831 0.019169254 0.035618786 0.02556718
000370 90 14 15 3b 85 67 8a bb 02 24 cb bc f8 35 7e 3c
       0.0022747852 -0.0042237663 -0.024797443 0.015515797
000380 c5 ea fc bc 03 d4 62 bc ff c4 f4 bb 49 d2 cd 3c
       -0.030873666 -0.013844493 -0.007469773 0.025124686
000390 75 b4 02 3d 04 41 91 3c d9 03 c8 bc 40 cf 8f bc
       0.03191038 0.017731197 -0.024415897 -0.01755488
0003a0 08 a8 ed 3c e0 03 28 bb f4 b9 8e bd 7b eb 1c bd
       0.029010788 -0.0025637075 -0.069690615 -0.03831051
0003b0 15 24 aa bd 01 72 93 bd aa 34 aa bd eb 17 9a bd
       -0.08307663 -0.07199479 -0.08310826 -0.07524093
0003c0 28 01 b7 bc 72 4e 24 bc e0 11 51 3c 1a fe 72 bc
       -0.022339419 -0.010028468 0.012760609 -0.01483109
0003d0 76 18 06 bd a6 f5 7a bc 2d d8 0f 3c 8f 3b 86 3c
       -0.03273817 -0.015317356 0.008779568 0.016385822
0003e0 81 89 2a 3c 29 7a 03 bd a3 38 7f 39 5d fc d6 bc
       0.01040876 -0.032098923 0.00024339794 -0.026243383
0003f0 c3 1a 84 bc 76 99 a8 3b 61 99 82 3a 09 5c c3 3c
       -0.016126042 0.005145247 0.0009963923 0.023847597

module.encoder.c1.main.0.bias f4 [32]
000000 5b d7 6b ba b5 a0 c2 3b e6 15 a9 ba d0 9c 33 3a
       -0.0008996629 0.005939568 -0.0012900203 0.0006851675
000010 a2 92 02 39 50 ff 61 3a 30 1b 7d ba 74 a4 31 3b
       0.00012452391 0.00086211134 -0.00096552353 0.0027106078
000020 d8 c3 b9 3a db b1 d2 ba 22 1c 0c 39 e5 4d 8a bb
       0.0014172746 -0.0016074734 0.0001336192 -0.0042207115
000030 6e 10 a0 ba ec 65 85 b9 11 27 d4 3a 98 41 25 bb
       -0.0012211928 -0.00025443675 0.0016185959 -0.00252161
000040 9d f1 88 b8 6a 10 c7 b9 24 14 26 bb 72 e3 14 3a
       -6.529989e-05 -0.00037968467 -0.0025341595 0.0005679644
000050 1e 2d dc b9 b2 fd 75 3a 65 bc b5 ba 1a 9c 03 ba
       -0.00041995285 0.0009383812 -0.001386535 -0.00050205144
000060 de ae 05 b7 b5 5c 1a b9 d9 3b ed 39 9a a5 36 bb
       -7.968132e-06 -0.0001472112 0.00045248753 -0.0027869702
000070 4a b5 06 bb 3d 51 8c 3a 1d 61 a2 3a 89 00 c1 b6
       -0.0020554834 0.0010705363 0.0012388561 -5.7519105e-06

module.encoder.c1.main.1.weight f4 [32]
000000 1a 53 7e 3f 6c 2a 7f 3f 81 77 7f 3f 9d c5 7b 3f
       0.9934555 0.99674106 0.99791723 0.9834841
000010 81 85 81 3f ed 65 82 3f ff b3 7c 3f 91 64 86 3f
       1.0118867 1.0187355 0.9871215 1.049944
000020 3b da 7f 3f dd 7b 80 3f 3a 26 7d 3f 2b f0 77 3f
       0.9994237 1.00378 0.98886454 0.9685084
000030 c5 a6 83 3f 74 47 6b 3f ae eb 83 3f 71 2e 83 3f
       1.0285269 0.91905904 1.0306299 1.0248548
000040 41 e1 76 3f 49 b4 81 3f 47 3c 7f 3f df 29 7d 3f
       0.9643746 1.0133144 0.9970135 0.98892015
000050 99 80 7f 3f b8 d3 85 3f bc 11 82 3f 32 42 79 3f
       0.998056 1.0455236 1.0161662 0.9736663
000060 07 d2 7b 3f f7 3a 77 3f 62 88 83 3f 4a f9 81 3f
       0.9836735 0.9657435 1.0275996 1.0154202
000070 e2 c5 79 3f 10 bb 77 3f 21 e8 7a 3f b7 9c 84 3f
       0.9756757 0.9676981 0.9801045 1.0360326

module.encoder.c1.main.1.bias f4 [32]
000000 ca 2b 9c bc c5 1d 3f bd 66 ff b7 bd 95 2d 4b bd
       -0.019063849 -0.04665925 -0.0898426 -0.049604017
000010 f5 a7 f7 bc 15 4e a9 3c 3f d1 6f bc a6 16 1d 3d
       -0.030231455 0.020667115 -0.0146372905 0.038351677
000020 71 5b dd bd c3 8f ff bd e7 97 a1 bc c5 8b 09 3d
       -0.10808457 -0.12478592 -0.019725753 0.03358056
000030 b4 2a a2 3b c2 cd 82 3b 70 a3 98 3b 70 24 40 3d
       0.0049489383 0.0039918134 0.004658155 0.04690975
000040 8c 10 09 ba 86 a6 8d 3d de 96 98 3c c1 aa 75 bc
       -0.0005228601 0.069165275 0.018626627 -0.014994324
000050 72 26 e2 bc 59 23 c2 3c 8d 99 ab 3c 58 21 a0 3b
       -0.027606223 0.023698496 0.020947242 0.0048867874
000060 9d df 08 3c c1 f3 9d bc d0 0c ce bc c1 ca 94 bb
       0.008354095 -0.01928127 -0.025152594 -0.0045407717
000070 eb 5c 7d bd 1a c9 e4 bd c7 db 73 bd 0e 80 f2 3b
       -0.06185619 -0.111711696 -0.059535768 0.007400519

module.encoder.c1.main.3.weight f4 [32, 32, 3, 3]
000000 7e 70 33 3c e7 ea c6 bc df 29 7a bd fe 68 2f 3b
       0.010952113 -0.024281932 -0.061075088 0.002676546
000010 92 b7 f8 bc 56 2b 74 bc 7f 47 73 3d b5 f6 dc 3a
       -0.03036097 -0.01490291 0.059394356 0.0016858192
000020 b5 9c 84 bd 20 48 64 3c 5d 8a 41 3d 34 73 d4 3c
       -0.06475202 0.013933212 0.047251094 0.02593384
000030 3e 90 3d bc 79 c7 0e 3d 51 ba 07 3c f4 88 d2 bb
       -0.011570035 0.0348582 0.008284167 -0.0064250175
000040 55 bc 56 3b 64 19 3a bc 54 c8 86 bd 68 f2 c1 bc
       0.0032766063 -0.011358593 -0.06581178 -0.023675159
000050 49 b3 b8 3b c4 92 61 bd df 48 2b bc b6 ea 88 ba
       0.005636607 -0.055071607 -0.010454386 -0.0010445926
000060 27 eb 96 3a a1 79 f4 bc 5c e9 b7 3c 68 25 44 bb
       0.0011514173 -0.029843153 0.022450142 -0.0029929522
000070 0e 90 0c ba 15 dc 44 3c b5 df 0b bd c5 bc 39 bd
       -0.0005362042 0.012015362 -0.03414889 -0.04534604
000080 0c 11 d8 3c 09 65 5d bc 45 51 13 3c 22 d3 58 bc
       0.026375316 -0.013512858 0.008991544 -0.013233932
000090 90 e9 21 3d 64 27 14 bc fe 2e 68 bc a5 ca bf 3c
       0.039529383 -0.009042595 -0.01417136 0.023412058
0000a0 88 bb 9d bc 29 39 1a 3c 94 f6 bf 3c 51 27 2c bc
       -0.01925446 0.009413042 0.023433007 -0.010507421
0000b0 f3 a2 62 bb e0 73 9b 3b 72 cf 64 3d 1a 8e e6 3c
       -0.0034581989 0.004744038 0.055861898 0.028143931
0000c0 de b7 92 3c d0 fd 88 3c 21 bd 67 bc 90 49 b5 bc
       0.01790994 0.01672259 -0.014144213 -0.022129804
0000d0 d4 92 27 bc d0 59 c2 3c 03 39 b1 bb bd e1 cf 3b
       -0.010227878 0.023724467 -0.0054084077 0.006344049
0000e0 65 aa be 3c 18 b5 1d 3a 3f 63 38 3c b8 36 2d bc
       0.02327461 0.000601606 0.011254131 -0.010572128
0000f0 7b 60 19 3d ae e6 a8 3b 79 12 93 3c 11 02 b8 3c
       0.037445527 0.0051544523 0.017953144 0.022461923
000100 f1 70 38 3d c9 f6 46 3d 1d c4 28 bd 23 07 77 bc
       0.045029584 0.048575196 -0.041202653 -0.015077385
000110 f7 fa a0 bd f7 e3 26 bd 61 b5 65 ba 23 2b 90 3c
       -0.07860368 -0.040744748 -0.00087626843 0.017598694
000120 cd 71 18 3b 9e 34 d3 3b 49 d8 df 3b 55 20 ae 3c
       0.002326119 0.0064454814 0.006831203 0.021255651
000130 4a 94 40 bc 6f 89 9f 3b 17 f3 70 bc 11 b2 79 3c
       -0.011754105 0.0048686783 -0.014706395 0.015240208
000140 bb 7d 44 3c c7 ec 3b 3c 9b 01 f2 3c f0 8b be 3c
       0.011992867 0.011470026 0.029541781 0.023260087
000150 6e ea 14 3c c4 f0 68 bc 40 ca 5a 3c 56 7e 93 bb
       0.0090890955 -0.014217559 0.013353884 -0.0045011444
000160 f3 5b 1d bc 28 c9 0a 3c 57 a7 6b bd cf 9d a6 3b
       -0.009604442 0.008470811 -0.057532635 0.00508473
000170 48 c5 9f 3a a1 82 c3 bc 88 b2 00 bd 6c 53 23 3b
       0.0012189532 -0.023866 -0.03142026 0.002492155
000180 e4 c3 d6 bc 3b e0 2d bc d0 06 64 3b 87 58 a8 bb
       -0.026216455 -0.010612543 0.00347941 -0.0051375064
000190 d2 c6 ae 3c 4d 5b 0b 3d 6b b4 64 3c a9 b4 84 ba
       0.02133504 0.034022618 0.013959031 -0.0010124642
0001a0 84 a4 1a 3b 1b 50 bd 3b 0c 0b 76 bc 4b da 64 bc
       0.0023596594 0.0057773716 -0.015017282 -0.013968061
0001b0 e1 6c 89 bc c3 5f 4f bd 9f 56 dc 39 76 a7 61 3d
       -0.01677555 -0.050628435 0.00042026208 0.055091344
0001c0 12 bd b8 bb aa 84 a3 bc 1b f5 35 bd 50 60 41 bd
       -0.0056377733 -0.01996072 -0.044423204 -0.04721099
0001d0 dd ed 6e bd 43 50 af 3b 8a e0 12 3d 19 df 3b 3c
       -0.058332313 0.005350144 0.03585867 0.011466765
0001e0 56 45 84 3c f4 c0 1d 3c de 15 d9 ba 18 04 45 3b
       0.016146343 0.009628523 -0.0016562303 0.0030062255
0001f0 8d e4 29 3b c1 2e 27 3c d6 35 e1 ba dc 3d 91 3c
       0.002592358 0.010204018 -0.0017182182 0.017729692
000200 18 9e 21 bc dd a1 03 bd cd 95 b1 3b 2d 3d 0f bd
       -0.009864353 -0.032136787 0.005419469 -0.03497045
000210 bc 04 38 bd 28 98 e6 bc 8c f4 5c bd 6b 35 4f 3c
       -0.04492639 -0.028148726 -0.053944156 0.012647013
000220 bf 10 d8 bc 4c 80 22 3d b5 21 b1 bb 49 4f a5 bc
       -0.026375173 0.039673135 -0.0054056295 -0.020179408
000230 79 ba 6a bd 54 d7 90 bb ce 07 ca bb a7 ae 2d bd
       -0.05730674 -0.0044202004 -0.006165481 -0.04240289
000240 b8 1c b8 bc 51 e6 1e bd 19 78 92 bc 36 0f db 3c
       -0.022474632 -0.038793866 -0.017879533 0.026740652
000250 06 da a0 3c 99 34 9c 3c 62 a0 1e bb 51 d8 80 bc
       0.019635212 0.01906805 -0.0024204482 -0.015728148
000260 c4 d9 9e bc 9f f8 93 3c fc 8b aa 3c 09 62 84 3c
       -0.019390948 0.018062888 0.020818703 0.016160028
000270 15 c9 8b bb 6e f5 02 3d d1 0d ab 3c 41 03 d7 bc
       -0.004265914 0.03197234 0.020880612 -0.026246669
000280 f7 76 17 bd b8 18 85 bd 22 56 ba bc 2e 05 a8 3b
       -0.036978688 -0.06498855 -0.02274615 0.0051275706
000290 cc d9 f3 bc 16 a0 2d 3c 4b c4 e4 ba bf f2 a2 3c
       -0.02976694 0.0105972495 -0.0017453519 0.019891141
0002a0 99 35 12 3d 46 57 1a 3c 94 8c d4 3c 98 0e 5c 3c
       0.035695646 0.009420222 0.02594594 0.013431214
0002b0 d3 5c a6 bc 16 91 7f bc 8f 9f 76 bd cc b3 bb b9
       -0.020307934 -0.015598556 -0.06021076 -0.00035801379
0002c0 0f f5 55 bc b0 02 40 bd f6 8a 4f bc 20 cb 47 bc
       -0.013058915 -0.046877563 -0.012667408 -0.012194425
0002d0 f7 93 eb bc 4c 60 04 bc 46 23 77 bc ab ce 31 bc
       -0.028757079 -0.0080796 -0.015084093 -0.010852496
0002e0 a9 d4 5f 3c 89 2c 00 bc 11 b4 48 bc a4 e6 04 bd
       0.013661542 -0.007823118 -0.012249962 -0.03244652
0002f0 2a 07 88 3c 2a 7a 0b 3c a5 b5 3c 3c 9e a4 9f bc
       0.016604979 0.008513013 0.011517917 -0.019487675
000300 ba 6e eb bc 41 48 82 3c 4e 82 25 3d 8b 75 d0 3b
       -0.028739322 0.015903594 0.04040747 0.0063616685
000310 ea f9 ac bc df fb d8 3a fe 57 25 3d 3b e4 00 bd
       -0.021115262 0.0016554556 0.04036712 -0.031467658
000320 d0 a7 b6 bc 9a 03 65 3d 7b 8b a4 bc 27 8d 93 bd
       -0.022296816 0.055911638 -0.02008604 -0.07204657
000330 d0 af db bc e1 b4 3a bd 0b b1 e5 bc b6 a4 a3 bc
       -0.026817232 -0.045582656 -0.028038522 -0.019976001
000340 3d f2 dd 3b f7 53 a3 bc 77 fd f3 bc 7d 47 9d 3b
       0.006773262 -0.019937498 -0.029783947 0.004799782
000350 a4 00 d1 bb c0 2b f1 bb 35 90 c2 3a db 93 d8 bc
       -0.00637825 -0.0073599517 0.0014844002 -0.02643769
000360 83 f1 2c 3d 5b 9e ae 3c c2 49 98 3b fb a4 f8 bc
       0.04222251 0.021315744 0.0046474645 -0.030352106
000370 a2 20 ea bb e5 eb 71 bc a8 5e f4 3b a0 7e e9 bb
       -0.0071450034 -0.014765714 0.007457573 -0.0071256906
000380 2e 97 4c 3c c0 9d 12 bc 0b f4 1e 3d cb 16 52 3b
       0.012487216 -0.008948743 0.038806956 0.0032057043
000390 dc 25 8d bc 81 ef 83 bc 20 c0 0e bd 0f 2f 31 3c
       -0.017229967 -0.016105415 -0.034851193 0.010814442
0003a0 99 e0 a2 3b b8 02 b2 bb 20 4a 1c 3d 0a f2 fa bc
       0.004970622 -0.005432453 0.03815663 -0.030632991
0003b0 31 54 37 3c 8f 44 98 bc e1 0a a3 bc 8f 92 43 bd
       0.011189506 -0.018587379 -0.019902648 -0.04774719
0003c0 11 8d d6 3c 55 72 8e 3c 86 cf e5 3c ef b5 32 bc
       0.026190313 0.017388502 0.028053056 -0.010907634
0003d0 73 47 21 bd f5 7c f6 3b aa 70 14 bb a9 59 39 bd
       -0.03937478 0.0075222203 -0.002265016 -0.045251522
0003e0 d9 6f a5 3c 95 37 6c 3c b8 c0 6d bc a9 0b d2 3b
       0.020194935 0.014417549 -0.01451128 0.0064100814
0003f0 b1 1a a2 bb b3 ac fa 3c 20 19 a3 3c a9 ea a3 3c
       -0.0049470295 0.030599928 0.019909441 0.020009356

module.encoder.c1.main.3.bias f4 [32]
000000 ad c0 02 b9 4e 24 fb b8 fb fd a9 b7 3a 4a d4 37
       -0.00012469543 -0.00011975375 -2.0264639e-05 2.5306934e-05
000010 e3 cc 33 b7 89 9e 07 37 92 41 5f 38 26 e6 d7 b8
       -1.0716935e-05 8.083539e-06 5.322841e-05 -0.000102948674
000020 ed 6f 0c 38 20 3b ab 38 27 48 69 b7 7a 48 9c b8
       3.348284e-05 8.164928e-05 -1.39046815e-05 -7.4521595e-05
000030 4c f1 5c b7 a8 1a d3 b8 10 97 7b 39 9f fd bc b7
       -1.3169203e-05 -0.00010066229 0.000239935 -2.2529448e-05
000040 2f f2 05 ba d3 e4 bb 39 73 86 a4 38 07 91 aa b8
       -0.00051096355 0.00035837907 7.8451725e-05 -8.133245e-05
000050 b3 db ec 37 89 42 d5 39 3b cc 9a b9 b2 d5 21 38
       2.8235698e-05 0.00040676098 -0.00029525333 3.858441e-05
000060 88 6a 28 b7 1c d9 1e 38 bc 13 57 37 bd 65 fa b7
       -1.0038384e-05 3.7872334e-05 1.2819593e-05 -2.9849698e-05
000070 70 16 ab b7 e3 45 1a b8 7e d6 cc b7 82 3a 53 38
       -2.0395237e-05 -3.678155e-05 -2.4418576e-05 5.036081e-05

module.encoder.c1.main.4.weight f4 [32]
000000 5d 2a 76 3f ad 67 7b 3f f4 45 79 3f e6 07 77 3f
       0.9615839 0.9820507 0.97372365 0.9649643
000010 b6 1b 78 3f dc 8d 7e 3f 0a 07 7d 3f da 2f 74 3f
       0.96917284 0.9943521 0.98838866 0.95385516
000020 6d b0 7d 3f 0c 10 7e 3f 2d 8d 75 3f 3b 7d 7d 3f
       0.9909733 0.99243236 0.9591854 0.9901921
000030 87 94 78 3f 6a ae 76 3f 77 a8 7d 3f 68 94 75 3f
       0.97101635 0.96359885 0.9908518 0.95929575
000040 b4 79 7e 3f 28 b2 7b 3f d1 00 7b 3f a1 ea 79 3f
       0.99404454 0.9831872 0.9804812 0.9762364
000050 46 c5 75 3f 0a 83 7d 3f 88 34 81 3f bb 61 7b 3f
       0.9600414 0.99028075 1.0094156 0.98196
000060 83 bf 75 3f 64 71 7b 3f 61 ca 7a 3f 42 27 78 3f
       0.9599535 0.98219895 0.97965056 0.969349
000070 84 bd 79 3f 54 c5 73 3f 5c 9f 71 3f 43 fd 77 3f
       0.975548 0.95222974 0.9438379 0.9687082

module.encoder.c1.main.4.bias f4 [32]
000000 b0 57 1d 3d f6 d1 1c 3a d1 5f 28 3c 4c ac cd 3b
       0.038413703 0.00059822144 0.010276751 0.006276643
000010 09 3e 07 3d bc f5 5d 3d aa fb fa bc 63 99 8c bd
       0.033018146 0.05418943 -0.03063758 -0.06865194
000020 e4 c7 f1 3c 07 bf 23 bd b4 f2 19 bc 0d 06 40 3c
       0.02951426 -0.0399771 -0.009396244 0.011720193
000030 41 53 37 bd 29 63 8c bd b1 b8 6d 3c 45 63 8b 3c
       -0.04475713 -0.06854851 0.014509366 0.017015109
000040 fb 80 bf bc a1 80 ac 3c 80 b8 17 bd 3f 0a d6 bb
       -0.023376932 0.021057429 -0.037041187 -0.006531983
000050 a9 1d 36 bc 45 1f 97 3b 75 3b 95 bd 15 45 06 3d
       -0.01111547 0.004611882 -0.07286731 0.032780726
000060 07 dd 11 3d 7d 31 47 3c b1 3d 11 3d a9 30 ff bc
       0.03561118 0.012157795 0.035459224 -0.031151133
000070 dc f1 7f bd 35 f9 2c bd 2f 23 0a bd 18 f0 8f bd
       -0.062486514 -0.04222985 -0.03372496 -0.07028216

module.encoder.c2.main.0.weight f4 [64, 32, 3, 3]
000000 5a 34 9e bc 7d 55 13 bd 58 2b 2e 3b fe 6a 94 3c
       -0.019312073 -0.0359702 0.0026576128 0.018117424
000010 f8 c0 d4 bc c3 99 d6 bb ff a9 92 bc 43 45 72 3d
       -0.02597092 -0.0065490915 -0.017903326 0.059148084
000020 34 6d d7 3c 32 50 9d 3c 45 67 65 3b 27 63 ce ba
       0.02629719 0.01920328 0.003500418 -0.0015746102
000030 f8 b6 d8 bc d6 3e 1f bd 89 3e cd bc 95 bc 26 3b
       -0.026454434 -0.038878284 -0.025054233 0.0025441993
000040 16 fe 78 ba 1d 6c 93 bc 6f 63 ad bb 68 bb ca bb
       -0.0009498311 -0.017995888 -0.0052913944 -0.0061868913
000050 ae 1f b9 bc 41 60 52 bd 0e b2 db bc 9f f6 db bc
       -0.022598114 -0.051361326 -0.026818302 -0.026850997
000060 08 da e7 bc 62 1f a8 3c 2c 0d ca 3c f8 46 e5 bc
       -0.028302208 0.020522777 0.024664484 -0.027987942
000070 a5 58 e1 3a 26 a6 6d 3c e6 f8 8a 3b f1 fb 6f bd
       0.0017192556 0.014504945 0.004241097 -0.05858988
000080 b2 a5 b2 bc 29 5f 1e bc 0f 44 42 3d 92 28 1f 3c
       -0.021807525 -0.009666243 0.047428187 0.009714263
000090 ba a8 76 bc c4 c5 f8 bc 23 89 17 3b 81 01 22 bd
       -0.015054876 -0.03036774 0.0023122511 -0.039552215
0000a0 6e 51 bb bc a3 cd 97 3c 70 04 1b bd a4 62 a0 bc
       -0.022865977 0.018530672 -0.03784603 -0.019578286
0000b0 3f 05 8e bb 57 0b 2f 3c b1 06 3a bc 09 5e 81 bc
       -0.0043341215 0.010683856 -0.011354134 -0.01579191
0000c0 46 09 b8 bc c7 d7 5b ba 17 5c 4b 3c 62 17 e1 bc
       -0.02246536 -0.00083863403 0.012412093 -0.02747697
0000d0 86 72 c5 3c 78 4d b5 bc da a6 2d ba f9 a9 1f bc
       0.02410246 -0.022131667 -0.0006624289 -0.0097451145
0000e0 f8 a3 be bc 9e 55 85 bc c8 e8 84 bc d8 1a 92 bc
       -0.023271546 -0.016276177 -0.01622428 -0.017835066
0000f0 d2 8b a0 bc a8 f8 05 bd a3 f7 d3 bb dc 34 2f 3b
       -0.019597922 -0.03270784 -0.0064687296 0.0026734388
000100 da c3 30 bd eb 63 39 bc 93 63 43 bd 53 6a 94 bc
       -0.04315553 -0.011315326 -0.047702383 -0.018117106
000110 62 fd 6b 3c 96 0e 34 3d 00 65 85 3d ee f0 c0 3c
       0.014403673 0.043959223 0.06513405 0.023552384
000120 87 cd 21 bc 6a 82 57 bd 6f 79 de 3c e5 8c 40 3d
       -0.009875662 -0.052614607 0.027157513 0.047009367
000130 19 03 e1 bb 9a 5e 96 bb 8e 9a 5b 3d 6e a3 d8 3c
       -0.0068668243 -0.004588914 0.05361419 0.026445117
000140 ee 3d e5 3c 41 1d 8c 3d 0a 83 34 3d b5 75 43 3d
       0.027983632 0.06841517 0.04407028 0.047719676
000150 a7 31 31 bb e9 c9 30 bd 8e 7b dd 3c 9b cf 57 bc
       -0.0027037652 -0.043161307 0.027036455 -0.013172056
000160 2b c9 b2 bc 0e b5 b3 3c 3e 62 36 bd 70 99 97 bd
       -0.02182444 0.02193692 -0.044527285 -0.07402313
000170 7c ed 93 bc 65 ed 45 3d 8e 73 1e bc b1 d5 1f 3c
       -0.018057577 0.0483221 -0.009671105 0.009755538
000180 6f d7 45 3d ee 0b 2b bc be 5d 1f bc 85 41 13 3c
       0.048301157 -0.010439856 -0.00972694 0.008987789
000190 d1 01 7c 3c 4f 3c 0a bd b2 fd 7a 3c 6b e8 bd bb
       0.015381292 -0.03374892 0.015319275 -0.0057955286
0001a0 d8 f3 95 bc 2b 10 b7 bc ca 1e bb bc f5 01 81 bc
       -0.01830475 -0.022346577 -0.02284183 -0.015748003
0001b0 23 28 72 3d 83 e6 db 3c d8 d1 0a 3d d9 0e e1 3c
       0.05912031 0.026843315 0.03389153 0.0274729
0001c0 f4 0b b2 bc e3 35 03 bb a6 bf 3b 3d 54 dd 05 3d
       -0.021734215 -0.0020021133 0.045837067 0.032681778
0001d0 2a f8 2a 3d df 89 f0 bb e7 3f e5 bc ae ee ec ba
       0.041740574 -0.0073406543 -0.027984573 -0.0018076503
0001e0 76 14 87 bc 6d 6d 7a bd f8 ef 7c 3c 41 2d dd 3c
       -0.016489249 -0.061139513 0.015438072 0.026999118
0001f0 b3 7c f5 3c 59 bd 54 3d 02 94 83 bd 6d de d9 bc
       0.029966688 0.05193839 -0.064247146 -0.026595319
000200 9d 56 0a bc 27 e3 80 bc 28 47 8d bc d7 82 e7 3b
       -0.008443502 -0.015733315 -0.017245844 0.007065158
000210 b7 72 bc bb 15 62 b2 ba 59 93 b2 bc bb 37 e0 3c
       -0.0057509798 -0.0013609553 -0.021798776 0.027370324
000220 1f 59 3c bd e7 cf 1e bc 75 76 04 bc 3a 23 9e bc
       -0.04598343 -0.0096931225 -0.008084883 -0.019303907
000230 84 b8 72 bc 78 fb 59 bb 21 6e 0f 3d 46 b1 60 bd
       -0.0148145 -0.003326146 0.035017136 -0.05485656
000240 d6 e9 9c bb d2 a8 2e bd 7d 44 52 bc 2c b3 82 3c
       -0.0047886176 -0.04264147 -0.012833712 0.015954576
000250 83 2a 17 bd 86 ae 06 3d 5e 70 75 3b 5e 2e 05 bd
       -0.036905777 0.032881282 0.003745101 -0.032514922
000260 9d db 4f bc 14 4c b3 bc 7d 62 30 bc 37 b8 82 3c
       -0.012686637 -0.021886863 -0.010765669 0.015956981
000270 91 60 2f bc 0e 34 9d 3c 38 3e 04 bd 53 d6 1e bd
       -0.010704176 0.01918986 -0.0322859 -0.038778614
000280 ff 76 9b 3b 2b 7e 11 3c 6a 83 97 3c 93 a5 51 bb
       0.00474441 0.008880178 0.01849528 -0.003198956
000290 1c 54 12 3c 54 ba 60 bc 0d 7d 16 bd 56 4e 0d 3c
       0.008931186 -0.013716299 -0.03674035 0.008624634
0002a0 9d 77 85 bc 33 b9 23 bb 33 c3 53 bd a1 62 01 bc
       -0.016292388 -0.0024982214 -0.05169983 -0.00789705
0002b0 34 05 29 bc 71 63 05 bd 9a ef 1e 3c 72 11 f2 bc
       -0.010316182 -0.032565538 0.00970068 -0.029549334
0002c0 6e 7f be bc 5b d2 64 3c b7 69 6a bd bb eb d0 bb
       -0.023254123 0.013966168 -0.057229724 -0.0063757575
0002d0 42 52 0c 3c ce ff 88 bc d5 6a 52 3c 77 ac 26 bc
       0.008564534 -0.01672354 0.012842854 -0.010172955
0002e0 a2 c7 86 3c 97 d4 03 bb e9 2f 0b bd 53 46 12 3d
       0.016452614 -0.0020115727 -0.033981238 0.035711598
0002f0 a2 e3 91 bb 0a e8 6e 3d 73 70 61 bc 4a 37 4b bc
       -0.004452185 0.05832676 -0.01375972 -0.012403319
000300 be bb f9 3c 88 d8 97 bd 7d cf 1f 3a 73 bd 69 bd
       0.03048503 -0.07414347 0.0006096287 -0.05706544
000310 74 13 57 bd ff 13 db bc cf 7f c3 3c e9 25 80 bc
       -0.052508786 -0.026742933 0.023864655 -0.015643077
000320 85 08 50 bc bf eb b2 3b 71 30 3b 3c cd 4d d4 bc
       -0.012697344 0.005460232 0.011425124 -0.025916005
000330 fb 6e 2b bd 09 94 09 bd ae 28 45 bd c0 8f ce 3b
       -0.041853886 -0.033588443 -0.0481345 0.0063037574
000340 9d 85 84 bd 12 8c d2 3c 75 37 ba ba cb 1d bb bc
       -0.06470797 0.025701556 -0.0014207201 -0.022841355
000350 70 9f 55 bc fc e0 42 3d a9 c1 11 3c 59 a2 a4 3d
       -0.013038501 0.047577843 0.00889627 0.08038778
000360 f0 7c 6a bc 3b 89 3e 3c fc 8a d6 bc 02 ad 22 bb
       -0.014312014 0.011629398 -0.02618932 -0.002482236
000370 81 f6 06 3b da 2c 5a bb ef 0f 8c 3b d8 eb 51 3c
       0.0020593705 -0.0033290894 0.0042743604 0.012812577
000380 c8 6b c7 bb eb fc 13 bd 52 9e ba 3c 4a 20 6b bc
       -0.0060858466 -0.036129873 0.022780571 -0.01435096
000390 63 4a 7a bc 28 80 28 bd ca a6 69 3b f9 39 14 3d
       -0.015276524 -0.041137844 0.0035652393 0.0361881
0003a0 11 2e 6a 3d 47 17 76 3c 83 17 ed ba 8e a7 1b 3d
       0.05717284 0.015020198 -0.0018088672 0.03800159
0003b0 15 7c ab 3c 86 d7 d3 3c cc b9 1b bc 6e 39 10 3d
       0.02093319 0.025859606 -0.009504747 0.03521102
0003c0 25 45 dc bc 32 9f 99 3c c7 2c b6 3b 46 bd 86 3a
       -0.02688844 0.018752668 0.005559537 0.0010279797
0003d0 d7 58 3e 3b b2 9a ee 3c ec a0 13 bd 75 45 6e bd
       0.0029044652 0.029126499 -0.03604214 -0.058171708
0003e0 f8 1e 88 bd 74 90 05 3c 31 f3 e9 3c 0e 95 7b 3c
       -0.06646532 0.008152116 0.028558346 0.015355362
0003f0 25 d5 98 bc 30 26 ad 3c 0c 90 12 bc e3 2a d0 3c
       -0.018656323 0.021136373 -0.008945476 0.025411075

module.encoder.c2.main.0.bias f4 [64]
000000 dc 03 c0 37 b3 f0 75 b4 8c 2a 32 37 8c 49 66 b8
       2.288998e-05 -2.2904969e-07 1.0619533e-05 -5.490477e-05
000010 9b e1 56 38 ba f3 b7 37 7d 81 66 38 1f ca 9d 38
       5.1231687e-05 2.1928794e-05 5.495687e-05 7.5239914e-05
000020 49 bd e9 36 97 47 87 37 82 10 88 37 6f f4 27 37
       6.965977e-06 1.612659e-05 1.622015e-05 1.0010887e-05
000030 65 b3 19 37 03 38 ba b6 2c 3b 07 36 55 a6 a0 37
       9.161279e-06 -5.5497526e-06 2.015101e-06 1.915094e-05
000040 6b b5 b0 b7 9c 73 c2 b7 b2 42 0f b7 91 21 3d 37
       -2.1065314e-05 -2.3180437e-05 -8.538993e-06 1.1273093e-05
000050 34 64 ac b6 f4 5e d6 b6 1f 3b 8b 37 a4 a4 55 38
       -5.1376646e-06 -6.388751e-06 1.6597622e-05 5.093649e-05
000060 95 9d 6d 37 1c 88 48 b7 46 ce 62 b8 9a 1e 9e 38
       1.4162991e-05 -1.1952619e-05 -5.4074706e-05 7.539727e-05
000070 58 cf 17 b8 e9 ea 2c b7 33 5f af 37 2c 81 33 37
       -3.619431e-05 -1.0306693e-05 2.0905956e-05 1.0699307e-05
000080 fc eb 08 38 d1 59 4e 38 d2 68 21 38 98 b9 6e 37
       3.2644704e-05 4.9197875e-05 3.8483013e-05 1.4229117e-05
000090 6c 2c 56 38 ae 9c 73 37 57 0b 88 37 43 e0 87 38
       5.1062947e-05 1.45204085e-05 1.6217744e-05 6.4790736e-05
0000a0 89 f8 d8 37 38 47 0b 35 7d d4 8b 37 9a 25 45 37
       2.586494e-05 5.188517e-07 1.6669039e-05 1.175087e-05
0000b0 b1 75 0f 39 92 f2 14 37 ec 71 0e 36 bc 97 92 37
       0.00013681386 8.877965e-06 2.122596e-06 1.7475213e-05
0000c0 e9 b0 07 37 52 68 8e 36 ec 1b 8d 37 ee ee ff 36
       8.087817e-06 4.2440743e-06 1.6821512e-05 7.6274073e-06
0000d0 cb 64 03 38 be 1c c1 35 43 42 e0 37 ea f7 31 38
       3.1326705e-05 1.4387986e-06 2.6733736e-05 4.2430976e-05
0000e0 18 ee e2 38 f7 03 10 38 75 04 29 b5 a6 85 81 37
       0.00010820868 3.4335968e-05 -6.296389e-07 1.5440233e-05
0000f0 4a e0 8b b6 31 a6 83 b7 5d 46 25 b5 45 cd 4b b7
       -4.1686335e-06 -1.5693806e-05 -6.156968e-07 -1.2147536e-05

module.encoder.c2.main.1.weight f4 [64]
000000 dd 8f 78 3f ea b9 7d 3f 19 2b 71 3f 27 a6 7b 3f
       0.9709452 0.9911181 0.94206387 0.98300403
000010 e5 61 84 3f b5 47 80 3f 19 ab 79 3f a7 1c 81 3f
       1.0342375 1.0021883 0.975267 1.0086869
000020 89 6c 77 3f e1 47 80 3f cd da 73 3f 1c 7d 81 3f
       0.96649987 1.0021936 0.9525574 1.0116305
000030 f5 9c 7e 3f 89 d9 79 3f c5 78 71 3f c5 6c 81 3f
       0.9945825 0.9759756 0.94324905 1.0111319
000040 d4 dc 78 3f 43 4d 7d 3f dd 49 7c 3f 5d 85 7f 3f
       0.97211957 0.9894602 0.98550206 0.9981287
000050 ad 6c 78 3f 88 55 7c 3f 41 a1 7c 3f 3f 8f 82 3f
       0.97040826 0.9856801 0.98683554 1.0199965
000060 52 12 7b 3f da 2f 79 3f 0f ad 83 3f 92 4f 82 3f
       0.9807483 0.9733864 1.0287188 1.0180533
000070 c4 5f 7e 3f 3e 56 7b 3f 4d 64 7e 3f 3a 2d 7c 3f
       0.99364877 0.9817847 0.99371797 0.9850651
000080 1c fb 7f 3f e9 4b 7a 3f f2 ab 7e 3f f7 cf 81 3f
       0.9999254 0.9777208 0.9948112 1.0141591
000090 75 7f 89 3f 32 5d 80 3f 06 38 83 3f 1f fa 80 3f
       1.0742022 1.0028441 1.0251472 1.0076331
0000a0 af 68 7e 3f 75 b2 78 3f 9e 67 83 3f 81 61 7a 3f
       0.99378484 0.97147304 1.0265996 0.9780503
0000b0 72 4a 81 3f 0c 61 77 3f d0 31 7c 3f 1b 7e 7e 3f
       1.0100844 0.96632457 0.9851351 0.9941117
0000c0 81 eb 7b 3f 28 19 77 3f 93 f2 78 3f 6e 06 7b 3f
       0.98406225 0.9652276 0.9724514 0.98056686
0000d0 1a 56 80 3f 13 ec 84 3f 89 17 80 3f f3 cd 7b 3f
       1.0026276 1.0384544 1.0007182 0.9836113
0000e0 96 9b 89 3f 2b 29 7c 3f 04 87 80 3f 13 43 78 3f
       1.0750606 0.9850032 1.0041203 0.9697735
0000f0 79 77 87 3f 35 9f 7b 3f cd d6 7a 3f e0 87 87 3f
       1.0583335 0.98289806 0.9798401 1.0588341

module.encoder.c2.main.1.bias f4 [64]
000000 fe c7 c8 bd 02 10 1c bd ad 23 81 bd b6 56 ee bd
       -0.098037705 -0.038101204 -0.06305633 -0.116376325
000010 42 89 3b bd 1b 9d ae bd 68 cf 3d bd 2f d0 16 bd
       -0.045785196 -0.08526059 -0.046340376 -0.036819633
000020 b5 10 85 bd e3 7f 72 bd d4 45 e5 bd 71 4f 8d bd
       -0.06497327 -0.059203994 -0.11194959 -0.06899918
000030 7f 3c 20 bd a0 c5 e4 bd 05 42 9f bd 49 3d 0b bd
       -0.039120194 -0.111705065 -0.07776264 -0.033993993
000040 82 df 8c bd a9 ef 23 bd b6 27 44 bd fe e1 67 bd
       -0.06878568 -0.04002348 -0.047889434 -0.056612007
000050 8f 72 70 bd bc e8 ac bd 45 f0 9a bd cc 97 3e bd
       -0.058703 -0.08442828 -0.07565359 -0.046531484
000060 89 db c7 bd ae 5b 5c bd 1c a7 97 bd cf ed 92 bd
       -0.0975867 -0.05379837 -0.074049205 -0.07174265
000070 30 fd 1f bd 97 85 c6 bd 88 e3 41 bd f0 4b 7e bd
       -0.039059818 -0.09693449 -0.04733613 -0.06208414
000080 3c f2 13 bd 82 b8 3e bd 4e 70 c3 bd 2e 71 81 bd
       -0.036119685 -0.04656268 -0.09542905 -0.063204154
000090 c2 2f 07 bd fa a5 09 bd a5 58 4c bd b2 44 24 bd
       -0.03300453 -0.033605553 -0.049889226 -0.040104575
0000a0 93 89 80 bd 6a 8d 68 bd 6d 00 95 bc ff e4 46 bd
       -0.0627624 -0.056775488 -0.01818868 -0.04855823
0000b0 62 14 04 bd 67 9a 8c bd 54 06 55 bd 2e 13 87 bd
       -0.032246 -0.068653874 -0.052007988 -0.06595455
0000c0 83 d3 49 bb 8c f8 64 bd 8f c9 dc bd 4c 4c a6 bd
       -0.0030796237 -0.055901095 -0.10780632 -0.08120021
0000d0 b6 e1 a3 bc e0 30 9e bc 7d 59 95 bd 4b 86 b0 bd
       -0.020005088 -0.019310415 -0.07292459 -0.08619364
0000e0 f7 3d 20 3b 9a b6 70 bd 1a 8f ac bd 48 c8 a4 bd
       0.0024450996 -0.058767892 -0.08425732 -0.08046013
0000f0 56 bd 70 bc 8f 9b 88 bd cf ef de bc ab e3 3d bd
       -0.014693579 -0.066702954 -0.027213959 -0.0463597

module.encoder.c2.main.3.weight f4 [64, 64, 3, 3]
000000 8c 1b 95 bc a9 4d 74 bc c1 a1 42 ba 51 da ed bb
       -0.018201612 -0.014911094 -0.0007424616 -0.0072586914
000010 e4 fb 72 3c d2 39 d0 b9 92 21 e4 bc 77 e9 d1 bc
       0.014830563 -0.0003971593 -0.027848039 -0.02562402
000020 e2 bb 49 bd 79 8e 6f bc 42 75 23 bd 45 8b 04 bb
       -0.049251445 -0.0146213705 -0.039906748 -0.0020224613
000030 4e 70 73 3c 53 55 08 3d c5 0b 91 3c 79 a7 1d bd
       0.0148583185 0.033284497 0.017705807 -0.038489792
000040 fa 7a ed 3c ab 2d c9 3c 42 b4 bb bc 09 0b 34 3c
       0.028989304 0.024557909 -0.022913102 0.010988959
000050 70 fa 82 3b 18 f0 8d bc 00 db 7b bc 1e 18 43 bb
       0.0039971396 -0.0173264 -0.015372038 -0.0029769014
000060 4e 8e 90 bc 9c 43 12 3c 20 c5 11 bc 5f 99 bc 3c
       -0.017645981 0.008927252 -0.008897096 0.023022352
000070 10 8d 3f 3c 61 bf d8 3a ac b2 c8 3c d2 3d 25 3d
       0.011691347 0.0016536528 0.02449926 0.04034216
000080 bd a6 a1 bc 42 77 91 3c d8 d7 24 3d 6c 1f 53 bd
       -0.019732827 0.017757062 0.040244907 -0.051543638
000090 97 7c 01 bb 20 62 3a 3b a0 bc 4c bc 8b b8 6e 3b
       -0.00197581 0.0028439835 -0.012496144 0.0036425914
0000a0 86 29 93 bc 15 8e 0b bb b9 c3 d3 bc 18 0c 87 bd
       -0.017964136 -0.0021294404 -0.025850164 -0.065941036
0000b0 31 4a d1 bc bd 0e ab bc 8c 6b 1f bd 9d 0c a7 bc
       -0.025548073 -0.020881051 -0.038920924 -0.020391757
0000c0 2f 91 da bb ec ea 4c bc c1 29 eb 3b da 56 01 bd
       -0.0066701393 -0.012507182 0.0071766083 -0.03157697
0000d0 6c 83 99 bc 2e ec b2 bc f7 3d c5 3b 76 1b df bc
       -0.018739425 -0.021841135 0.0060193497 -0.027234774
0000e0 c2 65 23 bc 03 c4 2d bc d3 dc 2d 3d 04 45 ab 3b
       -0.009972991 -0.010605815 0.042446923 0.005226733
0000f0 55 88 7d bc d5 f4 df b9 cf 85 fe 3b 02 0f 1c 3d
       -0.015474399 -0.0004271629 0.007767416 0.03810025
000100 5e ae 37 bc dc ef 30 bb 0e de 19 bd 8e 45 14 bc
       -0.011211006 -0.0026998436 -0.037565283 -0.009049786
000110 b7 85 66 3d f9 03 23 bd 77 e6 7f bd 07 f3 74 bd
       0.056279864 -0.03979871 -0.062475648 -0.05980208
000120 c8 78 13 3a 1c 2f 10 bd 08 f8 48 3c fe 37 0d bd
       0.0005625603 -0.035201177 0.0122661665 -0.034477226
000130 a3 0b e7 bc 2e 39 0d bc 72 2f 7e bd 7b 3e d2 bc
       -0.028203791 -0.00861959 -0.062056966 -0.025664559
000140 15 b2 07 3d 3e 2d 24 3c 7c 03 4f 3d 5c 66 89 bc
       0.033128817 0.010020552 0.050540432 -0.016772442
000150 7b e7 71 bc 58 ba 5d bd 6e 60 30 bd 5a 14 07 bd
       -0.014764662 -0.05413279 -0.043060713 -0.032978393
000160 ef ca 8c bc 45 b9 9e 3c ad 96 0b 3b c2 37 98 3c
       -0.01718661 0.019375453 0.0021299527 0.018581275
000170 de 57 3c 3d 7c 42 ba ba 4b 0b c5 3c da 84 25 bd
       0.045982234 -0.0014210488 0.024053236 -0.0404099
000180 bc 57 df bc 6e 81 2a bd 6b 1a 48 bc 73 46 1c 3d
       -0.027263515 -0.04162734 -0.01221333 0.038153123
000190 3d 5b 47 3d d1 cd 8d 3d 47 96 bd bb 1d 48 ca 3b
       0.048670996 0.06924022 -0.0057857367 0.0061731474
0001a0 02 5f 9a 3b 00 ee af 3c ed bf cf 3c d9 5f cd bc
       0.004711033 0.021475792 0.025360072 -0.025070118
0001b0 c0 85 c2 bc c3 2e 08 3c 0b 72 bf bc 09 09 73 bc
       -0.023745418 0.00831193 -0.02336981 -0.014833697
0001c0 2d b6 a0 bc 07 eb 21 3b 0d 80 02 bd c8 1a c6 3c
       -0.019618118 0.0024706738 -0.0318604 0.024182692
0001d0 4a f3 7f bc 1f bc c3 3b b6 bb 22 3d 95 7b 3f bc
       -0.0156219695 0.0059733535 0.039729796 -0.011687179
0001e0 2b b1 be bc b6 43 0c bd fe 63 5e 3c 40 11 8b 3c
       -0.02327784 -0.03424426 0.013573645 0.016975999
0001f0 53 9c 59 3c 09 5d 07 bc 1e 17 8a bc b9 7c a9 bc
       0.0132818995 -0.008261927 -0.016856726 -0.020689355
000200 c5 b3 51 bc 14 0c 35 bd a1 83 0b 3c f6 32 a6 3b
       -0.012799208 -0.04420097 0.0085152695 0.005071993
000210 49 9c 0f 3d d1 b6 04 bd 7f 44 24 bc cb 8d df 3a
       0.035061155 -0.03240091 -0.010026096 0.0017055807
000220 13 1d 01 bc bc c1 b8 bb 3a de f3 3b ac 87 23 3b
       -0.007880467 -0.0056383293 0.007442263 0.0024952693
000230 77 ca da bc 34 e2 3f 3d 30 b0 66 3c 97 3d a5 bc
       -0.02670787 0.046846583 0.014080092 -0.02017097
000240 eb 33 dc 3b 0f 2c 30 3b b4 49 1b 3d e0 7a 54 bc
       0.0067200563 0.002688173 0.037912086 -0.012968749
000250 de 58 0f bd 7d 36 b5 3a a3 ea f1 bb e0 b6 78 bc
       -0.03499686 0.0013825443 -0.007382707 -0.01518032
000260 a8 7d 8c bb 9f b1 0e bd 54 b6 82 3c f2 93 85 bb
       -0.0042874403 -0.03483736 0.015956081 -0.0040764743
000270 a4 4f 4a 3c 37 b4 18 3c aa 67 3c bc 74 7b eb bc
       0.012348089 0.00932031 -0.011499325 -0.02874539
000280 79 ea 9e 3c 04 67 71 3b cd 95 4d 3c df af 2e bc
       0.019398915 0.0036835084 0.012547922 -0.010662048
000290 c6 49 32 3c 69 82 48 3c 61 3a 12 3b 1d ba 6b 3c
       0.010881847 0.012238123 0.0022312629 0.014387635
0002a0 e1 fa 10 3c 5a 99 b1 bb f3 f7 8e 3c 72 bf e4 bc
       0.008848877 -0.0054198923 0.017452216 -0.02792332
0002b0 37 7f 99 3c 10 c0 78 3b 06 c4 47 3c e1 35 9e 3c
       0.018737419 0.0037956275 0.012192732 0.0193128
0002c0 51 6f f4 3c 65 a2 03 bd b5 92 48 ba b2 76 07 bc
       0.029838236 -0.032137293 -0.00076512556 -0.008268045
0002d0 9e 2b 6a bc 89 60 c4 3c fd c7 ed 3c 18 14 bd bc
       -0.014292626 0.023971813 0.029026026 -0.02308087
0002e0 62 7f 4f bb 65 1d c7 3a 01 2f c5 bc 82 be 2b 3c
       -0.003166162 0.0015191255 -0.024070265 0.010482432
0002f0 42 e3 86 bd 8c 3c 35 3c ed ce 9f bc da bd aa bb
       -0.06586315 0.011061799 -0.01950785 -0.0052106204
000300 43 6e 05 3d 71 41 fc 3c 4b 6b bd 3c ff 6c 96 3c
       0.032575857 0.030792924 0.02312245 0.01836252
000310 24 c7 f1 3c 36 24 29 3d 97 23 00 3d 1d 75 92 3b
       0.029513903 0.0412943 0.03128394 0.0044695274
000320 32 aa f5 3c b6 04 c3 3d 7b 7c c6 3c e9 b6 d5 3c
       0.029988382 0.09522383 0.024229279 0.026088195
000330 f4 4e 07 bd ce fa 88 bc e0 f7 f2 bc 5f 98 0e bc
       -0.03303428 -0.016721155 -0.029659212 -0.00870332
000340 82 33 c5 bc 77 c7 40 bb 7c 7f cb bc c3 a7 01 bc
       -0.024072412 -0.0029415765 -0.024841063 -0.007913533
000350 c2 7f 88 bc 01 62 15 3d cb 8e 8b bc f6 81 06 bc
       -0.016662482 0.036470417 -0.017035862 -0.008209696
000360 e0 75 03 bd 46 2c 29 bc 13 dd 28 3b cb 06 28 3c
       -0.032094836 -0.010325497 0.0025766536 0.010255526
000370 de e2 1c bd 35 59 6f bd 0e 67 9f bc c0 46 95 3c
       -0.038302295 -0.058434684 -0.01945832 0.018222213
000380 a0 8b 92 bb 83 12 be 3c 25 01 8a 3c 5f 26 4f 3c
       -0.004472211 0.023202186 0.016846249 0.012643426
000390 15 47 d2 39 78 e9 61 bc 74 7e f8 3c 0e c1 c2 bc
       0.00040107282 -0.013788573 0.030333735 -0.023773696
0003a0 49 51 b2 bc 2f 1b 4a 3d f5 f9 05 bd 4a c4 48 3b
       -0.021767275 0.04934233 -0.03270908 0.0030634576
0003b0 6c d3 ef 3b 29 05 ca bc 73 37 f8 bc 06 57 01 3d
       0.0073189046 -0.024660664 -0.030299878 0.031577133
0003c0 ca 20 cb bc e6 c6 a2 3b ab 2b 9f bc cb c1 d5 bc
       -0.024795908 0.004967558 -0.019430002 -0.026093384
0003d0 73 cc c8 3c 40 70 da ba 59 b6 90 3c 3a 92 2f 3c
       0.024511551 -0.0016665533 0.017665075 0.0107160155
0003e0 b6 78 9f 3d b5 31 5c bc 45 13 0b bc f7 89 df bc
       0.07786696 -0.013439585 -0.008488481 -0.027287466
0003f0 fe 2b a4 3b b1 32 c0 bb ee ef af bc 46 82 58 3c
       0.005010127 -0.005865418 -0.021476712 0.013214653

module.encoder.c2.main.3.bias f4 [64]
000000 27 c8 7b 36 c7 fc cd 37 50 12 04 b7 d7 b7 49 b6
       3.7518419e-06 2.4555613e-05 -7.872077e-06 -3.0058343e-06
000010 fc 96 94 36 50 d7 20 b6 99 eb 03 b8 d4 5a 12 b7
       4.4283206e-06 -2.3967186e-06 -3.145225e-05 -8.723426e-06
000020 db d7 33 b7 1e 12 0b b6 d9 b1 7e 36 9b 11 18 36
       -1.0719489e-05 -2.072316e-06 3.795247e-06 2.2660013e-06
000030 2f ef 62 35 8e 1e 4d 37 f8 af dc b7 36 b8 56 37
       8.453962e-07 1.2226066e-05 -2.6307986e-05 1.2798284e-05
000040 b1 03 19 b6 e9 2a e5 34 d3 49 42 b6 d0 af 2e b5
       -2.2800925e-06 4.2685795e-07 -2.8951224e-06 -6.507589e-07
000050 1f 9e 02 37 b3 51 f6 b5 c0 da 28 36 b4 3c 87 b7
       7.785419e-06 -1.8352206e-06 2.516128e-06 -1.6121521e-05
000060 13 50 3e b6 26 2c 92 36 5a 5a 94 b6 72 bc ca 37
       -2.8358816e-06 4.3562786e-06 -4.421262e-06 2.4168028e-05
000070 49 70 d5 35 e7 3b be b4 2f b7 3d b5 52 60 d4 b7
       1.5902416e-06 -3.5433843e-07 -7.0674554e-07 -2.5317222e-05
000080 a8 2e 1b b7 26 f9 d9 b7 aa 4e 19 b7 a3 07 98 b7
       -9.249583e-06 -2.5984435e-05 -9.137826e-06 -1.8123368e-05
000090 98 51 d7 36 c2 b7 c9 37 e4 37 a1 b7 43 c6 af 36
       6.416998e-06 2.4046636e-05 -1.9218722e-05 5.238487e-06
0000a0 03 33 b3 b6 2d ee 90 36 93 4c 5c b7 bb 14 07 b7
       -5.3405543e-06 4.3192617e-06 -1.3130851e-05 -8.051454e-06
0000b0 a6 d1 8b b7 6d 73 1d 37 74 23 a2 b7 bd e6 b2 b7
       -1.6667716e-05 9.384804e-06 -1.9328414e-05 -2.13267e-05
0000c0 29 ae 59 b7 31 ef 84 36 52 43 2f b7 a0 be 88 37
       -1.2974758e-05 3.961752e-06 -1.0446487e-05 1.630123e-05
0000d0 8a d6 f3 b7 bf 2f a8 b7 c6 95 8e b6 07 fc 32 36
       -2.906776e-05 -2.0049394e-05 -4.2493657e-06 2.6670766e-06
0000e0 72 11 bd 36 56 44 d2 b7 44 a9 85 36 61 78 7b b6
       5.63467e-06 -2.5065772e-05 3.983414e-06 -3.7471984e-06
0000f0 f3 2a 78 37 8a 5e f3 b6 50 6c e0 36 74 a7 32 b7
       1.4791952e-05 -7.25297e-06 6.6883294e-06 -1.0648615e-05

module.encoder.c2.main.4.weight f4 [64]
000000 90 c2 7f 3f 75 7b 81 3f 07 db 7f 3f d1 26 7f 3f
       0.99906254 1.0115801 0.99943584 0.99668604
000010 05 40 80 3f 79 ee 7e 3f 84 7d 7f 3f 5c ac 7b 3f
       1.0019537 0.9958263 0.99800897 0.98309875
000020 0c b5 85 3f 9e b1 7d 3f 0d e3 7a 3f b2 ec 7b 3f
       1.0445876 0.9909915 0.980027 0.98408043
000030 fe 6d 80 3f 31 d7 82 3f d5 57 81 3f 62 ee 81 3f
       1.0033567 1.0221921 1.0104929 1.0150874
000040 f0 dd 80 3f be 67 7b 3f 45 2f 79 3f c4 81 7c 3f
       1.006773 0.98205173 0.9733775 0.98635507
000050 f4 c2 7f 3f 88 fe 7b 3f d9 b9 7a 3f 65 9f 80 3f
       0.9990685 0.9843526 0.9793983 1.0048643
000060 2f 10 7e 3f 8c f6 82 3f 72 0b 80 3f 50 ba 7e 3f
       0.99243444 1.023149 1.0003493 0.9950304
000070 24 f2 81 3f f6 be 7d 3f 3b ad 79 3f 99 9b 7e 3f
       1.015202 0.9911951 0.97529954 0.99456173
000080 75 b7 79 3f 25 d5 81 3f bb 79 77 3f b7 3c 80 3f
       0.9754556 1.0143172 0.9667012 1.0018529
000090 69 66 7f 3f 0a 2f 7f 3f d9 e7 82 3f c6 5d 7f 3f
       0.9976564 0.9968115 1.0227004 0.9975246
0000a0 b6 27 80 3f 69 dd 80 3f 27 96 81 3f 61 2b 79 3f
       1.0012119 1.0067569 1.0123948 0.97331816
0000b0 ce 8a 7f 3f 12 45 81 3f eb 06 81 3f 5c cd 81 3f
       0.99821174 1.0099204 1.0080236 1.0140796
0000c0 eb 49 7e 3f 07 37 80 3f 4b 6f 73 3f 8d ce 81 3f
       0.9933154 1.0016793 0.95091695 1.0141159
0000d0 2f af 7e 3f 5b af 80 3f c8 96 7a 3f 77 9c 83 3f
       0.9948606 1.0053514 0.97886324 1.0282124
0000e0 80 1b 83 3f 4e 55 7e 3f e7 51 79 3f 89 b2 81 3f
       1.0242767 0.99348915 0.973906 1.013261
0000f0 04 30 7c 3f a8 a3 82 3f 49 b4 82 3f fc 92 78 3f
       0.98510766 1.0206194 1.0211269 0.9709928

module.encoder.c2.main.4.bias f4 [64]
000000 ec f6 11 bd cc 01 3b bd b7 39 8d bd ff 3e ba bd
       -0.035635874 -0.04565601 -0.06895774 -0.09094047
000010 72 bc 37 bd 18 dd 9a bc e1 e4 2a bd 67 d2 25 bd
       -0.04485745 -0.018904254 -0.041722182 -0.04048386
000020 bc 1d 37 bd f1 58 e7 bc 3f 9b 50 bd 0f 26 7f bd
       -0.04470609 -0.028240653 -0.050929304 -0.062292155
000030 78 38 19 bd 0d de a4 bd 95 3a 8e bd a2 01 8f bd
       -0.03740737 -0.08050165 -0.069447674 -0.06982733
000040 4f ed c5 bc e9 bc 9e bc 9f 07 3c bd fb 67 39 bd
       -0.02416101 -0.019377189 -0.045905706 -0.04526518
000050 bd d4 9e bc db 9f 4b bd b9 b3 81 bd d7 73 e3 bc
       -0.01938855 -0.049712997 -0.063331075 -0.027765198
000060 c7 e9 ae bd 24 d6 23 bd dd ba 3c bd 82 34 44 bd
       -0.08540683 -0.039999142 -0.046076644 -0.047901638
000070 fc 45 b5 bc bd 43 90 bd 19 eb 10 bd 5d cb 0d bd
       -0.022128098 -0.0704417 -0.035380457 -0.03461777
000080 fe 43 bf bd d0 a7 1f bd bd 5f 98 bd 46 7c ba bd
       -0.0933914 -0.038978398 -0.07440136 -0.091057345
000090 8e db e6 bc 3c 1a 8a bd 41 8e ce bc 47 6d 5f bd
       -0.028180864 -0.06743285 -0.025214316 -0.054547574
0000a0 6b e3 d8 bd e0 d0 2d bd 51 36 c4 bb 9d d1 1a bd
       -0.105902515 -0.042435527 -0.0059879203 -0.03779756
0000b0 39 3b 67 bd 1d 80 50 bc 9a c8 fa bc 72 ec f4 bd
       -0.056452964 -0.012725857 -0.030613232 -0.11959161
0000c0 a3 0a 68 bd 74 4c 95 bd 56 3b de bd 6b c0 4e bd
       -0.05665077 -0.07289973 -0.10851161 -0.050476473
0000d0 74 82 d1 bc e9 dd f6 bc 52 18 b9 bd 87 01 ea bc
       -0.0255749 -0.030135112 -0.09037842 -0.028565181
0000e0 a7 f8 73 bd 01 7b 98 bc 80 6d b7 bd dd 7b 0c bd
       -0.059563305 -0.01861334 -0.08956432 -0.034297813
0000f0 87 c1 fe bd a3 69 de 3b 53 a2 5b bd d8 e4 54 bc
       -0.12439256 0.006787495 -0.0536216 -0.012994014
