logs/exp4/model_iters_8000.pth (torch, 495325 bytes, 47 tensors)

module.encoder.c1.main.0.weight f4 [32, 3, 3, 3]
00000000: 6dd4 e4bb bdc0 0c3d 2f10 5dbc dfe7 1c3c
00000010: 4cb4 843d 73d9 bdbc 9a98 613c 9124 ab3d
00000020: 7702 e23c 9fc2 c23b 6d2f 9c3a 02c2 abbc
00000030: 85c8 5e3a 10a8 de3a bf4d 5c3c 178d 7f3c
00000040: 2065 99bb 5ef5 2e3c 363d 74ba 2658 61bc
00000050: 3fcb c33b 0b2d 2f3d 0a12 943c 3126 eebc
00000060: 6a1e 33bc 68c3 963c fe83 0cba a431 e4bc
00000070: 202e 4abd 9600 943c 37c5 b2bc af30 383c
00000080: 10b2 5fbc 0031 8fbc 6eb5 b53d 01b1 ab3c
00000090: 3dd1 23bc 5a93 a23b fd8f b53c 9f4f 54bc
000000a0: f19d d4bb 525c 31bc e05d 7f3b 2a45 9b3c
000000b0: b3df 5a3b e31f e8bc 561b 6a3c a3d8 dabc
000000c0: b3c1 b83a bedc e6bc 75ca 643b 3896 8eb9
000000d0: 9e2f a13b 7c29 21bb 4bf8 e33b 53f8 12bd
000000e0: 53e0 503c 7932 1c3c c9be b2bb a1bf 7e3d
000000f0: 3b00 173d dfc1 103d b2cc 3f3d 3b77 68bb
00000100: ab64 dd3b e1eb c43c f6d4 093c 2e54 9e3c
00000110: 2951 adbc f101 a63c c0e9 0bbc 650f f1bb
00000120: 41ee 3a3a 1c16 2dbd 4de9 d6bc e111 62bb
00000130: def1 0a3c 1714 253d cfa6 2abc bcfd ac3c
00000140: 5585 c83c a74b b2bc 9335 babc a783 0a3c
00000150: 1cb8 b63c 6eea 483c 47db 33bc 1d40 feba
00000160: f778 eab9 93c0 6dbc 6ede 0a3c 9be1 c43a
00000170: dc48 d93c 617b 3c3c f8ca 7ebc 32a1 893c
00000180: e366 75bb 9053 85bc 49f3 f7bc 3abf 1b3c
00000190: 65dd 36bc a602 4bbd 76b9 f03c 619c 21bd
000001a0: d15b 83bd 58b7 60bc 2b5d 29bd 75b9 cdbd
000001b0: 963f 5c3c 994c 783c 2427 ca3b 56f1 963d
000001c0: daf0 e7bb 62e7 40b7 4c83 f23c 3e79 733c
000001d0: a2e0 98bc 3eb7 863d 8172 fbbb 23d1 083d
000001e0: d707 923c 0968 21bb 6fe3 bc3b 3d0e e9bc
000001f0: 27d8 db3b b04a 94bc b4e3 083c cef5 413c
00000200: b14b edbc 1d89 6c3d 7cce 8a3c 3a92 ebbc
00000210: b442 80bd 49da 743b 78e4 8fbd 45b5 50bc
00000220: 1c9f 9dbc 8bd4 15bd 3493 78bc 3f0d 4b3c
00000230: c046 d03b 7f9d 86bc cda2 81bb 1ef7 ea3c
00000240: 27ce 6938 1aac 92bc 2410 9ebd da15 fd3c
00000250: 59a2 a4bc 1b2c a0ba 0fc7 0d3d 7331 4c3d
00000260: ed4f 9ebb 4171 6cbc ce78 f83c 33d4 b9bc
00000270: 67c1 39bc 573b cc3b 4a1b 13bc a3aa 4bbb
00000280: 258c dd3c faf1 dabc 66a7 5ebc c405 8c3c
00000290: f731 e8bb ce7d 57bc 1000 febc 40c6 42bd
000002a0: bbb7 dd3b b3bc 6cbc 82ee ebbb 8951 b0bc
000002b0: d7f3 cf3b 0c4d 253c cff7 133d d137 203c
000002c0: a63b 853c a33b 3b3b 78e3 ab3c e9c1 3abc
000002d0: cd6f 1cbc 5c31 0fbc 202e 8cbc 8429 05bd
000002e0: 91fd 92bd ed21 023d bbad 03bd 45dc 6cbc
000002f0: b27d 37bd 4324 f73c a51e 78bc 0ad7 5a3b
00000300: 4bde 163d 7264 a2bd 9090 29bc e5a6 ba3c
00000310: 76c7 12bc f7ab 743c f459 06bb 8dd1 0b3a
00000320: 4594 e0bb bc03 64bb 161a 4dbd e082 8fbb
00000330: 1814 2c3d e01f 0f3c 09b4 7c3c a8f7 fb3c
00000340: 3746 273d 8943 3f3b 9020 a5bc 6cb1 83b7
00000350: c6ef 983c c3b1 1dbc 725e cfbc a0a2 a6bb
00000360: 4cc8 7cbc 9a0d 8a3c 3499 073d bbce cd3c
00000370: 0f7e 063b cb28 95bb 1d98 c7bc 6a24 833c
00000380: c77a fabc fb66 67bc 428c 0cbc 5330 c93c
00000390: 6c03 033d 30e0 873c d4fe c9bc 1832 91bc
000003a0: 2e5b e13c c8c1 51bb 3cfe 80bd b3f6 14bd
000003b0: effc a4bd fd15 7abd 600c 97bd d2a1 89bd
000003c0: 2ee1 eebc 1a9f 64bc b7e7 1a3b dfbc 6cbc
000003d0: 82fa 00bd 22c6 75bc a49c c23b 81ea 6b3c
000003e0: bcab f93b d46c fcbc 86aa b43a b59b d3bc
000003f0: 50b9 8bbc eb78 b53b e7d0 653a 763f c53c
-0.006983331 0.034363497 -0.013492628 0.009576767 0.064797014 -0.023174977 0.013769293 0.08356584
0.027589066 0.005943611 0.001191599 -0.020966534 0.00084985077 0.0016987342 0.0134462705 0.015597603
-0.0046812445 0.010678617 -0.00093169825 -0.013753926 0.0059751566 0.042767566 0.018075008 -0.029070945
-0.010932544 0.018403724 -0.00053602445 -0.027855702 -0.049360394 0.018066686 -0.021822555 0.011242076
-0.013653293 -0.01747942 0.088724956 0.020958425 -0.009998617 0.0049614133 0.022163386 -0.012958436
-0.0064885546 -0.0108252335 0.0038965866 0.018953878 0.0033397495 -0.028335517 0.014288744 -0.026714629
0.0014095813 -0.02818143 0.0034910713 -0.00027196272 0.0049190065 -0.0024591377 0.006957089 -0.03588135
0.012748796 0.009533518 -0.0054548723 0.06219447 0.036865454 0.03534114 0.046826072 -0.0035471458
0.0067563853 0.024038257 0.00841259 0.01932725 -0.021156864 0.020264598 -0.008539617 -0.0073565715
0.00071308395 -0.042257413 -0.026234293 -0.003449552 0.008480517 0.040302362 -0.010415747 0.021117084
0.02447764 -0.02176459 -0.022730624 0.00845424 0.022304587 0.012262924 -0.010977573 -0.0019397769
-0.00044722084 -0.014511245 0.008475883 0.0015020849 0.026524 0.011504025 -0.015551321 0.016800497
-0.0037445358 -0.016275197 -0.030267375 0.009506041 -0.011161183 -0.049563073 0.02938531 -0.039455775
-0.06413997 -0.013715588 -0.041348618 -0.10045139 0.013442894 0.015154981 0.0061692167 0.0737025
-0.0070782723 -1.1497965e-05 0.029603623 0.014860449 -0.0186618 0.065779194 -0.007673562 0.033402573
0.017826004 -0.002462866 0.005764417 -0.028449172 0.006709117 -0.01810202 0.00835507 0.01183839
-0.028966757 0.05774795 0.016944163 -0.02875625 -0.062627226 0.0037361553 -0.07025999 -0.0127385305
-0.019240908 -0.03657965 -0.015171815 0.012393295 0.0063560903 -0.016432522 -0.003956175 0.028682288
5.5743523e-05 -0.01790433 -0.07717922 0.030894209 -0.020096945 -0.0012220176 0.034613665 0.049851846
-0.0048313052 -0.014431299 0.030331042 -0.022684192 -0.011337615 0.00623266 -0.008978674 -0.003107705
0.027044365 -0.026726712 -0.013589716 0.017092593 -0.0070860344 -0.013152553 -0.03100589 -0.047552347
0.006766287 -0.014449286 -0.007200063 -0.021523254 0.0063462066 0.01008917 0.036125 0.009778933
0.016263794 0.0028569482 0.020982489 -0.011398771 -0.00954814 -0.008739796 -0.017111838 -0.032510296
-0.0717727 0.031770635 -0.032148104 -0.014456813 -0.044797607 0.030168658 -0.015144025 0.0033392333
0.03683309 -0.07929315 -0.010349408 0.02278466 -0.008958688 0.014933578 -0.0020500394 0.00053336547
-0.0068536126 -0.0034792265 -0.050073706 -0.004379615 0.04201135 0.008735627 0.015423783 0.03075774
0.040838446 0.0029184541 -0.020157129 -1.5699035e-05 0.01866902 -0.009624901 -0.02531359 -0.0050853044
-0.015428614 0.016852189 0.03310509 0.02512299 0.0020521914 -0.004551982 -0.024364525 0.016008575
-0.030576123 -0.014123674 -0.008578362 0.024559176 0.031985685 0.016586393 -0.024657644 -0.017724082
0.027509298 -0.0032006372 -0.06298491 -0.036368083 -0.08056056 -0.061056126 -0.07375407 -0.06720318
-0.029160108 -0.013953948 0.0023636648 -0.014449327 -0.031488903 -0.015000852 0.005939083 0.014399172
0.0076193493 -0.030813612 0.001378373 -0.025831083 -0.017056137 0.005538096 0.00087667856 0.024078112

module.encoder.c1.main.0.bias f4 [32]
00000000: 837f 30ba 0567 ac3b 5740 8cba abdf 363a
00000010: 6e3f a2b8 b425 a53a 845f 26ba d70c 453b
00000020: 2ea9 bd3a b1bb 6bba 9c98 9e38 85b5 67bb
00000030: 47be 87ba 37ca 2739 69fc 8e3a 7237 a8ba
00000040: 12da 2cba 4dac f0b9 a9b5 6cbb a22a 263a
00000050: e9a8 9db9 e75d 793a 78e1 80ba 2e8f 47ba
00000060: b930 4d38 3168 b339 1447 8b3a da1a d8ba
00000070: 3d19 daba 6e76 513a 206c 143a edcc 03b9
-0.0006732868 0.0052613043 -0.0010700327 0.0006976078 -7.736577e-05 0.0012599737 -0.00063466304 0.0030067468
0.0014469975 -0.0008992507 7.562453e-05 -0.0035355997 -0.001035639 0.00016001692 0.0010908964 -0.0012833907
-0.00065937743 -0.0004590474 -0.003611902 0.000633875 -0.0003007122 0.0009512589 -0.000983282 -0.0007612583
4.8921185e-05 0.0003421917 0.0010626041 -0.0016487495 -0.0016639602 0.00079903647 0.0005661864 -0.00012569474

module.encoder.c1.main.1.weight f4 [32]
00000000: 56b4 7f3f c55a 803f 198d 803f 1dd2 7a3f
00000010: 2f9a 813f 31b6 813f 6f27 7d3f a084 853f
00000020: a61e 803f b76d 7f3f 4e62 7d3f 74a6 783f
00000030: 5067 833f 2e9f 6b3f 32b8 833f 8452 833f
00000040: eadd 763f 740b 823f 8603 7f3f be63 7e3f
00000050: 4256 803f ede9 853f 756b 823f 87a9 7a3f
00000060: a8b4 7a3f 1f1c 793f 4110 833f 49b7 823f
00000070: 1535 7a3f 57b7 773f 302c 7a3f 6e1c 843f
0.99884546 1.0027701 1.004306 0.9797686 1.0125178 1.0133725 0.98888296 1.0431099
1.0009353 0.99776787 0.98978126 0.9712899 1.0265903 0.92039764 1.0290587 1.0259557
0.96432364 1.0159745 0.9961475 0.99370944 1.0026324 1.0462013 1.0189043 0.9791493
0.9793191 0.97308534 1.0239335 1.0212184 0.97737247 0.9676413 0.97723675 1.0321176

module.encoder.c1.main.1.bias f4 [32]
00000000: 0385 46bc 1c9c 00bd e2d2 9abd 446a 83bd
00000010: 4a47 6dbc 9b70 9f3c b314 30bc 2628 323d
00000020: c43c d0bd c41e efbd 56b4 69bc 3ccf 0f3d
00000030: 2467 563c e952 1e3c cba4 913c 8fcf 6f3d
00000040: 862a 09ba 2224 943d 1b98 b53c 9c51 66bc
00000050: c19a 9fbc 9911 d93c a4bf c13c c168 dc3b
00000060: ac2b af3c ec95 39bc a81f f4bc 14ad 813c
00000070: 1105 6abd 9aec cabd df3a 82bd 199a ac3b
-0.012116673 -0.031398878 -0.07559754 -0.06416753 -0.014482329 0.019462874 -0.010747123 0.04349532
-0.1016784 -0.1167579 -0.014264187 0.035109743 0.013086114 0.009663322 0.017778775 0.058547553
-0.0005232472 0.07233454 0.022167256 -0.014057543 -0.019482972 0.026497649 0.023650952 0.006726355
0.021383129 -0.011327248 -0.029800251 0.0158296 -0.057133738 -0.099084094 -0.06358885 0.0052673933

module.encoder.c1.main.3.weight f4 [32, 32, 3, 3]
00000000: d9a5 253c 4cf2 b5bc 0ca8 71bd fa48 153a
00000010: cc04 efbc 8a34 6cbc fbe6 723d 6ed1 523b
00000020: a19b 82bd 6ec9 473c 32b1 2a3d f4f7 ad3c
00000030: 99fc 8fbc 8ff6 fb3c aa2f d23b 900a bcbb
00000040: 99b9 d83a fef3 4fbc 8906 81bd 711e acbc
00000050: 32c9 d53b 686a 60bd b3ef 30bc 6506 d2ba
00000060: 6080 573b 513c e0bc f4d6 c73c b54c 53bb
00000070: 5fe2 adba 654d 323c 40df 01bd 373c 35bd
00000080: 6ba5 dc3c 5310 54bc ce8c 073c 3262 6fbc
00000090: 2b3c 173d 9d59 1bbc ab4f 55bc 6934 b33c
000000a0: 1e39 90bc 8b29 403c a3c2 bb3c b475 3ebc
000000b0: 770b e8ba 2a71 0e3c 5d6c 6e3d 0581 e53c
000000c0: 1fc1 413c 0abf 3e3c eabb 88bc 28cb 6bbc
000000d0: c4db 8bbb 5d54 c93c f8d0 bfbb 3ba3 9c3b
000000e0: a627 a43c b0a1 b4ba 8773 093c 4418 61bc
000000f0: bcc7 173d 60f6 6b3b 9e3b 783c 5c25 a73c
00000100: 7bb2 223d a852 393d 8887 1cbd 14f0 6fbc
00000110: 7949 8ebd 5290 22bd 5f32 ecb7 302d 993c
00000120: bcef 42ba 3896 923b fb96 a03b d897 973c
00000130: cfd4 5dbc adff 5c3b 097c 73bc 917c 743c
00000140: d542 473c 6a0f 053c ee28 c93c 440d 933c
00000150: 7ef1 be3b f967 8dbc 3d5e 233c 5c04 96bb
00000160: dba9 1cbc 77ad fd3b b4b9 6cbd 9918 8c3b
00000170: aaee 633a af5c c5bc 0998 02bd a787 133b
00000180: ebe2 dcbc 3dc8 39bc c3a2 3c3b 5fde f2bb
00000190: 2d63 a73c d566 013d 4d43 2b3c b4ad 52bb
000001a0: f322 9fba 4cd3 ab3b bec7 65bc 9f93 6dbc
000001b0: 603e 91bc 31db 50bd 5061 05bb 0e3a 503d
000001c0: 89b5 02bc 55ac 9abc a7c2 2cbd 4cae 29bd
000001d0: bd62 5fbd fc72 ad3b 9533 0b3d 8743 273c
000001e0: 69e4 853c d416 1f3c 5a0b 95ba 4589 553b
000001f0: e0c0 ff3a f4d8 173c 819b 4539 28ad 973c
00000200: 0a83 39bc 873f e1bc 2069 0d3c 6a44 04bd
00000210: f3f3 24bd 7cab c6bc 098c 4dbd 3fa4 3c3c
00000220: 2ebb c4bc 9f9e 1a3d 64ae 99bb ea4e a6bc
00000230: cb30 61bd aeb6 9fbb a744 dbb9 ca7c 26bd
00000240: 2b6e a8bc 1029 15bd 304c 80bc f758 df3c
00000250: 24a5 9e3c 3993 9b3c 42c3 60bb 65a8 7dbc
00000260: fbf4 9cbc 7dd0 853c 60ca 983c bf03 553c
00000270: 3363 18bb 336c 063d 9c5e 953c 4c0f d1bc
00000280: b2eb 14bd 0c60 87bd bef6 adbc 4893 e23b
00000290: 8a69 e2bc 44bd 443c a67a bcb9 4618 ae3c
000002a0: a3bc 0f3d 8e5c 203c 1f22 da3c 12ce 553c
000002b0: a456 a0bc 1284 73bc b6bd 7abd dbf6 bdba
000002c0: 67f7 69bc 292b 3cbd 006e 36bc 7385 2fbc
000002d0: b6f7 d6bc 2c17 f9bb 065e 6bbc 5497 07bc
000002e0: 3c50 473c 8ac8 57bc 197a 40bc f67c 0bbd
000002f0: b209 653c 6345 a63b 5690 2f3c 40bd 96bc
00000300: be19 d7bc 0ecc 9b3c 65b8 2a3d 40dd f03b
00000310: eca3 afbc 5539 ba3a d0d8 1c3d 1e98 febc
00000320: deb1 b1bc 6ccb 5f3d 8e79 98bc 9f65 8fbd
00000330: 80d7 d5bc d014 2cbd 1bfb d7bc 9609 91bc
00000340: 9a9c a43b 5e6c b9bc f645 dcbc d694 b03b
00000350: c9fb e5bb e8e4 00bc 8a87 41ba 6d3a ecbc
00000360: 2f15 163d 2052 923c bddb 8f3b 7fc4 f4bc
00000370: 04e8 e8bb 2c70 6ebc 0f8b 0a3c b2df bfbb
00000380: 1e73 563c 3c31 cfbb b30e 1e3d 9e1c e23a
00000390: 131f 80bc 97c9 7cbc 7c48 09bd 8998 523c
000003a0: 3433 aa3b 3b08 abbb bf9b 293d 8e99 e2bc
000003b0: 9179 653c a103 47bc 78d9 8cbc 5744 44bd
000003c0: 5f68 d33c 1479 643c 9c52 d03c 9564 57bc
000003d0: 09e8 2abd 6185 ae3b 42eb 48bb 6dba 3dbd
000003e0: 392c b03c 1424 423c 40fd 8abc de53 d73b
000003f0: 53bc c6bb 4b02 f43c c6f5 9a3c 5295 a83c
0.010110342 -0.022210263 -0.058998153 0.0005694773 -0.029177092 -0.014416823 0.05930231 0.0032168287
-0.0637734 0.012194021 0.041672893 0.021236397 -0.017576503 0.030757217 0.0064143734 -0.005738564
0.0016534805 -0.01269245 -0.063000746 -0.02101061 0.0065242285 -0.054788977 -0.010799336 -0.0016023634
0.0032882914 -0.027372511 0.02439449 -0.0032241766 -0.0013266316 0.01088271 -0.03170705 -0.04424688
0.026934346 -0.012943345 0.008273317 -0.014610814 0.036922615 -0.009481815 -0.013019483 0.021875577
-0.01760536 0.011728655 0.022919958 -0.011624742 -0.0017703612 0.008693973 0.058208812 0.028015623
0.011825829 0.011642227 -0.016691167 -0.014391698 -0.0042681415 0.02457636 -0.0058537684 0.004780201
0.020038437 -0.0013781097 0.00838936 -0.0137386955 0.037055716 0.0036005005 0.015150933 0.020403557
0.039720993 0.045244843 -0.03821519 -0.014644641 -0.069476075 -0.039688416 -2.8156848e-05 0.018698305
-0.0007436236 0.004473474 0.004900811 0.018505022 -0.013539507 0.003372173 -0.014861115 0.014922277
0.01216193 0.008121351 0.02455565 0.017950661 0.005827128 -0.017261492 0.009971199 -0.0045781564
-0.009561981 0.007741626 -0.057794288 0.004275393 0.00086949265 -0.024092047 -0.031883273 0.0022511275
-0.026963672 -0.011339244 0.0028783537 -0.0074117626 0.020433033 0.03159221 0.0104530575 -0.0032146992
-0.0012141153 0.0052436944 -0.014024673 -0.014500528 -0.017729938 -0.050990287 -0.0020352192 0.050836615
-0.007977852 -0.018881002 -0.042177822 -0.041425988 -0.054537524 0.005293248 0.03398474 0.010208971
0.016344266 0.0097100325 -0.0011371181 0.003258304 0.0019512437 0.009268034 0.00018845314 0.018515185
-0.011322746 -0.027496113 0.008631021 -0.032291807 -0.04027171 -0.024251692 -0.050182376 0.011513769
-0.024015035 0.03774893 -0.0046899784 -0.020301301 -0.054978173 -0.004874072 -0.00041822085 -0.040646352
-0.020560345 -0.036416113 -0.015661329 0.027264101 0.019365855 0.0189911 -0.003429607 -0.015482043
-0.019159785 0.016334767 0.018651187 0.013001381 -0.0023252487 0.03281803 0.01823359 -0.02551999
-0.03635759 -0.06610116 -0.02123582 0.00691453 -0.027638216 0.012008015 -0.00035949535 0.021251809
0.035092007 0.009787692 0.026627598 0.013049619 -0.019572563 -0.014863031 -0.06121608 -0.0014493124
-0.014280177 -0.0459396 -0.0111346245 -0.010712969 -0.026241165 -0.0076016393 -0.014365679 -0.0082758255
0.012165125 -0.013170371 -0.01174786 -0.03405472 0.013979362 0.0050741895 0.010715565 -0.018400788
-0.026257392 0.0190182 0.04167976 0.007350594 -0.021440469 0.001420776 0.038292706 -0.031078395
-0.021691259 0.054637358 -0.01861265 -0.070018046 -0.026103735 -0.042012036 -0.026364854 -0.017704766
0.005023551 -0.022634681 -0.026888829 0.0053888364 -0.0070185405 -0.0078670755 -0.00073825626 -0.028836453
0.036641296 0.017861426 0.0043902085 -0.029878853 -0.0071077365 -0.014553111 0.008456006 -0.005855524
0.0130889695 -0.006323008 0.038588237 0.001725096 -0.015639817 -0.015428922 -0.033516392 0.01285375
0.005194092 -0.005219487 0.041408297 -0.027661111 0.0140060345 -0.012146861 -0.01719354 -0.047916736
0.025806604 0.013944883 0.025430016 -0.013146539 -0.041725192 0.0053259586 -0.0030657803 -0.046320368
0.021505462 0.011849422 -0.016966462 0.006571277 -0.0060649305 0.02978625 0.018916022 0.020579014

module.encoder.c1.main.3.bias f4 [32]
00000000: 567f 08b9 5559 ecb8 59ca 0437 253b 4d38
00000010: d034 36b7 5cb9 3437 ff75 fe37 cad9 f4b8
00000020: f597 2538 2501 8238 026e 2f38 db67 49b8
00000030: ae51 f2b6 65a8 eab8 56eb 6039 e099 5a36
00000040: 91c0 dab9 b9d6 8f39 0eee 8138 da9e a8b8
00000050: 4363 5337 2ebb ad39 33a6 98b9 2277 3db5
00000060: fbc2 07b8 4cc0 c037 fc9d a6b6 17af 4eb7
00000070: aad8 55b5 fd37 24b8 1827 d7b7 5f0f 5036
-0.00013017407 -0.00011269996 7.914926e-06 4.893089e-05 -1.0860342e-05 1.0771993e-05 3.0334106e-05 -0.00011675393
3.9480587e-05 6.199096e-05 4.1825704e-05 -4.8018857e-05 -7.221671e-06 -0.000111893554 0.00021449974 3.2574098e-06
-0.00041723673 0.00027435066 6.1955405e-05 -8.040453e-05 1.2599691e-05 0.0003313659 -0.00029115527 -7.058135e-07
-3.2368098e-05 2.2977729e-05 -4.9655773e-06 -1.2319323e-05 -7.966397e-07 -3.915279e-05 -2.5648202e-05 3.1003362e-06

module.encoder.c1.main.4.weight f4 [32]
00000000: 927a 773f 3328 7b3f 26fe 793f 8bf6 773f
00000010: 8f2b 793f 71f0 7e3f 3943 7c3f 690b 763f
00000020: a32c 7f3f d43a 7d3f bbbd 763f 63e9 7d3f
00000030: c190 7a3f 90a7 763f c6f5 7e3f bc11 773f
00000040: 92bd 7e3f 9cb9 7c3f 38a6 7c3f 61c6 793f
00000050: adc9 773f e404 7e3f fab0 803f 571b 7c3f
00000060: 1448 773f eb8e 7b3f 772a 7d3f 84ca 793f
00000070: 666e 7a3f 0716 753f 80d3 733f 363f 783f
0.966714 0.98108214 0.97653425 0.9686057 0.9733209 0.99585634 0.98540074 0.9611116
0.99677485 0.9891789 0.96383256 0.99184245 0.97877127 0.9634943 0.9959377 0.96511436
0.9950801 0.9872072 0.9869113 0.9756833 0.9679211 0.9922621 1.0054009 0.9847922
0.9659436 0.9826495 0.9889292 0.9757464 0.97824705 0.95736736 0.952446 0.9697145

module.encoder.c1.main.4.bias f4 [32]
00000000: c3bd 2a3d 2659 513a 72b7 5c3c ddbf aa3c
00000010: e6d6 1b3d a93d 733d 3c39 fabc 28a8 79bd
00000020: bbf9 1a3d 8898 24bd 8041 cf39 d9b6 af3c
00000030: e38b f9bc 8580 54bd 0e98 a63c bb0a c23c
00000040: b8ee 8abc ee07 c03c 7d5b c6bc ede8 8f3a
00000050: 6c4c 303b 12b8 503c 40b6 62bd 118a 353d
00000060: b652 263d 0026 b13c b878 263d ccbc 9ebc
00000070: 00a6 6bbd cfe1 09bd 4b97 82bc 884e 78bd
0.041684877 0.00079860014 0.013471471 0.02084344 0.03804674 0.059384976 -0.03054487 -0.060951382
0.037835818 -0.040184528 0.00039530918 0.021449493 -0.030462211 -0.05188038 0.020336177 0.023686757
-0.016959533 0.023441281 -0.024213547 0.0010979451 0.002690102 0.012739198 -0.05534959 0.044321124
0.040606223 0.021624565 0.04064247 -0.019377135 -0.057531357 -0.033662613 -0.015941283 -0.06062177

module.encoder.c2.main.0.weight f4 [64, 32, 3, 3]
00000000: 7f3b a4bc 554e 13bd 1ed5 843b 0265 963c
00000010: 02d2 9cbc 4cad 60bb e06f babc 539a 7c3d
00000020: 7b93 ef3c 4752 7d3c cd3e ca3b 40fd bbba
00000030: 752f ecbc c902 22bd a62b dfbc aab4 23bb
00000040: 6e4d f4b9 47ba 90bc 142e 783b 9076 acbb
00000050: 9952 95bc 25b3 31bd 5615 82bc 9791 8abc
00000060: c636 d8bc d74c 553c ff2a 8e3c 8510 e4bc
00000070: 03ed fcbb 43b2 ea3b 2d29 ed3a b7d5 6bbd
00000080: 1997 9dbc 2c94 9abc d47d 303d 7b52 803b
00000090: 3c47 48bc 9f64 10bd b7a0 ac3a e9a9 eebc
000000a0: bf19 adbc 5c71 da3c dc7b febc 7f9f 9ebc
000000b0: 64dd 1c39 7c9c 8b3c d687 bcbb ecef 2abc
000000c0: d65a a8bc a77d 89bb 56ff 113c 0d70 bbbc
000000d0: e31c c83c 3a87 c3bc 8aba 50bb aa08 3abc
000000e0: a847 b5bc 6426 67bc d9d6 4ebc 6fdd 88bc
000000f0: 9081 87bc 1526 e5bc a43b cbbb ab36 d13b
00000100: e59e 1abd 5392 26bc 951b 37bd a219 b5bc
00000110: fa05 383c 2fa6 4f3d 655d 5d3d b00c bf3c
00000120: cce3 58bc d93f 44bd 9f25 dd3c 83bc 353d
00000130: 7584 68bb 1c14 2abb fd4e 353d dc4a cd3c
00000140: 746e 9f3c c74e 7d3d e37c 273d 0e99 3e3d
00000150: 0ce6 56b9 aed1 1ebd 41dc f53c 7868 dbbb
00000160: 3d54 87bc 1c01 d23c 1d4b 1ebd c06d 8dbd
00000170: df38 83bc 7201 3f3d e275 4cbc 999f 0a3c
00000180: eee7 463d 1db5 29bc 0a06 f5bb a851 0e3c
00000190: abce 993c 792c f1bc c7e1 5f3c 94c5 a7ba
000001a0: 6b7f 68bc 052a debc 2a75 83bc d001 37bc
000001b0: ad52 693d ee25 af3c 70dc ca3c 8c36 e83c
000001c0: aee2 8bbc 4f9d 98bb 9516 343d 82e9 263d
000001d0: eeb5 443d 8f74 12bc 0b31 f6bc e511 5ebb
000001e0: e579 93bc b325 74bd 85c0 6b3c 42d8 bd3c
000001f0: 27a5 e93c a984 333d 5089 53bd f6c2 80bc
00000200: 5737 0a3b 275f 80bc 9b18 a1bc d986 393a
00000210: 6f3b 0a3c 75df e73b b986 3ebc 004a 0b3d
00000220: 35b7 2cbd 06b3 e1bb ae09 073b c633 30bc
00000230: 87d6 32bc 1c9b 063b 780b 443d 919a 56bd
00000240: 6647 91bb fe3f 28bd af44 7cbc 5a19 ab3c
00000250: 9856 f3bc e5f6 183d f4f7 0c3c 7b6a ebbc
00000260: df52 1fbc fc62 cabc 13f9 66bc 47aa 8b3c
00000270: c22e 32bc 3b6f 833c 8579 ffbc 9aff 0abd
00000280: 0de0 183b 325f 973b 2e99 113c f591 eebb
00000290: 28dc 0d3c 4565 7bbc 59c9 1bbd aa52 213c
000002a0: ab9e b3bc 6db0 17ba 4afc 44bd 84de a9bb
000002b0: 0067 94bb 6319 00bd 8cf3 503c 038f 8bbc
000002c0: b0e6 98bc 6fe5 573c 0f22 64bd 39c6 d1bb
000002d0: b0e0 6e3b 518b 8fbc f7e1 183c aee9 01bc
000002e0: 11e9 883c ece4 8bbb 782a 07bd dd7b 133d
000002f0: cec3 ca3a d4b1 613d ca09 85bc 35f9 89bc
00000300: 7ddc e03c bd48 90bd 6fad a23b fd42 6dbd
00000310: 6a57 33bd 0ebf a9bc 7e7b c93c b4f9 05bc
00000320: debb e239 7828 b13b eeac 363c 824f c3bc
00000330: 677e 12bd 9299 00bd de6a 27bd 5b04 0a3c
00000340: d0b3 7bbd 040f d33c b496 0c3a b83f 9abc
00000350: 33dd a0bc bf09 293d 349d 773b 0602 8d3d
00000360: 5b9e a9bc 2f12 243b 02c7 cbbc 939f 99bb
00000370: 09c4 16bc b8e6 083b f7d4 143c 131c 813b
00000380: 04ab b2bb 5e06 17bd f863 ac3c 0320 28bc
00000390: 0a54 58bc 72b1 31bd 7775 d33b 4b7f 123d
000003a0: 6736 5a3d 4f64 113c 286a f7ba 050c 113d
000003b0: ab1b 9b3c 1235 c43c 5649 87bc ac73 d93c
000003c0: 884d e4bc dee1 9b3c 942e 563a 086c b8ba
000003d0: f898 96ba 6f81 e63c 5023 0ebd c1d9 84bd
000003e0: e02a 82bd e7c4 2a3b ce4d ca3c 3c01 9a3c
000003f0: 0dde 93bc fce9 e93c 3c85 e8bb 214a cc3c
-0.020047901 -0.035963375 0.004053726 0.018358711 -0.019143108 -0.003428298 -0.022758424 0.061670613
0.029245129 0.015461511 0.006172037 -0.0014342442 -0.028831223 -0.039553437 -0.027242493 -0.002497951
-0.00046596996 -0.017666949 0.0037869262 -0.005263157 -0.018227862 -0.043383736 -0.015879314 -0.016915126
-0.026393306 0.013018808 0.017354487 -0.027839908 -0.0077186837 0.0071623637 0.0018093936 -0.05757686
-0.019237088 -0.018869482 0.04308875 0.0039160824 -0.012224015 -0.03525221 0.0013170455 -0.029133754
-0.02113044 0.026665382 -0.03106492 -0.019363163 0.00014959794 0.017042391 -0.0057534976 -0.010433178
-0.020551126 -0.004195887 0.0089109745 -0.022880578 0.024427837 -0.023868192 -0.0031849467 -0.011354605
-0.022128895 -0.014108274 -0.012624466 -0.01670715 -0.016541272 -0.02797226 -0.006202178 0.0063846908
-0.03774919 -0.010166722 -0.04470404 -0.02210695 0.011231894 0.050695594 0.054044146 0.02332148
-0.013237905 -0.047912452 0.026995478 0.044369232 -0.0035479341 -0.0025951928 0.044264782 0.02506011
0.019461848 0.061842706 0.040890586 0.046532683 -0.0002049433 -0.038774185 0.030012252 -0.0066958033
-0.01651966 0.025635295 -0.038645852 -0.06905699 -0.01601833 0.046632238 -0.012479277 0.008460903
0.04856103 -0.010358122 -0.0074775266 0.008686461 0.018775305 -0.029440152 0.013664669 -0.0012799972
-0.014190535 -0.027119646 -0.01604708 -0.011169866 0.05696361 0.021380391 0.024763316 0.028346322
-0.017075863 -0.0046574245 0.04396685 0.040750034 0.048025064 -0.008938923 -0.030052682 -0.0033885178
-0.01800246 -0.059606265 0.014389162 0.023174409 0.028521134 0.043827686 -0.051644623 -0.015717965
0.0021090114 -0.015670372 -0.019665053 0.0007077284 0.008437022 0.0070761987 -0.0116288 0.03400612
-0.042166907 -0.0068877963 0.0020605135 -0.010754531 -0.010915405 0.002053923 0.0478625 -0.0523935
-0.00443356 -0.041076653 -0.015397235 0.020886112 -0.029704377 0.037344832 0.0086040385 -0.028737297
-0.009724348 -0.024705403 -0.01409747 0.017048968 -0.010875406 0.01604425 -0.031185875 -0.033935167
0.0023326904 0.0046195025 0.008886619 -0.007280583 0.008658446 -0.015343969 -0.038033817 0.009846369
-0.021926245 -0.00057864824 -0.048092164 -0.0051839966 -0.00452888 -0.03127421 0.012753379 -0.017035967
-0.018664688 0.01317726 -0.055696543 -0.006401804 0.0036449842 -0.017522486 0.009331218 -0.007929249
0.016712697 -0.004269233 -0.032999486 0.036006797 0.0015469731 0.05510123 -0.01624002 -0.016842464
0.027448887 -0.07045124 0.0049645226 -0.057925213 -0.043784536 -0.020720985 0.024595018 -0.00817721
0.0004324605 0.0054064356 0.011149628 -0.023841623 -0.035765078 -0.031396456 -0.0408734 0.00842389
-0.06145078 0.025763996 0.00053630327 -0.018829212 -0.019636726 0.04126906 0.003778291 0.068851516
-0.020705393 0.0025035252 -0.024875168 -0.004688212 -0.009202012 0.0020889472 0.009083978 0.0039401143
-0.0054525156 -0.036871307 0.021043763 -0.010261538 -0.01320363 -0.043382116 0.006453212 0.035765927
0.05327454 0.008874013 -0.0018876242 0.035411853 0.018934092 0.023951087 -0.016514461 0.026544414
-0.027869001 0.0190286 0.0008170393 -0.0014070282 -0.001148968 0.02813789 -0.034701645 -0.06486846
-0.06355834 0.0026057304 0.024695303 0.018799417 -0.018050218 0.028553955 -0.007095961 0.024937691

module.encoder.c2.main.0.bias f4 [64]
00000000: bcd7 b837 9a89 37b7 83bf 8137 2fd5 23b8
00000010: e563 1c38 7f1c 55b6 c682 1e38 6c3d 9238
00000020: 3137 0bb7 055d 9136 5cc7 7337 f270 d0b5
00000030: 95d4 1337 b6da 08b7 a30e 4b35 f7e5 b536
00000040: 20a8 b3b7 88f4 8cb7 ba15 27b7 64be 8c36
00000050: 3bb9 ed35 c011 6bb7 532f 6b37 fe6e 3938
00000060: d238 2237 96ec e9b7 ff06 3bb8 275a 6838
00000070: 318a 1ab8 90e4 20b7 121d 7936 470b 88b6
00000080: 3b8e 0e37 2d3a 1f38 dd89 fe37 3447 5537
00000090: 6957 1238 5797 1a37 b770 8d37 b568 5f38
000000a0: 963d 7a37 8712 7fb6 26a4 2636 b9cc db36
000000b0: e418 e438 380d 0537 f157 7235 9463 5237
000000c0: e64a bf36 33e6 6e35 382e 7737 3506 aa36
000000d0: a8b5 a437 1acc 7ab7 9aa1 7037 1c42 2238
000000e0: fde3 d738 1eaa c537 b961 5db6 d197 8537
000000f0: 28f2 1237 59b9 abb7 64cd 6036 ef94 10b7
2.2034968e-05 -1.0939688e-05 1.5467178e-05 -3.906077e-05 3.7286332e-05 -3.175606e-06 3.7791928e-05 6.973263e-05
-8.297896e-06 4.3321656e-06 1.4530346e-05 -1.5530079e-06 8.811378e-06 -8.157154e-06 7.564469e-07 5.420992e-06
-2.1416752e-05 -1.680317e-05 -9.959034e-06 4.1944895e-06 1.7711785e-06 -1.4011224e-05 1.401811e-05 4.4210807e-05
9.669182e-06 -2.7885933e-05 -4.459079e-05 5.539707e-05 -3.6845162e-05 -9.5899595e-06 3.7120813e-06 -4.0544287e-06
8.496975e-06 3.7962734e-05 3.0343357e-05 1.2712368e-05 3.489052e-05 9.214352e-06 1.6860997e-05 5.326486e-05
1.49155e-05 -3.8008745e-06 2.4831475e-06 6.5505415e-06 0.000108765234 7.9304955e-06 9.0279997e-07 1.254016e-05
5.700963e-06 8.8996893e-07 1.4733108e-05 5.0671174e-06 1.9634914e-05 -1.4948682e-05 1.43427405e-05 3.868538e-05
0.00010294465 2.3563447e-05 -3.2988448e-06 1.592553e-05 8.7586595e-06 -2.0471098e-05 3.3498154e-06 -8.617745e-06

module.encoder.c2.main.1.weight f4 [64]
00000000: 2ccb 783f c53f 7e3f 3f75 753f e4a9 7a3f
00000010: 8a96 833f 2aff 7e3f bc1a 7b3f 2b59 803f
00000020: 7da7 783f 031d 803f 4ffe 763f ef61 813f
00000030: 0266 7f3f 3292 793f 0d31 743f b5d4 813f
00000040: 9cac 7a3f aa75 7d3f 65fe 7b3f 1ee5 7e3f
00000050: e0a7 7a3f 0f2e 7c3f 37cf 7d3f b649 823f
00000060: 7128 7c3f eda4 793f db9e 833f 96fd 803f
00000070: ae8b 7d3f 4432 7c3f 4b85 7c3f 043e 7c3f
00000080: 7d09 803f 6a4a 7c3f 2015 7f3f 2201 813f
00000090: ccfd 873f c38e 7f3f 9ead 823f 8d93 803f
000000a0: 430d 7f3f b0dd 7a3f aee3 813f 05e5 7b3f
000000b0: 9f03 823f 44d5 763f 1238 7d3f 1d6d 7e3f
000000c0: d7b6 7c3f 082f 7a3f f08a 793f f6c9 773f
000000d0: 7045 803f 85e2 833f 7502 7f3f 0dc8 7d3f
000000e0: a010 893f ddc7 7d3f b031 7f3f cbd6 793f
000000f0: baf3 853f ba0e 7b3f 8188 7a3f 7966 873f
0.97185016 0.99316055 0.9588203 0.9791548 1.0280316 0.996081 0.9808767 1.0027212
0.97130567 1.0008854 0.96481794 1.0108012 0.99765027 0.974887 0.95387346 1.0143038
0.9791963 0.99007666 0.9843505 0.99568355 0.97912407 0.9850778 0.9914431 1.0178745
0.9849921 0.9751728 1.0282854 1.0077388 0.9904126 0.985142 0.9864089 0.9853213
1.0002896 0.98551047 0.9964161 1.0078471 1.0624328 0.9982721 1.0209234 1.0045029
0.9962961 0.9799452 1.0147607 0.9839633 1.0157355 0.9641917 0.9891368 0.99385244
0.9871649 0.97728014 0.97477627 0.9679254 1.0021191 1.0303503 0.99613124 0.9913338
1.0708199 0.9913309 0.9968519 0.97593373 1.0465004 0.98069346 0.9786454 1.0578147

module.encoder.c2.main.1.bias f4 [64]
00000000: 4c8b afbd e0fb 17bd bb02 28bd 7677 cfbd
00000010: dd45 37bd ce1e 85bd 72c9 0cbd 590b d4bc
00000020: 0f46 60bd f8e3 22bd 945b c4bd 3240 59bd
00000030: 7f3c e5bc 3e01 b5bd 685f 77bd 5854 b7bc
00000040: d286 55bd c400 10bd 9b06 24bd a6dc 4dbd
00000050: 9d8e 58bd 93df 8dbd 9c46 74bd f460 11bd
00000060: d923 b0bd f326 42bd 18bc 87bd 21c8 88bd
00000070: 41cd 21bd e4b7 a2bd b8ee 27bd a5f5 4dbd
00000080: edc5 ddbc d282 13bd 80a3 98bd 7b65 4abd
00000090: f156 a8bc 8056 d7bc 42d1 2cbd f573 0cbd
000000a0: 0922 4abd 8bff 32bd 3f0d 83bc b84f febc
000000b0: e986 a0bc f030 6cbd 2b70 0fbd 23bd 60bd
000000c0: 3799 cc3b 3760 26bd fda7 b5bd d4f7 7abd
000000d0: 4322 93bc b456 bfbc c210 7fbd 82b5 a0bd
000000e0: 2cb4 833c 9537 42bd 55d3 afbd 3324 7cbd
000000f0: 914e fcbc 2950 69bd cc1f e0bc bf06 13bd
-0.08571491 -0.03710544 -0.04101823 -0.10130207 -0.04474436 -0.06500016 -0.0343718 -0.025884317
-0.054754313 -0.03976819 -0.0958778 -0.053039737 -0.027982948 -0.088381276 -0.06039372 -0.022379085
-0.052130528 -0.03515698 -0.040045362 -0.050259255 -0.05287038 -0.06927409 -0.05963765 -0.035492852
-0.086005874 -0.047400426 -0.06627673 -0.066787966 -0.039502386 -0.079452306 -0.040999144 -0.050283093
-0.027071917 -0.03601343 -0.0745306 -0.049413186 -0.02054927 -0.026286364 -0.04219175 -0.034290273
-0.049348865 -0.043700736 -0.015997527 -0.031043872 -0.01959558 -0.057663858 -0.03501908 -0.054867875
0.0062438506 -0.0406191 -0.08869932 -0.061271504 -0.017960673 -0.023356773 -0.06227184 -0.0784712
0.016077124 -0.04741629 -0.0858523 -0.06155796 -0.030799182 -0.056961212 -0.027358912 -0.035895105

module.encoder.c2.main.3.weight f4 [64, 64, 3, 3]
00000000: 5ea7 98bc 6ac0 3abc a099 07bb 3fc9 67ba
00000010: 63d6 393c 4934 aaba 42aa cbbc ed49 a0bc
00000020: 0696 52bd bb7b 8abc 660c 2fbd 81ca c8bb
00000030: 21e4 483c f1a3 eb3c 025f 423c dd65 2dbd
00000040: 266a c53c dec4 933c e712 99bc 0a30 443c
00000050: 2254 d03b d5eb 61bc 54c1 64bc 3bea 3338
00000060: aa0f 19bc d4d3 533c d1c9 a4bb 8cb7 9f3c
00000070: 89d7 4a3c 2eab 783b 7561 c63c a59d 2b3d
00000080: 975d 42bc 86ab a73c 90bf 103d fcd1 3abd
00000090: b5d2 8c3a 8162 d63b 4058 b8bb 69e6 373a
000000a0: d758 bebc d7d6 0bbc 1289 b6bc f3bd 82bd
000000b0: 508d dbbc 7df1 a7bc 815d 04bd c5ca debc
000000c0: 6b23 5ebb a7a2 e6bb 422c a53b 0019 c6bc
000000d0: 8d43 7dbc 7a75 bebc 658a 493c 6f86 bebc
000000e0: 60b0 04bc 8784 4cbc ef09 1d3d 4b36 bcba
000000f0: a7c8 54bc 470d 0e3b c089 093c 515c 393d
00000100: 7400 d2bb 2ba8 90bb d438 0dbd dc48 13bc
00000110: 24fc 543d 6e4e e1bc 33ca 5ebd 77bf 73bd
00000120: 721c 863b 9d77 03bd bf8f 523c 6c16 d0bc
00000130: 4c9c b4bc 8797 8b39 c2db 80bd 1821 05bd
00000140: 4704 8e3c 129b be3b 9d90 3e3d c3f0 78bc
00000150: 9b48 8abc 0c3d 5dbd 2fd5 25bd bde2 14bd
00000160: 77b0 b6bc d0d0 9a3c d980 b03b 1663 b13c
00000170: 3319 353d 007e 37ba da44 c13c a0d1 36bd
00000180: 0acc dfbc e536 2fbd f02f 87bc 3b41 133d
00000190: fb68 4c3d e125 7f3d 7895 34bb 5106 7c3c
000001a0: bd44 233c f2c5 a83c 0f2d d03c cead b2bc
000001b0: a97b 91bc 5713 4f3c 1441 95bc ddd5 48bc
000001c0: 0f2e 82bc 6835 873b dd66 e0bc e6cb df3c
000001d0: 674a 83bc 43ea 683b 92d9 123d df5d 59bc
000001e0: 0402 a5bc 6d28 febc 0aab 733c 8315 923c
000001f0: e1c1 803c 73b6 e4bb 9d80 8abc 93dd 97bc
00000200: 560f 7dbc fe7c 32bd c13a 423c f3c9 663b
00000210: de09 0f3d a767 f3bc a2de 00bc 75e2 6a3b
00000220: 2dc0 28bc d80c b0bb b41d 713c 8597 ab3b
00000230: 40ed 9abc b081 533d 8578 7d3c 79c8 91bc
00000240: 7bce 303b 9c8e fbba 1145 0b3d 2e19 84bc
00000250: ba5e 1cbd 2a23 6aba b64f cbbb bd54 88bc
00000260: 5556 aebb 1090 efbc 7052 6b3c 1650 a5bb
00000270: 1fdb 823c 151a 4a3c 5815 2abc 6c6f c0bc
00000280: afa1 a63c f52a 313a 2e35 7e3c 1056 e5bb
00000290: dfe0 5f3c e229 263c 7b8d b7bb c3a5 e53b
000002a0: 5ebd cf3b 885f debb 3a33 2b3c 567b c8bc
000002b0: d5c4 a83c e280 b03b c2ec 6b3c 0ed1 703c
000002c0: e1e4 e33c 9fdc f1bc c71a 1dbb 4505 5cbb
000002d0: 942d 57bc 487e cc3c 9c45 053d b4d3 b3bc
000002e0: 094e deba e9e4 b03b 5c28 c6bc 68b1 5d3c
000002f0: c13b 78bd 63ae 853c 32f9 abbc 780f 8aba
00000300: a9fb 283d ea48 1e3d bfd9 063d 6362 953c
00000310: ccfc c23c 15da 213d ee86 c83c 8a43 4bbb
00000320: 87c7 bd3c 09b1 af3d e24b 8d3c 5c3c ad3c
00000330: 6607 03bd 3d0d a1bc 3f94 f0bc 054a d9bb
00000340: b4b5 e3bc f567 02bc 3287 c8bc d1a4 06bc
00000350: 0db7 84bc 24ee 163d 594d 90bc 3687 46bc
00000360: b646 0cbd 2b42 9fbc 7a83 e43a 9ec5 3c3c
00000370: a5ff 19bd 1e61 2ebd 941d b2bc a106 583c
00000380: 039d 00ba 5ab1 b53c 283c 8c3c 5d06 3b3c
00000390: f9fa 083a 6807 69bc faa6 ce3c cf75 c5bc
000003a0: 6f24 b5bc 71bc 343d 8fc7 e8bc 876b 9d3b
000003b0: 3c8b 043c 30bf a1bc ab56 f6bc d375 e73c
000003c0: 81f1 a4bc 565d d63b cd7b a5bc 47e4 8abc
000003d0: e664 eb3c 1550 333b b07c 6e3c dd7c bb3b
000003e0: f649 803d 4ea5 35bc 9077 0bbb 2fa1 c9bc
000003f0: 585a b63b 074b a2bb 3ade abbc 430a 4c3c
-0.018634494 -0.011398414 -0.0020690933 -0.00088419387 0.011342618 -0.0012985553 -0.024861459 -0.0195665
-0.051412605 -0.016904702 -0.042736433 -0.006127656 0.012261421 0.028764697 0.011863472 -0.042333473
0.024098467 0.01803821 -0.018685771 0.011974344 0.0063576857 -0.013789137 -0.013962109 4.289507e-05
-0.0093421135 0.012928922 -0.005028941 0.019496702 0.012380489 0.0037943828 0.024216393 0.04189839
-0.011863134 0.020467531 0.03533894 -0.045610413 0.0010743948 0.0065425043 -0.0056257546 0.000701523
-0.023235722 -0.0085351085 -0.022282157 -0.06383886 -0.026800781 -0.020500893 -0.032315735 -0.027196297
-0.0033895622 -0.0070384326 0.0050406763 -0.024181843 -0.015458 -0.023249377 0.012301062 -0.023257462
-0.008098692 -0.012482769 0.03833955 -0.0014359442 -0.012987292 0.0021675394 0.008394659 0.045254055
-0.0064087454 -0.0044145784 -0.034478024 -0.008989539 0.051998273 -0.027503219 -0.05439205 -0.059508767
0.0040927464 -0.032096494 0.012851655 -0.025401317 -0.022047184 0.00026625043 -0.062919155 -0.032502264
0.017336024 0.0058168257 0.046524633 -0.015194121 -0.016880324 -0.054013297 -0.04048651 -0.036349047
-0.022300942 0.018898398 0.0053864536 0.021653693 0.044213485 -0.00069996715 0.023592401 -0.044633508
-0.027318973 -0.04277696 -0.01650235 0.03595088 0.049904805 0.062291984 -0.002755491 0.015382365
0.009965119 0.0206022 0.02541211 -0.021811392 -0.017759161 0.012638888 -0.018219508 -0.01225802
-0.015891103 0.0041262396 -0.027392799 0.027318906 -0.016026689 0.0035540021 0.035852022 -0.0132670095
-0.020142563 -0.031025136 0.014872322 0.017832523 0.015717449 -0.0069797575 -0.01690703 -0.018538272
-0.015445551 -0.043576233 0.011854828 0.0035215586 0.03492152 -0.029712511 -0.00786558 0.0035840545
-0.0102997245 -0.005372625 0.014716554 0.0052365684 -0.018911958 0.05163735 0.015470629 -0.017795788
0.002697854 -0.0019192281 0.034001414 -0.016125288 -0.038176276 -0.00089316315 -0.0062045706 -0.016641969
-0.00532035 -0.029243499 0.014362916 -0.0050449474 0.015973626 0.01233532 -0.010381065 -0.02349063
0.020340769 0.0006758415 0.015515609 -0.006998785 0.013664453 0.010141822 -0.0056015826 0.0070082857
0.006339713 -0.0067862906 0.010449225 -0.024472874 0.02060167 0.005386458 0.014399709 0.01469828
0.027819099 -0.029524146 -0.002397226 -0.0033572477 -0.013133425 0.02496256 0.032537088 -0.021951534
-0.0016960512 0.005398382 -0.024189167 0.0135310665 -0.06060386 0.016318506 -0.020992849 -0.0010533174
0.041255627 0.038643755 0.032922503 0.018235391 0.023802184 0.03951462 0.024478402 -0.0031015598
0.023166431 0.08578689 0.017248098 0.021146946 -0.031989478 -0.019659633 -0.029367564 -0.0066311383
-0.027796604 -0.007959356 -0.024478529 -0.008218006 -0.016200567 0.036848202 -0.017615007 -0.012117198
-0.034247123 -0.019440731 0.0017434203 0.011521725 -0.037597317 -0.042573087 -0.02174262 0.013185174
-0.0004906209 0.022179294 0.017118528 0.011415091 0.0005225386 -0.014222957 0.025226105 -0.024104027
-0.0221121 0.044125024 -0.02841547 0.004804078 0.008089837 -0.019744486 -0.030070623 0.028254425
-0.02013469 0.006541888 -0.020200634 -0.016954554 0.028734636 0.0027360965 0.014556095 0.005721672
0.06264107 -0.011086775 -0.0021280982 -0.024612991 0.005564969 -0.0049527916 -0.02097999 0.012453618

module.encoder.c2.main.3.bias f4 [64]
00000000: 8fcd 3ab5 0043 a237 7453 f2b6 a662 75b6
00000010: 39cc 8b36 0529 b4b6 7d8f b5b7 8ab6 8eb6
00000020: 5785 f2b6 3e14 56b5 0d1d b836 0738 8c36
00000030: 04d6 f534 34ea d236 375f b3b7 2043 3437
00000040: 578e 9fb4 b4ed dd35 fe5e 83b6 4d24 b735
00000050: 06de 2e36 29be 20b6 d8e9 4736 6438 72b7
00000060: a6da f835 b2da 8336 381b c6b6 989f bf37
00000070: f2a3 d135 23b9 49b5 ebc2 25b6 f463 a0b7
00000080: 9722 1ab7 7e8a 7ab7 5166 f0b6 8450 5db7
00000090: b557 db36 acdd 9737 2ab4 45b7 badb 5136
000000a0: 283e 2fb6 c482 6936 ade1 23b7 468a b8b6
000000b0: d46f 3ab7 ebb1 a536 c912 88b7 747b 99b7
000000c0: 378b 7cb7 45d1 2636 071b aeb6 df3d 8337
000000d0: fd49 beb7 3eec 8bb7 821d 86b6 1507 f835
000000e0: 7eb9 5e36 2556 afb7 b1c3 2035 0613 c2b5
000000f0: 3d2e 4537 3e3d f2b6 6141 6336 1d97 c1b6
-6.9589527e-07 1.9343104e-05 -7.2218772e-06 -3.6565266e-06 4.1662975e-06 -5.3691933e-06 -2.1643698e-05 -4.25318e-06
-7.227685e-06 -7.975067e-07 5.4870093e-06 4.1788476e-06 4.5790523e-07 6.2857525e-06 -2.13828e-05 1.0744465e-05
-2.9719624e-07 1.6534964e-06 -3.915163e-06 1.3645127e-06 2.6057255e-06 -2.3952546e-06 2.9789426e-06 -1.44374535e-05
1.8541075e-06 3.9295637e-06 -5.9040285e-06 2.2843291e-05 1.5619428e-06 -7.5147744e-07 -2.4700373e-06 -1.912003e-05
-9.187169e-06 -1.4933406e-05 -7.1644686e-06 -1.3191373e-05 6.536919e-06 1.8103827e-05 -1.1784063e-05 3.1271325e-06
-2.6113212e-06 3.4795821e-06 -9.768101e-06 -5.4997245e-06 -1.1112501e-05 4.9380956e-06 -1.622121e-05 -1.8296509e-05
-1.5052784e-05 2.4857738e-06 -5.1887505e-06 1.5645228e-05 -2.2684218e-05 -1.66801e-05 -3.9969464e-06 1.8479501e-06
3.3188549e-06 -2.090174e-05 5.9889413e-07 -1.4459663e-06 1.1752881e-05 -7.2192915e-06 3.3863691e-06 -5.76944e-06

module.encoder.c2.main.4.weight f4 [64]
00000000: 0172 7f3f b959 813f 1c87 803f 2a02 7f3f
00000010: b926 7f3f 212e 7e3f e0e1 7f3f ba16 7d3f
00000020: a5e9 843f 5d85 7e3f ab7c 7b3f 6633 7c3f
00000030: c7ba 803f e3f1 813f 92a7 803f f53f 813f
00000040: f2a5 803f d9c3 7b3f 7044 793f 4314 7d3f
00000050: 8279 803f 2eeb 7b3f f66d 7b3f 4d88 803f
00000060: de1b 7e3f 1dc7 833f 4f13 803f bde6 7e3f
00000070: c7c6 813f 43fa 7d3f aa08 7b3f cb82 7f3f
00000080: 4e7c 7a3f 34cc 813f 5cf1 783f 962a 803f
00000090: 6b9d 7e3f 772b 7f3f f6ca 823f 0fb3 7e3f
000000a0: 5bbb 7f3f 44ae 803f 942d 813f c00b 7b3f
000000b0: 9416 803f 1b7b 813f 79d9 803f 5e88 813f
000000c0: 8997 7e3f d882 803f d8a0 723f ab35 813f
000000d0: d859 7e3f f283 803f eca6 7a3f 2850 833f
000000e0: 6203 833f 8186 7d3f aa4b 7a3f c960 813f
000000f0: 29e4 7c3f 515b 823f 8e60 823f a493 783f
0.9978333 1.0105506 1.0041232 0.9961268 0.9966846 0.9928914 0.9995403 0.98862803
1.0383803 0.99422246 0.98237103 0.9851593 1.0057 1.0151943 1.0051138 1.0097643
1.0050642 0.98345715 0.9737005 0.9885904 1.0037081 0.9840573 0.9821466 1.0041596
0.9926127 1.029514 1.0005893 0.9957083 1.0138787 0.99209994 0.98060095 0.9980895
0.97845924 1.0140443 0.97243285 1.0012996 0.9945895 0.996757 1.0218189 0.9949197
0.99895257 1.0053182 1.0092034 0.98064804 1.000689 1.0115694 1.0066367 1.0119741
0.99449974 1.003993 0.9477668 1.0094503 0.9935584 1.0040267 0.9791095 1.0258837
1.0235407 0.9903336 0.97771704 1.0107661 0.98785645 1.0184118 1.0185716 0.9710028

module.encoder.c2.main.4.bias f4 [64]
00000000: 2f99 f6bc a65f 0abd af70 7abd f509 a2bd
00000010: 77a0 11bd bb70 a9bc 1977 04bd c0d6 f9bc
00000020: e601 15bd 796c c2bc c352 2cbd eba6 4bbd
00000030: ab84 fcbc 6f43 89bd f81b 43bd 9b82 7ebd
00000040: 8af9 7abc 81c0 60bc 5e8c 10bd 9ced 12bd
00000050: 4fbd 45bc f9fe 0abd 2832 42bd 834e a5bc
00000060: 9da8 9bbd 74c4 dabc 1147 d9bc 71e2 2fbd
00000070: 6e47 92bc cbf4 4ebd 72c4 a9bc 88e9 e0bc
00000080: 2053 a8bd 7e30 f2bc 591f 46bd 9a1c 8dbd
00000090: 49ed d9bc 0a27 51bd 864d 8abc b631 0fbd
000000a0: 7cef adbd aa3e cdbc 3fd1 31bb 216e fbbc
000000b0: a361 44bd 95c1 24bc 5e64 41bc a715 d0bd
000000c0: bfce 20bd e1f5 57bd b421 ccbd 389b 4cbd
000000d0: adca 76bc fc26 c3bc 5e50 96bd e56e 92bc
000000e0: f470 3dbd 6987 2fbc 83af 8ebd 7f64 94bc
000000f0: 60e7 e3bd df0c 673c f022 27bd 9c89 39bb
-0.03010234 -0.033782624 -0.06114262 -0.079120554 -0.03555342 -0.020683637 -0.032340143 -0.030497909
-0.036378764 -0.023733364 -0.042071115 -0.049719732 -0.03082498 -0.06702315 -0.047634095 -0.062136274
-0.015318284 -0.0137177715 -0.035290115 -0.035871133 -0.0120690605 -0.033934567 -0.047411114 -0.020179039
-0.0760052 -0.026705004 -0.026523145 -0.04294056 -0.017856326 -0.05052642 -0.020723555 -0.027455106
-0.0821898 -0.029564139 -0.04836974 -0.06890221 -0.026602404 -0.05106262 -0.01688267 -0.034959517
-0.08492944 -0.025054295 -0.0027132777 -0.030692162 -0.047944676 -0.010055919 -0.011803715 -0.1016038
-0.03925967 -0.052724723 -0.09967366 -0.049952716 -0.01506297 -0.0238223 -0.073395476 -0.017875144
-0.0462503 -0.010713437 -0.0696707 -0.018114327 -0.11128116 0.01410219 -0.040804803 -0.0028310781

module.encoder.c3.0.weight f4 [32, 64, 3, 3]
00000000: c2e6 e93c f695 77bc 201b 5abb 9079 513d
00000010: 20b0 883c 2f46 5f3d a370 983c a211 e5bb
00000020: 4a43 a63c 0a61 173c 40c7 f43c 2e1f b73b
00000030: 63b5 0a3b 9d51 393d fe08 e4bc 1fb1 4dbc
00000040: c029 1abc 7b87 20bc 2866 803c 6005 0f3d
00000050: ff3f 353d 8cde 4f3d 415f 323c f0e2 d13c
00000060: 707f 683d ada6 7abc 391c 293d 24b5 9f3c
00000070: 2241 173c 4639 b43c 1b9b c63c eb69 4ebb
00000080: 670b 0b3d f711 1dbb 6f00 42bc 1d68 63bc
00000090: 1bee cc3c 6098 18bd 5169 9c3c a7a0 09bc
000000a0: 9d5b 813c 23ef 52ba d98f b5bb bd21 d83c
000000b0: f141 02bd f174 a13c 6c97 bb3b d06f e13c
000000c0: a3fe 05bc f28d 1c3c 7b85 213d 5422 823c
000000d0: 034f bebc 31aa db3b 2d1c ca3c c881 813c
000000e0: d1dc b43c c939 fb3c feab 843c 92b8 7e3c
000000f0: cbe9 ec3a 7d22 31bd 78f7 1b3c 660f 913b
00000100: d3a9 3dbc b24e a83c b8b4 ab3c a76d 353d
00000110: 0f36 653d 5a9d 69bd 137b 12bc 475e 8fbc
00000120: 7d6c b53b cdc3 423d 9f0a 523d 710e dbbc
00000130: b532 5fbd dd11 9abd 978a f43c 9443 393b
00000140: 933d 3e3c 6e5a dc3c 616f 083d f404 353d
00000150: 3398 6c3d b6d4 f93c e94c 083d 8bc0 463c
00000160: 097e ff3c ebb7 253d 8aaa 2bbc 7dad 32bb
00000170: bdc5 7ebc 61a3 23bc 6cab 21bd 106c d2bc
00000180: ac43 9cbc 4818 f8bb 1a53 5d3c ac27 77bc
00000190: 53c1 b63c 7b2f 7d3b d930 12bb 0e30 303d
000001a0: 64c2 023d 2d41 1e3b 5978 1dbd f5ba 9fbc
000001b0: 93bf 86bc e7a8 9e3c db3b 513c 41d0 58bc
000001c0: dd9c 2a3c 9f5c 663d a917 f0bc a1ab 1fbc
000001d0: 452f 893c c9a9 f63c a325 da3b 3ae8 f1bb
000001e0: 3633 9e3c d37a d43b 0b6d 0e3b 6224 05bc
000001f0: b968 0e3d e603 fc3b 3b7c c0bc 5b8e 0b3c
00000200: f26a c13b 200c 07bd 3d82 4dbc 384b a23c
00000210: 9a4e aa3c 6a61 adbc 3d13 0fbd db86 69bc
00000220: c533 a5bc cb64 a2bc 58d5 96bc e005 bdbc
00000230: d764 3abd 079e 0abd 2d6a 40bd 69fe 33bc
00000240: c83c 783c dd98 7d3d 90c4 bdbc b9cf 3f3c
00000250: 4a9b d63c 5667 9e3c e558 fd3c 52e3 c83c
00000260: af67 8dbb 5369 af3c c2d6 a5bc a025 cc3c
00000270: 5c2a b7bb 08a8 fb3c 5192 1a3d a771 11bd
00000280: 1f45 67bb 7635 14bb 6632 1b3b 6924 0738
00000290: 5a07 853b 594c bdbc 1bef d13b 88c1 05bc
000002a0: ffe4 9a3c 4604 19ba b0a1 97bc 896a af3c
000002b0: c3a8 df3b 78f3 753c 8fba 10bd 4b87 b7bc
000002c0: f7d9 bdba 370d 1439 b369 763b ff7e cebc
000002d0: 5f3a 51bd e0c0 b3bc ce6e b1bc 9883 873b
000002e0: f82c 86bc 01eb c33c 5bd2 bbbc 56b6 14bd
000002f0: 115e 06bb 500a 00bd d080 58bc 2f91 4c3c
00000300: f4e9 10bc a8e1 ecbb 237c ec3c 0014 fabb
00000310: 5dfc 04bc 7c6c 333c e4a6 14bc 12e9 b3bb
00000320: 9e3b 55bb 37ef f63b a700 a23d e301 dc3b
00000330: 71b5 f0bb 5146 c53c 7e81 8ebc 24da 393c
00000340: 7fd8 603d fa87 2f3d 8f3c 043c 47c7 79bc
00000350: a3d8 66bd 06a2 9dbb a9fa 8f3c 5e43 b8bc
00000360: 014d a9bc 0fd8 26bc 1b4f 08bd 3bd3 60bc
00000370: b8d2 713b d195 7bbb 7256 343d 0d10 ff3c
00000380: 21b2 933b 5db5 2cbd efa7 d73c 20ef 85bc
00000390: 1f1c 1c3c a7e6 4bbc d21b 94bc c74c 603c
000003a0: 7b22 2b3d fea3 853d 07ed 103d 53dd 33ba
000003b0: a86d c5bc 7c28 b339 66c6 163b 033f e7bb
000003c0: ba7b 8d3c 68f0 d3bc af89 133d 14cf 0dbb
000003d0: ecb3 893c 6b61 9c3b 9952 033c 09f9 6e3c
000003e0: 3610 d8bb df61 86bd 6645 11bd e295 8cbd
000003f0: 0e37 bbbc 1bae cbbc b20b 13bd fd50 0dbc
0.028552417 -0.015111437 -0.0033280328 0.05114132 0.016685545 0.05451029 0.018608397 -0.0069906274
0.020295758 0.0092394445 0.029880166 0.0055884337 0.0021165244 0.045243848 -0.027836319 -0.012554436
-0.009409368 -0.009797926 0.015673712 0.034917235 0.044250485 0.050749347 0.010886968 0.025620908
0.05676216 -0.015298528 0.04128668 0.019495554 0.0092318375 0.021999966 0.024243882 -0.0031496237
0.03394642 -0.0023967007 -0.011840924 -0.013879803 0.025015881 -0.03725469 0.019093188 -0.008400119
0.015790755 -0.00080464984 -0.0055408296 0.026383275 -0.031801168 0.019709082 0.005724838 0.027519137
-0.008178386 0.009555327 0.039433938 0.01588551 -0.023231035 0.006703638 0.024671638 0.015808955
0.02207795 0.030667203 0.016195294 0.015546935 0.0018075047 -0.04324578 0.00951945 0.0044268845
-0.011576134 0.020545337 0.020960197 0.044294026 0.055959757 -0.057034828 -0.008940476 -0.01750101
0.0055366145 0.04755001 0.05127966 -0.026740285 -0.054491717 -0.075229384 0.029851241 0.002826904
0.01161136 0.026898589 0.033309344 0.044194177 0.057762336 0.030496936 0.033276472 0.012130867
0.031188028 0.0404586 -0.010477671 -0.0027264052 -0.015550074 -0.009987683 -0.03947012 -0.025686294
-0.019075237 -0.007571254 0.0135085825 -0.015085142 0.022308981 0.0038633037 -0.0022306948 0.04301458
0.031923667 0.0024147735 -0.03844485 -0.019498328 -0.016448772 0.019367648 0.012770618 -0.013233245
0.010413376 0.056240674 -0.029308157 -0.009745509 0.016746173 0.030110257 0.0066573187 -0.00738242
0.019311529 0.0064843684 0.0021732475 -0.00812635 0.03476784 0.0076908944 -0.023496738 0.008517827
0.0059026415 -0.032970548 -0.012543258 0.019811258 0.020789433 -0.021164615 -0.034930456 -0.014253343
-0.020166287 -0.019823452 -0.018412277 -0.02307409 -0.045506325 -0.033842113 -0.046976257 -0.010985949
0.01515121 0.06191336 -0.023165017 0.01170724 0.026197094 0.019336384 0.030926177 0.024522457
-0.0043153386 0.021412527 -0.020244006 0.024920285 -0.0055897664 0.030719772 0.037737194 -0.035508778
-0.0035289002 -0.0022614873 0.0023681163 3.2220418e-05 0.0040597143 -0.023107694 0.0064066774 -0.008163817
0.018908022 -0.00058371236 -0.018509716 0.021413105 0.006825538 0.015011661 -0.035334166 -0.02240338
-0.0014484514 0.00014119303 0.0037599623 -0.02520704 -0.051081058 -0.021942556 -0.021659281 0.0041355602
-0.016378865 0.02391577 -0.022927454 -0.0363067 -0.0020502845 -0.031259835 -0.013214305 0.012485786
-0.008844841 -0.0072290488 0.028867787 -0.0076317787 -0.008116809 0.010951158 -0.009072993 -0.0054904306
-0.0032536755 0.007535841 0.07910281 0.006714092 -0.0073458483 0.024081381 -0.017395731 0.011343513
0.054893967 0.042854287 0.008071079 -0.015245265 -0.056358945 -0.0048105745 0.017575579 -0.02249306
-0.020666601 -0.010183348 -0.033278566 -0.013722236 0.003689928 -0.0038388858 0.044027753 0.031135583
0.0045073186 -0.04216515 0.026325194 -0.016349375 0.009528189 -0.0124451285 -0.018079672 0.01369018
0.04178093 0.0652542 0.035382297 -0.0006861288 -0.02410014 0.00034171704 0.0023006438 -0.007057072
0.017270911 -0.02587147 0.036019977 -0.002163832 0.016809426 0.0047723553 0.008015298 0.014585742
-0.0065937294 -0.06561636 -0.035466574 -0.068645254 -0.0228534 -0.024863293 -0.035899825 -0.008625266

module.encoder.c3.0.bias f4 [32]
00000000: c5c9 e9b5 3c20 6936 118a 0436 69d9 c9b5
00000010: da07 3db5 985c ac34 dac2 dc36 7625 5cb5
00000020: 522e 15b5 195b b3b5 a43e 3b36 7df0 4db6
00000030: 53bc 9cb5 b186 cab4 7905 d836 ce2c 1736
00000040: bb38 32b6 6d71 9937 8bcb 62b5 11d4 5334
00000050: bb1f 32b7 a167 5836 c743 54b6 3712 d134
00000060: 698d e2b6 060d 39b6 f323 0037 9558 3536
00000070: a755 9736 f8a8 4536 198d 4cb6 4825 e635
-1.7418575e-06 3.4738468e-06 1.9749898e-06 -1.5038942e-06 -7.041941e-07 3.2104867e-07 6.5791946e-06 -8.20109e-07
-5.557423e-07 -1.3363052e-06 2.7901633e-06 -3.0687363e-06 -1.1677715e-06 -3.7723433e-07 6.4379387e-06 2.2526833e-06
-2.6557088e-06 1.829184e-05 -8.4487755e-07 1.9728056e-07 -1.0617015e-05 3.2246828e-06 -3.1629913e-06 3.8942537e-07
-6.751787e-06 -2.7574729e-06 7.637765e-06 2.7022663e-06 4.510122e-06 2.945364e-06 -3.0480498e-06 1.7147186e-06

module.encoder.c3.1.weight f4 [32]
00000000: d36c 883f ce88 893f daaf 813f 0078 873f
00000010: 4e29 803f f165 8a3f 9df6 823f 1feb 863f
00000020: a4a5 823f 1b23 803f 9d57 7f3f 8890 7e3f
00000030: 9274 833f e534 823f 3d10 823f 3bc2 8b3f
00000040: d076 a03f 5633 8b3f 4eab 833f 7264 9a3f
00000050: 5c4c 923f bb51 843f 04fc 853f 69a6 813f
00000060: 6b89 903f e2b6 973f 3b4f 8c3f 2222 883f
00000070: 9dc4 833f d8d7 803f 2715 883f 2ce1 803f
1.065821 1.0744874 1.0131791 1.0583496 1.0012605 1.081236 1.023151 1.0540503
1.02068 1.0010713 0.9974306 0.9943929 1.026995 1.0172392 1.0161206 1.091865
1.2536259 1.0875041 1.0286653 1.2061903 1.1429553 1.0337442 1.0467534 1.0128909
1.1291937 1.1852686 1.0961679 1.0635417 1.0294377 1.006587 1.0631455 1.0068717

module.encoder.c3.1.bias f4 [32]
00000000: c62b 02bc 5ec8 f13d 3188 e8bc 78c2 ff3c
00000010: d22c 9b3c fc09 87bc f580 09bc 9604 1cbd
00000020: f199 65bd 78dc 553d 8513 123c b8ff 183d
00000030: 15f9 d5bc 210d bebc 7d4a c63d 0a6f 9ebd
00000040: e931 4abd b358 5a3d f5cc 9b3d 8869 e7bd
00000050: 4ef0 143d e60c ad3c 1043 7fbd 5ebb ba3b
00000060: eb6b a1bd aa11 923d 8fad bfbb d38a 803d
00000070: 9395 80bd 765a 3d3c 82a3 95bd bf2a 913c
-0.007945007 0.11805795 -0.028385254 0.03122066 0.01894227 -0.016484253 -0.008392562 -0.03809031
-0.056055013 0.05221221 0.008915787 0.037353247 -0.026119748 -0.02319962 0.09682176 -0.07736023
-0.049364004 0.053307246 0.07607452 -0.11299425 0.036361985 0.021124315 -0.062319815 0.0056986054
-0.07881912 0.071322754 -0.005849547 0.062764786 -0.06278529 0.011557212 -0.07306577 0.017720578

module.encoder.c3.1.running_mean f4 [32]
00000000: 7d9c 313f 0dea 86be 0680 473e f05e babd
00000010: ca8c fabe 5d4d b7be 68e1 02be 56b3 4b3e
00000020: ba19 173f c716 a9be 072d 803e 3a60 c13d
00000030: 75eb 0e3f 2c26 4e3e b0a4 16be 6ad6 95be
00000040: bd90 c4bd ea05 36be f48a ff3d e72d 0c3f
00000050: ec35 323f b50e 7abc 4a87 c4bd 669c b5be
00000060: f4ff 1fbf e38e c93e 9351 9cbf 6554 223f
00000070: 8516 b53e cbb3 d73e 0b8e fcbe 6910 d7bd
0.6937941 -0.26350442 0.19482431 -0.09100139 -0.4893554 -0.3580121 -0.12781298 0.1989263
0.5902363 -0.3302519 0.25034353 0.09442182 0.5582803 0.20131749 -0.14711261 -0.29265147
-0.09597919 -0.17775694 0.12477675 0.5475754 0.6961353 -0.0152622955 -0.09596117 -0.35470885
-0.6249993 0.39366826 -1.2212394 0.63410026 0.35368744 0.4212936 -0.4932712 -0.10501177
