logs/exp4/model_iters_5000.pth (torch, 495325 bytes, 47 tensors)

module.encoder.c1.main.0.weight f4 [32, 3, 3, 3]
-0.012228008 0.032092795 -0.013238047 0.002049548 0.060354102 -0.023039395 0.0037420976 0.07881159
0.024063136 0.0076606064 0.00491251 -0.01837224 -0.0060613775 -0.004105629 0.00678357 0.013236102
-0.005337391 0.0071557933 -0.0035631275 -0.011456883 0.0046712407 0.033056367 0.013072744 -0.030795714
-0.018205853 0.01184042 -0.004796219 -0.02450476 -0.047059204 0.019800764 -0.01957252 0.011150932
-0.012609658 -0.018453998 0.08477998 0.019097516 -0.0098517975 0.003423221 0.019838614 -0.010870477
-0.0063223448 -0.011801632 0.0043087695 0.015661785 -7.885625e-05 -0.02744175 0.011641261 -0.021730013
-0.0003936458 -0.023297288 0.006898105 -0.0013688512 0.0001285644 0.00045535862 0.0061644656 -0.031010346
0.018727362 -0.0017005339 -0.0038373077 0.067051925 0.021152023 0.035300016 0.053155325 -0.008433614
0.00035090503 0.01968896 0.0067929877 0.017662065 -0.020014424 0.021699049 -0.008158209 -0.0048178383
0.011844639 -0.028706908 -0.011695518 -0.0043870346 0.0038898464 0.02924335 -0.01669617 0.014965029
0.013736052 -0.022351697 -0.021107595 0.00915433 0.018289482 0.010366617 -0.012567483 -0.0023243707
0.0007941651 -0.01338792 0.0044467715 -0.003960321 0.017285654 0.015310811 -0.012428766 0.018509405
0.004587546 -0.0056258473 -0.024137521 0.0037561154 -0.0142348595 -0.05299781 0.015424531 -0.03670515
-0.056552865 -0.02124827 -0.033529073 -0.08534153 0.017865982 0.021413371 0.008595052 0.076269574
0.0013594627 0.005169668 0.033168998 0.021769485 -0.014423841 0.06116775 -0.010313511 0.031947292
0.017860416 -0.001077547 0.0074555674 -0.027454214 0.01009156 -0.015291315 0.009633509 0.009779217
-0.015453726 0.0509612 0.007400787 -0.021499546 -0.05049121 0.009365517 -0.052394796 -0.018013975
-0.019822786 -0.035567198 -0.018278629 0.012263412 0.008268007 -0.02058061 -0.0081881555 0.02681001
-0.0025432731 -0.016142586 -0.0712992 0.028987674 -0.02080127 0.0027998283 0.029725183 0.04175006
-0.0029569094 -0.011232721 0.024339776 -0.026714453 -0.0057319747 0.00825217 -0.011209574 -0.0067724264
0.02557245 -0.01983786 -0.013232818 0.018654766 -0.005413208 -0.012814412 -0.029880933 -0.04616051
0.005785387 -0.015052946 -0.0060670073 -0.024727076 0.0033803135 0.009222352 0.032355014 0.0056945453
0.014021964 0.0008783587 0.018984756 -0.012495891 -0.0092396755 -0.008098756 -0.013465411 -0.030883038
-0.06647694 0.030332888 -0.030940568 -0.014882944 -0.04496705 0.02624259 -0.016115185 0.0031627878
0.032652937 -0.07923288 -0.009554677 0.020826593 -0.010023175 0.015453933 0.00014198401 0.0016403926
-0.005497935 -0.0038333805 -0.046056632 -0.0031931566 0.035749022 0.00848475 0.01212842 0.02104092
0.030429754 0.004660096 -0.019485487 -0.00022075672 0.01539385 -0.0058541177 -0.022480212 -0.0028003342
-0.015889972 0.014599446 0.02918395 0.02577509 0.00067245495 -0.006952383 -0.022371555 0.0162733
-0.030772246 -0.017528575 -0.011590477 0.021340378 0.029467795 0.014094973 -0.026525153 -0.020849194
0.024159538 -0.006010052 -0.05023272 -0.04003946 -0.07057581 -0.047109697 -0.057817616 -0.04891263
-0.032169383 -0.019326344 -0.00819768 -0.014970698 -0.029812159 -0.016826179 0.0048965937 0.014565405
0.005085612 -0.026722927 0.00402929 -0.024713194 -0.016415276 0.0062840716 -0.00059808634 0.025290787
00000000: fc57 48bc bc73 033d 65e4 58bc b651 063b
00000010: dd35 773d 1dbd bcbc fb3d 753b f967 a13d
00000020: 0e20 c53c d305 fb3b 1ff9 a03b 6181 96bc
00000030: 859e c6bb 8388 86bb b648 de3b 3cdc 583c
00000040: 48e5 aebb 257b ea3b 5c83 69bb a6b5 3bbc
00000050: 3511 993b 1d66 073d 102f 563c 4b47 fcbc
00000060: 7124 95bc 52fe 413c 9a29 9dbb 35be c8bc
00000070: 27c1 40bd 3635 a23c 8d56 a0bc 66b2 363c
00000080: bd98 4ebc d72c 97bc 20a1 ad3d 6572 9c3c
00000090: 6f69 21bc 1e58 603b 9784 a23c 161a 32bc
000000a0: ac2b cfbb a25b 41bc 9430 8d3b 254d 803c
000000b0: a05f a5b8 85cd e0bc fdba 3e3c 2403 b2bc
000000c0: 3f62 ceb9 f4d9 bebc 8009 e23b 066b b3ba
000000d0: 3ecf 0639 33bd ee39 49ff c93b 6909 febc
000000e0: 206a 993c 73e4 deba 577b 7bbb 8552 893d
000000f0: 0247 ad3c c096 103d 66b9 593d 242d 0abc
00000100: adf9 b739 be4a a13c b697 de3b 09b0 903c
00000110: 4af5 a3bc 34c2 b13c 02aa 05bc f5de 9dbb
00000120: 0410 423c c02a ebbc 8f9e 3fbc 1dc1 8fbb
00000130: cbec 7e3b c08f ef3c 68c6 88bc e22f 753c
00000140: 2e0d 613c e81a b7bc d6e9 acbc 0bfc 153c
00000150: d3d3 953c bed8 293c d8e7 4dbc 7854 18bb
00000160: 852f 503a 0259 5bbc 39b6 913b 95c5 81bb
00000170: a59a 8d3c 32da 7a3c 06a2 4bbc 09a1 973c
00000180: 2053 963b 0759 b8bb 0dbc c5bc 2929 763b
00000190: 5439 69bc 3b14 59bd 2cb7 7c3c 2458 16bd
000001a0: faa3 67bd da10 aebc c855 09bd 8ac7 aebd
000001b0: ae5b 923c 186b af3c 43d2 0c3c 3933 9c3d
000001c0: 0030 b23a 5166 a93b 37dc 073d eb55 b23c
000001d0: f951 6cbc 098b 7a3d 00fa 28bc 2adb 023d
000001e0: 0250 923c 7a3c 8dba d54d f43b a9e7 e0bc
000001f0: 1257 253c 6c88 7abc ded5 1d3c 0239 203c
00000200: a031 7dbc b1bc 503d 4d82 f23b d11f b0bc
00000210: dfcf 4ebd d371 193c ed9b 56bd 0b92 93bc
00000220: 6563 a2bc e9ae 11bd 10bd 95bc 7aec 483c
00000230: 8976 073c ab98 a8bc 9d27 06bc aba0 db3c
00000240: 0bad 26bb 753d 84bc 5105 92bd 8f77 ed3c
00000250: 6d67 aabc 537d 373b 3a82 f33c 1c02 2b3d
00000260: b5c8 41bb 7209 38bc 3664 c73c 45d8 dabc
00000270: 4ad3 bbbb 1c34 073c 5ca8 37bc 3beb ddbb
00000280: 517d d13c 0283 a2bc 76ce 58bc e1d1 983c
00000290: 4861 b1bb 8af3 51bc dcc8 f4bc ce12 3dbd
000002a0: 5893 bd3b a2a0 76bc bfcd c6bb 7090 cabc
000002b0: 4088 5d3b 5919 173c b186 043d 4f99 ba3b
000002c0: 61bc 653c a841 663a eb85 9b3c 91bb 4cbc
000002d0: 0262 17bc a5b0 04bc 079e 5cbc 6dfe fcbc
000002e0: 1025 88bd ad7c f83c 1377 fdbc 97d7 73bc
000002f0: 5f2f 38bd b3fa d63c fe03 84bc c646 4f3b
00000300: 16bf 053d d944 a2bd 388b 1cbc 889c aa3c
00000310: 3e38 24bc 7e32 7d3c 8be1 1439 7102 d73a
00000320: 0628 b4bb 7439 7bbb e1a5 3cbd 4744 51bb
00000330: 916d 123d 9f03 0b3c 48b6 463c 025e ac3c
00000340: d247 f93c b8b3 983b 07a0 9fbc ee7a 67b9
00000350: 7d36 7c3c e6d3 bfbb 6c28 b8bc d085 37bb
00000360: b02b 82bc 8432 6f3c 2e13 ef3c 4826 d33c
00000370: b047 303a d1d0 e3bb 8d44 b7bc 954f 853c
00000380: 1416 fcbc 1698 8fbc fce5 3dbc 04d2 ae3c
00000390: 7266 f13c 9aee 663c 474b d9bc eecb aabc
000003a0: 39ea c53c f8ef c4bb d3c0 4dbd 6b00 24bd
000003b0: 0d8a 90bd 19f6 40bd 2ad2 6cbd 9c58 48bd
000003c0: 0bc4 03bd 4852 9ebc 904f 06bc a947 75bc
000003d0: a138 f4bc 0ed7 89bc 9b73 a03b bda3 6e3c
000003e0: 35a5 a63b 0aea dabc 2208 843b 5373 cabc
000003f0: 5479 86bc 9dea cd3b e5c8 1cba a02e cf3c

module.encoder.c1.main.0.bias f4 [32]
-0.0006774663 0.0033729526 -0.0006896306 0.0004070134 6.645613e-05 9.047176e-05 -0.0004895995 0.00051659945
0.0010027318 -4.5710196e-05 -0.000304097 -0.0021124894 -0.0010226353 0.0006982069 0.00032903242 -0.0010059606
-0.00053309347 -0.00043941636 -0.0020724856 5.6366793e-05 -3.0645744e-05 0.0009400673 -0.00096865324 -0.0006771656
1.2980955e-06 0.00011734589 0.0009287355 -0.0010865413 -0.00084390974 -4.543194e-05 0.00045623977 -2.0753743e-05
00000000: fe97 31ba c10c 5d3b 53c8 34ba 6a64 d539
00000010: 5d5e 8b38 a8bb bd38 7758 00ba 676c 073a
00000020: 196e 833a f3b8 3fb8 356f 9fb9 b171 0abb
00000030: f209 86ba df07 373a fc81 ac39 70da 83ba
00000040: 4cbf 0bba 7761 e6b9 8ad2 07bb 626b 6c38
00000050: 9e89 00b8 d96e 763a 38ed 7dba d083 31ba
00000060: 393a ae35 9817 f638 6276 733a 476a 8eba
00000070: d339 5dba 2d8e 3eb8 7733 ef39 5318 aeb7

module.encoder.c1.main.1.weight f4 [32]
1.0075022 1.0090836 1.0202005 0.9736069 1.0159243 1.0072936 0.99100506 1.0349565
1.0054417 0.9900837 0.9900978 0.9752206 1.0235639 0.9223736 1.034221 1.0258236
0.9657169 1.0130734 0.99555016 1.0024892 1.0047716 1.0410388 1.0246631 0.98411393
0.97457165 0.9837446 1.016557 1.0318636 0.9780585 0.96799487 0.9686204 1.0265888
00000000: d5f5 803f a729 813f ee95 823f 4d3e 793f
00000010: cf09 823f ffee 803f 82b2 7d3f 7479 843f
00000020: 50b2 803f 2076 7d3f 0d77 7d3f 0fa8 793f
00000030: 2404 833f ad20 6c3f 5b61 843f 304e 833f
00000040: 3939 773f 64ac 813f 60dc 7e3f 9151 803f
00000050: 5b9c 803f c240 853f 2928 833f e4ee 7b3f
00000060: 877d 793f b0d6 7b3f 8a1e 823f 1b14 843f
00000070: 0b62 7a3f 83ce 773f 82f7 773f 4367 833f

module.encoder.c1.main.1.bias f4 [32]
-0.0012270353 -0.0008691243 -0.0512489 -0.09202086 0.0065906164 0.021600183 -0.008361339 0.029087879
-0.08372548 -0.10350613 -0.0063722306 0.037419606 0.029887406 0.01934803 0.0372497 0.07661631
-0.0010654201 0.070695095 0.018402819 -0.006918081 -0.011336151 0.030089967 0.025870208 0.0007887077
0.037903372 -0.002462601 -0.033527277 0.041271593 -0.056232624 -0.06074699 -0.08047704 0.0018509373
00000000: 79d4 a0ba f2d5 63ba 5eea 51bd 6f75 bcbd
00000010: 19f6 d73b def2 b03c fffd 08bc b449 ee3c
00000020: 4478 abbd 06fb d3bd 25ce d0bb 4d45 193d
00000030: 6fd6 f43c c37f 9e3c 2493 183d 03e9 9c3d
00000040: 91a5 8bba 97c8 903d 82c1 963c 12b1 e2bb
00000050: 43bb 39bc 3c7f f63c c2ed d33c 47c1 4e3a
00000060: 9140 1b3d 9763 21bb e653 09bd 670c 293d
00000070: 2e54 66bd d6d1 78bd 25d1 a4bd 269b f23a

module.encoder.c1.main.3.weight f4 [32, 32, 3, 3]
0.004429744 -0.021975959 -0.054735202 -0.0018612287 -0.02724361 -0.013765051 0.055841852 0.002629567
-0.06392258 0.009366895 0.03368792 0.015671989 -0.021959884 0.02537092 0.00023053162 -0.0059570028
-0.0034428034 -0.013281233 -0.059798416 -0.015951911 0.007298666 -0.052896656 -0.00937801 -0.0017329502
0.0039414875 -0.02409713 0.025729476 -0.0036893329 -0.0026293134 0.009308981 -0.029393554 -0.043065928
0.027545713 -0.011539003 0.008485297 -0.014084696 0.03158189 -0.014605753 -0.013702958 0.018417075
-0.01799918 0.0122017 0.022258582 -0.014589734 -0.0003609166 0.015215747 0.055792723 0.029795919
0.009166643 0.009301076 -0.01744063 0.00017799009 -0.0019836235 0.023443392 -0.0053331493 0.003154774
0.014171318 -0.0056144125 0.006175595 -0.016510392 0.03682508 0.0012447585 0.011871747 0.019532658
0.024284696 0.03380824 -0.042174336 -0.021322453 -0.056446403 -0.033684168 0.0011970939 0.016056282
-0.0035762978 0.0024843507 0.0027319037 0.014210623 -0.016590983 0.00023620117 -0.016946435 0.012618538
0.010659974 0.0040192115 0.019186873 0.011994376 0.0011345156 -0.021793606 0.0043655992 -0.0054717213
-0.009912237 0.006461611 -0.058265503 0.002997528 0.00063147995 -0.02392774 -0.032239154 0.0021119134
-0.027651766 -0.0121424645 0.001943463 -0.010873056 0.018257212 0.027498655 0.004348447 -0.0078965435
-0.007002637 0.0022989132 -0.014649783 -0.016575938 -0.019567888 -0.04679466 -0.0028330535 0.03772022
-0.015509896 -0.019933103 -0.034829255 -0.02815822 -0.04516415 0.0047461484 0.030414267 0.007919961
0.016439656 0.010400006 -0.0007652202 0.0037953793 0.00076198677 0.008151786 -0.00033538888 0.014666882
-0.020584526 -0.025053417 0.012638784 -0.028893046 -0.032253854 -0.021446232 -0.04575401 0.009536593
-0.02502885 0.028475832 -0.0054876143 -0.020668628 -0.048085548 -0.00078419416 0.010759286 -0.034166396
-0.017203342 -0.031651005 -0.012213904 0.027854135 0.019017048 0.019876527 -0.0039293757 -0.012473106
-0.018381543 0.0053310413 0.018876802 0.010670167 0.001436571 0.0371668 0.017259654 -0.025582861
-0.030099466 -0.063361794 -0.020237422 0.0088881375 -0.025032785 0.013700607 0.00075390923 0.023306414
0.034146227 0.010024162 0.026563372 0.010149398 -0.019720763 -0.0146563575 -0.062221996 -0.0035818587
-0.016028112 -0.045177042 -0.008728457 -0.007957365 -0.027594332 -0.007593134 -0.012213737 -0.00014291352
0.011496968 -0.019417917 -0.011319127 -0.03343311 0.012344713 0.0008655767 0.009726725 -0.023710819
-0.015725445 0.024977537 0.032470345 0.010052782 -0.020118004 0.0045110746 0.033684842 -0.03256681
-0.020514304 0.052563928 -0.017465519 -0.067049585 -0.023771888 -0.03668663 -0.023223523 -0.0150397895
0.0035805248 -0.02538061 -0.02395052 0.00715821 -0.006836443 -0.0062489524 -0.0019126759 -0.030244226
0.02535587 0.012641093 -0.0055880197 -0.027255896 -0.0032568828 -0.013306387 0.0038738183 -0.0053683114
0.010340182 -0.00022830078 0.037704024 0.0005074894 -0.012907465 -0.012570124 -0.029319476 0.01882172
0.0051050456 -0.0028156533 0.04623324 -0.020225799 0.016693853 -0.007099018 -0.012573273 -0.043176915
0.018828087 0.00815326 0.02092827 -0.0099926675 -0.036535416 0.009053548 -0.008541938 -0.052428454
0.020095741 0.007118785 -0.019393573 0.0039683627 -0.008501042 0.027950084 0.016066922 0.020086387
00000000: 6327 913b ed06 b4bc 0532 60bd 79f4 f3ba
00000010: fe2d dfbc cf86 61bc 6dba 643d d054 2c3b
00000020: d7e9 82bd 9b77 193c 58fc 093d 8b62 803c
00000030: 37e5 b3bc add6 cf3c dcba 7139 f632 c3bb
00000040: a8a0 61bb 8799 59bc 2fef 74bd 95ad 82bc
00000050: a629 ef3b 2aaa 58bd 3aa6 19bc 2924 e3ba
00000060: 9827 813b 5867 c5bc 9fc6 d23c bcc8 71bb
00000070: 8f50 2cbb b284 183c c0ca f0bc e665 30bd
00000080: 8ca7 e13c 160e 3dbc ea05 0b3c 7fc3 66bc
00000090: 035c 013d f84c 6fbc 5f82 60bc 68df 963c
000000a0: 0473 93bc a4e9 473c a157 b63c c809 6fbc
000000b0: 6839 bdb9 784b 793c e986 643d 9216 f43c
000000c0: b02f 163c 8a63 183c a7df 8ebc daa2 3a39
000000d0: aeff 01bb 5b0c c03c b3c1 aebb 53c0 4e3b
000000e0: d12e 683c 1bf9 b7bb a55c ca3b cd40 87bc
000000f0: e5d5 163d 2a27 a33a b781 423c f402 a03c
00000100: b3f0 c63c 827a 0a3d ffbe 2cbd 6dac aebc
00000110: 5834 67bd 69f8 09bd cee7 9c3a 7788 833c
00000120: 5260 6abb 7dd0 223b bd09 333b acd3 683c
00000130: d0e9 87bc c5ac 7739 40d3 8abc fcbd 4e3c
00000140: 2ca7 2e3c 97b3 833b ca2d 9d3c 0f84 443c
00000150: 07b4 943a 8188 b2bc 4d0d 8f3b 204c b3bb
00000160: ef66 22bc ecbb d33b cfa7 6ebd 2d72 443b
00000170: e789 253a 1c04 c4bc 340d 04bd 0768 0a3b
00000180: f585 e2bc 30f1 46bc ccbb fe3a e724 32bc
00000190: 2690 953c dc44 e13c 6b7d 8e3b 8160 01bc
000001a0: 6076 e5bb 5da9 163b a505 70bc 43ca 87bc
000001b0: d64c a0bc c2ab 3fbd c0aa 39bb 8480 1a3d
000001c0: 381d 7ebc bf4a a3bc 1fa9 0ebd 11ac e6bc
000001d0: 0bfe 38bd 9485 9b3b 5727 f93c b9c2 013c
000001e0: 75ac 863c c964 2a3c 0f99 48ba e6bb 783b
000001f0: 11c0 473a 128f 053c 22d7 afb9 5d4d 703c
00000200: e1a0 a8bc d33c cdbc e712 4f3c 1cb1 ecbc
00000210: 9e1c 04bd 02b0 afbc 8f68 3bbd 5f3f 1c3c
00000220: 4e09 cdbc 2646 e93c 72d1 b3bb 4151 a9bc
00000230: 5af5 44bd 6192 4dba b747 303c 10f2 0bbd
00000240: 06ee 8cbc 7ca4 01bd d41c 48bc 5b2e e43c
00000250: a4c9 9b3c 19d4 a23c fec1 80bb 005c 4cbc
00000260: e494 96bc 04b0 ae3b 86a3 9a3c edd1 2e3c
00000270: 534b bc3a 373c 183d 1e64 8d3c 2693 d1bc
00000280: 2893 f6bc d4c3 81bd f3c8 a5bc 8d9f 113c
00000290: 8e11 cdbc 8378 603c fea1 453a 18ed be3c
000002a0: eadc 0b3d 623c 243c 6e9b d93c a949 263c
000002b0: 708d a1bc 3821 70bc 7edc 7ebd 9ebd 6abb
000002c0: 634d 83bc 900b 39bd cd01 0fbc 9c5f 02bc
000002d0: 820d e2bc d3cf f8bb 201c 48bc 0edb 15b9
000002e0: c75d 3c3c 5312 9fbc dc73 39bc 28f1 08bd
000002f0: 7b41 4a3c dee7 623a d75c 1f3c 313d c2bc
00000300: a6d2 80bc b19d cc3c a0ff 043d 6cb4 243c
00000310: 83ce a4bc a3d1 933b 1ef9 093d c664 05bd
00000320: 9d0d a8bc 464d 573d d913 8fbc 4b51 89bd
00000330: 43bd c2bc b844 16bd 423f bebc 7369 76bc
00000340: 3da7 6a3b ffea cfbc e233 c4bc 6b8f ea3b
00000350: 3e04 e0bb 03c4 ccbb c1b2 faba bdc2 f7bc
00000360: 1db7 cf3c 961c 4f3c b51b b7bb c247 dfbc
00000370: 6d71 55bb 0803 5abc e3df 7d3b a9e8 afbb
00000380: de69 293c 0664 6fb9 896f 1a3d 0a09 053a
00000390: d579 53bc ecf2 4dbc 662f f0bc 0230 9a3c
000003a0: 3a48 a73b d386 38bb 115f 3d3d 93b0 a5bc
000003b0: 8cc1 883c e19e e8bb 2100 4ebc 47da 30bd
000003c0: 5c3d 9a3c 4095 053c c371 ab3c 49b8 23bc
000003d0: 29a6 15bd 5555 143c 7cf3 0bbc 38bf 56bd
000003e0: d39f a43c b244 e93b 45df 9ebc 0a09 823b
000003f0: f447 0bbc 93f7 e43c c79e 833c 358c a43c

module.encoder.c1.main.3.bias f4 [32]
-7.535214e-05 -8.170106e-07 1.0902774e-05 3.6475285e-05 3.6574147e-06 9.901921e-06 1.8963161e-05 -4.4250075e-05
1.0078524e-05 5.2093714e-05 5.7353885e-05 -1.50913875e-05 -6.427211e-06 -8.998827e-05 0.00013753564 7.891001e-06
-0.00024133998 0.00013761071 4.9021153e-05 -1.9334284e-05 -2.093837e-05 0.00019711688 -0.00020211183 -4.8883103e-05
-2.807947e-05 2.328995e-05 2.5616719e-06 4.378907e-05 -1.1918946e-05 -3.4239416e-05 -1.7822136e-05 -2.7777469e-06
00000000: 5f06 9eb8 8a50 5bb5 0feb 3637 0afd 1838
00000010: e871 7536 6d20 2637 1413 9f37 2899 39b8
00000020: ee16 2937 337f 5a38 448f 7038 0431 7db7
00000030: 52a9 d7b6 16b8 bcb8 7137 1039 9763 0437
00000040: 3510 7db9 984b 1039 109c 4d38 0f30 a2b7
00000050: cfa4 afb7 29b1 4e39 fbed 53b9 d507 4db8
00000060: 348c ebb7 c95e c337 30e9 2b36 28aa 3738
00000070: 7cf7 47b7 4b9c 0fb8 bf80 95b7 5469 3ab6

module.encoder.c1.main.4.weight f4 [32]
0.9736527 0.9792294 0.9807929 0.99097323 0.98091894 0.9995645 0.98049444 0.97171193
1.0045822 0.9845696 0.97088 0.99779874 0.988039 0.96411663 1.0010139 0.9760747
0.9969191 0.98790663 0.99456424 0.9760213 0.98003286 0.995671 0.9995073 0.9908904
0.97587377 0.9865483 0.9995884 0.98757017 0.98413384 0.9693059 0.9679602 0.97487086
00000000: 4e41 793f c7ae 7a3f 3e15 7b3f 6cb0 7d3f
00000010: 811d 7b3f 76e3 7f3f af01 7b3f 1dc2 783f
00000020: 2696 803f c10c 7c3f 978b 783f bd6f 7f3f
00000030: 20f0 7c3f 59d0 763f 3921 803f 08e0 793f
00000040: 1736 7f3f 73e7 7c3f c39b 7e3f 88dc 793f
00000050: 6fe3 7a3f 4be4 7e3f b6df 7f3f feaa 7d3f
00000060: ddd2 793f 6e8e 7c3f 06e5 7f3f 66d1 7c3f
00000070: 32f0 7b3f 6e24 783f 3dcc 773f 2391 793f

module.encoder.c1.main.4.bias f4 [32]
0.044899207 -0.0008943393 0.016741633 0.040655464 0.04329336 0.06003931 -0.033143174 -0.038816396
0.049623787 -0.046641298 0.011494843 0.032495853 -0.020120295 -0.040840484 0.026102103 0.032007586
-0.008915369 0.024921391 -0.012882441 0.010433992 0.021636587 0.023735162 -0.033570103 0.05031323
0.042715322 0.03022465 0.04471152 -0.0018221327 -0.049852632 -0.020389901 0.01047657 -0.03750605
00000000: 3be8 373d 1872 6aba c025 893c 5886 263d
00000010: 6154 313d c8eb 753d 23c1 07bd f1fd 1ebd
00000020: 5042 4b3d f20a 3fbd de54 3c3c 5f1a 053d
00000030: 51d3 a4bc 5a48 27bd 14d4 d53c 631a 033d
00000040: c511 12bc f227 cc3c e010 53bc 56f3 2a3c
00000050: 363f b13c 3e70 c23c ce80 09bd 3f15 4e3d
00000060: 43f6 2e3d af99 f73c 6d23 373d a1d4 eeba
00000070: 4632 4cbd b908 a7bc eba5 2b3c f29f 19bd

module.encoder.c2.main.0.weight f4 [64, 32, 3, 3]
-0.004938317 -0.015982317 0.017262379 0.016384669 -0.0149122905 0.011602515 -0.027984135 0.056028865
0.01610595 0.013839236 0.003712772 0.005004484 -0.027126072 -0.047475148 -0.024500778 -0.0014274252
-0.0049313875 -0.010637809 0.007973681 -0.0077863033 -0.012188881 -0.02975849 -0.0004448948 -0.00035487267
-0.032723557 0.008198023 0.010129696 -0.02874554 -0.01533727 0.00043495768 0.00969651 -0.04683163
-0.010430782 -0.021194126 0.04589376 -0.002899572 -0.007974217 -0.039794505 0.0018348524 -0.016197726
-0.0150034055 0.03547032 -0.020057477 -0.019635951 -7.75782e-05 0.019432077 -0.0015232239 -0.006996957
-0.020849748 -0.0010394448 0.0042051426 -0.017095465 0.033719376 -0.026984101 -0.0065160543 -0.015059283
-0.018918734 -0.011394059 -0.0097443145 -0.014961963 -0.010367706 -0.023920186 -0.0062376605 0.022817148
-0.030911732 -0.0063282107 -0.024097566 -0.015583888 0.011606645 0.046807487 0.037826546 0.010474602
-0.009570687 -0.043524757 0.030473862 0.040984772 -0.00028538157 6.0134218e-05 0.038230594 0.01908161
0.0055332254 0.05517078 0.036960613 0.04524574 0.00565578 -0.033031628 0.033017013 0.0058134506
-0.009975264 0.027345993 -0.029791802 -0.061528582 -0.012529603 0.03948892 -0.01704994 0.006933582
0.045588646 -0.010563593 -0.0036429337 0.0040683853 0.01943437 -0.02698412 0.016767107 0.0051233866
-0.010040077 -0.02221622 -0.0008802298 -0.0014685513 0.052689373 0.021103151 0.01828817 0.0336866
-0.0045374474 0.010529095 0.033243693 0.038759824 0.051746074 -0.007751682 -0.027671438 -0.00026774648
-0.015780428 -0.05762121 0.01759683 0.023433411 0.028850924 0.040322114 -0.049114518 -0.0072155898
0.0007518117 -0.01851154 -0.009533819 0.0011042554 0.020109024 0.015838306 -0.016090307 0.042511232
-0.035919357 0.005910707 0.023091322 -0.0029425353 0.010625924 0.003174709 0.05208433 -0.047046985
0.0027206233 -0.025552265 -0.007351075 0.023402002 -0.01940034 0.03985184 0.0108117815 -0.015089678
-0.0070674918 -0.024239877 -0.014667472 0.015470695 -0.0016577402 0.017627735 -0.02734789 -0.028044043
-0.0010322965 -0.0057658223 0.017371021 2.6349036e-05 0.010213141 -0.011357696 -0.041387677 0.017258722
-0.013853452 0.0026378059 -0.033614494 -0.005195676 0.0012290021 -0.033044644 -0.00043032828 -0.011400669
-0.024994148 0.010104818 -0.048236255 -0.014032927 0.0006270301 -0.012227002 0.0035109587 -0.0021724824
0.020752119 -0.0062303627 -0.024872908 0.0394088 0.013682681 0.049410313 -0.014666798 -0.013911222
0.029527802 -0.057668123 0.014316357 -0.048959423 -0.02212627 0.0025096745 0.020981813 0.0042586173
0.015107833 0.01029659 0.020095048 -0.025766602 -0.019619036 -0.013394557 -0.024860384 0.0026677365
-0.06101171 0.020381719 0.0042640073 -0.0024191104 -0.0111637935 0.019593302 -0.008398368 0.03999691
-0.025930688 -0.0017765354 -0.021684477 -0.007113842 -0.021128915 0.0051950705 0.021172764 -0.005901743
-0.008487854 -0.04662642 0.010149041 -0.010984666 -0.007008604 -0.040150795 0.007606171 0.030628558
0.047166582 -0.0009967368 0.008403206 0.037091542 0.031085454 0.028246494 -0.024627049 0.031210037
-0.007824472 0.026807906 0.0052170088 -0.0013226687 -0.011425032 0.024866797 -0.018445648 -0.06299452
-0.054928146 -0.0055041024 0.015338605 0.02010767 -0.017648874 0.0282565 0.0008675789 0.023069844
00000000: 9bd1 a1bb 59ed 82bc d569 8d3c 2439 863c
00000010: ae52 74bc 7a18 3e3c fc3e e5bc 867e 653d
00000020: a0f0 833c f7bd 623c fa51 733b a8fc a33b
00000030: 7f37 debc 4d75 42bd dbb5 c8bc 7118 bbba
00000040: 7a97 a1bb 344a 2ebc 0ba4 023c 3f24 ffbb
00000050: dfb3 47bc 14c8 f3bc c540 e9b9 340e bab9
00000060: 2309 06bd 0051 063c 06f7 253c c47b ebbc
00000070: 2c49 7bbc 080b e439 1cde 1e3c 86d2 3fbd
00000080: dfe5 2abc 4e9f adbc 18fb 3b3d bf06 3ebb
00000090: 4aa6 02bc 90ff 22bd 6e7f f03a 18b1 84bc
000000a0: d8d0 75bc 5449 113d 944f a4bc 93db a0bc
000000b0: 7bb1 a2b8 0530 9f3c eaa6 c7ba bb46 e5bb
000000c0: 17cd aabc fb3d 88ba 4bcb 893b ca0b 8cbc
000000d0: 541d 0a3d c30d ddbc a084 d5bb 36bb 76bc
000000e0: 76fb 9abc 26ae 3abc 9ea6 1fbc 0523 75bc
000000f0: 50dd 29bc 44f4 c3bc 4a65 ccbb 07eb ba3c
00000100: 9a3a fdbc e15c cfbb 4268 c5bc 9053 7fbc
00000110: cc29 3e3c 35b9 3f3d 02f0 1a3d aa9d 2b3c
00000120: 5fce 1cbc 0447 32bd 52a4 f93c a6df 273d
00000130: 449f 95b9 a038 7c38 af97 1c3d 0951 9c3c
00000140: 0f50 b53b c1fa 613d 0364 173d 9953 393d
00000150: 1f54 b93b 2c4c 07bd d93c 073d c27e be3b
00000160: 4a6f 23bc b404 e03c f00d f4bc 6505 7cbd
00000170: f748 4dbc 22bf 213d 51ac 8bbc 1a33 e33b
00000180: 29bb 3a3d ec12 2dbc 49be 6ebb 1750 853b
00000190: d434 9f3c cd0d ddbc 2c5b 893c 15e2 a73b
000001a0: 237f 24bc cafe b5bc 39bf 66ba 687c c0ba
000001b0: d0d0 573d 84e0 ac3c 13d1 953c f6fa 093d
000001c0: deae 94bb 3a82 2c3c 8a2a 083d 9fc2 1e3d
000001d0: b1f3 533d d201 febb 36af e2bc 5360 8cb9
000001e0: f545 81bc 3804 6cbd 3a27 903c 6df7 bf3c
000001f0: c658 ec3c cd28 253d 4e2c 49bd c170 ecbb
00000200: 3b15 453a 83a5 97bc bc33 1cbc aabc 903a
00000210: aebb a43c 56bf 813c d2cf 83bc 4220 2e3d
00000220: 2d20 13bd 9bae c13b 032a bd3c 8dd7 40bb
00000230: 5b18 2e3c c70e 503b 6156 553d 57b4 40bd
00000240: 7c4c 323b fc52 d1bc 49e1 f0bb 8eb5 bf3c
00000250: 76ed 9ebc af3b 233d e623 313c b23a 77bc
00000260: 6b96 e7bb b592 c6bc d64f 70bc cc78 7d3c
00000270: 8848 d9ba 0a68 903c af08 e0bc 9fbc e5bc
00000280: 1f4e 87ba 39ef bcbb ac4d 8e3c 2008 dd37
00000290: 0555 273c a115 3abc 2086 29bd 2a62 8d3c
000002a0: 97f9 62bc 0adf 2c3b 5aaf 09bd 7d40 aabb
000002b0: 7816 a13a d259 07bd af9d e1b9 dfc9 3abc
000002c0: 87c0 ccbc ae8e 253c 6193 45bd 5dea 65bc
000002d0: 475f 243a c353 48bc 1d18 663b 3560 0ebb
000002e0: 5900 aa3c 1228 ccbb 45c2 cbbc 1f6b 213d
000002f0: 532d 603c 7862 4a3d 024d 70bc e5eb 63bc
00000300: 4ae4 f13c 6935 6cbd 278f 6a3c ad89 48bd
00000310: 2742 b5bc 5a79 243b 0de2 ab3c df8b 8b3b
00000320: d886 773c 07b3 283c 5f9e a43c 7b14 d3bc
00000330: 1ab8 a0bc d874 5bbc 01a8 cbbc 31d5 2e3b
00000340: 6ae7 79bd 90f7 a63c 16b9 8b3b f089 1ebb
00000350: 58e8 36bc 2282 a03c 4f99 09bc cdd3 233d
00000360: 986c d4bc a3da e8ba a5a3 b1bc 3b1b e9bb
00000370: 8c16 adbc 693b aa3b 8172 ad3c 6963 c1bb
00000380: a410 0bbc 58fb 3ebd 2a48 263c 07f9 33bc
00000390: 6ea8 e5bb 2975 24bd 303d f93b bee8 fa3c
000003a0: bf31 413d f0a4 82ba 9aad 093c 4ded 173d
000003b0: eca6 fe3c 3165 e73c aabe c9bc 31ac ff3c
000003c0: 3732 00bc 419c db3c 71f3 aa3b 665d adba
000003d0: 0f30 3bbc 74b5 cb3c 541b 97bc 4503 81bd
000003e0: 56fc 60bd c25b b4bb c64e 7b3c d7b8 a43c
000003f0: 5f94 90bc 2d7a e73c 3c6e 633a f8fc bc3c

module.encoder.c2.main.0.bias f4 [64]
1.2862017e-05 -1.2806576e-05 1.3349121e-05 -2.234861e-05 1.0432641e-05 -1.1202517e-05 2.3477307e-05 4.7412635e-05
-1.0322005e-05 2.5691625e-07 1.1527712e-05 -5.942322e-06 8.802285e-06 -1.1559246e-05 1.1183334e-06 1.11041945e-05
-1.094839e-05 -1.5992486e-05 4.872322e-07 1.0357989e-05 -3.7717157e-06 -2.4785222e-05 -2.8279992e-06 3.117847e-05
1.1896053e-05 -6.5483937e-06 -1.7092289e-05 -4.812144e-07 -2.453816e-05 -1.45004915e-05 2.2249342e-06 -1.1152066e-05
-3.2411776e-06 2.627086e-05 -1.5915319e-05 8.911099e-07 2.416548e-05 8.201777e-06 1.4104813e-05 2.969943e-05
-6.314965e-06 -5.5654195e-06 -2.3843082e-05 -9.506843e-06 6.6519395e-05 3.5290577e-06 -5.9960753e-06 7.803584e-07
-2.0298346e-06 9.887058e-07 7.252884e-06 -8.491316e-06 1.0362937e-05 1.1512082e-05 5.9115446e-06 2.137819e-05
8.17097e-05 1.4170586e-05 2.8234758e-06 1.6998007e-05 -4.522015e-06 -1.7482962e-05 2.908202e-06 9.103994e-06
00000000: f1c9 5737 d3db 56b7 0af6 5f37 4679 bbb7
00000010: da07 2f37 72f2 3bb7 22f1 c437 eedc 4638
00000020: ad2c 2db7 4dee 8934 2567 4137 2864 c7b6
00000030: 87ad 1337 95ee 41b7 a519 9635 274c 3a37
00000040: faae 37b7 9a27 86b7 58ca 0235 39c7 2d37
00000050: 951d 7db6 dce9 cfb7 a8c8 3db6 a1c5 0238
00000060: 2995 4737 46ba dbb6 6961 8fb7 cd2c 01b5
00000070: 4cd7 cdb7 2347 73b7 1450 1536 c219 3bb7
00000080: 0283 59b6 3e60 dc37 e381 85b7 9b34 6f35
00000090: f9b6 ca37 5d9a 0937 b6a3 6c37 0a23 f937
000000a0: 23e5 d3b6 97be bab6 a102 c8b7 947f 1fb7
000000b0: 5480 8b38 c0d4 6c36 e531 c9b6 d279 5135
000000c0: 4b38 08b6 acb3 8435 cd5d f336 ed75 0eb7
000000d0: 7adc 2d37 0424 4137 c85b c636 5055 b337
000000e0: 905b ab38 34be 6d37 f27a 3d36 f196 8e37
000000f0: d0bb 97b6 60a8 92b7 882a 4336 5bbd 1837

module.encoder.c2.main.1.weight f4 [64]
0.98533857 0.99409527 0.98863953 0.9777357 1.013205 0.99157184 0.99257183 0.99148744
0.97730684 0.98957545 0.9840329 1.0010874 0.99789554 0.98441 0.9800696 1.0150666
0.98940873 0.9882165 0.9898282 0.9852953 0.9893578 0.9895737 0.9961629 1.0155798
0.9952449 0.9790349 1.0209466 0.99058366 0.98288053 0.99024576 0.9889365 0.9914329
1.0013903 1.0031916 0.9948903 0.9918569 1.0368061 0.98970526 1.0098587 0.9972481
0.99634236 0.9943087 1.0049998 0.9913287 1.0250108 0.97694826 0.99303216 0.9892818
0.99522465 1.0003647 0.9943546 0.9796294 1.0069045 1.0084518 0.9919333 1.0031555
1.0545186 0.9985923 0.9943759 0.9922131 1.0269512 0.9842706 0.9793735 1.0448148
00000000: 263f 7c3f 077d 7e3f 7b17 7d3f e34c 7a3f
00000010: b4b0 813f a7d7 7d3f 3019 7e3f 1fd2 7d3f
00000020: c830 7a3f d154 7d3f 95e9 7b3f a223 803f
00000030: 1576 7f3f 4b02 7c3f d7e5 7a3f b4ed 813f
00000040: e449 7d3f c2fb 7c3f 6265 7d3f 503c 7c3f
00000050: 8e46 7d3f b454 7d3f 8804 7f3f 85fe 813f
00000060: 5fc8 7e3f 08a2 7a3f 61ae 823f e496 7d3f
00000070: 0f9e 7b3f bf80 7d3f f12a 7d3f 8cce 7d3f
00000080: 8f2d 803f 9568 803f 21b1 7e3f 55ea 7d3f
00000090: 10b6 843f 535d 7d3f 0d43 813f a74b 7f3f
000000a0: 4b10 7f3f 048b 7e3f d5a3 803f b8c7 7d3f
000000b0: 8e33 833f 4819 7a3f 5b37 7e3f 9241 7d3f
000000c0: 0bc7 7e3f f30b 803f 068e 7e3f fec8 7a3f
000000d0: 3fe2 803f f314 813f 57ef 7d3f 6667 803f
000000e0: 77fa 863f bfa3 7f3f 6b8f 7e3f ad01 7e3f
000000f0: 2373 833f 28f9 7b3f 39b8 7a3f 7ebc 853f

module.encoder.c2.main.1.bias f4 [64]
-0.05666143 -0.033642568 -0.015194516 -0.061321754 -0.032350786 -0.03601359 -0.015536401 -0.010458445
-0.036439214 -0.010921501 -0.07048681 -0.024883678 -0.015991725 -0.041328724 -0.030475948 0.002187498
-0.026361603 -0.024616133 -0.018137434 -0.039395437 -0.04072146 -0.043723512 -0.029532475 -0.0050193244
-0.064783625 -0.042817578 -0.05723816 -0.05230796 -0.02859257 -0.037758254 -0.014324903 -0.026277246
-0.0129238 -0.014211849 -0.04651518 -0.024733176 -0.0028517372 -0.014298353 -0.027686719 -0.028592832
-0.03640838 -0.025764348 -0.018626902 -0.011170126 -0.0035723553 -0.03086335 -0.007525456 -0.042418864
0.00547725 -0.015825765 -0.048655357 -0.033958536 -0.0020464468 -0.030545369 -0.04667026 -0.06803044
0.02332748 -0.035272166 -0.06154029 -0.028154882 -0.035656452 -0.040014524 -0.03202069 -0.03352794
00000000: d115 68bd cacc 09bd 6bf2 78bc 852c 7bbd
00000010: 4282 04bd fc82 13bd 648c 7ebc e659 2bbc
00000020: 4941 15bd 18f0 32bc 635b 90bd dbd8 cbbc
00000030: 1401 83bc 4f48 29bd b2a8 f9bc 205c 0f3b
00000040: 4af4 d7bc c6a7 c9bc f594 94bc 1c5d 21bd
00000050: 8ccb 26bd 6d17 33bd 17ee f1bc 2579 a4bb
00000060: 47ad 84bd 7c61 2fbd 9072 6abd df40 56bd
00000070: f73a eabc 66a8 1abd ffb2 6abc 6143 d7bc
00000080: 59be 53bc d1d8 68bc b486 3ebd 3b9d cabc
00000090: 36e4 3abb a443 6abc 42cf e2bc 843b eabc
000000a0: f420 15bd c10f d3bc 7297 98bc e702 37bc
000000b0: 2d1e 6abb 23d5 fcbc 1a98 f6bb 67bf 2dbd
000000c0: 817a b33b 09a5 81bc d74a 47bd 1b18 0bbd
000000d0: ae1d 06bb 483a fabc 5129 3fbd 8b53 8bbd
000000e0: 4519 bf3c 8c79 10bd ac11 7cbd 11a5 e6bc
000000f0: 800c 12bd 45e6 23bd 2128 03bd 9854 09bd

module.encoder.c2.main.3.weight f4 [64, 64, 3, 3]
-0.01801145 -0.0074025574 -0.0042681936 0.0023498817 0.0024761315 -0.0043175095 -0.008349794 -0.001783129
-0.03792697 -0.017479924 -0.045135457 -0.009667697 0.013219651 0.026106833 0.007414719 -0.046959292
0.020134855 0.01128125 -0.0133490935 0.01806024 0.0045601255 -0.0024117555 -0.0079523 0.008550774
-0.004702542 0.011407958 -0.0056633633 0.009222748 0.009172259 0.008036199 0.021411313 0.037307233
-0.007565058 0.023354651 0.031845875 -0.040665325 0.01208647 0.013525721 -0.00480067 0.0069358265
-0.014082165 -0.0055703917 -0.011310162 -0.05169707 -0.019456219 -0.012184987 -0.01630909 -0.013945013
-0.003963519 -0.005729862 0.0066483403 -0.016726196 -0.008587824 -0.010713608 -0.0010716291 -0.038989596
-0.022578515 -0.018384455 0.025025822 -0.013987009 -0.005301282 0.0071428926 0.015803251 0.060024586
0.0021354165 -0.008839049 -0.013911309 -0.0002582526 0.051207013 0.0018818268 -0.038481012 -0.055081893
0.018749287 -0.018378023 0.019131757 -0.00944038 -0.020532906 0.0080259135 -0.039327186 -0.031606145
0.0048656347 -0.00096854306 0.043481484 -0.025441408 -0.010118572 -0.043222062 -0.046799373 -0.025330529
-0.014603436 0.017910667 0.010717727 0.02606258 0.042062055 -0.0024613598 0.02218641 -0.05260611
-0.028505303 -0.04481253 -0.02237651 0.021405367 0.037722416 0.034731906 -0.0049130158 0.012477538
-0.004378036 0.021533497 0.023591222 -0.01979397 -0.011605618 0.013711846 -0.018294888 -0.010556376
-0.015936423 0.010047511 -0.031160336 0.022848936 -0.014652031 -0.00018486356 0.026493918 -0.017279323
-0.01299391 -0.017787067 0.024799932 0.00968931 0.012861709 -0.00089061 -0.014396565 -0.012795518
-0.014843125 -0.04189856 0.014954482 0.0026577725 0.038916484 -0.02526888 -0.0043167714 -0.007812779
-0.020448167 -0.012363086 0.016012168 0.008675234 -0.010906161 0.037434597 0.009293903 -0.01916506
0.0016127188 -0.0034957032 0.027682459 -0.015446366 -0.037424322 -0.0018180314 -0.0006432776 -0.013141782
0.0007501963 -0.029266289 0.01441796 -0.0015436258 0.0069286474 0.013580173 -0.0006393031 -0.020075394
0.023285368 0.008953065 0.024527544 0.000727294 0.02075684 0.013427024 -0.0065874853 -0.00074244547
0.008313268 -0.0053584846 0.00468945 -0.018511508 0.0150008425 0.0024387806 0.023066344 0.010628302
0.018147318 -0.02761093 -0.006056994 0.00045184477 -0.009554671 0.027409002 0.03217845 -0.02873213
-0.007201032 0.001719259 -0.021534609 0.013587896 -0.05742002 0.017669465 -0.019382466 0.0022389467
0.041087385 0.043771386 0.041060112 0.015674246 0.017870642 0.037234053 0.022269906 -0.0015412761
0.0254237 0.069273755 0.01055951 0.017834479 -0.035646588 -0.016336747 -0.022258842 -0.016014213
-0.04420611 -0.008528245 -0.020246798 -0.0059078834 -0.009101567 0.040158946 -0.014372755 -0.011962477
-0.017925141 -0.012574525 0.010433155 0.012401866 -0.040114265 -0.03023256 -0.01820295 0.0098851435
0.013386965 0.019400256 0.014490727 0.008275153 0.0013002016 -0.013864116 0.020378685 -0.023588462
-0.021714784 0.039279953 -0.030913295 -0.0013829541 0.0012667453 -0.01704022 -0.0334454 0.018243961
-0.012176121 0.0138769075 -0.0091239475 -0.018173987 0.01275669 -0.008365151 0.015446257 0.0014183033
0.049329847 -0.0069834897 0.005322721 -0.016331175 0.003071527 0.004503495 -0.00661309 0.021335514
00000000: c08c 93bc 2791 f2bb 34dc 8bbb 7900 1a3b
00000010: 9846 223b e579 8dbb 93cd 08bc e1b7 e9ba
00000020: 4f59 1bbd 0f32 8fbc f5df 38bd 4365 1ebc
00000030: 3c97 583c ffdd d53c 2cf7 f23b 6358 40bd
00000040: daf1 a43c fed4 383c 28b6 5abc 12f3 933c
00000050: 1b6d 953b 8b0e 1ebb 5d4a 02bc 8c18 0c3c
00000060: c817 9abb 72e8 3a3c bc93 b9bb 021b 173c
00000070: 3e47 163c 43aa 033c c766 af3c 78cf 183d
00000080: 4ee4 f7bb 4152 bf3c d270 023d af90 26bd
00000090: 5406 463c fc9a 5d3c f04e 9dbb ee45 e33b
000000a0: e2b8 66bc d587 b6bb 424e 39bc 4fc0 53bd
000000b0: a662 9fbc 8aa3 47bc a49a 85bc a079 64bc
000000c0: 68e0 81bb 91c1 bbbb 52da d93b 6005 89bc
000000d0: f2b3 0cbc 2188 2fbc e875 8cba 8eb3 1fbd
000000e0: 94f6 b8bc ff9a 96bc f402 cd3c c529 65bc
000000f0: 60b6 adbb ed0e ea3b d275 813c 57dc 753d
00000100: 58f2 0b3b a9d1 10bc 42ec 63bc 1466 87b9
00000110: 72be 513d a1a7 f63a 449e 1dbd 8d9d 61bd
00000120: 1b98 993c 828d 96bc 34ba 9c3c d3ab 1abc
00000130: a034 a8bc 1f7f 033c 8b15 21bd 7275 01bd
00000140: e76f 9f3b d3e5 7dba a419 323d 806a d0bc
00000150: 5ec8 25bc 9e09 31bd b3b0 3fbd f881 cfbc
00000160: 4043 6fbc 64b9 923c 6899 2f3c 3181 d53c
00000170: 4349 2c3d c44e 21bb 46c0 b53c 8179 57bd
00000180: f483 e9bc 588d 37bd f14e b7bc 4f5a af3c
00000190: d282 1a3d 0b43 0e3d 5dfd a0bb 966e 4c3c
000001a0: a175 8fbb 0467 b03c 6142 c13c f726 a2bc
000001b0: 7d25 3ebc a7a7 603c 29df 95bc a6f4 2cbc
000001c0: 1a8d 82bc 519e 243c f643 ffbc b12d bb3c
000001d0: 120f 70bc efd7 41b9 c609 d93c 5e8d 8dbc
000001e0: 69e4 54bc 2fb6 91bc 3a29 cb3c e9bf 1e3c
000001f0: ebb9 523c d377 69ba 92df 6bbc 4ba4 51bc
00000200: 9430 73bc d39d 2bbd a503 753c 062e 2e3b
00000210: e466 1f3d af00 cfbc b473 8dbb 2c01 00bc
00000220: ea82 a7bc 8b8e 4abc f32b 833c 9222 0e3c
00000230: c1af 32bc 0555 193d 7445 183c 0b00 9dbc
00000240: dd61 d33a 2b18 65bb 53c6 e23c c112 7dbc
00000250: 3f4a 19bd 034b eeba a1a1 28ba a150 57bc
00000260: d2a8 443a dbbf efbc 4f39 6c3c 7d53 caba
00000270: b509 e33b 607f 5e3c e896 27ba 2775 a4bc
00000280: f5c0 be3c e0af 123c fded c83c e0a7 3e3a
00000290: 400a aa3c 05fd 5b3c d5db d7bb aca0 42ba
000002a0: 6034 083c 3a96 afbb f5a9 993b 72a5 97bc
000002b0: 18c6 753c f3d3 1f3b a1f5 bc3c 5422 2e3c
000002c0: afa9 943c 5130 e2bc c079 c6bb 94e5 ec39
000002d0: 328b 1cbc d888 e03c 8dcd 033d a55f ebbc
000002e0: a2f6 ebbb c258 e13a 5969 b0bc c49f 5e3c
000002f0: 4131 6bbd 8ebf 903c fac7 9ebc 4bbb 123b
00000300: 3f4b 283d a049 333d a62e 283d 4767 803c
00000310: 7465 923c bc82 183d 616f b63c a504 caba
00000320: 5d45 d03c 66df 8d3d cc01 2d3c 9d19 923c
00000330: 2802 12bd a4d4 85bc 2d58 b6bc 3d30 83bc
00000340: 7711 35bd 0dba 0bbc 9ddc a5bc eb96 c1bb
00000350: bd1e 15bc b57d 243d b47b 6bbc 44fe 43bc
00000360: bfd7 92bc 6105 4ebc d3ef 2a3c 3231 4b3c
00000370: db4e 24bd 46aa f7bc 5a1e 95bc 4cf5 213c
00000380: 0055 5b3c 49ed 9e3c 846a 6d3c 8294 073c
00000390: 876b aa3a 5126 63bc 33f1 a63c 973c c1bc
000003a0: 34e3 b1bc 04e4 203d e13d fdbc 3d44 b5ba
000003b0: eb08 a63a ee97 8bbc 0bfe 08bd 5c74 953c
000003c0: 5a7e 47bc f85b 633c 9c7c 15bc 9de1 94bc
000003d0: 7001 513c fc0d 09bc 4c12 7d3c 5de6 b93a
000003e0: 180e 4a3d c2d5 e4bb 386a ae3b f5c8 85bc
000003f0: ac4b 493b 0e92 933b 9fb2 d8bb d1c7 ae3c

module.encoder.c2.main.3.bias f4 [64]
-2.550073e-06 7.214845e-06 -7.897104e-06 -5.8311116e-07 2.5839593e-06 -1.2774735e-06 -1.1582029e-05 -3.3180274e-06
-3.017317e-06 1.7451466e-06 2.4762267e-06 1.8192707e-06 -6.5524875e-07 6.919401e-06 -1.4458947e-05 5.1039797e-06
9.115011e-07 1.1115671e-06 1.4197424e-06 -3.3976644e-06 2.795295e-06 1.2953375e-07 3.5032936e-06 -4.5199836e-06
2.7969377e-06 1.0479943e-06 -2.0930281e-06 1.040121e-05 8.680673e-08 5.391069e-07 3.3926472e-07 -1.1050569e-05
-2.9370044e-06 4.6632644e-07 -2.818183e-06 -7.866964e-06 4.8765155e-06 9.7866e-06 -7.2365033e-06 2.3035882e-06
-5.3713748e-06 1.3852386e-07 -4.8377633e-06 -3.4042455e-06 -4.203288e-06 1.1690647e-06 -1.0457685e-05 -1.2771364e-05
-1.271422e-06 5.2345986e-06 -1.3057614e-06 8.581133e-06 -1.4704677e-05 -1.0635279e-05 3.742229e-07 2.4306462e-06
-2.5351153e-07 -1.0919836e-05 7.121636e-07 -3.875895e-06 9.101902e-06 -4.0916607e-06 2.401793e-06 -1.7455436e-06
00000000: ec21 2bb6 0c17 f236 ce7d 04b7 1887 1cb5
00000010: 1568 2d36 a875 abb5 7050 42b7 47ab 5eb6
00000020: 1d7d 4ab6 c83a ea35 402d 2636 aa2d f435
00000030: 5ae4 2fb5 342d e836 b494 72b7 da42 ab36
00000040: e1ad 7435 2831 9535 fa8d be35 6e03 64b6
00000050: cd96 3b36 f715 0b34 201a 6b36 5daa 97b6
00000060: 06b3 3b36 cfa8 8c35 f375 0cb6 db80 2e37
00000070: 816a ba33 25b7 1035 3024 b634 d565 39b7
00000080: 5a19 45b6 6b5b fa34 0420 3db6 5afc 03b7
00000090: f3a0 a336 2031 2437 17d1 f2b6 5897 1a36
000000a0: c23b b4b6 26bd 1434 1254 a2b6 7e74 64b6
000000b0: f809 8db6 c2e8 9c35 6a73 2fb7 9744 56b7
000000c0: baa5 aab5 dca4 af36 9f41 afb5 b0f7 0f37
000000d0: 1bb4 76b7 2d6e 32b7 cee8 c834 2f1e 2336
000000e0: 5c1a 88b4 5734 37b7 832b 3f35 af0d 82b6
000000f0: 5fb4 1837 194b 89b6 7d2e 2136 6c48 eab5

module.encoder.c2.main.4.weight f4 [64]
0.99694717 1.0036916 1.0077521 1.0028946 0.9987417 0.9933419 1.001588 0.99614924
1.0256197 0.9983691 0.9855594 0.993247 0.9918156 1.0035764 0.996797 0.992115
1.0024104 0.9901476 0.9776224 0.9900153 1.0072259 0.98819387 0.9955104 1.0067663
1.0056881 1.0303596 1.001917 0.9975717 1.0088592 0.99632955 0.9852816 1.0038261
0.98330724 1.0108008 0.9767129 0.9972979 0.9936371 0.9979823 1.0163376 0.9975239
0.99454004 0.9995865 1.0073166 0.9946363 1.0029703 1.0022173 1.0077577 1.0100195
0.9963799 1.00372 0.95466495 0.99441767 0.9981601 1.0041553 0.9765485 1.0171474
1.0189812 0.9936351 0.9804878 1.0076545 0.999769 1.0243274 1.0116704 0.9710968
00000000: ee37 7f3f f778 803f 05fe 803f da5e 803f
00000010: 89ad 7f3f a84b 7e3f 0934 803f a303 7f3f
00000020: 8247 833f 1e95 7f3f 9f4d 7c3f 6f45 7e3f
00000030: a1e7 7d3f 3175 803f 172e 7f3f 40fb 7d3f
00000040: fc4e 803f 507a 7d3f 7645 7a3f a571 7d3f
00000050: c7ec 803f 46fa 7c3f c5d9 7e3f b8dd 803f
00000060: 63ba 803f d3e2 833f d13e 803f dc60 7f3f
00000070: 4c22 813f 740f 7f3f 6a3b 7c3f 607d 803f
00000080: 06ba 7b3f ec61 813f db09 7a3f ea4e 7f3f
00000090: 005f 7e3f c57b 7f3f 5a17 823f ba5d 7f3f
000000a0: 2d9a 7e3f e7e4 7f3f c0ef 803f 7ca0 7e3f
000000b0: 5561 803f a848 803f 34fe 803f 5248 813f
000000c0: c112 7f3f e679 803f ec64 743f 2892 7e3f
000000d0: 6c87 7f3f 2988 803f 15ff 793f e331 823f
000000e0: fa6d 823f df5e 7e3f 4001 7b3f d3fa 803f
000000f0: dcf0 7f3f 291d 833f 6a7e 813f cd99 783f

module.encoder.c2.main.4.bias f4 [64]
-0.028064068 -0.015347128 -0.028156165 -0.045687564 -0.020311093 -0.0044712913 -0.019280989 -0.012909396
-0.019316554 -0.013888884 -0.022972787 -0.029032491 -0.021640843 -0.033601973 -0.009451234 -0.026949748
-0.012051967 -0.0015848982 -0.02801779 -0.015631374 -0.0083983475 -0.016725592 -0.025993504 -0.008515208
-0.053755853 -0.008205377 0.0043147416 -0.029214336 -0.006625093 -0.012611039 -0.011618719 -0.017920148
-0.050373703 -0.015869102 -0.017003313 -0.03522294 -0.015219897 -0.03392245 -0.0048664813 -0.011662031
-0.04799253 -0.0043995287 0.0038198284 -0.005164043 -0.03487242 -0.013241045 0.0007722063 -0.057372335
-0.019311786 -0.01758971 -0.06999055 -0.03908652 0.009031504 -0.0051276516 -0.033923805 -0.014324603
-0.036200017 -0.0010199638 -0.04281342 -0.0040531387 -0.08267766 0.021014689 -0.02328941 0.005076878
00000000: 9ee6 e5bc 8572 7bbc c2a7 e6bc e222 3bbd
00000010: 7363 a6bc e983 92bb 2af3 9dbc ee81 53bc
00000020: c03d 9ebc 348e 63bc 6d31 bcbc 8cd5 edbc
00000030: 2348 b1bc 39a2 09bd 59d9 1abc b8c5 dcbc
00000040: 9d75 45bc 5cbc cfba 9085 e5bc 5e0d 80bc
00000050: 3999 09bc 1c04 89bc 54f0 d4bc 5f83 0bbc
00000060: 192f 5cbd d86f 06bc ad62 8d3b e752 efbc
00000070: 4f17 d9bb 889e 4ebc 715c 3ebc 46cd 92bc
00000080: a854 4ebd ebff 81bc 884a 8bbc ee45 10bd
00000090: e05c 79bc 44f2 0abd 0177 9fbb 1a12 3fbc
000000a0: d193 44bd ec29 90bb 1656 7a3b 2237 a9bb
000000b0: 62d6 0ebd f8f0 58bc e36d 4a3a 41ff 6abd
000000c0: c033 9ebc 4c18 90bc 3557 8fbd 3019 20bd
000000d0: e0f8 133c dc05 a8bb b0f3 0abd bdb1 6abc
000000e0: 7846 14bd 4eb0 85ba 205d 2fbd 31d0 84bb
000000f0: e852 a9bd ff26 ac3c 6fc9 bebc f05b a63b

module.encoder.c3.0.weight f4 [32, 64, 3, 3]
0.020940805 -0.023230422 -0.01653452 0.03960508 0.011644977 0.04461256 0.019159665 -0.0077000977
0.0132480115 0.014155764 0.031478796 0.00356236 -0.0026659444 0.039321166 -0.033505574 -0.013716889
-0.017095035 -0.013936577 0.0129112955 0.035211407 0.04157891 0.048572388 0.01348555 0.019859388
0.042199925 -0.012168623 0.034637164 0.021304315 -0.0032621082 0.0093999915 0.027838664 -0.005344185
0.027406966 -0.0017348515 -0.0126583865 -0.016594762 0.024647895 -0.041780695 0.019868836 -0.0126848
0.00729277 0.0012943159 -0.0030286908 0.026236014 -0.02344375 0.014736231 -0.00035417106 0.023471948
-0.008469174 0.0050885947 0.032173704 0.015999893 -0.024669474 -0.0020284131 0.017951094 0.009126216
0.015206849 0.023093244 0.01061038 0.008693464 -0.00093769544 -0.044509295 0.0056948857 0.010822472
-0.004687192 0.025330056 0.017463379 0.03280488 0.046038087 -0.042609137 -0.000999093 -0.014001002
-0.0004444098 0.037713315 0.037108473 -0.019469004 -0.044059407 -0.06567759 0.023899322 0.0047823866
0.011269241 0.019752821 0.027228106 0.037916906 0.053582765 0.020804254 0.02441576 0.009511606
0.023858702 0.032666165 -0.009950787 -0.0035569437 -0.011507907 -0.0068087163 -0.03754377 -0.013066597
-0.016291432 0.00029114293 0.018689625 -0.010385275 0.025576318 -0.005397459 -0.007376825 0.042750485
0.027412299 0.005000676 -0.035214037 -0.016353087 -0.015261839 0.016011871 0.00056883576 -0.012664287
0.011826508 0.047829386 -0.017123893 -0.00028629098 0.0063539967 0.03381244 0.010279927 -0.009861218
0.018539853 0.0016128335 -0.008637341 -0.0149512645 0.02811452 -0.0026040901 -0.014666976 0.015652614
0.0037396154 -0.022123905 0.001758451 0.024369892 0.021179602 -0.016642075 -0.03970224 -0.010833726
-0.014492345 -0.008028355 -0.00939596 -0.01120721 -0.04128866 -0.030390501 -0.03341103 -0.00785222
0.014068515 0.06427256 -0.026099902 0.008016624 0.022036556 0.01625745 0.028597893 0.025156006
-0.006226677 0.025456179 -0.021765007 0.024010893 0.002689831 0.023245987 0.03093593 -0.032208413
-0.0072703855 -0.0032699374 0.006590251 -0.0033250698 -0.0031958048 -0.016429411 0.012195057 -0.00881059
0.022680534 0.004714322 -0.017511457 0.014915811 0.002400637 0.015960027 -0.023501314 -0.019850194
0.0072674295 0.0072068023 0.00493572 -0.0155546 -0.055996235 -0.02130551 -0.018626444 0.0036606782
-0.0071645686 0.039039813 -0.015471982 -0.028574908 -0.009275741 -0.031117253 -0.0077087344 0.009855465
-0.0074548745 -0.00020486033 0.02491327 0.00044142242 -0.0032374125 0.010750166 -0.006411283 -0.0007040071
-0.0065682544 0.004135577 0.07410253 -0.0021830222 0.0045988956 0.03572645 -0.01193013 0.006322598
0.049798083 0.03430985 0.010786379 -0.0073707104 -0.06015274 -0.0055504674 0.022419963 -0.028441511
-0.016265227 -0.006344549 -0.02489857 -0.011914954 0.002680862 0.0022129915 0.04071263 0.031863704
0.01105651 -0.040080763 0.028604697 -0.0023264685 0.013810634 -0.012770009 -0.017083578 0.0039001026
0.029990977 0.06527256 0.03024031 -0.00355848 -0.024766352 -0.005964943 -0.00062937965 -0.0032505833
0.019929282 -0.018026823 0.044840228 -0.0044968543 0.0070738974 -0.01110527 0.012375786 0.019405322
-0.0040926696 -0.058708526 -0.031877022 -0.066746145 -0.034279715 -0.030029519 -0.032913707 -0.007179178
00000000: 0d8c ab3c ba4d bebc 6773 87bc f038 223d
00000010: 93ca 3e3c a9bb 363d bbf4 9c3c 1a51 fcbb
00000020: 300e 593c 94ed 673c e9ef 003d 7c76 693b
00000030: 20b7 2ebb 3b0f 213d 243d 09bd cdbc 60bc
00000040: e30a 8cbc 3e56 64bc e689 533c d639 103d
00000050: a64e 2a3d d7f3 463d 7ff2 5c3c 28b0 a23c
00000060: d4d9 2c3d e75e 47bc b3df 0d3d 6386 ae3c
00000070: 18c9 55bb 6c02 1a3c e90d e43c 461e afbb
00000080: 9384 e03c f563 e3ba 1f65 4fbc bdf1 87bc
00000090: 62ea c93c 3c22 2bbd f8c3 a23c e8d3 4fbc
000000a0: 30f8 ee3b 09a6 a93a 007d 46bb e9ec d63c
000000b0: 1b0d c0bc 3c70 713c 09b0 b9b9 3e48 c03c
000000c0: 4ac2 0abc 3abe a63b 93c8 033d 3512 833c
000000d0: a317 cabc 20ef 04bb 2c0e 933c 2086 153c
000000e0: 2626 793c 0b2e bd3c 29d7 2d3c 086f 0e3c
000000f0: adcf 75ba 614f 36bd 2a9c ba3b bd50 313c
00000100: 0497 99bb fa80 cf3c 5c0f 8f3c 695e 063d
00000110: 6f92 3c3d eb86 2ebd 00f4 82ba 7564 65bc
00000120: acff e8b9 4779 1a3d 0eff 173d 767d 9fbc
00000130: a377 34bd f981 86bd 83c8 c33c 91b5 9c3b
00000140: 9fa2 383c abd0 a13c 7a0d df3c c24e 1b3d
00000150: 9a79 5b3d af6d aa3c 8f03 c83c 91d6 1b3c
00000160: 5373 c33c f5cc 053d a008 23bc 9d1b 69bb
00000170: a98b 3cbc a71b dfbb 7fc7 19bd 4815 56bc
00000180: 9c75 85bc 8ba4 9839 fc1a 993c 0027 2abc
00000190: 6d85 d13c 2bdd b0bb 4bb9 f1bb 221b 2f3d
000001a0: c28f e03c b6dc a33b 983c 10bd e9f6 85bc
000001b0: cb0c 7abc 542b 833c ec1d 153a df7d 4fbc
000001c0: f8c3 413c bfe8 433d 6847 8cbc 5319 96b9
000001d0: 3035 d03b ea7e 0a3d 246d 283c f290 21bc
000001e0: e4e0 973c b665 d33a a283 0dbc 26f6 74bc
000001f0: 6c50 e63c 62a9 2abb c24d 70bc e939 803c
00000200: 5614 753b 313d b5bc d37b e63a 5ea3 c73c
00000210: d880 ad3c f654 88bc d19e 22bd f17f 31bc
00000220: 4d71 6dbc 5d89 03bc 83f1 19bc 729e 37bc
00000230: 4c1e 29bd 80f5 f8bc 01da 08bd 99a6 00bc
00000240: a17f 663c 55a1 833d 76cf d5bc 2858 033c
00000250: 0286 b43c 582e 853c 2146 ea3c f813 ce3c
00000260: 2709 ccbb 7a89 d03c 874c b2bc 7eb2 c43c
00000270: e047 303b 5e6e be3c 596d fd3c f8ec 03bd
00000280: 6a3c eebb 724c 56bb 08f3 d73b 6ae9 59bb
00000290: b570 51bb f996 86bc c7cd 473c 4b5a 10bc
000002a0: 87cc b93c 997a 9a3b 3074 8fbc 7261 743c
000002b0: 0154 1d3b 9abe 823c d485 c0bc e09c a2bc
000002c0: 9e23 ee3b 0a27 ec3b d2bb a13b b9d8 7ebc
000002d0: 4f5c 65bd e588 aebc 7c96 98bc fde7 6f3b
000002e0: c2c4 eabb 36e8 1f3d 327e 7dbc ed15 eabc
000002f0: 47f9 17bc 9ce9 febc 8d99 fcbb d178 213c
00000300: 0548 f4bb c7cf 56b9 ea16 cc3c b76e e739
00000310: c52a 54bb 7721 303c bd15 d2bb 1e8d 38ba
00000320: 833a d7bb bc83 873b 11c3 973d 0911 0fbb
00000330: 55b2 963b e655 123d 9876 43bc cc2d cf3b
00000340: 13f9 4b3d 7c88 0c3d 5ab9 303c 0086 f1bb
00000350: b862 76bd b2e0 b5bb 12aa b73c 2cfe e8bc
00000360: a73e 85bc efe5 cfbb 16f8 cbbc f036 43bc
00000370: 67b1 2f3b d607 113b 49c2 263d 8483 023d
00000380: 5d26 353c ba2b 24bd 6654 ea3c aa77 18bb
00000390: ff45 623c 4d39 51bc dcf2 8bbc dd98 7f3b
000003a0: a3af f53c 9fad 853d 87ba f73c 6335 69bb
000003b0: cee2 cabc 9275 c3bb f4fc 24ba bd07 55bb
000003c0: bc42 a33c fdac 93bc 63aa 373d 595a 93bb
000003d0: 27cc e73b e1f2 35bc cfc3 4a3c e9f7 9e3c
000003e0: cd1b 86bb 5a78 70bd 7b91 02bd 34b2 88bd
000003f0: e368 0cbd 7700 f6bc 86d0 06bd 4f3f ebbb

module.encoder.c3.0.bias f4 [32]
1.1551256e-06 1.3988263e-06 7.963873e-07 -2.5035486e-06 -5.0980645e-07 1.1553237e-06 1.1167539e-06 -1.4651366e-06
8.808246e-08 -7.356002e-07 -1.4489752e-06 -1.2756068e-06 -2.392831e-06 2.1221642e-07 1.9957752e-06 2.4100912e-06
-8.186152e-07 1.1688949e-06 9.292791e-07 3.2392154e-06 -1.8978254e-06 1.7300397e-09 -1.8924874e-06 3.0164442e-09
-5.183521e-06 -2.2116578e-07 2.3519374e-06 -5.487643e-07 2.8556233e-06 1.0951248e-06 -3.0741505e-06 -3.0448575e-06
00000000: d009 9b35 4ebf bb35 52c7 5535 a302 28b6
00000010: a2d9 08b5 9f10 9b35 5fe3 9535 b6a5 c4b5
00000020: d827 bd33 1076 45b5 697a c2b5 8435 abb5
00000030: 8694 20b6 9bdd 6334 28ef 0536 0dbd 2136
00000040: cfbe 5bb5 ece2 9c35 9373 7935 4c61 5936
00000050: c9b8 feb5 5cc6 ed30 5f01 feb5 d949 4f31
00000060: 1bee adb6 9679 6db4 fad5 1d36 cc4e 13b5
00000070: 3ca3 3f36 34fc 9235 814d 4eb6 4156 4cb6

module.encoder.c3.1.weight f4 [32]
1.0195801 1.0511268 1.0080353 1.0596542 0.9907004 1.0214471 1.0047894 1.0233748
0.9936934 0.9927922 0.9886577 0.962449 0.99683887 0.99143106 0.9948601 1.0618808
1.2099957 1.0743152 0.995875 1.1701411 1.1065415 1.0094559 1.0109364 0.9851133
1.0748687 1.1633053 1.0435654 1.0271099 1.0148172 0.9975301 1.0356201 0.98904705
00000000: 9a81 823f 538b 863f 4d07 813f c0a2 873f
00000010: 8b9e 7d3f c7be 823f f09c 803f f2fd 823f
00000020: b162 7e3f a127 7e3f ac18 7d3f 0f63 763f
00000030: d530 7f3f 6dce 7d3f 27af 7e3f b6eb 873f
00000040: 24e1 9a3f 2983 893f aaf1 7e3f 2fc7 953f
00000050: 27a3 8d3f da35 813f 5d66 813f 6330 7c3f
00000060: 4c95 893f 30e7 943f 8d93 853f 5678 833f
00000070: 88e5 813f 225e 7f3f 338f 843f 3032 7d3f

module.encoder.c3.1.bias f4 [32]
-0.010280632 0.084701 -0.015695797 0.022669662 0.023285983 -0.005180236 0.011246952 -0.025093872
-0.01903331 0.031099329 0.0053892913 0.0074921306 -0.014007735 -0.0018684462 0.06822597 -0.052425772
-0.029969253 0.052145697 0.061762877 -0.10189429 -0.0010405405 0.009083316 -0.04518789 0.021345852
-0.062110595 0.06190581 -0.010609036 0.03650575 -0.032422807 -0.0067306138 -0.048399687 0.0073060472
00000000: 1970 28bc b877 ad3d 7994 80bc bab5 b93c
00000010: 3fc2 be3c f8be a9bb 2345 383c aa91 cdbc
00000020: beeb 9bbc 05c4 fe3c a798 b03b 8c80 f53b
00000030: b380 65bc a7e6 f4ba 0fba 8b3d 68bc 56bd
00000040: 1482 f5bc ba96 553d 12fb 7c3d f4ad d0bd
00000050: bf62 88ba 30d2 143c f016 39bd 7fdd ae3c
00000060: ae67 7ebd f290 7d3d 86d1 2dbc 0e87 153d
00000070: c7cd 04bd 7b8c dcbb c03e 46bd 9167 ef3b

module.encoder.c3.1.running_mean f4 [32]
0.5356257 -0.5589267 0.27279425 0.18987033 -0.62469274 -0.48223865 -0.17485109 -0.026051383
0.109170385 -0.334983 0.3165641 0.24367982 0.57885313 0.09253256 -0.13462391 -0.29386726
0.03736125 -0.34248206 0.13243689 0.36347255 0.5018965 0.046590704 0.032165233 -0.43278557
-0.44542065 0.28289288 -0.9878632 0.3863711 0.25989038 0.369621 -0.5294909 -0.35300162
00000000: c41e 093f d215 0fbf b0ab 8b3e 5e6d 423e
00000010: ddeb 1fbf fce7 f6be 2a0c 33be b669 d5bc
00000020: b994 df3d e482 abbe b114 a23e 3487 793e
00000030: b82f 143f b681 bd3d dada 09be c575 96be
00000040: 1c08 193d cf59 afbe 899d 073e 1319 ba3e
00000050: 4a7c 003f e5d5 3e3d b1bf 033d 1296 ddbe
00000060: 2d0e e4be 56d7 903e 9ae4 7cbf 6fd2 c53e
00000070: 5a10 853e f73e bd3e b78c 07bf a1bc b4be
