logs/exp4/model_iters_1000.pth (torch, 495325 bytes, 47 tensors)

module.encoder.c1.main.0.weight f4 [32, 3, 3, 3]
00000000: 700b 3dbc 20ab e83c 3b00 65bc ae9a 3e3b
00000010: 8be5 503d 4b7e a4bc d2e5 283b f5e3 443d
00000020: 27eb 4e3c 144d a03c 6655 493c 57b7 31bc
00000030: 08a8 05bc 0435 43bc 0737 11ba f8c2 313c
00000040: 959a 4fbc 34a3 a33a b32c 8abc 3c42 04bc
00000050: c344 593c 5a74 543c 4a88 1b3c 2234 e0bc
00000060: d02b efbc 9b07 173c f68b 15bb 7bef c4bc
00000070: 7b1c 3fbd 2205 c33c dbb1 9ebc d244 363c
00000080: 857e 1fbc 1cdc e4bc c550 a03d d244 843c
00000090: 64b7 0cbc eac1 b23a ffee 993c 315d 19bc
000000a0: c828 15bc 1fce 5fbc 6897 803b a1a1 e63b
000000b0: cf38 bebb e4c3 f5bc 5283 e73b 359e 8ebc
000000c0: f546 c3bb 366c 8abc 3131 063c cd32 9fbb
000000d0: 3784 dabb 7a42 153c d71e 493b 341b ccbc
000000e0: 8b91 9f3c 2e45 14bc 46f2 d73a 72fa 803d
000000f0: 9c70 d53b fdc5 fd3c 32a6 d63c f508 93bc
00000100: 6174 9bbb 29f2 a23c 15b1 b8b9 1e0e 6c3c
00000110: d78f a7bc 6c90 923c 8116 e1bb 3456 90ba
00000120: ab2e b83c 7d4e b8bc e71b 5a3b f6a2 37bc
00000130: 9da6 713b 1131 de3c 803f ccbc ef78 853c
00000140: 1f3f 323c 94d9 d2bc 4502 b3bc 4aa2 133c
00000150: 3daf 933c 0139 4b3c f8ad 0ebc 1ecf ecb9
00000160: 0602 7e3b f360 0ebc e6bf e337 c446 87bc
00000170: 1d81 313c 33fa 823c 2c32 b9bc d528 813c
00000180: 7ec2 27ba 3f2e 94bc 37af f9bc f749 95bb
00000190: 7c97 8a3b 2afa 1abd ff53 203c 1441 89bc
000001a0: 0a5b d3bc 6f86 f5bc 45ad edbb c7d5 60bd
000001b0: 99e6 5f3c b832 ea3c c5d3 b63b 9f77 983d
000001c0: 2e6d 8d3c cac4 943b a1f7 1b3d 4429 e83c
000001d0: e2c8 88bc b178 2c3d 9fdb f1bc e64b aa3c
000001e0: bff6 8cbc b9d9 05bd 4808 46bc e02e e7bc
000001f0: 3f9e 343c a22c 8aba a0d0 0dbc 5077 79bc
00000200: fa80 f73b 2472 003d bb72 f1b9 594b e9bb
00000210: 7520 17bd cf83 ee3b 6f82 a1bc aaab 01bd
00000220: c09a 17bd ea31 4bbd 1f7a 1abd d127 6dbc
00000230: 5d99 6fbc c62a d0bc 4253 bdbc dfb5 7b3c
00000240: 1bf9 c23b baeb 96bb 98ec 62bd 5b4a 053d
00000250: 006c c7bc 17fc ea3b 2c96 3a3c a356 7e3c
00000260: b52f 8abc 6f0a bbbb 5d61 063c fc70 9cbc
00000270: 5abd ab3b fba9 0f3c 8484 a9bc 3ca6 98b9
00000280: 411c 9d3c 9a7a 4cbb 05a0 45bc 3129 923c
00000290: bb68 76bc b075 1dbc 53c3 e7bc c08b 55bd
000002a0: e14b 2e3c b500 42bc f0fc 6cbc 5b6a 0bbd
000002b0: 4b99 8abb 90a7 21bb 7702 c83c 91b5 aeba
000002c0: 6612 aeb7 2b70 27bc 0fcc 4d3c ae69 e3bc
000002d0: b7fe d13b d94c 16ba 7b68 3fbb 0a92 adbc
000002e0: 069c 35bd 7856 153d ebd1 40bc be05 823b
000002f0: 4f7b 01bd 2011 c63c e686 80bc d11b 8d3b
00000300: 6b68 b43c 7166 adbd 78d5 6bbc 4805 633c
00000310: 5a11 76bc b6ac 943c e583 873a f1a5 733c
00000320: a35d bc3b 9327 3cbb e1ee 05bd 1468 df3b
00000330: 3e6d df3b 982f f9b9 9905 4f3b 6815 ba3b
00000340: 4018 7e3c 4f71 8d3a d129 ccbc 1e93 1cbb
00000350: a360 1d3c dea7 343c ae00 8fbc b352 ae3b
00000360: 7789 9fbc 7fc6 383c 56a4 dd3c cd73 c33c
00000370: f0cc 07bb 0a17 08bc 2c4a b5bc 7f0a 863c
00000380: e3e5 f1bc cbdb cfbc cecf 3ebc 1f16 993c
00000390: 332d bd3c 8848 553c 9a98 f0bc 8a22 f0bc
000003a0: 04a8 a83c cf81 32bc e6c9 fdbc a557 35bd
000003b0: bc4a 2cbd 6999 e5bc 5ec5 06bd 7556 e6bc
000003c0: 1354 ccbc dde1 24bc d465 caba a576 95bc
000003d0: 6415 dcbc 51cf 82bc 5882 643b 5dc8 a33c
000003e0: 23fd d63b d790 b3bc 8d8e 7e3c 7223 89bc
000003f0: 098c bdbc 1f7a ecb9 653d 4dbc 3c0f fa3b
-0.011538371 0.028401911 -0.013977106 0.0029083895 0.05100016 -0.020079752 0.002577175 0.04806896
0.012629307 0.019568004 0.012288427 -0.010846934 -0.008157738 -0.011914495 -0.0005539511 0.010849707
-0.012671133 0.0012484551 -0.016867017 -0.008072432 0.013261023 0.0129671935 0.009492943 -0.027368609
-0.029195696 0.009218122 -0.002281902 -0.024039974 -0.04665802 0.023806158 -0.019371917 0.0111248065
-0.009734754 -0.027936988 0.078279056 0.016146097 -0.008588646 0.0013638113 0.01879072 -0.0093605975
-0.009103961 -0.013659983 0.003924299 0.0070383106 -0.005805112 -0.030000634 0.007065215 -0.017409423
-0.0059593865 -0.016897302 0.008190439 -0.004858351 -0.0066685933 0.0091100875 0.0030688548 -0.024915315
0.01947858 -0.009049697 0.0016475401 0.06297769 0.006513668 0.030978197 0.026202295 -0.017948607
-0.004744098 0.019890862 -0.0003522715 0.014407663 -0.02045433 0.017891131 -0.0068691378 -0.0011012019
0.02248319 -0.022498364 0.0033280791 -0.0112082865 0.003687299 0.027123006 -0.024932623 0.016293017
0.010879307 -0.025738515 -0.021851668 0.009010861 0.018027896 0.0124037275 -0.00870847 -0.00045167742
0.003875853 -0.008690107 2.7149868e-05 -0.016513236 0.010834006 0.015988445 -0.022606932 0.01576654
-0.0006399526 -0.018088458 -0.030479057 -0.0045559364 0.004229484 -0.03783623 0.009785651 -0.016754664
-0.025800247 -0.02997133 -0.0072533214 -0.054891374 0.013665819 0.028588638 0.005579444 0.07444691
0.017263975 0.0045400606 0.038077954 0.02833999 -0.01669735 0.042107288 -0.029523669 0.020788144
-0.017207501 -0.03267834 -0.012086935 -0.028220594 0.011024057 -0.0010541866 -0.008655697 -0.0152262
0.007553217 0.031358853 -0.00046052583 -0.007119578 -0.036896188 0.0072788964 -0.019715516 -0.031657852
-0.037012815 -0.04960815 -0.03771412 -0.014474825 -0.014623967 -0.025411021 -0.02311099 0.015363186
0.005950106 -0.0046057375 -0.055401415 0.032541614 -0.02434349 0.0071711647 0.011388343 0.0155235855
-0.016868452 -0.005708031 0.008201924 -0.019096844 0.0052410783 0.008768554 -0.020693071 -0.00029115553
0.019178512 -0.0031201006 -0.012062077 0.017841907 -0.015039618 -0.009610578 -0.02829138 -0.05213523
0.010638208 -0.011840989 -0.014464602 -0.034036975 -0.0042296997 -0.0024666525 0.024415238 -0.0013329257
-2.0750984e-05 -0.010219614 0.012560858 -0.027760353 0.006408538 -0.0005733497 -0.0029206562 -0.0211878
-0.04433825 0.036459416 -0.011768798 0.0039679697 -0.031611737 0.024178088 -0.015689325 0.0043062945
0.022022447 -0.08466805 -0.014394157 0.01385624 -0.015018785 0.018148761 0.001033899 0.0148711065
0.005748467 -0.0028710112 -0.032698516 0.006817827 0.0068184426 -0.0004752844 0.003158903 0.0056788214
0.015508711 0.0010791215 -0.024922283 -0.00238914 0.0096055595 0.011026351 -0.017456379 0.005319917
-0.019474728 0.011277794 0.0270559 0.023858929 -0.0020721518 -0.008306274 -0.022130094 0.016362427
-0.029528564 -0.02537336 -0.011646224 0.018687306 0.023092842 0.013017781 -0.029369641 -0.029313345
0.020587929 -0.010895207 -0.030980062 -0.044273037 -0.04206346 -0.028027253 -0.032903068 -0.028117398
-0.024942433 -0.010063616 -0.0015441724 -0.01824505 -0.026865669 -0.015967997 0.003486773 0.019993002
0.006560938 -0.021919651 0.015536916 -0.016740534 -0.023138063 -0.00045104415 -0.012526845 0.0076312106

module.encoder.c1.main.0.bias f4 [32]
00000000: a2b7 c6b8 fcb3 c638 d742 6938 c7a2 1c38
00000010: 3c5b 2038 8737 1e37 3127 e9b8 92c1 7d39
00000020: 20e8 5239 eb3e 4537 63b5 5eb9 3b63 5cb9
00000030: 0881 3d39 b55e e138 fa90 6938 ece5 a7b9
00000040: 4c0c a837 eb17 7a37 9015 52b9 5b48 5c38
00000050: 3d2b 7e38 d538 62b8 d24d 95b7 a3d1 e2b8
00000060: 3ab7 cdb8 86dd 7fb7 a23e d7b7 545a 5ab9
00000070: 113c 96b9 20e8 9839 3d38 6ab9 6ce8 b138
-9.47558e-05 9.4749004e-05 5.561378e-05 3.7344897e-05 3.823194e-05 9.430462e-06 -0.00011117606 0.00024200071
0.00020113634 1.1756764e-05 -0.00021239142 -0.00021017801 0.00018072512 0.000107464766 5.568655e-05 -0.00032024027
2.0032887e-05 1.490673e-05 -0.00020035193 5.2519474e-05 6.0598588e-05 -5.3935528e-05 -1.7798422e-05 -0.00010815568
-9.80929e-05 -1.5250762e-05 -2.5659163e-05 -0.0002082375 -0.00028654982 0.00029164646 -0.0002233693 8.48331e-05

module.encoder.c1.main.1.weight f4 [32]
00000000: 8b0d 813f 7619 803f b295 823f 5407 7e3f
00000010: 537d 813f d025 7e3f 8f47 7d3f 0c26 823f
00000020: 86b9 823f 5006 7f3f d0a6 7e3f 8fd0 7c3f
00000030: 5ce2 813f 2393 723f 2004 833f 949b 823f
00000040: 4a67 7a3f ffb2 803f a5ff 7d3f 6478 803f
00000050: 780f 7f3f 4c94 813f 7ce2 813f 676f 7d3f
00000060: 1ed0 7e3f 4af9 7d3f a9b8 7f3f b0ec 823f
00000070: 3941 7f3f 129d 7b3f 49d3 793f 913b 813f
1.0082258 1.000777 1.0201933 0.9922993 1.0116371 0.9927645 0.98937315 1.0167861
1.0212867 0.9961901 0.99473286 0.98755735 1.0147204 0.9475576 1.0235634 1.0203729
0.97813857 1.0054625 0.9921821 1.003674 0.9963298 1.0123382 1.0147243 0.9899811
0.9953631 0.9920851 0.99891144 1.0228481 0.99708897 0.98286545 0.9758802 1.0096303

module.encoder.c1.main.1.bias f4 [32]
00000000: 2f95 b03a 7753 63bb aaad a0bc d5cd b5bd
00000010: 9ee2 1d3c 89bc 8b3b c25f 3ebc 08d5 9537
00000020: 6fb9 64bd 98f8 afbd 4c47 b43b 5f87 a83c
00000030: a531 503c f4ec 4f3d 9d1a 093d 7d70 053d
00000040: b780 cd3b af3c 1e3d 2f84 e33c 8abc 9139
00000050: 9761 a0bb 8278 283c 44bc bb3c bc93 86bc
00000060: 62e5 bb3c 9893 bd3b 3f6f 13bc aa57 023d
00000070: 7ff1 22bd ebd1 1abd 4d07 9dbd 4a04 a83c
0.0013472195 -0.00346872 -0.01961406 -0.0887715 0.009636549 0.0042644185 -0.01161951 1.7861385e-05
-0.055840906 -0.08592337 0.0055016633 0.020572362 0.012707149 0.050763085 0.033472646 0.03257798
0.0062714475 0.03863209 0.027772991 0.00027797028 -0.004894446 0.010282638 0.02291692 -0.016427867
0.022936527 0.005785417 -0.008998691 0.031821884 -0.03978109 -0.03779785 -0.07667408 0.020509858

module.encoder.c1.main.3.weight f4 [32, 32, 3, 3]
00000000: 765a 80bb b98c 80bc 850e 24bd dfe6 9ebb
00000010: dace 9cbc 64ee 72bb 5031 4a3d a80a e33b
00000020: 6be4 6ebd 1852 25bc f6ce 9e3b fec1 25bb
00000030: d641 c4bc 019d 813c eb5d 5dbc 1004 593b
00000040: 9d4a c8b9 a7ec 41bc d79b 4abd 97da 1c3b
00000050: 6989 1b3c 339e 2abd 161a 123b 2e96 b2ba
00000060: 61cc 063c 2b29 34bc 487f d33c 4864 a4bb
00000070: 26c5 91bb d96a 4a3c 29ed dfbc 20c3 29bd
00000080: 2cea 0c3d 838b 3fbc 2cd5 063c ee68 35bc
00000090: dcb3 a73c 81fe 98bc 2d9c 91bb f2b5 a73b
000000a0: c2d7 cabc 136d 9a3c 0c89 ac3b 3a5d d4bc
000000b0: 2c03 5a3b dd41 1a3c 5e7a 103d 19ac 9c3c
000000c0: 2550 f93b 7305 563a 3fe4 c5bc a582 673c
000000d0: 1b48 0cbb 3b62 a33c f912 613b b06a d93b
000000e0: 4b96 1f3c ed49 ae3a a817 413c a53b 6fbc
000000f0: 388d 1b3d c06b 393b b156 eb3b 98b0 d73a
00000100: 5639 0e3c 5082 353c feee cabc 1db7 7b3b
00000110: 452e e8bc f8dc 173b 09bf 4f3b 4d7d 833c
00000120: 4431 54bb afdf 143b bb3b cc3a dc66 473c
00000130: e7d3 95bc 5327 acba 4a9a 8fbc 20a4 643c
00000140: 0772 493c 11b0 d2b9 d07f 713c 2f24 1f3c
00000150: 0577 07bb 68f3 c6bc 2c4c 1b3b 4e9d b2bb
00000160: afe4 33bc 18cd b73b a56e 5abd 85aa 033c
00000170: 010f b23b 60e6 b7bc 3bd2 00bd 25af 5e3a
00000180: 9aaa d5bc 5030 63bc c694 f039 d490 72bc
00000190: d582 683c 3b1e ad3c 0352 22b9 56cf 40bc
000001a0: 5ca9 20bc ec11 39b9 baa9 71bc 663d 88bc
000001b0: fc03 dabc 1c48 38bd e649 113a 0066 943c
000001c0: 5dee a6bc 3af6 8cbc 9e08 d2bc 21d7 93bc
000001d0: 6413 bcbc 4334 103c fed0 033d 511f 113c
000001e0: 4901 aa3c 244e 5c3c 2c45 adba 5eff c03b
000001f0: f4de 1f39 df8a 053c 25ed 313c 3047 b13c
00000200: 929e 05bd b4c0 51bc 5786 b63c 09e4 06bd
00000210: 3f07 d4bc a01b 91bc c202 6abd acc3 c3ba
00000220: a39f 41bd ac37 9539 8eef b0bc 79f3 dcbc
00000230: ea8e 20bd d99b b239 40a1 b23b 52ea b5bc
00000240: 423e 95bc f4e2 f3bc 8752 3bbc ef10 a13c
00000250: cde9 3c3c 25bb 8e3c 9580 8abb 49d1 68bc
00000260: f6f8 bcbc 62d0 eabb c1ca 503c ac0d 8e3c
00000270: 255c 543c cde7 613d d7b8 1a3d 637e 96bc
00000280: 7236 02bd cc5e 4dbd 2b39 cdbc a38a 403c
00000290: 98bf 94bc dffb e13b 3b57 96bb 9258 c33c
000002a0: a162 cb3c 7336 a0ba 6ec7 ba3c c661 293c
000002b0: 058c 40bc f8ee d0bb fca3 80bd 0abf b03a
000002c0: e6e6 1abc 6ac5 31bd 3dd6 6abb 0bd9 41ba
000002d0: 1b65 06bd e20d 46bc 90e7 1cbc 6f3b f43a
000002e0: 31fe 313c df8c a4bc ad04 42bc 6b3f 0abd
000002f0: e603 643c a104 8dbb 9fc8 463c a26a e4bc
00000300: f94e 11bb bc36 fa3c 8a10 9c3c 8556 c03b
00000310: 0309 d6bc 79c1 093c de65 c23c 4f43 fbbc
00000320: 4fa9 62bc e3d6 3e3d 808e 29bc fa5f 5cbd
00000330: f558 c8bc ca2e fabc ee43 80bc 3774 36bc
00000340: 282e c13b 642d bfbc 2a8e adbc e68a 203c
00000350: aa28 c8bb 768e 09bc b3e5 92bb ed48 ffbc
00000360: 938a 563c 9b03 233b 9cb9 71bc 2ce7 fabc
00000370: 4f0f c1bb 8c5f 67bc 02df 4f3b 9f8d 00bc
00000380: 1df1 173c 31e2 d2b9 6f2a 113d 19a2 f9ba
00000390: dfd6 5fbc 475d 37bc c10a f5bc 4f5d 963c
000003a0: 9d2a bc3b b90e cf39 3154 2f3d 8b4f 07bc
000003b0: 7500 d33b 981f 223c 93df 943c ca32 85bc
000003c0: c46e 863c e8eb 1abc 3d3e 983b 4827 29bc
000003d0: 3a17 28bd 14f3 5b3b 2afa 18bc f8fb 66bd
000003e0: 6584 a73c cc0f a83b 0e46 e9bc 82a8 43b9
000003f0: 55a1 49bc 60c1 ca3c 4656 313c 3c85 9a3c
-0.003917034 -0.015692102 -0.04005291 -0.0048492993 -0.019141603 -0.0037068361 0.049363434 0.0069287606
-0.058323305 -0.010090373 0.004846449 -0.002529263 -0.023957174 0.015821936 -0.013511161 0.0033113994
-0.00038202564 -0.0118362075 -0.049465027 0.0023934 0.00949321 -0.041654777 0.002229338 -0.0013625079
0.008227439 -0.010996143 0.025817528 -0.0050168373 -0.0044485508 0.012354576 -0.027334766 -0.04144585
0.03440301 -0.011690977 0.008229535 -0.0110723805 0.020471506 -0.018676044 -0.0044436664 0.005118125
-0.024761084 0.018850839 0.0052653607 -0.02592336 0.003326605 0.009415117 0.03527295 0.019125031
0.007608431 0.0008164264 -0.024156688 0.014130269 -0.0021405283 0.0199443 0.0034343584 0.0066350326
0.0097404225 0.0013297178 0.011785425 -0.014601623 0.037976474 0.0028292984 0.0071819653 0.0016455827
0.008680662 0.011078432 -0.024772163 0.0038408705 -0.028342376 0.002317248 0.003169956 0.016050959
-0.0032377997 0.0022716334 0.0015581766 0.01217052 -0.01828952 -0.0013134278 -0.017529625 0.013955146
0.012295253 -0.000401855 0.0147399455 0.009713217 -0.0020670306 -0.024285987 0.0023696525 -0.005450881
-0.010979815 0.005609166 -0.053328175 0.0080362605 0.0054339175 -0.022448719 -0.03145049 0.00084947265
-0.026082326 -0.013866499 0.00045887212 -0.0148050375 0.014191349 0.02113258 -0.00015480076 -0.011768183
-0.009806003 -0.00017649651 -0.014749939 -0.01663084 -0.026613228 -0.044990644 0.0005542323 0.018115044
-0.020377332 -0.017207254 -0.025638875 -0.018046917 -0.022958465 0.008801523 0.032181732 0.008857564
0.020752566 0.013446365 -0.0013219467 0.005889817 0.00015246478 0.008150785 0.010859762 0.02164039
-0.032621928 -0.012802292 0.022280855 -0.032932315 -0.025882361 -0.017713368 -0.057131536 -0.0014935634
-0.047271382 0.00028460973 -0.021598604 -0.026971566 -0.039198793 0.0003406692 0.0054513514 -0.02220646
-0.018218163 -0.029771306 -0.01143325 0.019661395 0.011530352 0.017423222 -0.004226754 -0.014210054
-0.023067933 -0.0071659544 0.012743653 0.017340504 0.012961422 0.055152703 0.037773933 -0.018370813
-0.031790204 -0.050139233 -0.025051674 0.011751804 -0.018157765 0.0068964805 -0.0045880354 0.023845945
0.024827303 -0.0012223258 0.022800174 0.010338252 -0.011752133 -0.0063761435 -0.062812775 0.0013484668
-0.009454465 -0.04340116 -0.0035833262 -0.00073947076 -0.032811265 -0.012088271 -0.009576693 0.0018633435
0.010863827 -0.020086704 -0.011841935 -0.033751886 0.013916945 -0.0043035303 0.012132793 -0.027882878
-0.0022172316 0.030543678 0.019050855 0.005869689 -0.026127344 0.008407944 0.023730215 -0.030671744
-0.013834312 0.04659165 -0.010348916 -0.053802468 -0.02445648 -0.030539889 -0.015657391 -0.011136106
0.005895395 -0.023337074 -0.021185953 0.009798741 -0.006108363 -0.008395782 -0.0044829487 -0.031162703
0.013094562 0.0024873975 -0.014753725 -0.03062781 -0.0058917175 -0.014121901 0.0031718616 -0.007846265
0.0092737945 -0.00040222847 0.03544086 -0.0019045501 -0.013662069 -0.011191673 -0.029912354 0.01835504
0.0057423846 0.00039493086 0.0428049 -0.008258711 0.0064392635 0.009895228 0.018173015 -0.01625957
0.016410239 -0.0094556585 0.0046460913 -0.010324307 -0.041037776 0.0033561634 -0.0093369875 -0.05639264
0.020448873 0.0051288363 -0.028475787 -0.00018659423 -0.012306531 0.024750412 0.010823792 0.01886236

module.encoder.c1.main.3.bias f4 [32]
00000000: 7cdf 54b6 141c 81b6 253e 8cb5 879b fd36
00000010: 55bf 85b6 ed28 16b8 5420 8cb5 f2a3 d934
00000020: b293 ad36 62f2 40b7 0145 53b6 141b 0736
00000030: dfc4 0536 ed5e 6fb7 66a2 1c37 ad30 b136
00000040: 4221 d1b5 5868 4633 73fc c6b5 fb27 fdb6
00000050: bcaf 80b6 607b 7e37 5e90 00b8 7dd3 a4b7
00000060: 7698 74b6 2d2f 87b6 b5ab 4636 c8cd 1336
00000070: c690 41b5 d58f fc35 647a 3f36 286f b835
-3.1720547e-06 -3.8477683e-06 -1.0448899e-06 7.5580933e-06 -3.985983e-06 -3.5800902e-05 -1.0440222e-06 4.0538686e-07
5.1729958e-06 -1.1500526e-05 -3.1481616e-06 2.013233e-06 1.9933138e-06 -1.4267612e-05 9.336136e-06 5.2806777e-06
-1.5581393e-06 4.6195368e-08 -1.4825622e-06 -7.544642e-06 -3.8351554e-06 1.5168305e-05 -3.065203e-05 -1.9648805e-05
-3.6447577e-06 -4.0288055e-06 2.9604246e-06 2.2024487e-06 -7.2108776e-07 1.8817324e-06 2.8532459e-06 1.3741419e-06

module.encoder.c1.main.4.weight f4 [32]
00000000: 6b50 7c3f bdd2 7c3f 0401 7d3f 9fac 813f
00000010: eea6 7e3f a8ce 7f3f cc32 7d3f e98d 7c3f
00000020: 6741 813f cea3 7d3f b62f 7d3f f261 803f
00000030: 0493 7f3f 36eb 7a3f 7675 803f 2f62 7d3f
00000040: 8fd7 7e3f 000e 7d3f 9f14 7f3f 01f4 793f
00000050: cf39 7f3f 59e5 7f3f bc4e 803f 9bd0 7f3f
00000060: bf6f 7c3f 7547 7e3f d690 803f 5603 7f3f
00000070: 622e 7e3f 1d17 7e3f f723 7c3f 6677 7b3f
0.9856021 0.9875906 0.98829675 1.0130805 0.99473464 0.9992471 0.98905635 0.9865404
1.0098084 0.9907807 0.98900926 1.002989 0.99833703 0.98015153 1.0035846 0.9897794
0.99547666 0.9884949 0.9964084 0.97637945 0.99697584 0.9995933 1.0024028 0.9992768
0.9860801 0.99327785 1.00442 0.99614465 0.99289525 0.9925402 0.9849238 0.9822906

module.encoder.c1.main.4.bias f4 [32]
00000000: 8a61 173d 45ea 843b 3a74 433c 1b85 f93c
00000010: 4324 0a3d 35bc 093d ccfe d1bc 4ffa 41bc
00000020: b094 113d c646 30bd b29b a13c 5fd3 d73c
00000030: f97a 88ba 49b6 a3bc afa2 d93c c1cb 9a3c
00000040: c8d1 8c3a 8972 b23c a7a3 ef3b 3922 393c
00000050: 3526 9e3c bc4c 013d f67e a5bc 0e50 133d
00000060: 3996 d73c 7e08 bb3c 4289 f83c b7ab 6d3c
00000070: 232a 0cbd 58d0 5bbb 66e2 963c cba9 36bc
0.036958255 0.0040562474 0.011929566 0.030458977 0.033725988 0.033626754 -0.025634192 -0.011839463
0.03554219 -0.043036245 0.019727562 0.026345907 -0.0010412625 -0.019984381 0.026566831 0.018895986
0.0010743672 0.02178313 0.00731321 0.011299663 0.019305328 0.03156732 -0.020202141 0.035965018
0.026316749 0.022831198 0.030338887 0.014506272 -0.034219872 -0.003354093 0.018418502 -0.01114888

module.encoder.c2.main.0.weight f4 [64, 32, 3, 3]
00000000: 031a 8abb 1aed 10bc 5a83 4a3c bf92 343c
00000010: 4f1f d5bb db3b 223c 4cd6 15bd 9db3 3e3d
00000020: 1039 653a c98a 553c 14d4 8e3b 2f10 d83a
00000030: 9389 bfbc 989a 33bd 3369 c8bc 8791 4338
00000040: 1c92 e7ba 09a2 dfbb 49d3 563c 46f5 32bc
00000050: c4f0 58bc 84eb c3bc 8d0a 81ba 8394 ca3a
00000060: 2dcc ddbc a654 133c b0af 163c 1ae7 abbc
00000070: 78b8 1cbc d589 143c 974a 8a3c a18e 26bd
00000080: c47a 39bb 351c 9dbc a607 433d 8fd2 6f3a
00000090: 9b79 86b9 53ba 0bbd cb12 eb3b ea62 02bc
000000a0: aeab 09bc d53d 263d 06f5 1cbc 78c7 6fbc
000000b0: f7e9 083a c1b8 cb3c 6d05 c2ba 66dd 0dbc
000000c0: de0e 81bc ebfb e339 3398 143b 2dbf e3bb
000000d0: 1092 1d3d 8e75 c3bc 0e66 21bc d9ab e2bb
000000e0: a6c9 a5bc 2ae7 acbc e9ad d5bb 0c73 a7bc
000000f0: 4f86 95bc f781 c3bc 6b62 7bbc 9d38 df3c
00000100: 7e74 eebc 3862 60bc bebc b6bc c3dc 42bc
00000110: 30c1 7dbb 5a57 233d 6450 c83c 2375 6bbc
00000120: 95bf 4abc 8c2f 2fbd b18b eb3c 104b 223d
00000130: 06b0 f63a dc8e ebbb e5cb e03c dcca 7c3c
00000140: 5ea6 09bc 35b1 583d 1242 233d e8e2 273d
00000150: 5362 d83a f256 0dbd cf15 c63c 60a9 183c
00000160: bc21 61bc f695 973c 5356 07bd 21cb 77bd
00000170: 05cc 72bc 6158 0e3d b562 88bc 4bb7 9d3b
00000180: e651 1c3d adcb 28bc a507 d0bb d8bc 873c
00000190: 9fa7 e33c 1c15 6fbc 430e d13c 6221 163c
000001a0: 9d05 6dbb d611 35bc aa74 2c3c 6627 6e3c
000001b0: 0b83 213d 3514 9f3c cfdf 1d3c 9c23 db3c
000001c0: e2c4 4539 555a 7c3c b3a8 173c 6485 e53c
000001d0: adee 0e3d 69d1 04bc 82c5 84bc 04f8 5fbb
000001e0: 8307 b1bc 0ea4 55bd 7d8b 443c 737d a23c
000001f0: 4ce1 0d3d 81a2 0c3d 3d28 67bd be9b 3cbc
00000200: eaa9 38bb 1123 bbbc a9c4 45bc 126f bd3a
00000210: 8aa0 643c a703 1b3c af15 bcbc 3c6c 283d
00000220: d826 15bd 012a 513b 29ae 7e3c 5ad3 49bc
00000230: 81a6 0b3c 640a 40bc 5117 233d b2cd 60bd
00000240: 6a01 3e3c adba 9cbc 1192 823b 891e e53c
00000250: e6fc 8cbc df97 3a3d a4e7 8d3c e024 e3bb
00000260: 31d6 ec3a b4db 86bc 9ffb 0bbc bf4c 973c
00000270: ed74 7c3b 63b5 a53c 176b c9bc 2aba c5bc
00000280: 20d4 f9ba 38c2 fdbb da86 543c eee8 fe3a
00000290: 42a9 c4ba 1a60 31bc c7a9 1bbd fe90 2e3c
000002a0: afd1 6dbc e265 7b3a 3d9f 1fbd 69b1 83bb
000002b0: deaf 8e39 9924 ffbc 53df ccba 8ab2 73bc
000002c0: 0a2a c5bc 923a 433c a587 4cbd 6687 85bc
000002d0: 63eb 3bbb 97ce 6dbc 0e2b 7eb9 53fc 98bb
000002e0: 9d41 933c aeae 19bc 4e5f e1bc fcf3 133d
000002f0: d826 2e3c 72cb 683d 6a90 0bbc 2416 31bc
00000300: 9be9 0c3d 761b 61bd 9f01 353c c67d 2abd
00000310: 87f8 81bc 7db7 ba3b d416 d53c 34eb 6a3c
00000320: f841 b13c 5300 8f3c 7510 023d b94f 92bc
00000330: 1be5 2fbc 8b04 0d37 39f4 53bc c671 5b3b
00000340: afca 80bd 97a6 9e3c 3df8 133c e9ca 0ebb
00000350: 8ce2 0cbc 7568 b63c f245 e9bb bf1b 1d3d
00000360: 272d d0bc a319 ddb8 0dfc a2bc 48e0 0bbb
00000370: 6dc7 2fbc bd1b 883c aeba d73c 3459 abbb
00000380: 664c 1cbc 1931 45bd 4c26 0b3c f564 26bc
00000390: f57c 94bb 122f 21bd c9e6 ff3b f5e0 bc3c
000003a0: 7969 1b3d 3304 f8bb 0e4e 053c 49dc 203d
000003b0: fcd0 f03c 5660 c53c 31ec c4bc 6ad7 e63c
000003c0: ba7a 89bc ea25 d13c 77c6 e5b9 009c f8ba
000003d0: b075 b6bb 63e0 b53c 5321 8bbc 6dd2 65bd
000003e0: 8896 68bd 7ec8 12bc 4d42 8d3c 3699 9a3c
000003f0: 6a44 81bc 265f c43c e30a 593b 6f15 d83c
-0.0042145266 -0.008845592 0.012360418 0.011021315 -0.0065039764 0.009901966 -0.036581323 0.04655801
0.000874416 0.013033577 0.004358778 0.0016484315 -0.02338103 -0.043848604 -0.024464225 4.6627156e-05
-0.0017667445 -0.006824736 0.013111898 -0.010922736 -0.013240997 -0.023916014 -0.0009845063 0.0015455637
-0.027074898 0.00899235 0.009197161 -0.020984221 -0.009565465 0.009066065 0.01688127 -0.040663365
-0.0028301934 -0.01917849 0.047614716 0.0009148502 -0.00025649075 -0.03411324 0.007173871 -0.007958153
-0.008402748 0.04058631 -0.0095799025 -0.014634959 0.0005222852 0.024868371 -0.0014802642 -0.0086587425
-0.01575416 0.00043484507 0.0022673726 -0.00695028 0.038469374 -0.023859765 -0.009850992 -0.0069174585
-0.020237755 -0.021106321 -0.006520976 -0.0204406 -0.01825252 -0.023865683 -0.015343289 0.027248675
-0.029108282 -0.013695292 -0.022306796 -0.011893454 -0.0038719885 0.039878227 0.024452396 -0.014371189
-0.012374778 -0.042769954 0.028753133 0.039622366 0.001882077 -0.007188661 0.027440974 0.015429225
-0.008401481 0.052903373 0.03985793 0.04098788 0.0016508795 -0.034506746 0.024180321 0.009317726
-0.013740953 0.018504124 -0.03304131 -0.060496453 -0.01481915 0.034752253 -0.01664863 0.00481311
0.038164042 -0.010302466 -0.0063485675 0.01656954 0.027789889 -0.014592435 0.025519496 0.0091632325
-0.0036166676 -0.011051616 0.010525862 0.0145357605 0.039431613 0.019418815 0.00963588 0.026750378
0.00018860729 0.015402396 0.00925653 0.028017707 0.034895588 -0.008106568 -0.01620746 -0.0034174928
-0.021610027 -0.052158408 0.011996147 0.01983521 0.034638688 0.034334663 -0.05643486 -0.011511741
-0.0028177449 -0.02284387 -0.012070813 0.0014452657 0.013954291 0.00946132 -0.022959558 0.041118845
-0.036413997 0.0031915905 0.015544453 -0.012318457 0.008523584 -0.011721227 0.039817158 -0.054883666
0.011597017 -0.019131983 0.0039846976 0.027968662 -0.017210435 0.04555499 0.017322369 -0.006931886
0.0018069205 -0.016462184 -0.008543878 0.018469213 0.0038521842 0.020228093 -0.024587197 -0.024136622
-0.001906041 -0.0077441 0.012971604 0.001944808 -0.0015004056 -0.010826135 -0.03800371 0.010654686
-0.0145153245 0.0009590072 -0.03897022 -0.0040189517 0.00027215382 -0.03114538 -0.0015630521 -0.01487411
-0.024067897 0.01191582 -0.04993405 -0.016299915 -0.0028674237 -0.014514587 -0.00024239367 -0.0046687513
0.017975623 -0.009380026 -0.027511265 0.036121354 0.010629378 0.056834646 -0.008518318 -0.010808501
0.03440247 -0.05495783 0.01104775 -0.041623853 -0.015865577 0.005698143 0.026011862 0.014338303
0.021637902 0.01745621 0.031753976 -0.01786028 -0.010735775 8.405313e-06 -0.012936645 0.0033484562
-0.06288659 0.019366546 0.009031353 -0.0021788424 -0.008598935 0.022266606 -0.007118934 0.03835654
-0.025412155 -0.000105428764 -0.019895578 -0.00213434 -0.010728699 0.01661479 0.026334133 -0.0052291397
-0.009539699 -0.048142526 0.008493017 -0.010155906 -0.0045314976 -0.03935153 0.007809494 0.023056487
0.037942383 -0.00756886 0.0081362855 0.03927258 0.029396527 0.024093788 -0.024038406 0.02817889
-0.016782153 0.025530774 -0.00043826152 -0.001896739 -0.0055682287 0.022201722 -0.016983664 -0.05610888
-0.056784183 -0.008958934 0.017243529 0.018871885 -0.015779693 0.023971152 0.0033118061 0.026377408

module.encoder.c2.main.0.bias f4 [64]
00000000: 9260 0a37 f257 d234 ee91 07b6 095b f9b5
00000010: 4969 68b4 faea b1b4 ed08 9e35 9970 0f36
00000020: 0e44 a2b4 420a 53b5 4745 6cb5 d091 dfb3
00000030: 8a6d c9b5 724f b6b5 51a1 9832 1311 7d34
00000040: a7bf 5fb5 9c8e ec35 1228 05b6 ffc6 b135
00000050: fdbb a7b3 07a4 0035 1b60 a336 a8a2 0136
00000060: 1f21 12b5 1cf2 dfb3 43e5 1636 69af 0c34
00000070: 17d7 35b5 d3a7 b7b5 1db7 9e35 b660 28b5
00000080: f1d0 9b36 50e1 1435 4924 0f35 2129 bbb5
00000090: a0c5 8fb4 ff6e a4b5 f843 9835 0b4f 3cb4
000000a0: 9746 24b5 9ef8 8334 74d9 88b6 9790 c3b6
000000b0: 89ac 28b5 9ae0 ee35 13db 0db5 142d cb35
000000c0: fbaa f9b5 c33a bfb3 464d 3436 47c3 ea33
000000d0: 1e7a 4635 9993 afb4 a801 b334 4dd1 cbb3
000000e0: 33a4 6335 8c35 2536 dca4 cdb4 d060 a536
000000f0: ec16 a8b5 ae11 e3b4 5116 4f33 8bb1 9ab5
8.2479255e-06 3.9179537e-07 -2.020151e-06 -1.857844e-06 -2.1644986e-07 -3.3139787e-07 1.1774515e-06 2.13742e-06
-3.0224368e-07 -7.861855e-07 -8.8017663e-07 -1.041077e-07 -1.5007547e-06 -1.3583178e-06 1.7768487e-08 2.3568673e-07
-8.3352865e-07 1.7624875e-06 -1.9841868e-06 1.3245443e-06 -7.8107384e-08 4.7922407e-07 4.8689667e-06 1.9317176e-06
-5.4437436e-07 -1.0428286e-07 2.248519e-06 1.310233e-07 -6.774075e-07 -1.3683406e-06 1.182521e-06 -6.272561e-07
4.643684e-06 5.546217e-07 5.3324453e-07 -1.3944556e-06 -2.6779617e-07 -1.2251256e-06 1.1344664e-06 -1.753762e-07
-6.119748e-07 2.4581544e-07 -4.0784307e-06 -5.8282853e-06 -6.283595e-07 1.779775e-06 -5.284539e-07 1.5137798e-06
-1.8601708e-06 -8.904819e-08 2.686707e-06 1.0931995e-07 7.393845e-07 -3.2703682e-07 3.3342553e-07 -9.490996e-08
8.480303e-07 2.4618084e-06 -3.8304177e-07 4.9286537e-06 -1.2523647e-06 -4.2294909e-07 4.821624e-08 -1.1525566e-06

module.encoder.c2.main.1.weight f4 [64]
00000000: 0b48 813f 11cf 7e3f 8a6b 803f d528 7e3f
00000010: a764 7f3f cf01 7d3f d91c 7f3f 6eab 803f
00000020: dc94 7d3f eee9 7e3f 9912 803f 3850 803f
00000030: 8b6f 803f 0b4f 7f3f 3839 803f 7eb4 803f
00000040: cc78 7e3f c66b 7f3f aee0 7f3f 9282 7d3f
00000050: c85f 7f3f 1716 7e3f 51d6 7f3f 58d2 7f3f
00000060: a927 813f 288d 7e3f 827b 803f c88a 7e3f
00000070: a1af 7d3f d29d 7f3f f801 803f 3564 7f3f
00000080: aa03 803f 0a66 803f ae4c 7c3f 4b24 803f
00000090: bcb0 803f f46f 7e3f 67c9 7e3f e79f 7f3f
000000a0: 1f49 7f3f 5824 803f b981 7f3f 2067 7c3f
000000b0: 596e 803f 44ab 7e3f 27d9 7f3f ca98 7f3f
000000c0: a3f7 7f3f e428 803f 48e5 803f 2807 803f
000000d0: e4e4 803f 51fa 7e3f dca3 803f cfa8 823f
000000e0: ce8c 823f 42dd 803f 124f 803f e2fc 7f3f
000000f0: a186 803f 08df 7e3f 919d 7d3f bc75 803f
1.0100111 0.9953471 1.0032818 0.99281055 0.9976296 0.98830885 0.99653393 1.0052316
0.99055266 0.995757 1.0005676 1.0024481 1.003404 0.99729985 1.0017462 1.0055082
0.9940307 0.99773824 0.9995221 0.9902736 0.99755526 0.99252456 0.99936396 0.99930334
1.0090228 0.9943414 1.0037692 0.99430513 0.99096113 0.9985019 1.0000601 0.9976228
1.0001118 1.003114 0.98554504 1.0011076 1.0053935 0.99389577 0.99526066 0.99853367
0.9972095 1.0011091 0.99807316 0.98594856 1.0033675 0.9948008 0.99940723 0.9984251
0.9998724 1.0012479 1.0069971 1.0002184 1.0069852 0.996007 1.0050006 1.0207766
1.019922 1.0067523 1.002413 0.99995244 1.0041085 0.9955907 0.9906855 1.003593

module.encoder.c2.main.1.bias f4 [64]
00000000: 64ed 15bd 108d 23bc 7c0b 953b 3d75 24bc
00000010: b037 37bc aef3 06bd 8712 5ebb 4ad7 f7bb
00000020: 31f3 1fbc 582a 33b9 1214 1ebd 12bf 60bb
00000030: 84ac 01bb b49d 3bbc c0db 9fba a00a a9ba
00000040: 534b 53bb fdd6 02bc 11c1 1139 bf00 13bc
00000050: 5d58 87bc 0215 3cbc 4ca3 10bc 1f9b 7cb9
00000060: 43ce 13bd a48b e2bb e1d7 87bc 13b5 72bc
00000070: 0727 22bc fb5c 3abb 5ffc d9bb 0101 11bc
00000080: 5961 24bb 6034 a1bb d727 2cbc 1274 a0ba
00000090: 3440 0cbb 0336 b3bb 2852 e53b 5e9e d1bb
000000a0: 5067 a0bb 126c 94bb 71df 08bb e584 9fbb
000000b0: 46e9 4bba 2b1f 4ebb 1dff a53b e63f 79bc
000000c0: 98e9 253c 2b6e 8dbb 9e3e dcbc 4bea e6bb
000000d0: 2130 c93b bbc1 e9bb 00df 1cbd 97f2 e1bc
000000e0: 6551 903b 4110 bcbc 6f7f c5bc d69c 94bb
000000f0: 9553 bf3b ca47 01bc 7928 17bc a12e 9dbc
-0.036603346 -0.009982362 0.004548488 -0.010037717 -0.0111827105 -0.032947235 -0.0033885555 -0.0075635063
-0.009762571 -0.00017086545 -0.03859336 -0.0034293574 -0.0019786665 -0.011451174 -0.0012196228 -0.0012896843
-0.0032240942 -0.0079858275 0.000139002 -0.008972346 -0.016521627 -0.011479618 -0.0088279955 -0.0002409038
-0.03608538 -0.006913619 -0.016582431 -0.014813679 -0.009897 -0.0028436768 -0.0066523994 -0.008850337
-0.0025082438 -0.0049195737 -0.010507545 -0.0012241623 -0.0021400573 -0.005469085 0.006998319 -0.0063970527
-0.0048951283 -0.0045294845 -0.0020885135 -0.004868137 -0.0007778596 -0.0031451683 0.0050658123 -0.0152129885
0.010126494 -0.0043161116 -0.026885327 -0.007046973 0.0061397706 -0.00713369 -0.038298607 -0.027581496
0.0044042342 -0.02295697 -0.024108617 -0.004535298 0.005838821 -0.007890651 -0.009225958 -0.019187273

module.encoder.c2.main.3.weight f4 [64, 64, 3, 3]
00000000: 2bb9 20bc 71cc 403b df75 93bb c6c0 d6bb
00000010: 3fda 813b d898 9bbb de0d cf3b 409a 8d3c
00000020: 8d43 cdbc 33c2 13bc 9ac0 23bd 9b80 acbb
00000030: fb66 bd3c f87a 063d bdbc 553c 2e14 0abd
00000040: e597 063d a2ad bc3c 7218 76bc 9baf b53c
00000050: 423c e23b 5fba 233b 6d08 b43a 4f2b bd3c
00000060: 36c2 c1bb b43b 8f3c 5a2e 553b 1c6f 633b
00000070: 8dad 463c 747b 8c3c 3b08 343c ff89 da3c
00000080: 501b 87bc 4306 763c b765 b93c f28e 3cbd
00000090: cbc0 aa3c a74c 693c 88eb e7bb 8722 3a3c
000000a0: c17e 45bc ea01 e9bb f235 1c3c 8072 20bd
000000b0: 6ba9 c2bb acb4 2f3c 9656 8f3c d370 273c
000000c0: 7a17 8c3b b3d5 a93b a736 333c d0b0 633c
000000d0: f2db b53c 12fd 0b3c de06 503c 6708 00bd
000000e0: eb88 65bc f0f3 3cbb 16ee 0d3d 9f2b 0cbc
000000f0: ce70 b93b 24dd ff3b e1b9 a63c a579 893d
00000100: eeeb 023b 83a6 83bc e52d 76bb 7bbd a93b
00000110: 895a 363d 50e6 c53c a83c c3bc 6d29 55bd
00000120: e9ce a43c 0a06 bdbc 425f 793c c445 fcb9
00000130: 92bd acbc 1982 1d3c e534 88bc b952 b4bc
00000140: d223 893c b97f 87bc df2f 053d 11ec 38bd
00000150: 9682 3a3a 37f9 04bd 84ea 4fbd ffa9 e9bc
00000160: f672 a7bc 0931 c03b a6d2 603c d1c0 d03c
00000170: e5d1 2d3d ca3a 24ba c1cf bc3c 7f55 53bd
00000180: dc1d aebc d0ed 1dbd d32a 95bc 96ec 33bc
00000190: f946 533c b10f 333c 5af9 9cbc 8299 423b
000001a0: f46c 88bc c510 853b d0cc 453c 1cae f3bc
000001b0: b43b 08bc fe8d 273c 5cc6 afbc 3116 b6ba
000001c0: 443c 18bc 2405 ae3c 5003 b7bc 96d8 063d
000001d0: fbdd 183b 6a65 cf3b a9b3 eb3c e1ed 32bc
000001e0: f048 b4bc 23f2 0cbd d9be 783c cafd 9e3b
000001f0: 748e 883a a03f 5f3b a6eb 1ebc 6e92 e3bb
00000200: ab8a 3bbc 5f07 11bd 241e b03c cd18 f53b
00000210: e99e 443d 4883 81bc 38dc 553b b08c de3b
00000220: beed 29bc 0435 8c3b 1349 b13c 0f07 873c
00000230: ec65 c3b9 e442 0b3d 672b 8a3c 9188 90bb
00000240: b1ad e93b d34e 933a 7d38 f53c 4ab0 06bc
00000250: 4011 fdbc 779b 4a3b fb40 343c 2788 0bbb
00000260: 6090 2b3c c2d9 e6bc 0ebc 2d3c 17d1 d83b
00000270: 3958 e53b 3d54 763c 31af 0c3c 9ed1 dbbc
00000280: db40 7a3c 49d0 e23b c51a b83c 4669 c2bb
00000290: f7de 3a3c 4bb6 843c 7c89 27bc 1162 7dba
000002a0: f1ca 143c 0085 59bc 5f3f 19bb bf6d 86bc
000002b0: 9682 883c ad6a e43b e80b ca3c dbac d83b
000002c0: 2141 3b3c a619 b0bc 0f19 98bb 9f15 d03b
000002d0: 7173 86bc 5f9d 8c3c d5e3 b33c 03d0 27bd
000002e0: 1bc4 8abc e070 39bc 5203 85bc f1e7 923c
000002f0: a45d 5cbd 54ad b93c 95c6 afbc 6d59 62ba
00000300: f807 f83c 6e80 cd3c 0826 cc3c d843 043c
00000310: 908f da3b 3189 e43c ad83 aabb 4101 89bc
00000320: 30b4 9a3c ac38 523d 1cfa e03b 5f65 cd3c
00000330: 1899 07bd 565c 1abc 01c3 1abc f706 253c
00000340: a866 46bc f3d5 9f3c 45bf 8abb 2dee 773c
00000350: ff7d 1a3b 9295 2f3d d9e7 36bc 9343 ccbc
00000360: c20e b2bc 1b6b 30bc e97e ba3c 1c68 133b
00000370: 2421 4abd de10 cfbc 0ea9 08bd f808 c1bb
00000380: 8341 7d3c f5f2 cc3c 3e8a 7b3c 8084 f33b
00000390: 75ab d83b 311f 80bc 03b9 713c 1a9d 67bc
000003a0: d22c 9cbc 1994 243d fb4d bcbc 5eee b93b
000003b0: 40c4 fe3b 5679 89bc db0c 1ebd 0add b93b
000003c0: 5828 d0bb e7ef 823c d2c6 0abb a856 09bd
000003d0: d996 55bb 8f07 8abc ab98 a8bb 9f1c 88bc
000003e0: 74b9 173d 15d1 2abb ae23 083c 6cb4 d8b9
000003f0: 8450 f4bb 49bc ca3b 6f5f 85bb 10f6 7e3c
-0.0098097725 0.0029418732 -0.0045001353 -0.006553742 0.0039627845 -0.004748445 0.006318792 0.017285466
-0.025056625 -0.009018469 -0.0399786 -0.0052643544 0.023120394 0.032832116 0.013045487 -0.03371065
0.0328597 0.023032013 -0.015020477 0.022178462 0.006904156 0.0024982912 0.0013735421 0.02309194
-0.0059130443 0.017484523 0.0032528848 0.0034703678 0.012126339 0.01714871 0.01098829 0.02667713
-0.016492516 0.015016141 0.02263151 -0.04603476 0.020843884 0.014239467 -0.007077638 0.011360771
-0.012054146 -0.007110824 0.009534346 -0.039171696 -0.0059406064 0.010724228 0.017497342 0.0102197705
0.0042752596 0.0051829456 0.010938323 0.013897136 0.022199605 0.008544223 0.01269695 -0.031258013
-0.014009695 -0.0028831922 0.034650885 -0.008555322 0.0056591993 0.0078083444 0.020352306 0.06712655
0.001997705 -0.01607061 -0.0037563976 0.0051800585 0.044519935 0.024157673 -0.023832634 -0.05204146
0.020118194 -0.023074169 0.015220465 -0.00048117165 -0.021086488 0.009613537 -0.016626785 -0.022012101
0.016740713 -0.016540395 0.032516357 -0.045147005 0.0007114796 -0.032464232 -0.05076076 -0.028523443
-0.02044056 0.0058652204 0.0137220975 0.025482567 0.0424365 -0.0006264864 0.023048284 -0.051595207
-0.021254472 -0.038556874 -0.018208897 -0.010981699 0.012895339 0.010929034 -0.019161869 0.0029693549
-0.016653515 0.004060837 0.012072757 -0.029746108 -0.008315016 0.010226725 -0.02145689 -0.0013892112
-0.009291712 0.021242686 -0.022340447 0.032921396 0.002332567 0.006329228 0.028772192 -0.010920973
-0.022007436 -0.034410607 0.01518222 0.0048520314 0.0010418431 0.0034065023 -0.009699738 -0.006944946
-0.011446635 -0.03540742 0.021498747 0.007479763 0.04800311 -0.01580967 0.0032632481 0.0067916736
-0.010371624 0.004278781 0.02164129 0.016482858 -0.00037269236 0.03399934 0.016866399 -0.0044108112
0.0071313013 0.0011238701 0.029934162 -0.0082207415 -0.030892015 0.0030915418 0.011001821 -0.002129087
0.010471433 -0.028180007 0.010603918 0.0066167223 0.0069990424 0.015034732 0.008586691 -0.026833352
0.015274252 0.006921802 0.022473702 -0.0059329597 0.011405698 0.016200205 -0.01022565 -0.0009665797
0.009081588 -0.013276339 -0.002338372 -0.016409753 0.01666383 0.0069707246 0.02466388 0.006612403
0.011429102 -0.021496605 -0.004641659 0.0063502337 -0.016412469 0.017164884 0.021959225 -0.04096986
-0.016939213 -0.011318415 -0.016236935 0.017932864 -0.05380024 0.022665657 -0.021456996 -0.00086345413
0.030277237 0.025085654 0.024920478 0.008072816 0.006669946 0.02789745 -0.0052036853 -0.01672423
0.018884748 0.051323578 0.006865753 0.025072752 -0.033104986 -0.009421429 -0.009445907 0.010072461
-0.012109436 0.019511199 -0.004234227 0.015132469 0.0023573635 0.04286725 -0.011163675 -0.024934566
-0.021735553 -0.010767723 0.022765594 0.0022492474 -0.04934801 -0.025276598 -0.033364348 -0.0058909617
0.015457514 0.025018195 0.015352784 0.0074315667 0.006612236 -0.015639873 0.014753583 -0.014136577
-0.01906434 0.0401803 -0.022986403 0.0056741675 0.0077748597 -0.01678149 -0.03858648 0.005672102
-0.0063524656 0.015983535 -0.0021175635 -0.033529907 -0.0032591133 -0.016849307 -0.0051451526 -0.01661521
0.037042096 -0.0026064564 0.008309288 -0.00041333155 -0.0074558873 0.006186996 -0.0040702145 0.015561596

module.encoder.c2.main.3.bias f4 [64]
00000000: 9999 d8b4 da44 3d35 65e9 b832 19f8 9935
00000010: 3a69 dcb4 e118 f434 90b0 39b5 da0b 82b4
00000020: 614d 9cb5 6d8b 6a35 d393 02b5 4dba c935
00000030: 58d5 6c34 0ebb 18b3 7e0d 90b5 8d1c 0035
00000040: cdf1 a934 5891 8cb4 080d ab35 41db 1934
00000050: 211d 0d36 6059 8234 053c c435 53a4 9b33
00000060: 9d9c 3b35 8811 77b5 901c 89b3 e06d 0f35
00000070: 76fe 02b5 5f8b 0a35 c72a 97b2 e89c fab4
00000080: a65a 9134 a75a 1434 e88c c2b4 b2fd ccb4
00000090: 6b27 6b35 ec39 a234 be99 9fb5 9383 ed32
000000a0: ab66 bb32 eb97 e032 79ee 86b4 f408 fcb3
000000b0: 1e1a 41b4 aa1b 9a33 0bc3 79b4 101f 19b5
000000c0: f7e2 0b35 4df8 8835 b91f fbb2 6b31 a533
000000d0: 7b98 8fb5 d924 f8b3 df86 ffb4 ee19 2b35
000000e0: 7233 b735 77be 5fb3 215d 2a34 4945 c2b4
000000f0: 8e3e 0136 a531 8ab4 3dcd 0634 466d d7b3
-4.0344892e-07 7.050818e-07 2.1526555e-08 1.1471594e-06 -4.1054756e-07 4.5466643e-07 -6.91748e-07 -2.422301e-07
-1.1645426e-06 8.7374684e-07 -4.8643886e-07 1.5029888e-06 2.2056827e-07 -3.5560383e-08 -1.0732763e-06 4.772526e-07
3.1654636e-07 -2.6182784e-07 1.2744285e-06 1.4329e-07 2.1027593e-06 2.4279416e-07 1.4620606e-06 7.24764e-08
6.989083e-07 -9.204018e-07 -6.384755e-08 5.343154e-07 -4.8799063e-07 5.161182e-07 -1.7598166e-08 -4.6680293e-07
2.707431e-07 1.3816553e-07 -3.623784e-07 -3.818255e-07 8.760168e-07 3.0216995e-07 -1.1891168e-06 2.7650264e-08
2.1816353e-08 2.6146116e-08 -2.5132957e-07 -1.1736293e-07 -1.7984027e-07 7.176216e-08 -2.3260888e-07 -5.7042143e-07
5.211181e-07 1.0205055e-06 -2.9234672e-08 7.6924e-08 -1.0698708e-06 -1.15551025e-07 -4.7595583e-07 6.3740197e-07
1.3649535e-06 -5.209446e-08 1.5866364e-07 -3.6185727e-07 1.925891e-06 -2.5740624e-07 1.2554388e-07 -1.00315944e-07

module.encoder.c2.main.4.weight f4 [64]
00000000: 1ef5 7e3f d59f 7f3f a38e 7e3f 3aa4 803f
00000010: 3fd3 803f c44d 803f db92 7f3f c6b0 7f3f
00000020: 0a88 803f 9591 803f 2edf 7d3f 8410 803f
00000030: b063 803f 129c 7f3f b9a2 7f3f 7228 803f
00000040: 9d42 803f f9af 7e3f c138 803f 80b6 7f3f
00000050: e21c 813f 826a 7f3f 1dde 803f e0b6 803f
00000060: 51a9 813f 7588 7f3f 7b29 803f f4f5 7f3f
00000070: 69fa 7f3f 14bb 7f3f 0108 7f3f 9867 7f3f
00000080: bb75 7e3f a051 7f3f fbd2 7e3f 987b 7f3f
00000090: 5a35 803f af72 803f 8255 803f ad92 803f
000000a0: 5c6d 7e3f c019 7e3f 6ff2 7f3f 4590 7f3f
000000b0: e444 813f 54c0 7e3f 8912 803f 69e0 7e3f
000000c0: 2f04 803f ad19 803f 9e30 7d3f 684c 803f
000000d0: 7cbb 7f3f 8926 803f 0ce7 7f3f d8dd 7c3f
000000e0: 0f96 7e3f b3c9 7e3f 9a95 7d3f 4a8c 803f
000000f0: 3154 833f 04c6 813f 62d9 7d3f 0534 7b3f
0.9959277 0.9985326 0.99436396 1.0050118 1.0064467 1.0023732 0.9983346 0.9987911
1.0041516 1.0044428 0.9916867 1.000504 1.0030422 0.9984752 0.9985767 1.0012343
1.0020329 0.9948726 1.001732 0.9988785 1.0086939 0.99771893 1.0067784 1.0055809
1.0129796 0.9981759 1.0012659 0.9998467 0.9999147 0.99894834 0.9962159 0.99767447
0.9939839 0.99733925 0.9954068 0.99797964 1.0016282 1.0034999 1.0026095 1.0044762
0.9938562 0.9925804 0.999793 0.9982951 1.0099149 0.9951222 1.0005656 0.9956117
1.0001277 1.0007836 0.9890231 1.0023317 0.99895453 1.001176 0.99961925 0.98776007
0.9944772 0.9952652 0.990564 1.0042813 1.0260068 1.0138555 0.99159825 0.9812625

module.encoder.c2.main.4.bias f4 [64]
00000000: 7188 ccbb a25d adb9 4823 27bb 124a a6bc
00000010: d7df 81bc ab63 553b 27dc c6ba 250c 85bb
00000020: 2216 253b 64da 0bbc 86cf 533b 17e0 bebc
00000030: ee7e cfbb b0e7 bbbb e9ff 083b 489a 09bc
00000040: 8281 24bc 6a9e 9fb9 74ab 5fba 793a 423b
00000050: 31aa 91bb 9259 debb bddc d3bc 498c 38b8
00000060: 204b 0ebd d810 06bc e073 623c 3e9f 69bb
00000070: d414 6f3c a9d7 4dba 54d0 1bbb 1bc6 68bb
00000080: 64dc 63bc 8951 66bb 8ecf 8cba 2f01 ddbb
00000090: f2a1 84bb 8cad 9abb c688 71bb 569d d73b
000000a0: 601d 8ebc 38ce aabb 8e86 013b 8261 403b
000000b0: 469d 42bc 1cfe d8bb 40b9 b43b 2ed6 0ebc
000000c0: f13d 31bb b0f6 11bb 222c 4abc 574f 30bb
000000d0: a523 463c a3ce 95b9 b286 f5b9 9fdc d7bc
000000e0: a824 b2bc 4d63 b23a cb33 a5bc 1588 f7ba
000000f0: c83e 09bd ec80 923c 1c0f 50bc 6957 883b
-0.006241851 -0.00033066893 -0.0025503207 -0.020298991 -0.015853805 0.0032560627 -0.0015171812 -0.0040602856
0.0025190194 -0.008535955 0.0032319739 -0.023300214 -0.00633227 -0.0057344064 0.0020904487 -0.0083986
-0.010040643 -0.0003044487 -0.00085323234 0.0029636903 -0.004445337 -0.00678558 -0.025862092 -4.399967e-05
-0.034739614 -0.008182727 0.013821572 -0.0035647894 0.014592368 -0.0007852265 -0.0023775296 -0.003551847
-0.013907526 -0.0035143814 -0.0010743008 -0.006744526 -0.0040476257 -0.0047203954 -0.0036855205 0.006580035
-0.017347991 -0.0052125715 0.0019764039 0.0029354994 -0.011878317 -0.006622089 0.0055152476 -0.008718057
-0.0027044977 -0.0022272281 -0.012339624 -0.002690276 0.012093459 -0.0002857345 -0.00046830397 -0.026350318
-0.021745995 0.0013609916 -0.020166298 -0.001888516 -0.03350714 0.01788374 -0.012698915 0.0041608107

module.encoder.c3.0.weight f4 [32, 64, 3, 3]
00000000: 5fd0 013d 00aa 3bbc 7487 b2bb f332 353d
00000010: dbb5 533c 64a6 f53c 1468 b63c 8740 78bb
00000020: 969a 483c f248 6d3b 0390 8c3c 252e 19bc
00000030: 2027 38bc 97cf 183d 125b 1fbd afd0 26bc
00000040: f2ec e6bb 7a1c f1bb b562 16bb c63c bc3c
00000050: 2d74 c93c 91ed 7a3c db78 4ebc 0e55 febb
00000060: 7498 5b3c d6cc f4bc 4e84 c13c a105 7d3c
00000070: 8b2e 59bc 5546 3aba 358f c53c 17fd 9bbb
00000080: 453d 033d df40 2abc e552 9bbc 21d1 70bc
00000090: 46bb 8e3c ca58 2cbd 657c c43c 5bde babc
000000a0: 376c 8d3a 2080 89ba 9411 e23b b98d 273d
000000b0: 6fa1 0bbc f6ed ac3a 5b30 0bbc 2b92 893c
000000c0: 5db9 9fbc bf35 1bbb 2f87 b23c 94bb 7b3a
000000d0: 5a0e 0fbd c024 bebb d469 653c 3c75 5abb
000000e0: 590b 953b 6519 a73c ca73 043b 48f3 f6ba
000000f0: 2760 0dbc 1502 67bd 13a4 5fbc d1ec b43b
00000100: 37a4 41bc 3b87 053c 412b e63b d05a ce3c
00000110: 52cf bb3c 0170 02bd 7410 523c f2b1 07bc
00000120: aee9 9bbc 4b33 d33c 76b1 ae3c dde2 85bc
00000130: 5462 eebc 84db 63bd 53c2 253c e5fb 0f3b
00000140: 50ff 293b c764 773c 31d3 f23c b236 183d
00000150: 84ea 0e3d 650a 713c 7c0f 903c 713c 0bba
00000160: 6516 bd3c 8682 073d 42cb 6ebc 0e82 913b
00000170: bff9 fd3a c6ec 143b 87b9 bcbc cce3 eb3a
00000180: 4d4d d7bc 7f75 7fbb 0eb2 003c efa6 33bc
00000190: 82df c03c b640 09bc be60 88bc 97fe 073d
000001a0: e009 a63c 44e5 cf3b d91b 0fbd 1b34 19bc
000001b0: a8e8 81bc e57d 193c bf30 82bb 8aea 70bc
000001c0: a2ac 623b 6683 363d b1bd 2fbc 65fa b33b
000001d0: f4e1 5d3c c07c 0c3d 7aa2 b13b 6d01 88bc
000001e0: 2319 d03c ca1f 023b 0b8e b6bc 111c ac35
000001f0: 59bb 293d 65b6 04bb 29da ddbb ab98 8f3c
00000200: ae5a 48bb a78b 95bc 6f79 c039 889d 863c
00000210: a82b 163d 6b60 09bc 5f86 1abd d81a 9dbc
00000220: 061e 92bc d863 88bc 095d 30bc de8e 2dbc
00000230: 9a0c 28bd ebec 0abd b087 e3bc ebf3 ca3a
00000240: f8e5 783c 1c73 443d b109 23bd 586d 3d3b
00000250: e4f2 513c 71c7 533c 2fe7 313c b654 4b3c
00000260: a543 18bc 48fe e43c 8cd0 8bbc bd77 ab3c
00000270: ea07 913b 18d2 b83c 0379 943c 64be d2bc
00000280: e146 47bb 314b 79ba 22e9 e8bb 3616 26bc
00000290: c7fd 11bc f2ee b1bc 3041 e63b 557a 7cbc
000002a0: e6c6 f33c 6006 613c 4d69 6bbc f748 803c
000002b0: 89e5 1f3c 63e5 bd3c e276 9fbb 395c 893b
000002c0: 848a fa3c d85d 2a3b 4788 933c 4f8d c2b9
000002d0: 7f64 3abd 7063 efbb a72a 2abb 6713 e7ba
000002e0: 0603 e2bb 60be d83c 2be3 1fbc 479c aebc
000002f0: 6795 90bc d8f3 09bd c604 e0bb 77a0 d03b
00000300: 50f7 71bb 588a 833b 8167 c53c 0893 403c
00000310: 3d6c ec3b af7a a43c dd08 883a c5c7 b53b
00000320: f978 d1bb 68e6 083c 1e3b 943d 9941 dbbb
00000330: 20ea 333c 8c6e 243d 386c 52bb 6800 3c3b
00000340: 94a4 253d 9a81 f33c 82df 613c 51a2 4cbb
00000350: dee7 58bd 90e7 01bc 7db6 bc3c fb35 e3bc
00000360: c674 65bc d23b c5bb 708a 9bbc 373d a4bc
00000370: 352f 95bb 5d89 293a f7c7 123d 31bb f23c
00000380: 5146 643c 38d1 0bbd d57b 1a3d fd90 943b
00000390: 9a56 3b3c 2c31 46bc 06ef 35bc 289f 68bc
000003a0: 6999 5b3c de62 573d 66a9 e23c 2f2e aa3a
000003b0: b6d6 64bc f7cc b1ba bfb4 2d3c da38 9d3b
000003c0: c465 e43c 12b5 2cbb 2e83 493d beb9 563b
000003d0: 62d0 083b c1cf c2bc e3e2 a83c bd66 833c
000003e0: 3d2b 18bc 2597 2bbd 42e9 a6bc 0e29 62bd
000003f0: 4ead 19bd b6e0 9abc c8e6 46bc 6c58 a8bb
0.03169286 -0.011454105 -0.005448276 0.044238042 0.012921776 0.029986568 0.022266425 -0.0037880258
0.012243887 0.003620681 0.017158514 -0.009349381 -0.011239797 0.037307348 -0.03890521 -0.01018159
-0.007047289 -0.007358131 -0.0022947018 0.022978198 0.02459153 0.015315429 -0.012602056 -0.007761604
0.013403047 -0.02988283 0.023622658 0.015443237 -0.013255726 -0.0007105817 0.024116138 -0.0047603953
0.032040853 -0.010391443 -0.018960426 -0.014698298 0.017423283 -0.042076863 0.023985097 -0.022811105
0.0010789697 -0.0010490455 0.006899068 0.04090664 -0.0085223755 0.0013193476 -0.008495416 0.016793331
-0.019497568 -0.0023683158 0.021792976 0.00096028415 -0.034925796 -0.005802721 0.014002282 -0.0033334037
0.004548472 0.020397851 0.0020210617 -0.0018840814 -0.008628882 -0.05639847 -0.013649958 0.005521395
-0.011818937 0.008149917 0.0070241992 0.025189787 0.022926006 -0.031845096 0.012821306 -0.008282172
-0.019032326 0.025781294 0.021324854 -0.016343528 -0.02909962 -0.05562927 0.010117131 0.002197021
0.0025939532 0.015099711 0.02964172 0.037161537 0.03489162 0.014711951 0.017585509 -0.00053114357
0.023081968 0.03308346 -0.014574828 0.0044405526 0.0019376798 0.0022724136 -0.023037685 0.0017996966
-0.026281977 -0.0038979945 0.007854952 -0.010965093 0.023544077 -0.008377245 -0.016647693 0.03320178
0.02026838 0.0063444693 -0.034938667 -0.009350802 -0.01585801 0.0093683945 -0.003973096 -0.014704356
0.003458776 0.044558905 -0.010726378 0.005492496 0.013542641 0.03429866 0.00542098 -0.016602242
0.025402611 0.0019855374 -0.022284528 1.2823167e-06 0.041438434 -0.0020250317 -0.0067703915 0.017528852
-0.0030571627 -0.018255068 0.0003671157 0.016432539 0.036662728 -0.008384804 -0.037725803 -0.01917784
-0.017836582 -0.016649172 -0.010764369 -0.010593144 -0.041027643 -0.03391735 -0.027774662 0.001548407
0.015191548 0.04796134 -0.039804164 0.0028904285 0.012814257 0.0129259685 0.010858341 0.012410333
-0.009293471 0.027953282 -0.017067216 0.02093112 0.0044259923 0.022561118 0.01812411 -0.025725551
-0.0030407237 -0.00095098006 -0.0071078697 -0.010137131 -0.008910603 -0.021720383 0.007026814 -0.015410026
0.029757928 0.01373443 -0.014368367 0.015659792 0.009759315 0.02318067 -0.004866467 0.004191902
0.030583628 0.0025995877 0.018009318 -0.00037107847 -0.045505997 -0.007305555 -0.0025965364 -0.0017629684
-0.006897333 0.026457965 -0.009758751 -0.021314753 -0.017649366 -0.033679813 -0.0068365065 0.006366785
-0.0036921091 0.0040142946 0.024097206 0.011753805 0.0072150514 0.020078031 0.0010378618 0.005547496
-0.006392595 0.008355714 0.07237838 -0.0066911695 0.010981113 0.04014449 -0.003210796 0.0028686766
0.040440157 0.029724885 0.013786199 -0.0031224678 -0.0529555 -0.007928744 0.023036236 -0.0277357
-0.014004892 -0.006019094 -0.01898691 -0.02004872 -0.0045527467 0.0006467307 0.035835233 0.029630275
0.01393278 -0.034135073 0.03771575 0.0045338855 0.011434222 -0.012096684 -0.011104351 -0.014198102
0.013403275 0.05258452 0.027668666 0.0012983734 -0.013967207 -0.0013565113 0.010602175 0.004798037
0.027880557 -0.0026353044 0.04919737 0.003276452 0.002087616 -0.023780705 0.020616 0.0160402
-0.009287653 -0.04189219 -0.020374898 -0.055214934 -0.03751879 -0.018905979 -0.0121399835 -0.005137494

module.encoder.c3.0.bias f4 [32]
00000000: 7ae3 47b5 e717 8434 1153 2eb5 f218 13b5
00000010: 3b7f 1a34 61a0 0835 d51e 3cb5 36dd 67b4
00000020: d992 6eb2 49f7 4cb4 e73a 1db4 164d 7d34
00000030: 8c99 95b4 cacd a935 452f 3833 bdce 47b4
00000040: 1752 5935 cc13 c733 0f91 9335 6602 cc35
00000050: c674 1a35 240c 6db4 1ad8 3d33 ff34 31b5
00000060: b66f 3934 5dd9 a1b5 4ca5 dc34 07fe 3d34
00000070: ee4e c334 eb5b 33b5 7527 6bb5 6e89 9533
-7.44643e-07 2.4604307e-07 -6.494093e-07 -5.479807e-07 1.4388654e-07 5.089733e-07 -7.0080324e-07 -2.1594028e-07
-1.3886813e-08 -1.9088942e-07 -1.4643193e-07 2.3590505e-07 -2.7865133e-07 1.2651374e-06 4.288383e-08 -1.860853e-07
8.0958256e-07 9.270261e-08 1.0994571e-06 1.5199882e-06 5.75394e-07 -2.2076762e-07 4.4201535e-08 -6.601476e-07
1.7270108e-07 -1.2058696e-06 4.1098463e-07 1.7694411e-07 3.637901e-07 -6.6816455e-07 -8.760174e-07 6.9633515e-08

module.encoder.c3.1.weight f4 [32]
00000000: e7cd 803f 78b8 843f c20c 803f 1db1 863f
00000010: 38e0 813f 742c 843f 12bd 7b3f f74d 823f
00000020: f02d 823f f258 7d3f e65a 7e3f 7fe2 773f
00000030: bc9c 803f e22f 7f3f 592c 7e3f c1e3 853f
00000040: f54c 8e3f 7622 813f dd64 793f 585c 893f
00000050: eb57 863f 8ba5 803f d699 803f 72af 7e3f
00000060: c1c6 803f fe15 8d3f 6823 7f3f 76d5 813f
00000070: 00a8 823f 8451 793f b49b 823f 6ffd 7b3f
1.0062836 1.0368795 1.0003893 1.0522801 1.0146551 1.0326066 0.98335373 1.0180043
1.0170269 0.98963845 0.9935745 0.9682998 1.0047832 0.9968244 0.9928642 1.046013
1.1117235 1.0088642 0.9741953 1.0731306 1.049558 1.005052 1.0046947 0.9948646
1.0060655 1.1022336 0.996634 1.0143268 1.020752 0.9739001 1.0203767 0.98433584

module.encoder.c3.1.bias f4 [32]
00000000: c359 89bc d370 7d3c a438 653c ed56 ca3a
00000010: 27a1 253c 452e ef3a 32c6 8d3c 5e1b 06bc
00000020: f32c 55bb 6abc a43b d0ed 44bc c9b7 a4bb
00000030: fdd2 613b 6044 bb3b 0c89 9c39 628f 3dbc
00000040: 3c7c 523c 791d c9bb 329d 22bc be3e a3bc
00000050: 6331 133c 199a 9bbb 2da1 3ebc 5358 863c
00000060: 9291 87bc 8ad7 813c 313a 87bb f904 8a3b
00000070: 982e ecbb b04b 0cbc 104f f0bb d32d b3bb
-0.016766435 0.015468794 0.013990555 0.0015437283 0.0101092225 0.0018248042 0.017306421 -0.008185236
-0.0032528013 0.0050273435 -0.01201959 -0.0050267917 0.0034458034 0.005714938 0.00029856747 -0.01156983
0.012847003 -0.0061375466 -0.009925174 -0.019927379 0.008983943 -0.0047485945 -0.011635107 0.016399538
-0.016548906 0.015849847 -0.00412681 0.0042120186 -0.007207703 -0.008562967 -0.0073336437 -0.005468109

module.encoder.c3.1.running_mean f4 [32]
00000000: 40a6 993e 8c3b ccbe 9289 203e f724 43bd
00000010: 69e0 90be 4981 50be 5fe3 073b 18c1 09be
00000020: 8dfb 65be 1c6c 4ebe 9863 813e 3abc 32bc
00000030: 8f0b 0e3e 0d05 f53c 4f72 26be 00fc 73bd
00000040: 5e43 16bb 82da 563d 109f 4f3e 0358 043e
00000050: 78fa cabd cb02 47be f36d 10be dc74 d9be
00000060: 10a5 f1bc 8d8c ef3d abdd abbe 7666 113e
00000070: d586 483e 6f48 2e3e d056 9abd 4647 bcbe
0.3000965 -0.3988918 0.15677479 -0.047642674 -0.2829621 -0.20361818 0.002073489 -0.13452566
-0.2245924 -0.20158428 0.25271297 -0.0109091345 0.13871597 0.029909635 -0.16254543 -0.059566498
-0.0022928338 0.05245448 0.20275521 0.12924199 -0.099110544 -0.19434659 -0.14104442 -0.4247197
-0.029497653 0.1169673 -0.33567557 0.14199242 0.19582684 0.17019819 -0.075360894 -0.36773127
