logs/exp4/model_iters_3000.pth (torch, 495325 bytes, 47 tensors)

module.encoder.c1.main.0.weight f4 [32, 3, 3, 3]
000000 82 09 63 bc 3c 9f 0c 3d 66 c9 3d bc e9 fa 60 bb
       -0.013857247 0.034331545 -0.011583662 -0.0034329242
000010 20 ed 63 3d 12 f3 ca bc f7 a0 73 bb 58 af 8b 3d
       0.055646062 -0.024774108 -0.00371748 0.068205535
000020 a9 29 56 3c 6c f5 39 3c c4 d7 0d 3c 6d 35 81 bc
       0.013071456 0.011350017 0.0086574 -0.015772546
000030 de ac 08 bc f7 e2 d7 bb 3b ce 73 3b 85 79 53 3c
       -0.008341996 -0.0065883356 0.003720178 0.0129073905
000040 f7 7f c0 bb a8 7a 99 3b 9f d6 38 bc 1a 16 14 bc
       -0.0058746296 0.004683811 -0.011281638 -0.009038473
000050 0a ad 9f 3b 66 bb a9 3c 54 de 2c 3c cf 2b e0 bc
       0.004872923 0.020719241 0.010551054 -0.02736464
000060 10 1e ce bc 62 d0 ed 3b f7 f8 92 bb 63 e2 c3 bc
       -0.02516082 0.007257507 -0.0044852453 -0.02391166
000070 1a 7e 38 bd 02 7c aa 3c 7d aa 9f bc 07 3e 48 3c
       -0.045042135 0.020811085 -0.019490475 0.01222182
000080 13 7b 3c bc 16 37 ba bc 06 0c a9 3d c0 5e 90 3c
       -0.011503953 -0.022731345 0.082542464 0.017623305
000090 17 1f 13 bc 34 4a 08 3b 34 dd 8c 3c ef e1 f3 bb
       -0.00897958 0.0020796182 0.017195322 -0.007442705
0000a0 3e c9 be bb e2 8f 40 bc 95 c9 96 3b f3 d3 3b 3c
       -0.00582233 -0.011753054 0.004601667 0.011464107
0000b0 6d dd 67 bb f8 2e d0 bc c7 39 3f 3c 66 5b 77 bc
       -0.0035379783 -0.025413021 0.01167149 -0.015097475
0000c0 0a 7a 4b ba e4 a2 8c bc 98 5a e2 3b 63 71 eb ba
       -0.00077620207 -0.017167516 0.0069077723 -0.0017962869
0000d0 82 a4 0d bb 0b 52 a0 3b 90 a0 d6 3b aa e3 d5 bc
       -0.0021612947 0.004892593 0.0065499023 -0.026109535
0000e0 3a ab c4 3c 97 fb 14 bc 45 f0 8d bb d1 b1 84 3d
       0.024007428 -0.009093187 -0.004331621 0.06479228
0000f0 8a 67 5a 3c 3f 6f 11 3d 19 a3 41 3d fb 46 3c bc
       0.01333035 0.035506483 0.047274683 -0.011491532
000100 bd 45 95 bb 5e d1 9d 3c a4 86 9f 3b 37 4a 63 3c
       -0.0045554326 0.019264873 0.0048683453 0.013872675
000110 39 0b a3 bc 9d da a2 3c 96 de 3d bc 22 0c 85 bb
       -0.019902812 0.019879634 -0.011588713 -0.0040602842
000120 ad 4b 7c 3c 12 c0 c5 bc af 84 93 bb dd 7d df bb
       0.015398902 -0.024139438 -0.004501901 -0.006820424
000130 f6 72 65 3b 80 dd de 3c a2 98 b8 bc 16 28 54 3c
       0.003501115 0.027205229 -0.022533718 0.01294901
000140 54 b0 03 3c fd e3 b4 bc 9e 46 a3 bc 02 10 26 3c
       0.008037645 -0.02208137 -0.019931134 0.0101356525
000150 35 07 9a 3c 95 88 45 3c 74 da 23 bc 37 4b 13 ba
       0.018802265 0.0120564895 -0.010000814 -0.0005618813
000160 c4 a6 65 3b 2d 2c 29 bc 84 75 ad 3a eb d0 d5 bb
       0.0035042027 -0.010325474 0.0013233875 -0.006525149
000170 76 e6 4d 3c 0c 7d 67 3c 18 09 61 bc bc 35 89 3c
       0.012567153 0.014128935 -0.013735078 0.016749255
000180 e8 21 8b 3b a2 d1 87 bb 07 41 cc bc 3d 87 52 3b
       0.0042459853 -0.004144863 -0.024933351 0.0032124065
000190 5c fe a7 bb e3 96 3d bd fd c3 3a 3c af 90 dc bc
       -0.0051267575 -0.046286475 0.011399266 -0.02692446
0001a0 ca 4b 36 bd 31 1b ea bc 77 e0 d6 bc ec 3f 9b bd
       -0.04450587 -0.028577419 -0.02623008 -0.075805515
0001b0 4b 88 bb 3c ba c8 e6 3c 12 57 0c 3c f2 74 a0 3d
       0.022892138 0.028171886 0.008565681 0.078348055
0001c0 0d 3f d1 3b 5f f9 6c 3b 0e ed 17 3d 23 de cf 3c
       0.00638569 0.003615938 0.037091307 0.025374478
0001d0 79 83 7c bc 07 64 5d 3d c7 77 6a bc 9b 8f f1 3c
       -0.015412205 0.05405047 -0.014310784 0.029487422
0001e0 52 a0 f6 3b 17 3a e4 bb 7d 9f 82 3b 7b b6 ce bc
       0.007526436 -0.0069649327 0.0039862976 -0.025233498
0001f0 48 cf 7f 3c 30 e1 e5 bb 75 f9 25 ba 07 f7 ad bb
       0.015613385 -0.00701537 -0.00063314225 -0.005308989
000200 d2 c3 3b bc 18 09 1b 3d 9f fc a3 39 7e 7a 6d bc
       -0.011460261 0.03785047 0.00031278 -0.014494536
000210 81 bb 34 bd 9d b6 8d 3b 62 09 28 bd d9 cd f3 bc
       -0.04412413 0.0043247477 -0.041024573 -0.029761242
000220 9b 36 00 bd 43 ed 38 bd d4 88 c0 bc d6 0c bf 3b
       -0.031302076 -0.045148145 -0.023502745 0.0058303876
000230 92 3f 9e 3b f7 32 b8 bc a9 d9 42 bc e6 04 d3 3c
       0.0048293555 -0.02248524 -0.011892715 0.025759172
000240 16 4c 39 bb 52 21 56 bc 9a 30 85 bd 30 ee da 3c
       -0.002827411 -0.013069468 -0.06503411 0.026724905
000250 35 99 df bc 13 c8 23 3b fd d0 82 3c 29 67 b0 3c
       -0.027294734 0.002499108 0.015968794 0.021533566
000260 60 cb 43 bc 21 7b 84 bb 4d 6d 92 3c 92 5f c4 bc
       -0.011950344 -0.0040429984 0.017874384 -0.023971353
000270 17 04 70 3b cf b7 e9 3b 41 ef 70 bc 38 c7 de b9
       0.0036623531 0.0071325074 -0.01470548 -0.0004249157
000280 cb 14 ee 3c e5 c4 07 bc 17 bb 60 bc df 27 9a 3c
       0.02906265 -0.008286689 -0.013716481 0.01881784
000290 ac be e5 bb b8 71 3e bc 8b 88 e9 bc 98 5a 40 bd
       -0.0070112552 -0.011623792 -0.028507492 -0.046961397
0002a0 8e da dd 3b 46 b6 68 bc 84 eb db bb 7d ac d4 bc
       0.0067704385 -0.014203614 -0.0067114253 -0.025961155
0002b0 37 24 a2 3a 3a d5 b6 3b ce 05 fa 3c b1 65 0b 3b
       0.0012370412 0.005579618 0.030520346 0.002127033
0002c0 44 9f 0f 3c 39 31 d2 b8 50 a8 8b 3c 88 f9 86 bc
       0.008765999 -0.00010022749 0.017048031 -0.016476408
0002d0 c3 9f 4f bb 76 4b 8e bb 8a 35 1e bc 6b a2 ce bc
       -0.0031680919 -0.0043424917 -0.009656319 -0.025223931
0002e0 ed 40 67 bd 09 fa e9 3c 1f 80 d5 bc 02 5c 16 bc
       -0.056458402 0.028561609 -0.02606207 -0.00917721
0002f0 b8 2d 3a bd dc 05 ca 3c 54 67 89 bc f0 07 c6 3b
       -0.045453757 0.024660997 -0.016772904 0.0060434267
000300 9b 19 da 3c 93 df ab bd c9 ba 2b bc e9 77 9e 3c
       0.026623538 -0.08392253 -0.010481545 0.019344287
000310 04 3c 2f bc 8b 7e a1 3c ef ce 97 39 a8 b5 c7 3b
       -0.010695461 0.01971366 0.00028955142 0.006094653
000320 6d 8d 4c ba 06 6e 13 bb 78 9c 16 bd 8b 6e 3c 3b
       -0.00078030565 -0.0022496 -0.036770314 0.0028752412
000330 b6 c7 a2 3c ec 1b a3 3b fd b0 c5 3b ef 03 76 3c
       0.01987062 0.004977694 0.0060330615 0.015015586
000340 6e 38 b0 3c db 64 00 3b f9 9e c0 bc 80 3c d7 ba
       0.021511283 0.0019591365 -0.023513304 -0.0016421229
000350 f5 89 3c 3c db d0 01 3b 9e 52 8e bc d7 f0 81 39
       0.011507501 0.0019808325 -0.01737338 0.00024784237
000360 06 f4 88 bc 3a 1c 5c 3c 42 d0 eb 3c 76 9b d4 3c
       -0.016717922 0.013434464 0.028785829 0.025953036
000370 da 54 7c 38 d5 dd d6 bb b8 61 b1 bc 87 84 86 3c
       6.0160506e-05 -0.006557206 -0.021653041 0.016420616
000380 87 41 f2 bc 67 23 a6 bc b9 0a 4f bc 69 ed 9b 3c
       -0.029572261 -0.020280553 -0.012636834 0.019034104
000390 78 91 ec 3c 2f 55 69 3c 2b b1 dd bc 19 6d b5 bc
       0.028877959 0.014241501 -0.02706202 -0.022146748
0003a0 d6 8c be 3c 65 5d e2 bb 9b 54 28 bd cc 09 33 bd
       0.023260515 -0.006908106 -0.04109631 -0.043710515
0003b0 4b 83 47 bd 0b c5 15 bd 8a 7b 27 bd 5e 4b e4 bc
       -0.048709195 -0.036564868 -0.0408893 -0.02786797
0003c0 0c 52 08 bd 25 b5 74 bc 28 45 61 bb 97 e9 70 bc
       -0.03328137 -0.014935766 -0.0034373496 -0.01470413
0003d0 0c 2a e4 bc d5 f4 86 bc 00 55 c0 3b 47 34 8e 3c
       -0.02785208 -0.016474167 0.005869508 0.017358912
0003e0 d6 08 cc 3b 10 50 c4 bc cf bc fa 3b da d5 b9 bc
       0.0062266393 -0.023963958 0.0076519023 -0.02268498
0003f0 d3 57 8e bc 32 37 7d 3b 49 59 ab bb 72 48 af 3c
       -0.017375862 0.0038637635 -0.0052291495 0.02139685

module.encoder.c1.main.0.bias f4 [32]
000000 66 55 f5 b9 aa a6 fc 3a 90 d3 9e b9 00 fe a8 39
       -0.00046793668 0.0019275744 -0.00030293735 0.00032232702
000010 ef ff f5 37 8d c9 01 b8 25 e8 51 b8 27 19 b2 b9
       2.9325454e-05 -3.0943705e-05 -5.0045684e-05 -0.00033969546
000020 8e d7 d9 39 ab 8e fb 36 61 81 f5 b8 56 83 35 ba
       0.00041550066 7.4969917e-06 -0.00011706609 -0.00069241726
000030 e6 bc 63 b9 9b 93 e3 38 97 64 eb 36 78 b2 79 37
       -0.00021718777 0.00010851697 7.015256e-06 1.48831095e-05
000040 3d d5 54 b8 d3 00 26 38 f2 b4 89 ba 9f 89 93 b8
       -5.0743332e-05 3.957825e-05 -0.0010506196 -7.03514e-05
000050 fb 2f dd b7 e0 d5 9c b8 f1 af 06 ba 9d 53 77 b8
       -2.6367596e-05 -7.478497e-05 -0.00051379116 -5.896726e-05
000060 57 c5 0c 38 b1 82 a8 37 3d f7 ea 38 f9 a9 09 ba
       3.3562388e-05 2.0088019e-05 0.00011204041 -0.0005251463
000070 2c ef bf b9 4d 75 b0 38 4a b2 0d 39 74 ca a0 39
       -0.00036608556 8.414183e-05 0.00013513226 0.00030668417

module.encoder.c1.main.1.weight f4 [32]
000000 81 45 81 3f 49 94 80 3f c6 72 83 3f bd 36 7a 3f
       1.0099336 1.0045253 1.0269401 0.97739774
000010 a6 18 82 3f 2d 0f 80 3f 24 e8 7d 3f 8f 5e 83 3f
       1.0163772 1.0004631 0.99182343 1.0263232
000020 fa 0b 81 3f 18 16 7d 3f 91 79 7d 3f bb 9f 7a 3f
       1.008178 0.9886184 0.9901362 0.9789998
000030 f9 89 82 3f 0f 20 6d 3f 41 5d 84 3f 2a 7a 83 3f
       1.0198356 0.9262704 1.0340959 1.0271657
000040 d2 3a 79 3f 02 40 81 3f af 95 7e 3f cd 9b 80 3f
       0.9735538 1.0097659 0.9944715 1.0047547
000050 f2 45 80 3f 43 5c 84 3f d1 0a 83 3f d4 d4 7c 3f
       1.0021346 1.0340656 1.0237676 0.9876225
000060 a2 05 7b 3f 54 dd 7c 3f 77 e9 80 3f de 17 85 3f
       0.9805547 0.9877522 1.0071248 1.0397909
000070 1b 6b 7b 3f 17 b9 78 3f 55 1e 76 3f 24 29 83 3f
       0.98210305 0.97157425 0.96140033 1.024693

module.encoder.c1.main.1.bias f4 [32]
000000 ca cc 8a 3b 5f 9b 82 3b c4 51 12 bd 01 fc cc bd
       0.0042358385 0.003985807 -0.03572251 -0.100090034
000010 70 d0 80 3c 86 0e 8c 3c d7 e8 66 bc 55 9a ba ba
       0.01572439 0.017096769 -0.014093599 -0.0014236668
000020 b5 d8 9c bd a8 8e ca bd 4c c3 04 3a 17 75 0e 3d
       -0.07658521 -0.09890491 0.0005064502 0.034779634
000030 04 54 dd 3c 1c 9f 30 3d 64 0d 13 3d 9b c4 8d 3d
       0.0270176 0.04312049 0.035901442 0.06922265
000040 17 73 e3 3b b2 30 80 3d 1e 8e 87 3c b2 88 e0 ba
       0.00694121 0.06259288 0.016547259 -0.0017130582
000050 39 be 21 bc c0 ce f1 3c e2 b7 cb 3c c5 22 8a bb
       -0.009872013 0.029517531 0.024867956 -0.0042155706
000060 3c ec 1a 3d 73 e0 e9 ba 3d 06 fd bc 70 46 3b 3d
       0.037822947 -0.001784338 -0.030886764 0.04572147
000070 e5 72 4b bd 0e 04 4b bd 7b d9 bf bd 53 c8 c7 3a
       -0.04967012 -0.049564414 -0.09367653 0.0015242196

module.encoder.c1.main.3.weight f4 [32, 32, 3, 3]
000000 cb 6b 33 bb 9f 9a af bc 2d eb 46 bd 2f 01 25 bb
       -0.0027377482 -0.021436034 -0.048564125 -0.0025177707
000010 7f 58 c0 bc 76 ec 05 bc 5f c6 5d 3d 73 09 9a 3b
       -0.023479698 -0.008174052 0.05414426 0.0047008335
000020 f0 f3 72 bd 8f be 68 bb 35 67 9c 3c 9d 63 9e 3b
       -0.05931467 -0.0035513972 0.019092182 0.004833652
000030 d0 6f b9 bc 02 8e c5 3c f6 7f e1 bb 2d 12 8c bb
       -0.022636324 0.024115566 -0.006881709 -0.0042746277
000040 6f 81 4b bb 87 30 54 bc 0a a3 6a bd fd 6b fb bb
       -0.003105249 -0.012951023 -0.057284392 -0.0076727853
000050 37 86 13 3c 2a d9 3e bd a1 ae a3 ba 2e d0 f9 3a
       0.009004167 -0.046593823 -0.0012487957 0.0019059235
000060 10 ac f3 3b ed 1d 75 bc f6 6b e9 3c 91 45 a7 bb
       0.007436283 -0.014960748 0.028493863 -0.0051047285
000070 81 4f 92 bb 85 c7 0c 3c 60 6e e9 bc 16 2b 2e bd
       -0.004465044 0.008592491 -0.028495014 -0.04252156
000080 c7 02 f0 3c 3f cc 30 bc db 83 10 3c 85 d2 40 bc
       0.0292982 -0.010790884 0.008820499 -0.011768942
000090 03 56 bf 3c d6 13 ab bc 2a 13 3a bc be 22 18 3c
       0.023356443 -0.020883482 -0.011357108 0.009285627
0000a0 c3 d3 c4 bc 68 62 4d 3c 3b b0 6c 3c 3a cd b2 bc
       -0.024026757 0.012535669 0.0144463135 -0.021826375
0000b0 c1 f2 db 3a 56 ff 56 3c ea bc 48 3d 5d f6 d1 3c
       0.001678072 0.0131224 0.049008287 0.02563017
0000c0 8e 33 e6 3b 95 62 03 3c 55 5d af bc 9e 6b 22 3c
       0.0070251888 0.008019109 -0.021406809 0.009913353
0000d0 7a 90 de 39 78 5f c4 3c 0a 74 18 bb 59 30 3e 3b
       0.00042450783 0.023971304 -0.0023262524 0.0029020517
0000e0 24 3b 39 3c 17 96 94 bb b9 54 18 3c bb 20 89 bc
       0.011305604 -0.0045344937 0.009297543 -0.01673924
0000f0 08 6e 15 3d 4e 2f 77 37 c4 1c 34 3c 62 af 8d 3c
       0.036481887 1.4733361e-05 0.010993186 0.017295543
000100 90 45 67 3c 22 7c b2 3c 74 3d 19 bd 76 00 89 bc
       0.014115706 0.021787707 -0.037412122 -0.016723853
000110 6b 89 34 bd 19 46 79 bc c9 20 a3 3a e8 8b 50 3c
       -0.044076364 -0.0152144665 0.0012445684 0.012728669
000120 d5 70 b4 bb 1e af 52 3a 51 f5 de 39 f4 3c 3a 3c
       -0.0055066147 0.0008036959 0.00042525915 0.011367071
000130 40 aa 9b bc cc e9 25 bb 2f 29 9d bc 5d 92 37 3c
       -0.01900208 -0.0025316356 -0.019184677 0.011204329
000140 95 33 20 3c 53 b8 89 3a 18 e6 7b 3c a8 07 05 3c
       0.009777923 0.0010507203 0.015374683 0.008119501
000150 dd 3e ba ba 83 76 c5 bc d1 51 bb 3a 62 66 be bb
       -0.0014209409 -0.024104362 0.0014291351 -0.005810545
000160 12 cc 29 bc 1e 84 b8 3b 8e 6e 69 bd 29 e9 80 3b
       -0.010363596 0.005630984 -0.0569902 0.003934045
000170 be fe c2 3a 3c 66 c1 bc 0e a6 05 bd 22 c1 7e 3a
       0.0014876944 -0.02360832 -0.032629065 0.000971811
000180 39 1c e3 bc a3 4d 57 bc 9f 57 e7 b8 c5 d6 5a bc
       -0.027723419 -0.013141069 -0.00011031259 -0.013356869
000190 b5 16 82 3c 81 aa bf 3c 2e 72 1b 3b 41 9e 1e bc
       0.015879968 0.023396732 0.002371918 -0.009681285
0001a0 e0 f7 16 bc b0 cb 6f 3a 83 32 71 bc d4 5b 8b bc
       -0.009214371 0.0009147478 -0.014721516 -0.01701156
0001b0 82 d7 ca bc 40 d4 4a bd 90 9d c7 bb d2 80 e7 3c
       -0.024760965 -0.049518824 -0.006091781 0.028259668
0001c0 2d ef 92 bc 55 3b 93 bc 78 26 d2 bc 98 b9 98 bc
       -0.017936314 -0.017972628 -0.025653109 -0.018643185
0001d0 88 01 05 bd 5c 67 a7 3b 3d 17 f4 3c f5 12 f9 3b
       -0.032472163 0.005108757 0.029796237 0.007601137
0001e0 89 2f 89 3c fd 0f 2f 3c b3 68 09 bb 2c 99 6b 3b
       0.0167463 0.010684964 -0.0020966947 0.0035949452
0001f0 19 7a 06 ba aa 90 de 3b d7 89 f2 3a be b9 87 3c
       -0.00051298883 0.0067921476 0.0018504214 0.016568061
000200 36 04 dc bc ef bc 97 bc 7b 57 a4 3c de 2b de bc
       -0.026857477 -0.018522708 0.020061245 -0.027120527
000210 cf 0c f2 bc 4c ac ab bc 30 ca 48 bd 7e 8c 49 3b
       -0.029547123 -0.020956181 -0.049020946 0.0030753906
000220 13 b5 1a bd 1c a4 02 3c 64 ee 6e bc 19 0b d4 bc
       -0.037770342 0.007973697 -0.014583204 -0.025884198
000230 1b 49 22 bd b4 3c 21 3b 5c fb 62 3c ad 18 cc bc
       -0.0396205 0.0024602832 0.013853874 -0.02491411
000240 40 91 90 bc b4 60 f9 bc a8 dc 3b bc 08 ac cb 3c
       -0.017647386 -0.03044162 -0.011466183 0.024862304
000250 e8 93 87 3c 36 11 a5 3c 3a cc 55 bb 82 8b 2b bc
       0.01655002 0.020149808 -0.003262295 -0.010470273
000260 b0 df a3 bc 6a d3 10 bb c1 35 7c 3c 69 ce c8 3b
       -0.020004123 -0.002209867 0.015393675 0.0061281216
000270 5b fd ff 3a 3d 8b 17 3d 5b 6a 97 3c 0c e0 e2 bc
       0.0019530462 0.036998022 0.018483331 -0.027694725
000280 90 dd fb bc c1 fc 7c bd af 09 9c bc a5 c2 36 3c
       -0.030745298 -0.061764482 -0.019047586 0.011154805
000290 d5 e1 b4 bc bc 37 63 3c b0 3f 54 b9 f7 82 c4 3c
       -0.022080341 0.013868269 -0.00020241621 0.02398823
0002a0 d9 a0 06 3d 29 fa 03 3c d9 1d ce 3c 51 99 32 3c
       0.03286824 0.008055248 0.025160717 0.010900811
0002b0 ee 8e 85 bc 58 bb 28 bc 54 1f 75 bd 24 cc 6a ba
       -0.016303506 -0.0102985725 -0.05984433 -0.0008956811
0002c0 57 50 35 bc fc 87 28 bd 0a 7d 8a bb 91 07 10 bb
       -0.011066518 -0.04114531 -0.0042263316 -0.0021977166
0002d0 32 7b fc bc 6f 0a 3e bc 2a b3 65 bc 6a bf 81 3a
       -0.030820463 -0.011599167 -0.014019767 0.0009898965
0002e0 dc cf f3 3b fe 7d b7 bc bb f2 61 bc fb f1 0f bd
       0.0074405503 -0.022398945 -0.013790782 -0.03514288
0002f0 8c 80 34 3c a2 06 02 bc 42 c9 86 3b e0 3d 03 bd
       0.011016976 -0.007936152 0.0041133473 -0.03204143
000300 1e 52 0f bc 07 87 c9 3c 2e 48 b9 3c 38 50 c9 3b
       -0.008747606 0.024600519 0.022617426 0.006143596
000310 48 4a cb bc 0f 83 07 3c 62 08 e1 3c 1c 45 0b bd
       -0.024815693 0.008270993 0.027469818 -0.034001455
000320 f7 ef 95 bc c7 25 54 3d bf 7b 5e bc 34 3b 6f bd
       -0.0183029 0.05179384 -0.013579308 -0.05840607
000330 7d a7 aa bc 66 9a 03 bd ab fe 8a bc ff 3f 5a bc
       -0.020831818 -0.032129668 -0.016967138 -0.013320922
000340 a7 69 73 3b 2a 22 cf bc 80 0f c0 bc 45 42 ee 3b
       0.003714183 -0.025284845 -0.023444891 0.0072710835
000350 6c 88 02 bc 6a ff e0 bb 29 91 77 bb 67 ed 00 bd
       -0.007967096 -0.006866385 -0.0037775731 -0.031476405
000360 fa 85 9b 3c 09 38 f4 3b 55 83 4c bc dd f2 de bc
       0.018984783 0.007452969 -0.012482484 -0.027215416
000370 6a 99 77 bb f4 51 67 bc 35 cb e3 3a 32 76 de bb
       -0.003778065 -0.01411866 0.0017379286 -0.0067889923
000380 12 29 f5 3b 8f c9 65 b7 85 71 12 3d 64 91 46 b8
       0.0074817026 -1.3696393e-05 0.035752792 -4.7342284e-05
000390 80 80 54 bc a0 4c 34 bc 09 84 ea bc d7 e3 a4 3c
       -0.01297009 -0.011004597 -0.028627412 0.020128174
0003a0 82 76 92 3b 73 24 cf 35 0e e6 3e 3d f6 06 38 bc
       0.0044696936 1.543331e-06 0.046606116 -0.011232128
0003b0 74 7b 58 3c 9b 31 ab bb 1e 3e ea ba 9b 8c 09 bd
       0.013213027 -0.0052244193 -0.0017871296 -0.033581357
0003c0 61 f6 8b 3c 94 6a 12 bb 3c 3b 3b 3c 98 84 0a bc
       0.017085256 -0.0022341358 0.011427697 -0.008454464
0003d0 a9 a2 08 bd ca ef 36 3c 46 f4 46 bc ff 41 6f bd
       -0.03335825 0.011165569 -0.0121432 -0.05841255
0003e0 3e 44 8a 3c 51 95 aa 3b 7f 31 ce bc 42 69 86 b9
       0.016878244 0.005205788 -0.025170086 -0.00025636895
0003f0 1f bf 27 bc 81 99 d6 3c c6 5e 56 3c f1 6c 9f 3c
       -0.010238438 0.026196243 0.013084119 0.019461127

module.encoder.c1.main.3.bias f4 [32]
000000 74 22 d8 b7 b9 f4 4a b7 55 b9 80 36 1b a8 a3 37
       -2.576525e-05 -1.2097117e-05 3.8362728e-06 1.9509394e-05
000010 a0 b7 26 b6 fd 4a b0 b7 2e 83 63 37 1c a7 8c 35
       -2.4842811e-06 -2.1015754e-05 1.3560797e-05 1.0479448e-06
000020 f6 1b 68 37 c1 06 25 38 6b 68 a7 b7 cf 80 3e b7
       1.3834788e-05 3.9345356e-05 -1.9956575e-05 -1.1354873e-05
000030 7f f1 59 b7 09 79 66 b8 91 68 93 38 b5 fe b3 36
       -1.2990436e-05 -5.4948996e-05 7.028983e-05 5.3642675e-06
000040 e9 7a d7 b8 f2 e3 67 38 1c 81 09 38 f5 7d c7 b7
       -0.00010274893 5.5286982e-05 3.2783588e-05 -2.3781302e-05
000050 4b 4b 49 b6 ac 4a a1 38 98 c2 f3 b8 cf 91 84 b8
       -2.999516e-06 7.690987e-05 -0.00011623389 -6.3214095e-05
000060 f7 bd 59 36 23 8a 87 37 42 9c 94 37 a9 dc e2 b6
       3.2446094e-06 1.6157579e-05 1.7715738e-05 -6.761013e-06
000070 9e da ad b6 df e8 46 b7 e2 76 94 b6 4e 22 6a 37
       -5.181252e-06 -1.1855939e-05 -4.4245835e-06 1.3955474e-05

module.encoder.c1.main.4.weight f4 [32]
000000 9f 9d 7a 3f 53 4a 7b 3f 4a eb 7b 3f e3 eb 80 3f
       0.9789676 0.98160285 0.984059 1.0071987
000010 95 65 7c 3f 47 4d 80 3f 36 ea 7a 3f 79 bc 7a 3f
       0.985925 1.0023583 0.9801363 0.97943836
000020 bc 1a 81 3f 52 cc 7b 3f a7 fd 79 3f 46 23 80 3f
       1.0086284 0.98358643 0.9765267 1.0010765
000030 2e e4 7e 3f 5e 74 76 3f e0 5c 80 3f 57 0f 7c 3f
       0.99566925 0.9627131 1.0028343 0.98460907
000040 26 79 7f 3f 5c a9 7c 3f 89 5e 7f 3f ed 25 7a 3f
       0.9979423 0.9869592 0.99753624 0.9771412
000050 cb fd 7c 3f ec 8d 7f 3f f9 01 80 3f 70 4a 7f 3f
       0.9882476 0.9982593 1.0000602 0.9972296
000060 b0 71 7b 3f e9 7e 7d 3f ed 60 80 3f 12 1a 7e 3f
       0.9822035 0.99021775 1.0029579 0.9925853
000070 29 90 7d 3f 11 bd 7a 3f 09 d6 7a 3f 3e 58 7b 3f
       0.99048096 0.9794474 0.9798284 0.9818152

module.encoder.c1.main.4.bias f4 [32]
000000 2d 96 34 3d 8f a7 5f 38 e7 a7 8a 3c 8b 03 35 3d
       0.04408853 5.3323394e-05 0.016925765 0.044192832
000010 cd b4 34 3d 26 48 51 3d 94 50 0f bd 90 3c e8 bc
       0.044117738 0.051094197 -0.034988955 -0.028349191
000020 bd aa 5a 3d 48 7d 4e bd fb fa 9b 3c dd 83 00 3d
       0.053385485 -0.050412446 0.019040575 0.031375755
000030 ca 8b 64 bc c9 3b 0b bd f5 c4 dc 3c aa e3 10 3d
       -0.013949344 -0.033992562 0.026949385 0.035373367
000040 f5 65 7c bb aa 29 d5 3c 6e a1 03 bc c7 67 5b 3c
       -0.003851292 0.026020844 -0.008034093 0.013391442
000050 a8 a1 e8 3c 53 7f f7 3c 96 0b e2 bc db ae 40 3d
       0.028397396 0.03021208 -0.027593415 0.047041755
000060 7d ed 22 3d fb 4f e9 3c 6f 71 2d 3d dc 5f 96 3b
       0.039777268 0.02848052 0.042344507 0.004589064
000070 43 e4 31 bd 2b 79 53 bc 84 f4 ae 3c 2f ac a8 bc
       -0.043430578 -0.012907307 0.021356829 -0.020589916

module.encoder.c2.main.0.weight f4 [64, 32, 3, 3]
000000 67 1f 27 bb 51 10 44 bc a4 84 7c 3c 05 08 3e 3c
       -0.0025500895 -0.011966781 0.015412483 0.011598592
000010 86 3c 38 bc 8a 48 3a 3c 47 87 03 bd 01 1b 3f 3d
       -0.011244899 0.011369834 -0.032111432 0.046656612
000020 66 15 db 3b 9c 4d 30 3c be 17 44 3b 17 c4 c8 3a
       0.0066859005 0.010760691 0.0029921378 0.0015317228
000030 bd 4b dd bc 39 83 3d bd ec a6 cd bc f0 66 4f ba
       -0.027013654 -0.04626772 -0.025104009 -0.0007911762
000040 25 71 40 bb cd 8d db bb 9d b9 3f 3c bf 81 24 bc
       -0.0029364314 -0.0067002536 0.0117019685 -0.0100406995
000050 58 c5 32 bc 87 30 dd bc fc 12 29 bb b7 11 24 3b
       -0.010911308 -0.027000679 -0.002579867 0.0025034973
000060 2a bd e8 bc b1 3f 09 3c b6 45 39 3c 69 05 bc bc
       -0.028410513 0.008377002 0.011308124 -0.022951799
000070 fa 53 01 bc 4f b0 f9 3b 6e 70 57 3c f6 6a 25 bd
       -0.007893557 0.0076198946 0.013149364 -0.04038521
000080 15 8f b0 bb c8 8c c2 bc a2 73 3f 3d e5 e5 4a bb
       -0.0053881505 -0.02374877 0.046741135 -0.0030959782
000090 79 11 6c 3a 91 0b 1a bd 4d 87 13 3c 55 dd 0d bc
       0.0009005289 -0.037608687 0.009004426 -0.008658727
0000a0 44 dc 5f bc 32 23 27 3d c5 ec ef bb 93 5f 8b bc
       -0.013663355 0.04080505 -0.0073219263 -0.017013347
0000b0 5e 67 96 3b 52 11 8d 3c 42 37 58 bb 99 4d 2a bc
       0.004589959 0.017220173 -0.003299192 -0.010394477
0000c0 1c 91 bc bc a5 98 9c ba 6c cc 6c 3a 35 da 90 bc
       -0.023018412 -0.0011947347 0.0009033147 -0.017682174
0000d0 1d 52 0d 3d 5f ed e1 bc ce 18 ff bb 2f 9d 50 bc
       0.034502137 -0.027579008 -0.0077849394 -0.012732788
0000e0 83 3a 8b bc f8 dc 61 bc 4a f3 04 bc f2 70 61 bc
       -0.016995674 -0.013785593 -0.008114645 -0.013759838
0000f0 fb 77 34 bc 04 ee c2 bc 38 42 08 bc aa 42 ed 3c
       -0.011014934 -0.023795135 -0.008316569 0.028962452
000100 9c 24 06 bd 08 f9 26 bc 50 ba 9e bc 4d cc 69 bc
       -0.032749757 -0.01019121 -0.01937595 -0.0142699005
000110 e6 5d d0 3a 80 23 41 3d 68 83 e6 3c 15 a9 75 bb
       0.0015897125 0.047152996 0.028138831 -0.0037484814
000120 e5 3d 5a bc 91 09 3f bd 8d 0b f0 3c 10 8f 1f 3d
       -0.013320421 -0.046639983 0.029302383 0.038954794
000130 28 c8 06 bb d9 9b d1 bb 2e 62 0a 3d 02 1a 93 3c
       -0.002056608 -0.0063967523 0.033785038 0.017956737
000140 93 a3 c9 ba 45 f3 5c 3d 99 d3 11 3d 12 3b 36 3d
       -0.0015383832 0.053942937 0.035602186 0.044489928
000150 a4 7b cc 3b dd f2 0b bd 9f f6 f9 3c e0 95 47 3c
       0.006240325 -0.03416716 0.030513106 0.012181729
000160 e0 e8 39 bc 39 93 cd 3c 19 46 fe bc b1 3a 72 bd
       -0.011347026 0.025094615 -0.031039285 -0.059138004
000170 b5 bf 53 bc 5e 3c 16 3d 29 66 79 bc 78 66 06 3c
       -0.0129241245 0.036678664 -0.015222111 0.008203141
000180 42 d4 1d 3d 1d e0 3b bc d9 ee ba bb cc c1 2e 3c
       0.038532503 -0.011467007 -0.0057047424 0.010666322
000190 01 bc e3 3c e4 65 92 bc 8d 13 ad 3c ff 2a 27 3c
       0.027799608 -0.01787085 0.021127487 0.010203122
0001a0 3e cd 8e bb b1 34 9e bc 51 c9 f3 3b b4 f8 0a 3c
       -0.004357963 -0.019312235 0.0074397703 0.008482147
0001b0 c8 68 26 3d a3 2f 7e 3c e6 88 39 3c 13 e9 e9 3c
       0.04062727 0.015514287 0.011324143 0.028553521
0001c0 84 4c 0f bb e5 cc 96 3c 98 7f 91 3c 17 fb fa 3c
       -0.0021865675 0.018408248 0.017761037 0.030637307
0001d0 21 37 34 3d f4 75 98 bb be e5 b8 bc 9c d8 79 3a
       0.043997888 -0.004652733 -0.022570487 0.00095308735
0001e0 26 c5 8a bc 11 16 6b bd cc ac 82 3c 96 18 ba 3c
       -0.01693971 -0.05739409 0.015951537 0.022716802
0001f0 5b 89 eb 3c 6c 23 18 3d 95 fb 6f bd 2c 26 43 bc
       0.02875202 0.037143156 -0.058589537 -0.011910956
000200 08 f5 e5 bb 08 98 c0 bc f1 4e 2f bc 86 16 62 ba
       -0.0070177354 -0.023509994 -0.010699973 -0.0008624572
000210 3d 1b 4b 3c 6c 84 29 3c 6f 1e c9 bc ee af 30 3d
       0.012396631 0.010346513 -0.024550645 0.04313653
000220 d7 94 1f bd 3a f5 bd 3b 25 ef b1 3c fe ce 2b bc
       -0.038960304 0.0057970555 0.021720478 -0.0104863625
000230 66 17 82 3c e4 af e7 ba 12 ed 36 3d a7 05 3b bd
       0.015880298 -0.0017676321 0.04465968 -0.045659687
000240 9a cf 24 3c ea 59 8d bc d8 d8 27 3b 6b 23 d6 3c
       0.010059262 -0.017254788 0.0025611427 0.026139935
000250 14 6f 75 bc ce 00 36 3d 72 46 38 3c dc 48 22 bc
       -0.014980096 0.04443436 0.011247264 -0.009905066
000260 3e f8 69 bb 66 41 a3 bc d4 5c 13 bc 4e 3d 89 3c
       -0.0035700942 -0.019928645 -0.0089943 0.016752865
000270 b0 f6 04 3b 81 e3 b0 3c d0 e0 cd bc 4e 54 c4 bc
       0.0020288639 0.021592857 -0.025131613 -0.02396598
000280 d7 60 02 3b bf b1 98 bb 20 7a 77 3c b7 a4 a3 ba
       0.0019894147 -0.004659861 0.0151048 -0.0012485002
000290 14 0c c9 3a 51 0c 2a bc 19 79 2c bd db cd 57 3c
       0.0015338683 -0.010378913 -0.042107675 0.013171638
0002a0 b6 f2 29 bc 29 4c a0 b8 2c ea 0a bd 6a 0f 90 bb
       -0.010372808 -7.6435805e-05 -0.03391473 -0.0043963687
0002b0 03 9e c3 3a 24 87 fb bc 15 61 0a bb 74 b2 63 bc
       0.001492441 -0.030704089 -0.0021114994 -0.013897527
0002c0 bc ec c4 bc 27 9f 0b 3c cc d2 51 bd d2 f9 96 bc
       -0.024038665 0.008521832 -0.051226422 -0.01842967
0002d0 2b b0 c0 b8 d1 64 85 bc 71 c3 95 3a ed 3d 08 bb
       -9.188087e-05 -0.016283425 0.0011426044 -0.0020788864
0002e0 13 8e 89 3c 77 36 f8 bb de a1 b4 bc c3 9f 1a 3d
       0.01679138 -0.007574852 -0.02204984 0.037750017
0002f0 c0 a9 83 3c 87 f3 50 3d 3e 56 58 bc 13 8e 06 bc
       0.016072154 0.051013496 -0.0132041555 -0.008212584
000300 a8 12 f6 3c 1f 05 71 bd 86 d5 79 3c 11 77 48 bd
       0.030038193 -0.058842774 0.015248662 -0.048941676
000310 34 05 c9 bc fb 2b ac 3b 76 5a d3 3c a4 bc 1c 3c
       -0.024538614 0.0052542663 0.025799971 0.00956646
000320 1e 28 a5 3c f2 3c 92 3c 03 b4 e7 3c 9a 7f a4 bc
       0.02016073 0.017851327 0.028284078 -0.020080376
000330 7e b1 36 bc 42 21 82 bb 67 39 8a bc 61 87 83 3b
       -0.011150716 -0.00397125 -0.016873075 0.004013941
000340 d8 00 76 bd e0 a9 bb 3c 2d bd 96 3b 21 95 91 bb
       -0.0600594 0.022908151 0.004600188 -0.0044428264
000350 d4 49 26 bc e3 a7 86 3c d6 16 37 bc 0b b0 13 3d
       -0.010149438 0.016437477 -0.011174878 0.03605656
000360 36 16 cf bc a1 42 35 ba 27 ba 96 bc 92 a4 b7 bb
       -0.025279146 -0.00069145305 -0.018399311 -0.005604335
000370 1a fb 78 bc 39 80 6e 3c 46 96 c0 3c f8 d1 08 bc
       -0.015196586 0.014556938 0.023509156 -0.008350842
000380 2e 83 18 bc 70 a8 49 bd a2 2e 2b 3c 08 ea 32 bc
       -0.009308619 -0.0492329 0.01044813 -0.010920055
000390 5a 35 9e bb bf 6e 13 bd 14 40 01 3c f0 e4 a4 3c
       -0.0048281373 -0.035994288 0.007888813 0.020128697
0003a0 17 bf 20 3d 5e 69 14 bc fb b8 2a 3c 27 42 22 3d
       0.039244737 -0.009058325 0.010420079 0.03961387
0003b0 dc b1 02 3d f8 a0 c8 3c 67 46 d0 bc ec dc f7 3c
       0.0319079 0.024490818 -0.025424195 0.030256711
0003c0 81 fb 45 bc 08 4b db 3c ab 4c 4e 3b f9 7e f4 3a
       -0.012083889 0.026769176 0.0031478803 0.0018653563
0003d0 43 54 bd bb 6b 0b d1 3c 63 83 73 bc 40 00 6d bd
       -0.005777867 0.02551814 -0.014862868 -0.057861567
0003e0 e1 55 5d bd 45 84 8a bb ee dd 94 3c d3 14 c3 3c
       -0.05403698 -0.0042271935 0.01817223 0.02381364
0003f0 e3 9b 63 bc f7 06 c9 3c 39 d9 84 3b 98 20 f0 3c
       -0.013892147 0.024539454 0.0040542153 0.029312417

module.encoder.c2.main.0.bias f4 [64]
000000 f1 f0 2e 37 29 36 2c 35 7c d4 11 37 12 0c 2b b7
       1.0427307e-05 6.4153807e-07 8.692146e-06 -1.0195205e-05
000010 bf e3 44 35 19 ad 1c 36 33 dd 41 37 29 e5 b5 37
       7.3347104e-07 2.3346568e-06 1.1555198e-05 2.1683592e-05
000020 a3 e6 48 b6 6a 6c 05 b6 75 82 7a 36 4d 49 b8 b5
       -2.993657e-06 -1.988165e-06 3.732884e-06 -1.3730402e-06
000030 d5 5e 0e 36 39 d8 ae b7 43 3c ba 34 19 d3 c4 36
       2.1214848e-06 -2.0843103e-05 3.4689046e-07 5.86583e-06
000040 17 b1 90 b6 e6 b7 09 b5 3d 51 68 b6 3e 4c ca 36
       -4.3121504e-06 -5.1304085e-07 -3.461798e-06 6.028945e-06
000050 95 e0 ee 34 9d 0f c8 b7 da 0e b2 36 04 9f 56 37
       4.449436e-07 -2.3849128e-05 5.3065423e-06 1.2792418e-05
000060 62 c3 d1 b4 8b ff 7d b6 40 bc 19 b7 09 e8 75 b6
       -3.9071443e-07 -3.7848683e-06 -9.163341e-06 -3.6642907e-06
000070 87 e8 e6 34 a7 6d 54 b7 bb 5d 22 36 5a e8 19 36
       4.3010024e-07 -1.2661715e-05 2.419444e-06 2.2934023e-06
000080 ed 53 87 b6 35 f5 67 37 e4 e3 bd b7 d1 bb 92 b5
       -4.0330838e-06 1.3825765e-05 -2.2636676e-05 -1.093251e-06
000090 38 c9 39 37 18 dc 44 37 34 97 25 b7 9c 96 0c 37
       1.1073709e-05 1.1733755e-05 -9.869971e-06 8.379717e-06
0000a0 8a a9 f1 36 f8 14 4a b6 ba a1 a5 b7 2d 6e 9c b7
       7.2020966e-06 -3.011255e-06 -1.9744843e-05 -1.8647954e-05
0000b0 f5 f3 f7 37 6f 77 1e b5 d2 7f f4 b6 a1 5e c3 36
       2.9558296e-05 -5.9033385e-07 -7.286647e-06 5.822469e-06
0000c0 df c9 3f b6 1b df 07 35 0b 18 b0 36 04 c7 3c b6
       -2.8578722e-06 5.061608e-07 5.2480077e-06 -2.8130025e-06
0000d0 5e 5a 8d 36 20 3e 1f b6 49 e3 33 36 6c f0 f5 36
       4.2126476e-06 -2.3729008e-06 2.6805376e-06 7.329558e-06
0000e0 c1 a8 39 38 f4 3b 20 37 de 5d 12 36 c9 6e 6a 37
       4.42646e-05 9.550702e-06 2.1810333e-06 1.3973281e-05
0000f0 41 91 05 b7 c1 78 39 b6 e8 75 96 b6 f2 ad d9 36
       -7.961237e-06 -2.7637436e-06 -4.4840745e-06 6.487354e-06

module.encoder.c2.main.1.weight f4 [64]
000000 57 b8 7f 3f 83 09 7e 3f 3e 25 80 3f 98 8e 7b 3f
       0.99890655 0.99233264 1.0011365 0.98264456
000010 06 12 7f 3f 79 2f 7d 3f 2f c0 7f 3f f2 2c 7f 3f
       0.99636877 0.9890056 0.99902624 0.99677956
000020 e7 8a 7b 3f b7 b6 7c 3f a9 37 7e 3f 61 42 80 3f
       0.98258823 0.987163 0.9930368 1.0020257
000030 94 54 80 3f 44 43 7e 3f 84 3f 7f 3f 8d 08 82 3f
       1.0025811 0.9932139 0.9970629 1.015886
000040 f2 a4 7e 3f 7e 9e 7d 3f c6 22 7f 3f 56 b1 7c 3f
       0.99470437 0.99069965 0.99662435 0.98708093
000050 39 4a 7e 3f 09 2b 7d 3f fe 47 80 3f 59 34 81 3f
       0.99332005 0.9889379 1.002197 1.00941
000060 48 73 80 3f a3 16 7b 3f 15 c2 81 3f d3 8d 7e 3f
       1.0035181 0.98081416 1.0137354 0.99435157
000070 6f 53 7d 3f b3 26 7f 3f a5 58 7f 3f f2 68 7e 3f
       0.98955435 0.99668425 0.99744636 0.99378884
000080 ae b6 7f 3f 4a 61 81 3f 68 36 7d 3f 15 d1 7f 3f
       0.9988812 1.0107815 0.9891114 0.9992841
000090 b2 75 82 3f 99 ca 7d 3f c0 38 7f 3f 25 eb 7e 3f
       1.0192168 0.99137264 0.9969597 0.9957755
0000a0 10 6b 7d 3f 8f 30 80 3f 44 07 80 3f 4e 1b 7d 3f
       0.9899149 1.0014819 1.0002217 0.9886979
0000b0 22 42 83 3f ef f4 7c 3f 8b 12 80 3f e0 61 7d 3f
       1.0254557 0.9881124 1.0005659 0.9897747
0000c0 14 a0 7f 3f 14 41 81 3f 04 3e 80 3f 82 64 7e 3f
       0.99853635 1.0097985 1.0018926 0.9937211
0000d0 13 43 81 3f d9 e8 7e 3f 9e fb 7f 3f f3 6f 81 3f
       1.0098594 0.9957405 0.9999331 1.0112289
0000e0 dc 98 84 3f b7 7f 80 3f e8 cc 7f 3f d9 61 80 3f
       1.0359149 1.0038975 0.9992204 1.0029861
0000f0 f7 53 80 3f ff db 7d 3f 3f 02 7b 3f 78 73 83 3f
       1.0025624 0.9916381 0.980503 1.0269613

module.encoder.c2.main.1.bias f4 [64]
000000 48 31 34 bd 83 1a e5 bc d7 51 e1 bb fe f4 05 bd
       -0.04399231 -0.027966743 -0.006876211 -0.032704346
000010 94 af a6 bc 46 54 08 bd a5 79 c6 bb 68 dd 18 bc
       -0.020347394 -0.033283494 -0.0060569816 -0.009330131
000020 5c 08 c2 bc 75 62 41 bc 0a 23 65 bd 3a ad f4 bb
       -0.023685627 -0.011803259 -0.05594162 -0.0074669393
000030 75 9e 91 bb 38 45 9f bc a4 95 28 bc 87 34 dc 3b
       -0.0044439384 -0.019442186 -0.010289583 0.006720129
000040 48 08 1d bc 59 4e 60 bc 9a d2 a1 bb 19 52 a8 bc
       -0.009584494 -0.013690555 -0.0049384357 -0.02054696
000050 16 1f dd bc 93 f6 be bc 07 5a b3 bb da 4a 72 bb
       -0.026992362 -0.023310935 -0.0054733786 -0.0036970885
000060 8d 6b 47 bd 77 cd 0e bd 7d cd dc bc ba a6 04 bd
       -0.048686553 -0.034863915 -0.026953453 -0.032385565
000070 68 6b 68 bc 57 fe 97 bc 9f f4 0d bb 38 04 58 bc
       -0.014185764 -0.018553896 -0.0021660698 -0.0131846
000080 a8 a6 b2 bb 0a c4 1c bb 73 83 1a bd 63 33 86 bb
       -0.005451996 -0.002392056 -0.037723016 -0.0040954812
000090 96 80 0f bc 2f 7c 28 bc e5 db 9e ba 45 69 79 bc
       -0.008758685 -0.010283514 -0.0012119977 -0.015222852
0000a0 27 f6 c7 bc 28 a5 5a bc a3 b0 19 bc aa bc f4 bb
       -0.024409367 -0.01334504 -0.009380492 -0.0074687796
0000b0 2b 5a e8 3b 16 62 59 bc cb 01 81 3b b1 4e e3 bc
       0.007090827 -0.013268014 0.0039369813 -0.027747484
0000c0 05 e8 84 ba 1f 44 0c bb ae 12 ee bc e0 e3 58 bc
       -0.0010139948 -0.0021402908 -0.029061642 -0.013237923
0000d0 06 28 0b 3c 54 c4 7b bc a2 74 15 bd 9d e1 40 bd
       0.008493429 -0.0153666325 -0.036488183 -0.04709016
0000e0 58 02 84 3c 51 83 db bc 8a 99 09 bd 5e 09 14 bc
       0.016114399 -0.026796015 -0.033593692 -0.009035436
0000f0 2e ea 44 bc 76 54 d5 bc 0f 52 a8 bc f6 bc d9 bc
       -0.012018723 -0.02604125 -0.020546941 -0.026579361

module.encoder.c2.main.3.weight f4 [64, 64, 3, 3]
000000 0f bd 14 bc 6a 92 1e ba 83 27 b5 bb 4a b3 08 37
       -0.009078278 -0.0006049039 -0.005528392 8.147976e-06
000010 3d 27 41 3b 27 ad 89 bb c4 44 fa 3a a2 ed 2a 3c
       0.002947285 -0.0042015496 0.001909398 0.010432633
000020 38 fa d2 bc eb ec 2d bc 86 2f 2c bd 72 29 18 bc
       -0.02575408 -0.010615568 -0.04203751 -0.009287225
000030 3a bc a8 3c 67 de f2 3c 7b 69 ea 3b 48 0a 26 bd
       0.020597566 0.029647065 0.0071536875 -0.04053715
000040 87 fa c6 3c c8 ec 38 3c 3b f3 2f bc 00 07 af 3c
       0.024289383 0.011286922 -0.010739143 0.021365643
000050 ec 9a d4 3b b4 a2 0a 3b 22 f8 81 bb af fb 80 3c
       0.0064881947 0.0021154108 -0.0039663473 0.015745012
000060 e9 56 ae bb 25 cb 2f 3c 7d e0 cb bb a2 b5 7b 3b
       -0.005320419 0.010729586 -0.0062218294 0.0038407822
000070 f4 e5 47 3c 3d 1c 7e 3c 8c 3b b4 3c 8e d8 1a 3d
       0.012200821 0.015509662 0.02200105 0.03780418
000080 65 9b b0 bb d4 b5 e5 3c 25 de 11 3d a7 5a 12 bd
       -0.005389618 0.028040804 0.035612244 -0.035730984
000090 7e 93 96 3c 0f f9 29 3c 4a 1b 2e bc 0f 8d 99 3b
       0.018380877 0.010374322 -0.010626623 0.004686005
0000a0 62 28 a2 bc d4 19 64 bc cc 6d 61 ba 88 9b 38 bd
       -0.019794647 -0.0139221735 -0.000859943 -0.0450702
0000b0 f9 47 4e bc 53 fa 69 3b 8e 5a 1d ba fb 01 fa b8
       -0.012590402 0.0035702183 -0.00060025684 -0.00011921298
0000c0 e1 76 a2 ba 36 e3 c5 bb 02 41 93 3b e5 82 25 bb
       -0.0012395048 -0.0060390485 0.0044938335 -0.0025255021
0000d0 05 ec a2 3b b0 2a bc ba b0 68 3e 3a b4 32 17 bd
       0.0049719834 -0.0014355984 0.00072635245 -0.03691359
0000e0 90 6f ae bc 60 8c 56 bc 9d f3 ee 3c 6e 6c 66 bc
       -0.021293432 -0.013094991 0.029168898 -0.014063938
0000f0 6f 2a 6a bb f9 3c b9 3b a3 9d 72 3c 81 a1 83 3d
       -0.0035730859 0.0056530205 0.014808091 0.06427289
000100 7e 72 4b 3a 0f cf 8e bc 51 8e 2b bc 75 c8 57 38
       0.0007760896 -0.017432718 -0.010470943 5.1446685e-05
000110 bc d8 2a 3d 3a eb 20 3c b3 bb 10 bd f4 fa 76 bd
       0.0417106 0.009821707 -0.035335254 -0.06029792
000120 99 a4 bc 3c 70 c5 a1 bc b2 85 99 3c a0 a3 6a 36
       0.023027705 -0.019747466 0.018740509 3.496396e-06
000130 5f 0d 9c bc 68 0f 41 3c aa cd 9b bc d3 ac af bc
       -0.019049345 0.011783458 -0.019018967 -0.021444714
000140 9a 0b 7f 3c cd 2b 2b bc 78 24 21 3d bf a3 0c bd
       0.015566731 -0.010447455 0.03934142 -0.034335848
000150 d2 09 1c 3a c4 d2 ea bc ed 62 2a bd dd fc e4 bc
       0.0005952391 -0.028664954 -0.04159825 -0.027952606
000160 8d a9 72 bc 11 b8 45 3c a4 d6 22 3c 51 7c c3 3c
       -0.014810932 0.012067811 0.00993887 0.02386299
000170 be e4 23 3d 9a b3 b3 bb 2d 57 9d 3c 66 2c 63 bd
       0.040013067 -0.0054840567 0.019206608 -0.055462264
000180 f1 1b ee bc cc d5 37 bd 56 4f bd bc c6 79 bc 3b
       -0.029066058 -0.044881627 -0.02310912 0.005751821
000190 3c 8d fd 3c 48 d2 e2 3c 34 b0 6a bc 1a 1a 10 3c
       0.030951135 0.02768816 -0.014324237 0.008795286
0001a0 d2 23 0d bc 43 a9 93 3c dd 4c cd 3c b3 42 5e bc
       -0.008614497 0.018025046 0.025061065 -0.013565707
0001b0 d3 bb b8 bb de 90 69 3c 30 7c 91 bc 80 1b 64 3a
       -0.0056376248 0.01425573 -0.017759413 0.00087016076
0001c0 d4 a4 09 bc c3 c7 a7 3c 8a 7a d6 bc 88 08 d4 3c
       -0.0084011145 0.020480996 -0.026181478 0.025882974
0001d0 8f 09 f5 bb 1f f9 b3 ba 97 59 c3 3c 24 e0 7a bc
       -0.007477946 -0.001373086 0.02384643 -0.015312228
0001e0 02 d9 bb bc 00 f7 00 bd 98 24 6c 3c 68 03 79 3b
       -0.022930626 -0.031485558 0.0144130215 0.0037996415
0001f0 49 b4 2b 3b d7 78 64 39 97 9a 75 bc e8 e7 42 bc
       0.0026199988 0.00021788791 -0.01499047 -0.011896111
000200 77 d6 74 bc f0 2d 2e bd 21 ba 75 3c aa 10 1d 3b
       -0.0149437105 -0.04252428 0.01499799 0.0023966231
000210 e9 81 1e 3d 71 16 c7 bc 30 6d 5a bb 97 92 d4 bb
       0.03869811 -0.024302693 -0.003332924 -0.0064872014
000220 2a df 9a bc 98 35 dc bb 4e 45 80 3c c8 de 16 3c
       -0.018905241 -0.006720256 0.015658047 0.009208389
000230 25 0a 1b bc 69 38 e6 3c 55 3a 8a 3b ce e5 a1 bc
       -0.009462868 0.02810307 0.0042183795 -0.0197629
000240 a8 e2 cf 3a 49 ee 72 bb 65 c2 d5 3c 3f f9 84 bc
       0.0015860396 -0.0037068299 0.026093671 -0.016232131
000250 16 39 1d bd c3 32 5d bb 6f dc 1d 3b 17 35 2b bc
       -0.03838452 -0.003375218 0.0024087687 -0.010449669
000260 c7 7e 5d 3b 52 28 bb bc 71 12 6d 3c 1a 18 15 3c
       0.003379749 -0.022846375 0.014469729 0.009099985
000270 95 88 42 3c 9a f6 90 3c 7c 0a 40 3c 78 75 85 bc
       0.011873384 0.017695714 0.01172125 -0.016291365
000280 43 fc be 3c de 33 73 3c d9 e8 06 3d 06 5f 50 3b
       0.023313647 0.014843909 0.032936905 0.003179492
000290 cd 3f bd 3c 4a de 96 3c fc f6 13 bc 84 57 85 3a
       0.023101712 0.018416543 -0.009031054 0.0010173176
0002a0 4d ef 94 3c 8e 03 80 bb 39 41 0f 3c 8a 35 46 bc
       0.018180514 -0.0039066738 0.008743578 -0.012097726
0002b0 a7 31 82 3c 03 10 1b 3c 5a 66 e5 3c 1a 16 05 3c
       0.015892817 0.009464267 0.028002907 0.008122945
0002c0 71 88 88 3c 6b cb a0 bc f1 e0 c1 bb 8a bd 0c 3c
       0.016666623 -0.019628247 -0.0059167077 0.0085901115
0002d0 d5 f3 58 bc f4 f6 97 3c ef 0a cd 3c 16 23 06 bd
       -0.013241728 0.018550374 0.025029628 -0.032748304
0002e0 d0 8e 34 bc 87 42 13 bb 7c d2 73 bc 52 5c a2 3c
       -0.011020377 -0.0022470073 -0.014881726 0.019819412
0002f0 ed 50 41 bd 32 0f 8f 3c fc b8 af bc d6 0a 80 b9
       -0.047196317 0.0174633 -0.021450512 -0.00024422136
000300 17 4d 15 3d aa e9 0d 3d 7b 05 12 3d f7 71 5e 3c
       0.03645047 0.034646668 0.035649758 0.013576976
000310 5f 62 45 3c 4d 70 07 3d 6b be 44 3c f4 5a d5 ba
       0.012047379 0.033066083 0.01200829 -0.0016277716
000320 b6 99 c8 3c fb 66 6a 3d 65 08 39 3c 25 e7 c1 3c
       0.024487358 0.057227116 0.011293505 0.023669789
000330 77 f5 f8 bc 30 42 cf bb a1 0b 3a bc cc 77 d1 bb
       -0.030390484 -0.006325029 -0.011355312 -0.0063924547
000340 08 f9 0c bd 1d d2 e2 3a 82 16 37 bc 75 a2 9c 3b
       -0.034417182 0.001730505 -0.0111748 0.0047801086
000350 27 0d 18 bb 3b 33 3c 3d 29 38 e9 bb bd c7 55 bc
       -0.0023201199 0.045947295 -0.0071172905 -0.01304811
000360 ca 38 3a bc fe fc a9 bb 05 b0 d4 3c da b4 3b 3c
       -0.011366079 -0.0051876297 0.025962839 0.011456693
000370 13 6f 35 bd 56 0d c7 bc 37 ff 65 bc 30 f9 e2 3b
       -0.04429538 -0.024298351 -0.014037899 0.006926678
000380 8b a4 a1 3c 4d 6a cd 3c 5c 09 8c 3c 18 e2 2f 3c
       0.01973178 0.025075102 0.017094307 0.010735057
000390 18 09 06 3c 71 8b 48 bc 21 90 a2 3c d2 7a 7c bc
       0.008180879 -0.012240277 0.019844117 -0.015410142
0003a0 ef cf 97 bc d5 ca 26 3d bf 3e be bc e1 21 0c 3b
       -0.018531768 0.04072078 -0.023223279 0.0021382498
0003b0 b0 b9 c9 3b 1f 32 5f bc f2 7d 15 bd 3d c5 25 3c
       0.006156169 -0.01362279 -0.036497064 0.010117826
0003c0 67 3d 4c bc 8e 6d 66 3c a0 1e 67 bb 05 53 10 bd
       -0.012465811 0.014064206 -0.0035266057 -0.035235424
0003d0 fe dd a2 bb 56 84 ba bc 49 39 1d 3b 31 5b 4d bc
       -0.004970311 -0.02276818 0.0023990443 -0.012533949
0003e0 b6 5f 14 3d 06 03 62 bb 8c 7a 95 3b 8c 44 34 bc
       0.03622409 -0.0034486665 0.004561728 -0.011002671
0003f0 81 bd 27 bb 3b c0 9f 3b a3 0d 0c bc 7f 69 c7 3c
       -0.002559513 0.0048752106 -0.008548173 0.024342297

module.encoder.c2.main.3.bias f4 [64]
000000 8d 90 1a b6 d3 2a 26 36 6b ff 38 b6 74 d9 50 35
       -2.3031928e-06 2.4760855e-06 -2.756681e-06 7.7802474e-07
000010 4f 98 de 34 7e 38 28 36 fb 7a a2 b6 1f a6 44 b6
       4.146154e-07 2.5066834e-06 -4.842293e-06 -2.9302971e-06
000020 b9 15 01 b6 e9 ae ef 35 25 0a 54 35 65 55 1c 36
       -1.9235142e-06 1.7857793e-06 7.8990917e-07 2.3295518e-06
000030 be eb 86 b5 78 fb 91 36 45 ac c6 b6 04 65 90 36
       -1.0052388e-06 4.3506116e-06 -5.9209146e-06 4.303294e-06
000040 98 51 4a 35 97 2b a6 b4 5c 6e 0b 36 60 43 89 b4
       7.53696e-07 -3.0951625e-07 2.0776852e-06 -2.556726e-07
000050 95 b9 bd 35 aa 01 31 35 fe 76 30 36 e4 f7 f4 b3
       1.4135609e-06 6.594006e-07 2.6295306e-06 -1.14072265e-07
000060 5b f0 2f 36 fb b5 c5 35 92 bf 5d b6 f9 8b 9d 36
       2.6216937e-06 1.4730607e-06 -3.3043075e-06 4.6952596e-06
000070 8e 41 68 35 1a 73 c0 35 7a 28 02 34 ed ce 87 b6
       8.652213e-07 1.4338614e-06 1.2121919e-07 -4.047403e-06
000080 3e 66 ce 34 fc 03 6c 36 35 7c 42 b5 e9 df 19 b6
       3.844488e-07 3.516906e-06 -7.2451377e-07 -2.292911e-06
000090 ee 30 7c 36 a7 e3 73 36 8e 46 1c b6 25 29 14 36
       3.7579407e-06 3.6342333e-06 -2.328688e-06 2.2077668e-06
0000a0 09 f7 07 b6 4f 88 62 b4 3b ac 6f b5 ad 4b b7 b5
       -2.026036e-06 -2.1097479e-07 -8.9285066e-07 -1.3656587e-06
0000b0 7b 8f 8b b5 ed 3d 9a b4 f9 27 9e b6 78 bb e1 b6
       -1.0398065e-06 -2.8729792e-07 -4.7134204e-06 -6.7273468e-06
0000c0 30 5d 82 b6 d5 08 d3 35 64 50 e8 33 a1 c6 30 36
       -3.8851504e-06 1.5723296e-06 1.0817965e-07 2.634166e-06
0000d0 2b e3 da b6 0d f2 77 b6 ac 8a df b4 81 7f 82 31
       -6.523352e-06 -3.694676e-06 -4.1637884e-07 3.7979935e-09
0000e0 43 27 0a 36 c2 96 84 b6 dd 89 c1 34 11 d8 39 b6
       2.0586456e-06 -3.951457e-06 3.604936e-07 -2.7692915e-06
0000f0 72 53 9b 36 df 51 2e b5 63 ca 05 36 eb ed bf b5
       4.6290743e-06 -6.493919e-07 1.993635e-06 -1.4299852e-06

module.encoder.c2.main.4.weight f4 [64]
000000 6c 6d 7f 3f 5e 72 80 3f d1 6b 7f 3f 23 3e 80 3f
       0.9977634 1.0034902 0.9977389 1.0018963
000010 9c c0 80 3f 7b 6b 7f 3f fd c2 7f 3f d3 ee 7f 3f
       1.005878 0.9977338 0.99906904 0.9997379
000020 87 2c 83 3f f9 44 80 3f 9b 37 7c 3f f2 55 7f 3f
       1.0247964 1.0021049 0.9852235 0.9974052
000030 5e 81 7f 3f 72 41 80 3f 1c ae 7e 3f 6f c5 7d 3f
       0.99806774 1.0019972 0.9948442 0.99129385
000040 37 26 80 3f d3 74 7e 3f 81 fa 7f 3f de 2a 7e 3f
       1.0011662 0.9939701 0.99991614 0.9928416
000050 2e 43 81 3f 56 82 7e 3f ec 24 80 3f 25 2c 81 3f
       1.0098627 0.99417627 1.0011268 1.0091597
000060 3e 88 81 3f ca 3c 82 3f af 5f 80 3f ac 39 80 3f
       1.0119703 1.0174801 1.00292 1.00176
000070 cb 73 80 3f 02 b8 7f 3f 4b 41 7d 3f d3 99 80 3f
       1.0035337 0.9989015 0.98927754 1.0046943
000080 04 7f 7b 3f e7 b8 80 3f 1b 7f 7b 3f 11 2d 7f 3f
       0.98240685 1.0056428 0.9824082 0.9967814
000090 c0 ee 7f 3f 3c d2 7f 3f f9 a1 81 3f 35 75 80 3f
       0.9997368 0.9993017 1.0127555 1.0035769
0000a0 4e c5 7d 3f 9e b0 7e 3f e0 57 80 3f 00 aa 7f 3f
       0.9912919 0.99488246 1.0026817 0.99868774
0000b0 01 e3 80 3f b2 db 7e 3f 7a b8 80 3f 5b 98 7f 3f
       1.0069276 0.9955398 1.0056298 0.9984185
0000c0 16 4b 7f 3f 31 25 80 3f 2b 75 79 3f 79 18 80 3f
       0.9972395 1.001135 0.9744441 1.0007468
0000d0 33 01 80 3f c3 98 80 3f b4 fb 7c 3f 67 58 7e 3f
       1.0000366 1.0046619 0.9882157 0.9935364
0000e0 c0 f0 80 3f c1 7b 7e 3f 90 12 7c 3f 67 12 81 3f
       1.0073471 0.99407583 0.98465824 1.0083741
0000f0 ab 3d 82 3f f0 3f 83 3f bb 70 80 3f 9b c1 79 3f
       1.017507 1.0253887 1.0034403 0.97561044

module.encoder.c2.main.4.bias f4 [64]
000000 7c 60 10 bc 2a 72 18 3b 2c ec e6 ba 13 db f5 bc
       -0.008812066 0.0023261406 -0.0017617992 -0.03001169
000010 ee 9c 2d bc 2b 33 1d 3b eb 6e 2c bc 75 ee ab bb
       -0.010596497 0.0023986797 -0.010524492 -0.005246932
000020 4c f1 0e ba 5c 30 02 bc a4 f0 49 bc 60 07 91 bc
       -0.0005452826 -0.0079461 -0.01232544 -0.017703712
000030 2f 4f eb bb b1 e6 9f bc db 29 e8 3b 2e 85 80 bc
       -0.0071810703 -0.019519182 0.0070850677 -0.015688505
000040 ef 72 4a bc 12 d2 68 3b 80 1c 12 bc c4 5c 3c bb
       -0.012356504 0.0035525602 -0.008917928 -0.0028741816
000050 d5 4e 0d bb 98 b4 ed bb ee 9a b2 bc da ed a1 39
       -0.002156188 -0.0072541945 -0.021802392 0.00030885526
000060 01 8f 40 bd 50 2b 03 b9 97 f9 95 3c 39 db 7e bc
       -0.04701138 -0.00012509269 0.01830749 -0.015555196
000070 ae 76 b0 3b 36 99 ac 39 00 0c 2e bc 36 6e 65 bc
       0.0053852415 0.00032920548 -0.010622978 -0.014003327
000080 91 e6 0b bd 36 7c 71 ba 73 72 85 bb ff 0b 49 bc
       -0.034155432 -0.0009211929 -0.0040724813 -0.0122709265
000090 55 33 1a bc 28 7f 95 bc 14 83 73 3a de 72 87 3b
       -0.009411653 -0.01824911 0.00092892465 0.0041335663
0000a0 d4 16 ce bc 18 29 ca 38 fd 38 fb 3b 1b 63 67 3c
       -0.02515737 9.639765e-05 0.0076667056 0.01412275
0000b0 41 d9 fe bc 38 17 68 bc 82 4d 17 3b ff bc bb bc
       -0.031109454 -0.014165692 0.002308697 -0.022917269
0000c0 1c 47 b1 bb 45 8d 00 bb 57 bc 36 bd c8 3b 98 bc
       -0.005410088 -0.0019615453 -0.04461321 -0.018583193
0000d0 d5 fb 86 3c 07 e3 0e 3a 98 09 d7 bb d2 e4 68 bc
       0.016477505 0.00054507 -0.006562423 -0.014214711
0000e0 75 5c cb bc 91 6a c6 3b cc d2 f3 bc 11 ac 2d bb
       -0.02482436 0.006055184 -0.029763602 -0.0026500265
0000f0 09 0b 68 bd f1 5a dc 3c c6 90 6c bc 5b 8b eb 3b
       -0.05665115 0.026898833 -0.014438814 0.0071882433
