logs/exp4/model_iters_34000.pth (torch, 495376 bytes, 47 tensors)

module.encoder.c1.main.0.weight f4 [32, 3, 3, 3]
0.008149103 0.052653592 -0.011880113 0.024890887 0.07881015 -0.026915507 0.032267354 0.08258824
0.027628139 -0.0038015728 -0.010245488 -0.03154063 0.010150125 0.011571747 0.021796504 0.020618543
-0.0011002688 0.014286448 0.0011238147 -0.036497887 -0.016452167 0.082289584 0.032290336 -0.009119157
-0.0051923203 0.0076894807 -0.008525196 -0.03749462 -0.054807693 0.018941594 -0.032706507 0.009332106
-0.016934633 -0.011698532 0.10633296 0.032309867 -0.008275787 0.007800051 0.025464026 -0.019413494
-0.0025701118 -0.005213255 0.00016972591 0.023199117 0.0017552772 -0.03495394 0.026196878 -0.048971895
0.01902289 -0.04146255 0.005481496 -0.003317225 0.0069514643 0.0010353731 0.006709964 -0.034328066
0.017845348 0.0025744303 -0.01564435 0.062307134 0.047706775 0.031295676 0.045294747 0.0047412175
0.019640904 0.027130423 0.0036195037 0.014492097 -0.030266587 0.0188358 -0.018706175 -0.016096096
-0.020110855 -0.071454905 -0.046383925 0.011285352 0.013516831 0.08771586 -0.02926137 0.027714357
0.07940043 -0.02297103 -0.03036139 0.007359821 0.028879058 0.015112432 -0.00711329 0.0012768239
-0.0019050593 -0.017312795 0.025465675 0.008758398 0.041448522 0.032153834 -0.015530654 0.014210762
-0.009224134 -0.04171488 -0.04456716 0.022466842 -0.00912977 -0.05244827 0.05240264 -0.08057152
-0.09100893 0.0031875214 -0.05318196 -0.14368224 0.027220644 0.021768676 0.00960284 0.08906624
-0.004455508 -0.0014938022 0.035319146 0.007677177 -0.026719447 0.072856605 0.0014920428 0.039963603
0.017217072 0.0031383145 0.00931688 -0.026649836 0.012662162 -0.014420328 -0.0046760007 0.020550186
-0.023155035 0.0604318 0.025679735 -0.030108552 -0.08490312 -0.018581491 -0.09790927 -0.014959941
-0.018604297 -0.03805255 -0.019774888 0.016036473 0.0061574876 -0.015888697 0.003997443 0.028481591
0.0062930514 -0.027163012 -0.09260599 0.03201037 -0.019344691 -0.0069755847 0.05174073 0.068304196
-0.005957575 -0.014353619 0.03870017 -0.02316685 -0.015371132 -0.0056626718 -0.0020280485 -0.0025465444
0.04235147 -0.03675107 -0.0149195725 0.018460514 -0.0073352493 -0.024831804 -0.040278815 -0.056365594
0.005604694 -0.009680671 -0.0034330045 -0.011634999 0.018118517 0.0137461135 0.04145883 0.015377045
0.013382763 0.008974702 0.019408109 -0.020985968 -0.012190783 -0.009339784 -0.023484232 -0.033112764
-0.095853835 0.02759862 -0.04993018 -0.024558993 -0.049872592 0.042455155 -0.017201597 0.0059753214
0.040126443 -0.09382882 -0.01440795 0.032091737 -0.011334181 0.016661417 -0.006669865 -0.0014778636
-0.009700476 -0.0058290754 -0.065581016 -0.0042058704 0.058586635 0.013437217 0.026002774 0.04311391
0.06099651 0.0021132065 -0.021734133 -0.0029680259 0.024912504 -0.01155971 -0.030852772 -0.008194795
-0.009995881 0.026701491 0.036730487 0.02373888 0.004752906 -0.008009684 -0.028987514 0.015233476
-0.03546353 -0.0050049867 0.008246491 0.032732114 0.035212506 0.02693533 -0.021728024 -0.016959427
0.038767084 -0.0037557373 -0.082677275 -0.049907286 -0.11570618 -0.101151176 -0.10846372 -0.119537584
-0.015096057 0.0021645785 0.019896338 -0.021708257 -0.03674311 -0.01800787 0.013913601 0.025133621
0.020550763 -0.044146776 -0.0044178125 -0.029282274 -0.011015144 0.0056796917 0.0017359286 0.028008005
00000000: d183 053c 4bab 573d cea4 42bc f9e7 cb3c
00000010: 3767 a13d e97d dcbc c62a 043d 0624 a93d
00000020: 6854 e23c cf23 79bb b1dc 27bc bf30 01bd
00000030: b64c 263c 6d97 3d3c 958e b23c 38e8 a83c
00000040: e536 90ba b511 6a3c f74c 933a cf7e 15bd
00000050: b2c6 86bc 7187 a83d df42 043d 8468 15bc
00000060: 5724 aabb 0af8 fb3b 44ad 0bbc f593 19bd
00000070: 087e 60bd 672b 9b3c 42f7 05bd b1e5 183c
00000080: 80ba 8abc 33ab 3fbc 18c5 d93d 5a57 043d
00000090: 2b97 07bc 9297 ff3b ef99 d03c 0c09 9fbc
000000a0: 526f 28bb f4d3 aabb 74f8 3139 130c be3c
000000b0: 5411 e63a dd2b 0fbd d69a d63c c196 48bd
000000c0: e4d5 9b3c a3d4 29bd 1f9e b33b cd65 59bb
000000d0: 1cc9 e33b 5bb5 873a 42df db3b 969b 0cbd
000000e0: 6830 923c c6b7 283b 9428 80bc c435 7f3d
000000f0: 2e68 433d e52f 003d fc86 393d 375c 9b3b
00000100: f6e5 a03c 9f40 de3c 3235 6d3b 4370 6d3c
00000110: a2f1 f7bc 894d 9a3c b13d 99bc f6db 83bc
00000120: 85bf a4bc f356 92bd 12fd 3dbd 32e6 383c
00000130: b375 5d3c 5fa4 b33d 8ab5 efbc 3809 e33c
00000140: b19c a23d be2d bcbc 73b8 f8bc a72a f13b
00000150: c693 ec3c 229a 773c 9a16 e9bb 1a5b a73a
00000160: 2fb3 f9ba 90d3 8dbc 649d d03c 627f 0f3c
00000170: edc5 293d bdb3 033d 4974 7ebc 42d4 683c
00000180: d220 17bc 39dd 2abd 0e8c 36bd 620c b83c
00000190: 0895 15bc ffd3 56bd 27a4 563d ae02 a5bd
000001a0: e462 babd bce5 503b 54d5 59bd 7021 13be
000001b0: d4fd de3c 3954 b23c 3b55 1d3c 5c68 b63d
000001c0: 83ff 91bb afcb c3ba cfaa 103d d490 fb3b
000001d0: bee2 dabc d835 953d a690 c33a e0b0 233d
000001e0: d10a 8d3c 2eac 4d3b d4a5 183c c250 dabc
000001f0: f574 4f3c 3d43 6cbc 2339 99bb dd58 a83c
00000200: a1af bdbc 5687 773d 4f5e d23c 36a6 f6bc
00000210: b0e1 adbd 3638 98bc a884 c8bd 8a1a 75bc
00000220: 0a68 98bc fedc 1bbd f2fe a1bc ec5e 833c
00000230: c0c4 c93b 0329 82bc fbfc 823b 3a52 e93c
00000240: f135 ce3b f784 debc 36a8 bdbd 4e1d 033d
00000250: c278 9ebc 7293 e4bb 16ee 533d 12e3 8b3d
00000260: c337 c3bb 712b 6bbc 1284 1e3d 68c8 bdbc
00000270: 33d7 7bbc ef8d b9bb 02e9 04bb ede3 26bb
00000280: bc78 2d3d 4a88 16bd 3971 74bc 813a 973c
00000290: 885c f0bb 116c cbbc 66fb 24bd 9cdf 66bd
000002a0: 95a7 b73b ad9b 1ebc 42fc 60bb b9a0 3ebc
000002b0: 496d 943c 6137 613c bcd0 293d 00f0 7b3c
000002c0: 6043 5b3c a10a 133c c1fd 9e3c c4ea abbc
000002d0: dabb 47bc e505 19bc 0162 c0bc 40a1 07bd
000002e0: 044f c4bd 8016 e23c 9783 4cbd f12f c9bc
000002f0: 3447 4cbd 75e5 2d3d 5dea 8cbc a1cc c33b
00000300: a05b 243d 5329 c0bd 530f 6cbc a072 033d
00000310: 00b3 39bc 867d 883c e28e dabb e0b4 c1ba
00000320: bfee 1ebc d401 bfbb 574f 86bd 66d1 89bb
00000330: 8af8 6f3d c627 5c3c c503 d53c 3698 303d
00000340: 7ad7 793d b97d 0a3b c80b b2bc 3683 42bb
00000350: 4f15 cc3c f064 3dbc f4be fcbc 7643 06bc
00000360: c3c5 23bc 16bd da3c b572 163d 0a78 c23c
00000370: 44be 9b3b 0d3b 03bc 3977 edbc d495 793c
00000380: 3542 11bd df00 a4bb 4a1c 073c 1c12 063d
00000390: fd3a 103d 7ba7 dc3c f8fe b1bc 7fee 8abc
000003a0: 3cca 1e3d d122 76bb b452 a9bd 956b 4cbd
000003b0: 5df7 ecbd 5928 cfbd 3a22 debd 1fd0 f4bd
000003c0: 7455 77bc 9adb 0d3b a5fd a23c 84d5 b1bc
000003d0: f17f 16bd 3e85 93bc dff5 633c 06e5 cd3c
000003e0: 135a a83c 40d3 34bd 4cc3 90bb 61e1 efbc
000003f0: dd78 34bc b51c ba3b 1988 e33a 0b71 e53c

module.encoder.c1.main.0.bias f4 [32]
-0.0009498356 0.004280305 -0.0018203135 0.0014127753 -0.0013960749 -0.0003007222 0.00020300098 -0.0018966647
0.0024635326 -0.0030099675 -0.00030551714 -0.0074929246 -0.0011134732 -0.00041646502 0.003452032 -0.0038789175
-0.0004422234 0.00018157416 -0.005983715 0.0019278737 -0.0006613609 0.005847888 -0.0024302858 -0.00027865713
0.00013205783 -0.00062182365 0.0013254897 -0.006354147 -0.0036992575 0.005514383 0.003235696 -0.0037467496
00000000: 63fe 78ba cd41 8c3b 9697 eeba df2c b93a
00000010: 80fc b6ba 40aa 9db9 a9dc 5439 8299 f8ba
00000020: 3873 213b e042 45bb d12d a0b9 3587 f5bb
00000030: f6f1 91ba fd58 dab9 7d3b 623b 7035 7ebb
00000040: 38da e7b9 f164 3e39 0a13 c4bb b5b0 fc3a
00000050: 2e5f 2dba a49f bf3b 6e45 1fbb ba18 92b9
00000060: 0179 0a39 e101 23ba 0ebc ad3a 7336 d0bb
00000070: 3e6f 72bb ffb1 b43b f80d 543b 078c 75bb

module.encoder.c1.main.1.weight f4 [32]
0.9708143 0.97956324 0.9739733 0.99820006 1.0025663 1.0458279 0.98044556 1.0861776
1.0077643 1.0091306 0.9808728 0.9582312 1.0446491 0.9003517 1.04453 1.0244491
0.96058685 1.006432 0.9994932 0.9655663 0.9839433 1.0490931 1.0058013 0.9274125
1.0061948 0.9467758 1.0625148 1.0190475 0.9660265 0.9764013 0.9868992 1.0435904
00000000: 4987 783f a8c4 7a3f 5056 793f 0a8a 7f3f
00000010: 1854 803f b0dd 853f 7bfe 7a3f de07 8b3f
00000020: 6cfe 803f 312b 813f 7b1a 7b3f a44e 753f
00000030: 10b7 853f 737d 663f 29b3 853f 2621 833f
00000040: 05e9 753f c4d2 803f c9de 7f3f 5a2f 773f
00000050: b5e3 7b3f af48 863f 19be 803f e86a 6d3f
00000060: feca 803f e65f 723f 7c00 883f 2670 823f
00000070: 834d 773f 70f5 793f 6da5 7c3f 5f94 853f

module.encoder.c1.main.1.bias f4 [32]
-0.059281264 -0.10993889 -0.14004204 -0.04233511 -0.11359028 0.018861845 -0.049784668 -0.04410655
-0.12936154 -0.16796799 -0.04119208 0.048218537 -0.03247353 -0.030164516 -0.044926226 -0.0073799863
-0.022194583 0.024415119 -0.011975442 -0.013241709 -0.068613395 0.015547953 0.01016456 -0.05117851
-0.01582461 -0.057956472 -0.010574594 -0.08529976 -0.08514988 -0.14590183 -0.041475475 -0.016339142
00000000: e9d0 72bd a427 e1bd 2e67 0fbe 9567 2dbd
00000010: 05a2 e8bd 2884 9a3c 02eb 4bbd 12a9 34bd
00000020: 5a77 04be cdff 2bbe 07b9 28bd cd80 453d
00000030: f702 05bd 931b f7bc 9004 38bd d0d3 f1bb
00000040: 6ad1 b5bc 3702 c83c a534 44bc c1f3 58bc
00000050: 2e85 8cbd d7bc 7e3c 4189 263c 8fa0 51bd
00000060: 9da2 81bc c463 6dbd 1041 2dbc a4b1 aebd
00000070: 0f63 aebd 4a67 15be 30e2 29bd aad9 85bc

module.encoder.c1.main.3.weight f4 [32, 32, 3, 3]
0.019740634 -0.025109585 -0.06479363 0.015451136 -0.028004495 -0.020540392 0.06444982 -0.00070546416
-0.074667595 0.012774679 0.053247854 0.027236894 -0.003083484 0.044023637 -0.019551242 -0.010126644
0.0012807457 -0.0123940455 -0.069249325 -0.03826135 0.0056776167 -0.047345005 -0.0059653213 0.007401028
-0.005538361 -0.04216157 0.016866436 0.00082278857 -0.00025931606 0.010532087 -0.050164547 -0.06159895
0.019472081 -0.013331769 0.0014542432 -0.0027560964 0.04584491 -0.00045980138 -0.009276645 0.023046752
-0.017465381 -0.0014803574 0.017472353 -0.0014476937 -0.010520444 -0.014584493 0.044123918 0.031969562
0.040263247 0.038683865 -0.03857888 -0.050298057 -0.011232306 0.023093462 -0.0056699836 0.003906329
0.036226474 -0.0025482753 0.014136273 0.00025232503 0.04027605 0.014421179 0.029021712 0.026286114
0.06345049 0.06377191 -0.0668732 -0.0060534775 -0.11440923 -0.053475685 0.007726226 0.018828385
0.0113312425 0.008692816 0.008078037 0.030314807 -0.011229471 0.00024018605 -0.022214266 0.007037659
-0.0017779507 0.015218415 0.041072242 0.037399385 0.024005689 -0.0059481277 0.024787368 -0.00013116305
-0.011244803 0.006037798 -0.055477343 0.009233292 0.002700905 -0.025858536 -0.031730913 0.002393414
-0.027195984 -0.010699842 0.005849605 -0.007662558 0.011678595 0.0394591 0.016655518 -0.00597327
-0.0003300506 0.0065962994 -0.027197927 -0.012460893 -0.008857363 -0.04313972 0.018396685 0.072530486
0.013909099 -0.0077753966 -0.05583917 -0.070434414 -0.07881623 0.007260417 0.044007815 0.01840305
0.009106741 0.0054920795 -0.005795007 0.0025716652 -0.0015387281 0.013352052 0.009139036 0.025036313
0.010419201 -0.05065102 -0.0029143395 -0.052780308 -0.065323904 -0.039383017 -0.083692476 0.020927303
-0.038904123 0.023120383 -0.0037030615 -0.019522944 -0.06746229 -0.0008477495 -0.019095104 -0.037285354
-0.035911154 -0.054407712 -0.034842577 0.030342396 0.02140464 0.027033754 0.0015319685 -0.019557577
-0.015324575 0.026657596 0.020019853 0.010803869 0.0014286044 0.027726358 0.026340682 -0.035641603
-0.04152807 -0.07034027 -0.025524179 0.008070681 -0.03970176 0.006559533 -0.0020983305 0.015315192
0.039213095 0.01043952 0.026218796 0.00437641 -0.027580323 -0.022318535 -0.054935154 0.0004882915
-0.006736889 -0.042106546 -0.016574001 -0.002335303 -0.03981227 -0.020004865 -0.042503808 -0.0010731058
0.011729478 0.0018410909 -0.008971164 -0.054578345 0.010031724 0.0044020717 0.033376075 -0.028385598
-0.02322973 0.0042272634 0.05143185 0.00545036 -0.048756473 0.0012735274 0.051551875 -0.031165592
-0.039890494 0.061594877 -0.017800335 -0.07899592 -0.025462901 -0.050521307 -0.039106283 -0.039241657
0.0019643814 0.00062905543 -0.02469761 0.001372344 -0.0032029042 0.0060311244 -0.0054991716 -0.029051462
0.037041042 0.031577602 -0.013007555 -0.018864475 0.0043305927 -0.017057976 0.011321327 -0.010352174
0.0236722 -0.017186837 0.038968958 0.016467541 -0.027410373 -0.020778837 -0.045678925 0.003156433
-0.005249276 -0.012961626 0.033590645 -0.045571897 0.023244226 -0.018419672 -0.01836784 -0.040834405
0.035150792 0.039003197 0.03139271 -0.021830155 -0.05307126 -0.0032578534 0.003560778 -0.04328064
0.013348933 0.011963496 -0.014118571 -0.007090266 -0.012972916 0.020595351 0.013716689 0.015058931
00000000: 1cb7 a13c 9eb2 cdbc 86b2 84bd c326 7d3c
00000010: af69 e5bc 5344 a8bc 44fe 833d e6ee 38ba
00000020: 53eb 98bd e34c 513c 6c1a 5a3d e81f df3c
00000030: 4714 4abb 2152 343d ed29 a0bc 39ea 25bc
00000040: b2de a73a 6510 4bbc 97d2 8dbd efb7 1cbd
00000050: 4d0b ba3b d6ec 41bd be78 c3bb 5384 f23b
00000060: 247b b5bb 9cb1 2cbd 7b2b 8a3c 68b0 573a
00000070: d0f4 87b9 c68e 2c3c 5779 4dbd 2e4f 7cbd
00000080: ea83 9f3c 7e6d 5abc 4e9c be3a a09f 34bb
00000090: dfc7 3b3d 7f11 f1b9 12fd 17bc 8bcc bc3c
000000a0: 8f13 8fbc 8d08 c2ba 2e22 8f3c 8ac0 bdba
000000b0: f15d 2cbc ccf3 6ebc 48bb 343d 84f2 023d
000000c0: 13eb 243d f972 1e3d e304 1ebd 5605 4ebd
000000d0: b507 38bc 802e bd3c 45cb b9bb aa00 803b
000000e0: 3662 143d f700 27bb d49b 673c 7e4a 8439
000000f0: 80f8 243d cf46 6c3c f1be ed3c fa55 d73c
00000100: 55f2 813d d99a 823d d1f4 88bd 405c c6bb
00000110: 634f eabd 5209 5bbd 482c fd3b fc3d 9a3c
00000120: ada6 393c 506c 0e3c be59 043c c256 f83c
00000130: d1fb 37bc 74da 7b39 b1fa b5bc 2a9c e63b
00000140: 200a e9ba a956 793c 5e3b 283d 1930 193d
00000150: 94a7 c43c 83e8 c2bb e10e cb3c d088 09b9
00000160: 1f3c 38bc b8d8 c53b 363c 63bd 3c47 173c
00000170: ab01 313b 48d5 d3bc 46f8 01bd d3da 1c3b
00000180: 1dca debc 644e 2fbc 0bae bf3b 3216 fbbb
00000190: 9457 3f3c de9f 213d 2771 883c 6cbb c3bb
000001a0: a40a adb9 c525 d83b 30ce debc c628 4cbc
000001b0: 791e 11bc 46b3 30bd a5b4 963c dd8a 943d
000001c0: fde2 633c c1c8 febb 9db7 64bd eb3f 90bd
000001d0: 676a a1bd cbe8 ed3b 8a41 343d fec1 963c
000001e0: 7134 153c e7f6 b33b 0be4 bdbb 6289 283b
000001f0: 26af c9ba 91c2 5a3c e5bb 153c f418 cd3c
00000200: 4cb5 2a3c 7277 4fbd 81fe 3ebb 2a30 58bd
00000210: 8ac8 85bd 1650 21bd f666 abbd bc6f ab3c
00000220: ee59 1fbd f566 bd3c 10af 72bb 95ee 9fbc
00000230: ab29 8abd 823b 5eba 566d 9cbc 87b8 18bd
00000240: 9317 13bd 9fda 5ebd 17b7 0ebd 9e90 f83c
00000250: c958 af3c e475 dd3c 55cc c83a 3637 a0bc
00000260: ed13 7bbc 0861 da3c ad00 a43c b602 313c
00000270: 0240 bb3a 6322 e33c 6ac8 d73c eefc 11bd
00000280: 5619 2abd 8f0e 90bd 1518 d1bc e43a 043c
00000290: 509e 22bd 5af1 d63b 2584 09bb 92ec 7a3c
000002a0: e99d 203d 850a 2b3c cdc8 d63c fd67 8f3b
000002b0: 21f0 e1bc 5cd5 b6bc af03 61bd b000 003a
000002c0: 1fc1 dcbb ea77 2cbd 33c6 87bc e20b 19bb
000002d0: 3112 23bd 3ee1 a3bc 7918 2ebd 75a7 8cba
000002e0: ff2c 403c c250 f13a cafb 12bc 8b8d 5fbd
000002f0: 1a5c 243c 413f 903b 5ab5 083d ea88 e8bc
00000300: 464c bebc db84 8a3b 34aa 523d ef98 b23b
00000310: deb4 47bd 7dec a63a 0f28 533d fc4e ffbc
00000320: 3764 23bd e94a 7c3d 02d2 91bc 9dc8 a1bd
00000330: 9397 d0bc 6eef 4ebd e92d 20bd dcbb 20bd
00000340: dabc 003b 32e7 243a a452 cabc 39e0 b33a
00000350: d1e7 51bb bda0 c53b 6532 b4bb 55fd edbc
00000360: 59b8 173d 8457 013d a41d 55bc ac89 9abc
00000370: a5e7 8d3b 2bbd 8bbc 167d 393c 2a9c 29bc
00000380: 34ec c13c 69cb 8cbc ea9d 1f3d f0e6 863c
00000390: b88b e0bc 6138 aabc d319 3bbd 29dc 4e3b
000003a0: 1e02 acbb 005d 54bc 5896 093d 99a9 3abd
000003b0: ad6a be3c dae4 96bc 2778 96bc fa41 27bd
000003c0: 47fa 0f3d d1c1 1f3d a495 003d 27d5 b2bc
000003d0: 4061 59bd b681 55bb f15b 693b 0a47 31bd
000003e0: 7cb5 5a3c 8a02 443c 9451 67bc 7655 e8bb
000003f0: 5a8c 54bc 95b7 a83c f7bb 603c bcb9 763c

module.encoder.c1.main.3.bias f4 [32]
-0.00022322676 2.2514674e-05 1.601115e-05 -0.00016514171 -5.277582e-05 4.2165855e-05 0.00020802813 -0.00024769004
3.0184732e-05 0.0002089536 3.6333775e-05 -0.00029102786 -7.09899e-05 -5.808501e-05 0.00018932903 3.4014636e-05
-0.0009813671 0.0007662965 0.00010396452 -4.4740416e-05 -4.102516e-05 0.00065201515 -0.0004032725 0.0001646799
1.678698e-05 4.3527958e-05 5.6912922e-05 -2.0158646e-05 5.282769e-06 -5.9346425e-05 -7.930661e-06 0.00011742041
00000000: fa11 6ab9 e5dd bc37 af4f 8637 e429 2db9
00000010: 9b5b 5db8 3edb 3038 2022 5a39 65dc 81b9
00000020: 3835 fd37 8e1a 5b39 1865 1838 1995 98b9
00000030: 6ae0 94b8 4ea0 73b8 a086 4639 f0aa 0e38
00000040: 37a1 80ba 4ae1 483a 8707 da38 a8a7 3bb8
00000050: 6e12 2cb8 ffeb 2a3a 526e d3b9 edad 2c39
00000060: c4d1 8c37 ca91 3638 c9b5 6e38 5d1a a9b7
00000070: a442 b136 bdea 78b8 ee0d 05b7 9a3f f638

module.encoder.c1.main.4.weight f4 [32]
0.93951494 0.9796402 0.9583832 0.9620792 0.95279616 0.99241143 0.99020356 0.9337301
0.961469 0.9920435 0.9325601 0.99710643 0.96083295 0.95770967 1.0027633 0.9367229
0.99116474 0.97278214 0.96971714 0.9749188 0.9378975 0.9741351 1.0293243 0.96744335
0.95269233 0.98605794 0.94229263 0.94510597 0.976347 0.93410033 0.91551036 0.96871537
00000000: 0d84 703f b3c9 7a3f 9a58 753f d34a 763f
00000010: 73ea 733f ad0e 7e3f fb7d 7d3f f008 6f3f
00000020: d522 763f 90f6 7d3f 42bc 6e3f 5e42 7f3f
00000030: 26f9 753f 762c 753f 8c5a 803f 12cd 6f3f
00000040: f9bc 7d3f 4008 793f 623f 783f 4794 793f
00000050: 0d1a 703f eb60 793f e6c0 833f 5eaa 773f
00000060: a5e3 733f 4b6e 7c3f 173a 713f 77f2 713f
00000070: e1f1 793f 3321 6f3f e35e 6a3f bbfd 773f

module.encoder.c1.main.4.bias f4 [32]
0.014201813 -0.0034691948 -0.017781556 -0.05488156 0.007829098 -0.003531634 -0.04747198 -0.10193184
-0.011555919 -0.05256343 -0.07969864 -0.05313674 -0.101100974 -0.115816705 -0.022898545 -0.0030801254
-0.07820985 0.018248327 -0.091566 -0.05561817 -0.05718455 -0.049615763 -0.15442811 -0.0045910757
0.017695704 -0.046710532 0.0044772625 -0.09056924 -0.083516344 -0.122707106 -0.09620868 -0.095307454
00000000: b9ae 683c 6e5b 63bb a0aa 91bc 7dcb 60bd
00000010: 9e45 003c fd72 67bb fb71 42bd a4c1 d0bd
00000020: 0a55 3dbc c04c 57bd 0a39 a3bd e9a5 59bd
00000030: 070e cfbd 4f31 edbd bb95 bbbc eedb 49bb
00000040: 7c2c a0bd 847d 953c f486 bbbd e1cf 63bd
00000050: 593a 6abd e639 4bbd 6722 1ebe bc70 96bb
00000060: 95f6 903c 8b53 3fbd 00b6 923b 5e7c b9bd
00000070: 9e0a abbd dd4d fbbd 0e09 c5bd 8e30 c3bd

module.encoder.c2.main.0.weight f4 [64, 32, 3, 3]
-0.006414407 -0.016343754 0.013172741 3.7472048e-05 -0.046955466 -0.012123495 -0.0074931695 0.04993479
0.019016748 0.04495016 0.013860809 0.0018465886 -0.014383484 -0.032291245 -0.0284392 0.00699495
-0.004054373 -0.014549701 -0.016711438 -0.008793591 -0.014565979 -0.06157743 -0.029736765 -0.03878686
-0.025316333 0.017635161 -0.008238183 -0.03952772 0.017521946 0.0032333666 -0.0034920129 -0.06166994
-0.03679216 0.01924287 0.04307961 -0.016462002 -0.040043905 -0.0060602473 0.013471502 -0.07819874
-0.024532583 0.006050669 -0.09030015 -0.010742583 -0.01065471 0.0013307207 -0.021978224 -0.030525524
-0.028439114 0.0029394783 0.007992389 -0.02606644 0.029569792 -0.015713973 0.008339652 -0.02197942
-0.015046805 -0.01541297 -0.023076333 -0.0051793125 -0.03942748 -0.05751361 -0.008270589 0.024503473
-0.03711809 -0.008713932 -0.050390188 -0.014903923 0.020422792 0.02788818 0.0936131 0.037730962
-0.028786935 -0.06695306 0.0027156055 0.041515846 -0.01856322 -0.01893226 0.051205333 0.033238187
0.040810056 0.068257615 0.052335825 0.05934473 -0.01128771 -0.037156116 0.026581153 -0.034830876
-0.04049721 0.014837416 -0.06121297 -0.10084537 -0.023661947 0.057817407 -0.0051368475 0.0148056215
0.046087388 0.0019172936 -0.0074105263 0.0020316364 0.021923386 -0.044390876 0.007414152 -0.0004695242
-0.03504434 -0.040814023 -0.038438883 -0.035447136 0.050345022 0.039826404 0.06491485 0.0066682077
-0.033290885 -0.0006286915 0.04548701 0.009967586 0.029288426 -0.021792246 -0.036018256 -0.015986295
0.008116532 -0.04206882 0.03890644 0.031215977 0.03548734 0.06733536 -0.114632554 -0.057363506
-0.032219976 -0.05115925 -0.016739242 0.030720748 -0.0018043626 -0.014989562 -0.046599884 0.018094204
-0.05256729 -0.007816607 -0.0061892555 -0.0044302093 -0.04103402 0.007214551 0.025271028 -0.032386974
-0.011926285 -0.037920516 -0.010530948 0.024787894 -0.025505595 0.022782972 0.013474144 -0.036268737
-0.040679544 -0.022693066 0.014712934 0.013605965 -0.014371156 0.017136782 -0.06164075 -0.034625478
0.03567883 0.020046363 0.020122303 0.0009623206 0.017966986 -0.055176705 -0.042423666 0.00067185884
0.006747201 -0.0060849544 -0.06864725 0.0079517495 -0.0029564889 -0.029917466 0.012874737 -0.033772595
-0.022754498 0.032812443 -0.030656608 -0.00079262845 0.04865622 -0.009268953 0.015936946 -0.011573694
0.02266412 -0.0039152354 -0.005338894 0.033265002 -0.008357576 0.061851546 0.005817428 0.016371476
0.038108476 -0.07134143 -0.005218066 -0.059716947 -0.026330147 -0.017257515 0.03256413 -0.027873533
-0.037562907 0.0053033116 0.024978137 -0.02513858 -0.05097994 -0.03637087 -0.05114715 -0.022069523
-0.087232806 0.017602608 -0.0069498844 -0.022439623 0.014944603 0.06385455 0.0057743094 0.092408374
-0.014824269 0.032728598 -0.034943167 0.01196931 0.045266453 -0.03183769 -0.00905462 0.021588566
-0.028061515 -0.04646442 0.013811478 -0.030344052 -0.023053855 -0.058961503 -0.01840084 0.044073503
0.057510927 0.0292828 -0.0041885534 0.044512603 -0.0009511286 0.029049404 -0.01285633 0.048874225
-0.04598547 0.026825827 -0.0059360513 -0.014317194 -0.0037519054 0.053042293 -0.04448411 -0.0076927324
-0.056111783 0.02378973 0.022250423 0.036495287 -0.02319975 0.02304361 -0.021154422 0.019142115
00000000: f22f d2bb 56e3 85bc 7bd2 573c 4e2b 1d38
00000010: 6054 40bd a0a1 46bc 4389 f5bb 6c88 4c3d
00000020: 03c9 9b3c a91d 383d 7218 633c 3b09 f23a
00000030: b4a8 6bbc d343 04bd 53f9 e8bc e535 e53b
00000040: 8cda 84bb de61 6ebc 6de6 88bc fe12 10bc
00000050: 25a6 6ebc 9e38 7cbd 849a f3bc f8de 1ebd
00000060: 3364 cfbc 9d77 903c 72f9 06bc d2e7 21bd
00000070: 2f8a 8f3c e4e6 533b 41da 64bb 9e99 7cbd
00000080: 60b3 16bd 39a3 9d3c 3f74 303d 52db 86bc
00000090: 1405 24bd 0a95 c6bb 93b7 5c3c a926 a0bd
000000a0: 8ef8 c8bc b144 c63b 49ef b8bd a901 30bc
000000b0: 1891 2ebc 946b ae3a ad0b b4bc aa10 fabc
000000c0: 25f9 e8bc 43a4 403b 82f2 023c 4989 d5bc
000000d0: 593c f23c 97ba 80bc 09a3 083c 2f0e b4bc
000000e0: e086 76bc af86 7cbc 940a bdbc 39b7 a9bb
000000f0: b67e 21bd 6493 6bbd 5d81 07bc 82bb c83c
00000100: 2309 18bd e1c4 0ebc f165 4ebd 952f 74bc
00000110: b34d a73c c175 e43c 3ab8 bf3d c88b 1a3d
00000120: 94d2 ebbc b01e 89bd 4df8 313b 850c 2a3d
00000130: e511 98bc d417 9bbc afbc 513d c424 083d
00000140: 7228 273d a6ca 8b3d 175e 563d 7613 733d
00000150: 16f0 38bc 0331 18bd b8c0 d93c d2aa 0ebd
00000160: 67e0 25bd a218 733c 74ba 7abd 0488 cebd
00000170: b3d6 c1bc f2d1 6c3d 0053 a8bb 4793 723c
00000180: 21c6 3c3d b34d fb3a 00d4 f2bb 3425 053b
00000190: ac98 b33c 35d3 35bd 6af2 f23b 792a f6b9
000001a0: a78a 0fbd 9b2c 27bd 1772 1dbd 0431 11bd
000001b0: 9536 4e3d 0321 233d 14f2 843d fb80 da3b
000001c0: 065c 08bd c6ce 24ba 9650 3a3d 164f 233c
000001d0: 48ee ef3c a785 b2bc e187 13bd b1f5 82bc
000001e0: 34fb 043c 5b50 2cbd 5c5c 1f3d a6b8 ff3c
000001f0: 2c5b 113d 1fe7 893d 79c4 eabd fff5 6abd
00000200: 18f9 03bd 5d8c 51bd bc20 89bc 14aa fb3c
00000210: 5d80 ecba c896 75bc 85df 3ebd 4c3a 943c
00000220: cc50 57bd 3a11 00bc 3dcf cabb 4a2b 91bb
00000230: 4a13 28bd 0a68 ec3b 3005 cf3c 34a8 04bd
00000240: 7766 43bc 8b52 1bbd ff89 2cbc fb0f cb3c
00000250: 1cf1 d0bc 5ba3 ba3c a8c2 5c3c 878e 14bd
00000260: 989f 26bd cfe6 b9bc 850e 713c 8eeb 5e3c
00000270: ff74 6bbc 7062 8c3c 037b 7cbd 72d3 0dbd
00000280: f723 123d 4538 a43c 87d7 a43c 3e44 7c3a
00000290: 802f 933c f800 62bd 70c4 2dbd af1f 303a
000002a0: a017 dd3b 4c64 c7bb ee96 8cbd 0e48 023c
000002b0: a7c1 41bb 7915 f5bc 90f0 523c 2255 0abd
000002c0: a467 babc 5766 063d 9123 fbbc 65c8 4fba
000002d0: bf4b 473d cfdc 17bc 338e 823c 979f 3dbc
000002e0: 1baa b93c 604b 80bb e4f1 aebb e240 083d
000002f0: 37ee 08bc 0c58 7d3d 20a0 be3b 791d 863c
00000300: a217 1c3d 751b 92bd 4ffc aabb c299 74bd
00000310: 52b2 d7bc a25f 8dbc f761 053d 0957 e4bc
00000320: 90db 19bd 67c7 ad3b f39e cc3c 6cef cdbc
00000330: 57d0 50bd 9ff9 14bd ad7f 51bd 25cb b4bc
00000340: 1da7 b2bd 5833 903c dbbb e3bb 4dd3 b7bc
00000350: 35da 743c 2dc6 823d 6b36 bd3b 9a40 bd3d
00000360: 7ee1 72bc 6c0e 063d 9120 0fbd ed1a 443c
00000370: 5169 393d 3d68 02bd d459 14bc 81da b03c
00000380: 43e1 e5bc 7a51 3ebd 8a49 623c 1794 f8bc
00000390: 70db bcbc 9e81 71bd 5cbd 96bc 6b86 343d
000003a0: 9490 6b3d 7ce2 ef3c 2240 89bb d952 363d
000003b0: 2955 79ba 04f9 ed3c 5ba3 52bc 5730 483d
000003c0: 435b 3cbd d6c1 db3c 3583 c2bb aa92 6abc
000003d0: 87e2 75bb e042 593d f834 36bd 5113 fcbb
000003e0: 78d5 65bd aee2 c23c 8546 b63c 157c 153d
000003f0: 670d bebc f4c5 bc3c 0a4c adbc edcf 9c3c

module.encoder.c2.main.0.bias f4 [64]
2.2578723e-05 4.7671845e-05 1.6244463e-05 -3.1319123e-05 2.4886462e-05 2.273727e-05 0.00013884228 0.00011121153
-2.954895e-05 0.00013635881 6.0803013e-05 5.0316256e-05 1.7124559e-06 8.555546e-05 3.9036586e-05 6.525522e-05
-1.8459645e-05 -3.7206606e-05 -3.827416e-05 3.8902283e-05 -2.0978126e-05 5.5034434e-05 9.2733586e-05 6.743029e-05
0.00011952157 4.9637263e-05 -0.00012127276 0.00034693535 -7.243681e-05 -7.210229e-06 0.00011792494 0.00012584504
0.00015441942 9.961219e-05 8.26905e-05 2.231685e-06 0.0001580109 3.3236887e-05 5.401858e-05 5.4268883e-05
8.634308e-05 7.334352e-05 4.4602533e-05 3.819647e-05 0.00028786078 -3.125748e-05 -7.961584e-06 -1.2391973e-06
1.8751536e-05 5.5908633e-05 4.3148342e-05 9.539033e-05 0.00015270838 2.1785575e-06 0.00011981644 6.3475476e-05
0.0001556942 0.00011301541 -2.6654858e-05 1.8982682e-05 5.3901356e-05 -4.472876e-06 -6.3778475e-06 7.577504e-05
00000000: 7067 bd37 41f3 4738 b844 8837 a75c 03b8
00000010: 45c3 d037 eabb be37 3196 1139 3c3a e938
00000020: e3df f7b7 8afb 0e39 bd06 7f38 ab0a 5338
00000030: 89d7 e535 3d6c b338 37bb 2338 a1d9 8838
00000040: c9d9 9ab7 4a0e 1cb8 9188 20b8 022b 2338
00000050: 2ffa afb7 c6d4 6638 f779 c238 5c69 8d38
00000060: a7a7 fa38 9b31 5038 d153 feb8 e0e4 b539
00000070: 37e9 97b8 65ef f1b6 784e f738 45f5 0339
00000080: a6eb 2139 e3e6 d038 206a ad38 0ec4 1536
00000090: baaf 2539 d667 0b38 0292 6238 c59e 6338
000000a0: 1713 b538 01d0 9938 9b13 3b38 2635 2038
000000b0: 05ec 9639 771a 03b8 be92 05b7 7f52 a6b5
000000c0: 9e4c 9d37 707f 6a38 2efa 3438 4b0c c838
000000d0: 5820 2039 5533 1236 f645 fb38 231e 8538
000000e0: d841 2339 b002 ed38 df98 dfb7 003d 9f37
000000f0: 2414 6238 b615 96b6 4b01 d6b6 6ae9 9e38

module.encoder.c2.main.1.weight f4 [64]
0.99464524 0.976172 0.91833246 1.0048594 1.0222973 1.0019748 0.9601803 1.0069201
0.9825075 1.007614 0.9095185 1.0160964 1.0051781 1.0079025 0.94260705 1.0029234
0.94805443 1.005452 0.99426425 0.9859777 0.94577926 0.9839589 0.97132003 1.0010116
1.005402 0.9553184 1.0020825 1.0225776 1.0124162 0.97795576 1.0300677 1.0034598
1.0176504 0.9653036 0.9594952 1.0259671 1.0956146 1.0283755 1.033203 1.0533174
0.98438364 0.9547863 1.0385343 0.9611982 0.9771957 0.9932305 0.9769784 1.0158284
0.9792166 0.9322982 0.991859 1.0191349 1.0209389 1.0580308 1.0086392 0.98901355
1.072001 0.9776745 1.009585 0.9652012 1.0501512 0.9794784 0.9845265 1.0225
00000000: 12a1 7e3f 68e6 793f d617 6b3f 3c9f 803f
00000010: a3da 823f b640 803f 60ce 753f c2e2 803f
00000020: 9d85 7b3f 7ff9 803f 34d6 683f 720f 823f
00000030: ada9 803f f302 813f b24e 713f cb5f 803f
00000040: b2b3 723f a7b2 803f 1a88 7e3f 0969 7c3f
00000050: 971e 723f bbe4 7b3f 6ea8 783f 2621 803f
00000060: 03b1 803f bf8f 743f 3d44 803f d3e3 823f
00000070: db96 813f 4f5b 7a3f 42d9 833f 5f71 803f
00000080: 5e42 823f 231e 773f 7aa1 753f e452 833f
00000090: 193d 8c3f cfa1 833f ff3f 843f 1bd3 863f
000000a0: 9100 7c3f e06c 743f b1ee 843f 1611 763f
000000b0: 7f29 7a3f 5b44 7e3f 421b 7a3f aa06 823f
000000c0: f0ad 7a3f 18ab 6e3f 79ea 7d3f 0373 823f
000000d0: 20ae 823f 8e6d 873f 171b 813f fe2f 7d3f
000000e0: 5437 893f e048 7a3f 153a 813f 6d17 773f
000000f0: 5b6b 863f 19bf 7a3f ee09 7c3f 48e1 823f

module.encoder.c2.main.1.bias f4 [64]
-0.21567802 -0.062181767 -0.1528892 -0.19015981 -0.08091295 -0.16264042 -0.11617997 -0.09218309
-0.06555654 -0.13036133 -0.19444793 -0.17157474 -0.08488773 -0.16060252 -0.13870925 -0.09971483
-0.12115209 -0.06610488 -0.10588425 -0.05510752 -0.06932436 -0.14408712 -0.17162555 -0.116022445
-0.09314938 -0.11203221 -0.14554882 -0.16617085 -0.05661257 -0.17806856 -0.099802546 -0.17790194
-0.07998107 -0.11029247 -0.18794304 -0.1365413 -0.09203153 -0.12224033 -0.0675453 -0.08526289
-0.15227236 -0.10059973 -0.07116739 -0.09980128 -0.09613066 -0.08786803 -0.11847458 -0.10790997
-0.09954212 -0.12074603 -0.15630826 -0.2042021 -0.023858212 -0.008745608 -0.0957866 -0.112239525
-0.022150507 -0.11828628 -0.15977412 -0.14434622 -0.060629163 -0.1220741 -0.06462522 -0.13282618
00000000: b3da 5cbe 4fb2 7ebd fd8e 1cbe 41b9 42be
00000010: b0b5 a5bd 368b 26be c4ef edbd 7dca bcbd
00000020: 8242 86bd 717d 05be 5c1d 47be 4ab1 2fbe
00000030: 9ed9 adbd fd74 24be cc09 0ebe 4a37 ccbd
00000040: 961e f8bd ff61 87bd d7d9 d8bd 6cb8 61bd
00000050: eef9 8dbd 938b 13be 9cbe 2fbe 2d9d edbd
00000060: 1ac5 bebd 2571 e5bd c00a 15be b128 2abe
00000070: 95e2 67bd 9b57 36be 4765 ccbd ed2b 36be
00000080: 1dcd a3bd 05e1 e1bd 2474 40be 7cd1 0bbe
00000090: 077b bcbd 2359 fabd 3155 8abd 4f9e aebd
000000a0: 49ed 1bbe 3b07 cebd 35c0 91bd 9d64 ccbd
000000b0: 27e0 c4bd 27f4 b3bd cda2 f2bd e7ff dcbd
000000c0: bddc cbbd b249 f7bd 460f 20be 5b1a 51be
000000d0: 4c72 c3bc bd49 0fbc c42b c4bd d6dd e5bd
000000e0: fb74 b5bc 1440 f2bd d49b 23be 7fcf 13be
000000f0: 4956 78bd fc01 fabd 3a5a 84bd 9603 08be

module.encoder.c2.main.3.weight f4 [64, 64, 3, 3]
-0.044943143 -0.053519133 -0.003169455 -0.007771375 0.015622503 0.0029423737 -0.004133483 -0.012464936
-0.0361446 -0.0072029573 -0.03236152 0.015216618 0.021331904 0.036748488 0.026358113 -0.04416934
0.029900169 0.030051105 -0.034985486 0.01318662 0.0061182105 -0.025851414 -0.0036002297 -0.011582525
-0.03590902 -0.018863684 -0.025105495 0.032568846 0.037941676 0.020157868 0.017415425 0.052083258
-0.03845866 0.013524502 0.06320321 -0.06373584 0.011060739 0.01830758 -0.007166657 0.03347452
-0.004501882 0.013952792 -0.055644356 -0.10284682 -0.02024556 -0.002295703 -0.04999753 0.0111728385
-0.007640883 -0.039832458 -0.032339286 -0.017683601 -0.025948282 -0.04451359 -0.0001878048 -0.036248703
-0.028983627 0.0011507067 0.04519058 0.0024323582 0.011248603 0.004842571 0.016142137 0.0587403
-0.013709202 -0.005592458 -0.04111861 -0.023623226 0.065338455 -0.046415534 -0.070896916 -0.0726094
-0.0017212494 -0.07263734 0.03609232 -0.0225186 -0.059531678 0.019354999 -0.04980529 -0.020330267
0.05190891 -3.8811246e-05 0.07115099 -0.042166978 -0.002153895 -0.05082273 -0.041341662 -0.031085579
0.015852747 0.035875864 0.010416019 0.012173937 0.048747748 0.021259815 0.043516796 -0.020070778
0.024504947 -0.012584954 0.012670494 0.03354332 0.06225298 0.05505001 -0.0127775585 -0.016070222
-0.059364364 0.021207793 0.03553189 -0.04514409 -0.06027363 0.0080111995 -0.03109548 0.0087406365
-0.025529878 0.00760984 -0.04572573 0.0098907435 -0.0074167117 0.025956128 0.0584676 -0.033644643
-0.03864946 -0.014361318 0.033480663 0.016483359 0.004879365 -0.014867241 0.0023932948 -0.01632482
0.01105859 -0.050923657 0.0069703683 0.009761169 0.050547056 -0.036775947 -0.011317818 -0.030901205
-0.011245986 -0.017392622 -0.0010176293 0.010749574 -0.03806645 0.019289337 0.020978129 -0.02417045
0.035918284 0.019741176 0.04303054 -0.013580525 -0.02381469 -0.004056206 0.008355261 0.0009937937
0.010755173 -0.05800778 0.022011897 -0.008848145 0.00052985875 0.005578004 -0.018656813 -0.039633606
0.027877199 0.015570884 0.02109516 -0.008365228 0.035105444 0.00020676429 0.010566921 0.022004006
0.012832831 0.0050216215 0.031915747 -0.03351604 -0.0030274182 0.0010628501 0.024145324 0.040227894
0.050362304 -0.009216596 0.026654225 -0.008486627 -0.0134356795 0.021760743 0.012159745 0.0011527484
0.00085313123 0.021211907 -0.026530713 0.014897532 -0.0637872 -0.004281407 -0.0126899555 0.0077172755
0.01888769 0.032368854 0.0059928554 -0.00048886606 0.030752586 0.018436937 0.055094816 0.042540025
0.039078217 0.115705796 0.017912751 0.0437971 -0.018585974 0.027091911 -0.040839784 -0.0114273075
-0.018590994 0.005952484 -0.028652541 -0.008272064 -0.03201377 0.027303902 -0.031973794 -0.027022969
-0.03998728 0.030245695 -0.0027128828 0.011095211 -0.02864515 -0.085058294 -0.014519921 0.019626362
-0.023063784 0.04707998 0.021139745 0.03875824 0.009960733 -0.01673808 0.05922102 -0.04061476
-0.032366205 0.05170295 -0.029351277 0.002261543 0.0035119553 -0.027743628 -0.04156297 0.017324653
-0.008457839 -0.0127499355 -0.013368764 -0.020598289 0.039179314 -0.0011860194 0.02620568 0.039542224
0.11524781 -0.022334253 -0.031218858 -0.02364211 -0.005059617 -0.033921156 -0.020230219 0.014788951
00000000: 4d16 38bd e136 5bbd a2b6 4fbb 05a7 febb
00000010: 87f5 7f3c d7d4 403b 2b72 87bb bb39 4cbc
00000020: 5c0c 14bd c906 ecbb 838d 04bd 1f4f 793c
00000030: 3fc0 ae3c 9585 163d f8ec d73c e9ea 34bd
00000040: 33f1 f43c bc2d f63c f14c 0fbd b10c 583c
00000050: 457b c83b 58c6 d3bc d5f1 6bbb a2c4 3dbc
00000060: 5615 13bd 0388 9abc 0aaa cdbc e966 053d
00000070: bb68 1b3d 1d22 a53c cbaa 8e3c 4155 553d
00000080: d486 1dbd df95 5d3c af70 813d f087 82bd
00000090: 1a38 353c c7f9 953c 47d6 eabb 941c 093d
000000a0: 8684 93bb 409a 643c 56eb 63bd 5ba1 d2bd
000000b0: 04da a5bc 8173 16bb 36ca 4cbd 480e 373c
000000c0: 5f60 fabb 5c27 23bd 3376 04bd 33dd 90bc
000000d0: 7e91 d4bc e253 36bd 78ed 44b9 8579 14bd
000000e0: 126f edbc 4fd3 963a c219 393d 3368 1f3b
000000f0: 104c 383c 6eae 9e3b 843c 843c ab99 703d
00000100: 909c 60bc f040 b7bb fd6b 28bd 7f85 c1bc
00000110: 2bd0 853d 371e 3ebd 6732 91bd 3db4 94bd
00000120: 8c9b e1ba e3c2 94bd 8ad5 133d ed78 b8bc
00000130: 7dd7 73bd 608e 9e3c a200 4cbd a98b a6bc
00000140: 709e 543d 42c9 22b8 9cb7 913d 48b7 2cbd
00000150: 5d28 0dbb 7f2b 50bd e055 29bd 2fa7 febc
00000160: 9fdd 813c 92f2 123d f3a7 2a3c 3175 473c
00000170: b8ab 473d 1029 ae3c ab3e 323d 796b a4bc
00000180: 99be c83c 1f31 4ebc e797 4f3c b864 093d
00000190: fbfc 7e3d 1f7c 613d f758 51bc b3a5 83bc
000001a0: 0c28 73bd f7bb ad3c e389 113d 02e9 38bd
000001b0: 7be1 76bd 6841 033c f3bb febc e334 0f3c
000001c0: 0924 d1bc f75b f93b e74a 3bbd c90c 223c
000001d0: e307 f3bb f2a1 d43c b97b 6f3d f7ce 09bd
000001e0: e54e 1ebd bc4b 6bbc 0523 093d 1c08 873c
000001f0: 15e3 9f3b ba95 73bc d3d8 1c3b a1bb 85bc
00000200: 172f 353c 5395 50bd b067 e43b 4fed 1f3c
00000210: 6e0a 4f3d 60a2 16bd 5f6e 39bc 8624 fdbc
00000220: 1641 38bc f97a 8ebc f961 85ba fb1e 303c
00000230: 91eb 1bbd ac04 9e3c 53da ab3c 1c01 c6bc
00000240: 0d1f 133d 3fb8 a13c cb40 303d da80 5ebc
00000250: 0617 c3bc ece9 84bb 81e4 083c 2f42 823a
00000260: 7736 303c 9199 6dbd 4b52 b43c cff7 10bc
00000270: 38e6 0a3a b0c7 b63b 2cd6 98bc d956 22bd
00000280: b95e e43c 051d 7f3c c2cf ac3c 4f0e 09bc
00000290: baca 0f3d dece 5839 e120 2d3c bf41 b43c
000002a0: cb40 523c 6a8c a43b 16ba 023d 1d48 09bd
000002b0: a667 46bb 554f 8b3a 6acc c53c 01c6 243d
000002c0: b448 4e3d 3501 17bc f659 da3c 7e0b 0bbc
000002d0: 5321 5cbc 9643 b23c ab39 473c d117 973a
000002e0: aba4 5f3a 98c4 ad3c f056 d9bc c714 743c
000002f0: dda2 82bd 0c4b 8cbb 88e9 4fbc 33e1 fc3b
00000300: 5bba 9a3c 3495 043d b75f c43b 3f27 00ba
00000310: d9ec fb3c 0f09 973c 1aab 613d 733e 2e3d
00000320: 7b10 203d 29f7 ec3d c3bd 923c 9764 333d
00000330: 9d41 98bc dbef dd3c 9e47 27bd 9a39 3bbc
00000340: 244c 98bc 0e0d c33b bcb8 eabc 8d87 07bc
00000350: df20 03bd 6fac df3c f4f6 02bd 465f ddbc
00000360: b4c9 23bd d2c5 f73c 9fca 31bb b0c8 353c
00000370: 3ca9 eabc 0b33 aebd f6e4 6dbc 77c7 a03c
00000380: 43f0 bcbc f0d6 403d 422d ad3c f6c0 1e3d
00000390: 5832 233c 4c1e 89bc be91 723d aa5b 26bd
000003a0: 6d92 04bd 79c6 533d 1772 f0bc 6536 143b
000003b0: d528 663b 9b46 e3bc ef3d 2abd 6eec 8d3c
000003c0: bf92 0abc 1be5 50bc a908 5bbc bebd a8bc
000003d0: 7d7a 203d 3574 9bba 4bad d63c 07f7 213d
000003e0: 0b07 ec3d 53f6 b6bc b1be ffbc 19ad c1bc
000003f0: 25cb a5bb e9f0 0abd d8b9 a5bc 5b4d 723c

module.encoder.c2.main.3.bias f4 [64]
1.38356345e-05 7.2622584e-05 -1.6971391e-05 -9.649521e-06 1.6773087e-05 5.6955264e-06 -0.000104611645 -1.1682169e-05
-2.3575383e-05 -1.2549338e-05 8.073213e-06 3.406565e-05 -9.2714646e-07 3.7504884e-05 -6.672506e-05 4.636525e-05
1.3310214e-05 -4.1106855e-06 -3.317492e-06 -3.8493097e-05 9.435992e-06 -2.2059465e-05 -5.0258172e-06 -9.736038e-05
1.8290226e-07 9.75258e-06 -1.2295767e-05 6.321569e-05 -1.0836859e-05 -2.7525206e-05 3.5553567e-06 -7.9384816e-05
-3.1080057e-05 -8.1147904e-05 -6.906548e-06 -3.3766766e-05 1.8469085e-05 0.000101796904 -8.130963e-05 2.0488667e-05
-6.126377e-06 -1.82033e-05 -2.0755084e-05 -1.26722625e-05 -6.7314075e-05 2.88948e-05 -2.3112054e-05 -6.536462e-05
-2.0004676e-05 1.3174991e-05 -4.9149483e-05 4.2581996e-05 -8.020452e-05 -3.9937346e-05 -2.4801508e-05 -1.0197513e-05
1.146969e-05 -7.558447e-05 1.10425335e-05 4.1849195e-05 2.6962749e-05 -2.3332936e-05 2.5905967e-05 -5.0367107e-06
00000000: 991f 6837 f44c 9838 c95d 8eb7 61e4 21b7
00000010: eeb3 8c37 331c bf36 f362 dbb8 89fe 43b7
00000020: c0c3 c5b7 ff8a 52b7 3072 0737 b7e1 0e38
00000030: 05e1 78b5 904e 1d38 beee 8bb8 4f78 4238
00000040: ef4e 5f37 85ee 89b6 14a2 5eb6 a673 21b8
00000050: 474f 1e37 570c b9b7 71a3 a8b6 f52d ccb8
00000060: ca63 4434 039f 2337 eb49 4eb7 aa92 8438
00000070: f4cf 35b7 eee5 e6b7 9098 6e36 667b a6b8
00000080: f55b 02b8 f32d aab8 ccbe e7b6 caa0 0db8
00000090: 0fee 9a37 cc7b d538 c684 aab8 14df ab37
000000a0: 2d91 cdb6 4ab3 98b7 341b aeb7 f49a 54b7
000000b0: f82a 8db8 1c63 f237 c2e0 c1b7 5d14 89b8
000000c0: b7cf a7b7 280a 5d37 db25 4eb8 129a 3238
000000d0: 7933 a8b8 6682 27b8 d50c d0b7 fc15 2bb7
000000e0: f26d 4037 1a83 9eb8 5243 3937 3b87 2f38
000000f0: 102e e237 19bb c3b7 a450 d937 0401 a9b6

module.encoder.c2.main.4.weight f4 [64]
0.9955037 1.0240362 0.9735307 1.0126749 0.9941784 0.9830677 0.9975955 0.9854334
1.0503178 0.9846629 0.95984423 0.9935925 0.99705166 1.0096108 1.0025771 1.0177237
0.9883092 0.9757439 0.98886013 0.9680764 0.9849624 0.9984794 0.97768813 1.0166011
1.0175772 1.010072 0.98220915 1.0019248 1.017327 0.9702109 0.9594875 1.004964
0.96824974 1.0418423 0.96547973 0.99287784 1.0179831 1.0075731 1.0161176 0.9863282
0.9939887 0.9910103 1.0035582 0.9719656 1.0156168 0.9861558 1.0101665 1.002712
0.97168887 0.9971786 0.9822236 1.0214554 1.0125376 1.0195119 0.99091816 1.0256213
1.0243404 1.0226381 0.97856534 1.0462682 1.0109117 1.0303062 1.0219847 1.0030136
00000000: 55d9 7e3f 9e13 833f 4f39 793f 559f 813f
00000010: 7a82 7e3f 53aa 7b3f 6b62 7f3f 5d45 7c3f
00000020: d070 863f de12 7c3f 5ab8 753f 145c 7e3f
00000030: c73e 7f3f ed3a 813f 7254 803f c544 823f
00000040: d501 7d3f 5aca 793f f025 7d3f dbd3 773f
00000050: 7f26 7c3f 599c 7f3f c549 7a3f fc1f 823f
00000060: f83f 823f 0a4a 813f 0f72 7b3f 123f 803f
00000070: c537 823f be5f 783f f9a0 753f a9a2 803f
00000080: 37df 773f 175b 853f ae29 773f 3e2d 7e3f
00000090: 454d 823f 28f8 803f 2410 823f 0180 7c3f
000000a0: 0b76 7e3f dab2 7d3f 9874 803f bdd2 783f
000000b0: bbff 813f b574 7c3f 234d 813f de58 803f
000000c0: 9ac0 783f 1947 7f3f 0173 7b3f 0dbf 823f
000000d0: d59a 813f 5e7f 823f d0ac 7d3f 8f47 833f
000000e0: 961d 833f cee5 823f 4283 7a3f 1eec 853f
000000f0: 8e65 813f 13e1 833f 65d0 823f c062 803f

module.encoder.c2.main.4.bias f4 [64]
-0.07404301 -0.053085454 -0.1005414 -0.115707055 -0.08602081 -0.08141349 -0.088031076 -0.10004343
-0.14959511 -0.04675678 -0.10247824 -0.09152079 -0.078710325 -0.16633834 -0.13854858 -0.07151068
-0.079927266 -0.037069682 -0.12403616 -0.12220536 -0.032972775 -0.17513537 -0.2052235 -0.06850876
-0.17141396 -0.082666315 -0.13716757 -0.08383043 -0.048720792 -0.1354109 -0.11999758 -0.07871782
-0.14577816 -0.09068829 -0.15586853 -0.20153172 -0.07966506 -0.11118905 -0.11621164 -0.18745409
-0.20461333 -0.13428268 -0.023556307 -0.10991994 -0.13083658 -0.045591135 -0.15180726 -0.17751494
-0.14371547 -0.16768841 -0.15939349 -0.080865815 -0.07621692 -0.06824189 -0.19484991 -0.10974352
-0.14169887 -0.038438447 -0.13571692 -0.102930464 -0.15055844 -0.038186166 -0.07941403 -0.123610646
00000000: dda3 97bd 2270 59bd a6e8 cdbd d2f7 ecbd
00000010: ae2b b0bd 1ebc a6bd a349 b4bd 92e3 ccbd
00000020: 762f 19be 0a84 3fbd 1de0 d1bd 406f bbbd
00000030: e132 a1bd 9954 2abe aedf 0dbe 3174 92bd
00000040: e8b0 a3bd 61d6 17bd ac06 febd ce46 fabd
00000050: 760e 07bd b056 33be 1c26 52be 524e 8cbd
00000060: 2487 2fbe f54c a9bd a875 0cbe 4aaf abbd
00000070: 748f 47bd 28a9 0abe 4bc1 f5bd cf36 a1bd
00000080: df46 15be c8ba b9bd 009c 1fbe 555e 4ebe
00000090: 6f27 a3bd 16b7 e3bd 5e00 eebd f7f3 3fbe
000000a0: 2886 51be 6681 09be 28f9 c0bc b51d e1bd
000000b0: 06fa 05be c5bd 3abd 5d73 1bbe 7ac6 35be
000000c0: 262a 13be 83b6 2bbe 0c38 23be fa9c a5bd
000000d0: 9e17 9cbd 67c2 8bbd bc86 47be 36c1 e0bd
000000e0: 8219 11be a271 1dbd 60f9 0abe 35cd d2bd
000000f0: fe2b 1abe 1969 1cbd d3a3 a2bd 9427 fdbd

module.encoder.c3.0.weight f4 [32, 64, 3, 3]
0.021553451 -0.011408162 -0.0044964794 0.070207864 -0.0008616145 0.03733116 0.0008733874 -0.0006241355
0.035469133 0.0048590265 0.0037921672 -0.0059143975 -0.01198151 0.026040731 -0.04348707 0.023332842
0.01487986 -0.002970896 0.0006386588 0.016118519 0.014417639 0.040466953 0.016294796 0.029003786
0.064596646 -0.032918323 0.060170285 0.011085812 0.020243859 0.0046788757 0.0161298 -0.014953902
0.012323686 0.013590408 -0.01827474 -0.0051604146 0.015094303 -0.038962696 0.013558353 -0.021228844
0.0056230137 -0.046750046 -0.016324766 0.052649837 -0.037255466 0.00583382 0.021894678 0.02681524
0.001592553 0.022275845 0.048309524 0.043341223 -0.03869636 0.027883135 0.04747031 0.016477374
0.0072423182 0.025335487 -0.014605812 -0.0014280663 0.03970315 -0.03784453 0.014510852 0.007385425
-0.020660726 -0.012112252 0.05980848 0.05337373 0.090069175 -0.090116195 -0.019278614 -0.0056140143
6.2630555e-05 0.06627901 0.06382298 -0.051250253 -0.07100282 -0.11177634 0.03164197 0.010518015
0.0061781295 0.024612786 0.034098573 0.023423554 0.08129531 0.0450781 0.011320544 0.028546069
0.051278174 0.04753428 -0.022263354 -0.0065093697 -0.04405424 -0.02123063 -0.045285206 -0.0405626
-0.0102934595 -0.014395483 0.017634002 -0.0058944635 0.02920447 0.0042504175 0.016515763 0.012539639
0.022447836 -0.01231812 -0.039344165 -0.023706643 -0.017587366 0.0030275972 -0.030416425 -0.0069594732
0.008142342 0.0506829 -0.013358253 -0.01712514 0.05587275 0.028901452 0.0006077533 -0.011846195
0.022025539 0.014690951 -0.005445395 -0.0010968207 0.041399527 0.01801316 -0.006210026 0.01859134
-0.0040202006 -0.03598801 -0.0459034 -0.012737117 0.02742179 -0.0107705 -0.004438452 -0.03512654
-0.008856758 -0.036547907 -0.016143303 -0.034618616 -0.07657892 -0.023625102 -0.04750531 -0.0084928265
0.016065009 0.068494774 -0.0030983815 0.0035142312 0.014788365 0.005944363 0.013633874 0.010016513
-0.020498505 0.029516859 -0.019240625 0.04778198 0.0058914265 0.04893745 0.056662362 0.00831109
-0.0008571359 0.0037203773 0.022433328 -0.007066319 -0.0064372113 -0.042797092 -0.01008629 -0.0063681644
0.030389016 -0.003522359 0.023114037 0.04647211 0.029368445 -0.007231246 -0.052290976 -0.01017583
-0.015096241 -0.0069974186 0.022289814 -0.041687563 -0.03287603 0.02534992 -0.011973866 0.0061468584
-0.044774625 -0.02311803 -0.0072399164 -0.035636317 -0.024290228 -0.097513735 -0.045896996 -0.019108526
-0.02124057 -0.023429517 0.013103298 -0.034028467 -0.025334742 -0.0028039254 -0.016378114 0.016348697
0.011543492 0.0025331038 0.096706 -7.198748e-05 -0.028194586 -0.012512123 -0.026000382 0.03185641
0.081044324 0.04423833 0.0024343587 -0.0025197645 -0.07890229 0.011341362 0.01709239 -0.043139115
-0.037034422 -0.004789846 -0.05381501 0.0007146724 0.028585684 -0.0028185628 0.0209285 0.014909306
-0.008919351 -0.04430059 0.012437888 -0.028350715 -0.02771876 -0.012873002 -0.03332182 0.036895923
0.051941402 0.04898201 0.01588485 -0.0019111976 -0.024194181 -0.017190594 0.0005510942 -0.007047577
0.03894141 -0.011162776 0.035940263 0.018180693 0.034284696 -0.00038321633 0.0190759 0.0034570957
-0.04327932 -0.05673313 -0.030909963 -0.07275346 0.015302537 0.010137396 -0.02874854 -0.009195015
00000000: dd90 b03c 4de9 3abc 3457 93bb 24c9 8f3d
00000010: f8dd 61ba 8fe8 183d 09f4 643a 069d 23ba
00000020: 1548 113d 7838 9f3b 0286 783b 90cd c1bb
00000030: 184e 44bc 5f53 d53c 7f1f 32bd 8424 bf3c
00000040: a8ca 733c 5db3 42bb ab6b 273a fc0a 843c
00000050: f637 6c3c adc0 253d aa7c 853c 5999 ed3c
00000060: 3f4b 843d 5dd5 06bd 1e75 763d 44a1 353c
00000070: 73d6 a53c 4151 993b a422 843c 3601 75bc
00000080: 49e9 493c 4daa 5e3c e8b4 95bc b218 a9bb
00000090: 184e 773c 5997 1fbd db23 5e3c 1de8 adbc
000000a0: 4241 b83b fa7c 3fbd 84bb 85bc 5ba7 573d
000000b0: 3099 18bd a129 bf3b 785c b33c a2ab db3c
000000c0: 36bd d03a d57b b63c 35e0 453d 9186 313d
000000d0: 1380 1ebd 2c6b e43c 3a70 423d 8ffb 863c
000000e0: f850 ed3b 5e8c cf3c 374d 6fbc f42d bbba
000000f0: c59f 223d de02 1bbd edbe 6d3c 6f01 f23b
00000100: af40 a9bc 7872 46bc bdf9 743d 6a9e 5a3d
00000110: 3076 b83d d78e b8bd 2fee 9dbc c4f5 b7bb
00000120: 8658 8338 4abd 873d 9fb5 823d c9eb 51bd
00000130: ed69 91bd feea e4bd 039b 013d c153 2c3c
00000140: e871 ca3b c1a0 c93c f2aa 0b3d c1e2 bf3c
00000150: 287e a63d d0a3 383d ce79 393c 72d9 e93c
00000160: 1009 523d 4eb3 423d a361 b6bc 8d4c d5bb
00000170: 3872 34bd dceb adbc fb7c 39bd f824 26bd
00000180: e6a5 28bc 08db 6bbc 2f75 903c 5826 c1bb
00000190: 363e ef3c 1647 8b3b 114c 873c 0f73 4d3c
000001a0: 86e4 b73c f1d1 49bc 5927 21bd 6f34 c2bc
000001b0: 6113 90bc a76a 463b de2b f9bc 4b0c e4bb
000001c0: 7567 053c df98 4f3d 93dc 5abc 064a 8cbc
000001d0: d3da 643d bdc2 ec3c a251 1f3a 8b16 42bc
000001e0: e76e b43c 51b2 703c 496f b2bb 32c3 8fba
000001f0: 8d92 293d 5690 933c 797d cbbb de4c 983c
00000200: e3bb 83bb 2a68 13bd 3405 3cbd 57af 50bc
00000210: a9a3 e03c c076 30bc 6f70 91bb d9e0 0fbd
00000220: ef1b 11bc 42b3 15bd f63e 84bc 40cc 0dbd
00000230: 69d5 9cbd 6e89 c1bc ee94 42bd 7f25 0bbc
00000240: c49a 833c fd46 8c3d 370e 4bbb 044f 663b
00000250: e64a 723c eec8 c23b 9d60 5f3c 4d1c 243c
00000260: 7bec a7bc 57cd f13c 849e 9dbc 0ab7 433d
00000270: de0c c13b a372 483d cb16 683d 3d2b 083c
00000280: 6bb1 60ba 93d1 733b 19c6 b73c 958c e7bb
00000290: 3eef d2bb 014c 2fbd f740 25bc 09ac d0bb
000002a0: 63f2 f83c 61d7 66bb a659 bd3c 8a59 3e3d
000002b0: 1896 f03c 17f4 ecbb 102f 56bd 86b8 26bc
000002c0: 3956 77bc 9a4a e5bb 2199 b63c 94c0 2abd
000002d0: 04a9 06bd a3aa cf3c 092e 44bc 966b c93b
000002e0: 9965 37bd 0662 bdbc d23c edbb 63f7 11bd
000002f0: 4dfc c6bc 48b5 c7bd 7dfe 3bbd 7c89 9cbc
00000300: b400 aebc 42ef bfbc 37af 563c 6f61 0bbd
00000310: ce8a cfbc 10c2 37bb 652b 86bc b4ed 853c
00000320: ea20 3d3c 6e02 263b cc0d c63d fcf7 96b8
00000330: 55f8 e6bc a6ff 4cbc c1fe d4bc de7b 023d
00000340: 91fa a53d 4033 353d c389 1f3b a222 25bb
00000350: 8697 a1bd 1fd1 393c 5705 8c3c a4b2 30bd
00000360: 68b1 17bd 24f4 9cbb 216d 5cbd da58 3b3a
00000370: 862c ea3c a3b7 38bb 3f72 ab3c 2946 743c
00000380: 7822 12bc 8974 35bd 49c8 4b3c c23f e8bc
00000390: 7412 e3bc 49e9 52bc 767c 08bd 2e20 173d
000003a0: 82c0 543d 5ca1 483d f220 823c 2681 faba
000003b0: e032 c6bc 4ad3 8cbc 4e77 103a 5cef e6bb
000003c0: 0781 1f3d 13e4 36bc 1936 133d adef 943c
000003d0: 1c6e 0c3d 6dea c8b9 1045 9c3c 7190 623b
000003e0: a845 31bd 0061 68bd e436 fdbc c4ff 94bd
000003f0: 7eb7 7a3c 5217 263c 0f82 ebbc b0a6 16bc

module.encoder.c3.0.bias f4 [32]
-1.7952618e-05 1.4239927e-06 4.1343196e-06 -5.9358836e-06 1.2298742e-05 4.112393e-06 2.6455771e-05 -8.049655e-06
-1.0260062e-05 -1.2635982e-05 8.858489e-06 -1.2451253e-05 -1.12140015e-05 -9.167062e-06 6.1275723e-06 1.3645004e-05
1.3720375e-05 1.5655962e-05 -5.3061012e-06 9.445383e-06 -1.2430913e-06 6.6734715e-06 4.3000996e-06 -3.36492e-05
1.4783785e-05 6.9112407e-06 1.0284743e-06 1.1865145e-05 2.0311454e-05 1.0334823e-05 -6.359712e-06 3.7591178e-06
00000000: f498 96b7 0420 bf35 89b9 8a36 da2c c7b6
00000010: b256 4e37 30fd 8936 56ed dd37 010d 07b7
00000020: a122 2cb7 21ff 53b7 ec9e 1437 b9e5 50b7
00000030: c523 3cb7 3bcc 19b7 729b cd36 d9ec 6437
00000040: 9030 6637 ec54 8337 100b b2b6 9c77 1e37
00000050: 4bd8 a6b5 afec df36 9349 9036 8e22 0db8
00000060: e007 7837 1be7 e736 1c0a 8a35 6910 4737
00000070: 8462 aa37 ba63 2d37 8365 d5b6 2745 7c36

module.encoder.c3.1.weight f4 [32]
1.2522289 1.2742195 1.1872784 1.2471035 1.1086133 1.2752571 1.1351159 1.2568712
1.3080742 1.1080233 1.0447654 1.1472708 1.1588057 1.1974232 1.1733683 1.2601678
1.4259983 1.2213166 1.1685286 1.3184265 1.2492414 1.1407278 1.1840602 1.20401
1.2853208 1.4073545 1.2382756 1.2175361 1.2653645 1.083787 1.2300476 1.0614892
00000000: 0949 a03f a019 a33f bdf8 973f 16a1 9f3f
00000010: 0ae7 8d3f a03b a33f 7a4b 913f 28e1 a03f
00000020: fa6e a73f b5d3 8d3f dfba 853f c5d9 923f
00000030: bf53 943f 2a45 993f ef30 963f 2e4d a13f
00000040: 1d87 b63f 1a54 9c3f 5892 953f 33c2 a83f
00000050: 24e7 9f3f 5e03 923f 498f 973f 001d 9a3f
00000060: 6485 a43f 3124 b43f d17f 9e3f 39d8 9b3f
00000070: 77f7 a13f 88b9 8a3f 3372 9d3f e1de 873f

module.encoder.c3.1.bias f4 [32]
-0.02530122 0.1772756 0.004557055 0.123222396 0.11169727 -0.0383196 0.007884676 -0.13156149
-0.15545444 0.068016455 -0.00015183732 0.13575265 -0.050878983 -0.016653959 0.20490034 -0.19049509
-0.11836746 0.04254931 0.11553438 -0.113010615 0.08272891 0.04058222 -0.095860094 -0.039959453
-0.09494207 0.09705415 -0.027706174 0.16107155 -0.09552195 0.03271622 -0.13174371 -0.025097117
00000000: 8144 cfbc bc87 353e 5953 953b 065c fc3d
00000010: 8ac1 e43d 03f5 1cbd ba2e 013c 0eb8 06be
00000020: 732f 1fbe 364c 8b3d 8536 1fb9 be02 0b3e
00000030: 7b66 50bd e26d 88bc 65d1 513e 2511 43be
00000040: a46a f2bd 2f48 2e3d 4a9d ec3d 1c72 e7bd
00000050: c66d a93d 8b39 263d 4c52 c4bd 86ac 23bd
00000060: fd70 c2bd 54c4 c63d 0ff8 e2bc f1ef 243e
00000070: 03a1 c3bd 7101 063d d3e7 06be 7898 cdbc

module.encoder.c3.1.running_mean f4 [32]
0.2317464 -0.060947455 0.026684662 -0.18502913 -0.36229628 -0.44070667 -0.018560514 0.12514597
0.6243289 -0.260193 0.27768517 0.09153636 0.5489904 0.15487558 -0.12857996 -0.063649856
-0.039552864 0.090112835 0.43306693 0.5934071 0.6908929 0.065217115 -0.17802915 -0.37823552
-0.42622045 0.24220805 -0.7953663 0.48311386 0.29151732 0.09901218 -0.379753 -0.113200955
00000000: ee4e 6d3e 0aa4 79bd cb99 da3c 4778 3dbe
00000010: e67e b9be 4ea4 e1be 380c 98bc 4426 003e
00000020: 05d4 1f3f 0438 85be c02c 8e3e 6a77 bb3d
00000030: a38a 0c3f b497 1e3e 77aa 03be db5a 82bd
00000040: 2f02 22bd 148d b83d f3ba dd3e 87e9 173f
00000050: 5bde 303f 8d90 853d 464d 36be 16a8 c1be
00000060: 9139 dabe 6305 783e 209d 4bbf b35a f73e
00000070: c241 953e e6c6 ca3d fc6e c2be e7d5 e7bd

module.encoder.c3.1.running_var f4 [32]
0.40717655 0.42968944 0.36059967 0.23789097 0.31355518 0.2823121 0.27541664 0.2746232
0.26498315 0.42791983 0.44195607 0.290722 0.37061772 0.30045766 0.29452598 0.34245256
0.5533766 0.5248095 0.34858343 0.53001606 0.32854828 0.3489432 0.29483527 0.22284818
0.30477425 0.32527602 0.4525391 0.4893769 0.3231046 0.3764661 0.38435495 0.3761462
00000000: 7279 d03e 4100 dc3e 85a0 b83e b199 733e
00000010: 4e8a a03e 368b 903e 6903 8d3e 699b 8c3e
00000020: dfab 873e 4f18 db3e 1148 e23e 84d9 943e
00000030: 9bc1 bd3e 96d5 993e 1ccc 963e f155 af3e
00000040: 17aa 0d3f ea59 063f 8779 b23e 22af 073f
00000050: 7b37 a83e afa8 b23e a6f4 963e 5032 643e
00000060: 5f0b 9c3e 948a a63e 34b3 e73e 9c8f fa3e
00000070: f76d a53e 2ac0 c03e 2cca c43e 3c96 c03e
