logs/exp4/model_iters_50000.pth (torch, 495376 bytes, 47 tensors)

module.encoder.c1.main.0.weight f4 [32, 3, 3, 3]
0.007885866 0.05328543 -0.01212991 0.024607938 0.07951064 -0.027267044 0.031957265 0.08283648
0.027764095 -0.0038647964 -0.010200683 -0.031271264 0.009959343 0.01191283 0.02148622 0.019836625
-0.00159509 0.012967252 0.0013985843 -0.03838112 -0.015973607 0.083382085 0.03140157 -0.009689589
-0.0059989253 0.004139053 -0.009966167 -0.03750276 -0.05504435 0.018852795 -0.0327461 0.009464082
-0.016940236 -0.011285065 0.10676319 0.03223749 -0.007723782 0.0076548695 0.025596116 -0.019450948
-0.0021183188 -0.00548889 0.0007199462 0.0228084 0.0008131125 -0.03466709 0.026690764 -0.04950133
0.020204324 -0.041196007 0.0063030976 -0.004178812 0.00662193 0.000709604 0.005919517 -0.034251366
0.018086245 0.0016441694 -0.016001038 0.06239588 0.047232885 0.031067818 0.045413323 0.0057366104
0.020577505 0.027446749 0.0029093 0.01375385 -0.031348504 0.018510407 -0.019815203 -0.016893221
-0.01869171 -0.07313082 -0.047946762 0.012435209 0.010836543 0.08533565 -0.030035527 0.026522063
0.08031411 -0.023489395 -0.030592093 0.007469275 0.029108793 0.0155180255 -0.0066921664 0.0011955752
-0.0020207027 -0.017382568 0.025242178 0.008030979 0.04105054 0.032895073 -0.015794637 0.013977246
-0.009035446 -0.04173984 -0.044093646 0.02376929 -0.009044488 -0.054435942 0.052612454 -0.081068814
-0.09097129 0.003973736 -0.053181197 -0.14401682 0.02692938 0.022008253 0.010079317 0.089477964
-0.0036082268 -0.0007573579 0.0343687 0.006827611 -0.02771117 0.072540335 0.001817511 0.040370397
0.017928656 0.0043407986 0.009993324 -0.025744988 0.014118965 -0.013763723 -0.004006597 0.019849973
-0.023047136 0.06095437 0.024868444 -0.029139632 -0.085953414 -0.019877978 -0.09841785 -0.01530155
-0.01874106 -0.038561404 -0.02032045 0.016260793 0.0062281326 -0.016014917 0.004489068 0.028360434
0.0062295315 -0.027734688 -0.09249454 0.031598818 -0.019336928 -0.0070273727 0.0519992 0.068665095
-0.0060497993 -0.01434639 0.039001454 -0.023268027 -0.015090606 -0.0052502397 -0.002315602 -0.0027800396
0.04235961 -0.036873847 -0.014216095 0.018608468 -0.0067734807 -0.024799872 -0.040763017 -0.056366358
0.0059989993 -0.009534987 -0.0029195454 -0.011314864 0.018973887 0.014681642 0.04096026 0.0153896045
0.013850778 0.009496988 0.019658808 -0.021480918 -0.011880955 -0.009719146 -0.023337558 -0.03303358
-0.09697486 0.026882684 -0.050471544 -0.023368765 -0.049300134 0.04279403 -0.01754719 0.0060080267
0.040571354 -0.09450203 -0.014596407 0.032326926 -0.011842026 0.016791038 -0.0067102695 -0.001465447
-0.009643249 -0.0059925765 -0.06535751 -0.0037441356 0.058084242 0.013651036 0.025757762 0.043657035
0.06061975 0.0018844059 -0.02154762 -0.0025070864 0.025310017 -0.011609999 -0.031199964 -0.008393184
-0.010040355 0.026964199 0.036445193 0.023724364 0.0049597393 -0.008324325 -0.028703373 0.015638119
-0.035408776 -0.004846963 0.008877745 0.03292805 0.03529979 0.027244078 -0.021265917 -0.017108675
0.03942925 -0.0038273477 -0.080955 -0.049744777 -0.11437408 -0.10197748 -0.1113572 -0.12050176
-0.015230504 0.00254019 0.02097556 -0.021427957 -0.03669935 -0.018983236 0.0145838065 0.025483537
0.020577151 -0.044788945 -0.005367666 -0.030532878 -0.011075999 0.00583052 0.0017240286 0.028134055
00000000: b833 013c d341 5a3d 88bc 46bc 9696 c93c
00000010: 79d6 a23d 235f dfbc 9fe5 023d 2ca6 a93d
00000020: 8771 e33c 8648 7dbb c420 27bc 4c16 00bd
00000030: 832c 233c 082e 433c df03 b03c 6b80 a23c
00000040: 5712 d1ba 9974 543c b450 b73a 8535 1dbd
00000050: 15db 82bc 3ac4 aa3d ef9e 003d 15c1 1ebc
00000060: a292 c4bb e5a0 873b 2249 23bc 7e9c 19bd
00000070: 2f76 61bd 2d71 9a3c c620 06bd 3d0f 1b3c
00000080: 40c6 8abc fee4 38bc a9a6 da3d 750b 043d
00000090: c817 fdbb b3d5 fa3b f2ae d13c 9857 9fbc
000000a0: 7ed3 0abb 26dc b3bb c6ba 3c3a afd8 ba3c
000000b0: 0e27 553a 14ff 0dbd 97a6 da3c e8c1 4abd
000000c0: 8a83 a53c 25bd 28bd 378a ce3b 6aee 88bb
000000d0: c6fc d83b b804 3a3a 82f8 c13b 294b 0cbd
000000e0: 9b29 943c 2c81 d73a 9c14 83bc d392 7f3d
000000f0: 4577 413d f081 fe3c 5203 3a3d 2dfa bb3b
00000100: 2892 a83c 01d8 e03c f4a9 3e3b d457 613c
00000110: 4a67 00bd 23a3 973c 7e53 a2bc a763 8abc
00000120: 5b1f 99bc 9dc5 95bd d363 44bd 0cbd 4b3c
00000130: c18b 313c 75c4 ae3d 110d f6bc cc44 d93c
00000140: b97b a43d d56c c0bc 459c fabc d2c0 f43b
00000150: 9075 ee3c 513f 7e3c f649 dbbb d9b4 9c3a
00000160: c46d 04bb e365 8ebc afc8 ce3c 5e94 033c
00000170: 9c24 283d fcbc 063d c163 81bc d200 653c
00000180: 6809 14bc 65f7 2abd 8a9b 34bd d0b7 c23c
00000190: 552f 14bc 39f8 5ebd 2880 573d 6807 a6bd
000001a0: 284f babd 1d36 823b 87d4 59bd 2579 13be
000001b0: 019b dc3c a74a b43c b823 253c 3940 b73d
000001c0: 0078 6cbb 6e89 46ba 32c6 0c3d 27ba df3b
000001d0: 8902 e3bc 0790 943d 8d39 ee3a 6e5b 253d
000001e0: 1edf 923c 423d 8e3b 0abb 233c 27e7 d2bc
000001f0: 3b53 673c 3d81 61bc c649 83bb 699c a23c
00000200: 59cd bcbc 4aab 793d e8b8 cb3c 3db6 eebc
00000210: 5808 b0bd 24d7 a2bc 4c8f c9bd 5ab3 7abc
00000220: da86 99bc 90f2 1dbd 1377 a6bc 5b35 853c
00000230: 5d15 cc3b b731 83bc 0819 933b 2454 e83c
00000240: 1921 cc3b db33 e3bc c76d bdbd c36d 013d
00000250: 7a68 9ebc e045 e6bb 1dfd 543d 49a0 8c3d
00000260: 653d c6bb 1f0d 6bbc fdbf 1f3d 979c bebc
00000270: 973e 77bc 340a acbb 5bc1 17bb 5331 36bb
00000280: 4581 2d3d 0809 17bd a0ea 68bc c970 983c
00000290: 13f4 ddbb 1a29 cbbc 1ff7 26bd 69e0 66bd
000002a0: 4193 c43b a238 1cbc d855 3fbb fb61 39bc
000002b0: 206f 9b3c 458b 703c f2c5 273d ae24 7c3c
000002c0: 60ee 623c 4199 1b3c 820b a13c c0f8 afbc
000002d0: 56a8 42bc 0e3d 1fbc 682e bfbc 384e 07bd
000002e0: c19a c6bd 1339 dc3c 40bb 4ebd da6f bfbc
000002f0: f0ee 49bd cb48 2f3d 20bf 8fbc fbde c43b
00000300: 262e 263d 488a c1bd c525 6fbc 3d69 043d
00000310: 0f05 42bc 5c8d 893c d2e1 dbbb 3e14 c0ba
00000320: b8fe 1dbc 605d c4bb 28da 85bd 2c60 75bb
00000330: bee9 6d3d 98a8 5f3c f101 d33c b8d1 323d
00000340: 6a4c 783d 2bfe f63a a284 b0bc ee4d 24bb
00000350: f456 cf3c de37 3ebc 1197 ffbc 9183 09bc
00000360: 4d80 24bc 06e4 dc3c 8e47 153d 9959 c23c
00000370: 4f85 a23b c062 08bc 5623 ebbc 831b 803c
00000380: cb08 11bd 46d3 9ebb f673 113c 90df 063d
00000390: 8396 103d f92e df3c dc35 aebc 7e27 8cbc
000003a0: 9180 213d 3dd4 7abb bccb a5bd 2ec1 4bbd
000003b0: f53c eabd 92d9 d0bd 3e0f e4bd a0c9 f6bd
000003c0: 5d89 79bc 5179 263b f0d4 ab3c af89 afbc
000003d0: 0f52 16bd bb82 9bbc ebf0 6e3c dac2 d03c
000003e0: 6a91 a83c 9d74 37bd 3fe3 afbb 1620 fabc
000003f0: 1b78 35bc f20d bf3b cdf8 e13a 6479 e63c

module.encoder.c1.main.0.bias f4 [32]
-0.00088927895 0.0037738392 -0.0019920317 0.0015292796 -0.0013964255 -0.0004770914 0.0002357018 -0.0019530727
0.0025447644 -0.0025886078 -0.0003921092 -0.0076799146 -0.00077805616 -0.0004797498 0.0037963798 -0.004049358
-0.00054749445 1.5616875e-05 -0.0054895147 0.0019110228 -0.0007627906 0.0060527506 -0.0025112922 -0.00012296304
-0.0005200682 -0.0006196894 0.0010663924 -0.006287023 -0.003741859 0.0060416856 0.00311565 -0.0029188048
00000000: 801e 69ba 8452 773b bf8c 02bb 1c72 c83a
00000010: 4408 b7ba 2022 fab9 b826 7739 3ffe ffba
00000020: 10c6 263b a2a5 29bb 0294 cdb9 cba7 fbbb
00000030: 77f6 4bba ee86 fbb9 afcc 783b 7ab0 84bb
00000040: bb85 0fba fc00 8337 63e1 b3bb 497b fa3a
00000050: 03f6 47ba 2756 c63b 7e94 24bb a4ef 00b9
00000060: 3055 08ba a772 22ba 31c6 8b3a 5f03 cebb
00000070: fa39 75bb 55f9 c53b ef2f 4c3b 6b49 3fbb

module.encoder.c1.main.1.weight f4 [32]
0.9703843 0.9804453 0.9743792 0.9989047 1.0027907 1.0444993 0.9804286 1.0852156
1.0089946 1.008905 0.98081785 0.95924455 1.0444118 0.899438 1.0459386 1.024118
0.9594795 1.0074769 0.9992057 0.9656637 0.9845729 1.0499659 1.0063864 0.92586464
1.0057613 0.94766045 1.061922 1.0199168 0.9664782 0.9766285 0.9864081 1.0434029
00000000: 1b6b 783f 77fe 7a3f ea70 793f 38b8 7f3f
00000010: 725b 803f 27b2 853f 5efd 7a3f 58e8 8a3f
00000020: bc26 813f cd23 813f e116 7b3f 0d91 753f
00000030: 49af 853f 9241 663f 51e1 853f 4c16 833f
00000040: 73a0 753f 01f5 803f f2cb 7f3f bc35 773f
00000050: f80c 7c3f 4865 863f 45d1 803f 7705 6d3f
00000060: c9bc 803f e099 723f 0fed 873f a28c 823f
00000070: 1e6b 773f 5304 7a3f 3e85 7c3f 3a8e 853f

module.encoder.c1.main.1.bias f4 [32]
-0.059207983 -0.114153475 -0.14041348 -0.04535839 -0.11785961 0.017577425 -0.05227263 -0.04812141
-0.12986398 -0.17209074 -0.04081088 0.047598712 -0.032517854 -0.02907265 -0.04628545 -0.0082398495
-0.023987558 0.022441898 -0.013442784 -0.01150269 -0.06928223 0.017874008 0.010069866 -0.053303536
-0.017129162 -0.057800464 -0.008512733 -0.08780688 -0.086798996 -0.14301772 -0.041154727 -0.01806325
00000000: 1284 72bd 4cc9 e9bd 8dc8 0fbe b8c9 39bd
00000010: 6160 f1bd 88fe 8f3c d31b 56bd f51a 45bd
00000020: 10fb 04be 8e38 30be 4f29 27bd def6 423d
00000030: 7131 05bd c429 eebc d095 3dbd 6f00 07bc
00000040: 8e81 c4bc 12d8 b73c 1f3f 5cbc c775 3cbc
00000050: d8e3 8dbd 836c 923c 14fc 243c cf54 5abd
00000060: 7552 8cbc 2ec0 6cbd fd78 0bbc 18d4 b3bd
00000070: acc3 b1bd 3d73 12be dc91 28bd 62f9 93bc

module.encoder.c1.main.3.weight f4 [32, 32, 3, 3]
0.018885138 -0.02614628 -0.06616395 0.015542333 -0.028000321 -0.02111955 0.06394122 -0.0012446825
-0.07565197 0.013209686 0.053747326 0.028090404 -0.0029535233 0.044628173 -0.019752923 -0.009447116
0.00047428734 -0.011303473 -0.06962492 -0.03935563 0.005383127 -0.047156505 -0.005336889 0.0083070295
-0.0068473886 -0.043679547 0.016130952 0.0017569372 0.00065191265 0.011425389 -0.05032084 -0.06180919
0.020263074 -0.013224183 0.001808441 -0.00059905316 0.04490463 -0.00082726905 -0.009438482 0.022558443
-0.017286833 -0.0018999488 0.01759244 -8.156176e-05 -0.01016015 -0.016328339 0.043116316 0.031018704
0.040689994 0.037284095 -0.041870907 -0.0512464 -0.009358107 0.023080932 -0.0072030835 0.002854144
0.03630227 -0.003519913 0.0138858585 -0.00030120622 0.03971316 0.0132754855 0.02900827 0.02724987
0.06396186 0.06294815 -0.06812276 -0.0047132936 -0.11279726 -0.052478608 0.0068587936 0.01839405
0.011228216 0.008035175 0.0077380743 0.03129716 -0.011396163 -0.000263939 -0.021981075 0.0070624994
-0.0018265446 0.01534787 0.042281955 0.038175825 0.024921292 -0.0057627633 0.025151333 -0.0005671085
-0.012001139 0.0050497428 -0.05552387 0.009215082 0.0026086164 -0.026166229 -0.03199544 0.0017952836
-0.02752648 -0.011426894 0.0052348245 -0.008571893 0.010596756 0.039684165 0.015885787 -0.0069749923
-0.0017300098 0.0061282967 -0.028085899 -0.012485766 -0.007457318 -0.042901818 0.01769506 0.07314725
0.016616484 -0.0050777444 -0.055249374 -0.07315426 -0.07952718 0.007667956 0.04460838 0.018626684
0.009090205 0.0056735985 -0.006176675 0.0029572477 -0.002109316 0.0136363795 0.008739761 0.024226366
0.012184517 -0.04976367 -0.00156995 -0.051880863 -0.06727583 -0.041305494 -0.08581397 0.019827146
-0.039410967 0.022704381 -0.0043428056 -0.018489946 -0.065729395 -0.0016057335 -0.018348217 -0.033725355
-0.036889862 -0.05546435 -0.036289886 0.029959831 0.020274704 0.02570372 0.00095565186 -0.020915465
-0.017881082 0.026513707 0.020801257 0.0085272 0.0005323975 0.02717916 0.024917113 -0.036343645
-0.041826658 -0.07143254 -0.025673471 0.0085895695 -0.04086562 0.005193527 -0.0023309726 0.014710681
0.038769193 0.010043799 0.02582894 0.0027367277 -0.029542381 -0.024324078 -0.0564338 -0.0015054728
-0.007339126 -0.04279909 -0.017411461 -0.0020947899 -0.039585453 -0.020303698 -0.04384406 -0.00078751444
0.009896063 0.0026528346 -0.00899538 -0.05607664 0.009918489 0.0033308018 0.035686146 -0.02926069
-0.021877768 0.0036545747 0.052679334 0.0053947126 -0.05140435 0.00289178 0.051584177 -0.030528251
-0.041095342 0.06152736 -0.016763551 -0.07837339 -0.026861724 -0.05104607 -0.039469197 -0.040191405
0.0014015669 0.0010833482 -0.02388656 0.00086882315 -0.0038535409 0.007518873 -0.0053159315 -0.028678993
0.03673701 0.031223629 -0.013620483 -0.01882403 0.0034587686 -0.017162014 0.011170295 -0.009478012
0.02547102 -0.017473966 0.039309166 0.017973708 -0.026964536 -0.019843288 -0.045746706 0.0038094537
-0.005618285 -0.013077252 0.031266533 -0.046878766 0.024210054 -0.017436547 -0.017058898 -0.042773917
0.035666533 0.038359195 0.03174407 -0.02358349 -0.05401569 -0.0038701512 0.0029740257 -0.044242654
0.011540982 0.011426497 -0.013116122 -0.006431656 -0.014463311 0.018844724 0.012726303 0.013990309
00000000: 01b5 9a3c b930 d6bc f780 87bd 45a5 7e3c
00000010: ee60 e5bc e802 adbc 9df3 823d 9d24 a3ba
00000020: 6cef 9abd 706d 583c 2826 5c3d d91d e63c
00000030: e68f 41bb 08cc 363d e2d0 a1bc 14c8 1abc
00000040: c5a9 f839 3432 39bc 8397 8ebd 5e33 21bd
00000050: f164 b03b 2e27 41bd 12e1 aebb 351a 083c
00000060: 0f60 e0bb 53e9 32bd 0f25 843c 0849 e63a
00000070: 1ee5 2a3a 8e31 3b3c 3a1d 4ebd a22b 7dbd
00000080: bffe a53c 3eaa 58bc 3609 ed3a c709 1dba
00000090: ebed 373d 16dd 58ba dda3 1abc 7ccc b83c
000000a0: 1e9d 8dbc b407 f9ba 051e 903c 230c abb8
000000b0: c276 26bc 02c3 85bc bc9a 303d f01a fe3c
000000c0: 8daa 263d 35b7 183d d480 2bbd bfe7 51bd
000000d0: bf52 19bc 3914 bd3c d807 ecbb 970c 3b3b
000000e0: b0b1 143d 57ae 66bb 8381 633c 37eb 9db9
000000f0: 44aa 223d 6c81 593c c0a2 ed3c 1f3b df3c
00000100: 70fe 823d f6ea 803d f283 8bbd f971 9abb
00000110: 4002 e7bd cff3 56bd bbbf e03b 1eaf 963c
00000120: 8df6 373c f7a5 033c ac8f fd3b 7331 003d
00000130: f9b6 3abc 4b61 8ab9 a811 b4bc 8a6c e73b
00000140: ab68 efba a275 7b3c d82f 2d3d 415e 1c3d
00000150: bd27 cc3c 90d5 bcbb 2b0a ce3c 02aa 14ba
00000160: 6da0 44bc 5078 a53b ff6c 63bd dbfa 163c
00000170: 52f5 2a3b 8f5a d6bc a70d 03bd b94f eb3a
00000180: 367f e1bc de37 3bbc e488 ab3b 2071 0cbc
00000190: 049e 2d3c dd8b 223d e922 823c 7a8e e4bb
000001a0: 7fc1 e2ba e1cf c83b 6614 e6bc 1991 4cbc
000001b0: 845c f4bb d1b9 2fbd 3bf5 903c 3ace 953d
000001c0: 4b1f 883c 3563 a6bb 2b4d 62bd e7d1 95bd
000001d0: 25df a2bd 7a43 fb3b 47b7 363d fd96 983c
000001e0: 15ef 143c 98e9 b93b b565 cabb 62ce 413b
000001f0: 733c 0abb 1f6b 5f3c 3731 0f3c 5f76 c63c
00000200: 92a1 473c fdd4 4bbd c8c6 cdba 0781 54bd
00000210: e9c7 89bd f32f 29bd 3cbf afbd 8a6c a23c
00000220: 656d 21bd 8afe b93c 184e 8ebb 3a78 97bc
00000230: 229d 86bd 7a77 d2ba 004f 96bc 9923 0abd
00000240: d319 17bd 962e 63bd b4a4 14bd 526e f53c
00000250: 2317 a63c 9c90 d23c b684 7a3a e956 abbc
00000260: 597b 92bc 4633 d93c 6667 aa3c abb5 0b3c
00000270: 9790 0b3a d4a6 de3c f91e cc3c 13dd 14bd
00000280: 6e52 2bbd 394b 92bd 2c51 d2bc 44bb 0c3c
00000290: b562 27bd 762e aa3b 3bc3 18bb 1105 713c
000002a0: 72cc 1e3d bf8e 243c 3797 d33c ac5a 333b
000002b0: dd02 f2bc 4a43 c7bc 2127 67bd 4953 c5ba
000002c0: 0d7d f0bb 194e 2fbd 7ba2 8ebc be48 09bb
000002d0: 5b24 22bd f153 a6bc d495 33bd 3371 4eba
000002e0: 1923 223c 2edb 2d3b 5c61 13bc 9eb0 65bd
000002f0: 2881 223c 9549 5a3b a32b 123d 1db4 efbc
00000300: 0139 b3bc 9781 6f3b 49c6 573d 21c6 b03b
00000310: 5e8d 52bd 0584 3d3b ee49 533d 6216 fabc
00000320: 9753 28bd 1d04 7c3d b753 89bc 3a82 a0bd
00000330: 1e0d dcbc af15 51bd 74aa 21bd be9f 24bd
00000340: c8b4 b73a 22ff 8d3a bfad c3bc bcc1 633a
00000350: b08b 7cbb e160 f63b 4431 aebb 35f0 eabc
00000360: 8c79 163d b2c8 ff3c 7228 5fbc da34 9abc
00000370: 82ac 623b 5a97 8cbc 9d03 373c aa49 1bbc
00000380: 9aa8 d03c 9025 8fbc a602 213d 993d 933c
00000390: bbe4 dcbc 648e a2bc e660 3bbd 07a8 793b
000003a0: 9719 b8bb f841 56bc 5611 003d f303 40bd
000003b0: 2a54 c63c 17d7 8ebc 1abf 8bbc b433 2fbd
000003c0: 1217 123d 881e 1d3d 1206 023d 2a32 c1bc
000003d0: 8e3f 5dbd 5da2 7dbb dfe7 423b c937 35bd
000003e0: 6316 3d3c 3436 3b3c 01e5 56bc a4c0 d2bb
000003f0: 86f7 6cbc 4060 9a3c fc81 503c 9c37 653c

module.encoder.c1.main.3.bias f4 [32]
-0.00024817087 1.4941141e-05 1.800163e-05 -0.00017847757 -4.9474205e-05 4.8907925e-05 0.00020742377 -0.00025827278
2.7265009e-05 0.00020324616 3.2896543e-05 -0.00030132785 -6.936186e-05 -6.537489e-05 0.00018038804 3.4645476e-05
-0.0010320192 0.0008021347 0.00011053098 -4.4903514e-05 -4.471219e-05 0.00067741313 -0.00041609828 0.00018261802
-3.1179115e-06 4.408737e-05 5.896734e-05 -1.21983485e-05 7.967784e-06 -5.4280594e-05 -1.2206917e-05 0.00012557393
00000000: ee1c 82b9 b6ab 7a37 3502 9737 b525 3bb9
00000010: 8682 4fb8 7c22 4d38 e57f 5939 c968 87b9
00000020: 29b7 e437 7a1e 5539 65fa 0938 8afb 9db9
00000030: 5d76 91b8 e019 89b8 8c26 3d39 4c50 1138
00000040: d144 87ba 5946 523a decc e738 c856 3cb8
00000050: 5989 3bb8 6d94 313a c427 dab9 277d 3f39
00000060: 503d 51b6 74ea 3838 b353 7738 82a7 4cb7
00000070: 5fad 0537 58ab 63b8 4fcc 4cb7 7fac 0339

module.encoder.c1.main.4.weight f4 [32]
0.9381283 0.9789346 0.9576036 0.9630352 0.9528351 0.99218804 0.98919815 0.9321323
0.9609157 0.9912522 0.9303743 0.99810094 0.9612582 0.95723456 1.0039933 0.93409693
0.99127173 0.97349906 0.9705737 0.97327536 0.93645954 0.97396326 1.0278363 0.9701142
0.9530883 0.98715484 0.940824 0.9459929 0.976337 0.9326228 0.91505086 0.96654296
00000000: 2d29 703f 759b 7a3f 8225 753f 7a89 763f
00000010: 00ed 733f 0900 7e3f 173c 7d3f 39a0 6e3f
00000020: 92fe 753f b4c2 7d3f 032d 6e3f 8b83 7f3f
00000030: 0415 763f 530d 753f da82 803f fa20 6f3f
00000040: fcc3 7d3f 3c37 793f 8577 783f 9328 793f
00000050: d0bb 6f3f a855 793f 2490 833f 6759 783f
00000060: 98fd 733f 2eb6 7c3f d7d9 703f 972c 723f
00000070: 39f1 793f 5ec0 6e3f c640 6a3f 5c6f 773f

module.encoder.c1.main.4.bias f4 [32]
0.013089921 -0.0027658911 -0.020011341 -0.056620054 0.0065893247 -0.00504557 -0.048779022 -0.103599004
-0.01169017 -0.056857172 -0.08412478 -0.056768563 -0.097663686 -0.11517635 -0.025201958 -0.004203282
-0.078142144 0.019584866 -0.09172858 -0.05394838 -0.059978925 -0.054354776 -0.15334176 -0.005312521
0.017404994 -0.04955118 0.0039325226 -0.0920601 -0.08433923 -0.12734114 -0.09567203 -0.09797496
00000000: 1c77 563c f443 35bb d3ee a3bc 6eea 67bd
00000010: 43eb d73b 4f55 a5bb 83cc 47bd b72b d4bd
00000020: 2088 3fbc 11e3 68bd 9d49 acbd 2786 68bd
00000030: e603 c8bd 94e1 ebbd 5674 cebc afbb 89bb
00000040: fd08 a0bd 7170 a03c 32dc bbbd faf8 5cbd
00000050: 76ac 75bd 1da3 5ebd 9f05 1dbe a814 aebb
00000060: eb94 8e3c 2ef6 4abd 64dc 803b 018a bcbd
00000070: 0cba acbd b765 02be b2ef c3bd 19a7 c8bd

module.encoder.c2.main.0.weight f4 [64, 32, 3, 3]
-0.00632229 -0.016063467 0.012242868 0.0014354232 -0.045812808 -0.014269277 -0.0064498563 0.045726515
0.019205157 0.046972714 0.015601674 0.0021005617 -0.013363374 -0.031152308 -0.027393984 0.006829064
-0.0026243613 -0.0142419245 -0.017602114 -0.009722512 -0.012397201 -0.061361033 -0.030304609 -0.03786085
-0.024604362 0.015704822 -0.011183544 -0.037932068 0.017245233 0.0029009925 -0.005924064 -0.061206408
-0.037734922 0.020324118 0.0425471 -0.015364925 -0.043978393 -0.006202724 0.012482953 -0.07696684
-0.02660276 0.0072846105 -0.093332194 -0.009110317 -0.0095588565 0.0014061513 -0.022101743 -0.034256425
-0.026563704 0.0029088638 0.0074985544 -0.024903895 0.02756017 -0.015159121 0.0061186445 -0.024216352
-0.014254879 -0.014794919 -0.021351019 -0.003317649 -0.04082108 -0.058302354 -0.009016869 0.026767682
-0.037284613 -0.009792874 -0.05106663 -0.014394477 0.02277436 0.028060148 0.09297232 0.037008353
-0.028108854 -0.06845054 0.002034619 0.040830776 -0.017412432 -0.0191066 0.05002823 0.032868672
0.03916402 0.06868711 0.053298507 0.059859656 -0.011317099 -0.03674305 0.02492933 -0.03464087
-0.04047922 0.014204127 -0.06294694 -0.102026574 -0.021958407 0.057440232 -0.005128595 0.016988821
0.043693166 0.0022481803 -0.005890357 0.002789988 0.023058156 -0.04487794 0.007160492 0.0017871138
-0.033845335 -0.04215208 -0.03897329 -0.03457039 0.04998643 0.04162875 0.06538724 0.008089949
-0.03258764 -0.0017876676 0.042115252 0.008433537 0.027140232 -0.020798681 -0.035416424 -0.01534466
0.00995505 -0.04040642 0.039269697 0.03131585 0.037817135 0.06574423 -0.11474936 -0.059193235
-0.03413688 -0.05058538 -0.017016089 0.030649563 -0.0026179673 -0.012628907 -0.05011204 0.01565681
-0.056491725 -0.0068547386 -0.0044634473 -0.003505278 -0.0406161 0.0061279857 0.026767455 -0.031287722
-0.012144513 -0.037570737 -0.008535438 0.025411805 -0.022970486 0.02310592 0.014923199 -0.03891463
-0.04421062 -0.022827374 0.015253424 0.013936532 -0.016115988 0.0145937065 -0.064556755 -0.03237187
0.033312213 0.016486371 0.019722648 0.003057636 0.017990118 -0.056493193 -0.043168973 0.0005778903
0.008556497 -0.004243583 -0.06957423 0.009377911 -0.0017244886 -0.029074665 0.013548881 -0.03252179
-0.021240527 0.03182639 -0.029002387 -0.0010628655 0.051098205 -0.0068069263 0.016040191 -0.010132858
0.0264484 -0.0020200163 -0.0034385242 0.030347215 -0.007752539 0.06130842 0.0057508503 0.01737614
0.037373915 -0.07052609 -0.004448866 -0.061067395 -0.025931781 -0.016533451 0.029747445 -0.029174397
-0.03972727 0.0050719203 0.025840493 -0.024614489 -0.05362882 -0.03299483 -0.04852578 -0.023650154
-0.08456571 0.018133637 -0.0091038365 -0.021165904 0.015206721 0.065218486 0.0064205565 0.09464479
-0.017718555 0.035989933 -0.03605777 0.01192083 0.044947207 -0.03037401 -0.008496671 0.02196016
-0.028618153 -0.047469445 0.011212572 -0.030984651 -0.024596317 -0.057965793 -0.014868213 0.0433932
0.058036767 0.027900513 -0.003380739 0.04380579 -0.0026217657 0.02878465 -0.017066032 0.049046785
-0.047829267 0.027237114 -0.009389939 -0.016027322 -0.0049052387 0.051081967 -0.043470223 -0.005854668
-0.056252837 0.025450652 0.021871848 0.038918927 -0.023032164 0.023133142 -0.018402802 0.01866574
00000000: 362b cfbb 8897 83bc 4f96 483c cf24 bc3a
00000010: 36a6 3bbd b0c9 69bc 5159 d3bb ba4b 3b3d
00000020: 2254 9d3c 7666 403d 2a9e 7f3c 94a9 093b
00000030: 0ef2 5abc 2033 ffbc 5969 e0bc 57c6 df3b
00000040: 7afd 2bbb f656 69bc 4f32 90bc 2c4b 1fbc
00000050: a11d 4bbc b555 7bbd 5f41 f8bc fb13 1bbd
00000060: 168f c9bc 66a7 803c 2f3b 37bc a85e 1bbd
00000070: e045 8d3c 941e 3e3b a71e c2bb 92b3 7abd
00000080: ef8f 1abd c47e a63c de45 2e3d 2bbd 7bbc
00000090: b022 34bd 3840 cbbb 4d85 4c3c caa0 9dbd
000000a0: 08ee d9bc beb3 ee3b f324 bfbd 7043 15bc
000000b0: c09c 1cbc 9c4e b83a b70e b5bc 7750 0cbd
000000c0: 209c d9bc a3a2 3e3b 6fb6 f53b 4103 ccbc
000000d0: dec5 e13c f65d 78bc e97e c83b 5f61 c6bc
000000e0: 4c8d 69bc 6366 72bc 55e8 aebc ea6c 59bb
000000f0: 0134 27bd 73ce 6ebd 7dbb 13bc e647 db3c
00000100: c0b7 18bd 4a72 20bc 3e2b 51bd d0d6 6bbc
00000110: 4b91 ba3c 65de e53c 4668 be3d 1296 173d
00000120: 8a44 e6bc cc2f 8cbd 3e57 053b 2c3e 273d
00000130: 84a4 8ebc 7285 9cbc 67ea 4c3d 4da1 063d
00000140: 746a 203d d4ab 8c3d 894f 5a3d 662f 753d
00000150: 5b6b 39bc e17f 16bd 9838 cc3c 96e3 0dbd
00000160: 8acd 25bd 6db8 683c 53ea 80bd 4ff3 d0bd
00000170: 1ee2 b3bc 7346 6b3d c60d a8bb 242c 8b3c
00000180: 9bf7 323d 3556 133b e503 c1bb 3bd8 363b
00000190: 75e4 bc3c eed1 37bd 8fa2 ea3b 973d ea3a
000001a0: 68a1 0abd a9a7 2cbd 75a2 1fbd ae99 0dbd
000001b0: 92be 4c3d e882 2a3d bfe9 853d b58b 043c
000001c0: 9e7a 05bd 2c50 eaba 0b81 2c3d d12c 0a3c
000001d0: 3155 de3c ff61 aabc d010 11bd 2b68 7bbc
000001e0: 821a 233c 3481 25bd 43d9 203d 0c45 003d
000001f0: 24e6 1a3d e9a4 863d b601 ebbd 9b74 72bd
00000200: 1dd3 0bbd 9e32 4fbd 5365 8bbc cb14 fb3c
00000210: 3492 2bbb 7ae9 4ebc 4842 4dbd b642 803c
00000220: de63 67bd b79d e0bb 1c42 92bb ceb8 65bb
00000230: 115d 26bd 45cd c83b 6c47 db3c 8e27 00bd
00000240: c8f9 46bc c6e3 19bd 39d8 0bbc 6b2c d03c
00000250: 9a2c bcbc a048 bd3c 6f80 743c f264 1fbd
00000260: 3216 35bd 7900 bbbc 7fe9 793c 0d56 643c
00000270: ad05 84bc 711a 6f3c 5536 84bd 5e98 04bd
00000280: 6372 083d 6d0e 873c 6491 a13c 9f62 483b
00000290: 0360 933c 6865 67bd f3d1 30bd 907d 173a
000002a0: 8d30 0c3c c10d 8bbb ef7c 8ebd cfa5 193c
000002b0: 3c08 e2ba fe2d eebc 20fc 5d3c 9235 05bd
000002c0: 9d00 aebc 645c 023d 6a96 edbc d94f 8bba
000002d0: 5a4c 513d a30c dfbb b866 833c 4904 26bc
000002e0: 51aa d83c 4062 04bb dd58 61bb b99a f83c
000002f0: 0309 febb 8a1e 7b3d a171 bc3b 6858 8e3c
00000300: 6415 193d fc6f 90bd cbc7 91bb ce21 7abd
00000310: e36e d4bc 2971 87bc eab0 f33c 25ff eebc
00000320: 10b9 22bd 5a32 a63b 71af d33c 53a4 c9bc
00000330: e5a9 5bbd 9625 07bd f8c2 46bd f8bd c1bc
00000340: c930 adbd fe8c 943c 4228 15bc 1e64 adbc
00000350: 9c25 793c 4591 853d 8863 d23b 21d5 c13d
00000360: 8126 91bc 2e6a 133d 50b1 13bd 964f 433c
00000370: 901a 383d ead2 f8bc 9f35 0bbc cbe5 b33c
00000380: 9e70 eabc 526f 42bd f0b4 373c 86d3 fdbc
00000390: 377e c9bc 8a6d 6dbd ce99 73bc 11bd 313d
000003a0: f6b7 6d3d 9e8f e43c 638f 5dbb b36d 333d
000003b0: eed1 2bbb c9cd eb3c 10ce 8bbc 48e5 483d
000003c0: 9fe8 43bd 5e20 df3c 42d8 19bc bb4b 83bc
000003d0: 20bc a0bb 533b 513d d50d 32bd 84d8 bfbb
000003e0: 6069 66bd e37d d03c 972c b33c 7469 1f3d
000003f0: f3ad bcbc b781 bd3c 79c1 96bc e5e8 983c

module.encoder.c2.main.0.bias f4 [64]
3.5334797e-05 4.406561e-05 1.4462198e-05 -1.948185e-05 2.7632015e-05 2.8567903e-05 0.00013745927 0.00011566168
-3.0135283e-05 0.00016385877 6.820326e-05 5.4431006e-05 4.693008e-06 0.00010535438 3.929072e-05 7.200329e-05
-1.4258502e-05 -3.6474594e-05 -3.7296093e-05 4.396366e-05 -2.5644107e-05 6.01773e-05 9.4557305e-05 7.0137125e-05
0.0001285098 5.9145008e-05 -0.00013700649 0.00038049495 -6.846389e-05 -9.944625e-06 0.00012223983 0.00012614967
0.00016420535 0.000107083084 8.836371e-05 -2.0053808e-06 0.00015643716 4.0530234e-05 5.7022207e-05 4.318997e-05
7.424125e-05 7.752249e-05 4.465564e-05 2.8074699e-05 0.00030497817 -1.8532088e-05 -8.202931e-06 -4.4041612e-06
2.0229469e-05 6.360105e-05 2.843872e-05 9.9203986e-05 0.00016682771 -1.7297134e-06 0.0001409096 6.1993225e-05
0.00015593889 0.00012809843 -1.3756349e-05 2.2996817e-05 4.569372e-05 3.5196183e-06 -4.6896907e-06 8.56544e-05
00000000: 7334 1438 17d3 3838 aba2 7237 f46c a3b7
00000010: 4dcb e737 1ba5 ef37 f122 1039 648f f238
00000020: 07cb fcb7 81d1 2b39 5908 8f38 d94c 6438
00000030: a278 9d36 b4f1 dc38 17cc 2438 7900 9738
00000040: cd37 6fb7 4cfc 18b8 606e 1cb8 9f65 3838
00000050: 4d1e d7b7 e266 7c38 114d c638 9516 9338
00000060: 96c0 0639 7812 7838 66a9 0fb9 2b7d c739
00000070: 4594 8fb8 d7d7 26b7 812d 0039 0b47 0439
00000080: 8a2e 2c39 cb91 e038 e84f b938 2e94 06b6
00000090: 4809 2439 02ff 2938 212b 6f38 e126 3538
000000a0: f8b1 9b38 9293 a238 a14c 3b38 f581 eb37
000000b0: 7ae5 9f39 5b75 9bb7 529f 09b7 75c7 93b6
000000c0: 74b2 a937 8e61 8538 b08f ee37 bc0b d038
000000d0: 79ee 2e39 8028 e8b5 22c1 1339 5c02 8238
000000e0: 8783 2339 2952 0639 12cb 66b7 4ae9 c037
000000f0: 42a7 3f38 9532 6c36 235c 9db6 5ba1 b338

module.encoder.c2.main.1.weight f4 [64]
0.9948535 0.97578967 0.9229196 1.0068111 1.0178275 0.9994928 0.96174634 1.007119
0.9828667 1.0061378 0.909908 1.0166023 1.0052992 1.0056939 0.9451707 1.0046781
0.9499074 1.005629 0.9956681 0.98228663 0.94892806 0.9854839 0.9694501 1.0011806
1.0044458 0.9550234 0.99931 1.0220789 1.0119528 0.9793144 1.0307229 1.0012673
1.0177722 0.9668279 0.95749056 1.0265555 1.0944831 1.0282103 1.0322467 1.0513217
0.9823408 0.9573858 1.0330927 0.96084946 0.97884077 0.993407 0.980042 1.0130414
0.98210406 0.9335612 0.99182934 1.0217965 1.024624 1.0591105 1.0096391 0.99394006
1.0688387 0.9786671 1.0101447 0.9698049 1.0455122 0.9824808 0.9847591 1.0200231
00000000: b8ae 7e3f 5acd 793f 7544 6c3f 30df 803f
00000010: 2c48 823f c3de 7f3f 0235 763f 47e9 803f
00000020: 279d 7b3f 20c9 803f bbef 683f 0620 823f
00000030: a5ad 803f 94ba 803f b5f6 713f 4b99 803f
00000040: 222d 733f 73b8 803f 1be4 7e3f 2377 7b3f
00000050: f3ec 723f ac48 7c3f e22d 783f b026 803f
00000060: ae91 803f 6a7c 743f c8d2 7f3f 7bd3 823f
00000070: ab87 813f 59b4 7a3f baee 833f 8729 803f
00000080: 5c46 823f 0982 773f 1a1e 753f 2c66 833f
00000090: 0618 8c3f 659c 833f a920 843f b691 863f
000000a0: b07a 7b3f 3c17 753f 623c 843f 3bfa 753f
000000b0: 4f95 7a3f ec4f 7e3f 08e4 7a3f 57ab 813f
000000c0: 2c6b 7b3f defd 6e3f 87e8 7d3f 3aca 823f
000000d0: e126 833f ef90 873f db3b 813f db72 7e3f
000000e0: b5cf 883f ed89 7a3f 6c4c 813f 2245 783f
000000f0: 58d3 853f dd83 7b3f 2c19 7c3f 1e90 823f

module.encoder.c2.main.1.bias f4 [64]
-0.22565246 -0.062292572 -0.15748891 -0.19672886 -0.08727091 -0.1577876 -0.11762407 -0.088400915
-0.064058974 -0.12825486 -0.1976012 -0.17060518 -0.08454125 -0.15905593 -0.14186049 -0.10377635
-0.12295945 -0.06934213 -0.11037669 -0.056924224 -0.0670722 -0.14604422 -0.17477134 -0.12092021
-0.095406815 -0.11307418 -0.15218906 -0.16971517 -0.055618875 -0.18255983 -0.101788744 -0.18569306
-0.07965064 -0.11253626 -0.19071221 -0.14024493 -0.092733614 -0.12909193 -0.06994998 -0.08602263
-0.15498003 -0.09968152 -0.07139246 -0.10016693 -0.09742767 -0.08862912 -0.124256976 -0.112390295
-0.09920839 -0.12258845 -0.1594918 -0.20977886 -0.022039855 -0.0138529325 -0.09545773 -0.11240548
-0.024348069 -0.12171965 -0.16289613 -0.14290816 -0.067486405 -0.12581997 -0.06536844 -0.13749015
00000000: 7011 67be 7f26 7fbd c644 21be 4a73 49be
00000010: 17bb b2bd 1393 21be e3e4 f0bd 8a0b b5bd
00000020: 5a31 83bd 3e55 03be f857 4abe 20b3 2ebe
00000030: f623 adbd 8fdf 22be e043 11be b288 d4bd
00000040: 2ad2 fbbd 3f03 8ebd 2d0d e2bd 6029 69bd
00000050: 265d 89bd 9e8c 15be 42f7 32be 04a5 f7bd
00000060: a664 c3bd 7093 e7bd 73d7 1bbe d0c9 2dbe
00000070: 9ed0 63bd f7f0 3abe 9e76 d0bd 5226 3ebe
00000080: e01f a3bd 6979 e6bd 104a 43be 5e9c 0fbe
00000090: 1feb bdbd ad30 04be ef41 8fbd a22c b0bd
000000a0: 16b3 1ebe d325 ccbd 3636 92bd 5224 cdbd
000000b0: 2988 c7bd 2f83 b5bd 717a febd e22c e6bd
000000c0: c52d cbbd a70f fbbd d251 23be 45d0 56be
000000d0: ed8c b4bc 69f7 62bc 587f c3bd d834 e6bd
000000e0: 9a75 c7bc 2748 f9bd 3ece 26be 8456 12be
000000f0: 5036 8abd f3d6 00be e3df 85bd 38ca 0cbe

module.encoder.c2.main.3.weight f4 [64, 64, 3, 3]
-0.04513589 -0.05359429 -0.0016926818 -0.006948283 0.017880145 0.001390154 -0.0012260632 -0.010448691
-0.03608283 -0.0058341064 -0.030985273 0.017026028 0.02074789 0.03610073 0.026130596 -0.045771986
0.030072203 0.029003521 -0.037798382 0.012040539 0.0031600825 -0.024627412 -0.004478578 -0.012921289
-0.03592441 -0.019338826 -0.023599202 0.031469967 0.03580081 0.017220547 0.016930688 0.05321688
-0.039546944 0.01448831 0.061754555 -0.06507986 0.010897309 0.019628799 -0.003805953 0.035668377
-0.0047145416 0.0128797535 -0.05618071 -0.105144344 -0.019904979 -0.0012396537 -0.048131578 0.010761651
-0.007198665 -0.039927796 -0.034985226 -0.013438914 -0.024528155 -0.041758854 -0.0014952769 -0.037069473
-0.02958933 0.0015781481 0.044058595 0.0020566753 0.013193445 0.005557988 0.0182047 0.062395196
-0.01227176 -0.0050017615 -0.04452298 -0.027213534 0.06491659 -0.044228613 -0.07002803 -0.07126221
-0.0020730644 -0.07509034 0.035249542 -0.023299145 -0.06154163 0.021644486 -0.045625012 -0.021411026
0.050847784 -0.00055063394 0.07250149 -0.04216081 -0.00069816224 -0.051748868 -0.040924747 -0.03027164
0.017966153 0.034904685 0.012602333 0.012559 0.04879219 0.023331838 0.04620492 -0.018418977
0.024144134 -0.013319634 0.011660576 0.031674527 0.06186438 0.053113367 -0.015645811 -0.017248144
-0.06417991 0.020122636 0.033373605 -0.043181337 -0.062214665 0.007193969 -0.030441996 0.0106577
-0.024167592 0.00942594 -0.046697654 0.010088217 -0.0044241757 0.023788609 0.058583714 -0.034013852
-0.037609648 -0.015626917 0.034933552 0.018940924 0.00677227 -0.016649919 0.0040428895 -0.017189037
0.011687958 -0.04954784 0.008686312 0.009889251 0.053556252 -0.0352472 -0.009396953 -0.032290075
-0.010694729 -0.018363249 0.0010194683 0.012514391 -0.03759285 0.017957123 0.023515677 -0.022429343
0.037306476 0.022216413 0.044379666 -0.011765483 -0.020962602 -0.0041128155 0.007282606 0.0004509599
0.0078898 -0.059382237 0.021725783 -0.0072668623 -0.002037336 0.0045699957 -0.021468278 -0.03949682
0.028683634 0.016432488 0.023260152 -0.01062194 0.03456087 0.00020768166 0.01095307 0.021179873
0.013238423 0.0033607811 0.03141582 -0.03233845 -0.003523734 0.0018565496 0.02528766 0.039072428
0.04972358 -0.008345814 0.026257234 -0.009743466 -0.013929272 0.023971159 0.0135386055 0.0019485444
0.00012403943 0.024392506 -0.027413657 0.0152370315 -0.061242584 -0.0043627787 -0.012627329 0.009684452
0.016293284 0.033850245 0.00498275 -0.0048328196 0.030120628 0.018331781 0.055981528 0.042634428
0.03821552 0.11356998 0.015342194 0.043657377 -0.017372735 0.030767556 -0.04352965 -0.0112275155
-0.017603138 0.0070481007 -0.030053265 -0.008084305 -0.032320462 0.024320671 -0.032710917 -0.029679755
-0.039484054 0.0310112 -0.003344268 0.012605327 -0.026253927 -0.081322595 -0.0133654885 0.02238998
-0.022408372 0.05074416 0.021861881 0.040306374 0.012051054 -0.01697617 0.060457986 -0.04093715
-0.030620812 0.051397372 -0.02931186 0.0016550451 0.0019764348 -0.026398288 -0.042843606 0.015336967
-0.0051639937 -0.0126209995 -0.009752804 -0.017886445 0.039949592 -8.425001e-05 0.027168555 0.043711554
0.11849932 -0.02202856 -0.033136778 -0.01913207 -0.004678132 -0.03316351 -0.02024663 0.013945629
00000000: 69e0 38bd b085 5bbd fadc ddba 6cae e3bb
00000010: 6279 923c d435 b63a dbb3 a0ba fd30 2bbc
00000020: 97cb 13bd 082c bfbb d4d4 fdbc 2b7a 8b3c
00000030: 7bf7 a93c 5cde 133d d50f d63c 687b 3bbd
00000040: fb59 f63c cb98 ed3c 7ad2 1abd ae45 453c
00000050: 6319 4f3b 6dbf c9bc 09c1 92bb d0b3 53bc
00000060: 7925 13bd 756c 9ebc 1d53 c1bc a7e6 003d
00000070: dfa3 123d 1b12 8d3c 3ab2 8a3c f1f9 593d
00000080: fafb 21bd 6060 6d3c 58f2 7c3d 9748 85bd
00000090: a08a 323c 93cc a03c 4c6d 79bb 0119 123d
000000a0: 717c 9abb 9a05 533c bf1d 66bd eb55 d7bd
000000b0: c40f a3bc e07b a2ba 9e25 45bd a351 303c
000000c0: c7e2 ebbb 548b 23bd ab4c 0fbd e42e 5cbc
000000d0: 45ef c8bc 550b 2bbd 2bfd c3ba 29d6 17bd
000000e0: 5365 f2bc ddd9 ce3a c976 343d 49c9 063b
000000f0: 5229 583c c81f b63b 0622 953c 1b92 7f3d
00000100: 7e0f 49bc d1e5 a3bb ba5d 36bd ebee debc
00000110: fdf2 843d 1029 35bd db6a 8fbd ecf1 91bd
00000120: 40dc 07bb f7c8 99bd d361 103d d9dd bebc
00000130: 1413 7cbd c74f b13c 4be1 3abd 2d66 afbc
00000140: c445 503d 6b58 10ba a97b 943d d0b0 2cbd
00000150: e004 37ba 9ff6 53bd b5a0 27bd 3bfc f7bc
00000160: c12d 933c 37f8 0e3d 047a 4e3c 44c4 4d3c
00000170: 52da 473d 6922 bf3c 5f41 3d3d 65e3 96bc
00000180: ebc9 c53c 983a 5abc 000c 3f3c 26bd 013d
00000190: 8165 7d3d 678d 593d a52b 80bc fb4b 8dbc
000001a0: c270 83bd 3ad8 a43c c3b2 083d eade 30bd
000001b0: ced4 7ebd 63bb eb3b 7e61 f9bc a29d 2e3c
000001c0: 1dfb c5bc 426f 1a3c 0a46 3fbd 0d49 253c
000001d0: adf8 90bb 54e0 c23c 7af5 6f3d 1c52 0bbd
000001e0: 930c 1abd 0504 80bc 7c16 0f3d ff29 9b3c
000001f0: ebe9 dd3b 6965 88bc 377a 843b 06d0 8cbc
00000200: d97e 3f3c adf2 4abd 0851 0e3c 8606 223c
00000210: cd5d 5b3d 5e5f 10bd adf5 19bc 9942 04bd
00000220: f238 2fbc 866e 96bc ae9f 853a 2909 4d3c
00000230: f6fa 19bd d11a 933c f3a3 c03c bebd b7bc
00000240: adce 183d 32ff b53c 74c7 353d 03c4 40bc
00000250: c3b9 abbc ccc4 86bb eda2 ee3b d06e ec39
00000260: 3844 013c ca3a 73bd 45fa b13c dc1e eebb
00000270: d384 05bb e7bf 953b 3ede afbc 6bc7 21bd
00000280: f1f9 ea3c 6d9d 863c 138c be3c a507 2ebc
00000290: b38f 0d3d 1fc5 5939 8174 333c 6a81 ad3c
000002a0: f8e5 583c 8d40 5c3b e0ad 003d 5375 04bd
000002b0: 72ee 66bb 7857 f33a 1128 cf3c 690a 203d
000002c0: f4aa 4b3d e2bc 08bc 6919 d73c 0fa3 1fbc
000002d0: 9a37 64bc 2a5f c43c 07d1 5d3c 4d66 ff3a
000002e0: 9510 0239 cbd2 c73c 9b92 e0bc bea4 793c
000002f0: 81d9 7abd a4f5 8ebb dbe2 4ebc 89ab 1e3c
00000300: 7e79 853c 8ea6 0a3d 5646 a33b a15c 9ebb
00000310: 89bf f63c 882c 963c e34c 653d 70a1 2e3d
00000320: e187 1c3d 6197 e83d d35d 7b3c 14d2 323d
00000330: 4451 8ebc 3e0c fc3c 254c 32bd 9df3 37bc
00000340: 7534 90bc c1f3 e63b 4432 f6bc 0874 04bc
00000350: 7662 04bd 253c c73c e2fb 05bd f522 f3bc
00000360: 08ba 21bd 330b fe3c 822b 5bbb 9386 4e3c
00000370: 7a12 d7bc 768c a6bd ecfa 5abc 316b b73c
00000380: c391 b7bc 1cd9 4f3d b017 b33c 4c18 253d
00000390: c971 453c 9c11 8bbc cba2 773d b7ad 27bd
000003a0: 7fd8 fabc 0d86 523d 6d1f f0bc 19ee d83a
000003b0: 1387 013b 3941 d8bc c77c 2fbd e747 7b3c
000003c0: b836 a9bb 4fc8 4ebc 3aca 1fbc 9886 92bc
000003d0: 2fa2 233d 61af b0b8 9790 de3c e30a 333d
000003e0: c5af f23d 3d75 b4bc 6eba 07bd dcba 9cbc
000003f0: 044b 99bb 76d6 07bd 43dc a5bc 357c 643c

module.encoder.c2.main.3.bias f4 [64]
1.609145e-05 7.888654e-05 -1.5593765e-05 -8.248568e-06 1.7468665e-05 3.859335e-06 -0.00010959848 -9.7542825e-06
-2.4936671e-05 -1.1028368e-05 8.582873e-06 3.6158883e-05 -1.8444262e-06 4.4433684e-05 -7.012584e-05 4.7506277e-05
1.6260385e-05 -4.985854e-06 -2.8687614e-06 -4.0885607e-05 1.5564841e-05 -2.254106e-05 -8.4584135e-06 -0.00010519188
-1.4034445e-06 7.792167e-06 -1.3559262e-05 6.7194116e-05 -1.0509477e-05 -2.9221386e-05 6.787751e-06 -8.2239865e-05
-3.31318e-05 -8.42227e-05 -3.8564413e-06 -3.637935e-05 1.8710127e-05 0.00011231506 -8.462532e-05 2.0087686e-05
-9.476771e-06 -2.1971617e-05 -2.1470858e-05 -1.3136906e-05 -7.373534e-05 3.0479923e-05 -1.9509891e-05 -6.9323265e-05
-2.3439934e-05 1.2491526e-05 -5.7542362e-05 4.4814256e-05 -8.752497e-05 -4.1887615e-05 -2.3174824e-05 -1.1613185e-05
1.062141e-05 -8.157287e-05 1.3225264e-05 4.5939418e-05 2.6327441e-05 -2.6787504e-05 2.8369916e-05 -5.442404e-06
00000000: 20fc 8637 e46f a538 5bcf 82b7 5463 0ab7
00000010: ac89 9237 6f7f 8136 3cd8 e5b8 53a6 23b7
00000020: 182f d1b7 7b06 39b7 29ff 0f37 4ea9 1738
00000030: 008e f7b5 4e5e 3a38 8610 93b8 7a41 4738
00000040: e966 8837 294c a7b6 f284 40b6 967c 2bb8
00000050: 3e91 8237 8f16 bdb7 9ce8 0db7 769a dcb8
00000060: fc5d bcb5 1abb 0237 967c 63b7 91ea 8c38
00000070: dc51 30b7 7320 f5b7 56c2 e336 3178 acb8
00000080: 00f7 0ab8 b8a0 b0b8 9466 81b6 0896 18b8
00000090: b1f3 9c37 b08a eb38 df78 b1b8 fa81 a837
000000a0: 6cfe 1eb7 b04f b8b7 511c b4b7 9566 5cb7
000000b0: 5ca2 9ab8 23af ff37 2ca9 a3b7 a561 91b8
000000c0: e0a0 c4b7 b292 5137 a459 71b8 f1f6 3b38
000000d0: 9c8d b7b8 7cb0 2fb8 8e67 c2b7 40d6 42b7
000000e0: 9c32 3237 1a12 abb8 14e2 5d37 13af 4038
000000f0: c0d9 dc37 bab5 e0b7 eefb ed37 e59d b6b6

module.encoder.c2.main.4.weight f4 [64]
0.9965648 1.025846 0.97264653 1.0108799 0.99761695 0.98369217 0.9988553 0.9874612
1.0520537 0.98565954 0.95825183 0.9942811 0.9948085 1.008977 1.0000952 1.0186926
0.987538 0.9762684 0.98931664 0.9675937 0.98203725 1.000038 0.97611344 1.0190908
1.0181541 1.0078667 0.9812901 1.0027413 1.0168371 0.96767735 0.95892674 1.0055088
0.9686881 1.0433657 0.9642277 0.98995036 1.019979 1.0086557 1.0142627 0.9879548
0.99341446 0.98911655 1.0027071 0.97169316 1.0195996 0.9843455 1.0114318 1.002281
0.97150844 0.9967494 0.9842467 1.0212196 1.0126747 1.0210415 0.98915124 1.0241829
1.0232581 1.0227795 0.9799359 1.0473068 1.0130789 1.0280216 1.0199866 1.0020581
00000000: df1e 7f3f ec4e 833f 5dff 783f 8364 813f
00000010: d363 7f3f 40d3 7b3f fbb4 7f3f 42ca 7c3f
00000020: b2a9 863f 2f54 7c3f fe4f 753f 3589 7e3f
00000030: c5ab 7e3f 2926 813f 1f03 803f 8564 823f
00000040: 4acf 7c3f baec 793f db43 7d3f 39b4 773f
00000050: cb66 7b3f 3f01 803f 92e2 793f 9171 823f
00000060: e052 823f c701 813f d435 7b3f d459 803f
00000070: b827 823f b4b9 773f 397c 753f 83b4 803f
00000080: f1fb 773f 028d 853f a0d7 763f 636d 7d3f
00000090: ac8e 823f a11b 813f 5cd3 813f 9bea 7c3f
000000a0: 6950 7e3f be36 7d3f b558 803f e2c0 783f
000000b0: 3d82 823f 11fe 7b3f 9976 813f be4a 803f
000000c0: c7b4 783f f82a 7f3f 97f7 7b3f 53b7 823f
000000d0: 539f 813f 7db1 823f 0439 7d3f 6d18 833f
000000e0: 1ffa 823f 70ea 823f 14dd 7a3f 260e 863f
000000f0: 92ac 813f 3696 833f ec8e 823f 7143 803f

module.encoder.c2.main.4.bias f4 [64]
-0.070652284 -0.05257424 -0.10221281 -0.11727441 -0.083670475 -0.08752898 -0.087607436 -0.1053168
-0.1552128 -0.04394823 -0.10428074 -0.08961526 -0.07856564 -0.17270541 -0.14247766 -0.06571844
-0.08299543 -0.036979478 -0.12169284 -0.12240412 -0.033565562 -0.17614669 -0.21505356 -0.06740977
-0.1746887 -0.08188167 -0.14641322 -0.08644204 -0.05088074 -0.14244981 -0.121495225 -0.079483025
-0.14862143 -0.094949216 -0.1597789 -0.21304321 -0.0840696 -0.112374246 -0.1201895 -0.19225533
-0.20665026 -0.13782577 -0.024376916 -0.111921914 -0.1340362 -0.044619214 -0.15977071 -0.17866169
-0.15019302 -0.16922699 -0.16106668 -0.086186655 -0.082071796 -0.06691162 -0.19885597 -0.11559054
-0.14460146 -0.036612768 -0.13761567 -0.10832022 -0.15327191 -0.03884267 -0.081058696 -0.12798373
00000000: 25b2 90bd 1658 57bd f354 d1bd 912d f0bd
00000010: 6d5b abbd 6542 b3bd 876b b3bd 56b0 d7bd
00000020: 1bf0 1ebe 0f03 34bd 2491 d5bd 3588 b7bd
00000030: 06e7 a0bd b0d9 30be aae5 11be 6497 86bd
00000040: 82f9 a9bd cb77 17bd 183a f9bd 03af fabd
00000050: 0b7c 09bd cc5f 34be 0037 5cbe 220e 8abd
00000060: 98e1 32be 94b1 a7bd 59ed 15be 8608 b1bd
00000070: 5368 50bd 5dde 11be 7dd2 f8bd ffc7 a2bd
00000080: 3730 18be bc74 c2bd 149d 23be 0028 5abe
00000090: af2c acbd 7824 e6bd ea25 f6bd 95de 44be
000000a0: 209c 53be 3322 0dbe 19b2 c7bc 5137 e5bd
000000b0: c940 09be a3c2 36bd ef9a 23be 17f3 36be
000000c0: 33cc 19be d749 2dbe aaee 24be a182 b0bd
000000d0: 4215 a8bd f608 89bd e6a0 4bbe bcba ecbd
000000e0: 6812 14be 45f7 15bd 1feb 0cbe fed6 ddbd
000000f0: 50f3 1cbe 7e19 1fbd 1a02 a6bd 2b0e 03be

module.encoder.c3.0.weight f4 [32, 64, 3, 3]
0.024196452 -0.010876663 -0.0059953216 0.07203343 0.0010908283 0.0380098 -0.0013747053 -0.0005009316
0.036949176 0.0069526834 0.0004983663 -0.009132972 -0.0129644405 0.023313958 -0.04512556 0.024521444
0.015636055 -0.00188569 0.0016687457 0.016423885 0.014301399 0.039519496 0.018823508 0.027840795
0.06212599 -0.03166977 0.06047793 0.010182073 0.020619372 0.002559021 0.017368387 -0.0151872905
0.012489002 0.011124986 -0.02261372 -0.00678038 0.017653745 -0.040383533 0.014111058 -0.018928979
0.00761658 -0.048138957 -0.01885654 0.052268572 -0.037633363 0.0032857424 0.023336487 0.030619415
0.0011600379 0.022313802 0.047669407 0.045468193 -0.03885762 0.027985813 0.045589443 0.017355379
0.00394396 0.024807783 -0.014894229 0.0003596335 0.039282568 -0.039022673 0.01394881 0.008500687
-0.020534134 -0.013811971 0.05841018 0.051222753 0.08878811 -0.092099965 -0.020631084 -0.0067939656
0.0003603191 0.06801213 0.061465412 -0.0528439 -0.06841143 -0.113997586 0.028652292 0.013235345
0.0057564303 0.022131575 0.032674085 0.024559492 0.08240441 0.045009896 0.011570779 0.029698659
0.050941743 0.046767324 -0.02166476 -0.0073315375 -0.045765735 -0.022875952 -0.04824043 -0.04014546
-0.011284173 -0.014145153 0.019169608 -0.0034129024 0.026937917 0.0034312927 0.014831146 0.012986689
0.020814547 -0.011793434 -0.03389626 -0.019875819 -0.016542064 -0.001741391 -0.033050243 -0.006636201
0.0074092844 0.053039726 -0.010787964 -0.017469049 0.059940565 0.02909096 -0.0012240774 -0.013269082
0.020321287 0.014445138 -0.008304055 -0.00450231 0.039193776 0.017345801 -0.0039980994 0.021209158
-0.0012027724 -0.035937857 -0.04690592 -0.01451507 0.023936477 -0.011830258 -0.0011728226 -0.036192894
-0.00875261 -0.03415775 -0.015203436 -0.034145623 -0.07752043 -0.023395719 -0.04758916 -0.009288991
0.0180196 0.068109706 -0.0035547558 0.0035628227 0.012578494 0.0037478483 0.015112587 0.010366004
-0.020683093 0.029710582 -0.017857077 0.0466278 0.009142559 0.05298471 0.057695713 0.0099191945
-0.0025522287 0.0017546812 0.026426159 -0.009920975 -0.010070288 -0.043215074 -0.012196824 -0.005951633
0.03261252 -0.002132488 0.02347075 0.045485187 0.031894255 -0.0073456885 -0.052688945 -0.010532873
-0.016566915 -0.0053151585 0.021492006 -0.04197914 -0.03313743 0.027146477 -0.010537342 0.008681678
-0.043488592 -0.019729882 -0.0072098756 -0.032664467 -0.023849646 -0.097510636 -0.044127822 -0.017605847
-0.018084116 -0.02416594 0.013622806 -0.032044213 -0.02659902 -0.002780164 -0.015903458 0.017350204
0.016227614 0.00022552868 0.09417014 -0.0033721207 -0.025865067 -0.0156139005 -0.027020656 0.032219034
0.08287485 0.04437093 0.0004136596 -0.001913476 -0.07878017 0.013964183 0.019876497 -0.04046013
-0.03419677 -0.0043545873 -0.05236315 0.0010997639 0.028595356 -0.0011725269 0.017722 0.014280401
-0.00802929 -0.04453805 0.010028517 -0.025279365 -0.027443454 -0.012373621 -0.034817565 0.036834832
0.049519654 0.0495902 0.013991375 -0.0024043634 -0.02394482 -0.019001657 0.00030685164 -0.0060472013
0.041635808 -0.009645047 0.03652216 0.019266507 0.03435666 -0.0025662677 0.018344281 0.0025327075
-0.045942284 -0.056366988 -0.0283851 -0.07382282 0.012701706 0.013055438 -0.027577385 -0.010392807
00000000: a337 c63c 0834 32bc 6774 c4bb 4386 933d
00000010: 20fa 8e3a 2ab0 1b3d 752f b4ba f350 03ba
00000020: 0558 173d 56d3 e33b cca4 023a 76a2 15bc
00000030: ce68 54bc eafc be3c 94d5 38bd 32e1 c83c
00000040: 2f17 803c 4229 f7ba d0b9 da3a 628b 863c
00000050: 6a50 6a3c 32df 213d c233 9a3c 6112 e43c
00000060: d277 7e3d 29b8 01bd b5b7 773d b6d2 263c
00000070: f5e9 a83c 40b5 273b 2648 8e3c 1dd4 78bc
00000080: ac9e 4c3c 9345 363c 6840 b9bc f32d debb
00000090: 969e 903c 3469 25bd 1132 673c f210 9bbc
000000a0: 8194 f93b 5b2d 45bd 0879 9abc 9217 563d
000000b0: 7125 1abd 9c55 573b 292c bf3c 91d5 fa3c
000000c0: 6a0c 983a 6fcb b63c ff40 433d db3c 3a3d
000000d0: 2b29 1fbd 8142 e53c ffbb 3a3d de2c 8e3c
000000e0: 563c 813b b139 cb3c ed06 74bc 318d bc39
000000f0: c2e6 203d 3dd6 1fbd 8d89 643c 7746 0b3c
00000100: 3337 a8bc 9b4b 62bc 833f 6f3d f3ce 513d
00000110: 8ad6 b53d e89e bcbd 8502 a9bc ea9f debb
00000120: 36e9 bc39 f249 8b3d 28c3 7b3d d872 58bd
00000130: 4b1b 8cbd 9177 e9bd 36b8 ea3c 0fd9 583c
00000140: 70a0 bc3b 474d b53c 43d5 053d fd30 c93c
00000150: a5c3 a83d 4c5c 383d 5d93 3d3c 9a4a f33c
00000160: 4aa8 503d 188f 3f3d 4b7a b1bc 653d f0bb
00000170: da74 3bbd 5966 bbbc c297 45bd 916f 24bd
00000180: 40e1 38bc 12c1 67bc 9509 9d3c 00ab 5fbb
00000190: e8ac dc3c 8adf 603b 56fe 723c 1fc6 543c
000001a0: 4583 aa3c 3f39 41bc ced6 0abd 9dd2 a2bc
000001b0: 3983 87bc 633f e4ba b15f 07bd 7d74 d9bb
000001c0: 95c9 f23b 2f40 593d 00c0 30bc 401b 8fbc
000001d0: 3d84 753d 2a50 ee3c 3971 a0ba 9066 59bc
000001e0: d478 a63c 4dab 6c3c bb0d 08bc 1d88 93bb
000001f0: a789 203d c818 8e3c 7d02 83bb d4be ad3c
00000200: 58a6 9dba 9333 13bd 6c20 40bd 9ed0 6dbc
00000210: 6e16 c43c b3d3 41bc 65b9 99ba 003f 14bd
00000220: 1b67 0fbc ffe8 0bbd d517 79bc 48dc 0bbd
00000230: 08c3 9ebd 61a8 bfbc daec 42bd da30 18bc
00000240: d79d 933c 1a7d 8b3d e8f6 68bb 3f7e 693b
00000250: 0716 4e3c 769e 753b c99a 773c 2cd6 293c
00000260: 976f a9bc 9b63 f33c 0149 92bc cbfc 3e3d
00000270: acca 153c 7f06 593d 5752 6c3d 1e84 223c
00000280: 4b43 27bb 55fd e53a ac7b d83c 968b 22bc
00000290: d9fd 24bc 4a02 31bd 30d5 47bc eb05 c3bb
000002a0: b594 053d 36c1 0bbb bb45 c03c ad4e 3a3d
000002b0: 8da3 023d 1ab4 f0bb 5dd0 57bd 1292 2cbc
000002c0: 57b7 87bc c82a aebb 0110 b03c 52f2 2bbd
000002d0: 1dbb 07bd 4a62 de3c d1a4 2cbc 993d 0e3c
000002e0: 1821 32bd 90a0 a1bc d240 ecbb 2dcb 05bd
000002f0: 5560 c3bc a8b3 c7bd 60bf 34bd 233a 90bc
00000300: 2425 94bc a6f7 c5bc 3132 5f3c cb40 03bd
00000310: 30e6 d9bc 6933 36bb f847 82bc 0422 8e3c
00000320: c6ef 843c e57b 6c39 46dc c03d ccfe 5cbb
00000330: fae2 d3bc 72d1 7fbc 6c5a ddbc 1bf8 033d
00000340: 4aba a93d 4bbe 353d 74e0 d839 9acd faba
00000350: 7f57 a1bd 07ca 643c 09d4 a23c 85b9 25bd
00000360: ea11 0cbd edb0 8ebb be7a 56bd f425 903a
00000370: cf40 ea3c 79af 99ba ba2d 913c 58f8 693c
00000380: 488d 03bc 886d 36bd a64e 243c ac16 cfbc
00000390: 18d1 e0bc baba 4abc dd9c 0ebd 1fe0 163d
000003a0: 1fd5 4a3d 181f 4b3d 153c 653c 8692 1dbb
000003b0: ed27 c4bc 5da9 9bbc eee0 a039 9a27 c6bb
000003c0: 4f8a 2a3d 4206 1ebc 4398 153d cbd4 9d3c
000003d0: 92b9 0c3d d42e 28bb bf46 963c c8fb 253b
000003e0: fa2d 3cbd 12e1 66bd df87 e8bc 6b30 97bd
000003f0: d11a 503c 7ae6 553c f8e9 e1bc 9846 2abc

module.encoder.c3.0.bias f4 [32]
-1.8759365e-05 6.5608293e-07 4.145723e-06 -5.4712464e-06 1.1544952e-05 6.036555e-06 2.499013e-05 -6.14954e-06
-1.6424887e-05 -1.1498384e-05 6.098764e-06 -1.5551179e-05 -9.9863955e-06 -1.2503325e-05 6.8673307e-06 8.967002e-06
1.1918812e-05 1.280447e-05 -6.254314e-06 8.189122e-06 -6.319256e-07 6.9705407e-06 4.996418e-06 -3.6012265e-05
1.0325892e-05 7.995029e-06 1.7578797e-06 9.000855e-06 2.0878393e-05 1.4543948e-05 -8.038203e-06 3.50316e-06
00000000: 6e5d 9db7 ad1d 3035 7d1b 8b36 a695 b7b6
00000010: 31b1 4137 9d8d ca36 e5a1 d137 2558 ceb6
00000020: 2dc8 89b7 2fe9 40b7 fca3 cc36 e773 82b7
00000030: 3e8b 27b7 5fc5 51b7 ec6d e636 fb70 1637
00000040: e8f6 4737 c8d2 5637 26dc d1b6 0364 0937
00000050: 99a1 29b5 7de4 e936 e7a6 a736 e00b 17b8
00000060: 5e3d 2d37 6322 0637 49f0 eb35 6102 1737
00000070: 0224 af37 c801 7437 d2db 06b7 d517 6b36

module.encoder.c3.1.weight f4 [32]
1.2685136 1.2909702 1.2058557 1.2732346 1.1212587 1.29498 1.1541725 1.2753855
1.329182 1.1225917 1.0493355 1.1628268 1.1704576 1.2138711 1.186923 1.2741139
1.4381206 1.2301022 1.1806059 1.3303407 1.2643975 1.1500359 1.2026365 1.2237675
1.2968427 1.4306453 1.2495275 1.2310671 1.289329 1.0937824 1.2468511 1.0731424
00000000: a75e a23f 833e a53f 7b59 9a3f 5af9 a23f
00000010: 6885 8f3f e8c1 a53f edbb 933f d53f a33f
00000020: a322 aa3f 16b1 8f3f a050 863f 82d7 943f
00000030: 8ed1 953f 2160 9b3f 18ed 973f 2a16 a33f
00000040: 5614 b83f fd73 9d3f 181e 973f 9b48 aa3f
00000050: c7d7 a13f 6034 933f feef 993f 6aa4 9c3f
00000060: f1fe a53f 631f b73f 84f0 9f3f 9b93 9d3f
00000070: bc08 a53f 1001 8c3f d198 9f3f bb5c 893f

module.encoder.c3.1.bias f4 [32]
-0.027570821 0.18029307 0.006091824 0.13042514 0.11303961 -0.04350491 0.011629086 -0.13557294
-0.16163751 0.07016331 0.004720513 0.1387118 -0.05247564 -0.016979173 0.20960641 -0.19649786
-0.11854198 0.042043794 0.11562093 -0.1088093 0.08613931 0.049355716 -0.09351873 -0.041096833
-0.09713525 0.0990213 -0.03370863 0.16970104 -0.09459203 0.036431134 -0.13582239 -0.032696184
00000000: 34dc e1bc bf9e 383e ec9d c73b 2b8e 053e
00000010: 5081 e73d 3432 32bd ec87 3e3c a2d3 0abe
00000020: 4e84 25be c8b1 8f3d 88ae 9a3b 770a 0e3e
00000030: b2f0 56bd e817 8bbc 10a3 563e bc36 49be
00000040: 23c6 f2bd 1d36 2c3d abca ec3d 69d7 debd
00000050: ce69 b03d 3829 4a3d bf86 bfbd 2755 28bd
00000060: d9ee c6bd aecb ca3d 0f12 0abd 1cc6 2d3e
00000070: 77b9 c1bd d038 153d 0615 0bbe 6fec 05bd

module.encoder.c3.1.running_mean f4 [32]
0.22543298 -0.041775677 0.054926697 -0.17826222 -0.33176303 -0.41757762 -0.019589435 0.09871971
0.5940092 -0.2638485 0.25112993 0.09349436 0.5436711 0.11257452 -0.12657963 -0.041696586
-0.023307782 0.09960096 0.43741676 0.57608455 0.65665066 0.0789157 -0.17256786 -0.3573395
-0.3918197 0.21882872 -0.75134337 0.48924989 0.27057073 0.09899362 -0.3606168 -0.11213901
00000000: e7d7 663e f91c 2bbd d1fa 603d 5f8a 36be
00000010: d8dc a9be bccc d5be 067a a0bc 8f2d ca3d
00000020: fd10 183f 2717 87be 1a94 803e f979 bf3d
00000030: 072e 0b3f 788d e63d 179e 01be 0aca 2abd
00000040: f6ef bebc 97fb cb3d 17f5 df3e 477a 133f
00000050: 421a 283f 8e9e a13d a1b5 30be 34f5 b6be
00000060: 979c c8be a314 603e 0a58 40bf f67e fa3e
00000070: 3f88 8a3e 2bbd ca3d c4a2 b8be 23a9 e5bd

module.encoder.c3.1.running_var f4 [32]
0.38643733 0.4096614 0.34253 0.2306982 0.3111603 0.24973 0.26672652 0.25534648
0.2554708 0.40969965 0.4026849 0.26777908 0.34949496 0.27084178 0.28580862 0.30898622
0.52945244 0.44967878 0.32956076 0.48507068 0.29872516 0.34767774 0.27363157 0.20804566
0.29218906 0.29109985 0.4245146 0.4735477 0.30131942 0.35005453 0.36241335 0.3242309
00000000: 1ddb c53e 24bf d13e 1860 af3e 263c 6c3e
00000010: 6750 9f3e 39b9 7f3e 6190 883e c6bc 823e
00000020: 12cd 823e 27c4 d13e b72c ce3e 571a 893e
00000030: 01f1 b23e c6ab 8a3e 8255 923e 7133 9e3e
00000040: 328a 073f 4c3c e63e 30bc a83e 2f5b f83e
00000050: 81f2 983e d102 b23e 7019 8c3e ec09 553e
00000060: ce99 953e 0a0b 953e fa59 d93e d874 f23e
00000070: 8a46 9a3e 593a b33e 3e8e b93e 9801 a63e
