logs/exp4/model_iters_18000.pth (torch, 495376 bytes, 47 tensors)

module.encoder.c1.main.0.weight f4 [32, 3, 3, 3]
0.0036486085 0.0465514 -0.012698659 0.019439304 0.07194164 -0.028565349 0.027851567 0.08439881
0.030360667 -0.0010009927 -0.005160345 -0.026690863 0.00592494 0.007754853 0.020463627 0.0189465
-0.0017987355 0.015506742 -0.0018558927 -0.032306865 -0.013656705 0.06749046 0.026454965 -0.017982716
-0.0024980712 0.018241549 -0.007673914 -0.034193613 -0.052235015 0.018660214 -0.02874932 0.010784369
-0.015824107 -0.01448014 0.10092195 0.029262371 -0.009125433 0.0066567976 0.025753537 -0.016826974
-0.005085983 -0.005950975 -2.7988022e-05 0.020228336 0.0058888285 -0.03270025 0.022897994 -0.041218147
0.012073601 -0.041233018 0.00093179214 0.0021982903 0.008770416 -0.00037114025 0.0080781635 -0.035102237
0.014651944 0.0091483155 -0.009795888 0.061688613 0.043369234 0.03258412 0.042649373 -0.0022720902
0.012990792 0.026851729 0.005645175 0.017546382 -0.025895756 0.018348904 -0.0143515235 -0.011851756
-0.023763606 -0.06350506 -0.04416688 0.005632236 0.020247674 0.08140021 -0.02077952 0.030574862
0.062245376 -0.021452202 -0.027248114 0.008783379 0.026915539 0.014199479 -0.007591246 -0.00090161245
-0.0020974139 -0.015595642 0.021141682 0.008924283 0.039296478 0.02099418 -0.015381056 0.013424293
-0.00848576 -0.033912115 -0.042251408 0.020579886 -0.006777699 -0.051938597 0.046398547 -0.0676887
-0.08720122 -0.00094438094 -0.048121054 -0.13033792 0.023530087 0.02091176 0.0072270217 0.081068784
-0.008157465 -0.0051632486 0.033249393 0.01215968 -0.02160172 0.07170986 -0.0014796456 0.036703583
0.015091433 -0.0021107353 0.0046421415 -0.02797203 0.008545643 -0.017978549 -0.003402577 0.017759549
-0.028402312 0.06293911 0.028347913 -0.03168501 -0.07437768 -0.010074938 -0.092126645 -0.012329092
-0.016686874 -0.036487337 -0.017534414 0.014953487 0.005091333 -0.016723584 0.00064251584 0.028597005
0.0051500886 -0.023787787 -0.08788044 0.032587726 -0.019140735 -0.0055491966 0.046341784 0.063649714
-0.0057191933 -0.015387696 0.036101233 -0.019509329 -0.013933188 -0.004092806 -0.004121523 -0.0014008243
0.037829664 -0.034097914 -0.016443256 0.017074537 -0.007720125 -0.020012813 -0.034701917 -0.051039822
0.0056225066 -0.010418462 -0.0042021773 -0.013076261 0.013302601 0.009824305 0.041481216 0.013455599
0.013235478 0.0070861084 0.020466456 -0.01585789 -0.009704828 -0.00633857 -0.024838116 -0.03193093
-0.09011839 0.029041292 -0.04201936 -0.021136558 -0.04885102 0.038509786 -0.015435265 0.005599173
0.038550656 -0.08835335 -0.013454597 0.027860967 -0.010607295 0.015609782 -0.0065276343 -0.0042449343
-0.010437086 -0.0047153244 -0.06024619 -0.0053201616 0.05432776 0.013478637 0.024556922 0.038395546
0.054619245 0.005163164 -0.020361079 -0.0017675143 0.022264415 -0.013243561 -0.029639293 -0.008104713
-0.010063344 0.024154704 0.03844269 0.023771271 0.00301101 -0.0052653947 -0.0287898 0.014141633
-0.033088982 -0.007698269 0.0025514932 0.031940117 0.033618465 0.023916995 -0.02161312 -0.016710468
0.035351917 -0.0009872928 -0.07793567 -0.04968554 -0.108920336 -0.088428505 -0.096050315 -0.10002459
-0.013406572 -0.0005943132 0.017546486 -0.020592218 -0.035545684 -0.015719548 0.010754065 0.021235002
0.016970726 -0.04121024 -0.004231957 -0.028746428 -0.01208231 0.0073005348 0.0023672672 0.025608378
00000000: 7e1d 6f3b aeac 3e3d 090e 50bc 2d3f 9f3c
00000010: 2356 933d e101 eabc f828 e43c 49d9 ac3d
00000020: efb6 f83c be33 83ba 1d18 a9bb cca6 dabc
00000030: 0026 c23b 6c1c fe3b 56a3 a73c b135 9b3c
00000040: 8cc3 ebba fd0f 7e3c 6d41 f3ba 3454 04bd
00000050: 5fc0 5fbc 7038 8a3d 15b8 d83c 7d50 93bc
00000060: aeb6 23bb 4d6f 953c 7575 fbbb 9a0e 0cbd
00000070: 62f4 55bd 4edd 983c b283 ebbc ecb0 303c
00000080: 8fa1 81bc 1c3e 6dbc 2bb0 ce3d a4b7 ef3c
00000090: d782 15bc 4421 da3b 15f9 d23c b9d8 89bc
000000a0: 51a8 a6bb 6600 c3bb d2c7 eab7 e5b5 a53c
000000b0: 13f7 c03b b3f0 05bd 9394 bb3c 5cd4 28bd
000000c0: 5ad0 453c f4e3 28bd 8343 743a 3111 103b
000000d0: cab1 0f3c 9a95 c2b9 465a 043c 5dc7 0fbd
000000e0: b50e 703c d1e2 153c ef7e 20bc 33ad 7c3d
000000f0: f0a3 313d ed76 053d 1cb1 2e3d 59e7 14bb
00000100: 55d7 543c 28f8 db3c 29fb b83b 6ebd 8f3c
00000110: 5623 d4bc 7150 963c a722 6bbc de2d 42bc
00000120: e5ab c2bc f10e 82bd 55e8 34bd 9f8e b83b
00000130: 73de a53c 27b5 a63d d039 aabc 2278 fa3c
00000140: 02f5 7e3d 87bc afbc 7037 dfbc 29e8 0f3c
00000150: fa7d dc3c eea4 683c fdbf f8bb 305a 6cba
00000160: c474 09bb dd84 7fbc 5231 ad3c 2837 123c
00000170: 58f5 203d fdfb ab3c d300 7cbc 91f1 5b3c
00000180: db07 0bbc 6ee7 0abd d00f 2dbd 2697 a83c
00000190: 7617 debb 91bd 54bd 670c 3e3d 60a0 8abd
000001a0: 8e96 b2bd 5590 77ba 951a 45bd 4e77 05be
000001b0: 2bc2 c03c 244f ab3c a7d0 ec3b 6407 a63d
000001c0: e3a6 05bc 7830 a9bb 8430 083d 6539 473c
000001d0: 17f6 b0bc 9edc 923d abf0 c1ba 7f56 163d
000001e0: 0f42 773c 4354 0abb 1b1d 983b 9925 e5bc
000001f0: 0603 0c3c c047 93bc c5fd 5ebb 797c 913c
00000200: f7ab e8bc 38e6 803d e239 e83c 24c8 01bd
00000210: 5353 98bd 5a11 25bc e5ac bcbd f6ff 49bc
00000220: e9b2 88bc bf73 15bd 55a4 8fbc 78ff 743c
00000230: 32d5 a63b e6ff 88bc 826e 283a 4444 ea3c
00000240: 13c2 a83b 9bde c2bc a9fa b3bd b57a 053d
00000250: 08cd 9cbc 09d6 b5bb e2d0 3d3d c85a 823d
00000260: 1268 bbbb ad1c 7cbc e3de 133d 07d2 9fbc
00000270: 0748 64bc f21c 86bb d70d 87bb dd9b b7ba
00000280: 47f3 1a3d 41aa 0bbd 02b4 86bc e6df 8b3c
00000290: 1af9 fcbb e9f1 a3bc 9923 0ebd 220f 51bd
000002a0: 013d b83b 32b2 2abc 6bb2 89bb d03d 56bc
000002b0: 27f3 593c 1ff6 203c 35e8 293d df74 5c3c
000002c0: 9ed9 583c 9632 e83b 45a9 a73c 68e8 81bc
000002d0: 0001 1fbc c7b3 cfbb 4e79 cbbc 02ca 02bd
000002e0: fe8f b8bd 01e8 ed3c 7e1c 2cbd 9326 adbc
000002f0: 0218 48bd 70bc 1d3d 32e4 7cbc 4479 b73b
00000300: 4be7 1d3d 9af2 b4bd ac70 5cbc af3c e43c
00000310: 38ca 2dbc 2cc0 7f3c c4e5 d5bb 1719 8bbb
00000320: 5000 2bbc 0283 9abb b5c4 76bd c054 aebb
00000330: c986 5e3d 80d5 5c3c 992b c93c a644 1d3d
00000340: 6eb8 5f3d c22f a93b 47cc a6bc f0ab e7ba
00000350: dd63 b63c 85fb 58bc 1ace f2bc a1c9 04bc
00000360: b9e0 24bc 16e0 c53c 1576 1d3d f8bb c23c
00000370: 5d54 453b 5589 acbb 96d8 ebbc 4fb2 673c
00000380: 5088 07bd c341 fcbb f436 273b a4d3 023d
00000390: 84b3 093d 93ed c33c ff0d b1bc 64e4 88bc
000003a0: 2ccd 103d 0d68 81ba bd9c 9fbd 1183 4bbd
000003b0: a011 dfbd 011a b5bd 07b6 c4bd b1d9 ccbd
000003c0: 3da7 5bbc afcb 1bba a6bd 8f3c 03b1 a8bc
000003d0: 5a98 11bd 48c6 80bc d131 303c 07f5 ad3c
000003e0: 3106 8b3c 12cc 28bd 3aac 8abb a17d ebbc
000003f0: e2f4 45bc 5339 ef3b 2724 1b3b a9c8 d13c

module.encoder.c1.main.0.bias f4 [32]
-0.0009524772 0.00765095 -0.0017063573 0.0010045143 -0.000258556 -0.00043391885 -9.579062e-05 -0.00030503678
0.0015462835 -0.0031712383 1.0548762e-05 -0.0056562047 -0.0014305046 -0.00029715264 0.0024236043 -0.0032427656
-0.001602669 -0.00024620313 -0.0066003045 0.0011410449 -0.0005772028 0.0036712042 -0.0014312377 -0.00082128524
-8.08597e-05 -0.0006106774 0.0016587637 -0.0044216975 -0.0029926847 0.0037478635 0.002798097 -0.00028754334
00000000: aaaf 79ba d2b4 fa3b daa7 dfba e8a9 833a
00000010: cd8e 87b9 9a7f e3b9 33e3 c8b8 58ed 9fb9
00000020: aaac ca3a 8dd4 4fbb 96fa 3037 af57 b9bb
00000030: c57f bbba 27cb 9bb9 55d5 1e3b 9484 54bb
00000040: a610 d2ba d314 81b9 5e47 d8bb 1d8f 953a
00000050: 6d4f 17ba 9698 703b 5e98 bbba 854b 57ba
00000060: 3993 a9b8 de15 20ba e06a d93a e3e3 90bb
00000070: eb20 44bb b79e 753b 4760 373b 6ac1 96b9

module.encoder.c1.main.1.weight f4 [32]
0.97961724 0.9855476 0.9820472 0.9898198 1.0068223 1.0356097 0.9825038 1.074129
1.0011089 1.0096778 0.9842784 0.9602442 1.0378482 0.91078997 1.0376955 1.0251216
0.9650972 1.007708 0.9990866 0.97712433 0.9891028 1.0459934 1.0093539 0.9483249
0.9997525 0.9497627 1.0479964 1.0155189 0.9678546 0.9724254 0.9846811 1.041313
00000000: 32c8 7a3f d94c 7c3f 7267 7b3f d564 7d3f
00000010: 8edf 803f dc8e 843f 5e85 7b3f 0f7d 893f
00000020: 5624 803f 1f3d 813f abf9 7b3f 90d2 753f
00000030: 36d8 843f 8829 693f 35d3 843f 2f37 833f
00000040: 9c10 773f 93fc 803f 24c4 7f3f d224 7a3f
00000050: d735 7d3f 1de3 853f 8232 813f 6cc5 723f
00000060: c8ef 7f3f a623 733f bf24 863f 86fc 813f
00000070: 52c5 773f dff0 783f 1014 7c3f bf49 853f

module.encoder.c1.main.1.bias f4 [32]
-0.042324513 -0.07656511 -0.120421395 -0.04090652 -0.07707155 0.019912496 -0.031573836 0.00973459
-0.11833306 -0.15083045 -0.03498052 0.045813285 -0.016788509 -0.017759936 -0.030136291 0.011946453
-0.005583771 0.045177367 0.00090075814 -0.011803473 -0.050369475 0.012951378 0.013551561 -0.02074903
-0.008194174 -0.04602901 -0.01675355 -0.05249186 -0.079007275 -0.14474645 -0.049948297 -0.008347448
00000000: 785c 2dbd 2bce 9cbd 7e9f f6bd 988d 27bd
00000010: b0d7 9dbd 881f a33c 9153 01bd d47d 1f3c
00000020: 9a58 f2bd 4c73 1abe bc47 0fbd b6a6 3b3d
00000030: 0e88 89bc 497d 91bc 62e0 f6bc 0ebb 433c
00000040: 11f8 b6bb e70b 393d db20 6c3a 5b63 41bc
00000050: 3950 4ebd 0432 543c 5e07 5e3c dff9 a9bc
00000060: db40 06bc ea88 3cbd be3e 89bc b401 57bd
00000070: 91ce a1bd 6a38 14be 9696 4cbd bcc3 08bc

module.encoder.c1.main.3.weight f4 [32, 32, 3, 3]
0.01925748 -0.023388218 -0.06038684 0.011542967 -0.029781416 -0.016957197 0.06503697 0.0022669341
-0.066703774 0.012079151 0.053488236 0.027093375 -0.008012611 0.03666423 -0.006908017 -0.0070597217
0.00680214 -0.011305692 -0.068461396 -0.029046617 0.006838813 -0.05179498 -0.008719993 0.0014146075
-0.0002938038 -0.035489682 0.020371921 -0.0039382875 -0.0012186213 0.009707818 -0.04491509 -0.0550595
0.019985955 -0.015955804 0.0040208437 -0.011986062 0.045931313 -0.0024045482 -0.01199732 0.02556278
-0.017321168 0.0043574423 0.020178005 -0.0063028825 -0.009108973 -0.006667681 0.046658784 0.032021075
0.033199888 0.029909475 -0.021096252 -0.0385786 -0.017610108 0.020915262 -0.005220414 0.006540347
0.031221671 0.00066732016 0.01470428 -0.0037279862 0.038687225 0.011191171 0.02651619 0.023111252
0.054578774 0.059478644 -0.05604875 -0.012115963 -0.10337178 -0.050403606 0.0033019604 0.015254423
0.008935513 0.008948957 0.009078697 0.025144063 -0.011664797 0.0046691857 -0.020033699 0.010328154
0.005371112 0.017699268 0.03929672 0.03154391 0.015377323 -0.010090624 0.018716434 -0.00296319
-0.010337327 0.007485404 -0.056215566 0.007943522 0.0023350331 -0.02336778 -0.03098509 0.0031532275
-0.024652835 -0.009297239 0.005238587 -0.004994208 0.016979035 0.036002558 0.016406737 -0.0021471658
0.0035604665 0.0048807235 -0.022767417 -0.013641723 -0.012060167 -0.047207348 0.009280279 0.067831635
0.00031971867 -0.017800374 -0.0530086 -0.061934777 -0.073435076 0.0052179075 0.041207362 0.015735356
0.013873973 0.008382551 -0.0031093818 0.0040732017 0.0019512238 0.011778476 0.0022130492 0.025353706
0.004927279 -0.04672768 -0.0012203155 -0.04752824 -0.05391301 -0.03359663 -0.06872792 0.018356131
-0.038525566 0.032722797 -0.0049578333 -0.021468889 -0.065153584 0.0013986503 -0.020462882 -0.045034323
-0.029786928 -0.04561539 -0.024720628 0.025496332 0.019658305 0.021937938 -7.306251e-05 -0.017243216
-0.016995786 0.025945753 0.02112898 0.020949226 -0.0012113978 0.025976598 0.028752128 -0.032290492
-0.04259098 -0.06729057 -0.025932344 0.004265242 -0.033535883 0.008849417 -0.002826189 0.017319486
0.038280275 0.00916232 0.024281504 0.014063981 -0.020916287 -0.016455546 -0.056236606 0.0013138189
-0.01055341 -0.041268308 -0.009824801 -0.0063136755 -0.03518832 -0.0137163 -0.028411448 -0.010307045
0.011237537 -0.0031445303 -0.014247299 -0.042328075 0.014740763 0.0131611 0.019853845 -0.026705304
-0.031505227 0.006907651 0.04560911 0.006936315 -0.030211814 0.001261331 0.04829836 -0.03259515
-0.028636364 0.05989326 -0.02150502 -0.07745155 -0.024252472 -0.04913474 -0.03499519 -0.03236243
0.008716507 -0.008460295 -0.032901756 0.0013651877 -0.003512276 -0.0016676418 -0.0017497408 -0.024941033
0.044753656 0.031561796 -0.006725678 -0.027944844 -0.0014296856 -0.013687827 0.01217739 -0.00441793
0.017871978 -0.0166204 0.037405834 0.00778579 -0.025826598 -0.021619134 -0.043010842 0.004979998
-0.0010657905 -0.010349413 0.03848737 -0.035323672 0.016231738 -0.02683898 -0.027228177 -0.044983
0.02888692 0.032212086 0.03163642 -0.012558718 -0.045415577 0.006954336 0.001120426 -0.047079284
0.019364396 0.014023471 -0.016841136 -0.005716158 -0.008427993 0.02641559 0.01672803 0.016609574
00000000: ddc1 9d3c a698 bfbc 3158 77bd b61e 3d3c
00000010: 28f8 f3bc d2e9 8abc 1a32 853d d890 143b
00000020: fd9b 88bd a2e7 453c 7b16 5b3d edf2 dd3c
00000030: 5447 03bc 3b2d 163d a65c e2bb 3d55 e7bb
00000040: 7ce4 de3b 823b 39bc 7d35 8cbd 2cf3 edbc
00000050: 1f18 e03b f926 54bd 4dde 0ebc 5a6a b93a
00000060: ae09 9ab9 a15d 11bd 04e3 a63c c00c 81bb
00000070: 25ba 9fba 8a0d 1f3c e3f8 37bd 1286 61bd
00000080: 96b9 a33c bfb5 82bc 48c1 833b 3061 44bc
00000090: 7922 3c3d a095 1dbb 6890 44bc 0969 d13c
000000a0: 1fe5 8dbc e0c8 8e3b 584c a53c 6988 cebb
000000b0: cd3d 15bc 907c dabb 481d 3f3d 8828 033d
000000c0: 9bfc 073d b704 f53c 0cd2 acbc 9804 1ebd
000000d0: 1343 90bc 7c56 ab3c 0210 abbb 6850 d63b
000000e0: 97c4 ff3c 19ef 2e3a 38ea 703c 3b51 74bb
000000f0: 7f76 1e3d 2c5b 373c 7b38 d93c cf53 bd3c
00000100: fe8d 5f3d e19f 733d 6093 65bd 0882 46bc
00000110: 95b4 d3bd 0374 4ebd b465 583b b0ed 793c
00000120: 4266 123c a59e 123c d1be 143c ecfa cd3c
00000130: b41d 3fbc f8ff 983b b61d a4bc 6b37 293c
00000140: 2700 b03b 0efe 903c 99f5 203d 3034 013d
00000150: 2bf1 7b3c 2553 25bc 3553 993c 1432 42bb
00000160: e45d 29bc 1f48 f53b 4b42 66bd 8c25 023c
00000170: 5b07 193b c96d bfbc 72d4 fdbc 61a6 4e3b
00000180: bef4 c9bc 7253 18bc 74a8 ab3b 74a6 a3bb
00000190: 9e17 8b3c 6b77 133d 6c67 863c 77b7 0cbb
000001a0: b756 693b 7aee 9f3b bc82 babc 8981 5fbc
000001b0: 0298 45bc 7e5c 41bd 500c 183c 50eb 8a3d
000001c0: ea9f a739 17d2 91bc 8c1f 59bd 52af 7dbd
000001d0: 2165 96bd fbfa aa3b 0dc9 283d 6fe7 803c
000001e0: a94f 633c f856 093c c5c6 4bbb 7e78 853b
000001f0: 35c0 ff3a 82fa 403c ce08 113b 93b2 cf3c
00000200: 0375 a13b 8665 3fbd fef2 9fba f9ac 42bd
00000210: e3d3 5cbd 9f9c 09bd 39c1 8cbd 995f 963c
00000220: fccc 1dbd 5708 063d 5275 a2bb 86df afbc
00000230: 3e6f 85bd eb52 b73a c6a1 a7bc e975 38bd
00000240: b703 f4bc 34d7 3abd ea82 cabc afdd d03c
00000250: 740a a13c 31b7 b33c 2339 99b8 a541 8dbc
00000260: bf3a 8bbc 308c d43c af16 ad3c b69d ab3c
00000270: c4c7 9eba e0cc d43c 9589 eb3c 0943 04bd
00000280: e173 2ebd a3cf 89bd 1170 d4bc 71c3 8b3b
00000290: ec5c 09bd 25fd 103c 9537 39bb 98e1 8d3c
000002a0: c7cb 1c3d 8e1d 163c 01ea c63c 9d6c 663c
000002b0: a258 abbc c8cd 86bc 5b58 66bd 7234 ac3a
000002c0: 36e8 2cbc f508 29bd 34f8 20bc f3e2 cebb
000002d0: a121 10bd 55ba 60bc 20bf e8bc e1de 28bc
000002e0: a51d 383c 7714 4ebb 816d 69bc 3460 2dbd
000002f0: 3e83 713c a8a1 573c 88a4 a23c 15c5 dabc
00000300: a00b 01bd 9459 e23b 9ed0 3a3d 074a e33b
00000310: c47e f7bc 3f53 a53a 80d4 453d 7e82 05bd
00000320: cf96 eabc a352 753d 4c2b b0bc eb9e 9ebd
00000330: 1fad c6bc 8241 49bd 1e57 0fbd 788e 04bd
00000340: aecf 0e3c 0d9d 0abc fec3 06bd 19f0 b23a
00000350: 372e 66bb c694 daba 8f57 e5ba 2351 ccbc
00000360: 9c4f 373d f146 013d 1463 dcbb 96ec e4bc
00000370: 4a64 bbba e842 60bc ad83 473c 48c4 90bb
00000380: 4168 923c 8127 88bc dc36 193d f11f ff3b
00000390: 4d92 d3bc 9c1a b1bc 232c 30bd 402f a33b
000003a0: ffb1 8bba 9690 29bc efa4 1d3d 8eaf 10bd
000003b0: 6cf8 843c 6cdd dbbc a00d dfbc 1840 38bd
000003c0: 43a4 ec3c d2f0 033d 3195 013d 15c3 4dbc
000003d0: af05 3abd 33e1 e33b 42db 923a 35d6 40bd
000003e0: 15a2 9e3c b3c2 653c 6cf6 89bc 9c4e bbbb
000003f0: 9115 0abc 8265 d83c 3909 893c cd10 883c

module.encoder.c1.main.3.bias f4 [32]
-0.00017356013 -0.000105824765 -7.5842872e-06 -7.6023985e-05 -4.0956533e-05 3.9942093e-05 0.00012976145 -0.0001886609
7.20164e-05 0.00011082125 -1.881631e-05 -0.00018694361 1.7490993e-05 -5.7005404e-05 0.00021733284 -1.9306204e-05
-0.00078036607 0.00061439804 4.516076e-05 -5.5865872e-05 -4.8264796e-05 0.00052614586 -0.00031999566 0.00013570728
-1.573165e-06 4.790535e-05 2.868426e-05 -9.604717e-06 2.1733318e-05 -4.4315766e-05 -9.3623385e-06 6.9703034e-05
00000000: b1fd 35b9 3dee ddb8 887c feb6 116f 9fb8
00000010: bec8 2bb8 7f87 2738 9310 0839 46d3 45b9
00000020: 8307 9738 b568 e838 b8d7 9db7 4b06 44b9
00000030: 9fb9 9237 1619 6fb8 d7e3 6339 c2f3 a1b7
00000040: 7b91 4cba 8e0f 213a ff6a 3d38 8651 6ab8
00000050: ee6f 4ab8 0ded 093a 17c5 a7b9 a54c 0e39
00000060: 8a25 d3b5 faed 4838 fb9e f037 f223 21b7
00000070: f24f b637 b1df 39b8 f012 1db7 882d 9238

module.encoder.c1.main.4.weight f4 [32]
0.9495909 0.9823204 0.9644711 0.9591602 0.9579307 0.9948651 0.99195373 0.9444421
0.9728205 0.995587 0.9462274 0.99401927 0.9608706 0.9631069 0.99407583 0.9462902
0.99277055 0.97383827 0.96698266 0.9782022 0.94479096 0.98236924 1.0244893 0.9677063
0.95410573 0.98520875 0.9488277 0.9473623 0.9724112 0.94073266 0.9265836 0.97036606
00000000: 6418 733f 5a79 7b3f 94e7 763f 868b 753f
00000010: f23a 753f 7baf 7e3f aef0 7d3f f5c6 713f
00000020: c40a 793f cade 7e3f f53b 723f 0c78 7e3f
00000030: 9efb 753f 2c8e 763f c17b 7e3f 1340 723f
00000040: 3626 7e3f 774d 793f 2d8c 773f 766b 7a3f
00000050: d2dd 713f 8d7c 7b3f 7722 833f 9abb 773f
00000060: 4640 743f a436 7c3f 5fe6 723f 5686 723f
00000070: f1ef 783f dbd3 703f 9534 6d3f e969 783f

module.encoder.c1.main.4.bias f4 [32]
0.024946997 -0.0027121399 -0.0043110354 -0.024823816 0.020409307 0.023945682 -0.03565158 -0.083634794
0.0029807042 -0.038240846 -0.044571567 -0.023632022 -0.09962252 -0.1071072 -0.0072471825 0.0008759794
-0.052492987 0.019293666 -0.07437602 -0.03864343 -0.044145867 -0.021828692 -0.1350772 0.0069539063
0.025551934 -0.017173419 0.0125221545 -0.06888191 -0.07421889 -0.07820223 -0.07732197 -0.0790041
00000000: a55d cc3c 28be 31bb 9643 8dbb 515b cbbc
00000010: 6b31 a73c bc29 c43c 6407 12bd b848 abbd
00000020: eb57 433b 6fa2 1cbd ad90 36bd f197 c1bc
00000030: e406 ccbd 055b dbbd c679 edbb fba1 653a
00000040: e302 57bd c00d 9e3c 7452 98bd 9348 1ebd
00000050: 4cd2 34bd 16d2 b2bc ad51 0abe 98dd e33b
00000060: 4a52 d13c 45af 8cbc b929 4d3c f511 8dbd
00000070: 1300 98bd 7e28 a0bd fb5a 9ebd e7cc a1bd

module.encoder.c2.main.0.weight f4 [64, 32, 3, 3]
-0.015311566 -0.02245871 0.011232837 -0.0037809045 -0.04243592 -0.006120919 -0.016440682 0.057698082
0.031327892 0.029483203 0.0057971906 0.0025301538 -0.021077434 -0.03511024 -0.024055075 0.008667661
-0.0044465973 -0.016894268 -0.013570454 -0.0011517179 -0.024585072 -0.057576522 -0.04007083 -0.04115426
-0.03611178 0.0249193 0.024533141 -0.033842806 0.012245902 0.009774866 0.0016457454 -0.06347108
-0.024974843 0.008688422 0.04428906 -0.0010368745 -0.03082695 -0.01913663 0.005302857 -0.07038071
-0.019302297 0.0056061936 -0.060358424 -0.011797577 -0.009288153 -0.0022628428 -0.024105528 -0.027700664
-0.026992988 0.0007175363 0.0069337203 -0.026286619 0.028362965 -0.015861057 0.008791426 -0.014827643
-0.023307085 -0.013431989 -0.023143932 -0.01582021 -0.027083145 -0.047539044 -0.008397345 0.010626455
-0.040698625 -0.009272148 -0.052211873 -0.01754425 0.018040692 0.028876666 0.09384962 0.033553258
-0.021205185 -0.071932815 0.008883608 0.03714012 -0.020836664 -0.0220235 0.05229225 0.030444648
0.033929966 0.07085854 0.047562964 0.051676616 -0.0120858485 -0.046796765 0.024047136 -0.027655253
-0.03542292 0.014104589 -0.057708465 -0.09030943 -0.026685253 0.05832355 -0.0045021228 0.006884785
0.04482899 -0.003416402 -0.010339737 0.0033237718 0.01754085 -0.045522977 0.012273843 -0.008026439
-0.032088097 -0.025334869 -0.032075003 -0.033519212 0.05011107 0.028789163 0.051914293 0.009626636
-0.0366815 -0.010655319 0.046831895 0.015602615 0.028780315 -0.0151490355 -0.029804341 -0.0112183895
-0.0053317393 -0.04940583 0.028235529 0.031596337 0.035083324 0.06474539 -0.09596375 -0.04077673
-0.030891763 -0.035436507 -0.016721139 0.013233863 -0.016671712 -0.012850749 -0.039261036 0.019824198
-0.04984897 -0.008433922 -0.0092174085 -0.015962876 -0.029905602 -0.0021657157 0.023561032 -0.04554633
-0.0053359102 -0.042050507 -0.018369485 0.019135775 -0.034667086 0.026630305 0.004494904 -0.034239464
-0.02955543 -0.023968225 0.0067102658 0.012750704 -0.012713048 0.024407867 -0.041311324 -0.04240772
0.032451514 0.0236016 0.015953304 -0.005413683 0.012813653 -0.036476113 -0.034242123 0.010865391
-0.007171314 -0.0074427687 -0.05914479 -0.0007717999 -0.011117486 -0.031907976 0.0146106 -0.039629582
-0.02975443 0.030291649 -0.044257857 0.0008595221 0.02871196 -0.016617114 0.014577636 -0.011848127
0.019984927 0.0013302749 -0.019446906 0.04121207 -0.010936698 0.059071857 0.00021402157 0.00087850593
0.037188027 -0.069835715 -0.0044666585 -0.05438003 -0.033097338 -0.025333544 0.032814987 -0.023819279
-0.018569138 0.0018740392 0.012940396 -0.027590634 -0.048087034 -0.043151945 -0.056299876 -0.0076860925
-0.080573395 0.024463173 -0.0013419548 -0.029155802 0.001944595 0.058568794 0.008141115 0.09165532
-0.004015127 0.02231372 -0.036825486 0.008421388 0.036393203 -0.01803764 -0.0027520913 0.019785449
-0.01565905 -0.025108552 0.021680359 -0.023706382 -0.016901009 -0.054178637 -0.013153662 0.039879546
0.05683961 0.028655993 -0.0073848926 0.04037818 0.011062909 0.031788033 -0.0030077852 0.04903688
-0.02597667 0.024478534 0.004186243 -0.0043672738 0.0072408277 0.045066066 -0.045715597 -0.035021555
-0.059367564 0.018820588 0.026918167 0.017667297 -0.019684775 0.015586479 -0.015533176 0.017004032
00000000: 5ddd 7abc 54fb b7bc ef09 383c 0dc9 77bb
00000010: 4ad1 2dbd fd91 c8bb 9cae 86bc d354 6c3d
00000020: ad51 003d c286 f13c 5cf6 bd3b f0d0 253b
00000030: 95aa acbc c1cf 0fbd 260f c5bc ce02 0e3c
00000040: c3b4 91bb d965 8abc 9c56 5ebc 3df5 96ba
00000050: a266 c9bc 5cd5 6bbd 5021 24bd 5f91 28bd
00000060: f2e9 13bd 8f23 cc3c baf9 c83c c19e 0abd
00000070: 09a3 483c c226 203c 0db6 d73a 20fd 81bd
00000080: 0b98 ccbc e259 0e3c 7268 353d bce7 87ba
00000090: cd88 fcbc 6cc4 9cbc 97c3 ad3b c323 90bd
000000a0: da1f 9ebc 29b4 b73b 653a 77bd a04a 41bc
000000b0: 562d 18bc 344c 14bb f578 c5bc 81ec e2bc
000000c0: 6620 ddbc 0c19 3c3a 4334 e33b 0957 d7bc
000000d0: 7359 e83c 0cef 81bc ea09 103c a4ef 72bc
000000e0: 80ee bebc d811 5cbc 5898 bdbc 6399 81bc
000000f0: 79dd ddbc 4db8 42bd 0595 09bc 951a 2e3c
00000100: 9ab3 26bd 35ea 17bc 1edc 55bd f5b8 8fbc
00000110: 13ca 933c c28e ec3c 3b34 c03d 246f 093d
00000120: 7fb6 adbc 8351 93bd 8d8c 113c 3d20 183d
00000130: a7b1 aabc a16a b4bc 6630 563d 0e67 f93c
00000140: 26fa 0a3d 481e 913d 62d1 423d dcaa 533d
00000150: b903 46bc f7ad 3fbd 80fe c43c 458d e2bc
00000160: a017 11bd ef16 673c b65f 6cbd 27f4 b8bd
00000170: 089b dabc ade4 6e3d 8b86 93bb c399 e13b
00000180: 9a9e 373d b7e5 5fbb 0068 29bc a3d3 593b
00000190: d4b1 8f3c 4d76 3abd 3b18 493c 5381 03bc
000001a0: cf6e 03bd 128b cfbc 1461 03bd 714b 09bd
000001b0: 4441 4d3d 40d7 eb3c 15a4 543d 0ab9 1d3c
000001c0: 573f 16bd a693 2ebc cdd2 3f3d 1ca2 7f3c
000001d0: b2c4 eb3c a933 78bc 3c28 f4bc 56cd 37bc
000001e0: dfb5 aebb c55d 4abd 324e e73c 296b 013d
000001f0: 88b3 0f3d 3b99 843d a488 c4bd 8005 27bd
00000200: b910 fdbc df25 11bd c5fa 88bc d8d2 583c
00000210: 1d93 88bc f38b 52bc 2ed0 20bd 5b66 a23c
00000220: 6f2e 4cbd 6f2e 0abc 9d04 17bc 94c4 82bc
00000230: 98fc f4bc aeee 0dbb 1103 c13c ca8e 3abd
00000240: dcd8 aebb 273d 2cbd 9a7b 96bc a1c2 9c3c
00000250: 13ff 0dbd cc27 da3c fd49 933b ae3e 0cbd
00000260: 3b1e f2bc 0359 c4bc cae1 db3b 54e8 503c
00000270: 634a 50bc 02f3 c73c 1036 29bd b8b3 2dbd
00000280: e1eb 043d 2558 c13c 81b0 823c 4465 b1bb
00000290: 5bf0 513c fa67 15bd 7841 0cbd c104 323c
000002a0: 58fd eabb 78e2 f3bb cf41 72bd 9d52 4aba
000002b0: 1e26 36bc f0b1 02bd 4c61 6f3c a152 22bd
000002c0: 90bf f3bc 3126 f83c ba47 35bd 8d51 613a
000002d0: 5835 eb3c 9d20 88bc 09d7 6e3c a51e 42bc
000002e0: 6eb7 a33c 9e5c ae3a 1e4f 9fbc fdcd 283d
000002f0: d62f 33bc 55f5 713d fa6a 6039 894b 663a
00000300: 7952 183d 0706 8fbd 0c5d 92bb 98bd 5ebd
00000310: 1391 07bd 4b88 cfbc 0269 063d a620 c3bc
00000320: 4e1e 98bc 52a2 f53a f403 543c c105 e2bc
00000330: e9f6 44bd 18c0 30bd b39a 66bd 9edb fbbb
00000340: aa03 a5bd fe66 c83c 88e4 afba 26d8 eebc
00000350: c8e1 fe3a d5e5 6f3d 5062 053c c9b5 bb3d
00000360: 5491 83bb 43cb b63c 52d6 16bd ddf9 093c
00000370: 0a11 153d acc3 93bc 6e5c 34bb 1815 a23c
00000380: 6847 80bc 73b0 cdbc 029b b13c e333 c2bc
00000390: fc73 8abc 6bea 5dbd 7582 57bc bc58 233d
000003a0: a7d0 683d f9bf ea3c f8fc f1bb 9763 253d
000003b0: 3441 353c 2b34 023d 431e 45bb e5da 483d
000003c0: 07cd d4bc 3587 c83c c02c 893b 591b 8fbb
000003d0: 7744 ed3b 3297 383d 4740 3bbd c372 0fbd
000003e0: 672b 73bd a22d 9a3c 7d83 dc3c 02bb 903c
000003f0: f741 a1bc 6e5e 7f3c dd7e 7ebc 0a4c 8b3c

module.encoder.c2.main.0.bias f4 [64]
3.253956e-05 2.2299751e-05 2.0425205e-05 -2.8631152e-05 4.6741803e-05 1.3957314e-05 0.00010315263 8.15984e-05
4.046833e-06 7.230868e-05 3.594398e-05 -3.654723e-08 3.8823982e-06 4.0471958e-05 2.8113162e-05 2.3848366e-05
-2.0920179e-05 -2.6133801e-05 1.7132752e-05 1.2970853e-05 -1.3055223e-05 3.0200807e-05 5.496107e-05 6.8792986e-05
8.940622e-05 8.683897e-06 -8.9869216e-05 0.00021546042 -5.9767546e-05 -1.0096487e-05 6.295668e-05 9.49807e-05
7.3331496e-05 7.424648e-05 6.8699315e-05 3.7340607e-07 0.00011772433 1.1722543e-05 2.6672506e-05 4.147241e-05
5.5696277e-05 2.1843767e-05 4.893859e-05 5.0488947e-05 0.0002028098 -7.941511e-06 -1.8019886e-05 -3.4948018e-06
-1.3347342e-06 2.3082204e-05 6.1427854e-05 3.1419728e-05 8.164282e-05 -1.9970417e-05 5.370403e-05 6.177507e-05
0.00014092066 8.354285e-05 -1.4978001e-05 2.0564836e-05 2.9630455e-05 2.091195e-06 -1.8468509e-05 3.9056304e-05
00000000: 167b 0838 5a10 bb37 cb56 ab37 ee2c f0b7
00000010: a10c 4438 352a 6a37 a653 d838 cf1f ab38
00000020: 08ca 8736 6da4 9738 8ec2 1638 1bf8 1cb3
00000030: 8c45 8236 6fc0 2938 8ed4 eb37 fa0d c837
00000040: be7d afb7 e939 dbb7 4eb8 8f37 649d 5937
00000050: c107 5bb7 bd57 fd37 0086 6638 f444 9038
00000060: 997f bb38 0eb1 1137 2b78 bcb8 37ed 6139
00000070: eaae 7ab8 1564 29b7 9c07 8438 6030 c738
00000080: 8cc9 9938 c7b4 9b38 aa12 9038 8a78 c834
00000090: c5e2 f638 f0ab 4437 c5be df37 a9f2 2d38
000000a0: 6c9b 6938 223d b737 6943 4d38 18c4 5338
000000b0: 57a9 5439 883c 05b7 6929 97b7 3d88 6ab6
000000c0: 1e25 b3b5 a8a0 c137 d4d2 8038 adc8 0338
000000d0: a837 ab38 2586 a7b7 4340 6138 3d8d 8138
000000e0: 1ac4 1339 ba33 af38 064a 7bb7 a682 ac37
000000f0: eb8e f837 7556 0c36 d2ec 9ab7 63d0 2338

module.encoder.c2.main.1.weight f4 [64]
0.97950923 0.98430014 0.9117501 0.9873502 1.0413185 1.0064995 0.9606163 1.0128583
0.9731907 1.003367 0.9158299 1.0202206 0.9976238 0.9939679 0.93589884 1.0041522
0.9507765 0.99205005 0.99251986 1.0022781 0.94580376 0.9834648 0.98046523 1.0096941
0.9978721 0.96440774 1.0186003 1.0327909 1.0043626 0.9769055 1.0187464 1.0008962
1.0089084 0.9641061 0.9782283 1.0284698 1.0907103 1.0202688 1.032982 1.0418835
0.99328184 0.95379883 1.0467024 0.9633823 0.98449206 0.9869476 0.97944987 1.0165157
0.9682099 0.9378042 0.98330575 1.0020329 1.0089052 1.0543958 1.0059336 0.9712842
1.0800498 0.9769366 1.014384 0.9572173 1.0625563 0.9748156 0.9756668 1.0387641
00000000: 1ec1 7a3f 18fb 7b3f 7468 693f fcc2 7c3f
00000010: ed49 853f fad4 803f f3ea 753f 57a5 813f
00000020: 0723 793f 546e 803f d473 6a3f 9796 823f
00000030: 4664 7f3f ae74 7e3f 1197 6f3f 0f88 803f
00000040: 1766 733f fef6 7d3f c815 7e3f a64a 803f
00000050: 3220 723f 59c4 7b3f c5ff 7a3f a83d 813f
00000060: 8c74 7f3f 6de3 763f 7f61 823f 7e32 843f
00000070: f48e 803f 7b16 7a3f 4866 823f 5e1d 803f
00000080: e923 813f a8cf 763f 2b6d 7a3f e6a4 833f
00000090: 659c 8b3f 2b98 823f c138 843f 705c 853f
000000a0: b847 7e3f 292c 743f 58fa 853f 39a0 763f
000000b0: ac07 7c3f 99a8 7c3f 3abd 7a3f 301d 823f
000000c0: 9bdc 773f f013 703f edb9 7b3f 9d42 803f
000000d0: ce23 813f 71f6 863f 6fc2 803f 15a6 783f
000000e0: 123f 8a3f 8418 7a3f 56d7 813f 310c 753f
000000f0: d801 883f 848d 793f 4dc5 793f 39f6 843f

module.encoder.c2.main.1.bias f4 [64]
-0.15747446 -0.049582932 -0.12388064 -0.16442889 -0.05566241 -0.13578415 -0.089957014 -0.071974315
-0.0709506 -0.12049441 -0.166803 -0.12559363 -0.072033994 -0.15060419 -0.11344432 -0.058560606
-0.10311004 -0.047814135 -0.081840515 -0.052114364 -0.075681135 -0.115074 -0.1245364 -0.088924564
-0.095783584 -0.08385576 -0.09777097 -0.116735585 -0.042496853 -0.14421278 -0.07064514 -0.11311583
-0.06774503 -0.085929774 -0.15510683 -0.09621944 -0.074467465 -0.085139506 -0.06270893 -0.059788365
-0.11883573 -0.08878745 -0.041688252 -0.09264608 -0.071650356 -0.08122517 -0.091272846 -0.0856148
-0.060873672 -0.09646691 -0.14198595 -0.14914136 -0.026078522 -0.006124111 -0.08461029 -0.10767303
-0.0032888209 -0.088127226 -0.11449879 -0.12914556 -0.026616957 -0.08761608 -0.04478692 -0.091692895
00000000: fc40 21be 7917 4bbd 22b5 fdbd 0c60 28be
00000010: 44fe 63bd 000b 0bbe 623b b8bd 4567 93bd
00000020: 8c4e 91bd c6c5 f6bd 68ce 2abe 9e9b 00be
00000030: 8f86 93bd fc37 1abe 7f55 e8bd 3fdd 6fbd
00000040: 5b2b d3bd c1d8 43bd 009c a7bd df75 55bd
00000050: b6fe 9abd ebab ebbd f10c ffbd 151e b6bd
00000060: 2f2a c4bd 92bc abbd 253c c8bd 1113 efbd
00000070: 2e11 2ebd 84ac 13be 66ae 90bd 46a9 e7bd
00000080: e8bd 8abd f3fb afbd 53d4 1ebe b30e c5bd
00000090: 6682 98bd 9f5d aebd 8a6d 80bd a5e4 74bd
000000a0: 2660 f3bd 32d6 b5bd 4dc1 2abd 3abd bdbd
000000b0: 6cbd 92bd 6259 a6bd 42ed babd d056 afbd
000000c0: ac56 79bd 7190 c5bd c464 11be 83b8 18be
000000d0: a0a2 d5bc c4ac c8bb 2948 adbd ad83 dcbd
000000e0: 4289 57bb 0c7c b4bd 577e eabd bc3e 04be
000000f0: ce0b dabc 0f70 b3bd 7d72 37bd 7cc9 bbbd

module.encoder.c2.main.3.weight f4 [64, 64, 3, 3]
-0.024407292 -0.039667975 -0.00781279 -0.01736009 0.014981438 -0.0028674467 -0.018524848 -0.021963282
-0.035333443 -0.010473722 -0.035673726 0.010661588 0.020194508 0.038736187 0.027319869 -0.03916496
0.031358846 0.03158458 -0.021307535 0.0143609885 0.008152813 -0.02223116 -0.015664212 -0.008797905
-0.031906456 -0.008048183 -0.021290066 0.038652763 0.028761582 0.01398481 0.027968682 0.050601445
-0.02463802 0.022695186 0.063842766 -0.05735811 0.0014493422 0.009589138 -0.016645998 0.020071745
-0.004222338 0.01400567 -0.044911362 -0.08531312 -0.021496411 -0.0054398626 -0.045906357 0.0034225907
-0.013349442 -0.03307427 -0.015685914 -0.033644427 -0.026457144 -0.040553413 0.0042509036 -0.032091904
-0.019225754 -0.0046550003 0.045809522 0.006335413 -0.009978319 -0.0067281476 0.0007805499 0.038093165
-0.012024599 -0.003521683 -0.038542386 -0.0058599454 0.064135954 -0.049953226 -0.066875465 -0.06422959
0.0050070994 -0.04846521 0.030809205 -0.031223373 -0.043872274 -0.004658676 -0.05836383 -0.020045642
0.054048587 0.004279922 0.062243313 -0.027269376 -0.009618966 -0.05041971 -0.042318705 -0.029807711
0.005973878 0.033843488 -0.0014489543 0.00759479 0.04128425 0.006076168 0.028654909 -0.032797813
-0.005523476 -0.029756423 0.0008744653 0.040514354 0.051628474 0.06823027 -0.004393739 -0.0113515295
-0.025526114 0.026787588 0.034048844 -0.041319963 -0.03922354 0.0046935063 -0.02706718 0.008509314
-0.017324125 0.011078866 -0.043736186 0.014171992 -0.014832685 0.017765658 0.051597845 -0.018601434
-0.020700734 -0.018896896 0.0319007 0.012591119 0.0025296514 -0.016943721 -0.0058086095 -0.017840788
0.0018341298 -0.04907183 0.0005934103 0.0021694216 0.03934863 -0.036127947 -0.013580992 -0.014212283
-0.009500125 -0.008136955 0.0037162516 -0.0005996935 -0.045228556 0.036841657 0.013384491 -0.032788727
0.024895795 0.013176406 0.043748908 -0.015949354 -0.0352707 -0.0020484556 0.00031080152 -0.008830044
0.0026297153 -0.041512616 0.023306414 -0.009369155 -0.0014456271 0.008432793 -0.017702913 -0.039108127
0.03542717 0.010098675 0.0079685515 -0.0064931107 0.025691457 0.0046804175 0.009993118 0.024714941
0.0065046 0.0020287798 0.023326183 -0.039591193 0.0129288025 -0.0022862952 0.018277539 0.04201695
0.050289303 -0.01891677 0.02714974 -0.013295888 -0.0204609 0.015107006 0.019785699 -0.015019664
0.0016971548 0.010262008 -0.024362244 0.010794977 -0.061786976 0.0020792752 -0.015883686 -0.007578828
0.028065424 0.032720793 0.014252567 0.012513218 0.03515452 0.028757224 0.0452365 0.026881438
0.03579477 0.11035451 0.029579874 0.029726075 -0.027521431 0.0058766063 -0.03481884 -0.01494565
-0.025253555 -0.0002949834 -0.02713302 -0.0075681005 -0.02570499 0.03665419 -0.021147793 -0.009277011
-0.03077743 0.017115982 -0.0019035639 0.007251039 -0.04059756 -0.078786746 -0.010765507 0.024271397
-0.008070756 0.030935142 0.018721934 0.023852753 0.0019606033 -0.015393781 0.04577458 -0.03134981
-0.029738868 0.052256018 -0.027224459 0.0016390904 0.009638338 -0.027613712 -0.035290178 0.029130481
-0.020326847 0.000781509 -0.021312358 -0.03160883 0.03436747 0.001319448 0.01887209 0.022349993
0.10303429 -0.024921497 -0.022140777 -0.034662597 0.004523019 -0.025412343 -0.01744744 0.013424115
00000000: cdf1 c7bc e37a 22bd 3701 00bc bf36 8ebc
00000010: b574 753c c6eb 3bbb 6cc1 97bc 57ec b3bc
00000020: cdb9 10bd f999 2bbc 9d1e 12bd f1ad 2e3c
00000030: f46e a53c d6a9 1e3d ebcd df3c 706b 20bd
00000040: 2272 003d d55e 013d 248d aebc 5a4a 6b3c
00000050: 6093 053c 1f1e b6bc 3c52 80bc 1725 10bc
00000060: 58b0 02bd 87dc 03bc 8168 aebc 5c52 1e3d
00000070: 699d eb3c 8b20 653c 941e e53c 7643 4f3d
00000080: acd5 c9bc 41eb b93c ffbf 823d 56f0 6abd
00000090: dbf7 bd3a c31b 1d3c 305d 88bc 806d a43c
000000a0: 8a5b 8abb 0a78 653c faf4 37bd a5b8 aebd
000000b0: 3e19 b0bc e040 b2bb 4e08 3cbd 8b4d 603b
000000c0: 9eb7 5abc e378 07bd bf7f 80bc bdce 09bd
000000d0: a7bc d8bc 561b 26bd 2a4b 8b3b cd72 03bd
000000e0: 547f 9dbc f988 98bb c4a2 3b3d 4c99 cf3b
000000f0: 1a7c 23bc cb77 dcbb d19d 4c3a 9407 1c3d
00000100: d302 45bc 09cc 66bb 9fde 1dbd c904 c0bb
00000110: b659 833d c19b 4cbd 01f6 88bd ce8a 83bd
00000120: 9812 a43b 7583 46bd 9663 fc3c 29c8 ffbc
00000130: 6ab3 33bd cfa7 98bb e90e 6fbd c236 a4bc
00000140: 0d62 5d3d 973e 8c3b d8f2 7e3d 0764 dfbc
00000150: de98 1dbc e684 4ebd 6156 2dbd 4d2f f4bc
00000160: 85c0 c33b 789f 0a3d d7ea bdba b7dd f83b
00000170: ac19 293d 971a c73b b3bd ea3c 0057 06bd
00000180: 46fe b4bb bec3 f3bc 5f3c 653a 61f2 253d
00000190: 6178 533d 50bc 8b3d 5bf9 8fbb c4fb 39bc
000001a0: 241c d1bc a571 db3c cd76 0b3d 1f3f 29bd
000001b0: dda8 20bd fccb 993b febb ddbc a66a 0b3c
000001c0: 53eb 8dbc 2284 353c b724 33bd a531 683c
000001d0: ca04 73bc 4989 913c 4358 533d 0962 98bc
000001e0: 9694 a9bc aacd 9abc 4faa 023d fb4a 4e3c
000001f0: 82c8 253b 8fcd 8abc 2656 bebb d826 92bc
00000200: 2f67 f03a 8bff 48bd 178f 1b3a db2c 0e3b
00000210: 072c 213d e6fa 13bd cf82 5ebc a3da 68bc
00000220: 6aa6 1bbc dd50 05bc 5b8c 733b c034 1dba
00000230: 9441 39bd 47e7 163d a04a 5b3c 794d 06bd
00000240: 44f2 cb3c dae1 573c 0e32 333d 38a8 82bc
00000250: 0278 10bd 623f 06bb 13f3 a239 e4ab 10bc
00000260: 4d57 2c3b 2209 2abd 18ed be3c 1681 19bc
00000270: 327b bdba b329 0a3c b305 91bc d82f 20bd
00000280: 151c 113d ea74 253c 878e 023c 29c4 d4bb
00000290: e476 d23c 305e 993b 2dba 233c fd76 ca3c
000002a0: 8a24 d53b 47f5 043b 8d16 bf3c 602a 22bd
000002b0: 54d3 533c abd5 15bb c7ba 953c f719 2c3d
000002c0: 28fc 4d3d 58f7 9abc 2269 de3c ffd6 59bc
000002d0: 9e9d a7bc 6083 773c 9e15 a23c 0915 76bc
000002e0: 1173 de3a fb21 283c 5493 c7bc 6add 303c
000002f0: 5714 7dbd 7344 083b 811e 82bc d157 f8bb
00000300: 76e9 e53c 3d06 063d 9983 693c 3e04 4d3c
00000310: 30fe 0f3d 4594 eb3c e949 393d 7636 dc3c
00000320: 899d 123d 8c01 e23d 7e51 f23c 1984 f33c
00000330: a074 e1bc 8c90 c03b 339e 0ebd 99de 74bc
00000340: 8be0 cebc 00a8 9ab9 1146 debc d4fd f7bb
00000350: 4593 d2bc b422 163d 233e adbc 9bfe 17bc
00000360: f320 fcbc d136 8c3c 0181 f9ba 209a ed3b
00000370: a149 26bd f25a a1bd cf61 30bc cfd4 c63c
00000380: 343b 04bc b26b fd3c be5e 993c d966 c33c
00000390: 777d 003b 3236 7cbc 207e 3b3d a968 00bd
000003a0: ed9e f3bc 680a 563d d405 dfbc bfd6 d63a
000003b0: 1fea 1d3c 2736 e2bc 6f8c 10bd 0ca3 ee3c
000003c0: 7d84 a6bc 2ede 4c3a 4197 aebc 4378 01bd
000003d0: e7c4 0c3d 54f1 ac3a a499 9a3c 5517 b73c
000003e0: a403 d33d 2b28 ccbc 9360 b5bc 5efa 0dbd
000003f0: d535 943b 8c2d d0bc efed 8ebc d2f0 5b3c

module.encoder.c2.main.3.bias f4 [64]
1.8031333e-05 4.6415724e-05 -1.3291503e-05 -9.283682e-06 9.7329885e-06 -1.5588631e-06 -6.58364e-05 -1.2698851e-05
-1.8116729e-05 -7.1667037e-06 -1.2493953e-06 1.1169033e-05 -2.9375317e-06 1.826152e-05 -4.5384157e-05 3.030159e-05
4.452148e-06 -2.0416915e-06 1.0270973e-06 -1.6151731e-05 7.907557e-06 -6.994022e-06 -2.557675e-06 -5.274225e-05
6.971114e-06 1.3082669e-05 -5.59432e-06 4.383793e-05 3.326509e-07 -1.0717542e-05 4.071517e-06 -5.171184e-05
-1.7318609e-05 -4.773044e-05 -9.944086e-06 -2.4850513e-05 1.5640402e-05 5.350068e-05 -4.412841e-05 1.633786e-05
-1.6177224e-05 -1.0246405e-06 -1.0632647e-05 -8.207122e-06 -3.6983296e-05 1.601326e-05 -2.034073e-05 -5.20978e-05
-1.9937615e-05 1.7128093e-06 -2.643519e-05 3.0870902e-05 -4.6302815e-05 -2.8026101e-05 -1.0204205e-05 -8.4112835e-06
5.327306e-06 -4.6288136e-05 2.7504434e-06 1.720428e-05 2.8581166e-05 -1.08998765e-05 1.8101124e-05 -8.569923e-06
00000000: fe41 9737 81ae 4238 92fe 5eb7 1cc1 1bb7
00000010: de4a 2337 213a d1b5 a611 8ab8 260d 55b7
00000020: 61f9 97b7 8479 f0b6 e5b0 a7b5 a262 3b37
00000030: 6922 45b6 5130 9937 de5a 3eb8 2b30 fe37
00000040: a963 9536 fe03 09b6 cbda 8935 947d 87b7
00000050: b3aa 0437 31ae eab6 86a4 2bb6 8f37 5db8
00000060: 6ae9 e936 a37d 5b37 d8b6 bbb6 9ede 3738
00000070: 3197 b234 7ecf 33b7 119e 8836 2ae5 58b8
00000080: 6e47 91b7 2b32 48b8 86d5 26b7 1276 d0b7
00000090: 8233 8337 eb65 6038 8516 39b8 4a0d 8937
000000a0: 53b4 87b7 6186 89b5 df62 32b7 52b1 09b7
000000b0: 831e 1bb8 3754 8637 63a1 aab7 9683 5ab8
000000c0: b43f a7b7 aee3 e535 23c1 ddb7 617b 0138
000000d0: 4535 42b8 9819 ebb7 ba32 2bb7 301e 0db7
000000e0: 36c1 b236 8225 42b8 4294 3836 e951 9037
000000f0: 96c1 ef37 9dde 36b7 ded7 9737 8ac7 0fb7

module.encoder.c2.main.4.weight f4 [64]
0.9988433 1.0185505 0.9810698 1.0062716 0.99436694 0.98711634 0.99470514 0.9792971
1.0484318 0.9857441 0.9711188 0.99074006 1.0044416 1.0161332 1.0109301 1.0171375
0.9988807 0.97531945 0.98793125 0.9732442 0.99416 0.9888558 0.98269606 1.0074048
1.0072869 1.0185423 0.9905724 0.9967967 1.0191088 0.9816467 0.96791846 0.99838674
0.9704842 1.0277022 0.96337926 1.0018061 1.006399 1.0063074 1.0272441 0.99104583
0.9975775 1.000423 1.0073891 0.96499246 1.000136 1.0005283 1.0063608 1.0119917
0.98352456 0.99953336 0.96541256 1.0205052 0.99852186 1.0099225 0.98738515 1.032886
1.0256741 1.0104082 0.97563136 1.0270064 0.9930004 1.0249983 1.0291624 0.98244226
00000000: 32b4 7f3f dd5f 823f 6427 7b3f 82cd 803f
00000010: d58e 7e3f a8b3 7c3f ffa4 7e3f 37b3 7a3f
00000020: 0333 863f ba59 7c3f 3e9b 783f 24a1 7d3f
00000030: 8b91 803f a710 823f 2866 813f 9031 823f
00000040: a5b6 7f3f 89ae 793f 10e9 7c3f 8826 793f
00000050: 4581 7e3f a725 7d3f f891 7b3f a4f2 803f
00000060: c7ee 803f 985f 823f 2796 7d3f 122e 7f3f
00000070: 2872 823f 334d 7b3f 81c9 773f 4696 7f3f
00000080: a771 783f bf8b 833f 06a0 763f 2f3b 803f
00000090: afd1 803f aece 803f bc7c 833f 2eb5 7d3f
000000a0: 3d61 7f3f dc0d 803f 20f2 803f bf09 773f
000000b0: 7504 803f 5011 803f 6ed0 803f f288 813f
000000c0: 44c8 7b3f 6be1 7f3f 4725 773f ea9f 823f
000000d0: 219f 7f3f 2445 813f 46c5 7c3f 9c35 843f
000000e0: 4a49 833f 0e55 813f fac2 793f f274 833f
000000f0: 4635 7e3f 2533 833f 98bb 833f 5681 7b3f

module.encoder.c2.main.4.bias f4 [64]
-0.060299385 -0.059535045 -0.09518084 -0.10594235 -0.070247315 -0.03836449 -0.06324767 -0.079873405
-0.10464485 -0.04408118 -0.08331746 -0.08267568 -0.05131656 -0.11762707 -0.1129962 -0.07915327
-0.052898824 -0.03888854 -0.08712267 -0.08755645 -0.023796178 -0.12457061 -0.1230942 -0.053595066
-0.1289164 -0.07349025 -0.09514184 -0.06730058 -0.032843437 -0.10831216 -0.08400715 -0.062867686
-0.12785976 -0.06592796 -0.12988132 -0.14802752 -0.044542488 -0.09377817 -0.076577894 -0.13464782
-0.1753108 -0.09633209 -0.017730273 -0.08039185 -0.09734717 -0.03112279 -0.08837537 -0.16075645
-0.103237815 -0.1346143 -0.13684645 -0.061305076 -0.059286635 -0.045375533 -0.15170448 -0.0534645
-0.111011595 -0.024651224 -0.12743556 -0.077665605 -0.13954045 -0.027811348 -0.067630835 -0.06094835
00000000: 7dfc 76bd 05db 73bd 2cee c2bd 4ef8 d8bd
00000010: d3dd 8fbd 1524 1dbd ff87 81bd ab94 a3bd
00000020: 0a50 d6bd 788e 34bd 58a2 aabd de51 a9bd
00000030: 5031 52bd 76e6 f0bd 8d6a e7bd 1c1b a2bd
00000040: 70ac 58bd 9749 1fbd 5f6d b2bd cc50 b3bd
00000050: 34f0 c2bc e01e ffbd d018 fcbd 8086 5bbd
00000060: a902 04be 0e82 96bd bad9 c2bd e3d4 89bd
00000070: d786 06bd c4d2 ddbd f10b acbd c6c0 80bd
00000080: abed 02be 3d05 87bd 9cff 04be 8794 17be
00000090: 2f72 36bd c50e c0bd dfd4 9cbd 1ee1 09be
000000a0: ad84 33be c249 c5bd 143f 91bc 7ba4 a4bd
000000b0: f45d c7bd 39f5 febc 25fe b4bd 579d 24be
000000c0: 596e d3bd 55d8 09be 7a21 0cbe 081b 7bbd
000000d0: 8bd6 72bd b2db 39bd 6b58 1bbe 97fd 5abd
000000e0: 0c5a e3bd 5df1 c9bc 787e 02be 250f 9fbd
000000f0: b1e3 0ebe a0d4 e3bc 0982 8abd faa4 79bd

module.encoder.c3.0.weight f4 [32, 64, 3, 3]
0.019800939 -0.015039646 -0.005504368 0.06602355 0.004386845 0.038742047 0.009891776 -0.009564349
0.031255085 -0.0049465527 0.01742836 0.003171073 -0.010838727 0.03349244 -0.036865428 0.01438156
0.018609146 -0.0025123789 0.0042118467 0.021124175 0.024899058 0.047239166 0.0083518075 0.02927706
0.06516968 -0.029792001 0.056711875 0.015317107 0.01930887 0.008565226 0.014481869 -0.01378976
0.013420993 0.01376363 -0.0061650462 -0.0048417444 0.022507412 -0.027601957 0.01756908 -0.025581503
0.004819691 -0.030028962 -0.01987397 0.040910326 -0.037577946 0.021352313 0.014056821 0.021345334
-0.0064864377 0.01648136 0.04053606 0.025410343 -0.0274283 0.017582178 0.041304864 0.009505209
0.014445293 0.036994997 -0.0022049719 0.004513816 0.025264593 -0.03327277 0.014260394 0.004953073
-0.017728658 0.0070733815 0.0490496 0.05886574 0.08981053 -0.07610208 -0.016432539 -0.013649331
-0.0043355757 0.05536325 0.06271077 -0.057770174 -0.08265046 -0.1071781 0.034015726 0.0070155137
0.018576354 0.029583748 0.035266094 0.031258687 0.06980319 0.040898662 0.0260577 0.02379229
0.047636308 0.04681331 -0.023419712 -0.0060229236 -0.03315901 -0.02245322 -0.04578189 -0.039890494
-0.01247685 -0.007756558 0.01790911 -0.023702554 0.021480342 0.005644317 0.015044355 0.024296617
0.029655395 -0.014665402 -0.053827547 -0.03506357 -0.017383194 0.015887892 -0.01216659 -0.008663891
0.0015388798 0.041847147 -0.014473046 -0.009051392 0.04134049 0.032801732 0.0048861764 -0.004521126
0.026199196 0.019080648 0.011895982 0.0015863328 0.050431184 0.016682047 -0.024967566 0.0037466162
-0.00045934162 -0.043158576 -0.039861053 0.002468524 0.040946238 -0.007512895 -0.022952951 -0.023420561
-0.012041024 -0.039778855 -0.019899098 -0.03781681 -0.07213946 -0.027109973 -0.047526293 -0.0014052596
0.014063243 0.06105036 -0.01606599 0.0076035643 0.025456937 0.012172141 0.013079292 0.009419508
-0.017260639 0.022417087 -0.024304308 0.042421225 0.002405006 0.038705513 0.05209562 -0.010225646
0.0020334346 0.0068724137 0.017602552 0.0030865087 0.00056168815 -0.036543597 0.0004349872 -0.00942852
0.026482223 -0.0021649199 0.011125212 0.03520545 0.011658231 -0.0064879046 -0.047026437 -0.010216614
-0.016119795 -0.0039892574 0.019486569 -0.042014237 -0.039983314 0.010720391 -0.012936997 -0.010705893
-0.03803207 -0.027406484 -0.011342427 -0.032521702 -0.0083607 -0.080974 -0.04051343 -0.016421316
-0.023859331 -0.020982293 0.010538731 -0.03867234 -0.018947372 -0.00022837194 -0.011337758 0.0044646678
-0.008554486 0.0127979545 0.09407907 0.009874478 -0.026803594 0.009677939 -0.01746673 0.028179813
0.06834162 0.037201434 0.011517444 -0.0060221204 -0.06952617 0.0058898698 0.018647486 -0.03749693
-0.040528756 -0.008610211 -0.043114 -0.004649459 0.01732454 -0.010079998 0.033590414 0.014168368
-0.017449334 -0.046684608 0.023122128 -0.03749194 -0.022625685 -0.014235608 -0.030468432 0.027480265
0.0492114 0.04950296 0.028067289 -0.0030783413 -0.027787264 -0.004138688 0.002975673 -0.007439856
0.024835028 -0.017327422 0.03590332 0.010032264 0.029717468 0.020538483 0.019112138 0.004385576
-0.019317498 -0.059967782 -0.034720138 -0.063691266 0.014937954 -0.0033090091 -0.030868918 -0.005055414
00000000: 9435 a23c d968 76bc fc5d b4bb 5b37 873d
00000010: 86bf 8f3b fbaf 1e3d 1e11 223c cab3 1cbc
00000020: 5505 003d b116 a2bb ecc5 8e3c c7d1 4f3b
00000030: ea94 31bc 5e2f 093d 3400 17bd a2a0 6b3c
00000040: 3572 983c b9a6 24bb 8803 8a3b 9b0c ad3c
00000050: 1cf9 cb3c db7d 413d 05d6 083c 72d6 ef3c
00000060: ae77 853d 5b0e f4bc b64a 683d 9af4 7a3c
00000070: a32d 9e3c 2955 0c3c 5c45 6d3c 72ee 61bc
00000080: bae3 5b3c d980 613c 2804 cabb 7fa7 9ebb
00000090: 7761 b83c 801d e2bc 08ed 8f3c 4d90 d1bc
000000a0: 80ee 9d3b 4cff f5bc bcce a2bc 9691 273d
000000b0: 55eb 19bd 0ceb ae3c 954e 663c 69dc ae3c
000000c0: 2f8c d4bb eb03 873c 2409 263d 5a29 d03c
000000d0: 50b1 e0bc 8008 903c 4a2f 293d bcbb 1b3c
000000e0: f3ab 6c3c 1188 173d 4a81 10bb a2e8 933b
000000f0: b1f7 ce3c 0749 08bd 6da4 693c 634d a23b
00000100: b13b 91bc d3c7 e73b 3ce8 483d 341d 713d
00000110: 95ee b73d 68db 9bbd 889d 86bc 72a1 5fbc
00000120: 7211 8ebb 93c4 623d 816e 803d 6ba0 6cbd
00000130: a544 a9bd 3180 dbbd 1354 0b3d 65e2 e53b
00000140: 702d 983c 9e59 f23c 2e73 103d 1c09 003d
00000150: faf4 8e3d 5b85 273d f576 d53c 0ce8 c23c
00000160: 4a1e 433d 50bf 3f3d b2da bfbc f25b c5bb
00000170: bed1 07bd d1ef b7bc cb85 3bbd 3764 23bd
00000180: b46b 4cbc b92a febb 20b6 923c dc2b c2bc
00000190: 8bf7 af3c f6f3 b83b 997c 763c b309 c73c
000001a0: dfef f23c 2747 70bc 467a 5cbd d19e 0fbd
000001b0: 3367 8ebc 5327 823c 6156 47bc fef2 0dbc
000001c0: 3db4 c93a ea67 2b3d 5b20 6dbc 4a4c 14bc
000001d0: a554 293d 1c5b 063d 381c a03b f425 94bb
000001e0: b29f d63c 054f 9c3c 5de7 423c 7fec cf3a
000001f0: ee90 4e3d caa8 883c c888 ccbc ca89 753b
00000200: cad3 f0b9 0cc7 30bd 5845 23bd f6c6 213b
00000210: 3eb7 273d bb2e f6bb d407 bcbc 7adc bfbc
00000220: b747 45bc 27ef 22bd 6f03 a3bc cde5 1abd
00000230: dabd 93bd bc15 debc eeaa 42bd b030 b8ba
00000240: 8469 663c f10f 7a3d d39c 83bc 5227 f93b
00000250: 118b d03c a96d 473c 874a 563c 4854 1a3c
00000260: 2f66 8dbc 0aa4 b73c d419 c7bc e1c1 2d3d
00000270: 4e9d 1d3b ac89 1e3d 3862 553d 7889 27bc
00000280: 5f43 053b fc31 e13b 3a33 903c 0647 4a3b
00000290: 413e 133a bdae 15bd fe0e e439 147a 1abc
000002a0: 3ff1 d83c 54e1 0dbb 8546 363c 9733 103d
000002b0: 2a02 3f3c 7d98 d4bb cb9e 40bd 9663 27bc
000002c0: a90d 84bc 51b8 82bb 4ca2 9f3c 1f17 2cbd
000002d0: 8bc5 23bd 94a4 2f3c b3f5 53bc c567 2fbc
000002e0: 84c7 1bbd 9083 e0bc 96d5 39bc 7a35 05bd
000002f0: 51fb 08bc b2d5 a5bd 69f1 25bd ff85 86bc
00000300: a574 c3bc 0fe3 abbc a4aa 2c3c e366 1ebd
00000310: 8537 9bbc 2077 6fb9 01c2 39bc 594c 923b
00000320: 1d28 0cbc 83ae 513c 87ac c03d 90c8 213c
00000330: 3693 dbbc 3890 1e3c 6316 8fbc 5ad9 e63c
00000340: b1f6 8b3d 8860 183d a9b3 3c3c 3555 c5bb
00000350: bd63 8ebd cfff c03b 9dc2 983c 6296 19bd
00000360: 7b01 26bd d811 0dbc 4e98 30bd 7d5a 98bb
00000370: 32ec 8d3c 9326 25bc 1a96 093d 7122 683c
00000380: e8f1 8ebc 5c38 3fbd 9e6a bd3c 2691 19bd
00000390: 8059 b9bc 783c 69bc ef98 f9bc 4b1e e13c
000003a0: e591 493d 9ec3 4a3d 5fed e53c ffbd 49bb
000003b0: 1ea2 e3bc d59d 87bb 8203 433b 09ca f3bb
000003c0: d472 cb3c 3df2 8dbc 5c0f 133d 5d5e 243c
000003d0: 0c72 f33c 5240 a83c 0f91 9c3c e1b4 8f3b
000003e0: bb3f 9ebc c7a0 75bd b436 0ebd 9170 82bd
000003f0: 52be 743c f6db 58bb d0e0 fcbc e3a7 a5bb

module.encoder.c3.0.bias f4 [32]
-1.6374986e-05 5.0092667e-06 -3.8804747e-06 -7.44806e-06 9.061464e-06 5.706642e-06 1.7897866e-05 -7.526612e-06
-1.0190553e-05 -1.0968166e-05 1.5769825e-05 -4.2722368e-06 2.6363311e-06 -1.6264173e-06 5.2905625e-06 5.802049e-06
-5.5615765e-06 3.1409643e-05 -6.4842807e-06 -4.1710414e-06 -9.058503e-06 9.702682e-06 1.1772265e-06 -2.4270745e-05
5.4756055e-07 1.4742661e-05 8.236794e-06 2.5050736e-06 1.6987775e-05 7.2546572e-06 2.569179e-06 -7.377325e-07
00000000: 045d 89b7 4615 a836 0635 82b6 59ea f9b6
00000010: b106 1837 ae7b bf36 6023 9637 1b8d fcb6
00000020: 18f8 2ab7 ea03 38b7 7149 8437 3c5a 8fb6
00000030: d3eb 3036 464b dab5 9685 b136 39af c236
00000040: 949d bab6 d9bd 0338 8c93 d9b6 f9f4 8bb6
00000050: f9f9 17b7 b4c8 2237 3201 9e35 0799 cbb7
00000060: 13fc 1235 3f57 7737 c330 0a37 d61c 2836
00000070: f880 8e37 086d f336 296a 2c36 9708 46b5

module.encoder.c3.1.weight f4 [32]
1.156799 1.1881716 1.0913757 1.1330183 1.0507605 1.1811857 1.0625832 1.161822
1.1851649 1.0357629 1.017926 1.0790905 1.1020088 1.099559 1.1013589 1.1866353
1.3506463 1.1508437 1.0974084 1.2617228 1.1778188 1.0890374 1.1110661 1.109892
1.2287395 1.2924148 1.1914163 1.1490567 1.1344365 1.0320861 1.1471099 1.0320902
00000000: fd11 943f 0216 983f 33b2 8b3f be06 913f
00000010: 527f 863f 1831 973f ba02 883f 95b6 943f
00000020: 7cb3 973f e193 843f 664b 823f a31f 8a3f
00000030: a00e 8d3f 59be 8c3f 54f9 8c3f aae3 973f
00000040: fae1 ac3f d94e 933f e177 8c3f 2280 a13f
00000050: c4c2 963f 9465 8b3f 6a37 8e3f f110 8e3f
00000060: 5647 9d3f d96d a53f 5480 983f 4a14 933f
00000070: 3735 913f 661b 843f 7fd4 923f 881b 843f

module.encoder.c3.1.bias f4 [32]
-0.014730455 0.16650866 -0.020954568 0.08867601 0.06733016 -0.014065037 -0.004754288 -0.0987809
-0.121350005 0.0668881 0.0015883569 0.094913766 -0.028442618 -0.022704985 0.16246139 -0.14457525
-0.09414093 0.052205186 0.10567901 -0.12166122 0.06536678 0.02048492 -0.091292016 -0.024902418
-0.08972518 0.08352073 -0.02069021 0.10548301 -0.10246941 0.024648655 -0.12100082 0.008952731
00000000: 0258 71bc 3f81 2a3e eaa8 abbc c59b b53d
00000010: 65e4 893d 0a71 66bc dcc9 9bbb a44d cabd
00000020: 5a86 f8bd a1fc 883d 6a30 d03a 2662 c23d
00000030: 7e00 e9bc ceff b9bc 475c 263e 890b 14be
00000040: f6cc c0bd 1bd5 553d 3d6e d83d 8529 f9bd
00000050: 05df 853d fecf a73c 4ff7 babd 2800 ccbc
00000060: d6c1 b7bd eb0c ab3d 847e a9bc 7a07 d83d
00000070: 7bdb d1bd faeb c93c 47cf f7bd 7aae 123c

module.encoder.c3.1.running_mean f4 [32]
0.37349266 -0.14204839 0.050400905 -0.10543425 -0.4275392 -0.46320271 -0.10337827 0.14055707
0.6025579 -0.309241 0.32649374 0.14076729 0.50024045 0.26442033 -0.1306119 -0.28569955
-0.06974302 0.0037010591 0.3931088 0.5971362 0.73823833 0.09182786 -0.19188607 -0.3932045
-0.5631458 0.31335345 -0.9516012 0.5169659 0.4636048 0.20736408 -0.40550768 -0.23276012
00000000: 6e3a bf3e 2275 11be 2e71 4e3d e9ed d7bd
00000010: 6be6 dabe e828 edbe fdb7 d3bd 31ee 0f3e
00000020: 3c41 1a3f d654 9ebe 302a a73e 4d25 103e
00000030: c20f 003f 1a62 873e 20bf 05be 3647 92be
00000040: 6ed5 8ebd 788d 723b 8e45 c93e ebdd 183f
00000050: 30fd 3c3f 3f10 bc3d c87d 44be 1a52 c9be
00000060: 532a 10bf dd6f a03e 239c 73bf e157 043f
00000070: 9c5d ed3e 4057 543e b49e cfbe ab58 6ebe
