logs/exp4/model_iters_38000.pth (torch, 495376 bytes, 47 tensors)

module.encoder.c1.main.0.weight f4 [32, 3, 3, 3]
000000 be 0e 03 3c 52 f8 58 3d 8a 05 45 bc 1e ba cb 3c
       0.00799912 0.05297119 -0.012025246 0.024869021
000010 b9 8d a2 3d a0 80 dc bc c9 f6 02 3d a6 f4 a8 3d
       0.07937188 -0.026916802 0.031973634 0.08249788
000020 2c 2c e2 3c 89 34 6c bb b7 c9 24 bc f2 92 00 bd
       0.027608953 -0.0036042056 -0.010057858 -0.031390138
000030 5c f1 28 3c 1e e8 43 3c d1 fb b1 3c 70 5a a7 3c
       0.010311451 0.0119571965 0.02172652 0.020428866
000040 fa 0e 91 ba 86 1f 61 3c e8 f6 c2 3a 8c f5 18 bd
       -0.0011067085 0.013740426 0.0014874609 -0.037343547
000050 6a 04 87 bc 23 65 aa 3d 4f 9c 02 3d a5 f3 18 bc
       -0.016481597 0.083200715 0.03188735 -0.009335433
000060 99 89 b0 bb 14 ad c3 3b 27 ef 17 bc 01 2b 19 bd
       -0.0053874967 0.0059715603 -0.009273327 -0.037394527
000070 5b 65 60 bd 77 17 9b 3c 92 02 06 bd d9 59 1b 3c
       -0.05478416 0.018932087 -0.032717295 0.009481871
000080 c8 22 8b bc 78 9d 3a bc 35 9f da 3d 10 67 04 3d
       -0.016984358 -0.011390083 0.106748976 0.03232485
000090 a4 9d 04 bc b1 e5 f9 3b 4f 9f d0 3c c3 1c a1 bc
       -0.008094225 0.0076262583 0.02546659 -0.019667035
0000a0 92 a8 28 bb 89 e7 b6 bb 75 19 06 3a c0 c8 bb 3c
       -0.0025735241 -0.0055818004 0.0005115488 0.022922873
0000b0 13 6b a3 3a 8a e0 0d bd 43 f1 dc 3c 9a 32 49 bd
       0.0012467824 -0.034637965 0.026970511 -0.049120523
0000c0 7f ea a1 3c bc f7 28 bd cd d3 b9 3b 4c 61 7a bb
       0.019765137 -0.041251883 0.0056710006 -0.0038204966
0000d0 c5 0c dd 3b d4 41 b9 39 c4 ec d1 3b 9f c1 0c bd
       0.006745907 0.00035334995 0.0064063985 -0.03436434
0000e0 ac fb 92 3c d5 4f 2b 3b c9 ed 80 bc ef 0a 80 3d
       0.017942272 0.0026140113 -0.015738385 0.062520854
0000f0 b2 ba 44 3d 2b ee fe 3c cd e2 39 3d b8 92 a8 3b
       0.04802961 0.031119427 0.04538231 0.0051444434
000100 4d c9 a3 3c 3b 27 df 3c c6 35 44 3b 75 24 63 3c
       0.019993449 0.027240386 0.0029939278 0.0138636725
000110 cb 23 fd bc 86 4a 97 3c 22 57 9f bc fe 4f 87 bc
       -0.030900856 0.018468153 -0.019450728 -0.016517635
000120 bf a4 9f bc 5c dc 94 bd 41 5b 44 bd 14 05 43 3c
       -0.019487737 -0.07268593 -0.04793859 0.011903066
000130 75 9c 41 3c c6 45 b0 3d 9c 30 f1 bc 27 6a dc 3c
       0.011817087 0.08607058 -0.029442124 0.026906086
000140 51 5e a3 3d 53 7a be bc 5e c1 f8 bc 83 5a f8 3b
       0.07976974 -0.023251688 -0.030365642 0.007579149
000150 2e ba ec 3c 0e 02 7b 3c 52 38 e1 bb 5f 41 95 3a
       0.028897371 0.015320314 -0.006873169 0.001138728
000160 d3 33 01 bb d7 0a 8e bc a0 3f d1 3c 60 13 0a 3c
       -0.0019714728 -0.017339153 0.025543034 0.008427471
000170 5c 0e 29 3d df 10 06 3d 81 0d 81 bc fb da 66 3c
       0.04127346 0.032730933 -0.01575351 0.014090295
000180 b7 b9 14 bc b0 4c 2b bd 75 7c 35 bd 4b 38 c3 3c
       -0.009077481 -0.04182118 -0.044308145 0.023830554
000190 9d 3b 10 bc 6a b3 5b bd 68 3c 57 3d df be a5 bd
       -0.008803275 -0.0536379 0.052547842 -0.080930464
0001a0 c5 26 ba bd ab 50 82 3b db 2d 5a bd fc 95 13 be
       -0.09089426 0.0039769015 -0.053266387 -0.14412683
0001b0 f7 03 df 3c b4 76 b5 3c 4f f9 22 3c 6b b3 b6 3d
       0.02722357 0.022151329 0.009947135 0.0892094
0001c0 0c 4d 82 bb b9 0f a6 ba ea e2 0e 3d 25 a6 f1 3b
       -0.00397647 -0.0012669481 0.03488437 0.0073745423
0001d0 77 a3 df bc b0 1c 95 3d df 44 f5 3a 6a 7f 25 3d
       -0.027299626 0.07280862 0.0018712542 0.040404715
0001e0 67 cf 91 3c ef ed 80 3b fe 1c 21 3c ea 3f d5 bc
       0.017799092 0.003934614 0.009833572 -0.026031453
0001f0 02 fc 5d 3c f7 db 64 bc 19 7a 89 bb e7 11 a7 3c
       0.013548853 -0.013968459 -0.0041954634 0.020394279
000200 23 48 bd bc bf 2a 79 3d 48 15 cf 3c f9 4e f2 bc
       -0.023105687 0.06083178 0.025278702 -0.029578673
000210 02 54 ae bd e3 13 9c bc d2 8c c8 bd e4 48 7c bc
       -0.08512117 -0.019052451 -0.09792484 -0.015398238
000220 49 82 9b bc b1 df 1c bd 03 a2 a6 bc d1 05 82 3c
       -0.018983023 -0.038299266 -0.020340925 0.015871914
000230 48 57 cb 3b 3c c5 83 bc b6 eb 85 3b dd 6c e9 3c
       0.006205473 -0.01608526 0.004086937 0.028494293
000240 b0 0a d3 3b d5 bb e0 bc de 7b bd bd ca 87 02 3d
       0.006440483 -0.027433315 -0.092521414 0.03186778
000250 6c ad 9e bc ce 66 e7 bb ac 04 55 3d bb 21 8c 3d
       -0.019369803 -0.007061816 0.05200641 0.06842371
000260 01 82 c0 bb cf b1 6a bc 81 e4 1e 3d 4d 4d bd bc
       -0.0058748727 -0.014324619 0.038792137 -0.023108149
000270 94 49 79 bc 6e 41 b0 bb eb d3 11 bb f9 40 35 bb
       -0.015215296 -0.0053788936 -0.0022251557 -0.0027657135
000280 d2 b0 2e 3d fb 90 16 bd f2 4b 6c bc 5f 78 98 3c
       0.042649098 -0.036759358 -0.014422404 0.018612085
000290 d8 3a de bb 6e 1b cb bc b1 fb 25 bd 9b 02 66 bd
       -0.006781917 -0.024793353 -0.040523235 -0.05615483
0002a0 b8 56 bb 3b b2 13 1f bc 8e 3c 48 bb bf c0 35 bc
       0.005717125 -0.009709286 -0.0030553672 -0.0110933175
0002b0 41 18 9a 3c 69 bb 6c 3c e9 b5 29 3d 1c e9 7d 3c
       0.018810393 0.014448979 0.04143325 0.015497472
0002c0 91 84 61 3c d6 ad 1c 3c a7 60 a1 3c b0 ea ad bc
       0.013764516 0.00956293 0.019699408 -0.021230072
0002d0 b4 12 44 bc 52 23 1e bc b0 29 be bc 4a 9c 07 bd
       -0.01196735 -0.009651976 -0.023213238 -0.033108033
0002e0 7f ae c5 bd 39 05 df 3c 42 87 4e bd 74 ed c1 bc
       -0.09652423 0.02722417 -0.05042196 -0.023672797
0002f0 35 e0 4a bd 2e c2 2e 3d 97 a9 8e bc 21 35 c4 3b
       -0.049530227 0.042665653 -0.017414851 0.005987779
000300 ac 32 25 3d 72 48 c1 bd 84 74 6f bc 3d be 03 3d
       0.040331528 -0.09437646 -0.014615182 0.032163847
000310 93 29 41 bc 2e ec 87 3c d3 a3 d9 bb ba 1c c4 ba
       -0.011789697 0.016592111 -0.006641844 -0.0014962174
000320 da 47 1e bc 39 33 c6 bb a7 1d 86 bd e5 26 7c bb
       -0.009660685 -0.0060485867 -0.065486245 -0.0038475331
000330 38 83 6e 3d f6 62 5d 3c 76 85 d3 3c a2 db 32 3d
       0.05823061 0.013512364 0.025820475 0.04366649
000340 ed c4 78 3d b1 1c 12 3b 40 bc b2 bc 7b a3 39 bb
       0.060734678 0.0022294933 -0.02181828 -0.0028326202
000350 a3 d6 cf 3c a5 89 3f bc bf 08 fc bc 04 3c 09 bc
       0.025370901 -0.011690532 -0.03076589 -0.008376125
000360 26 0d 23 bc 6d 49 dd 3c c7 0f 16 3d 96 d3 c2 3c
       -0.009951865 0.027012551 0.03663614 0.023782533
000370 00 df a3 3b 53 71 06 bc 45 65 ec bc b0 e7 7d 3c
       0.005000949 -0.00820573 -0.028856883 0.015497133
000380 8c 9e 11 bd 3e 47 a3 bb f3 81 0b 3c c4 e5 06 3d
       -0.035551593 -0.004982858 0.008514869 0.032933965
000390 7e 7a 10 3d 65 9d de 3c ac 8f ae bc 7e 02 8c bc
       0.035273068 0.027174661 -0.021308742 -0.017091032
0003a0 81 61 20 3d 00 a8 6a bb 65 a4 a7 bd 42 5f 4d bd
       0.039155487 -0.0035805702 -0.08185653 -0.050139673
0003b0 a0 3c eb bd ca cd cf bd fc 4f e1 bd d2 ec f4 bd
       -0.11486173 -0.10146673 -0.11001584 -0.119592324
0003c0 44 ad 7e bc 7c 73 1d 3b 65 2b aa 3c 07 45 b2 bc
       -0.015544239 0.0024025133 0.020772645 -0.02176143
0003d0 66 02 17 bd b4 40 97 bc 8e 69 66 3c 0a b8 cd 3c
       -0.03686752 -0.01846347 0.014063252 0.02511217
0003e0 f9 37 a8 3c 7c 7e 37 bd 52 f5 ac bb a4 05 f7 bc
       0.020534502 -0.04479836 -0.005278268 -0.030154057
0003f0 8d b2 37 bc 75 92 b9 3b 9c d3 dd 3a fb d7 e4 3c
       -0.011212003 0.005663211 0.0016924026 0.027935019

module.encoder.c1.main.0.bias f4 [32]
000000 e1 8e 66 ba 9d fa 77 3b a1 c8 fa ba c3 cc c1 3a
       -0.00087950943 0.0037838586 -0.0019133278 0.0014785755
000010 59 0a b4 ba 07 c0 e3 b7 2a 8a 9d 39 96 a3 ce ba
       -0.0013735994 -2.7149928e-05 0.00030048314 -0.0015765305
000020 8d 65 2b 3b f2 4a 22 bb 4d a0 da b9 fb 46 fa bb
       0.0026153058 -0.002476391 -0.00041699634 -0.007637856
000030 b2 8c 75 ba 7a 4e e3 b9 d8 1b 76 3b 2b ba 84 bb
       -0.00093669735 -0.00043355284 0.0037553217 -0.0040505133
000040 33 00 1c ba 32 74 b9 b7 c8 59 ad bb 33 b4 f3 3a
       -0.00059509574 -2.2107826e-05 -0.005290244 0.0018593132
000050 99 1d 32 ba 6b 84 c1 3b 81 2d 25 bb 6b 91 95 b8
       -0.00067945715 0.005905678 -0.0025204124 -7.13196e-05
000060 cb 09 a2 b9 1a be 0a ba c6 6e 8a 3a 8e a1 d3 bb
       -0.00030906344 -0.00052926096 0.0010561578 -0.006458468
000070 8b e5 73 bb 94 b3 be 3b a9 a0 4d 3b fd 5d 4c bb
       -0.0037215676 0.005819747 0.0031376278 -0.003118395

module.encoder.c1.main.1.weight f4 [32]
000000 6d 6a 78 3f 0c da 7a 3f 59 5d 79 3f 9b a6 7f 3f
       0.9703739 0.97988963 0.9740806 0.99863595
000010 4a 57 80 3f 8f c7 85 3f 87 00 7b 3f d1 fa 8a 3f
       1.0026639 1.0451525 0.9804768 1.0857793
000020 33 14 81 3f 1c 29 81 3f 00 1d 7b 3f b2 7e 75 3f
       1.0084289 1.009067 0.98091125 0.95896447
000030 b5 b3 85 3f 45 5a 66 3f 2e d0 85 3f e1 13 83 3f
       1.0445467 0.8998149 1.0454156 1.0240442
000040 85 b7 75 3f 92 e5 80 3f 1e dc 7f 3f 77 24 77 3f
       0.95983154 1.0070059 0.9994525 0.96540016
000050 c1 fb 7b 3f 18 5c 86 3f ba c0 80 3f f6 25 6d 3f
       0.9843102 1.0496855 1.0058815 0.9263605
000060 27 c2 80 3f f9 71 72 3f 03 fe 87 3f 10 7d 82 3f
       1.005925 0.9470516 1.0624393 1.0194416
000070 62 63 77 3f 9e f6 79 3f 9e 93 7c 3f 2e 8b 85 3f
       0.9663602 0.9764193 0.98662746 1.0433099

module.encoder.c1.main.1.bias f4 [32]
000000 b6 5f 73 bd d9 e4 e6 bd 4c dc 0f be 94 72 34 bd
       -0.05941745 -0.11274118 -0.1404888 -0.044054583
000010 fa 35 ee bd 3c 4b 99 3c 24 94 51 bd 88 89 3f bd
       -0.11631389 0.018712632 -0.05116667 -0.04676202
000020 6c bc 04 be 2c 3a 2e be 4d c4 28 bd 54 02 43 3d
       -0.12962502 -0.17014378 -0.041202832 0.047609642
000030 70 ca 07 bd 06 67 f3 bc 1b c8 3c bd c2 62 fe bb
       -0.033152044 -0.029712211 -0.046089273 -0.0077632377
000040 f6 38 be bc c1 20 bf 3c 88 b0 53 bc 38 d1 4c bc
       -0.02322052 0.023331048 -0.012920506 -0.0125010535
000050 fe 43 8d bd dc d0 8d 3c a3 85 1f 3c d2 9d 56 bd
       -0.06897734 0.017311506 0.009736451 -0.052396603
000060 81 9c 86 bc 8f c6 6d bd 40 cd 13 bc 0b 43 b3 bd
       -0.016432049 -0.05805069 -0.009021103 -0.08753022
000070 70 83 b0 bd be 08 14 be d7 bc 29 bd 46 02 8e bc
       -0.0861882 -0.1445646 -0.041439857 -0.017335068

module.encoder.c1.main.3.weight f4 [32, 32, 3, 3]
000000 f1 a0 9d 3c 78 3d d2 bc 7a 1e 86 bd b3 cf 7e 3c
       0.019241782 -0.025664076 -0.06548782 0.015552449
000010 ee 79 e4 bc bd 35 aa bc 37 4e 83 3d 41 d9 77 ba
       -0.027890172 -0.020777578 0.06411403 -0.00094546756
000020 68 da 99 bd 30 c7 55 3c 7b 4e 5b 3d 38 4c e5 3c
       -0.07512361 0.013047978 0.05354164 0.027990445
000030 90 8a 5e bb e2 e5 35 3d f3 a5 9f bc 4b 89 1f bc
       -0.0033957101 0.044408686 -0.01948831 -0.009737323
000040 bd e6 6e 3a b9 da 3d bc ca 2e 8e bd 0f 66 1f bd
       0.0009113362 -0.011587792 -0.06942518 -0.03891569
000050 ab cb b4 3b 40 eb 40 bd f6 d0 b0 bb 78 af 04 3c
       0.005517443 -0.047099352 -0.005396004 0.008098476
000060 24 ea c8 bb 7e 74 2f bd 1c 3d 88 3c 68 ee c5 3a
       -0.0061314274 -0.042835705 0.016630702 0.0015100958
000070 e2 f0 8a 39 9a af 35 3c fb 99 4d bd 2a 16 7d bd
       0.00026500883 0.01108923 -0.050195675 -0.061788715
000080 e7 d3 a3 3c 06 c6 58 bc 70 e3 db 3a 80 ad ac ba
       0.019998504 -0.013230806 0.0016776156 -0.0013174266
000090 6c 62 3a 3d a7 e8 33 ba de 26 17 bc 80 f3 bb 3c
       0.04550402 -0.0006862976 -0.009225575 0.022943258
0000a0 1f 12 8f bc 89 eb e4 ba 8f 59 91 3c f9 fd 42 ba
       -0.017464695 -0.0017465214 0.0177429 -0.00074383576
0000b0 9d 45 29 bc 09 3c 78 bc 6b 7f 32 3d ab 17 00 3d
       -0.0103315385 -0.015151032 0.043578546 0.03127257
0000c0 a3 1b 24 3d 96 5c 1b 3d bc 0f 28 bd 59 97 52 bd
       0.04006542 0.037930094 -0.04103063 -0.051413868
0000d0 14 6f 29 bc 78 88 ba 3c c9 35 d4 bb 98 ba 67 3b
       -0.0103414245 0.022770151 -0.0064761383 0.0035359021
0000e0 ae 20 16 3d ea 23 66 bb ec 15 65 3c ec b1 cb 39
       0.03665226 -0.0035116621 0.013982277 0.0003885174
0000f0 26 50 22 3d 2f 4b 62 3c 8a 7f ee 3c 6c 7f d9 3c
       0.039627217 0.0138118705 0.02911355 0.026550017
000100 b1 9f 82 3d c9 fb 81 3d 40 0a 8c bd f6 7d ba bb
       0.06378115 0.06346852 -0.068378925 -0.0056912852
000110 ec 0c e9 bd ab a8 56 bd d7 92 e9 3b 71 48 94 3c
       -0.11379418 -0.052406948 0.0071281004 0.018100949
000120 d3 28 38 3c e9 6a 04 3c d7 7d fb 3b ec 1c fc 3c
       0.011240202 0.00808213 0.0076749134 0.03077551
000130 6b 74 3c bc 9a 52 39 b9 04 ce b5 bc fe da e0 3b
       -0.011502366 -0.00017673746 -0.022192962 0.0068620434
000140 a5 c0 f4 ba 43 39 7c 3c ff 7c 2a 3d e6 86 1a 3d
       -0.0018673135 0.015394512 0.04162311 0.037726305
000150 7f f0 c8 3c 39 7e b7 bb 4f a2 ce 3c 92 27 f4 b9
       0.02452874 -0.0055997637 0.02522388 -0.0004656879
000160 d8 26 3d bc 99 8e b9 3b 44 7a 63 bd 50 31 16 3c
       -0.011544906 0.005662751 -0.055536523 0.00916703
000170 6d 96 28 3b 4b dc d4 bc a5 c5 02 bd 9d 85 03 3b
       0.0025724426 -0.02598395 -0.03192677 0.0020068653
000180 b1 0a e0 bc 9d 70 36 bc 62 57 b3 3b 59 1b 08 bc
       -0.027348848 -0.011135248 0.0054730633 -0.008307301
000190 1a 05 31 3c 69 8e 21 3d a9 b7 84 3c 68 f8 d9 bb
       0.010804439 0.039442454 0.016200857 -0.006651927
0001a0 de a8 a8 ba 46 77 cc 3b 84 79 e3 bc 08 31 4e bc
       -0.0012867709 0.0062398044 -0.027767904 -0.012584932
0001b0 a8 73 08 bc 20 89 30 bd be 6f 91 3c 95 ee 94 3d
       -0.008328356 -0.043099523 0.017753478 0.072720684
0001c0 69 c0 7a 3c f6 2e c1 bb 7d 35 65 bd 1c be 93 bd
       0.015304663 -0.0058954908 -0.055959214 -0.07213995
0001d0 83 f5 a1 bd 05 fd f6 3b 85 a0 35 3d 47 29 97 3c
       -0.07908156 0.0075374865 0.044342536 0.0184523
0001e0 28 30 16 3c b5 99 bb 3b 90 2b c7 bb a3 43 46 3b
       0.009166755 0.0057251104 -0.006078191 0.0030252717
0001f0 51 db e8 ba 50 a7 5c 3c 42 5f 16 3c f1 6c ca 3c
       -0.0017765557 0.013467625 0.009177985 0.02471015
000200 ae 44 3f 3c 44 52 4d bd a6 60 03 bb d4 1b 55 bd
       0.011674089 -0.050127283 -0.002004662 -0.052028492
000210 14 1d 88 bd 56 65 25 bd 98 87 ad bd 85 1c a6 3c
       -0.06646171 -0.040379845 -0.08473128 0.020277271
000220 13 ea 1f bd 5c a8 b9 3c 1b 5d 80 bb 16 91 9c bc
       -0.03904159 0.022663288 -0.003917349 -0.019112151
000230 55 b3 87 bd d3 39 b0 ba 5b 83 96 bc 0d 35 0e bd
       -0.06626002 -0.0013444967 -0.018373182 -0.034718562
000240 0e 40 16 bd 66 3a 62 bd 2e db 12 bd 0f 82 f5 3c
       -0.03668218 -0.055231474 -0.035853557 0.029969243
000250 a5 0a a7 3c ba 33 d4 3c 0b fe c8 3a 5d ba a4 bc
       0.020390818 0.025903571 0.00153345 -0.020108396
000260 91 6d 8a bc 65 1c da 3c 55 9f a5 3c d6 a8 19 3c
       -0.016897948 0.026624868 0.020217577 0.0093786325
000270 a6 72 25 3a 52 63 dc 3c d0 a8 d2 3c 13 2a 15 bd
       0.00063113344 0.026902828 0.025715262 -0.03641708
000280 0a 47 2d bd 70 d8 90 bd 5f 01 d2 bc 52 e8 08 3c
       -0.042304076 -0.07072532 -0.02563542 0.008356171
000290 be 78 25 bd 29 b3 c5 3b 56 ce 0e bb 5b 06 76 3c
       -0.04039835 0.0060333204 -0.0021790466 0.015016164
0002a0 37 58 20 3d 93 9e 28 3c e5 e1 d5 3c 86 70 67 3b
       0.03914663 0.010291713 0.026108691 0.0035314872
0002b0 b1 95 ea bc e8 aa bf bc 4a c5 63 bd b6 c2 16 ba
       -0.028635832 -0.023396924 -0.05560807 -0.000575106
0002c0 df c5 e6 bb 1f f3 2d bd 09 ae 8b bc c1 ab 0d bb
       -0.007042631 -0.042468186 -0.01705076 -0.0021617266
0002d0 cc 1a 23 bd 47 9b a5 bc 52 13 32 bd 4d 76 66 ba
       -0.039820477 -0.020215644 -0.043475457 -0.0008791432
0002e0 bf 61 2f 3c 93 1d 09 3b f9 6a 16 bc 26 8c 64 bd
       0.010704457 0.0020922169 -0.009180778 -0.05579772
0002f0 70 d6 23 3c ef f4 86 3b 9b d9 0e 3d 51 61 ef bc
       0.009999856 0.004118554 0.034875493 -0.029221209
000300 d3 8f b3 bc 8a 98 90 3b a5 56 55 3d 65 75 aa 3b
       -0.021919167 0.0044127153 0.052084584 0.005201983
000310 ef 70 4f bd 52 eb 0e 3b 71 2f 53 3d c0 14 fc bc
       -0.05064481 0.0021807742 0.051558916 -0.030771613
000320 cf a0 25 bd f1 c4 7b 3d df 12 8d bc a4 c6 a0 bd
       -0.040436562 0.061467115 -0.017220913 -0.07850388
000330 6b 2f d8 bc 74 b8 50 bd 0d 16 21 bd f2 8d 23 bd
       -0.026389798 -0.05095716 -0.03932767 -0.03993029
000340 2b e9 e0 3a f5 8c 28 3a 34 be c9 bc 5d 40 9a 3a
       0.0017159333 0.00064296956 -0.024626829 0.0011768449
000350 9d eb 82 bb 47 fc e3 3b 51 b2 b4 bb a9 4a ee bc
       -0.0039953724 0.006957564 -0.005514421 -0.029088335
000360 4e 49 16 3d 39 cd 01 3d 27 92 5b bc a6 f2 9a bc
       0.036691003 0.031689856 -0.013401545 -0.018914532
000370 77 50 80 3b 9b c3 86 bc fc e9 2d 3c 27 2c 1f bc
       0.003915842 -0.016450694 0.010614868 -0.009715117
000380 58 06 cf 3c 97 2e 8d bc ef 0c 20 3d e4 d4 8c 3c
       0.02527158 -0.01723413 0.039074834 0.017191358
000390 b3 3e df bc d0 2c a6 bc a3 36 3c bd 96 40 79 3b
       -0.027251577 -0.02028504 -0.045950543 0.003803288
0003a0 27 c0 b0 bb c1 2c 5a bc a4 d4 02 3d a5 19 3d bd
       -0.005394 -0.013316334 0.03194107 -0.046167035
0003b0 0b a1 c4 3c 1d 73 92 bc 92 18 93 bc 2b 7b 2d bd
       0.024002573 -0.017877156 -0.017956052 -0.04235379
0003c0 f0 6d 11 3d 29 89 1d 3d 58 00 00 3d 8f d6 bd bc
       0.035505235 0.038460884 0.031250328 -0.023173599
0003d0 5d c5 5b bd be e6 70 bb 73 05 33 3b 34 07 35 bd
       -0.053655017 -0.0036758627 0.002731648 -0.044196323
0003e0 d2 af 4a 3c cb 9c 3e 3c ad 10 5c bc 11 24 c3 bb
       0.01237102 0.011634062 -0.01343171 -0.005955227
0003f0 f1 c1 64 bc a9 3e 9f 3c 02 1d 55 3c 32 6c 6b 3c
       -0.013962255 0.019439058 0.013007404 0.0143690575

module.encoder.c1.main.3.bias f4 [32]
000000 a5 a0 79 b9 35 41 8b 37 4d de a7 37 1e 7a 34 b9
       -0.00023806335 1.6600456e-05 2.0011468e-05 -0.0001721163
000010 30 36 63 b8 8e 12 3f 38 64 1b 54 39 24 c0 86 b9
       -5.4171483e-05 4.555523e-05 0.000202281 -0.00025701628
000020 8f 69 d8 37 38 7a 56 39 a1 93 54 38 0c 93 97 b9
       2.5798361e-05 0.0002045416 5.068223e-05 -0.00028910523
000030 dd 6e 92 b8 ac f9 83 b8 25 d3 42 39 9e 38 05 38
       -6.9824724e-05 -6.293072e-05 0.00018579939 3.17624e-05
000040 89 b5 84 ba aa 3d 4e 3a 7b b9 e9 38 6d 27 63 b8
       -0.0010124902 0.0007867465 0.00011144854 -5.4157736e-05
000050 09 a4 2b b8 f5 ff 2e 3a 96 50 d5 b9 00 80 38 39
       -4.0922347e-05 0.0006675714 -0.00040686567 0.00017595291
000060 6e 33 7c 34 3b a2 22 38 29 21 5b 38 35 bf 8b b7
       2.3488039e-07 3.87749e-05 5.224455e-05 -1.6659129e-05
000070 a9 55 f0 36 4b 66 85 b8 df 33 3b b7 4e be 02 39
       7.1625295e-06 -6.360988e-05 -1.1158146e-05 0.0001246866

module.encoder.c1.main.4.weight f4 [32]
000000 18 54 70 3f 92 b0 7a 3f 34 31 75 3f 45 6e 76 3f
       0.93878317 0.97925675 0.95778203 0.9626201
000010 87 e8 73 3f 58 00 7e 3f 6c 55 7d 3f 1b cc 6e 3f
       0.95276684 0.99219275 0.9895847 0.9328019
000020 bb 11 76 3f 8f d3 7d 3f 09 69 6e 3f 16 68 7f 3f
       0.96120805 0.9915094 0.9312902 0.997682
000030 c8 13 76 3f 98 1d 75 3f eb 7b 80 3f c2 4c 6f 3f
       0.96123934 0.9574828 1.0037817 0.934765
000040 4b d2 7d 3f 23 16 79 3f e6 56 78 3f 54 66 79 3f
       0.99149007 0.972994 0.97007596 0.97421765
000050 30 e1 6f 3f 0f 61 79 3f f1 a1 83 3f dc 23 78 3f
       0.93702984 0.97413725 1.0283796 0.9692972
000060 4e f1 73 3f 91 a5 7c 3f 0b 00 71 3f c1 20 72 3f
       0.95290077 0.98690134 0.9414069 0.9458123
000070 e1 f6 79 3f 80 e8 6e 3f fb 37 6a 3f 55 c0 77 3f
       0.9764233 0.93323517 0.9149167 0.9677785

module.encoder.c1.main.4.bias f4 [32]
000000 4d 05 5e 3c 61 fd 4f bb 5d dd 9b bc c7 5f 65 bd
       0.0135510685 -0.003173672 -0.019026453 -0.055999544
000010 06 b0 e1 3b f4 c5 91 bb 40 3a 47 bd d0 46 d3 bd
       0.0068874387 -0.0044486467 -0.048639536 -0.10316241
000020 3a 29 3f bc 74 56 62 bd f9 40 a8 bd 7a 1f 63 bd
       -0.011667544 -0.05525823 -0.082155176 -0.05544994
000030 86 a6 ca bd 1c 0a ed bd 1b f7 c4 bc 6e 24 90 bb
       -0.09895043 -0.11574194 -0.02404361 -0.004398874
000040 07 95 a0 bd ba 8b 97 3c 04 fb bb bd 10 1b 60 bd
       -0.07840925 0.018499244 -0.09178737 -0.05471331
000050 7f 72 70 bd 32 44 57 bd 3b cb 1d be 8c f3 a9 bb
       -0.058702942 -0.05255527 -0.15409558 -0.0051865038
000060 fd 88 8f 3c b2 32 45 bd c6 a3 8d 3b 25 b9 ba bd
       0.017521376 -0.04814405 0.004322502 -0.09117345
000070 ec 3f ac bd 0a 7f 00 be ab 71 c5 bd 37 6d c5 bd
       -0.0841063 -0.12548462 -0.09640821 -0.09639972

module.encoder.c2.main.0.weight f4 [64, 32, 3, 3]
000000 54 dd bb bb 1d 8d 80 bc 34 5c 4f 3c 19 9a 64 3a
       -0.0057331715 -0.015692288 0.01265626 0.0008720472
000010 d4 44 3d bd 8f 1e 67 bc 38 39 d0 bb 51 ed 42 3d
       -0.046208218 -0.014106407 -0.0063544773 0.047589604
000020 d1 48 9d 3c 24 28 3b 3d 6f 74 72 3c 69 8e e3 3a
       0.01919976 0.045692578 0.014798268 0.0017361167
000030 cd ab 68 bc f5 b5 01 bd da e3 e1 bc f6 0a d6 3b
       -0.014201117 -0.03166767 -0.027574468 0.0065320684
000040 a5 a1 67 bb 10 54 6d bc ff a8 90 bc 1e d5 16 bc
       -0.003534415 -0.014485374 -0.017658709 -0.009206085
000050 2a 93 55 bc c8 78 7a bd 8b 74 fb bc 44 78 22 bd
       -0.013035575 -0.061150342 -0.03069522 -0.039665475
000060 70 38 ca bc 65 f2 82 3c a8 39 28 bc 04 bd 1b bd
       -0.024685115 0.015984723 -0.010267653 -0.038022056
000070 03 6b 91 3c 77 3b 3e 3b c0 8a 9d bb 65 b4 7c bd
       0.017751222 0.0029027143 -0.0048078 -0.061695475
000080 d8 a4 1a bd 7f af a6 3c 1d d1 31 3d 1d a3 81 bc
       -0.037754864 0.020347355 0.043412317 -0.015824849
000090 aa c6 2b bd 68 5f bd bb b3 8d 52 3c 07 a8 9e bd
       -0.041937508 -0.0057791956 0.012851167 -0.077468924
0000a0 77 9d d3 bc 01 92 c9 3b 83 c4 bb bd 79 ad 14 bc
       -0.025831921 0.006151438 -0.09168341 -0.009074562
0000b0 40 59 1b bc a1 bd 91 3a 25 8c b7 bc 55 56 06 bd
       -0.009481728 0.0011119136 -0.022405693 -0.032797176
0000c0 dc 4e dd bc 9f 65 4c 3b f7 0e 01 3c 0f ce ce bc
       -0.027015142 0.00311885 0.007877103 -0.02524474
0000d0 6e ee ea 3c f7 45 7c bc 06 87 f7 3b 09 ee bd bc
       0.028678145 -0.01539754 0.007553938 -0.023184793
0000e0 db 75 6d bc 1d e6 6e bc 6d 18 b3 bc 70 42 85 bb
       -0.014493431 -0.0145812305 -0.021862233 -0.004066758
0000f0 7e 92 24 bd f0 09 6e bd 4d b4 0e bc e3 8a e0 3c
       -0.04017877 -0.058114946 -0.008709979 0.027409976
000100 cb ec 16 bd 77 33 27 bc aa ca 50 bd 70 c8 65 bc
       -0.036846917 -0.010205141 -0.050974526 -0.014024839
000110 35 cb b1 3c d6 8e e6 3c 80 58 bf 3d 90 d8 1a 3d
       0.021703342 0.028144281 0.09343052 0.037804186
000120 f7 c8 ee bc 28 8e 8b bd 8e 5a 9e 3a ff a5 27 3d
       -0.029148562 -0.068142235 0.0012081431 0.04092979
000130 71 c0 8f bc 2f 5c a3 bc 34 00 4e 3d c6 e7 08 3d
       -0.017547818 -0.019941418 0.050293162 0.03342416
000140 2c 19 21 3d 0a e5 8c 3d 0e 17 59 3d 96 19 73 3d
       0.039330646 0.06879623 0.053000502 0.059350573
000150 ba 12 36 bc 17 3d 17 bd 1a 03 d1 3c 29 4f 0d bd
       -0.011112863 -0.036923494 0.025514174 -0.03449932
000160 21 2c 24 bd d0 ba 74 3c bb 2a 80 bd 7a ab cf bd
       -0.040081147 0.014937118 -0.0625815 -0.101401284
000170 84 79 b8 bc 1f 3a 6a 3d b0 15 a1 bb f2 0c 87 3c
       -0.02251888 0.057184335 -0.0049159154 0.016485665
000180 43 00 37 3d ff 99 e6 3a 10 aa e5 bb 03 75 14 3b
       0.044677984 0.0017593502 -0.0070087984 0.0022652752
000190 df d4 b8 3c d2 34 36 bd d5 98 e2 3b 2d 31 59 3a
       0.022562442 -0.044483967 0.0069151917 0.0008285221
0001a0 0e 57 0c bd a3 cd 2a bd 2c 05 1e bd b7 1b 0e bd
       -0.03426271 -0.041700017 -0.03857915 -0.0346944
0001b0 49 ac 4d 3d 9c 05 2a 3d e1 9d 87 3d 52 14 f3 3b
       0.050213132 0.041509256 0.0662191 0.007418194
0001c0 b6 e0 04 bd 9d 7b b1 ba 95 a8 31 3d 87 72 17 3c
       -0.032440864 -0.0013540868 0.043373663 0.009243614
0001d0 3a 45 e9 3c c8 44 aa bc 3b 70 10 bd 0f fc 82 bc
       0.028475393 -0.02078475 -0.03526328 -0.015989332
0001e0 9f f4 1b 3c 96 99 26 bd f8 fa 1f 3d 1b 7c 01 3d
       0.009518771 -0.040673815 0.0390577 0.031612497
0001f0 3f 78 17 3d 92 e0 87 3d 19 66 ec bd 7b 4b 6f bd
       0.03697991 0.0663463 -0.11542911 -0.058421593
000200 97 fe 07 bd 73 3a 4e bd de ca 83 bc 10 1f fb 3c
       -0.03320178 -0.05034871 -0.016087946 0.03065446
000210 6f da 18 bb 6f b0 63 bc c6 51 48 bd de 7f 82 3c
       -0.0023323556 -0.0138970455 -0.04890611 0.015930112
000220 a4 c4 63 bd fe d3 cf bb b3 32 9b bb c0 94 83 bb
       -0.055607453 -0.00634241 -0.0047362684 -0.004015535
000230 72 1a 28 bd e4 f1 b9 3b be c6 d1 3c 32 f5 02 bd
       -0.041040845 0.0056745876 0.025607463 -0.031972118
000240 d0 4f 48 bc dd b7 19 bd ab 19 15 bc 8b ff d2 3c
       -0.01222606 -0.03752886 -0.009100358 0.025756618
000250 21 9b c0 bc 9b 75 bd 3c 6d 49 73 3c 21 e1 18 bd
       -0.023511471 0.023127368 0.014849049 -0.037324075
000260 9f 19 2e bd 67 04 b9 bc 67 37 6e 3c 20 f1 65 3c
       -0.042504903 -0.022585107 0.014539576 0.014034539
000270 25 76 76 bc 50 37 81 3c 29 df 81 bd 2b 57 06 bd
       -0.015042816 0.015773445 -0.063413925 -0.032797974
000280 e4 05 0d 3d 50 2a 94 3c 92 4f a8 3c 96 5f 2e 3b
       0.034429446 0.018086582 0.020545755 0.0026607267
000290 5a 21 90 3c 52 ba 63 bd 5d fc 2d bd eb 25 61 39
       0.017594028 -0.05559761 -0.042477 0.00021471798
0002a0 6d cd 02 3c bd 68 95 bb 29 85 8c bd 0c 45 0f 3c
       0.007983548 -0.004559605 -0.06861336 0.008744489
0002b0 c4 98 2d bb bb 90 ef bc 5f 14 5c 3c 4f bd 0a bd
       -0.002648876 -0.029243818 0.013432591 -0.033871945
0002c0 9e 21 b3 bc 4e 1a 04 3d 9c 3b f7 bc b5 e8 fd b9
       -0.021866616 0.03225165 -0.030179791 -0.000484293
0002d0 f8 a0 4e 3d 84 a0 f7 bb 5a 67 82 3c 1e 6c 30 bc
       0.05044648 -0.0075569768 0.015918422 -0.010767965
0002e0 35 d0 c8 3c f3 ce 45 bb 47 e0 90 bb e7 47 02 3d
       0.024513343 -0.0030183166 -0.004421267 0.031806853
0002f0 88 0d 08 bc c2 66 7d 3d 01 26 ba 3b a8 5d 89 3c
       -0.008304007 0.061865576 0.0056808 0.016768292
000300 bc d4 1a 3d a7 f9 90 bd 93 7b 9c bb 02 47 76 bd
       0.037800536 -0.070788674 -0.0047754734 -0.060126312
000310 63 4b d4 bc 24 4c 87 bc ed 06 fd 3c 68 12 eb bc
       -0.025914853 -0.016515799 0.030887092 -0.0286953
000320 a3 32 1f bd bf fc a8 3b 9e 81 ce 3c 35 01 cd bc
       -0.03886665 0.005157083 0.02520829 -0.02502499
000330 b6 26 56 bd da d0 0b bd 8f e5 49 bd 7f ad bc bc
       -0.05228301 -0.034134723 -0.04929119 -0.023031948
000340 6c d9 af bd 14 91 8d 3c 00 42 fa bb 03 70 b3 bc
       -0.08586392 0.017281093 -0.0076372623 -0.021903997
000350 f7 8b 71 3c 4e 45 86 3d b1 8e e8 3b db 6c c1 3d
       0.014742843 0.065561876 0.0070970883 0.09444591
000360 6d db 84 bc 88 44 0e 3d 31 81 11 bd 73 0d 42 3c
       -0.016217912 0.034733325 -0.035523597 0.011844027
000370 d3 27 39 3d 52 21 01 bd 1b 79 12 bc 81 12 b3 3c
       0.045203995 -0.031525917 -0.008940007 0.02185941
000380 1a 9d e6 bc 6f 80 41 bd 5a 11 51 3c ab 15 f8 bc
       -0.028151084 -0.047241624 0.012760485 -0.03028377
000390 a7 d9 c8 bc d7 3b 70 bd 90 b3 87 bc ac 05 33 3d
       -0.024517847 -0.058650818 -0.016565114 0.04370658
0003a0 27 e2 6d 3d cd 4e e6 3c a3 24 86 bb 49 9a 32 3d
       0.058077004 0.028113747 -0.004093723 0.04360417
0003b0 f5 6c 10 bb 63 c9 ed 3c 6c a5 7b bc da 6b 46 3d
       -0.00220376 0.029026693 -0.015359264 0.0484427
0003c0 36 95 40 bd d7 08 de 3c 30 c7 02 bc 98 63 74 bc
       -0.0470173 0.027103825 -0.00798206 -0.014916323
0003d0 07 11 7d bb 8c cc 53 3d 8e 86 34 bd 1f c5 ca bb
       -0.0038614885 0.051708743 -0.044073634 -0.0061880494
0003e0 ee 96 68 bd 1f e2 c8 3c 97 3d b8 3c 3c f3 1c 3d
       -0.056784563 0.024521885 0.022490306 0.038317904
0003f0 08 94 bb bc 83 61 bd 3c 5a 3e a1 bc e5 86 9a 3c
       -0.022897735 0.023117786 -0.019683052 0.01886315

module.encoder.c2.main.0.bias f4 [64]
000000 c2 46 04 38 66 6a 40 38 e0 e8 80 37 2f 34 9a b7
       3.153715e-05 4.587546e-05 1.536723e-05 -1.838253e-05
000010 95 4d 10 38 ad 1f 03 38 7d b0 10 39 a3 05 f1 38
       3.440453e-05 3.1262334e-05 0.00013798657 0.000114928254
000020 68 14 1a b8 b6 0d 1c 39 dc b2 86 38 d1 91 59 38
       -3.6735466e-05 0.00014882427 6.422933e-05 5.1872634e-05
000030 f1 a4 14 37 44 3e c4 38 cf cc 23 38 b4 da 8f 38
       8.859891e-06 9.357606e-05 3.905297e-05 6.859508e-05
000040 15 56 8f b7 ce 73 1f b8 d2 58 0f b8 71 c5 5b 38
       -1.7087013e-05 -3.8016406e-05 -3.4176577e-05 5.239755e-05
000050 db 11 dd b7 0c 1d 65 38 46 e4 c8 38 09 a6 8b 38
       -2.6353568e-05 5.4624907e-05 9.5792624e-05 6.658963e-05
000060 57 48 02 39 74 ba 68 38 6c 27 0d b9 4b 42 bf 39
       0.00012424715 5.548676e-05 -0.00013461494 0.0003647975
000070 6c 14 9a b8 b6 c3 fa b6 c4 72 f2 38 68 58 fb 38
       -7.347096e-05 -7.4733643e-06 0.00011560836 0.000119850796
000080 52 d8 23 39 84 b6 d7 38 d4 f1 b4 38 0a 2e f3 b5
       0.00015625477 0.00010285995 8.628113e-05 -1.811831e-06
000090 cc a5 24 39 7a c2 23 38 a3 44 77 38 d3 4b 36 38
       0.00015702023 3.904335e-05 5.8953312e-05 4.34628e-05
0000a0 f1 82 9d 38 fa b5 9f 38 c6 53 34 38 3e 9b 0c 38
       7.510733e-05 7.6156066e-05 4.2993364e-05 3.352318e-05
0000b0 b7 aa 9c 39 8c fb da b7 55 6b f6 b6 c4 da af b6
       0.0002988183 -2.610476e-05 -7.3438664e-06 -5.240874e-06
0000c0 dc b6 a4 37 df ba 7f 38 de 93 07 38 f2 9d c6 38
       1.9635474e-05 6.0970775e-05 3.232422e-05 9.470795e-05
0000d0 19 81 2c 39 22 fb 30 b6 e9 b6 02 39 0c ef 82 38
       0.00016451291 -2.6372222e-06 0.00012465905 6.243409e-05
0000e0 03 26 1a 39 3f 2c fe 38 24 95 90 b7 d6 46 a0 37
       0.00014700745 0.00012119905 -1.7235587e-05 1.9106472e-05
0000f0 c4 9a 3b 38 e6 c7 be b5 c3 78 92 b6 aa 3f aa 38
       4.472841e-05 -1.4214281e-06 -4.3651976e-06 8.11809e-05

module.encoder.c2.main.1.weight f4 [64]
000000 de b1 7e 3f 55 cb 79 3f d4 dc 6b 3f 43 db 80 3f
       0.99490154 0.97575885 0.9213383 1.0066913
000010 84 87 82 3f a4 18 80 3f d6 ff 75 3f 76 e2 80 3f
       1.0197606 1.000752 0.960935 1.006911
000020 25 b4 7b 3f b5 e8 80 3f 3b ea 68 3f 1e 2c 82 3f
       0.98321754 1.0071017 0.9098241 1.0169713
000030 32 9f 80 3f 68 de 80 3f bd 93 71 3f 8f 84 80 3f
       1.0048583 1.0067873 0.94366056 1.0040454
000040 0f ec 72 3f f5 be 80 3f 84 b2 7e 3f 0e f5 7b 3f
       0.94891447 1.0058275 0.99491143 0.984208
000050 7f 82 72 3f 94 0b 7c 3f 69 87 78 3f cb 2a 80 3f
       0.9473037 0.98455167 0.9708162 1.0013059
000060 07 85 80 3f 68 66 74 3f fa 0a 80 3f 83 d8 82 3f
       1.0040597 0.9546876 1.000335 1.0222324
000070 22 94 81 3f 03 7f 7a 3f 7b ed 83 3f 39 4c 80 3f
       1.0123332 0.97850055 1.0306848 1.0023261
000080 3b 56 82 3f dc 54 77 3f d9 61 75 3f 71 64 83 3f
       1.0182565 0.9661386 0.9585243 1.0265027
000090 db 2e 8c 3f 46 85 83 3f 23 36 84 3f 3f ae 86 3f
       1.0951799 1.0275047 1.0329021 1.0521926
0000a0 8c 9e 7b 3f 2b c0 74 3f 30 93 84 3f 8e 07 76 3f
       0.982888 0.95605725 1.0357418 0.9610528
0000b0 25 55 7a 3f bf 67 7e 3f 8e 62 7a 3f 97 da 81 3f
       0.9778617 0.99377054 0.9780663 1.0144833
0000c0 14 13 7b 3f 82 ca 6e 3f 53 f4 7d 3f 0c 8e 82 3f
       0.98075986 0.9327775 0.99200934 1.0199599
0000d0 a3 ee 82 3f 14 8a 87 3f 6e 3c 81 3f 1d d7 7d 3f
       1.0229076 1.0589013 1.0096567 0.9915636
0000e0 bd f3 88 3f 91 6b 7a 3f 3e 47 81 3f 55 c0 77 3f
       1.0699383 0.97820383 1.0099866 0.9677785
0000f0 01 1c 86 3f 2e 1b 7b 3f 3d 0a 7c 3f 86 ac 82 3f
       1.0477296 0.9808835 0.9845312 1.02089

module.encoder.c2.main.1.bias f4 [64]
000000 cb f5 61 be 85 a8 7f bd bb 73 1f be 6f 9c 46 be
       -0.22066419 -0.062416572 -0.15571491 -0.19395612
000010 ac 8e ad bd dc 23 24 be ca 48 f0 bd 32 a6 b9 bd
       -0.08474478 -0.16029304 -0.117326334 -0.09064902
000020 42 bc 83 bd c9 e3 04 be 09 c4 48 be c7 62 2e be
       -0.06432392 -0.12977518 -0.19606031 -0.17029868
000030 0e 5a ad bd ad 43 23 be 0d 09 10 be 13 17 d2 bd
       -0.08464442 -0.15943785 -0.14065953 -0.10258307
000040 30 8f f9 bd 97 1c 8a bd e5 57 de bd ec 29 64 bd
       -0.12185514 -0.06743734 -0.10856608 -0.055704042
000050 dd ec 8b bd e8 05 15 be 6d 7b 31 be 04 2b f2 bd
       -0.068322875 -0.14553034 -0.1733224 -0.11824611
000060 c2 6d c2 bd 40 4f e7 bd f1 51 19 be eb c2 2c be
       -0.09493591 -0.112944126 -0.14972664 -0.1687123
000070 8b 05 65 bd 97 04 39 be c2 7d cd bd fe 74 3b be
       -0.05591349 -0.18068157 -0.10033752 -0.18306348
000080 77 a8 a3 bd c9 c8 e4 bd 6d f6 41 be 4b 31 0e be
       -0.079911165 -0.11171109 -0.1894166 -0.13885991
000090 10 f7 bd bd 59 ff 01 be 44 d9 8c bd ee e4 ae bd
       -0.09275639 -0.12695064 -0.06877378 -0.085397586
0000a0 37 e7 1d be 89 57 cd bd d9 18 92 bd 39 aa cb bd
       -0.15420233 -0.10026462 -0.071336456 -0.09944577
0000b0 9a 27 c7 bd a3 2a b4 bd a1 86 f9 bd 82 02 e2 bd
       -0.0972435 -0.08797195 -0.121838816 -0.110356346
0000c0 8e e2 cc bd 4b cb f9 bd 76 4b 22 be 09 03 55 be
       -0.100041494 -0.12196978 -0.15849099 -0.20801939
0000d0 19 d4 bf bc c1 bd 3b bc 91 23 c3 bd 72 81 e5 bd
       -0.023416566 -0.011458815 -0.09528268 -0.1120633
0000e0 30 dd b9 bc 43 bc f6 bd c7 87 25 be 9d db 12 be
       -0.022688478 -0.12047627 -0.16165076 -0.14341588
0000f0 ed 0b 84 bd 29 2e fe bd fe 00 86 bd 18 18 0b be
       -0.06447587 -0.12411148 -0.06543158 -0.1358341

module.encoder.c2.main.3.weight f4 [64, 64, 3, 3]
000000 33 0e 39 bd 66 f4 58 bd 61 2b d5 ba e8 2f f6 bb
       -0.045179557 -0.05296745 -0.0016263538 -0.007513035
000010 2d 73 87 3c ec 62 04 3b c1 ab 26 bb 0e dc 32 bc
       0.016534412 0.0020200564 -0.0025431963 -0.010916723
000020 ce b9 11 bd 2a b4 cc bb c3 8e 00 bd 5c ad 84 3c
       -0.035577588 -0.006247063 -0.03138615 0.016195945
000030 84 36 ad 3c f9 88 15 3d 4d 23 d6 3c 97 65 38 bd
       0.02114416 0.03650758 0.02613988 -0.04501876
000040 80 f5 f5 3c b2 85 f1 3c 04 15 14 bd 61 5e 55 3c
       0.03002429 0.029482696 -0.036152855 0.01302299
000050 b4 ed 98 3b 69 e8 c9 bc 25 a7 5c bb 09 e7 45 bc
       0.0046670083 -0.024646955 -0.0033668962 -0.012079009
000060 9a a3 12 bd 29 0a 98 bc 21 2b c5 bc d6 a9 00 3d
       -0.035800554 -0.018559532 -0.024068417 0.03141197
000070 ef 45 13 3d 6a 8f 94 3c 89 3d 8c 3c 1e 8e 57 3d
       0.035955366 0.018134791 0.017119186 0.052625768
000080 2b ad 23 bd 3d 9e 65 3c 59 dd 7f 3d b9 a4 83 bd
       -0.039960068 0.014014778 0.062466953 -0.06427903
000090 8b bc 31 3c 63 48 9c 3c 71 9d af bb f2 f7 0e 3d
       0.010848175 0.019077485 -0.0053593447 0.034904428
0000a0 23 42 91 bb f7 1f 5d 3c 9d ed 65 bd 8c 0a d5 bd
       -0.004432933 0.013496391 -0.05613481 -0.10402402
0000b0 0a 7e a1 bc 77 4a 07 bb 93 db 47 bd bb a9 32 3c
       -0.01971342 -0.002064375 -0.048793387 0.010904725
0000c0 06 66 f6 bb 73 f1 24 bd 12 60 0a bd b6 50 7c bc
       -0.0075194864 -0.040269326 -0.033783026 -0.015400102
0000d0 bb ea cd bc c1 d0 30 bd f6 89 0b ba 56 9c 15 bd
       -0.025136342 -0.043167833 -0.0005322987 -0.036526047
0000e0 8d 08 f0 bc ac ab d8 3a 6e 84 37 3d 55 3d 21 3b
       -0.029300952 0.0016530654 0.04480403 0.0024603207
0000f0 0c b6 49 3c 6b 48 aa 3b 34 20 8d 3c fe 34 78 3d
       0.01231147 0.005196621 0.01722727 0.060597412
000100 62 dc 56 bc 46 9f b4 bb 02 2d 31 bd 0f 64 d2 bc
       -0.013114067 -0.005512151 -0.043255813 -0.025682477
000110 2a 8d 85 3d 4c 2d 3a bd e8 69 90 bd ca e9 92 bd
       0.065210655 -0.045453355 -0.0705145 -0.07173498
000120 c2 ef 09 bb 77 eb 98 bd 9b b2 12 3d 43 d9 bc bc
       -0.0021047448 -0.07466786 0.035814863 -0.023052817
000130 78 16 7a bd f8 b2 ac 3c a5 b3 44 bd ed c7 ae bc
       -0.061056584 0.021081433 -0.048022885 -0.021335566
000140 99 25 52 3d 4d e2 61 ba ff 64 92 3d 2f 4e 2d bd
       0.051305387 -0.00086167903 0.0714817 -0.04231089
000150 55 34 50 ba ad aa 52 bd 44 54 2a bd e5 8d fb bc
       -0.00079423684 -0.0514323 -0.04158427 -0.030707309
000160 78 4a 8b 3c c7 0d 0f 3d 9a 86 43 3c 0f d3 4f 3c
       0.017003283 0.03492525 0.011933947 0.012684598
000170 d6 a7 48 3d 36 dc ba 3c be 78 39 3d d6 1a 9c bc
       0.048988186 0.022810083 0.045281164 -0.019055765
000180 64 ca c7 3c 7e 87 55 bc 77 6f 46 3c 60 11 05 3d
       0.0243885 -0.013032792 0.012111536 0.032487273
000190 4b a2 7f 3d 2c 95 5d 3d 34 12 76 bc 6a 17 8b bc
       0.062410634 0.05409734 -0.015018988 -0.016978938
0001a0 23 42 7f bd eb 8a a6 3c 10 56 09 3d 63 d8 31 bd
       -0.062318932 0.020329913 0.03352934 -0.043419253
0001b0 62 52 7b bd f5 ce ff 3b 9d 73 fa bc 7a 5a 29 3c
       -0.061357863 0.0078066536 -0.030572707 0.010336513
0001c0 15 aa c9 bc de 13 12 3c ba ed 3c bd 23 93 25 3c
       -0.024617234 0.0089158695 -0.04612515 0.010105881
0001d0 ef a3 c6 bb 06 5d c7 3c a7 b3 6e 3d db 45 0c bd
       -0.006062023 0.02433635 0.0582768 -0.034246307
0001e0 59 80 1d bd c0 a6 7d bc 0f 35 0a 3d c3 b3 8e 3c
       -0.03845248 -0.015481651 0.033742007 0.017419701
0001f0 a7 44 aa 3b 78 ee 89 bc ad dd 4e 3b 8d 29 8c bc
       0.0051961723 -0.016837344 0.0031565235 -0.017109657
000200 a5 d6 35 3c 90 b2 4d bd d6 37 fd 3b 5f d4 17 3c
       0.0110985385 -0.05021912 0.0077276034 0.009266942
000210 ca 27 56 3d 84 e5 12 bd 5f f1 27 bc 2d e5 04 bd
       0.05228404 -0.035863414 -0.010250418 -0.03244512
000220 ba df 31 bc 8c 87 93 bc c6 0e 69 39 6e bd 47 3c
       -0.010856563 -0.01800897 0.00022226115 0.01219116
000230 5e e2 17 bd 88 16 98 3c 67 95 b9 3c 21 75 b9 bc
       -0.037081115 0.018565431 0.022654248 -0.02263886
000240 70 30 18 3d c3 62 b1 3c 3e 6f 34 3d c7 e7 42 bc
       0.03715557 0.021653539 0.0440514 -0.01189608
000250 e6 f0 b1 bc 5b ce 71 bb 81 1f fe 3b 86 c4 41 3a
       -0.021721315 -0.003689668 0.0077552204 0.000739165
000260 be 78 14 3c d9 4f 71 bd 66 18 ae 3c f6 1a 0d bc
       0.00906199 -0.05891404 0.021251868 -0.008612385
000270 8a 12 1c ba 4c f4 9f 3b 34 ad a0 bc 32 33 22 bd
       -0.000595369 0.0048814174 -0.01961384 -0.039599605
000280 ee 4c e9 3c b4 bd 81 3c 98 b0 b6 3c 7c 64 1d bc
       0.028479066 0.015837528 0.022301003 -0.009606477
000290 f4 7c 0d 3d 92 35 3f 3a fb 57 2a 3c 2c 20 ae 3c
       0.034542993 0.00072940544 0.010396953 0.021255575
0002a0 fc b9 4d 3c fc 4d 62 3b b4 dc 00 3d f3 50 0b bd
       0.012556549 0.0034531346 0.03146048 -0.034012746
0002b0 b4 3b 74 bb e0 a4 f5 3a 42 72 c9 3c 13 2e 22 3d
       -0.003726703 0.0018741153 0.024590615 0.03959472
0002c0 d2 d6 4e 3d ad 83 0c bc f1 8c d6 3c 11 18 09 bc
       0.050497837 -0.008576316 0.026190253 -0.008367554
0002d0 3a db 5d bc 19 1b bd 3c c3 7a 5c 3c 7e 29 e9 3a
       -0.013541037 0.02308421 0.013457003 0.0017788855
0002e0 35 c1 93 b9 ab ca b9 3c e8 dc dc bc 75 5a 77 3c
       -0.00028181975 0.022679647 -0.026960805 0.01509725
0002f0 a6 53 7f bd 07 12 92 bb 0c e1 4c bc 40 4b 12 3c
       -0.062335633 -0.0044577154 -0.012504827 0.008929074
000300 25 4a 8f 3c f6 12 09 3d e1 f4 ac 3b a0 3c 2c bb
       0.01749141 0.03346535 0.0052782153 -0.0026281253
000310 44 b5 f8 3c b5 61 94 3c 9b d4 64 3d 8e d6 2c 3d
       0.030359872 0.018112997 0.05586682 0.042196803
000320 d0 15 1c 3d 74 70 eb 3d 3b dc 8c 3c ff 58 37 3d
       0.03810674 0.11496058 0.017194858 0.044762608
000330 61 b3 92 bc 22 ee ea 3c 17 15 2e bd bb f6 35 bc
       -0.0179078 0.028678004 -0.04250058 -0.011106188
000340 a2 ff 8f bc 6a 8d df 3b f1 fb ef bc 50 a2 00 bc
       -0.01757795 0.006822278 -0.02929494 -0.007851198
000350 f9 d5 02 bd ba 69 d1 3c a3 ec 04 bd 90 27 ea bc
       -0.03194234 0.02556311 -0.032452237 -0.028583318
000360 e1 61 25 bd eb 1e ff 3c d5 56 25 bb b4 08 49 3c
       -0.040376548 0.031142673 -0.0025228758 0.012270141
000370 8c f5 df bc 9e 06 a9 bd fc ac 66 bc 98 bc a8 3c
       -0.027338766 -0.08253215 -0.014079329 0.020597741
000380 cf 2c ba bc ce a4 48 3d d2 2d b0 3c e2 ee 21 3d
       -0.022726445 0.048985295 0.021506224 0.039534457
000390 ef 71 34 3c 47 4d 8b bc 00 79 75 3d ae e6 27 bd
       0.011013492 -0.017004622 0.059929848 -0.040991478
0003a0 b5 76 00 bd 31 bb 52 3d 37 e7 ec bc 01 85 e5 3a
       -0.031363208 0.05144805 -0.028918846 0.0017510952
0003b0 cb eb 08 3b 55 b4 dd bc b9 7c 2c bd f0 72 82 3c
       0.0020892497 -0.027063528 -0.042111132 0.015923947
0003c0 c2 3f dd bb 2f 92 4d bc 49 3e 36 bc 05 81 9c bc
       -0.0067519853 -0.01254706 -0.011123248 -0.01910449
0003d0 1b e2 21 3d 0f b3 99 b9 83 c5 da 3c e5 24 28 3d
       0.03952227 -0.00029315843 0.026705509 0.04105081
0003e0 a4 3c f0 3d a5 85 b1 bc d4 98 03 bd d3 5e ab bc
       0.11730316 -0.021670172 -0.03212817 -0.02091924
0003f0 6d d8 9c bb 4c f3 0a bd 5a 66 a9 bc e5 26 65 3c
       -0.004786542 -0.033923432 -0.020678688 0.013986324

module.encoder.c2.main.3.bias f4 [64]
000000 6e 03 70 37 3a 2b a3 38 00 3f 81 b7 b9 64 07 b7
       1.4305913e-05 7.780497e-05 -1.5407335e-05 -8.070078e-06
000010 45 62 81 37 48 c9 97 36 19 19 dd b8 84 74 3e b7
       1.5423759e-05 4.523583e-06 -0.00010542776 -1.1352011e-05
000020 58 2d d7 b7 6c 37 39 b7 ad 0e 27 37 d9 ad 0c 38
       -2.5651112e-05 -1.1039763e-05 9.957393e-06 3.354051e-05
000030 d4 ee 02 b6 e5 33 34 38 1e 11 8f b8 81 86 44 38
       -1.9510526e-06 4.2963675e-05 -6.82196e-05 4.6855308e-05
000040 f6 31 8b 37 33 ff 9e b6 f6 c6 82 b6 30 49 33 b8
       1.6593356e-05 -4.738476e-06 -3.897464e-06 -4.2745087e-05
000050 43 38 81 37 e3 be bb b7 d3 3c fa b6 a7 00 d3 b8
       1.5404197e-05 -2.2381026e-05 -7.4576615e-06 -0.000100613855
000060 f6 6a 1e 35 cd a8 18 37 fe 35 47 b7 4c df 88 38
       5.9015235e-07 9.099208e-06 -1.1873895e-05 6.5265776e-05
000070 3f 0f 24 b7 fe 79 f2 b7 f8 df c5 36 90 75 ab b8
       -9.7787115e-06 -2.8905455e-05 5.897131e-06 -8.175813e-05
000080 be 1f 08 b8 48 1a af b8 f7 e8 8c b6 17 5c 18 b8
       -3.245449e-05 -8.3495455e-05 -4.199446e-06 -3.632539e-05
000090 25 d5 94 37 48 41 e0 38 ca 82 aa b8 75 31 a5 37
       1.7742228e-05 0.00010693312 -8.130593e-05 1.9692563e-05
0000a0 af d0 e0 b6 03 09 ad b7 01 34 be b7 6b a0 4c b7
       -6.700014e-06 -2.0627404e-05 -2.2673981e-05 -1.2196698e-05
0000b0 3e 38 94 b8 4a 1f ed 37 05 b9 b2 b7 bc dc 8e b8
       -7.067666e-05 2.8267172e-05 -2.130541e-05 -6.8122026e-05
0000c0 20 24 b5 b7 99 18 47 37 ff 6f 64 b8 38 32 2f 38
       -2.1593703e-05 1.1867051e-05 -5.446374e-05 4.177002e-05
0000d0 c5 8f b1 b8 29 31 2a b8 ad 3b bd b7 b2 86 57 b7
       -8.466797e-05 -4.0576942e-05 -2.2558344e-05 -1.284636e-05
0000e0 28 7b 23 37 50 b6 a7 b8 a0 c4 5e 37 94 22 3a 38
       9.744232e-06 -7.997139e-05 1.32780115e-05 4.437806e-05
0000f0 70 fc e3 37 91 43 e5 b7 0f 2c e7 37 9c 0f b8 b6
       2.717806e-05 -2.733039e-05 2.7557862e-05 -5.4854445e-06

module.encoder.c2.main.4.weight f4 [64]
000000 4f ef 7e 3f e2 28 83 3f 0b 30 79 3f f3 87 81 3f
       0.99583906 1.0246851 0.9733893 1.0119613
000010 ec fc 7e 3f b4 c3 7b 3f e4 87 7f 3f 87 96 7c 3f
       0.9960468 0.98345494 0.9981673 0.98667186
000020 cc 95 86 3f a0 2f 7c 3f 10 7d 75 3f 08 6e 7e 3f
       1.0514464 0.9851017 0.95893955 0.99386644
000030 2d cf 7e 3f 97 2c 81 3f 5c 26 80 3f 49 53 82 3f
       0.99534875 1.0091733 1.0011706 1.0181667
000040 07 e9 7c 3f 8c d4 79 3f cc 4a 7d 3f f0 c0 77 3f
       0.9879307 0.97589946 0.98942256 0.96778774
000050 86 bc 7b 3f 90 d7 7f 3f 16 09 7a 3f 54 4b 82 3f
       0.9833454 0.999383 0.97670114 1.0179238
000060 b3 58 82 3f a6 3b 81 3f 41 3d 7b 3f d7 4c 80 3f
       1.0183319 1.0096328 0.9814034 1.002345
000070 84 2e 82 3f 6b dc 77 3f 1c 7c 75 3f 00 be 80 3f
       1.0170445 0.96820706 0.958925 1.0057983
000080 8f cf 77 3f 3c 75 85 3f 31 17 77 3f e8 c5 7d 3f
       0.96801084 1.0426402 0.9651976 0.99130106
000090 47 73 82 3f b1 ff 80 3f 65 ed 81 3f 1b da 7c 3f
       1.019143 1.0078031 1.0150572 0.987703
0000a0 03 60 7e 3f 06 82 7d 3f 35 6f 80 3f 77 bc 78 3f
       0.9936525 0.99026525 1.0033938 0.97162575
0000b0 2c 49 82 3f 41 3f 7c 3f 03 65 81 3f a1 3c 80 3f
       1.017858 0.9853402 1.0108951 1.0018502
0000c0 2e b6 78 3f 35 56 7f 3f 32 d6 7b 3f eb ba 82 3f
       0.97152984 0.99740916 0.9837371 1.0213293
0000d0 2c a8 81 3f 8d 98 82 3f c0 56 7d 3f 2f 34 83 3f
       1.0129447 1.0202805 0.98960495 1.02503
0000e0 9c 11 83 3f 5b e7 82 3f 57 c2 7a 3f 16 fc 85 3f
       1.0239749 1.0226854 0.9795279 1.0467556
0000f0 e5 97 81 3f 3b b2 83 3f d7 9c 82 3f d4 45 80 3f
       1.012448 1.0288767 1.0204114 1.002131

module.encoder.c2.main.4.bias f4 [64]
000000 74 c6 95 bd b8 dc 59 bd 92 1d cf bd 09 41 ed bd
       -0.073132426 -0.05318901 -0.10113062 -0.1158467
000010 21 a8 ac bd f6 f1 ae bd bf fd b3 bd 75 f1 d0 bd
       -0.084305055 -0.08542244 -0.087886326 -0.10202304
000020 59 b7 1c be 65 88 38 bd 87 74 d3 bd f7 98 b9 bd
       -0.15304317 -0.04505195 -0.1032496 -0.09062379
000030 66 01 a2 bd a6 14 2e be 99 35 10 be b2 ba 8c bd
       -0.07910423 -0.17000064 -0.14082946 -0.06871547
000040 7e 3e a7 bd 31 10 17 bd 57 a7 fa bd 1f 3d fc bd
       -0.08166216 -0.036880676 -0.12238949 -0.123163454
000050 47 2e 0a bd 9f 1a 34 be 3a 0d 58 be 6a 7a 8b bd
       -0.03373554 -0.1758828 -0.21098796 -0.06810458
000060 94 b6 31 be 6f c4 a6 bd 5d 32 12 be 65 0c af bd
       -0.17354804 -0.081429355 -0.14277025 -0.08547286
000070 4b f5 4b bd 6a 89 0f be 50 cd f7 bd 59 9f a1 bd
       -0.049794476 -0.14017263 -0.12099707 -0.07891721
000080 2c a3 17 be 10 c0 bf bd 35 5d 21 be ae 4d 55 be
       -0.14808339 -0.09362805 -0.15758212 -0.20830414
000090 8c 7b a8 bd 50 e3 e5 bd e2 b1 f2 bd 82 08 42 be
       -0.0822669 -0.11224997 -0.11850335 -0.18948558
0000a0 1c e5 52 be aa fd 0b be 95 40 c3 bc 5a a2 e2 bd
       -0.20595211 -0.13670984 -0.023834506 -0.11066122
0000b0 3f cd 07 be 5e 0c 3b bd f3 d0 1f be df fb 36 be
       -0.13261889 -0.04566609 -0.15607052 -0.17869519
0000c0 46 07 17 be c1 4c 2c be fa 89 24 be e1 5d ab bd
       -0.14748868 -0.16826154 -0.16068259 -0.08367515
0000d0 b0 42 a3 bd d9 46 8b bd 48 20 4a be ba 72 e5 bd
       -0.07971704 -0.068006225 -0.19738877 -0.11203523
0000e0 0e ba 12 be 99 54 1a bd 82 c8 0b be 17 3e d9 bd
       -0.14328787 -0.037678335 -0.13650706 -0.10607546
0000f0 84 d3 1b be d1 49 1e bd 14 c4 a4 bd 11 0a 01 be
       -0.15217406 -0.038644616 -0.080452114 -0.12601496
