logs/exp4/model_iters_47000.pth (torch, 495376 bytes, 47 tensors)

module.encoder.c1.main.0.weight f4 [32, 3, 3, 3]
0.007897636 0.05331105 -0.012111998 0.024590682 0.07952827 -0.02726518 0.031891763 0.08279738
0.027724305 -0.0038590073 -0.010193129 -0.031271726 0.0099777635 0.011925512 0.021496382 0.019850204
-0.0015875509 0.012972719 0.0013987361 -0.038353786 -0.015987031 0.08340803 0.031445123 -0.009687665
-0.0059511485 0.004194333 -0.00994563 -0.03751453 -0.055056754 0.018843072 -0.03275909 0.009447597
-0.016954366 -0.011300844 0.106745206 0.032225545 -0.007724901 0.0076592304 0.025604635 -0.01944326
-0.0021187626 -0.0054755677 0.00072159 0.022823835 0.00083741464 -0.03466857 0.026672602 -0.049514946
0.02018995 -0.041209362 0.0062802075 -0.0041778656 0.0066439775 0.00071048166 0.005917587 -0.0342555
0.018087095 0.0016319613 -0.01601057 0.062398117 0.047187604 0.031024044 0.045386236 0.005741947
0.020582354 0.027455084 0.0029328598 0.013777064 -0.031322792 0.018518599 -0.019801134 -0.016882345
-0.01867428 -0.07310965 -0.047920857 0.012462326 0.010872378 0.08538424 -0.029994596 0.026567979
0.08035472 -0.023487875 -0.030590305 0.0074730273 0.02910276 0.0155133195 -0.006692738 0.0011865178
-0.0020271447 -0.0173849 0.025237603 0.008025996 0.041043416 0.032880697 -0.015804691 0.013969606
-0.009051046 -0.041754324 -0.04410933 0.023765013 -0.009055638 -0.05441982 0.052593056 -0.08107148
-0.09098431 0.003969944 -0.05317276 -0.14403296 0.026925825 0.02199492 0.0100544905 0.089468665
-0.0036278972 -0.0007864834 0.03437933 0.006830429 -0.027717507 0.07254738 0.0018239807 0.040390067
0.017927477 0.004336579 0.010009281 -0.025758177 0.014103928 -0.0137625635 -0.004017926 0.019865938
-0.023034612 0.06092885 0.024876924 -0.029119216 -0.08595931 -0.019865284 -0.09840721 -0.015295535
-0.018734016 -0.038552456 -0.02030308 0.016275428 0.006240052 -0.016007656 0.0044936687 0.028364556
0.0062338393 -0.027725864 -0.09249341 0.03161156 -0.019327506 -0.0070238593 0.05200342 0.068669274
-0.0060472186 -0.014365693 0.03898349 -0.023278516 -0.015099714 -0.0052613453 -0.00233493 -0.002812934
0.042322773 -0.03691905 -0.014195331 0.018624298 -0.0067677167 -0.02476966 -0.040734507 -0.056347925
0.006019419 -0.009519208 -0.0029139242 -0.011315643 0.018965922 0.014672976 0.04096565 0.015387202
0.013842739 0.009494296 0.019659957 -0.021476787 -0.011908928 -0.009761193 -0.0233796 -0.03305683
-0.09698985 0.026855113 -0.050474364 -0.023392258 -0.049319748 0.04280565 -0.017536758 0.006008152
0.04058241 -0.094490975 -0.014601017 0.03232738 -0.0118430145 0.016772343 -0.0067030806 -0.0014534638
-0.00963017 -0.0059866295 -0.06536654 -0.0037492155 0.058076035 0.013627095 0.025735505 0.04365663
0.060641237 0.0019042225 -0.021540223 -0.0025044412 0.025301287 -0.011630746 -0.031211145 -0.008414896
-0.01005311 0.026947394 0.036421616 0.02371156 0.004945385 -0.008344855 -0.028717406 0.015623147
-0.035430647 -0.004856074 0.00886659 0.03292911 0.035285324 0.027233215 -0.021270871 -0.017115043
0.039423287 -0.0038198545 -0.08100468 -0.049768917 -0.11437857 -0.10200948 -0.11134962 -0.120485164
-0.015255089 0.002538519 0.020980565 -0.021439495 -0.03670163 -0.0189746 0.014571944 0.025481297
0.02057976 -0.04479728 -0.005368671 -0.030530045 -0.011091154 0.005814545 0.0017138092 0.028121136
00000000: 1665 013c b05c 5a3d 6771 46bc 6672 c93c
00000010: b8df a23d 3a5b dfbc f0a0 023d ac91 a93d
00000020: 151e e33c 66e7 7cbb 1501 27bc c816 00bd
00000030: c679 233c 3963 433c 2e19 b03c e59c a23c
00000040: 5e15 d0ba 878b 543c cc55 b73a dc18 1dbd
00000050: 3cf7 82bc d4d1 aa3d 9acc 003d 03b9 1ebc
00000060: da01 c3bb 9e70 893b fff2 22bc d6a8 19bd
00000070: 3183 61bd c95c 9a3c 652e 06bd 18ca 1a3c
00000080: e2e3 8abc 2d27 39bc 3b9d da3d effe 033d
00000090: 2b21 fdbb 48fa fa3b d0c0 d13c 7947 9fbc
000000a0: f0da 0abb 646c b3bb 1629 3d3a 0df9 ba3c
000000b0: f285 5b3a a100 0ebd 8080 da3c 2fd0 4abd
000000c0: 6565 a53c 26cb 28bd 33ca cd3b 7ae6 88bb
000000d0: b9b5 d93b 9e3f 3a3a 51e8 c13b 7f4f 0cbd
000000e0: 632b 943c 89e7 d53a 9928 83bc 2b95 7f3d
000000f0: ca47 413d 2326 fe3c ebe6 393d f126 bc3b
00000100: 539c a83c 7ce9 e03c 3935 403b 32b9 613c
00000110: 544c 00bd 51b4 973c fd35 a2bc d84c 8abc
00000120: cefa 98bc 83ba 95bd a948 44bd c92e 4c3c
00000130: 0f22 323c efdd ae3d 3ab7 f5bc 17a5 d93c
00000140: 0491 a43d a569 c0bc 8598 fabc 4ce0 f43b
00000150: e968 ee3c 942b 7e3c c14e dbbb ee84 9b3a
00000160: d8d9 04bb c76a 8ebc 17bf ce3c 787f 033c
00000170: 241d 283d e9ad 063d d778 81bc c6e0 643c
00000180: d74a 14bc 9506 2bbd fcab 34bd d8ae c23c
00000190: 195e 14bc 51e7 5ebd d16b 573d ce08 a6bd
000001a0: fb55 babd 4e16 823b aecb 59bd 607d 13be
000001b0: 8c93 dc3c b12e b43c 97bb 243c 593b b73d
000001c0: 04c2 6dbb 022c 4eba 57d1 0c3d cbd1 df3b
000001d0: d30f e3bc b993 943d a312 ef3a 0e70 253d
000001e0: a5dc 923c dc19 8e3b f8fd 233c d002 d3bc
000001f0: 2914 673c 607c 61bc cea8 83bb e4bd a23c
00000200: 15b3 bcbc 8890 793d b1ca cb3c 6c8b eebc
00000210: 6f0b b0bd 85bc a2bc b889 c9bd 209a 7abc
00000220: 1478 99bc 2ee9 1dbd a552 a6bc 0c54 853c
00000230: 5a79 cc3b 7d22 83bc a03f 933b c95c e83c
00000240: 3c45 cc3b 5a21 e3bc 2f6d bdbd 207b 013d
00000250: b854 9ebc 6728 e6bb 8a01 553d 7aa2 8c3d
00000260: bf27 c6bb 155e 6bbc 27ad 1f3d 96b2 bebc
00000270: ca64 77bc 5d67 acbb a005 19bb 3459 38bb
00000280: a55a 2d3d 6e38 17bd 8993 68bc fc91 983c
00000290: b9c3 ddbb bee9 cabc 3ad9 26bd 15cd 66bd
000002a0: 8c3e c53b 74f6 1bbc 89f7 3ebb 3f65 39bc
000002b0: 6c5e 9b3c ec66 703c 99cb 273d 9a1a 7c3c
000002c0: a8cc 623c f78d 1b3c eb0d a13c 16f0 afbc
000002d0: aa1d 43bc 69ed 1fbc 9386 bfbc 9966 07bd
000002e0: 9da2 c6bd 41ff db3c 35be 4ebd 1fa1 bfbc
000002f0: 8103 4abd fa54 2f3d 3fa9 8fbc 08e0 c43b
00000300: be39 263d 7c84 c1bd 1b39 6fbc b769 043d
00000310: 3409 42bc 2766 893c 84a5 dbbb 2782 beba
00000320: dcc7 1dbc 7d2b c4bb e4de 85bd 66b5 75bb
00000330: 23e1 6d3d 2e44 5f3c 44d3 d23c 4bd1 323d
00000340: f262 783d 1b97 f93a 1f75 b0bc 8d21 24bb
00000350: a544 cf3c e28e 3ebc 84ae ffbc a2de 09bc
00000360: cdb5 24bc c8c0 dc3c d52e 153d bf3e c23c
00000370: e50c a23b dcb8 08bc c440 ebbc 3af8 7f3c
00000380: ba1f 11bd b41f 9fbb 2d45 113c ade0 063d
00000390: 5887 103d 3118 df3c 4040 aebc d934 8cbc
000003a0: 507a 213d 8656 7abb c8e5 a5bd 7eda 4bbd
000003b0: 503f eabd 59ea d0bd 450b e4bd edc0 f6bd
000003c0: 7bf0 79bc 485d 263b 6fdf ab3c e1a1 afbc
000003d0: 7354 16bd 9f70 9bbc 2abf 6e3c 27be d03c
000003e0: e396 a83c 5a7d 37bd adeb afbb 251a fabc
000003f0: acb7 35bc f087 be3b e5a1 e03a 4c5e e63c

module.encoder.c1.main.0.bias f4 [32]
-0.0008887881 0.0037774367 -0.0019910866 0.001530524 -0.0013960963 -0.00048735095 0.00023646915 -0.00194097
0.0025405514 -0.0025894116 -0.00039632985 -0.007678122 -0.00077657925 -0.0004808407 0.0037960054 -0.004051375
-0.0005386155 1.5096733e-05 -0.0054859775 0.0019097534 -0.0007650089 0.006058389 -0.0025121192 -0.00012351114
-0.0005123211 -0.0006187219 0.0010687518 -0.0062888525 -0.0037413153 0.006043311 0.0031118097 -0.0029069772
00000000: 8ffd 68ba df8e 773b e47c 02bb dd9b c83a
00000010: 38fd b6ba 2383 ffb9 b4f4 7739 2568 feba
00000020: 617f 263b 1eb3 29bb 7eca cfb9 c198 fbbb
00000030: 5a93 4bba 5919 fcb9 67c6 783b 66c1 84bb
00000040: e031 0dba f947 7d37 b7c3 b3bb b150 fa3a
00000050: e18a 48ba 7385 c63b 5ea2 24bb c582 01b9
00000060: 494d 06ba b931 22ba 5c15 8c3a b812 cebb
00000070: db30 75bb f806 c63b 81ef 4b3b fc82 3ebb

module.encoder.c1.main.1.weight f4 [32]
0.9704072 0.9804311 0.9743844 0.9989067 1.0027915 1.0445386 0.980438 1.0851918
1.0089878 1.0089201 0.9808211 0.95922893 1.044417 0.8994339 1.0459334 1.0240883
0.9594914 1.0074558 0.9992123 0.96568096 0.98455113 1.0499837 1.0063899 0.92588276
1.0057585 0.94763666 1.0619361 1.0199019 0.96647304 0.9766023 0.98640996 1.0434144
00000000: 9b6c 783f 88fd 7a3f 4271 793f 59b8 7f3f
00000010: 795b 803f 71b3 853f fcfd 7a3f 91e7 8a3f
00000020: 8326 813f 4b24 813f 1717 7b3f 0790 753f
00000030: 75af 853f 4d41 663f 25e1 853f 5315 833f
00000040: 3aa1 753f 50f4 803f 61cc 7f3f de36 773f
00000050: 8b0b 7c3f de65 863f 62d1 803f a706 6d3f
00000060: b2bc 803f 5198 723f 86ed 873f 258c 823f
00000070: c76a 773f 9c02 7a3f 5d85 7c3f 9a8e 853f

module.encoder.c1.main.1.bias f4 [32]
-0.059197143 -0.11413178 -0.14039822 -0.045331374 -0.11783968 0.017615538 -0.05225629 -0.04812706
-0.12986219 -0.17204475 -0.040816937 0.04762063 -0.032515746 -0.029091127 -0.046276104 -0.008252357
-0.023972532 0.02246749 -0.01341579 -0.011491692 -0.06928525 0.017874513 0.010070097 -0.053302664
-0.017120704 -0.057818267 -0.008506839 -0.087828085 -0.08677659 -0.14310455 -0.041132655 -0.018033803
00000000: b478 72bd ecbd e9bd 8dc4 0fbe 64ad 39bd
00000010: ee55 f1bd 764e 903c b10a 56bd e120 45bd
00000020: 98fa 04be 802c 30be a92f 27bd da0d 433d
00000030: 3b2f 05bd 8450 eebc 038c 3dbd e534 07bc
00000040: 0b62 c4bc be0d b83c e7cd 5bbc a647 3cbc
00000050: 6de5 8dbd 926d 923c 0cfd 243c e553 5abd
00000060: b840 8cbc d9d2 6cbd 4560 0bbc 36df b3bd
00000070: edb7 b1bd 008a 12be b77a 28bd a0bb 93bc

module.encoder.c1.main.3.weight f4 [32, 32, 3, 3]
0.018865531 -0.026177386 -0.06619354 0.015512717 -0.02803827 -0.021154815 0.06392329 -0.0012707578
-0.07567759 0.013196996 0.05372349 0.028071113 -0.002971985 0.044613387 -0.019768467 -0.009441892
0.0004846378 -0.011301525 -0.06965827 -0.039382737 0.0053626914 -0.047192346 -0.0053750896 0.00827785
-0.006869142 -0.043691482 0.016119089 0.0017603277 0.0006387542 0.011408042 -0.05032475 -0.061819576
0.020234145 -0.013240529 0.0017867133 -0.00063537224 0.044890683 -0.00085449644 -0.009478425 0.022528589
-0.017327113 -0.0019502606 0.01755288 -0.0001310677 -0.010214049 -0.01630176 0.043104872 0.031013472
0.040743977 0.037326913 -0.041842073 -0.051168486 -0.009352183 0.0231193 -0.007176672 0.0028685846
0.03630953 -0.00351253 0.013893096 -0.00030202497 0.039705165 0.0132826865 0.029002074 0.027191501
0.063927755 0.06293997 -0.06811087 -0.00470611 -0.11283068 -0.05248977 0.0068735853 0.018408984
0.0112264175 0.0080344 0.0077281957 0.031282593 -0.011407052 -0.00027920117 -0.021996377 0.007041012
-0.00185224 0.0153647 0.04227969 0.03817421 0.02493739 -0.005737927 0.02516332 -0.00055538083
-0.011993655 0.0050529437 -0.055534527 0.009205517 0.0026042892 -0.026165877 -0.03199612 0.0018040716
-0.027517527 -0.011415942 0.0052489536 -0.008559165 0.010602359 0.039676752 0.015896939 -0.0069619208
-0.0017209386 0.0061405045 -0.028077176 -0.012489936 -0.0074884067 -0.042904705 0.01770519 0.073145434
0.016588746 -0.0051007685 -0.05525711 -0.07315213 -0.07953754 0.0076577505 0.044596683 0.01862164
0.00909325 0.005678178 -0.0061725653 0.002962546 -0.002094293 0.013642325 0.008728609 0.024210777
0.012182553 -0.0497956 -0.001610108 -0.051895525 -0.06727525 -0.041313753 -0.08578906 0.019842848
-0.03942346 0.02267513 -0.0043432987 -0.018564856 -0.06579845 -0.0016054516 -0.018385397 -0.033803243
-0.036869116 -0.055443004 -0.036269385 0.029967906 0.02029142 0.02573401 0.0009799371 -0.020875975
-0.017835187 0.026522234 0.020820063 0.008575692 0.00056085124 0.02720865 0.024983432 -0.03631656
-0.041805577 -0.07137131 -0.025702672 0.00855185 -0.04088337 0.0051802807 -0.002354571 0.0146949785
0.038757488 0.01003171 0.025820123 0.0027235185 -0.029559895 -0.024344673 -0.056440786 -0.0015196543
-0.0073717386 -0.042813685 -0.017430596 -0.0021262788 -0.039568063 -0.020279696 -0.043838337 -0.0007638298
0.009939481 0.0026625437 -0.008952002 -0.056029033 0.009950655 0.0033610463 0.035691477 -0.029276768
-0.021869872 0.003697032 0.052664734 0.005410032 -0.051372785 0.0028544932 0.051568408 -0.030563237
-0.041117724 0.061522312 -0.016800571 -0.07840286 -0.02685795 -0.05106597 -0.039493058 -0.040161617
0.0014182016 0.001086414 -0.02389002 0.0008946999 -0.0038656448 0.0074926247 -0.005331404 -0.028709868
0.03672359 0.031232888 -0.013638015 -0.018841982 0.003462316 -0.017163215 0.011144373 -0.009479832
0.025441222 -0.017447008 0.03932161 0.017993722 -0.026941007 -0.019812373 -0.04572677 0.0038212636
-0.0056055775 -0.01306906 0.03129411 -0.04683254 0.024218295 -0.017470634 -0.017095435 -0.04278353
0.035643533 0.038327277 0.031721268 -0.023575965 -0.05402166 -0.0038730747 0.0029850008 -0.044257868
0.0115488935 0.011428839 -0.013165437 -0.00647453 -0.014442798 0.018862484 0.012732709 0.013998778
00000000: e38b 9a3c f571 d6bc 7b90 87bd 0d29 7e3c
00000010: 84b0 e5bc dd4c adbc 37ea 823d 8e8f a6ba
00000020: dafc 9abd 3738 583c 2a0d 5c3d 64f5 e53c
00000030: a2c5 42bb 87bc 363d 7bf1 a1bc 2ab2 1abc
00000040: fc16 fe39 082a 39bc ffa8 8ebd cb4f 21bd
00000050: 84b9 af3b c34c 41bd 8521 b0bb d29f 073c
00000060: 8a16 e1bb d7f5 32bd 2e0c 843c ccba e63a
00000070: 1272 273a cce8 3a3c 5321 4ebd 8636 7dbd
00000080: 14c2 a53c ceee 58bc 2630 ea3a 1c8f 26ba
00000090: 4bdf 373d 4900 60ba 654b 1bbc e08d b83c
000000a0: 97f1 8dbc e39f ffba 0fcb 8f3c 386f 09b9
000000b0: d458 27bc 458b 85bc bc8e 303d f70f fe3c
000000c0: 28e3 263d 1be4 183d 9862 2bbd 0c96 51bd
000000d0: e639 19bc b064 bd3c 4a2a ebbb ddfe 3b3b
000000e0: 4db9 143d 7932 66bb de9f 633c 1b59 9eb9
000000f0: e2a1 223d a09f 593c c295 ed3c b6c0 de3c
00000100: 8eec 823d ace6 803d b67d 8bbd b635 9abb
00000110: c613 e7bd 83ff 56bd d03b e13b 70ce 963c
00000120: 02ef 373c b7a2 033c ce3c fd3b 2d22 003d
00000130: a5e4 3abc bf61 92b9 bf31 b4bc 4ab8 e63b
00000140: dcc6 f2ba 39bc 7b3c 782d 2d3d 8f5c 1c3d
00000150: 7f49 cc3c 3805 bcbb 4f23 ce3c fa96 11ba
00000160: 0981 44bc 2a93 a53b 2c78 63bd bdd2 163c
00000170: b9ac 2a3b d259 d6bc 5d0e 03bd 9976 ec3a
00000180: 706c e1bc ee09 3bbc 6aff ab3b bd3b 0cbc
00000190: 84b5 2d3c 1784 223d 4c3a 823c d320 e4bb
000001a0: 1e91 e1ba 4936 c93b 1b02 e6bc 97a2 4cbc
000001b0: 4f61 f5bb d8bc 2fbd 7a0a 913c 46cd 953d
000001c0: 1fe5 873c 5924 a7bb 4855 62bd c9d0 95bd
000001d0: 94e4 a2bd deed fa3b 03ab 363d 698c 983c
000001e0: dbfb 143c 0210 ba3b 3b43 cabb 4627 423b
000001f0: 6840 09bb 0f84 5f3c 7102 0f3c ae55 c63c
00000200: 5599 473c 79f6 4bbd 420a d3ba 6790 54bd
00000210: 9bc7 89bd 9c38 29bd 2db2 afbd 788d a23c
00000220: 7e7a 21bd 32c1 b93c 3b52 8ebb 5315 98bc
00000230: 56c1 86bd 046e d2ba f99c 96bc 4575 0abd
00000240: 1204 17bd 3418 63bd 358f 14bd 417f f53c
00000250: 313a a63c 21d0 d23c 3c71 803a 1804 abbc
00000260: 191b 92bc 2845 d93c d68e aa3c 0f81 0c3c
00000270: 1706 133a ade4 de3c 0eaa cc3c acc0 14bd
00000280: 533c 2bbd 1f2b 92bd 698e d2bc 0f1d 0c3c
00000290: 5275 27bd 58bf a93b 254f 1abb 35c3 703c
000002a0: 2cc0 1e3d 0b5c 243c b984 d33c 0f7d 323b
000002b0: 9827 f2bc 7b6e c7bc 742e 67bd 232f c7ba
000002c0: a08e f1bb 675d 2fbd 9cca 8ebc 0a59 0bbb
000002d0: 1f12 22bd 9b21 a6bc d48f 33bd c03b 48ba
000002e0: 34d9 223c 127e 2e3b 6bab 12bc b37e 65bd
000002f0: 1208 233c 0045 5c3b 3a31 123d d5d5 efbc
00000300: 7228 b3bc e849 723b fab6 573d a346 b13b
00000310: 456c 52bd 7312 3b3b 6539 533d c15f fabc
00000320: 0f6b 28bd d2fe 7b3d 5aa1 89bc ae91 a0bd
00000330: 3405 dcbc 8d2a 51bd 79c3 21bd 8280 24bd
00000340: f3e2 b93a 0166 8e3a 01b5 c3bc 4b8a 6a3a
00000350: c256 7dbb b184 f53b 0fb3 aebb f530 ebbc
00000360: 7a6b 163d 1ddc ff3c fb71 5fbc 805a 9abc
00000370: 06e8 623b df99 8cbc e396 363c 4c51 1bbc
00000380: 1c6a d03c 07ed 8ebc b20f 213d 9267 933c
00000390: 63b3 dcbc 8f4d a2bc fe4b 3bbd 2a6e 7a3b
000003a0: feae b7bb 9c1f 56bc 412e 003d 7ad3 3fbd
000003b0: 7265 c63c 931e 8fbc ba0b 8cbc c83d 2fbd
000003c0: f4fe 113d 10fd 1c3d 29ee 013d 6222 c1bc
000003d0: d145 5dbd 69d3 7dbb 01a0 433b bd47 35bd
000003e0: 9237 3d3c 0640 3b3c d8b3 57bc 4b28 d4bb
000003f0: 7ca1 6cbc 7f85 9a3c da9c 503c 215b 653c

module.encoder.c1.main.3.bias f4 [32]
-0.0002480001 1.4725582e-05 1.7760964e-05 -0.0001783276 -4.9336966e-05 4.9189523e-05 0.00020733157 -0.00025836538
2.7390692e-05 0.00020309625 3.2999138e-05 -0.00030116888 -6.943181e-05 -6.5206346e-05 0.00018029984 3.456436e-05
-0.0010319072 0.00080196856 0.000110114874 -4.4699795e-05 -4.4794524e-05 0.00067749846 -0.00041604458 0.00018257867
-3.4088732e-06 4.4243392e-05 5.8698733e-05 -1.2669143e-05 7.799585e-06 -5.3984513e-05 -1.2559582e-05 0.00012554342
00000000: 0306 82b9 e50d 7737 61fd 9437 73fd 3ab9
00000010: 2aef 4eb8 d950 4e38 2567 5939 3775 87b9
00000020: 10c5 e537 3cf6 5439 8e68 0a38 34e6 9db9
00000030: eb9b 91b8 64bf 88b8 df0e 3d39 33f9 1038
00000040: 0f41 87ba 333b 523a 79ed e638 0a7c 3bb8
00000050: c1e1 3bb8 279a 313a 8f20 dab9 9772 3f39
00000060: ffc3 64b6 fb91 3938 4933 7638 8e8d 54b7
00000070: f6da 0237 6e6d 62b8 feb6 52b7 4ea4 0339

module.encoder.c1.main.4.weight f4 [32]
0.9381186 0.9789434 0.95761997 0.9630012 0.95283985 0.9922124 0.9892168 0.93213457
0.9609214 0.99127394 0.9303972 0.99807703 0.96127194 0.9572287 1.0039692 0.9341106
0.9912835 0.973479 0.97054493 0.97330886 0.9364716 0.9739715 1.0278524 0.9701034
0.95306784 0.98715836 0.9408347 0.9459625 0.97636896 0.93259865 0.91504073 0.9665572
00000000: 8a28 703f 099c 7a3f 9526 753f 3f87 763f
00000010: 50ed 733f a201 7e3f 503d 7d3f 5fa0 6e3f
00000020: f2fe 753f 21c4 7d3f 832e 6e3f fa81 7f3f
00000030: eb15 763f f10c 753f 1082 803f df21 6f3f
00000040: c1c4 7d3f eb35 793f a275 783f c52a 793f
00000050: 9abc 6f3f 3256 793f ab90 833f b258 783f
00000060: 41fc 733f 69b6 7c3f 8bda 703f 992a 723f
00000070: 51f3 793f c9be 6e3f 1c40 6a3f 4b70 773f

module.encoder.c1.main.4.bias f4 [32]
0.0130856605 -0.0027672031 -0.019993095 -0.056640416 0.0065881843 -0.00502857 -0.048757013 -0.1035934
-0.011684421 -0.056814387 -0.08409678 -0.05674643 -0.09766557 -0.1151919 -0.02517545 -0.004219015
-0.0781345 0.019556638 -0.09176856 -0.053941026 -0.059962638 -0.054305058 -0.15338364 -0.005305822
0.017393136 -0.049537733 0.003929182 -0.09204516 -0.0843294 -0.12732562 -0.09571296 -0.09796247
00000000: 3d65 563c f759 35bb 8fc8 a3bc c8ff 67bd
00000010: b2e1 d73b b4c6 a4bb 6fb5 47bd c728 d4bd
00000020: 0470 3fbc 34b6 68bd ef3a acbd f26e 68bd
00000030: e304 c8bd bbe9 ebbd bf3c cebc aa3f 8abb
00000040: fb04 a0bd 3e35 a03c 28f1 bbbd 44f1 5cbd
00000050: 629b 75bd fb6e 5ebd 9a10 1dbe 76dc adbb
00000060: 0d7c 8e3c 14e8 4abd 5ec0 803b 2c82 bcbd
00000070: e4b4 acbd a661 02be 2805 c4bd 8ca0 c8bd

module.encoder.c2.main.0.weight f4 [64, 32, 3, 3]
-0.006317356 -0.016041309 0.012279286 0.0014257977 -0.045820937 -0.014277482 -0.0064618755 0.045744494
0.019209662 0.046957538 0.015611161 0.0020920627 -0.0133860335 -0.031140761 -0.027394267 0.0068418826
-0.0026198283 -0.014253766 -0.01763562 -0.009722149 -0.0124032805 -0.06136915 -0.030316217 -0.037881877
-0.024613522 0.015759533 -0.01112297 -0.037974317 0.017240059 0.0028754883 -0.005926696 -0.061204482
-0.03774197 0.02031884 0.04257208 -0.0153593905 -0.04392427 -0.0061700973 0.012542511 -0.076942086
-0.02656452 0.0072836643 -0.09327539 -0.009109945 -0.009551212 0.0013723522 -0.022127613 -0.03424689
-0.026599666 0.0029105162 0.00751049 -0.024924759 0.027563706 -0.015159254 0.0061498526 -0.024192264
-0.01427165 -0.014792652 -0.021370944 -0.0033487652 -0.040824175 -0.058311682 -0.009021052 0.026786659
-0.03726097 -0.009756785 -0.051084094 -0.014391794 0.022754371 0.028011706 0.09294678 0.03699867
-0.028138522 -0.0684609 0.002025205 0.04082062 -0.017407743 -0.019127056 0.05001519 0.03291373
0.03918826 0.06868159 0.05328579 0.059842262 -0.011317437 -0.03675566 0.024930034 -0.034667186
-0.040508654 0.014199165 -0.06293559 -0.102032356 -0.02196114 0.057419535 -0.0051440005 0.016974209
0.043681722 0.0022255012 -0.0059139878 0.002811977 0.023066757 -0.044864934 0.0071952143 0.0017979887
-0.03383886 -0.042098753 -0.03892803 -0.03454648 0.05003793 0.041648176 0.06544057 0.008077257
-0.032607123 -0.0017786769 0.04211168 0.008428573 0.027178442 -0.020808809 -0.035414293 -0.015366322
0.009941551 -0.04042709 0.039238676 0.03132018 0.037799038 0.065739214 -0.114753336 -0.059161097
-0.034119118 -0.050606374 -0.017039953 0.030653073 -0.0026391207 -0.012650821 -0.050092142 0.015681809
-0.056467764 -0.0068552406 -0.004489806 -0.0035667613 -0.040644117 0.0061082616 0.02670112 -0.031300656
-0.012151103 -0.037574314 -0.0085444525 0.025407303 -0.022996252 0.023110673 0.014912227 -0.038902484
-0.044190936 -0.022841 0.015244978 0.013918024 -0.016103627 0.014601733 -0.064546145 -0.032368552
0.033333868 0.016493298 0.019744644 0.0030737875 0.017994251 -0.056489248 -0.043141693 0.0005925158
0.008539964 -0.0042842976 -0.069586396 0.009341861 -0.001763229 -0.029095998 0.013572078 -0.032512713
-0.02119041 0.031849153 -0.029007386 -0.0010182193 0.05107449 -0.0068013854 0.016059423 -0.010171599
0.026406856 -0.0020509604 -0.0034963663 0.030331468 -0.0077897566 0.061317276 0.005739642 0.017352864
0.037369598 -0.07053598 -0.0044655018 -0.061016984 -0.025907477 -0.01650966 0.029761078 -0.029196177
-0.03975189 0.0050792214 0.025839573 -0.024617234 -0.05363447 -0.033057123 -0.048578974 -0.023655493
-0.08458742 0.018146068 -0.009080632 -0.021176144 0.0152146295 0.06518783 0.0064051542 0.09462901
-0.01767196 0.03600129 -0.03602643 0.01191065 0.044960037 -0.030400455 -0.008515117 0.021948153
-0.028579904 -0.04744653 0.011265371 -0.03097718 -0.024588125 -0.05798997 -0.014901674 0.043403033
0.058044415 0.027890358 -0.0033361316 0.04384402 -0.0025963061 0.028777936 -0.017042203 0.049035322
-0.0478138 0.027224064 -0.009405373 -0.016006585 -0.0048652734 0.05111326 -0.043476935 -0.0058529344
-0.056259178 0.025420459 0.021849869 0.03888535 -0.023025207 0.023161532 -0.018468082 0.018673057
00000000: d301 cfbb 1069 83bc 0f2f 493c d5e1 ba3a
00000010: bcae 3bbd 1aec 69bc 24be d3bb 945e 3b3d
00000020: 955d 9d3c 8c56 403d f4c5 7f3c fd1a 093b
00000030: 1851 5bbc e91a ffbc f169 e0bc df31 e03b
00000040: 6db1 2bbb a188 69bc 9378 90bc a649 1fbc
00000050: 2137 4bbc 385e 7bbd b759 f8bc 072a 1bbd
00000060: 4ca2 c9bc 231a 813c 1e3d 36bc f58a 1bbd
00000070: 063b 8d3c b072 3c3b bb34 c2bb 8db1 7abd
00000080: 5397 1abd b273 a63c 1060 2e3d f4a5 7bbc
00000090: efe9 33bd 872e cabb 1b7f 4d3c d093 9dbd
000000a0: d69d d9bc ceab ee3b 2b07 bfbd e141 15bc
000000b0: b07c 1cbc 80e0 b33a f844 b5bc 7846 0cbd
000000c0: 8be7 d9bc 5cbe 3e3b 8e1a f63b 022f ccbc
000000d0: 48cd e13c 855e 78bc b484 c93b db2e c6bc
000000e0: a4d3 69bc e15c 72bc 1e12 afbc f576 5bbb
000000f0: 4037 27bd 3bd8 6ebd 09cd 13bc b26f db3c
00000100: f59e 18bd ecda 1fbc 8e3d 51bd 8fcb 6bbc
00000110: 6067 ba3c ce78 e53c e25a be3d eb8b 173d
00000120: c282 e6bc 3a35 8cbd 4db9 043b 8633 273d
00000130: af9a 8ebc 58b0 9cbc badc 4c3d 8cd0 063d
00000140: de83 203d efa8 8c3d 3342 5a3d 291d 753d
00000150: c56c 39bc 1a8d 16bd 123a cc3c 2eff 0dbd
00000160: 67ec 25bd 9da3 683c 60e4 80bd 57f6 d0bd
00000170: d9e7 b3bc bf30 6b3d 018f a8bb 7f0d 8b3c
00000180: 9beb 323d b7d9 113b 20ca c1bb 2549 383b
00000190: 7ff6 bc3c 4bc4 37bd d5c5 eb3b 7daa eb3a
000001a0: 9e9a 0abd be6f 2cbd ff72 1fbd 9c80 0dbd
000001b0: 93f4 4c3d 4797 2a3d b505 863d 7956 043c
000001c0: 0c8f 05bd 7e22 e9ba 4c7d 2c3d ff17 0a3c
000001d0: 53a5 de3c 3c77 aabc 940e 11bd 07c3 7bbc
000001e0: e3e1 223c e096 25bd bcb8 203d 9749 003d
000001f0: 2ad3 1a3d 48a2 863d cc03 ebbd e852 72bd
00000200: 7dc0 0bbd a148 4fbd 5f97 8bbc 271c fb3c
00000210: 19f5 2cbb 6445 4fbc 6b2d 4dbd 2377 803c
00000220: be4a 67bd eda1 e0bb 391f 93bb 53c0 69bb
00000230: 727a 26bd d027 c83b 4fbc da3c 1e35 00bd
00000240: 6b15 47bc 86e7 19bd 08fe 0bbc fa22 d03c
00000250: a362 bcbc 9852 bd3c 6a52 743c 3658 1fbd
00000260: 8e01 35bd 0d1d bbbc 12c6 793c 6c08 643c
00000270: c1eb 83bc 1b3c 6f3c c530 84bd e394 04bd
00000280: 1889 083d f41c 873c 85bf a13c 9971 493b
00000290: ae68 933c 4561 67bd 58b5 30bd 1053 1b3a
000002a0: 35eb 0b3c 4b63 8cbb 5083 8ebd 9b0e 193c
000002b0: 261c e7ba bb5a eebc 6c5d 5e3c 0d2c 05bd
000002c0: 8397 adbc 4274 023d e6a0 edbc c575 85ba
000002d0: 7c33 513d 28de debb 0d8f 833c c7a6 26bc
000002e0: 3153 d83c 6869 06bb 4b23 65bb b379 f83c
000002f0: 3741 ffbb d327 7b3d 9b13 bc3b 9827 8e3c
00000300: dd10 193d 2b75 90bd 5853 92bb f2ec 79bd
00000310: eb3b d4bc 443f 87bc 81cd f33c d22c efbc
00000320: e1d2 22bd 996f a63b 83ad d33c 15aa c9bc
00000330: d1af 5bbd e866 07bd bffa 46bd 2ac9 c1bc
00000340: 2b3c adbd 10a7 943c eec6 14bc 9879 adbc
00000350: c846 793c 3281 853d 54e2 d13b dbcc c13d
00000360: c9c4 90bc 1776 133d 7390 13bd e324 433c
00000370: 0428 383d 600a f9bc fd82 0bbc 9dcc b33c
00000380: 6720 eabc 4b57 42bd 6492 383c dbc3 fdbc
00000390: 096d c9bc e486 6dbd 2726 74bc 61c7 313d
000003a0: fbbf 6d3d 527a e43c 00a3 5abb ca95 333d
000003b0: ca26 2abb b5bf eb3c 179c 8bbc 43d9 483d
000003c0: 67d8 43bd 0005 df3c fe18 1abc 3e20 83bc
000003d0: df6c 9fbb 235c 513d df14 32bd f9c9 bfbb
000003e0: 0670 66bd 913e d03c 7ffe b23c 3f46 1f3d
000003f0: 5c9f bcbc 41bd bd3c 604a 97bc 3df8 983c

module.encoder.c2.main.0.bias f4 [64]
3.5587487e-05 4.4142485e-05 1.446423e-05 -1.949709e-05 2.756965e-05 2.8690007e-05 0.00013738991 0.00011560198
-2.9908593e-05 0.00016381746 6.816397e-05 5.432064e-05 4.677426e-06 0.000105159226 3.9322418e-05 7.213451e-05
-1.4234327e-05 -3.661251e-05 -3.7296137e-05 4.387454e-05 -2.5564686e-05 6.005906e-05 9.4404146e-05 7.021497e-05
0.00012834602 5.907964e-05 -0.0001369471 0.00038019137 -6.870311e-05 -9.957472e-06 0.00012219974 0.00012640083
0.00016397075 0.00010700285 8.828614e-05 -2.0535442e-06 0.00015641324 4.0333107e-05 5.693285e-05 4.3187436e-05
7.415737e-05 7.740351e-05 4.466613e-05 2.8093662e-05 0.00030478748 -1.8437371e-05 -8.346725e-06 -4.2766783e-06
2.0109275e-05 6.353686e-05 2.86042e-05 9.8928045e-05 0.00016680262 -1.942436e-06 0.00014065472 6.191049e-05
0.0001562293 0.00012790416 -1.39874555e-05 2.2848533e-05 4.5564284e-05 3.5203198e-06 -4.611844e-06 8.564975e-05
00000000: c643 1538 a225 3938 65ab 7237 af8d a3b7
00000010: 5f45 e737 52ab f037 5310 1039 576f f238
00000020: 37e4 fab7 6ac6 2b39 41f3 8e38 58d6 6338
00000030: c9f2 9c36 ee88 dc38 20ee 2438 ec46 9738
00000040: f8cf 6eb7 6290 19b8 6c6e 1cb8 ee05 3838
00000050: bf73 d6b7 ede7 7b38 d7fa c538 6040 9338
00000060: 9f94 0639 48cc 7738 7599 0fb9 6c54 c739
00000070: b414 90b8 040f 27b7 be22 0039 778a 0439
00000080: 90ef 2b39 b866 e038 4326 b938 9fcf 09b6
00000090: dc02 2439 582b 2938 2fcb 6e38 2824 3538
000000a0: ef84 9b38 b153 a238 e457 3b38 aeaa eb37
000000b0: e2cb 9f39 f4a9 9ab7 e908 0cb7 6380 8fb6
000000c0: 57b0 a837 183f 8538 0df3 ef37 9777 cf38
000000d0: bde7 2e39 cc5a 02b6 b77c 1339 f1d5 8138
000000e0: 7cd1 2339 031e 0639 aaab 6ab7 daaa bf37
000000f0: 471c 3f38 a23e 6c36 70bf 9ab6 dc9e b338

module.encoder.c2.main.1.weight f4 [64]
0.9948757 0.9757536 0.9228945 1.0068066 1.0178379 0.99953467 0.96175057 1.0071254
0.9828444 1.0061768 0.90989316 1.0165987 1.005307 1.0056944 0.94514525 1.0046688
0.9498856 1.0056468 0.9956299 0.98234123 0.9488836 0.9854561 0.9694613 1.0011518
1.0044498 0.9549931 0.99936587 1.0220712 1.011957 0.9793066 1.0307186 1.0012779
1.0177857 0.9668272 0.95749086 1.0265402 1.0945165 1.0282042 1.032262 1.0513339
0.98237413 0.95735955 1.0331681 0.9608638 0.9788474 0.9934252 0.97996235 1.0130548
0.9820768 0.93356484 0.9918223 1.0217577 1.024636 1.0590601 1.0095993 0.9938967
1.0688949 0.9786584 1.0101689 0.96979606 1.0455688 0.9824526 0.98470473 1.0200536
00000000: 2db0 7e3f fdca 793f d042 6c3f 0adf 803f
00000010: 8348 823f 81e1 7f3f 4935 763f 7ce9 803f
00000020: b19b 7b3f 67ca 803f c2ee 683f e81f 823f
00000030: e6ad 803f 98ba 803f 0af5 713f fd98 803f
00000040: b42b 733f 09b9 803f 9ae1 7e3f b77a 7b3f
00000050: 09ea 723f da46 7c3f 9e2e 783f be25 803f
00000060: d091 803f 6e7a 743f 71d6 7f3f 3bd3 823f
00000070: cf87 813f d6b3 7a3f 96ee 833f e029 803f
00000080: cd46 823f fd81 773f 1f1e 753f ab65 833f
00000090: 1e19 8c3f 329c 833f 2921 843f 1c92 863f
000000a0: df7c 7b3f 8415 753f da3e 843f 2cfb 753f
000000b0: be95 7a3f 1d51 7e3f d0de 7a3f c8ab 813f
000000c0: 6369 7b3f 1bfe 6e3f 11e8 7d3f f5c8 823f
000000d0: 4627 833f 488f 873f 8d3a 813f 0470 7e3f
000000e0: 8cd1 883f 5b89 7a3f 374d 813f 8e44 783f
000000f0: 33d5 853f 0382 7b3f 9c15 7c3f 1e91 823f

module.encoder.c2.main.1.bias f4 [64]
-0.2255435 -0.062318813 -0.15748031 -0.19666792 -0.08725385 -0.15781629 -0.11759562 -0.08843691
-0.064069666 -0.12829156 -0.19758286 -0.17059076 -0.08454402 -0.15909323 -0.14182723 -0.10373497
-0.122905545 -0.06930478 -0.110348724 -0.056894958 -0.06710826 -0.14607714 -0.17476174 -0.12090379
-0.095390946 -0.11310503 -0.1521134 -0.1697059 -0.055636033 -0.18253876 -0.1017763 -0.18561538
-0.07965182 -0.11249805 -0.19072466 -0.1402277 -0.09273879 -0.12904304 -0.06994023 -0.0860474
-0.15496813 -0.0996898 -0.071368575 -0.10012103 -0.0974221 -0.08861702 -0.12422877 -0.11235679
-0.099203214 -0.12256389 -0.15948628 -0.20973475 -0.022041656 -0.013845699 -0.09546324 -0.112399
-0.024265302 -0.121700324 -0.16286168 -0.14288741 -0.06739941 -0.1257589 -0.06542785 -0.13743299
00000000: e0f4 66be 0342 7fbd 8542 21be 5163 49be
00000010: 26b2 b2bd 989a 21be f9d5 f0bd 691e b5bd
00000020: f536 83bd dd5e 03be 2953 4abe 58af 2ebe
00000030: 6a25 adbd 56e9 22be 283b 11be 0073 d4bd
00000040: e7b5 fbbd aaef 8dbd 83fe e1bd b00a 69bd
00000050: 0e70 89bd 3f95 15be bef4 32be 689c f7bd
00000060: 545c c3bd 9ca3 e7bd 9dc3 1bbe 62c7 2dbe
00000070: 9ce2 63bd 71eb 3abe 1870 d0bd f511 3ebe
00000080: 7e20 a3bd 6165 e6bd 534d 43be da97 0fbe
00000090: d6ed bdbd dc23 04be d33c 8fbd 9f39 b0bd
000000a0: f7af 1ebe 2a2a ccbd b029 92bd 410c cdbd
000000b0: 3d85 c7bd d77c b5bd a76b febd 511b e6bd
000000c0: 0e2b cbbd c702 fbbd 5f50 23be b5c4 56be
000000d0: b490 b4bc 12d9 62bc 3b82 c3bd 7231 e6bd
000000e0: 07c8 c6bc 053e f9bd 36c5 26be 1451 12be
000000f0: b408 8abd f1c6 00be 09ff 85bd 3cbb 0cbe

module.encoder.c2.main.3.weight f4 [64, 64, 3, 3]
-0.04511881 -0.053580347 -0.0017113346 -0.0069416505 0.017833062 0.0014090873 -0.001240484 -0.010491867
-0.03613274 -0.0058431346 -0.030993532 0.017007371 0.020749783 0.03610346 0.026122805 -0.045758177
0.030073302 0.029013293 -0.037778866 0.012058341 0.0031985927 -0.024649188 -0.00445862 -0.01289936
-0.035935014 -0.019351678 -0.023619605 0.03146629 0.035813626 0.017256074 0.016950808 0.053249743
-0.0395177 0.014468059 0.06177206 -0.06505873 0.0108707845 0.019632695 -0.0038097862 0.035636906
-0.0047120266 0.0128970975 -0.056193735 -0.10515001 -0.019908518 -0.0012768817 -0.048174907 0.010705703
-0.007212058 -0.03990163 -0.034982618 -0.013492248 -0.0245407 -0.04180571 -0.001484481 -0.037066367
-0.029594526 0.001562071 0.044058874 0.0020444582 0.013155171 0.0055328617 0.018172234 0.0623483
-0.012306579 -0.004998266 -0.044525515 -0.027224516 0.06492593 -0.044289935 -0.07008484 -0.071280465
-0.0020991655 -0.07508627 0.03523154 -0.023337109 -0.061529566 0.021600766 -0.045693904 -0.021392187
0.050858267 -0.00055308087 0.072521724 -0.04214434 -0.00069435354 -0.051723547 -0.040889528 -0.030270662
0.017974587 0.03494271 0.012558204 0.012535409 0.048771594 0.023307279 0.04617354 -0.018438406
0.024145517 -0.013315756 0.011668001 0.03168381 0.061855644 0.053124838 -0.01564093 -0.017266417
-0.06416428 0.020115394 0.03337642 -0.04318333 -0.062212285 0.007189905 -0.030439895 0.010661722
-0.02415714 0.009452718 -0.046669003 0.010104462 -0.004454479 0.023791721 0.05858526 -0.034049086
-0.037618767 -0.015618251 0.034925386 0.018874273 0.0067569274 -0.016687123 0.004040286 -0.017175196
0.011680642 -0.049548745 0.008694426 0.009895769 0.05351946 -0.03525774 -0.009415022 -0.032333024
-0.010720881 -0.018378375 0.0009949952 0.01248797 -0.0376035 0.017948503 0.02346736 -0.022446102
0.03729285 0.022197846 0.04435013 -0.011800162 -0.020995662 -0.0041270987 0.007291469 0.00046390246
0.007899658 -0.05938013 0.021719884 -0.007301095 -0.0019870724 0.0045521064 -0.021482745 -0.039483357
0.028679146 0.016432624 0.02322927 -0.010602326 0.034535162 0.00021028472 0.010952395 0.02116229
0.013213942 0.0033722394 0.03139469 -0.032445394 -0.003575346 0.0018239444 0.025220146 0.03908147
0.049766667 -0.008364004 0.026263181 -0.009717631 -0.013909292 0.023946522 0.013550547 0.0019447102
0.00013887341 0.02439365 -0.027398247 0.015206534 -0.061266735 -0.0043752147 -0.012623341 0.009685112
0.016319769 0.033856332 0.005024798 -0.0047775153 0.030132592 0.018352842 0.05598279 0.042624794
0.038216457 0.11361323 0.015369333 0.043648 -0.017357804 0.030720595 -0.04350695 -0.011254508
-0.01763395 0.0070213866 -0.030046904 -0.008089242 -0.03230844 0.024337104 -0.03272527 -0.029656235
-0.039477564 0.031009192 -0.003344633 0.012586196 -0.026278744 -0.08137484 -0.013386066 0.022357363
-0.022413014 0.05069695 0.02183689 0.04027059 0.012023176 -0.016998202 0.060430653 -0.04095493
-0.030661462 0.051374014 -0.02932185 0.001656046 0.0019850433 -0.026429025 -0.042842604 0.015339274
-0.0052450155 -0.0126408655 -0.009798144 -0.017948503 0.039919984 -0.000108844935 0.027150026 0.043674894
0.11848884 -0.022025043 -0.033109013 -0.019155448 -0.004671673 -0.0331747 -0.020277843 0.013950492
00000000: 80ce 38bd 1177 5bbd dc4e e0ba c976 e3bb
00000010: a416 923c 20b1 b83a bc97 a2ba 14e6 2bbc
00000020: edff 13bd c477 bfbb 26e6 fdbc 0b53 8b3c
00000030: 73fb a93c 39e1 133d 7eff d53c ed6c 3bbd
00000040: 495c f63c 49ad ed3c 03be 1abd 5990 453c
00000050: 7b9f 513b 18ed c9bc 9e19 92bb d657 53bc
00000060: 9830 13bd 6987 9ebc e77d c1bc cce2 003d
00000070: 4fb1 123d 9c5c 8d3c 6cdc 8a3c 671c 5a3d
00000080: 50dd 21bd 700b 6d3c b304 7d3d 833d 85bd
00000090: 601b 323c bfd4 a03c 9bad 79bb 01f8 113d
000000a0: 5867 9abb 594e 533c 672b 66bd e358 d7bd
000000b0: 3017 a3bc 0a5d a7ba 0d53 45bd f966 2f3c
000000c0: 2153 ecbb e46f 23bd ef49 0fbd 970e 5dbc
000000d0: 9409 c9bc 773c 2bbd eb92 c2ba e7d2 17bd
000000e0: 3870 f2bc 68be cc3a 1477 343d 51fc 053b
000000f0: c988 573c 024d b53b f0dd 943c ee60 7f3d
00000100: 89a1 49bc 7fc8 a3bb 6360 36bd f305 dfbc
00000110: e3f7 843d 5d69 35bd a488 8fbd 7efb 91bd
00000120: 2792 09bb d5c6 99bd f34e 103d 772d bfbc
00000130: 6d06 7cbd 17f4 b03c 8829 3bbd ab3e afbc
00000140: c250 503d a1fc 10ba 4586 943d 8b9f 2cbd
00000150: 4705 36ba 12dc 53bd c77b 27bd 2efa f7bc
00000160: 713f 933c 1620 0f3d edc0 4d3c 5161 4d3c
00000170: b9c4 473d e8ee be3c 7720 3d3d 240c 97bc
00000180: d2cc c53c 542a 5abc 252b 3f3c e2c6 013d
00000190: 585c 7d3d 6e99 593d 6821 80bc 4d72 8dbc
000001a0: 9068 83bd 0ac9 a43c b7b5 083d 01e1 30bd
000001b0: 4fd2 7ebd 4b99 eb3b 165d f9bc 81ae 2e3c
000001c0: 32e5 c5bc 93df 1a3c ff27 3fbd 2f8d 253c
000001d0: e1f6 91bb dbe6 c23c 19f7 6f3d 0e77 0bbd
000001e0: 2316 1abd b1e3 7fbc ec0d 0f3d 389e 9a3c
000001f0: 3769 dd3b 6fb3 88bc 6064 843b ffb2 8cbc
00000200: 2a60 3f3c a0f3 4abd 1173 0e3c dd21 223c
00000210: 3937 5b3d 6c6a 10bd 7741 1abc a26f 04bd
00000220: a2a6 2fbc 3f8e 96bc 806a 823a 589a 4c3c
00000230: 2106 1abd bd08 933c 9f3e c03c e3e0 b7bc
00000240: 63c0 183d 42d8 b53c 7ba8 353d 7755 41bc
00000250: 18ff abbc 9d3c 87bb 46ed ee3b ef37 f339
00000260: 916d 013c 9438 73bd e6ed b13c 063e efbb
00000270: 8b39 02bb d629 953b 95fc afbc 4db9 21bd
00000280: 87f0 ea3c b69d 863c 4f4b be3c 61b5 2dbc
00000290: be74 0d3d e07f 5c39 ad71 333c 8a5c ad3c
000002a0: 4a7f 583c ca00 5d3b b897 003d 76e5 04bd
000002b0: 5a50 6abb 6b11 ef3a 7b9a ce3c e413 203d
000002c0: 22d8 4b3d 2d09 09bc e225 d73c b336 1fbc
000002d0: cde3 63bc 7f2b c43c 1d03 5e3c a5e5 fe3a
000002e0: 8c9e 1139 31d5 c73c 4a72 e0bc d424 793c
000002f0: d4f2 7abd f65d 8fbb 21d2 4ebc 4eae 1e3c
00000300: 09b1 853c f0ac 0a3d 10a7 a43b b48c 9cbb
00000310: a0d8 f63c b358 963c 364e 653d 5697 2e3d
00000320: dc88 1c3d 0eae e83d a8cf 7b3c 3fc8 323d
00000330: f431 8ebc c2a9 fb3c 5834 32bd d464 38bc
00000340: 1375 90bc a913 e63b ed24 f6bc bd88 04bc
00000350: db55 04bd 9b5e c73c ef0a 06bd a2f1 f2bc
00000360: 3ab3 21bd fd06 fe3c a131 5bbb 5536 4e3c
00000370: 8546 d7bc daa7 a6bd 3b51 5bbc ca26 b73c
00000380: 7f9b b7bc 9ba7 4f3d 47e3 b23c c6f2 243d
00000390: dbfc 443c d03f 8bbc 2286 773d 5bc0 27bd
000003a0: bf2d fbbc 8f6d 523d 6034 f0bc af0f d93a
000003b0: 8017 023b af81 d8bc ba7b 2fbd 9451 7b3c
000003c0: 61de abbb a21b 4fbc 6588 20bc bd08 93bc
000003d0: 2383 233d ae43 e4b8 bb69 de3c 72e4 323d
000003e0: 47aa f23d dd6d b4bc 519d 07bd e3eb 9cbc
000003f0: d514 99bb 32e2 07bd b81d a6bc 9b90 643c

module.encoder.c2.main.3.bias f4 [64]
1.6049833e-05 7.883055e-05 -1.5612379e-05 -8.228908e-06 1.7438404e-05 3.843304e-06 -0.00010954492 -9.726676e-06
-2.4950714e-05 -1.09877155e-05 8.617812e-06 3.6132104e-05 -1.832386e-06 4.445741e-05 -7.0119604e-05 4.741003e-05
1.629793e-05 -5.012121e-06 -2.831785e-06 -4.094692e-05 1.5542772e-05 -2.2527136e-05 -8.411231e-06 -0.00010521064
-1.3744715e-06 7.8123585e-06 -1.3537783e-05 6.7119e-05 -1.0513224e-05 -2.9193558e-05 6.7911055e-06 -8.220282e-05
-3.3145912e-05 -8.418717e-05 -3.8081023e-06 -3.638446e-05 1.8728604e-05 0.00011224824 -8.4557796e-05 2.0113675e-05
-9.434447e-06 -2.197988e-05 -2.1474592e-05 -1.3190341e-05 -7.366092e-05 3.051906e-05 -1.9509898e-05 -6.936416e-05
-2.3417919e-05 1.2528805e-05 -5.7500736e-05 4.4751996e-05 -8.751873e-05 -4.1881656e-05 -2.313217e-05 -1.1618358e-05
1.0650624e-05 -8.153139e-05 1.3193023e-05 4.592883e-05 2.6340476e-05 -2.6770436e-05 2.8322438e-05 -5.4068155e-06
00000000: c1a2 8637 d451 a538 54f7 82b7 e40e 0ab7
00000010: b048 9237 bbf5 8036 7bbb e5b8 c12f 23b7
00000020: 404d d1b7 e157 38b7 3895 1037 8d8c 1738
00000030: 4ef0 f5b5 c877 3a38 2d0d 93b8 22da 4638
00000040: 8ab7 8837 cb2d a8b6 b209 3eb6 6cbe 2bb8
00000050: d961 8237 a8f8 bcb7 f61d 0db7 88a4 dcb8
00000060: 7b7a b8b5 d311 0337 5620 63b7 3dc2 8c38
00000070: f461 30b7 b0e4 f4b7 27df e336 4e64 acb8
00000080: 2706 0bb8 a58d b0b8 b38e 7fb6 849b 18b8
00000090: 5f1b 9d37 d166 eb38 9f54 b1b8 cab9 a837
000000a0: a448 1eb7 6f61 b8b7 5624 b4b7 154c 5db7
000000b0: 687a 9ab8 9701 0038 30a9 a3b7 9a77 91b8
000000c0: 9971 c4b7 cf32 5237 f22c 71b8 17b4 3b38
000000d0: 438a b7b8 16aa 2fb8 f50b c2b7 78ec 42b7
000000e0: 15b0 3237 d5fb aab8 9a57 5d37 b5a3 4038
000000f0: bef5 dc37 1391 e0b7 f995 ed37 316c b5b6

module.encoder.c2.main.4.weight f4 [64]
0.99654996 1.0258355 0.97269106 1.0109437 0.9975983 0.9836621 0.99884135 0.9874673
1.0520306 0.9856205 0.9582409 0.99428725 0.9948324 1.0089978 1.0001034 1.0187281
0.9875529 0.9762471 0.98927927 0.9675782 0.98205435 1.0000488 0.9761083 1.019051
1.0181746 1.0078695 0.9812942 1.0027515 1.0168369 0.9677223 0.95893747 1.005477
0.9686929 1.0433412 0.9642491 0.9899953 1.0199862 1.0086449 1.0142629 0.987957
0.9933975 0.9891312 1.0027215 0.9717012 1.0195632 0.9843604 1.0113792 1.0023181
0.9715203 0.9967287 0.9842434 1.0211992 1.0126562 1.0210361 0.9891781 1.0242043
1.02328 1.0227877 0.97995096 1.0472893 1.0130638 1.028035 1.0199766 1.0020483
00000000: e61d 7f3f 944e 833f 4802 793f 9a66 813f
00000010: 9a62 7f3f 48d1 7b3f 11b4 7f3f a8ca 7c3f
00000020: f0a8 863f a051 7c3f 474f 753f 9c89 7e3f
00000030: 56ad 7e3f d726 813f 6303 803f af65 823f
00000040: 44d0 7c3f 54eb 793f 6841 7d3f 34b3 773f
00000050: ea67 7b3f 9901 803f 3ce2 793f 4370 823f
00000060: 8c53 823f de01 813f 1936 7b3f 295a 803f
00000070: b627 823f a6bc 773f ed7c 753f 78b3 803f
00000080: 42fc 773f 348c 853f 07d9 763f 5570 7d3f
00000090: e88e 823f 471b 813f 5ed3 813f c0ea 7c3f
000000a0: 4c4f 7e3f b437 7d3f 2e59 803f 69c1 783f
000000b0: 0c81 823f 0bff 7b3f e074 813f f64b 803f
000000c0: 8eb5 783f 9d29 7f3f 60f7 7b3f a8b6 823f
000000d0: b89e 813f 50b1 823f c73a 7d3f 2019 833f
000000e0: d7fa 823f b5ea 823f 11de 7a3f 930d 863f
000000f0: 13ac 813f a796 833f 988e 823f 1e43 803f

module.encoder.c2.main.4.bias f4 [64]
-0.070668206 -0.05255036 -0.1021771 -0.1171882 -0.08368205 -0.087467775 -0.087619506 -0.105281845
-0.15520348 -0.044000305 -0.10427035 -0.08960092 -0.07860714 -0.17263561 -0.14246356 -0.06572057
-0.082981974 -0.03698154 -0.12173489 -0.12243538 -0.033597413 -0.1761388 -0.2149758 -0.06744236
-0.1746826 -0.08192768 -0.14633758 -0.086393975 -0.05087588 -0.1423918 -0.12148604 -0.07947693
-0.14861284 -0.09493647 -0.15973409 -0.2129481 -0.084017284 -0.112395905 -0.12017757 -0.19225709
-0.20666213 -0.13781612 -0.024346473 -0.11190287 -0.13402784 -0.044634126 -0.15975048 -0.17864916
-0.15012792 -0.16924049 -0.16102387 -0.0861494 -0.08205612 -0.06690978 -0.19882411 -0.115514144
-0.14458938 -0.036615986 -0.13759056 -0.10828436 -0.15327203 -0.03887427 -0.081046164 -0.12794878
00000000: 7eba 90bd 0c3f 57bd 3a42 d1bd 5e00 f0bd
00000010: 7f61 abbd 4e22 b3bd db71 b3bd 029e d7bd
00000020: a9ed 1ebe aa39 34bd b18b d5bd b080 b7bd
00000030: c8fc a0bd 64c7 30be f8e1 11be 8298 86bd
00000040: 74f2 a9bd f579 17bd 2450 f9bd 67bf fabd
00000050: 719d 09bd bb5d 34be 9e22 5cbe 381f 8abd
00000060: ffdf 32be b3c9 a7bd 85d9 15be 53ef b0bd
00000070: 3a63 50bd 28cf 11be accd f8bd cdc4 a2bd
00000080: f72d 18be 0d6e c2bd 5591 23be 110f 5abe
00000090: 4111 acbd d32f e6bd a81f f6bd 0bdf 44be
000000a0: 3d9f 53be ab1f 0dbe 4172 c7bc 552d e5bd
000000b0: 983e 09be 46d2 36bd a195 23be ceef 36be
000000c0: 22bb 19be 614d 2dbe 71e3 24be 196f b0bd
000000d0: 0a0d a8bd ff07 89bd 8c98 4bbe ae92 ecbd
000000e0: 3d0f 14be a5fa 15bd 8ae4 0cbe 31c4 ddbd
000000f0: 58f3 1cbe a03a 1fbd 88fb a5bd 0105 03be

module.encoder.c3.0.weight f4 [32, 64, 3, 3]
0.024174739 -0.010920528 -0.0060061 0.07202614 0.0010789807 0.038025226 -0.0013282135 -0.0004880548
0.036938734 0.0069659576 0.0005599651 -0.009068187 -0.012963163 0.023326725 -0.04511233 0.02449166
0.015612726 -0.0018762691 0.0016840608 0.01645307 0.014300358 0.039510023 0.018780878 0.027807357
0.062138747 -0.03169012 0.06048356 0.010202127 0.020622404 0.0025800383 0.01734189 -0.0151855545
0.012531779 0.011139033 -0.022572827 -0.0067215166 0.017667545 -0.040352155 0.0141151585 -0.018922681
0.0076413243 -0.04808158 -0.018822238 0.05224197 -0.037663694 0.003320951 0.023341954 0.030600544
0.0011704135 0.022333803 0.047663886 0.045424107 -0.038886134 0.027983412 0.045595843 0.017357586
0.003975882 0.024804614 -0.014878743 0.00034431196 0.039285153 -0.03901814 0.013949147 0.008504421
-0.020563653 -0.01379181 0.05841214 0.05125053 0.08881547 -0.09212238 -0.020643229 -0.0067935013
0.00036540307 0.06802467 0.061505716 -0.052821156 -0.06840355 -0.11394017 0.028655173 0.013209721
0.0057976134 0.022158574 0.032677636 0.024552815 0.082397655 0.045020774 0.01158112 0.029688817
0.05092894 0.046773523 -0.021679992 -0.007325891 -0.045751065 -0.022860548 -0.04821185 -0.04014529
-0.011282785 -0.014144794 0.01913566 -0.0034255418 0.026930252 0.0034167082 0.014848936 0.012995066
0.020873982 -0.011772252 -0.03392406 -0.01988303 -0.01655436 -0.0016985133 -0.033016536 -0.006627044
0.0074472013 0.05305757 -0.010825381 -0.017488126 0.0598868 0.02913641 -0.0011706373 -0.013226282
0.020313941 0.01443249 -0.008282685 -0.004472718 0.03921082 0.017382436 -0.004022295 0.021190144
-0.0012240851 -0.03595657 -0.04689136 -0.014485776 0.02398488 -0.011809334 -0.0011839014 -0.036191557
-0.008738712 -0.034166854 -0.015189233 -0.034130167 -0.07752593 -0.02339741 -0.047606356 -0.00931908
0.018029232 0.06811896 -0.0035676113 0.0035893333 0.01261606 0.003781719 0.015109862 0.010363621
-0.02067901 0.02973661 -0.017855855 0.04664929 0.009110458 0.05295507 0.0577021 0.009868285
-0.0025627322 0.0017892035 0.026384493 -0.009869019 -0.010041507 -0.043231823 -0.012176044 -0.0059734364
0.03254279 -0.0021477295 0.023447325 0.04551561 0.03186471 -0.0073166997 -0.052689627 -0.01053208
-0.016541058 -0.0053530107 0.021499375 -0.04195198 -0.033120207 0.027150739 -0.010573185 0.008714101
-0.04343936 -0.019745274 -0.007185352 -0.032693658 -0.02388801 -0.09750409 -0.04413937 -0.017621046
-0.018111637 -0.024196958 0.0135699585 -0.032036696 -0.026566414 -0.002785741 -0.015879707 0.01735111
0.016176246 0.00029832046 0.09420297 -0.0033304703 -0.025873806 -0.015622725 -0.02702137 0.032223523
0.08284781 0.044367082 0.00042585804 -0.0019289698 -0.078797095 0.013955821 0.019854503 -0.040492646
-0.034224384 -0.0043727397 -0.05240838 0.0010950872 0.028605713 -0.0011714352 0.01772349 0.014296021
-0.008019559 -0.04455244 0.010022775 -0.025314486 -0.027450234 -0.012377489 -0.03479335 0.03682696
0.049518403 0.049584948 0.01404731 -0.002366319 -0.02393283 -0.018944733 0.0003664449 -0.0060212445
0.04163994 -0.009621461 0.036534913 0.019206004 0.034325223 -0.0025569203 0.018311014 0.0025291732
-0.045902837 -0.05641775 -0.028437993 -0.07382657 0.0127377985 0.013038601 -0.027581252 -0.010370991
00000000: 1a0a c63c 04ec 32bc d2ce c4bb 7182 933d
00000010: 966c 8d3a 57c0 1b3d 7317 aeba 9be1 ffb9
00000020: 124d 173d b042 e43b 9fca 123a bc92 14bc
00000030: 7263 54bc b017 bf3c b5c7 38bd bca2 c83c
00000040: 85cc 7f3c 25ed f5ba b4bb dc3a 97c8 863c
00000050: 0c4c 6a3c 43d5 213d 5bda 993c 41cc e33c
00000060: 3385 7e3d 80cd 01bd 9cbd 773d d226 273c
00000070: 51f0 a83c dc15 293b 9410 8e3c d5cc 78bc
00000080: 1752 4d3c 7e80 363c a6ea b8bc 2b40 dcbb
00000090: 87bb 903c 4d48 25bd 4443 673c bd03 9bbc
000000a0: 1364 fa3b 31f1 44bd 1831 9abc adfb 553d
000000b0: 3f45 1abd 50a4 593b a037 bf3c fead fa3c
000000c0: 8f68 993a 61f5 b63c 353b 433d a10e 3a3d
000000d0: 1147 1fbd 783d e53c b5c2 3a3d 7f31 8e3c
000000e0: 1e48 823b 0c33 cb3c f9c5 73bc c584 b439
000000f0: 78e9 203d 7cd1 1fbd f78a 643c 2156 0b3c
00000100: 1b75 a8bc 0bf7 61bc 9141 6f3d 13ec 513d
00000110: e3e4 b53d a9aa bcbd fd1b a9bc 059c debb
00000120: 9293 bf39 8550 8b3d 6bed 7b3d ff5a 58bd
00000130: 2917 8cbd 7759 e9bd 41be ea3c 966d 583c
00000140: e8f9 bd3b e685 b53c fcd8 053d fc22 c93c
00000150: 1ac0 a83d b467 383d bdbe 3d3c f635 f33c
00000160: dd9a 503d 9895 3f3d 3d9a b1bc 070e f0bb
00000170: 7865 3bbd 0b46 bbbc ca79 45bd 636f 24bd
00000180: 6edb 38bc 91bf 67bc 63c2 9c3c 0e7f 60bb
00000190: d59c dc3c daea 5f3b f448 733c 42e9 543c
000001a0: eaff aa3c 67e0 40bc f5f3 0abd bce1 a2bc
000001b0: 029d 87bc a6a0 deba 593c 07bd ad27 d9bb
000001c0: a707 f43b e552 593d f05c 31bc 4243 8fbc
000001d0: dc4b 753d 7baf ee3c 1270 99ba 0cb3 58bc
000001e0: 6c69 a63c 4076 6c3c 19b4 07bc e18f 92bb
000001f0: 869b 203d 9c65 8e3c 75cd 83bb f496 ad3c
00000200: 7b71 a0ba 3247 13bd 2811 40bd c055 6dbc
00000210: f07b c43c f07b 41bc 242d 9bba 993d 14bd
00000220: d12c 0fbc 8bf2 0bbd 43dc 78bc 13cc 0bbd
00000230: eac5 9ebd edab bfbc e2fe 42bd 0eaf 18bc
00000240: 0ab2 933c f481 8b3d 96ce 69bb 053b 6b3b
00000250: 97b3 4e3c b7d6 773b 5b8f 773c 2dcc 293c
00000260: 0767 a9bc 319a f33c 7146 92bc 5313 3f3d
00000270: 0844 153c 6ae7 583d 0a59 6c3d 96ae 213c
00000280: 83f3 27bb b583 ea3a 4b24 d83c aab1 21bc
00000290: 2285 24bc da13 31bd 087e 47bc d1bc c3bb
000002a0: 974b 053d ecc0 0cbb 9b14 c03c 946e 3a3d
000002b0: 9284 023d edc0 efbb 14d1 57bd bf8e 2cbc
000002c0: 1d81 87bc 4f68 afbb 751f b03c d7d5 2bbd
000002d0: 0ea9 07bd 3a6b de3c 273b 2dbc 97c5 0e3c
000002e0: 78ed 31bd d7c0 a1bc 1a73 ebbb c9e9 05bd
000002f0: cab0 c3bc 39b0 c7bd 7ccb 34bd 035a 90bc
00000300: db5e 94bc b338 c6bc 8854 5e3c e938 03bd
00000310: cfa1 d9bc fa90 36bb 2916 82bc ea23 8e3c
00000320: 0c84 843c e567 9c39 7ded c03d 0544 5abb
00000330: 4ef5 d3bc 75f6 7fbc ec5b ddbc d0fc 033d
00000340: 1dac a93d 42ba 353d b345 df39 7cd5 fcba
00000350: 5f60 a1bd f5a6 643c e9a5 a23c 9edb 25bd
00000360: de2e 0cbd 3349 8fbb 2baa 56bd 0789 8f3a
00000370: 8756 ea3c d88a 99ba da30 913c dc39 6a3c
00000380: 7864 03bc 9f7c 36bd 9136 243c 5360 cfbc
00000390: 50df e0bc f4ca 4abc 7983 0ebd ded7 163d
000003a0: cfd3 4a3d 9619 4b3d b026 663c 3f14 1bbb
000003b0: c80e c4bc fc31 9bbc 671f c039 dc4d c5bb
000003c0: a48e 2a3d 55a3 1dbc a2a5 153d e955 9d3c
000003d0: 9b98 0c3d 0192 27bb fb00 963c 7cc0 253b
000003e0: 9d04 3cbd 4c16 67bd cbf6 e8bc 6232 97bd
000003f0: 33b2 503c db9f 553c 14f2 e1bc 17eb 29bc

module.encoder.c3.0.bias f4 [32]
-1.8693318e-05 6.7782014e-07 4.205469e-06 -5.552906e-06 1.1478634e-05 5.965705e-06 2.5002137e-05 -6.112426e-06
-1.6486309e-05 -1.1465277e-05 6.1394594e-06 -1.5568326e-05 -1.0029693e-05 -1.2428483e-05 6.901433e-06 8.913397e-06
1.19457645e-05 1.2787897e-05 -6.181563e-06 8.173752e-06 -6.3784086e-07 6.9346734e-06 4.9505215e-06 -3.6027093e-05
1.0285377e-05 7.9975e-06 1.7851145e-06 9.022109e-06 2.0953372e-05 1.4512145e-05 -8.046363e-06 3.5354176e-06
00000000: 98cf 9cb7 72f3 3535 b41c 8d36 1953 bab6
00000010: 5c94 4037 042d c836 aebb d137 5719 cdb6
00000020: 144c 8ab7 fd5a 40b7 8e01 ce36 ba98 82b7
00000030: 3445 28b7 ee83 50b7 dc92 e736 c08a 1537
00000040: ab6a 4837 998b 5637 396b cfb6 ff21 0937
00000050: 1738 2bb5 64b0 e836 a81c a636 cc1b 17b8
00000060: 5c8f 2c37 002d 0637 1198 ef35 aa5d 1737
00000070: 06c5 af37 3079 7337 defe 06b7 0342 6d36

module.encoder.c3.1.weight f4 [32]
1.2683752 1.2908599 1.2056959 1.2730076 1.1211468 1.2947828 1.1540353 1.2752131
1.3289958 1.1224478 1.0492553 1.1627127 1.1703612 1.213721 1.1867936 1.2740068
1.4380084 1.2300152 1.1805435 1.3302245 1.2642701 1.1499372 1.2024785 1.2235619
1.29675 1.4304409 1.2494105 1.2309794 1.2891384 1.0936935 1.2467608 1.07304
00000000: 1e5a a23f e63a a53f 3e54 9a3f eaf1 a23f
00000010: bd81 8f3f 71bb a53f 6eb7 933f 2f3a a33f
00000020: 891c aa3f 5fac 8f3f ff4d 863f c5d3 943f
00000030: 65ce 953f 365b 9b3f dae8 973f a812 a33f
00000040: a910 b83f 2371 9d3f 0d1c 973f cc44 aa3f
00000050: 9ad3 a13f 2431 933f d1ea 993f ad9d 9c3f
00000060: e7fb a53f b018 b73f afec 9f3f bc90 9d3f
00000070: 7d02 a53f 26fe 8b3f dc95 9f3f 6059 893f

module.encoder.c3.1.bias f4 [32]
-0.027562533 0.18019395 0.006073265 0.1303931 0.11306988 -0.043445133 0.011602802 -0.13553326
-0.16159806 0.070161104 0.004699148 0.13865434 -0.052439623 -0.016949654 0.20954666 -0.19644104
-0.118552886 0.042036857 0.11566554 -0.10881892 0.086121544 0.049316924 -0.093545556 -0.041088246
-0.09710176 0.099007845 -0.033644985 0.16964915 -0.094625495 0.036408268 -0.13581048 -0.032658104
00000000: d2ca e1bc c384 383e 3d02 c73b c585 053e
00000010: 2e91 e73d 86f3 31bd ae19 3e3c 3bc9 0abe
00000020: f679 25be a0b0 8f3d 4ffb 993b 67fb 0d3e
00000030: eeca 56bd 00da 8abc 6693 563e d727 49be
00000040: dbcb f2bd d72e 2c3d 0ee2 ec3d 74dc debd
00000050: 7e60 b03d 8b00 4a3d d094 bfbd 264c 28bd
00000060: 4add c6bd a0c4 ca3d 53cf 09bd 82b8 2d3e
00000070: 03cb c1bd d620 153d e711 0bbe 81c4 05bd

module.encoder.c3.1.running_mean f4 [32]
0.21779984 -0.05404429 0.04658595 -0.1812644 -0.33253765 -0.42384297 -0.012883713 0.104765356
0.6078548 -0.2597469 0.26499876 0.08259564 0.55405015 0.12591499 -0.13776465 -0.036761135
-0.010175411 0.10200844 0.4277726 0.58400744 0.6590849 0.079394996 -0.17051896 -0.35843945
-0.38540512 0.21598725 -0.7498569 0.48045626 0.2766273 0.10140263 -0.35578927 -0.106205404
00000000: ec06 5f3e 8c5d 5dbd e9d0 3e3d 609d 39be
00000010: 6042 aabe f201 d9be 3516 53bc 388f d63d
00000020: 5f9c 1b3f 8cfd 84be ebad 873e e727 a93d
00000030: 3bd6 0d3f dcef 003e 2d12 0dbe d892 16bd
00000040: c4b6 26bc cde9 d03d 0305 db3e 8381 153f
00000050: cab9 283f d899 a23d 869c 2ebe 6085 b7be
00000060: d253 c5be c32b 5d3e 9ff6 3fbf 5dfe f53e
00000070: 18a2 8d3e 2fac cf3d 032a b6be 3882 d9bd

module.encoder.c3.1.running_var f4 [32]
0.3866007 0.40216595 0.34904975 0.22795524 0.31238055 0.2551383 0.27163202 0.25393462
0.24745974 0.3998604 0.42437106 0.2531953 0.3592933 0.27535483 0.27994433 0.30850592
0.5019191 0.48744288 0.32604477 0.49339828 0.3036678 0.34854355 0.2938584 0.2193305
0.27618036 0.30170476 0.42170355 0.44311842 0.3007107 0.34925205 0.34653488 0.34914267
00000000: 87f0 c53e b2e8 cd3e a6b6 b23e 196d 693e
00000010: 58f0 9f3e 7da1 823e 5a13 8b3e b803 823e
00000020: 1666 7d3e 81ba cc3e 2a47 d93e d0a2 813e
00000030: 4bf5 b73e 4ffb 8c3e dd54 8f3e 7df4 9d3e
00000040: c57d 003f 1d92 f93e 57ef a63e b39e fc3e
00000050: 597a 9b3e 4d74 b23e 9c74 963e 2d98 603e
00000060: 8367 8d3e 0c79 9a3e 87e9 d73e 6be0 e23e
00000070: c1f6 993e 2ad1 b23e 056d b13e d4c2 b23e
