logs/exp4/model_iters_19000.pth (torch, 495376 bytes, 47 tensors)

module.encoder.c1.main.0.weight f4 [32, 3, 3, 3]
0	0x3b8ad01e	0.0042362353
1	0x3d40fae3	0.047114264
2	0xbc4a6545	-0.012353246
3	0x3ca0d91c	0.019634776
4	0x3d941daf	0.07232224
5	0xbce75606	-0.028239261
6	0x3ce2b5e3	0.027674621
7	0x3dac27a2	0.08405997
8	0x3cfc2d9b	0.030783465
9	0xbb06bc22	-0.0020558913
10	0xbbce449d	-0.0062948004
11	0xbcdfef9d	-0.027335936
12	0x3bc344aa	0.005959113
13	0x3bfd0968	0.0077220686
14	0x3caa1274	0.020760752
15	0x3c99d8e6	0.018780183
16	0xbae172ac	-0.0017200313
17	0x3c828287	0.01593138
18	0xba86c947	-0.0010283374
19	0xbd016690	-0.03159195
20	0xbc55c4f8	-0.013047449
21	0x3d915d80	0.07097912
22	0x3cea106c	0.028572284
23	0xbc837c02	-0.016050342
24	0xbaff430d	-0.0019474939
25	0x3c9a869f	0.01886302
26	0xbbd3c833	-0.0064630746
27	0xbd0e26dc	-0.034705028
28	0xbd583ae4	-0.052790537
29	0x3c97a295	0.018510142
30	0xbcef71e9	-0.029229121
31	0x3c29d323	0.01036528
32	0xbc84f6cd	-0.016230965
33	0xbc655340	-0.013996899
34	0x3dd01ecc	0.10162124
35	0x3cf3b572	0.029749606
36	0xbc0a03cf	-0.00842376
37	0x3bf3b693	0.007437536
38	0x3cd5e093	0.026108062
39	0xbc83edb6	-0.01610456
40	0xbb81aa04	-0.003957035
41	0xbbbaa5b7	-0.0056960243
42	0x3815f209	3.574978e-05
43	0x3cacd53f	0.021097777
44	0x3babce14	0.0052430723
45	0xbd04b605	-0.03240015
46	0x3cc758d2	0.024334345
47	0xbd2a2e1f	-0.04154789
48	0x3c4e0a74	0.012575734
49	0xbd26ad60	-0.040692687
50	0x3a821b8e	0.0009926425
51	0x3af0072e	0.0018312687
52	0x3c1f7f01	0.00973487
53	0xb7c932fb	-2.3984807e-05
54	0x3c016bdd	0.007899252
55	0xbd0ef239	-0.03489897
56	0x3c747da1	0.01492253
57	0x3bffd527	0.007807392
58	0xbc2ad70a	-0.010427246
59	0x3d7cb97a	0.06170032
60	0x3d33bb5e	0.04387986
61	0x3d092958	0.033486694
62	0x3d34caba	0.044138648
63	0xbabbfedb	-0.0014342921
64	0x3c5a1415	0.013310452
65	0x3cda6a23	0.026661938
66	0x3bae6476	0.0053220345
67	0x3c88a08a	0.016678113
68	0xbcdacd0e	-0.026709106
69	0x3c94aa1c	0.01814752
70	0xbc7db38f	-0.015484705
71	0xbc5469bd	-0.012964663
72	0xbcc8de85	-0.024520168
73	0xbd86fc3d	-0.065910794
74	0xbd3c0dae	-0.045911483
75	0x3bcea3c7	0.006306145
76	0x3c9cbc51	0.019132765
77	0x3da843cf	0.082160585
78	0xbcb2502e	-0.021766748
79	0x3cea29d3	0.028584396
80	0x3d804572	0.06263246
81	0xbcb536b6	-0.022120815
82	0xbce4134b	-0.02784123
83	0x3c0aee70	0.0084796995
84	0x3cdbc791	0.02682856
85	0x3c6a6c8a	0.014308104
86	0xbbf669d2	-0.007519939
87	0xba26e5c7	-0.0006366637
88	0xbadfcdd0	-0.0017074887
89	0xbc7e6d19	-0.015528941
90	0x3cb6701e	0.022270259
91	0x3c1353eb	0.008992176
92	0x3d2477c9	0.0401533
93	0x3cb972a0	0.022637665
94	0xbc802853	-0.015644228
95	0x3c5acb77	0.013354174
96	0xbc0b42bf	-0.0084998
97	0xbd10ad33	-0.035321426
98	0xbd2f5277	-0.042803254
99	0x3cade3c9	0.02122678
100	0xbbfaf8de	-0.007659062
101	0xbd5265a6	-0.05136647
102	0x3d450620	0.048101544
103	0xbd8b96ae	-0.06815849
104	0xbdb23817	-0.087021045
105	0x3997ac72	0.00028929446
106	0xbd43b24d	-0.047777463
107	0xbe05e37d	-0.13075061
108	0x3cbc1456	0.022958916
109	0x3ca56e10	0.020194083
110	0x3bd72285	0.0065653943
111	0x3da64b6c	0.08119854
112	0xbc0a0384	-0.00842369
113	0xbbb0712b	-0.0053845844
114	0x3d0b5efb	0.034026127
115	0x3c47c84a	0.012193749
116	0xbcb1dd37	-0.021711929
117	0x3d943c87	0.07238107
118	0xba8c9e5e	-0.001072835
119	0x3d18e919	0.037331674
120	0x3c7edadf	0.015555113
121	0xbad88dcc	-0.0016521751
122	0x3bb0f86a	0.005400707
123	0xbce023f7	-0.0273609
124	0x3c14e2e7	0.009087301
125	0xbc8c2f2d	-0.017112339
126	0xbb249c1d	-0.0025117465
127	0x3c9fcd2e	0.019507017
128	0xbcdd7db9	-0.027037488
129	0x3d82ec86	0.063927695
130	0x3cf0f8a9	0.029415445
131	0xbd00902f	-0.031387504
132	0xbd9a5c4a	-0.07537134
133	0xbc363598	-0.011121176
134	0xbdbeb11b	-0.09311124
135	0xbc56bc09	-0.0131063545
136	0xbc8f7182	-0.01751018
137	0xbd17362b	-0.036916893
138	0xbc91cd6c	-0.017798148
139	0x3c768ac5	0.015047734
140	0x3bafff8a	0.005371039
141	0xbc8f93aa	-0.017526466
142	0x396b3465	0.00022430865
143	0x3ce7340c	0.02822306
144	0x3bb8005a	0.0056152763
145	0xbcc34c29	-0.023840027
146	0xbdb4da59	-0.08830709
147	0x3d081509	0.033223186
148	0xbc974593	-0.018465793
149	0xbba4ed80	-0.005033195
150	0x3d3fe0a9	0.046845112
151	0x3d83594f	0.06413519
152	0xbbc2aa58	-0.0059407167
153	0xbc80d95a	-0.015728641
154	0x3d15eb55	0.036601383
155	0xbcaa720f	-0.02080634
156	0xbc687d4d	-0.01419003
157	0xbb8ad061	-0.0042362665
158	0xbb6e3a11	-0.0036350528
159	0xba91fe9b	-0.00111385
160	0x3d1b3d87	0.037900474
161	0xbd0d6247	-0.034517553
162	0xbc886097	-0.01664762
163	0x3c8b9028	0.017036512
164	0xbc024f37	-0.007953457
165	0xbcac5d5e	-0.021040615
166	0xbd11cbbe	-0.035594694
167	0xbd54950c	-0.051899955
168	0x3b9a20b5	0.004703606
169	0xbc34c786	-0.011033898
170	0xbb9a7b24	-0.0047143865
171	0xbc54b40b	-0.012982379
172	0x3c601fc9	0.013679453
173	0x3c211e91	0.009833948
174	0x3d2940e2	0.041321643
175	0x3c6037e9	0.013685205
176	0x3c52f205	0.012875085
177	0x3be2be84	0.006919684
178	0x3ca6e292	0.020371709
179	0xbc8877f5	-0.016658762
180	0xbc20d42a	-0.009816209
181	0xbbd089aa	-0.006364067
182	0xbcc7dcd4	-0.024397291
183	0xbd030b7c	-0.031993374
184	0xbdba4709	-0.0909558
185	0x3cea94f3	0.028635478
186	0xbd2fb180	-0.042893887
187	0xbcb20995	-0.021733085
188	0xbd480fb2	-0.048843093
189	0x3d1dd433	0.038532447
190	0xbc85c145	-0.01632751
191	0x3b9fd57b	0.004877744
192	0x3d1b8d63	0.037976634
193	0xbdb7f533	-0.08982315
194	0xbc6c57ef	-0.014425262
195	0x3ce55775	0.027995804
196	0xbc365561	-0.011128754
197	0x3c78ee41	0.015193523
198	0xbbc4271b	-0.005986107
199	0xbb5fe3ad	-0.0034162805
200	0xbc1e6744	-0.009668175
201	0xbb82e139	-0.003994134
202	0xbd758640	-0.059942484
203	0xbb8985dc	-0.0041968655
204	0x3d632e6d	0.055464197
205	0x3c617f35	0.013763239
206	0x3cd0407d	0.025421375
207	0x3d217159	0.039414737
208	0x3d644459	0.055729244
209	0x3ba82568	0.0051314123
210	0xbc9ee4cf	-0.019396214
211	0xbb418ff8	-0.0029535275
212	0x3cbd08ae	0.023075428
213	0xbc586d7d	-0.013209698
214	0xbcf2b665	-0.029627988
215	0xbbe83ee5	-0.0070875757
216	0xbc23508a	-0.0099679325
217	0x3cc70e3d	0.024298782
218	0x3d1a9b59	0.037745807
219	0x3cc7349d	0.02431708
220	0x3b65eb6d	0.0035082952
221	0xbbb7540d	-0.0055947364
222	0xbceab9d3	-0.028653061
223	0x3c687d28	0.014189996
224	0xbd0a0302	-0.033694275
225	0xbbda2f9d	-0.006658508
226	0x3b7c3428	0.0038483236
227	0x3d057174	0.0325789
228	0x3d0ba7b3	0.034095477
229	0x3cc92037	0.024551494
230	0xbcb00059	-0.02148454
231	0xbc891ef6	-0.016738396
232	0x3d1144bb	0.035465937
233	0xbae2c53b	-0.0017301211
234	0xbda190c8	-0.07888943
235	0xbd48028b	-0.04883055
236	0xbde29792	-0.11064066
237	0xbdb90287	-0.09033685
238	0xbdc663f2	-0.09687032
239	0xbdd3ddf1	-0.10345066
240	0xbc48ee35	-0.012263824
241	0xba106654	-0.0005508412
242	0x3c84ea3e	0.016224977
243	0xbcaf0916	-0.021366637
244	0xbd120d8f	-0.03565746
245	0xbc7daf52	-0.015483694
246	0x3c23ab85	0.009989624
247	0x3cadead6	0.021230143
248	0x3c8da336	0.01728974
249	0xbd2d3eff	-0.042296406
250	0xbb88114e	-0.0041524535
251	0xbce8e892	-0.02843121
252	0xbc46bccb	-0.012129973
253	0x3be62ffc	0.007024763
254	0x3b1415e4	0.0022596056
255	0x3cd338f6	0.025783997

module.encoder.c1.main.0.bias f4 [32]
0	0xba88a122	-0.0010423998
1	0x3beee468	0.0072904117
2	0xbaed62a7	-0.0018111066
3	0x3a51fc65	0.0008010327
4	0xb9efe1d0	-0.00045753876
5	0xbaa46446	-0.0012542091
6	0xb9a985aa	-0.0003233378
7	0xba8d98de	-0.0010803004
8	0x3abec49d	0.0014554445
9	0xbb4670e9	-0.0030279702
10	0xb8ca4eb3	-9.6467695e-05
11	0xbbbd7e37	-0.0057828682
12	0xbadd13e4	-0.001686689
13	0xb997dcb2	-0.00028965395
14	0x3b22ed47	0.0024860667
15	0xbb6e4fdf	-0.0036363525
16	0xbaaa652f	-0.0013000126
17	0xb97f1b0f	-0.00024328775
18	0xbbea00b2	-0.007141196
19	0x3ab6bfaf	0.0013942624
20	0xb9debe6c	-0.00042485015
21	0x3b70b667	0.0036729814
22	0xbab0f025	-0.0013499303
23	0xba478d68	-0.0007612319
24	0x39a922ab	0.00032260022
25	0xba351714	-0.0006908041
26	0x3ae85729	0.0017726171
27	0xbb8d4a79	-0.0043118563
28	0xbb46fdd5	-0.0030363698
29	0x3b7a6854	0.0038209157
30	0x3b379236	0.0028010732
31	0xbae4e9da	-0.0017464713

module.encoder.c1.main.1.weight f4 [32]
0	0x3f7a8e8d	0.97873765
1	0x3f7be81d	0.9840105
2	0x3f7b30a6	0.98121107
3	0x3f7dcfd6	0.9914526
4	0x3f80e26a	1.0069096
5	0x3f849fb3	1.0361236
6	0x3f7ba2cd	0.9829529
7	0x3f899ed2	1.0751593
8	0x3f803f4a	1.0019314
9	0x3f8149c4	1.0100636
10	0x3f7bd87d	0.9837721
11	0x3f759f34	0.9594605
12	0x3f850559	1.0392257
13	0x3f68cf5f	0.90941423
14	0x3f84f8b1	1.0388395
15	0x3f8343de	1.0255086
16	0x3f76ef3f	0.9645881
17	0x3f80ddfe	1.0067747
18	0x3f7fcc22	0.99920857
19	0x3f79df0a	0.97605956
20	0x3f7c8390	0.9863825
21	0x3f85d396	1.0455196
22	0x3f811ae8	1.0086336
23	0x3f7234bf	0.94611734
24	0x3f800530	1.0001583
25	0x3f731bd3	0.9496433
26	0x3f866ebc	1.0502543
27	0x3f8206d1	1.015833
28	0x3f77c267	0.9678101
29	0x3f791411	0.97296244
30	0x3f7c2e84	0.9850848
31	0x3f854d9e	1.0414312

module.encoder.c1.main.1.bias f4 [32]
0	0xbd35396d	-0.04424422
1	0xbda45a75	-0.08025066
2	0xbdfbaae4	-0.12288454
3	0xbd256a8c	-0.040384814
4	0xbda3e13d	-0.08001945
5	0x3c94087c	0.018070452
6	0xbd017601	-0.031606678
7	0x3b80c001	0.0039291386
8	0xbdf4d1ba	-0.11954065
9	0xbe1c01fd	-0.15235133
10	0xbd14949f	-0.03627455
11	0x3d4075e4	0.04698743
12	0xbc9f0645	-0.01941217
13	0xbca3b57e	-0.019984003
14	0xbd02044f	-0.03174239
15	0x3bf9406b	0.007606556
16	0xbbf1d5be	-0.0073802164
17	0x3d2c2b0c	0.04203324
18	0xbaecc4ee	-0.0018064061
19	0xbc2c2d55	-0.010508855
20	0xbd5ec6f5	-0.05438896
21	0x3c3b1fb4	0.011421133
22	0x3c4947d6	0.012285193
23	0xbcc7fb86	-0.024411928
24	0xbc15bab4	-0.009138752
25	0xbd42a8f6	-0.047524415
26	0xbc80f655	-0.01574246
27	0xbd642b80	-0.055705547
28	0xbda2438e	-0.07923041
29	0xbe141921	-0.14462711
30	0xbd4a4831	-0.049385253
31	0xbc2c43d2	-0.0105142165

module.encoder.c1.main.3.weight f4 [32, 32, 3, 3]
0	0x3c9f00d4	0.019409575
1	0xbcbe9811	-0.02326587
2	0xbd77c00e	-0.060485892
3	0x3c43a0d2	0.011940198
4	0xbcf06b04	-0.029347904
5	0xbc8ac315	-0.016938725
6	0x3d8450e7	0.064607434
7	0x3ad4ce81	0.0016235859
8	0xbd8a9c9a	-0.06768151
9	0x3c5c933a	0.013462836
10	0x3d63aa9b	0.055582624
11	0x3ceda985	0.029011497
12	0xbbe1f27c	-0.0068953615
13	0x3d1dd62f	0.03853434
14	0xbc0a5ac3	-0.008444491
15	0xbc13de1d	-0.009025124
16	0x3ba7a6dd	0.005116327
17	0xbc5a49e5	-0.013323282
18	0xbd8c1af0	-0.068410754
19	0xbcf5be00	-0.029997826
20	0x3be216ce	0.006899691
21	0xbd506509	-0.050877605
22	0xbc02a68d	-0.007974279
23	0x3b21a4d8	0.0024664905
24	0xbac893ed	-0.0015302874
25	0xbd170e26	-0.036878727
26	0x3c9eaf72	0.019370768
27	0xbb6fb2ea	-0.0036575147
28	0xba6b6011	-0.00089788536
29	0x3c20d4e0	0.009816378
30	0xbd395874	-0.04525037
31	0xbd6248a6	-0.055245064
32	0x3ca27395	0.019830504
33	0xbc7b4e2a	-0.01533846
34	0x3b85aa06	0.0040791063
35	0xbc34cc15	-0.011034985
36	0x3d3c8cec	0.04603283
37	0xbaf61bef	-0.0018776635
38	0xbc383a6b	-0.011244397
39	0x3cd2a61c	0.025713973
40	0xbc89e46e	-0.016832557
41	0x3b9b1aba	0.0047334107
42	0x3ca3ad3b	0.019980064
43	0xbbc1a500	-0.005909562
44	0xbc0d7d06	-0.008635765
45	0xbc135e77	-0.00899469
46	0x3d3b2584	0.045690075
47	0x3d029c8b	0.031887572
48	0x3d09cfc8	0.03364542
49	0x3cfe7d9e	0.031065758
50	0xbcc1df97	-0.023666186
51	0xbd253ebb	-0.040343028
52	0xbc90c378	-0.017671332
53	0x3ca8908e	0.020576742
54	0xbbb48af9	-0.005509731
55	0x3bc00ff8	0.0058612786
56	0x3d0340bc	0.032044157
57	0xba131c53	-0.00056118256
58	0x3c6fc3a2	0.014634045
59	0xbb60603a	-0.0034237043
60	0x3d1ea4d3	0.038731407
61	0x3c46d53d	0.012135801
62	0x3ce1bf4d	0.02755704
63	0x3cc734a7	0.024317099
64	0x3d616f27	0.055037644
65	0x3d7c13e5	0.06154241
66	0xbd64749b	-0.055775266
67	0xbc2c04a1	-0.0104991505
68	0xbdd8acda	-0.10579844
69	0xbd4c91a0	-0.049943566
70	0x3babf059	0.0052471575
71	0x3c84b7f7	0.016201003
72	0x3c1b6336	0.009484103
73	0x3c1b4d8c	0.009478938
74	0x3c1a578c	0.009420287
75	0x3cd36f69	0.02580996
76	0xbc33479b	-0.010942365
77	0x3ba51d01	0.005038858
78	0xbca334fc	-0.019922726
79	0x3c311159	0.010807359
80	0x3bb10b6e	0.005402974
81	0x3c960d29	0.018316822
82	0x3d255f3e	0.040374033
83	0x3d06b4b0	0.03288716
84	0x3c8a5bb7	0.016889436
85	0xbc0fd11c	-0.008777883
86	0x3ca5c3cc	0.020234965
87	0xbad86bb1	-0.0016511587
88	0xbc15f168	-0.009151794
89	0x3c068f33	0.008212852
90	0xbd65963a	-0.05605147
91	0x3c057d95	0.008147617
92	0x3b118a23	0.002220758
93	0xbcc138c1	-0.023586633
94	0xbd0000ba	-0.031250693
95	0x3b3c2c5c	0.0028712964
96	0xbccba74c	-0.024860047
97	0xbc1be5e4	-0.009515259
98	0x3ba6ab62	0.0050863484
99	0xbbb4e1d3	-0.0055200844
100	0x3c873f19	0.01650958
101	0x3d14caad	0.0363261
102	0x3c8209d4	0.015873827
103	0xbb31c62b	-0.0027126174
104	0x3b55d824	0.003263005
105	0x3ba0b697	0.004904579
106	0xbcbe08db	-0.023197582
107	0xbc5ce219	-0.01348164
108	0xbc3e6877	-0.011621586
109	0xbd418d7f	-0.04725408
110	0x3c2d3ecc	0.010574054
111	0x3d8d8a4b	0.06911143
112	0x3af63115	0.0018782938
113	0xbc8c2a49	-0.017110007
114	0xbd62e28e	-0.05539184
115	0xbd827df9	-0.063716836
116	0xbd973114	-0.07382408
117	0x3baeb94f	0.005332149
118	0x3d2afd72	0.04174561
119	0x3c85601f	0.016281186
120	0x3c5ac856	0.013353428
121	0x3c03e122	0.008049281
122	0xbb739d75	-0.003717271
123	0x3b80a5a0	0.003925994
124	0x3ae22a72	0.0017255081
125	0x3c3b069b	0.011415149
126	0x3b80b808	0.0039281882
127	0x3cd652c2	0.026162509
128	0x3bb655ec	0.005564442
129	0xbd468967	-0.04847088
130	0xbb208e33	-0.002449882
131	0xbd49db69	-0.04928151
132	0xbd606d2e	-0.054791622
133	0xbd0b1b36	-0.033961497
134	0xbd904faa	-0.07046445
135	0x3c97202a	0.018447954
136	0xbd21cfcb	-0.039504807
137	0x3cff3eff	0.031157969
138	0xbbb2159a	-0.005434704
139	0xbca9aa73	-0.02071116
140	0xbd85da8f	-0.06535827
141	0x3a7cf662	0.0009649751
142	0xbcaf1ef6	-0.021377068
143	0xbd33e84d	-0.04392271
144	0xbcf8e279	-0.030381428
145	0xbd3da7a4	-0.046302453
146	0xbcd66d17	-0.026175065
147	0x3cd134b0	0.025537819
148	0x3ca2f3b6	0.019891601
149	0x3cb90a17	0.022587819
150	0x391a04f5	0.00014688431
151	0xbc91edb0	-0.017813534
152	0xbc8b212e	-0.016983595
153	0x3cd7af4f	0.02632871
154	0x3ca64ea7	0.020301176
155	0x3ca4c38e	0.020112779
156	0xba1c896f	-0.0005971407
157	0x3cd524c0	0.0260185
158	0x3cee1d98	0.029066846
159	0xbd0a0f76	-0.03370615
160	0xbd2f15dd	-0.04274546
161	0xbd896ef1	-0.067106135
162	0xbccff0ce	-0.02538338
163	0x3babdfbc	0.005245177
164	0xbd084734	-0.03327103
165	0x3c1dbee7	0.009628034
166	0xbb057d71	-0.0020368958
167	0x3c8fad7f	0.017538784
168	0x3d1feb0d	0.03904252
169	0x3c1f2ca0	0.009715229
170	0x3cc8a59b	0.02449303
171	0x3c5d5ec8	0.013511367
172	0xbcaf54de	-0.021402773
173	0xbc8bb7d8	-0.017055437
174	0xbd65cad5	-0.05610164
175	0x3a3e1c44	0.0007252137
176	0xbc329bf1	-0.010901437
177	0xbd2c75d9	-0.042104576
178	0xbc40dbf1	-0.011771188
179	0xbbf3449e	-0.0074239513
180	0xbd14447a	-0.036198117
181	0xbc603906	-0.01368547
182	0xbcf23e21	-0.029570641
183	0xbc23d533	-0.009999561
184	0x3c4a9977	0.01236569
185	0xbb130ff7	-0.0022439936
186	0xbc6e7125	-0.014553343
187	0xbd326fa5	-0.043563504
188	0x3c60813a	0.013702685
189	0x3c3f92ca	0.011692712
190	0x3caf0a40	0.021367192
191	0xbcd86be5	-0.026418636
192	0xbcfbbf22	-0.030730788
193	0x3bc62926	0.0060473857
194	0x3d38abec	0.045085832
195	0x3bc32781	0.005955637
196	0xbd05fc14	-0.032711104
197	0xbabf64a0	-0.0014602132
198	0x3d480899	0.048836324
199	0xbd030582	-0.031987675
200	0xbcec95e9	-0.028880076
201	0x3d7530bc	0.05986093
202	0xbcabcf9a	-0.020973016
203	0xbd9d7e01	-0.07690049
204	0xbcccb17e	-0.024986979
205	0xbd4cf0ea	-0.05003444
206	0xbd12dd6f	-0.035855707
207	0xbd104c45	-0.035228986
208	0x3bfbe0c6	0.007686707
209	0xbbf8b3e5	-0.0075898045
210	0xbd0227a3	-0.03177608
211	0x3b2ff007	0.0026845948
212	0xbb4c3d00	-0.0031164289
213	0xb9cdcf7d	-0.00039255238
214	0xba002f22	-0.0004889836
215	0xbcc3d4b9	-0.023905145
216	0x3d374fb0	0.04475373
217	0x3d027cd2	0.03185732
218	0xbbafa760	-0.005360529
219	0xbcdbe121	-0.026840748
220	0xbaf48e73	-0.0018658176
221	0xbc68b91e	-0.014204292
222	0x3c4854e6	0.012227273
223	0xbb977717	-0.004622351
224	0x3c99096b	0.018681249
225	0xbc8c9238	-0.017159566
226	0x3d193c7b	0.037411194
227	0x3c09c092	0.008407729
228	0xbcd4fe15	-0.026000062
229	0xbcafae75	-0.021445492
230	0xbd339c70	-0.043850362
231	0x3ba371a1	0.004987911
232	0xba37fe59	-0.0007018797
233	0xbc25a25b	-0.010109509
234	0x3d24e59f	0.040258046
235	0xbd13327c	-0.035936818
236	0x3c87866e	0.016543593
237	0xbce8af38	-0.028403863
238	0xbced59ed	-0.028973544
239	0xbd3c396c	-0.0459532
240	0x3cdf6292	0.027268682
241	0x3d00605c	0.031341895
242	0x3cf4eca6	0.029897999
243	0xbc6a1f1f	-0.014289646
244	0xbd407977	-0.046990838
245	0x3bb3a0ca	0.005481814
246	0x3abbe51c	0.0014335248
247	0xbd3d8da5	-0.04627766
248	0x3c9fc13d	0.019501323
249	0x3c5f411d	0.013626364
250	0xbc82549a	-0.015909482
251	0xbbae541e	-0.005320086
252	0xbc10eb86	-0.008845216
253	0x3cd58736	0.02606545
254	0x3c883fbd	0.016631955
255	0x3c863151	0.016380938

module.encoder.c1.main.3.bias f4 [32]
0	0xb93042ef	-0.00016809603
1	0xb8eb0ee3	-0.00011208446
2	0xb67ddf38	-3.7829868e-06
3	0xb8a11352	-7.680677e-05
4	0xb847a74e	-4.7601112e-05
5	0x381e656e	3.77646e-05
6	0x39097e58	0.00013112405
7	0xb923b5c0	-0.00015612599
8	0x389104a7	6.915005e-05
9	0x38f8b83f	0.0001185988
10	0x35fc921e	1.8817989e-06
11	0xb94ad707	-0.00019344325
12	0x37a75996	1.9949668e-05
13	0xb8562d14	-5.106356e-05
14	0x3964fa08	0.00021836918
15	0xb70ccf78	-8.392955e-06
16	0xba503ee2	-0.00079439406
17	0x3a22f6c1	0.0006216579
18	0x384e0f95	4.912874e-05
19	0xb8844f63	-6.3090374e-05
20	0xb86e59b4	-5.6827164e-05
21	0x3a0fa0c2	0.0005478972
22	0xb9a48d78	-0.0003138592
23	0x3917dbc5	0.00014482353
24	0xb45b0441	-2.0397512e-07
25	0x38115a87	3.4655004e-05
26	0x37ad05a5	2.0625836e-05
27	0xb68ae93e	-4.1398735e-06
28	0x37fb36d2	2.994706e-05
29	0xb86b3252	-5.607523e-05
30	0xb73e65ca	-1.1348582e-05
31	0x384dd7e9	4.907689e-05

module.encoder.c1.main.4.weight f4 [32]
0	0x3f729aee	0.94767654
1	0x3f7b6d5c	0.98213744
2	0x3f76d421	0.96417433
3	0x3f7582bf	0.9590263
4	0x3f75027a	0.95706904
5	0x3f7eac00	0.994812
6	0x3f7de3b2	0.9917556
7	0x3f71b572	0.9441749
8	0x3f78f26d	0.9724491
9	0x3f7ec517	0.99519485
10	0x3f71cd4d	0.9445389
11	0x3f7e9a4a	0.99454176
12	0x3f75a21d	0.9595049
13	0x3f768d21	0.96309096
14	0x3f7ec5d2	0.995206
15	0x3f71d885	0.9447101
16	0x3f7e1826	0.992556
17	0x3f795b14	0.974046
18	0x3f779afe	0.96720874
19	0x3f7a9ff9	0.9790035
20	0x3f71ef27	0.9450554
21	0x3f7b6a44	0.98209023
22	0x3f8353bb	1.0259928
23	0x3f77d11f	0.9680347
24	0x3f7423ec	0.9536731
25	0x3f7c2818	0.9849868
26	0x3f72be3a	0.9482151
27	0x3f71e3cf	0.94488233
28	0x3f79081e	0.9727801
29	0x3f70a786	0.9400562
30	0x3f6ca196	0.9243406
31	0x3f783fce	0.9697236

module.encoder.c1.main.4.bias f4 [32]
0	0x3cc0bd80	0.02352786
1	0xbb445fc9	-0.002996432
2	0xbbb8447d	-0.005623399
3	0xbcf08735	-0.029361347
4	0x3c9bd6c6	0.01902331
5	0x3cad0f1d	0.02112537
6	0xbd16ebb0	-0.036845863
7	0xbdaebd62	-0.08532216
8	0x3b3c1b8d	0.0028702945
9	0xbd1ce246	-0.03830173
10	0xbd490f74	-0.049087003
11	0xbcdddb1a	-0.027082015
12	0xbdd5d3cc	-0.10440788
13	0xbddde1a8	-0.10834056
14	0xbc09bf69	-0.008407452
15	0xb9cc8e2b	-0.00039015836
16	0xbd67dcf1	-0.05660719
17	0x3c9a1688	0.018809572
18	0xbd9dd39a	-0.077063754
19	0xbd279195	-0.040910322
20	0xbd3935d8	-0.045217365
21	0xbccb3389	-0.024804847
22	0xbe0e91cd	-0.13922806
23	0x3b9c3e78	0.004768189
24	0x3cc83431	0.02443895
25	0xbca976ca	-0.020686526
26	0x3c402490	0.011727467
27	0xbd92ba32	-0.0716442
28	0xbd99f1e7	-0.07516842
29	0xbdaa46c9	-0.083142824
30	0xbda71670	-0.081585765
31	0xbda988ae	-0.08278023

module.encoder.c2.main.0.weight f4 [64, 32, 3, 3]
0	0xbc7a5e26	-0.015281236
1	0xbcb56a75	-0.02214549
2	0x3c4cc04b	0.012497018
3	0xbb29e500	-0.0025923848
4	0xbd32dacd	-0.043665696
5	0xbc0163a8	-0.007897295
6	0xbc67d1c3	-0.014149132
7	0x3d71fc18	0.059078306
8	0x3d01bb6a	0.031672873
9	0x3cfbe002	0.030746464
10	0x3bccc6d8	0.00624929
11	0x3b018be7	0.0019767226
12	0xbca9b083	-0.02071405
13	0xbd0b85b5	-0.03406306
14	0xbcc83650	-0.02443996
15	0x3c1d0ebd	0.009586033
16	0xbb929bdb	-0.004474146
17	0xbc8c49b2	-0.017124984
18	0xbc65a05c	-0.014015283
19	0xb9b75492	-0.0003496749
20	0xbcbee30b	-0.023301622
21	0xbd67c9ea	-0.056589045
22	0xbd21fb6a	-0.039546408
23	0xbd2d0149	-0.042237554
24	0xbd13170a	-0.035910644
25	0x3cba8248	0.022767201
26	0x3cb91faf	0.022598116
27	0xbd0fa850	-0.035072625
28	0x3c3ad809	0.011404046
29	0x3be07654	0.0068500433
30	0x39d4d433	0.00040593892
31	0xbd83b919	-0.06431789
32	0xbcd63bb0	-0.026151508
33	0x3bfa75ca	0.007643436
34	0x3d311d79	0.043240998
35	0xbb8ea257	-0.0043528485
36	0xbcfab48f	-0.030603675
37	0xbc962a03	-0.01833058
38	0x3bedebbb	0.0072607673
39	0xbd94492e	-0.072405204
40	0xbcaa5c46	-0.020795953
41	0x3bb02998	0.005376052
42	0xbd831897	-0.064011745
43	0xbc634d4f	-0.013873412
44	0xbc1e1540	-0.009648621
45	0xbba3c7f9	-0.004998204
46	0xbcdd8c37	-0.027044399
47	0xbcf13cad	-0.029447878
48	0xbce8e083	-0.028427368
49	0xb9ad596c	-0.00033063756
50	0x3bbd391e	0.005774631
51	0xbccd0c3c	-0.025030248
52	0x3cf57a20	0.02996546
53	0xbc7ae835	-0.0153141515
54	0x3c12f770	0.0089701265
55	0xbc7cd473	-0.015431511
56	0xbcbba090	-0.02290371
57	0xbc79b803	-0.015241626
58	0xbcc109e4	-0.023564287
59	0xbc742ba7	-0.014902986
60	0xbceb9ce2	-0.028761331
61	0xbd44b041	-0.04801965
62	0xbbfae294	-0.0076564047
63	0x3c3a4d3b	0.011370952
64	0xbd2b9e8f	-0.04189926
65	0xbc1db391	-0.0096253315
66	0xbd504d87	-0.050855186
67	0xbc8c8900	-0.01715517
68	0x3ca6d7bd	0.020366544
69	0x3cef7636	0.029231172
70	0x3dc2e720	0.0951674
71	0x3d10faea	0.03539554
72	0xbcbb9935	-0.022900203
73	0xbd935fb3	-0.071959876
74	0x3bf86915	0.007580886
75	0x3d120865	0.035652537
76	0xbc9f03cd	-0.019410992
77	0xbcaebcdd	-0.021330291
78	0x3d539ee3	0.051665198
79	0x3d0b6e85	0.034040947
80	0x3d139cdb	0.03603826
81	0x3d8ee8b6	0.0697798
82	0x3d44a893	0.048012327
83	0x3d578c57	0.052624073
84	0xbc58dfc4	-0.013236944
85	0xbd3a4ffe	-0.045486443
86	0x3cccbb9d	0.024991805
87	0xbcf0a214	-0.02937416
88	0xbd10150a	-0.035176314
89	0x3c76de8d	0.015067709
90	0xbd723bb1	-0.059138957
91	0xbdbdeadb	-0.09273311
92	0xbcdb0531	-0.026735874
93	0x3d6b155f	0.057393428
94	0xbbbda9cf	-0.005788065
95	0x3ba8134d	0.005129254
96	0x3d366777	0.044532266
97	0xbb3cf27a	-0.002883105
98	0xbc1e54bd	-0.009663758
99	0x3b4a601d	0.0030880042
100	0x3c936344	0.01799167
101	0xbd3f33b7	-0.04668018
102	0x3c386adf	0.011255949
103	0xbc02d6ec	-0.007985812
104	0xbd0b0691	-0.03394181
105	0xbcd3af4f	-0.02584043
106	0xbd0471e4	-0.032335177
107	0xbd0de689	-0.034643684
108	0x3d4b7e23	0.04968084
109	0x3cf2dabd	0.029645318
110	0x3d5bf4e6	0.05370035
111	0x3c181e48	0.009284563
112	0xbd151503	-0.03639699
113	0xbc39881a	-0.011323953
114	0x3d3c4226	0.04596152
115	0x3c69d6c1	0.014272393
116	0x3ce4c1e3	0.027924484
117	0xbc853f04	-0.0162654
118	0xbcf5c65a	-0.030001808
119	0xbc455a25	-0.012045418
120	0xbba5a01e	-0.005054488
121	0xbd45742f	-0.048206504
122	0x3cf29cf2	0.029615853
123	0x3cf7e787	0.030261768
124	0x3d0d54a2	0.03450454
125	0x3d839e46	0.06426673
126	0xbdcc2ae1	-0.09969116
127	0xbd3157d6	-0.043296658
128	0xbd05f8f6	-0.03270813
129	0xbd17a16e	-0.037019186
130	0xbc95b715	-0.018275777
131	0x3c6b6cce	0.014369203
132	0xbc611552	-0.013737993
133	0xbc70b5f6	-0.01469182
134	0xbd1ff4dc	-0.039051875
135	0x3c9aef5e	0.018912967
136	0xbd4bb875	-0.04973646
137	0xbc0d1855	-0.008611758
138	0xbc1b9bf2	-0.0094976295
139	0xbc5474ce	-0.0129673015
140	0xbd00c04b	-0.031433385
141	0xb9aff3ca	-0.00033560238
142	0x3cd44d7b	0.025915852
143	0xbd2b7366	-0.0418581
144	0xbbce4272	-0.006294542
145	0xbd3485f9	-0.04407308
146	0xbcae1bb5	-0.021253446
147	0x3c985c06	0.018598568
148	0xbd13616e	-0.035981588
149	0x3ccbcc82	0.02487779
150	0x3ba1b4e2	0.004934893
151	0xbd0d16c0	-0.034445524
152	0xbd0033c1	-0.031299356
153	0xbcce8af2	-0.025212739
154	0x3bde309b	0.0067806966
155	0x3c45bd4e	0.01206906
156	0xbc627e8b	-0.0138241155
157	0x3cbd8d99	0.023138808
158	0xbd30e167	-0.04318371
159	0xbd33e87d	-0.04392289
160	0x3d07ab19	0.033122156
161	0x3cc9a214	0.024613418
162	0x3c8a4a37	0.016881092
163	0xbb93d21c	-0.004511131
164	0x3c4ce2b9	0.012505227
165	0xbd275e8f	-0.040861662
166	0xbd18937f	-0.03725004
167	0x3c1e5c11	0.009665505
168	0xbbe1670d	-0.0068787397
169	0xbc16beba	-0.009200746
170	0xbd761cf9	-0.060086224
171	0x3a2ac232	0.00065139227
172	0xbc3c3128	-0.011486329
173	0xbd0517e8	-0.032493502
174	0x3c8f9a55	0.017529646
175	0xbd1d64fe	-0.03842639
176	0xbced654d	-0.028978968
177	0x3d06ce18	0.03291139
178	0xbd386a62	-0.04502333
179	0xb8909a81	-6.895234e-05
180	0x3d05bd7e	0.032651417
181	0xbc81831e	-0.015809592
182	0x3c7a663c	0.015283164
183	0xbc404c53	-0.011736947
184	0x3ca4149e	0.020029362
185	0x3b0ba5d0	0.0021308549
186	0xbc8eebed	-0.017446483
187	0x3d2717cd	0.040794183
188	0xbc3ab49b	-0.011395599
189	0x3d720e32	0.05909557
190	0xba642475	-0.0008702942
191	0x3a90b569	0.0011040393
192	0x3d16fd79	0.036862824
193	0xbd9118eb	-0.07084831
194	0xbbd44fd6	-0.0064792437
195	0xbd5d1436	-0.053974353
196	0xbcfc291e	-0.030781325
197	0xbcc9580e	-0.02457812
198	0x3cfc8a9c	0.030827813
199	0xbcd16f8c	-0.025565885
200	0xbcab699c	-0.020924382
201	0x3ad75615	0.0016428853
202	0x3c5daa76	0.013529411
203	0xbce35f6a	-0.027755458
204	0xbd423e6e	-0.04742282
205	0xbd2b743e	-0.041858904
206	0xbd6abad5	-0.057307083
207	0xbc16c8a8	-0.009203114
208	0xbdabc333	-0.08386841
209	0x3cbad5a3	0.022806948
210	0xb97c8390	-0.00024081604
211	0xbcec58a4	-0.02885086
212	0x3b6be28e	0.0035993191
213	0x3d6c3316	0.057665907
214	0x3b85a6b0	0.0040787086
215	0x3db42179	0.08795447
216	0xbb80c7ef	-0.003930084
217	0x3cb06e6b	0.021537026
218	0xbd1bfe1e	-0.038084142
219	0x3c049f42	0.008094611
220	0x3d13faa0	0.036127687
221	0xbcaa3d7a	-0.020781267
222	0xbb8e743c	-0.0043473523
223	0x3c9d7ea8	0.019225433
224	0xbc882bf7	-0.016622527
225	0xbcdf2925	-0.027241299
226	0x3cab0569	0.020876603
227	0xbcd5a740	-0.026080728
228	0xbc97a770	-0.018512458
229	0xbd61fa40	-0.055170298
230	0xbc72bc37	-0.014815382
231	0x3d27370d	0.040823985
232	0x3d6891bd	0.05677961
233	0x3ce78cce	0.028265383
234	0xbbd96acd	-0.006635046
235	0x3d330c08	0.043712646
236	0x3c540441	0.012940467
237	0x3cf3c45b	0.029756716
238	0xbbaa47d4	-0.005196551
239	0x3d4cb2d1	0.04997522
240	0xbcf38730	-0.029727548
241	0x3cc9b4dc	0.024622373
242	0x3b4c9989	0.0031219444
243	0xbb96896a	-0.0045940178
244	0x3c170037	0.00921636
245	0x3d460484	0.04834415
246	0xbd3da7b0	-0.046302497
247	0xbcf8262c	-0.03029164
248	0xbd6a7fbc	-0.057250723
249	0x3c9de6aa	0.019275028
250	0x3ce15b2a	0.02750929
251	0x3c9b7a91	0.018979343
252	0xbcaf802b	-0.02142342
253	0x3c87197b	0.016491642
254	0xbc96fc8d	-0.018430972
255	0x3c7cb333	0.015423584

module.encoder.c2.main.0.bias f4 [64]
0	0x3821046d	3.8389513e-05
1	0x37d22980	2.5053276e-05
2	0x37a7ad67	1.9988698e-05
3	0xb7d5c7ef	-2.548468e-05
4	0x3851b603	4.9998995e-05
5	0x36066e43	2.0031737e-06
6	0x38dfb29e	0.00010666739
7	0x38aa134c	8.109826e-05
8	0x3750aff4	1.2438733e-05
9	0x38a8d7d7	8.0510676e-05
10	0x3823ae5a	3.9024606e-05
11	0x37495de7	1.2002397e-05
12	0x37085572	8.126126e-06
13	0x383453f3	4.2993528e-05
14	0x37c9b7e6	2.4046702e-05
15	0x37ef238d	2.8507575e-05
16	0xb7af4a60	-2.089626e-05
17	0xb7c3a805	-2.3324052e-05
18	0x37da7efa	2.6046753e-05
19	0x37fa544c	2.9841576e-05
20	0xb7778a64	-1.4754569e-05
21	0x3805145b	3.172863e-05
22	0x38850bfc	6.3441665e-05
23	0x389a68a3	7.362782e-05
24	0x38e33d2a	0.00010835596
25	0x37951e22	1.7776216e-05
26	0xb8c04ecf	-9.169953e-05
27	0x3970f3db	0.00022979027
28	0xb89d2e95	-7.49502e-05
29	0xb70cbe23	-8.38892e-06
30	0x3860c063	5.3584936e-05
31	0x38cf0e72	9.87322e-05
32	0x38c7a10c	9.519057e-05
33	0x389b48f9	7.404568e-05
34	0x38701df0	5.724834e-05
35	0xb47fac2f	-2.3811366e-07
36	0x38eb5d60	0.00011223066
37	0x3764aafb	1.36296685e-05
38	0x37cc1eea	2.433309e-05
39	0x382e533a	4.1562344e-05
40	0x386503e0	5.4601463e-05
41	0x37cec845	2.4650371e-05
42	0x386b9589	5.616763e-05
43	0x386e3b17	5.6798654e-05
44	0x3955c4b2	0.00020386538
45	0xb7849edd	-1.5809603e-05
46	0xb784c1ab	-1.582581e-05
47	0x363ba83d	2.79631e-06
48	0x35bb9239	1.3975142e-06
49	0x37c43179	2.3388058e-05
50	0x389503ed	7.105605e-05
51	0x381c8ab4	3.7322476e-05
52	0x38b71550	8.73009e-05
53	0xb7c235f3	-2.3151724e-05
54	0x383d4620	4.512642e-05
55	0x387fb2a0	6.0963095e-05
56	0x391b4c04	0.0001481027
57	0x38ba344a	8.878911e-05
58	0xb7d52142	-2.5407066e-05
59	0x3798b365	1.820335e-05
60	0x3815a5d8	3.5678822e-05
61	0x353f2573	7.120754e-07
62	0xb6fb7221	-7.4936693e-06
63	0x380c12bd	3.3396052e-05

module.encoder.c2.main.1.weight f4 [64]
0	0x3f7b540b	0.98175114
1	0x3f7bf4ff	0.9842071
2	0x3f68f540	0.9099922
3	0x3f7cee40	0.9880104
4	0x3f84e5be	1.0382612
5	0x3f80a316	1.004977
6	0x3f760262	0.96097386
7	0x3f81a364	1.0127988
8	0x3f78ee12	0.97238266
9	0x3f80c25f	1.0059317
10	0x3f6a63d0	0.9155855
11	0x3f828951	1.0198156
12	0x3f7ff2ce	0.99979866
13	0x3f7ebe51	0.9950915
14	0x3f6f9cac	0.9359844
15	0x3f80a6b5	1.0050875
16	0x3f7304ac	0.94929004
17	0x3f7e195c	0.99257445
18	0x3f7da119	0.9907394
19	0x3f807113	1.0034508
20	0x3f71e60e	0.9449166
21	0x3f7b8096	0.9824308
22	0x3f7ad5a3	0.97982234
23	0x3f811705	1.008515
24	0x3f7f9cce	0.9984864
25	0x3f76ef9d	0.9645937
26	0x3f822774	1.016829
27	0x3f841f6a	1.0322087
28	0x3f80e31d	1.006931
29	0x3f79c90b	0.9757239
30	0x3f8266ab	1.0187582
31	0x3f8032ad	1.0015465
32	0x3f811ede	1.0087545
33	0x3f76d3fc	0.9641721
34	0x3f79cef3	0.97581404
35	0x3f83dc8f	1.0301684
36	0x3f8ba3af	1.0909327
37	0x3f8300fc	1.0234675
38	0x3f845279	1.0337669
39	0x3f85ca66	1.0452392
40	0x3f7e6cbb	0.9938466
41	0x3f744a3d	0.9542578
42	0x3f864cd9	1.0492202
43	0x3f768105	0.9629062
44	0x3f7bc52f	0.98347753
45	0x3f7d6013	0.9897472
46	0x3f7a555a	0.97786486
47	0x3f824f72	1.0180495
48	0x3f780d5b	0.9689538
49	0x3f6ff65b	0.93735284
50	0x3f7bad50	0.9831133
51	0x3f80bf0f	1.0058306
52	0x3f813dbd	1.0096966
53	0x3f86c3ac	1.0528464
54	0x3f80cb44	1.0062032
55	0x3f78b731	0.9715453
56	0x3f8a1149	1.0786525
57	0x3f79e121	0.97609144
58	0x3f817d60	1.0116386
59	0x3f7523b3	0.957576
60	0x3f87bcb0	1.0604458
61	0x3f79d269	0.97586685
62	0x3f79baa8	0.9755044
63	0x3f84b221	1.0366861

module.encoder.c2.main.1.bias f4 [64]
0	0xbe2821ae	-0.16419098
1	0xbd4f7da9	-0.05065695
2	0xbe01e582	-0.12685207
3	0xbe29d430	-0.1658485
4	0xbd67b0a1	-0.05656493
5	0xbe0d2daf	-0.13786958
6	0xbdbd588f	-0.09245407
7	0xbd974223	-0.073856615
8	0xbd8e94c4	-0.069619685
9	0xbdf814ea	-0.12113364
10	0xbe2d1fc1	-0.16906644
11	0xbe09dabd	-0.13462348
12	0xbd950b4c	-0.07277545
13	0xbe1cc449	-0.15309252
14	0xbdeed20c	-0.11661157
15	0xbd798cb0	-0.060925186
16	0xbdd51e79	-0.10406203
17	0xbd4bf451	-0.049793545
18	0xbdb18a74	-0.08668986
19	0xbd4a1e81	-0.049345497
20	0xbd9bb9df	-0.076038115
21	0xbdf2275c	-0.118239135
22	0xbe0422ef	-0.12903951
23	0xbdc008b2	-0.093766585
24	0xbdc3fa51	-0.095692284
25	0xbdafef77	-0.08590596
26	0xbdcea1a0	-0.10089421
27	0xbdf9a1d6	-0.12189071
28	0xbd2f569b	-0.042807203
29	0xbe18f783	-0.14938168
30	0xbd9c2563	-0.076243185
31	0xbdf59a26	-0.11992292
32	0xbd9305a6	-0.07178812
33	0xbdb540ed	-0.08850274
34	0xbe243a86	-0.1603795
35	0xbdcb31b2	-0.09921588
36	0xbda1649b	-0.07880517
37	0xbdb1a94f	-0.08674871
38	0xbd8061f8	-0.06268686
39	0xbd7a7b9a	-0.061153032
40	0xbdfa3d02	-0.122186676
41	0xbdba4d5e	-0.09096788
42	0xbd380a56	-0.044931732
43	0xbdbde527	-0.09272223
44	0xbd9aecf2	-0.07564725
45	0xbda4aed0	-0.08041155
46	0xbdc34d84	-0.09536269
47	0xbdb22d77	-0.08700078
48	0xbd8739d4	-0.06602827
49	0xbdc8d2cf	-0.098058335
50	0xbe152800	-0.1456604
51	0xbe1d54c8	-0.15364373
52	0xbcce7a2e	-0.025204744
53	0xbc3d1be3	-0.011542293
54	0xbdb5097c	-0.088396996
55	0xbde110e7	-0.10989552
56	0xbbc525c7	-0.0060164663
57	0xbdbb9d11	-0.091608174
58	0xbdf7345f	-0.12070536
59	0xbe043a67	-0.12912904
60	0xbcf0a75e	-0.029376682
61	0xbdbaade2	-0.09115197
62	0xbd46c557	-0.04852804
63	0xbdc58158	-0.09643811

module.encoder.c2.main.3.weight f4 [64, 64, 3, 3]
0	0xbcdfd5f1	-0.027323695
1	0xbd31758b	-0.04332499
2	0xbc0b69ce	-0.0085091125
3	0xbc901753	-0.017589247
4	0x3c79324b	0.015209745
5	0xbaa3e865	-0.0012505172
6	0xbc65c597	-0.01402416
7	0xbca84f40	-0.020545602
8	0xbd0c491f	-0.03424942
9	0xbc398156	-0.01132234
10	0xbd146f84	-0.036239162
11	0x3c2b81c6	0.010467952
12	0x3ca035df	0.019556938
13	0x3d1d6dce	0.038434796
14	0x3ce61ea9	0.028090792
15	0xbd23d15e	-0.03999459
16	0x3cf953d3	0.030435478
17	0x3d036e95	0.03208788
18	0xbcc24641	-0.02371514
19	0x3c501117	0.012699387
20	0x3bd8c0d2	0.006614783
21	0xbcbd6535	-0.023119548
22	0xbc79f532	-0.015256213
23	0xbc100680	-0.008790612
24	0xbcf747cd	-0.030185604
25	0xbc0e125c	-0.008671369
26	0xbc9a1415	-0.018808404
27	0x3d1aa0fb	0.03775118
28	0x3cf5e750	0.030017525
29	0x3c848ebf	0.016181348
30	0x3ccd27e4	0.025043435
31	0x3d507a4f	0.050897893
32	0xbccd983d	-0.025097007
33	0x3ca78eb0	0.02045378
34	0x3d81c4c9	0.06336362
35	0xbd728da8	-0.059217125
36	0xb99080ee	-0.0002756188
37	0x3c1eaa02	0.009684088
38	0xbc8edb81	-0.017438652
39	0x3cb03c26	0.021513056
40	0xbb8c1433	-0.004274869
41	0x3c69fd86	0.014281636
42	0xbd418804	-0.047248855
43	0xbdaf87e4	-0.08570841
44	0xbc9e0746	-0.019290578
45	0xbbb9a5ba	-0.005665508
46	0xbd435ed9	-0.047697876
47	0x3b971968	0.004611183
48	0xbc55ebdc	-0.013056722
49	0xbd0cb08c	-0.034348056
50	0xbc9f1904	-0.019421108
51	0xbd01af39	-0.031661246
52	0xbcd0818b	-0.025452396
53	0xbd30fc9d	-0.04320966
54	0x3b9be071	0.00475698
55	0xbd0362a1	-0.03207648
56	0xbca81555	-0.020517984
57	0xbb766ad9	-0.0037600307
58	0x3d3cd6a3	0.04610313
59	0x3bbe7b15	0.0058130124
60	0xbbf0ba03	-0.007346393
61	0xbbc96c2c	-0.0061469283
62	0x3a25cedf	0.00063250767
63	0x3d1d694f	0.03843051
64	0xbc5e3b1d	-0.013563898
65	0xbb9ca7f1	-0.0047807624
66	0xbd230bb1	-0.03980607
67	0xbc059dba	-0.008155281
68	0x3d81b010	0.063324094
69	0xbd519a3c	-0.05117248
70	0xbd890e0e	-0.06692134
71	0xbd870fe0	-0.06594825
72	0x3b991b93	0.0046724766
73	0xbd4daf77	-0.050216164
74	0x3d04390b	0.032280963
75	0xbcf32a05	-0.029683122
76	0xbd3799bd	-0.04482435
77	0xbb36c394	-0.002788757
78	0xbd674bf7	-0.05646893
79	0xbca98e8c	-0.020697854
80	0x3d6302d7	0.05542263
81	0x3b118712	0.0022205752
82	0x3d82eceb	0.06392845
83	0xbce2c8df	-0.027683673
84	0xbbf36b58	-0.007428568
85	0xbd468d98	-0.048474878
86	0xbd234762	-0.039862998
87	0xbcf7e719	-0.030261563
88	0x3bd54e8c	0.0065096077
89	0x3d0b5433	0.034015846
90	0xba0f31ef	-0.0005462458
91	0x3bf19b19	0.0073732254
92	0x3d29e195	0.041474897
93	0x3bf3d65e	0.007441326
94	0x3cf3ed68	0.02977629
95	0xbd02b6a3	-0.031912457
96	0xbb265784	-0.0025381753
97	0xbce897e8	-0.028392747
98	0x3abdea8b	0.0014489455
99	0x3d2406e8	0.04004565
100	0x3d6353e3	0.055499922
101	0x3d8c505b	0.06851264
102	0xbb68626c	-0.0035459055
103	0xbc2c5eb9	-0.0105206305
104	0xbcea00d0	-0.02856484
105	0x3cc52779	0.024066674
106	0x3d0f4d95	0.034986097
107	0xbd3b5993	-0.04573972
108	0xbd26fbe9	-0.040767584
109	0x3be1f1c6	0.0068952767
110	0xbcd8e7e1	-0.026477756
111	0x3bf881db	0.0075838394
112	0xbc92e0a2	-0.017929379
113	0x3c19ec48	0.009394713
114	0xbd35f02e	-0.044418506
115	0x3c54bf1a	0.012985015
116	0xbc5d4b9c	-0.013506796
117	0x3cad3f57	0.021148367
118	0x3d59b8cd	0.053154755
119	0xbc8f6998	-0.017506406
120	0xbcaa37b4	-0.020778514
121	0xbca07e64	-0.019591518
122	0x3d030b88	0.03199342
123	0x3c751605	0.014958863
124	0x3aab0df4	0.0013050423
125	0xbc847f74	-0.016174056
126	0xbb236541	-0.0024932178
127	0xbc8e5a66	-0.01737709
128	0x3b669a86	0.0035187318
129	0xbd3f1b8f	-0.04665714
130	0x3af3e462	0.0018607492
131	0x3b826c89	0.0039802236
132	0x3d2e7fc5	0.04260232
133	0xbd11272c	-0.035437748
134	0xbc5080df	-0.012726038
135	0xbc7228e6	-0.014780259
136	0xbc04c7da	-0.008104289
137	0xbbf68f0f	-0.007524378
138	0x3b791e06	0.003801228
139	0x3abf6523	0.0014602285
140	0xbd2f87cd	-0.04285412
141	0x3d0d40f9	0.03448579
142	0x3c72a7cd	0.014810515
143	0xbcf9833e	-0.030458089
144	0x3cdc4ac8	0.026891127
145	0x3c5f7410	0.013638511
146	0x3d2fd2de	0.042925708
147	0xbc7fc976	-0.015611997
148	0xbd0e7d01	-0.03478718
149	0xbb3ba993	-0.002863501
150	0x3b8a079a	0.004212332
151	0xbbc7fca8	-0.006103117
152	0x3b9d5151	0.0048009534
153	0xbd2b099f	-0.041757222
154	0x3cc46b02	0.023976807
155	0xbc3cdc29	-0.0115271
156	0xbacb2dfb	-0.0015501374
157	0x3bc34552	0.0059591914
158	0xbca7c2de	-0.020478662
159	0xbd1ca504	-0.03824331
160	0x3d21cf8f	0.039504584
161	0x3c68cc61	0.014208884
162	0x3c1d148d	0.009587419
163	0xbbda1a35	-0.006655956
164	0x3cea05c0	0.028567195
165	0x3b243057	0.0025053227
166	0x3c2ed43a	0.010670716
167	0x3cd3087c	0.025760882
168	0x3be5f607	0.007017854
169	0x3b8529bc	0.004063813
170	0x3cd7c2c8	0.026337996
171	0xbd2e862a	-0.042608418
172	0x3c4fe71a	0.012689376
173	0x3aa19373	0.0012327268
174	0x3c9a6596	0.018847268
175	0x3d398a4c	0.045297906
176	0x3d62dbbb	0.055385333
177	0xbc7eacda	-0.015544141
178	0x3cd87615	0.026423493
179	0xbc6a8371	-0.014313565
180	0xbca63d8c	-0.02029302
181	0x3c8068d6	0.01567499
182	0x3c97cfc2	0.018531684
183	0xbc608f88	-0.0137060955
184	0x3b2c43eb	0.00262856
185	0x3c17ff72	0.0092772115
186	0xbcd0632f	-0.02543792
187	0x3c2deea1	0.010615976
188	0xbd7c091b	-0.06153212
189	0x3a86dfba	0.0010290064
190	0xbc82a6c9	-0.01594867
191	0xbbceae29	-0.0063073826
192	0x3ce40e25	0.027838776
193	0x3d0b415f	0.03399789
194	0x3c6e7270	0.014553651
195	0x3c2dc1c7	0.010605282
196	0x3d100a05	0.035165805
197	0x3cddc35f	0.0270707
198	0x3d395143	0.045243513
199	0x3ce83d6a	0.028349597
200	0x3d13d54a	0.03609208
201	0x3de2bb29	0.11070854
202	0x3cf6f69b	0.030146888
203	0x3d045f04	0.032317176
204	0xbcd5cfdc	-0.026100092
205	0x3c15bd4c	0.00913937
206	0xbd0ed8b5	-0.034874637
207	0xbc6f45e3	-0.014604065
208	0xbcc6d7c9	-0.024272816
209	0xb82c8c25	-4.1138515e-05
210	0xbcda354c	-0.026636742
211	0xbbe6b336	-0.0070404066
212	0xbcd9bf59	-0.0265805
213	0x3d16e9a0	0.036843896
214	0xbcadd7fe	-0.021221157
215	0xbc22f810	-0.009946838
216	0xbcf7a6b8	-0.030230865
217	0x3c9adbe1	0.018903675
218	0xbb4dd02e	-0.0031404602
219	0x3c210a28	0.009829082
220	0xbd244f42	-0.04011465
221	0xbda1d44b	-0.0790182
222	0xbc2bc56e	-0.010484083
223	0x3cbd45ba	0.023104537
224	0xbc1156b3	-0.008870768
225	0x3d0055a8	0.03133169
226	0x3c94a94f	0.018147139
227	0x3ccc7fcd	0.024963284
228	0x3abf9e2c	0.0014619282
229	0xbc869eb5	-0.0164331
230	0x3d42c5b8	0.04755184
231	0xbd092f23	-0.03349222
232	0xbd017f96	-0.031615816
233	0x3d5555c0	0.05208373
234	0xbcdc2918	-0.026875064
235	0x3acf4e30	0.0015816148
236	0x3c206367	0.009789324
237	0xbce86708	-0.028369442
238	0xbd1670d6	-0.036728702
239	0x3ced048d	0.028932834
240	0xbca5751b	-0.020197442
241	0xbaabb707	-0.0013100811
242	0xbcac5914	-0.02103857
243	0xbd03dbc9	-0.032192025
244	0x3d04cbb3	0.032420825
245	0x39ab2758	0.00032644975
246	0x3ca7585c	0.020427875
247	0x3cc0880a	0.023502368
248	0x3ddbf3f4	0.1073989
249	0xbcc3e42b	-0.02391251
250	0xbcbd86d2	-0.023135576
251	0xbd0eba51	-0.034845654
252	0x3b24e24a	0.0025159293
253	0xbcf0082f	-0.029300777
254	0xbc91399e	-0.01772767
255	0x3c497980	0.012297034

module.encoder.c2.main.3.bias f4 [64]
0	0x379d50c3	1.8753466e-05
1	0x383c4b0f	4.4892597e-05
2	0xb75c83e3	-1.3143729e-05
3	0xb70ab139	-8.266704e-06
4	0x376223a1	1.3478945e-05
5	0xb65cc3d5	-3.2896544e-06
6	0xb88fda2c	-6.859409e-05
7	0xb7460e43	-1.180504e-05
8	0xb7a58dab	-1.9735502e-05
9	0xb7122286	-8.710316e-06
10	0xb61c2829	-2.3269188e-06
11	0x37811200	1.538638e-05
12	0xb59cb7e0	-1.167642e-06
13	0x37a0565b	1.9113699e-05
14	0xb84a1e61	-4.8188846e-05
15	0x37fbf57d	3.0035846e-05
16	0x36d8ba53	6.4589926e-06
17	0xb637ab6c	-2.7368906e-06
18	0xb507f76b	-5.065146e-07
19	0xb7b0e924	-2.10894e-05
20	0x3740f85d	1.1501918e-05
21	0xb71becd5	-9.293862e-06
22	0xb55662af	-7.9864816e-07
23	0xb86775f5	-5.5184548e-05
24	0x36c5fa6c	5.9002105e-06
25	0x378a5988	1.6492573e-05
26	0xb713b37c	-8.803672e-06
27	0x3845a79c	4.712456e-05
28	0x3569216c	8.68479e-07
29	0xb7726157	-1.4446988e-05
30	0x369133b5	4.3273562e-06
31	0xb869ef68	-5.5774493e-05
32	0xb7858f1d	-1.5921478e-05
33	0xb8464df8	-4.7279493e-05
34	0xb6c10f29	-5.753613e-06
35	0xb7d9dda2	-2.5971622e-05
36	0x3782ed2b	1.5607648e-05
37	0x386b211d	5.6059205e-05
38	0xb83bc003	-4.47631e-05
39	0x37a40bf4	1.955589e-05
40	0xb7488676	-1.1952236e-05
41	0xb4016fd7	-1.2054748e-07
42	0xb748c7dc	-1.1967462e-05
43	0xb71eb56d	-9.459775e-06
44	0xb827e2c0	-4.002708e-05
45	0x37857e37	1.5913609e-05
46	0xb79d876e	-1.8778923e-05
47	0xb86b1dcc	-5.6056117e-05
48	0xb7c2ac3d	-2.3206807e-05
49	0x36a7e62b	5.003783e-06
50	0xb800114f	-3.0533698e-05
51	0x3805d988	3.1912263e-05
52	0xb845215d	-4.6999532e-05
53	0xb80301a5	-3.1234365e-05
54	0xb75f018c	-1.3292196e-05
55	0xb72ce590	-1.0305448e-05
56	0x36baec8e	5.5707706e-06
57	0xb8550642	-5.0788985e-05
58	0x3652dd4e	3.1421255e-06
59	0x3784346b	1.5760035e-05
60	0x3801dd18	3.0961906e-05
61	0xb70957cf	-8.186281e-06
62	0x379406d5	1.7646156e-05
63	0xb6cb2748	-6.0544444e-06

module.encoder.c2.main.4.weight f4 [64]
0	0x3f7f94c3	0.9983637
1	0x3f82839c	1.0196414
2	0x3f7aef4c	0.9802139
3	0x3f80de01	1.006775
4	0x3f7ec23a	0.99515116
5	0x3f7cb73d	0.987171
6	0x3f7e9a8a	0.9945456
7	0x3f7af91c	0.9803636
8	0x3f861040	1.0473709
9	0x3f7c2b8c	0.9850395
10	0x3f783bb7	0.9696612
11	0x3f7d8e27	0.9904503
12	0x3f806447	1.0030602
13	0x3f822744	1.0168233
14	0x3f81270e	1.0090044
15	0x3f825705	1.0182806
16	0x3f7f5f94	0.99755216
17	0x3f799d09	0.9750524
18	0x3f7d82eb	0.9902789
19	0x3f78a445	0.97125655
20	0x3f7de4f6	0.9917749
21	0x3f7d97b4	0.99059606
22	0x3f7b4fd3	0.9816868
23	0x3f810268	1.0078859
24	0x3f810868	1.008069
25	0x3f823723	1.0173076
26	0x3f7d51b6	0.98952806
27	0x3f7f0bc9	0.9962736
28	0x3f8263a3	1.0186657
29	0x3f7b1c9f	0.9809055
30	0x3f76fbc0	0.9647789
31	0x3f7fca34	0.9991791
32	0x3f7874e1	0.97053343
33	0x3f83cdb3	1.029715
34	0x3f7688c1	0.9630242
35	0x3f801d95	1.0009028
36	0x3f80ea69	1.0071536
37	0x3f80e586	1.0070045
38	0x3f8355aa	1.0260518
39	0x3f7d8844	0.9903605
40	0x3f7f270f	0.99668974
41	0x3f7fd10f	0.99928373
42	0x3f811312	1.0083945
43	0x3f777beb	0.9667346
44	0x3f802ecf	1.0014285
45	0x3f7fc8a6	0.9991554
46	0x3f80bf76	1.0058429
47	0x3f8155a1	1.0104257
48	0x3f7b880b	0.9825446
49	0x3f7fc1ab	0.9990489
50	0x3f77a855	0.9674123
51	0x3f82bdce	1.0214174
52	0x3f8008b0	1.0002651
53	0x3f816e4b	1.0111784
54	0x3f7d2a97	0.9889311
55	0x3f8411d2	1.0317938
56	0x3f835511	1.0260335
57	0x3f817a1a	1.0115387
58	0x3f7a236d	0.97710305
59	0x3f83ec69	1.0306522
60	0x3f7ece77	0.9953379
61	0x3f838728	1.0275621
62	0x3f83c2da	1.0293839
63	0x3f7c24f5	0.9849389

module.encoder.c2.main.4.bias f4 [64]
0	0xbd818bf7	-0.06325524
1	0xbd760559	-0.060063694
2	0xbdc53ec9	-0.09631116
3	0xbddbcf3b	-0.107328855
4	0xbd8fe5a5	-0.07026223
5	0xbd285c5a	-0.0411037
6	0xbd872725	-0.06599263
7	0xbda76632	-0.08173789
8	0xbde3d46f	-0.11124503
9	0xbd38ce17	-0.045118418
10	0xbdae0b39	-0.08498234
11	0xbdad1d7b	-0.084528886
12	0xbd59fae9	-0.053217802
13	0xbdf8336e	-0.121191844
14	0xbdee67e0	-0.11640906
15	0xbd9c0b2a	-0.07619317
16	0xbd633d07	-0.055478122
17	0xbd224bc7	-0.03962305
18	0xbdb95389	-0.09049136
19	0xbdbd4bc2	-0.09242965
20	0xbccc3ba4	-0.024930783
21	0xbe06ba49	-0.13157
22	0xbe077a7e	-0.13230321
23	0xbd621514	-0.055195883
24	0xbe0c1f2f	-0.1368377
25	0xbd964d3d	-0.07338951
26	0xbdcd49bd	-0.1002383
27	0xbd8ddfe1	-0.06927467
28	0xbd0d61c5	-0.03451707
29	0xbddd3e3f	-0.10802888
30	0xbdb435ab	-0.08799299
31	0xbd8240e0	-0.0636003
32	0xbe0562f2	-0.13026026
33	0xbd89f25b	-0.06735679
34	0xbe082751	-0.13296248
35	0xbe1d084b	-0.15335195
36	0xbd420e1b	-0.047376733
37	0xbdc2c2fa	-0.09509845
38	0xbda35bcb	-0.079764925
39	0xbe116a40	-0.14200687
40	0xbe3686fe	-0.17824933
41	0xbdceca91	-0.1009723
42	0xbc838174	-0.016052939
43	0xbdaae2d4	-0.08344045
44	0xbdcd602f	-0.10028111
45	0xbd0f6624	-0.03500952
46	0xbdc661f2	-0.0968665
47	0xbe24db3c	-0.16099256
48	0xbddcd6bd	-0.107831456
49	0xbe0ee3ad	-0.13954039
50	0xbe0ee88f	-0.13955902
51	0xbd7a3ca8	-0.061093003
52	0xbd7acb9a	-0.061229326
53	0xbd4275e6	-0.047475718
54	0xbe226970	-0.15860534
55	0xbd767460	-0.060169578
56	0xbde8cd1a	-0.11367245
57	0xbcd5f0bd	-0.02611577
58	0xbe040db1	-0.12895848
59	0xbdaa71df	-0.083225004
60	0xbe0f1851	-0.1397412
61	0xbcfb27d6	-0.030658644
62	0xbd8b24d6	-0.06794135
63	0xbd8ae29c	-0.067815036

module.encoder.c3.0.weight f4 [32, 64, 3, 3]
0	0x3c90da02	0.01768208
1	0xbc80f1b4	-0.015740253
2	0xbbb3f8b3	-0.0054922937
3	0x3d8a8b0d	0.06764803
4	0x3b854cf6	0.0040680123
5	0x3d1ed528	0.0387775
6	0x3c1b583d	0.009481487
7	0xbc1b0a52	-0.00946291
8	0x3cfb0c3e	0.030645486
9	0xbbb70809	-0.0055856747
10	0x3c885fdb	0.01664727
11	0x3b63a446	0.0034735366
12	0xbc4b286a	-0.012399772
13	0x3d046e38	0.032331675
14	0xbd193de5	-0.037412543
15	0x3c84c9f0	0.016209573
16	0x3c9723f4	0.018449761
17	0xbb6ca1d8	-0.0036107209
18	0x3b794ee1	0.00380414
19	0x3c9f6a11	0.019459756
20	0x3cca29d1	0.024678143
21	0x3d38de13	0.04513366
22	0x3c06b129	0.008220949
23	0x3cfd2632	0.030902002
24	0x3d848e7e	0.06472491
25	0xbd00b530	-0.031422794
26	0x3d6d17cf	0.057884034
27	0x3c8a1072	0.016853545
28	0x3caa6316	0.020799201
29	0x3bf43a7d	0.0074532614
30	0x3c6ee337	0.014580539
31	0xbc5db01d	-0.013530758
32	0x3c4f01a5	0.012634669
33	0x3c7642a7	0.01503054
34	0xbbfdc325	-0.0077442103
35	0xbbaf31cd	-0.005346513
36	0x3ca330d1	0.019920738
37	0xbcefbc06	-0.029264461
38	0x3c99eb49	0.01878895
39	0xbccbbd79	-0.024870621
40	0x3ba71b1e	0.005099668
41	0xbcf62089	-0.03004481
42	0xbcac1f9f	-0.021011172
43	0x3d2dc67a	0.04242561
44	0xbd16c231	-0.03680629
45	0x3ca7a109	0.02046253
46	0x3c7286ba	0.014802629
47	0x3cb433eb	0.021997413
48	0xbc02cf22	-0.007983955
49	0x3c7deb12	0.01549794
50	0x3d2114d6	0.03932651
51	0x3cd64503	0.026155954
52	0xbce7e927	-0.028309418
53	0x3ca44c9f	0.020056067
54	0x3d2ba444	0.041904703
55	0x3c1affb3	0.0094603775
56	0x3c65bfc6	0.014022773
57	0x3d08ebbd	0.033427943
58	0xbbce0f22	-0.006288425
59	0x3b050e4c	0.002030271
60	0x3ccf0d66	0.025274944
61	0xbd0dca15	-0.03461655
62	0x3c65abaf	0.014017983
63	0x3b6ee5d1	0.00364529
64	0xbca00776	-0.019534808
65	0x3b9716c5	0.0046108686
66	0x3d51bf4a	0.051207818
67	0x3d71f53c	0.059071764
68	0x3db9bc2e	0.090690956
69	0xbd9eddff	-0.07757186
70	0xbc826ffe	-0.015922543
71	0xbc3e0808	-0.0115985945
72	0xbbc14951	-0.0058986326
73	0x3d5decf1	0.054181043
74	0x3d830611	0.063976415
75	0xbd669f35	-0.056304175
76	0xbdaa09ca	-0.08302648
77	0xbdddcbfc	-0.108299226
78	0x3d147cdb	0.036251884
79	0x3ba6c0cb	0.0050889007
80	0x3c8314ec	0.016001187
81	0x3cef1975	0.029186944
82	0x3d0d8a3d	0.034555662
83	0x3cf0b229	0.029381828
84	0x3d931e4d	0.07183514
85	0x3d2a0c75	0.041515786
86	0x3cd0cf43	0.025489455
87	0x3cd5d1d9	0.02610104
88	0x3d47565e	0.04866635
89	0x3d463931	0.048394386
90	0xbcc0fa9a	-0.023556996
91	0xbbbae8ff	-0.005704045
92	0xbd0cd19c	-0.034379587
93	0xbcb6a927	-0.022297455
94	0xbd3b8a09	-0.045785937
95	0xbd286434	-0.041111186
96	0xbc569fbc	-0.013099607
97	0xbc0b37c0	-0.008497179
98	0x3c976f47	0.018485678
99	0xbcb182cf	-0.02166882
100	0x3cc21038	0.023689374
101	0x3be4c84d	0.0069818855
102	0x3c64b23a	0.013958508
103	0x3cb0f307	0.02160026
104	0x3cf5eb9e	0.030019578
105	0xbc85a1a8	-0.016312435
106	0xbd61fa59	-0.05517039
107	0xbd0fc4a8	-0.035099655
108	0xbc92374f	-0.017848639
109	0x3c7c2c97	0.01539149
110	0xbc707d38	-0.014678292
111	0xbc0ec7b7	-0.008714608
112	0x3b041d37	0.0020159015
113	0x3d25223e	0.04031586
114	0xbc63af69	-0.0138968015
115	0xbc047fc8	-0.008087106
116	0x3d329802	0.043601997
117	0x3d015ae8	0.031580836
118	0x3b636aaf	0.003470104
119	0xbba9ffe0	-0.0051879734
120	0x3ccd45c0	0.025057673
121	0x3c954349	0.01822056
122	0x3c3fdba5	0.011710082
123	0x3b00c938	0.0019651186
124	0x3d4cfeea	0.050047792
125	0x3c8fd7ab	0.017558893
126	0xbccdf67f	-0.025141953
127	0x3b789026	0.0037927716
128	0xba9d4484	-0.0011998569
129	0xbd325ddc	-0.043546543
130	0xbd26ad95	-0.040692884
131	0x3b39b812	0.0028338474
132	0x3d245d7b	0.040128212
133	0xbbc0488b	-0.005868023
134	0xbc9d22bb	-0.0191816
135	0xbcea3049	-0.028587477
136	0xbc6c2fb7	-0.014415673
137	0xbd2fcd68	-0.0429205
138	0xbc9afece	-0.018920328
139	0xbd13a9a7	-0.036050465
140	0xbd918a28	-0.07106429
141	0xbcdd3121	-0.027000966
142	0xbd41b26d	-0.0472893
143	0xbb42a113	-0.0029698058
144	0x3c7b247e	0.015328525
145	0x3d80fae1	0.06297851
146	0xbc71916a	-0.014744142
147	0x3bf48c86	0.0074630408
148	0x3ccf28b2	0.02528796
149	0x3c3cccde	0.0115234535
150	0x3c434014	0.011917133
151	0x3c0c97e7	0.008581138
152	0xbc90abea	-0.0176601
153	0x3cbc0631	0.022952171
154	0xbcc054b5	-0.023477891
155	0x3d391b2a	0.04519192
156	0x3ac088fd	0.0014689263
157	0x3d18238b	0.03714327
158	0x3d58bbff	0.052913662
159	0xbc18558a	-0.009297738
160	0x3b40b049	0.002940195
161	0x3c1fe288	0.009758599
162	0x3c8d217d	0.017227883
163	0x3a02dad8	0.00049917167
164	0xbaedb424	-0.0018135351
165	0xbd1b8d0e	-0.037976317
166	0xb633d60e	-2.6797675e-06
167	0xbc27aea5	-0.01023451
168	0x3cdf0f1f	0.02722889
169	0xbacf9659	-0.0015837654
170	0x3c5a5f34	0.013328362
171	0x3d2098ce	0.039208226
172	0x3c54d0c8	0.01298923
173	0xbbef05a1	-0.007294372
174	0xbd415a21	-0.047205094
175	0xbc2f9fd1	-0.010719256
176	0xbc896eda	-0.016776491
177	0xbb3ae90b	-0.0028520252
178	0x3ca73437	0.02041064
179	0xbd28109d	-0.04103147
180	0xbd21d0a4	-0.039505616
181	0x3c4ca3b7	0.012490205
182	0xbc45ef6c	-0.012081008
183	0xbc21971c	-0.009862687
184	0xbd228046	-0.039673112
185	0xbce475d1	-0.02788821
186	0xbc3076e6	-0.010770535
187	0xbd094d06	-0.03352072
188	0xbc284e87	-0.010272629
189	0xbda63539	-0.0811562
190	0xbd255898	-0.040367693
191	0xbc90746a	-0.017633636
192	0xbcc62225	-0.024186203
193	0xbcafe0dc	-0.021469526
194	0x3c014ac1	0.007891358
195	0xbd1fec17	-0.039043512
196	0xbc974dc6	-0.018469702
197	0xba90ed72	-0.0011057092
198	0xbc3cccc7	-0.011523432
199	0x3b941540	0.0045191348
200	0xbbfdb479	-0.0077424613
201	0x3c4bbe26	0.012435472
202	0x3dc390ad	0.09549079
203	0x3c43f501	0.011960269
204	0xbceb1735	-0.02869759
205	0x3bcd7ed4	0.0062712226
206	0xbc90b45d	-0.017664129
207	0x3cfdd9d0	0.03098765
208	0x3d941d29	0.07232124
209	0x3d1ddccb	0.038540643
210	0x3c3a2e24	0.01136354
211	0xbb970f78	-0.0046099983
212	0xbd9021cf	-0.070376985
213	0x3beb72c8	0.007185314
214	0x3c9df523	0.01928193
215	0xbd1ddaa6	-0.038538598
216	0xbd2e6dd7	-0.04258522
217	0xbc117434	-0.008877803
218	0xbd37064e	-0.044683747
219	0xbb7d3baa	-0.00386403
220	0x3c9edfff	0.019393919
221	0xbc05f296	-0.008175513
222	0x3d0a2184	0.03372337
223	0x3c5f850f	0.0136425635
224	0xbc8dc7f8	-0.017307267
225	0xbd372434	-0.04471226
226	0x3cb42742	0.021991376
227	0xbd1d533f	-0.038409468
228	0xbcbfd974	-0.02341912
229	0xbc785d49	-0.01515896
230	0xbd011bde	-0.031520717
231	0x3ce3a624	0.027789183
232	0x3d4bd388	0.04976228
233	0x3d50a2c4	0.050936475
234	0x3cdae111	0.026718648
235	0xbb3f89aa	-0.0029226341
236	0xbcd737c3	-0.026271706
237	0xbba55282	-0.005045236
238	0x3b5ea661	0.0033973681
239	0xbbe017fa	-0.0068387957
240	0x3cddf88f	0.027096061
241	0xbc84d0db	-0.016212871
242	0x3d140c08	0.036144286
243	0x3c148f10	0.009067312
244	0x3ce98e58	0.028510258
245	0x3c99e754	0.018787064
246	0x3c9720af	0.018448202
247	0x3ba1aacd	0.004933691
248	0xbca4d940	-0.020123124
249	0xbd748824	-0.059700146
250	0xbd0aaf64	-0.03385867
251	0xbd80b5ef	-0.06284701
252	0x3c823b83	0.015897518
253	0xbb1924c0	-0.0023367852
254	0xbcfb89fa	-0.03070544
255	0xbba857bc	-0.005137412
