logs/exp4/model_iters_22000.pth (torch, 495376 bytes, 47 tensors)

module.encoder.c1.main.0.weight f4 [32, 3, 3, 3]
000000 5b ec b0 3b 9a f5 48 3d 96 24 46 bc 8c 97 af 3c
       0.0053992695 0.04906235 -0.012093684 0.021434568
000010 bc 41 99 3d 8f b5 e2 bc ce a9 ef 3c c9 ff ab 3d
       0.07483241 -0.027674465 0.029255774 0.083983965
000020 4b 33 fc 3c d4 11 37 bb f6 09 03 bc d2 5e f1 bc
       0.030786177 -0.002793421 -0.00799798 -0.02946416
000030 e0 d1 f1 3b 54 ec 14 3c 06 27 ab 3c c1 fe a1 3c
       0.0073797554 0.009089548 0.020892631 0.019774796
000040 b9 3e 87 ba f1 d7 84 3c 05 2b a3 3a 1e a6 03 bd
       -0.0010318375 0.01621625 0.0012448734 -0.032140844
000050 3c 32 6b bc a5 60 98 3d 53 7d f7 3c 55 d6 4f bc
       -0.0143552385 0.074403085 0.030211126 -0.012685378
000060 1d 5d f2 ba 09 a9 8e 3c 8e b5 83 bb 78 cf 12 bd
       -0.0018490885 0.017414587 -0.0040194457 -0.03584239
000070 0c c9 5a bd db 7c 9b 3c 3d 06 fb bc 56 71 24 3c
       -0.05341439 0.018980434 -0.030642623 0.010036787
000080 7a 54 84 bc 28 8b 5b bc 8e f4 d3 3d 1b 34 00 3d
       -0.016153563 -0.013399877 0.103493795 0.03129969
000090 c4 41 1b bc 9b 2f ec 3b 30 15 cf 3c 1d 21 8b bc
       -0.009476129 0.0072078235 0.025278658 -0.016983563
0000a0 fe c4 50 bb 51 21 b7 bb 19 20 84 ba f0 b1 af 3c
       -0.0031855698 -0.0055886884 -0.0010080367 0.021447152
0000b0 a0 e3 48 3b 34 62 03 bd 08 e7 ca 3c df ee 34 bd
       0.0030653253 -0.032076076 0.024768367 -0.044173118
0000c0 ed c1 68 3c 23 77 28 bd d5 c4 96 3a 9c 58 55 ba
       0.014206392 -0.041129243 0.0011502752 -0.0008138509
0000d0 e5 f2 ff 3b fe 74 97 3a ad e3 0a 3c 94 fa 0e bd
       0.0078109377 0.0011555252 0.008477134 -0.03490694
0000e0 95 b7 7c 3c be d3 fd 3b 2f 99 4d bc 80 80 7a 3d
       0.015424629 0.007746189 -0.012548729 0.061157703
0000f0 52 94 41 3d a5 e9 03 3d fd cc 32 3d 39 7c fc 38
       0.04726059 0.032205243 0.043652523 0.00012039435
000100 76 79 7a 3c 7e 52 df 3c a0 0c 91 3b 45 6f 80 3c
       0.015287748 0.027261015 0.004426554 0.015678057
000110 7f 65 e2 bc 48 63 8f 3c ed 9b 88 bc 4f 40 5c bc
       -0.027636288 0.017503396 -0.016675914 -0.013443067
000120 b7 04 c7 bc ec ae 8b bd a2 0d 32 bd d7 2d a1 3b
       -0.02429424 -0.06820473 -0.043470033 0.0049187946
000130 1e d5 85 3c 9d 60 b0 3d 0b bc dc bc 86 c6 e8 3c
       0.016336974 0.086121775 -0.026945135 0.028414976
000140 54 61 8e 3d 20 6b b5 bc 9a d7 e9 bc 75 3c 08 3c
       0.069521576 -0.022145808 -0.02854519 0.008315195
000150 a8 85 dd 3c f4 c6 65 3c 26 b3 03 bc 33 55 c3 37
       0.027041271 0.014024485 -0.008038318 2.3285485e-05
000160 66 77 f2 ba 93 65 87 bc e3 25 c1 3c 28 1f 17 3c
       -0.0018498718 -0.016527927 0.023577636 0.009223737
000170 f0 26 2d 3d 13 f2 d3 3c 8d 6b 79 bc 13 6d 70 3c
       0.04227346 0.025872266 -0.015223396 0.014674443
000180 1f ae 13 bc 70 79 1a bd af 0b 31 bd 64 8c a4 3c
       -0.009013682 -0.037713468 -0.043224033 0.020086475
000190 d0 64 13 bc 86 86 50 bd ac 00 4c 3d 72 89 96 bd
       -0.008996204 -0.05090954 0.04980533 -0.07350434
0001a0 5a d5 b4 bd c6 43 5e 3a 9c ed 4d bd 52 92 0c be
       -0.08829756 0.0008478727 -0.05027543 -0.13727692
0001b0 1f 5d cf 3c c2 f8 b1 3c a6 89 04 3c 84 43 ab 3d
       0.025312958 0.021725062 0.008089459 0.08362487
0001c0 53 d8 ea bb a7 ba 8c bb 31 4f 0c 3d 3b 7a 33 3c
       -0.007166901 -0.0042947116 0.03425521 0.010954435
0001d0 a4 0a ba bc 89 53 96 3d 21 a7 ed b8 97 c5 1e 3d
       -0.022710152 0.07340152 -0.00011332171 0.038762655
0001e0 ba 1b 85 3c f8 54 36 b7 aa 93 ed 3b ee 90 e4 bc
       0.016248573 -1.0867829e-05 0.007250269 -0.02790114
0001f0 3b 9c 1f 3c 1d c1 84 bc 78 17 7c bb 9a 86 97 3c
       0.009741838 -0.016205365 -0.0038466137 0.0184968
000200 c8 f0 cc bc 9b bd 80 3d 10 51 e1 3c 36 44 f4 bc
       -0.025017157 0.062861644 0.027504474 -0.029817682
000210 1f cd 9f bd 63 9b 5c bc f4 1b bf bd 0e 4f 58 bc
       -0.078027956 -0.013464781 -0.093315035 -0.013202442
000220 a8 cb 8a bc 42 a1 15 bd 18 cd 96 bc 87 a0 7e 3c
       -0.016942814 -0.03653074 -0.018408343 0.015541202
000230 5c 5f b5 3b ea 63 8a bc be 7f cc 3a 45 ec e4 3c
       0.0055350494 -0.016893346 0.0015602035 0.027944693
000240 9b ad 9b 3b ea 11 d2 bc 9a b4 b8 bd 13 5c 05 3d
       0.00475092 -0.025643308 -0.09018822 0.032558512
000250 df 84 a0 bc ef ca c6 bb 46 81 45 3d b8 e3 85 3d
       -0.019594608 -0.006066672 0.048218988 0.065375745
000260 40 85 d0 bb 07 c6 7f bc a3 4c 1a 3d f7 3f af bc
       -0.006363541 -0.015611178 0.037670743 -0.021392806
000270 3b 30 77 bc df c2 b7 bb 0c 19 5b bb 83 57 8a ba
       -0.015087183 -0.0056079472 -0.0033431677 -0.0010554645
000280 b7 0c 24 3d 71 d2 12 bd 9b cc 83 bc db 2b 8f 3c
       0.04005119 -0.035845224 -0.016088774 0.017476967
000290 16 5d 03 bc a0 c4 b6 bc 8e ae 17 bd a0 fd 5a bd
       -0.008017799 -0.022310555 -0.037031703 -0.053464532
0002a0 e1 fc 99 3b fa 37 31 bc cc 85 9c bb 80 74 43 bc
       0.004699335 -0.0108165685 -0.004776692 -0.011929631
0002b0 06 52 7e 3c 30 a8 35 3c 8d ff 2b 3d d0 5b 6b 3c
       0.015522486 0.011087462 0.04199176 0.0143651515
0002c0 53 2b 54 3c a3 3e ef 3b 96 46 a5 3c d1 19 91 bc
       0.012949782 0.007301168 0.02017526 -0.017712506
0002d0 cb 2b 2c bc 0c c3 e4 bb 8c 19 cc bc ae 3b 05 bd
       -0.010508488 -0.006981259 -0.024914525 -0.032527618
0002e0 8a 6e bd bd 1d ce f3 3c 2f dc 3b bd a3 20 b8 bc
       -0.09249599 0.029761368 -0.04586428 -0.0224765
0002f0 80 54 46 bd 87 f0 24 3d ac b0 82 bc 4b e9 b7 3b
       -0.04842043 0.040268447 -0.015953384 0.0056125275
000300 b4 70 20 3d 26 f0 b8 bd ef 26 66 bc 9d f1 f2 3c
       0.039169982 -0.0903018 -0.014047368 0.029656226
000310 a6 77 2e bc 94 73 80 3c 7a 9b da bb 9f 39 78 bb
       -0.010648644 0.015680112 -0.0066713663 -0.0037876142
000320 02 01 25 bc 08 6b 9d bb 82 ab 7e bd 62 87 7e bb
       -0.010071041 -0.004804019 -0.06217528 -0.0038838019
000330 c4 fd 67 3d c3 b2 5b 3c d9 a1 d5 3c 6b 1f 26 3d
       0.056638494 0.013409319 0.026078152 0.040557306
000340 17 ad 72 3d af fb 92 3b 2f b7 ab bc 4c bf 15 bb
       0.059247103 0.0044855694 -0.020961372 -0.0022849618
000350 c3 85 c0 3c 1b 00 5c bc 40 70 f7 bc 4a 9f 05 bc
       0.023501283 -0.0134277595 -0.030204892 -0.008155653
000360 0d d6 26 bc 9d 97 ca 3c 35 93 16 3d d0 ba c4 3c
       -0.01018287 0.024730498 0.03676148 0.02401486
000370 a9 af 79 3b 87 72 db bb 6a 38 f0 bc 40 34 67 3c
       0.0038099086 -0.0066970023 -0.029323775 0.014111578
000380 8a 8a 0e bd a8 2e ca bb 99 43 be 3b c3 b2 06 3d
       -0.03480009 -0.0061701126 0.005806398 0.032885324
000390 8d 25 0b 3d 37 72 d0 3c 05 bb b2 bc d5 40 8c bc
       0.033971358 0.025445087 -0.021817693 -0.017120758
0003a0 0d 4a 15 3d 10 b1 25 bb 3c 81 a8 bd bc 13 4c bd
       0.036447573 -0.002528254 -0.082277745 -0.049823508
0003b0 ef ff e7 bd c1 63 c2 bd dc 3e cc bd 88 44 de bd
       -0.11328112 -0.09491683 -0.09972927 -0.10852915
0003c0 7b 1e 4c bc 92 34 f9 3a ea 0e 9c 3c 5b 5e ae bc
       -0.012458439 0.001901286 0.01905008 -0.021285227
0003d0 a4 a8 13 bd f3 2b 7d bc 8a 5d 31 3c 46 b7 b4 3c
       -0.0360495 -0.015452373 0.010825524 0.022060048
0003e0 f7 c7 96 3c bb a6 32 bd 61 98 99 bb 2c ce ea bc
       0.018405898 -0.043616038 -0.0046873544 -0.028662764
0003f0 7a 57 3e bc 3a 8f d4 3b ec 14 fe 3a 8a d9 d6 3c
       -0.011617536 0.0064868005 0.0019384897 0.026226778

module.encoder.c1.main.0.bias f4 [32]
000000 87 0f 4c ba 18 1e b3 3b 70 f0 f3 ba da 2b 78 3a
       -0.0007784296 0.005466234 -0.0018611085 0.00094669836
000010 b3 17 2d ba be db 97 ba 55 3c a8 b9 78 9d 00 3a
       -0.0006602958 -0.0011585874 -0.00032088408 0.0004906277
000020 c8 46 06 3b 5a 5a 33 bb f6 af 7a b9 fd 94 cd bb
       0.0020488966 -0.0027367086 -0.00023907408 -0.0062738643
000030 18 bf c5 ba c1 d5 59 b9 a5 b0 64 3b 0c 60 9e bb
       -0.0015086858 -0.00020774362 0.0034895327 -0.004833227
000040 5b 8d ae ba 1b 57 80 b9 50 fb cf bb d7 a7 be 3a
       -0.0013317274 -0.0002447896 -0.0063470975 0.001454587
000050 92 51 0c ba e7 bb a5 3b fc 72 d6 ba 5f de 20 ba
       -0.0005352731 0.0050578 -0.0016361172 -0.00061366515
000060 94 a7 5a 3a 13 ed 25 ba d2 8d 51 3b 32 87 b5 bb
       0.0008341011 -0.00063295773 0.00319754 -0.005539798
000070 c5 3b 4a bb ea 5b 9a 3b ec ca 3a 3b a2 dc 9c ba
       -0.003085838 0.004710664 0.0028502299 -0.0011967609

module.encoder.c1.main.1.weight f4 [32]
000000 ab a8 79 3f 7f 88 7b 3f 87 33 7a 3f c3 80 7e 3f
       0.9752299 0.9825515 0.97734874 0.99415225
000010 5b a0 80 3f a2 5f 85 3f 50 67 7b 3f 00 44 8a 3f
       1.0048937 1.041981 0.9820452 1.0802002
000020 da 69 80 3f 3a 42 81 3f 20 8b 7b 3f 84 23 75 3f
       1.0032303 1.0098336 0.9825916 0.9575732
000030 4e 22 85 3f 44 0c 68 3f 7d 33 85 3f 1e 3c 83 3f
       1.0401094 0.90643716 1.0406338 1.0252721
000040 01 f2 76 3f 62 e8 80 3f 9e e0 7f 3f ee c3 78 3f
       0.9646302 1.0070918 0.99952114 0.97173965
000050 6c 48 7c 3f e2 de 85 3f d7 d7 80 3f f7 79 70 3f
       0.98548007 1.0458643 1.0065869 0.93936104
000060 89 4a 80 3f d5 81 72 3f 11 1c 87 3f a2 1d 82 3f
       1.0022746 0.9472936 1.055544 1.0165293
000070 5c 8c 77 3f a5 45 79 3f 90 8a 7c 3f ad 56 85 3f
       0.96698546 0.97371894 0.9864893 1.0417076

module.encoder.c1.main.1.bias f4 [32]
000000 cf be 53 bd 57 2b b7 bd bd 98 05 be 96 f1 18 bd
       -0.05169564 -0.08943813 -0.13046546 -0.03733977
000010 af ae ba bd fa 80 aa 3c b1 75 13 bd 9f 92 3e bc
       -0.091153495 0.020813454 -0.03600091 -0.011631637
000020 c8 91 f9 bd 4e 91 20 be b4 6a 1f bd bc c5 4b 3d
       -0.12186009 -0.1568043 -0.03892012 0.04974912
000030 59 42 d0 bc 57 8c c2 bc 91 c5 13 bd f4 f1 61 3b
       -0.025422262 -0.02374856 -0.036077086 0.003447649
000040 43 fa 31 bc 65 98 17 3d fe 24 aa bb 0c c4 50 bc
       -0.01086289 0.03701057 -0.005192398 -0.012742054
000050 b3 3e 71 bd d3 52 34 3c 8b 09 31 3c fa a5 0a bd
       -0.058897685 0.011006075 0.010805498 -0.033849694
000060 a7 61 36 bc fc 8b 53 bd 96 d3 5a bc c5 25 83 bd
       -0.011131681 -0.05164717 -0.01335611 -0.06403688
000070 64 3a a5 bd 86 d9 13 be ec d0 3b bd 73 d6 44 bc
       -0.08067778 -0.14438447 -0.04585354 -0.012014019

module.encoder.c1.main.3.weight f4 [32, 32, 3, 3]
000000 37 90 a4 3c d8 4b c0 bc fb 98 7d bd c3 50 5e 3c
       0.020088298 -0.023473665 -0.06191347 0.01356906
000010 c4 04 ea bc 3f 4d 92 bc 57 01 86 3d a8 52 c3 3a
       -0.028566726 -0.0178591 0.06543224 0.0014901953
000020 a2 aa 8d bd 1a 17 5b 3c fd db 5e 3d a9 61 e6 3c
       -0.06917311 0.013372207 0.054409016 0.02812274
000030 ba 52 92 bb b1 98 27 3d 0e e7 3f bc df 77 0e bc
       -0.004465428 0.040917102 -0.011712803 -0.008695572
000040 17 36 a4 3b d0 2a 54 bc a4 06 8d bd 5f 30 07 bd
       0.005011331 -0.01294966 -0.06886032 -0.033005115
000050 a4 c1 d5 3b 66 87 47 bd d3 5e df bb 72 f4 9c 3b
       0.006523328 -0.04871311 -0.006816724 0.0047898823
000060 d8 d7 bb ba 29 7d 1a bd 3a 6d 9f 3c 3f d2 25 bb
       -0.0014331294 -0.03771702 0.019461263 -0.0025302318
000070 3f aa 31 ba 70 af 14 3c b0 02 45 bd 8e ae 6e bd
       -0.0006777383 0.009075031 -0.048098266 -0.058271937
000080 1f 25 95 3c 1f a6 7f bc f3 7b 15 3b b1 77 24 bc
       0.018206177 -0.015603571 0.0022809475 -0.010038302
000090 4e 16 3c 3d 79 69 54 ba b7 3c 2f bc d2 19 c9 3c
       0.04591971 -0.0008102875 -0.010695628 0.024548445
0000a0 f0 97 85 bc b3 38 51 3b e6 51 92 3c ed 65 b1 bb
       -0.016307801 0.0031924665 0.017861318 -0.005413762
0000b0 e0 e6 10 bc 3a 33 3c bc bd d8 3b 3d 78 3f 00 3d
       -0.008844107 -0.011486823 0.045860995 0.03131053
0000c0 c0 08 0c 3d 9f 0e 11 3d 53 6b f2 bc c1 2c 2a bd
       0.034188032 0.035414334 -0.029592192 -0.041546587
0000d0 3f c0 86 bc 57 57 bb 3c a7 51 74 bb 4b 66 c6 3b
       -0.016449092 0.022868795 -0.0037280114 0.0060546747
0000e0 c0 87 0b 3d ea 17 76 39 c3 93 73 3c ac 17 32 bb
       0.03406501 0.00023469297 0.014866772 -0.0027174754
0000f0 22 ae 26 3d 44 3f 4b 3c 6f 87 df 3c 13 10 c8 3c
       0.04069341 0.01240522 0.02728626 0.024421727
000100 14 c0 65 3d ec c0 81 3d f7 a2 78 bd 56 64 31 bc
       0.056091383 0.06335625 -0.06070229 -0.010827145
000110 7b d7 e0 bd 49 9e 5b bd f5 bd c9 3b 9b 3e 87 3c
       -0.109786 -0.05361775 0.006156678 0.016509345
000120 20 8c 30 3c 7c a0 23 3c f9 be 1a 3c 1d 64 dc 3c
       0.010775596 0.009986993 0.0094449455 0.026903206
000130 72 8a 34 bc 80 8a 49 3b fa df ae bc 94 6c 13 3c
       -0.011019336 0.0030752718 -0.021347035 0.008998055
000140 8f 13 09 3b 69 2b 93 3c 0b 79 28 3d 6a f9 0b 3d
       0.00209162 0.017965036 0.04113106 0.034173407
000150 33 7b 99 3c 6c 3a 08 bc 27 87 a9 3c ac 44 69 ba
       0.018735504 -0.00831471 0.020694328 -0.00088984775
000160 2b 10 20 bc 67 43 ec 3b a9 da 64 bd d1 41 0a 3c
       -0.00976948 0.0072101834 -0.055872593 0.008438543
000170 e7 8f 29 3b 03 62 c7 bc 65 ac 00 bd 1e 80 40 3b
       0.0025873126 -0.024338728 -0.03141441 0.0029373239
000180 50 82 d2 bc fe c8 17 bc 8d 05 b7 3b fc 91 c7 bb
       -0.025696903 -0.009264229 0.0055853785 -0.0060904007
000190 7b 57 7d 3c 83 85 17 3d 93 30 7e 3c 15 b0 89 bb
       0.0154627515 0.03699256 0.015514511 -0.004201899
0001a0 a1 61 d9 3a d9 c0 a6 3b 5b 00 ca bc 95 3f 54 bc
       0.0016584882 0.005088907 -0.024658373 -0.012954612
0001b0 0b c5 51 bc e5 35 3c bd fd 90 7a 3c a6 7d 8f 3d
       -0.012803326 -0.045949835 0.015293357 0.070063874
0001c0 91 a7 92 3b 1b 69 82 bc c8 4d 63 bd b9 ce 82 bd
       0.004475542 -0.015919259 -0.0554941 -0.063870855
0001d0 9c 79 9a bd 3e 32 b5 3b 25 20 2c 3d c5 a1 8a 3c
       -0.075427264 0.005529671 0.042022843 0.01692284
0001e0 30 60 3d 3c af 3e d9 3b dc 86 92 bb 48 00 46 3b
       0.011558577 0.006629787 -0.004471643 0.003021257
0001f0 5d d9 37 3a 38 59 45 3c 64 1d d1 3b d4 1a db 3c
       0.00070132856 0.012045197 0.0063816775 0.026746191
000200 f1 f2 07 3c 74 53 4b bd 1c 03 38 bb 26 36 50 bd
       0.008297668 -0.049640134 -0.0028078025 -0.05083289
000210 b9 83 68 bd d4 1c 10 bd 3c 07 98 bd e3 45 9e 3c
       -0.056766246 -0.035183743 -0.07423255 0.019320434
000220 2b 26 1c bd 12 4d eb 3c f3 39 a6 bb f8 7f a7 bc
       -0.038122337 0.028723273 -0.005072826 -0.020446762
000230 00 27 8a bd 7c 42 05 3b c5 50 aa bc 55 40 32 bd
       -0.0674572 0.0020333817 -0.020790467 -0.043518383
000240 ec 1a 09 bd 3b e6 4b bd 86 37 f0 bc dc 71 d3 3c
       -0.03347294 -0.04978011 -0.02932335 0.025811128
000250 c9 06 a1 3c 69 b2 c1 3c 36 f2 6f ba 6c c2 91 bc
       0.019656556 0.023644643 -0.00091532187 -0.017792903
000260 3d 3b 88 bc 35 1d e3 3c 3e 62 a9 3c 15 84 a0 3c
       -0.01662981 0.027723888 0.020676728 0.019594232
000270 c6 bb db 3a 74 ba e0 3c 0b e7 f0 3c f6 94 0c bd
       0.0016764335 0.027432658 0.029407045 -0.034321748
000280 75 36 25 bd 3b 22 8e bd 13 5f d5 bc d5 fc be 3b
       -0.040335137 -0.06940123 -0.026046311 0.00582848
000290 e5 fe 10 bd 2b bf 07 3c 86 ce 20 bb 15 9b 86 3c
       -0.035399336 0.008285324 -0.002453716 0.01643137
0002a0 93 f0 1e 3d 7c 1f 22 3c 7c ac c8 3c 46 1f 46 3c
       0.03880365 0.009895202 0.02449631 0.012092417
0002b0 64 87 b8 bc 24 ff 91 bc f2 3e 5e bd 1c f6 02 3b
       -0.022525497 -0.017821856 -0.054259248 0.0019983118
0002c0 31 d7 03 bc f9 c7 21 bd 49 79 3f bc 90 78 8b bb
       -0.008046911 -0.03949735 -0.0116866315 -0.0042563155
0002d0 10 5a 19 bd eb b2 84 bc 1b 81 0c bd 90 dd 01 bc
       -0.037439406 -0.016198596 -0.034302812 -0.00792636
0002e0 5f e9 37 3c b5 56 2b bb 53 b4 5c bc 6b f3 3f bd
       0.011225074 -0.002614421 -0.013470727 -0.046863
0002f0 02 e3 2b 3c c2 eb e8 3b 21 15 dd 3c 59 8e d7 bc
       0.010491135 0.0071081826 0.026987614 -0.026312994
000300 83 65 04 bd 40 4d c3 3b c4 de 4a 3d d4 bd 87 3b
       -0.03232337 0.0059601367 0.049528852 0.0041425023
000310 c9 ef 19 bd 34 1f 45 bb df 50 4e 3d eb 56 01 bd
       -0.037582193 -0.0030078413 0.050370093 -0.031577032
000320 f7 8a 05 bd 30 b1 78 3d 45 59 a8 bc b5 dc a1 bd
       -0.03260323 0.060715854 -0.02055038 -0.07903425
000330 cd 63 c7 bc 11 37 4d bd c2 ad 19 bd 4c 64 10 bd
       -0.02433958 -0.050101344 -0.037519224 -0.0352519
000340 f8 6e e7 3b 34 08 61 bb 61 51 f6 bc 14 b4 e4 3a
       0.007062789 -0.0034337165 -0.030068101 0.0017448687
000350 6d 26 be ba 35 1d 08 3b 81 aa 81 bb cd 05 d6 bc
       -0.0014507301 0.0020769362 -0.003957093 -0.026125813
000360 64 df 2d 3d 7e f0 01 3d 1c 5d 04 bc 83 97 be bc
       0.04244937 0.03172349 -0.00807884 -0.023265606
000370 20 ac 95 ba 35 b2 6d bc a2 55 64 3c 2b 5e 1f bc
       -0.0011419095 -0.01450782 0.013936432 -0.009727041
000380 78 56 8d 3c 43 bd 8f bc f1 30 18 3d d4 6a 2a 3c
       0.017253146 -0.017546302 0.03715605 0.010401446
000390 b7 2f e7 bc a9 24 b9 bc 99 ce 37 bd 72 53 45 3b
       -0.028220994 -0.022600489 -0.04487476 0.0030109552
0003a0 92 0d 78 bb 39 e0 33 bc 33 f9 1e 3d 99 79 11 bd
       -0.0037849885 -0.010978752 0.038811874 -0.035516355
0003b0 84 7d b9 3c a4 70 d4 bc 45 39 d1 bc b4 56 29 bd
       0.022642858 -0.025932617 -0.025540004 -0.041342452
0003c0 99 3b ed 3c e5 5c 1d 3d 08 53 f8 3c 47 e2 8d bc
       0.028959082 0.03841867 0.03031303 -0.017319812
0003d0 ab 35 4b bd d2 21 a4 3a 46 b2 95 3a 7c 01 36 bd
       -0.04961173 0.0012522286 0.0011420927 -0.04443501
0003e0 bb 11 7a 3c c1 e2 54 3c de f9 64 bc d6 27 22 bc
       0.015263016 0.0129935155 -0.013975589 -0.009897193
0003f0 14 6e 1f bc 2f 4c cc 3c 84 57 80 3c 58 90 83 3c
       -0.0097308345 0.02493867 0.01566673 0.01606004

module.encoder.c1.main.3.bias f4 [32]
000000 78 5a 3d b9 b6 99 95 b8 da c1 22 b6 a8 fa d5 b8
       -0.00018058147 -7.1335046e-05 -2.4252718e-06 -0.0001020332
000010 30 99 a4 b8 c0 82 c9 37 b0 da 30 39 44 81 43 b9
       -7.848663e-05 2.4021952e-05 0.00016866135 -0.00018644804
000020 5c 3e 92 38 f4 34 2b 39 52 72 56 38 ae eb 63 b9
       6.973438e-05 0.00016327557 5.1128045e-05 -0.00021736205
000030 72 8d e7 b6 93 d6 42 b8 6e e3 68 39 4b c0 f7 37
       -6.900803e-06 -4.6453042e-05 0.00022209968 2.9534238e-05
000040 3b 61 5e ba b3 d4 2a 3a e2 55 d0 38 d1 72 74 b8
       -0.00084831164 0.000651668 9.93421e-05 -5.8281064e-05
000050 ff 46 4c b8 74 b7 15 3a d8 0c b4 b9 20 68 0e 39
       -4.870351e-05 0.00057112356 -0.00034341845 0.00013580965
000060 38 2a 9b 36 d1 d9 8d 37 51 4d 43 38 d2 6f 2d b8
       4.624275e-06 1.6909938e-05 4.656363e-05 -4.1350555e-05
000070 51 b1 e8 37 2c b5 78 b8 d7 24 0b b8 07 7e ae 38
       2.7739125e-05 -5.9296537e-05 -3.3174492e-05 8.320441e-05

module.encoder.c1.main.4.weight f4 [32]
000000 ca 14 72 3f 06 48 7b 3f fe 4f 76 3f 9d 39 75 3f
       0.9456297 0.98156774 0.9621581 0.95791036
000010 2c 5c 74 3f be 88 7e 3f 11 f0 7d 3f 4b cf 70 3f
       0.95453143 0.994274 0.9919444 0.94066304
000020 df b0 77 3f 54 ae 7e 3f 0d ce 70 3f 66 a7 7e 3f
       0.9675426 0.99484754 0.9406441 0.9947418
000030 98 61 75 3f e3 4d 76 3f 6b 1a 7f 3f 27 d4 70 3f
       0.9585204 0.96212596 0.99649686 0.9407372
000040 fd 06 7e 3f d8 ff 78 3f 11 ac 77 3f 60 90 7a 3f
       0.99229413 0.97265387 0.9674693 0.9787655
000050 db 58 71 3f 98 c6 7a 3f 69 9c 83 3f 58 63 77 3f
       0.9427621 0.9795928 1.0282108 0.9663596
000060 f6 0d 74 3f ee 58 7c 3f 84 f0 71 3f 51 cf 71 3f
       0.953338 0.98573196 0.9450762 0.94456965
000070 67 a0 79 3f 01 70 70 3f 1d ee 6b 3f e6 4a 78 3f
       0.9751038 0.93920904 0.9216021 0.96989286

module.encoder.c1.main.4.bias f4 [32]
000000 a8 d2 a2 3c 4c b5 89 bb 1c 1a 19 bc 1a 53 17 bd
       0.01987584 -0.0042025205 -0.009344604 -0.036944486
000010 48 4e 7c 3c 43 04 40 3c fa 21 29 bd 4b fb b9 bd
       0.015399523 0.011719766 -0.04129217 -0.090811335
000020 c0 25 9f bb 59 5c 2d bd a4 8b 6c bd 65 88 13 bd
       -0.004856795 -0.042324398 -0.05775036 -0.036018748
000030 8c bf e2 bd 2d 43 e4 bd e2 1a 4b bc 84 69 34 bb
       -0.11071691 -0.11145625 -0.012396546 -0.0027528713
000040 39 bf 81 bd e8 35 8e 3c cc 5a a8 bd 1d 6f 3e bd
       -0.06335301 0.017359689 -0.08220443 -0.046492685
000050 0e 29 4b bd ef 5e 06 bd 0b 4e 18 be 7b 64 8c 3a
       -0.0495997 -0.03280538 -0.14873521 0.0010711098
000060 e1 60 b5 3c 04 39 f0 bc 4d 3f f6 3b 3b f8 a2 bd
       0.022140922 -0.029324062 0.0075148703 -0.079575025
000070 33 87 9f bd f5 91 c4 bd 06 50 b2 bd 46 47 b2 bd
       -0.07789459 -0.095981516 -0.087066695 -0.087050006

module.encoder.c2.main.0.weight f4 [64, 32, 3, 3]
000000 f1 5c 4d bc 76 a7 9f bc f6 8a 81 3c 5c 00 c1 bb
       -0.012534366 -0.019489031 0.015813332 -0.0058899354
000010 3d db 3e bd 32 7c cc bb 34 78 5c bc 99 63 68 3d
       -0.0465958 -0.006240391 -0.013456393 0.05673561
000020 b4 b7 d6 3c e7 e6 04 3d 14 48 12 3c 89 6b c2 3a
       0.026210643 0.032446768 0.008928318 0.0014833073
000030 57 dd a9 bc c4 63 0b bd 01 0b de bc ad cb 1f 3c
       -0.020735426 -0.03403069 -0.027104856 0.00975315
000040 3b b7 a0 bb 04 87 8a bc 0b 85 8e bc 6d 9d f8 ba
       -0.0049046553 -0.016910084 -0.017397424 -0.0018967815
000050 a9 2f a9 bc da f8 6e bd 8f e7 10 bd b8 19 25 bd
       -0.020652609 -0.058342792 -0.03537708 -0.04030773
000060 04 49 0c bd 84 c0 bd 3c b5 72 83 3c bd 3e 10 bd
       -0.03424932 0.023163088 0.016045908 -0.035216082
000070 8b bf 64 3c ba 33 d0 3b 6e 1b 60 3a f1 f9 7e bd
       0.013961683 0.0063538225 0.0008549009 -0.06225008
000080 2e 14 df bc 24 f1 48 3c d4 f7 22 3d ec 8e 3c bc
       -0.027231302 0.012264524 0.03978713 -0.011508685
000090 6d ef 07 bd b0 eb 79 bc 29 50 1b 3c f3 64 9e bd
       -0.03318732 -0.015253946 0.009479561 -0.07734098
0000a0 83 c8 b5 bc ab 16 7c 3b b6 b6 95 bd c1 b7 6e bc
       -0.022190338 0.003846566 -0.0731024 -0.0145701775
0000b0 ab 36 13 bc 82 4e 8b bb c1 8f d8 bc d3 61 f3 bc
       -0.008985202 -0.004251302 -0.026435735 -0.029709732
0000c0 3d 65 e6 bc 64 b7 1d 3b 60 97 fc 3b da bd c6 bc
       -0.028124446 0.0024065608 0.007708475 -0.02426045
0000d0 88 01 03 3d 01 4b 82 bc c7 56 31 3c 20 0a 93 bc
       0.031983882 -0.015904905 0.010823912 -0.017949164
0000e0 a7 ec 9e bc 99 00 7a bc 64 3d cc bc e2 8b 40 bc
       -0.019399954 -0.015258932 -0.024931617 -0.011752101
0000f0 a9 9d f9 bc b1 31 52 bd 01 3e c6 bb a7 ff 64 3c
       -0.030470686 -0.05131692 -0.006049872 0.013976968
000100 a9 20 28 bd 97 45 32 bc 0d cc 4b bd 30 ec 98 bc
       -0.041046772 -0.010880849 -0.049755145 -0.01866731
000110 dc 2c 9a 3c 38 ff d5 3c b0 28 c7 3d 95 3b 1d 3d
       0.018820219 0.026122674 0.097245574 0.0383869
000120 ef ca cf bc d6 e4 92 bd 6c f3 c0 3b 7c 39 18 3d
       -0.025365321 -0.07172553 0.005888393 0.037164196
000130 a7 d4 ab bc 42 ed b3 bc 80 6d 59 3d 88 d6 0e 3d
       -0.020975424 -0.02196372 0.053082943 0.03487256
000140 61 0f 15 3d 82 0c 8f 3d 77 05 46 3d 3a ec 69 3d
       0.03639162 0.069848076 0.048345055 0.05711005
000150 05 30 61 bc 1b b2 32 bd 73 8b da 3c e7 7a 04 bd
       -0.013744359 -0.043626886 0.026677823 -0.03234377
000160 6a 12 1b bd 85 a1 6d 3c 5e 11 71 bd d9 11 c1 bd
       -0.037859358 0.014503841 -0.058854453 -0.09427232
000170 95 ec e1 bc c9 01 70 3d 56 df b1 bb 7c 09 d4 3b
       -0.027578631 0.058595452 -0.005428235 0.006470857
000180 5a 15 3c 3d 9f 71 d4 ba 92 1b 1b bc f2 95 c5 3a
       0.0459188 -0.0016208178 -0.0094670225 0.0015074594
000190 23 7b a9 3c 5d 28 34 bd f4 de 09 3c d0 5f bd bb
       0.020688599 -0.043983806 0.008414973 -0.005779244
0001a0 c7 2b 0e bd a1 9e ff bc 44 04 0f bd 97 ca 12 bd
       -0.034709718 -0.03120357 -0.034916177 -0.035837736
0001b0 de 63 3c 3d cf b8 fa 3c 9e 08 78 3d 40 2d 67 3b
       0.04599368 0.030605702 0.060555093 0.0035274774
0001c0 1c 2d 15 bd 4d 4b 02 bc 1c 6c 3e 3d d7 62 62 3c
       -0.036419973 -0.007952523 0.04648982 0.013817511
0001d0 14 d6 f2 3c c6 5b 90 bc d7 47 03 bd 48 ac 5f bc
       0.029643096 -0.017621886 -0.032050934 -0.013651915
0001e0 cd aa 04 ba 86 bf 3e bd ee 45 05 3d 05 f0 00 3d
       -0.00050608517 -0.04656937 0.032537393 0.0314789
0001f0 4e f5 0e 3d 26 9b 87 3d 13 e1 d7 bd cc 02 40 bd
       0.03490191 0.06621389 -0.105409764 -0.046877667
000200 b5 85 0c bd c3 8f 2d bd 9c c8 9e bc b8 1c a0 3c
       -0.0343072 -0.04237343 -0.019382767 0.019544944
000210 00 ec 09 bc 01 ee 67 bc 27 79 24 bd 56 68 9b 3c
       -0.008418083 -0.014155866 -0.040154602 0.01897065
000220 9a bc 49 bd 67 3e df bb 01 a6 0b bc 8e de 41 bc
       -0.04925213 -0.006812859 -0.008523465 -0.011832846
000230 a1 36 07 bd 02 a1 8d 3b bf 66 b4 3c b7 f7 19 bd
       -0.033011083 0.004322172 0.02202165 -0.037589755
000240 9b 7b 90 bb 90 88 24 bd d9 f4 8e bc 5f 7c 99 3c
       -0.004409266 -0.0401693 -0.017450737 0.018736063
000250 3a 05 10 bd 31 50 bb 3c 82 60 be 3b df cd 11 bd
       -0.035161234 0.022865387 0.0058098445 -0.035596725
000260 01 b0 0b bd a4 aa d9 bc 22 62 16 3c 67 37 32 3c
       -0.034103397 -0.026570626 0.00917867 0.010877467
000270 ee 52 69 bc 93 e6 cb 3c 85 a9 41 bd d5 72 2a bd
       -0.014240963 0.02489022 -0.047280807 -0.04161342
000280 79 d8 0b 3d 25 89 ce 3c a8 6c 90 3c 6d f4 80 bb
       0.03414199 0.02521188 0.017629936 -0.003935388
000290 a8 5d 5c 3c 38 bb 3e bd db b9 25 bd 1b f2 cd 3b
       0.013450064 -0.046565264 -0.04046045 0.0062849647
0002a0 0f 36 98 bb a2 be 15 bc 85 34 84 bd a6 c7 81 3b
       -0.004645116 -0.009139689 -0.0645533 0.0039605675
0002b0 4a ff 13 bc 3c fa 05 bd 9e 61 a0 3c 89 d9 0f bd
       -0.009033034 -0.032709345 0.019577798 -0.035119567
0002c0 1b fc d8 bc 57 cd 12 3d 97 f7 2b bd 18 c3 8a bb
       -0.0264874 0.03584036 -0.041984167 -0.004234683
0002d0 a4 a2 17 3d d7 2b 7b bc d4 f4 66 3c f6 af 40 bc
       0.03702034 -0.015330276 0.0140964575 -0.011760702
0002e0 52 c2 97 3c e5 6b 43 b9 31 1f 5c bc 94 27 20 3d
       0.018525276 -0.00018636843 -0.013435171 0.039100245
0002f0 05 6e 25 bc 81 e9 7d 3d 6b 9c 64 3b ad b3 0e 3c
       -0.0100970315 0.061990265 0.0034883271 0.00870983
000300 66 2e 1c 3d 06 cb 8e bd 71 3a a3 bb eb 32 61 bd
       0.038130186 -0.069723174 -0.004981332 -0.0549802
000310 3e ea e6 bc 47 2f b7 bc c2 ef fe 3c 17 0e df bc
       -0.028187867 -0.02236141 0.031120185 -0.027228398
000320 44 d9 dc bc 73 90 38 3b 72 39 90 3c c4 bb e1 bc
       -0.02695907 0.002816227 0.017605517 -0.027555354
000330 bb 78 38 bd 4f 2a 26 bd 3b 57 6f bd 1b 2a 6f bc
       -0.045037013 -0.040567692 -0.0584328 -0.014597441
000340 29 49 b5 bd 86 88 ab 3c f1 e7 b4 39 25 47 dd bc
       -0.08851845 0.020939123 0.00034505085 -0.027011463
000350 3d dc f4 3b 56 ad 79 3d 05 2b 76 3b d4 80 b4 3d
       0.0074725435 0.06095632 0.0037562263 0.088136345
000360 e2 8e 18 bc c6 22 c4 3c 43 4e 0c bd 23 86 0f 3c
       -0.00931141 0.023942363 -0.034254324 0.008760008
000370 0b d4 23 3d 9e 0a d9 bc 64 96 00 bc 22 17 9c 3c
       0.03999714 -0.02649432 -0.007848356 0.019054
000380 dc 19 b1 bc 30 99 0e bd 99 3c ac 3c ab 08 e6 bc
       -0.021618776 -0.03481406 0.021024989 -0.028080305
000390 80 07 95 bc 66 55 68 bd 73 83 78 bc e4 f3 2b 3d
       -0.018192053 -0.056722067 -0.015168059 0.04198064
0003a0 1e 83 6a 3d 34 c2 00 3d 08 4d fa bb 44 0f 3a 3d
       0.05725395 0.031435207 -0.0076385774 0.045424715
0003b0 54 bb 1d 3c 8c e9 f2 3c c4 54 0a bc f6 b4 47 3d
       0.009627182 0.02965238 -0.008443061 0.048756562
0003c0 ce af 10 bd 5d d4 cb 3c fc 4f 99 3a 65 8b ca bb
       -0.03532391 0.024881536 0.0011696811 -0.006181168
0003d0 9d 6f e8 3a 30 0b 47 3d 9f ff 35 bd 90 9f bc bc
       0.0017733459 0.048594654 -0.044433232 -0.023025304
0003e0 12 27 70 bd 74 55 9c 3c 0d 45 eb 3c ae 0e c8 3c
       -0.05863101 0.019083716 0.02871945 0.024421062
0003f0 e9 4c ae bc 08 be a6 3c 42 ca b3 bc aa 80 89 3c
       -0.021276908 0.020354286 -0.02194703 0.016784985

module.encoder.c2.main.0.bias f4 [64]
000000 57 03 44 38 be 4c 2b 38 a8 f7 c6 37 44 96 1e b8
       4.6733152e-05 4.084105e-05 2.3718763e-05 -3.781008e-05
000010 18 1f 2f 38 92 89 bc 37 c4 8c f2 38 ff c8 ad 38
       4.175221e-05 2.2475408e-05 0.00011565679 8.286721e-05
000020 ff be 25 35 38 2a bd 38 2c 27 39 38 b3 28 80 37
       6.1745226e-07 9.020086e-05 4.414392e-05 1.5277741e-05
000030 72 fa 98 b7 a3 a1 1e 38 3f f4 bf 37 85 93 4c 38
       -1.8236435e-05 3.782067e-05 2.288271e-05 4.877478e-05
000040 45 87 9e b7 6a 00 25 b8 c3 6a d4 37 ef bf b9 35
       -1.8898058e-05 -3.933945e-05 2.5322084e-05 1.3839434e-06
000050 6f bf b4 b7 d7 0b 23 38 6e f6 8a 38 a8 79 8c 38
       -2.1546815e-05 3.8873255e-05 6.626254e-05 6.6983805e-05
000060 b0 13 d4 38 0c 79 f0 37 34 c3 f2 b8 d9 8c 97 39
       0.00010112615 2.8666596e-05 -0.00011575819 0.00028905904
000070 56 63 b8 b8 47 20 43 b7 3c 71 58 38 bd 3c d0 38
       -8.7923065e-05 -1.1630421e-05 5.160387e-05 9.929526e-05
000080 f8 1d cc 38 b0 d5 b3 38 eb 70 7c 38 e7 0c 88 b7
       9.73306e-05 8.5751875e-05 6.0186645e-05 -1.6218472e-05
000090 01 45 fc 38 fe d5 6d 37 5b d8 c1 37 35 04 93 38
       0.000120291494 1.4176125e-05 2.3108141e-05 7.01029e-05
0000a0 45 4e 36 38 14 79 28 38 3c cd 41 38 d4 89 72 38
       4.3465076e-05 4.0167084e-05 4.6205925e-05 5.782566e-05
0000b0 06 b8 73 39 3e 2f df b7 6c 20 46 36 db 22 ae 36
       0.0002324284 -2.660567e-05 2.9523171e-06 5.189662e-06
0000c0 11 c3 79 36 5f 6c 05 38 c9 fd 71 38 fa ae 58 38
       3.7217435e-06 3.18106e-05 5.7695233e-05 5.1661373e-05
0000d0 1b 1f d3 38 97 df 4a b8 37 96 85 38 9b 5a 90 38
       0.00010067058 -4.8368787e-05 6.369914e-05 6.883332e-05
0000e0 f4 51 27 39 68 e7 ca 38 e4 29 22 b8 b8 48 2c 37
       0.00015956891 9.6752134e-05 -3.8662823e-05 1.026893e-05
0000f0 68 3b 54 38 dc d9 59 b7 d3 48 25 35 98 70 53 38
       5.0600065e-05 -1.2984932e-05 6.1573263e-07 5.041118e-05

module.encoder.c2.main.1.weight f4 [64]
000000 33 1e 7d 3f 4e 41 7b 3f 45 7e 69 3f ee 19 7f 3f
       0.98874205 0.9814652 0.91208297 0.9964894
000010 34 8f 84 3f a0 8e 80 3f 47 c8 75 3f 1b 5a 81 3f
       1.0356202 1.0043526 0.96008724 1.0105623
000020 23 89 79 3f 8f 2d 81 3f 11 1c 69 3f 96 90 82 3f
       0.9747488 1.0092028 0.9105845 1.0200374
000030 76 f9 7f 3f 5c 0b 80 3f d0 7d 6f 3f f3 8a 80 3f
       0.9999002 1.0003467 0.9355135 1.0042404
000040 93 a3 72 3f b0 35 7f 3f a1 4a 7e 3f 1d 56 80 3f
       0.94780844 0.99691296 0.99332625 1.002628
000050 27 39 71 3f 75 8c 7b 3f 70 1b 7a 3f 6d c3 80 3f
       0.9422783 0.98261195 0.97698116 1.0059639
000060 01 30 80 3f 03 fc 75 3f 1b 94 81 3f a5 e2 83 3f
       1.001465 0.96087664 1.0123323 1.0303541
000070 59 41 81 3f 51 cf 79 3f 8d 11 83 3f a1 92 80 3f
       1.0098068 0.97581965 1.0239731 1.0044748
000080 89 9d 81 3f f5 8d 76 3f 23 74 78 3f 4f e0 83 3f
       1.0126201 0.9631036 0.9705221 1.0302829
000090 e5 c2 8b 3f 79 31 83 3f 71 80 84 3f 4b 45 86 3f
       1.0918852 1.0249473 1.0351697 1.0489897
0000a0 6c 69 7d 3f c5 08 74 3f 73 66 86 3f d1 7e 76 3f
       0.98988986 0.9532588 1.0500015 0.96287256
0000b0 8b 75 7a 3f 7b d8 7d 3f 6b b8 79 3f 21 88 82 3f
       0.97835606 0.9915845 0.97547024 1.0197793
0000c0 7d 06 78 3f a1 34 6f 3f 47 88 7c 3f 92 65 81 3f
       0.968849 0.9343968 0.9864544 1.0109122
0000d0 ac 8a 81 3f b9 d4 86 3f 6d c7 80 3f c0 38 79 3f
       1.0120444 1.0533668 1.006086 0.9735222
0000e0 fb f1 89 3f 02 93 79 3f 74 46 81 3f b0 fc 74 3f
       1.0776972 0.9748994 1.0099626 0.9569807
0000f0 78 a3 87 3f 6c fd 79 3f 8f 5f 7a 3f 4f e6 83 3f
       1.0596762 0.97652316 0.9780206 1.030466

module.encoder.c2.main.1.bias f4 [64]
000000 01 2b 35 be bd 01 60 bd f1 3a 08 be 7f 59 2d be
       -0.17692186 -0.054689158 -0.13303734 -0.16928671
000010 ff 3b 78 bd ab ff 18 be 65 df d0 bd 49 15 a9 bd
       -0.06060409 -0.1494128 -0.10198859 -0.08256013
000020 0d 78 91 bd f8 1b 01 be 9a 79 39 be 90 ce 19 be
       -0.07102976 -0.12608325 -0.18112794 -0.15020204
000030 0e 14 a6 bd 61 70 20 be b5 5a fb bd e7 8e 92 bd
       -0.08109294 -0.15667869 -0.1227316 -0.07156163
000040 37 8a df bd 15 ab 5e bd c3 c9 bc bd e3 04 46 bd
       -0.10915034 -0.054362375 -0.092181705 -0.048344504
000050 2d c7 9c bd 35 1d 05 be f2 f7 0f be 5f 44 c8 bd
       -0.07655177 -0.12999423 -0.14059427 -0.09778666
000060 cc c8 b7 bd db 58 c2 bd 24 6a e3 bd 16 4f 0b be
       -0.08973846 -0.09489604 -0.11104229 -0.13604388
000070 ba 7d 4b bd 66 9d 22 be 90 a0 ac bd 29 e8 08 be
       -0.04968045 -0.15880355 -0.08429062 -0.13369812
000080 8d 60 9c bd e0 fe c5 bd 12 c8 2f be 34 89 df bd
       -0.07635603 -0.09667754 -0.17166165 -0.10914841
000090 78 ef a9 bd e1 b7 c1 bd 60 c7 83 bd 25 60 91 bd
       -0.08297628 -0.094589 -0.06434512 -0.07098416
0000a0 49 aa 0b be 9b 1a c4 bd 3b 14 67 bd 1b f9 c6 bd
       -0.13639177 -0.09575387 -0.056415778 -0.09715482
0000b0 64 73 ad bd 96 a3 a7 bd 04 bf d3 bd da 7f bc bd
       -0.08469275 -0.081854984 -0.10339168 -0.09204073
0000c0 bb ac a1 bd 20 a3 d9 bd de de 16 be 0e 53 2d be
       -0.07894274 -0.10626817 -0.14733455 -0.16926214
0000d0 c0 b6 cc bc ba 44 2a bc fb 6b be bd b9 83 e5 bd
       -0.024989486 -0.010392362 -0.092979394 -0.11206765
0000e0 08 3a 2a bc 87 6d ce bd c3 b1 07 be 49 1a 0c be
       -0.010389812 -0.100794844 -0.13251404 -0.13681902
0000f0 45 d6 13 bd 20 a0 cb bd 54 1c 5b bd 76 93 df bd
       -0.036093015 -0.09942651 -0.053493813 -0.10916798

module.encoder.c2.main.3.weight f4 [64, 64, 3, 3]
000000 23 61 01 bd 4e 94 3a bd 20 e4 12 bc 3a ce 88 bc
       -0.031586777 -0.04555159 -0.008965522 -0.016699899
000010 c9 45 73 3c a4 75 09 bb 27 96 49 bc 01 38 8e bc
       0.014848181 -0.002097466 -0.0123038655 -0.01736069
000020 a2 49 08 bd 11 dd 28 bc 8d 96 10 bd 12 e6 41 3c
       -0.033273347 -0.010306613 -0.035299826 0.011834638
000030 ba ea a9 3c 0d f7 1e 3d 92 68 e7 3c b3 46 23 bd
       0.02074181 0.038809825 0.028248105 -0.039862346
000040 9c b0 f4 3c d4 c6 fe 3c c9 ab da bc f7 e2 47 3c
       0.02986937 0.031100668 -0.026693242 0.012200109
000050 3c c5 d3 3b 27 69 dd bc 1d 8f 4d bc c5 68 55 bc
       0.006462721 -0.02702768 -0.012546328 -0.013025467
000060 f7 f2 f8 bc 51 3f 36 bc 8b 38 bd bc 14 b8 1b 3d
       -0.030389292 -0.011123494 -0.02309825 0.038017347
000070 45 cf 06 3d 1b da a9 3c 91 72 bb 3c d7 15 58 3d
       0.03291251 0.020733884 0.022881778 0.052755203
000080 a6 c9 fc bc d9 a4 97 3c ba 69 8a 3d c0 24 77 bd
       -0.030857872 0.018511223 0.06758447 -0.060337782
000090 b6 f2 b3 3b 02 23 63 3c dd ce 70 bc 75 ed d8 3c
       0.00549158 0.013863327 -0.014697758 0.026480416
0000a0 90 a4 76 bb 26 b2 70 3c 80 84 4d bd fc c2 be bd
       -0.0037634708 0.014690911 -0.05017519 -0.09314534
0000b0 1b 99 ae bc 6d d3 0d bb b6 7a 49 bd 62 1e 22 3c
       -0.02131324 -0.0021640912 -0.049189292 0.009894939
0000c0 80 b3 1f bc 67 ab 11 bd 20 1f c5 bc 78 e6 f7 bc
       -0.009747386 -0.035563853 -0.024062693 -0.030261263
0000d0 f0 3d e2 bc 7d ae 42 bd 4e 4f 64 3b ba 5f 0a bd
       -0.027617425 -0.047529686 0.0034837308 -0.0337827
0000e0 3d 39 c3 bc 42 49 34 ba b8 36 42 3d 40 b7 b1 3b
       -0.023831004 -0.00068773713 0.047415465 0.0054234564
0000f0 bd 04 a5 ba d9 a0 44 bb 2d bf 75 3b b7 c2 30 3d
       -0.0012589913 -0.00300031 0.0037497983 0.043154445
000100 a6 0a 86 bc 44 a6 cb bb 08 15 15 bd a5 1c 23 bc
       -0.0163625 -0.0062148888 -0.03639701 -0.00995556
000110 47 9b 84 3d 81 c8 49 bd ce 71 8a bd 15 31 8c bd
       0.06474929 -0.04926348 -0.06759988 -0.06845299
000120 92 30 9d 3b 57 06 69 bd 04 a0 06 3d ea ab ce bc
       0.00479705 -0.05689081 0.032867447 -0.02522846
000130 aa 5b 4b bd 17 2a 84 3b 4e ab 5c bd 3b 01 b7 bc
       -0.049647965 0.004033338 -0.053874306 -0.022339454
000140 bb 96 64 3d af 49 99 bb 4f c2 80 3d 0a 7e 0c bd
       0.05580781 -0.004677973 0.062870614 -0.034299888
000150 cb f1 c0 bb 14 a3 50 bd 06 24 29 bd 6e ef 06 bd
       -0.005888199 -0.050936773 -0.04129412 -0.03294318
000160 90 e0 0c 3c a8 cb 04 3d 4f d0 ed 3a 01 f8 f3 3b
       0.008598462 0.032420784 0.0018143746 0.007445336
000170 91 01 30 3d a1 f9 3c 3c a1 d8 08 3d 44 d4 e1 bc
       0.042970244 0.011534126 0.03340972 -0.027567036
000180 b2 f0 ee 3b 44 68 bb bc 7c 2f d7 3b 48 b8 12 3d
       0.0072918767 -0.022876866 0.00656694 0.035820276
000190 54 b5 63 3d d4 7e 81 3d 56 cf fa bb 5b 6d 47 bc
       0.05559285 0.06323019 -0.007654111 -0.0121720685
0001a0 73 0f 21 bd a1 de b9 3c 10 67 1d 3d 23 ba 47 bd
       -0.039321374 0.022689166 0.038428366 -0.0487615
0001b0 89 86 3f bd 89 1f 08 3c ea 7b f4 bc 6d 12 31 3c
       -0.046759162 0.0083083 -0.029844243 0.010807616
0001c0 0d 28 a3 bc c5 35 0f 3c 66 00 2a bd 9b 64 66 3c
       -0.019916559 0.008740847 -0.041504286 0.014062072
0001d0 cc 01 33 bc 38 49 c7 3c 0e 22 68 3d 24 71 a8 bc
       -0.010925721 0.024326906 0.056673102 -0.020561762
0001e0 7b 8e dd bc 1b 9c 88 bc e0 4e f7 3c 26 9d 66 3c
       -0.027045479 -0.016676 0.030188978 0.014075553
0001f0 52 52 1b 3b 6f b3 98 bc e0 bf dc ba e1 72 89 bc
       0.002370019 -0.018640248 -0.0016841851 -0.016778411
000200 5b ba c6 3b 9d 08 4f bd 2b a2 d8 39 a1 33 42 3b
       0.006064696 -0.050545324 0.00041319555 0.0029632824
000210 38 d0 29 3d 59 66 1e bd fd e8 79 bc b2 83 a4 bc
       0.04145834 -0.038671825 -0.015253303 -0.020082328
000220 dd 03 0a bc 77 b2 15 bc 38 50 5b 3b 21 2d af 3b
       -0.008423773 -0.009136788 0.0033464562 0.005345956
000230 29 cf 26 bd 1f 47 ec 3c fe 8f 89 3c b1 59 00 bd
       -0.040724907 0.028842507 0.016792294 -0.031335536
000240 b2 c9 fd 3c 12 01 6a 3c 74 92 30 3d a4 10 8d bc
       0.030979965 0.014282482 0.04310842 -0.017219849
000250 5c 93 04 bd 9e ef 46 bb 8e 3c c4 3b 92 fc 25 bb
       -0.032367095 -0.0030355225 0.005988664 -0.0025327546
000260 4b 90 1d 3c 32 36 48 bd 2f 2c c0 3c c2 a6 37 bc
       0.009616922 -0.04887981 0.023458568 -0.011209192
000270 a7 5d 50 3a 5f 2d 00 3c b1 22 a5 bc fa 90 16 bd
       0.00079485256 0.007823317 -0.020158144 -0.036759354
000280 80 ac 11 3d 3f 6c 56 3c c5 83 37 3c d8 f7 d5 bb
       0.0355649 0.013087331 0.01120085 -0.0065297894
000290 c9 fa 03 3d 48 f5 83 3a 8e ee 62 3c 15 ce d3 3c
       0.03222159 0.0010067606 0.013850821 0.025855104
0002a0 31 d2 f0 3b fa b3 0e 3b 93 34 bf 3c 5c f3 2c bd
       0.0073492755 0.0021774755 0.023340499 -0.042224273
0002b0 9e 5a de 3b ec ab 45 3b 4a 19 a4 3c 79 cd 39 3d
       0.0067857048 0.0030162288 0.02003159 0.04536197
0002c0 83 db 5a 3d 8c 6a 54 bc 20 5f ea 3c f9 35 25 bc
       0.053432 -0.012964856 0.028609812 -0.010083669
0002d0 24 47 9d bc 93 63 86 3c 1c 0a 81 3c b0 1d 26 bc
       -0.019198962 0.016404903 0.01575189 -0.010138914
0002e0 be ee ff 3a ae c8 46 3c 67 3c cc bc b4 67 58 3c
       0.0019526107 0.012132807 -0.024931146 0.0132083185
0002f0 69 fc 75 bd d6 96 bd ba 86 77 95 bc 09 7c 8f bb
       -0.06005517 -0.0014464508 -0.01824547 -0.0043788
000300 ab e6 e3 3c ba 46 10 3d e3 78 7d 3c 23 35 37 3c
       0.027819952 0.0352237 0.015470716 0.011182102
000310 be c6 13 3d ea 15 cd 3c 50 2b 39 3d 5e 97 03 3d
       0.036078207 0.025034864 0.04520732 0.032126777
000320 7c 95 11 3d af 1a e8 3d 96 1d cf 3c bc e1 11 3d
       0.03554295 0.113332145 0.025282662 0.035615668
000330 d4 d8 c3 bc 22 c6 5d 3c ce 0e 16 bd 7c b6 4a bc
       -0.023907103 0.013536008 -0.036635213 -0.012372609
000340 c6 ce bc bc b4 7f d2 3a f3 29 c9 bc b7 bd be bb
       -0.023047816 0.0016059787 -0.024556136 -0.0058209556
000350 3e 41 de bc 38 4e 14 3d 50 aa c4 bc 12 9a 56 bc
       -0.02713072 0.036207408 -0.024006993 -0.013098257
000360 f4 42 10 bd 6c b8 c1 3c c0 f6 e2 bb 92 eb 13 3c
       -0.0352201 0.02364751 -0.0069263875 0.009028332
000370 e2 f2 0c bd ba 61 af bd 3c 2b 38 bc e1 38 b3 3c
       -0.03441132 -0.08563562 -0.011240777 0.021877708
000380 20 f5 39 bc aa c6 0a 3d 60 c0 94 3c 99 88 e9 3c
       -0.011349946 0.033880867 0.018158138 0.028507518
000390 ed 18 41 3b fb b5 89 bc b4 ef 53 3d 4f 4b 11 bd
       0.002946432 -0.016810408 0.05174227 -0.03547221
0003a0 0c c7 06 bd d1 46 57 3d 41 b3 de bc e8 45 48 3b
       -0.03290467 0.05255777 -0.027185084 0.0030559245
0003b0 d2 8d 2a 3c 0f dc f1 bc 8d 4b 21 bd 86 a1 c1 3c
       0.010409789 -0.029523877 -0.03937869 0.02363659
0003c0 9a 86 7d bc 52 01 ff ba 13 39 aa bc 82 b2 08 bd
       -0.015473986 -0.001945535 -0.020779168 -0.033373363
0003d0 36 cd 17 3d 37 41 50 39 a6 11 a8 3c b8 21 dd 3c
       0.03706094 0.0001986072 0.020516228 0.026993617
0003e0 89 4f de 3d 6c f2 d0 bc d2 eb d0 bc b0 72 13 bd
       0.10855014 -0.02550622 -0.025503073 -0.035998046
0003f0 35 f5 e3 3a b3 51 03 bd 49 d5 90 bc 12 25 65 3c
       0.0017391803 -0.032060336 -0.017679827 0.013985889

module.encoder.c2.main.3.bias f4 [64]
000000 47 f1 68 37 55 59 6b 38 a7 2b ab b7 ef d9 2d b7
       1.3884454e-05 5.6111563e-05 -2.0405116e-05 -1.0362345e-05
000010 09 e6 94 37 81 e3 a1 b6 59 cc a3 b8 1a 02 2e b7
       1.7750093e-05 -4.824659e-06 -7.8105084e-05 -1.03716975e-05
000020 ca ce 87 b7 40 98 31 b7 7c 00 15 b6 a4 9e ac 37
       -1.6189548e-05 -1.0585471e-05 -2.2203012e-06 2.057787e-05
000030 3e a1 78 b5 38 ce b7 37 89 75 64 b8 d9 f6 23 38
       -9.262184e-07 2.1911328e-05 -5.44689e-05 3.9092123e-05
000040 4e 15 13 37 59 8c 2a b5 c0 6d 44 36 8d a5 ce b7
       8.766843e-06 -6.353417e-07 2.9270159e-06 -2.4634204e-05
000050 31 ef b6 36 3f ed 16 b7 42 97 23 b6 51 ef 87 b8
       5.451868e-06 -8.995935e-06 -2.4376936e-06 -6.481878e-05
000060 c8 ff 00 37 4f 1c 32 37 ad d9 15 b7 72 c2 69 38
       7.688948e-06 1.0616218e-05 -8.931774e-06 5.573262e-05
000070 f9 19 36 b6 bb a6 a8 b7 f8 10 b7 b5 07 52 81 b8
       -2.7135231e-06 -2.01048e-05 -1.3639501e-06 -6.166478e-05
000080 a5 94 a7 b7 51 c9 60 b8 9f b9 70 b6 90 56 e1 b7
       -1.997717e-05 -5.3593252e-05 -3.5870833e-06 -2.6862399e-05
000090 e2 ac 88 37 88 48 89 38 77 9e 76 b8 08 25 7f 37
       1.6292968e-05 6.546179e-05 -5.8798552e-05 1.5207806e-05
0000a0 f7 ab 98 b7 de 29 38 b7 d4 81 63 b7 e9 54 74 b7
       -1.819989e-05 -1.0977003e-05 -1.3560482e-05 -1.4563303e-05
0000b0 e7 42 4f b8 52 bf 8a 37 ce 8f 89 b7 2e 1e 78 b8
       -4.9414954e-05 1.6539972e-05 -1.6398637e-05 -5.9155915e-05
0000c0 cd f9 dd b7 14 19 33 37 fd 73 1d b8 1d cd 0d 38
       -2.6461576e-05 1.067507e-05 -3.753974e-05 3.3808046e-05
0000d0 9a e9 7c b8 dd ff 10 b8 4f 09 78 b7 5b a4 80 b6
       -6.029904e-05 -3.4570567e-05 -1.4784119e-05 -3.8338308e-06
0000e0 1d dc c7 36 d5 7b 76 b8 8c 15 a3 36 30 3b da 37
       5.9562867e-06 -5.8766298e-05 4.860287e-06 2.6015186e-05
0000f0 ec c2 10 38 fa 2a 7a b7 f8 d2 c1 37 a1 3d 5b b7
       3.451381e-05 -1.4911167e-05 2.3105633e-05 -1.3067766e-05

module.encoder.c2.main.4.weight f4 [64]
000000 de ad 7f 3f d7 b2 82 3f 04 b9 7a 3f 9b 52 81 3f
       0.99874675 1.0210828 0.9793856 1.0103334
000010 77 6b 7e 3f fe 74 7c 3f 6e ae 7e 3f d9 54 7b 3f
       0.9938273 0.98616016 0.9948491 0.9817634
000020 90 25 86 3f 8e 84 7b 3f f6 78 77 3f 6e 2b 7e 3f
       1.0480213 0.9824914 0.96668947 0.9928502
000030 ea 03 80 3f f6 d4 81 3f c5 27 81 3f dd 6f 82 3f
       1.0001194 1.0143116 1.0090262 1.0190388
000040 79 be 7e 3f d0 40 79 3f 3f 41 7d 3f b1 60 78 3f
       0.9950939 0.9736452 0.9892768 0.9702254
000050 11 ea 7d 3f 11 f9 7d 3f b3 d4 7a 3f 1c 51 81 3f
       0.9918528 0.9920817 0.97980803 1.0102878
000060 49 a8 81 3f db 3f 82 3f 55 d1 7c 3f d2 52 7f 3f
       1.0129482 1.0175737 0.98756915 0.9973575
000070 6b 55 82 3f 2a 6a 7a 3f a1 f6 75 3f d6 51 80 3f
       1.0182317 0.97818244 0.9607945 1.0024974
000080 5a d3 77 3f ce 49 84 3f 84 ad 76 3f 97 a1 7f 3f
       0.9680687 1.0335023 0.96358514 0.9985594
000090 b6 30 81 3f 19 cc 80 3f 96 e5 82 3f 71 f1 7c 3f
       1.009299 1.0062286 1.0226314 0.9880591
0000a0 b7 d5 7e 3f 97 3d 7f 3f 0a f3 80 3f 5d b3 77 3f
       0.9954485 0.99703354 1.007417 0.9675806
0000b0 8d a5 80 3f c1 f3 7e 3f 2b e3 80 3f f3 1b 81 3f
       1.0050522 0.9959069 1.0069326 1.0086654
0000c0 eb 87 7a 3f e6 f6 7f 3f c2 ce 78 3f 72 ab 82 3f
       0.97863644 0.9998611 0.9719049 1.0208571
0000d0 be 8c 80 3f cb a2 81 3f 04 2c 7d 3f 7c f0 83 3f
       1.0042951 1.0127805 0.9889529 1.0307765
0000e0 85 68 83 3f 20 0d 82 3f c2 fd 79 3f e9 a5 84 3f
       1.0266272 1.0160255 0.9765283 1.0363132
0000f0 18 d3 7f 3f d0 a8 83 3f 58 73 83 3f 9b 78 7e 3f
       0.9993148 1.0285892 1.0269575 0.9940278

module.encoder.c2.main.4.bias f4 [64]
000000 10 6a 8e bd 1e 83 70 bd dc 11 c8 bd 8e de dd bd
       -0.069538236 -0.058718793 -0.097690314 -0.108334646
000010 c0 c5 97 bd c2 4d 4f bd da 6b 97 bd ce f8 b0 bd
       -0.07410765 -0.050611265 -0.07393618 -0.08641206
000020 07 6b 00 be fc f7 49 bd 94 ad ba bd 4f 65 b6 bd
       -0.12540828 -0.049308762 -0.09115139 -0.08906042
000030 1d d3 7c bd 60 24 0c be 1f d5 fd bd 40 f5 a2 bd
       -0.06172477 -0.13685751 -0.12394165 -0.07956934
000040 1a 01 7f bd ee ad 25 bd 9f 59 da bd 61 1a da bd
       -0.06225691 -0.040449075 -0.10661625 -0.106495626
000050 2d d9 bb bc 6b 56 18 be db 1b 20 be cc 78 7c bd
       -0.022930706 -0.14876716 -0.15635626 -0.06163864
000060 51 2a 18 be d1 28 91 bd 66 2d e6 bd 1e b0 95 bd
       -0.14859892 -0.07087863 -0.11239128 -0.07308982
000070 eb f2 1e bd e7 c8 e9 bd 90 6c cd bd fa 7f 90 bd
       -0.038805883 -0.11415272 -0.10030472 -0.070556596
000080 46 31 0c be 4b d3 97 bd ef 5c 0e be 95 b0 28 be
       -0.13690671 -0.07413348 -0.13902639 -0.1647361
000090 56 53 65 bd 73 95 cd bd c8 73 bd bd a7 6f 22 be
       -0.05598768 -0.10038271 -0.09250599 -0.15862904
0000a0 d5 65 3e be 50 3e e5 bd d1 69 8e bc 59 de c4 bd
       -0.18593533 -0.11193526 -0.017384442 -0.09612722
0000b0 2e fc df bd a0 85 2a bd 44 7b e5 bd d4 67 2a be
       -0.10936771 -0.04163134 -0.11205152 -0.1664117
0000c0 08 fe f5 bd 8a f5 19 be 08 1a 15 be aa 4a 84 bd
       -0.12011343 -0.15035072 -0.14560711 -0.064595535
0000d0 11 bf 8a bd 2f 15 5f bd b4 ef 2d be 16 dd a6 bd
       -0.06774724 -0.05446356 -0.1698597 -0.081476375
0000e0 b7 04 fd bd c8 dc eb bc fa 9d 09 be d9 04 ad bd
       -0.12354415 -0.0287918 -0.1343917 -0.0844819
0000f0 d8 ac 0f be e3 42 0b bd 59 ca 8e bd 43 ff b3 bd
       -0.14030778 -0.033999335 -0.069721885 -0.08788922
