logs/exp4/model_iters_31000.pth (torch, 495376 bytes, 47 tensors)

module.encoder.c1.main.0.weight f4 [32, 3, 3, 3]
00000000: 5f39 033c 665d 553d ee95 3fbc 32bf ce3c
00000010: 1f68 a13d ebad d6bc 8d83 023d cada a73d
00000020: 40ad e43c fb09 8cbb c0a2 2cbc e5f8 02bd
00000030: 49f0 163c f9bb 2e3c 6b29 ae3c 9ad9 a73c
00000040: f091 9eba 7a57 6e3c 2070 b83a a7ba 13bd
00000050: 8c48 88bc bdb1 a73d e89b 063d 1cd8 13bc
00000060: 2000 98bb 75d5 1b3c 9025 ffbb a226 19bd
00000070: 9d4a 5fbd 581a 993c 20de 04bd f21c 1c3c
00000080: cbfc 8abc 634e 44bc 0e2d d93d d846 033d
00000090: 8c9e 08bc 2d6a 063c d06f d13c d973 9abc
000000a0: cd68 2dbb 683b a7bb e49e 3539 b839 c03c
000000b0: 96b4 223b f7cb 0ebd 572f d63c 07a5 47bd
000000c0: ad35 943c 3238 2abd cde5 993b 2a9c 2cbb
000000d0: 97e6 e53b 179d 413a 10c4 e93b 7915 0dbd
000000e0: 4c92 8d3c bd6b 6d3b d25e 74bc 8d8e 7e3d
000000f0: 4181 473d 8601 053d ea3f 3c3d e763 6a3b
00000100: 9791 983c e244 da3c 8889 693b 964f 6e3c
00000110: 4a67 f6bc a32d 983c 6717 95bc 2d49 80bc
00000120: cad5 acbc 391b 92bd 50a4 3ebd 809b 353c
00000130: 5d2c 723c 8e5b b33d 72ed f2bc 0baa e03c
00000140: 136b 9e3d 4a65 b7bc 0d1c f5bc 70e0 f73b
00000150: 543c eb3c ec81 733c 083f f3bb 0eb3 a93a
00000160: ecec f2ba fa58 8dbc 09b0 d03c 3828 0d3c
00000170: e761 293d 4a34 013d 9e83 7fbc 1a2e 683c
00000180: 565c 17bc c45f 2abd ce0b 38bd fe13 b43c
00000190: 67ac 26bc 01a4 50bd c54d 583d ba6e a3bd
000001a0: fa7e b8bd 4b26 973b 5b7b 55bd 314f 13be
000001b0: 29ed de3c e237 b33c 052a 143c a1ad b43d
000001c0: a3f8 a1bb cd89 1dbb 44ac 0f3d 13cf 023c
000001d0: 38ac dabc 3f3b 963d 3e65 dd3a 4bcc 253d
000001e0: 1cc1 8e3c 3023 433b 9221 1e3c 431b d9bc
000001f0: e774 4b3c 0b89 65bc 4f18 6ebb 2534 af3c
00000200: 753d b8bc 0f4b 793d 3226 dd3c fdb4 f0bc
00000210: 33b4 abbd daea 8bbc 6c39 c5bd e929 73bc
00000220: ab35 96bc e587 19bd 4ce5 a0bc d58b 833c
00000230: b1c6 d33b 131b 85bc 32fb 673b d43c ea3c
00000240: 5394 d43b a123 d9bc 2f6f bcbd 7186 043d
00000250: 1c71 9dbc 20f5 d0bb ff3d 523d a90f 8b3d
00000260: c6ba b9bb 8039 6cbc a518 213d e4eb bcbc
00000270: 5261 83bc 66e3 c2bb 3306 1abb e8ea 46bb
00000280: 5bab 2c3d 5339 19bd f00e 75bc ee07 993c
00000290: 3fcb e6bb fd45 c8bc 97a5 22bd 76e7 64bd
000002a0: 96de a93b 0871 24bc d402 7cbb 5751 3bbc
000002b0: 7c96 913c 0a7d 543c 3239 2b3d 9a29 7e3c
000002c0: 91a1 573c 9c79 0d3c 6654 a33c 27f1 a6bc
000002d0: 1a21 48bc 76cb 19bc c663 c2bc 9d3c 07bd
000002e0: e4bc c3bd 0f33 e33c 4a0f 4bbd c5d2 c7bc
000002f0: d197 4bbd 8921 2d3d 8a99 8bbc ad30 c03b
00000300: a653 243d 400e bfbd 8fad 6abc b731 023d
00000310: c594 38bc d378 853c fa51 eabb b7d9 e6ba
00000320: a62f 20bc b781 bcbb 8f4b 85bd 60b5 7bbb
00000330: 31a7 713d 5e9d 5a3c c740 d73c ca85 2e3d
00000340: b1c0 773d 22eb 293b a413 adbc 04ed 46bb
00000350: 1adf cd3c ae2a 45bc eea5 febc 064e 08bc
00000360: 4ed7 1ebc 5098 db3c 1ef4 163d a8e7 c23c
00000370: fbdc 983b 65b1 03bc d04f eebc b5d0 763c
00000380: 67d0 11bd 28ba a1bb 4152 053c 016b 073d
00000390: 5a5a 103d 2c8e dd3c 9030 afbc 9124 8abc
000003a0: 260e 1e3d 34bd 58bb ae35 abbd 759d 4bbd
000003b0: fa1d ecbd 90c7 cdbd a28c d9bd e3fb efbd
000003c0: 117b 67bc b63d 423b d81e a33c b022 b3bc
000003d0: 1a31 17bd c494 90bc 1f84 5d3c fb6e cb3c
000003e0: 4165 a83c bdab 34bd 945f 8cbb e754 ecbc
000003f0: db0d 37bc 26c7 b43b ac53 cd3a ef49 e33c
0.008009284 0.052091025 -0.011693461 0.025237653 0.07881188 -0.026205977 0.031863738 0.081960276
0.027914643 -0.0042736507 -0.0105368495 -0.031975646 0.009212562 0.010664933 0.021259984 0.020489503
-0.0012097936 0.014547223 0.0014071502 -0.036066677 -0.016636156 0.08188198 0.032863528 -0.009023692
-0.004638687 0.009511341 -0.00778646 -0.03739036 -0.054514516 0.01868932 -0.032438397 0.0095283855
-0.016966244 -0.0119815795 0.106042966 0.032049984 -0.008338582 0.008204025 0.025566012 -0.018854069
-0.0026460171 -0.0051035173 0.00017320696 0.023465022 0.0024826876 -0.034862485 0.02614562 -0.048741367
0.018092 -0.0415575 0.004696584 -0.0026338198 0.007016014 0.0007385774 0.007133968 -0.034444306
0.017281674 0.0036227547 -0.014915185 0.062147666 0.04870725 0.032472156 0.04595939 0.0035765113
0.01862411 0.026644174 0.0035634954 0.014545342 -0.030078549 0.018576449 -0.018199636 -0.015659893
-0.021098036 -0.071340986 -0.04654342 0.011084437 0.014781085 0.08757697 -0.029654238 0.027424833
0.077352665 -0.022387166 -0.029920602 0.007564597 0.02871529 0.014862519 -0.0074232854 0.0012947039
-0.0018533743 -0.017254341 0.025474565 0.008615546 0.041353133 0.031544007 -0.015595345 0.014171148
-0.009238323 -0.041595235 -0.044933133 0.02198219 -0.01017294 -0.050937656 0.05280854 -0.07980104
-0.09008594 0.004612719 -0.052119594 -0.14385678 0.027212696 0.021877233 0.009043221 0.088221796
-0.00494297 -0.0024038434 0.035076395 0.007983941 -0.026693448 0.07335519 0.0016891134 0.040478032
0.017426066 0.0029775612 0.0096515585 -0.026502257 0.012418008 -0.014009724 -0.0036330407 0.02138717
-0.022490242 0.060862597 0.026995752 -0.029383177 -0.0838398 -0.01707976 -0.09630093 -0.014841535
-0.018336138 -0.037483115 -0.019640587 0.016057888 0.006462895 -0.016248262 0.0035397527 0.028593458
0.006487408 -0.026506247 -0.09200894 0.032354776 -0.019218974 -0.0063768774 0.051328655 0.06790096
-0.005668017 -0.014418006 0.039330143 -0.0230617 -0.016037617 -0.005947518 -0.002350223 -0.0030352417
0.042155605 -0.037408184 -0.014957175 0.018680539 -0.007043272 -0.024447436 -0.0397087 -0.0558848
0.005184005 -0.010036714 -0.0038453834 -0.011432967 0.017771952 0.012969265 0.041802593 0.015512848
0.013161079 0.008634951 0.019937705 -0.020378662 -0.012214923 -0.009386888 -0.023729216 -0.03301679
-0.095575124 0.027734308 -0.049575128 -0.024392495 -0.04970533 0.04226831 -0.017040987 0.0058651776
0.040118836 -0.0932889 -0.014323606 0.031785693 -0.011265938 0.016292965 -0.0071508856 -0.0017612492
-0.009776985 -0.005752768 -0.06508552 -0.0038407668 0.058997337 0.013343183 0.026276005 0.04260806
0.0604865 0.0025927504 -0.02112753 -0.0030353675 0.025130797 -0.012034101 -0.03108498 -0.0083193835
-0.009694887 0.026806027 0.036853902 0.023792103 0.004665015 -0.0080379 -0.029090792 0.015064408
-0.03559914 -0.0049355216 0.008137287 0.03306103 0.035242416 0.027045332 -0.021385461 -0.01686314
0.03858771 -0.0033071758 -0.08359848 -0.04971071 -0.11529155 -0.10047829 -0.10622527 -0.117179655
-0.014128462 0.0029638833 0.019912168 -0.021867126 -0.03691206 -0.017649062 0.01352027 0.024833193
0.020556094 -0.044109095 -0.0042838547 -0.028849078 -0.011172737 0.0055169044 0.0015665195 0.027745215

module.encoder.c1.main.0.bias f4 [32]
00000000: e6bb 83ba be2c 8b3b e038 f0ba f2f5 913a
00000010: 3317 9dba 2c81 50ba 30b9 65b8 a109 14bb
00000020: 85ed 223b d076 4fbb 9012 08ba 50f1 f0bb
00000030: b334 96ba 81b9 e8b9 ad59 5f3b b9dc 8ebb
00000040: 5a00 27ba d63a 7939 264d d1bb 6a58 e93a
00000050: 95a1 10ba c6fe c43b bc39 1dbb d6ec 9cb9
00000060: 1ceb b3b8 3a9b 28ba 64c6 d93a 31a5 c8bb
00000070: e446 6bbb ae3d b23b 89e1 623b f9a0 37bb
-0.0010050505 0.004247277 -0.0018327497 0.001113592 -0.0011985063 -0.00079538184 -5.4770324e-05 -0.0022588747
0.002486081 -0.003165651 -0.00051907543 -0.0073529854 -0.0011459797 -0.000443887 0.003408055 -0.0043598083
-0.0006370597 0.00023768409 -0.0063873706 0.0017802839 -0.00055172417 0.0060118167 -0.0023990711 -0.00029931095
-8.579178e-05 -0.0006431822 0.0016614911 -0.006123208 -0.0035900408 0.0054394817 0.0034619293 -0.0028019531

module.encoder.c1.main.1.weight f4 [32]
00000000: 92a5 783f 3dc4 7a3f 9362 793f 5466 7f3f
00000010: 4457 803f 9ede 853f d8fa 7a3f 4500 8b3f
00000020: 7ce4 803f 3b2e 813f 0b2a 7b3f 1c2a 753f
00000030: 3698 853f 0db0 663f 9c97 853f 791a 833f
00000040: 1c18 763f 62e3 803f a4e4 7f3f 3c4e 773f
00000050: 4909 7c3f e03b 863f 2fbc 803f d1bc 6d3f
00000060: c6bc 803f 9360 723f b305 883f 3d3e 823f
00000070: 5358 773f ffea 793f a5b9 7c3f 5880 853f
0.9712764 0.97955686 0.9741604 0.99765515 1.0026631 1.0458562 0.9803901 1.0859457
1.0069728 1.0092233 0.9811103 0.9576738 1.0437076 0.9011238 1.0436893 1.0242454
0.9613054 1.0069392 0.9995825 0.9660375 0.9845167 1.0487022 1.0057429 0.92866236
1.0057609 0.9467861 1.0626739 1.0175244 0.9661915 0.976242 0.9872077 1.0429792

module.encoder.c1.main.1.bias f4 [32]
00000000: bd3f 72bd ce49 dbbd 8fe9 0ebe 8b7f 24bd
00000010: 893b e1bd 6b6c 9b3c 6e52 44bd c9b8 2cbd
00000020: 5999 03be 4cdc 29be 0597 27bd ace5 473d
00000030: 66ec 00bd 2b38 f6bc d686 35bd 513c d2bb
00000040: 37bf a9bc b527 d83c 2a85 2cbc 2e55 6bbc
00000050: f395 89bd 9ab0 6d3c ae95 263c 6fcd 4abd
00000060: d16d 72bc af91 6cbd 1657 2dbc 786e a8bd
00000070: 2863 adbd cdba 15be bcf7 29bd 7f63 7fbc
-0.059142817 -0.107074365 -0.13956283 -0.040160697 -0.109976836 0.018972596 -0.047930174 -0.042168412
-0.12851466 -0.16587943 -0.040915508 0.048803017 -0.031475447 -0.03005608 -0.044318043 -0.0064158817
-0.020721061 0.026386121 -0.010529796 -0.01436357 -0.06718054 0.014507437 0.010167522 -0.049512323
-0.01479669 -0.057756122 -0.010579845 -0.08224195 -0.08466178 -0.1462204 -0.041496024 -0.015587687

module.encoder.c1.main.3.weight f4 [32, 32, 3, 3]
00000000: 4296 a43c ddd8 c9bc 8da8 83bd 0a84 773c
00000010: 38e0 e7bc ebac a6bc d85a 843d 54df 05ba
00000020: ba53 97bd 43b1 4a3c 04e8 573d 53e6 dd3c
00000030: fabd 33bb 8870 363d 4ec2 95bc e80f 22bc
00000040: ff6f 323b 526e 44bc ed30 8ebd 558c 1abd
00000050: ad25 b73b 2a95 43bd 084b c7bb 5165 dd3b
00000060: 3015 a2bb 5cbe 28bd 9e53 8e3c f376 d738
00000070: fef1 fab9 fbfc 1f3c 8e74 4dbd 2ca9 7bbd
00000080: 1034 9e3c 3931 59bc d11f c83a 9b4a 73bb
00000090: ed36 3d3d f54b e0b8 409a 16bc adbc bb3c
000000a0: a240 8ebc 518c 3fba 7e09 8f3c 34d1 0abb
000000b0: cfa0 29bc 54b4 63bc 00b7 333d 6a8f f73c
000000c0: 25bc 1e3d 9542 1e3d d2d9 1bbd da95 4bbd
000000d0: 31e9 4ebc 19a9 b73c 2b69 a9bb a89c 8d3b
000000e0: 574a 163d 6a37 2fbb 6e23 683c 869a 6e39
000000f0: 0a46 253d c858 6c3c fcf4 eb3c c70b cf3c
00000100: 612a 7e3d f7fb 803d e11b 89bd e6bc cfbb
00000110: 54d4 ebbd 76ba 5abd 6bb8 073c aaeb 913c
00000120: 14be 393c 1ce4 163c 8cf4 083c dd20 f03c
00000130: 708f 39bc 8ee5 d939 9878 bbbc d92d e03b
00000140: f50f cbba f7aa 7e3c c8a8 273d 2292 173d
00000150: 7b2d c03c 37a1 cabb 3991 c63c af0f d4b9
00000160: 0e6c 34bc 020a d73b b04d 63bd 3204 123c
00000170: 458e 273b c7e3 d1bc 3c7d 02bd c8a2 163b
00000180: 70c1 ddbc d16b 2cbc 67dc bf3b 979a f4bb
00000190: 7a25 483c 9b7d 1d3d 9b9b 873c 963b c1bb
000001a0: 06f7 d7b9 3d49 d33b b050 ddbc 9c6d 51bc
000001b0: 5fa7 2cbc 37e4 35bd 3895 953c c5f3 943d
000001c0: 03b1 403c 6e57 2abc 5f3d 6abd 758d 8cbd
000001d0: 23cb 9ebd ad96 ed3b 86f8 313d e920 933c
000001e0: 2755 1e3c 65c7 b13b 56ed c1bb 2fbd 3d3b
000001f0: f23d 9eba be7e 553c 8648 133c 3cb4 d03c
00000200: 7bbe 183c 3e81 52bd bf52 47bb e231 5abd
00000210: 4f2c 83bd 57de 1bbd 482a aabd 9924 ac3c
00000220: 82df 1ebd a77b ba3c 064d 52bb a090 a7bc
00000230: c08c 8bbd c77f 26ba cb0d a0bc 514d 1fbd
00000240: cdf6 11bd 36d3 5dbd 9823 0bbd 3131 f43c
00000250: 5578 ab3c 216d d93c 3499 df3a 6c7d a1bc
00000260: 3e1b 7fbc 6400 d63c 5f94 9b3c daa3 4e3c
00000270: 83c6 a33a 195c de3c 45a6 db3c ead0 15bd
00000280: a4e2 2bbd 54f3 8fbd 51f6 cebc 8744 033c
00000290: 8a8b 1fbd e87b f43b fb8b 02bb 9530 7f3c
000002a0: bdc4 213d 55c4 293c 9151 d53c 4bcf a63b
000002b0: 89e0 dcbc a6cc b4bc 39df 5fbd 1d37 403a
000002c0: 8701 f0bb 8a83 2bbd 528c 85bc 590a 4abb
000002d0: e7db 23bd 2129 a1bc 2d5a 2abd 4df6 ccba
000002e0: b5d4 453c eede a13a b345 22bc 3172 5dbd
000002f0: 4fbb 263c e7fa 993b eae9 063d fdda e3bc
00000300: a24c bfbc a413 a63b 4b2f 4f3d 6dda a83b
00000310: 7305 43bd 057b 6939 262a 503d eb9d 02bd
00000320: 00f8 22bd 54da 793d 042c 98bc bcf4 a2bd
00000330: ace0 cdbc a2fe 4cbd b460 1dbd 2baf 1dbd
00000340: c389 0d3b 4da3 6839 9348 c4bc beaf 0a3b
00000350: 46da 16bb 2e4f bc3b 0172 c7bb 38a9 f4bc
00000360: 6622 1c3d a7ce 023d 600c 4abc 91a3 98bc
00000370: 5a64 6f3b 0d4c 7dbc 0d78 2b3c 1ead 29bc
00000380: 3076 c43c 2860 8bbc 897a 1b3d 3a0d 753c
00000390: 67bc e1bc 3662 adbc a0aa 3cbd 977c 473b
000003a0: c521 a3bb ffb8 5bbc 4df7 0f3d b1b6 32bd
000003b0: e655 be3c df6e a1bc a997 9bbc 2adf 29bd
000003c0: 17a2 0d3d 515e 233d f062 f93c 893a abbc
000003d0: 8f64 57bd 5a72 50bb 74a4 913b f2a5 30bd
000003e0: ead6 5a3c ad13 463c a82d 70bc f2bc 0dbc
000003f0: 7765 4bbc 28cc ad3c a098 643c 530e 7c3c
0.02009118 -0.024639541 -0.06428633 0.015107164 -0.028305158 -0.020346126 0.064626396 -0.0005106826
-0.073890164 0.012371364 0.0527115 0.027087366 -0.0027426467 0.044540912 -0.018281128 -0.009891488
0.00272274 -0.011989193 -0.069429256 -0.037731487 0.005589208 -0.047749676 -0.0060819425 0.0067564626
-0.0049463734 -0.041197166 0.017373856 0.00010274155 -0.00047864014 0.009764905 -0.050159983 -0.06144063
0.019311935 -0.0132563645 0.0015268271 -0.0037123326 0.04619496 -0.000106953004 -0.0091920495 0.022917116
-0.017364804 -0.00073069806 0.01746058 -0.0021181824 -0.010353281 -0.013897974 0.043875694 0.030219752
0.038753647 0.038637716 -0.038049527 -0.049703456 -0.012628839 0.0224195 -0.0051700077 0.0043216534
0.03669199 -0.002673591 0.014168603 0.00022755013 0.040349998 0.014425464 0.028803341 0.02527417
0.062052134 0.062980585 -0.066947706 -0.006339657 -0.11515108 -0.05340048 0.008283715 0.017812569
0.011336822 0.009209659 0.008359086 0.029312545 -0.011325702 0.00041560497 -0.022884652 0.006841403
-0.0015492426 0.015543691 0.040932447 0.037004597 0.023459187 -0.006183769 0.02423917 -0.00040447476
-0.01101209 0.0065624723 -0.05549401 0.008912133 0.0025566977 -0.025621308 -0.031857714 0.0022985209
-0.027069777 -0.010523752 0.0058551314 -0.0074647176 0.012215966 0.038449865 0.01655369 -0.005896996
-0.00041192042 0.0064479397 -0.027016014 -0.012782481 -0.010537951 -0.044407096 0.01825963 0.07273058
0.011760953 -0.010396821 -0.057187434 -0.06862918 -0.07753589 0.007250628 0.0434499 0.017960029
0.009663857 0.005425381 -0.005918185 0.0028951874 -0.0012072905 0.013030706 0.008989459 0.025476567
0.009322758 -0.051392786 -0.003041431 -0.05327023 -0.064049356 -0.038053837 -0.08308846 0.021013545
-0.038787372 0.02276404 -0.0032089367 -0.020454705 -0.06813955 -0.0006351438 -0.019537827 -0.038892094
-0.03563576 -0.054156505 -0.03396949 0.029808613 0.020931402 0.026541295 0.0017059208 -0.019713126
-0.01557046 0.026123233 0.018991647 0.012612307 0.0012495074 0.027143525 0.026812682 -0.03657619
-0.04196419 -0.07028833 -0.025263937 0.008011944 -0.038951434 0.00746106 -0.001991986 0.015575548
0.039494265 0.010361751 0.02603987 0.005090629 -0.026962535 -0.02207024 -0.05465624 0.0007332431
-0.007324401 -0.041873492 -0.016302262 -0.0030828922 -0.040004637 -0.019672932 -0.041589905 -0.0015637368
0.012074639 0.0012349763 -0.009904313 -0.05406398 0.010176494 0.0046990993 0.03293792 -0.027814383
-0.023351971 0.0050682593 0.05058221 0.0051529915 -0.04761262 0.0002226644 0.050821446 -0.031888884
-0.039787292 0.06099923 -0.018575676 -0.07956836 -0.025131546 -0.050047524 -0.0384223 -0.03849713
0.0021597005 0.00022186078 -0.023960387 0.002116188 -0.0023018285 0.0057467436 -0.0060865884 -0.029865846
0.038118742 0.03193536 -0.012332052 -0.018632682 0.003652832 -0.015460026 0.010465634 -0.010356216
0.023982137 -0.017013624 0.037958656 0.014956767 -0.027555658 -0.021164995 -0.04606116 0.0030439252
-0.004978391 -0.013410806 0.035147954 -0.04363126 0.023234319 -0.019706188 -0.018993216 -0.04147259
0.03457841 0.03988487 0.030442685 -0.020901935 -0.052586135 -0.003180644 0.004444653 -0.043127008
0.013356904 0.012089652 -0.014659323 -0.008651005 -0.012414328 0.021215513 0.013952404 0.015384275

module.encoder.c1.main.3.bias f4 [32]
00000000: de3b 5cb9 c45c 6b37 74d4 6f36 7984 20b9
00000010: 3276 43b8 74c6 e637 d9d2 4f39 f71c 71b9
00000020: 9878 1538 7e85 5439 5dcf 1138 9a68 92b9
00000030: 0104 92b8 6080 64b8 073c 4339 9d82 1938
00000040: 28d9 7bba 6f4b 433a a60f 0839 4784 6ab8
00000050: e4df a5b7 b773 263a aabc cab9 f0e5 1c39
00000060: 2925 21b4 bb17 3038 ea88 4738 88a7 a3b7
00000070: 5d61 6d37 4a74 87b8 f748 1236 52a0 dd38
-0.00021003137 1.402869e-05 3.573744e-06 -0.00015308139 -4.66017e-05 2.7510549e-05 0.00019819605 -0.00022994341
3.563668e-05 0.00020267625 3.4763816e-05 -0.00027925224 -6.962568e-05 -5.4478995e-05 0.00018619011 3.6599686e-05
-0.0009607249 0.00074499 0.000129758 -5.591314e-05 -1.977379e-05 0.00063496403 -0.00038669008 0.00014962978
-1.5007812e-07 4.198377e-05 4.757281e-05 -1.9509127e-05 1.414897e-05 -6.458962e-05 2.1798166e-06 0.00010567963

module.encoder.c1.main.4.weight f4 [32]
00000000: 50be 703f 84de 7a3f 5564 753f dd1e 763f
00000010: 8607 743f 0d21 7e3f dcb4 7d3f c044 6f3f
00000020: d333 763f da06 7e3f 1b1d 6f3f 4920 7f3f
00000030: 95d7 753f 8a6c 753f ea4e 803f 06e1 6f3f
00000040: c7b6 7d3f 69f5 783f d30e 783f 08de 793f
00000050: 7a52 703f 663c 793f 87c9 833f 4683 773f
00000060: c4e7 733f 6278 7c3f bf63 713f e9e2 713f
00000070: fed1 793f 1d5e 6f3f ce83 6a3f 8c4c 783f
0.94040394 0.9799578 0.9585622 0.96140844 0.9532398 0.9926918 0.99104095 0.9346428
0.9617283 0.99229205 0.93403786 0.9965864 0.9603208 0.9586874 1.0024083 0.93702734
0.9910702 0.97249466 0.9689762 0.9760442 0.9387585 0.97357786 1.0295876 0.9668468
0.9527552 0.9862119 0.94292825 0.9448686 0.9758605 0.9350298 0.9160737 0.969918

module.encoder.c1.main.4.bias f4 [32]
00000000: 9daf 783c 3264 7ebb dc12 87bc 33c7 58bd
00000010: 32e7 113c 1dbc ffba d86d 41bd e5e2 cebd
00000020: 244f 3abc 6e67 4ebd 6896 9dbd 4ed1 50bd
00000030: 60b2 d4bd aaa9 ebbd 3313 a5bc 2356 60bb
00000040: c4b0 9bbd 4255 8f3c 29fd babd 1245 63bd
00000050: a9a2 64bd 6e36 3dbd a9fe 1ebe ed00 4fbb
00000060: ef0d 983c f65f 34bd 9a5a 933b ac53 b7bd
00000070: 13a0 aabd f23f f3bd aa25 c2bd b28c bfbd
0.015178588 -0.0038817045 -0.016488485 -0.052924346 0.008905219 -0.0019511018 -0.047223896 -0.101018704
-0.011371408 -0.050391607 -0.07694703 -0.05098086 -0.10385585 -0.1150697 -0.020150756 -0.003423103
-0.07602075 0.017496709 -0.09130318 -0.055485792 -0.055819187 -0.046194486 -0.15526833 -0.0031586245
0.018561332 -0.044036828 0.0044968845 -0.08951506 -0.08331313 -0.11877431 -0.0947984 -0.093530074

module.encoder.c2.main.0.weight f4 [64, 32, 3, 3]
00000000: f034 e5bb 9167 87bc 75f6 743c 3b77 2bbb
00000010: 69a7 41bd 4362 25bc e58f 1fbc be3a 513d
00000020: b6dd 933c 03af 313d 4457 523c 4b8b 283b
00000030: 8ee0 79bc da41 04bd 9903 e1bc 91b8 073c
00000040: 6052 91bb d5ef 77bc ed47 7fbc 52d4 e8bb
00000050: 2010 72bc d081 7bbd a983 fabc 2b4a 25bd
00000060: 983b d5bc cc13 9d3c 7978 debb 906f 24bd
00000070: 1b27 8d3c 55c0 253b 3829 26bb a719 79bd
00000080: aefb 10bd b038 8e3c f45f 2d3d 4f19 8dbc
00000090: 9444 1bbd 20e7 dbbb 4222 4f3c 5cb2 a1bd
000000a0: 3dbf c1bc 5aca 833b 2cf3 b4bd 82a9 43bc
000000b0: 6164 46bc 9cc6 fab9 e758 c3bc 1140 f6bc
000000c0: a1ac f1bc ec1b 0b3b 0b33 0c3c 8374 d6bc
000000d0: ada1 f43c a82f 8dbc 64bc 0a3c f4d8 b1bc
000000e0: 43b9 85bc b53a 87bc f417 cabc 47d6 00bc
000000f0: f8bf 1fbd e5e3 6bbd 49ea 15bc c150 b53c
00000100: 2c8d 1dbd dac5 15bc 8216 4fbd fc69 5cbc
00000110: d820 a33c 6bb1 e83c fbfb c23d fa5d 1a3d
00000120: 2c8f e8bc 6129 8abd 8dbe 093b 6026 293d
00000130: 472d a2bc 53f7 a6bc 4c64 513d 9e2a 093d
00000140: d640 203d adb3 8b3d 5c7f 523d 446a 713d
00000150: f5ad 43bc bfad 1cbd 79dd d63c 9400 11bd
00000160: 7b84 25bd 4967 723c 7a4c 75bd a818 cabd
00000170: 94d0 c6bc 19d9 6b3d 094a adbb 678d 633c
00000180: 3f93 3f3d a09b 9a3a 336a 08bc 8024 133b
00000190: ec80 b53c c27a 33bd 41f2 e63b 2aa7 08bb
000001a0: 858c 12bd ecdc 23bd fa77 1cbd 68a6 15bd
000001b0: 0f48 4c3d f619 1e3d 0ca5 853d 7c9c d83b
000001c0: c880 05bd bfe1 81ba c70c 363d cd19 243c
000001d0: ff42 f43c ff58 b4bc 921e 12bd 71d2 86bc
000001e0: ad0a f03b af34 2cbd 8e91 1f3d d9db fc3c
000001f0: 6f1e 103d b526 8c3d bfd4 ecbd 8c77 61bd
00000200: a8b1 0abd 1fd9 50bd 72c8 8bbc 893c e33c
00000210: 2a20 2dbb 6f07 80bc c7bf 3dbd aa45 963c
00000220: a1bc 53bd 9167 fabb d562 dbbb f8c3 abbb
00000230: f151 2abd f4a6 dd3b 0e18 c53c 00b0 0abd
00000240: cf30 29bc ed79 1abd bb44 40bc 7859 bd3c
00000250: bb18 e7bc aa93 b33c daa9 493c 691c 16bd
00000260: 040b 23bd 596f c8bc 6b1e 633c c18e 453c
00000270: 4070 73bc 6813 953c 1b3f 7abd cc8f 15bd
00000280: e4f8 0d3d cfb4 a33c 7de9 ad3c 9292 e53a
00000290: 6d2e 9e3c cfbc 5abd ad6e 27bd 1f76 4d3b
000002a0: 22b3 bf3b 5d88 d3bb 2ca4 8abd 577e d33b
000002b0: be1b 8cbb 8716 ffbc 0175 693c e6d4 0dbd
000002c0: aa4f c2bc 399d 0a3d cf5f 08bd 3cc5 17bb
000002d0: f2ed 3a3d fd99 32bc a1d2 7e3c f58e 46bc
000002e0: 2e7e b73c eceb 4cbb df63 f7bb f959 0b3d
000002f0: 87f3 0cbc 125e 803d b30d de3b a70c 703c
00000300: cddc 173d f585 91bd 2c93 c7bb d9fb 71bd
00000310: 4bf7 cebc fa76 97bc 3d1e 093d 19b1 debc
00000320: 08a1 18bd 8f93 a63b c35d c63c 37d9 d3bc
00000330: e6a1 49bd 46ad 16bd 37e2 56bd 9608 a6bc
00000340: 78b8 b5bd 7606 963c 0b09 cbbb 5614 c4bc
00000350: 2b73 5f3c 767b 823d 5eb9 cb3b 5ec7 b93d
00000360: 2fa9 6ebc 356c f83c a081 0dbd 0663 343c
00000370: 0f89 3d3d 36c3 03bd 5bcc 26bc cd86 ab3c
00000380: 951b e9bc b0b9 36bd 8f3f 793c 184d efbc
00000390: 6910 b2bc 981d 6fbd e1c4 99bc 5f35 323d
000003a0: 1ef2 693d 3a75 f63c eba9 86bb 444b 363d
000003b0: 4a53 ad3a 3c62 f93c 7e86 2ebc 44b6 4b3d
000003c0: 6d0b 39bd 4947 d13c 641e b3bb 2819 6cbc
000003d0: 5275 83bb dccb 543d a315 33bd 56d6 03bc
000003e0: 3d7a 66bd 622f b43c cf0d b93c 0fc1 143d
000003f0: 408e b6bc 0333 bb3c a8f7 aebc 7adf 983c
-0.006994836 -0.016528876 0.014951338 -0.0026163596 -0.047278795 -0.010094228 -0.009738897 0.05108141
0.018050056 0.043379795 0.012838189 0.002571779 -0.015251292 -0.032289363 -0.027467536 0.00828375
-0.0044348687 -0.015132864 -0.015581113 -0.0071053887 -0.014774352 -0.061403096 -0.030580359 -0.040353935
-0.026029393 0.019174479 -0.006789264 -0.040145457 0.017230561 0.002529164 -0.0025354158 -0.06081548
-0.03539627 0.017361015 0.042327836 -0.017223982 -0.037907198 -0.006710902 0.012642445 -0.078953475
-0.02365076 0.004021925 -0.08835444 -0.011942269 -0.012108893 -0.0004783169 -0.023846103 -0.030059846
-0.029501261 0.002122636 0.0085570915 -0.026178604 0.02986225 -0.017234638 0.008467767 -0.021709897
-0.016323691 -0.016507486 -0.024669625 -0.007863588 -0.039001435 -0.057590384 -0.009150096 0.022133233
-0.03846471 -0.00914141 -0.050558574 -0.013453003 0.019913122 0.028404912 0.09520718 0.03768728
-0.028388582 -0.06746174 0.0021018118 0.041296363 -0.01979698 -0.020381605 0.05112104 0.03348791
0.039124332 0.0682138 0.05139099 0.058939233 -0.01194333 -0.038251635 0.026228653 -0.035400942
-0.040409546 0.014795133 -0.059887387 -0.09867984 -0.02426938 0.057580087 -0.0052883667 0.013888693
0.046771284 0.0011795647 -0.008326101 0.0022452176 0.022156201 -0.043818243 0.007047922 -0.002085159
-0.03577854 -0.04000561 -0.038200356 -0.03653565 0.049873408 0.038598977 0.06525621 0.0066104513
-0.03259352 -0.0009909197 0.04444578 0.010015917 0.029817102 -0.022015093 -0.035673685 -0.016457768
0.0073254914 -0.04204243 0.03895717 0.03086655 0.035185274 0.0684332 -0.115640156 -0.05504565
-0.033860832 -0.050988313 -0.017063353 0.027738826 -0.0026416876 -0.015628545 -0.04632547 0.018343765
-0.051693562 -0.0076417406 -0.0066951313 -0.005241867 -0.04158205 0.006764287 0.024059322 -0.033859253
-0.010326578 -0.037713934 -0.011735137 0.023113951 -0.028210035 0.021920998 0.012308562 -0.036648188
-0.039805427 -0.024467157 0.013862233 0.012057961 -0.014858305 0.01819773 -0.06109534 -0.03651409
0.03466119 0.019983677 0.0212295 0.0017514995 0.019309247 -0.05340272 -0.040877033 0.0031350923
0.0058502117 -0.0064554648 -0.067695946 0.00645427 -0.004275768 -0.031138672 0.014249087 -0.034626864
-0.023719627 0.033841345 -0.033294495 -0.0023158332 0.04563708 -0.0109009715 0.0155531475 -0.012119045
0.022399034 -0.003126855 -0.0075497474 0.03402135 -0.008602983 0.062679425 0.0067765354 0.014651454
0.037075806 -0.071056284 -0.0060905423 -0.05907807 -0.025264403 -0.01848935 0.033476103 -0.027184056
-0.037262946 0.0050835083 0.024214631 -0.025860412 -0.049226664 -0.03678634 -0.05246183 -0.020267766
-0.08873075 0.018313628 -0.0061961464 -0.023935478 0.013638298 0.063712046 0.006217166 0.090712294
-0.014566704 0.030325035 -0.03454745 0.011009937 0.046273287 -0.03216859 -0.010180558 0.020938301
-0.028455535 -0.04461068 0.015212907 -0.029211566 -0.02173634 -0.058377832 -0.018770637 0.04350793
0.057115667 0.030085195 -0.0041096113 0.044505373 0.0013223675 0.03044235 -0.010652183 0.04973437
-0.045176912 0.025546687 -0.0054662693 -0.014410295 -0.0040117884 0.051952228 -0.043721806 -0.008046707
-0.05626892 0.02199525 0.022589592 0.036316928 -0.022284627 0.022851473 -0.021358326 0.01866125

module.encoder.c2.main.0.bias f4 [64]
00000000: 837a 6a37 fa7a 5e38 5610 3937 4ee0 56b8
00000010: b3b9 f237 8d16 6737 8f6c 0d39 9f4b e838
00000020: a01b e3b7 085c 1239 70d6 7138 6a95 4a38
00000030: 5925 f9b6 b689 a938 8a99 1838 f393 8038
00000040: 2257 a8b7 53bb 08b8 3000 03b8 281c 1e38
00000050: 00c6 a1b7 fd79 5d38 df93 be38 2796 8d38
00000060: ffa4 0239 d12a 3738 d2f2 00b9 beb1 b039
00000070: 2533 96b8 dc69 16b7 df1a db38 7f21 0d39
00000080: ffde 2039 e294 ca38 5a41 9938 073b 5a36
00000090: c7cb 1039 0952 6237 c6ee 4338 86f9 7c38
000000a0: c029 aa38 3cd0 8b38 eb3a 5338 8875 3738
000000b0: e4c3 9139 fea2 04b8 9f8e 0eb6 1544 ee35
000000c0: 79ac c836 707c 5e38 da16 6b38 a1cf b638
000000d0: 0db8 1839 185d 2cb7 8dae e138 ffcc 8538
000000e0: df58 2539 69ce ed38 60f4 fcb7 4c35 8737
000000f0: 14ec 5e38 1cdd 9eb6 a885 a3b6 e834 b138
1.3976011e-05 5.3043455e-05 1.1030663e-05 -5.1230476e-05 2.8935121e-05 1.37739235e-05 0.00013487249 0.000110767076
-2.7073373e-05 0.0001395793 5.7658588e-05 4.8299706e-05 -7.425126e-06 8.0841986e-05 3.638262e-05 6.131073e-05
-2.0067735e-05 -3.2599386e-05 -3.123301e-05 3.7696358e-05 -1.9284897e-05 5.2804116e-05 9.087449e-05 6.751372e-05
0.00012459232 4.3670476e-05 -0.00012297489 0.00033701764 -7.162084e-05 -8.965344e-06 0.00010447739 0.00013459286
0.00015341862 9.659842e-05 7.307781e-05 3.251889e-06 0.00013808823 1.348975e-05 4.6713998e-05 6.031387e-05
8.114008e-05 6.666823e-05 5.0361192e-05 4.374006e-05 0.00027802505 -3.162305e-05 -2.1242665e-06 1.7752196e-06
5.980543e-06 5.3044816e-05 5.604965e-05 8.71711e-05 0.00014564414 -1.0273674e-05 0.00010761349 6.380118e-05
0.00015768733 0.000113394875 -3.0154537e-05 1.6118072e-05 5.314879e-05 -4.7345075e-06 -4.873338e-06 8.449872e-05

module.encoder.c2.main.1.weight f4 [64]
00000000: 5b7a 7e3f c222 7a3f 5e54 6a3f 7f73 803f
00000010: d846 833f 0e50 803f b0a7 753f 16ec 803f
00000020: e54f 7b3f c242 813f c5e9 683f cd2f 823f
00000030: a67c 803f 5219 813f 96d6 703f 2324 803f
00000040: f159 723f cc74 803f e33a 7e3f 1f37 7d3f
00000050: 17c5 713f acbb 7b3f 7359 793f 4f37 803f
00000060: 09b1 803f 21a9 743f 967c 803f 7efa 823f
00000070: e0b7 813f 4f10 7a3f 5fc2 833f 5e73 803f
00000080: eb1d 823f 71f7 763f cc12 763f 206e 833f
00000090: a426 8c3f 5e9e 833f 2b67 843f 94c3 863f
000000a0: 2e3e 7c3f 4b47 743f 6b5d 853f 332b 763f
000000b0: 73e3 793f ce3f 7e3f 9e93 793f b732 823f
000000c0: 8c2f 7a3f c89a 6e3f 1d8a 7d3f e62c 823f
000000d0: e480 823f 035a 873f 4e42 813f c137 7c3f
000000e0: 766f 893f 1021 7a3f 9d1b 813f 5ac7 763f
000000f0: f4b7 863f 1f8a 7a3f bfe8 7b3f 8ae8 823f
0.9940545 0.97709286 0.91534984 1.0035247 1.0255995 1.0024431 0.95958996 1.0072048
0.98168784 1.0098498 0.90981704 1.0170838 1.003804 1.0085852 0.9407743 1.0011028
0.9466849 1.0035644 0.99308604 0.98912233 0.9444136 0.9833324 0.97402114 1.0016879
1.0054027 0.9557057 1.0038021 1.0232694 1.0134239 0.97681135 1.0293692 1.0035207
1.016538 0.96471316 0.9612243 1.0267982 1.0949292 1.0282705 1.0343984 1.0528436
0.9853238 0.95421284 1.0419134 0.96159667 0.97612685 0.9931611 0.9749087 1.0171727
0.977288 0.9320493 0.9903887 1.0169952 1.0195584 1.0574344 1.009836 0.98522574
1.073714 0.977067 1.0086552 0.96397936 1.0524888 0.97867006 0.9840202 1.0227215

module.encoder.c2.main.1.bias f4 [64]
00000000: b1b6 55be 73a3 79bd e684 1abe 8b0b 3ebe
00000010: e6b1 9bbd 640e 26be 53f3 eabd 1644 bbbd
00000020: a48c 86bd a3fd 05be 1370 45be 8d12 2ebe
00000030: cbed adbd 74d0 23be a98e 0bbe c895 c5bd
00000040: 5b0c f4bd c532 84bd 81d2 d2bd 9583 5abd
00000050: a6be 90bd ea11 13be 70a9 2abe a4b9 e8bd
00000060: e721 b9bd 04f9 e2bd 7af3 0fbe e70b 26be
00000070: dd2c 5ebd b19d 33be bc7b cabd 4c2f 30be
00000080: 3571 a3bd 6364 ddbd b91b 3ebe 9558 08be
00000090: 3a9a bcbd a3ed eebd 59e0 88bd 32a1 afbd
000000a0: 9619 1bbe 0931 cdbd 350a 90bd f145 cbbd
000000b0: 4dd1 c0bd b096 b2bd 2ff6 eebd 6e50 d9bd
000000c0: 1c4e c8bd ac51 f3bd 1ab0 1fbe 0a61 4dbe
000000d0: 6777 cabc f677 e5bb a057 c2bd 00d2 e5bd
000000e0: 9d2f a5bc 3ac7 edbd 2382 1fbe e694 13be
000000f0: d67d 63bd 20a7 f2bd f812 80bd 3b4f 05be
-0.20870472 -0.060946893 -0.15089759 -0.18559091 -0.07602291 -0.16216427 -0.11472192 -0.09143846
-0.06569794 -0.13085036 -0.19281034 -0.16999264 -0.08492621 -0.15997487 -0.1362864 -0.09647709
-0.11916419 -0.06454996 -0.10294057 -0.053348143 -0.07067613 -0.14362302 -0.16666198 -0.11363533
-0.090396695 -0.11082652 -0.14057723 -0.16215478 -0.054242004 -0.17540623 -0.09886882 -0.17205542
-0.07980577 -0.10810163 -0.18565263 -0.13315041 -0.09209104 -0.11666419 -0.06683416 -0.085756674
-0.15146479 -0.10019118 -0.07033197 -0.0992545 -0.09414921 -0.087201476 -0.116680495 -0.10611044
-0.09780523 -0.11880812 -0.15594521 -0.20056549 -0.024715139 -0.007002826 -0.094893694 -0.11221695
-0.020164305 -0.11610265 -0.15576987 -0.14412269 -0.05553993 -0.11848283 -0.06253618 -0.13018505

module.encoder.c2.main.3.weight f4 [64, 64, 3, 3]
00000000: 00b7 31bd 1133 58bd 13d4 9abb 6754 15bc
00000010: 999d 723c e06b 0c3b 036b debb 964d 59bc
00000020: 235b 12bd 05b6 04bc 35d6 05bd d2f4 6a3c
00000030: 2f67 af3c eb33 193d 29ab db3c a5cf 30bd
00000040: e4f6 f33c 879e f93c 961b 0bbd cb1d 413c
00000050: fd38 de3b 4ff9 ddbc ff43 aebb 19d7 3ebc
00000060: a85e 0fbd fe5c 9bbc 5005 d9bc df87 0a3d
00000070: 8c0a 173d 4247 ae3c 6b9a 8c3c 4120 563d
00000080: 43eb 1cbd 4f17 813c 4560 843d 0bcd 7abd
00000090: 7b2f 193c 288d 8a3c cca1 0ebc 2582 073d
000000a0: c14c a0bb 1d5a 673c 82b6 62bd 6b5c d2bd
000000b0: a901 aebc 3c84 6dba 2caa 47bd 4a27 5d3c
000000c0: cac0 ebbb 252f 1dbd 71a2 00bd 90f0 99bc
000000d0: 8091 cebc 3267 3fbd a44d ee39 546d 13bd
000000e0: bd94 e5bc 8ff4 9ab9 8389 383d eb1c 173b
000000f0: 5843 113c 6db2 603b c4c7 6b3c 6da0 653d
00000100: 0a36 70bc 617f a8bb b509 20bd 6981 a7bc
00000110: e50f 8a3d 4b2b 42bd bdca 8ebd a338 8fbd
00000120: b82d e6b9 d899 8fbd 9a23 0b3d 5a33 abbc
00000130: aac9 6dbd 7b7b 8b3c c3fe 56bd b9ee b8bc
00000140: 655f 573d 2fc2 0f39 b02f 8e3d 8ff7 2cbd
00000150: 5a45 1ebb 4aff 4fbd cad9 28bd 66ba 02bd
00000160: 454e 6d3c 5352 0d3d 6d99 193c fe1f 4b3c
00000170: dbbe 473d 28d3 9f3c 7143 2c3d 0bc0 aebc
00000180: 2998 bd3c 2055 51bc aa36 4d3c 264d 063d
00000190: 552d 7e3d bd6e 653d 0d50 3fbc 61ae 68bc
000001a0: a562 67bd f785 b53c cc80 123d 2393 40bd
000001b0: c5e7 71bd 160c 023c 4189 febc 696e 0e3c
000001c0: 8428 c9bc 7086 de3b cf46 3cbd 8558 303c
000001d0: 0077 03bc e3e9 d23c 3b08 6b3d 3b2c 08bd
000001e0: 8671 1abd 8d8b 70bc 9f54 003d 9371 813c
000001f0: 9368 ac3b 2575 78bc 9660 643a 1ed6 86bc
00000200: 0087 293c fa6f 50bd bfa5 ba3b 8ea5 0d3c
00000210: 4a72 453d ecf5 19bd b280 45bc 3131 f9bc
00000220: ee84 36bc a4e2 82bc 60de 1eb9 5cc3 1e3c
00000230: 0c1e 22bd da55 ab3c 5f40 a13c e155 e0bc
00000240: 7ca1 153d 2a3f a13c a1b2 333d 7c3f 66bc
00000250: 5a62 d1bc 7246 9bbb 9fad 073c 7a69 6d38
00000260: c839 2f3c 84dc 64bd ba97 b83c 7496 0abc
00000270: 6e82 e93a b5f7 dc3b fd88 92bc edf6 1bbd
00000280: c10d f93c 3e64 743c 09eb ad3c 6604 dabb
00000290: cf33 0f3d 6aa3 2dba 3762 413c e1ae b13c
000002a0: 3b78 373c c643 b03b 67ae f13c d17b 0ebd
000002b0: 9750 7ebb dcd3 593a 6971 ba3c 28c4 233d
000002c0: bd0f 533d 5b51 1abc dde5 d93c eeac d4bb
000002d0: fb5b 6dbc a608 a73c 7525 4a3c 455e 4e3a
000002e0: db41 a53a 82f8 963c e894 d0bc 6332 793c
000002f0: e889 83bd ffa7 0ebb 1a88 4cbc 2f0f dc3b
00000300: d08f b03c 8cc9 093d c0a2 173c 7613 263b
00000310: 787b 043d 49be 953c cbb1 5c3d 5856 2b3d
00000320: 4c60 1d3d 1b7a ee3d 1174 9a3c fce8 333d
00000330: c117 a2bc fe03 c83c 6531 24bd 6bf0 38bc
00000340: 55a3 9abc f4a2 c83b 89fe eabc 5312 0cbc
00000350: 7b8f 01bd 5f52 ee3c e081 00bd f381 ccbc
00000360: 4675 26bd 8aa9 f33c f66c b3ba 563d 4a3c
00000370: 89c0 fcbc 57bd b1bd 6658 42bc b8da 9a3c
00000380: 6fff aebc 6045 393d de0f a83c 2d54 1b3d
00000390: 5676 0f3c bf40 89bc e82c 703d 8653 24bd
000003a0: 352f 05bd 0a64 563d e960 f8bc 3830 013b
000003b0: fddf 9c3b 595c e7bc aa03 26bd f62c 983c
000003c0: 58cc 28bc 5a8d 2cbc 1102 7cbc c62c abbc
000003d0: 53bf 263d 5413 73ba 08a4 d63c 149d 133d
000003e0: 17b9 e73d ca85 b9bc c2a4 00bd 6448 f1bc
000003f0: 1b90 82bb 9dba 0bbd 1127 b2bc 24c3 713c
-0.043387413 -0.052783076 -0.0047249882 -0.009114361 0.014808082 0.0021426603 -0.006787659 -0.013263127
-0.035731446 -0.008100037 -0.032674987 0.014340596 0.021411506 0.03740303 0.026815014 -0.043166775
0.029780813 0.0304711 -0.033961855 0.011786888 0.006781696 -0.027096419 -0.0053181644 -0.011647963
-0.03500238 -0.01896524 -0.026491791 0.033820983 0.036875293 0.021274213 0.017163476 0.052276853
-0.0383103 0.015758185 0.064636745 -0.0612307 0.009349699 0.016913012 -0.008705568 0.0330831
-0.0048919623 0.014120606 -0.055349834 -0.102715336 -0.021241026 -0.0009060537 -0.048746273 0.013498137
-0.007194613 -0.03837504 -0.031404916 -0.018791467 -0.025215864 -0.046729274 0.00045452744 -0.035992935
-0.028025026 -0.0002955538 0.045053016 0.0023058008 0.008866154 0.0034286038 0.01439089 0.056061197
-0.014661321 -0.005142138 -0.039071757 -0.02044745 0.06741313 -0.04740457 -0.06972263 -0.069932245
-0.00043903082 -0.07011765 0.0339695 -0.02089851 -0.05805365 0.017026654 -0.052489053 -0.02257477
0.05258121 0.00013709882 0.069426894 -0.042228278 -0.0024150223 -0.050780572 -0.041223325 -0.031916045
0.014483993 0.03450234 0.009374958 0.012397764 0.048766 0.019509867 0.042056505 -0.021331808
0.023143845 -0.012776643 0.01252524 0.03278842 0.06205495 0.05601381 -0.0116768 -0.014201731
-0.05649056 0.022158606 0.03576736 -0.04701532 -0.059058923 0.007937452 -0.031071307 0.008693316
-0.024555452 0.0067909285 -0.045965966 0.010763292 -0.008023977 0.025746292 0.057380896 -0.033245306
-0.03770592 -0.014681709 0.0313307 0.015801227 0.0052614897 -0.015164648 0.0008711902 -0.01645952
0.010347128 -0.05088804 0.005696028 0.008645428 0.048204698 -0.037588045 -0.012054609 -0.030418964
-0.011140091 -0.015977211 -0.00015150895 0.009690132 -0.039579436 0.02091496 0.019684015 -0.0273847
0.036530957 0.01968344 0.043871526 -0.014053222 -0.025559593 -0.0047386223 0.008281141 5.6603436e-05
0.0106949285 -0.055874363 0.022533286 -0.008458722 0.001781536 0.006743396 -0.017887587 -0.038077284
0.030402066 0.014916478 0.021230238 -0.0066533564 0.034961518 -0.0006623777 0.011803201 0.021689834
0.011198099 0.005379173 0.029502107 -0.03478605 -0.003880536 0.00083094626 0.022759156 0.03998199
0.05152868 -0.009418811 0.026598865 -0.0064903414 -0.014487262 0.020389866 0.012338032 0.00078723236
0.0012608127 0.018429045 -0.025461629 0.015209767 -0.06422788 -0.0021767614 -0.012483621 0.006715677
0.02155295 0.033639476 0.009255111 0.002534119 0.03234431 0.018279212 0.053880494 0.04183039
0.038421914 0.116443835 0.018854173 0.043923363 -0.019786717 0.024415966 -0.04008617 -0.011287789
-0.01887671 0.006122941 -0.028685825 -0.008549291 -0.031630974 0.029092012 -0.03137386 -0.024964308
-0.040639184 0.029743928 -0.0013689089 0.012343725 -0.030853527 -0.08678692 -0.011861896 0.018903121
-0.021362035 0.045232177 0.020515379 0.037922073 0.008756241 -0.016754506 0.058636576 -0.040118717
-0.032515723 0.0523415 -0.030319648 0.0019712579 0.0047874437 -0.028242277 -0.040530838 0.018576127
-0.010302626 -0.010531748 -0.015381352 -0.020895373 0.040709805 -0.00092725945 0.026201263 0.036038473
0.113146 -0.022646803 -0.031407125 -0.029453464 -0.003984464 -0.034113515 -0.021747144 0.014755998

module.encoder.c2.main.3.bias f4 [64]
00000000: 1271 4d37 0f41 9138 12c6 8cb7 b172 17b7
00000010: cc2c 7f37 2ded 8f36 f0d0 d3b8 2eea 29b7
00000020: 73e2 c9b7 b04e 4cb7 ffb8 3937 0c90 0938
00000030: a902 0136 4d1e 0538 40ea 84b8 804e 2638
00000040: f4c1 4937 2a82 97b6 8d90 0fb6 652a 17b8
00000050: 0c9a 4037 ca90 9eb7 0019 dab6 c525 c3b8
00000060: 25ad 1035 9c42 0f37 bbc9 17b7 4654 7c38
00000070: 72b6 2fb7 1a8d e6b7 d23d 4836 96a8 9eb8
00000080: 7f0d e4b7 5ea7 98b8 18e4 dab5 c788 05b8
00000090: 857d 8937 6bec cd38 1177 a0b8 658b ae37
000000a0: ddf1 fbb6 cf71 97b7 dad4 a5b7 c287 85b7
000000b0: a3bb 83b8 1790 d837 b274 b0b7 78bf 81b8
000000c0: a55c c5b7 ea8c 6037 47ef 53b8 0ab5 3438
000000d0: e5ea a1b8 b92d 36b8 6e1f d7b7 54b6 10b7
000000e0: 9885 1d37 c56a 97b8 4fe2 b136 cefa 2a38
000000f0: 9757 ef37 3b69 b0b7 6515 db37 110b 7fb6
1.2245278e-05 6.926257e-05 -1.6781534e-05 -9.027005e-06 1.52096145e-05 4.289343e-06 -0.00010100182 -1.0127709e-05
-2.4066516e-05 -1.2177668e-05 1.1069932e-05 3.27975e-05 1.9224046e-06 3.173789e-05 -6.337883e-05 3.9650593e-05
1.2025692e-05 -4.5153038e-06 -2.13928e-06 -3.604069e-05 1.1479959e-05 -1.890249e-05 -6.4998167e-06 -9.30536e-05
5.389614e-07 8.538973e-06 -9.04727e-06 6.0159968e-05 -1.0473292e-05 -2.7483842e-05 2.9838307e-06 -7.565429e-05
-2.7186003e-05 -7.2790994e-05 -1.630865e-06 -3.1837055e-05 1.6390122e-05 9.819198e-05 -7.6515724e-05 2.0807327e-05
-7.5085395e-06 -1.8053599e-05 -1.976865e-05 -1.5918053e-05 -6.281517e-05 2.5816304e-05 -2.1035175e-05 -6.186863e-05
-2.3527371e-05 1.33842495e-05 -5.0529165e-05 4.308395e-05 -7.720831e-05 -4.3434764e-05 -2.5644633e-05 -8.62552e-06
9.389034e-06 -7.2201285e-05 5.301357e-06 4.076474e-05 2.8531807e-05 -2.1029837e-05 2.6116797e-05 -3.8004403e-06

module.encoder.c2.main.4.weight f4 [64]
00000000: 8a10 7f3f b7fb 823f 4279 793f 72ab 813f
00000010: e138 7e3f 9bad 7b3f 8b37 7f3f b0fc 7b3f
00000020: 6861 863f c6cb 7b3f 3fec 753f c6a4 7e3f
00000030: 7158 7f3f b354 813f 7a56 803f df42 823f
00000040: fa56 7d3f c792 793f 668d 7c3f 5de4 773f
00000050: e69a 7c3f 7e97 7f3f 4041 7a3f 0b00 823f
00000060: 9a3f 823f eab6 813f eca5 7b3f ca07 803f
00000070: 1c3d 823f f8a9 783f 7fc5 753f 4c97 803f
00000080: c593 773f 321c 853f 0f3d 773f 748e 7e3f
00000090: 590d 823f afef 803f 484b 823f 6269 7c3f
000000a0: 1589 7e3f 9d06 7e3f 518f 803f f096 783f
000000b0: cfbd 813f e7ee 7c3f bd1d 813f 346f 803f
000000c0: e6e8 783f e2c5 7f3f 682e 7b3f 65c4 823f
000000d0: 3361 813f 1074 823f 2517 7e3f b660 833f
000000e0: 802a 833f 6ae2 823f 0c57 7a3f e6cf 853f
000000f0: 4533 813f 97e3 833f 6cd5 823f 864a 803f
0.9963461 1.0233067 0.9745065 1.0130446 0.9930554 0.98311776 0.99694127 0.98432446
1.0498476 0.9835781 0.9606361 0.99470174 0.99744326 1.0103973 1.002639 1.0176657
0.9896084 0.9748959 0.98653257 0.9683283 0.98673856 0.99840534 0.97755814 1.0156263
1.017566 1.0133946 0.9830005 1.0002377 1.0174899 0.9713435 0.9600448 1.0046172
0.96709853 1.039923 0.96577543 0.99436116 1.0160323 1.0073146 1.0179224 0.985983
0.9942792 0.9922884 1.0043737 0.9710531 1.013605 0.98802036 1.00872 1.0033937
0.97230375 0.9991132 0.98117685 1.0216185 1.0107788 1.019167 0.99254066 1.0263889
1.0247345 1.0225346 0.97789073 1.045407 1.0093771 1.030383 1.0221381 1.0022743

module.encoder.c2.main.4.bias f4 [64]
00000000: a931 9abd 9c0f 5ebd fc27 cfbd ff8f eabd
00000010: 10ff afbd 5797 9dbd a952 b0bd 7dc3 c6bd
00000020: 7dea 16be b903 43bd 95d4 cebd 208d bdbd
00000030: 5a93 9cbd f182 23be 2971 0bbe 5c2a 99bd
00000040: 6ccb 9ebd f975 1fbd e7b5 01be 4c0e f8bd
00000050: fd73 fdbc 6a1a 2fbe a3a6 4abe c38d 8bbd
00000060: 1151 2dbe a711 a7bd ee69 07be 354a abbd
00000070: 5eed 41bd 448b 05be 213f f0bd 637b 9fbd
00000080: c6fa 14be 7dba b6bd 38a4 1cbe e872 48be
00000090: 7d4d 9abd 5a96 e1bd 61cd e6bd e87d 3dbe
000000a0: 99c1 4ebe 2e17 06be a09c b9bc 2ebd e0bd
000000b0: 4d5f 03be 002f 3cbd 0353 16be e5c7 33be
000000c0: 06aa 0ebe d005 27be dfe2 21be a8ab 9fbd
000000d0: 0080 9abd 7186 8abd 6fb4 42be e30f d7bd
000000e0: eedd 0dbe 9b64 1abd 4d95 0abe 0cd5 ccbd
000000f0: ad9c 18be b166 1bbd 788a 9ebd b7ff f4bd
-0.07529003 -0.054214105 -0.10115048 -0.11453246 -0.08593571 -0.076948814 -0.08609516 -0.09705255
-0.14737888 -0.047610972 -0.100991406 -0.09255433 -0.076452926 -0.15967919 -0.13617386 -0.074787825
-0.077536434 -0.038930867 -0.12667046 -0.12112102 -0.030939097 -0.1709992 -0.1979013 -0.06814148
-0.16925456 -0.08157664 -0.13224003 -0.08363763 -0.04734551 -0.13041407 -0.11730791 -0.07787206
-0.14548787 -0.089222886 -0.1529702 -0.19575083 -0.07534311 -0.110150054 -0.11269642 -0.1850506
-0.20191039 -0.1309478 -0.022657692 -0.10973583 -0.12829323 -0.04594326 -0.14680104 -0.17556722
-0.13932046 -0.16310811 -0.158092 -0.07796413 -0.07543945 -0.06763924 -0.19014142 -0.10501077
-0.1385419 -0.0376936 -0.13533516 -0.10001573 -0.14903517 -0.03793973 -0.077412546 -0.11962836

module.encoder.c3.0.weight f4 [32, 64, 3, 3]
00000000: 85f3 aa3c 5dab 37bc 40a1 aebb d7f8 8d3d
00000010: e337 91ba e2c0 183d 4e87 813b bfd0 4cba
00000020: 0891 0f3d 589d 743b 232b c73b a4a8 9fbb
00000030: c37f 44bc e749 dc3c e2aa 2ebd 4ac2 b23c
00000040: 3127 723c 10af 66bb 5ef8 873a 766f 863c
00000050: f4fe 803c 2bf5 233d 982b 723c a915 fa3c
00000060: 90f4 843d 28a1 07bd 1315 753d 0c0c 4a3c
00000070: 87df a03c 59e9 ac3b c510 843c 1671 80bc
00000080: d886 3a3c 5807 7b3c b90f 92bc 0624 c0bb
00000090: ba2d 713c 4aeb 1cbd aff6 633c eaca b4bc
000000a0: 5105 793b da3e 3ebd 195f 81bc 084f 503d
000000b0: c3cb 16bd 3e13 0b3c 368e af3c 47c3 cd3c
000000c0: 08ac b73a ccbf b23c cc78 493d c7ef 2d3d
000000d0: a67f 16bd 59e0 e93c 4377 443d 5493 873c
000000e0: d43b 0e3c e287 d73c d43e 6ebc 652f 1cbb
000000f0: bddf 1f3d 6b8c 18bd 47ea 6a3c a9e6 e73b
00000100: e4ee a5bc e130 17bc ed32 703d 2dcb 5a3d
00000110: 4fe8 b63d 98fa b9bd fe5e 99bc 9d3d aebb
00000120: a176 8eb9 c0d9 853d fdc4 853d 6f00 4cbd
00000130: 1c68 95bd 5d2d e0bd 0399 063d f775 143c
00000140: 4303 eb3b 1cdb d73c 8888 0c3d 7542 b93c
00000150: 9ab5 a33d d2b7 3b3d ffc3 4d3c a229 e53c
00000160: 70e8 4f3d 011c 403d f5d8 c3bc 943c efbb
00000170: 447d 37bd a6ea b0bc 683a 39bd 7a09 2bbd
00000180: e80b 2cbc 345b 67bc 73bd 8c3c cd0d e4bb
00000190: f03e ea3c 9b23 863b 8a4d 893c 3d9e 3b3c
000001a0: c5bd c03c 64fe 57bc c8b4 30bd 4349 ccbc
000001b0: bc40 8dbc e69f e33b d4af e6bc 5f19 f1bb
000001c0: 87c3 0a3c b443 533d 31de 68bc 3757 84bc
000001d0: b393 603d 0c1d f33c dc9e 363a 0a1c 37bc
000001e0: 0d87 c33c b7ec 6b3c 065b 0bbb 66be ef39
000001f0: 0a57 2d3d c736 a43c b1e5 f7bb 59ef 903c
00000200: 000e 7ebb 7a1b 12bd 0c9b 3cbd 190b 32bc
00000210: 5396 f23c 7a69 2dbc 810c abbb 7b42 14bd
00000220: 5cda 0dbc 92a2 1cbd 5e05 85bc 08d4 09bd
00000230: 25db 9abd fefb c2bc cbd3 3fbd 5f1a 0ebc
00000240: 4cb2 6f3c d762 8c3d 7295 5fbb 8548 e63a
00000250: 41eb 763c 57ad c23b b9eb 693c 2f10 263c
00000260: 1587 a0bc 8f8f e93c e8b4 a0bc 8e6e 4b3d
00000270: 43b5 3d3b ed27 3c3d 2648 653d ab0c cb3b
00000280: 865d 573a b2a6 f93b 12c8 a73c 658b adbb
00000290: 20af 90bb 4de4 2cbd 430d 0abc e438 e8bb
000002a0: 7d69 ee3c bfd1 66bb 78f2 a93c 02fc 3d3d
000002b0: 9b88 e33c 1184 f2bb 5816 56bd e373 1fbc
000002c0: a6fc 81bc 5215 fbbb 5cf1 b63c edae 29bd
000002d0: b0f8 0dbd a11b c73c 1688 53bc fbb9 623b
000002e0: 00f7 34bd 22ec bfbc 7751 dfbb aebf 0cbd
000002f0: 4ecc b5bc 5204 c8bd 626e 40bd 4a48 99bc
00000300: 046c acbc c7e3 babc 8b65 4a3c 8190 0abd
00000310: 7559 cabc ce5f 55bb 57b0 6dbc fe3c 7f3c
00000320: be43 133c a3f5 a33b 35b0 c53d 61d3 2f3b
00000330: 90b9 e2bc c0d6 1fbc cf06 cabc 0f14 043d
00000340: 5a4a a33d 29ff 353d c465 8a3b 9e56 41bb
00000350: 8f51 a0bd 6729 1f3c 86c2 863c 72f6 35bd
00000360: 1d03 22bd f508 a5bb 2e2d 60bd 2c5c 96b4
00000370: 8aee e63c c250 87bb e8f4 b33c f32b 743c
00000380: edea 1ebc f2c7 35bd 7133 623c 7448 f1bc
00000390: 817d d8bc 084b 50bc bb58 07bd bc14 143d
000003a0: 4ac8 543d 8cb5 483d 16dc 883c 3a33 c7ba
000003b0: 3462 cebc ed19 86bc ba0c c138 b9f0 03bc
000003c0: 4416 153d 6d53 4dbc fbc9 143d fde1 873c
000003d0: c20c 093d 0c7d c23a c31d 9b3c 1339 9c3b
000003e0: e9c3 1fbd 2ae3 70bd e296 06bd 5a16 94bd
000003f0: 4269 823c 9a69 023c 7fc8 fcbc b44b 1cbc
0.020868072 -0.01121029 -0.005329281 0.06932228 -0.0011079278 0.037293322 0.003952897 -0.0007813088
0.035050422 0.003732523 0.0060781403 -0.0048723985 -0.011993351 0.026890708 -0.042643435 0.02182116
0.014779852 -0.003519956 0.0010373702 0.01641057 0.015746571 0.040028732 0.014780901 0.030527906
0.06491959 -0.033112675 0.05983455 0.012331974 0.019637836 0.0052768406 0.016121278 -0.015678924
0.011384688 0.015321575 -0.017829763 -0.0058636693 0.014720375 -0.038310327 0.013913794 -0.022069413
0.0037997554 -0.04644666 -0.015792416 0.05085662 -0.036815416 0.008488474 0.021430116 0.02511753
0.0014013061 0.021819972 0.049187467 0.042464998 -0.03674283 0.02854936 0.0479653 0.016549744
0.008681256 0.026309911 -0.014541347 -0.002383196 0.039031733 -0.037243288 0.014338083 0.0070770574
-0.020255513 -0.009227962 0.058642317 0.05341642 0.08931028 -0.09081 -0.018722054 -0.0053174035
-0.00027172736 0.06535673 0.06531713 -0.0498051 -0.07295248 -0.10946152 0.032860767 0.009061328
0.0071720197 0.026349597 0.034309894 0.022614697 0.07993622 0.0458296 0.012558936 0.027973954
0.05075878 0.046901707 -0.023907164 -0.0073009226 -0.044797197 -0.021596264 -0.045221716 -0.041757084
-0.010500886 -0.014120866 0.01718018 -0.006959653 0.028594464 0.0040936 0.016760606 0.011451301
0.02352799 -0.01318321 -0.043141156 -0.024937278 -0.017242782 0.0069465516 -0.028160013 -0.007357761
0.008469469 0.05157824 -0.014213131 -0.016154869 0.054828357 0.029676937 0.0006966421 -0.011176119
0.023868108 0.014399699 -0.002126397 0.0004572749 0.042319335 0.020045651 -0.007565223 0.017692255
-0.003876567 -0.035670735 -0.0460463 -0.010866904 0.029612696 -0.01058423 -0.0052199964 -0.036196213
-0.008658018 -0.038240977 -0.01623791 -0.033649474 -0.0756133 -0.0238018 -0.04683284 -0.00867328
0.014629912 0.0685479 -0.0034116176 0.001756922 0.015070737 0.005941074 0.014277392 0.010135694
-0.019595662 0.028510837 -0.019617513 0.04966598 0.0028947152 0.045936514 0.05597701 0.0061965785
0.0008215535 0.0076187486 0.020481143 -0.005296158 -0.004415408 -0.042209912 -0.008426013 -0.00708686
0.029103035 -0.0035220233 0.0207455 0.04638291 0.0277751 -0.0074009974 -0.052267402 -0.009732219
-0.015867542 -0.0076624537 0.022331886 -0.041426588 -0.034660995 0.024305167 -0.012910863 0.0034595716
-0.04418087 -0.023428027 -0.0068151313 -0.034362487 -0.022192147 -0.09766449 -0.04698027 -0.018711228
-0.0210476 -0.02281369 0.012353311 -0.033829216 -0.02470086 -0.0032558325 -0.014507375 0.0155785065
0.008988319 0.0050036474 0.096527494 0.0026828873 -0.027676374 -0.00975579 -0.02466145 0.032245692
0.07973166 0.044432793 0.004223557 -0.002950109 -0.07828056 0.009714461 0.016450178 -0.04442448
-0.03955375 -0.005036468 -0.054730587 -2.800674e-07 0.028189916 -0.0041295 0.021967366 0.014903056
-0.009699565 -0.044380136 0.01380621 -0.029453494 -0.026427032 -0.012713201 -0.033043604 0.036152586
0.051948823 0.04900126 0.016706508 -0.0015197762 -0.025193311 -0.016369784 9.205328e-05 -0.008052998
0.036398187 -0.012532097 0.036325436 0.016587252 0.033459432 0.0014838292 0.01893509 0.004767546
-0.039005194 -0.05881039 -0.032858737 -0.07230826 0.015919331 0.007959748 -0.030857323 -0.009539533

module.encoder.c3.0.bias f4 [32]
00000000: 0c66 94b7 f481 e034 4801 c435 e140 84b6
00000010: 284c 5637 6697 3c36 f036 c737 cfe8 05b7
00000020: b668 37b7 1981 6ab7 893e 3137 19ef 24b7
00000030: e8fc 34b7 86bd 96b6 eb8b e736 de02 4837
00000040: f98d 1d37 78ad 8437 0cd3 01b7 3455 1837
00000050: c271 4f36 d74c d336 1ae0 d336 5e29 01b8
00000060: 2504 7237 4c8a e836 b6f7 df34 65bd 4c37
00000070: 2db0 9d37 d8d0 3937 f0fa b8b6 e160 b334
-1.7690494e-05 4.1817805e-07 1.4603511e-06 -3.9414595e-06 1.27731255e-05 2.8102309e-06 2.374823e-05 -7.981623e-06
-1.093203e-05 -1.3977545e-05 1.0564582e-05 -9.830831e-06 -1.078772e-05 -4.492412e-06 6.900625e-06 1.19215965e-05
9.390985e-06 1.5816404e-05 -7.738137e-06 9.079744e-06 3.091162e-06 6.2972354e-06 6.314379e-06 -3.0794523e-05
1.4425289e-05 6.9302387e-06 4.171722e-07 1.2203444e-05 1.8797897e-05 1.10754845e-05 -5.5128403e-06 3.3411837e-07

module.encoder.c3.1.weight f4 [32]
00000000: a8fa 9e3f a7bd a13f 1988 963f cdb1 9d3f
00000010: 270a 8d3f d0b9 a13f c1ec 8f3f af80 9f3f
00000020: 76d1 a53f 8aa5 8c3f 0345 853f 63f7 913f
00000030: 4b7e 933f 0aed 973f 4bf9 943f 9e69 a03f
00000040: 0c7d b53f 628e 9b3f 527d 943f 2db1 a73f
00000050: 59af 9e3f 9581 913f f08d 963f 3172 983f
00000060: 23cc a33f db51 b23f 8ae1 9d3f b0b5 9a3f
00000070: ca1b a03f 8dca 893f a9e9 9b3f 4814 873f
1.2420244 1.2636002 1.1760284 1.2319885 1.1018723 1.263483 1.1244127 1.2461146
1.2954547 1.0988019 1.0411686 1.1403621 1.1522917 1.1869214 1.1638578 1.2532232
1.4178786 1.2152827 1.1600745 1.3100945 1.2397262 1.136767 1.1762066 1.1909848
1.2796673 1.393123 1.2334454 1.2086697 1.250848 1.0764939 1.2180682 1.0553064

module.encoder.c3.1.bias f4 [32]
00000000: ce49 c3bc bbd9 333e 2697 573b 0baa f43d
00000010: d9cc e03d a18a 10bd 954a bb3b 3f7f 03be
00000020: e36a 1abe 73bf 8c3d 9f66 f7ba 3f47 093e
00000030: 4c8b 46bd cf88 89bc fb7f 4d3e 11f9 3fbe
00000040: d89c f0bd 2e36 303d 9652 eb3d ba09 eebd
00000050: 8424 a23d 5f07 143d 18c5 c6bd ccd0 21bd
00000060: 1267 bfbd 1876 c53d 6f10 d7bc 152f 1e3e
00000070: cf8b c5bd 02d6 f43c 3984 04be 7790 adbc
-0.023838904 0.17563526 0.0032896488 0.119464956 0.109765716 -0.035288457 0.005715678 -0.1284151
-0.15079837 0.068724535 -0.0018875188 0.13406084 -0.048472688 -0.016788868 0.20068352 -0.18747355
-0.117486656 0.04302042 0.114903614 -0.11622949 0.07917121 0.036139842 -0.097055614 -0.039505765
-0.09345831 0.09641665 -0.026252953 0.15447648 -0.09645807 0.029887203 -0.12941064 -0.02118705

module.encoder.c3.1.running_mean f4 [32]
00000000: 26f2 7a3e 09e8 80bd edb8 323d 7f7a 34be
00000010: bf50 b9be 0a82 e9be 3e6e 0ebd bcb7 1f3e
00000020: d088 213f 7432 82be 6f22 963e 92f2 df3d
00000030: 7b2e 133f e09e 313e a1d0 12be 571c a0bd
00000040: d2f2 45bd 6dc1 923d 0097 d33e e0fc 183f
00000050: c50c 313f 2cf1 a23d d4e6 3cbe 88f0 c9be
00000060: 16bc dabe 7916 8d3e 17fd 4ebf 5e7a fe3e
00000070: f463 953e 013e e03d 932f ccbe a3b0 d9bd
0.24506435 -0.06294257 0.04363339 -0.17624854 -0.36194417 -0.45607024 -0.034773104 0.15597433
0.63099384 -0.25429118 0.29323146 0.109349385 0.574928 0.17345762 -0.14337398 -0.078179054
-0.048327275 0.07165799 0.4132614 0.59760857 0.6916011 0.07956156 -0.18447429 -0.39441323
-0.42721623 0.27556208 -0.80854934 0.49702734 0.2917782 0.10949326 -0.39880046 -0.10629394

module.encoder.c3.1.running_var f4 [32]
00000000: 8927 da3e a2c5 da3e 5f51 c13e de12 803e
00000010: dab4 ab3e 07c6 943e 9ac1 8c3e e370 903e
00000020: 7fd6 843e 6e09 dc3e 423d f83e bd92 8b3e
00000030: e1b0 d03e a588 903e 7770 933e c544 ae3e
00000040: 6c5f 113f 1bae 0a3f c11a ba3e 8246 143f
00000050: 1415 a63e 09fa b63e 9c17 a43e a50e 733e
00000060: 2621 9e3e 39eb a63e 1aa9 ec3e 85d4 fc3e
00000070: ac55 a83e ca13 bf3e 2447 bd3e c3d3 c03e
0.42608288 0.42728907 0.37757394 0.25014395 0.33536416 0.29057333 0.27491456 0.28211126
0.25944898 0.42975944 0.48484236 0.2726039 0.40759948 0.28229252 0.2879674 0.34036842
0.5678623 0.54171914 0.36348537 0.57920086 0.32437956 0.35737637 0.32049263 0.23736055
0.30884665 0.32601336 0.46222764 0.4938089 0.32877862 0.37319785 0.36968338 0.3766156
